Models/finalModels/eeV3.pth (torch, 766299 bytes, 48 tensors)

baseModel.0.weight f4 [64, 2, 3]
000000 ce 23 69 be e4 51 e0 bd 15 0a 40 3e ec 9c e2 bc
       -0.22767565 -0.109531194 0.18753846 -0.027662717
000010 de 2d 4b be dd e3 3b be 95 3d b3 be c5 e5 95 3d
       -0.19841716 -0.18348642 -0.3500792 0.07319216
000020 20 dd a2 bd 47 e0 bb 3e fc ae 83 3e 6a fc 61 be
       -0.079523325 0.36694548 0.2571944 -0.22068945
000030 8e e8 50 3e 7e 37 78 3e e4 9a e7 3d a7 c5 64 be
       0.20401213 0.24239919 0.1130884 -0.22341023
000040 58 7d 0d bd 8b 81 9a 3b 7d 2a 8b 3d 6b 57 5c 3e
       -0.034543365 0.0047151498 0.06795213 0.21517722
000050 f8 cd 62 3e 25 e5 82 3e 6f f7 d2 3d c9 5f 66 be
       0.22148883 0.25565448 0.103011005 -0.22497477
000060 aa 92 73 be ef 3e a0 3e 40 38 57 3e e8 ef 33 bc
       -0.23786417 0.31298015 0.21017551 -0.010982491
000070 a2 c1 8f 3d d0 7d a3 bb e4 4a a7 3e ef e8 99 3d
       0.070193544 -0.0049893633 0.32674325 0.07515132
000080 5c 4d 32 be 0d 83 80 3e 76 21 72 be c9 01 52 be
       -0.17412323 0.25099984 -0.23645577 -0.20508493
000090 0e eb 8d be 2a b3 50 be 4e 9d 01 3d d3 f5 28 3e
       -0.27718395 -0.20380846 0.031644158 0.16500024
0000a0 d4 c6 8d 3e d7 ec a6 3e 33 61 91 be 89 f7 da 3d
       0.27690756 0.3260257 -0.2839447 0.10691745
0000b0 5f 4f ca 3d 87 b4 3c be 3d 4a 93 be 9e 69 3c 3e
       0.0987842 -0.1842824 -0.28767577 0.18399665
0000c0 02 7b 09 be 2b fe a6 be 33 3f 8d 3e 97 92 8d be
       -0.1342583 -0.3261579 0.2758728 -0.27650902
0000d0 86 4c 38 3e 30 b1 92 be c9 b0 41 bd ec 61 13 3d
       0.17997941 -0.28650808 -0.047287736 0.035982057
0000e0 89 0f 72 be c5 7d 55 3e 23 58 ad 3e 29 78 22 3a
       -0.23638739 0.20848759 0.33856305 0.0006197715
0000f0 1a 1c 52 3e 2d 97 18 3e 2a 03 d0 bd 8b 0a a0 3e
       0.20518532 0.14901419 -0.101568535 0.31258044
000100 fd a2 da 3e 41 37 28 3e c4 2e 00 3e 7b bf 91 3e
       0.42702475 0.16427328 0.1251784 0.284664
000110 81 14 7c be f2 3b 5b be e0 7a f5 bd b5 d9 1f 3d
       -0.24617197 -0.21409586 -0.11986327 0.03902598
000120 b1 cb 9b 3e 37 14 75 be ff 15 ca be ee 62 ca bd
       0.30428842 -0.23933493 -0.39469907 -0.098821506
000130 cd 02 60 bd b1 86 e9 3d 60 97 c7 bd a4 82 40 3e
       -0.05469017 0.114026435 -0.09745669 0.18799835
000140 df fb 30 3e b0 65 8a 3e a4 9f 8e 3e 57 df f8 3d
       0.17283581 0.27030706 0.2785617 0.12151974
000150 d5 cd 2c be d0 72 ad be cf 93 8f bd 47 16 f4 bd
       -0.16875394 -0.33876657 -0.07010614 -0.119183116
000160 11 2e 19 3e 46 00 d8 3d dd 72 89 bd 31 6a 86 3e
       0.14958979 0.10546927 -0.067113616 0.26252893
000170 21 cb 66 3e 56 a7 9a be ad b6 3e be 53 27 ee 3d
       0.22538425 -0.30205792 -0.18624373 0.11628594
000180 c3 90 5d 3e 64 cd 24 3e 12 c1 d9 3b 3a f9 70 be
       0.21637253 0.16093975 0.00664533 -0.23532572
000190 12 83 95 3e 3f 0f 1f 3e f2 c8 ea bd 70 5a 54 3c
       0.2920156 0.1553316 -0.114641085 0.012961015
0001a0 b3 e9 bb 3d 13 cf ac 3e 38 df 8a be df 2e 9b 3e
       0.09175434 0.33751735 -0.27123427 0.30309197
0001b0 88 73 69 be 10 56 ad 3e 67 87 6d be 6c f2 20 3e
       -0.22797978 0.33854723 -0.23196183 0.15717477
0001c0 f1 a7 6d be 38 5f 90 3d 43 5e 3c be 75 54 b8 3d
       -0.23208596 0.070494115 -0.18395333 0.09000484
0001d0 a9 bb a9 bd 92 af 49 be 20 52 44 3e 94 77 79 be
       -0.082877465 -0.19695881 0.19171953 -0.24362022
0001e0 c7 b4 86 3e 08 41 8a be 9a 19 a2 be 48 da ab be
       0.26309797 -0.2700274 -0.31660157 -0.33564973
0001f0 dd d4 a6 be 02 70 a0 3c 9a 9c 85 3d f0 54 86 bd
       -0.32584277 0.01958466 0.0652401 -0.06559169
000200 9c 13 91 3e 4d 00 a5 be d1 eb 76 bd 8e 5a 9d 3e
       0.28335273 -0.32226792 -0.060283486 0.3073315
000210 ad 36 8c bd 39 7a 8e be 67 2b e4 be 46 63 13 3d
       -0.06846366 -0.27827623 -0.44564363 0.035983346
000220 f6 1d db bd 90 cf a4 bc 67 5b 6a bc ac 64 24 3e
       -0.10699074 -0.020118505 -0.014304019 0.16054028
000230 e9 70 88 be 33 79 55 be 00 b4 33 3e f4 18 b6 3e
       -0.26648644 -0.20847015 0.17549133 0.35565913
000240 9d 69 8c be 7a 77 86 3c 56 7d 9a 3e 8e d8 54 be
       -0.27424327 0.016414393 0.3017375 -0.20785734
000250 c0 96 4c be 16 34 29 be dc f9 3e bd 4f 8d 06 be
       -0.19979382 -0.16523775 -0.046625003 -0.13139842
000260 07 27 1c 3e fe 0b 9c 3e 7c 1e 9d bd 1a 98 c9 bd
       0.15249263 0.304779 -0.0767183 -0.09843464
000270 64 98 48 be 5c d8 40 3e f0 96 ab 3e 78 ea 42 be
       -0.19589382 0.18832535 0.33513594 -0.19034755
000280 91 79 bf 3e ab a9 a8 3e 05 ba 93 be ca 1b 63 3e
       0.37397435 0.32941946 -0.2885286 0.2217857
000290 45 3c 1d be 5f f3 c6 bc 5a 96 1f be ad 75 af 3c
       -0.15355022 -0.02428597 -0.15584698 0.021418417
0002a0 2d c6 13 bc 03 a1 89 be 9c d2 9a be 26 c3 05 be
       -0.009019417 -0.26880655 -0.30238807 -0.13062724
0002b0 f0 b4 83 be 16 bb 90 3e 36 70 73 3e 71 d9 a7 3d
       -0.25723982 0.28267735 0.23773274 0.081957705
0002c0 3f 0a b7 be 42 cc 5b be c5 e8 f3 bd c9 9c a9 3e
       -0.35750005 -0.21464637 -0.11909632 0.3312743
0002d0 39 5e fb 3d 41 8f f7 bd ce 3b 52 be 4b 17 7a 3e
       0.12273831 -0.120878704 -0.20530626 0.24422948
0002e0 1b ed 9e 3e 94 b8 96 3e 22 8f 8b be 21 46 17 3d
       0.31040272 0.29437697 -0.2725764 0.036932115
0002f0 73 8a 85 3e 5a 88 01 3e 89 c7 a2 3e f4 36 bb 3d
       0.2608219 0.1264967 0.31792858 0.09141341
000300 8b 5e 1e 3e b0 a9 e3 bd fb 48 aa 3e 47 13 00 3d
       0.15465753 -0.1111635 0.33258805 0.031268384
000310 35 46 1f be e6 90 c7 bc a5 7c 60 be 09 90 ec bd
       -0.15554126 -0.024361085 -0.21922548 -0.1155091
000320 17 ff c7 3d a5 78 be 3d 5d 20 bf 3d b0 30 e2 3b
       0.097654514 0.09300355 0.09332345 0.0069027767
000330 e8 ca 96 be 56 a6 10 bd 5a 2c f9 3d 8e 47 6b be
       -0.2945168 -0.03531488 0.121666625 -0.22976515
000340 df b2 c7 be 10 63 a2 be aa dd 78 bd 16 9a 96 be
       -0.39003655 -0.31716204 -0.06075827 -0.29414433
000350 90 ce 32 be 7b 3f 7c be da a6 26 be f6 50 93 3c
       -0.1746161 -0.24633591 -0.16274586 0.017982941
000360 0b da 40 3e 0e 96 21 3e f8 42 91 3e 8b 22 d6 3d
       0.18833177 0.15779898 0.28371406 0.10455807
000370 d9 8b 18 3e fe 27 27 be 70 cc bc 3e 01 07 8d 3e
       0.14897098 -0.1632385 0.36874723 0.27544406
000380 4f 2f f9 bc 58 ae ce 3d db 7f 33 3c 46 05 a1 3d
       -0.030418066 0.10091847 0.010955776 0.07862334
000390 e7 02 1a 3d 9c ba ac ba 12 1b 97 be a0 8a 33 be
       0.037600424 -0.0013178173 -0.2951284 -0.1753335
0003a0 5a 79 a1 be 59 84 25 be fa 4a 95 3e 7e aa 90 3e
       -0.31537896 -0.16163768 0.29158765 0.28255075
0003b0 a1 b9 a3 bb 99 e8 74 3e 7a 60 3f be b6 1f a1 bd
       -0.004996494 0.23916854 -0.18689147 -0.078673765
0003c0 4c 83 55 be c7 56 cc be 27 22 76 be 48 64 47 3d
       -0.20850867 -0.39909956 -0.24036466 0.04867962
0003d0 e2 98 a6 3d 08 82 3a 3d f8 a4 33 be 0a 9f a6 3e
       0.08134629 0.045534164 -0.175434 0.32543212
0003e0 44 fd 3e 3e 39 86 b9 bd b0 ee 9e be a3 7a 6e be
       0.186513 -0.09058804 -0.3104148 -0.2328897
0003f0 6e bf cd 3d 6f 62 61 3e 47 2d 3d bb 5e 78 08 be
       0.10046278 0.22010206 -0.0028866099 -0.13327166

baseModel.0.bias f4 [64]
000000 30 8a e7 37 2d 9a 88 39 28 9e 00 3a b4 30 26 ba
       2.7601694e-05 0.0002605481 0.00049063796 -0.0006339655
000010 5f 62 83 b8 ae 5e 74 b9 5b f1 ac b5 a5 79 13 38
       -6.26489e-05 -0.00023304924 -1.2885242e-06 3.516082e-05
000020 23 4c 26 b9 f7 f8 cd b9 c0 f3 93 b9 69 33 94 b9
       -0.00015859357 -0.0003928614 -0.00028219633 -0.00028267063
000030 e1 fe 93 38 7a e2 a3 b9 47 e5 39 b9 34 5b f0 39
       7.056981e-05 -0.0003125852 -0.00017728387 0.0004584432
000040 48 18 d4 b9 40 dc 5f 39 60 c5 06 39 47 21 72 b9
       -0.00040453882 0.00021348987 0.00012852764 -0.00023091315
000050 f8 d2 cc b6 40 30 ce b9 ad ce 3e b9 88 9d 0d 37
       -6.1042338e-06 -0.0003932733 -0.00018196805 8.440933e-06
000060 88 d1 9c 39 96 84 a9 39 9b e8 a3 39 94 96 5e b8
       0.00029910752 0.00032332976 0.00031263087 -5.306916e-05
000070 17 ce 29 39 b5 83 32 38 bd 80 b5 38 6a 1f bf 39
       0.0001619387 4.256117e-05 8.654732e-05 0.00036453764
000080 25 53 42 3a 46 7e 62 39 4a df 37 39 1d c1 7c 38
       0.0007412902 0.0002160008 0.00017535422 6.0261333e-05
000090 6c 57 db b9 12 b5 f3 39 49 e4 a0 39 f2 fa 20 ba
       -0.0004183607 0.0004648348 0.00030687664 -0.00061409094
0000a0 99 7b d2 39 f0 31 19 b9 f8 a5 14 b9 6c 92 a7 38
       0.0004014641 -0.0001460982 -0.00014176208 7.990454e-05
0000b0 a7 11 22 3a 46 55 e7 39 f9 2e 45 ba 9c b5 6b b9
       0.000618244 0.00044123287 -0.0007521953 -0.00022479001
0000c0 07 9e d0 39 e9 de f0 b6 94 11 44 3a 64 67 e5 b9
       0.0003979059 -7.1785075e-06 0.0007479426 -0.00043755316
0000d0 56 f7 37 b9 1e 27 2f 39 1a 9e 29 39 78 84 19 ba
       -0.0001754438 0.00016703873 0.00016175993 -0.0005856226
0000e0 d9 16 21 ba 9f 16 59 39 4e ab b4 39 e0 0c 06 b9
       -0.0006145067 0.0002070316 0.00034459907 -0.00012784032
0000f0 0d f3 1c 37 8c e4 7c 39 9b a8 05 38 71 e8 9d 39
       9.354914e-06 0.00024117733 3.1866697e-05 0.00030118556

baseModel.1.weight f4 [64]
000000 2b 07 5a 3f 10 4a 40 3f 42 82 5a 3f de a6 60 3f
       0.8516719 0.7511301 0.8535501 0.8775462
000010 18 9a 3b 3f 08 bb 3d 3f 70 1e 6c 3f bb 15 36 3f
       0.73282003 0.7411351 0.92233944 0.7112691
000020 9a 38 34 3f 69 f1 45 3f d7 4b 51 3f 7c aa 37 3f
       0.7039887 0.7732149 0.8175635 0.71744514
000030 f5 e6 49 3f c9 00 5e 3f ec a1 53 3f b5 25 55 3f
       0.7886804 0.8671995 0.8266895 0.8326066
000040 dd 1d 41 3f f1 8e 36 3f a1 2d 3e 3f 44 94 45 3f
       0.7543619 0.7131186 0.74288374 0.7717936
000050 07 9e 58 3f 16 c5 3e 3f cd 96 4f 3f e2 3a 3a 3f
       0.8461613 0.7451948 0.8108948 0.727461
000060 fc fd 60 3f bf c5 2c 3f b5 40 45 3f fe d9 2b 3f
       0.8788755 0.67489237 0.7705186 0.67129505
000070 b2 d7 46 3f bd a1 43 3f a7 d9 58 3f 98 dc 5a 3f
       0.77672875 0.7641867 0.8470711 0.8549285
000080 43 37 3f 3f 5f df 4e 3f 5c 7f 6c 3f 7f 97 57 3f
       0.746937 0.8080959 0.92381835 0.8421554
000090 82 e6 47 3f 08 2a 3a 3f 54 9f 58 3f 12 91 3f 3f
       0.780861 0.72720385 0.84618115 0.74830735
0000a0 e8 14 64 3f dc f0 42 3f e6 9e 2f 3f 39 21 4e 3f
       0.890944 0.7614877 0.68601835 0.80519444
0000b0 9a 09 52 3f c1 fc 54 3f a6 ae 49 3f bf e0 3f 3f
       0.820459 0.8319817 0.7878212 0.7495231
0000c0 7a 4d 4c 3f 4f 00 34 3f bb b5 58 3f 1f 17 4a 3f
       0.7980572 0.7031297 0.846523 0.7894153
0000d0 f3 1b 3b 3f 65 fc 35 3f a2 78 2f 3f e2 10 38 3f
       0.7308952 0.7108825 0.68543446 0.7190076
0000e0 da c2 46 3f 47 10 39 3f 15 36 4d 3f 61 97 3a 3f
       0.7764107 0.7229046 0.8016065 0.72887236
0000f0 32 90 33 3f 58 ee 5b 3f 00 8d 2c 3f 74 2e 4b 3f
       0.701419 0.8591056 0.6740265 0.79367757

baseModel.1.bias f4 [64]
000000 c3 89 85 bd 66 00 ec bd 8d 64 90 bc e3 89 96 bd
       -0.065204166 -0.115235135 -0.017626071 -0.073505186
000010 7e 29 e2 bd af 5d 78 bd c9 7c c5 bd 74 20 c9 bd
       -0.1104307 -0.06063622 -0.096429415 -0.09820643
000020 67 8c 2e bc 6f 70 8e bc 20 1d d3 3b 5a 1f 18 bd
       -0.010653592 -0.017387597 0.006442681 -0.037139274
000030 45 d0 c0 3c cf 96 a9 bd b7 d7 64 bd d6 f4 79 bd
       0.02353681 -0.082807176 -0.055869784 -0.06102451
000040 0e d6 59 bd 34 c5 29 3d ec 10 0d 3c 60 04 13 bd
       -0.053182654 0.041447833 0.0086099915 -0.035892844
000050 51 bf a2 bd 51 04 43 bd 60 69 72 bb fa 9e 82 bd
       -0.07946647 -0.04761154 -0.0036989078 -0.063779786
000060 71 29 b0 bd ad 79 52 bd 45 e2 9b bd 71 6e 35 bc
       -0.08601654 -0.05138557 -0.07611517 -0.011073695
000070 e1 c5 25 bd 1c 9e 95 bd ab 11 01 bd 21 5e a9 bd
       -0.040471915 -0.073055476 -0.03151099 -0.08269907
000080 65 04 b1 bc 85 49 4a bd 75 ad 7f bd c3 0e 83 bd
       -0.02160854 -0.04938652 -0.06242128 -0.063993
000090 68 6b 88 bd 06 66 d1 3c c9 c6 e1 bd 06 23 2f bd
       -0.06661111 0.025561344 -0.110242434 -0.04275801
0000a0 bd a1 76 3b c2 f3 88 bc 1c ea b9 bb 08 0b 81 bd
       0.0037633025 -0.016717795 -0.00567366 -0.06300932
0000b0 93 93 87 bd cf 7f 5a bd a1 09 b4 bd c2 e6 17 bc
       -0.066199444 -0.053344544 -0.08790899 -0.009271326
0000c0 4f 5a 82 bd ca 22 0f bd 91 12 7b bd f6 71 fa bd
       -0.06364881 -0.034945287 -0.061297003 -0.122287676
0000d0 24 aa c0 bd 0d 6a 78 bd aa 3b 8a bc fc 7e bb 3c
       -0.09407452 -0.060648013 -0.016874153 0.0228877
0000e0 95 fc b8 bd 69 ad 6f bd 7c 31 3e bd 75 0f 84 bd
       -0.09032551 -0.058514986 -0.04643391 -0.06448261
0000f0 1c 54 54 bc 4b c7 27 bb 5e a3 85 b9 1c 75 1b bd
       -0.012959506 -0.0025600966 -0.00025489455 -0.03795348

baseModel.1.running_mean f4 [64]
000000 4d c9 a1 b9 86 27 0f 39 69 28 87 39 a3 da 11 ba
       -0.00030858294 0.00013652266 0.00025779314 -0.00055638904
000010 0f 56 1e b8 0a ad c6 b9 e8 d0 df 38 ea bf 8a 38
       -3.7750284e-05 -0.00037894427 0.000106723804 6.6160996e-05
000020 4e 30 f6 b8 0b e9 b5 b9 b5 38 6f b7 4a 7c e6 b9
       -0.000117391915 -0.0003469664 -1.4258713e-05 -0.0004396162
000030 b7 29 3f b8 60 6d 66 b9 ff 3d 94 b9 c9 3f 09 3a
       -4.55768e-05 -0.00021975255 -0.0002827495 0.000523564
000040 fa 26 84 b9 80 e9 53 38 80 2a 74 39 6b f0 b3 b8
       -0.00025206042 5.0523784e-05 0.00023285486 -8.5801665e-05
000050 41 d0 09 39 8e c0 af b9 e2 90 a6 b8 b0 67 de 37
       0.00013142919 -0.00033522065 -7.942483e-05 2.6512746e-05
000060 3d 5c a4 39 aa 8a 5b 39 68 e6 88 39 2d 99 17 b9
       0.0003134924 0.00020937124 0.00026111607 -0.00014457545
000070 fb db 7b 39 26 64 2d 39 f6 1e 5f b7 ba 16 11 39
       0.00024019174 0.00016535874 -1.3299044e-05 0.00013836744
000080 69 37 17 3a 67 bf bf 39 24 e2 31 b6 e6 b8 f3 36
       0.00057684496 0.00036572965 -2.6506686e-06 7.2634894e-06
000090 e4 89 e2 b8 49 26 03 3a eb 10 27 39 f5 a2 0f ba
       -0.00010802204 0.00050029584 0.00015932664 -0.00054792996
0000a0 b9 0e b7 39 7e 75 9a b8 fd 32 3e 39 e7 ee 86 38
       0.0003491545 -7.365177e-05 0.00018138807 6.434117e-05
0000b0 9d f0 99 39 f6 09 f8 39 07 18 16 ba 97 3f 46 b9
       0.00029361705 0.00047309668 -0.0005725626 -0.0001890644
0000c0 8b eb 8d 39 46 26 d9 b8 d2 72 19 3a 30 f1 15 ba
       0.0002706911 -0.00010354495 0.00058535964 -0.00057198387
0000d0 fd aa 30 b9 6b 9c 89 39 9b f2 70 39 00 cf 1a ba
       -0.00016848366 0.00026247217 0.00022978561 -0.0005905479
0000e0 6d 68 36 ba 4b eb 69 b7 c1 26 e7 39 df a6 9b 38
       -0.00069583097 -1.3942666e-05 0.00044088627 7.422058e-05
0000f0 05 82 83 b9 34 33 56 38 77 22 5e b8 e6 34 5a 39
       -0.0002508314 5.1069263e-05 -5.2961022e-05 0.00020809806

baseModel.1.running_var f4 [64]
000000 a0 5f 00 37 21 37 6f 37 69 a0 14 37 4e 98 2a 37
       7.651659e-06 1.4258346e-05 8.858836e-06 1.0168251e-05
000010 fa 5c ec 36 bb c5 32 37 17 e4 98 37 66 3b 0e 37
       7.044172e-06 1.06556645e-05 1.8226025e-05 8.477689e-06
000020 db ab 31 37 a1 59 29 37 a3 75 b1 37 d7 6c fe 36
       1.0590035e-05 1.0094053e-05 2.1154823e-05 7.5824605e-06
000030 03 9b 4c 37 29 39 57 37 96 21 23 37 75 2a 47 37
       1.2195439e-05 1.2828307e-05 9.723377e-06 1.187121e-05
000040 29 90 18 37 b3 00 e0 36 29 d4 bc 36 55 6c 88 36
       9.093471e-06 6.6758016e-06 5.6275353e-06 4.0657274e-06
000050 52 dc a9 37 6d dd 22 37 38 cb 81 37 60 18 2a 37
       2.0248965e-05 9.707507e-06 1.547263e-05 1.0138465e-05
000060 1b 27 4f 37 7e 30 98 36 7f 89 a0 37 12 89 8c 36
       1.2347266e-05 4.5355982e-06 1.9137513e-05 4.188282e-06
000070 26 a4 60 37 79 2a 46 37 2c 8a 92 37 35 57 45 37
       1.3389659e-05 1.1811609e-05 1.7468898e-05 1.17624195e-05
000080 9c 55 ad 36 57 34 82 36 0e 52 ba 37 17 62 39 37
       5.165768e-06 3.880395e-06 2.2211138e-05 1.1049698e-05
000090 2d 56 23 37 4f 25 40 37 6c cd 51 37 35 3d 3d 37
       9.7356215e-06 1.1452778e-05 1.2505199e-05 1.1279529e-05
0000a0 d2 c0 87 37 da 0e 82 37 d4 d6 b7 36 50 1f 12 37
       1.6183043e-05 1.5504123e-05 5.4788343e-06 8.709569e-06
0000b0 62 c0 68 37 0e 5b 00 37 76 59 28 37 3b 20 28 37
       1.387307e-05 7.650595e-06 1.003441e-05 1.0021085e-05
0000c0 87 aa 3b 37 18 10 38 37 cd 26 ed 36 52 e6 3c 37
       1.1185773e-05 1.0971002e-05 7.0676674e-06 1.1259299e-05
0000d0 e2 17 0a 37 45 56 2a 37 78 13 bd 36 43 17 3c 37
       8.231002e-06 1.0152876e-05 5.6349054e-06 1.1211089e-05
0000e0 38 e6 63 37 67 92 2d 37 6c 14 b6 36 df a9 44 37
       1.3583856e-05 1.03456905e-05 5.4264e-06 1.1722062e-05
0000f0 ab 80 47 36 29 ab 59 37 4a cd 03 37 5d e9 f3 36
       2.9728205e-06 1.2974059e-05 7.856006e-06 7.2691314e-06

baseModel.4.weight f4 [64, 64, 3]
000000 7d 34 00 3d 62 f0 f7 3c 22 ea 99 3c ba 64 f7 3c
       0.031300057 0.03026599 0.018788401 0.030199397
000010 b8 76 3f 3d 66 87 6a bc 6c b3 bb 3b 6f e9 43 3c
       0.04674408 -0.014314508 0.005728176 0.01195751
000020 84 5d 6d bd c0 94 84 ba 2e 11 aa bc 76 ad 61 3d
       -0.05795051 -0.0010115132 -0.020760145 0.055097066
000030 1d d4 86 bd dc b2 68 bd b0 ad 83 bc 7e 3c 32 bc
       -0.06583426 -0.0568112 -0.016074032 -0.01087868
000040 2d e2 23 3d d1 98 93 3b 3c 8a af 3c 4b e9 ca 3c
       0.04001062 0.004504301 0.02142822 0.024769446
000050 56 eb a9 bb 41 38 00 3d bc e6 0e bd df bb 16 bd
       -0.005185525 0.031303648 -0.034888014 -0.03680026
000060 72 6b d9 bc e3 1a 41 3d 95 75 fc bb 83 67 8d 3c
       -0.026540492 0.04714478 -0.0077044466 0.017261272
000070 0c b3 0a 3d ff 7a 88 3d c1 11 8c 3c 55 15 c1 3c
       0.03386216 0.06664085 0.01709831 0.023569742
000080 02 26 ae 3d 4d b7 76 3d f5 bd 66 3d 2e b4 47 3c
       0.08503343 0.060233403 0.0563335 0.012188954
000090 8c 93 86 bd a3 c7 1e bd 0c 8d 2b bd 7a b0 80 bb
       -0.06571111 -0.038764607 -0.04188256 -0.0039272876
0000a0 0b f8 81 bd 34 61 7d 3c fc 24 a8 3c c2 0c 2a bd
       -0.063461386 0.01546507 0.020525448 -0.041516073
0000b0 62 a0 09 bd 05 7a 54 3c 2b 0b 7b bc 61 1a dd 3c
       -0.03360022 0.012968545 -0.015322487 0.026990118
0000c0 7d 7b c6 3c ae 70 75 bc 84 84 f6 3b 29 5e 4d bc
       0.024228806 -0.014980478 0.0075231213 -0.012534657
0000d0 17 c9 b0 bc 47 8c 48 bb 85 26 92 3c 75 4b 39 3d
       -0.021580262 -0.003060119 0.017840633 0.045237977
0000e0 fe ae 0d bb 84 a2 3f 3d 65 02 9b 3c e9 76 4a 3c
       -0.0021619196 0.046785846 0.01892204 0.012357452
0000f0 75 4f 6e bc 8d 7d 0d 3d 0d f3 1f 3c a8 b0 ce bc
       -0.014545311 0.034543563 0.009762538 -0.02523072
000100 51 18 a6 bd 53 98 d5 bc ff 0c cd bb 42 e9 b5 bd
       -0.08110107 -0.02607361 -0.006257653 -0.08882381
000110 47 9f c3 bb 1c 09 7a 3d 63 44 ac 3c a0 a6 68 b8
       -0.005969915 0.061043844 0.021028703 -5.5468292e-05
000120 71 50 e3 3c 6f cd 42 3d 28 c7 69 3c e7 de 43 bd
       0.027748318 0.047559198 0.014268674 -0.047819998
000130 f4 c6 eb 3b 30 8f e4 bb c5 61 0f bd cd 83 c8 3c
       0.007195348 -0.006975077 -0.03500535 0.02447691
000140 23 96 65 3d 47 0e d1 bc 62 4d 04 bd cd 62 85 3a
       0.056051385 -0.025519503 -0.03230036 0.001017654
000150 19 cf 9d bd 10 9c 1d bd 27 ea 2b bd 14 fe 15 bd
       -0.07705516 -0.03847891 -0.041971352 -0.03661926
000160 1d e8 32 bd f2 6e a8 3c 2b 34 d9 3d e3 30 a0 bd
       -0.04367839 0.020560715 0.106056534 -0.078218244
000170 1e d4 37 3d 85 03 1f 3d 24 b2 30 3b ae 74 1c 3d
       0.044880025 0.038821716 0.002696165 0.038197212
000180 53 8c 0a bd b4 dd 25 3c 6d 76 9a bd 4b 5a 2c 3d
       -0.03382523 0.010123659 -0.07542119 0.042078298
000190 c0 16 3e 3d e7 9d 5d 3c d7 38 a5 bb 52 6e a9 3d
       0.046408415 0.013526416 -0.005042176 0.08272995
0001a0 95 2b 21 3d 16 c3 87 3a f6 80 81 3a 05 e4 31 3c
       0.039348204 0.0010357823 0.0009880352 0.010857587
0001b0 2e 4c b0 3c 9a d6 b6 bd ff d6 ef bc f0 1c 34 ba
       0.0215207 -0.08927651 -0.029277323 -0.0006870767
0001c0 0b 74 7c bd d6 71 7e bd 36 9e cb bc fc 47 14 bb
       -0.061634105 -0.06212028 -0.024855714 -0.0022625914
0001d0 3b 3b ac 3d bf d0 3b bd 09 4d a3 bd 0a 07 3b bb
       0.08409735 -0.045853373 -0.07973678 -0.002853813
0001e0 b5 68 a4 bd 72 0e 8c 3c 7a d7 0d 3c 32 91 b0 3c
       -0.08027784 0.017096732 0.008657331 0.02155361
0001f0 2d 2b 8c 3d 3d e1 e9 bc db f8 3f 3d 71 a4 ce 3b
       0.068441726 -0.028549785 0.046868186 0.006306224
000200 ab d3 4d bd aa ae 63 3c ac dc e1 3c 40 fb 51 bd
       -0.05025069 0.013896624 0.027571045 -0.051265
000210 78 1e 51 3c 15 42 22 3c 8b bf 5e 3d e5 99 89 bd
       0.012763612 0.0099034505 0.05438189 -0.06718806
000220 75 5d d0 bb d9 19 29 bd 79 9a c0 bc 8e 70 36 3d
       -0.006358797 -0.041284416 -0.023511158 0.044540934
000230 6e ca 72 bc e3 30 24 3d 87 80 c5 3d aa 86 40 3d
       -0.014818771 0.040085685 0.09643655 0.047003426
000240 fc 87 3c 3d 31 94 e7 3c 6a 00 30 bc ac 84 e1 3c
       0.046028122 0.028268905 -0.010742286 0.027529083
000250 93 8c 61 3c 29 a7 0c bd d1 72 70 bd 6b 61 3c bc
       0.013766426 -0.034339104 -0.058703247 -0.011497836
000260 ef 8f 26 3c 6e 50 d9 bc b7 43 22 3d f8 3b 7c 3c
       0.010166152 -0.02652761 0.03961536 0.015395157
000270 72 04 fb 3b 09 33 0a 3b ed 04 9b 3d 73 d3 0b 3d
       0.007660442 0.0021087548 0.07569299 0.0341372
000280 b3 d9 a1 bc 55 30 86 3d 0d 50 10 3d 83 1d 67 3d
       -0.019757127 0.06552187 0.035232592 0.05642463
000290 ac d4 96 3c d9 03 70 bd bf 2f 13 bd 20 07 38 bd
       0.018411957 -0.05859742 -0.035934206 -0.04492867
0002a0 f1 d7 fb 3b a8 09 8a bb 5e 93 5d bc a6 33 0e bc
       0.0076856543 -0.004212577 -0.013523905 -0.008679306
0002b0 5d 93 fd bb ef aa 83 3c f7 e6 4e 3d ce c1 59 bd
       -0.0077385143 0.016072718 0.050513234 -0.053163342
0002c0 09 2f d5 bc 51 ed d9 b8 c0 fc 1d 3d ba e6 9d 3c
       -0.026023405 -0.0001039157 0.03857112 0.019275058
0002d0 70 d3 f3 3c 81 f3 9e 3c 1b 9c 79 3d f1 ab 84 bd
       0.029763907 0.019403221 0.06093989 -0.06478108
0002e0 c5 71 98 bd 1c 40 bc 3c 5c d1 84 bc 6b 72 fd 3c
       -0.07443575 0.022979788 -0.016213112 0.030938348
0002f0 eb b5 04 3d ee 7d ad 3b 3e b2 9b bc 33 c1 b9 3c
       0.032400053 0.005294553 -0.019005891 0.022675132
000300 15 9c 41 3d 58 73 8e 3d 26 62 97 3c 3a 9b 4e bd
       0.047267992 0.06955594 0.018479418 -0.050441004
000310 41 1d 91 bc e7 6d 37 3d 93 e6 05 3c ab 40 21 bd
       -0.017714145 0.044782545 0.008172649 -0.039368313
000320 a8 31 a0 ba de d4 9e 3c e4 66 48 3c ce 83 7c 3d
       -0.001222183 0.019388612 0.012231562 0.061649136
000330 5d 62 b7 3c 10 e2 1c 3d 35 54 b8 bc 2b 77 02 bc
       0.02238577 0.038301528 -0.02250109 -0.007962982
000340 78 c8 5b bc 0d f9 a2 3c 77 b3 50 bd 7e 07 7f 3d
       -0.013414495 0.019894147 -0.0509524 0.062263004
000350 df 33 7d 3d 96 b4 79 3d ea ee 09 3d ad 30 0f bd
       0.061817046 0.060963236 0.03367511 -0.03495853
000360 b9 53 88 bd ee 8f 49 bc e6 3e 09 3d 7d b9 6a 3d
       -0.06656594 -0.012302382 0.03350725 0.0573058
000370 da fc 4b 3d d9 30 26 bd 3d 61 3a 3d 88 a5 40 bd
       0.049801685 -0.04057393 0.04550289 -0.047032863
000380 c5 a7 14 bd a0 16 77 3c 60 7c 18 3c 3f bd b2 3b
       -0.03629281 0.015081078 0.009306997 0.005454689
000390 71 8a c0 bb da ee 35 3d 63 42 57 3b 93 c6 a8 bc
       -0.0058758785 0.04441724 0.0032845966 -0.0206025
0003a0 f3 bf d7 bd ce 06 70 bd 5f eb 31 3c 6c 91 0e 3d
       -0.10534658 -0.05860024 0.0108593395 0.034806654
0003b0 46 ce c6 3c 69 6a 18 3b 4e 4b de 3c 28 58 9b bc
       0.02426828 0.0023256785 0.027135517 -0.018962935
0003c0 6f d0 c2 3b 4f 49 26 3d 80 0b 85 3d 13 42 5d 3c
       0.0059452574 0.040597256 0.06496334 0.013504523
0003d0 3f 7a 22 3d a0 79 bb bb 0b 46 dd 3c 15 fd 85 bd
       0.039667364 -0.005721286 0.027010938 -0.06542412
0003e0 90 cc 2f bd fc 68 eb 3b bb 1b 80 bc 57 cd 89 bc
       -0.042919695 0.007184146 -0.015638223 -0.016821546
0003f0 28 e0 5a bc 99 84 22 3d b5 66 84 bd d7 2c 7d bb
       -0.013359107 0.039677236 -0.06464902 -0.0038631463

baseModel.4.bias f4 [64]
000000 d3 ce cf 36 56 28 30 b5 fd 37 7e b7 b2 af 24 38
       6.1931582e-06 -6.5623806e-07 -1.5152616e-05 3.9264276e-05
000010 c1 5a e2 b6 17 b4 d8 b6 8a 41 af 37 d5 45 ff 36
       -6.74589e-06 -6.458267e-06 2.0892145e-05 7.6077217e-06
000020 e8 17 fe 36 d6 84 87 b7 c9 0a 96 37 97 45 e9 b7
       7.572573e-06 -1.615511e-05 1.7886416e-05 -2.780817e-05
000030 0e 53 2c 37 ad 6e 81 37 fb 1e 09 b8 fa fa e2 b6
       1.0271337e-05 1.5429536e-05 -3.2692198e-05 -6.7645424e-06
000040 4e 53 2e b8 8b 3f 80 37 9d 01 15 38 7d ca 26 37
       -4.1562416e-05 1.5288379e-05 3.552587e-05 9.9415165e-06
000050 a4 86 bf 36 da 44 0e 36 57 9f 51 36 ca aa 03 b7
       5.707918e-06 2.1199726e-06 3.1236175e-06 -7.847973e-06
000060 e9 10 29 38 bd 94 4b b8 88 71 e8 36 4c 5f 37 34
       4.030849e-05 -4.8537495e-05 6.9273556e-06 1.7077872e-07
000070 df 2b dd 35 e3 24 a1 b5 2a 91 55 37 fd dc 81 b7
       1.6478551e-06 -1.200617e-06 1.2729588e-05 -1.5480904e-05
000080 54 dc 64 36 73 d4 dd 37 92 e5 ed b6 50 0c ca b7
       3.4102895e-06 2.6444182e-05 -7.089876e-06 -2.408601e-05
000090 3e e0 bb 37 26 bf 0e 37 62 f8 1d b7 1e 69 32 37
       2.2396558e-05 8.508365e-06 -9.41576e-06 1.0634101e-05
0000a0 f6 ef ef 37 0f 72 62 36 af ef 1e b7 64 23 9e 36
       2.860276e-05 3.3743015e-06 -9.47334e-06 4.712887e-06
0000b0 a1 68 87 b7 c5 90 82 37 17 b7 0e 36 66 f9 2a 38
       -1.6141976e-05 1.5564621e-05 2.1266221e-06 4.076343e-05
0000c0 83 89 c0 b5 30 d0 cf b7 11 6a 0b b8 4d 0b 44 b7
       -1.4345136e-06 -2.4773268e-05 -3.3238965e-05 -1.16851415e-05
0000d0 e7 6a f6 37 06 ca 04 38 9a dc 4f b6 62 7e 31 38
       2.9375266e-05 3.16594e-05 -3.097381e-06 4.231779e-05
0000e0 80 ad e9 36 98 e0 dc b7 72 81 db 37 a7 9e 2c 38
       6.964139e-06 -2.6330628e-05 2.6167112e-05 4.1155752e-05
0000f0 20 e7 4b 37 75 a1 8b b7 03 4d c1 37 46 0d d5 37
       1.2153556e-05 -1.6645276e-05 2.3043254e-05 2.539776e-05

baseModel.5.weight f4 [64]
000000 f2 1f 40 3f 63 da 3a 3f f4 80 2a 3f 54 08 33 3f
       0.75048745 0.7298948 0.66603017 0.6993458
000010 19 3d 3f 3f 56 60 47 3f 52 cc 50 3f 90 bd 44 3f
       0.747026 0.7788137 0.8156177 0.7685175
000020 7c de 49 3f 8d 28 38 3f 1d b5 3e 3f 95 75 3c 3f
       0.7885511 0.71936876 0.74495107 0.73616916
000030 ca 60 3c 3f 7d 73 3e 3f 86 08 4f 3f c7 cd 45 3f
       0.7358519 0.7439497 0.8087238 0.77267116
000040 de 1f 58 3f 53 61 41 3f d5 26 5c 3f 66 3f 3a 3f
       0.84423625 0.7553913 0.8599675 0.7275299
000050 66 28 47 3f 51 43 2e 3f b5 87 36 3f f1 38 46 3f
       0.7779602 0.68071467 0.7130082 0.77430636
000060 33 e5 3a 3f c2 4f 4f 3f 63 fb 40 3f 69 cc 33 3f
       0.7300598 0.80981076 0.75383586 0.7023378
000070 17 f9 27 3f 1f b4 48 3f 8c ec 43 3f 2e da 4b 3f
       0.65614456 0.7839984 0.76532817 0.7962979
000080 ca cc 44 3f 0f 22 36 3f 7e 44 52 3f 00 2b 4f 3f
       0.76874983 0.7114572 0.8213576 0.8092499
000090 61 a4 48 3f b3 79 3f 3f 21 5d 40 3f 47 a2 43 3f
       0.7837582 0.74795073 0.75142103 0.7641949
0000a0 cb 3f 40 3f 6f 52 2c 3f eb 84 43 3f f1 94 2e 3f
       0.7509734 0.67313284 0.7637469 0.68196017
0000b0 91 f1 3c 3f 7f 3c 44 3f 47 d9 3d 3f 3e 88 45 3f
       0.738061 0.7665481 0.74159664 0.77161014
0000c0 f5 d5 35 3f 3c 68 4e 3f a2 9e 39 3f 4a a9 55 3f
       0.710296 0.806278 0.7250768 0.8346144
0000d0 2d 9b 43 3f 35 e3 41 3f 94 8a 35 3f bd aa 4b 3f
       0.76408654 0.75737315 0.7091458 0.795574
0000e0 e0 a4 33 3f 6a 36 35 3f 4c 3d 50 3f 87 95 48 3f
       0.70173454 0.70786154 0.8134353 0.7835316
0000f0 6d 8f 43 3f 88 9f 2b 3f 11 8f 3b 3f fa cb 3b 3f
       0.76390725 0.670403 0.73265177 0.7335812

baseModel.5.bias f4 [64]
000000 bc 6c 00 3d db e5 b7 bc 65 cd 09 3c ce d3 85 bc
       0.031353697 -0.02244847 0.008410786 -0.016336348
000010 06 75 91 3d bf 1a 75 3b 40 e8 d3 bd 6f 0c 22 3c
       0.071023986 0.0037399975 -0.103470325 0.00989066
000020 de 1b b2 bc 7e 2b 85 3c fb a8 b0 bc e8 ae 00 3a
       -0.021741804 0.01625609 -0.021564951 0.00049088756
000030 ea 10 eb 3c 44 cc 5d bd 5b 1b 04 be a4 c0 37 3c
       0.028694589 -0.05414988 -0.1290106 0.011215363
000040 47 34 59 bd e2 7f d7 3c bd 38 9c bd 34 93 54 bd
       -0.05302837 0.026306096 -0.076280095 -0.051898196
000050 b7 d4 1a be f8 07 83 3c 51 44 aa ba cb d1 1b bc
       -0.15120207 0.01599501 -0.001299033 -0.009510468
000060 d4 a3 87 bc 68 0e 44 3d 94 7f 04 bc f2 f7 08 be
       -0.016557612 0.0478653 -0.008087058 -0.13375834
000070 3c 26 13 bc 00 3c 64 bd bb 8d 81 bc 20 3c 8b bd
       -0.008981284 -0.055721283 -0.015814653 -0.06798577
000080 b0 04 2e 3d 03 b5 4f 3c 84 76 6a bd 97 fe 20 3e
       0.04248494 0.012677434 -0.05724193 0.15722118
000090 0a 29 aa bc 08 ed 9d bb 4b 1a 2d 3c e4 01 f4 bd
       -0.020771522 -0.004819516 0.010565351 -0.11914423
0000a0 bd 08 7f bb b6 17 ee bc 79 25 0c be ab 26 d7 bc
       -0.003891512 -0.02906404 -0.1368617 -0.026263556
0000b0 46 65 1e 3d 44 3a 7e 3d c0 47 43 bd 94 c6 55 3d
       0.0386708 0.062067285 -0.047675848 0.052191332
0000c0 74 47 08 3d a5 bd 32 bd 5d 03 db bd 4d 6f 1a be
       0.033271268 -0.04363789 -0.10694001 -0.1508152
0000d0 f9 08 24 bd 70 8a 83 bc 90 f2 3f bd 6a 36 43 3c
       -0.04004762 -0.016057223 -0.046862185 0.011914829
0000e0 f3 93 a5 bd b0 33 78 bc cc f8 b8 bd b2 89 06 3c
       -0.0808486 -0.015149042 -0.09031829 0.00821154
0000f0 0e e8 59 3c 49 44 bb bc 1b 9c 41 bd fd c4 91 3d
       0.013299955 -0.02285971 -0.047268014 0.07117651

baseModel.5.running_mean f4 [64]
000000 8a 28 cb 3d 79 28 b7 3c e0 05 8e be fa 20 8e 3e
       0.099198416 0.022358166 -0.27738857 0.27759534
000010 47 42 dd 3d 2e 05 c9 bc 61 54 ea bc 28 a5 2c 3c
       0.10803657 -0.024538603 -0.028604688 0.010537423
000020 a8 ee da bd 9c 94 99 be 69 06 b5 3d a7 1b c6 bc
       -0.10690051 -0.29996192 0.08839113 -0.024183108
000030 29 4e 03 3e a7 79 af bc 08 7c 03 be d1 ec 8b 3c
       0.12822784 -0.021420313 -0.12840283 0.017080696
000040 3e 16 03 be 18 66 86 bd 8c 81 f4 bc c3 b9 0a bd
       -0.12801453 -0.065624416 -0.029846929 -0.033868562
000050 0b 72 74 bd 62 5e 1a 3b d5 25 c1 bd 74 e9 8e 3d
       -0.059679072 0.0023554792 -0.09431044 0.069781214
000060 84 38 9d bd 37 68 0c 3e 34 30 2d be cf 3a 82 bd
       -0.07676795 0.1371163 -0.1691292 -0.06358873
000070 be 6c 8e bd 61 65 15 bd 70 76 2e be 9e 66 0e bd
       -0.06954335 -0.036473636 -0.17037368 -0.034765832
000080 fb bf d2 bd 29 e4 07 bd 1e d8 b8 bb 57 61 e8 3d
       -0.102905236 -0.033176575 -0.0056409976 0.11346691
000090 97 8a 1b 3c 13 1e be bc 46 4f ab bc 80 e3 0e bd
       0.009493492 -0.0232077 -0.020911824 -0.03488493
0000a0 6e 5f 70 3c 60 6c f4 3c ac 69 14 bd 18 29 9d bd
       0.01467119 0.029836833 -0.03623359 -0.07673854
0000b0 29 2c 05 3f 1e 80 34 be a0 d4 03 bd f0 e5 b8 3e
       0.5202051 -0.17626998 -0.032185197 0.36112928
0000c0 06 77 cf 3d 2a a0 24 3d 60 ac 41 bd 61 3e 78 bd
       0.10130124 0.040191807 -0.04728353 -0.060606364
0000d0 06 0b fa bd e6 d6 00 3d 7d 88 23 bb ac 8e 54 3d
       -0.12209134 0.031454943 -0.002495318 0.051893875
0000e0 b5 9f 10 bd 77 5f d9 bd d0 74 50 bd 23 e2 21 bc
       -0.03530856 -0.106139116 -0.05089265 -0.009880575
0000f0 a4 79 24 be a4 f1 eb bd 7b 52 94 bd 1b a8 ca 3d
       -0.16062027 -0.11520699 -0.072422944 0.09895345

baseModel.5.running_var f4 [64]
000000 10 f5 2d 3d e1 22 68 3d 93 61 32 3d 9f 5b 1f 3d
       0.042470038 0.056673888 0.043550085 0.038905736
000010 12 07 40 3d a2 45 e0 3c 60 f2 05 3d 85 84 b1 3d
       0.046881743 0.027376954 0.03270185 0.08667854
000020 da 3a 89 3d 86 1e c0 3c ed 50 65 3d 78 90 79 3d
       0.06700678 0.023452055 0.05598538 0.06092879
000030 ad f2 a4 3d bb a5 fd 3c b7 f7 cf 3d 69 2a bd 3d
       0.08054099 0.030962816 0.1015467 0.09236605
000040 2a 4f c8 3c 10 31 9c 3d 69 65 dd 3d 67 24 53 3d
       0.02445181 0.076265454 0.10810358 0.051548388
000050 b2 5f 3a 3d d7 31 16 3d 4a b2 21 3d 57 b8 f1 3c
       0.04550142 0.036668625 0.03947667 0.029506845
000060 ee fe 3a 3d 5a 55 09 3d 7d 4f 4a 3c 88 b9 4c 3d
       0.045653276 0.033528663 0.012348053 0.049981624
000070 92 a4 04 3d 57 f1 b3 3d cc ac aa 3d 54 9e c2 3d
       0.03238351 0.08786266 0.0833374 0.09502855
000080 9e cc 46 3d d2 8f 62 3d 5c 8d 85 3d 83 85 33 3d
       0.048534982 0.05531294 0.06521103 0.0438285
000090 08 32 1c 3d 26 af b4 3c 41 a8 7e 3d 1d ac bd 3c
       0.03813365 0.022056174 0.06217218 0.02315336
0000a0 e7 96 ad 3d ac fa 20 3d 99 53 cd 3c 4d 4a 35 3d
       0.08476048 0.03930156 0.025064277 0.044260312
0000b0 56 46 8b 3d cb f6 9f 3d fa 71 e2 3d a4 6e 32 3d
       0.06800525 0.07810744 0.110568956 0.043562546
0000c0 f0 58 3d 3d a2 38 42 3d 41 0e 11 3c df 13 9f 3d
       0.046227396 0.04741729 0.008853496 0.07767462
0000d0 5b 6f c0 3c f9 fe 8c 3d 05 72 7d 3d 0c 84 3f 3d
       0.023490598 0.0688457 0.061876316 0.04675679
0000e0 37 1f 40 3d 2e f1 c1 3c ac ef 21 3e 3f 03 a2 3c
       0.04690477 0.023674574 0.15814084 0.019776938
0000f0 ee 9a 94 3d 74 ba 28 3d 08 9b ea 3c d5 6a 04 3d
       0.07256113 0.04119344 0.028638378 0.032328445

baseModel.8.weight f4 [64, 64, 3]
000000 8f 3a b9 3c ce c1 36 bc 46 0d da bc 7d 54 55 3d
       0.02261093 -0.011154605 -0.026617657 0.052082527
000010 61 ca 80 bc b3 9f 19 bd db 72 af bc 30 0d 09 bd
       -0.015721502 -0.037505817 -0.021417072 -0.033459842
000020 1c b1 41 bc 68 74 a6 3b 94 a6 8a 3c 56 d9 82 bc
       -0.011822011 0.0050797947 0.016925134 -0.015972774
000030 3e cc 9e 3d 97 96 64 bd 5d 1b 80 bd b6 ab cc 3c
       0.077538 -0.055807676 -0.06255219 0.024984222
000040 56 92 a4 bb b7 8b 22 bc e9 77 9b 3c 58 42 a1 bc
       -0.0050223274 -0.009921006 0.018978076 -0.019684955
000050 d1 39 1f bd ec 53 c0 bb b0 9f 97 bb 05 9b 3d bb
       -0.038873497 -0.0058693793 -0.0046271905 -0.002893151
000060 b6 28 10 bc 3f 7e 08 bd f1 5c dd bb 02 78 17 bc
       -0.008798769 -0.033323523 -0.0067554642 -0.009244921
000070 96 92 72 3d a2 e5 90 3d 64 c9 e2 bc 47 e8 3c 3d
       0.059221826 0.07075049 -0.027683921 0.046119954
000080 53 79 e4 3c f5 0a 00 3c 1c 63 81 3c da 10 5a bc
       0.027889883 0.007815112 0.01579433 -0.013309682
000090 4a 4b 0c 3d 63 3d f3 bc 38 03 4c bd 31 90 d8 3b
       0.03425149 -0.029692357 -0.049807757 0.006608986
0000a0 63 b3 71 3c 55 82 34 bc 2c 00 a0 3b c3 aa 4a bc
       0.014752242 -0.011017402 0.004882833 -0.012369814
0000b0 29 d5 7e 3c 44 74 b4 3d 83 2a c8 bc a6 3f dc bc
       0.015553751 0.088112384 -0.024434334 -0.026885819
0000c0 44 31 41 3d 64 33 e4 3d 8a c3 c4 3d 57 3e 90 3d
       0.047166124 0.111426145 0.096076086 0.070431404
0000d0 51 b8 ed 3c 2e 60 0f bc cc 12 28 3d fd b3 71 3c
       0.029018553 -0.008750958 0.04103355 0.014752385
0000e0 29 e1 ad 3d 0b 38 3a 3c 00 9a af bc 72 4c dc 3a
       0.084902115 0.011365901 -0.021435738 0.001680745
0000f0 c3 1e 5e b9 52 3f 07 bd 64 28 b6 3d 12 f8 28 3d
       -0.0002118303 -0.03301937 0.08894423 0.041252203
000100 9b 0b c6 bc eb 64 e0 3c 07 f3 01 3c 60 7c 95 bd
       -0.024175456 0.027391871 0.007931477 -0.07299113
000110 8f b0 58 bd a3 75 8b bd 8f bc f0 3c 30 b0 19 3d
       -0.052902754 -0.06809547 0.029386787 0.03752154
000120 e9 a2 9e 3c 57 f0 4a bc 20 42 6d 3d b5 fa ab bd
       0.019364791 -0.012386403 0.05792439 -0.08397428
000130 80 1e 99 3c b7 a6 3e 3d 8f 60 41 3d 70 ef 94 3c
       0.018691301 0.04654571 0.047211226 0.018180579
000140 cd c0 42 3d aa d8 90 3d ee ac 32 bd 4c be 16 3d
       0.04754715 0.070725754 -0.04362195 0.036802575
000150 36 d0 7b 3d f2 23 80 3c af 53 51 3c 0d 6a e3 3c
       0.061477862 0.01564214 0.012776299 0.02776053
000160 7e ed 03 bd 2d ad 64 3b eb 52 90 3c 2d c4 01 3d
       -0.032208912 0.003489326 0.017617663 0.03168123
000170 c0 81 12 bd 66 6d 03 3d 43 ed b1 3b 9a e2 21 3d
       -0.03576827 0.032086752 0.005429895 0.039522745
000180 0d 5c d2 bb 99 47 20 3b 60 0d 78 3d 33 c5 55 bc
       -0.0064196647 0.0024456738 0.06055963 -0.013047504
000190 38 5c 50 bd 4d 4e ef 3c 4e f8 af bc 8c c7 6f bd
       -0.050869197 0.029212141 -0.021480706 -0.058539912
0001a0 f0 e0 c0 bc 33 36 a6 3d 99 d3 7d bc 45 b7 ec 3a
       -0.023544759 0.081158064 -0.015492343 0.001805999
0001b0 7e de 7e 3d 5c 54 76 bc f9 09 36 3c ff f2 0e 3c
       0.062223904 -0.015034761 0.011110776 0.008724927
0001c0 39 63 2d 3d 86 2f b6 bc e6 ed c7 bc 1a e5 56 3c
       0.042330954 -0.022239458 -0.024405431 0.0131161455
0001d0 ff 99 5d 3c 24 96 d6 bb 97 e1 1f 3b 9c 5b 38 3d
       0.013525485 -0.00654866 0.0024395937 0.04500924
0001e0 8f 1f a0 3c a7 b5 1a bb e4 bc 62 bd 06 01 3f 3d
       0.019546298 -0.0023606808 -0.05535592 0.046631835
0001f0 f8 92 bc bc 11 01 06 3c 59 95 45 3d 54 95 c2 3c
       -0.023019299 0.008178965 0.048238132 0.023752846
000200 ec 8a 4d 3c ca a9 2c 3d cd 4e bf bc b4 6c 98 3d
       0.012545329 0.04215411 -0.023353005 0.074426085
000210 d4 29 e7 3c a6 19 d9 bb df b0 12 bd 09 9d 9a 3d
       0.028218187 -0.006625372 -0.03581321 0.07549483
000220 11 96 4d 3c a9 5d 90 3d 67 21 83 3d 7a da 7b bc
       0.012547986 0.07049114 0.06402855 -0.015371913
000230 6d 90 50 bd 0f f1 84 3b b7 5b 90 3b f8 98 6c bc
       -0.050918985 0.0040570567 0.0044054645 -0.0144407675
000240 9d 50 95 3d 84 b0 b6 3c b9 8b 72 3c 63 0f 30 bd
       0.072907664 0.022300966 0.01480382 -0.042983424
000250 3b 89 86 bd c1 f5 a6 bd d6 33 4f 3c 00 e5 de bc
       -0.065691434 -0.081523426 0.012646636 -0.027208805
000260 12 44 f2 3c 1d fc 24 3d 8d fd 78 3c 51 58 52 3d
       0.029573474 0.040279496 0.01519717 0.051353756
000270 95 dd 21 3b 91 26 63 bc 52 51 19 bc f5 82 34 3d
       0.0024698724 -0.013864175 -0.009357767 0.044070203
000280 e7 89 02 bd b0 3e 82 3d e7 c6 66 3d 8a 70 ac bc
       -0.031869795 0.06359613 0.05634203 -0.021049757
000290 f3 00 7a bc 0d 9e a0 3c 59 53 9d bd 06 05 a8 bd
       -0.015259015 0.019606614 -0.07681913 -0.08204083
0002a0 f4 4c 4d 3c bb af 35 bd ef cb 1f bd 3c 90 33 3d
       0.012530554 -0.044357043 -0.039012846 0.043838724
0002b0 aa 77 6d 3d 57 da ce 3c 05 27 b5 3c b3 25 d7 3d
       0.05797545 0.025250597 0.022113333 0.105052374
0002c0 b9 ee 36 3d 06 25 9a 3a 04 9e 9d bb 57 97 e2 bc
       0.044661257 0.0011760301 -0.0048100967 -0.027660055
0002d0 45 42 02 39 8e b0 a1 3c 97 56 97 3d 87 89 94 3d
       0.00012422453 0.019737508 0.073895626 0.07252794
0002e0 84 d4 38 3d 3d 22 93 3c 48 0f a7 3b 90 b4 95 3c
       0.045124546 0.017960662 0.005098257 0.018274575
0002f0 a0 f5 a7 bc a8 44 4c bb c0 51 c3 bd 7e 72 39 bd
       -0.020502865 -0.0031168852 -0.09537077 -0.045275204
000300 16 39 01 bd 7d 6f 98 bb 27 2d 12 bd c1 05 15 3d
       -0.031548582 -0.0046519623 -0.035687592 0.03638244
000310 3d 43 28 bc bd 7c b5 bc f2 f6 35 bd 7c 6a a5 bb
       -0.010269937 -0.022154206 -0.04442496 -0.0050480943
000320 dd 79 23 bd 97 6a 10 bc 96 0d 9a 3c f1 d2 b7 3c
       -0.03991114 -0.0088144755 0.018805306 0.022439452
000330 11 47 1f bd 03 82 28 3d 8f 4a cc bc 3b db af 3c
       -0.038886134 0.041139614 -0.024937896 0.021466842
000340 52 31 d6 bb 3f 76 a8 3c f0 97 52 bc 12 8c c4 3c
       -0.006536641 0.020564197 -0.012853608 0.023992572
000350 2b 20 fe 3c 1d 5f 0a bd 97 e9 36 bc 37 13 8b 3d
       0.031021198 -0.033782113 -0.011164091 0.06790774
000360 c1 1e 8e bc 9b 6e ab 3c 42 a5 00 bc 3c e4 c6 bc
       -0.017348649 0.020926764 -0.0078519005 -0.024278753
000370 c4 db c8 bc 3f 2b b8 3c 73 c9 24 3d 0d 59 eb 3c
       -0.024518855 0.022481559 0.04023118 0.028728986
000380 d3 ee a2 3a 2f fe 07 3d 0b e6 a4 3b 77 cc ce 3b
       0.0012430794 0.033201393 0.005032306 0.006310995
000390 d8 1d fe bb 9d c6 bf 3c 3a ac 3e bc 3c ef ec bc
       -0.0077550225 0.023410136 -0.011637742 -0.02892267
0003a0 5a 25 7d 3c b3 18 38 bc 46 1a 00 3c 7d b3 81 3d
       0.0154508 -0.0112363575 0.007818764 0.06333063
0003b0 63 24 18 bb 1a 98 78 bb ed de 03 bd c7 3b 23 bb
       -0.0023215048 -0.0037932456 -0.03219502 -0.0024907456
0003c0 d9 28 ae 3b a9 58 f1 3b cf cc 96 bb bc 5b 25 3d
       0.005314928 0.0073653054 -0.004602052 0.040370688
0003d0 66 9b 38 3d 26 6f f9 bd f4 ba 80 bd a9 3e ce bd
       0.045070074 -0.12179403 -0.062856585 -0.10070545
0003e0 75 10 8c bd c7 87 25 bd 0a be 77 3b 34 48 fc bb
       -0.068390764 -0.04041269 0.003780248 -0.007699037
0003f0 b9 b0 93 3c 4a d3 13 bd 5a 24 8b ba 70 51 f5 bc
       0.018028604 -0.036090173 -0.0010615692 -0.029946059

baseModel.8.bias f4 [64]
000000 6b a8 2f 37 15 44 83 36 a3 08 18 b7 f8 7a 3f b6
       1.0470026e-05 3.91203e-06 -9.061917e-06 -2.8532795e-06
000010 e3 18 17 38 3b 0d 3f b7 e2 95 c3 35 86 6d 67 b7
       3.6024383e-05 -1.1387568e-05 1.4572254e-06 -1.3794173e-05
000020 24 43 95 b7 25 b1 11 37 04 89 39 b7 e6 3b 6d b5
       -1.7793449e-05 8.683918e-06 -1.1058761e-05 -8.8376544e-07
000030 3f 3c 07 36 64 93 8e b3 6f 18 f2 b6 a1 18 20 b7
       2.0151635e-06 -6.6392005e-08 -7.2150065e-06 -9.5424775e-06
000040 6b 89 6f 36 fe 72 d8 35 6a 49 35 37 05 af 17 38
       3.5693763e-06 1.6126721e-06 1.0805534e-05 3.6164205e-05
000050 b7 1d 1d 37 57 bd e9 b5 fa cf a5 b6 db e1 f6 b7
       9.364848e-06 -1.7414958e-06 -4.941595e-06 -2.9430657e-05
000060 1b c9 98 b6 58 6b 0a 37 25 bc a1 37 19 5b 16 37
       -4.5533648e-06 8.250434e-06 1.9280307e-05 8.961907e-06
000070 31 0d 61 35 ac 97 3f 37 bf 01 c3 b7 25 1f 5c 37
       8.383823e-07 1.1419801e-05 -2.3246625e-05 1.3120273e-05
000080 24 ad 42 b7 de c1 51 37 6c 29 a4 37 35 a5 88 37
       -1.16036135e-05 1.2502509e-05 1.9569612e-05 1.6289394e-05
000090 e0 7d 2e 36 a2 c5 54 b6 cd a7 06 b8 fb 92 86 35
       2.600129e-06 -3.17055e-06 -3.2104366e-05 1.0026555e-06
0000a0 8b 38 f8 b6 13 16 10 b7 36 f9 b5 b7 65 3b 20 b5
       -7.3975584e-06 -8.588208e-06 -2.169293e-05 -5.9691075e-07
0000b0 76 46 39 36 c4 90 21 b6 13 40 62 b7 ed 6b 59 37
       2.7608162e-06 -2.4075134e-06 -1.3485568e-05 1.2959336e-05
0000c0 ed 20 f9 36 5d 7a 9c b6 bd 4f 45 37 d6 2a 00 36
       7.4246113e-06 -4.6634073e-06 1.17606805e-05 1.909842e-06
0000d0 4f b0 3d b6 93 a3 e6 b6 36 b3 8d 37 87 c6 78 36
       -2.826582e-06 -6.8735767e-06 1.6891961e-05 3.7070438e-06
0000e0 38 8b 4a b7 0c 60 1c 35 b0 de 21 37 d4 37 d0 b6
       -1.2072553e-05 5.8254295e-07 9.648196e-06 -6.2053823e-06
0000f0 a9 3b 1b b6 db bb 9e 37 51 40 d1 36 77 47 a2 b7
       -2.3131527e-06 1.8922545e-05 6.236173e-06 -1.9345183e-05

baseModel.9.weight f4 [64]
000000 ef 8b 3e 3f 5f 42 43 3f 5a 95 49 3f 52 9a 3c 3f
       0.7443227 0.7627315 0.7874352 0.73672974
000010 82 e9 21 3f d3 81 50 3f 19 ac 32 3f 9c 86 49 3f
       0.6324693 0.81448096 0.6979385 0.7872102
000020 22 75 22 3f 5f 36 38 3f 31 4a 42 3f 4c ab 4d 3f
       0.6345998 0.71957964 0.7589446 0.80339503
000030 be ef 33 3f a8 fa 3e 3f 4f e6 2a 3f c3 2a 3c 3f
       0.7028769 0.7460122 0.66757673 0.7350275
000040 df 0a 33 3f ca b2 36 3f d8 14 2e 3f 2e 6d 13 3f
       0.6993846 0.7136656 0.68000555 0.5758847
000050 5b 4a 3e 3f 18 1e 57 3f 44 1e 35 3f aa fc 3a 3f
       0.7433221 0.84030294 0.70749307 0.73041785
000060 de 8a 49 3f 4e 67 4e 3f 13 7f 3e 3f 3f b1 46 3f
       0.7872752 0.8062638 0.7441265 0.77614206
000070 cd 5c 1a 3f 9a f7 42 3f 1b ec 40 3f 9b 2b 42 3f
       0.6029785 0.7615906 0.7536027 0.75847787
000080 8a fd 4e 3f 1c 81 4f 3f 0d 88 4c 3f 8d 3f 31 3f
       0.8085562 0.8105638 0.79895097 0.69237596
000090 29 99 23 3f 76 6f 3c 3f f8 a0 24 3f 88 92 55 3f
       0.6390558 0.73607576 0.6430812 0.83426714
0000a0 1c 18 41 3f 87 78 28 3f 92 7a 3c 3f e8 bd 39 3f
       0.75427413 0.6580891 0.7362453 0.725554
0000b0 59 b6 2f 3f 51 7f 49 3f 20 f9 2e 3f 68 b5 1d 3f
       0.68637615 0.78709894 0.68348885 0.6160493
0000c0 a7 38 4a 3f 12 9c 1f 3f 78 d5 53 3f 55 18 45 3f
       0.78992695 0.6234752 0.827476 0.7699025
0000d0 a0 df 3a 3f d1 20 2a 3f 7b 0e 3a 3f ba 43 3d 3f
       0.72997475 0.66456324 0.72678345 0.7393147
0000e0 3b 5e 38 3f 58 25 35 3f 03 5c 3c 3f 20 4b 51 3f
       0.72018784 0.7076011 0.735779 0.81755257
0000f0 60 ad 41 3f 0b 32 1f 3f e9 f7 4b 3f ed db 25 3f
       0.75655174 0.62185735 0.79675156 0.64788705

baseModel.9.bias f4 [64]
000000 aa 5e 0d 3c 5e 59 60 bd 7a 50 4f bc 56 bf cd 3c
       0.008628527 -0.054772727 -0.012653464 0.02511565
000010 44 2b bc 3b 16 8e 03 bd 03 ec c9 3b 78 b7 41 bd
       0.0057424624 -0.032117926 0.006162168 -0.04729411
000020 1a 24 aa 3b 3d b6 f8 bb 7d 77 ac 3c 36 88 14 bd
       0.005192292 -0.007590084 0.02105307 -0.036262713
000030 75 32 5d bd 73 6b 4f bc 42 74 4c bd a7 25 f6 bc
       -0.054003198 -0.012659895 -0.04991556 -0.03004725
000040 4e c2 f3 bb ed 80 47 3d 7e 53 fe bc 0d 5c ab 3c
       -0.0074389344 0.048706938 -0.031045672 0.020917917
000050 f4 64 5c bd 67 41 af bd c2 43 74 3d 34 e5 25 3c
       -0.053807214 -0.085573964 0.05963493 0.010125447
000060 72 9c 4a bd f3 d0 87 3c ac e4 97 3b de 4b 13 bd
       -0.049465604 0.016579127 0.004635414 -0.035961024
000070 0d ba 0a 3c 11 0d 79 ba 71 4b 8e 3c 38 f7 bb bc
       0.0084672095 -0.0009500543 0.017369958 -0.022945032
000080 75 49 65 3d c3 d7 3b bd 64 c4 47 3b 1c bb 6d 3c
       0.055978257 -0.045860063 0.0030482048 0.014509942
000090 6b 60 9b bc 9b e0 2d ba 2e a4 4a 3c 22 a1 56 3c
       -0.018966874 -0.0006632895 0.012368245 0.0130999405
0000a0 4c d0 87 bd f6 55 dd 3c 65 87 9b 3c 3d c8 27 bc
       -0.06631526 0.027018528 0.01898546 -0.010240612
0000b0 5b e4 0a bb b5 17 04 3d 96 57 19 3d 3b 84 b2 bb
       -0.002119324 0.03224917 0.037437044 -0.005447892
0000c0 c0 8d 47 3c c1 7d a5 3d dc d9 a7 bc 79 b3 9f 3b
       0.012179792 0.08080626 -0.020489626 0.0048736897
0000d0 f3 fa 5b 3a 43 fc ad bc c4 e8 46 3c 90 51 d5 ba
       0.00083915814 -0.021238452 0.012140457 -0.0016274918
0000e0 27 e8 b5 bc d4 c5 87 3d 13 d8 63 bd 97 bd 48 bc
       -0.022205425 0.066295296 -0.055625986 -0.012252233
0000f0 dc c1 2f 3b 6a fb 59 3b 4d 98 ad 3c 2f 55 f6 bc
       0.002681843 0.0033261427 0.021190787 -0.030069916

baseModel.9.running_mean f4 [64]
000000 03 a3 28 3f 87 15 e9 be 36 0c d5 3e a0 81 30 be
       0.65873736 -0.45524237 0.4161088 -0.17236948
000010 7a 9e 82 be 09 c2 f3 be 7d 40 dd 3d fd 0b 0b be
       -0.25511533 -0.47608975 0.10803316 -0.13578792
000020 b5 33 71 3e 6d db b0 be 0a c9 90 3d ab 2c 85 3c
       0.23554881 -0.3454241 0.07069595 0.01625665
000030 9a ac 1d 3e 64 a6 a4 3d ee 59 cd be 4e 36 74 be
       0.15397874 0.08039549 -0.40107673 -0.2384884
000040 ff 80 e7 be 09 44 42 3c 82 fe a4 3d 34 23 3f bd
       -0.45215604 0.011857041 0.08056356 -0.04666443
000050 0c 44 e8 3c a5 bd 01 3f 79 cf 40 be 2a a7 2a 3c
       0.02835276 0.5068 -0.18829145 0.010415832
000060 9f 8c 77 bd 45 4b 70 be 38 e2 4d 3d a6 05 c8 be
       -0.06043684 -0.23466213 0.050264567 -0.3906681
000070 29 8e 07 3e 1e 60 6a 3e e3 38 7b be 10 0d e0 3d
       0.13237824 0.22888228 -0.2453342 0.109399915
000080 63 6d 6b 3e ad fa c5 3e 2d 27 9c 3b 60 c1 89 3e
       0.22990946 0.38667813 0.0047654123 0.26905346
000090 fd 56 8c be 6e 02 fe be 94 33 58 3c 16 b7 57 be
       -0.27410117 -0.4961123 0.013195891 -0.21065935
0000a0 09 26 88 be d8 ab f7 bd a6 cc 88 3e 78 2e 1e 3f
       -0.2659152 -0.120933235 0.26718634 0.61789656
0000b0 a1 94 a2 3e 3f 84 32 be ec e0 c5 3e 55 51 75 be
       0.3175402 -0.1743326 0.38648164 -0.23956807
0000c0 14 d0 cb be 85 1a 17 bf 18 76 a2 be d5 87 93 3e
       -0.3980719 -0.5902484 -0.31730723 0.2881457
0000d0 9d 0f 9a be 2a b6 1c 3f 17 fe 56 3e 29 f5 2c be
       -0.30090037 0.6121546 0.20995365 -0.16890396
0000e0 58 ab 5d 3e 87 83 45 3d b1 91 ae bd 51 95 a0 bb
       0.21647394 0.048221137 -0.08523882 -0.0049006124
0000f0 08 ee 5c bd b3 92 e3 3d 6e fb 19 bf d7 73 c2 3e
       -0.05393794 0.11111965 -0.60149276 0.37979004

baseModel.9.running_var f4 [64]
000000 81 8d b8 3d 75 a6 1a 3e 53 a2 b3 3d 6b 1d 09 3e
       0.09011365 0.15102561 0.08771195 0.13390128
000010 4f 05 54 3d e5 30 0c 3e 11 5f a5 3d c1 8b 1c 3e
       0.051762875 0.13690527 0.08074773 0.15287687
000020 43 8a 85 3d 93 a9 a9 3d ff 77 c3 3d 2f 71 2e 3e
       0.06520512 0.08284297 0.09544372 0.17035364
000030 bb 2f 5d 3d 70 d7 84 3d 6e 13 04 3e a5 58 cb 3d
       0.054000597 0.06486404 0.12898037 0.09929017
000040 9d ff 94 3d e8 f4 9e 3d e8 bc a8 3d f2 fd 81 3d
       0.07275317 0.07761556 0.08239156 0.06347264
000050 ac 79 ff 3d fc b3 dc 3d da 6f bd 3d dd ad a8 3d
       0.12474379 0.10776517 0.092498496 0.08236287
000060 1a 62 f4 3d 17 02 e4 3d 8a 1e b8 3d 4d bf e9 3d
       0.11932774 0.11133211 0.089902 0.11413441
000070 da b9 1c 3d a3 a3 e2 3d dd b2 1c 3e e4 13 0b 3e
       0.03826318 0.110663675 0.15302606 0.13581806
000080 27 7a d1 3d 8f 6b 77 3d 06 fd 2b 3e 56 7e aa 3d
       0.10228377 0.06040531 0.1679574 0.08324878
000090 c9 9d 84 3d a3 8d 2c 3e 49 27 40 3d 2a 68 3c 3e
       0.06475408 0.16850905 0.046912465 0.1839911
0000a0 85 10 db 3d 7e 24 89 3d ba 3c a1 3d 3b bb e4 3d
       0.1069651 0.066964135 0.07872911 0.11168524
0000b0 e8 c3 c1 3d 04 95 96 3d 5f 68 6e 3d a9 6d 4b 3d
       0.09461194 0.07352641 0.058205005 0.049665127
0000c0 af 54 a4 3d 4a 08 a3 3d 61 f5 d5 3d 70 b3 93 3d
       0.080239646 0.079605654 0.10447193 0.07211959
0000d0 b0 65 94 3d bb 54 81 3d 6e 1b c9 3d ba 81 06 3e
       0.07245958 0.06314989 0.09819685 0.13135424
0000e0 a2 48 88 3d 1e 15 95 3d 0d 21 c3 3d 57 c6 eb 3d
       0.066544786 0.072794184 0.09527788 0.1151244
0000f0 42 d9 d8 3d d5 54 67 3d a2 40 f8 3d 7c 51 82 3d
       0.10588314 0.056477387 0.12121703 0.06363198
