Models/Final/best_eeV0.pth (torch, 769587 bytes, 48 tensors)

baseModel.0.weight f4 [64, 2, 3]
0	0x3e141c2a	0.14463869
1	0xbe05fa4a	-0.13083759
2	0xbe907637	-0.2821519
3	0x3e922ac3	0.2854825
4	0x3d967994	0.07347408
5	0x3d4d5ca1	0.050137166
6	0xbd2d6441	-0.042331938
7	0x3eeea021	0.46606544
8	0xbe669a09	-0.22519697
9	0x3eb13855	0.3461329
10	0xbdef24a1	-0.11676908
11	0xbe6a2e0f	-0.22869132
12	0xbe6ac300	-0.22925949
13	0xbe68d46a	-0.2273728
14	0x3cbac67c	0.022799723
15	0xbe862516	-0.2620017
16	0xbdf04158	-0.11731213
17	0xbd8c424c	-0.068485826
18	0x3e077d5f	0.13231419
19	0x3d621c3d	0.05520271
20	0x3e510eb7	0.2041577
21	0x3e2deb0c	0.16984195
22	0x3d2c04a9	0.04199663
23	0xbe0a3a56	-0.13498816
24	0xbec5110a	-0.38489562
25	0xbe64e58d	-0.22353192
26	0x3d72143f	0.05910134
27	0xbe7034f8	-0.23457706
28	0x3e81c2e5	0.25344005
29	0x3ec27ab5	0.37984243
30	0xbe5ea6f9	-0.21743383
31	0x3d30c890	0.04316002
32	0xbe4eac73	-0.20182972
33	0x3ebefb59	0.37301138
34	0x3d04af90	0.032393992
35	0x3ebb569d	0.36589518
36	0x3ea7eb9a	0.32796937
37	0x3bee695b	0.007275743
38	0xbe26dcde	-0.16295192
39	0xbe9bc8d7	-0.30426666
40	0xbd75c1a4	-0.059999123
41	0xbeb751a7	-0.35804483
42	0x3cfdf321	0.030999722
43	0xbcf511be	-0.029915687
44	0x3b8caaea	0.0042928355
45	0xbeab0dc4	-0.3340894
46	0xbeb50905	-0.35358444
47	0x3cdc5075	0.026893834
48	0xbead1e9a	-0.3381241
49	0xbd106e50	-0.035261452
50	0x3ec5540a	0.3854068
51	0x3cdc0d11	0.0268617
52	0x3d12a21a	0.035799123
53	0xbda5fc42	-0.08104755
54	0xbe5983e2	-0.21241716
55	0xbe0710f7	-0.13190065
56	0xbe8242e8	-0.2544167
57	0x3e7c4235	0.24634631
58	0xba5ce4ed	-0.00084264466
59	0xbe731cfb	-0.23741524
60	0x3e9abaf6	0.30220765
61	0xbdda405c	-0.10656807
62	0xbeb2da33	-0.34932098
63	0x3e747041	0.23870946
64	0xbd64afd7	-0.055831756
65	0xbeb93373	-0.36172065
66	0x3e1ff51a	0.15620843
67	0xbd0813d1	-0.033222023
68	0xbe5bfd23	-0.21483283
69	0x3e4b9638	0.19881523
70	0x3ebbe91b	0.36701283
71	0x3e34adec	0.17644471
72	0x3e868b0b	0.26277956
73	0xbe3692ba	-0.17829409
74	0xbde0c55f	-0.109751455
75	0xbdde91bf	-0.108676426
76	0x3ed90564	0.42386925
77	0xbe87dcc3	-0.26535615
78	0x3e8579ff	0.26069638
79	0x3ed5bdc3	0.4174634
80	0xbe555713	-0.20833997
81	0x3e5da3bf	0.21644495
82	0x3e3ca656	0.18422827
83	0xbd48f16c	-0.049058363
84	0x3d0c095a	0.034188606
85	0x3e884ee0	0.26622677
86	0xbd6fabce	-0.058513455
87	0x3e01fa46	0.12693128
88	0x3e360440	0.17775059
89	0xbea2d984	-0.31806576
90	0x3e51ec0e	0.20500204
91	0xbe67637f	-0.22596548
92	0x3e61b5a0	0.2204194
93	0xbd2244c0	-0.039616346
94	0x3d954fd7	0.07290619
95	0xbda604f8	-0.081064165
96	0xbe19727b	-0.14985077
97	0xbe50823a	-0.20362177
98	0xbeadfff7	-0.33984348
99	0xbea7f9cd	-0.3280777
100	0xbe108e2f	-0.14116739
101	0x3e935770	0.28777647
102	0x3ed4cae2	0.41561037
103	0x3e3f3511	0.18672587
104	0xbd5e4a5f	-0.054270145
105	0x3e3333c9	0.17500223
106	0xbe3c9623	-0.18416648
107	0xbec1d501	-0.37857822
108	0x3d343be5	0.044002432
109	0xbd0c1d42	-0.03420759
110	0x3d1b66aa	0.037939705
111	0xbebdf34d	-0.37099686
112	0x3c20c707	0.009813077
113	0xbecf8580	-0.4053154
114	0x3de6733b	0.11252447
115	0xbe660975	-0.22464545
116	0xbdfc8c37	-0.12331431
117	0x3e2e10b5	0.1699856
118	0x3dbb8341	0.09155894
119	0xbe0d3eb5	-0.13793452
120	0x3ec74329	0.38918427
121	0x3cdd532b	0.027017197
122	0xbe3deb1a	-0.18546715
123	0x3d0a19f0	0.033716142
124	0x3e83c779	0.25738123
125	0x3e860296	0.26173848
126	0x3d2301c7	0.039796617
127	0x3e393b7f	0.18089102
128	0xbe047b4e	-0.12937662
129	0x3e1aef1f	0.1513028
130	0x3e9afc8e	0.3027081
131	0xbe9b0f5a	-0.3028515
132	0x3db97e08	0.09057242
133	0x3e204c28	0.15654051
134	0xbe12b11c	-0.14325374
135	0x3e823113	0.25428066
136	0xbea5378f	-0.3226895
137	0x3d0a6ac3	0.033793222
138	0xbeb18962	-0.34675127
139	0xbbaf3b52	-0.0053476477
140	0xbeb6356f	-0.35587642
141	0xbda4e6bc	-0.080518216
142	0x3c89e02b	0.016830524
143	0xbdb9d119	-0.09073085
144	0x3e94b1f8	0.2904203
145	0xbd9ea50d	-0.07746325
146	0xbe51d54e	-0.20491526
147	0xbe05ebd6	-0.13078246
148	0xbe1fc495	-0.15602334
149	0xbddd5252	-0.10806717
150	0x3ed14068	0.4086945
151	0x3e04a22e	0.12952492
152	0x3e77c4e0	0.24196196
153	0x3e8b9c10	0.27267504
154	0xbe883fe0	-0.26611233
155	0x3d816d7e	0.06319712
156	0x3e0bcb6c	0.13651818
157	0x3e0e91e2	0.13922837
158	0xbeb4de8a	-0.35326034
159	0xbe59ea0e	-0.21280691
160	0xbca95d31	-0.02067432
161	0x3e89efdc	0.2694081
162	0xbed596db	-0.41716656
163	0xbe1d0636	-0.153344
164	0x3a546a27	0.0008102976
165	0xbe350ddf	-0.17681073
166	0x3e153e36	0.14574513
167	0xbd48bb54	-0.049006775
168	0x3ead36f5	0.3383099
169	0x3d507c85	0.0509
170	0xbe5a2790	-0.21304154
171	0xbc9a51cd	-0.018837834
172	0x3b5adfdf	0.0033397598
173	0x3b1a1d10	0.0023515858
174	0xbc2b1296	-0.010441443
175	0xbe8d1a7c	-0.27559268
176	0x3e5e77cd	0.21725388
177	0x3d40d643	0.047079336
178	0xbc73f3f2	-0.014889704
179	0xbc0183ac	-0.007904928
180	0x3e7519a1	0.23935558
181	0x3e430117	0.19043384
182	0xbebaec8e	-0.36508602
183	0xba6f3fc3	-0.00091266277
184	0xbea0b6b6	-0.31389397
185	0xbddbc3ce	-0.10730706
186	0x3e7ad24c	0.24494284
187	0xbe873936	-0.26410836
188	0xbd1c5e31	-0.038175765
189	0xbdacd975	-0.08439914
190	0x3e057b69	0.13035358
191	0xbd91347e	-0.0709009
192	0xbe396e2e	-0.18108436
193	0x3e233af3	0.15940456
194	0x3cef90d0	0.029243857
195	0xbda7b6fc	-0.081891984
196	0x3e85ef7e	0.2615928
197	0xbde6bbd9	-0.11266298
198	0x3e4d11f6	0.20026383
199	0xbe7a2d58	-0.2443136
200	0x3d63e414	0.055637434
201	0xbd0db2e2	-0.034594424
202	0x3e17de43	0.1483088
203	0xbdc37110	-0.09543049
204	0x3e8eb549	0.27872685
205	0x3bb79223	0.0056021377
206	0x3e8cdafd	0.27510825
207	0x3e89249e	0.2678575
208	0x3da8c22e	0.08240162
209	0x3e78ea5e	0.24308154
210	0xbeb7da6d	-0.35908833
211	0xbc556a95	-0.013025899
212	0x3e98ab85	0.2981836
213	0x3d8b8ce9	0.06813986
214	0x3ea053e3	0.31314
215	0x3e432f47	0.19061004
216	0xbdac4b79	-0.08412833
217	0x3d3975aa	0.04527823
218	0xbd7a59ad	-0.061120678
219	0x3e4e874f	0.20168804
220	0xbe27e4a7	-0.16395818
221	0x3df7e3d7	0.12104004
222	0x3d7406fc	0.059576973
223	0xbd13d557	-0.03609213
224	0xbe08c96f	-0.13358091
225	0xbeb27c27	-0.34860346
226	0x3ea56f6b	0.32311568
227	0x3e7f9106	0.24957666
228	0xbe74c7b2	-0.23904303
229	0xbe968ad4	-0.29402792
230	0x3e51f6f0	0.20504355
231	0x3e53f99a	0.20700684
232	0xbe953b63	-0.2914687
233	0xbe7e5d86	-0.24840364
234	0x3da2f083	0.0795603
235	0xbea60e7e	-0.32432932
236	0x3e6269da	0.22110692
237	0x3d8cf330	0.06882322
238	0xbd25a701	-0.04044247
239	0xbd54a90e	-0.051919036
240	0xbe2d82f4	-0.16944486
241	0x3e49eac9	0.1971847
242	0x3c9f8a7d	0.019475216
243	0xbe2fe5b5	-0.1717747
244	0x3e892549	0.2678626
245	0xbdb23661	-0.08701778
246	0x3c8aee17	0.016959233
247	0x3e0c745e	0.13716266
248	0x3eaad248	0.33363557
249	0xbea97b0e	-0.33101696
250	0xbe160206	-0.1464921
251	0x3e4db237	0.20087515
252	0xbeb1adf5	-0.3470303
253	0x3ce31818	0.02772145
254	0x3e4d0bbf	0.20024012
255	0x3e4c0d1e	0.19926879

baseModel.0.bias f4 [64]
0	0x38b03c80	8.403603e-05
1	0xb7fd03cf	-3.0161724e-05
2	0x3927d0ba	0.00016004118
3	0xba25b7bc	-0.0006321629
4	0x38efcbac	0.00011434345
5	0xb9f0be29	-0.00045918048
6	0x3a793be7	0.00095075223
7	0xb93d0c95	-0.00018029132
8	0xb9fc4790	-0.00048118504
9	0x39999d02	0.00029299414
10	0xba7881b1	-0.0009479775
11	0xb9607943	-0.00021407478
12	0xb99b7948	-0.00029654265
13	0xb98b1222	-0.00026525656
14	0xb99fce75	-0.00030480666
15	0x388b5c76	6.645259e-05
16	0x39128394	0.00013972662
17	0xb98babcb	-0.00026640142
18	0x38d3e343	0.00010103595
19	0xb9cf4c81	-0.00039539117
20	0xb9ca76e6	-0.0003861703
21	0x3a641856	0.0008701136
22	0x3a071700	0.00051532686
23	0x3a095e91	0.0005240227
24	0x39c742af	0.0003800592
25	0x39b3408a	0.00034189626
26	0xb8d254f6	-0.000100294055
27	0x3980634c	0.00024488044
28	0xb8d4bb0d	-0.00010143789
29	0x3aa69997	0.0012710568
30	0x3988c918	0.00026089768
31	0xba8a2347	-0.0010539078
32	0x3970effc	0.00022977585
33	0x39b18ef7	0.00033866588
34	0x38c9a1f1	9.614591e-05
35	0x396e283a	0.00022712434
36	0x39bc94e2	0.0003596908
37	0x3982ce00	0.00024949014
38	0xba09bbcd	-0.000525412
39	0x385ac753	5.2160885e-05
40	0x38ce13b6	9.826517e-05
41	0x39ff9c70	0.00048753945
42	0x3a1a3e08	0.0005883877
43	0x39bb7704	0.00035756093
44	0xba23c380	-0.00062470883
45	0xb9b7d85b	-0.00035065677
46	0x39f1af54	0.00046097732
47	0xba30276a	-0.00067197403
48	0x39a80c4b	0.00032052616
49	0x3a77aa12	0.00094476447
50	0x399fec06	0.00030502694
51	0x3a1ba5bc	0.0005937477
52	0x3907b78c	0.0001294298
53	0x39440a2f	0.0001869581
54	0xba57106c	-0.0008204046
55	0xb8a32a22	-7.7802935e-05
56	0x39f23514	0.00046197383
57	0xba1283f3	-0.000558912
58	0x3a493dca	0.0007676749
59	0xba376876	-0.0006996462
60	0x39d25b0b	0.00040122154
61	0xb8889c50	-6.514101e-05
62	0xba704e90	-0.000916698
63	0xb8386095	-4.3958968e-05

baseModel.1.weight f4 [64]
0	0x3f79b1e8	0.9753709
1	0x3f71e0ec	0.9448383
2	0x3f737be6	0.9511093
3	0x3f72fdd1	0.94918543
4	0x3f7a9c78	0.97895
5	0x3f7bc4f2	0.9834739
6	0x3f7252ad	0.94657403
7	0x3f7aa611	0.9790965
8	0x3f7cbeea	0.9872881
9	0x3f73c378	0.95220137
10	0x3f785564	0.97005296
11	0x3f659fa9	0.8969675
12	0x3f6fb68f	0.9363794
13	0x3f718f65	0.9435943
14	0x3f75fd0a	0.9608923
15	0x3f72a2b7	0.94779533
16	0x3f71101f	0.94165224
17	0x3f77f5f3	0.96859664
18	0x3f80a710	1.0050983
19	0x3f6d45bc	0.9268453
20	0x3f7953a8	0.97393274
21	0x3f727639	0.94711643
22	0x3f6c06d7	0.92197937
23	0x3f7b040d	0.98053056
24	0x3f7724e0	0.9654064
25	0x3f6fb53c	0.93635917
26	0x3f71fd0c	0.94526744
27	0x3f73495f	0.9503383
28	0x3f790985	0.9728015
29	0x3f71e6fa	0.9449307
30	0x3f762df1	0.9616385
31	0x3f6e2f13	0.9304058
32	0x3f7126c5	0.9419978
33	0x3f7274e8	0.94709635
34	0x3f7cac8c	0.98700786
35	0x3f75948d	0.95929796
36	0x3f7837a2	0.9695989
37	0x3f72ae51	0.94797236
38	0x3f767c34	0.9628327
39	0x3f699921	0.9124928
40	0x3f6bd7fd	0.92126447
41	0x3f7bb307	0.9832005
42	0x3f746d97	0.9547972
43	0x3f6a5225	0.9153159
44	0x3f6c5ec0	0.9233208
45	0x3f6f3ada	0.93449175
46	0x3f806ba5	1.003285
47	0x3f7addf3	0.9799492
48	0x3f78c1c2	0.9717065
49	0x3f7b0ba3	0.9806463
50	0x3f7a4d4d	0.977742
51	0x3f78aa03	0.9713442
52	0x3f6fc2e9	0.93656784
53	0x3f716eba	0.9430958
54	0x3f73ba99	0.952066
55	0x3f7b102a	0.9807154
56	0x3f76ca2e	0.9640225
57	0x3f61f8ea	0.8827044
58	0x3f74aaa4	0.95572877
59	0x3f7652a4	0.9621985
60	0x3f65820a	0.8965155
61	0x3f7adece	0.9799622
62	0x3f753600	0.9578552
63	0x3f787cbf	0.9706535

baseModel.1.bias f4 [64]
0	0xbdf18717	-0.117933445
1	0xbe4d2295	-0.20032723
2	0x3c91575a	0.017741848
3	0xbd970593	-0.0737411
4	0xbe00557d	-0.12532611
5	0xbdce7d02	-0.10082437
6	0xbd82d403	-0.06388094
7	0x3d170719	0.036872003
8	0xbe224f7b	-0.15850632
9	0xbdd14ce9	-0.102197476
10	0xbcad3486	-0.02114321
11	0xbb492517	-0.0030692273
12	0xbe342103	-0.17590718
13	0x3e16dd76	0.14732918
14	0xbe399fb1	-0.18127324
15	0x3eb83767	0.3597977
16	0xbddfb490	-0.109231114
17	0xbe11682a	-0.14199892
18	0xbda78652	-0.081799164
19	0xbe1b834e	-0.15186808
20	0xbe0feec6	-0.14055929
21	0x3ea785b5	0.32719198
22	0xbe1ef71e	-0.15523955
23	0xbda7d0ce	-0.08194123
24	0xbe09bb11	-0.13450266
25	0x3aeb3ff1	0.0017948133
26	0xbe186f84	-0.1488629
27	0x3d46d4bd	0.048542727
28	0xbd031edd	-0.032011855
29	0x3ea95aec	0.3307718
30	0xbe3b7380	-0.18305779
31	0x3ea6a674	0.3254887
32	0xbe189770	-0.14901519
33	0xbe136bc7	-0.14396583
34	0xbddec59a	-0.10877533
35	0xbe1acbe8	-0.15116847
36	0x3e3ff917	0.18747364
37	0xbdaa2911	-0.08308614
38	0xbe1edfda	-0.1551508
39	0xbe1519ea	-0.14560667
40	0x3e9e7419	0.3094795
41	0xbde22954	-0.11043039
42	0xbe281c0b	-0.16416948
43	0x3e2b6fa6	0.16741809
44	0x3ea003de	0.3125295
45	0x3bed94e3	0.0072504147
46	0xbda61d27	-0.08111029
47	0xbe1c45bc	-0.15260977
48	0xbe1072a2	-0.14106229
49	0xbe29ab8b	-0.16569345
50	0xbe17d5e2	-0.14827684
51	0x3d8ff22b	0.07028612
52	0xbd29859e	-0.041387193
53	0xbd8c8b91	-0.06862558
54	0x3d124d11	0.035718028
55	0xbdead5c1	-0.114665516
56	0xbe2ca8bf	-0.16861247
57	0xbde534c1	-0.11191703
58	0xbd4b9e8e	-0.049711756
59	0x3c372296	0.0111776795
60	0xbd947f28	-0.07250816
61	0xbbbc59cc	-0.0057480093
62	0x3da73ec6	0.0816627
63	0x3e94dcdc	0.29074752

baseModel.1.running_mean f4 [64]
0	0x38f14a04	0.00011505562
1	0x38bbe2fd	8.959135e-05
2	0x392097fa	0.00015315405
3	0xba583e04	-0.0008248987
4	0x386cc123	5.6446657e-05
5	0xb97397d7	-0.0002323085
6	0x3a61a31d	0.00086073746
7	0xb8aff36c	-8.389991e-05
8	0xb9fb53da	-0.00047936925
9	0x39baa851	0.0003560209
10	0xba5f86f0	-0.0008526882
11	0xb6e01e75	-6.679266e-06
12	0xb93493df	-0.00017221224
13	0xb97b2853	-0.00023952247
14	0xb99b660b	-0.00029639932
15	0x38b2a404	8.518252e-05
16	0x3941d3f4	0.00018484873
17	0xb9575d49	-0.00020538749
18	0x38872370	6.4439024e-05
19	0xb9ef9806	-0.000456989
20	0xb9faf30b	-0.00047864797
21	0x3a876144	0.001032867
22	0x399b9939	0.00029678064
23	0x39e847a7	0.00044303873
24	0x39a8de9b	0.0003220931
25	0x395d1d97	0.00021087225
26	0xb968b89e	-0.0002219402
27	0x39b1d87b	0.0003392136
28	0xb86e53db	-5.682172e-05
29	0x3aa8d441	0.0012880639
30	0x39287a58	0.00016067305
31	0xba58a5a3	-0.0008264428
32	0x392138b6	0.00015375283
33	0x3a131a3a	0.0005611513
34	0x3936e247	0.00017441167
35	0x38e17779	0.000107510896
36	0x39b28807	0.00034052154
37	0x39b10bad	0.0003376877
38	0xb9b6c140	-0.00034857728
39	0xb859d7c5	-5.1937783e-05
40	0xb6ba0dee	-5.5448536e-06
41	0x3a1b0562	0.0005913583
42	0x39ee4daf	0.00045452776
43	0x39de8483	0.0004244187
44	0xba3ca723	-0.0007196536
45	0xb9d4f35c	-0.00040617108
46	0x3a0fe0ee	0.0005488534
47	0xba142458	-0.00056511676
48	0x398b0bc7	0.0002652092
49	0x3a689f43	0.00088738295
50	0x398ac40b	0.00026467475
51	0x3a056c2c	0.0005089666
52	0x394be7fb	0.00019446008
53	0x39415d3b	0.00018440645
54	0xba50a231	-0.0007958739
55	0xb9306ae2	-0.00016824485
56	0x3a2a2c94	0.0006491628
57	0xb9a6612e	-0.00031734392
58	0x3a2a58da	0.0006498225
59	0xba3a42fd	-0.0007105319
60	0x3a249e66	0.0006279707
61	0x38534239	5.0367995e-05
62	0xba75e20c	-0.0009379692
63	0xb9183cde	-0.00014518524

baseModel.1.running_var f4 [64]
0	0x37152a34	8.890918e-06
1	0x37543866	1.2649316e-05
2	0x3724b9e5	9.818444e-06
3	0x36a03305	4.774311e-06
4	0x37a7f194	2.0020445e-05
5	0x377b39fb	1.49742655e-05
6	0x377b6e6d	1.4986476e-05
7	0x374bae7f	1.2140371e-05
8	0x371b6a4c	9.263469e-06
9	0x37382ccf	1.0977687e-05
10	0x3777a5bd	1.4760936e-05
11	0x3774dbe7	1.4594733e-05
12	0x3710ed09	8.638258e-06
13	0x377c3d91	1.5034705e-05
14	0x36eaa984	6.9934777e-06
15	0x364c64c9	3.0457034e-06
16	0x37924fc5	1.7441702e-05
17	0x37991a9d	1.8251414e-05
18	0x374bc9bd	1.2146714e-05
19	0x36a7ead4	5.0043254e-06
20	0x376d0d33	1.4129374e-05
21	0x36fd3db8	7.5471726e-06
22	0x36b534c2	5.400362e-06
23	0x3732abf1	1.064966e-05
24	0x36fe01bc	7.569992e-06
25	0x377ff65a	1.5256543e-05
26	0x3715dd06	8.932553e-06
27	0x372ef9c4	1.0429361e-05
28	0x36c36b1a	5.823921e-06
29	0x364ac623	3.0215676e-06
30	0x37503bd0	1.2411692e-05
31	0x367f8248	3.8073795e-06
32	0x3660b178	3.3481901e-06
33	0x363a1c1b	2.773252e-06
34	0x375bf528	1.3110497e-05
35	0x377f9f21	1.52362345e-05
36	0x36069f61	2.0060327e-06
37	0x372b80b1	1.0222358e-05
38	0x376d4049	1.4141268e-05
39	0x36702776	3.5785756e-06
40	0x36805300	3.8243597e-06
41	0x3759921f	1.2968229e-05
42	0x37556662	1.2719627e-05
43	0x369f4cde	4.747518e-06
44	0x365621f0	3.190824e-06
45	0x374829a3	1.1930623e-05
46	0x371fda00	9.527896e-06
47	0x379bdc3a	1.857999e-05
48	0x376bd001	1.4055521e-05
49	0x372b5429	1.0211989e-05
50	0x3758dc43	1.2925887e-05
51	0x3785625d	1.590064e-05
52	0x37569349	1.27896865e-05
53	0x374eb94a	1.2321698e-05
54	0x3779dde6	1.4893221e-05
55	0x37928f0f	1.7471173e-05
56	0x3733769e	1.0696849e-05
57	0x36a06365	4.7799426e-06
58	0x3725bde9	9.878983e-06
59	0x37068d0e	8.019864e-06
60	0x371a68f7	9.203554e-06
61	0x372d0550	1.03128405e-05
62	0x365a6a3b	3.2546366e-06
63	0x36ae1a5f	5.188674e-06

shortBranch.2.weight f4 [64, 1024]
0	0xbc4bc616	-0.012437364
1	0xbd00a9fb	-0.031412106
2	0xbb39f8ce	-0.002837706
3	0xbc8046d9	-0.015658783
4	0xbc103cf6	-0.008803597
5	0xbce1088f	-0.027469901
6	0xbc136410	-0.008996025
7	0xbc5167d6	-0.012781104
8	0xbbb2a26c	-0.005451491
9	0xbcc57cb8	-0.024107322
10	0xbccc577d	-0.024944061
11	0xbc30445f	-0.010758488
12	0xbd0b126b	-0.03395311
13	0xbca29a6b	-0.019849023
14	0xbd11d73e	-0.03560566
15	0xbcebfd45	-0.028807292
16	0xbc934267	-0.017975999
17	0xbb0417cd	-0.0020155788
18	0x3c513193	0.012768167
19	0xbb7a5952	-0.0038200212
20	0x3c81cad7	0.015843792
21	0x3c5e5b23	0.013571533
22	0x3c9ef40e	0.019403484
23	0x3c8c4473	0.017122483
24	0x3d299ebc	0.041411147
25	0xbc23603b	-0.009971674
26	0x3c1a260d	0.009408486
27	0x3c677882	0.014127852
28	0x3bc64ae6	0.006051409
29	0xbb8461f1	-0.004039996
30	0x3bc6ab9f	0.0060629393
31	0x3d202d9b	0.039105993
32	0x3c9af2c8	0.018914595
33	0x3c7f04d3	0.015565115
34	0x3c33ba9e	0.010969786
35	0x3cb4c574	0.02206681
36	0x3c57022a	0.013123075
37	0x3d01ebce	0.03171902
38	0x3c8be39e	0.01707631
39	0x3cc353ce	0.023843672
40	0x3ccc7a87	0.02496077
41	0x3d1b29be	0.037881605
42	0x3c7bad86	0.015361195
43	0x3c9f8455	0.01947228
44	0x3caa403c	0.020782582
45	0x3d018dc0	0.031629324
46	0x3ccb528a	0.024819631
47	0x3c8f56bc	0.017497413
48	0xbbe84a63	-0.0070889457
49	0xbd162453	-0.036655735
50	0xbc835ae4	-0.016034551
51	0xbd0a2996	-0.033731066
52	0xba67fc08	-0.0008849506
53	0xbc876eb1	-0.016532274
54	0x3babd551	0.005243935
55	0x3c1bfe6c	0.009521108
56	0xbc3370b7	-0.010952166
57	0xbbb61ddd	-0.005557759
58	0xbcb56c5c	-0.022146396
59	0xbc853fd5	-0.016265789
60	0xbb7e59e5	-0.0038810906
61	0xbc9fadd4	-0.019492067
62	0xbc05c357	-0.008164248
63	0xbc786ba9	-0.015162387
64	0xbd2a6f33	-0.041609954
65	0xbca68fa9	-0.020332174
66	0xbcfeef36	-0.031119924
67	0xbbd80962	-0.0065929154
68	0x3ae71af2	0.0017631932
69	0xbbba7ced	-0.005691162
70	0xbcf13d44	-0.029448159
71	0xbd02c81a	-0.031929113
72	0xbd0f7767	-0.03502598
73	0xbc89179f	-0.016734896
74	0xbc099e3f	-0.008399545
75	0xbd0e4b3a	-0.03473971
76	0xbd09f15e	-0.03367745
77	0xbcfc6a2c	-0.030812345
78	0xbbd21d32	-0.0064121718
79	0xbcba6be7	-0.02275653
80	0x3c780f3a	0.015140349
81	0x3d15bdf8	0.03655812
82	0x3cf9822e	0.030457582
83	0x3bfed6a1	0.0077770506
84	0x3c505132	0.012714671
85	0x3cdf0952	0.027226124
86	0x3d060a86	0.03272488
87	0x3ce6dcdb	0.028181484
88	0x3c67aae7	0.014139867
89	0x3c13d710	0.009023443
90	0x3ccbbd48	0.02487053
91	0x3d27428c	0.04083495
92	0x3d31afd4	0.043380573
93	0x3d16a0e0	0.036774516
94	0x3bfbbcf0	0.007682435
95	0x3ce8f3b5	0.028436521
96	0xbcc2b06a	-0.023765761
97	0xbcaa8ea5	-0.020819971
98	0xbcacb8dc	-0.021084242
99	0xbc19fef7	-0.009399167
100	0xbbf17727	-0.0073689404
101	0xbcc68a8b	-0.024235984
102	0xbbb89110	-0.005632527
103	0xbc4d8007	-0.012542731
104	0x3bba5074	0.0056858603
105	0xbc1bbf25	-0.009506022
106	0x3b6cb5ce	0.0036119106
107	0xbbaaa65c	-0.00520782
108	0xbc9d06e1	-0.01916832
109	0x3c69d0e6	0.014270997
110	0xbb5c1f30	-0.0033587925
111	0x3b84269c	0.004032923
112	0x3c173004	0.009227756
113	0x3cc544d3	0.02408067
114	0x3d049962	0.03237284
115	0x3ccc8082	0.024963621
116	0x3ae6f7f2	0.0017621501
117	0xba89ec56	-0.0010522704
118	0x397e7f90	0.00024270848
119	0x3c042be7	0.008067108
120	0x3c0b81b9	0.008514815
121	0x3cdb4a04	0.026768692
122	0x3c701eba	0.014655763
123	0x3c7e3087	0.0155144995
124	0x3cc43b70	0.023954123
125	0x3c61e045	0.01378638
126	0x3c2b2a49	0.010447093
127	0x3cb3fbbe	0.021970626
128	0x3cc49f69	0.024001794
129	0x3ce4b15f	0.027916608
130	0x3bbcc202	0.005760432
131	0x3c8ca0a0	0.017166436
132	0x3cd53e70	0.02603075
133	0x3c7e80d4	0.015533645
134	0x3c6d65bc	0.014489587
135	0x3d1aed51	0.03782398
136	0x3cdfcb98	0.02731876
137	0x3cc9776a	0.024593074
138	0x3c60448a	0.013688216
139	0x3cb4ec42	0.022085313
140	0x3ce677b3	0.028133249
141	0x3cbcdc33	0.023054218
142	0x3c944b21	0.01810223
143	0x3d34cf4d	0.04414301
144	0x3aa86e93	0.0012850336
145	0xbc2e824b	-0.010651181
146	0xbcea14cb	-0.028574368
147	0xbcdc6364	-0.026902862
148	0xbc28c791	-0.010301487
149	0x3c5a171c	0.013311174
150	0xbc3cdaa6	-0.011526739
151	0xbb397ff0	-0.0028305016
152	0xbcdf0127	-0.02722223
153	0xbc694b17	-0.014239094
154	0xbb85753c	-0.0040728133
155	0xbbb5d3e7	-0.0055489424
156	0xbbd7fde2	-0.0065915445
157	0x3aede46a	0.0018149738
158	0xbc186c45	-0.009303157
159	0xbcd80582	-0.026369814
160	0x3c98e7a7	0.018665148
161	0x3c974ffd	0.018470759
162	0x3c0a939a	0.0084580425
163	0x3bc5ae0b	0.0060327104
164	0x3ce6870f	0.028140573
165	0x3c301e02	0.010749342
166	0x3b533a72	0.003223088
167	0x3ccd110f	0.025032548
168	0x3bc1a6da	0.005909783
169	0x3cf888be	0.030338641
170	0x3b93e7e1	0.004513726
171	0x3ca41e91	0.020034106
172	0x3cd80563	0.026369756
173	0x3ccb962b	0.02485188
174	0x3cb17aec	0.021665059
175	0x3cc8de33	0.024520015
176	0xbc80c110	-0.01571706
177	0xbbd00e16	-0.0063493354
178	0x3b34bf5e	0.0027579884
179	0x3c1d544b	0.009602617
180	0xbbfe2232	-0.0077555412
181	0xbbe25e30	-0.0069082007
182	0x3b9a0a40	0.004700929
183	0x39bba770	0.0003579217
184	0x3bcc7673	0.006239706
185	0xbac6bff7	-0.0015163411
186	0xbc4d8de5	-0.012546037
187	0xbc6f37a0	-0.014600664
188	0xbb5fc9ce	-0.0034147385
189	0xbb708a22	-0.0036703427
190	0x3c97bab3	0.018521642
191	0xbc853ec7	-0.016265286
192	0xbbc7bfe3	-0.0060958727
193	0x3c824ffc	0.01590728
194	0x3c8c8aa1	0.017155947
195	0x3ca1f738	0.019771203
196	0x3b679add	0.0035340108
197	0x3c694a32	0.014238881
198	0x3d06c7fb	0.03290556
199	0xb937328b	-0.00017471069
200	0xbbcf29d1	-0.0063221236
201	0x3b97b047	0.004629168
202	0x3c842989	0.016133087
203	0x3bdac7a3	0.0066766306
204	0x3aef4767	0.0018255532
205	0x3ca0c20c	0.019623779
206	0xbb3eb270	-0.0029098056
207	0x3cb76373	0.022386288
208	0xbb59523f	-0.0033160595
209	0x3cd9dc49	0.026594298
210	0xbbb664ae	-0.005566201
211	0x3c6dfb9b	0.014525319
212	0x39117714	0.00013872638
213	0x3cccd9bd	0.02500617
214	0x3c3ed0a8	0.011646427
215	0x3ca4027a	0.020020712
216	0x3c842952	0.016132984
217	0x3ca56170	0.020188063
218	0x39e6c1cc	0.00044013408
219	0x3ce7917e	0.028267618
220	0x3c75d619	0.015004658
221	0x3ba94e8e	0.005166835
222	0x3bac7edd	0.0052641467
223	0x3b64d906	0.0034919395
224	0x3c2de06d	0.010612589
225	0x3c7abedc	0.0153042935
226	0x3c9f1585	0.019419441
227	0x3b9a94d5	0.004717449
228	0xbb6103b4	-0.0034334483
229	0xba07c7c7	-0.00051796105
230	0xbc29a3d6	-0.010354003
231	0x3baa37b8	0.0051946305
232	0x3bed51bd	0.00724241
233	0x3c2cbf71	0.01054369
234	0x3c4b0436	0.012391141
235	0xbc92cc8c	-0.017919801
236	0xbce0023e	-0.02734482
237	0x3c4210ac	0.011844795
238	0xbc57b501	-0.013165713
239	0x3ae1f767	0.0017239869
240	0xbc5a4971	-0.013323174
241	0xbca7332a	-0.02041014
242	0xbc1ad895	-0.009451051
243	0xbcdb8895	-0.026798526
244	0xbba52f32	-0.0050410265
245	0xbd4c1208	-0.049821883
246	0xbcfe418f	-0.03103712
247	0xbca1c51d	-0.019747311
248	0xbc33699e	-0.010950474
249	0xbca38bd5	-0.019964138
250	0xbc242978	-0.010019653
251	0xbcf14699	-0.029452609
252	0x3a14f5c5	0.00056823745
253	0xbc813e01	-0.015776636
254	0xbb7a6550	-0.003820736
255	0xbc486706	-0.012231594

shortBranch.2.bias f4 [64]
0	0xbdab5fb3	-0.083678626
1	0x3ea4d460	0.3219328
2	0xbe81607a	-0.25268918
3	0x3e050e7a	0.12993804
4	0x3daa7294	0.08322635
5	0xbe73802c	-0.23779362
6	0xbc830112	-0.015991721
7	0x3e06aaf5	0.13151152
8	0x3e63dbcf	0.22251819
9	0xbe222999	-0.15836181
10	0x3df05015	0.117340244
11	0xbb92c1b8	-0.0044786595
12	0xbe6cd8f9	-0.23129643
13	0xbe8d4333	-0.2759033
14	0x3d1b4958	0.037911743
15	0xbe8c62f3	-0.27419242
16	0xbe88ab6e	-0.2669329
17	0xbe788428	-0.24269164
18	0xbd88192a	-0.06645425
19	0xbd205820	-0.039146543
20	0x3e8c455c	0.27396667
21	0x3e7cd27c	0.24689668
22	0x3e8c3b1c	0.27388847
23	0xbe6cd6df	-0.23128842
24	0x3e47bacb	0.1950485
25	0x3e81c9bb	0.2534922
26	0xbcb87d6b	-0.022520741
27	0x3c23b473	0.009991753
28	0x3ce4ab12	0.027913604
29	0xbe85efaf	-0.26159427
30	0xbe469869	-0.19394077
31	0xbe2f6edf	-0.17132138
32	0xbe6d017b	-0.23145096
33	0x3e87a535	0.2649323
34	0x3e95fd2e	0.29294723
35	0xbd756851	-0.059913937
36	0x3e598a50	0.21244168
37	0xbca66423	-0.02031142
38	0x3e57e602	0.21083835
39	0x3e150c49	0.14555468
40	0x3dcc8127	0.09985571
41	0xbd95aa3a	-0.07307859
42	0xbcf705b0	-0.03015408
43	0xbe9cba3a	-0.3061083
44	0x3e870ad9	0.26375464
45	0xbc92245b	-0.017839601
46	0x3e86a031	0.2629409
47	0xbe6e4cab	-0.23271434
48	0xbe6f128a	-0.23346916
49	0xbe78800e	-0.24267599
50	0xbd3d974e	-0.046286874
51	0x3dfddfc9	0.12396199
52	0xbd92a3e3	-0.07160165
53	0x3dbd2412	0.092353955
54	0x3e3aa518	0.18227041
55	0xbe5f296a	-0.21793142
56	0x3e4c98dd	0.19980188
57	0xbe7d9b64	-0.24766308
58	0x3d7d540e	0.06184774
59	0xbe86a48a	-0.26297408
60	0x3d8c9116	0.068636104
61	0xbddee26c	-0.1088303
62	0x3e6d70b1	0.2318752
63	0x3dbbda0e	0.0917245

shortBranch.4.weight f4 [32, 64]
0	0xbd2142bd	-0.039370287
1	0x3bbcfbcc	0.005767321
2	0x3d083e11	0.033262316
3	0x3b6e7302	0.0036384468
4	0xbe1e7e67	-0.15477906
5	0xb84a2011	-4.8190417e-05
6	0xbe1efe90	-0.15526795
7	0xbe12b5c5	-0.14327152
8	0xbd84fd43	-0.06493618
9	0xbd8e71f1	-0.06955326
10	0xbd38b04b	-0.04509
11	0xbc1a3570	-0.009412155
12	0xbc1faa8f	-0.009745254
13	0x3c668269	0.014069178
14	0xbc986074	-0.01860068
15	0xbbab5169	-0.0052282107
16	0xba553c5e	-0.00081343006
17	0xbab26f3a	-0.001361347
18	0x3cc6efd2	0.024284277
19	0xbd08ae53	-0.033369374
20	0x3b9b06ae	0.004731021
21	0x3c32fb05	0.0109241055
22	0xbcb0c0eb	-0.021576365
23	0xbc1a15d6	-0.00940462
24	0x3bc93301	0.0061401133
25	0x3b21c791	0.0024685601
26	0xbe02ab01	-0.12760545
27	0x3c91531a	0.017739821
28	0xbe7a59fe	-0.24448392
29	0xbae9bdc2	-0.0017833041
30	0xbe074e9b	-0.1321358
31	0xbb56ab75	-0.0032756005
32	0xbbaeab02	-0.0053304443
33	0xbc9d0f2f	-0.01917228
34	0x3c416f4d	0.011806321
35	0xbe534624	-0.20632225
36	0xbc12f63c	-0.00896984
37	0x3d9eff39	0.077635236
38	0xbd934332	-0.07190551
39	0xbdc495a4	-0.09598854
40	0x3dd58887	0.10426431
41	0x3e51fe18	0.20507085
42	0xbdafcbf8	-0.08583826
43	0x3ccd67c2	0.02507389
44	0x3c201c1e	0.009772329
45	0x3e81c432	0.25344998
46	0x3a3874ec	0.00070364657
47	0xbbc7a86c	-0.0060930755
48	0xbb1ae6c5	-0.0023636085
49	0xbadfacc0	-0.0017065033
50	0xbe6f1a37	-0.23349844
51	0xbe208d3b	-0.15678875
52	0xbe83c336	-0.25734872
53	0xbe49d655	-0.19710667
54	0x3e21730b	0.15766542
55	0xbc8eb905	-0.017422209
56	0xbd8ae5e0	-0.067821264
57	0xbc322554	-0.0108731575
58	0xbcbf14ee	-0.02332541
59	0xbbe0e7d8	-0.0068635754
60	0xbcf78dcd	-0.030218983
61	0x3baa8ed7	0.005205016
62	0xbdac5930	-0.08415449
63	0xbcc7f346	-0.024407994
64	0xbc3654d6	-0.011128625
65	0xbd22968d	-0.039694358
66	0x3df9f78e	0.122054204
67	0x3a178437	0.00057798944
68	0x3cd4970e	0.025950935
69	0x3d393015	0.04521187
70	0xbd5203ce	-0.05127316
71	0x3ca94bf2	0.020666096
72	0xbbab63b8	-0.0052303933
73	0xbca2501f	-0.019813595
74	0xbd04099d	-0.03223573
75	0x3c3dc569	0.011582711
76	0x3d14e275	0.03634878
77	0x3e0d4d74	0.13799077
78	0x3c80d6e1	0.015727462
79	0x3e3c138d	0.18366833
80	0x3e5eabac	0.21745175
81	0x3d829ee7	0.063779645
82	0x3c2abcc7	0.010420985
83	0xbc7c7b20	-0.015410215
84	0xbe02b5c4	-0.1276465
85	0xbe30610e	-0.17224523
86	0xbe1f5909	-0.15561308
87	0xba98bf16	-0.0011653628
88	0xba33cac3	-0.0006858522
89	0xbdd48b1e	-0.10378097
90	0xba72c7b3	-0.0009261325
91	0xbc73be00	-0.0148768425
92	0xbc3fa05f	-0.01169595
93	0x3c1742d8	0.009232245
94	0xbd3fc877	-0.046822038
95	0x3c1936a8	0.00935141
96	0x3e4a67d0	0.19766164
97	0xbe1c76a7	-0.15279637
98	0xbe1b235a	-0.15150204
99	0x3b80d4e6	0.0039316295
100	0xbd797414	-0.060901716
101	0x3d024c26	0.031810902
102	0xbdad847b	-0.08472534
103	0x3d37efd6	0.04490646
104	0xbcbc2c2e	-0.022970285
105	0xbc7f9a8d	-0.015600813
106	0x3c302e1b	0.01075318
107	0x3e1716d5	0.14754803
108	0xbe427ca8	-0.18992865
109	0x3c84af07	0.01619674
110	0xbd194b5f	-0.037425395
111	0x3e32d06d	0.1746232
112	0x3deecd26	0.11660223
113	0x3de05334	0.1095337
114	0xbccb5726	-0.024821829
115	0x3c2686fb	0.010164018
116	0x3b1cf7f2	0.0023951498
117	0x3cb0d37a	0.021585215
118	0x3cbccbca	0.023046393
119	0xbd5fa067	-0.05459633
120	0xbdae52d3	-0.08511891
121	0x3d43c864	0.04779853
122	0x3bc9b381	0.0061554317
123	0x3ce3dfed	0.027816737
124	0xbb29ed67	-0.0025928856
125	0x3c488a49	0.012240001
126	0xbdaed327	-0.08536368
127	0x3bdb4554	0.006691614
128	0x3e14a2d5	0.1451524
129	0xbe07403f	-0.13208102
130	0x3de36aee	0.111043796
131	0xbb25f155	-0.0025320847
132	0x3bf6e09d	0.0075341
133	0x3c3dbddf	0.011580913
134	0xbc972843	-0.018451815
135	0xbd58f225	-0.052965302
136	0xbdce8289	-0.10083491
137	0x3c06498d	0.008196247
138	0xbda84e66	-0.08218078
139	0xbd8cfa6e	-0.06883703
140	0x3b9cc5cb	0.004784321
141	0x3ddbf042	0.10739185
142	0x3d0481ee	0.032350473
143	0xbc887b43	-0.016660338
144	0x3bf2c42f	0.007408641
145	0x3ca9368c	0.020655893
146	0x3ddaf42d	0.10691104
147	0xbd52632b	-0.051364105
148	0xbcc98681	-0.02460027
149	0x3c851817	0.016246838
150	0xbdb80948	-0.08986145
151	0x3ca3c6ea	0.01999231
152	0xbc96dff7	-0.018417342
153	0x3bdf4e70	0.0068147704
154	0x3dff15e3	0.124553464
155	0xbd8408be	-0.0644698
156	0x3bae8f14	0.005327115
157	0x3e16d9b7	0.14731489
158	0x3e46fb2f	0.19431756
159	0x3c8ae468	0.016954616
160	0xbc508188	-0.012726195
161	0xbdbb4a13	-0.09144988
162	0xbc067cdd	-0.008208481
163	0x3df09e95	0.11748997
164	0xbbc18a9f	-0.0059064175
165	0x3d338c40	0.043834925
166	0xbda0c303	-0.078496955
167	0xbc959fc9	-0.018264668
168	0xbde93309	-0.11386687
169	0x3a495284	0.0007679837
170	0x3debebea	0.115196064
171	0x3dd4c416	0.10388963
172	0x3b9d85b9	0.0048072007
173	0xbcf727a8	-0.030170277
174	0xbc2e876b	-0.010652403
175	0xbca11319	-0.019662427
176	0xbbbe7169	-0.0058118594
177	0xbac391af	-0.0014920736
178	0x3da3e037	0.0800175
179	0xbd54f185	-0.051988143
180	0x3d2e5b14	0.042567328
181	0xbb13a714	-0.0022530006
182	0xbe3bc2eb	-0.18336074
183	0x3e37bf2a	0.17944017
184	0xbd8fc37e	-0.07019709
185	0x3b22e962	0.0024858345
186	0xbd9b9650	-0.07597029
187	0x3c03eb33	0.008051681
188	0xbd9426cc	-0.072339624
189	0x3c266fd6	0.0101585
190	0xbd9f0962	-0.077654615
191	0xbdd80a4c	-0.10548839
192	0x3d224381	0.039615158
193	0x3ca674cf	0.02031937
194	0xbcd9e2b7	-0.026597364
195	0xbb88b9e1	-0.004172549
196	0x3e3577f9	0.17721547
197	0xbb7e7cc5	-0.0038831693
198	0x3e16f30c	0.14741153
199	0x3e2913c9	0.16511454
200	0x3dec76f1	0.11546124
201	0x3dac09ed	0.08400331
202	0x3d21cf94	0.039504603
203	0x3a9b3e11	0.0011844059
204	0x3c8b01e2	0.016968671
205	0xbce97872	-0.028499816
206	0x3d1f12f4	0.038836434
207	0x3c1a69ca	0.009424636
208	0x3c3ffe06	0.011718279
209	0x3c5cf7eb	0.013486843
210	0xbbf7b1d8	-0.0075590424
211	0x3cdfabef	0.027303664
212	0xbb0beb63	-0.0021350018
213	0xbcaf2775	-0.02138112
214	0x3d25436e	0.04034751
215	0xba90be3a	-0.001104302
216	0xbb6a9386	-0.0035793497
217	0xbb6a8477	-0.0035784522
218	0x3e04f5d0	0.12984395
219	0xbc5fda43	-0.0136628775
220	0x3e60676a	0.2191445
221	0x399acf9f	0.0002952786
222	0x3dc663d2	0.09687008
223	0xbae7ca86	-0.0017684258
224	0x3c284abd	0.010271725
225	0x3cb518d3	0.022106564
226	0xbb8bea85	-0.0042699003
227	0x3e4f7ee2	0.20263246
228	0x3d0848d9	0.033272598
229	0xbd58e297	-0.052950468
230	0x3da609b8	0.081073225
231	0x3e16c4f4	0.14723569
232	0xbe0155a8	-0.12630332
233	0xbe69e0d5	-0.22839673
234	0x3dc92c46	0.098228976
235	0xbccead69	-0.025229173
236	0xbc776533	-0.015099811
237	0xbe7418e1	-0.23837616
238	0x38232b8b	3.890278e-05
239	0x3bdb1052	0.006685295
240	0x3ba88583	0.005142869
241	0x3bf41053	0.007448235
242	0x3e64ced0	0.22344518
243	0x3e4e4b18	0.20145833
244	0x3e704382	0.23463252
245	0x3e62fc01	0.22166444
246	0xbe1272a5	-0.14301546
247	0x3c4021d4	0.011726815
248	0x3d9e70fd	0.077363946
249	0x3c613732	0.01374607
250	0x3d01ac0f	0.03165823
251	0x3bd87972	0.0066062743
252	0x3cabc565	0.020968148
253	0x3c22ece9	0.009944179
254	0x3db6a6b3	0.08918514
255	0x3d0a0fc1	0.03370643

shortBranch.4.bias f4 [32]
0	0xbd81e50d	-0.06342516
1	0xbd1521a6	-0.036409043
2	0xbc450fa9	-0.012027659
3	0x3da3a746	0.07990889
4	0x3d7e50c1	0.06208873
5	0xbc8e1908	-0.01734592
6	0x3d470469	0.04858819
7	0xbdb00ebe	-0.08596562
8	0x3d6c4782	0.057685383
9	0x3c6c3e88	0.0144192055
10	0x3da4f437	0.08054393
11	0x3d622253	0.055208515
12	0x3df53ff9	0.119750924
13	0xbdd3a112	-0.10333456
14	0xbd939507	-0.07206159
15	0xbc96b274	-0.01839564
16	0xbd4b6caa	-0.049664177
17	0x3da03d87	0.078242354
18	0xbc6309ab	-0.0138572855
19	0xbb248547	-0.0025103854
20	0x3d3534d7	0.044239845
21	0x3d5b4301	0.053530697
22	0x3ddd0981	0.10792828
23	0xbc9d23d0	-0.019182116
24	0xbdaa4e4c	-0.08315715
25	0x3c966d9a	0.018362809
26	0xbcc5a8b2	-0.024128292
27	0xbd9e16ae	-0.077191696
28	0x3ae2ed9e	0.0017313247
29	0xbdcda98f	-0.10042106
30	0xbdbbab7e	-0.09163569
31	0xbd49bcb7	-0.049252238

shortBranch.6.weight f4 [10, 32]
0	0xbdbacd22	-0.09121157
1	0x3cfdda7c	0.03098797
2	0x3d9d7942	0.07689144
3	0x3d86ca87	0.06581598
4	0xbdd9f2ea	-0.10642035
5	0x3dd0d7f1	0.101974376
6	0x3d58774a	0.052848138
7	0x3e2aa481	0.16664316
8	0xbde46937	-0.11152881
9	0xbd82026f	-0.063481204
10	0xbdb2960a	-0.08720024
11	0xbda4cbbb	-0.08046671
12	0xbdb2ed16	-0.08736627
13	0x3d756c40	0.05991769
14	0x3d9e2c6d	0.07723317
15	0xbe06ef46	-0.13177213
16	0x3cc2e439	0.023790466
17	0x3dbe1c6d	0.092827655
18	0x3d00d82e	0.031456165
19	0x3d8f2340	0.06989145
20	0xbd65c76b	-0.056098383
21	0xbdcf9e77	-0.10137647
22	0xbdbf931e	-0.09354232
23	0xbd5e1bbb	-0.054225665
24	0x3dac56d3	0.08414998
25	0x3dfd0673	0.12354746
26	0xbd845914	-0.06462303
27	0x3daf1d1d	0.08550475
28	0xbe0c1e89	-0.13683523
29	0x3e1cf3d4	0.15327388
30	0x3dcbc16b	0.09949001
31	0x3d964090	0.07336533
32	0xbd9e8d63	-0.07741811
33	0x3cf8983b	0.030346027
34	0x3dae57c9	0.085128374
35	0x3d679081	0.056534294
36	0xbdd6a4d7	-0.104806595
37	0x3dd5cc3c	0.10439345
38	0x3d52f0bd	0.051499117
39	0x3e2af46f	0.16694807
40	0xbe04d519	-0.12971915
41	0xbd885154	-0.06656137
42	0xbdbe50d8	-0.092927635
43	0xbdac72d9	-0.08420343
44	0xbdc75bde	-0.09734319
45	0x3d7a3008	0.061080962
46	0x3dad4167	0.0845974
47	0xbe099849	-0.13436998
48	0x3cdde0a1	0.02708465
49	0x3dc089cc	0.09401283
50	0x3cf541b3	0.029938554
51	0x3d9008c8	0.07032925
52	0xbd5f4d23	-0.054516923
53	0xbdd25efd	-0.10272024
54	0xbdc2d06f	-0.09512412
55	0xbd525b0a	-0.051356353
56	0x3dae92c7	0.08524089
57	0x3e00e33a	0.1258668
58	0xbd831b35	-0.06401674
59	0x3db475b7	0.08811515
60	0xbe08786d	-0.13327189
61	0x3e1cb1cc	0.15302199
62	0x3dc241d5	0.09485213
63	0x3da452c3	0.08023598
64	0xbdc8e06c	-0.0980843
65	0x3d019d19	0.03164396
66	0x3d2a651c	0.04160033
67	0x3da51542	0.08060695
68	0xbdaf42c0	-0.085576534
69	0x3dcb22b5	0.09918729
70	0x3d8bd5e5	0.068279065
71	0x3e2547a1	0.16140606
72	0xbc88d1bf	-0.016701577
73	0xbd87a2f7	-0.0662288
74	0xbd5cb829	-0.053886566
75	0xbd889a2e	-0.066700324
76	0xbd802213	-0.06256499
77	0x3d328725	0.043585915
78	0x3d7e3b5c	0.06206833
79	0xbdc21279	-0.0947618
80	0x3cc6d767	0.024272634
81	0x3d8bd78e	0.06828223
82	0x3d091a45	0.03347232
83	0x3d11b489	0.035572562
84	0xbd32a5a3	-0.043614995
85	0xbdade659	-0.08491201
86	0xbd9e0619	-0.07716007
87	0xbd5ea76b	-0.05435888
88	0x3da0afe5	0.07846049
89	0x3daca5f5	0.08430091
90	0xbd94534f	-0.07242452
91	0x3d908be2	0.070579305
92	0xbe16869c	-0.14699787
93	0x3e099e59	0.13439311
94	0x3dcaa3d0	0.09894526
95	0x3d6a6b47	0.057231214
96	0xbdd8f090	-0.10592759
97	0xbeb62444	-0.35574543
98	0x3ce5abac	0.028035961
99	0x3dd3308d	0.10311995
100	0x3e786a7b	0.24259369
101	0x3d5d2d82	0.053998478
102	0x3daa99b7	0.083301
103	0x3e37ca58	0.17948282
104	0x3d93ad9d	0.072108485
105	0x3e80a71c	0.25127494
106	0x3e68fc2f	0.2275245
107	0x3e6cb780	0.23116875
108	0x3e8e82b5	0.27834097
109	0xbe686f49	-0.22698702
110	0xbe838e49	-0.25694492
111	0xbc5793c5	-0.01315779
112	0xbea77629	-0.32707337
113	0x3def37ad	0.11680541
114	0xbe9dea61	-0.3084288
115	0xbc202870	-0.009775266
116	0x390d7203	0.0001348928
117	0xbe03141b	-0.12800638
118	0x3e5388b7	0.20657621
119	0xbce010cf	-0.027351765
120	0xbe8fa5d7	-0.28056213
121	0x3db03363	0.08603551
122	0xbd9edc78	-0.07756895
123	0xbe4719cf	-0.19443439
124	0xbe0e1661	-0.13875724
125	0xbe249cda	-0.16075459
126	0x3dcc1cfc	0.09966466
127	0x3dd500f2	0.10400571
128	0x3eba0fcc	0.36340177
129	0x3d1ccbcd	0.038280297
130	0xbcf2c74a	-0.029636044
131	0xbeae1b0b	-0.34005007
132	0xbdca06c5	-0.098645724
133	0x3da1ca4a	0.07899912
134	0xbeb1a307	-0.34694692
135	0xbe784b0c	-0.24247378
136	0xbe3a50ab	-0.18194835
137	0xbd8e5711	-0.069502
138	0xbdb56fc7	-0.088592105
139	0xbd9c1051	-0.076202996
140	0xbdbadc5a	-0.0912406
141	0x3d5be4a4	0.053684846
142	0x3d969790	0.07353127
143	0xbde11d55	-0.10991923
144	0x3cf995f2	0.030467007
145	0xbdfa2283	-0.12213614
146	0x3d19c423	0.037540566
147	0x3ccd7d60	0.025084198
148	0x3bade1e5	0.0053064697
149	0x3e81200a	0.25219756
150	0xbdb48ff5	-0.0881652
151	0xbd0a0357	-0.03369459
152	0x3db00deb	0.08596405
153	0x3d0c961d	0.034322847
154	0x3eb78a13	0.3584753
155	0x3dad2192	0.08453669
156	0x3e889d1b	0.26682362
157	0x3e151bbe	0.14561364
158	0xbe85da4c	-0.2614311
159	0xbe851336	-0.2599122
160	0xbdd8f040	-0.10592699
161	0xbc86b9cd	-0.016446019
162	0x3d8ef54c	0.069803804
163	0x3dd30858	0.10304326
164	0x3e5e6b77	0.21720682
165	0x3de7009f	0.11279415
166	0x3da76982	0.08174421
167	0x3e40b396	0.18818507
168	0xbba6ac55	-0.0050864615
169	0xbc0e42ae	-0.00868289
170	0xbd325af5	-0.043543775
171	0x3e5911b8	0.21198165
172	0xbd0cc9f6	-0.034372292
173	0xbe569631	-0.20955731
174	0xbe72d098	-0.23712385
175	0xbdf85e1e	-0.121273264
176	0xbcf46105	-0.029831419
177	0x3e015b87	0.12632571
178	0xbd015349	-0.031573568
179	0x3d85f090	0.06540024
180	0xbd87a8fa	-0.066240266
181	0xbe06d2a4	-0.1316629
182	0x3e3f0c64	0.1865707
183	0xbd8404f5	-0.06446258
184	0x3d2b177b	0.04177044
185	0x3df401e7	0.11914425
186	0xbdb160f3	-0.0866107
187	0xbe304b31	-0.17216183
188	0xbe16aa54	-0.14713413
189	0xbe10f0d5	-0.1415437
190	0x3de63652	0.112408295
191	0x3de4c8c0	0.111711025
192	0x3d05c7a3	0.03266109
193	0xbebe328c	-0.3714794
194	0xbe1fd786	-0.1560956
195	0xba4d418f	-0.00078298984
196	0x3e7fa103	0.24963765
197	0xbea9aaf3	-0.33138236
198	0xbd45d368	-0.048297316
199	0xbccd4d57	-0.025061293
200	0x3d95d455	0.0731589
201	0x3e8460e0	0.2585516
202	0x3e85629c	0.26051795
203	0x3e795fa8	0.24352896
204	0x3e95555e	0.29166692
205	0xbe6d9478	-0.23201168
206	0xbe875e99	-0.2643936
207	0x3dc3d406	0.09561925
208	0xbeaea97f	-0.3411369
209	0x3d9ba7e5	0.07600383
210	0xbea5b480	-0.32364273
211	0xbe391879	-0.18075742
212	0x3eb3e29d	0.3513383
213	0xbb115952	-0.0022178483
214	0x3e596ed7	0.21233688
215	0x3ee6892c	0.4502653
216	0xbe9691be	-0.29408067
217	0xbd816aa4	-0.06319168
218	0x3d6f3f21	0.058409814
219	0xbe4e33b9	-0.20136918
220	0x3cae93e7	0.02131076
221	0xbe31c375	-0.17359717
222	0xbe56775f	-0.20943974
223	0x3bed7ece	0.0072477823
224	0xbe159179	-0.14606275
225	0xbc9c0274	-0.019044138
226	0xbec0890d	-0.3760456
227	0x3e036337	0.12830816
228	0xbdf95a87	-0.1217547
229	0xbe0980e1	-0.1342807
230	0x3dee24d9	0.11628122
231	0xbc7d5d4f	-0.015464141
232	0x3e750553	0.23927812
233	0xbd584c8e	-0.052807383
234	0x3ea01fc3	0.31274232
235	0xbdcfcdf8	-0.10146707
236	0x3e8e272f	0.2776427
237	0x3d9e2b2e	0.077230796
238	0x3dc88a9e	0.09792064
239	0x3e9bb0af	0.30408236
240	0xbba78886	-0.0051127104
241	0xbeafa2fd	-0.34304038
242	0x3c1829dc	0.009287324
243	0xbebe008e	-0.37109798
244	0x3ea751fa	0.3267973
245	0x3e6d3df5	0.23168166
246	0xbddb05eb	-0.10694488
247	0x3d88b6bd	0.066754796
248	0xbb7091ce	-0.0036708
249	0xbeb45d69	-0.35227516
250	0xbdce9993	-0.10087886
251	0x3dd87a67	0.105702214
252	0xbe47168b	-0.19442193
253	0x3e2d4a43	0.1692286
254	0x3c1c10c7	0.009525484
255	0xbe73060b	-0.23732774

shortBranch.6.bias f4 [10]
0	0xbe1ef6f8	-0.15523899
1	0xbe38ac04	-0.18034369
2	0x3d93c9e9	0.07216246
3	0x3df8bdc4	0.1214557
4	0x3e1d9bde	0.1539149
5	0x3e8a8ba3	0.2705966
6	0x3c749eb1	0.014930413
7	0x3e590515	0.21193345
8	0xbea4a347	-0.3215582
9	0x3d844c50	0.06459868

longBranch.0.weight f4 [64, 64, 3]
0	0x3c05888b	0.00815023
1	0xbd9b47d6	-0.07582061
2	0xbdba512a	-0.09097512
3	0x3cb76777	0.022388203
4	0xbd02acb8	-0.031903
5	0xbb87b6a0	-0.0041416436
6	0x3d2c5f9b	0.042083364
7	0xbd0ae73a	-0.03391192
8	0xba674151	-0.00088216836
9	0xbd6bc4ca	-0.05756072
10	0xbd2ec749	-0.042670522
11	0x3d38893d	0.045052756
12	0x3d94fd28	0.07274848
13	0x3c303a91	0.010756151
14	0x3d8093d7	0.06278198
15	0x3d2a4328	0.04156795
16	0x3db07e6d	0.08617864
17	0xbd084cdb	-0.03327642
18	0xbd44e3ad	-0.04806869
19	0xbd24acb0	-0.04020375
20	0xbc5fb1e5	-0.013653253
21	0x3d26b5fc	0.040700898
22	0x3c47cd25	0.012194906
23	0x3d12c1be	0.0358293
24	0xbcd639b7	-0.026150567
25	0x3cd0a8c0	0.025471091
26	0x3d8947a4	0.067031175
27	0xbccbf05f	-0.024894891
28	0xbc892a8a	-0.016743917
29	0xbd5f9db9	-0.054593775
30	0xbd4c1206	-0.049821876
31	0xbca90886	-0.020633947
32	0x3c9e91c7	0.019356621
33	0x3ba6e097	0.005092691
34	0xbc106cf8	-0.008815043
35	0x3c7e692a	0.015528003
36	0x3cc4d31c	0.024026446
37	0x3a4df566	0.00078566966
38	0x3d8b00a6	0.06787233
39	0x3bbabb7c	0.0056986194
40	0xbd220d76	-0.03956362
41	0x3d01ea4e	0.03171759
42	0xbd205054	-0.039139107
43	0x3d18b4b4	0.037281707
44	0xbc930838	-0.017948255
45	0xb7139b95	-8.798107e-06
46	0xbb9eecc8	-0.004850004
47	0xbc06f7c6	-0.008237785
48	0xbd80e702	-0.06294061
49	0x3c9bfd7c	0.01904177
50	0x3d44aaa0	0.048014283
51	0x3b8a2c51	0.0042167087
52	0xbcb2b1c2	-0.021813277
53	0x3c6c2e07	0.014415271
54	0x3d6f779a	0.05846367
55	0x3d36da1b	0.044641595
56	0x3d1f2f80	0.03886366
57	0x3d7ebaf7	0.062190022
58	0x3d1caab1	0.03824872
59	0x3caed733	0.02134285
60	0xbddff16f	-0.10934722
61	0x3bd07bfe	0.0063624373
62	0xbdc44c3f	-0.09584855
63	0xbca87bf6	-0.020566922
64	0xbc2653bb	-0.010151799
65	0x3d1aded9	0.03781018
66	0x3d4872ad	0.04893749
67	0xbda2388c	-0.07920942
68	0xbbd55048	-0.0065098144
69	0x3d26e66d	0.040747095
70	0x3ca99b20	0.020703852
71	0x3c15e899	0.009149694
72	0x3be24386	0.006905022
73	0xbd72088b	-0.05909018
74	0x3c929ab7	0.01789604
75	0xbcfc5249	-0.030800955
76	0x3d2b6367	0.041842844
77	0xbc330b44	-0.010927979
78	0xbc587a28	-0.013212718
79	0xbdacf2fc	-0.08444783
80	0xbcf9a52e	-0.030474272
81	0x3aaeff2e	0.0013351196
82	0x3d4fdf3b	0.05075
83	0xbaede988	-0.0018151263
84	0x3b00dee3	0.00196641
85	0x3d1201a2	0.03564609
86	0xb9d2b74a	-0.00040190882
87	0xbd020920	-0.031746984
88	0x3d42fd94	0.047605112
89	0x3c84f8e2	0.016231958
90	0xbd8429ff	-0.064533226
91	0x3c31b283	0.010845783
92	0x39d63170	0.00040854095
93	0xbd81d903	-0.0634022
94	0xbd321c39	-0.043483946
95	0xbbd8fb8e	-0.0066217845
96	0xbd555903	-0.05208684
97	0xbcb56a09	-0.022145288
98	0x3abdf6c8	0.0014493102
99	0xbd20e705	-0.039282817
100	0xbc0e2fc2	-0.008678379
101	0x3d36447e	0.044498913
102	0x3d187c89	0.03722814
103	0x3d45477c	0.048163876
104	0x3d656fa3	0.05601467
105	0x3c09440d	0.008378041
106	0xbd8e54a4	-0.06949738
107	0xbd03e92b	-0.03220479
108	0x3c939b29	0.018018322
109	0xbbd890c2	-0.0066090534
110	0xbb403116	-0.0029326132
111	0xbd342ea7	-0.043989804
112	0xbcc535e5	-0.02407355
113	0x3c3f092d	0.0116599025
114	0x3ca4971b	0.020091584
115	0x3d2b81a8	0.041871697
116	0xbd89a102	-0.06720163
117	0x3c9f71e9	0.019463496
118	0xbcf5d77e	-0.030009981
119	0x3d14b944	0.036309496
120	0xbd03a2e2	-0.03213776
121	0xbcbbb4ac	-0.0229133
122	0xbd179e00	-0.037015915
123	0xbdc4d5f3	-0.0961112
124	0x3c868d18	0.0164247
125	0xbdc72260	-0.097233534
126	0xbc800237	-0.015626056
127	0x3d14ee6e	0.036360197
128	0x3d24a103	0.040192615
129	0xbba58888	-0.005051676
130	0x3cb3eb9a	0.02196293
131	0xbd1f3cbe	-0.038876288
132	0xbc75f29b	-0.015011455
133	0xbd174940	-0.03693509
134	0x3d69135f	0.05690324
135	0x3d7c55c6	0.061605237
136	0xbc998a2f	-0.018742649
137	0xbd0048e2	-0.031319506
138	0x3d47ada1	0.04874957
139	0x3ccdff51	0.025146158
140	0x3c4b5311	0.012409941
141	0xbd285f44	-0.041106477
142	0xbd62e8e5	-0.055397887
143	0xbd850bea	-0.06496413
144	0xbae7a3fd	-0.0017672774
145	0x3ca9d0c1	0.020729424
146	0xb9f2f20e	-0.00046338182
147	0x3cdd2eb4	0.026999809
148	0xbcef211d	-0.029190594
149	0x3d662853	0.0561908
150	0xbcaf6e68	-0.02141495
151	0x3c6288f7	0.0138266
152	0x3ce6547e	0.02811646
153	0x3d6408d9	0.0556725
154	0x3d22eff2	0.03977961
155	0x3d2c0589	0.041997466
156	0xbd834a56	-0.06410663
157	0x3cc1e941	0.023670794
158	0x3992cbe5	0.00027999203
159	0x3d4bc198	0.049745172
160	0x3d85cce2	0.06533219
161	0x3d2f3d91	0.042783324
162	0x3bde45c3	0.0067832186
163	0x3c726564	0.014794681
164	0x3d8c5998	0.06853026
165	0xbd97aaa8	-0.07405597
166	0x3d0c76de	0.034293048
167	0xbb25c93f	-0.0025296954
168	0xba31ce01	-0.0006782711
169	0xbc2f2ae3	-0.010691377
170	0xbd15dbed	-0.03658669
171	0x3db1d065	0.08682326
172	0x3d546f16	0.051863752
173	0xbc510d13	-0.012759465
174	0xbccb82e7	-0.024842693
175	0x3d03af40	0.032149553
176	0x3d19a39f	0.037509557
177	0x3d39f0bc	0.045395598
178	0x3cb5d5b5	0.02219663
179	0xbcd2d2b4	-0.025735237
180	0x3cc3ae5e	0.023886856
181	0xbd3cac85	-0.046062965
182	0x3b21a5e8	0.0024665538
183	0x3c62cbb3	0.013842511
184	0xbd230b2f	-0.039805587
185	0xbd156f60	-0.03648317
186	0x3b948817	0.0045328247
187	0x3d27ed8c	0.040998027
188	0x3d2adf38	0.041716784
189	0xbb8869f6	-0.004163022
190	0x3c8ec196	0.017426293
191	0xbc391349	-0.011296102
192	0x3cad2375	0.021135071
193	0x3cf73861	0.03017825
194	0x3d7ffb4d	0.06249552
195	0x3ce37ad3	0.027768528
196	0xbcc4fc14	-0.024045981
197	0xbc638025	-0.0138855325
198	0xbd46ec61	-0.048565272
199	0x3c87a102	0.016556267
200	0x3c38ae13	0.011271971
201	0x3ad1f946	0.0016019724
202	0x3d86477f	0.065566055
203	0x3d962b3b	0.07332464
204	0xbcfe378f	-0.031032352
205	0xbb5e6b21	-0.0033938366
206	0x3d90a7a1	0.07063223
207	0xbcb2f965	-0.021847436
208	0xbc73f948	-0.014890976
209	0xbcca17de	-0.024669584
210	0xbb93d3c4	-0.0045113284
211	0xbc7dbaf7	-0.01548647
212	0x3db25e9c	0.087094516
213	0x3cfd5bdd	0.030927593
214	0xbd7eef1b	-0.062239747
215	0x3c2ed180	0.010670066
216	0xba59f8e9	-0.00083149836
217	0x3c68c954	0.014208157
218	0x3d8b2227	0.067936234
219	0xbd69fef0	-0.057127893
220	0xbd83138c	-0.06400213
221	0xbbd3d41a	-0.0064644935
222	0xbce8eb4d	-0.028432513
223	0xb9ba54e7	-0.00035539942
224	0x3ba7ceab	0.0051210723
225	0xbd0c18f2	-0.034203477
226	0xbdf92623	-0.12165477
227	0xbcfbcf3b	-0.030738464
228	0xbd802464	-0.06256941
229	0xb9cbf4ac	-0.00038901472
230	0xbd1b845e	-0.037968032
231	0xbcacaeb2	-0.021079395
232	0xbd27f6c5	-0.041006822
233	0xbc9059d3	-0.017620957
234	0xbc66abc7	-0.014079041
235	0xbd87813d	-0.06616447
236	0x3d78246d	0.060581613
237	0x3c7ece16	0.015552064
238	0xbb0caea2	-0.0021466394
239	0xbcef1758	-0.029185936
240	0x3d1b15e5	0.037862677
241	0xbcabe33f	-0.020982383
242	0x3c9c9e7f	0.019118546
243	0x3ce1827e	0.027528044
244	0xbc90d384	-0.017678984
245	0xbc531511	-0.012883441
246	0xbd3846ba	-0.044989325
247	0xba4856a4	-0.0007642305
248	0x3dbacf15	0.09121529
249	0xbd8771db	-0.06613513
250	0x3d2179f7	0.039422955
251	0x3d3beabf	0.04587817
252	0x3cbfe9d2	0.023426924
253	0xbd221830	-0.03957385
254	0x3d650bb6	0.05591937
255	0x3da1722c	0.07883105

longBranch.0.bias f4 [64]
0	0xb75ecbef	-1.3279713e-05
1	0x37756757	1.4627199e-05
2	0xb7a2cba8	-1.940674e-05
3	0xb7e34e8a	-2.7097081e-05
4	0xb70c95f1	-8.379561e-06
5	0xb464dc87	-2.1314382e-07
6	0x378398a5	1.5687498e-05
7	0x37aa50ca	2.03032e-05
8	0x3811747a	3.467917e-05
9	0xb7aa3a3a	-2.0292693e-05
10	0xb866a6a8	-5.4991484e-05
11	0x37d2ee3a	2.5144884e-05
12	0x3844d025	4.692389e-05
13	0xb70dcd0b	-8.451995e-06
14	0xb7b509f8	-2.1581523e-05
15	0x37f03b65	2.8637887e-05
16	0x374b4448	1.2115641e-05
17	0xb8378857	-4.3757576e-05
18	0x37864efa	1.6010821e-05
19	0xb77bdbfb	-1.5011984e-05
20	0x37098030	8.195682e-06
21	0xb69c61df	-4.660556e-06
22	0x365c1ed0	3.280049e-06
23	0x370af9ed	8.283631e-06
24	0xb7bac22e	-2.226335e-05
25	0xb785f87f	-1.597055e-05
26	0xb710aeab	-8.623737e-06
27	0x375bdebe	1.3105278e-05
28	0xb3efb564	-1.11622995e-07
29	0x378c1dc5	1.6703163e-05
30	0xb81bb9df	-3.7127986e-05
31	0xb7afde04	-2.096501e-05
32	0xb7cd5106	-2.4475634e-05
33	0x37c786be	2.3785393e-05
34	0x37aab107	2.0348014e-05
35	0x37cd7469	2.4492112e-05
36	0x379d6666	1.8763541e-05
37	0x378d686d	1.6857137e-05
38	0x36c5bbe6	5.8929318e-06
39	0x36d49ba4	6.3362113e-06
40	0xb752f424	-1.2573819e-05
41	0xb7afbb9b	-2.0948986e-05
42	0xb812ba7c	-3.498279e-05
43	0x363b5ce7	2.7919248e-06
44	0x38351316	4.3171538e-05
45	0xb6a14261	-4.8059014e-06
46	0x372380fe	9.74559e-06
47	0x37993237	1.8262404e-05
48	0x37d70f48	2.5637113e-05
49	0xb70c6182	-8.367353e-06
50	0xb633ba8c	-2.6781663e-06
51	0xb7ad666c	-2.0670901e-05
52	0xb7ae6076	-2.0787335e-05
53	0xb80eb131	-3.402046e-05
54	0xb827e6fb	-4.003102e-05
55	0xb7431311	-1.1627345e-05
56	0x37fcd482	3.0139698e-05
57	0xb719e8c6	-9.173707e-06
58	0xb7dd7581	-2.639997e-05
59	0x37b4af7c	2.1539388e-05
60	0x37969fe0	1.7955841e-05
61	0x369dac59	4.6990285e-06
62	0xb7a8cc78	-2.0122374e-05
63	0x37280612	1.0014994e-05

longBranch.1.weight f4 [64]
0	0x3f362554	0.7115071
1	0x3f351465	0.70734245
2	0x3f57b546	0.84260976
3	0x3f4143c7	0.75494045
4	0x3f396c79	0.7243114
5	0x3f4232c0	0.7585869
6	0x3f40d5cf	0.75326246
7	0x3f40cdcc	0.7531402
8	0x3f3b58e6	0.73182523
9	0x3f35e520	0.7105274
10	0x3f33f4e7	0.70295566
11	0x3f3d3254	0.7390492
12	0x3f461c00	0.77386475
13	0x3f4caf06	0.79954565
14	0x3f49aad0	0.78776264
15	0x3f3fdeb0	0.7494917
16	0x3f4a9a93	0.7914211
17	0x3f5313cc	0.8245208
18	0x3f4ab95c	0.79189086
19	0x3f3eb112	0.7448894
20	0x3f391163	0.72292155
21	0x3f443d63	0.7665617
22	0x3f38f218	0.72244406
23	0x3f4a5609	0.7903753
24	0x3f28e3f1	0.6597281
25	0x3f3a4976	0.7276834
26	0x3f37fce5	0.7187026
27	0x3f4d1d71	0.8012305
28	0x3f391651	0.7229968
29	0x3f3a6bca	0.72820723
30	0x3f46782c	0.7752712
31	0x3f37c3c3	0.71783084
32	0x3f3e5bd5	0.74358875
33	0x3f4c6570	0.7984228
34	0x3f395490	0.7239466
35	0x3f420ebb	0.75803727
36	0x3f2c2ecc	0.67258906
37	0x3f483380	0.7820358
38	0x3f39c2b4	0.7256272
39	0x3f3ec5e1	0.7452069
40	0x3f414411	0.75494486
41	0x3f4562f2	0.77104104
42	0x3f44217d	0.766136
43	0x3f3638c8	0.7118039
44	0x3f3d81bd	0.7402609
45	0x3f4de86c	0.8043277
46	0x3f3a18aa	0.72693884
47	0x3f3c5c36	0.735782
48	0x3f2f928b	0.6858298
49	0x3f389c18	0.7211318
50	0x3f4cb707	0.7996678
51	0x3f416705	0.7554782
52	0x3f4790be	0.77955234
53	0x3f3d5228	0.73953485
54	0x3f52c35b	0.8232934
55	0x3f446059	0.76709515
56	0x3f330a8f	0.69937986
57	0x3f38888c	0.72083354
58	0x3f350494	0.7071011
59	0x3f3e86ec	0.74424624
60	0x3f3633dc	0.7117288
61	0x3f462fcc	0.7741668
62	0x3f3dd50a	0.74153197
63	0x3f37d63d	0.71811277
