Models/Final/eeV1.pth (torch, 766363 bytes, 48 tensors)

baseModel.0.weight f4 [64, 2, 3]
0	0xbe8228c9	-0.25421742
1	0xbe1ced50	-0.15324903
2	0x39828346	0.0002489334
3	0x3e911d1c	0.2834252
4	0x3d4304a9	0.047611866
5	0x3ddf0d8b	0.10891255
6	0x3ecc02c3	0.39845857
7	0x3e0d5f8c	0.1380598
8	0x3ddb0c5e	0.10695718
9	0xbe99324e	-0.29921192
10	0x3cf2b811	0.029628785
11	0xbd5c55e3	-0.053792845
12	0x3dc1b844	0.09458974
13	0xbe85ece3	-0.26157293
14	0xbe959d6d	-0.2922167
15	0xbdbabe5f	-0.09118342
16	0x3e295373	0.1653574
17	0x3dc3d779	0.095625825
18	0x3e8a7aaa	0.2704671
19	0x3d727eef	0.059203085
20	0xbe4a0837	-0.19729696
21	0xbe913e21	-0.28367713
22	0xbebf6060	-0.37378216
23	0xbea5e930	-0.3240447
24	0x3e5151bd	0.20441337
25	0xbec1fcd0	-0.37888193
26	0x3dd28042	0.102783695
27	0xbe90d0ef	-0.28284404
28	0xbe49a019	-0.19689979
29	0x3da36f25	0.079801835
30	0xbe74389b	-0.23849718
31	0x3e85be2e	0.26121658
32	0xbe4dd8b3	-0.20102195
33	0x3e394abd	0.18094917
34	0xbe51a89a	-0.20474473
35	0x3e0c0944	0.1367541
36	0x3dc3b907	0.095567755
37	0xbe8886a8	-0.26665235
38	0xbe4cca29	-0.19998993
39	0xbd62d548	-0.055379182
40	0xbe8b2022	-0.27172953
41	0x3e6641a2	0.22485974
42	0x3d25b145	0.04045226
43	0xbdea5d1f	-0.11443543
44	0xbba3afe2	-0.004995332
45	0x3c037df3	0.008025634
46	0xbe93571f	-0.28777406
47	0xbe6dc72b	-0.23220508
48	0x3e213855	0.15744145
49	0xbe181fd0	-0.14855886
50	0xbece5e7e	-0.40306467
51	0x3d0c4b61	0.034251574
52	0x3caac566	0.02084608
53	0xbe50e7ad	-0.20400877
54	0x3dd900b8	0.1059584
55	0x3e7c88ac	0.24661511
56	0x3e42267a	0.1895999
57	0xbe18de89	-0.1492864
58	0xbed6a12c	-0.4191984
59	0xbd815bcf	-0.06316339
60	0x3d98ba21	0.07457376
61	0xbd359e7c	-0.044340596
62	0x3cdf31c1	0.027245404
63	0x3eaab8b4	0.33344042
64	0xbe597f2f	-0.21239923
65	0x3e108eed	0.14117022
66	0xbeaac4d4	-0.33353293
67	0x3e29ee13	0.16594724
68	0x3e2915aa	0.1651217
69	0x3d9a2928	0.07527381
70	0xbdd3a681	-0.103344925
71	0x3d6d857f	0.05798864
72	0x3dc6bd05	0.09704021
73	0x3e915313	0.28383693
74	0x3d31104d	0.043228436
75	0xbdb98eef	-0.090604655
76	0xbdd7e695	-0.10542027
77	0x3ea4186f	0.3204989
78	0x3e859904	0.26093304
79	0x3eb3c0f9	0.35108164
80	0xbd292bca	-0.041301526
81	0x3dcca8b5	0.09993116
82	0xbe072c5e	-0.13200518
83	0xbeacb54f	-0.33732077
84	0x3e46dc04	0.19419867
85	0x3e7e2253	0.24817781
86	0x3e3e63e1	0.18592788
87	0x3e798d06	0.24370202
88	0x3e8cdf57	0.27514145
89	0x3e832f5b	0.25622067
90	0xbe13261d	-0.14370008
91	0x3dccef44	0.10006574
92	0x3e748c14	0.2388156
93	0xbe878398	-0.26467586
94	0xbdc7496a	-0.097307995
95	0xbd13c5f3	-0.03607745
96	0xbdabc8ba	-0.08387895
97	0xbea61107	-0.32434866
98	0xbdeb4111	-0.1148702
99	0x3e8f6d74	0.28013194
100	0x3eb0bc77	0.34518787
101	0xbe556e89	-0.20842947
102	0x3dd4afcc	0.10385093
103	0x3d6afc76	0.05736967
104	0xbe90f298	-0.28310084
105	0xbe6feefa	-0.23431006
106	0xbcf19708	-0.029490963
107	0xbe1ce4f4	-0.15321714
108	0x3ea8a63b	0.32939324
109	0x3cfc09de	0.030766424
110	0xbe150be8	-0.14555323
111	0x3dff1c3d	0.12456558
112	0x3ecabe5d	0.3959836
113	0x3d84939b	0.06473466
114	0xbdb1e49a	-0.086861804
115	0x3eb61818	0.35565257
116	0xbe68cb95	-0.2273391
117	0x3e0a4df9	0.13506307
118	0xbe8f9e41	-0.28050426
119	0xbe972ddb	-0.29527172
120	0x3e81ea79	0.253742
121	0x3ebba874	0.36651957
122	0xbe86548b	-0.26236376
123	0xbe94b622	-0.29045206
124	0x3d09419f	0.033509847
125	0x3d162f21	0.03666604
126	0xbca3ab7d	-0.019979233
127	0x3e3e8ae9	0.18607678
128	0xbe83f6df	-0.25774285
129	0x3ed27b83	0.41109857
130	0xbda2e7a0	-0.07954335
131	0xbeaf9fa3	-0.3430148
132	0xbeabba5a	-0.33540612
133	0xbeb4d14f	-0.3531594
134	0x3e2b7690	0.16744447
135	0xbe0da2cf	-0.13831638
136	0x3e0c0877	0.13675104
137	0xbdb475f0	-0.08811557
138	0xbe789fcd	-0.24279709
139	0xbd6a3f6b	-0.057189386
140	0xbe9cd4d3	-0.30631122
141	0xbe987c3e	-0.2978229
142	0xbd740fbf	-0.05958533
143	0x3eab5e8d	0.33470574
144	0x3e95b648	0.29240632
145	0xbe80cecc	-0.25157773
146	0xbd20e377	-0.039279427
147	0xbde1b9b8	-0.11021751
148	0xbe53d845	-0.20687969
149	0x3e192020	0.14953661
150	0xbeb6473f	-0.3560123
151	0xbe245036	-0.16046223
152	0xbec50d51	-0.38486722
153	0xbe87e054	-0.26538336
154	0xbba997b9	-0.0051755575
155	0xbe6bce77	-0.23027979
156	0xbd80ea9b	-0.062947474
157	0xbe3438fd	-0.17599864
158	0x3d84796c	0.06468472
159	0x3e40a42b	0.18812625
160	0x3ed525ca	0.41630393
161	0x3e957246	0.29188746
162	0xbca7df20	-0.020492136
163	0xbe8e3f18	-0.27782512
164	0x3ea47ce3	0.3212653
165	0x3d1b7679	0.03795478
166	0x3e4c7636	0.19966969
167	0xbe78b0c2	-0.24286178
168	0x3e92ad43	0.28647813
169	0x3ecf2ba8	0.40462995
170	0x3e89aa5c	0.26887786
171	0x3d88ef0f	0.06686222
172	0x3caea593	0.021319186
173	0x3e13f8d7	0.14450394
174	0xbdd2d49e	-0.1029446
175	0xbe457360	-0.19282293
176	0xbdec330d	-0.11533175
177	0xbdf0c3be	-0.11756085
178	0xbe890bcc	-0.26766813
179	0xbd907fc3	-0.070556186
180	0xbd4f64a3	-0.050633084
181	0x3d50edcc	0.05100803
182	0x3ea5ea43	0.3240529
183	0xbdd3daab	-0.10344442
184	0xbe7d2fd5	-0.24725278
185	0x3e90e744	0.28301442
186	0xbe8f9629	-0.2804425
187	0xbe914c3d	-0.28378478
188	0x3e0349a1	0.12821056
189	0x3e2662cd	0.16248627
190	0xbeb64b4c	-0.35604322
191	0xbe298ff1	-0.16558816
192	0xbe8e5376	-0.2779805
193	0xbdc8f04c	-0.09811458
194	0xbdbb5528	-0.09147102
195	0xbe8b1237	-0.27162334
196	0x3e69def1	0.22838952
197	0x3e29ba5a	0.16574994
198	0x3def31a2	0.116793886
199	0x3ea1f44c	0.31631696
200	0x3cab66a9	0.020922976
201	0xbe888165	-0.2666122
202	0x3e8a801d	0.27050868
203	0x3e5b266f	0.2140138
204	0x3e58af61	0.21160652
205	0xbcb5c482	-0.022188429
206	0xbe0347c6	-0.12820348
207	0x3e7f4ed6	0.24932417
208	0xbb422cac	-0.0029628677
209	0xbe14113e	-0.14459702
210	0xbe1e6b7a	-0.15470687
211	0x3e4e8d4a	0.20171085
212	0xbd159089	-0.036514793
213	0x3ecb295e	0.39679998
214	0x3e5169f7	0.20450579
215	0x3db47200	0.08810806
216	0x3dd6c624	0.10487011
217	0xbe814ee5	-0.25255504
218	0xbe9d1841	-0.30682567
219	0x3ebcb239	0.36854723
220	0x3defa31f	0.11701035
221	0xbe005388	-0.12531865
222	0x3d5bf1ad	0.053697277
223	0xbe424e62	-0.18975213
224	0x3db5af92	0.08871378
225	0xbed312e4	-0.4122535
226	0xbdd52921	-0.10408235
227	0xbde869ab	-0.113482796
228	0xbe83b7f4	-0.25726283
229	0x3d28335b	0.0410646
230	0xbe9c12a3	-0.3048297
231	0xbea901a6	-0.3300907
232	0xbebc6cad	-0.36801663
233	0x3e472440	0.19447422
234	0x3dc5f641	0.0966611
235	0xbd621749	-0.055197988
236	0x3dc4644c	0.095894426
237	0xbea81fcf	-0.32836768
238	0x3d8ff671	0.07029427
239	0xbeb2db58	-0.3493297
240	0x3e7f71a3	0.24945693
241	0xbe059e13	-0.13048582
242	0x3d95106a	0.07278521
243	0xbbcc8210	-0.0062410906
244	0x3d16f145	0.036851186
245	0x3e35f0a6	0.17767581
246	0xbe4e22fd	-0.20130534
247	0x3e30db1c	0.17271084
248	0xbd2cd208	-0.04219249
249	0xbeb1f5c0	-0.34757805
250	0x3af63f49	0.0018787171
251	0x3e983d46	0.29734248
252	0x3ea2a0c5	0.31763282
253	0xbe9a8323	-0.30178174
254	0xbe55be9f	-0.20873497
255	0x3d108b56	0.03528913

baseModel.0.bias f4 [64]
0	0xba5268c9	-0.00080264785
1	0xba126a54	-0.0005585302
2	0x378a677e	1.6499074e-05
3	0x3919f119	0.00014681033
4	0x3a2642fb	0.00063423783
5	0xb9cac7a6	-0.00038677192
6	0xb955e375	-0.00020397997
7	0xba53d84c	-0.0008081242
8	0x39926d65	0.00027928795
9	0xba1b8d27	-0.0005933814
10	0xba3295e4	-0.00068124966
11	0x3977bd64	0.00023626309
12	0x399422ad	0.00028254595
13	0xb9833ba4	-0.00025030703
14	0xb92f4c07	-0.00016717623
15	0x3a716f72	0.0009210027
16	0xba01260d	-0.00049266295
17	0x39c6ecfe	0.00037942076
18	0xba0fe840	-0.0005489625
19	0x383bde4e	4.479131e-05
20	0x3852f32a	5.0294366e-05
21	0xb857ae5f	-5.142239e-05
22	0xb7068935	-8.018968e-06
23	0x390f135e	0.00013644758
24	0x39c43378	0.0003742238
25	0xb8f1dd7b	-0.000115330295
26	0x38fc8413	0.00012040897
27	0x3a0c5742	0.00053535786
28	0x39c1a385	0.0003693366
29	0xb64a05d9	-3.010375e-06
30	0xb858edfd	-5.1720057e-05
31	0x38818668	6.1762345e-05
32	0x3982e84e	0.00024968613
33	0xb960baf0	-0.00021431944
34	0x399bb2da	0.0002969716
35	0x38bf2850	9.1150985e-05
36	0xb9bee0ed	-0.00036407207
37	0xba7351a3	-0.0009281879
38	0xb944a8b5	-0.00018754865
39	0xb9134d72	-0.00014047863
40	0xb95610c8	-0.00020414882
41	0xba0fae50	-0.00054809917
42	0x38acd466	8.2411614e-05
43	0xbaa6d82a	-0.0012729217
44	0xb8dcad1f	-0.00010522664
45	0xb81c44be	-3.725732e-05
46	0xb912219a	-0.00013936163
47	0x3a6498dd	0.0008720288
48	0x39838e66	0.00025092362
49	0x3957f006	0.00020593414
50	0xba116881	-0.00055468833
51	0xb9dc5c32	-0.0004203036
52	0x3a3e6765	0.0007263332
53	0x3a6e076d	0.0009080086
54	0xb8cbc651	-9.7167336e-05
55	0xba24b921	-0.000628369
56	0xb91d242f	-0.00014986166
57	0xb9fc4047	-0.00048113076
58	0x39951d6a	0.0002844141
59	0xb9af3966	-0.00033421366
60	0xb98135c7	-0.00024644865
61	0xb91233c6	-0.00013942932
62	0x3871cc80	5.7649333e-05
63	0xb985943d	-0.00025478183

baseModel.1.weight f4 [64]
0	0x3f5f4f47	0.8723034
1	0x3f582f1f	0.844469
2	0x3f5e5aea	0.86857474
3	0x3f60d360	0.8782253
4	0x3f37b9e1	0.71768004
5	0x3f6a9942	0.916401
6	0x3f572159	0.8403526
7	0x3f5cb410	0.86212254
8	0x3f526695	0.8218778
9	0x3f786251	0.9702502
10	0x3f6072cd	0.8767517
11	0x3f544649	0.82919747
12	0x3f56f204	0.83963037
13	0x3f50e2ba	0.8159596
14	0x3f68291a	0.90687716
15	0x3f5b41c7	0.85647243
16	0x3f488330	0.78325176
17	0x3f60bf5d	0.87792
18	0x3f573a54	0.84073377
19	0x3f4f928c	0.8108299
20	0x3f5d72dd	0.8650339
21	0x3f5b4b09	0.8566137
22	0x3f521712	0.8206645
23	0x3f533d81	0.8251572
24	0x3f47b76c	0.78014255
25	0x3f5a0509	0.85163933
26	0x3f725d87	0.9467396
27	0x3f5a7c4a	0.853459
28	0x3f64745c	0.8924005
29	0x3f7c1441	0.98468405
30	0x3f45782c	0.7713649
31	0x3f56e3ee	0.83941543
32	0x3f445545	0.7669261
33	0x3f4b78fb	0.79481477
34	0x3f6a5508	0.91536
35	0x3f524165	0.82131034
36	0x3f612cc4	0.8795893
37	0x3f3fbcb5	0.7489732
38	0x3f455579	0.77083546
39	0x3f57a48f	0.8423547
40	0x3f545b22	0.8295156
41	0x3f5be064	0.8588927
42	0x3f3fee2a	0.74972785
43	0x3f54b50d	0.8308876
44	0x3f568dae	0.83809936
45	0x3f53a38c	0.8267143
46	0x3f5fb0fe	0.87379444
47	0x3f556efb	0.8337247
48	0x3f53b8ed	0.8270405
49	0x3f5bfd9a	0.8593384
50	0x3f4b471a	0.7940537
51	0x3f5a5ae0	0.85294914
52	0x3f493396	0.7859434
53	0x3f6530b2	0.8952743
54	0x3f616403	0.8804323
55	0x3f4fe6a2	0.8121129
56	0x3f45dc8b	0.77289647
57	0x3f55d37d	0.8352583
58	0x3f5f6254	0.8725941
59	0x3f4c269e	0.79746425
60	0x3f569886	0.8382648
61	0x3f4b299a	0.79360354
62	0x3f4b91fa	0.7951962
63	0x3f44cde4	0.76876664

baseModel.1.bias f4 [64]
0	0xbd1fe266	-0.03903427
1	0xbcc3269e	-0.023822125
2	0xbc49befd	-0.012313602
3	0x3be55da0	0.0069996864
4	0x3b3ecc1e	0.0029113363
5	0x3e08f6cb	0.13375394
6	0xbd823191	-0.0635711
7	0x3d12e3dd	0.03586184
8	0xbd54a763	-0.051917445
9	0xbd4c3282	-0.049852856
10	0x3de8bd97	0.113642864
11	0xbd58c189	-0.052918945
12	0xbd9dc64d	-0.077038385
13	0xbd63618c	-0.05551295
14	0xbdc78971	-0.09743012
15	0xbe0a1409	-0.13484205
16	0xbcbc23c0	-0.022966266
17	0xbdb7fa14	-0.089832455
18	0xbd3ea477	-0.046543565
19	0xbd2b3e95	-0.04180773
20	0xbdbb743d	-0.0915303
21	0xbd7a509c	-0.06111203
22	0xbdefe5d9	-0.11713762
23	0xbe07e474	-0.13270742
24	0xbb81b4cb	-0.00395832
25	0xbe4f4f1f	-0.20245026
26	0xbd222788	-0.03958848
27	0xbcfc5b9c	-0.030805402
28	0xbdf84611	-0.12122739
29	0xbd675db9	-0.056485865
30	0xbe1c291e	-0.1525006
31	0xbd8fdfe7	-0.07025128
32	0xbdcf792e	-0.10130535
33	0xbdd13968	-0.102160275
34	0xbd52684a	-0.05136899
35	0x3d972136	0.07379381
36	0xbdf5ad1e	-0.1199591
37	0xbca6d44d	-0.020364905
38	0x3d230de6	0.039808176
39	0xbe124fa4	-0.14288193
40	0xbd21862f	-0.039434608
41	0xbd25c7c2	-0.040473707
42	0xbd85b70f	-0.06529056
43	0xbcf8a37d	-0.030351395
44	0xbe18a774	-0.14907628
45	0xbdcd75da	-0.10032244
46	0xbdfd292d	-0.12361369
47	0x3db7f2bd	0.089818455
48	0x3c3fac6a	0.011698822
49	0xbdf4e04c	-0.11956844
50	0xbdd70f90	-0.10501015
51	0xbd9d3c0b	-0.07677468
52	0xbd8fa13a	-0.070131734
53	0x3c33e142	0.010978999
54	0xbda0342e	-0.078224525
55	0xbdb4b832	-0.08824195
56	0xbe4a251e	-0.19740722
57	0x3c9616c0	0.018321395
58	0xbd72fd40	-0.05932355
59	0xbd62877c	-0.05530499
60	0xbd7d2ac6	-0.06180837
61	0xbdba56b9	-0.09098572
62	0xb90f946c	-0.00013692834
63	0xbd9d609a	-0.07684441

baseModel.1.running_mean f4 [64]
0	0xba1be069	-0.00059462205
1	0xba6d6580	-0.0009055957
2	0x38ebea0b	0.00011249267
3	0x38085057	3.249975e-05
4	0x39f27637	0.00046245914
5	0xb9561710	-0.00020417222
6	0x38b985ca	8.8464076e-05
7	0xba245f2e	-0.00062702864
8	0x398dc51b	0.0002704047
9	0xb9b748f3	-0.0003495883
10	0xba0feef5	-0.00054906245
11	0x398dddc6	0.0002705885
12	0x396b5234	0.0002244197
13	0xb875a288	-5.856392e-05
14	0xb702469a	-7.765042e-06
15	0x3a75dc05	0.0009378794
16	0xb9f7c0f9	-0.00047255287
17	0x3919fd2f	0.00014685535
18	0xba16be30	-0.0005750386
19	0xb812e7bd	-3.5024936e-05
20	0x394fd6a6	0.00019821021
21	0x392d692f	0.0001653775
22	0xb9883499	-0.0002597913
23	0x38b839c2	8.784562e-05
24	0x390feb03	0.00013725091
25	0xb94856f7	-0.00019105883
26	0xb7937090	-1.7576182e-05
27	0x3a249652	0.0006278503
28	0x39870f2d	0.00025760513
29	0xb80c27aa	-3.341554e-05
30	0xb701730f	-7.715788e-06
31	0x387b3e11	5.9900867e-05
32	0x3972caaa	0.00023154417
33	0xb99853c8	-0.0002905412
34	0x39b18c06	0.00033864396
35	0x37860315	1.597548e-05
36	0xb996ecd0	-0.0002878667
37	0xba6fba2b	-0.00091448677
38	0xb943253c	-0.0001861052
39	0xb90d6a3d	-0.00013486385
40	0xb8b2c42a	-8.52424e-05
41	0xb9d5228e	-0.0004065227
42	0x393048aa	0.00016811737
43	0xbaa522dd	-0.0012598891
44	0x383a47dc	4.441278e-05
45	0xb8e277a2	-0.00010798803
46	0x38cff9e3	9.917074e-05
47	0x3a7db716	0.0009678466
48	0x3916c936	0.00014380072
49	0x38c39826	9.3266644e-05
50	0xb9eba65a	-0.00044946634
51	0xb9b7292d	-0.00034935158
52	0x39c1ffec	0.00037002505
53	0x3a1a946c	0.00058967504
54	0xb849536f	-4.7999838e-05
55	0xb9e97409	-0.00044527676
56	0xb8a4a021	-7.849956e-05
57	0xb9e3ea10	-0.00043471204
58	0x38372bc0	4.3671345e-05
59	0xb8e917ac	-0.00011114715
60	0xb989649c	-0.00026205636
61	0x394fb7ee	0.00019809577
62	0x38ca95e7	9.660032e-05
63	0xb90f0c9f	-0.00013642244

baseModel.1.running_var f4 [64]
0	0x3712ad2a	8.742596e-06
1	0x37558fe1	1.2729289e-05
2	0x37193215	9.131171e-06
3	0x37c71a80	2.3734989e-05
4	0x3724db2e	9.8261935e-06
5	0x36a2ca02	4.851493e-06
6	0x370fd4f6	8.573048e-06
7	0x36fcd2f3	7.534743e-06
8	0x3727eacd	1.00086445e-05
9	0x378c3327	1.671312e-05
10	0x3689a44d	4.1020453e-06
11	0x36b59bfc	5.4123793e-06
12	0x370c90e4	8.378385e-06
13	0x37819117	1.5445561e-05
14	0x37a9d650	2.0246167e-05
15	0x36f67b61	7.3457345e-06
16	0x3787d4a1	1.6192267e-05
17	0x36dcd624	6.58144e-06
18	0x3767b012	1.38096675e-05
19	0x3746580e	1.18222215e-05
20	0x3751ac98	1.2497556e-05
21	0x374d68cf	1.2243355e-05
22	0x374d7235	1.2245543e-05
23	0x376deebb	1.4181885e-05
24	0x36d16b75	6.241195e-06
25	0x37aecfdd	2.083921e-05
26	0x379e41b3	1.8865661e-05
27	0x36e35d1c	6.7759665e-06
28	0x37aac975	2.035939e-05
29	0x3710f0ca	8.639132e-06
30	0x3711309a	8.653989e-06
31	0x377212b1	1.4428676e-05
32	0x372007c4	9.538551e-06
33	0x3749d5c8	1.2030308e-05
34	0x36a6a9a5	4.9669347e-06
35	0x374f92ee	1.2372371e-05
36	0x37728c64	1.4457011e-05
37	0x372b8dea	1.0225436e-05
38	0x37938fde	1.7590759e-05
39	0x3711b7be	8.685454e-06
40	0x3669141c	3.473141e-06
41	0x37121f23	8.709528e-06
42	0x373aab01	1.1126279e-05
43	0x370a1272	8.229736e-06
44	0x37308af3	1.0522769e-05
45	0x376ee130	1.4238336e-05
46	0x369fccb1	4.7623985e-06
47	0x361a7e55	2.3021323e-06
48	0x36862ef5	3.9989777e-06
49	0x37897a50	1.6388629e-05
50	0x372f6fc0	1.0456832e-05
51	0x37ab1379	2.0393856e-05
52	0x3720a7a0	9.575771e-06
53	0x36631016	3.3835e-06
54	0x3729b116	1.0114416e-05
55	0x36fc772e	7.5240596e-06
56	0x3794fa3a	1.7759496e-05
57	0x36c64e28	5.9099584e-06
58	0x375aab01	1.30336275e-05
59	0x374d3962	1.2232313e-05
60	0x36efe00a	7.1488366e-06
61	0x3786f535	1.6088228e-05
62	0x378c8cd1	1.6754873e-05
63	0x36f0994f	7.170405e-06

baseModel.4.weight f4 [64, 64, 3]
0	0xbd5e9632	-0.054342456
1	0x3d8e249a	0.06940575
2	0x3cdf44f8	0.027254567
3	0x3bf93ff2	0.0076065
4	0xbd7386d1	-0.059454743
5	0xbd3f80a9	-0.04675356
6	0x3da2a901	0.07942391
7	0x3cfe549c	0.031046204
8	0xba723e77	-0.00092408754
9	0x3d082999	0.033242796
10	0x3bb509a5	0.0055248314
11	0xbc922c17	-0.01784329
12	0xbc40dfa5	-0.011772071
13	0xbd106640	-0.035253763
14	0xbcb20d11	-0.021734746
15	0xbc3c300b	-0.011486064
16	0xbd4ed258	-0.05049357
17	0xbcb25006	-0.021766674
18	0x3d721f64	0.059111968
19	0xbc8d8dca	-0.017279524
20	0xbc4c7fb0	-0.012481615
21	0x3c8a5369	0.016885476
22	0x3c7613e6	0.015019393
23	0x3d0e1fd2	0.034698315
24	0x3c78b1ad	0.01517908
25	0x3c5f4763	0.01362786
26	0xbd5603bf	-0.052249666
27	0xbcff0439	-0.031129943
28	0x3d15ec81	0.0366025
29	0x3d5be938	0.05368921
30	0x3d652f13	0.055953097
31	0xbd84ea00	-0.064899445
32	0xbc86a5f6	-0.016436558
33	0x3c0b6a20	0.008509189
34	0xbd81359c	-0.06309053
35	0xbd8badb5	-0.06820241
36	0xbc343b0a	-0.011000404
37	0x3cf9cbca	0.030492682
38	0x3d08c694	0.033392504
39	0x3acacdf8	0.001547276
40	0x3d4379b8	0.047723502
41	0x3d435a0e	0.047693305
42	0xbd209999	-0.039208982
43	0x3c4ecfe6	0.012622809
44	0xbce5029a	-0.027955342
45	0xbc46ecf8	-0.012141459
46	0x3d6fbcbd	0.058529604
47	0x3cebeb41	0.028798701
48	0xbc5e6cf8	-0.013575785
49	0x3c10d3da	0.008839572
50	0x3d920da3	0.07131507
51	0xbbe1dfbd	-0.0068931268
52	0x3cfebbb3	0.031095361
53	0xbb144bf0	-0.002262827
54	0x3c15d9b4	0.009146143
55	0xbc3fd5b6	-0.0117086675
56	0x3d270915	0.040780146
57	0xbd32bd1e	-0.043637387
58	0x3c79f4e8	0.015256144
59	0xbc9e5380	-0.019326925
60	0x3ca9e01f	0.020736752
61	0xbd1a8495	-0.037724096
62	0x3d51b219	0.051195238
63	0x3d11e2e2	0.035616763
64	0xbc42b66a	-0.011884311
65	0xbd23c851	-0.03998596
66	0x3d1931b8	0.03740093
67	0x3d8263c6	0.063666865
68	0xbcee7631	-0.029109092
69	0x3d436bc5	0.0477102
70	0x3c6c85cc	0.014436197
71	0x3cfb7e02	0.030699734
72	0xbca47903	-0.020077234
73	0x3c831ee9	0.01600595
74	0xbc3bc79c	-0.011461165
75	0xbe16f83c	-0.14743131
76	0xbd866a69	-0.06563265
77	0x3d4c34a6	0.049854897
78	0xbd3a627e	-0.045504086
79	0x3b8b79e2	0.004256473
80	0x3d06cd29	0.0329105
81	0x3c6f95b6	0.014623096
82	0x3ae585c6	0.0017511181
83	0xbdcc303b	-0.09970137
84	0xbd5690e4	-0.052384272
85	0x3d54cc5e	0.051952712
86	0xbb9a006c	-0.0046997573
87	0xbd83a155	-0.06427256
88	0x3ae7bd51	0.0017680322
89	0x3d9232d2	0.071385995
90	0x3d05ed70	0.03269714
91	0x3cc14ca6	0.02359612
92	0xbca07070	-0.019584864
93	0x3beeeb7d	0.007291256
94	0x3c8a9e63	0.016921228
95	0x3c7d23fa	0.015450472
96	0x3ac3329c	0.0014892402
97	0x3ba96e58	0.0051706247
98	0x3c27d23b	0.010242994
99	0x3d00ecb9	0.031475756
100	0x3d0cdbc5	0.034389276
101	0x3c1ad8f3	0.009451139
102	0x3bbbee32	0.005735182
103	0x3c5b9966	0.013403272
104	0xbdbd7a0a	-0.09251793
105	0xbcad9258	-0.021187946
106	0x3d346bfa	0.044048287
107	0x3d063e01	0.032773975
108	0x3ca2da24	0.019879408
109	0x3c93f34e	0.018060353
110	0x3d1a37d5	0.0376509
111	0x3bba5f7e	0.005687653
112	0xbca0238b	-0.019548198
113	0xbcbbe275	-0.022935132
114	0x3d4b4cee	0.049633913
115	0x3d1c1712	0.03810794
116	0x3ce9205f	0.028457819
117	0xbdf3c6e8	-0.11903173
118	0xbd89bb97	-0.06725233
119	0xbc939a28	-0.018017843
120	0xbd0d07de	-0.03443133
121	0xbcbea6ea	-0.02327295
122	0x3c39a429	0.011330643
123	0xbd350082	-0.044189937
124	0xbd5456f9	-0.051840756
125	0xbd8d8214	-0.06909576
126	0xbb8426d1	-0.0040329476
127	0x3c9f6d6c	0.019461356
128	0x3caa670f	0.020801095
129	0x3b64f668	0.0034936909
130	0xbbecdec1	-0.007228703
131	0x3c252cf7	0.010081521
132	0x3d7393ab	0.059467
133	0x3c622927	0.013803757
134	0xbc829822	-0.015941683
135	0x3b05084e	0.002029914
136	0x3cd03d5e	0.025419887
137	0x3d591982	0.05300284
138	0xbe0c544c	-0.13704032
139	0xbd036028	-0.032074124
140	0xbc874a2c	-0.01651486
141	0xbaf2f9eb	-0.0018537616
142	0xbdcb9dc9	-0.099422045
143	0xbd240498	-0.040043443
144	0x3c3af9e2	0.011412116
145	0xbc2b8e75	-0.010470976
146	0xbd7236fc	-0.05913447
147	0xbd33d58b	-0.043904822
148	0x3c899055	0.016792456
149	0x3d6bd104	0.05757238
150	0x3c0a3418	0.008435272
151	0xbd95a45f	-0.07306742
152	0x3cbd256b	0.023089131
153	0x3c4a3931	0.012342737
154	0x3dab2d7d	0.083582856
155	0x3d0d66b1	0.034521762
156	0x3d076c09	0.033062015
157	0xbd3f23d9	-0.046665046
158	0xbc6b81b7	-0.014374188
159	0x3bad736e	0.0052933013
160	0x3cdf4134	0.027252771
161	0xbd4e9049	-0.05043057
162	0xbd4566b8	-0.048193663
163	0xbcb14f56	-0.021644276
164	0xbd95aad9	-0.07307977
165	0xbdc0dc81	-0.09417058
166	0xbd275013	-0.04084785
167	0x3ceae54d	0.028673792
168	0xbdfb3b0c	-0.12267122
169	0xbd28613c	-0.041108355
170	0xbc89c45d	-0.016817266
171	0x3b856eb2	0.004072034
172	0xbd29f8f2	-0.04149718
173	0xbd684329	-0.056704674
174	0x3cb9802a	0.022644121
175	0xbcec3c06	-0.028837215
176	0x3d9e9185	0.077425994
177	0x3d3d8ecf	0.04627877
178	0x3b3db776	0.0028948463
179	0x3c31759d	0.010831264
180	0x3b863ed7	0.0040968466
181	0xbd366ade	-0.04453551
182	0xbdb582bc	-0.08862826
183	0x3d28cf39	0.041213248
184	0x3cb33094	0.02187375
185	0x3c57f135	0.013180067
186	0xbc1533aa	-0.009106556
187	0xbbcb4dfb	-0.0062043644
188	0x3c4043e2	0.0117349345
189	0xbd342af5	-0.04398628
190	0xbd039e6b	-0.0321335
191	0x3d0485ee	0.032354288
192	0xbac93155	-0.0015349785
193	0xbb0512f5	-0.0020305489
194	0x3cc10071	0.02355978
195	0xbd2571dd	-0.04039179
196	0x3c956456	0.01823632
197	0xba54ca54	-0.00081173074
198	0xbbec1493	-0.007204601
199	0x3d3e6aa5	0.046488423
200	0x3c8801b0	0.016602367
201	0xbd8afdde	-0.067867026
202	0xbdeeb693	-0.11655917
203	0xbd2896d3	-0.041159462
204	0x3d5c680c	0.053810164
205	0xbd9c5fd1	-0.07635463
206	0x3cb8baea	0.022550065
207	0xbd3fa39b	-0.046786886
208	0xbc57ca0a	-0.013170728
209	0xbd3c9262	-0.04603804
210	0xbd1c204f	-0.03811675
211	0x3c9cd6cf	0.019145397
212	0xbb7c9505	-0.003854097
213	0x3c53d017	0.01292803
214	0x3c50f2e6	0.012753224
215	0xbaec04c9	-0.0018006797
216	0xbcb9a75d	-0.022662813
217	0x3d1f97fd	0.038963307
218	0xbd333cdc	-0.043759212
219	0x3d4ed0c1	0.050492052
220	0x3d193a28	0.037408978
221	0x3d924a74	0.07143107
222	0xbcdfce06	-0.02731992
223	0xbc7ddf11	-0.015495078
224	0xbd395691	-0.04524857
225	0x3d6c4753	0.057685208
226	0xbca070c1	-0.019585015
227	0x3cfa284c	0.030536793
228	0x3c86e5e8	0.01646705
229	0xbd04ca0c	-0.03241925
230	0x3d3c9cfa	0.046048142
231	0xbde0bd2a	-0.1097358
232	0xbd9b441b	-0.075813495
233	0xbc738f75	-0.014865746
234	0xbcc53705	-0.024074087
235	0xbcf5e08c	-0.030014299
236	0x3dce5375	0.10074512
237	0x3d61a332	0.055087276
238	0x3c12a884	0.00895131
239	0xbd2f0913	-0.042733263
240	0xbb0e196c	-0.0021682633
241	0xbd7d241d	-0.06180202
242	0x3cea8723	0.028628891
243	0x3d838da2	0.06423499
244	0xbd48c541	-0.04901624
245	0x3d52b6bf	0.05144381
246	0xbd46511a	-0.04841719
247	0x3d2c4f59	0.04206786
248	0x3d4f38ce	0.050591283
249	0xbd39349a	-0.04521618
250	0xbcda20b3	-0.02662692
251	0x3a81cd8f	0.000990318
252	0x3d10002c	0.035156414
253	0xbc895d20	-0.016768038
254	0xbd4003f5	-0.046878774
255	0x3bee9f7a	0.0072821947

baseModel.4.bias f4 [64]
0	0x37280547	1.0014809e-05
1	0xb631f3b4	-2.651691e-06
2	0x3810c12d	3.4512184e-05
3	0xb7807a58	-1.531576e-05
4	0xb8546228	-5.0636154e-05
5	0xb8834281	-6.258954e-05
6	0x3625dc05	2.4714984e-06
7	0x370b2d61	8.295611e-06
8	0x38081143	3.2441003e-05
9	0xb676f6d8	-3.6800539e-06
10	0x370be23b	8.337719e-06
11	0x35e4011b	1.6987645e-06
12	0x375ceb0b	1.3167747e-05
13	0xb7ae7e1a	-2.0801137e-05
14	0xb68103d3	-3.844945e-06
15	0x37262f99	9.905453e-06
16	0x374f9da0	1.2374861e-05
17	0x38182b77	3.6280104e-05
18	0xb795c26f	-1.7852724e-05
19	0x375135c0	1.2469885e-05
20	0xb831d4e8	-4.2398373e-05
21	0x389fff21	7.629232e-05
22	0x34aeb888	3.254429e-07
23	0x3809f1f8	3.2888696e-05
24	0x38c261f7	9.268888e-05
25	0xb6a6457b	-4.955274e-06
26	0x38a7427d	7.975565e-05
27	0x38c1a560	9.233761e-05
28	0x37241566	9.780144e-06
29	0x3732f6db	1.0667102e-05
30	0x36c233cf	5.787682e-06
31	0xb8bb19d9	-8.921669e-05
32	0x383dc067	4.52403e-05
33	0x37ca9be0	2.4152861e-05
34	0x368747a6	4.0316545e-06
35	0x37974940	1.8034712e-05
36	0x377e4d4e	1.5157579e-05
37	0x37b33cbb	2.1366743e-05
38	0xb818a617	-3.6394307e-05
39	0xb82102a8	-3.8387865e-05
40	0x3863a6b0	5.4276257e-05
41	0x37f5ad92	2.9287101e-05
42	0xb81aadf9	-3.6878486e-05
43	0xb6e08235	-6.6908783e-06
44	0x3840225a	4.580836e-05
45	0x37c03772	2.2914002e-05
46	0x37a4e41b	1.9656543e-05
47	0xb8434e20	-4.6564383e-05
48	0xb7533e75	-1.2591122e-05
49	0xb5ae5b29	-1.2990541e-06
50	0x37ef4ee7	2.8527762e-05
51	0x382782d6	3.9937753e-05
52	0xb7f01f82	-2.8624901e-05
53	0x3843c00a	4.6670473e-05
54	0xb5eb6db0	-1.7540788e-06
55	0x37fd6ba3	3.0210073e-05
56	0x367ec8b9	3.7965785e-06
57	0xb7671fb0	-1.3776051e-05
58	0xb7f68abe	-2.9390092e-05
59	0x37fdca6e	3.0254214e-05
60	0xb75f8a80	-1.3324083e-05
61	0xb72f4861	-1.0447665e-05
62	0xb7ad83af	-2.0684527e-05
63	0x3783b992	1.570283e-05

baseModel.5.weight f4 [64]
0	0x3f7ed97b	0.995506
1	0x3f5ebbf7	0.8700556
2	0x3f6eacc1	0.9323235
3	0x3f5f8fe3	0.8732893
4	0x3f6116e8	0.8792558
5	0x3f73cf1d	0.95237905
6	0x3f67b4e9	0.9051042
7	0x3f6ab6e4	0.9168532
8	0x3f5c0d50	0.85957813
9	0x3f63a895	0.8892911
10	0x3f6dc8d6	0.92884576
11	0x3f704efd	0.93870527
12	0x3f6b81d4	0.91994977
13	0x3f721906	0.9456943
14	0x3f7cac50	0.9870043
15	0x3f784631	0.96982104
16	0x3f64a98a	0.89321196
17	0x3f833702	1.0251162
18	0x3f5eedb9	0.87081486
19	0x3f6cc935	0.9249452
20	0x3f714183	0.9424059
21	0x3f7dfba5	0.99212104
22	0x3f6467ba	0.89220774
23	0x3f5b0b59	0.8556419
24	0x3f85df64	1.0458798
25	0x3f64d723	0.8939077
26	0x3f6fa4dd	0.93610936
27	0x3f7f7668	0.9979005
28	0x3f6ab9d0	0.9168978
29	0x3f695d88	0.9115834
30	0x3f711714	0.9417584
31	0x3f721738	0.9456668
32	0x3f750a9c	0.95719314
33	0x3f81b46c	1.0133185
34	0x3f7a49a3	0.9776861
35	0x3f742f36	0.9538454
36	0x3f66db9f	0.90178865
37	0x3f65fe6d	0.8984135
38	0x3f684b07	0.9073948
39	0x3f707072	0.9392158
40	0x3f740e2f	0.9533414
41	0x3f7cc84a	0.98743117
42	0x3f6ef21c	0.9333818
43	0x3f5c6c1f	0.8610248
44	0x3f70b59b	0.9402711
45	0x3f67e21a	0.9057938
46	0x3f60ee71	0.8786383
47	0x3f6b0bd4	0.91814923
48	0x3f64471c	0.89171004
49	0x3f6550d5	0.89576465
50	0x3f741ff0	0.9536123
51	0x3f80695a	1.0032151
52	0x3f6a67ed	0.9156483
53	0x3f6cb4f4	0.9246361
54	0x3f5a6589	0.8531118
55	0x3f6ef6d8	0.93345404
56	0x3f66c8f8	0.90150404
57	0x3f70c77d	0.94054395
58	0x3f67dc11	0.9057017
59	0x3f702cf0	0.9381857
60	0x3f5caebd	0.8620413
61	0x3f5f003b	0.87109727
62	0x3f64e490	0.8941126
63	0x3f69db89	0.9135061

baseModel.5.bias f4 [64]
0	0xbdfaba31	-0.122425444
1	0xbcd95236	-0.026528459
2	0xbde1640d	-0.11005411
3	0xbdb4900a	-0.08816536
4	0xbdd94565	-0.10608939
5	0xbe2350f9	-0.15948857
6	0xbd19b17e	-0.037522785
7	0xbde60879	-0.11232085
8	0xbd8cbd16	-0.06872003
9	0xbd08fea4	-0.03344597
10	0xbd95fe26	-0.073238656
11	0xbd9a5e20	-0.07537484
12	0xbda64ad1	-0.08119739
13	0xbd1a5df4	-0.037687257
14	0xbe859875	-0.26092878
15	0xbd6056af	-0.054770168
16	0xbd1267ac	-0.0357434
17	0xbe16a0ca	-0.14709774
18	0xbd0c12c0	-0.03419757
19	0xbde7c14b	-0.113161646
20	0xbd944926	-0.072405145
21	0xbde1a8cb	-0.11018523
22	0xbcefe621	-0.029284539
23	0xbdae0560	-0.08497119
24	0xbef035ac	-0.46915948
25	0xbd90a30c	-0.07062349
26	0xbd45116e	-0.048112325
27	0xbe3b76f8	-0.18307102
28	0xbd37a130	-0.044831455
29	0xbdd1ff0f	-0.10253727
30	0xbd623ece	-0.055235676
31	0xbd010642	-0.03150011
32	0xbe13829f	-0.14405297
33	0xbe839a1d	-0.25703517
34	0xbce16dc6	-0.027518164
35	0xbdb9aa91	-0.09065736
36	0xbd8824bf	-0.06647634
37	0xbdbf25ee	-0.093334064
38	0xbdaa3f22	-0.08312823
39	0xbd859cbc	-0.06524035
40	0xbdb0abeb	-0.08626541
41	0xbcc60e65	-0.024176786
42	0xbaf0ccdf	-0.0018371603
43	0xbdae20f6	-0.085023805
44	0xbdc937f2	-0.09825124
45	0x3c1b69a9	0.009485641
46	0xbdad4477	-0.08460324
47	0xbcd682b4	-0.026185371
48	0xba414670	-0.0007372862
49	0xbdd00531	-0.1015724
50	0xbea4ac6f	-0.32162806
51	0xbe64c081	-0.2233906
52	0x3c0619de	0.008184878
53	0xbda99341	-0.082800396
54	0x3cb9bbd4	0.022672571
55	0xbd704009	-0.05865482
56	0xbca65f0b	-0.020308992
57	0xbd9874db	-0.074441634
58	0xbcfa11cd	-0.030526066
59	0xbddb40a8	-0.107056916
60	0xbd646c79	-0.05576751
61	0xbce36fc8	-0.027763262
62	0x3d1809ca	0.03711871
63	0xbd874d20	-0.06606507

baseModel.5.running_mean f4 [64]
0	0xbe180503	-0.14845662
1	0xbebc4d26	-0.3677761
2	0xbe299565	-0.16560896
3	0xbe3d4d18	-0.1848644
4	0x3f2933f4	0.660949
5	0xbe8d1ca6	-0.2756092
6	0x3b939ac3	0.004504533
7	0xbdead3a7	-0.11466151
8	0xbe712f7c	-0.2355327
9	0xbdd7bd1f	-0.10534119
10	0xbe060f07	-0.1309167
11	0xbdabd440	-0.08390093
12	0xbe565bff	-0.20933531
13	0xbe10daf3	-0.14146022
14	0xbdbc5cd7	-0.09197395
15	0xbea9bdbf	-0.33152577
16	0xbd9eb5c4	-0.07749513
17	0xbe69997f	-0.2281246
18	0xbe16392c	-0.14670247
19	0xbddcdf04	-0.10784724
20	0xbe5a275a	-0.21304074
21	0xbe36ff3b	-0.178708
22	0xbe0004fc	-0.12501901
23	0xbe0fb938	-0.14035499
24	0xbea94bd2	-0.3306566
25	0xbd9669aa	-0.073443726
26	0xbead6518	-0.3386619
27	0xbdce3bed	-0.10070024
28	0xbd6b26a4	-0.057409897
29	0xbe158f2c	-0.14605397
30	0xbdccaf58	-0.09994382
31	0xbe67feec	-0.22655839
32	0xbd8cdf6d	-0.068785526
33	0xbedce988	-0.4314692
34	0xbe819c13	-0.25314388
35	0xbdd5026e	-0.10400854
36	0xbe2b2638	-0.16713798
37	0xbe682dfb	-0.2267379
38	0xbe41c01a	-0.18920937
39	0xbd6f496f	-0.05841964
40	0xbd432a60	-0.047647834
41	0x3db46f0d	0.08810244
42	0xbe1ed3e9	-0.15510525
43	0xbe53c0fc	-0.20679086
44	0xbe1e597d	-0.15463825
45	0xbe0b58c4	-0.1360808
46	0xbe76eb03	-0.24113087
47	0x3acf53fa	0.0015817874
48	0xbe8258df	-0.25458428
49	0xbec05df4	-0.3757168
50	0xbdd7ccac	-0.10537085
51	0x3ec4f701	0.384697
52	0xbf0db67e	-0.55356586
53	0xbd20b3ba	-0.0392339
54	0x3d19c037	0.037536826
55	0xbdcfa3c7	-0.1013866
56	0xbe389d83	-0.18028836
57	0xbe4c4017	-0.19946323
58	0xbe6a849a	-0.22902146
59	0xbe4555c2	-0.19270995
60	0xbacf4657	-0.001581381
61	0xbd6b0fed	-0.057388235
62	0xbefd40e3	-0.49463567
63	0xbd9bfb47	-0.07616287

baseModel.5.running_var f4 [64]
0	0x3d0af1c3	0.03392197
1	0x3d271f31	0.04080123
2	0x3d0dbf22	0.034606107
3	0x3d11c253	0.035585713
4	0x3d827e70	0.06371772
5	0x3cfd4a56	0.030919235
6	0x3d7db461	0.0619396
7	0x3d057fce	0.032592587
8	0x3d7b44cf	0.061344918
9	0x3d58fd2b	0.052975815
10	0x3d4e6442	0.050388582
11	0x3dc67320	0.09689927
12	0x3d6af3d8	0.057361454
13	0x3d0032de	0.03129851
14	0x3d2bc409	0.041935
15	0x3d699354	0.05702527
16	0x3c9a9602	0.018870357
17	0x3d389de3	0.045072448
18	0x3d074d94	0.03303297
19	0x3c9dab0b	0.019246599
20	0x3d781086	0.060562633
21	0x3cf2e067	0.029648019
22	0x3cd8b840	0.026455045
23	0x3d6ec809	0.058296237
24	0x3d7a6b23	0.06113733
25	0x3d81c2ac	0.06335959
26	0x3d5de42a	0.054172672
27	0x3cfd4a30	0.030919164
28	0x3ccc7c8b	0.02496173
29	0x3d8e479c	0.06947252
30	0x3d06cf8e	0.032912783
31	0x3d0a0087	0.03369191
32	0x3d415d69	0.047208223
33	0x3d7a5396	0.06111487
34	0x3cb72f93	0.022361552
35	0x3d266cc0	0.040631056
36	0x3d68d600	0.05684471
37	0x3d60e958	0.054910034
38	0x3cdf0b80	0.027227163
39	0x3d494e31	0.049146835
40	0x3e00e216	0.12586245
41	0x3d4c9da5	0.04995503
42	0x3d27f36b	0.041003626
43	0x3d28cf23	0.041213166
44	0x3cf23b79	0.029569374
45	0x3d1057b8	0.035239905
46	0x3d39a7a6	0.045325898
47	0x3d2cfb93	0.042232107
48	0x3d4464a9	0.04794756
49	0x3d076f31	0.033065025
50	0x3d390cfe	0.045178406
51	0x3db50562	0.08838917
52	0x3d8641bc	0.065555066
53	0x3db01d4c	0.08599338
54	0x3cc9678c	0.024585508
55	0x3ddd876f	0.108168475
56	0x3d184d91	0.037183348
57	0x3dd70795	0.10499493
58	0x3d7dc28b	0.06195311
59	0x3d272909	0.04081062
60	0x3d1c0169	0.038087282
61	0x3cfe03f6	0.031007748
62	0x3d0577b0	0.032584846
63	0x3d97f3f0	0.07419574

shortBranch.2.weight f4 [64, 1024]
0	0x3c6d02c2	0.01446599
1	0x39deec84	0.00042519358
2	0x39cec130	0.00039435318
3	0x391884e0	0.0001454535
4	0x3b99f273	0.0046980917
5	0x3ca67869	0.020321088
6	0xbc1123e9	-0.008858659
7	0x3c835088	0.016029611
8	0x3bbf8bd4	0.0058455262
9	0x3bdfb540	0.0068270266
10	0x3c7a2df0	0.015269741
11	0x3ab9aa89	0.0014165203
12	0x3c2cae48	0.010539599
13	0xbb9bd46d	-0.0047555477
14	0xbb5c5f04	-0.003362597
15	0xba74129f	-0.0009310636
16	0xbc9ecda4	-0.019385166
17	0xbc71d7b8	-0.014760904
18	0xbc50941f	-0.012730627
19	0xbc413307	-0.011791951
20	0xbc951f8f	-0.018203525
21	0xbc9c5110	-0.019081622
22	0xba760455	-0.0009384801
23	0x3b077e50	0.0020674653
24	0x3b1c910c	0.0023890166
25	0xbcd10d40	-0.025519013
26	0xbc50c42a	-0.012742082
27	0xbc0c1bc5	-0.008551543
28	0xbaf948f2	-0.0019018932
29	0xbcbb9e63	-0.022902673
30	0xbc7335ac	-0.014844339
31	0xbbe9c699	-0.0071342704
32	0xbca9fc23	-0.020750111
33	0xbc842806	-0.016132366
34	0xbcccafc4	-0.024986155
35	0xbbfeeb3a	-0.007779506
36	0xbc095550	-0.0083821565
37	0xbc9db2ea	-0.019250352
38	0xbcdba8f5	-0.026813963
39	0xbcdf3047	-0.0272447
40	0xbc8518da	-0.016247202
41	0xbb295ae8	-0.0025841538
42	0xbc8a8102	-0.016907219
43	0xbb36d539	-0.0027898087
44	0xbc980c35	-0.018560508
45	0xbc41c5e4	-0.011826966
46	0xbccba9be	-0.024861213
47	0xbc535a3b	-0.012899931
48	0x3c4d10a3	0.0125161735
49	0x3c8cb020	0.017173827
50	0x3ba29b64	0.0049623717
51	0x3c5e1c26	0.013556516
52	0x3b1315c1	0.0022443386
53	0x3c9e3d8f	0.019316463
54	0x3c8e8aad	0.01740011
55	0x3bb1c315	0.005424867
56	0x3b49b977	0.0030780712
57	0x3bc40478	0.005981978
58	0x3cccc71e	0.02499729
59	0xbbc11af0	-0.005893104
60	0x3c62dee5	0.0138470875
61	0x3cbff818	0.02343373
62	0x3ce6139e	0.028085526
63	0x3ca6eb6e	0.020375933
64	0x3b05a308	0.0020391364
65	0xbc2fb253	-0.010723668
66	0xbb4ee367	-0.0031568648
67	0xbc0c9eef	-0.008582815
68	0x3b4a9888	0.003091367
69	0x3c16a3b3	0.009194302
70	0x3c24b3a4	0.010052595
71	0xbad896c2	-0.0016524422
72	0xbb4ef4e8	-0.003157908
73	0x3adfa805	0.0017063624
74	0x3c49478e	0.012285126
75	0x3b56d672	0.0032781628
76	0x3aa83369	0.0012832704
77	0x396e4216	0.00022722068
78	0x3b8cc16e	0.0042955196
79	0xbcaf2e2a	-0.021384317
80	0x3d08809b	0.033325773
81	0x3cf41767	0.029796315
82	0x3cee2a53	0.029072916
83	0x3c56569a	0.013082171
84	0x3cebe638	0.0287963
85	0x3c544a07	0.012957103
86	0x3c56af28	0.013103284
87	0x3cc7c6c1	0.024386765
88	0x3bd2655d	0.006420775
89	0x3c7f051e	0.015565185
90	0x3cd0b2dd	0.025475914
91	0x3c92adf4	0.017905213
92	0x3cbf417c	0.023346655
93	0x3c6b3301	0.014355422
94	0x3d0d61f3	0.03451724
95	0xbbebd3e5	-0.0071968907
96	0x3d30342b	0.0430185
97	0x3d47d3c2	0.048785932
98	0x3d1174de	0.035511844
99	0x3d032107	0.03201392
100	0x3cf398d2	0.029735956
101	0x3cce8a07	0.025212301
102	0x3c96c817	0.018405957
103	0x3cb83f50	0.022491127
104	0x3d02760b	0.031850856
105	0x3d113e5a	0.035459854
106	0x3d710598	0.058843225
107	0x3d21c0aa	0.03949038
108	0x3d03b951	0.032159153
109	0x3d04d504	0.03242971
110	0x3ce585bc	0.028017871
111	0x3d25c1a6	0.04046788
112	0x3a011ddf	0.00049254106
113	0x3c36902f	0.0111427745
114	0xbc200634	-0.009767104
115	0xbc12ef35	-0.008968164
116	0xbc9aa0a5	-0.01887543
117	0x3a1ba228	0.0005936944
118	0xbb942b3a	-0.0045217546
119	0xbb43a0bc	-0.0029850444
120	0xbbda498d	-0.0066616
121	0xbb6a9caa	-0.0035798945
122	0xba38a80e	-0.0007044085
123	0xbc8c0767	-0.017093373
124	0xbc47c753	-0.012193519
125	0xba4466e6	-0.00074921397
126	0xbc2c272e	-0.010507388
127	0xbba31f3c	-0.0049780887
128	0x3a93aec2	0.0011267292
129	0x3c307c98	0.010771893
130	0x3cff6879	0.031177746
131	0x3abab899	0.0014245688
132	0x3c47b5cd	0.012189341
133	0x3cd112d6	0.025521677
134	0x3c51c75a	0.012803877
135	0x3bec80b5	0.0072174915
136	0x3bca1e09	0.0061681313
137	0x3c9fd93f	0.01951277
138	0xba62f7e3	-0.0008658154
139	0x3ca91f17	0.020644708
140	0x3d06ef81	0.032943252
141	0x3c458a48	0.012056895
142	0x3c55b335	0.013043215
143	0x3c466f89	0.012111553
144	0x3b2c10df	0.0026255173
145	0xbc1134b7	-0.008862666
146	0x3c8a77af	0.016902773
147	0xba10708d	-0.00055099354
148	0xbb5d4103	-0.0033760674
149	0x3bf25c10	0.0073962286
150	0xbbb65ce8	-0.0055652745
151	0x3c6cdec4	0.014457408
152	0xbc8d8b75	-0.017278412
153	0x3a9a50b5	0.001177332
154	0x3ad44522	0.001619492
155	0x3bd11031	0.006380104
156	0x3c406c73	0.011744606
157	0x3b80ccdc	0.003930671
158	0x3bb18cc8	0.0054183938
159	0x3c5023ea	0.012703875
160	0xbc930ca2	-0.01795036
161	0xbc93c9a8	-0.018040493
162	0xbbbf7679	-0.0058429805
163	0xbd081ad5	-0.033228714
164	0xbcc00cc2	-0.023443583
165	0xbcea863e	-0.028628465
166	0xbcd0d979	-0.025494324
167	0xbcf303c5	-0.029664883
168	0x3b8b8e7d	0.0042589293
169	0xbc9d7fb4	-0.019225933
170	0xbcb90d24	-0.022589274
171	0xbd064fa6	-0.032790802
172	0xbc358ca0	-0.011080891
173	0xbcbf8c65	-0.023382375
174	0xbc6e1857	-0.01453217
175	0xbcff8e67	-0.031195832
176	0x3c253c5a	0.01008519
177	0x3b577696	0.003287708
178	0xbc1e8c8a	-0.009677062
179	0x3c9532a6	0.018212628
180	0x3c18ba30	0.009321734
181	0x3ca0fe31	0.019652458
182	0x3c304ff5	0.010761251
183	0xbc1cfd50	-0.009581879
184	0xbba23484	-0.004950108
185	0xb9db9d0d	-0.00041887947
186	0x3cc84419	0.024446534
187	0x3921dcc3	0.00015436397
188	0xbc3dd04f	-0.011585309
189	0x3ca9c32c	0.020722948
190	0x3c3d0e47	0.0115390485
191	0x3c5cdb62	0.013480039
192	0x3ce9815e	0.02850407
193	0x3d059537	0.032613005
194	0x3c45eeea	0.012080887
195	0x3d13c32a	0.036074795
196	0x3d25e6a4	0.04050316
197	0x3cb0a0ca	0.021561045
198	0x3c234f9c	0.009967711
199	0x3c54bd80	0.012984633
200	0x3c6b0e6a	0.014346698
201	0x3c8a61fb	0.016892424
202	0x3c2b9fe5	0.010475134
203	0x3d151e70	0.03640598
204	0x3d2b98d3	0.04189379
205	0x3cca9339	0.024728404
206	0x3d3bc848	0.0458453
207	0x3ccae1f3	0.024765944
208	0xbc862643	-0.016375666
209	0xbcd241be	-0.025666114
210	0xbc49ae29	-0.012309589
211	0xbcd9488c	-0.02652385
212	0xbcbcc612	-0.023043666
213	0xbc913d9d	-0.017729575
214	0xbc4322f5	-0.01191019
215	0xbcd2e328	-0.025743082
216	0xbc49bbc0	-0.0123128295
217	0xbc64eb9f	-0.013972192
218	0xbd014d41	-0.031567816
219	0xbcf46fbc	-0.029838435
220	0xbcbce528	-0.023058489
221	0xbcaf7c44	-0.02142156
222	0xbc99089c	-0.018680863
223	0xbcaf847a	-0.021425474
224	0xbd3778b1	-0.044792835
225	0xbd1949e9	-0.037424
226	0xbcd92a04	-0.026509292
227	0xbd166842	-0.03672052
228	0xbd24044d	-0.040043164
229	0xbd24d711	-0.040244166
230	0xbd086540	-0.033299685
231	0xbd153256	-0.036424957
232	0xbd29825d	-0.04138409
233	0xbd09d953	-0.033654522
234	0xbd08a5ac	-0.033361122
235	0xbd0c9dae	-0.034330063
236	0xbd2520a9	-0.04031435
237	0xbd37b006	-0.044845603
238	0xbd204733	-0.0391304
239	0xbc1908fc	-0.009340521
240	0xbb213b2d	-0.0024601922
241	0x3aca25ce	0.0015422644
242	0x3c39f819	0.011350655
243	0x3a7d5b9b	0.00096648344
244	0x3c58ae17	0.0132251
245	0x3b5498e8	0.0032439772
246	0x3c0f31f0	0.008739933
247	0xbb58c37c	-0.0033075502
248	0x3c5e603c	0.013572749
249	0x3c3d5b10	0.0115573555
250	0xbb95dac1	-0.0045731966
251	0xbc54611d	-0.012962607
252	0xba771cfd	-0.0009426622
253	0x3c692fb9	0.014232569
254	0xbb29891e	-0.0025869082
255	0xbbd2cbb2	-0.006432974

shortBranch.2.bias f4 [64]
0	0xbb4a800c	-0.0030899076
1	0xbd5da9b5	-0.054116923
2	0x3c924d6f	0.017859189
3	0x3d0dce40	0.034620523
4	0x3d286727	0.041114
5	0xbd31affd	-0.043380726
6	0x3d40f8fa	0.047112443
7	0x3ce79e79	0.028273808
8	0xbd1e7b8d	-0.038692046
9	0x3c8f2673	0.017474389
10	0x3d410508	0.04712394
11	0x3c9b40ca	0.018951792
12	0xbca8d081	-0.020607235
13	0x3c7c777b	0.015409346
14	0x3c76cd52	0.015063601
15	0xbca2f76a	-0.019893367
16	0xbd2aecfe	-0.04172992
17	0xbc9f54d7	-0.019449634
18	0xbd1b589e	-0.03792631
19	0x3d1c1883	0.038109314
20	0xbd323867	-0.04351082
21	0xbd844855	-0.06459109
22	0xbd327634	-0.04356976
23	0xbc392ba1	-0.011301906
24	0x3c65c70a	0.014024505
25	0xbd20e6b2	-0.03928251
26	0xbd040c25	-0.032238144
27	0xbcf38025	-0.02972419
28	0xbc626044	-0.013816897
29	0xbd15c8ee	-0.036568575
30	0x3d1881f5	0.03723331
31	0x3d57f1e9	0.052720938
32	0xbbefd8ad	-0.007319531
33	0x3d8000ef	0.06250178
34	0x3c1b1263	0.009464833
35	0xba78142b	-0.00094634545
36	0xbd502032	-0.050811954
37	0xbcadca80	-0.021214724
38	0xbd21e239	-0.039522383
39	0xbd58756f	-0.05284637
40	0xbd0f3774	-0.034964994
41	0xbc86f730	-0.01647529
42	0x3d25c96b	0.04047529
43	0x3cbb6083	0.022873169
44	0xbcd655e9	-0.026164012
45	0xbcd70a73	-0.0262501
46	0xbd782eaa	-0.060591377
47	0xbc1b4ccc	-0.009478759
48	0x3cf75371	0.030191155
49	0x3c97ea35	0.018544296
50	0x3ceb4cea	0.028723199
51	0xbd75f022	-0.06004346
52	0xbc0f02cd	-0.008728695
53	0xbd20bb55	-0.039241154
54	0x3d1d57a9	0.038413677
55	0x3ca51f83	0.020156628
56	0xbcb7c689	-0.022433536
57	0xbcd50f79	-0.026008354
58	0xbc802b8e	-0.015645768
59	0xbd3f3509	-0.046681438
60	0x3d754404	0.059879318
61	0x3b57325c	0.0032836413
62	0xbd40a15c	-0.047028884
63	0x3d71b7c8	0.059013158

shortBranch.4.weight f4 [32, 64]
0	0xbe2f39f1	-0.17111947
1	0x3c0f328c	0.008740079
2	0x3df8a963	0.12141683
3	0xbdfd1a6d	-0.12358556
4	0xbe436a80	-0.19083595
5	0xba86690e	-0.0010254697
6	0xbcfe0f22	-0.031013075
7	0xbc928714	-0.017886676
8	0x3de3c96e	0.11122404
9	0xbd4e5816	-0.050376974
10	0x3c1bb40b	0.009503375
11	0xbd6072d0	-0.054796994
12	0xbbe959c2	-0.0071212957
13	0x3d805903	0.06266978
14	0xbe0775d3	-0.1322854
15	0xbacf9b01	-0.0015839041
16	0xbc1b8fd4	-0.0094947405
17	0x3cb2db57	0.021833105
18	0xbc17656e	-0.009240491
19	0x3a4a1c37	0.0007709893
20	0x3d96c44a	0.07361658
21	0xbc0cd8b8	-0.008596592
22	0x3e4431ac	0.19159573
23	0x3c110ea9	0.008853593
24	0x3d117a64	0.03551711
25	0xbc1ee501	-0.0096981535
26	0x3ca8448e	0.020540502
27	0xbd20fef0	-0.039305627
28	0x3c125b50	0.008932903
29	0xbb299c87	-0.002588065
30	0x3c4ec445	0.0126200365
31	0xb9f490ac	-0.00046647096
32	0x3c382c52	0.011241036
33	0x3d2246ee	0.039618425
34	0xbc09e341	-0.008415998
35	0xbe04a2e5	-0.12952764
36	0x3cdd2b48	0.026998177
37	0xbdb9bf79	-0.09069724
38	0xbc0b191a	-0.008489871
39	0x3d4f2cf2	0.050579973
40	0xbbb8bd9a	-0.0056378366
41	0x3dbd494d	0.09242497
42	0xbbab9bba	-0.00523707
43	0xbe256b46	-0.16154203
44	0x3cfc7620	0.030818045
45	0x3c135c8e	0.008994235
46	0xbbcab419	-0.00618602
47	0xbd7e49ba	-0.06208203
48	0xbe467e8b	-0.1938421
49	0xbc38f360	-0.011288494
50	0xbc18c782	-0.00932491
51	0xbb8f7522	-0.004377977
52	0x3e457e1c	0.19286388
53	0x3dd2f025	0.1029971
54	0xbce031ef	-0.02736756
55	0x3d2f8b0b	0.04285721
56	0x3d94ad0a	0.07259567
57	0x3bfd671b	0.0077332384
58	0x3a22c689	0.00062093936
59	0x3b858a41	0.004075319
60	0xbbb9ad64	-0.0056664217
61	0x3a90c2a5	0.0011044337
62	0x3d7050fb	0.05867098
63	0xbc8d3927	-0.017239166
64	0x3cf97668	0.030451968
65	0xbbf62d32	-0.007512712
66	0xbd0411e7	-0.032243636
67	0x3e2488e6	0.16067848
68	0x3da9521b	0.082676135
69	0x3c708da9	0.014682212
70	0xbc633583	-0.013867739
71	0xbcb33cb4	-0.021879531
72	0xbe319057	-0.17340218
73	0xbcabff40	-0.020995736
74	0xb8c42874	-9.353543e-05
75	0x3e29240d	0.16517659
76	0xbc91ecd4	-0.017813124
77	0xbe00d6f8	-0.12582004
78	0x3d8e6f47	0.06954818
79	0x3af18f89	0.0018429618
80	0xbcc730af	-0.024315206
81	0x3d549364	0.051898375
82	0xbc4aba44	-0.012373511
83	0x3d4a2943	0.049355756
84	0xbe3fb6d5	-0.18722089
85	0xbcc05f1c	-0.023482852
86	0xbd5e2ec5	-0.05424382
87	0x3cd62296	0.026139539
88	0x3d1ed8c0	0.038780928
89	0x3c07a253	0.008278447
90	0x3ca04e1d	0.019568497
91	0xbb156b3a	-0.0022799508
92	0xbd278eca	-0.04090766
93	0x3c35aaf0	0.011088118
94	0x3cd29f69	0.025710778
95	0x3d52809e	0.05139219
96	0x3d10605c	0.035248145
97	0x3ca3c672	0.019992087
98	0xbd2c61c7	-0.042085435
99	0x3d1668ff	0.036721226
100	0xbde69598	-0.112590015
101	0x3c99f43f	0.018793223
102	0x3bdf19d6	0.0068085
103	0x3c4caa11	0.012491719
104	0xb9f29efa	-0.00046276284
105	0xbe428b8f	-0.1899855
106	0xbb17cb8e	-0.00231621
107	0x3df97e2a	0.12182267
108	0x3cb1b519	0.0216928
109	0xbceab0ae	-0.0286487
110	0xbb9be4d2	-0.004757502
111	0xba60b631	-0.00085720705
112	0x3d05aa51	0.03263313
113	0xbd46cfc2	-0.048537977
114	0xbd0f1588	-0.034932643
115	0xbba79edc	-0.005115373
116	0xbd8e72da	-0.069555
117	0xbe31cd87	-0.17363559
118	0xbc084420	-0.0083170235
119	0x3ce2d31e	0.02768856
120	0xbe2fcc67	-0.17167817
121	0x3cd33321	0.025781216
122	0xbb8ff331	-0.0043930043
123	0x3cb41d50	0.021986634
124	0xbc90b4da	-0.017664362
125	0xbd0b8866	-0.034065627
126	0xbe37f26b	-0.17963569
127	0xbc922ff0	-0.017845124
128	0x3c54e677	0.0129944
129	0x3dc07088	0.09396464
130	0xbcfbf7e8	-0.03075786
131	0xbd2d22b9	-0.042269442
132	0x3bf04d12	0.0073334062
133	0x3d8dbe25	0.06921033
134	0x3b76c7dc	0.0037655747
135	0xbd37cc19	-0.044872377
136	0x3d279ac7	0.04091909
137	0x3dd00259	0.10156698
138	0xbdac2e73	-0.08407297
139	0xbd97c189	-0.07409961
140	0x3e2a3fd3	0.1662591
141	0xbdc915bd	-0.098185994
142	0x3d3cd378	0.04610011
143	0x3da585e9	0.08082182
144	0x3de769c0	0.11299467
145	0xbd2aa691	-0.041662756
146	0x3e26d1d1	0.16290976
147	0xbe14aa59	-0.14518107
148	0x3d40ef2e	0.0471031
149	0x3e46d359	0.1941656
150	0xbb79b4bc	-0.003810211
151	0x3d6d487e	0.057930462
152	0xbde7de0a	-0.113216475
153	0x3c0920e0	0.008369654
154	0xbd83a8e8	-0.06428701
155	0x3cef6afa	0.029225815
156	0x3dcfaf00	0.101408005
157	0x3d621316	0.055193983
158	0xbe89e920	-0.26935673
159	0xbe145caa	-0.14488474
160	0xbde2aaa7	-0.110677056
161	0xbe428a5b	-0.18998091
162	0xbc872ee8	-0.016501859
163	0x3d305b2b	0.043055695
164	0x3dd36904	0.103227645
165	0x3e1992e1	0.14997436
166	0x3d9a6765	0.07539252
167	0x3ce2a991	0.027668746
168	0x3d3433b2	0.043994613
169	0x3d012c2b	0.031536262
170	0xbdbd3ff9	-0.092407174
171	0xbc29f018	-0.010372184
172	0xbca3ce14	-0.019995727
173	0x3e1c10be	0.15240762
174	0x3e00eee8	0.12591136
175	0x3d62c5e2	0.055364497
176	0xbb5661cb	-0.0032712098
177	0x3da85e48	0.08221108
178	0xbd818534	-0.063242346
179	0x3e3782d8	0.17921007
180	0xbc90aa52	-0.01765934
181	0x3d5c6075	0.053802926
182	0xbaabbbea	-0.0013102267
183	0xbdaa0c3f	-0.08303117
184	0x3d6decac	0.058087036
185	0x3ce38458	0.027773067
186	0x3d39da5c	0.04537426
187	0x3d2f7062	0.042831786
188	0xbd471d1a	-0.048611738
189	0xbcc4cdb9	-0.024023877
190	0x3d620b8a	0.055186786
191	0xbd469bbf	-0.048488375
192	0x3dfcfafc	0.12352559
193	0x3cfd1a0d	0.030896211
194	0xbe47a715	-0.1949733
195	0x3c814c33	0.015783405
196	0x3d0e19b1	0.03469247
197	0x3c8d8ecc	0.017280005
198	0xbaa96a0c	-0.0012925281
199	0xbd15994e	-0.036523156
200	0xbcad52a6	-0.021157574
201	0x3e01a97e	0.12662312
202	0x3d1d2d34	0.038373187
203	0x3c049ef0	0.008094534
204	0x3da40820	0.08009362
205	0xbcdcf661	-0.026972951
206	0x3d35cb21	0.044383172
207	0x3dd88f0e	0.105741605
208	0x3c00466c	0.00782929
209	0xbd3262d7	-0.043551292
210	0x3d1e293b	0.03861354
211	0xbd9cf311	-0.07663549
212	0xbcba416b	-0.022736272
213	0x3d0ac5ed	0.033880163
214	0xbd2172e1	-0.039416198
215	0xbd88f626	-0.06687574
216	0x3d62b6dc	0.05535017
217	0xbdb51550	-0.08841956
218	0x3d0a9f43	0.03384329
219	0x3e4b4b9c	0.19853061
220	0x3e15a30c	0.14612979
221	0xbdc40161	-0.095705755
222	0xbd2a722f	-0.0416128
223	0xbd2fdbed	-0.042934347
224	0x3de7c7d4	0.11317411
225	0x3caf37c6	0.0213889
226	0x3d82557b	0.0636396
227	0x3deba40a	0.11505897
228	0x3c0f5fc4	0.00875086
229	0x3dcbf25a	0.09958334
230	0xbd80e6f2	-0.06294049
231	0x3c91c6b4	0.017794944
232	0x3c760f12	0.0150182415
233	0xbc8bea64	-0.01707954
234	0xbc7f5f6f	-0.015586718
235	0x3d2b01b3	0.041749667
236	0x3bd3dd85	0.006465616
237	0x3d6fd694	0.058554247
238	0x3d7a9b50	0.061183274
239	0x3e58644e	0.21132013
240	0x3d8869c2	0.06660797
241	0xbdc8d8f1	-0.09807003
242	0xbdf1fef7	-0.11816209
243	0x3c686ae0	0.014185637
244	0xbd3462d9	-0.04403958
245	0xbc9f99be	-0.01948249
246	0xbd678a78	-0.05652854
247	0xbe0cc496	-0.13746867
248	0xbc35f93e	-0.011106787
249	0x3c1cc1b9	0.009567671
250	0xbce28e44	-0.027655728
251	0x3d962896	0.0733196
252	0xbc769b5f	-0.015051692
253	0x3db6bb88	0.089224875
254	0xbbabc482	-0.0052419314
255	0xbcafd046	-0.021461617

shortBranch.4.bias f4 [32]
0	0x3d47ec7c	0.048809513
1	0x3cf7b343	0.030236846
2	0x3d50764c	0.050894067
3	0xbcbdba95	-0.023160258
4	0x3d7f5911	0.0623408
5	0x3d420c43	0.047374975
6	0xbd8bdf6e	-0.06829725
7	0x3df406c4	0.11915353
8	0xbb300204	-0.002685667
9	0xbdf3eac0	-0.119100094
10	0x3d31f423	0.043445718
11	0xba3560c6	-0.00069190224
12	0x3d30415f	0.043031093
13	0xbd6bc888	-0.05756429
14	0xbce71d51	-0.028212221
15	0x3cb6adb6	0.022299629
16	0x3dad3bd3	0.08458676
17	0xbd2f5bd1	-0.042812172
18	0xbd2099b6	-0.03920909
19	0xbcacc9ba	-0.021092284
20	0x3d554d7f	0.05207586
21	0x3d82f9b7	0.063952856
22	0xbd01f0d2	-0.031723805
23	0x3c865ba8	0.016401127
24	0x3d2eae1a	0.042646505
25	0x3bbc482f	0.0057459096
26	0xbd3d0175	-0.046143968
27	0xbd074d88	-0.033032924
28	0x3ce4248a	0.027849454
29	0x3d966fda	0.07345553
30	0x3d8cdefd	0.06878469
31	0x3ba894e0	0.0051447004
