Models/Final/eeV3.pth (torch, 766299 bytes, 48 tensors)

baseModel.0.weight f4 [64, 2, 3]
00000000: 29ab 68be f731 dcbd 33e2 423e 0055 0ebd
00000010: 1063 45be d8ed 3dbe da69 b8be 587e 963d
00000020: aded b2bd 2442 b73e e8eb 833e ef58 7fbe
00000030: 31b6 503e fb20 843e 3bb5 ef3d eec7 66be
00000040: c207 3dbd 27d8 4e3b 25e9 793d 412c 693e
00000050: 3bbd 653e b23f 823e c383 e03d 1ba4 64be
00000060: 5cd6 6fbe 5340 a13e bd64 663e 1cf4 a9bc
00000070: fd49 873d 754c e43a 5243 b03e 9c46 3d3d
00000080: c8cb 2dbe 5d17 833e d39e 6dbe 9b0d 59be
00000090: d036 8fbe 6099 59be 22e6 d73c 4876 213e
000000a0: 60c7 8f3e 8098 a83e 9d74 98be 83d9 ad3d
000000b0: 0566 c93d c80d 46be 1a26 8fbe 297b 443e
000000c0: 0659 13be 6a7a a6be 7f54 923e a308 92be
000000d0: 461e 4c3e 8e26 98be d52c 34bd b601 393d
000000e0: b6ff 6bbe 4ea1 693e 7b31 b13e 75ef ebbb
000000f0: 4a48 4d3e dc00 223e a645 e8bd a57e a73e
00000100: bf8e dd3e 07b9 243e 6478 073e 5b58 963e
00000110: 550d 83be ecb6 54be 8e0c f9bd e826 b43c
00000120: 5ad8 9f3e e39d 72be c631 ccbe 11be d1bd
00000130: b246 5cbd 3a11 f93d 2167 d7bd 5044 513e
00000140: 7a4f 283e ad22 8e3e 365c 893e c360 f53d
00000150: 243a 2cbe 61e8 b1be 38f4 9bbd 5004 00be
00000160: b03e 283e 606d d63d 6ce8 8dbd 8d31 843e
00000170: 2b83 653e 91db a2be 1311 48be eafd e13d
00000180: 69d3 4d3e a566 283e 1eac f53b c9f4 81be
00000190: 4c4f 9b3e f14b fd3d 2f1c d4bd 6231 c83c
000001a0: f678 bf3d 0ba4 b23e eb1a 8abe 52c5 a13e
000001b0: bb15 68be e132 b03e 973e 6cbe ef4f 283e
000001c0: 4a99 75be 0a8f 893d 004b 3bbe 88c6 b83d
000001d0: 8b95 b3bd b168 55be ef08 393e d1b2 81be
000001e0: 42b4 853e fb6a 87be be15 a1be e04f a7be
000001f0: 7af5 b4be 40e8 f13c 4c87 8f3d 86f9 a9bd
00000200: ffa3 953e ec8d a3be c621 3bbd a163 963e
00000210: 19be b0bd 588a 92be 09d7 e2be 6779 2d3d
00000220: 66de e1bd 06f3 ecbc 6b84 b73b 603c 323e
00000230: 64fc 7ebe 2733 72be 69f7 373e b1b1 b33e
00000240: b4e5 8abe 5c88 ab3c 4250 9a3e 1030 64be
00000250: d16c 50be b080 29be d687 61bd fcd4 16be
00000260: 4813 1c3e 8730 9e3e 76c5 82bd 7732 94bd
00000270: 0908 6cbe 2c4e 1e3e ec30 b43e 0d6e 5fbe
00000280: b986 b43e 1233 a93e d6fd 8bbe 99ba 683e
00000290: 7318 37be 5cde 46bb f82a 21be 64b8 a13c
000002a0: 30fc e03a a243 81be 9783 9abe d7a7 1cbe
000002b0: ca3b 86be 7f4a 953e 7951 6e3e b3da d23d
000002c0: d1c6 afbe d561 53be 29ca 0bbe 0a0e b43e
000002d0: a011 0c3e abe8 e4bd dd3f 56be 3d16 843e
000002e0: 1019 993e c875 993e a101 8fbe 3bef e73c
000002f0: 48d2 813e 2b10 e33d 548f a63e 5b5f bf3d
00000300: 484a 1a3e 201d fcbd 92a7 a73e 6407 0e3c
00000310: 622a 22be b702 1fbd fd5c 68be d0ca eebd
00000320: 129b a83d 033f ba3d ea82 ca3d afaf 9d3c
00000330: fb6b 99be a125 1ebd 89c9 f83d 9679 65be
00000340: 22cf cdbe e319 a5be 07a4 6ebd e484 9bbe
00000350: e759 23be 9920 80be d0b7 2cbe 7a48 043d
00000360: ef1c 483e 1f3d 293e fa90 933e 62be d53d
00000370: 1194 123e 5bf1 27be 38fd b53e f374 963e
00000380: cc5b 57bc 7e1e ea3d b198 d6b8 ece3 ca3d
00000390: 848a 073d f17d 1cbb 8dad 99be 2356 37be
000003a0: 00c1 a3be f513 22be 6854 993e d2bf 863e
000003b0: f1fe 6f3c 6d26 823e 513f 42be aee1 c4bd
000003c0: 9d7e 54be a91b cabe aeb7 81be 45dc 463d
000003d0: 1a6f c93d 0db0 353d 70ba 36be 88f0 aa3e
000003e0: 5fd1 3b3e 4fd2 f5bd 7a32 9abe 0dbe 64be
000003f0: 55b4 d23d 4794 773e fc4a 9b3c eace dbbd
-0.22721542 -0.107517175 0.190316 -0.03474903 -0.1927607 -0.18547761 -0.36018258 0.07348317
-0.08736739 0.3579265 0.2576592 -0.24936269 0.20382 0.25806412 0.11704489 -0.22537205
-0.046149977 0.0031561942 0.06101336 0.22770788 0.22435467 0.2543922 0.109626316 -0.22328226
-0.23421615 0.31494388 0.22499366 -0.020746283 0.06605909 0.0017417806 0.3442636 0.046209916
-0.16972268 0.25603762 -0.23205118 -0.21196596 -0.27971506 -0.21249914 0.026354853 0.15767777
0.280818 0.32928848 -0.2977647 0.08488753 0.09833912 -0.19341195 -0.27958757 0.19187607
-0.14389428 -0.3251527 0.2858009 -0.28522214 0.19933423 -0.29716915 -0.043988068 0.045167647
-0.23046765 0.22815439 0.34608063 -0.0072001764 0.20047107 0.1582064 -0.113414094 0.3271381
0.4327297 0.16086207 0.13229519 0.29364285 -0.2559611 -0.20772904 -0.12160598 0.021991208
0.3121975 -0.23693042 -0.39881724 -0.102413304 -0.053778358 0.12161489 -0.10517717 0.20436215
0.16436568 0.2776083 0.26828164 0.119813465 -0.16819054 -0.34747604 -0.076149404 -0.12501645
0.16430163 0.104700804 -0.069290966 0.25819054 0.22413318 -0.3180814 -0.19537763 0.110347584
0.20100178 0.16445406 0.0074973246 -0.2538207 0.30333936 0.12368 -0.10356938 0.02443761
0.09349243 0.3489078 -0.26973662 0.31595856 -0.2266454 0.34413818 -0.23070751 0.16436742
-0.23984256 0.06716736 -0.18290329 0.09022242 -0.087687574 -0.20840718 0.18069814 -0.2533174
0.26114088 -0.26448807 -0.314619 -0.32678127 -0.35343534 0.02952969 0.07008228 -0.08299546
0.29226682 -0.31944215 -0.045686506 0.29372886 -0.08630008 -0.28621173 -0.44304684 0.042352106
-0.11028747 -0.028924476 0.0056005022 0.17405844 -0.24900967 -0.23652326 0.17965473 0.35096505
-0.27128375 0.020939045 0.30139357 -0.2228396 -0.2035401 -0.16552997 -0.055061184 -0.14729685
0.1524173 0.30896398 -0.06385319 -0.07236188 -0.2304994 0.15459508 0.35193574 -0.21819325
0.35259035 0.33046776 -0.273421 0.22727431 -0.1788042 -0.003034494 -0.15739048 0.019741245
0.0017165001 -0.25246912 -0.3017852 -0.15298401 -0.2621749 0.29158399 0.23273267 0.1029562
-0.34331372 -0.20642789 -0.13651337 0.3516696 0.13678598 -0.111771904 -0.209228 0.25798216
0.29901934 0.29972672 -0.2793093 0.028312316 0.25355744 0.11087068 0.32531226 0.093443595
0.15067399 -0.12310243 0.32745034 0.008668754 -0.1583648 -0.03882095 -0.22691722 -0.11659777
0.08232702 0.0909405 0.09888251 0.019248812 -0.29965195 -0.038610104 0.12147815 -0.22409663
-0.40197092 -0.32246312 -0.058261897 -0.30374825 -0.15952264 -0.2502487 -0.16866994 0.03229568
0.19542287 0.16527222 0.28821546 0.10436703 0.14314295 -0.16400664 0.35544753 0.293861
-0.013144445 0.11431597 -0.00010232756 0.09906754 0.033091083 -0.0023878778 -0.3001522 -0.17903952
-0.31983185 -0.15827926 0.2994721 0.26318222 0.014648185 0.25419942 -0.18969466 -0.096133575
-0.20751424 -0.39474228 -0.2533545 0.04854991 0.09835644 0.04435735 -0.17844558 0.33386636
0.18341587 -0.12003004 -0.30116636 -0.22338124 0.10288302 0.24177657 0.018956654 -0.10732825

baseModel.0.bias f4 [64]
00000000: 6f49 5c39 0591 29b9 7cd7 94b9 858d 8b39
00000010: d4c4 b5b8 9836 bc39 a4ea bbb9 177d 273a
00000020: 70e4 a1b9 4cd6 63b9 70dc 4a38 2f52 bc37
00000030: 7392 d6b8 8bee 32ba ac0f 663a ff1f b0b8
00000040: 7eaa 86b9 844f cfb9 3d40 9f36 a21d 543a
00000050: 0a8e 043a 0bfb 27b9 eec6 e937 86f0 89b9
00000060: 5326 7ab9 2a56 0db9 2b4a ab39 d79d a8b9
00000070: 1c62 f9b8 41b7 a0b8 ec04 3dba 82c1 aa39
00000080: 6ec8 efb9 5d32 9db9 f74d 8038 d4e4 5738
00000090: 4c43 87b9 d0a0 6a35 11ba 8d39 a748 94b9
000000a0: 02b9 11ba 4f7d d439 797e 37b9 f7c7 b336
000000b0: dcd3 35b9 528c e2b9 38d9 89b9 ad1b a8b9
000000c0: 5d28 4539 d0a8 7b39 f1d1 8e39 7edb 32b9
000000d0: a3fa 1f3a cf5e d4b8 0c78 ca38 f070 38b9
000000e0: e117 1e39 22dc bf39 7db0 f6b7 4282 b8b9
000000f0: 462e 3c39 5c0d 00b9 5c12 9639 7d7b 343a
0.00021008191 -0.0001617112 -0.00028389308 0.00026617586 -8.667415e-05 0.0003589883 -0.0003584224 0.0006389184
-0.00030878512 -0.00021728239 4.836585e-05 2.2449616e-05 -0.000102315935 -0.0006825707 0.0008776139 -8.398294e-05
-0.00025685498 -0.0003954136 4.7460476e-06 0.0008091574 0.0005056566 -0.00016019882 2.7868398e-05 -0.0002630988
-0.00023856135 -0.00013478906 0.0003267092 -0.00032161057 -0.000118915195 -7.663528e-05 -0.0007210511 0.000325691
-0.00045734964 -0.00029982897 6.118038e-05 5.1473107e-05 -0.00025799347 8.7405806e-07 0.00027032246 -0.0002828289
-0.00055588793 0.00040529153 -0.00017499355 5.3578947e-06 -0.00017340429 -0.00043210626 -0.00026292517 -0.00032064077
0.0001880242 0.00024000113 0.0002724077 -0.0001705717 0.00061027164 -0.00010126607 9.654471e-05 -0.0001758968
0.0001507695 0.0003659437 -2.9407669e-05 -0.00035192264 0.00017946315 -0.00012212008 0.00028623908 0.0006884856

baseModel.1.weight f4 [64]
00000000: 5d92 5b3f 6a00 453f 17f3 623f c203 643f
00000010: a5e2 403f ac46 403f ccf3 6e3f 41d3 393f
00000020: 31dd 3d3f 56aa 4a3f e4b6 543f 45af 3d3f
00000030: 38e6 4e3f e41b 613f f3f2 5a3f 94e2 5a3f
00000040: 65dd 433f 5f87 3d3f 21ef 433f 2f07 4b3f
00000050: 4612 5a3f ed32 3d3f c7d8 513f 2822 3c3f
00000060: e6bd 633f d4f5 2f3f 31d7 493f 84a4 313f
00000070: f6dd 493f 25d5 443f 659e 5b3f 85ba 5b3f
00000080: ba7d 433f 945a 533f d978 713f ceb9 5a3f
00000090: 2513 4d3f 7913 403f c0a1 5b3f d783 453f
000000a0: 9253 673f a8e7 423f 3227 363f 65f7 503f
000000b0: e0c9 573f 39df 583f a0a2 4d3f 7c52 473f
000000c0: 0ab8 4c3f c8b7 393f 32a2 5e3f 7c54 4e3f
000000d0: 61db 3f3f 7a47 3c3f f02a 363f 03e7 3e3f
000000e0: d412 4c3f 3554 3e3f 46d6 513f bdf3 413f
000000f0: 92f4 3b3f b7c0 5f3f d3bd 323f 2a7c 4f3f
0.8577021 0.76953757 0.88652176 0.89068234 0.7534583 0.75107837 0.93340755 0.7258797
0.74165636 0.7916616 0.8309157 0.74095565 0.80820036 0.8793318 0.8552696 0.8550198
0.76509696 0.74034685 0.76536757 0.79307836 0.85184133 0.7390583 0.819714 0.7348962
0.8896164 0.6873448 0.7884398 0.69391656 0.7885431 0.7688773 0.85788566 0.8583148
0.7636372 0.82560086 0.94325024 0.85439765 0.8010734 0.7502971 0.85793686 0.77154297
0.90361893 0.7613473 0.7115356 0.81627494 0.8429241 0.8471561 0.8032627 0.77860236
0.7996832 0.7254605 0.8696624 0.8059766 0.7494412 0.73546565 0.7115927 0.74571246
0.7971623 0.7434724 0.8196758 0.7576254 0.7342006 0.87403435 0.698209 0.81048834

baseModel.1.bias f4 [64]
00000000: c111 8cbd d0dd f9bd 9786 c0bc dd28 95bd
00000010: 5a62 ddbd be79 9fbd cbd1 b8bd c3bb d8bd
00000020: faa0 9fbc 5aeb a3bc 46bc 51bb 3788 16bc
00000030: 6e68 793c e1ef a4bd f32a 76bd 87b8 4cbd
00000040: 009d 17bd d1da 853c d26d a23c 8780 51bc
00000050: 7b01 90bd 09ff e5bc 6262 70bc ae26 29bd
00000060: b724 91bd b1ff d6bc d57c c1bd b878 d9bc
00000070: b789 a4bd 0662 80bd edc1 0cbd 68f2 bcbd
00000080: 2e30 67bd 5c29 16bd 6d97 66bd da68 a9bd
00000090: 16ac 67bd d85e d03c 99a3 dabd 6ba8 2bbd
000000a0: ef57 793c b301 99bc c969 ddbc c038 a1bd
000000b0: 2f58 a8bd 797b 6fbd 2346 b5bd afd2 cabc
000000c0: d0d7 80bd fb69 01bd b668 73bd 0513 fcbd
000000d0: 92be 7fbd a970 4fbd 3a11 39bd b2b0 703c
000000e0: 1d2d cebd 34b6 70bd 4e6b 17bd 823f 96bd
000000f0: 1b92 aabc 4028 39bc e9d3 b1ba 48c2 08bd
-0.06839324 -0.122005105 -0.023501677 -0.07283185 -0.10809775 -0.07786892 -0.0902439 -0.10582688
-0.01948594 -0.020009685 -0.003200309 -0.00918775 0.015222652 -0.08053566 -0.060099553 -0.049980666
-0.03701496 0.016339691 0.019827757 -0.012786991 -0.070315324 -0.028075712 -0.014671894 -0.041296653
-0.07087081 -0.02624497 -0.09447638 -0.026546821 -0.080340795 -0.062686965 -0.03436463 -0.09225923
-0.056442432 -0.036660537 -0.056296755 -0.08271952 -0.0565606 0.02543585 -0.10675735 -0.041908663
0.015218719 -0.018677568 -0.027027981 -0.07872152 -0.08219945 -0.058467362 -0.08851268 -0.024758665
-0.06291163 -0.03159521 -0.059426032 -0.12308315 -0.0624376 -0.05064455 -0.045182444 0.014690565
-0.100671984 -0.058767512 -0.036967568 -0.07336332 -0.020821622 -0.0113011 -0.0013567182 -0.033388406

baseModel.1.running_mean f4 [64]
00000000: 7b2f 3939 dd82 31b9 92a9 88b9 25c2 a639
00000010: f3f8 86b8 0706 ed38 aab9 8eb9 a17a 8239
00000020: 67a5 ffb9 6b94 b3b8 a788 c136 e6aa 0539
00000030: 673d cbb8 a810 bab9 2625 6a3a 5857 b8b9
00000040: 6f90 f1b9 45cb d8b9 261f b2b8 1204 383a
00000050: edeb b739 9659 9ab7 6d29 1d36 d11e 45b9
00000060: 1b33 8bb9 0e34 27b9 07a5 ad39 9723 6ab9
00000070: 9884 c3b8 b057 66b9 89f0 2fba acfe 0839
00000080: 1101 e1b9 11a4 d5b9 8c28 c738 45d0 eb37
00000090: 301c 8db9 5df2 bbb8 069e 5539 9e44 4ab9
000000a0: 8235 b9b9 7135 6c39 8d0f 51b9 6805 10b8
000000b0: b4ce 9038 9335 87b9 b74d bb38 fec6 b6b9
000000c0: 2034 aa39 80ac 8338 5d05 0839 df56 2eb9
000000d0: a2ca ab39 60de 98b8 6f0b fb38 c128 86b9
000000e0: 2db1 ab39 99b1 0a3a 4f58 42b7 68b5 f9b9
000000f0: 7171 cd38 ac2c 7bb4 eba1 a239 7fa2 253a
0.00017660663 -0.00016928786 -0.0002606628 0.00031806636 -6.435988e-05 0.00011302163 -0.0002722268 0.00024886898
-0.00048760624 -8.56303e-05 5.7677566e-06 0.00012747533 -9.6912314e-05 -0.00035489094 0.0008931927 -0.0003516029
-0.00046074713 -0.00041350178 -8.493503e-05 0.00070196495 0.00035080258 -1.8399947e-05 2.3418936e-06 -0.00018798864
-0.00026550223 -0.00015945753 0.00033120086 -0.00022329237 -9.323022e-05 -0.00021967175 -0.0006711563 0.00013064843
-0.0004291614 -0.00040748765 9.496612e-05 2.8111166e-05 -0.00026914617 -8.9619985e-05 0.00020372131 -0.00019289783
-0.00035325816 0.00022526622 -0.00019937586 -3.433731e-05 6.9049565e-05 -0.00025789122 8.9313304e-05 -0.00034862006
0.00032463763 6.2786974e-05 0.00012971969 -0.00016626295 0.00032766635 -7.2893454e-05 0.00011970742 -0.00025588836
0.00032747668 0.00052907463 -1.1583862e-05 -0.0004762814 9.796292e-05 -2.3392448e-07 0.00031019686 0.00063184643

baseModel.1.running_var f4 [64]
00000000: 9ff5 ff36 8211 7237 7a05 1f37 ee5a 2f37
00000010: 2f9e f936 8aee 3737 8d33 9b37 4459 1337
00000020: aacb 3b37 2f5f 3137 fbb1 b737 8738 0437
00000030: 514f 5137 a01a 5637 92e7 2b37 da22 4f37
00000040: c374 1137 fc42 ee36 9cee c336 5488 9236
00000050: 615a ac37 f8c1 1e37 7182 8637 f584 2a37
00000060: 91d9 5537 1d81 9b36 c937 9e37 1c5d 8936
00000070: 9e7d 5f37 cd57 4637 323f 9337 0e01 4437
00000080: d353 ad36 ea2b 8936 9eb5 bf37 0621 3a37
00000090: ec09 2a37 8f23 4837 ffe8 5537 3388 4137
000000a0: 1828 8a37 4d94 8237 6a97 ba36 f509 1437
000000b0: 30bb 6e37 0e4d 0337 4aef 2437 1b7f 2c37
000000c0: 46ae 3d37 27b3 3e37 d725 f536 84ec 4037
000000d0: 35ee ff36 688b 3837 a9b7 d236 52ef 4237
000000e0: a652 6a37 e3c5 3437 520f bc36 7b12 5837
000000f0: 3d92 4a36 c1f3 6037 173b 0f37 7d08 fb36
7.6281863e-06 1.44284e-05 9.478414e-06 1.0451984e-05 7.4391933e-06 1.0963189e-05 1.8501445e-05 8.782667e-06
1.1193488e-05 1.0572184e-05 2.1898179e-05 7.880974e-06 1.2475838e-05 1.2761593e-05 1.0246311e-05 1.2346276e-05
8.669859e-06 7.1007507e-06 5.8392307e-06 4.3670098e-06 2.0546084e-05 9.462696e-06 1.6034786e-05 1.0163746e-05
1.27464455e-05 4.6343907e-06 1.8861045e-05 4.0937575e-06 1.3321083e-05 1.1822162e-05 1.7553193e-05 1.1682756e-05
5.16556e-06 4.0880304e-06 2.2853546e-05 1.1094153e-05 1.01351e-05 1.1929208e-05 1.2750038e-05 1.1535408e-05
1.6469552e-05 1.5566266e-05 5.560859e-06 8.823806e-06 1.4229488e-05 7.826149e-06 9.830876e-06 1.0281593e-05
1.1305854e-05 1.1366595e-05 7.305974e-06 1.149916e-05 7.627323e-06 1.0999713e-05 6.2798686e-06 1.1619022e-05
1.396673e-05 1.077491e-05 5.60462e-06 1.2878906e-05 3.0185467e-06 1.3408194e-05 8.537222e-06 7.481371e-06

baseModel.4.weight f4 [64, 64, 3]
00000000: 59cf d93c 5911 eb3c 1388 0c3d 7855 f33c
00000010: d725 103d 6f5f 96bb 2bee a6bc 892a b43c
00000020: a6f1 77bd 2f16 a63b 6671 a1bb 9190 383d
00000030: ae26 61bd 109e 48bd 4111 f7bc ff86 f1bc
00000040: 7776 3e3d 5fd5 06b9 1915 fd3c 840e 983c
00000050: 26cb c7bb a714 843c 7559 12bd 7436 f8bc
00000060: 6687 c7bc abb7 433d 261e 793b dd90 0e3d
00000070: ff26 a73c cc18 8d3d 7a35 f33c 4048 ff3c
00000080: 6b47 9b3d e908 513d 94b5 823d b767 3c3c
00000090: 7e10 8ebd 2063 a1bc b41d 59bd 081b 2bbc
000000a0: b042 54bd 9af3 cd3b d351 203c fa38 82bd
000000b0: 3360 c6bc 4f78 673c f0f6 16bc 284b 113d
000000c0: 6d45 ad3c cabe 28bd 8b3b 4a3c 34a0 9cba
000000d0: 3410 89bc 2c22 c43b 0951 823c 4e24 1b3d
000000e0: 54cc 05bc d89c 543d 0574 1e3d 6a9e 5b3c
000000f0: 107a 633b 3921 693d d91e 0bbb b5dc 8bbc
00000100: 9379 a9bd 9b0d d9bc 1e4a 6cb9 2ad5 abbd
00000110: 67d3 77bc 2399 6e3d 7bc2 543c b791 9bb8
00000120: 6af9 ac3c d2a1 4f3d f8ac 033d ddb0 48bd
00000130: feaf 29bc 70a2 c2ba f7d4 1bbd 029a 553c
00000140: c997 5e3d f206 0ebd 3537 eebc 2594 06bb
00000150: 00a4 81bd 1013 19bd 798c 5bbd f8f9 2dbd
00000160: 90a6 63bd 93f0 9f3c 0924 c33d 1019 9cbd
00000170: 8d89 763d 1359 603d 82df 00bb 6e6c 3a3d
00000180: 944f c4bc 7fb4 853c 8750 69bd 5951 583d
00000190: b562 d63c 2f9f 913c fbf8 42bc a062 a33d
000001a0: cef1 043d 4803 273c ee31 143a f75b a03b
000001b0: e7cc 793c 29c5 b2bd 297c 19bd deaf b5bb
000001c0: ecf7 58bd e52f 8cbd 7f95 19bd 59e1 693c
000001d0: 47c8 8a3d 5fb0 53bd 7065 a9bd 2eff 90ba
000001e0: e277 c6bd e86e a63c 07da 603b 89d0 2f3c
000001f0: 67f3 683d d6b4 e1bc c58a 0e3d 5a3b d93a
00000200: 69bb 38bd d4d1 dd3c b10b bf3c f1ad 3bbd
00000210: e7cd ec3c f755 f1bc 3cf7 4a3d 937c 92bd
00000220: a371 6abc a8ec 5bbd 49de d4bc bad6 6c3d
00000230: 4264 cbbc 0c55 213d 5a8d d53d 2697 3a3d
00000240: 186d 043d 20f5 7e3c 1f3d 26bc 9307 203d
00000250: 3fd8 af3c 03ce f4bc da26 59bd c58a debc
00000260: bcea 0dbc 8e81 e4bc 2e05 e03c 32e8 1f3c
00000270: 741a ad3c a781 933b f4a5 903d 0ce0 2d3d
00000280: 5c55 74bc 854e 633d 470e 323d c106 103d
00000290: 6842 2b3d 602f 81bd 2933 09bd 9902 44bd
000002a0: 8ba8 873c 4b72 9cba 3c9a 74bc a1cf b6bb
000002b0: 5367 78b8 c28b 623b 3fc7 263d 163c 3cbd
000002c0: 019e ffbc 1272 28bc e787 3f3d 59b7 353c
000002d0: 903d 0d3d 4bbd c13c c89a 933d b5d3 83bd
000002e0: ade5 4fbd 07ab a53c df6c 05bb cf3e b53c
000002f0: 7a56 1a3d c40c ff3b dd6a 2fbc b06a ff3b
00000300: 6f78 583d 71f0 743d 0e5a ef3c cbb2 4abd
00000310: 3b95 ccbc ad0c 2a3d 6c0f ebbb 943c 33bd
00000320: 3dd1 45bc c5a6 c63c 8d1a 8a3c 5502 8e3d
00000330: f80b a83c 6df1 813d f116 d8bc f8d3 eebb
00000340: b958 893a 1b74 643c 3f30 60bd d486 503d
00000350: 5c97 863d fa91 563d c5cb 033d f776 c7bc
00000360: 6dbb 84bd e7e7 4cbc 1d65 023d ae33 723d
00000370: 2a44 1c3d 47db 33bd aefa 473d e35b 34bd
00000380: 5a08 17bd 7652 5c3c dcee ae3a 165f 003d
00000390: 1e7a 2e3c 7949 453d a4f5 03bc 5d57 d2bc
000003a0: c592 c7bd 438d 74bd 07b1 6e3b bd0d 863d
000003b0: 9a26 043d aeed dfbc 0be0 3c3d e516 b1bc
000003c0: e0a5 7e3b defc 4a3d 9241 613d b7de d73b
000003d0: cb78 2d3d dda4 1ebc 19b5 f53c a4b3 92bd
000003e0: 538f 30bd 6ef1 bcbb 5be9 493c 5e4a 44bc
000003f0: 92e5 e7bb 5493 023d 2a90 9bbd 47c4 cb3b
0.026588129 0.028694795 0.034309458 0.02970384 0.035192337 -0.0045890133 -0.02037724 0.021992939
-0.06053319 0.0050685625 -0.004926848 0.045059744 -0.05496853 -0.048978865 -0.030159594 -0.029483316
0.046499696 -0.00012858723 0.03089385 0.01856161 -0.006097215 0.016123129 -0.035729844 -0.030299403
-0.024356555 0.04778258 0.0038012355 0.03480612 0.020404337 0.06889495 0.029688586 0.031162381
0.07581981 0.051033888 0.063822895 0.011499337 -0.069367394 -0.019700587 -0.053006843 -0.0104434565
-0.05182141 0.006285143 0.009785133 -0.06358524 -0.024215793 0.014127805 -0.009214148 0.035472065
0.021151269 -0.041197576 0.012343298 -0.00119496 -0.016731359 0.005985519 0.015907781 0.03787642
-0.008166391 0.05190739 0.038684864 0.013404468 0.0034710206 0.05691645 -0.0021228103 -0.017073015
-0.082751416 -0.026495745 -0.00022534325 -0.08390267 -0.015126086 0.05825151 0.012985821 -7.4181175e-05
0.021115024 0.050691433 0.032147378 -0.048996795 -0.010356901 -0.0014849436 -0.038044896 0.013037207
0.054343972 -0.034674592 -0.02907906 -0.0020535078 -0.06330109 -0.037371695 -0.053600762 -0.042474717
-0.05557877 0.019523894 0.095283575 -0.07621968 0.060189772 0.054772448 -0.001966447 0.045513563
-0.023963727 0.016321419 -0.056961562 0.052811954 0.026170114 0.0177761 -0.011900182 0.079777956
0.032457165 0.010193653 0.0005653192 0.0048937756 0.015246606 -0.087290116 -0.037471924 -0.0055446466
-0.05297081 -0.06845073 -0.037496086 0.0142749185 0.06776481 -0.051681872 -0.08271301 -0.0011062378
-0.096908346 0.020316556 0.0034309642 0.010730871 0.05687275 -0.02755205 0.03480031 0.0016573474
-0.045100603 0.027077593 0.023321005 -0.04582018 0.028906776 -0.029459937 0.049552187 -0.07152667
-0.01430932 -0.05369249 -0.0259849 0.057821967 -0.02482808 0.039387748 0.10427351 0.045554303
0.032330602 0.015561372 -0.010146408 0.039069723 0.021465419 -0.02988339 -0.053015567 -0.02716578
-0.008661922 -0.027893808 0.02734622 0.0097599495 0.021130778 0.0045015397 0.07062903 0.042449996
-0.014912929 0.055494804 0.043470647 0.03516269 0.041811377 -0.06307864 -0.033496056 -0.04785404
0.01655986 -0.0011935917 -0.01492935 -0.0055789505 -5.9224036e-05 0.0034568165 0.04071736 -0.04595574
-0.031203272 -0.010281103 0.046760466 0.011091077 0.03448254 0.023649832 0.072072566 -0.06436864
-0.050756145 0.020223154 -0.0020359082 0.022124676 0.037680127 0.007783504 -0.010706631 0.0077947006
0.05284923 0.059799615 0.029217746 -0.049486917 -0.024973502 0.041515995 -0.0071734693 -0.043758944
-0.012073812 0.024249444 0.016858364 0.069340385 0.02051352 0.063448764 -0.026378127 -0.0072884522
0.0010478712 0.013943697 -0.05473351 0.050909832 0.06571838 0.052385308 0.03217675 -0.024348719
-0.06481061 -0.012506462 0.03183471 0.059131317 0.038150944 -0.04391029 0.04882305 -0.044032943
-0.0368732 0.013447395 0.0013346332 0.03134068 0.010649232 0.048165772 -0.008054171 -0.025676424
-0.09744791 -0.05970503 0.0036421434 0.06545589 0.032263376 -0.027335014 0.0461121 -0.021617362
0.0038856193 0.04955756 0.054994173 0.006587829 0.042351525 -0.009682861 0.02999358 -0.0716317
-0.043105435 -0.0057660853 0.012323703 -0.011980621 -0.0070769275 0.031878784 -0.075958565 0.0062184664

baseModel.4.bias f4 [64]
00000000: 461e 2236 e4c2 9037 4db3 bfb7 47b7 c437
00000010: 8c47 9f37 d623 17b6 178f 5438 cdc3 eeb6
00000020: 29c5 b437 6ab3 6338 0305 d134 4160 8eb6
00000030: 46ec 4eb8 3da9 d537 f914 8d37 5bfa c0b7
00000040: 8d2a 13b9 9d89 86b7 06da 7137 3041 6a37
00000050: cd24 b8b7 20e2 4fb8 4682 9c36 428e d9b7
00000060: ce1a 97b7 de22 b235 3111 ad37 1c3c 5a37
00000070: c633 f7b6 a8fd 8037 059c 6fb7 c657 06b8
00000080: 725c 3db6 1681 1ab8 d4b0 26b8 2fbe 5637
00000090: 0116 8fb7 a061 3637 3d83 ef36 87ad bfb7
000000a0: c1f0 91b7 f1b7 5937 f345 fc37 5b0a b637
000000b0: 7951 9836 2712 53b6 d01b 4137 0190 8637
000000c0: ca4d 9336 3090 2537 0c48 0d38 64f4 9f37
000000d0: ad2b 4638 8da7 3937 5ff2 86b5 ed96 b134
000000e0: 51fb 04b8 e784 abb7 15bc 2237 7d10 9835
000000f0: f932 a2b6 3ccf 3d36 c1d7 3cb6 1ec5 3237
2.4157503e-06 1.725689e-05 -2.2852468e-05 2.3450366e-05 1.8987594e-05 -2.2521613e-06 5.0678e-05 -7.115747e-06
2.1549482e-05 5.428811e-05 3.893293e-07 -4.243135e-06 -4.9334274e-05 2.5470386e-05 1.6818276e-05 -2.3004764e-05
-0.00014034864 -1.6038126e-05 1.4415482e-05 1.39626645e-05 -2.1951646e-05 -4.956324e-05 4.664328e-06 -2.593466e-05
-1.8013085e-05 1.3272181e-06 2.0631212e-05 1.3007808e-05 -7.367201e-06 1.5376907e-05 -1.4281836e-05 -3.2029835e-05
-2.8217005e-06 -3.6836682e-05 -3.9742168e-05 1.2799675e-05 -1.7057175e-05 1.0870775e-05 7.138033e-06 -2.284978e-05
-1.7397457e-05 1.2977035e-05 3.0073314e-05 2.1700913e-05 4.5394377e-06 -3.1452016e-06 1.1510172e-05 1.6041102e-05
4.3899972e-06 9.868338e-06 3.368412e-05 1.906808e-05 4.7247555e-05 1.106587e-05 -1.0054317e-06 3.3078632e-07
-3.170531e-05 -2.0446676e-05 9.699744e-06 1.1329681e-06 -4.83391e-06 2.828382e-06 -2.8139768e-06 1.0655522e-05

baseModel.5.weight f4 [64]
00000000: 2bfb 463f 7e94 423f d06c 363f 1675 3b3f
00000010: a58a 453f ab79 4b3f 11b0 543f bd82 4a3f
00000020: dbcd 4f3f 027c 3d3f 2608 443f ff20 3e3f
00000030: 71e8 403f 30ea 423f 0d41 533f 2da6 4a3f
00000040: f2be 5c3f d05e 4b3f 862a 5e3f 9841 403f
00000050: ae79 443f 2806 383f c6ec 3a3f 5d9d 4c3f
00000060: 980f 3f3f 5486 543f ef5c 473f 0482 3d3f
00000070: a07f 313f e48e 4f3f 1fe2 4d3f dc62 533f
00000080: 5f78 483f 59ed 3b3f 9c84 563f 5767 543f
00000090: 597d 4b3f 148d 463f 7a48 403f eb90 443f
000000a0: ec39 443f de15 383f 2316 483f 8b11 343f
000000b0: 081d 403f 0d35 463f 2245 453f 888d 483f
000000c0: 0878 3c3f 2ce8 493f 055c 3e3f efcf 593f
000000d0: f581 483f 0963 453f a768 3f3f 5b47 4d3f
000000e0: 37d1 333f 4395 393f 9da6 553f 385f 4c3f
000000f0: 5f1f 493f 2ed2 343f 1ea6 413f b2c6 413f
0.77727 0.7600783 0.71259785 0.73225534 0.7716468 0.79482526 0.83081156 0.7910574
0.81173486 0.74017346 0.76574934 0.742691 0.7535468 0.7613859 0.82521135 0.79159814
0.8622886 0.7944155 0.86783636 0.7510009 0.7674817 0.71884394 0.7301754 0.7992762
0.7463317 0.8301747 0.7787618 0.74026513 0.69335365 0.8107741 0.8042316 0.8257272
0.7830867 0.7340904 0.83796096 0.82970184 0.7948814 0.7755902 0.7511059 0.7678363
0.7665088 0.71908367 0.7815878 0.7033927 0.750443 0.774247 0.77058613 0.7834096
0.73620653 0.7886989 0.7435916 0.85082906 0.783233 0.7710424 0.7476906 0.80187005
0.7024111 0.7249338 0.83457357 0.7983279 0.78563493 0.7063321 0.756441 0.7569381

baseModel.5.bias f4 [64]
00000000: 534b d53c 987f 80bc 0718 0f3b e9f2 1bbc
00000010: 9534 603d 0d09 963b f8ca b6bd 23ec b03c
00000020: 98d0 12bd 9b08 5b3d ff2e ebbb 1d3c 8e3c
00000030: d9ee 1e3d ea42 96bd 768a f1bd da1a ec3c
00000040: e7c7 e5bc af60 543d 3eaa 88bd acef 74bd
00000050: dcd3 14be 31ee fa3c 05af 0fbb f927 99ba
00000060: c473 733c 6ec6 873d 006c d5bc 573c d1bd
00000070: dcbf fe3a 30cd 34bd 4f61 97bc ac47 91bd
00000080: f7e3 7c3b 01b2 0b3d 6208 c0bc 05e4 293e
00000090: 535f a9bb 14ef 8bba 4f73 f93b 895c e5bd
000000a0: a12d cd3c 26b7 0dbd ecd1 19be 4552 4cbc
000000b0: d860 013d 8157 5f3d 8045 cabc a6d4 f23c
000000c0: 686d 833d 62ec 2cbd b503 90bd b994 05be
000000d0: 4939 7dbd f655 33bc f25c 42bd b79a f83b
000000e0: 276f 8ebd f54e fdbc 1166 bebd c051 d2bb
000000f0: 6305 cb3b b6c2 dfbc 709b 5abd af9e cd3d
0.026036894 -0.015685841 0.002183439 -0.0095183635 0.054737646 0.0045787157 -0.08925432 0.021596974
-0.03584346 0.053475004 -0.007177233 0.017362649 0.038802 -0.073369816 -0.117939875 0.028821398
-0.028049422 0.051850017 -0.06673096 -0.05979888 -0.14533943 0.030631157 -0.0021924388 -0.0011684886
0.014859144 0.06629644 -0.026052475 -0.10216587 0.0019435841 -0.044140995 -0.018479018 -0.070937485
0.0038588026 0.034105305 -0.023441497 0.16590889 -0.0051688342 -0.0010676109 0.007612623 -0.1119929
0.025046172 -0.034598492 -0.15021485 -0.012470786 0.031586498 0.05452681 -0.024691343 0.029642414
0.06417352 -0.04221762 -0.07031957 -0.13045014 -0.06182221 -0.010945788 -0.04745192 0.007586803
-0.069547944 -0.030921439 -0.09296811 -0.0064184368 0.0061957105 -0.027314525 -0.053370893 0.10040032

baseModel.5.running_mean f4 [64]
00000000: f696 c83d 43b1 053c f2d6 a9be d359 5a3e
00000010: 4690 0c3e 3e7e 06bd e1f6 2abd 3135 173d
00000020: 718c f7bd 43b5 b1be e047 173e ee2d 79bc
00000030: 4ded 003e c49d 6f3d 0022 05be 6df7 6d3c
00000040: 8250 25be e078 d9bd 984e 58bd 7041 93bc
00000050: ef60 36bd 7894 d1bb 0eac 00be 47c8 1f3c
00000060: 684e 8dbd 9946 743d 1fbc 08be a2e3 a3bd
00000070: 69bf ecbd d232 183c 4eee c6bd 7768 b6bc
00000080: 08ac 74bd 6168 5bbb 61e5 a43a c0b5 c23d
00000090: dcc8 c83b 774c 1cbd 643f 04be 9499 93bd
000000a0: 5c56 273d 1015 37bc 17c3 4bbd 9fc7 c2bd
000000b0: 9c0c 053f 39b8 83be 4c56 dbbd 4e43 a23e
000000c0: 4d23 d83d 916a 233d c086 2abd 77bf 95bd
000000d0: cefb 19be 6a6d d63d b844 81bc 7136 fb3c
000000e0: 7868 2cbd b000 38be f6c8 4dbd 30c4 1ebd
000000f0: 744f e5bd 117c 0fbe e9d0 b1bd 04d2 f83d
0.097944185 0.008159938 -0.33171803 0.21323328 0.13726911 -0.032835238 -0.04173935 0.03691596
-0.12087334 -0.34708604 0.14773512 -0.015208704 0.12590523 0.058500066 -0.13001251 0.014524323
-0.16143993 -0.10618758 -0.052809328 -0.017975539 -0.044526037 -0.0063958727 -0.12565634 0.00975234
-0.068997204 0.05963764 -0.13353013 -0.08002402 -0.11559946 0.00928946 -0.09713422 -0.02226661
-0.059734374 -0.0033478963 0.0012580567 0.09507322 0.00612746 -0.03815886 -0.12914807 -0.07207027
0.040853843 -0.011174455 -0.0497466 -0.09510731 0.51972365 -0.25726488 -0.10709819 0.31691974
0.10553608 0.03989655 -0.041632414 -0.0731191 -0.15037462 0.10470088 -0.015779838 0.030665608
-0.042091817 -0.17969012 -0.05024048 -0.038761318 -0.11196795 -0.14012171 -0.086824246 0.12149432

baseModel.5.running_var f4 [64]
00000000: 16be 423d 84bc 853d a3a8 6d3d 5878 373d
00000010: 96f7 603d cfe6 ee3c b401 073d bff8 bc3d
00000020: 5326 b03d 21ae fb3c 95e7 753d 0dfc 893d
00000030: b660 d13d 560c 083d 4703 e93d 0e18 b73d
00000040: b473 d63c de7c b13d e051 e33d 8996 6b3d
00000050: f9fe 213d c0c2 263d 80c1 5b3d c2f5 de3c
00000060: cb0b 463d ac15 0d3d 7b89 3d3c 2c3b 9b3d
00000070: d01a 293d ee40 e13d fefb af3d 66f6 e63d
00000080: ac90 4e3d f5ae 813d 1ee7 a13d a00c 4b3d
00000090: cf61 383d 0e73 e73c 1760 b03d fbdb bd3c
000000a0: f0e6 bd3d fdaf 823d 7eea c93c 292d 513d
000000b0: d103 863d 6abe b73d 39a5 0c3e d887 323d
000000c0: 91f2 523d 32ec 573d e245 323c ee0b b83d
000000d0: 4901 df3c 39cb 8e3d 1d42 823d de10 2f3d
000000e0: 6712 2a3d 9228 db3c 78fc 313e 4c50 e43c
000000f0: 78b1 9f3d 896f 9c3d e068 033d f6a9 243d
0.04754456 0.06530097 0.058022153 0.044792503 0.054923616 0.029162792 0.03296061 0.09227132
0.0860106 0.03072268 0.060035307 0.06737528 0.10223524 0.03321489 0.11377578 0.08940135
0.026178218 0.08666395 0.11099601 0.05751661 0.0395498 0.04071307 0.053651333 0.027216796
0.04835109 0.034444496 0.011568422 0.075796455 0.041285336 0.109987125 0.085929856 0.112774655
0.05043094 0.063321985 0.0790541 0.049572587 0.045015153 0.028253105 0.08612078 0.023176184
0.092725635 0.06381223 0.024647947 0.05106846 0.06543697 0.089718655 0.13734902 0.043586582
0.05150086 0.052715488 0.010880919 0.089866504 0.027222292 0.069723554 0.06360266 0.042740695
0.041521456 0.026752744 0.17381465 0.02787032 0.07797521 0.07638461 0.03208244 0.04020115

baseModel.8.weight f4 [64, 64, 3]
00000000: c212 653c 710e 44bb fd8f 38bc c629 843d
00000010: e2e8 6abc 724b 39bd 505e 84bc 72ca b5bc
00000020: 6f5a 80bc c58e d1bb 1ded eb3c 95d5 a8bc
00000030: 806a ad3d 3259 49bd b3ed 67bd 5dc1 ff3c
00000040: 434f b0bc b566 25bc f7b3 033d d8f0 edbc
00000050: 4089 09bd 0e8f 62bb 1e4f 88bc b2a8 98bc
00000060: 4e5c b1bc 4474 2fbc 2e39 67bc 3789 0fbd
00000070: dc3b 543d 76cc cf3d ce08 99bc fedb 163d
00000080: 1712 893c 1520 f53c 4597 a53c a3fb ccbc
00000090: 60f9 b73c 2f7e cbbc 6825 7cbd 3a05 043c
000000a0: 2cb4 1f3d f6b3 b5bc 08e8 233c bd0d 92bb
000000b0: 8ea4 9b3c d40b a93d 5e2d bbbc 7a11 15bd
000000c0: a733 293d 1c63 ed3d 9313 033e 1a0c a03d
000000d0: 1e77 f63c 78e3 5abb 72a2 783d 1296 8b3c
000000e0: 3ea4 9e3d 2b3e 633c 0685 b83b 5f6f c6bb
000000f0: 611d 8f3c 1074 28bc 1861 ab3d 3ec0 763d
00000100: e5d5 acbc a292 163d 8b08 623b 0e91 4fbd
00000110: 7e60 11bd b60a 84bd f512 e63c cc3a 2c3d
00000120: ab44 643c 2a55 99bc 0e4c e53c 0030 aebd
00000130: 71e8 823c 075e 453d 482c 083d 975f 983c
00000140: 8f9f 023d 1684 803d 80e2 33bd dd82 483d
00000150: cb39 383d e82d 0b3c 8a46 c93c bb00 543b
00000160: f522 c1bc acd8 e73a 3706 af3c 71ed 123d
00000170: 6c53 03bd f8ba 163d f241 6fbc 1ee3 233d
00000180: 2e3e ccbc c9ba 943b 3166 6e3d 4b49 36bc
00000190: 279a 74bd 69bf cb3c 5d94 c6bc da08 40bd
000001a0: c1f0 a6bc 7c88 aa3d c5ce 92bc f516 2e3c
000001b0: a3f9 843d de49 d3bc 328a 233c 8692 c83b
000001c0: 382c 9d3c 9f55 01bd 3168 64bc 8781 823c
000001d0: 4508 d03c ddc8 3abc 2748 823c 1b7f b43c
000001e0: 6560 8f3c deeb 9b3b 06d8 a2bd 7b99 403d
000001f0: 1996 f6bc ccc1 bd3c 8061 593d f6bf 1d3d
00000200: 0169 0d3b c694 3e3d 8f4a 20bc 451d 953d
00000210: fd5b dc3b 5517 b3bc 774f 07bd d32a 943d
00000220: 43ff 9b3c e062 8a3d e571 6e3d bb73 53ba
00000230: aa71 0dbd a6c1 1e3c 35b1 86bb 82b6 9cbc
00000240: 7ffe 513d c689 043d cfbc f7bb 76b0 44bd
00000250: 42f8 7cbd 3821 b6bd e527 ea3b dc60 d2bc
00000260: 7fac ec3c 580c 1c3d 51f2 9f3c 2102 5d3d
00000270: 1181 f63b 16e7 79bc a3fb a23b 949f f93c
00000280: c92c 2ebd f61a 773d fcb4 683d 679e 7cbc
00000290: d6d3 09bd ed24 263c 69c4 41bd 5217 bdbd
000002a0: 0451 8a3c 8408 1ebd 84f3 8ebc 6517 8d3c
000002b0: 2989 aa3d 84bb 1a3d 917f 0a3d b0aa cf3d
000002c0: 3d90 4e3d 02ff 133c 33a7 233b 89c8 1abd
000002d0: ee18 503c b7bb bf3c cb7f 943d 8161 3b3d
000002e0: 37ef 8a3d 8ebc 083d be66 b03b 433d 113d
000002f0: 2ca5 03bd 897a 73bc 61c7 b0bd e0bd 54bd
00000300: 5bff 33bc 576a c53b c71d bebc 4ba0 183d
00000310: baca a93a dd64 a6bc c5dd 03bd c634 803b
00000320: 9cb8 15bd cb21 86bc 05df 7cba 4ada cb3c
00000330: 3256 9ebc 77d2 2c3d f22b 64bd 6fdf ed3c
00000340: 6b63 8abb 2cb2 bf3a 3cb8 04bd e851 063d
00000350: 15da f33c 43a6 34bd 6481 6fbb 96cb 7f3d
00000360: 70c1 2bbc bae3 1f3b a6e2 0abd 932a ccbc
00000370: 4049 5f3b 8454 a53c 8abb e53c a60d dd3c
00000380: a893 34bc c0f9 dd3c 5fac ec3a aa14 d73a
00000390: 05a2 eebc 6c73 eb3c 2440 abbc 6aac 24bd
000003a0: 8d1a d03c c044 e2bc 50a0 183b 9aaa 6d3d
000003b0: 8c3c 3cbc e34c ee3b 6cf2 3cbd 792e c7bb
000003c0: 7ca3 9f3c c415 183c b85b db3b 23e5 5d3d
000003d0: 4793 443d cba5 d3bd a0ee 40bd 8644 d9bd
000003e0: 7217 81bd 3bad 22bd 9239 adba 6674 9b39
000003f0: f601 3e3b cc14 28bd 3afe c8bc e622 ddbc
0.013981523 -0.0029915834 -0.011264798 0.0645328 -0.01433775 -0.045237966 -0.016158253 -0.02219126
-0.015668122 -0.0063951933 0.028799588 -0.020609656 0.08467579 -0.04915733 -0.056623172 0.031220132
-0.02152217 -0.010095288 0.03215405 -0.029045507 -0.033578157 -0.003457013 -0.016639289 -0.018635128
-0.02165046 -0.010708872 -0.014112754 -0.035042968 0.0518149 0.1014642 -0.018680956 0.036830895
0.016732259 0.029922524 0.020213732 -0.025022333 0.022457778 -0.024840442 -0.06155911 0.008057887
0.038990185 -0.022180539 0.010004051 -0.004457204 0.018999364 0.08254209 -0.022848781 -0.03639362
0.041309025 0.11591169 0.12800436 0.07814808 0.030086096 -0.0033399742 0.060701795 0.017039333
0.077461705 0.0138698025 0.005631092 -0.006055757 0.017470064 -0.010281578 0.083681285 0.06024193
-0.021098087 0.036760934 0.0034489955 -0.050675444 -0.035492413 -0.064473554 0.028085211 0.04204826
0.013932387 -0.018717367 0.027990367 -0.08505249 0.015979977 0.048185375 0.033245355 0.018600268
0.03189045 0.062751934 -0.04391718 0.048952926 0.04497699 0.008494832 0.024569768 0.0032349068
-0.02357624 0.0017688475 0.021365268 0.035870973 -0.03206198 0.0367994 -0.014603125 0.040011518
-0.024931993 0.004538868 0.058202926 -0.011125873 -0.059717324 0.024871545 -0.024240667 -0.04688344
-0.020378472 0.083268136 -0.017920861 0.010625591 0.06492927 -0.025792059 0.009981679 0.0061209826
0.019186124 -0.031575795 -0.013940857 0.015930904 0.025394568 -0.011400429 0.015903546 0.022033265
0.01750202 0.004758342 -0.079513595 0.04702137 -0.030100869 0.023163699 0.0530715 0.038513146
0.002157748 0.0465286 -0.009783401 0.07280973 0.006724833 -0.021861712 -0.033034768 0.072347306
0.019042617 0.0675714 0.058214087 -0.00080662564 -0.034532227 0.009689724 -0.00411048 -0.019129995
0.051268097 0.032357953 -0.0075603495 -0.04801985 -0.061760195 -0.08893055 0.007145869 -0.025680952
0.028890846 0.03809771 0.019524725 0.05395711 0.00752271 -0.015252849 0.004973845 0.0304716
-0.04252318 0.060328446 0.056813225 -0.015418625 -0.033649288 0.01014064 -0.047306452 -0.092329636
0.016884334 -0.03858234 -0.017450102 0.01722307 0.083269425 0.037776485 0.033813063 0.10139978
0.050430525 0.009032967 0.0024971485 -0.0377889 0.012701256 0.02340494 0.07250937 0.045747284
0.06783908 0.033382945 0.0053833416 0.035458814 -0.032139942 -0.014860758 -0.086317785 -0.05193889
-0.010986174 0.0060246396 -0.023207558 0.037262242 0.0012954094 -0.020311767 -0.032193918 0.003912541
-0.03655301 -0.016373536 -0.00096462696 0.024884362 -0.01932821 0.042192902 -0.055705972 0.029037206
-0.0042232773 0.0014625243 -0.032402262 0.032792956 0.029767076 -0.044103872 -0.0036545629 0.062450014
-0.010483131 0.002439721 -0.033907555 -0.024922645 0.003407076 0.020181902 0.028043527 0.026984047
-0.011021532 0.02709663 0.0018056742 0.0016409357 -0.029129991 0.02874156 -0.020904608 -0.04020349
0.025403285 -0.027620673 0.0023288913 0.058024026 -0.011489045 0.007272349 -0.04612963 -0.006078538
0.019487135 0.009282533 0.0066942833 0.0541736 0.047992017 -0.10334357 -0.04710257 -0.10608773
-0.063033 -0.039715987 -0.001321601 0.00029650627 0.0028992868 -0.04103546 -0.024535287 -0.02699418

baseModel.8.bias f4 [64]
00000000: 9058 9b35 8eb2 5f37 9abc 64b5 d5df 84b7
00000010: d909 b7b6 dc1a ac36 5f89 4e37 5174 3237
00000020: b663 6536 0642 4036 a41b c8b6 3639 82b6
00000030: 37ed c637 9af8 8e35 ab35 ecb7 218e 6db5
00000040: fa37 9637 5139 5437 eaad cab5 852d cc36
00000050: a9ab 2fb7 2203 6db6 f2bc 4f38 2f21 3a36
00000060: 538c 2434 b023 ca37 0aee 1f37 cda1 0037
00000070: c7fa 20b5 68e8 8eb7 760e a1b7 c54c 8eb6
00000080: 5a46 c637 136c e836 a826 7337 5d93 1437
00000090: f69b 8837 b5cc 4fb6 f698 3137 ca53 dbb6
000000a0: c234 b737 210a b536 2033 f034 7b56 62b7
000000b0: 8d3a 79b5 107a 2ab7 ba7a e536 ccbc 99b7
000000c0: 0544 00b7 6b94 8437 406d 86b7 5e8c 2f37
000000d0: c68f e8b6 157f e536 5f89 a136 097d b737
000000e0: 818b 4e36 244a 25b6 369f cc35 0f9a 43b6
000000f0: 0f56 9d37 5a05 3336 6cf5 fa36 1e74 b337
1.1574175e-06 1.3333409e-05 -8.521107e-07 -1.5839856e-05 -5.4549714e-06 5.1291263e-06 1.2310541e-05 1.0636709e-05
3.4181699e-06 2.864866e-06 -5.9636823e-06 -3.880962e-06 2.3713901e-05 1.0652177e-06 -2.8158383e-05 -8.8496205e-07
1.790746e-05 1.264953e-05 -1.5100788e-06 6.084973e-06 -1.0470781e-05 -3.5317576e-06 4.9528615e-05 2.7735475e-06
1.532474e-07 2.4096895e-05 9.532561e-06 7.667067e-06 -5.9969574e-07 -1.7035942e-05 -1.919943e-05 -4.240867e-06
2.36362e-05 6.9267203e-06 1.4492929e-05 8.855798e-06 1.6285088e-05 -3.0964559e-06 1.0585636e-05 -6.536463e-06
2.1839867e-05 5.3953995e-06 4.4740682e-07 -1.3490785e-05 -9.284493e-07 -1.01612095e-05 6.839019e-06 -1.8326937e-05
-7.645232e-06 1.5804739e-05 -1.6024918e-05 1.0463495e-05 -6.930876e-06 6.839526e-06 4.814166e-06 2.1873524e-05
3.0777594e-06 -2.4630071e-06 1.5245521e-06 -2.9146938e-06 1.8755933e-05 2.6676194e-06 7.4791515e-06 2.1392534e-05

baseModel.9.weight f4 [64]
00000000: 3945 463f 59ff 473f 94a7 4e3f 7bbd 423f
00000010: d4af 2c3f a5cc 573f 892f 373f a70a 4e3f
00000020: 52f3 253f 1164 393f 2932 453f 86da 553f
00000030: 558d 393f 5eea 483f 187f 323f e33f 413f
00000040: 3f58 3c3f 72cf 3a3f 6b9c 353f 3e69 233f
00000050: 5a1a 403f 4e96 5d3f a7ac 423f 9c46 423f
00000060: d6b2 4d3f 8fdf 513f 7022 423f 32ff 493f
00000070: 8a5f 293f e63d 3f3f e35c 433f f0fe 463f
00000080: d0d4 573f cc34 503f 85a8 553f 4767 2d3f
00000090: 1d24 253f b8f0 3c3f ecd1 2d3f 0442 5a3f
000000a0: b7de 443f 269e 303f f33d 493f ed9b 3e3f
000000b0: 3257 373f 2b7a 463f e2fd 363f ac0e 293f
000000c0: 4719 4f3f b223 253f c2cb 5b3f e487 473f
000000d0: 0a73 383f 3e9a 2c3f 0aee 3f3f 49e5 433f
000000e0: 88bd 3e3f cb13 3c3f 5f38 423f bd56 523f
000000f0: 100e 4f3f 5ef4 2d3f 8f5f 503f e6c4 323f
0.77449375 0.78124005 0.80724454 0.76070374 0.6745579 0.8429664 0.7155691 0.80485004
0.648244 0.72418314 0.77029663 0.83536565 0.7248128 0.78482616 0.6972518 0.7548811
0.7357215 0.72972786 0.709418 0.6383246 0.7504021 0.8655747 0.76044697 0.7588899
0.80351007 0.8198175 0.758338 0.7890502 0.66161406 0.74703825 0.7631361 0.77732754
0.843091 0.8133056 0.83460265 0.67735714 0.6450823 0.7380481 0.6789844 0.8525698
0.76902336 0.68991315 0.7861015 0.74456674 0.71617424 0.77530164 0.71481144 0.6603801
0.80897945 0.6450759 0.85857785 0.7794173 0.72050536 0.67422855 0.74972594 0.76521736
0.7450795 0.734677 0.75867265 0.821636 0.8088083 0.67951 0.8139581 0.69831693

baseModel.9.bias f4 [64]
00000000: bcc2 e83b 4184 21bd 0f74 0abc fb52 a13b
00000010: 13fd 603d 2291 0abd 2ea8 15bd ec8a 86bc
00000020: 3731 8d3b 29fc f63c 457c bbbb da1b 5abd
00000030: 0cd9 4ebd eb14 27bc cb8e 42bd 8736 e5bc
00000040: 1b30 333c f2f1 493d 1538 923c 659b 81ba
00000050: 2708 26bd 5860 7cbd 41db 0e3d d376 9d3b
00000060: b2f4 36bd 6134 ac39 58e6 e83b 2630 01bd
00000070: 7d90 be3c 5404 d43b 32f5 9d3c dd97 e5bc
00000080: 776b 583d fd7b 08bd 1f63 703c c27b e43c
00000090: d742 8ebc af08 ca3c b1ba 283d 83ff bfbb
000000a0: a72a 2ebd eca8 873b 944e fabb 6b5f 95bc
000000b0: d504 45bc 4ee3 843c eb53 003d f14c 1fbc
000000c0: ca81 92bb 17b0 bd3d 142d d4bc 5924 72b9
000000d0: a273 9fbb 6ebd d3bc c72c a83b 3d8c 82bc
000000e0: 01cd 28bd 90df 253d 36c3 89bd b8d4 8ebc
000000f0: 9f79 9cbc d061 583c 4867 c53c 45f9 8fbc
0.0071032923 -0.039432768 -0.008450522 0.004923222 0.05492885 -0.033829816 -0.03653734 -0.016423665
0.0043088454 0.030149536 -0.005721601 -0.053249218 -0.05049996 -0.010197858 -0.04749946 -0.027980102
0.010936762 0.049303003 0.017849008 -0.000988823 -0.04053512 -0.061615318 0.034877066 0.0048054247
-0.044666953 0.00032845422 0.0071075372 -0.03154006 0.023262257 0.0064702425 0.019281957 -0.028026516
0.05283686 -0.03332137 0.01467207 0.027891044 -0.017365856 0.024662344 0.041193668 -0.005859317
-0.042521145 0.00414001 -0.007638762 -0.018233975 -0.012025078 0.016221669 0.03133003 -0.009722934
-0.0044710385 0.09262102 -0.025900401 -0.00023092459 -0.0048660794 -0.025847163 0.005132291 -0.015936011
-0.041211132 0.04049641 -0.06726687 -0.017435417 -0.019100962 0.013206914 0.0240971 -0.017574916

baseModel.9.running_mean f4 [64]
00000000: ec4f 3a3f c134 0abf 26ff b23e daab 8ebe
00000010: f5eb 73be 7b67 f6be 1eaa 4a3e debb f1bd
00000020: f494 203e 5271 9ebe 6af3 1e3b e0a5 8fbd
00000030: d530 313e 68c3 303d 036b c1be 1d5c 15be
00000040: b908 92be 5d89 50bd 7a68 4f3d 0b61 013e
00000050: 4382 39bd 5cc9 e13e 03be 99be 94f7 893d
00000060: 95b9 7cbd aeff 64be f0cc 6d3d abad edbe
00000070: 5180 90bc 58c7 d03e 0d3d 90be a528 773d
00000080: 69a5 7f3e fef9 c73e 2b5f cd3c bb69 9a3e
00000090: 125e bfbe 1b36 46be daa2 883d e9d8 82be
000000a0: 4134 abbe 5263 82be 0001 993e a86f 3a3f
000000b0: 6e2d ff3e 5128 4abe f56d b33e f680 78bd
000000c0: 83a4 ebbe 9f0b ffbe c0c4 81be 8a88 7a3e
000000d0: 132f b2be 7f38 4c3f fcd3 ab3e ffaa aebd
000000e0: 99c9 343e 0577 883e a2ea 8cbe 08f5 0f3d
000000f0: 564a 3cbd 2cf7 9a3d 0ad2 14bf f893 c33e
0.727782 -0.53986746 0.34960288 -0.27865487 -0.23820479 -0.48125824 0.19791457 -0.11803411
0.15681821 -0.30945832 0.0024253973 -0.0701406 0.17303784 0.043155104 -0.37776956 -0.1458592
-0.2852228 -0.05091225 0.050636746 0.12634675 -0.045290243 0.44098938 -0.3002778 0.06736675
-0.061700422 -0.22363159 0.05805677 -0.4642156 -0.017639311 0.40777087 -0.28171578 0.060341496
0.24965443 0.39057916 0.025069794 0.3015879 -0.37376457 -0.19356577 0.066716865 -0.25556114
-0.33438304 -0.254664 0.29883575 0.72826624 0.49839348 -0.19741942 0.35044828 -0.06066986
-0.4602395 -0.49813554 -0.2534542 0.24466148 -0.3480154 0.79773706 0.3356017 -0.08528709
0.17655028 0.26653305 -0.2752276 0.03514579 -0.04596933 0.075666755 -0.58132994 0.3819883

baseModel.9.running_var f4 [64]
00000000: 66ff c23d 55af 333e a0df bd3d d753 163e
00000010: b735 683d d110 1a3e 6dde a93d 76fe 2f3e
00000020: a3d7 873d 5ec7 bd3d 0a1a bd3d 2631 383e
00000030: 1783 5a3d d1b2 8c3d 0040 043e e8be 093e
00000040: 4004 ae3d d19a b73d bad8 973d 17e3 a63d
00000050: 7606 f43d 966a f33d 457f ed3d 6177 e43d
00000060: 6d09 043e a708 e13d 75a7 a63d 099e ee3d
00000070: 743d 373d 5acf ce3d e416 223e 3397 393e
00000080: 3d3a f93d 9245 8d3d 86d7 3a3e 2d4f 933d
00000090: 1279 773d 4cb8 1c3e 89af 613d 8232 563e
000000a0: 440b ed3d 5c96 9e3d 43c0 cf3d 16a0 093e
000000b0: 8fbe 043e 8b87 833d ad95 953d 8699 603d
000000c0: d280 c13d 0859 973d 6008 c33d 30d2 ba3d
000000d0: 349d 953d 618f 933d 0a0a c63d 8ad7 1d3e
000000e0: 04cf b03d 11a0 c33d 1955 df3d 1af0 d43d
000000f0: 1cea 113e 3a18 813d 1dac f73d 870a 963d
0.0952137 0.17547353 0.09271169 0.1468042 0.05669185 0.15045477 0.082943775 0.17186913
0.06632926 0.09266542 0.09233482 0.17987499 0.053347673 0.06870044 0.12915039 0.13451731
0.084969044 0.08965076 0.07414384 0.08148783 0.11915295 0.11885564 0.1159654 0.11155582
0.1289422 0.109879784 0.08137409 0.116512366 0.04473634 0.10098143 0.15829045 0.18124084
0.12169311 0.06898035 0.18246278 0.07192836 0.060418196 0.15304679 0.055099044 0.20917705
0.11574414 0.077435225 0.10144093 0.13439974 0.12963317 0.06422337 0.07303939 0.05483391
0.09448399 0.07390028 0.09523082 0.09122121 0.07305375 0.07205082 0.096698835 0.15414253
0.08633235 0.095520146 0.10904903 0.10397358 0.14249462 0.06303449 0.12093375 0.07326227

baseModel.11.weight f4 [32, 64, 3]
00000000: f6a9 ab3d be09 4a3d e89b 843d 279d 00bd
00000010: b5cc 8fbd 6911 84bd 1b7a 123d ef9a af3c
00000020: cacb 3e3c ff97 b43b 93f3 593c a988 c73c
00000030: 24fb 24bd 05c9 05bd e915 103c 1d55 183d
00000040: 3746 80bd 4507 22bc fbe8 2a3d 38bd c13c
00000050: 2cb2 953b 23d2 773d 9dd3 75bc fba1 953a
00000060: 7a26 483d 7e61 85bb 790f 58bd e779 263d
00000070: 908a 503d 6943 e53c 0013 cbbc 7274 51bd
00000080: 555e 7f3b e2be fd3b 687f 253d 3494 b3bc
00000090: 97f4 5bbd c72f a83c 484f d53b 4534 f23c
000000a0: cb22 4abd 5ccc 89bb af93 a4bd ea42 4439
000000b0: fc1f 0a3c af01 123b b651 aebc 9a53 d1b7
000000c0: 4c26 a2bb 460b 07bd 3ec6 df3d 9d52 26ba
000000d0: 2ce1 a5bd 80dc b8bc 1c7e c1bc c7e3 433d
000000e0: 71ce a9bb 5f56 95bc 56c7 ac3c 99b3 043d
000000f0: bb1c eb3c 0cbf d939 08c5 77bc e6ec ab3c
00000100: 3232 c7bc 7ba2 5abd c755 ddbc f44e 4bbc
00000110: ec91 203c 8121 363c 3fe7 00bc 878a 35bd
00000120: 043b c7bc edc5 21bd 8c0b 22bd aa2e 623c
00000130: ae48 80bd a834 39bb 8c2e 563d 4f4f 5b3d
00000140: 2bd9 2ebd 3399 003d 0937 30bc ee7a 963d
00000150: 5ce5 56bc 652b 44bd 4858 aa3d 45fe 9d3d
00000160: 32af 203d ba71 563d 8892 213d 0eef bc3c
00000170: bc31 8d3c c590 03bd 1b29 21bd 5957 a8bd
00000180: aa6c 803d 9087 0dbd b6ff bf3c f156 99bc
00000190: a94f 143c ec66 a8bc cf5a c0bc 4167 89bc
000001a0: a7d5 073d cc68 7e3b 873c bfbc 64b6 3f3d
000001b0: 8d4b a03c 30ae 9b3c 8a5a 873d c3b3 aabc
000001c0: e230 c9bb 0940 04bc 7d6d c03c 59cc 303d
000001d0: dba9 90bd 9bb2 543c f8ee d93c 540a 4cbd
000001e0: fcbb 3fbd 4e56 273d 93a0 66bc 9d43 84bc
000001f0: b934 6dbc e0c3 24bd 5291 333d 4cfa 3f3c
00000200: 31a3 55bd 7e05 2a3d 7ea5 79bc 2e57 bfba
00000210: ff91 2f3d 0d53 da3b 6ac2 2ebd 1d85 2b3d
00000220: ba0e c3bc efb4 95bc 2817 9d3c d72b 5cbc
00000230: 0bdd 3a3c f4ab 46bc 92dc fe3a c542 3c3d
00000240: 233f a7bb c009 3fbd 7bf9 74bd 201f 9f3d
00000250: 72e4 21bd 7292 2f3d bb23 8e3d 5d1e 9b3c
00000260: a123 863c 4ef4 2d3c 3f50 d9bb d6f2 c03b
00000270: 1574 ab3b 0162 783d 825c ef3d 1a44 d73c
00000280: f0d2 44bd e1c2 46bd 356f 1f3d 38fa babc
00000290: d071 80bc 891d 4bbc 95d3 5abd b7ae b6bd
000002a0: bc70 22bd 5510 fc3b 5832 d03c da44 20bd
000002b0: c345 943d 21f4 68bc 465f b0bc c73a 6d3c
000002c0: 7ef1 883c 1079 c23c 8953 2bbd d4e1 69bd
000002d0: 493b fe3b 75c5 52bd ae6a 6bbd e578 cd3c
000002e0: ab2e 3fbc 456f 0a3d eb5e 253d f888 9d3d
000002f0: 7a79 083d b562 60bd 0c0b 173d b40f d33c
00000300: 621f 52bd 691d 2ebc 52fe 1ebe 8905 08bc
00000310: 529e 863c 779a 963c c766 e0bd 5cff 84bc
00000320: 220b b5bc 3c4f 943c 9368 4a3c 19ee 813d
00000330: b19d c6bd e5bd 4abd 47cd 7abd da42 31bd
00000340: ce08 36bc 92d1 9abc f7fa 2e3c ed72 b6bc
00000350: 5aee cdbb 5966 31bb c9e8 aebb eb48 c43a
00000360: c53f 643c 8c39 543d 2458 c43c 007a 3dbd
00000370: e382 3fbc e471 953b 9cc9 1dbc b617 58bc
00000380: 1d69 623d 25c1 613c 6757 1dbc 03a8 f03c
00000390: 5551 813d 0fc8 623d 9c65 4b3d 3405 d53d
000003a0: ac27 533d 4976 00ba e7e5 a83c b095 db3b
000003b0: 8505 53bd c3b9 febc f4fc 493c bd1d ff3c
000003c0: e724 4ebb 4419 b1bc 73b2 f2bb c633 8c3c
000003d0: 13d2 f4bc e134 223d 7b83 82bd 21b8 9dbc
000003e0: cd0a 81bd 4e23 38bd a4af 4e3d 6346 88bc
000003f0: 90ac 64bc 9276 04bd 1aaf 66bd 3d86 3c3d
0.08382027 0.049325697 0.06475049 -0.031399872 -0.07021467 -0.06448633 0.03576098 0.021436183
0.011645267 0.0055112834 0.0133027015 0.024357157 -0.04027857 -0.03266241 0.008794286 0.037190545
-0.062633924 -0.0098894285 0.041726094 0.023649797 0.004568359 0.060503136 -0.015004066 0.0011416072
0.04886482 -0.00407046 -0.05274913 0.0406436 0.050913393 0.027986245 -0.024789333 -0.05113644
0.0038966138 0.0077437023 0.040404707 -0.021921255 -0.053700056 0.020530595 0.006509695 0.02956594
-0.049349587 -0.0042052697 -0.08035981 0.00018716944 0.008430477 0.0022278836 -0.021279197 -2.4953672e-05
-0.004948413 -0.032969736 0.109264836 -0.0006344708 -0.08099589 -0.02256608 -0.023619704 0.047824647
-0.0051820804 -0.018229662 0.021091145 0.03239784 0.028700223 0.00041531806 -0.0151226595 0.020986985
-0.024315927 -0.05337761 -0.02701844 -0.012408961 0.0098004155 0.011116386 -0.007867633 -0.044321563
-0.024320133 -0.039495397 -0.039561793 0.013805071 -0.062638626 -0.0028260145 0.052290484 0.05354243
-0.042687576 0.031396102 -0.010755309 0.07347666 -0.013116207 -0.047892947 0.083176196 0.07714514
0.03922958 0.05235455 0.039446384 0.023063209 0.01723563 -0.032120485 -0.03934584 -0.08219785
0.06270726 -0.03455311 0.023437362 -0.018718215 0.009052196 -0.02055689 -0.0234808 -0.016772868
0.03316274 0.0038819788 -0.023344291 0.0468048 0.019567275 0.019003958 0.06609066 -0.02083767
-0.0061398605 -0.008071908 0.023489708 0.04316363 -0.07063647 0.012982036 0.026603207 -0.049814537
-0.046810135 0.04085379 -0.01407637 -0.016145522 -0.014477902 -0.040225863 0.04383976 0.01171739
-0.052157585 0.041509144 -0.01523721 -0.0014598125 0.042863842 0.0066627325 -0.042665876 0.041874994
-0.023810733 -0.018274752 0.01917608 -0.013438187 0.01140524 -0.012125958 0.0019444397 0.045962114
-0.005103962 -0.046640158 -0.059808236 0.077696085 -0.039524503 0.04286427 0.06940409 0.018935377
0.016374411 0.010617329 -0.0066318805 0.0058883233 0.005232344 0.06064034 0.11687566 0.02627759
-0.04805273 -0.048525695 0.038924415 -0.022824392 -0.01567927 -0.012397178 -0.053424437 -0.08920043
-0.039658293 0.0076923766 0.02541463 -0.039128162 0.072398685 -0.014218361 -0.021529805 0.014479346
0.016716715 0.023739368 -0.041827712 -0.057100132 0.007758532 -0.05145784 -0.057474785 0.025082061
-0.011668841 0.03379752 0.040373724 0.0769214 0.033318974 -0.054781634 0.03687577 0.025764324
-0.05129946 -0.010627129 -0.15526703 -0.008302101 0.016432915 0.018384201 -0.10957103 -0.016235046
-0.022100035 0.018104188 0.012354034 0.06344242 -0.09698046 -0.049497504 -0.061230924 -0.043276645
-0.011110498 -0.018898759 0.010679952 -0.022271598 -0.0062845172 -0.002706906 -0.0053378087 0.0014975345
0.0139312195 0.051812693 0.02396781 -0.046258926 -0.011688921 0.004560696 -0.009630587 -0.013189247
0.055276025 0.013778959 -0.009603358 0.02937699 0.06314341 0.055366572 0.04965745 0.10401383
0.051551506 -0.00049004384 0.020617438 0.0067011937 -0.051518936 -0.031094437 0.012328375 0.03114211
-0.00314551 -0.021618493 -0.0074065267 0.017114531 -0.029885327 0.03960121 -0.06372734 -0.019252839
-0.06300888 -0.044955544 0.050460473 -0.016635126 -0.013957158 -0.03233964 -0.056319334 0.046026457

baseModel.11.bias f4 [32]
00000000: 6fb4 e037 e300 2cb7 7785 d736 ce8a 8fb6
00000010: ae2f 8436 fbca 7ab5 d46f f237 cf1c 2db5
00000020: 00ad 5037 edb7 7a37 149c 98b7 f1c3 e836
00000030: 6663 8d37 cd49 cdb7 e73c 9a37 aed5 6f36
00000040: 404f 96b6 aa20 75b7 623c 01b6 8b45 beb7
00000050: 03fa feb7 e452 c8b7 e504 e7b7 ae6b 6237
00000060: 2c39 2137 92ea d0b7 e986 ffb6 3324 8136
00000070: ed65 82b7 e7e5 bdb6 1761 1d35 4e28 ea36
2.6786902e-05 -1.0252205e-05 6.4230367e-06 -4.277891e-06 3.939457e-06 -9.3427633e-07 2.8900722e-05 -6.4489444e-07
1.2438046e-05 1.4943985e-05 -1.8192492e-05 6.9369494e-06 1.6854796e-05 -2.447227e-05 1.838659e-05 3.5738153e-06
-4.4795743e-06 -1.4610743e-05 -1.9257645e-06 -2.2682148e-05 -3.039558e-05 -2.3880457e-05 -2.7539625e-05 1.3495721e-05
9.609659e-06 -2.4904763e-05 -7.615298e-06 3.8487137e-06 -1.554467e-05 -5.659403e-06 5.862834e-07 6.9784355e-06
