Models/best_eeV0_0425.pth (torch, 769867 bytes, 48 tensors)

baseModel.0.weight f4 [64, 2, 3]
0.14797203 -0.12836605 -0.28171736 0.28712988 0.06828075 0.055081196 -0.043711375 0.46808812
-0.2255464 0.34525448 -0.11806527 -0.22875105 -0.23277976 -0.22678693 0.02212811 -0.26040858
-0.11812055 -0.06782578 0.13335569 0.055179793 0.20570709 0.17464001 0.036761854 -0.13387534
-0.39094916 -0.21517636 0.059851732 -0.23044105 0.25253046 0.38463092 -0.21765839 0.04137156
-0.19897093 0.37439585 0.032984287 0.3663013 0.32982543 0.0012568356 -0.16376224 -0.3088129
-0.058822222 -0.35522777 0.03126416 -0.026901092 0.0066165784 -0.33639765 -0.35324463 0.024901845
-0.33581284 -0.028235432 0.3854062 0.03130314 0.038793676 -0.08880753 -0.21305133 -0.1343818
-0.25781408 0.24766581 0.003024734 -0.23628107 0.3074344 -0.10502398 -0.3438427 0.24402493
-0.05521409 -0.3555864 0.16467641 -0.03198633 -0.20944075 0.20402333 0.36280778 0.17903984
0.2596489 -0.18298322 -0.11152531 -0.10921124 0.42631993 -0.26462442 0.26165953 0.42074493
-0.19887511 0.21964993 0.19372499 -0.04349851 0.03433436 0.26582104 -0.059318244 0.13046734
0.17609437 -0.31751522 0.20590745 -0.22683407 0.22058076 -0.04172653 0.07319789 -0.08238276
-0.14130984 -0.19374344 -0.35171026 -0.32959044 -0.14998165 0.28630924 0.41453233 0.18782482
-0.054647975 0.18164949 -0.18806031 -0.3772348 0.041276265 -0.037358586 0.03386054 -0.37248424
0.011375606 -0.40505028 0.1125387 -0.22233245 -0.12697937 0.17456646 0.090200156 -0.13619418
0.38905576 0.031517096 -0.19082399 0.03406139 0.25964293 0.262895 0.03650881 0.18237676
-0.13332793 0.1521625 0.29669946 -0.30430418 0.08641575 0.15573409 -0.14427292 0.25342402
-0.32064363 0.036347713 -0.34846488 -0.0020127797 -0.35670537 -0.07460864 0.0144638205 -0.08622462
0.29518437 -0.07856988 -0.20004539 -0.122461 -0.15655936 -0.11023094 0.41652963 0.12265785
0.23455001 0.26768517 -0.2704144 0.064277984 0.1476417 0.12156775 -0.34315217 -0.24474826
-0.0035409553 0.27869916 -0.41637242 -0.16229811 -0.009154323 -0.16697234 0.15457466 -0.046479285
0.33836403 0.059018906 -0.21308492 -0.016528469 -0.0012002825 0.005129335 -0.012767516 -0.27638927
0.21943247 0.049743224 -0.014555362 -0.0076889466 0.24298637 0.1863734 -0.3642313 -0.00032101604
-0.31730244 -0.10225511 0.2455532 -0.26293334 -0.03732389 -0.08483664 0.12817664 -0.068814136
-0.18003742 0.16296178 0.020056833 -0.083490275 0.26157463 -0.11257798 0.19969903 -0.24575222
0.057933126 -0.03555325 0.14838254 -0.092307165 0.27689967 0.010301919 0.27633086 0.26566154
0.08249179 0.24559991 -0.35865855 -0.010732532 0.29484525 0.067115024 0.3193943 0.18549335
-0.07955096 0.044608105 -0.058483906 0.20302923 -0.16589487 0.12161253 0.064908534 -0.056164477
-0.120528474 -0.33988044 0.34148917 0.21457055 -0.25513482 -0.2893636 0.1971867 0.20680103
-0.2949634 -0.25648755 0.06976897 -0.32316354 0.22396268 0.076191045 -0.04655131 -0.055218905
-0.16874577 0.19980145 0.014149694 -0.16696344 0.27026886 -0.08985654 0.013723461 0.14391738
0.33266535 -0.33505037 -0.14387535 0.19808614 -0.3466092 0.028900368 0.20068172 0.19977012
00000000: fb85 173e 6472 03be 423d 90be b002 933e
00000010: c7d6 8b3d d29c 613d b30a 33bd 3fa9 ef3e
00000020: a3f5 66be 32c5 b03e 34cc f1bd b73d 6abe
00000030: d15d 6ebe d53a 68be 0346 b53c 4654 85be
00000040: 30e9 f1bd 3ee8 8abd 658e 083e 3504 623d
00000050: e1a4 523e d5d4 323e 9993 163d 9e16 09be
00000060: 7d2a c8be 3157 5cbe 1727 753d bdf8 6bbe
00000070: ac4b 813e 58ee c43e d7e1 5ebe 3a75 293d
00000080: 09bf 4bbe d0b0 bf3e 881a 073d d88b bb3e
00000090: e1de a83e 68bc a43a 4ab1 27be b91c 9ebe
000000a0: 92ef 70bd 6ae0 b5be d90e 003d ae5f dcbc
000000b0: e2cf d83b 503c acbe 7bdc b4be f4fe cb3c
000000c0: a9ef abbe fe4d e7bc f653 c53e b937 003d
000000d0: 1ee6 1e3d b9e0 b5bd 212a 5abe 629b 09be
000000e0: 3500 84be 1b9c 7d3e 9e3a 463b aaf3 71be
000000f0: 0b68 9d3e d016 d7bd 260c b0be ace1 793e
00000100: 2b28 62bd 6c0f b6be efa0 283e 1904 03bd
00000110: a377 56be 7eeb 503e f1c1 b93e 3856 373e
00000120: b3f0 843e f45f 3bbe 6267 e4bd 25aa dfbd
00000130: 9b46 da3e da7c 87be 3df8 853e e16b d73e
00000140: eba5 4bbe e9eb 603e d85f 463e 7e2b 32bd
00000150: 30a2 0c3d b219 883e b0f7 72bd 3b99 053e
00000160: 1552 343e 5b91 a2be 67d9 523e 3147 68be
00000170: ecdf 613e 70e9 2abd c6e8 953d 4bb8 a8bd
00000180: 87b3 10be ae64 46be 5e13 b4be 14c0 a8be
00000190: ca94 19be 2097 923e 953d d43e 2655 403e
000001a0: 8ed6 5fbd 5302 3a3e e292 40be eb24 c1be
000001b0: 4d11 293d 5105 19bd 59b1 0a3d 41b6 bebe
000001c0: c060 3a3c c062 cfbe b17a e63d 1eab 63be
000001d0: e106 02be 8dc1 323e dcba b83d 7d76 0bbe
000001e0: 5132 c73e 1218 013d 5d67 43be f583 0b3d
000001f0: ebef 843e 2c9a 863e 438a 153d f9c0 3a3e
00000200: 1e87 08be 7dd0 1b3e fee8 973e c2cd 9bbe
00000210: befa b03d c278 1f3e 48bc 13be cbc0 813e
00000220: 672b a4be 57e1 143d fd69 b2be d7e8 03bb
00000230: 16a2 b6be 6acc 98bd a9f9 6c3c 8996 b0bd
00000240: 6822 973e 3fe9 a0bd b3d8 4cbe d5cc fabd
00000250: 1951 20be c2c0 e1bd 5f43 d53e 0a34 fb3d
00000260: e12d 703e 080e 893e c273 8abe 2da4 833d
00000270: 632f 173e 83f8 f83d a4b1 afbe 4a9f 7abe
00000280: 5f0f 68bb a8b1 8e3e c42e d5be 7a31 26be
00000290: 03fc 15bc ccfa 2abe d248 1e3e 1061 3ebd
000002a0: 0d3e ad3e cfbd 713d ef32 5abe b666 87bc
000002b0: cc52 9dba fb13 a83b d82e 51bc e582 8dbe
000002c0: e8b2 603e 8dbf 4b3d 9d79 6ebc 8ff3 fbbb
000002d0: 6bd1 783e abd8 3e3e 867c babe 0b4e a8b9
000002e0: 7775 a2be 216b d1bd 4c72 7b3e 339f 86be
000002f0: efe0 18bd d5be adbd bd40 033e 6dee 8cbd
00000300: bb5b 38be 74df 263e 3a4e a43c f3fc aabd
00000310: 1ced 853e 498f e6bd e77d 4c3e 78a6 7bbe
00000320: 494b 6d3d 49a0 11bd 98f1 173e 8a0b bdbd
00000330: cbc5 8d3e 61c9 283c 3d7b 8d3e ca04 883e
00000340: 75f1 a83d 8b7e 7b3e 18a2 b7be 80d7 2fbc
00000350: f5f5 963e 9a73 893d a687 a33e f8f1 3d3e
00000360: 9deb a2bd fdb6 363d d28c 6fbd e5e6 4f3e
00000370: 58e0 29be fd0f f93d c4ee 843d b90c 66bd
00000380: a2d7 f6bd cf04 aebe abd7 ae3e 62b8 5b3e
00000390: 08a1 82be 7727 94be 4feb 493e a6c3 533e
000003a0: 7105 97be 5652 83be 09e3 8e3d b175 a5be
000003b0: 7956 653e 0d0a 9c3d 96ac 3ebd 382d 62bd
000003c0: b1cb 2cbe c098 4c3e 1ed4 673c 77f8 2abe
000003d0: ae60 8a3e b506 b8bd 5ed8 603c 145f 133e
000003e0: 1d53 aa3e b98b abbe 0f54 13be 18d7 4a3e
000003f0: c376 b1be 77c0 ec3c 827f 4d3e 8a90 4c3e

baseModel.0.bias f4 [64]
0.00045514852 8.663114e-05 0.00053045165 0.000364163 -0.00044422076 -6.277317e-05 -0.00022692299 0.0006622892
-0.00026381653 0.00038131516 0.00044422847 -0.00014841008 -0.00025401398 0.00012400387 -0.00033281415 -0.00038722475
-1.9242985e-05 -9.665451e-05 0.0005432976 -0.00024477224 0.00056841504 -0.00050121715 -8.691128e-05 0.00017430031
-0.0008002843 0.00010748099 -0.00019744998 -3.5384663e-05 3.5969122e-05 0.0012961783 -0.00017394013 0.0001234544
-0.00077366404 4.0367027e-05 9.994492e-06 -0.00014337126 -0.0004374092 -8.152578e-05 0.0006375402 0.00039460114
0.00011188407 0.00020397805 0.00056288525 0.0006162698 -0.00022540244 0.0001258492 0.0002575829 0.0003180811
-0.0006081389 -0.0006359477 -0.00026563602 -0.00042150266 7.019603e-05 6.6421926e-05 0.00043562523 0.0006910418
0.0005829926 0.00029304932 0.00056445185 0.0006885179 0.00046496006 -0.00048517674 -0.00077453465 0.0002085285
00000000: 00a1 ee39 bdad b538 020e 0b3a 21ed be39
00000010: 4de6 e8b9 17a5 83b8 2df2 6db9 7a9d 2d3a
00000020: db50 8ab9 41eb c739 56e7 e839 879e 1bb9
00000030: 2e2d 85b9 0907 0239 8f7d aeb9 6d04 cbb9
00000040: ff6b a1b7 ffb2 cab8 166c 0e3a c654 80b9
00000050: b001 153a 1d64 03ba 2344 b6b8 62c4 3639
00000060: 2cca 51ba 6b67 e138 930a 4fb9 fe69 14b8
00000070: 8ddd 1638 87e4 a93a b363 36b9 8a73 0139
00000080: b7cf 4aba c44f 2938 04ae 2737 ee55 16b9
00000090: 1254 e5b9 d2f8 aab8 9920 273a 78e2 ce39
000000a0: 4da3 ea38 f1e2 5539 978e 133a 2b8d 213a
000000b0: 025a 6cb9 63f6 0339 310c 8739 1fc4 a639
000000c0: 836b 1fba bab5 26ba 1045 8bb9 21fd dcb9
000000d0: 3536 9338 004c 8b38 a164 e439 0827 353a
000000e0: f9d3 183a 6aa4 9939 b9f7 133a a77d 343a
000000f0: e2c5 f339 525f feb9 240a 4bba 71a8 5a39

baseModel.1.weight f4 [64]
0.97618896 0.9449082 0.95106566 0.9517744 0.979993 0.98354924 0.94730335 0.98014635
0.987262 0.95256615 0.9700468 0.8989233 0.93664336 0.9445154 0.961061 0.9485606
0.9435888 0.9692546 1.0054001 0.9266787 0.9749309 0.9473362 0.92024505 0.98064893
0.9664932 0.9372535 0.9505862 0.95021874 0.97333986 0.9461607 0.9617279 0.9297711
0.9422592 0.9464279 0.986441 0.9587182 0.9707449 0.9426912 0.9631455 0.9155249
0.9218114 0.98302436 0.9549695 0.91669387 0.9247062 0.9349617 1.0038104 0.9803565
0.97195125 0.98447055 0.97758937 0.97216964 0.9353701 0.94473827 0.95207846 0.9814158
0.9636446 0.87601906 0.9562963 0.9621855 0.8973825 0.980047 0.95840985 0.9709088
00000000: 85e7 793f 81e5 713f 0a79 733f 7da7 733f
00000010: d2e0 7a3f e2c9 7b3f 7982 723f dfea 7a3f
00000020: 34bd 7c3f 60db 733f fd54 783f d61f 663f
00000030: dcc7 6f3f c3cb 713f 1808 763f ded4 723f
00000040: 098f 713f 1221 783f f3b0 803f d13a 6d3f
00000050: 1295 793f a084 723f 2e95 6b3f cf0b 7b3f
00000060: 196c 773f d8ef 6f3f 9e59 733f 8941 733f
00000070: cd2c 793f 9637 723f cd33 763f 7b05 6e3f
00000080: e637 713f 1949 723f 6687 7c3f 8e6e 753f
00000090: bd82 783f 3654 713f b490 763f d75f 6a3f
000000a0: d5fb 6b3f 7ca7 7b3f e278 743f 73ac 6a3f
000000b0: 8cb9 6c3f a659 6f3f dc7c 803f a5f8 7a3f
000000c0: ccd1 783f 4306 7c3f 4c43 7a3f 1ce0 783f
000000d0: 6a74 6f3f 5eda 713f 6abb 733f 113e 7b3f
000000e0: 6ab1 763f c942 603f d6cf 743f ca51 763f
000000f0: dcba 653f 5ce4 7a3f 595a 753f 7b8d 783f

baseModel.1.bias f4 [64]
-0.11735764 -0.19908668 0.017590556 -0.07371392 -0.12518363 -0.09937521 -0.06092341 0.03605336
-0.15843476 -0.10179667 -0.023451902 -0.00654831 -0.17607825 0.14498694 -0.18034025 0.35748616
-0.10920712 -0.1416844 -0.07975484 -0.15070654 -0.13860261 0.32731953 -0.15568869 -0.081315055
-0.13581894 0.004630038 -0.14201568 0.04626419 -0.030113468 0.3300331 -0.18337291 0.3242557
-0.15085007 -0.14504178 -0.106799215 -0.14923473 0.18613435 -0.08991765 -0.15445156 -0.14746562
0.30936828 -0.11099082 -0.16345929 0.16385251 0.3125606 0.009575078 -0.0789469 -0.15252122
-0.14128858 -0.15928338 -0.14809471 0.068866886 -0.04450556 -0.06482859 0.03521462 -0.11374103
-0.16855815 -0.123082966 -0.049177423 0.009570414 -0.0691612 -0.008617594 0.084213264 0.2898945
00000000: 3459 f0bd 61dd 4bbe 121a 903c 53f7 96bd
00000010: 2330 00be 3b85 cbbd d38a 79bd b0ac 133d
00000020: b93c 22be c67a d0bd 341e c0bc 3593 d6bb
00000030: db4d 34be 7577 143e 1dab 38be 6d08 b73e
00000040: fca7 dfbd b715 11be 8156 a3bd d152 1abe
00000050: d8ed 0dbe 6d96 a73e db6c 1fbe 8288 a6bd
00000060: 1f14 0bbe 93b7 973b 8f6c 11be 857f 3d3d
00000070: 85b0 f6bc 19fa a83e 1cc6 3bbe d804 a63e
00000080: 7178 1abe d585 14be 8cb9 dabd fdd0 18be
00000090: 019a 3e3e bf26 b8bd 8d28 1ebe 3a01 17be
000000a0: 8565 9e3e 284f e3bd df61 27be f4c8 273e
000000b0: f107 a03e cae0 1c3c eaae a1bd 862e 1cbe
000000c0: f4ad 10be 2f1b 23be 24a6 17be 150a 8d3d
000000d0: 764b 36bd dac4 84bd 353d 103d 0ff1 e8bd
000000e0: 829a 2cbe ec12 fcbd 446e 49bd 3acd 1c3c
000000f0: 63a4 8dbd cf30 0dbc 0178 ac3d 0d6d 943e

baseModel.1.running_mean f4 [64]
0.00061574014 0.00017837931 0.0005083463 0.00046397088 -0.00024845352 3.685036e-05 -9.3195194e-05 0.00071146153
-0.00018084333 0.0002872647 0.00049201923 0.00010835484 -0.0003998846 0.00019320627 -0.00029177679 -0.00030781003
4.1190447e-06 -0.0001903316 0.00040946648 -0.00019732755 0.000521379 -0.0005199201 -0.0001588488 0.00033207447
-0.00087568926 0.0001680687 -0.00020375976 -2.0570764e-05 -5.9905993e-05 0.0013261046 -0.00014103032 7.694506e-05
-0.00057461584 -0.00011336444 0.00037265685 -2.5282348e-05 -0.0004572372 -7.415225e-05 0.000630802 0.00029947294
0.00024305376 0.00010548201 0.0003919474 0.00047431153 -8.35338e-05 -4.1174673e-05 0.0003791069 0.00024283183
-0.0004926156 -0.00047991687 -0.0002389627 -0.00043714556 -3.2655236e-05 -0.00012905567 0.00043439635 0.0004905131
0.00035445363 0.00034434142 0.0003666271 0.000491043 0.00048061958 -0.00044879265 -0.00062391715 0.0001003837
00000000: 9f69 213a 550b 3b39 8b42 053a 1e41 f339
00000010: de42 82b9 c68f 1a38 ca71 c3b8 6081 3a3a
00000020: c3a0 3db9 049c 9639 dafa 003a 903c e338
00000030: 9aa7 d1b9 6a97 4a39 9ef9 98b9 9061 a1b9
00000040: 5336 8a36 c093 47b9 a9ad d639 b6e9 4eb9
00000050: 27ad 083a 3f4b 08ba a690 26b9 481a ae39
00000060: 838e 65ba 993b 3039 58a8 55b9 618f acb7
00000070: 9243 7bb8 b0d0 ad3a 8ae1 13b9 915d a138
00000080: d1a1 16ba 12be edb8 2861 c339 6e15 d4b7
00000090: 57b9 efb9 3082 9bb8 685c 253a 9402 9d39
000000a0: 3fdc 7e39 3936 dd38 4a7e cd39 04ad f839
000000b0: de2e afb8 f8b2 2cb8 dec2 c639 aca0 7e39
000000c0: e022 01ba 5a9d fbb9 1092 7ab9 af30 e5b9
000000d0: 4bf7 08b8 1e53 07b9 b1bf e339 c795 003a
000000e0: f6d5 b939 b988 b439 db37 c039 57b9 003a
000000f0: abfb fb39 ee4b ebb9 5f8e 23ba 1785 d238

baseModel.1.running_var f4 [64]
8.896376e-06 1.2611671e-05 9.914916e-06 4.8547154e-06 2.0132411e-05 1.5086091e-05 1.5040404e-05 1.2298023e-05
9.233033e-06 1.120188e-05 1.4549446e-05 1.4718237e-05 8.621699e-06 1.5468684e-05 6.972677e-06 3.0366928e-06
1.7535196e-05 1.8320892e-05 1.2182067e-05 5.0672743e-06 1.4379009e-05 7.445031e-06 5.259665e-06 1.063831e-05
7.498469e-06 1.5175048e-05 9.4516845e-06 1.0673318e-05 5.8812884e-06 3.0502806e-06 1.24082835e-05 3.7434356e-06
3.2770079e-06 2.7381102e-06 1.324971e-05 1.5214108e-05 1.9802562e-06 9.590862e-06 1.4730334e-05 3.6252616e-06
3.771627e-06 1.3158562e-05 1.2597815e-05 4.786936e-06 3.169938e-06 1.1848247e-05 9.558956e-06 1.8559498e-05
1.4004194e-05 1.0506147e-05 1.2922648e-05 1.5918042e-05 1.2608128e-05 1.2505266e-05 1.5037268e-05 1.7571772e-05
1.0707785e-05 4.509334e-06 9.897326e-06 8.00296e-06 9.180425e-06 1.0300643e-05 3.2110497e-06 5.1515167e-06
00000000: a541 1537 b796 5337 3d58 2637 b0e5 a236
00000010: 06e2 a837 441a 7d37 0b56 7c37 9b53 4e37
00000020: 93e7 1a37 b5ef 3b37 6519 7437 59ee 7637
00000030: eaa5 1037 bfc2 8137 d7f6 e936 fcc9 4b36
00000040: 8c18 9337 d1af 9937 9461 4c37 8e07 aa36
00000050: 603d 7137 54d0 f936 2e7c b036 327b 3237
00000060: 5c9b fb36 5698 7e37 ad92 1e37 8d11 3337
00000070: e257 c536 6cb3 4c36 2c2d 5037 bc37 7b36
00000080: 91ea 5b36 60c0 3736 124b 5e37 1940 7f37
00000090: 8be4 0436 70e8 2037 4e22 7737 8549 7336
000000a0: 0f1c 7d36 98c3 5c37 345b 5337 789f a036
000000b0: 1fbb 5436 d5c7 4637 675f 2037 38b0 9b37
000000c0: 8ef3 6a37 8f43 3037 5ace 5837 bc87 8537
000000d0: 7f87 5337 b5cd 5137 9348 7c37 1867 9337
000000e0: 96a5 3337 e24e 9736 b10c 2637 7444 0637
000000f0: a005 1a37 edd0 2c37 6a7d 5736 31db ac36

shortBranch.2.weight f4 [64, 1024]
-0.011665813 -0.037465733 -0.0054657087 -0.017333416 -0.010390537 -0.032362174 -0.0107685905 -0.011912461
-0.0063625644 -0.021843003 -0.0220106 -0.013257954 -0.036763027 -0.02250135 -0.036896557 -0.032961678
-0.01575458 -0.004752656 0.014013334 -0.006058585 0.01076845 0.013111786 0.0144329285 0.0148887215
0.03425145 -0.00999088 0.0047407113 0.008457328 0.006682259 -0.0010316318 0.0028680319 0.03398509
0.017812764 0.01443164 0.013893886 0.025619991 0.013107935 0.035601474 0.019906767 0.02629393
0.02763952 0.04087711 0.014966787 0.016723515 0.021225356 0.03361461 0.028057292 0.020989243
-0.012789738 -0.03678344 -0.02201467 -0.030038545 -0.004338182 -0.015424788 -0.004064927 0.008305953
-0.01464959 -0.011880019 -0.027667822 -0.018104868 -0.0045275604 -0.023744535 -0.012954257 -0.020521339
-0.039226614 -0.021377388 -0.030308971 -0.010258824 -0.0006172185 -0.008750298 -0.031605173 -0.03276323
-0.03637329 -0.021317698 -0.0068023354 -0.029713612 -0.03649414 -0.03290711 -0.008968709 -0.022102015
0.0138527285 0.03373477 0.0235419 0.011637699 0.0132078035 0.021264777 0.030397251 0.023970764
0.015625814 0.011047714 0.027399862 0.04051259 0.044028066 0.03349184 0.007570334 0.030779235
-0.026270328 -0.025028307 -0.020268435 -0.0093169315 -0.007815856 -0.023008218 -0.0036456364 -0.021916589
0.008649228 -0.013569836 -0.00040956322 -0.006936895 -0.021060321 0.011567126 -0.0017864982 0.0024148053
0.009436664 0.020627346 0.036828738 0.03002526 0.0042355047 0.0024480873 0.003036871 0.0067704716
0.012449243 0.031669866 0.017129127 0.01538975 0.028121278 0.009825353 0.01031079 0.022129606
0.032468367 0.03310005 0.01105611 0.020426484 0.024956834 0.021767221 0.012131772 0.04105401
0.023985611 0.02171726 0.015618237 0.022748796 0.023943681 0.021600308 0.017575935 0.05054385
0.00088323676 -0.015966134 -0.025709607 -0.032687817 -0.013343789 0.009540968 -0.008110308 -0.002988511
-0.02453227 -0.011867211 -0.00397224 -0.0129608475 -0.011648042 0.0022219284 -0.0044225017 -0.02879675
0.021871988 0.022113308 0.017702756 0.0010316598 0.03194204 0.010275426 0.010573531 0.022361971
0.012619524 0.03143639 0.010180423 0.019988734 0.026708694 0.027867889 0.022897795 0.028551282
-0.012664709 -0.010569692 -0.0021271445 0.0143709 -0.007902548 -0.004206004 0.0054745064 0.004553001
0.0051781996 0.0015949948 -0.014335564 -0.013003411 -0.0038828242 0.0004083779 0.02240213 -0.017009472
-0.008720231 0.017929375 0.015300893 0.014992082 0.006277618 0.0135967145 0.029196214 -0.005419429
-0.0032391443 3.7004444e-05 0.012505053 0.0050147185 -0.0046067922 0.018920587 -0.0046513663 0.021762539
0.0023379296 0.027115984 -0.0057749134 0.016350947 0.0043875063 0.028308306 0.010705963 0.020465769
0.014867085 0.023452982 0.001958715 0.031701677 0.01719407 0.00970813 0.0041860505 0.0037638985
0.011666987 0.008861147 0.015204262 0.0017058963 -0.0048438823 0.005326856 -0.01429611 0.0038481718
0.0073964815 0.008413446 0.010684244 -0.017912777 -0.028721172 0.011608453 -0.0145714255 -0.0014517911
-0.010276333 -0.017245209 -0.0040761693 -0.026135556 -0.0055150506 -0.043033313 -0.033159427 -0.021694643
-0.0076033496 -0.021599898 -0.010231821 -0.027266644 0.007097199 -0.010446565 0.002209078 -0.010479238
00000000: f721 3fbc ab75 19bd b019 b3bb cffe 8dbc
00000010: 123d 2abc 338e 04bd be6e 30bc 7c2c 43bc
00000020: 0f7d d0bb 19f0 b2bc 934f b4bc e437 59bc
00000030: d494 16bd c054 b8bc d820 17bd d302 07bd
00000040: c00f 81bc 2bbc 9bbb 2f98 653c 1887 c6bb
00000050: 276e 303c d1d2 563c 1778 6c3c d3ef 733c
00000060: 404b 0c3d cab0 23bc f857 9b3b 9b90 0a3c
00000070: daf6 da3b d237 87ba 97f5 3b3b f333 0b3d
00000080: 13ec 913c af72 6c3c 2ea3 633c 04e1 d13c
00000090: aac2 563c dad2 113d 8413 a33c 5e66 d73c
000000a0: 466c e23c c26e 273d 4137 753c c1ff 883c
000000b0: cce0 ad3c 79af 093d 68d8 e53c a2f1 ab3c
000000c0: 0d8c 51bc 3baa 16bd 1c58 b4bc 6513 f6bc
000000d0: 4f27 8ebb 40b8 7cbc 1433 85bb b115 083c
000000e0: d504 70bc 69a4 42bc a1a7 e2bc a950 94bc
000000f0: ee5b 94bb e683 c2bc 183e 54bc 5e1c a8bc
00000100: 16ac 20bd a21f afbc 854a f8bc a014 28bc
00000110: d5cc 21ba 695d 0fbc 6d74 01bd bd32 06bd
00000120: 29fc 14bd 74a2 aebc 20e6 debb f669 f3bc
00000130: e17a 15bd 9bc9 06bd 7ef1 12bc 490f b5bc
00000140: 8ef6 623c 782d 0a3d f1da c03c 0cac 3e3c
00000150: 8b65 583c 7833 ae3c a803 f93c 565e c43c
00000160: b501 803c 7901 353c ad75 e03c 88f0 253d
00000170: c656 343d bd2e 093d 9010 f83b bc24 fc3c
00000180: df34 d7bc 2a08 cdbc fd09 a6bc 0ba6 18bc
00000190: 130e 00bc bb7b bcbc a1eb 6ebb 6b8a b3bc
000001a0: 7eb5 0d3c 0454 5ebc a5ba d6b9 e54e e3bb
000001b0: b286 acbc 0b84 3d3c ef28 eaba b641 1e3b
000001c0: 3d9c 1a3c aefa a83c bbd9 163d 89f7 f53c
000001d0: fdc9 8a3b 1770 203b 3e06 473b d5da dd3b
000001e0: e9f7 4b3c 43b8 013d 6252 8c3c 4a25 7c3c
000001f0: 985e e63c 84fa 203c 96ee 283c 2649 b53c
00000200: 8dfd 043d eb93 073d b024 353c 7155 a73c
00000210: 4672 cc3c 2c51 b23c 57c4 463c 4028 283d
00000220: 797d c43c 65e8 b13c a2e3 7f3c af5b ba3c
00000230: 8a25 c43c 21f3 b03c 68fb 8f3c 1107 4f3d
00000240: 0489 673a 69cb 82bc f49c d2bc a9e3 05bd
00000250: e89f 5abc b851 1c3c 19e1 04bc e5da 43bb
00000260: e6f7 c8bc b16e 42bc 9029 82bb bc59 54bc
00000270: 6ed7 3ebc c69d 113b a2ea 90bb 29e7 ebbc
00000280: e22c b33c f826 b53c 5f05 913c c238 873a
00000290: a8d5 023d 435a 283c 9a3c 2d3c 7430 b73c
000002a0: 1fc2 4e3c 72c3 003d cacb 263c 6abf a33c
000002b0: 31cc da3c 334b e43c 2894 bb3c 61e4 e93c
000002c0: a47f 4fbc 802c 2dbc 9067 0bbb ec73 6b3c
000002d0: b079 01bc 85d2 89bb 7d63 b33b 5731 953b
000002e0: e3ad a93b 250f d13a b7df 6abc 420c 55bc
000002f0: fb76 7ebb 8e1b d639 ac84 b73c 7357 8bbc
00000300: 4ddf 0ebc a0e0 923c 99b0 7a3c 59a1 753c
00000310: 7ab4 cd3b c1c4 5e3c e62c ef3c 7795 b1bb
00000320: d347 54bb 3835 1b38 fee1 4c3c 8252 a43b
00000330: 93f4 96bb 59ff 9a3c 7d6a 98bb 5a47 b23c
00000340: f337 193b 5722 de3c 7c3b bdbb 6cf2 853c
00000350: 12c5 8f3b d2e6 e73c 1068 2f3c d4a7 a73c
00000360: 1395 733c 7820 c03c c95d 003b 9ed9 013d
00000370: 94da 8c3c d90e 1f3c 232b 893b bdab 763b
00000380: e426 3f3c 582e 113c 4c1b 793c 6298 df3a
00000390: 6eb9 9ebb e88c ae3b 3b3a 6abc 9c31 7c3b
000003a0: 2f5e f23b 8dd8 093c f80c 2f3c d1bd 92bc
000003b0: aa48 ebbc 6131 3e3c fdbc 6ebc 074a beba
000003c0: 115e 28bc d345 8dbc 6391 85bb 3c1a d6bc
000003d0: 99b7 b4bb b343 30bd 2ed2 07bd f7b8 b1bc
000003e0: 8525 f9bb 45f2 b0bc 5ea3 27bc 4c5e dfbc
000003f0: 9f8f e83b 1228 2bbc 2ec6 103b 1cb1 2bbc

shortBranch.2.bias f4 [64]
-0.06926274 0.32175574 -0.25537294 0.1250966 0.085007295 -0.23232593 -0.024757743 0.13133097
0.22198229 -0.13859628 0.10385715 -0.011173517 -0.2309121 -0.26929924 0.052854624 -0.27308556
-0.2677481 -0.24195315 -0.07483224 -0.04607556 0.27561054 0.24871087 0.2772658 -0.23765719
0.19978751 0.24802293 -0.013652478 0.0056919036 0.045935947 -0.25707653 -0.18446563 -0.16896214
-0.23213947 0.26708746 0.28920645 -0.06306473 0.20949443 -0.016701661 0.21761172 0.16694632
0.13103284 -0.05843077 -0.039917286 -0.3053478 0.2647746 -0.006781233 0.2488912 -0.23043159
-0.23102537 -0.24478619 -0.045762725 0.10783355 -0.03801986 0.08862289 0.17623487 -0.21013369
0.1905469 -0.24596485 0.054024346 -0.26352286 0.07502688 -0.10373438 0.22685169 0.0850684
00000000: a0d9 8dbd 2bbd a43e 3ec0 82be 5319 003e
00000010: 4e18 ae3d d9e6 6dbe c0d0 cabc a07b 063e
00000020: 534f 633e 2fec 0dbe 0fb3 d43d 2111 37bc
00000030: 3974 6cbe 97e1 89be 177e 583d dfd1 8bbe
00000040: 4716 89be 91c2 77be a541 99bd bab9 3cbd
00000050: d31c 8d3e 10ae 7e3e c8f5 8d3e 685c 73be
00000060: 1995 4c3e b9f9 7d3e a5ae 5fbc 2683 ba3b
00000070: 5527 3c3d 899f 83be 8fe4 3cbe 6904 2dbe
00000080: f8b5 6dbe b0bf 883e de12 943e 1528 81bd
00000090: b585 563e ecd1 88bc 9bd5 5e3e faf3 2a3e
000000a0: 792d 063e 1a55 6fbd 4f80 23bd 8c56 9cbe
000000b0: 8990 873e 1b35 debb 56dd 7e3e 42f6 6bbe
000000c0: ea91 6cbe 3ba9 7abe b271 3bbd d6d7 dc3d
000000d0: b6ba 1bbd eb7f b53d ea76 343e 492d 57be
000000e0: ba1e 433e 36de 7bbe a248 5d3d 78ec 86be
000000f0: b1a7 993d b172 d4bd cf4b 683e 5738 ae3d

shortBranch.4.weight f4 [32, 64]
-0.057276037 0.0077681127 0.019087411 -0.003446943 -0.16353102 -0.0009007211 -0.14345805 -0.14183217
-0.07216592 -0.11717942 -0.04366479 -0.0003114488 -0.005723157 0.01124977 -0.017313318 -0.009489238
-0.0033812637 0.0024948649 0.015842468 -0.024651503 0.002395213 0.008472208 -0.015902497 -0.0024879407
0.006299823 0.00089929294 -0.10947253 0.0340105 -0.22570342 -0.010255405 -0.13045534 -0.005365614
-0.011280243 -0.026625 0.012153545 -0.21838841 -0.0044403435 0.073779814 -0.06419818 -0.059495226
0.028001146 0.21715279 -0.08041725 0.013462549 0.00927839 0.2594064 -0.0015408037 -0.010192844
-0.005287281 -0.004937544 -0.23797296 -0.16072452 -0.25916836 -0.18898524 0.16824514 -0.04740816
-0.07575616 -0.012776679 -0.02086838 -0.012097083 -0.024183104 0.0013462392 -0.088454366 -0.024666427
-0.016152104 -0.045049965 0.11609 0.0029838467 0.03286945 0.054124273 -0.033020154 0.01944602
0.0119719105 -0.024238918 -0.020945108 0.0111502465 0.05867773 0.13578953 0.014730957 0.17837362
0.20728613 0.063487284 0.006585083 -0.00819327 -0.11541771 -0.1924409 -0.15374686 0.014080718
-0.0022687742 -0.09855016 0.0069047543 -0.016795646 -0.0054758005 0.005284613 -0.04110774 0.01653462
0.21388373 -0.15736564 -0.1748447 -0.0015949309 -0.060102172 0.024106067 -0.113295384 0.0201424
-0.042255122 -0.011726058 0.013999651 0.13727717 -0.18105811 0.01833955 -0.031110642 0.19252127
0.10626788 0.113844804 -0.023168186 0.004090772 -0.0044824784 0.02977822 0.02403514 -0.048984382
-0.07195025 0.05233813 0.009329573 0.026670778 -0.0023654518 0.008572014 -0.07415446 0.013581998
0.13965389 -0.13763678 0.11163544 -0.005241901 0.010375665 0.010093211 -0.018447833 -0.045566257
-0.0973029 0.012409429 -0.078627355 -0.059301496 0.002529414 0.11206743 0.007824033 -0.009880235
0.004553119 0.023218052 0.10526403 -0.036440227 -0.043116365 0.008507522 -0.09043486 0.029586704
-0.015499387 -0.0024410933 0.111886114 -0.06883265 -0.008564065 0.1484159 0.20236067 0.0146579435
-0.019027404 -0.110903524 -0.0029788706 0.11991431 -0.008535017 0.04022748 -0.079553224 -0.021478955
-0.111542 0.0013288901 0.12854794 0.119741194 -0.0011661771 -0.049854822 -0.0011726756 -0.015549257
-0.0052700103 6.943534e-05 0.08197752 -0.02988642 0.021152796 -0.006672801 -0.18446745 0.18699636
-0.052333206 0.014492155 -0.085528746 0.015455018 -0.07246335 0.015859827 -0.0798962 -0.102768555
0.060020246 0.015001148 -0.019188816 0.0023365098 0.16727592 -0.0096707465 0.14273691 0.17477272
0.12946096 0.13338684 0.04281494 -0.00759771 0.01685382 -0.023056556 0.02921074 0.008652373
0.013576924 -0.0001124925 0.0034510978 0.021656867 -0.0051647234 -0.020247072 0.05003942 -0.0039756047
0.0041211946 -0.0037428346 0.11455758 -0.023188336 0.22375034 -0.0029767158 0.08548365 -0.009477831
0.012861616 0.040403668 -0.0143677145 0.20372067 0.030041311 -0.05911092 0.07344319 0.10091647
-0.035958383 -0.2332881 0.10907604 -0.014025736 -0.012909774 -0.24871457 -0.00083164294 0.008600044
0.0032925752 0.016380668 0.23684418 0.21699181 0.24559636 0.22963344 -0.14883733 0.037728682
0.09862177 0.008534346 0.028321661 0.00090772624 0.021188267 0.0009329532 0.09524999 0.040159345
00000000: 479a 6abd a78b fe3b 345d 9c3c 1be6 61bb
00000010: ad74 27be 5f1e 6cba abe6 12be 743c 11be
00000020: bacb 93bd c4fb efbd dad9 32bd f349 a3b9
00000030: 5289 bbbb f550 383c a9d4 8dbc c078 1bbc
00000040: 3198 5dbb e380 233b 10c8 813c f3f1 c9bc
00000050: 02f9 1c3b 04cf 0a3c f445 82bc b80c 23bb
00000060: bf6e ce3b 87be 6b3a 2233 e0bd 984e 0b3d
00000070: cc1e 67be 4906 28bc 1696 05be 08d2 afbb
00000080: c5d0 38bc ac1c dabc aa1f 473c 36a1 5fbe
00000090: 4d80 91bb df19 973d 567a 83bd 44b1 73bd
000000a0: a962 e53c 4d5d 5e3e cdb1 a4bd 0692 5c3c
000000b0: 6304 183c ead0 843e cbf4 c9ba e3ff 26bc
000000c0: ed40 adbb 1fcb a1bb 2faf 73be f894 24be
000000d0: b7b1 84be 5985 41be 7448 2c3e 0f2f 42bd
000000e0: 0c26 9bbd 4755 51bc 2af4 aabc d832 46bc
000000f0: a51b c6bc 4b74 b03a 9027 b5bd 3f11 cabc
00000100: 6b51 84bc 5086 38bd 98c0 ed3d a48c 433b
00000110: 1ea2 063d 6ab1 5d3d 2440 07bd 424d 9f3c
00000120: d525 443c b290 c6bc 1395 abbc 86af 363c
00000130: 0f58 703d 690c 0b3e 1d5a 713c 93a7 363e
00000140: d142 543e 9f05 823d aec7 d73b 113d 06bc
00000150: 1f60 ecbd 3a0f 45be d16f 1dbe d0b2 663c
00000160: b7af 14bb abd4 c9bd 4741 e23b 0697 89bc
00000170: 586e b3bb 8c2a ad3b 9760 28bd 9d73 873c
00000180: 5604 5b3e 7524 21be 7d0a 33be 000d d1ba
00000190: b22d 76bd 167a c53c 6907 e8bd ad01 a53c
000001a0: b513 2dbd a71e 40bc cb5e 653c 6392 0c3e
000001b0: 4c67 39be d33c 963c bfdb febc 4c24 453e
000001c0: f9a2 d93d 7727 e93d 35cb bdbc e20b 863b
000001d0: c1e1 92bb 74f1 f33c 58e5 c43c d9a3 48bd
000001e0: a75a 93bd 8260 563d 11db 183c ad7c da3c
000001f0: b205 1bbb a271 0c3c 4bde 97bd 0787 5e3c
00000200: 6e01 0f3e a8f0 0cbe 1fa1 e43d 41c4 abbb
00000210: b1fe 293c ff5d 253c e91f 97bc afa3 3abd
00000220: be46 c7bd eb50 4b3c 6107 a1bd 20e6 72bd
00000230: 86c4 253b 9c83 e53d 5f30 003c b6e0 21bc
00000240: 5532 953b c933 be3c ab94 d73d 5942 15bd
00000250: c99a 30bd 2263 0b3c e935 b9bd d15f f23c
00000260: 24f1 7dbc c0fa 1fbb 8c24 e53d 22f8 8cbd
00000270: 4b50 0cbc 56fa 173e a337 4f3e df27 703c
00000280: 5cdf 9bbc 6321 e3bd 2839 43bb a295 f53d
00000290: 75d6 0bbc 92c5 243d cdec a2bd a2f4 afbc
000002a0: 2270 e4bd 272e ae3a 12a2 033e df3a f53d
000002b0: 69da 98ba 9234 4cbd 77b4 99ba 50c2 7ebc
000002c0: 0db0 acbb d09d 9138 d4e3 a73d 5ed4 f4bc
000002d0: a148 ad3c 83a7 dabb 09e5 3cbe f97b 3f3e
000002e0: 585b 56bd 8170 6d3c b229 afbd 0b37 7d3c
000002f0: aa67 94bd 78ec 813c 9ea0 a3bd 5278 d2bd
00000300: cad7 753d 60c7 753c dd31 9dbc 2120 193b
00000310: 614a 2b3e 0d72 1ebc a029 123e 9ff7 323e
00000320: 6a91 043e 8f96 083e b85e 2f3d 36f6 f8bb
00000330: 0611 8a3c 1ae1 bcbc 5d4b ef3c afc2 0d3c
00000340: bf71 5e3c f3e9 ebb8 d02b 623b be69 b13c
00000350: d73c a9bb 30dd a5bc 23f6 4c3d ca45 82bb
00000360: 160b 873b 584a 75bb 2a9d ea3d 77f5 bdbc
00000370: cf1e 653e 0115 43bb 0d12 af3d e848 1bbc
00000380: 87b9 523c 517e 253d 9066 6bbc 279c 503e
00000390: 3219 f63c 4b1e 72bd 6269 963d 4bad ce3d
000003a0: 1949 13bd 13e3 6ebe 4263 df3d 33cc 65bc
000003b0: 8483 53bc 08af 7ebe 9d02 5aba 33e7 0c3c
000003c0: 3fc8 573b c030 863c 4887 723e 1a33 5e3e
000003d0: 9d7d 7b3e 0725 6b3e d068 18be 6489 1a3d
000003e0: 36fa c93d a4d3 0b3c d402 e83c 7af4 6d3a
000003f0: 0493 ad3c 6e91 743a 6d12 c33d 207e 243d

shortBranch.4.bias f4 [32]
-0.06354147 -0.04267104 -0.010509324 0.084040016 0.06327215 -0.019231614 0.04823456 -0.06594339
0.06505982 0.0148984995 0.08311852 0.059546605 0.12742665 -0.092139505 -0.06923711 -0.01554558
-0.04567127 0.090331204 -0.011785402 -0.0027130009 0.047564674 0.0535212 0.108140856 -0.019204246
-0.07697594 0.020710979 -0.023064924 -0.08515377 -0.0053770435 -0.09706102 -0.1029744 -0.03779069
00000000: 0822 82bd d4c7 2ebd 4d2f 2cbc 2c1d ac3d
00000010: d494 813d 9e8b 9dbc 9a91 453d 540d 87bd
00000020: 153e 853d d618 743c 0b3a aa3d 24e7 733d
00000030: 227c 023e a3b3 bcbd 30cc 8dbd e3b2 7ebc
00000040: cc11 3bbd 91ff b83d 8f17 41bc 9acc 31bb
00000050: 2dd3 423d 0c39 5b3d f478 dd3d 3952 9dbc
00000060: 90a5 9dbd 12aa a93c a7f2 bcbc 1a65 aebd
00000070: e931 b0bb eec7 c6bd 3ee4 d2bd 69ca 1abd

shortBranch.6.weight f4 [10, 32]
-0.08608247 0.02740466 0.08064878 0.061899215 -0.103006124 0.103705026 0.05812988 0.16284369
-0.11414975 -0.06403976 -0.09756514 -0.07927284 -0.08571716 0.060780652 0.079681024 -0.12764178
0.02449586 0.08409714 0.035739645 0.07237045 -0.05654255 -0.102652505 -0.09334712 -0.045789782
0.08424325 0.12302481 -0.06651584 0.089985386 -0.13814953 0.15492898 0.09807274 0.07238775
-0.083772495 0.03470564 0.08145913 0.051222388 -0.10877854 0.10504793 0.052224487 0.16599241
-0.1295997 -0.06644379 -0.09747357 -0.08305747 -0.09580134 0.059399307 0.08431517 -0.13205078
0.023933882 0.09814367 0.03203721 0.07551949 -0.06020066 -0.100134365 -0.09965531 -0.052432105
0.086674385 0.13016953 -0.057044014 0.087885365 -0.13793327 0.15133123 0.090536036 0.06809271
-0.09367191 0.027757825 0.043845557 0.08471355 -0.08432296 0.09881073 0.073022164 0.1566072
-0.03027648 -0.06541623 -0.051314373 -0.0643413 -0.060932692 0.044080716 0.061176453 -0.09470791
0.025351102 0.058832247 0.030247029 0.034614086 -0.0455666 -0.07635523 -0.07903545 -0.06028102
0.081280775 0.08545315 -0.07757257 0.06992636 -0.1447836 0.13500781 0.09460763 0.061426137
-0.10010604 -0.35711014 0.025197009 0.108318515 0.24255249 0.0672993 0.08001492 0.17647688
0.073026344 0.24854453 0.23373426 0.23263995 0.28528267 -0.22619914 -0.25575382 -0.025686383
-0.32493094 0.110819615 -0.30618554 -0.003875949 -0.00013179722 -0.12723853 0.20597742 -0.025217768
-0.28137875 0.09407599 -0.07726855 -0.19151703 -0.13811578 -0.16302124 0.08322937 0.102624156
0.36318704 0.03543648 -0.032807566 -0.34382826 -0.101462245 0.06768458 -0.34855255 -0.24600455
-0.16519049 -0.07009048 -0.094360515 -0.0814928 -0.08714546 0.05338353 0.074482135 -0.10330896
0.029886404 -0.099808864 0.03669772 0.008111241 0.009409514 0.24718013 -0.08919766 -0.03138481
0.08807091 0.02093826 0.35801703 0.08263664 0.27950907 0.14856367 -0.22446813 -0.2583247
-0.11140181 -0.021677291 0.071476385 0.106276505 0.21640027 0.11872055 0.08818795 0.17951639
-0.035316046 -0.005314902 -0.042574693 0.21098 -0.027273007 -0.20478123 -0.23591445 -0.13016158
-0.022571053 0.11750163 -0.024527254 0.0663917 -0.064209774 -0.13206565 0.18965192 -0.06538556
0.038764015 0.124028586 -0.08864238 -0.17237905 -0.14693649 -0.14389127 0.10943323 0.107096866
0.02762481 -0.37058643 -0.15429862 0.0032631368 0.24764106 -0.33572844 -0.03871029 0.0063645514
0.08420971 0.26146168 0.2594197 0.2389292 0.29616842 -0.2329664 -0.26628616 0.08965972
-0.3416954 0.060289036 -0.3200792 -0.16554925 0.3526985 -0.008376062 0.21326359 0.44957694
-0.29339018 -0.05722685 0.048032362 -0.20126009 0.00848784 -0.17065649 -0.26209816 0.028570417
-0.1374116 -0.0039299093 -0.37969184 0.13174266 -0.12814324 -0.122375704 0.10508396 0.04085729
0.25469032 -0.04732653 0.29835048 -0.09879524 0.26922405 0.074700624 0.099789545 0.30298808
-0.0139639685 -0.35532784 0.0124832755 -0.37974742 0.33040282 0.23948038 -0.108329706 0.049030557
0.0025980147 -0.36073473 -0.10019429 0.10577902 -0.18645653 0.16873546 -0.011830976 -0.21604373
00000000: 024c b0bd bd7f e03c 302b a53d 088a 7d3d
00000010: e0f4 d2bd 4d63 d43d 9919 6e3d 7fc0 263e
00000020: 58c7 e9bd 4727 83bd 3bd0 c7bd cc59 a2bd
00000030: 7a8c afbd 22f5 783d ce2f a33d 87b4 02be
00000040: 8bab c83c 1f3b ac3d bc63 123d f536 943d
00000050: 2999 67bd 7a3b d2bd c62c bfbd 118e 3bbd
00000060: ba87 ac3d 6ef4 fb3d 7539 88bd 424a b83d
00000070: 1277 0dbe b4a5 1e3e 5cda c83d 0740 943d
00000080: ea90 abbd 8027 0e3d 0bd4 a63d 91ce 513d
00000090: 48c7 debd 5e23 d73d 58e9 553d eaf9 293e
000000a0: c9b5 04be af13 88bd 39a0 c7bd 091a aabd
000000b0: 7e33 c4bd b04c 733d 6fad ac3d 5238 07be
000000c0: fd10 c43c 8cff c83d 7339 033d f6a9 9a3d
000000d0: f894 76bd 3f13 cdbd 1518 ccbd 0cc3 56bd
000000e0: 5782 b13d 294b 053e fca6 69bd 3efd b33d
000000f0: 613e 0dbe 93f6 1a3e f56a b93d 3174 8b3d
00000100: 0fd7 bfbd 6164 e33c 6697 333d 4c7e ad3d
00000110: 84b1 acbd 485d ca3d a58c 953d a35d 203e
00000120: 6106 f8bc f2f8 85bd 052f 52bd 5fc5 83bd
00000130: 8f94 79bd fb8d 343d 2994 7a3d 39f6 c1bd
00000140: 1dad cf3c 15fa 703d 9ec8 f73c 80c7 0d3d
00000150: 0ba4 3abd 2160 9cbd 57dd a1bd 3be9 76bd
00000160: 8976 a63d 1002 af3d 5ede 9ebd 8d35 8f3d
00000170: 2742 14be 7d3f 0a3e a5c1 c13d f999 7b3d
00000180: 6504 cdbd 24d7 b6be f569 ce3c 19d6 dd3d
00000190: ae5f 783e 37d4 893d ddde a33d 5bb6 343e
000001a0: d68e 953d 7582 7e3e 0958 6f3e 2b39 6e3e
000001b0: 9210 923e bfa0 67be 2af2 82be 406c d2bc
000001c0: 595d a6be 65f5 e23d 5ac4 9cbe a203 7ebb
000001d0: 0c33 0ab9 d14a 02be bfeb 523e 7e95 cebc
000001e0: e010 90be eaaa c03d f93e 9ebd 0a1d 44be
000001f0: 396e 0dbe 0aef 26be 2974 aa3d 9d2c d23d
00000200: a7f3 b93e d825 113d 3a61 06bd 420a b0be
00000210: 70cb cfbd 379e 8a3d 7b75 b2be 9ee8 7bbe
00000220: b227 29be 998b 8fbd 1640 c1bd b2e5 a6bd
00000230: 5279 b2bd b0a8 5a3d 178a 983d a693 d3bd
00000240: 55d4 f43c 9768 ccbd 5950 163d 03e5 043c
00000250: 5d2a 1a3c ca1c 7d3e 43ad b6bd 5c8d 00bd
00000260: 855e b43d b786 ab3c 024e b73e 663d a93d
00000270: d01b 8f3e 1321 183e f9da 65be 2343 84be
00000280: a226 e4bd 9394 b1bc 3662 923d 7fa7 d93d
00000290: 0898 5d3e c223 f33d e29b b43d 25d3 373e
000002a0: 8fa7 10bd a128 aebb cd62 2ebd 240b 583e
000002b0: a46b dfbc 2cb2 51be 8f93 71be 1449 05be
000002c0: eee6 b8bc b2a4 f03d 61ed c8bc 5ff8 873d
000002d0: 6a80 83bd 383c 07be 1d34 423e dde8 85bd
000002e0: 04c7 1e3d b302 fe3d 238a b5bd 2284 30be
000002f0: 8576 16be 3c58 13be 871e e03d 9a55 db3d
00000300: 6d4d e23c 81bd bdbe 7500 1ebe 5ada 553b
00000310: 9e95 7d3e 99e4 abbe ae8e 1ebd ba8d d03b
00000320: 2476 ac3d 4ede 853e a9d2 843e dba9 743e
00000330: 63a3 973e be8e 6ebe a956 88be 849f b73d
00000340: b3f2 aebe a3f1 763d 6ce1 a3be be85 29be
00000350: e694 b43e c03b 09bc c561 5a3e f32e e63e
00000360: 3d37 96be b466 6abd 95bd 443d 2017 4ebe
00000370: 9510 0b3c 93c0 2ebe bb31 86be 820c ea3c
00000380: a0b5 0cbe 78c6 80bb f866 c2be 8ce7 063e
00000390: fb37 03be 1da0 fabd 4236 d73d f959 273d
000003a0: c566 823e 77d9 41bd 65c1 983e 2955 cabd
000003b0: bcd7 893e a4fc 983d 765e cc3d 4121 9b3e
000003c0: 21c9 64bc 88ed b5be a786 4c3c 416e c2be
000003d0: 8f2a a93e 583a 753e f7db ddbd 44d4 483d
000003e0: 7443 2a3b 39b2 b8be aa32 cdbd aca2 d83d
000003f0: 76ee 3ebe fdc8 2c3e b6d6 41bc 913a 5dbe

shortBranch.6.bias f4 [10]
-0.15795042 -0.18119669 0.066909924 0.11844732 0.15780729 0.27158824 0.01718428 0.21792537
-0.32595116 0.065293
00000000: c1bd 21be a08b 39be 1208 893d 8294 f23d
00000010: 3c98 213e 9d0d 8b3e 0cc6 8c3c d427 5f3e
00000020: 12e3 a6be 56b8 853d

longBranch.0.weight f4 [64, 64, 3]
0.0121359965 -0.06437475 -0.09344033 0.01602237 -0.027691843 0.009412565 0.031604584 -0.045274988
0.007897512 -0.068798065 -0.08133279 0.050317023 0.066072464 -0.0028647727 0.06776087 0.031637892
0.102424756 -0.051553078 -0.031261653 -0.039318033 -0.0012042762 0.049790498 0.020278608 0.023001507
-0.015924655 0.015727896 0.03823693 -0.023207538 0.007874334 -0.041581433 -0.03312777 -0.01800111
0.02174984 -0.012561316 -0.005871449 0.024067078 0.026593307 0.012667573 0.07397614 -0.006243578
-0.030838782 0.04306397 -0.021074833 0.047134895 -0.026025508 -0.014145239 -0.01252378 0.003197709
-0.0739672 -0.0032366058 0.059434958 -0.007114518 -0.047557924 0.024146633 0.054211203 0.049734265
0.009906254 0.06305285 0.04194101 0.022311294 -0.09766007 0.020597639 -0.07266784 -0.005378635
-0.006766271 0.02691047 0.023567203 -0.06647062 -0.0032217398 0.016709102 0.029741248 0.004091501
0.018607257 -0.07001883 0.025830567 -0.051326394 0.046506252 -0.043977384 -0.0010356101 -0.08215339
-0.03256316 0.0024373075 0.026729982 -0.0070033297 0.016223455 0.056464557 -0.00030406195 -0.04571767
0.062356774 0.014422231 -0.085345164 -0.0031476356 0.025337085 -0.06816211 -0.040667586 -0.009170474
-0.023837572 -0.021390287 0.02304705 -0.06708836 0.0046114917 0.060368128 0.016972013 0.05993573
0.044108376 0.0025852015 -0.08753466 -0.019249689 0.012373197 -0.0024466051 0.01812856 -0.04994066
-0.017444542 0.004554946 0.005128204 0.038893696 -0.043080587 0.010689859 -0.025999453 0.028215945
-0.015147243 -0.025104119 -0.01853221 -0.09899353 0.043286696 -0.07749879 -0.03342766 0.02475267
0.046174563 -0.020610621 -0.0014618143 -0.025417527 -0.016685694 -0.04178246 0.04476071 0.06356539
-0.02798776 -0.030358443 0.01862264 0.049596645 -0.0032958025 -0.032622404 -0.042296443 -0.04315458
0.017757844 -0.002456766 0.014001474 0.018551718 -0.004168061 0.048952192 -0.011348525 -0.030475408
0.024684716 0.053426135 0.058158938 0.01736418 -0.05675246 0.014970496 -0.0034723917 0.050701223
0.0784557 0.040831983 0.013760505 0.01598191 0.059908565 -0.0887212 0.036112893 0.01171187
-0.010375412 0.0012166316 -0.016005667 0.06376523 0.06880943 0.005848077 -0.025313748 0.028219555
0.04062884 0.060428157 0.040038887 -0.033015132 0.03465206 -0.06422885 0.0026852572 -0.010745199
-0.035672292 -0.042259853 0.021833958 0.026812304 0.04778279 0.008637524 0.024087343 -0.007337394
0.0075352686 0.01609627 0.060010917 0.024765925 -0.003422055 -0.0058131423 -0.047145 0.0013536846
-0.0014768066 -0.0053100972 0.06568342 0.06248523 -0.030369315 0.014050809 0.07304189 -0.039158512
-0.0084916325 -0.024903053 0.012040074 -0.02184846 0.086798474 0.01359787 -0.090550974 0.017514711
-0.00038814335 -0.009333726 0.067891225 -0.045229852 -0.069242276 -0.016747816 -0.020787762 0.008926027
0.016694227 -0.036747918 -0.07654655 -0.060743563 -0.061252207 0.0019442657 -0.01719389 -0.025121035
-0.03531007 -0.021553317 -0.009713873 -0.062992886 0.06993563 0.030033328 0.011073223 -0.0215731
0.052032355 -0.023211837 0.021957356 0.018460533 0.02098525 -0.008095964 -0.03528053 -0.00997681
0.08069935 -0.054118473 0.037484836 0.044878904 0.01660324 -0.03385641 0.043224234 0.08146887
00000000: 0fd6 463c e9d6 83bd a55d bfbd 5841 833c
00000010: 01da e2bc 2937 1a3c cf73 013d 4472 39bd
00000020: 9164 013c 00e6 8cbd ce91 a6bd 3919 4e3d
00000030: 0051 873d e9be 3bbb 36c6 8a3d bc96 013d
00000040: 12c4 d13d 5229 53bd 380c 00bd f20b 21bd
00000050: ced8 9dba 1ff1 4b3d 531f a63c a86d bc3c
00000060: 6c74 82bc cad7 803c 549e 1c3d bc1d bebc
00000070: 5a03 013c 4b51 2abd fcb0 07bd 1077 93bc
00000080: b82c b23c facd 4dbc 4965 c0bb 5228 c53c
00000090: 35da d93c a78b 4f3c cd80 973d ee96 ccbb
000000a0: 9da1 fcbc d863 303d 21a5 acbc 8510 413d
000000b0: 7233 d5bc 6fc1 67bc 8a30 4dbc a890 513b
000000c0: 1e7c 97bd 3c1d 54bb 1272 733d e720 e9bb
000000d0: 19cc 42bd 29cf c53c 910c 5e3d 28b6 4b3d
000000e0: d74d 223c da21 813d 56ca 2b3d 2dc6 b63c
000000f0: 0102 c8bd 61bc a83c e0d2 94bd 433f b0bb
00000100: 98b7 ddbb 5973 dc3c 0210 c13c c021 88bd
00000110: d323 53bb 87e1 883c eba3 f33c ff11 863b
00000120: 3f6e 983c 0866 8fbd a09a d33c a03b 52bd
00000130: 577d 3e3d a121 34bd 4fbd 87ba 0940 a8bd
00000140: f360 05bd 3cbb 1f3b d6f8 da3c 307c e5bb
00000150: 0de7 843c 6147 673d 816a 9fb9 7442 3bbd
00000160: d169 7f3d 394b 6c3c 72c9 aebd 9048 4ebb
00000170: b88f cf3c 9498 8bbd 0e93 26bd c13f 16bc
00000180: 0347 c3bc af3a afbc 2bcd bc3c 9f65 89bd
00000190: ff1b 973b 9244 773d e408 8b3c 2b7f 753d
000001a0: fcaa 343d 7c6c 293b 5f45 b3bd 86b1 9dbc
000001b0: f3b8 4a3c 3957 20bb 5982 943c 948e 4cbd
000001c0: dbe7 8ebc a841 953b 7e0a a83b ff4e 1f3d
000001d0: 4575 30bd 8524 2f3c cefc d4bc 2025 e73c
000001e0: 242c 78bc 27a7 cdbc dcd0 97bc 1fbd cabd
000001f0: 644d 313d b0b7 9ebd 71eb 08bd 1dc6 ca3c
00000200: 8a21 3d3d 9bd7 a8bc 599a bfba 6b38 d0bc
00000210: 70b0 88bc 1624 2bbd 0257 373d 922e 823d
00000220: 9646 e5bc 45b2 f8bc 828e 983c da25 4b3d
00000230: 64fe 57bb 129f 05bd 093f 2dbd dbc2 30bd
00000240: e678 913c b201 21bb 7066 653c c6f9 973c
00000250: 3b94 88bb 1882 483d 2aef 39bc 90a7 f9bc
00000260: 9a37 ca3c 5dd5 5a3d 1138 6e3d 533f 8e3c
00000270: 4475 68bd d046 753c 1191 63bb 16ac 4f3d
00000280: 62ad a03d 703f 273d be73 613c 7fec 823c
00000290: af62 753d 76b3 b5bd 1deb 133d 25e3 3f3c
000002a0: a2fd 29bc 6277 9f3a 511e 83bc 5897 823d
000002b0: f5eb 8c3d 3aa1 bf3b c75e cfbc b22c e73c
000002c0: 6d6a 263d 8483 773d d1ff 233d e03a 07bd
000002d0: 52ef 0d3d 6a8a 83bd 24fb 2f3b a20c 30bc
000002e0: 1c1d 12bd ab18 2dbd 21dd b23c 7aa5 db3c
000002f0: e3b7 433d 6784 0d3c d252 c53c 866e f0bb
00000300: 6aea f63b 53dc 833c 02ce 753d e9e1 ca3c
00000310: 8e44 60bb 2c7c bebb 1e1b 41bd 1e6e b13a
00000320: 6891 c1ba 5300 aebb 0785 863d 83f0 7f3d
00000330: 12c9 f8bc 5d35 663c fd96 953d ad64 20bd
00000340: 7d20 0bbc 7d01 ccbc bb43 453c 8bfb b2bc
00000350: 66c3 b13d 9ac9 5e3c ca72 b9bd 037b 8f3c
00000360: b87f cbb9 7cec 18bc 8e0a 8b3d f042 39bd
00000370: e5ce 8dbd b732 89bc 194b aabc 793e 123c
00000380: 55c2 883c fc84 16bd 70c4 9cbd 3ece 78bd
00000390: 98e3 7abd bbd6 fe3a 33da 8cbc a1ca cdbc
000003a0: 4ba1 10bd 9590 b0bc f026 1fbc 6a02 81bd
000003b0: 693a 8f3d 7408 f63c 776c 353c 12ba b0bc
000003c0: e11f 553d c026 bebc eadf b33c 8b3a 973c
000003d0: 42e9 ab3c efa4 04bc 5182 10bd c675 23bc
000003e0: b345 a53d 55ab 5dbd b389 193d f1d2 373d
000003f0: 8503 883c 05ad 0abd e50b 313d 27d9 a63d

longBranch.0.bias f4 [64]
4.6958437e-05 -1.9602173e-06 -1.3045901e-05 -1.3580928e-05 -2.790052e-05 1.8751656e-05 -8.155879e-06 3.000237e-06
1.7514059e-06 3.0140212e-05 2.6679756e-05 5.8235288e-05 -3.513966e-05 2.8878221e-05 -4.9118894e-06 -7.058807e-06
-7.0493634e-06 -8.362689e-06 -2.4107703e-05 -3.1940406e-05 1.1351935e-06 9.4979e-06 -3.7661869e-06 1.2571127e-05
3.6055768e-05 -1.1177547e-05 -9.923788e-06 -2.0257174e-05 4.9512296e-06 3.4083446e-06 -1.0759844e-06 -5.201408e-06
1.6050995e-05 -1.3061788e-05 -1.7425042e-05 3.5565863e-06 -1.1667007e-05 1.6341095e-05 -1.6948448e-05 1.9254378e-05
-2.1439642e-05 -2.8295368e-05 -1.4561131e-05 7.981135e-06 3.903481e-06 -1.1923284e-05 1.0776147e-05 -6.4148717e-06
-4.935575e-06 2.7983035e-07 -3.8259666e-05 -6.6926616e-05 -1.9670808e-05 -2.50404e-05 3.9340895e-05 -7.4816417e-06
-3.265614e-06 -3.201845e-05 1.2992982e-06 3.0131398e-05 9.092328e-06 -1.9005998e-05 -2.3508733e-06 1.635396e-05
00000000: 3df5 4438 478c 03b6 b8df 5ab7 a4d9 63b7
00000010: e90b eab7 e04c 9d37 3cd5 08b7 ae57 4936
00000020: d911 eb35 9dd5 fc37 57ce df37 aa41 7438
00000030: ec62 13b8 823f f237 cfd0 a4b6 b1da ecb6
00000040: 9289 ecb6 7a4d 0cb7 e63a cab7 c0f7 05b8
00000050: f45c 9835 2b59 1f37 99be 7cb6 94e8 5237
00000060: 963a 1738 3387 3bb7 587e 26b7 f3ed a9b7
00000070: bd22 a636 eaba 6436 8b6a 90b5 c187 aeb6
00000080: 40a5 8637 f423 5bb7 fe2b 92b7 b0ad 6e36
00000090: 6abd 43b7 3c14 8937 842c 8eb7 7684 a137
000000a0: 48d9 b3b7 d75b edb7 954b 74b7 b7e6 0537
000000b0: a5fa 8236 1d0a 48b7 33cb 3437 543f d7b6
000000c0: 449c a5b6 973b 9634 0179 20b8 f45a 8cb8
000000d0: bd02 a5b7 d90d d2b7 f701 2538 d00a fbb6
000000e0: d226 5bb6 8d4b 06b8 8c63 ae35 afc2 fc37
000000f0: 408b 1837 126f 9fb7 b2c3 1db6 dd2f 8937

longBranch.1.weight f4 [64]
0.71686214 0.7189988 0.8510084 0.7478487 0.7378891 0.7701406 0.754779 0.7577998
0.73918116 0.70610136 0.7191039 0.731116 0.7735359 0.8257166 0.7865466 0.76231474
0.78244925 0.82448673 0.7842482 0.758552 0.7157464 0.74217033 0.72660077 0.78278494
0.6864589 0.74923056 0.69802856 0.79739827 0.7398749 0.74262035 0.7994778 0.73510474
0.7285107 0.8161944 0.7170127 0.76125246 0.6744958 0.79611814 0.717363 0.7658938
0.75104034 0.76871544 0.7626084 0.7270046 0.7464741 0.79618436 0.73790884 0.7204948
0.7014502 0.735632 0.8101594 0.75627947 0.761301 0.7422267 0.8366234 0.75666654
0.70831114 0.7397877 0.7374374 0.7346689 0.7117746 0.7844507 0.7437768 0.7211254
00000000: 4784 373f 4e10 383f b0db 593f 0373 3f3f
00000010: 4de6 3c3f ef27 453f 3239 413f 2bff 413f
00000020: fa3a 3d3f 0fc3 343f 3117 383f 6b2a 3b3f
00000030: 7306 463f 2a62 533f 1e5b 493f 0f27 433f
00000040: 984e 483f 9011 533f 7dc4 483f 7730 423f
00000050: 283b 373f e0fe 3d3f 8202 3a3f 9864 483f
00000060: c5bb 2f3f 93cd 3f3f 00b2 323f 4b22 4c3f
00000070: 7168 3d3f 5e1c 3e3f 94aa 4c3f d32f 3c3f
00000080: ad7f 3a3f 1ef2 503f 258e 373f 71e1 423f
00000090: c2ab 2c3f 66ce 4b3f 1aa5 373f 9e11 443f
000000a0: 2e44 403f 89ca 443f 4e3a 433f f91c 3a3f
000000b0: ed18 3f3f bdd2 4b3f 98e7 3c3f 5972 383f
000000c0: 3e92 333f 6152 3c3f 9b66 4f3f 889b 413f
000000d0: 9fe4 423f 9202 3e3f f32c 563f e6b4 413f
000000e0: e153 353f ba62 3d3f b3c8 3c3f 4313 3c3f
000000f0: dc36 363f c3d1 483f 2868 3e3f ad9b 383f

longBranch.1.bias f4 [64]
-0.022841366 -0.08398649 -0.045971036 -0.061623298 -0.09760707 -0.01799915 0.020219171 -0.00027550725
0.034566514 -0.028973358 0.07506326 0.03992964 -0.19708519 -0.06327162 -0.042628367 -0.01073662
-0.022233004 -0.073088065 -0.053640213 -0.005784119 -0.039635587 0.0490413 0.10089951 -0.03606187
-0.039276104 -0.0021307105 0.008911153 -0.031163199 0.0037256654 -0.06841177 -0.048084352 0.008443321
0.044062734 -0.023774771 -0.097634085 -0.11657272 -0.018447192 0.060986597 0.034793295 -0.07544318
-0.028274246 -0.03069747 -0.072440565 -0.05689396 0.0035928865 0.01981408 -0.043737218 0.057461314
0.040192816 -0.012932499 -0.064611845 -0.12585802 -0.009406985 -0.12388436 -0.10072326 -0.017865166
-0.069348335 -0.039756007 0.0054833693 0.03361376 0.017948734 -0.020921955 -0.028734468 0.00017446022
00000000: d11d bbbc 1c01 acbd 204c 3cbd b668 7cbd
00000010: 37e6 c7bd f472 93bc ada2 a53c f571 90b9
00000020: 9e95 0d3d 8959 edbc c4ba 993d 438d 233d
00000030: b3d0 49be 8d94 81bd 159b 2ebd a6e8 2fbc
00000040: fd21 b6bc 32af 95bd d7b5 5bbd b588 bdbb
00000050: ed58 22bd 88df 483d 67a4 ce3d 9db5 13bd
00000060: fbdf 20bd 64a3 0bbb 1600 123c f749 ffbc
00000070: 4b2a 743b 781b 8cbd 19f4 44bd db55 0a3c
00000080: 207b 343d 4fc3 c2bc 61f4 c7bd aebd eebd
00000090: 911e 97bc 15cd 793d 6a83 0e3d f481 9abd
000000a0: 649f e7bc 4379 fbbc b85b 94bd a409 69bd
000000b0: a276 6b3b 2351 a23c cc25 33bd 8e5c 6b3d
000000c0: 39a1 243d d5e2 53bc 3753 84bd ede0 00be
000000d0: c11f 1abc 15b7 fdbd ff47 cebd f859 92bc
000000e0: 8006 8ebd 32d7 22bd d6ad b33b 95ae 093d
000000f0: 3909 933c 8564 abbc 8c64 ebbc 4fef 3639

longBranch.1.running_mean f4 [64]
0.031186154 -0.19847675 -0.0076648477 -0.18173721 -0.22486268 -0.070212536 0.13188948 -0.037264973
0.087752365 -0.15448278 -0.24140877 -0.45507684 0.03228087 0.015254165 0.05113207 0.04333877
-0.08351701 0.07645174 0.11191985 -0.14579861 -0.19642062 -0.23639095 0.073134884 -0.013221832
-0.043337855 -0.2875698 -0.0072112284 -0.0005825762 -0.22612762 -0.09831007 0.118076906 -0.3244039
-0.14132194 -0.25180048 0.10456393 0.15004079 -0.27196822 0.5316387 0.01807678 -0.1790269
-0.03802559 0.00917934 -0.0925213 0.060068443 -0.043709192 -0.058051344 0.0071926056 0.2742166
-0.12788247 0.120031685 0.120922804 0.06731845 -0.104735814 0.15402234 -0.13966356 -0.2108416
-0.081713475 0.11701449 -0.07607061 -0.5065572 -0.0300572 0.28963685 0.039938617 -0.17465185
00000000: 1b7a ff3c 7d3d 4bbe 6729 fbbb 5219 3abe
00000010: 6742 66be 97cb 8fbd 090e 073e 28a3 18bd
00000020: 83b7 b33d bc30 1ebe dc33 77be d5ff e8be
00000030: f238 043d 9bec 793c dd6f 513d fe83 313d
00000040: f70a abbd bb92 9c3d 3c36 e53d 3b4c 15be
00000050: 7d22 49be 7810 72be bec7 953d 62a0 58bc
00000060: 0983 31bd 593c 93be 2b4c ecbb 07b8 18ba
00000070: 008e 67be ca56 c9bd 4ed2 f13d 4518 a6be
00000080: b3b6 10be feeb 80be 9d25 d63d 4ba4 193e
00000090: 6b3f 8bbe 7919 083f c115 943c d452 37be
000000a0: b9c0 1bbd f164 163c cf7b bdbd 540a 763d
000000b0: 6908 33bd 3fc7 6dbd f3af eb3b 1e66 8c3e
000000c0: 9ff3 02be 2cd3 f53d 60a6 f73d 41de 893d
000000d0: bb7f d6bd 08b8 1d3e f703 0fbe dce6 57be
000000e0: 6559 a7bd 4ba5 ef3d e8ca 9bbd bcad 01bf
000000f0: 843a f6bc 484b 943e ad96 233d efd7 32be

longBranch.1.running_var f4 [64]
0.039511863 0.0409271 0.17988698 0.071245946 0.07764414 0.11344726 0.06692393 0.041278612
0.037585784 0.05027136 0.0910753 0.07515585 0.025985029 0.12344152 0.029206686 0.049135175
0.15824758 0.1397551 0.08979776 0.19270556 0.08416207 0.14193048 0.05827889 0.14368527
0.03353376 0.08593907 0.07577038 0.11092779 0.056598894 0.08230816 0.06947859 0.14829968
0.11948315 0.028439088 0.06963796 0.036835335 0.036117963 0.0633763 0.08502211 0.14943075
0.044655938 0.04528842 0.049349483 0.03574182 0.115755185 0.1740718 0.1453041 0.05966404
0.08532657 0.063604206 0.09132867 0.025661789 0.053100027 0.031174455 0.10358627 0.10195116
0.033761986 0.040504552 0.059943933 0.08911645 0.08931325 0.08868919 0.04912587 0.11951904
00000000: 31d7 213d 2da3 273d 4b34 383e 65e9 913d
00000010: e403 9f3d 0957 e83d 6a0f 893d c313 293d
00000020: 8df3 193d 57e9 4d3d b085 ba3d 4feb 993d
00000030: 8ede d43c e8ce fc3d dc42 ef3c f741 493d
00000040: a70b 223e f61b 0f3e e3e7 b73d 9b54 453e
00000050: 2a5d ac3d 3956 113e d8b5 6e3d 3b22 133e
00000060: b25a 093d d300 b03d 802d 9b3d 1c2e e33d
00000070: 3ed4 673d 2e91 a83d ca4a 8e3d dfdb 173e
00000080: 95b3 f43d 17f9 e83c 599e 8e3d a6e0 163d
00000090: 6ef0 133d 6fcb 813d 1220 ae3d 6004 193e
000000a0: 25e9 363d 5a80 393d af22 4a3d 0466 123d
000000b0: 0e11 ed3d e13f 323e 99ca 143e 4862 743d
000000c0: b2bf ae3d ec42 823d 870a bb3d ac38 d23c
000000d0: 6a7f 593d 9261 ff3c 0a25 d43d c5cb d03d
000000e0: 024a 0a3d 1ae8 253d c587 753d af82 b63d
000000f0: dde9 b63d aea2 b53d 3538 493d 66c6 f43d
