Models/best_eeV1_0502_night.pth (torch, 770203 bytes, 48 tensors)

baseModel.0.weight f4 [64, 2, 3]
0	0xbe77fb80	-0.24217033
1	0xbe2a4a71	-0.1662996
2	0xb76b46ca	-1.4023573e-05
3	0x3e8df511	0.27726033
4	0x3d3a025d	0.04541241
5	0x3de2d927	0.11076575
6	0x3ecca352	0.39968354
7	0x3e14473c	0.14480299
8	0x3de86f45	0.11349348
9	0xbe946a44	-0.28987324
10	0x3d1a397c	0.037652478
11	0xbd5a80ca	-0.05334548
12	0x3db44d17	0.08803766
13	0xbe855a07	-0.26045248
14	0xbe99efc2	-0.30065733
15	0xbdb1d3f9	-0.08683009
16	0x3e2564c9	0.16151728
17	0x3dd36240	0.10321474
18	0x3e8d3e53	0.27586612
19	0x3d48f01d	0.049057115
20	0xbe500154	-0.20313007
21	0xbe94cdb9	-0.29063204
22	0xbebe1910	-0.37128496
23	0xbea06f29	-0.31334808
24	0x3e520549	0.20509829
25	0xbebf9074	-0.37414896
26	0x3dc24e56	0.09487598
27	0xbe9377bd	-0.2880229
28	0xbe479f5b	-0.19494383
29	0x3dbd5def	0.09246432
30	0xbe78eb07	-0.24308406
31	0x3e86cf6d	0.26330128
32	0xbe4b7a5f	-0.198709
33	0x3e3591c6	0.1773139
34	0xbe51ee79	-0.20501126
35	0x3e0bc817	0.13650547
36	0x3dcfacc4	0.10140374
37	0xbe88eb2b	-0.2674192
38	0xbe4bfbfd	-0.19920345
39	0xbd8e7402	-0.069557205
40	0xbe889a1b	-0.26680073
41	0x3e66fc4d	0.22557183
42	0x3d2ad4d0	0.04170686
43	0xbdf39d22	-0.11895205
44	0xbb4ddba8	-0.0031411443
45	0x3be20666	0.0068977354
46	0xbe93a89c	-0.28839576
47	0xbe6502ba	-0.22364321
48	0x3e3922e5	0.18079717
49	0xbe071dfb	-0.1319503
50	0xbec352c0	-0.3814907
51	0x3d136d1b	0.035992723
52	0x3d16d39a	0.036822893
53	0xbe55b984	-0.2087155
54	0x3dcf212d	0.1011375
55	0x3e862b8c	0.262051
56	0x3e35fc83	0.17772107
57	0xbe12b211	-0.1432574
58	0xbed84a3c	-0.42244136
59	0xbd88e96c	-0.06685147
60	0x3d8a158e	0.067423925
61	0xbd18b7d7	-0.0372847
62	0x3cd79fb8	0.026321277
63	0x3ea9bd83	0.33152398
64	0xbe5e05df	-0.21681927
65	0x3e12de3f	0.14342593
66	0xbea85a69	-0.32881477
67	0x3e2ab57b	0.16670792
68	0x3e26d338	0.16291511
69	0x3d996d95	0.07491604
70	0xbde8e40d	-0.11371622
71	0x3d8d9f98	0.06915206
72	0x3db6c6d0	0.08924639
73	0x3e958da3	0.29209623
74	0x3d091d18	0.03347501
75	0xbdcabf46	-0.09899764
76	0xbdc832c2	-0.09775306
77	0x3ea4a9ad	0.32160702
78	0x3e85091a	0.25983506
79	0x3eb84c8b	0.35995898
80	0xbd47d82b	-0.04879014
81	0x3dcbb843	0.099472545
82	0xbe0adf5c	-0.13561767
83	0xbea935bb	-0.33048806
84	0x3e412044	0.18859965
85	0x3e6e5e39	0.2327813
86	0x3e4341c4	0.19068056
87	0x3e7f7f05	0.24950798
88	0x3e8e24a4	0.2776233
89	0x3e85a594	0.2610289
90	0xbe15ef76	-0.14642128
91	0x3db6eafe	0.0893154
92	0x3e7b0950	0.24515271
93	0xbe8593df	-0.2608938
94	0xbdb82480	-0.08991337
95	0xbd2d25ad	-0.04227226
96	0xbd914883	-0.07093909
97	0xbea6a8be	-0.32550615
98	0xbe0ae8cf	-0.13565372
99	0x3e932178	0.28736472
100	0x3ea49440	0.32144356
101	0xbe5c7507	-0.21529017
102	0x3dd8b8c1	0.10582114
103	0x3d6e8b8b	0.058238547
104	0xbe901deb	-0.28147826
105	0xbe6a00f3	-0.22851925
106	0xbcd74b80	-0.026281118
107	0xbe1fe225	-0.15613611
108	0x3eaa7906	0.3329546
109	0x3d0fb893	0.035088133
110	0xbe1072eb	-0.14106338
111	0x3e045c6b	0.1292588
112	0x3ecc3aef	0.39888713
113	0x3d7f442d	0.062320877
114	0xbdae7fee	-0.085204944
115	0x3eb4e85f	0.35333535
116	0xbe66bdb4	-0.22533303
117	0x3e131344	0.14362818
118	0xbe925130	-0.28577566
119	0xbe966eb3	-0.29381332
120	0x3e7c437d	0.2463512
121	0x3eba051a	0.36332017
122	0xbe889bf5	-0.26681486
123	0xbe95cea2	-0.2925921
124	0x3d1ef105	0.038804073
125	0x3d01a81c	0.031654462
126	0xbcd0dbea	-0.025495488
127	0x3e442cc5	0.19157703
128	0xbe806f2e	-0.25084823
129	0x3ed2e48b	0.4118999
130	0xbdb64393	-0.088996075
131	0xbead7130	-0.33875418
132	0xbeacf47f	-0.33780286
133	0xbeae82bb	-0.34084114
134	0x3e35f322	0.17768529
135	0xbe252ec8	-0.16131127
136	0x3e06c7da	0.13162175
137	0xbd9eca69	-0.077534504
138	0xbe80aaca	-0.25130302
139	0xbd4ea1ac	-0.05044715
140	0xbe98af63	-0.2982131
141	0xbe94129e	-0.28920454
142	0xbd92adba	-0.07162042
143	0x3eaf7a9f	0.3427324
144	0x3e94bd43	0.29050645
145	0xbe876126	-0.26441306
146	0xbd3f7e8f	-0.046751555
147	0xbdef5169	-0.1168545
148	0xbe51ab71	-0.20475556
149	0x3e0bacb8	0.13640106
150	0xbeb7b1cc	-0.35877836
151	0xbe20c1e2	-0.1569896
152	0xbecb6f3b	-0.397333
153	0xbe86f863	-0.2636138
154	0x3bfb16aa	0.007662614
155	0xbe6b337f	-0.22968863
156	0xbd7abcbc	-0.061215147
157	0xbe3d5d0f	-0.1849253
158	0x3d72a602	0.05924035
159	0x3e3fe999	0.18741454
160	0x3ed60323	0.41799268
161	0x3e92710b	0.2860187
162	0xbc984841	-0.01858914
163	0xbe905bcc	-0.28195035
164	0x3ea76028	0.3269055
165	0x3d47c447	0.04877117
166	0x3e3f97ca	0.18710247
167	0xbe7ae6a0	-0.24502039
168	0x3e91e184	0.28492367
169	0x3ed02e2e	0.40660232
170	0x3e88bb4d	0.267054
171	0x3d895a35	0.06706659
172	0x3cc25096	0.023720067
173	0x3e1a591c	0.15073055
174	0xbde9d45a	-0.11417456
175	0xbe4121f7	-0.18860613
176	0xbdee104c	-0.11624202
177	0xbdee876b	-0.11646923
178	0xbe891116	-0.26770848
179	0xbd93fb01	-0.072256096
180	0xbcfdf811	-0.031002076
181	0x3db28760	0.08717227
182	0x3ea9917f	0.33118817
183	0xbdd6688f	-0.10469162
184	0xbe95f678	-0.29289603
185	0x3e81131a	0.25209886
186	0xbe8ffa0c	-0.28120458
187	0xbe94a3ae	-0.29031128
188	0x3e015946	0.12631711
189	0x3e2727f4	0.16323835
190	0xbeb5bccf	-0.35495612
191	0xbe2bc075	-0.16772635
192	0xbe8e5e66	-0.27806395
193	0xbdced4b8	-0.10099167
194	0xbdc23e6b	-0.094845615
195	0xbe923c54	-0.28561652
196	0x3e5b6351	0.21424605
197	0x3e25500f	0.16143821
198	0x3e06c11a	0.131596
199	0x3ea2aa9b	0.31770787
200	0x3cab6097	0.020920081
201	0xbe84f58e	-0.25968593
202	0x3e8fc114	0.28076994
203	0x3e5abec6	0.21361837
204	0x3e56229b	0.20911638
205	0xbce4d76f	-0.027934758
206	0xbdee5a48	-0.116383135
207	0x3e8536f1	0.2601848
208	0xbb98e968	-0.004666496
209	0xbe14e92b	-0.14542072
210	0xbe1f30b4	-0.15545923
211	0x3e4ad68e	0.19808409
212	0xbd1802f9	-0.03711221
213	0x3ecd2af3	0.4007183
214	0x3e4f22ab	0.20228069
215	0x3dc76186	0.09735398
216	0x3de3a07a	0.11114593
217	0xbe8500d6	-0.259772
218	0xbe9ab69e	-0.3021745
219	0x3ebb1f4e	0.3654732
220	0x3df440d9	0.11926431
221	0xbdf3c0e1	-0.11902023
222	0x3d898e16	0.06716554
223	0xbe45a2a7	-0.19300328
224	0x3db26922	0.08711459
225	0xbecfb478	-0.40567374
226	0xbdd9e9bd	-0.10640285
227	0xbdecc824	-0.11561611
228	0xbe82dd23	-0.2555934
229	0x3d6a211a	0.057160474
230	0xbe9df967	-0.3085434
231	0xbea9847a	-0.33108884
232	0xbec426db	-0.38310894
233	0x3e3eccf6	0.18632874
234	0x3dc10d69	0.09426386
235	0xbd706bb1	-0.058696453
236	0x3dc40320	0.095709085
237	0xbea8e427	-0.32986566
238	0x3d8ee7d3	0.06977811
239	0xbeaf96f5	-0.3429486
240	0x3e8074ad	0.25089017
241	0xbe0e54ea	-0.1389958
242	0x3d99d3b4	0.07511082
243	0xbbb11644	-0.0054042656
244	0x3d196b99	0.03745613
245	0x3e37290e	0.17886755
246	0xbe475973	-0.19467716
247	0x3e2c5e28	0.16832793
248	0xbd202a12	-0.03910262
249	0xbeb497a3	-0.3527194
250	0xbc431d5a	-0.011908853
251	0x3ea27fdf	0.31738183
252	0x3e9bd0a1	0.3043261
253	0xbea5b053	-0.32361087
254	0xbe5b5716	-0.2141994
255	0x3cac0a9a	0.021001149

baseModel.0.bias f4 [64]
0	0x39078413	0.00012923805
1	0xb9b5c940	-0.00034672953
2	0x3a9e0c3a	0.0012058087
3	0xb9948507	-0.00028327873
4	0xb821a07a	-3.8534847e-05
5	0x39d4e2a8	0.00040604663
6	0xb9f5de49	-0.00046895657
7	0x391a2195	0.00014699095
8	0x3927c8ca	0.00016001161
9	0xb960ba3a	-0.0002143168
10	0x3a1ac7ed	0.0005904425
11	0x39d00182	0.00039673975
12	0xb9b0253a	-0.00033597072
13	0x37a6ba82	1.9875592e-05
14	0xb91a866d	-0.00014736662
15	0x389d8193	7.5104785e-05
16	0xb91f5abc	-0.00015197223
17	0x38060fd5	3.1962834e-05
18	0xba0f307a	-0.00054622407
19	0xb942b097	-0.00018567067
20	0x3a1b9436	0.0005934866
21	0xb92474bd	-0.00015683747
22	0x39b62a74	0.00034745375
23	0x37d281b5	2.509435e-05
24	0x3a095211	0.0005238364
25	0x387b4456	5.9906706e-05
26	0xb81c7775	-3.730455e-05
27	0xba2c1943	-0.00065650436
28	0xb8969fe7	-7.1823415e-05
29	0xb9f11e9c	-0.00045989908
30	0x38fce188	0.00012058305
31	0x3a1b1ec2	0.0005917364
32	0xb90405d4	-0.00012590672
33	0xb9ba8c24	-0.00035581097
34	0x3582b060	9.737087e-07
35	0x395ec7ec	0.00021246047
36	0x399b751a	0.0002965115
37	0xb93ecfd2	-0.00018197231
38	0x3762ee50	1.3526136e-05
39	0xba2a058c	-0.0006485812
40	0x39d35d19	0.0004031442
41	0xb9867fca	-0.00025653682
42	0xb9a56c88	-0.00031552115
43	0xb8b635ca	-8.688455e-05
44	0x39d22e63	0.00040088882
45	0x382c26fe	4.104431e-05
46	0x3a2383e2	0.00062376086
47	0x36d3c187	6.3108196e-06
48	0x39dfd764	0.00042694353
49	0x39b71194	0.00034917577
50	0xba01216e	-0.0004925941
51	0xb9944b17	-0.00028284706
52	0xb9c18a74	-0.00036914984
53	0x39cb7923	0.0003880943
54	0xba15d4ec	-0.0005715627
55	0xb9a2d69b	-0.0003105894
56	0x36d6744d	6.391236e-06
57	0xb9ee04f2	-0.00045398582
58	0xb983df1d	-0.000251525
59	0xb9025b64	-0.00012431812
60	0x389cebf2	7.482608e-05
61	0x399a7f07	0.00029467812
62	0x394ba624	0.00019421481
63	0xba62c38d	-0.0008650355

baseModel.1.weight f4 [64]
0	0x3f5d613b	0.86476487
1	0x3f58a9f7	0.84634346
2	0x3f6064bf	0.87653726
3	0x3f607096	0.8767179
4	0x3f37d4f6	0.7180933
5	0x3f6af38f	0.9177789
6	0x3f58b31c	0.846483
7	0x3f5bde27	0.8588585
8	0x3f51958c	0.81868815
9	0x3f7a75c6	0.9783596
10	0x3f5fe34a	0.8745619
11	0x3f5526e8	0.8326249
12	0x3f57511c	0.8410814
13	0x3f505cf5	0.8139184
14	0x3f67f0d8	0.90601873
15	0x3f5a5c4e	0.85297096
16	0x3f46d89f	0.7767429
17	0x3f6037f5	0.87585384
18	0x3f596cee	0.8493184
19	0x3f50ba84	0.815346
20	0x3f5cdcb1	0.8627425
21	0x3f5b4f52	0.8566791
22	0x3f52887f	0.82239527
23	0x3f53e70e	0.82774436
24	0x3f49336d	0.78594095
25	0x3f5ce3c8	0.86285067
26	0x3f716ba5	0.9430488
27	0x3f5b028e	0.85550773
28	0x3f6542e0	0.8955517
29	0x3f7c5e66	0.9858154
30	0x3f492b4a	0.7858168
31	0x3f56de6b	0.8393313
32	0x3f464e36	0.7746309
33	0x3f4caca0	0.79950905
34	0x3f6abf9b	0.91698617
35	0x3f539f4a	0.8266493
36	0x3f60d010	0.8781748
37	0x3f4070ed	0.7517231
38	0x3f483a7b	0.78214234
39	0x3f568cd2	0.83808625
40	0x3f585b68	0.84514475
41	0x3f5effa1	0.8710881
42	0x3f418a9d	0.7560213
43	0x3f533aca	0.8251158
44	0x3f5601cf	0.8359651
45	0x3f53c52e	0.8272275
46	0x3f60d267	0.8782105
47	0x3f571252	0.8401233
48	0x3f56907e	0.8381423
49	0x3f5de339	0.8667484
50	0x3f4b04f9	0.7930446
51	0x3f5968fa	0.84925807
52	0x3f48f016	0.7849134
53	0x3f66d0dc	0.90162444
54	0x3f613077	0.87964576
55	0x3f4fd072	0.8117744
56	0x3f440ba0	0.7658024
57	0x3f56940f	0.8381967
58	0x3f5dd17e	0.86647785
59	0x3f496bcc	0.7868011
60	0x3f55e8df	0.8355846
61	0x3f49e047	0.78857845
62	0x3f4d2940	0.8014107
63	0x3f455e9c	0.7709749

baseModel.1.bias f4 [64]
0	0xbcfbc8e0	-0.030735433
1	0xbc002189	-0.007820495
2	0xbcdb9173	-0.026802754
3	0x3c8f8752	0.01752058
4	0xbc9beadd	-0.01903289
5	0x3e0dce79	0.13848294
6	0xbd974954	-0.07387033
7	0x3d4e7773	0.050406884
8	0xbd0d031b	-0.03442679
9	0xbd6938f4	-0.05693908
10	0x3dee2bfd	0.11629484
11	0xbd605ff2	-0.054779
12	0xbd856b31	-0.06514586
13	0xbd5c4390	-0.05377537
14	0xbdd2cd6a	-0.10293086
15	0xbe0c4038	-0.13696373
16	0xbcd757f6	-0.02628706
17	0xbdc17134	-0.0944542
18	0xbd7c6fd5	-0.06163009
19	0xbd8b6a27	-0.06807356
20	0xbddc94a4	-0.107705384
21	0xbd8801f8	-0.066410005
22	0xbe1f7f3a	-0.15575877
23	0xbe04808c	-0.12939662
24	0xbb0eb955	-0.0021777947
25	0xbe4de711	-0.20107676
26	0xbd44b3d7	-0.04802307
27	0xbd3c3557	-0.045949306
28	0xbdfab948	-0.12242371
29	0xbd54fcf2	-0.05199904
30	0xbe1739e3	-0.14768176
31	0xbda2d21e	-0.07950233
32	0xbdf997c1	-0.12187148
33	0xbdd89a8d	-0.10576353
34	0xbd3be05d	-0.045868266
35	0x3dabe9c2	0.08394195
36	0xbdff0523	-0.124521516
37	0xbc7193cb	-0.014744709
38	0x3d4f2d44	0.050580278
39	0xbe132922	-0.1437116
40	0xbd5643ab	-0.052310627
41	0xbd18774d	-0.03722315
42	0xbd878ee6	-0.066190526
43	0xbd0d15e2	-0.034444697
44	0xbe1a7b50	-0.15086102
45	0xbdd9dc7a	-0.10637756
46	0xbe053948	-0.13010132
47	0x3da43dcd	0.080196
48	0x3bc3c43f	0.005974322
49	0xbdfbccfc	-0.12294957
50	0xbdde5ad2	-0.10857166
51	0xbd7ca360	-0.061679244
52	0xbd4058be	-0.04695963
53	0x3c55cc4a	0.013049195
54	0xbd897c8b	-0.06713208
55	0xbdb0a006	-0.08624272
56	0xbe4f8b95	-0.2026809
57	0xba31480b	-0.00067627494
58	0xbd1d78fb	-0.038445454
59	0xbd5e40b7	-0.054260936
60	0xbd839a11	-0.0642587
61	0xbdb1ae4f	-0.08675825
62	0x3bd9f729	0.0066517782
63	0xbd8741b0	-0.06604326

baseModel.1.running_mean f4 [64]
0	0x38ee505e	0.00011363694
1	0xb9815d41	-0.00024674277
2	0x3a86ca9e	0.0010283773
3	0xb99b16a0	-0.0002958076
4	0xb954f900	-0.00020310655
5	0x39981f0a	0.00029014825
6	0xb99b1783	-0.0002958142
7	0x39e81af6	0.00044270576
8	0x39109699	0.00013789012
9	0xb98cc4c7	-0.0002684949
10	0x3a09014b	0.0005226328
11	0x39d223d8	0.00040081027
12	0xb9bbe18e	-0.0003583547
13	0x3687bcd1	4.0452946e-06
14	0xb86c3604	-5.631709e-05
15	0x3983fc63	0.0002517431
16	0xb8505478	-4.9669732e-05
17	0x391dd073	0.0001505034
18	0xba08d816	-0.00052201876
19	0x37b62239	2.1712027e-05
20	0x3a063451	0.000511949
21	0xb98403dc	-0.00025179877
22	0x39f65f69	0.00046991862
23	0xb8fc65a1	-0.00012035226
24	0x3a0dd164	0.0005409925
25	0x38a8df44	8.052451e-05
26	0xb90d14ab	-0.00013454507
27	0xba722d5a	-0.00092383253
28	0x38c41692	9.350212e-05
29	0xba407add	-0.0007342527
30	0xb826c79b	-3.976338e-05
31	0x39e66480	0.00043943897
32	0x3883af2e	6.2791965e-05
33	0xb9969263	-0.00028719296
34	0xb96d246d	-0.00022615651
35	0x399db72f	0.00030081856
36	0x39c78f38	0.00038062944
37	0xb90b86cf	-0.00013306293
38	0x39307807	0.00016829382
39	0xb9f43cef	-0.00046584706
40	0x39c2d7f1	0.00037163452
41	0xb9d36fc1	-0.0004032832
42	0xb9cebd3c	-0.00039432372
43	0xb9124269	-0.00013948385
44	0x39cbef5f	0.00038897523
45	0x38d2f801	0.00010059775
46	0x39f97dd7	0.0004758674
47	0x38ed39cd	0.00011311807
48	0x398d8216	0.00026990537
49	0x39bf0218	0.0003643192
50	0xb9cfda3b	-0.0003964471
51	0xb9b9bcfb	-0.0003542675
52	0xb996992c	-0.0002872435
53	0x39f00b64	0.00045784854
54	0xba1c67bf	-0.0005966387
55	0xb9b1df05	-0.00033926233
56	0x377e44dc	1.5155612e-05
57	0xb7800037	-1.525889e-05
58	0xb941791e	-0.00018451034
59	0xb9a1c429	-0.00030854464
60	0x39f94924	0.00047547475
61	0x38dab5f7	0.00010428944
62	0x3969de39	0.00022303396
63	0xba0fec45	-0.0005490224

baseModel.1.running_var f4 [64]
0	0x3710bab5	8.62654e-06
1	0x375783d4	1.2845692e-05
2	0x371e4153	9.432743e-06
3	0x37c6a84a	2.3681805e-05
4	0x3724342d	9.78731e-06
5	0x36a14e8a	4.807317e-06
6	0x3710f8a8	8.640964e-06
7	0x36f70f76	7.3629735e-06
8	0x37193527	9.131886e-06
9	0x378e1e2c	1.6941769e-05
10	0x3686cfed	4.017717e-06
11	0x36b2390d	5.311455e-06
12	0x370cd0f9	8.3933055e-06
13	0x3782c451	1.5588625e-05
14	0x37a93b87	2.017409e-05
15	0x36f1b580	7.203489e-06
16	0x37863bcf	1.6001895e-05
17	0x36d88939	6.4532765e-06
18	0x376a8a0a	1.3979627e-05
19	0x37465599	1.1821649e-05
20	0x374cd39e	1.22086185e-05
21	0x374964d2	1.2004008e-05
22	0x374acfc6	1.2088514e-05
23	0x376bda18	1.405787e-05
24	0x36d76c8f	6.420137e-06
25	0x37b0f3b8	2.1094325e-05
26	0x379e9a0d	1.8906803e-05
27	0x36e552ef	6.8343866e-06
28	0x37ac1744	2.0514832e-05
29	0x37127085	8.728476e-06
30	0x37227f0f	9.685536e-06
31	0x3773fbcb	1.4542554e-05
32	0x37206426	9.560061e-06
33	0x374ffb3c	1.23966565e-05
34	0x36a6b901	4.968723e-06
35	0x3752b33b	1.2558706e-05
36	0x3770cacf	1.4352335e-05
37	0x37293d60	1.0087475e-05
38	0x37961c00	1.7894432e-05
39	0x370f3bb6	8.537367e-06
40	0x366b3b77	3.5052342e-06
41	0x371832bc	9.0717185e-06
42	0x373e8e88	1.1358068e-05
43	0x370623a6	7.995322e-06
44	0x3733b1b9	1.0710611e-05
45	0x3770323a	1.4316809e-05
46	0x369e632b	4.7203116e-06
47	0x361a339e	2.2977833e-06
48	0x36865793	4.003706e-06
49	0x378a8d87	1.6516786e-05
50	0x372ca843	1.0291175e-05
51	0x37a9e7ba	2.0254276e-05
52	0x37228402	9.686688e-06
53	0x3664b408	3.407944e-06
54	0x37270cef	9.956987e-06
55	0x37000d97	7.632559e-06
56	0x379301af	1.752455e-05
57	0x36c7433e	5.93849e-06
58	0x375a8106	1.3023853e-05
59	0x374cff66	1.2218812e-05
60	0x36e8de73	6.9400353e-06
61	0x37867652	1.6029142e-05
62	0x378bf061	1.6682026e-05
63	0x36f3a568	7.26122e-06

baseModel.4.weight f4 [64, 64, 3]
0	0xbd445d66	-0.047940634
1	0x3d9852ab	0.07437643
2	0x3cf0d4de	0.029398378
3	0x3c24f402	0.010067942
4	0xbd841c5f	-0.06450724
5	0xbd31cc31	-0.043407623
6	0x3da8e6df	0.0824716
7	0x3cff0d75	0.031134347
8	0xbb80cf99	-0.0039309976
9	0x3d0b3b5b	0.033992153
10	0xbb301bbd	-0.0026872002
11	0xbc50e004	-0.012748722
12	0xbc46f4b1	-0.0121433
13	0xbd21a2cb	-0.039461892
14	0xbcc2595c	-0.02372425
15	0xbc272beb	-0.010203342
16	0xbd42aad3	-0.047526192
17	0xbcbcf9bb	-0.0230683
18	0x3d5aca87	0.0534158
19	0xbc87da80	-0.016583681
20	0xbc68f9bf	-0.0142197
21	0x3c60c535	0.013718893
22	0x3caf39a4	0.02138979
23	0x3d17d0d7	0.0370644
24	0x3c297933	0.010343838
25	0x3c0c281e	0.008554487
26	0xbd72fd64	-0.059323683
27	0xbcef9ebe	-0.029250499
28	0x3d13bb4e	0.0360673
29	0x3d5283fd	0.051395405
30	0x3d5c301a	0.05375681
31	0xbd86d7e6	-0.06584148
32	0xbc8b4a28	-0.017003134
33	0x3bba628e	0.005688018
34	0xbd8043e9	-0.06262953
35	0xbd84c022	-0.06481959
36	0xbc53ccf6	-0.012927284
37	0x3ce493c8	0.027902499
38	0x3d101996	0.03518065
39	0xbbccf948	-0.0062553026
40	0x3d345d2a	0.04403416
41	0x3d300dea	0.04298202
42	0xbd25a7b4	-0.040443137
43	0x3c7c4726	0.0153978225
44	0xbcf3ab37	-0.029744728
45	0xbc8b4eed	-0.017005408
46	0x3d77008e	0.060303263
47	0x3d018e8b	0.03163008
48	0xbc89ebee	-0.016836133
49	0x3c0ac749	0.008470365
50	0x3d8f265f	0.069897406
51	0xbb5a03af	-0.0033266356
52	0x3d108045	0.035278577
53	0xbb427872	-0.0029673842
54	0x3b84fcd7	0.004058461
55	0xbc491fea	-0.012275675
56	0x3d27f404	0.041004196
57	0xbd491546	-0.049092554
58	0x3c9eae8b	0.019370338
59	0xbcd2fa36	-0.025754075
60	0x3cc0c77f	0.023532627
61	0xbd181e4a	-0.03713826
62	0x3d552dce	0.052045636
63	0x3d1f1da0	0.038846612
64	0xbbc9c0d0	-0.0061570182
65	0xbd105140	-0.035233736
66	0x3d211a57	0.03933176
67	0x3d86cad7	0.065816574
68	0xbcffb08a	-0.03121211
69	0x3d2e1a45	0.04250552
70	0x3c99db41	0.018781306
71	0x3ce6a178	0.028153166
72	0xbcbeb8a0	-0.023281395
73	0x3c84a2ea	0.016190965
74	0xbb34daa9	-0.0027596152
75	0xbe156e70	-0.1459291
76	0xbd97c7d6	-0.074111626
77	0x3d4533d8	0.048145145
78	0xbd44e2a8	-0.04806772
79	0x3b86310c	0.0040952023
80	0x3d06fcac	0.03295581
81	0x3c79d831	0.015249298
82	0x39e9ad3d	0.00044570296
83	0xbdc436d4	-0.0958077
84	0xbd5906c5	-0.05298497
85	0x3d48c651	0.049017254
86	0xbc021a49	-0.007940837
87	0xbd670af8	-0.056406945
88	0x3bcf3c83	0.006324352
89	0x3d92d8a8	0.0717023
90	0x3cc3ecfe	0.023916718
91	0x3d004693	0.031317305
92	0xbc7eaf59	-0.015544736
93	0x3c2cbf14	0.010543603
94	0x3c54f474	0.012997735
95	0x3c48cdd5	0.012256105
96	0x3b5169fc	0.003195404
97	0x3c3d7fef	0.011566146
98	0x3c420a15	0.011843224
99	0x3d023aae	0.031794243
100	0x3d1088c2	0.035286672
101	0x3c24ff3e	0.01007062
102	0x3b4baefd	0.0031079643
103	0x3c9b67c1	0.018970372
104	0xbda455e7	-0.08024197
105	0xbca3b635	-0.019984344
106	0x3d40bfff	0.0470581
107	0x3cf39acb	0.029736897
108	0x3c8d941f	0.017282544
109	0x3c6c0110	0.01440455
110	0x3d1bd631	0.038046066
111	0x3c263473	0.010144341
112	0xbcb44dea	-0.022009809
113	0xbcc3a7b0	-0.02388367
114	0x3d397512	0.045277663
115	0x3d123728	0.035697132
116	0x3cc9752d	0.024592007
117	0xbde55338	-0.11197513
118	0xbd8bc4a0	-0.068246126
119	0xbc989d23	-0.018629616
120	0xbd2c0cd8	-0.042004436
121	0xbce3d623	-0.02781207
122	0x3c4a1e5c	0.01233634
123	0xbd2bf9c6	-0.04198625
124	0xbd494159	-0.049134586
125	0xbd91029a	-0.07080574
126	0xbbcf95e2	-0.006335006
127	0x3ca89c1c	0.020582251
128	0x3cb7a74f	0.022418646
129	0x3b3a351d	0.0028413006
130	0xbaec6ae5	-0.0018037228
131	0x3b8b060f	0.0042426656
132	0x3d7da7f8	0.061927766
133	0x3c8f83e8	0.017518952
134	0xbc42dcd8	-0.011893474
135	0x3b89c515	0.004204402
136	0x3cddcbff	0.027074812
137	0x3d570107	0.052491214
138	0xbe1323a3	-0.14369063
139	0xbd1a668f	-0.037695464
140	0xbc8ce1d9	-0.017197536
141	0xb9156eba	-0.00014250996
142	0xbdd3b253	-0.10336747
143	0xbd33321f	-0.04374897
144	0x3c39766b	0.011319737
145	0xbbaad59b	-0.005213452
146	0xbd619a5b	-0.055078845
147	0xbd3ca7a2	-0.046058305
148	0x3ca6e68d	0.020373607
149	0x3d76c84e	0.06024962
150	0x3c76aa09	0.015055188
151	0xbd902393	-0.07038035
152	0x3cbc06ef	0.022952525
153	0x3c5ff6c8	0.013669677
154	0x3da7d9b9	0.08195824
155	0x3d019f3e	0.031646006
156	0x3d04a2c5	0.03238179
157	0xbd566ffd	-0.052352894
158	0xbc8e4267	-0.017365647
159	0x3bcd73f1	0.006269925
160	0x3cf4bab2	0.02987418
161	0xbd4aeefe	-0.049544327
162	0xbd32f52a	-0.043690838
163	0xbc54ad05	-0.012980704
164	0xbd9874f9	-0.07444186
165	0xbdc2f246	-0.09518866
166	0xbd437e8c	-0.047728106
167	0x3cf852a4	0.030312844
168	0xbe02209d	-0.12707753
169	0xbd4ab01c	-0.049484357
170	0xbc3b3ff8	-0.011428826
171	0x3ac5713a	0.0015063651
172	0xbd356cef	-0.04429334
173	0xbd75911e	-0.059952848
174	0x3cb77ce8	0.022398427
175	0xbd06e459	-0.032932613
176	0x3d8f515e	0.069979414
177	0x3d20b99e	0.03923952
178	0x3aa16173	0.0012312367
179	0x3c449139	0.011997514
180	0x3b99203f	0.0046730335
181	0xbd2c5ded	-0.042081762
182	0xbdb1b883	-0.08677771
183	0x3d2bde0f	0.04195982
184	0x3ca14c8c	0.01968982
185	0x3c5569e4	0.013025735
186	0xbbfa73d6	-0.0076432033
187	0xbbc1824f	-0.0059054266
188	0x3c6f14e6	0.014592385
189	0xbd4adff8	-0.04953
190	0xbd0bd8dc	-0.03414236
191	0x3cea001f	0.02856451
192	0x3bb6c397	0.0055775153
193	0xbc1080c7	-0.008819765
194	0x3ca9d0a4	0.02072937
195	0xbcf1e7a5	-0.029529402
196	0x3c4e0ba7	0.01257602
197	0xbc0f26fd	-0.008737323
198	0xbc3fa820	-0.011697799
199	0x3d6112b3	0.054949474
200	0x3c6ae84b	0.0143376095
201	0xbd97d32a	-0.07413323
202	0xbde758ce	-0.11296235
203	0xbd48e453	-0.049045872
204	0x3d65e1f2	0.05612368
205	0xbdbe6a1b	-0.09297582
206	0x3bda4109	0.006660585
207	0xbd4916e2	-0.04909409
208	0x3ba0a7ac	0.0049028005
209	0xbd3d9b55	-0.046290714
210	0xbd390ea0	-0.045179963
211	0x3c3a9b6e	0.011389596
212	0x3c121809	0.008916863
213	0x3c213aa7	0.009840644
214	0x3b3d4b66	0.0028884052
215	0x3aeeb8ab	0.0018212994
216	0xbce24d75	-0.027624825
217	0x3d259e96	0.040434442
218	0xbd56cc7d	-0.05244111
219	0x3d4a8e54	0.04945214
220	0x3d063da3	0.032773625
221	0x3d98a699	0.07453651
222	0xbce36a54	-0.027760662
223	0xbc09acb9	-0.008402997
224	0xbd4dc87b	-0.05024002
225	0x3d63645b	0.05551563
226	0xbc5c77c0	-0.013456285
227	0x3cfc9b96	0.030835908
228	0x39e8e001	0.00044417384
229	0xbcf44d5a	-0.02982204
230	0x3d3d0388	0.046145946
231	0xbdbe86c0	-0.09303045
232	0xbd65e250	-0.05612403
233	0xbc28ff4f	-0.010314777
234	0xbbd35b2e	-0.0064500785
235	0xbd14d932	-0.036339946
236	0x3dc19633	0.09452476
237	0x3d460c05	0.048351306
238	0xbc2e6543	-0.01064426
239	0xbd044322	-0.032290585
240	0xbb076b09	-0.0020663163
241	0xbd9f85da	-0.07789202
242	0x3d0d3b2a	0.03448025
243	0x3d8f3ddd	0.06994221
244	0xbd3f8a06	-0.04676249
245	0x3d54ab37	0.051921096
246	0xbd5af387	-0.053454902
247	0x3d41148a	0.04713873
248	0x3d412b08	0.04716018
249	0xbd2565b9	-0.040380213
250	0xbd0d5411	-0.034504
251	0x3b807407	0.0039200815
252	0x3d24306e	0.04008525
253	0xbc8444df	-0.016146122
254	0xbd198d6f	-0.037488397
255	0x3b789e2c	0.0037936075

baseModel.4.bias f4 [64]
0	0xb83e6196	-4.5390414e-05
1	0x37b36e75	2.1389898e-05
2	0x36fb83b3	7.4957147e-06
3	0x37a59359	1.9738147e-05
4	0x37cb7b7f	2.4256993e-05
5	0x38c178d5	9.225464e-05
6	0x3734db56	1.0779904e-05
7	0x38006cf1	3.0619038e-05
8	0xb7359d69	-1.0825091e-05
9	0x37c25ac4	2.3168868e-05
10	0x37d72248	2.564596e-05
11	0x375b7ff8	1.3083212e-05
12	0xb8230575	-3.886731e-05
13	0x38c98d0d	9.6106996e-05
14	0x386a75b3	5.5899563e-05
15	0xb7889e8a	-1.6286289e-05
16	0xb7d40265	-2.5273484e-05
17	0x36e4eab4	6.8222525e-06
18	0xb68fc86a	-4.2850634e-06
19	0xb8abbf2b	-8.189523e-05
20	0xb6edbca6	-7.085112e-06
21	0xb889bca6	-6.5678076e-05
22	0xb4438e06	-1.8212458e-07
23	0xb629bdb9	-2.5293396e-06
24	0x38e93539	0.00011120219
25	0xb7c003f7	-2.289003e-05
26	0xb839c75d	-4.429311e-05
27	0x370c2e49	8.355427e-06
28	0x375e52c7	1.3251504e-05
29	0x363f7e73	2.853482e-06
30	0xb8507fc5	-4.971006e-05
31	0xb865a670	-5.475286e-05
32	0xb8cdcef8	-9.813713e-05
33	0x3910b832	0.00013801528
34	0x3896c876	7.189896e-05
35	0xb6fcaa88	-7.5300377e-06
36	0xb6ceb0c9	-6.159859e-06
37	0xb7302787	-1.0499621e-05
38	0xb7b0b25e	-2.1063894e-05
39	0x37fa8759	2.9865349e-05
40	0xb78917db	-1.6342781e-05
41	0x37ef57cf	2.853191e-05
42	0x37d0d413	2.4894287e-05
43	0xb8539c66	-5.0451978e-05
44	0xb747924a	-1.1895385e-05
45	0x372a95b3	1.0167644e-05
46	0xb681d844	-3.869676e-06
47	0x37102f9d	8.594155e-06
48	0xb7bab1c6	-2.225571e-05
49	0x38eac166	0.00011194013
50	0xb8325ea5	-4.252665e-05
51	0x373da01c	1.1302556e-05
52	0x38afc010	8.380425e-05
53	0xb83b145a	-4.4603228e-05
54	0x3755a340	1.2733799e-05
55	0xb80e367a	-3.3906173e-05
56	0xb682cc3b	-3.8980775e-06
57	0xb7e49384	-2.724841e-05
58	0x3741e51e	1.1557042e-05
59	0x38760029	5.865112e-05
60	0x363ff309	2.8602683e-06
61	0x37df61b6	2.6629172e-05
62	0x384735f6	4.7495552e-05
63	0xb7e317dd	-2.7071621e-05

baseModel.5.weight f4 [64]
0	0x3f7faae0	0.9987011
1	0x3f61a871	0.88147646
2	0x3f6f20dc	0.93409514
3	0x3f5fb0a4	0.8737891
4	0x3f608b63	0.8771269
5	0x3f76e4ce	0.9644288
6	0x3f683397	0.9070372
7	0x3f6c23c7	0.9224209
8	0x3f5c286e	0.8599919
9	0x3f63d8ef	0.8900289
10	0x3f6df2c2	0.92948544
11	0x3f7147c3	0.94250125
12	0x3f6c5f04	0.9233248
13	0x3f72b273	0.9480354
14	0x3f7d6bc6	0.98992574
15	0x3f6fde51	0.936986
16	0x3f65f5b0	0.89828014
17	0x3f8377dc	1.0270953
18	0x3f5ffb1a	0.87492526
19	0x3f6d9e90	0.9282007
20	0x3f719b49	0.9437757
21	0x3f7ec6dc	0.99522185
22	0x3f631c6f	0.8871526
23	0x3f5c8fb6	0.86156785
24	0x3f86169e	1.0475652
25	0x3f67214a	0.9028517
26	0x3f6fc48b	0.93659276
27	0x3f7eefd1	0.9958468
28	0x3f6ab8c8	0.91688204
29	0x3f699b81	0.91252905
30	0x3f72149f	0.94562715
31	0x3f72e5a2	0.9488164
32	0x3f74f2f2	0.95683205
33	0x3f80f49b	1.0074648
34	0x3f7a300e	0.97729576
35	0x3f743aac	0.95402026
36	0x3f66c0b2	0.9013778
37	0x3f675764	0.9036772
38	0x3f69bbcb	0.91302174
39	0x3f71a886	0.9439777
40	0x3f7440fb	0.9541165
41	0x3f803bb9	1.0018226
42	0x3f6f3a3a	0.9344822
43	0x3f5e5e0c	0.86862254
44	0x3f713302	0.94218457
45	0x3f68bdd5	0.9091466
46	0x3f617cb7	0.88080925
47	0x3f6b4041	0.9189492
48	0x3f65ea58	0.89810705
49	0x3f6e5bf7	0.9310908
50	0x3f75c57e	0.96004474
51	0x3f7f0735	0.9962037
52	0x3f6a1618	0.9143996
53	0x3f6ee894	0.93323636
54	0x3f5a837c	0.8535688
55	0x3f6e51b3	0.93093413
56	0x3f6751e0	0.90359306
57	0x3f70fd2a	0.941363
58	0x3f699628	0.91244745
59	0x3f7009d3	0.9376499
60	0x3f5e143e	0.8674964
61	0x3f5b79d4	0.8573277
62	0x3f62596f	0.88417715
63	0x3f6969ed	0.91177255

baseModel.5.bias f4 [64]
0	0xbdf1437c	-0.1178045
1	0xbca20f5b	-0.019782713
2	0xbddad7f9	-0.10685725
3	0xbdaf862e	-0.085705146
4	0xbddd9668	-0.10819703
5	0xbe45abe5	-0.19303854
6	0xbd1522f5	-0.03641029
7	0xbdcfd31c	-0.10147688
8	0xbd990b17	-0.07472818
9	0xbd0f39f4	-0.034967378
10	0xbda14547	-0.07874542
11	0xbd8ec4de	-0.06971143
12	0xbd9f89e0	-0.077899694
13	0xbd18cc5f	-0.03730428
14	0xbe7b3032	-0.24530104
15	0xbcfd5825	-0.03092582
16	0xbd3c794a	-0.046014108
17	0xbe1527c8	-0.14565957
18	0xbd239b70	-0.03994316
19	0xbddf80b6	-0.109132215
20	0xbd8a02f0	-0.067388415
21	0xbdd12af0	-0.10213268
22	0xbc83f010	-0.016105682
23	0xbdac2c5d	-0.08406899
24	0xbee50e4e	-0.44737476
25	0xbd8d0bde	-0.06887029
26	0xbd47e4b6	-0.0488021
27	0xbe31327b	-0.17304413
28	0xbd4a58bc	-0.04940103
29	0xbdc63f5b	-0.09680053
30	0xbd74d821	-0.05977643
31	0xbd06c066	-0.03289833
32	0xbe11af1f	-0.1422696
33	0xbe69384f	-0.22775386
34	0xbcaf10c5	-0.021370301
35	0xbdb7f568	-0.089823544
36	0xbd8629c0	-0.06550932
37	0xbdbd05b1	-0.09229601
38	0xbd9f933a	-0.07791753
39	0xbd837576	-0.06418888
40	0xbdb23650	-0.087017655
41	0xbcd20ae9	-0.025639968
42	0x3a933f4e	0.0011234076
43	0xbd926ddc	-0.0714986
44	0xbdc65e6b	-0.096859775
45	0x3c8c2533	0.017107582
46	0xbdb64284	-0.088994056
47	0xbccc8351	-0.02496496
48	0x3c066d60	0.008204788
49	0xbe221b73	-0.15830784
50	0xbea7e2d9	-0.3279026
51	0xbe53dcb1	-0.20689656
52	0xba0d39b9	-0.00053873245
53	0xbda5fa38	-0.08104366
54	0x3ccd34e7	0.02504964
55	0xbd5a0dc7	-0.053235795
56	0xbca2d4b2	-0.019876812
57	0xbd9aaa2b	-0.07551988
58	0xbcf5ec71	-0.03001997
59	0xbdddcc9a	-0.1083004
60	0xbd68bc7b	-0.056820374
61	0xbcbf020c	-0.023316406
62	0x3d2bc774	0.04193826
63	0xbd85fed2	-0.06542744

baseModel.5.running_mean f4 [64]
0	0xbe256456	-0.16151556
1	0xbed43775	-0.4144856
2	0xbdfb6187	-0.12274461
3	0xbe6ffd29	-0.23436417
4	0x3f22d6a0	0.6360874
5	0xbe8e9112	-0.27845055
6	0x3cd78f6d	0.026313508
7	0xbd77d700	-0.060507774
8	0xbda15275	-0.078770556
9	0xbddabfef	-0.1068114
10	0xbe18e014	-0.14929229
11	0xbd3d038e	-0.04614597
12	0xbe47a4e7	-0.19496499
13	0xbe0e73ea	-0.13911405
14	0xbdcd2547	-0.10016876
15	0xbe905bae	-0.28194946
16	0xbd639674	-0.055563405
17	0xbe72b2fe	-0.23701093
18	0xbe1a3699	-0.1505989
19	0xbe1115ac	-0.14168423
20	0xbdfe2374	-0.12409106
21	0xbe327fb3	-0.17431526
22	0xbe03cfb0	-0.12872195
23	0xbe05f40f	-0.13081382
24	0xbe84c32d	-0.25930157
25	0xbd9859c3	-0.07438996
26	0xbeb309fc	-0.34968555
27	0xbde177e3	-0.11009195
28	0xbd537941	-0.05162931
29	0xbdd34420	-0.10315728
30	0xbdac7fe2	-0.08422829
31	0xbe81c51f	-0.25345704
32	0xbd245bf7	-0.040126767
33	0xbee330e7	-0.44373247
34	0xbe5f1d44	-0.21788508
35	0xbdaf2133	-0.08551254
36	0xbe3bec24	-0.18351799
37	0xbe3be896	-0.18350443
38	0xbe54f326	-0.20795879
39	0xbd8fecfe	-0.070276245
40	0xbd0633c4	-0.03276421
41	0xbcdfce49	-0.027320044
42	0xbe1c60b0	-0.15271258
43	0xbe669aef	-0.2252004
44	0xbe4143e5	-0.18873556
45	0xbdb3fdce	-0.08788644
46	0xbe5053bc	-0.20344442
47	0xbcdc7b66	-0.02691431
48	0xbe92a050	-0.28637934
49	0xbedcde16	-0.43138188
50	0xbdd397e9	-0.10331709
51	0x3ed147db	0.40875134
52	0xbf0a499b	-0.54018563
53	0xbd54ab81	-0.05192137
54	0x3d5c6856	0.05381044
55	0xbdf08071	-0.11743248
56	0xbe1b473e	-0.15163895
57	0xbdf9d40d	-0.121986486
58	0xbe6c04a4	-0.23048645
59	0xbe49d598	-0.19710386
60	0xba16d069	-0.00057531014
61	0xbdec8e4b	-0.11550578
62	0xbef1ebdb	-0.47250256
63	0xbd88dc9c	-0.06682703

baseModel.5.running_var f4 [64]
0	0x3d0d4e98	0.03449878
1	0x3d288ff1	0.0411529
2	0x3d053fba	0.032531478
3	0x3d27327c	0.04081963
4	0x3d77adb5	0.060468394
5	0x3d117936	0.035515986
6	0x3d7b3270	0.061327398
7	0x3d0dedc9	0.034650598
8	0x3d6ebb92	0.05828435
9	0x3d4b45e7	0.04962721
10	0x3d3df278	0.046373814
11	0x3dbcad4a	0.0921274
12	0x3d6a0688	0.057135135
13	0x3cf98770	0.03046009
14	0x3d2dda85	0.042444725
15	0x3d394d5e	0.0452398
16	0x3ca45f17	0.020064874
17	0x3d404106	0.04693701
18	0x3d1c4ad0	0.038157284
19	0x3caada6b	0.020856103
20	0x3d63ecff	0.05564594
21	0x3ce3aa42	0.027791146
22	0x3ce9c6b6	0.028537136
23	0x3d604e75	0.054762322
24	0x3d6fe177	0.05856463
25	0x3d986327	0.07440787
26	0x3d68b3e1	0.05681217
27	0x3cfc94d9	0.030832695
28	0x3cc4bd57	0.024016066
29	0x3d898523	0.06714847
30	0x3cfaaff8	0.030601487
31	0x3d1013b1	0.03517503
32	0x3d42f0ce	0.04759293
33	0x3d675f3d	0.05648731
34	0x3ca806c3	0.020511037
35	0x3d264635	0.0405943
36	0x3d2d02a2	0.04223884
37	0x3d7036c8	0.058645993
38	0x3cecfafc	0.028928272
39	0x3d3ffaba	0.04686997
40	0x3df3c239	0.119022794
41	0x3d6581f8	0.05603215
42	0x3d2fad09	0.04288963
43	0x3d316ff4	0.043319657
44	0x3d0dc3e5	0.034610648
45	0x3cfaeacb	0.030629536
46	0x3d3dd923	0.046349656
47	0x3d1f09dd	0.038827766
48	0x3d5a2d7e	0.05326604
49	0x3d297097	0.04136714
50	0x3d429fa5	0.04751553
51	0x3db52ddc	0.088466376
52	0x3d87b284	0.06625846
53	0x3dd39696	0.10331456
54	0x3cc513af	0.024057237
55	0x3ddaf7ae	0.106917724
56	0x3d23d698	0.039999574
57	0x3dcef5a7	0.10105448
58	0x3d8cce1d	0.068752505
59	0x3d299151	0.04139835
60	0x3d1859a9	0.03719488
61	0x3d108382	0.035281666
62	0x3d019226	0.03163352
63	0x3d89a754	0.067213684

shortBranch.2.weight f4 [64, 1024]
0	0x3c0c5660	0.008565515
1	0xbc1adaba	-0.009451563
2	0x3b991bce	0.004672504
3	0x3af26551	0.0018493329
4	0x3b094525	0.0020945754
5	0x3c3986bc	0.011323627
6	0xbbb896b1	-0.005633198
7	0x3c63311a	0.013866687
8	0x3ada1781	0.0016639085
9	0x3b3bc8d7	0.0028653645
10	0x3c4c49ff	0.012468814
11	0x3be6dd50	0.0070454255
12	0x3be0d464	0.0068612564
13	0xbc4e2921	-0.012583048
14	0xbbcbc54c	-0.006218588
15	0xbc12c451	-0.008957938
16	0xbb9bc8ef	-0.0047541778
17	0xbc6ea079	-0.014564627
18	0xbc7424b1	-0.014901326
19	0xbc3521d2	-0.011055427
20	0xbca2978d	-0.019847656
21	0xbc80dc48	-0.015730038
22	0x3ba27250	0.004957475
23	0xba2acc9a	-0.00065154734
24	0x3b03031e	0.0019990872
25	0xbc8e8622	-0.017397944
26	0xbbc5b97f	-0.0060340757
27	0xbcad424c	-0.021149777
28	0x3a9ac442	0.0011807757
29	0xbc9be1a3	-0.01902849
30	0xbc9bbc5c	-0.019010715
31	0xbc45caa4	-0.012072239
32	0xbc95ea8d	-0.01830032
33	0xbc7ec0b4	-0.015548874
34	0xbcb18b4a	-0.021672864
35	0xbc28372e	-0.010267062
36	0xbc1160e9	-0.008873203
37	0xbc90c69f	-0.017672835
38	0xbcabd92e	-0.020977583
39	0xbc5cc59c	-0.013474848
40	0xbc4b5120	-0.012409478
41	0x3a1dec17	0.0006024255
42	0xbbcdc106	-0.0062791137
43	0x3c1866b1	0.009301827
44	0xbb7c4f9b	-0.0038499597
45	0xbba7d318	-0.0051216
46	0xbce17b3c	-0.027524583
47	0xbbe3ce0c	-0.006952053
48	0x3c980316	0.018556159
49	0x3cbaaa60	0.02278632
50	0x3c03420c	0.008011352
51	0x3c6474e8	0.013943888
52	0xba0481ba	-0.0005054731
53	0x3c52def6	0.012870541
54	0x3cadd6aa	0.021220524
55	0xbb9d076c	-0.0047921445
56	0x3b13399b	0.0022464755
57	0x3bdb0bd4	0.0066847596
58	0x3cae6a22	0.021290842
59	0xbb3ea7b1	-0.002909165
60	0x3c0178bc	0.0079023205
61	0x3d06d16b	0.03291456
62	0x3ca1590d	0.019695783
63	0x3c033155	0.008007367
64	0xbbbbcd97	-0.0057312953
65	0xbccfd9a5	-0.025372336
66	0xbbaac04c	-0.005210912
67	0xbc5e1139	-0.013553911
68	0xba0a43ea	-0.0005274402
69	0x3c3a0f77	0.011356226
70	0x3af59438	0.0018736189
71	0x3b839f92	0.004016825
72	0xbb354454	-0.0027659135
73	0x3c1caea6	0.009563124
74	0x3c695ae0	0.014242858
75	0x3ad5e8f1	0.0016320032
76	0x3c019fab	0.007911603
77	0x3b51f156	0.0032034717
78	0x3b0c41a4	0.002140143
79	0xbc7a0c51	-0.0152617255
80	0x3d01c7cb	0.031684678
81	0x3d0c45c4	0.03424622
82	0x3d1afa1b	0.037836175
83	0x3c71008f	0.014709606
84	0x3cd2fa5a	0.025754143
85	0x3cb24ac4	0.021764167
86	0x3cadb885	0.02120615
87	0x3ccd126e	0.025033202
88	0xb9df1761	-0.00042551293
89	0x3b729a53	0.0037018254
90	0x3cca01bf	0.024659036
91	0x3cb5715b	0.022148779
92	0x3d07b02f	0.033127006
93	0x3c19640c	0.009362232
94	0x3cf9bbbb	0.030485025
95	0xbbdf8046	-0.0068207113
96	0x3d48553e	0.04890942
97	0x3d2295dd	0.039693702
98	0x3cff88ee	0.031193223
99	0x3ccaefff	0.024772642
100	0x3cf4e5ab	0.02989467
101	0x3cd828a5	0.026386568
102	0x3cc396df	0.023875652
103	0x3c932891	0.01796368
104	0x3ca97982	0.020687822
105	0x3cb6ca37	0.02231322
106	0x3d310d00	0.04322529
107	0x3d2ae972	0.041726537
108	0x3d332dba	0.04374478
109	0x3cd54016	0.026031535
110	0x3ca2fa17	0.019894643
111	0x3d1ad46e	0.037800245
112	0xbbc8ae57	-0.0061242986
113	0x3b2fec10	0.0026843585
114	0xbb898df6	-0.0041978313
115	0xbc456680	-0.012048364
116	0xbc5e20fe	-0.013557671
117	0xbbdbd187	-0.006708327
118	0xbbaa4656	-0.005196373
119	0x3b5fb1aa	0.0034132996
120	0xbab5e7fc	-0.0013878341
121	0xbb51fcc9	-0.003204154
122	0xbb5dc401	-0.0033838751
123	0xbc5f76dd	-0.013639179
124	0xbc313d5a	-0.01081785
125	0xbb789999	-0.0037933348
126	0xbbdd4254	-0.0067522917
127	0x3ad41fa6	0.0016183748
128	0x3ba41c82	0.005008281
129	0x3c31ffbe	0.010864196
130	0x3d179aff	0.03701305
131	0x3c430087	0.011901981
132	0x3c1e3151	0.009655313
133	0x3cb6f2a8	0.022332504
134	0x3c263c29	0.010146179
135	0x3c9f3ce0	0.019438207
136	0x3c475499	0.012166166
137	0x3cc38c23	0.023870533
138	0x3c6278f7	0.013822786
139	0x3cf20efe	0.029548164
140	0x3d14b024	0.036300793
141	0x3c9b72c3	0.018975621
142	0x3cb61c41	0.02223027
143	0x3c938a7e	0.018010374
144	0xbad3d328	-0.0016160952
145	0xbb854d12	-0.0040680254
146	0x3c107835	0.008817722
147	0xbc6d5c8c	-0.014487397
148	0xbb29789a	-0.0025859238
149	0x3b79ba3a	0.0038105384
150	0xbc3afc82	-0.011412742
151	0x3c8a9bcd	0.016919995
152	0xbcb20128	-0.021729067
153	0xbacdd2b6	-0.0015703056
154	0xbb831e34	-0.004001403
155	0x3b905e42	0.0044057677
156	0x3b5dab51	0.0033824036
157	0x3ac8db9d	0.0015324239
158	0xb9d8572b	-0.00041263676
159	0x3b3ecd12	0.002911393
160	0xbc893750	-0.016750008
161	0xbcb2e1a4	-0.02183611
162	0x399f8d7b	0.00030432254
163	0xbcff9f0b	-0.031203767
164	0xbc9bfc01	-0.019041063
165	0xbccfccee	-0.025366273
166	0xbcd33d84	-0.025786169
167	0xbcbeaea3	-0.023276633
168	0xbb26d4e5	-0.0025456485
169	0xbc833534	-0.01601658
170	0xbcba0005	-0.022705087
171	0xbd03ae6a	-0.032148756
172	0xbc40b780	-0.0117625
173	0xbcdb2a14	-0.026753463
174	0xbc431294	-0.011906285
175	0xbd0b46d2	-0.034003086
176	0x3b03cdb5	0.0020111625
177	0x3bab7068	0.0052319057
178	0xbc5536dd	-0.013013569
179	0x3c3c4d67	0.0114930635
180	0x3c29d7ba	0.010366375
181	0x3c82697a	0.015919436
182	0x3ca0a2cd	0.01960888
183	0xbc4dbf96	-0.012557885
184	0xbbcb8fd5	-0.0062122145
185	0x3bd700bb	0.0065613664
186	0x3cc53178	0.02407144
187	0x3bf212d5	0.007387499
188	0xbc85bc6e	-0.016325202
189	0x3cc8f96a	0.024532992
190	0x3c177dee	0.009246333
191	0x3c761ce6	0.015021538
192	0x3d031d4c	0.03201036
193	0x3d0e930c	0.034808204
194	0x3c17e656	0.009271225
195	0x3d00fbce	0.03149014
196	0x3d4ac478	0.049503773
197	0x3cf27c4f	0.02960029
198	0x3c4038be	0.011732278
199	0x3caf1b41	0.0213753
200	0x3c85e57e	0.016344782
201	0x3c9b658d	0.018969322
202	0x3c22ca30	0.009935901
203	0x3d34d51f	0.04414856
204	0x3d217825	0.03942122
205	0x3d06acc0	0.03287959
206	0x3d41bc08	0.04729846
207	0x3d140df9	0.036146138
208	0xbc4de6b7	-0.012567214
209	0xbcd547f3	-0.026035285
210	0xbcc0ba3f	-0.023526309
211	0xbccbf283	-0.024895912
212	0xbd055b9b	-0.032558065
213	0xbcc486f3	-0.02399013
214	0xbc6d6d77	-0.0144914305
215	0xbcfcba7c	-0.030850641
216	0xbc9cc560	-0.019137084
217	0xbbccc95e	-0.006249591
218	0xbd0a1cff	-0.03371906
219	0xbcb9421a	-0.022614527
220	0xbcd03e60	-0.025420368
221	0xbce7d03b	-0.028297534
222	0xbcf1d247	-0.029519213
223	0xbd0927e5	-0.033485312
224	0xbd593833	-0.05303211
225	0xbd236db4	-0.039899543
226	0xbcc9ade7	-0.024619056
227	0xbd2e94af	-0.042622264
228	0xbd4d50d5	-0.050125916
229	0xbd214e60	-0.039381385
230	0xbd032892	-0.032021113
231	0xbcf60bfb	-0.03003501
232	0xbd37a302	-0.04483319
233	0xbcf48b7f	-0.029851673
234	0xbd397e6a	-0.045286573
235	0xbd011f57	-0.03152403
236	0xbd2ba859	-0.041908596
237	0xbd1c7fb7	-0.038207736
238	0xbd1603c1	-0.036624674
239	0xbc54f168	-0.012997009
240	0xbc1715a4	-0.009221468
241	0x3b8be188	0.004268829
242	0x3c573bb9	0.013136798
243	0x3c225b4b	0.009909461
244	0x3c790447	0.015198774
245	0x3c08f42d	0.008358997
246	0x3c3b0e1b	0.011416937
247	0xbb94562b	-0.0045268736
248	0x3c7cc27f	0.015427231
249	0x3c17233b	0.009224708
250	0xbbb5d6aa	-0.0055492716
251	0xbbfdf220	-0.007749811
252	0x3af0d9c2	0.0018375444
253	0x3c6a6e24	0.014308486
254	0x3b984eb2	0.004648053
255	0xbc4d0ac7	-0.012514777

shortBranch.2.bias f4 [64]
0	0xbb780924	-0.0037847245
1	0xbd5cb787	-0.053885963
2	0x3c7f3b00	0.015578032
3	0x3d09b94d	0.033623982
4	0x3d22500a	0.039627112
5	0xbd306287	-0.043062713
6	0x3d46f7a6	0.04857602
7	0x3cec4dee	0.028845754
8	0xbd1fc71b	-0.03900824
9	0x3c97ec94	0.018545426
10	0x3d4068c2	0.046974905
11	0x3c9b4306	0.018952858
12	0xbca103aa	-0.019655067
13	0x3c4242cf	0.011856749
14	0x3c8b597b	0.017010441
15	0xbc8e2842	-0.01735318
16	0xbd26f0c1	-0.040756945
17	0xbcc8113a	-0.024422277
18	0xbd178581	-0.036992554
19	0x3d1e820a	0.038698234
20	0xbd339111	-0.043839518
21	0xbd838bb4	-0.06423131
22	0xbd2ed3dc	-0.042682514
23	0xbc0e7a65	-0.008696173
24	0x3c6d498e	0.014482869
25	0xbd1f97f6	-0.03896328
26	0xbd06b978	-0.03289172
27	0xbcf80208	-0.030274406
28	0xbbc08411	-0.0058751185
29	0xbd147fe6	-0.036254786
30	0x3d1b4896	0.03791102
31	0x3d54c868	0.051948935
32	0xbbe56bad	-0.0070013613
33	0x3d867756	0.0656573
34	0x3c18a912	0.009317653
35	0xbba2805e	-0.00495915
36	0xbd4acd37	-0.049512114
37	0xbc993915	-0.018703977
38	0xbd28a671	-0.041174356
39	0xbd551c92	-0.0520292
40	0xbd0ff43e	-0.035145037
41	0xbc7037e8	-0.014661767
42	0x3d1fae45	0.038984556
43	0x3cb97499	0.022638606
44	0xbcdde855	-0.027088324
45	0xbcd32d6e	-0.025778499
46	0xbd73d1ef	-0.05952638
47	0xbbcaaa6b	-0.006184866
48	0x3cff726d	0.031182492
49	0x3c9a2870	0.01881811
50	0x3ce089bc	0.027409427
51	0xbd70c2c2	-0.058779486
52	0xbc0713a9	-0.008244433
53	0xbd24e226	-0.040254734
54	0x3d22365d	0.039602626
55	0x3c9749e3	0.01846785
56	0xbcafcea9	-0.021460848
57	0xbcd16311	-0.025559934
58	0xbc4f517b	-0.012653704
59	0xbd33db65	-0.043910403
60	0x3d6f1ae8	0.05837527
61	0x3b3b711b	0.0028601352
62	0xbd3e3fda	-0.046447612
63	0x3d6e32e8	0.058154017

shortBranch.4.weight f4 [32, 64]
0	0xbe2e6390	-0.17030168
1	0x38bcebbc	9.0084475e-05
2	0x3e040de5	0.12895925
3	0xbe00f12c	-0.12592
4	0xbe41715b	-0.18890898
5	0x3b24c3fd	0.0025141232
6	0xbd167eb1	-0.036741916
7	0xbcb1f813	-0.021724736
8	0x3dde5b70	0.10857284
9	0xbd59407e	-0.05304002
10	0x3c4512f6	0.012028446
11	0xbd8ade32	-0.06780662
12	0xbcc2bdb1	-0.023772093
13	0x3dbd07bd	0.092299916
14	0xbd03654c	-0.032079026
15	0xbbff6179	-0.007793602
16	0xbbbcc685	-0.00576097
17	0x3c1fe46d	0.009759051
18	0xbc1bf047	-0.009517736
19	0xbb0a6212	-0.0021115583
20	0x3d9573d2	0.072974816
21	0xbc8516fa	-0.016246308
22	0x3e4104c0	0.18849468
23	0x3b9e1c89	0.004825179
24	0x3d16c855	0.036812145
25	0xbbfdcb9e	-0.0077452203
26	0x3cf8aaaa	0.030354816
27	0xbd4cc054	-0.049988106
28	0xbc8734d6	-0.016504686
29	0x3b12e5ce	0.0022414806
30	0x3c67bea5	0.014144574
31	0x3bfacad8	0.0076535754
32	0x3cb841ac	0.022492252
33	0x3d03c1ed	0.032167364
34	0xbbf8e1c6	-0.0075952737
35	0xbdd3e6d4	-0.10346761
36	0x3cf5842c	0.029970251
37	0xbdec9f2b	-0.115537964
38	0xbc642839	-0.013925605
39	0x3d2316b6	0.03981658
40	0xbc3da0dc	-0.011573996
41	0x3dbc124f	0.091831796
42	0x3a4b757c	0.0007761342
43	0xbe1dbe0a	-0.15404525
44	0x3d16b587	0.03679421
45	0x3c236789	0.009973415
46	0xbbad55c4	-0.005289765
47	0xbdb42f32	-0.08798064
48	0xbe496dee	-0.19670841
49	0xbcdb566c	-0.026774608
50	0xbaa0a366	-0.0012255728
51	0x3aa563c6	0.0012618236
52	0x3e3d6e56	0.18499121
53	0x3dd67b1d	0.10472701
54	0xbd1566a8	-0.036474854
55	0x3d3f63b2	0.046725936
56	0x3d93a5d4	0.072093636
57	0x3c54c57c	0.012986537
58	0x3aa31565	0.0012442289
59	0x3c235e3b	0.009971197
60	0x39ab246c	0.00032642798
61	0xbab0ccc0	-0.0013488755
62	0x3d8f327f	0.06992053
63	0xbca23428	-0.01980026
64	0x3cfa15af	0.030527918
65	0xbc159e16	-0.009131929
66	0xbd46315c	-0.048386917
67	0x3e2be5ea	0.16786924
68	0x3daca68d	0.084302045
69	0x3bf9c2ab	0.007622083
70	0xbc4ac40d	-0.012375844
71	0xbc93118c	-0.017952703
72	0xbe2cda89	-0.1688024
73	0xbc0d0049	-0.008606025
74	0xba92627d	-0.0011168268
75	0x3e2f4743	0.17117028
76	0xbc3a23fc	-0.011361118
77	0xbe2af702	-0.16695789
78	0x3b81adee	0.0039575016
79	0xbb6c76d7	-0.0036081576
80	0xbcd34e75	-0.025794247
81	0x3cf367b6	0.02971254
82	0xbc2ed7d0	-0.010671571
83	0x3d466ebe	0.048445456
84	0xbe3ee001	-0.18640138
85	0xbcb418ee	-0.021984544
86	0xbd54d929	-0.051964913
87	0x3c8790d9	0.016548561
88	0x3d0d0ad4	0.034434155
89	0x3c87b862	0.016567413
90	0x3ca00ecc	0.019538306
91	0x3bde231e	0.0067790886
92	0xbc917bcd	-0.017759228
93	0x3c9047a4	0.017612286
94	0x3d18d3c2	0.037311323
95	0x3d43644e	0.04770308
96	0x3cf4c309	0.029878156
97	0x3ca7f675	0.020503262
98	0xbd1920f1	-0.03738493
99	0x3ce9038f	0.02844408
100	0xbde58ebd	-0.11208866
101	0x3ca84e2a	0.020545084
102	0x3c0b3c2a	0.008498231
103	0x3c35a464	0.011086557
104	0x3a9e9130	0.0012097713
105	0xbe432601	-0.19057466
106	0xbc0611fd	-0.008183
107	0x3e00f587	0.12593661
108	0x3d0254e1	0.031819228
109	0xbce65dab	-0.028120836
110	0xbc687b7e	-0.014189599
111	0x3c1c3053	0.009533006
112	0x3d33cea6	0.043898247
113	0xbd552062	-0.052032836
114	0xbd10f7c7	-0.03539255
115	0xbbea123f	-0.0071432884
116	0xbd8e419d	-0.069461085
117	0xbe2cc9b9	-0.16873826
118	0x3a91a212	0.0011110923
119	0x3c93fa67	0.018063737
120	0xbe3617be	-0.17782494
121	0x3ca56105	0.020187864
122	0xbbb8a60e	-0.0056350296
123	0x3c8ec07c	0.017425768
124	0xbc2ce2ee	-0.010552151
125	0xbcff0761	-0.031131448
126	0xbe3b2e49	-0.18279375
127	0xbc8d165a	-0.017222572
128	0x3caebcc6	0.021330249
129	0x3dabbad6	0.083852455
130	0xbca9e870	-0.020740718
131	0xbcf5f4fc	-0.030024044
132	0x3b9333ca	0.0044922577
133	0x3d9f6a18	0.07783908
134	0xbb4d04e0	-0.0031283423
135	0xbd504710	-0.05084902
136	0x3d36d7b1	0.044639293
137	0x3dbfbf03	0.093626045
138	0xbdb90464	-0.090340406
139	0xbd8a71f9	-0.0676002
140	0x3e25eb5b	0.16203062
141	0xbcc5aade	-0.024129327
142	0x3dab2858	0.08357304
143	0x3d9dde2d	0.07708392
144	0x3dfeef1a	0.12447949
145	0xbd147620	-0.036245465
146	0x3e291201	0.16510774
147	0xbe0c405c	-0.13696426
148	0x3d3d521a	0.046220876
149	0x3e3d3728	0.18478072
150	0xbb0633db	-0.0020477686
151	0x3d569f4b	0.052398007
152	0xbdd87bd4	-0.10570493
153	0x3c9812d5	0.018563667
154	0xbd9db95c	-0.0770137
155	0x3d2a23f2	0.041538186
156	0x3de0cef8	0.10976976
157	0x3d68bb14	0.056819037
158	0xbe83a5e2	-0.25712496
159	0xbe180df5	-0.14849074
160	0xbdfb5ecc	-0.122739404
161	0xbe5437c6	-0.20724401
162	0xbcc136ba	-0.023585666
163	0x3d6511ee	0.055925302
164	0x3da81dfa	0.082088426
165	0x3e1b85c5	0.15187748
166	0x3d9a44b2	0.07532634
167	0x3d27944e	0.04091292
168	0x3d4372ad	0.047716785
169	0x3d35ed63	0.044415843
170	0xbdb4ff27	-0.08837729
171	0xbc26d4c1	-0.01018256
172	0xbb7a1c68	-0.0038163904
173	0x3e14e97d	0.14542194
174	0x3dfc5b99	0.12322158
175	0x3d28245f	0.04105031
176	0x3b85ce30	0.0040834174
177	0x3dbf37cc	0.09336814
178	0xbd5300bd	-0.051514376
179	0x3e4a3758	0.19747674
180	0xbc4995e1	-0.0123038
181	0x3d6f3a78	0.05840537
182	0x3c2d8942	0.010591807
183	0xbd98a920	-0.07454133
184	0x3d6f2adc	0.058390483
185	0x3d108e01	0.035291675
186	0x3d646bc1	0.055766825
187	0x3d29e581	0.041478638
188	0xbd12e610	-0.035863936
189	0xbccee68e	-0.025256421
190	0x3d6a940c	0.057270095
191	0xbd8356cc	-0.064130396
192	0x3e00ad96	0.12566218
193	0x3d065826	0.03279891
194	0xbe1fba46	-0.15598401
195	0x3c915db7	0.017744882
196	0x3d12205c	0.03567539
197	0x3c70e4ee	0.014703019
198	0xbbe90e9b	-0.007112337
199	0xbceea20e	-0.029130008
200	0xbcd0ae7c	-0.025473826
201	0x3e010c8a	0.1260244
202	0x3d15ecf3	0.036602926
203	0x3b8c48a4	0.0042811204
204	0x3da8ef6e	0.082487926
205	0xbcc5a47c	-0.024126284
206	0xbcd112c6	-0.025521647
207	0x3dc46873	0.095902346
208	0x3bc24055	0.005928079
209	0xbd5a305f	-0.053268787
210	0x3d0b4a25	0.034006257
211	0xbd92ef2f	-0.07174527
212	0xbcc8667b	-0.024462929
213	0x3d472b41	0.048625235
214	0xbd203481	-0.03911257
215	0xbd7db14a	-0.061936654
216	0x3d182816	0.037147604
217	0xbdc27ed8	-0.0949685
218	0x3c802f56	0.015647572
219	0x3e6226c0	0.22085094
220	0x3e110cc4	0.14165026
221	0xbdb6c62b	-0.08924516
222	0xbd3eb1f5	-0.04655643
223	0xbd57ffe0	-0.052734256
224	0x3dba6dbc	0.091029614
225	0xbbf3b1e4	-0.0074369777
226	0x3d6a466b	0.057196062
227	0x3e2af56b	0.16695182
228	0x3ca1b7d0	0.019740969
229	0x3dab1c78	0.08355039
230	0xbd813da4	-0.06310585
231	0x3c0cd042	0.008594574
232	0x3c867825	0.016414711
233	0xbc91e1fa	-0.01780795
234	0xbcaec477	-0.021333916
235	0x3d24070f	0.040045794
236	0x3c216036	0.009849599
237	0x3d10820c	0.035280272
238	0x3d76d8bd	0.06026529
239	0x3e75d461	0.24006797
240	0x3d7a7669	0.06114808
241	0xbd9c5810	-0.07633984
242	0xbdd26f86	-0.10275178
243	0x3cc6f233	0.024285411
244	0xbd338ccd	-0.04383545
245	0xbce39e58	-0.027785465
246	0xbd199431	-0.037494842
247	0xbe0a4325	-0.13502176
248	0xbbb3778c	-0.0054768976
249	0x3c7fd432	0.015614556
250	0xbd05dc0f	-0.032680567
251	0x3da372b0	0.07980859
252	0xbc97e36b	-0.018541059
253	0x3d92865c	0.07154533
254	0x3b7d8d19	0.0038688837
255	0xbc8d139a	-0.01722126

shortBranch.4.bias f4 [32]
0	0x3d509174	0.050919965
1	0x3d186c80	0.03721285
2	0x3d6a8b7e	0.057261936
3	0xbc82b9e2	-0.015957776
4	0x3d867cb8	0.06566757
5	0x3d27d990	0.04097897
6	0xbd850136	-0.064943716
7	0x3df9ed38	0.12203449
8	0xba519378	-0.0007994692
9	0xbdf785eb	-0.1208609
10	0x3d37309d	0.044724096
11	0xbbcb6410	-0.0062069967
12	0x3d5756bf	0.052572962
13	0xbd76b93b	-0.060235243
14	0xbd391af5	-0.045191724
15	0x3cef4a15	0.02921013
16	0x3db81ffe	0.08990477
17	0xbd36f97f	-0.04467153
18	0xbd3dab12	-0.046305723
19	0xbcebc845	-0.02878202
20	0x3d4d7b8c	0.05016665
21	0x3d5f3033	0.054489326
22	0xbd05b20a	-0.032640494
23	0x3c0604d3	0.008179861
24	0x3d395735	0.045249183
25	0x3c0067df	0.007837265
26	0xbd4524f9	-0.048130963
27	0xbcc4c8e9	-0.024021583
28	0x3d0610fb	0.032731038
29	0x3d988275	0.07446758
30	0x3d83e26a	0.064396694
31	0x3b4744b5	0.0030405943
