Models/best_eeV4_0502_night.pth (torch, 770203 bytes, 48 tensors)

baseModel.0.weight f4 [64, 2, 3]
000000 86 50 82 be c5 6f 77 3e 63 53 b4 3e d7 c7 ba bd
       -0.2545206 0.2416373 0.3521987 -0.09120148
000010 42 41 c2 bc 91 4c 85 be b7 8e b1 3d a2 b8 b2 3b
       -0.023712758 -0.26034978 0.08669799 0.005454139
000020 6d c8 76 3c cc bd 7d 3c af 3a 8c be 50 5b 97 be
       0.015062434 0.015487146 -0.27388522 -0.29561853
000030 27 33 7d be 12 59 e6 3d 1c c3 6f 3e 49 54 7d 3e
       -0.24726544 0.112474576 0.23414272 0.24739183
000040 f0 6f 3e be c5 ab 8a be 86 9d 91 be d2 92 f3 bb
       -0.18597388 -0.27084175 -0.28440493 -0.007433274
000050 ad d3 1a 3d 13 d4 1e be 1e 2f bb 3d e1 58 8e be
       0.037799526 -0.15510587 0.09139846 -0.27802184
000060 eb 98 a5 3c 13 3c 6c 3d 86 a1 20 3c e0 7e 85 3e
       0.020214519 0.05767448 0.009804135 0.2607336
000070 76 6c 7b 3e e0 13 05 bd 58 71 52 3e ff 42 52 be
       0.24553093 -0.032489657 0.2055105 -0.2053337
000080 b4 47 49 3c 35 63 7d be 1f 91 b1 be 23 29 63 be
       0.012285162 -0.24744876 -0.3468103 -0.22183661
000090 2a a7 b0 be a4 36 b2 be f5 2c c3 3d 93 26 2f be
       -0.34502536 -0.34807312 0.09530059 -0.17104559
0000a0 10 cc 7a 3e 92 18 d4 3c 29 dc 77 3c f9 93 1e be
       0.24491906 0.025890622 0.015128174 -0.15486135
0000b0 bb 8d 7a 3e f3 37 53 3d 7f 36 2a bd 1c 79 df 3d
       0.24468128 0.05156703 -0.041555878 0.10911772
0000c0 95 61 d3 bd dd a1 29 3e 3b 9c 09 be d0 3d bf bd
       -0.10321347 0.16565652 -0.13438503 -0.09337962
0000d0 ab 38 06 bc 9d 8a 62 be a9 44 5f 3d 9e 84 82 be
       -0.008192222 -0.2212319 0.05450884 -0.25491804
0000e0 43 1b 58 be 8b 20 18 be 6a 3f aa 3e dd 5e 8c 3e
       -0.2110415 -0.14856164 0.33251506 0.27416125
0000f0 2a c0 82 3e 5d a1 42 3e 3f a2 17 bd 44 5d c8 bd
       0.25537235 0.19006868 -0.037019964 -0.09783414
000100 7b 06 00 3e f1 4c 8f 3e a8 39 75 3e e1 03 aa be
       0.12502472 0.2798839 0.23947775 -0.33206084
000110 f4 8c 89 be 84 f6 23 be b5 67 7b 3d af 1b 80 3b
       -0.2686535 -0.16012007 0.0613782 0.00390955
000120 a5 20 03 3d b2 5d 57 3e 09 89 a8 3e c8 ab 95 3d
       0.032013554 0.21031836 0.3291705 0.07308155
000130 27 68 1b be ea 7e 4a 3e e9 8d a3 bd ba c1 3c be
       -0.1517645 0.19774976 -0.079860516 -0.18433276
000140 cd 41 18 be a5 ea 94 3e 09 d9 a5 be 64 0b 39 be
       -0.14868851 0.2908527 -0.32392147 -0.18070751
000150 d5 27 38 be 6e 05 ba 3d 70 d1 89 3e 04 aa 95 be
       -0.17983945 0.09083067 0.269176 -0.29231274
000160 53 d7 bd bd 95 4a 80 bd b4 e3 f5 bd 28 ab fc bd
       -0.092695855 -0.062642254 -0.120063215 -0.12337333
000170 ff 56 1a bd e9 81 50 be 2e 52 a2 be a3 4f 82 be
       -0.037680622 -0.20362057 -0.31703323 -0.25451383
000180 4e 68 aa 3d 9f fc 1f 3c 71 7b 18 3e 12 15 f5 3d
       0.08320676 0.009764819 0.14890839 0.119669095
000190 8b 13 47 be 67 5c ab 3e 47 5f 99 be 19 51 9b bb
       -0.19441049 0.33468935 -0.29955503 -0.004739892
0001a0 0c e6 3e be 93 7e 82 bc 84 02 b3 be 66 4e 8d 3e
       -0.18642443 -0.015929496 -0.34962857 0.27598876
0001b0 cf e9 c0 3d 2c 0a 2a 3d 21 ca d8 bd d0 85 70 3e
       0.094195955 0.041513607 -0.10585428 0.23488545
0001c0 df 24 26 be a7 93 88 3e 9f 88 4d be 79 2c 7d 3e
       -0.16225003 0.2667515 -0.20071648 0.24723996
0001d0 1a ba 9d 3e 9f 47 11 be 67 b4 ca 3e 4b ff ba 3e
       0.30806047 -0.14187478 0.3959076 0.36522898
0001e0 fe 85 2c 3e 63 30 89 3e 35 7d b4 bb 09 3d b3 bd
       0.16847989 0.2679473 -0.00550809 -0.08751876
0001f0 d0 3a d6 3c 8f 80 b1 bb 78 6a 28 be 2d 9f b3 3e
       0.02615109 -0.0054169367 -0.16446865 0.3508238
000200 51 90 6e 3e 04 46 ec bd 45 fa 9b be 79 90 78 3e
       0.2329724 -0.11536792 -0.30464378 0.24273862
000210 cc 10 f1 bd b5 0b 40 3e 51 b3 a2 3c 22 09 e1 bd
       -0.11770782 0.18754466 0.019860895 -0.1098807
000220 23 14 a7 3c 90 a8 6c 3e 70 2d 82 bd 26 77 0e 3e
       0.020395344 0.23111176 -0.06356323 0.13912639
000230 a3 1c 0b 3e c6 57 75 be 8b e1 af be 67 c7 ea bd
       0.13585143 -0.23959264 -0.34351763 -0.11463814
000240 ce b4 4d 3e a9 ea 84 be 56 fe a2 be 55 4c 97 be
       0.20088503 -0.25960281 -0.31834668 -0.29550424
000250 0d 95 8f be 4a 0c b6 3d 74 db 11 bd db f0 86 bd
       -0.28043404 0.08889063 -0.035609677 -0.06588908
000260 f3 0f 95 bd 40 99 94 be 8c 6f 25 3e 36 58 0f bd
       -0.07278433 -0.2902317 0.16155833 -0.034996234
000270 73 b6 4e 3d 6f bd ba 3d 20 96 9a 3e 80 6c a1 3e
       0.050466966 0.09118163 0.3019266 0.3152809
000280 f9 a7 84 3e 0d a2 54 3e 1f ac 5d bd 4a 29 99 3e
       0.25909403 0.20764942 -0.054119226 0.29914314
000290 46 00 34 3e fa c7 6f 3d 57 d1 01 be d8 2a 9d be
       0.1757823 0.058540322 -0.12677513 -0.3069675
0002a0 54 44 96 3e 63 ab 2b be 4a 8a 8f 3e 88 ba 3c 3d
       0.29349005 -0.16764598 0.28035194 0.046076328
0002b0 76 94 28 bd d4 70 99 bd af 55 6a be 57 b1 7b 3e
       -0.04115721 -0.074922234 -0.22884248 0.24579369
0002c0 8f 01 ac bc a1 0f 78 be 69 7d a2 be 4b f8 55 3e
       -0.020996837 -0.24224712 -0.31736305 0.20895498
0002d0 59 1c 9e be b3 d3 2f bd 3f 04 41 3e 92 56 04 bd
       -0.30881003 -0.0429265 0.18849276 -0.032309122
0002e0 e3 7a e2 bc 88 86 26 3e 5e ce da bc c3 3d 0e be
       -0.027646488 0.16262257 -0.026709732 -0.13890748
0002f0 32 47 79 be d8 27 9e 3e 91 a5 83 3e a1 d9 4d 3e
       -0.24343565 0.30889773 0.25712255 0.2010255
000300 16 b7 92 3e c7 e3 01 3e c2 a6 45 3c 27 75 00 3e
       0.28655308 0.12684546 0.012063684 0.1254469
000310 3b db 76 bd ce 90 a1 be 75 ab ae 3e 81 04 a9 bc
       -0.06026767 -0.3155579 0.34115186 -0.02063203
000320 44 a9 8d be 7e 71 aa bd 29 17 12 bd 64 01 17 3e
       -0.27668202 -0.08322428 -0.03566662 0.14746624
000330 0a 74 9f be b8 ac d0 be 8b 87 a1 be 64 db 68 be
       -0.31143218 -0.40756774 -0.31548724 -0.22739941
000340 d9 33 36 be bc e9 06 be f0 20 47 be 01 d1 c0 be
       -0.17793216 -0.131751 -0.19446158 -0.37659457
000350 4b d7 49 bc 82 1c cb 3d 53 b7 39 bd b4 f0 85 be
       -0.012319396 0.09917547 -0.045340847 -0.26160204
000360 8a d9 13 be f7 c8 a8 be 05 74 9b be d5 a9 90 3d
       -0.14438453 -0.32965824 -0.30361953 0.07063643
000370 48 69 14 bd 9e b3 53 3e 99 9d 34 3d 24 2f 51 3d
       -0.036233217 0.20673987 0.04409561 0.051070347
000380 78 1e 25 bc 36 89 17 3e 8d 2b bf 3e 40 03 89 3e
       -0.010078065 0.14798436 0.37337914 0.26760292
000390 24 da 4b 3e 61 c7 0c bd cd a6 c6 bd 39 9b d9 bd
       0.19907433 -0.03436983 -0.096997835 -0.106253095
0003a0 d5 ce 8f bd bf 42 01 be a4 62 22 3d b4 00 c0 be
       -0.07021872 -0.12623118 0.039644852 -0.37500536
0003b0 26 77 bb bd d5 2f 93 be 23 4e 2b be db b2 4f 3e
       -0.09153585 -0.2874743 -0.16729026 0.20283072
0003c0 3a 20 ff bd e3 ed e0 bd 86 ba 98 3d e2 9b 77 be
       -0.124573186 -0.10982873 0.074574515 -0.24180558
0003d0 27 66 53 be 5b 0d a9 3d d6 b8 90 3e 11 d2 7d 3e
       -0.20644437 0.082545005 0.2826602 0.24787165
0003e0 e8 6f 28 3e b8 c7 13 3e 7d 7b 19 3e 52 24 4b 3e
       0.16448939 0.14431655 0.14988513 0.19838074
0003f0 5a 11 55 be b7 5e 87 3e 36 63 f2 bd fb 69 74 be
       -0.208074 0.2643945 -0.11835329 -0.23868553

baseModel.0.bias f4 [64]
000000 c0 25 91 b9 30 57 80 38 f4 6f fc b9 31 cf 94 b9
       -0.0002768468 6.1197556e-05 -0.00048148597 -0.0002838313
000010 c8 d1 52 39 0b 2d be b7 4e 6d 2b b8 82 bb 10 b7
       0.0002010531 -2.267074e-05 -4.0871375e-05 -8.626726e-06
000020 04 37 25 b8 89 c9 14 b9 88 75 87 b9 eb cb fe 39
       -3.9390303e-05 -0.00014189458 -0.00025836774 0.00048598586
000030 f4 23 6f b9 f4 9c 09 b9 66 44 43 3a 99 09 03 3a
       -0.0002280621 -0.00013123808 0.0007448852 0.00049986836
000040 da d7 fa 38 1e 3a 0c ba b3 1e bc b9 ba 5c 6e b9
       0.000119611344 -0.00053492363 -0.00035881027 -0.00022731992
000050 97 17 f6 39 eb 3d 9e b8 d0 03 9c 38 53 09 35 38
       0.00046938352 -7.54556e-05 7.43937e-05 4.3162447e-05
000060 2c 23 63 b8 49 62 0d ba ba 7c 64 39 59 8d a4 39
       -5.4153774e-05 -0.0005393369 0.00021790239 0.0003138583
000070 9a 14 24 3a e4 18 e6 b8 71 d7 35 3a 24 5d b8 38
       0.00062591734 -0.00010971891 0.00069367053 8.7911525e-05
000080 d7 87 18 b7 98 e5 21 37 33 45 f9 38 fd f4 e1 b9
       -9.091534e-06 9.649804e-06 0.000118861346 -0.00043097875
000090 00 32 8f b9 74 d4 0e 39 32 11 07 3a 3b 29 2d ba
       -0.00027312338 0.0001362132 0.00051524036 -0.000660557
0000a0 a5 1e b4 b7 cf 3d 27 39 af be a1 b9 fa 71 20 ba
       -2.1471942e-05 0.00015949387 -0.00030850383 -0.00061204995
0000b0 af 2e 19 37 bd bf ee b8 fa 17 b2 b9 4d 71 f3 b9
       9.13038e-06 -0.000113844384 -0.0003396867 -0.00046432987
0000c0 4f 0b a6 b8 46 78 9a b8 71 b3 6a ba ab 75 36 38
       -7.917603e-05 -7.365695e-05 -0.00089531305 4.350177e-05
0000d0 01 25 d9 b9 27 55 3b 39 10 07 5f b8 12 95 37 b9
       -0.00041417035 0.00017865431 -5.317392e-05 -0.00017507773
0000e0 2e 83 0f b9 1f c9 95 ba 15 e3 35 38 67 31 f1 b9
       -0.00013686411 -0.0011427737 4.336525e-05 -0.0004600391
0000f0 03 d2 e1 38 a1 ab 9f 37 45 46 26 b9 0f 56 01 ba
       0.00010767954 1.9034198e-05 -0.00015857171 -0.0004933783

baseModel.1.weight f4 [64]
000000 4b 82 39 3f ea ab 40 3f 32 34 38 3f 98 99 3d 3f
       0.72464436 0.7526232 0.71954644 0.7406249
000010 2c b8 5b 3f 83 f7 44 3f 85 14 58 3f ad 12 3d 3f
       0.858279 0.7694017 0.8440631 0.7385662
000020 6e 53 35 3f 71 5a 4e 3f 23 d8 51 3f 1b 49 49 3f
       0.7083043 0.8060675 0.81970423 0.78627175
000030 c0 e7 44 3f 86 cf 47 3f 07 1e 3e 3f 29 b4 63 3f
       0.7691612 0.7805103 0.7426457 0.8894678
000040 2f 3b 36 3f 4b a5 3e 3f e6 e3 45 3f 57 b6 50 3f
       0.71184057 0.7447097 0.7730087 0.8152823
000050 1e a4 4f 3f 19 c3 47 3f 54 ae 3b 3f 2a 49 4b 3f
       0.811098 0.7803207 0.7331288 0.79408514
000060 23 98 43 3f b3 4d 3a 3f 36 ed 50 3f 7b 85 3f 3f
       0.7640402 0.7277481 0.81611955 0.7481305
000070 98 dc 46 3f 23 2e 3b 3f b4 ab 59 3f 6b 50 4f 3f
       0.7768035 0.73117274 0.85027623 0.80982083
000080 49 4e 55 3f 85 68 5f 3f c2 7c 5d 3f 6b c1 57 3f
       0.8332258 0.8726886 0.8651849 0.8427951
000090 5e 75 5a 3f 3d a3 68 3f 1f cb 3b 3f ee 78 42 3f
       0.8533534 0.9087408 0.73356813 0.75965774
0000a0 a3 5f 53 3f 84 62 53 3f 47 e1 3c 3f b9 e5 49 3f
       0.82567805 0.825722 0.73781246 0.78866154
0000b0 6c e9 50 3f 67 3b 3d 3f 9e 3f 42 3f bd 4f 36 3f
       0.81606174 0.73918766 0.7587832 0.7121542
0000c0 1e 40 4e 3f 5f 34 53 3f f3 3f 59 3f 8a f0 4f 3f
       0.80566585 0.82501787 0.84863204 0.8122641
0000d0 0d 3f 4c 3f 20 25 36 3f 56 65 3d 3f 26 ab 21 3f
       0.7978371 0.711504 0.7398275 0.63151777
0000e0 5f 5f 39 3f c3 d7 37 3f 2d ad 4e 3f 45 ab 51 3f
       0.7241115 0.718136 0.80732995 0.8190196
0000f0 ea 8f 44 3f a6 6b 55 3f 69 ad 3b 3f da 1c 36 3f
       0.76782095 0.83367383 0.7331148 0.71137774

baseModel.1.bias f4 [64]
000000 a2 68 d5 bd 80 70 8c bd 50 8d bd bd 7d 60 72 bd
       -0.10420348 -0.06857395 -0.09255469 -0.05917405
000010 4d ca 06 bc da e1 02 bd 68 12 6f bd 6f a7 19 bd
       -0.008226943 -0.03195367 -0.058367163 -0.037513193
000020 af 5c c6 bc 41 04 6d bd 54 61 af bd e8 4e b4 bd
       -0.024214117 -0.057865385 -0.08563486 -0.08804113
000030 a4 4b db bb 3f d2 8b bd 94 af ad bd e4 cb 48 bd
       -0.0066923667 -0.06827211 -0.084807545 -0.04902257
000040 de b0 9b bc ff 85 4c 3d 1a f7 59 bb 32 cb c8 bd
       -0.019005235 0.049932476 -0.0033258856 -0.098043814
000050 93 2d d8 bc 49 2c a7 bc 08 d0 3a bd 64 85 a2 bc
       -0.026388919 -0.020406859 -0.04560855 -0.019838996
000060 88 f1 a6 bd 15 cf 83 bd 62 30 b9 bb c5 9f 86 bd
       -0.08151537 -0.06435982 -0.0056515196 -0.06573442
000070 58 86 7b bc 03 bc 21 bd df 84 a0 bd 51 54 a6 3b
       -0.015351854 -0.039485943 -0.07837843 0.0050759693
000080 15 b1 ae bd 00 4b cd bc 5f 66 ea bc ca c6 27 bd
       -0.085298695 -0.025060177 -0.028613267 -0.040961064
000090 c7 e9 ed bd 4b c3 f3 bb d4 d1 65 bd cc ee 10 bd
       -0.11616855 -0.007439052 -0.05610831 -0.035383984
0000a0 ca 42 b4 bd 99 e3 bf bd 77 d2 26 3d 91 87 9a bd
       -0.088018015 -0.09369583 0.04072806 -0.075453885
0000b0 d5 53 94 bc e7 e4 b0 bb e9 ad 24 bd ee 49 a1 bd
       -0.01810638 -0.005398381 -0.040204916 -0.07875429
0000c0 2e d6 82 bd cb 47 34 bd b7 df 07 3c d9 6d fd 3a
       -0.06388508 -0.04401378 0.008293084 0.0019335105
0000d0 a5 b8 b4 bd 13 89 0e bc 4a 5a 2a 3d 08 e2 37 bc
       -0.08824281 -0.008699673 0.041590013 -0.011223324
0000e0 18 04 8f bc ac 0e 82 bc 28 f4 9a bd 74 c2 a5 3b
       -0.017458007 -0.015876137 -0.075661 0.005058581
0000f0 19 8e 50 bd 56 2d 35 bb 11 c0 98 bc d6 82 9a 3c
       -0.050916765 -0.002764543 -0.018646272 0.018861216

baseModel.1.running_mean f4 [64]
000000 9f b2 88 b9 50 3e ba 38 f6 29 d3 b9 85 99 10 b9
       -0.00026073024 8.880778e-05 -0.0004027632 -0.000137901
000010 ca 84 88 39 bf ad c0 38 6d d1 71 38 95 05 f2 37
       0.00026038877 9.187636e-05 5.765392e-05 2.8851247e-05
000020 ba d3 35 b9 08 96 a9 b9 50 b5 f9 b7 3f 60 1a 3a
       -0.0001734038 -0.00032345974 -2.9767543e-05 0.00058889756
000030 fc 85 64 b9 57 4c c4 38 f1 9b a7 39 1c 49 1a 3a
       -0.00021793687 9.360228e-05 0.00031968908 0.0005885528
000040 48 83 6a 39 0d 1a 2c ba 79 e3 81 b8 7b 3e e5 37
       0.00022364885 -0.0006565161 -6.1935694e-05 2.7328022e-05
000050 73 00 75 39 42 5e 6e b9 33 52 ef 38 0f 04 cd 38
       0.00023365188 -0.00022732563 0.00011411719 9.775918e-05
000060 56 e3 27 b8 7e 46 9f b9 3b 69 d1 38 10 b2 45 39
       -4.0027626e-05 -0.00030379364 9.985497e-05 0.00018853717
000070 8f 9d d7 39 0e 69 15 38 d4 ae e4 39 fa 6e 6c b8
       0.00041125386 3.5622208e-05 0.00043617806 -5.637014e-05
000080 44 6f e0 b7 37 49 6a 37 36 46 01 b9 72 f5 81 b9
       -2.6754693e-05 1.39645335e-05 -0.00012328554 -0.00024787668
000090 e9 eb 15 b9 2e 07 89 37 0b 3f ec 39 f1 d0 f7 b9
       -0.0001429763 1.6335016e-05 0.00045060398 -0.00047267185
0000a0 bc b1 80 b9 7b b6 b0 38 54 93 dd b9 30 24 29 ba
       -0.00024546485 8.4263236e-05 -0.00042262173 -0.0006452231
0000b0 54 d3 c4 b8 ad c5 86 b9 3b e5 58 b9 ed e3 e1 b8
       -9.385371e-05 -0.00025705752 -0.0002068476 -0.000107712905
0000c0 02 f4 8d 38 07 3f 33 b9 f1 84 09 ba 75 6f 06 39
       6.768854e-05 -0.0001709425 -0.0005245945 0.00012820757
0000d0 38 4f 83 b9 6e d0 33 39 3b 29 a7 b8 e3 51 f6 b8
       -0.0002504529 0.00017148416 -7.97086e-05 -0.00011745447
0000e0 4d 87 da 38 03 a7 86 ba 27 a5 87 b9 dc 7a 3e b9
       0.00010420252 -0.0010273162 -0.00025872255 -0.0001816558
0000f0 1c 22 4e b8 51 e9 7c 38 16 05 9b 38 f2 2d 93 b9
       -4.9145994e-05 6.0298775e-05 7.391923e-05 -0.00028072257

baseModel.1.running_var f4 [64]
000000 6b 9e 55 37 bf c8 11 37 10 b0 2f 37 a4 db d3 36
       1.2732674e-05 8.689413e-06 1.0471806e-05 6.3138596e-06
000010 54 95 df 36 e1 01 84 37 ec c2 6b 37 11 3e 24 36
       6.663302e-06 1.5736501e-05 1.4052475e-05 2.4474032e-06
000020 65 d0 65 36 6e cf 6d 37 87 7d 1e 37 dd f7 22 37
       3.424496e-06 1.4174597e-05 9.4467605e-06 9.713663e-06
000030 a4 a8 1f 37 7b d7 32 37 0b c4 16 37 25 70 6e 37
       9.516403e-06 1.0659797e-05 8.9863415e-06 1.4212016e-05
000040 fb b6 a9 36 92 ba 24 37 6b 08 96 36 25 2d b6 37
       5.057894e-06 9.818601e-06 4.4713283e-06 2.1717113e-05
000050 02 af b2 36 fb aa 5b 37 86 32 77 36 28 1d 56 37
       5.325187e-06 1.3093227e-05 3.6835277e-06 1.2762182e-05
000060 ca 66 89 37 d2 2a 5f 36 76 fd 8f 37 20 90 34 37
       1.6379538e-05 3.3254514e-06 1.7164955e-05 1.0762393e-05
000070 da 9a b1 36 b4 c6 29 37 ef 34 be 36 f1 f0 86 37
       5.293038e-06 1.0119449e-05 5.6686035e-06 1.6086242e-05
000080 af e5 1c 37 81 c4 fe 36 92 55 e8 37 d0 d1 4c 37
       9.351802e-06 7.592666e-06 2.7696402e-05 1.2208198e-05
000090 e3 ca 75 37 bc aa 68 37 0e ee 65 36 57 73 48 37
       1.4650376e-05 1.386803e-05 3.4262225e-06 1.1947784e-05
0000a0 79 07 d2 36 08 56 77 37 f6 35 ac 36 0e a9 0e 37
       6.2593576e-06 1.4742378e-05 5.1322813e-06 8.503221e-06
0000b0 ad e9 44 36 fb 0d e6 36 27 12 8d 36 b7 38 99 36
       2.9342293e-06 6.8561617e-06 4.2042407e-06 4.566358e-06
0000c0 c4 93 19 37 73 a9 00 37 5e 2a 2e 37 c4 9f 30 37
       9.153915e-06 7.6688475e-06 1.0381073e-05 1.0527616e-05
0000d0 1a 9c 87 37 41 ad 07 37 d0 a5 98 37 26 12 16 37
       1.6165945e-05 8.086966e-06 1.8197024e-05 8.944922e-06
0000e0 ac a6 f1 36 cb 9d 9f 36 37 bd 7d 37 6f ed b7 37
       7.201763e-06 4.756939e-06 1.512403e-05 2.1925864e-05
0000f0 a6 80 31 37 43 5d 35 37 09 09 f2 36 63 97 d5 36
       1.0579975e-05 1.0810155e-05 7.213214e-06 6.3655184e-06

baseModel.4.weight f4 [64, 64, 3]
000000 f1 0a e3 3c 53 3c 08 3a d0 65 0e 3d a3 51 34 bc
       0.027715178 0.0005196977 0.034765065 -0.011005792
000010 2d 01 f0 bc 9b e4 a6 bd 61 0d 99 3c 10 fa 4d 3c
       -0.029297436 -0.08149072 0.018683137 0.012571827
000020 80 d8 4e 3c aa 7e 13 3c 2e e2 fc 3c 79 ac b7 3d
       0.01262486 0.009002367 0.03086957 0.089684434
000030 f7 5a aa bd 67 be 8c bc 9c f3 2e 3c 77 32 2d bd
       -0.083181314 -0.017180635 0.010678198 -0.042284455
000040 ca 15 16 3d 8d 80 e8 3c 16 8e 67 3b 9a 20 8a 3c
       0.036641873 0.02838161 0.0035332493 0.016861249
000050 d5 64 73 bd c0 5e c6 3b 2d 4a 35 bd f4 65 1b 3d
       -0.059422333 0.0060537755 -0.044260193 0.037939027
000060 33 de 06 3d f7 f8 83 bc 87 51 13 3d 44 3e e0 bc
       0.03292675 -0.016109927 0.035966422 -0.02737344
000070 73 d9 39 bd 2c 62 58 3c 7b 50 47 3d 6b 17 d7 3c
       -0.04537339 0.013207 0.048660737 0.026256284
000080 51 2c 24 3d aa 43 b7 3b 6d 00 d9 3c ae f8 96 bb
       0.040081326 0.005592783 0.02648946 -0.0046072816
000090 92 06 29 bd 55 9b f2 bc 33 f1 40 bd e4 8e 9d 3c
       -0.04126603 -0.029615084 -0.047105026 0.019233175
0000a0 57 10 21 3d 1f 0a 10 3b c7 be 1d 3d ed da d3 3c
       0.039322224 0.002197869 0.038512018 0.025861228
0000b0 be 7d a4 3d 19 74 46 3d 65 3b a1 bc b6 c5 07 3c
       0.08031796 0.048450563 -0.019681642 0.008286884
0000c0 3b 3b c4 3c bf 0e b6 3c 94 5e 92 bd 31 31 7e 3d
       0.023954025 0.022223828 -0.071469456 0.06205863
0000d0 ca 98 65 bd 4a 0a d1 bc 2e 2e 06 3d 95 6f 8d 3c
       -0.056053914 -0.025517602 0.032758884 0.01726512
0000e0 3b c5 59 3c 78 d9 8e 3b 33 fd 14 bd e4 50 27 bd
       0.013291652 0.0043594204 -0.036374282 -0.040848628
0000f0 93 82 dc bc 43 b2 64 bd 82 45 52 bc 8a 96 62 3d
       -0.026917731 -0.055834066 -0.012833955 0.055319346
000100 9f e0 4b 3a 5c 8b 0d bd 0a bf 82 bd ed 0f 8d bd
       0.00077773066 -0.03455673 -0.06384094 -0.06887803
000110 d3 4f a4 bd 4e 34 fc 3c cf c2 c9 3c 33 a3 03 bd
       -0.08023038 0.03078666 0.024629025 -0.03213806
000120 75 e0 5f bd db 8d 01 3d 93 0a d5 bc ac e7 f5 bc
       -0.05465742 0.031629425 -0.026006019 -0.030017696
000130 09 e9 ab bd 61 ce 09 3d e7 b7 2b bd b1 6a 9b 3c
       -0.08394057 0.033644084 -0.04192343 0.018971773
000140 c1 7d e8 3c 8f 50 38 bd 33 c5 91 3b ae 25 b5 3c
       0.028380277 -0.0449987 0.004448557 0.022112694
000150 13 6b bc 3c 48 5f c5 3c d9 71 2c bc 81 4b f7 3c
       0.023000276 0.024093285 -0.01052519 0.03018737
000160 dd b1 5b bc 8e 5d 1a bd 0b dc 0f bd 79 71 44 bc
       -0.013409105 -0.037686877 -0.03512196 -0.011989945
000170 fb 56 02 bd d3 e2 d2 3b ef e0 5f 3b 48 d2 15 bd
       -0.031821232 0.006435731 0.003416117 -0.036577493
000180 8c 21 ae bd e9 c7 84 3a eb 94 15 bc 52 ca 04 bd
       -0.08502492 0.0010130379 -0.009129743 -0.03241951
000190 a3 97 5b bd 54 9a 9a bc cf a5 00 bd 2c 56 1f bd
       -0.05361141 -0.018872418 -0.031408127 -0.03890054
0001a0 08 83 2b 3d 5d cc 90 3c 7f 41 1a 3d 3c 93 a2 3d
       0.041873008 0.017675573 0.03766012 0.07938239
0001b0 c3 e4 49 3d 94 77 1d 3c 35 d2 55 bd a8 17 2c bd
       0.04929043 0.009611029 -0.052202422 -0.042014748
0001c0 a3 12 b0 bc 8d 37 ca 3c f0 88 9e bd 21 e9 f3 bc
       -0.021493262 0.024684692 -0.077409625 -0.02977425
0001d0 43 99 2b 3d 11 25 d3 3c ee ed 13 3d bd d4 08 3c
       0.04189421 0.02577451 0.03611558 0.008351502
0001e0 19 2d 21 3b 9c d6 1d 3d 6b 80 b4 bc b7 26 1f 3c
       0.002459353 0.038534746 -0.02203389 0.00971382
0001f0 9b e4 ca 3c e2 86 bc 3c bd ed 1d bd d8 65 6b 3c
       0.02476721 0.023013536 -0.038556803 0.014367543
000200 35 e6 7e 3d 12 1d 1f 3c 3a 6f 12 3d c9 06 87 bd
       0.06223126 0.009711521 0.035750605 -0.06593091
000210 41 a1 5e bc aa 57 0e 3d da 00 4c 3d 76 90 7d 3c
       -0.013588251 0.03475157 0.0498055 0.015476337
000220 1f fd 81 bc 59 32 3b 3d 57 2d 6c 3c 88 44 15 3d
       -0.015867768 0.045702312 0.014415107 0.03644231
000230 f5 17 da 3b 5a 1d 7a 3c 65 f2 46 bc 58 fe ae bc
       0.006655688 0.015265787 -0.012142752 -0.021361515
000240 96 33 ec bc e2 50 99 b9 62 af b6 bc d7 93 00 bd
       -0.028833192 -0.00029242696 -0.022300426 -0.03139099
000250 33 98 64 bc bc d8 b9 bc 3d 0a 67 3d cd 54 fa bc
       -0.013952303 -0.022686355 0.05640625 -0.030558014
000260 9e 93 26 3c 83 2e 49 3d fb 62 b8 3d fb 61 e1 3d
       0.010167031 0.049116623 0.09003254 0.110050164
000270 32 6b 8c 3d d5 db f8 3c 0b 45 b2 bc bb 51 21 bd
       0.068563834 0.030378262 -0.021761438 -0.039384585
000280 f2 b1 35 b9 67 32 b8 3b 7a 53 ba 3c 00 d3 10 3c
       -0.00017327795 0.005621243 0.022744883 0.008839369
000290 ee cc 16 3d 71 0c 4a bd b0 e0 57 bd 4f 5d ff bc
       0.03681653 -0.04932827 -0.052704513 -0.031172423
0002a0 10 70 c7 bd af ba 5b bc 59 24 60 3d e9 52 e7 bc
       -0.09738171 -0.013411208 0.054722164 -0.028237777
0002b0 8a 8b 20 bd c5 0c 97 bb 69 f2 35 bd 01 f1 26 3d
       -0.039195575 -0.0046096765 -0.044420633 0.040757183
0002c0 90 e1 f0 3a e4 70 76 bc b4 f2 37 bc f6 58 d8 bc
       0.001837777 -0.015041564 -0.0112272985 -0.026409607
0002d0 c0 e9 2b 3d 67 c3 17 3d 33 69 d9 bc df bb db bc
       0.04197097 0.037051585 -0.02653942 -0.026822982
0002e0 6f e4 dc bb b1 72 7f bb 1c ea 5c 3d 9a ae 39 bd
       -0.0067410986 -0.0038978274 0.0539342 -0.04533253
0002f0 87 76 7a bd ab e3 98 3c 62 b5 e3 3c 18 d8 e5 3b
       -0.061148193 0.018663248 0.027796451 0.007014286
000300 43 03 73 3c 1a e6 41 3d 2f 9a d9 bc 4a ac 32 3c
       0.014832321 0.047338583 -0.026562778 0.010905335
000310 6f 77 ab 3c f4 0f 20 3c 30 e5 65 bc 09 f5 21 bd
       0.020930974 0.0097694285 -0.014031693 -0.039540324
000320 00 65 f9 bc bf 3d 82 bc 03 51 86 3c 55 8f c2 bc
       -0.030443668 -0.015898583 0.016396051 -0.023749987
000330 44 4a f2 3c 3e 23 e0 3c 29 44 3c 3b 3a bd c6 bc
       0.029576428 0.027360555 0.002872715 -0.024260152
000340 7b b2 a1 3c da b5 89 bc 2c 3a 5a bb 20 76 82 bc
       0.019738426 -0.016810346 -0.0033298833 -0.015925467
000350 1b e5 2e ba bf 92 33 3d 8f 99 49 bd 1b de 2a bc
       -0.00066717126 0.04384112 -0.04921871 -0.010428931
000360 86 2c 49 bd 22 4f b1 3c 8d 10 36 bd a7 b8 17 3c
       -0.049114726 0.021644179 -0.044449378 0.009260333
000370 13 d2 36 bc 2e 02 ed 3c 34 6e e9 3b ee 1e fe bc
       -0.011158484 0.028931703 0.007123733 -0.031020608
000380 90 7a 06 be 80 34 0c bd 2e 17 56 3c 38 06 85 bc
       -0.13132691 -0.034229755 0.01306705 -0.016238317
000390 2b 0e 4b 3b 2d 15 f0 3b f4 ea 55 bd e8 c6 45 bc
       0.0030983787 0.007326743 -0.052226022 -0.012071349
0003a0 1d f1 3b bc 9a 6e 8d bd fe 7a b2 bd d8 10 98 bc
       -0.01147106 -0.06905861 -0.08714865 -0.01856272
0003b0 39 a9 87 bd 9d 6b 9c bc b3 c7 ed bb c6 b9 b0 3c
       -0.066240735 -0.019094283 -0.007256472 0.021572959
0003c0 51 99 fc 3c 29 2f 67 bc 75 10 7f 38 8f b3 af 3c
       0.030834826 -0.014110365 6.0812064e-05 0.021447925
0003d0 f5 46 e9 bc 6a e2 a8 bc 76 86 a1 3b c4 ec 43 bd
       -0.028476218 -0.020615775 0.004929359 -0.04783322
0003e0 c3 35 60 bc e6 ab ce bc 58 4b d4 ba cd 5f 29 3d
       -0.013684693 -0.025228452 -0.0016196771 0.04135113
0003f0 8d b0 ba ba be 53 3e 3d 8c 13 16 3d 59 8d 87 3c
       -0.001424329 0.04646658 0.036639735 0.016546892

baseModel.4.bias f4 [64]
000000 4a da cf 36 b9 e8 5c b7 89 16 18 b6 a9 a0 bc b6
       6.194493e-06 -1.3167207e-05 -2.2662882e-06 -5.62154e-06
000010 1e 3a 82 b6 b4 02 2b b8 d4 bf da b7 b3 9d 7f b6
       -3.8810676e-06 -4.0772095e-05 -2.6076952e-05 -3.8089754e-06
000020 85 4f 03 36 d5 b7 7b 38 5c 33 0a 38 aa 2f 0d 38
       1.9566808e-06 6.001427e-05 3.2949596e-05 3.366141e-05
000030 73 d9 5d 37 e1 01 18 b7 2b 02 7c b7 ee 49 b7 b7
       1.3223255e-05 -9.0603435e-06 -1.5020875e-05 -2.1849726e-05
000040 16 1f b5 b7 e3 a4 9a b7 c3 dd cd b7 ea 80 63 b7
       -2.1591357e-05 -1.8435012e-05 -2.454117e-05 -1.35602695e-05
000050 8d 94 e4 b7 86 44 43 b8 36 b2 bb b7 aa 6d 7c b7
       -2.7248892e-05 -4.655544e-05 -2.2375123e-05 -1.5045904e-05
000060 68 bc 06 37 7d 31 49 b8 6d 1b b5 36 0c f0 8a 36
       8.030889e-06 -4.7968224e-05 5.397413e-06 4.1406656e-06
000070 ed 06 0d 37 03 74 a3 37 6a e1 ff 36 ec 72 27 38
       8.405867e-06 1.9485136e-05 7.625834e-06 3.9922932e-05
000080 cb 50 8f 36 72 88 07 36 9d 53 b5 36 40 1f c3 b7
       4.2711376e-06 2.019599e-06 5.403954e-06 -2.3260363e-05
000090 08 3d 64 b7 c7 5b 85 b6 ec 36 2c 36 d3 06 da b6
       -1.3604069e-05 -3.974393e-06 2.5661966e-06 -6.4977007e-06
0000a0 63 6d 3d 37 10 4a 5a b6 b5 33 1f b7 4f 8e 42 36
       1.1290746e-05 -3.2527641e-06 -9.4891775e-06 2.8991087e-06
0000b0 5b 65 c9 36 5c b3 03 38 88 89 7c 37 1f 8a 86 36
       6.002066e-06 3.1399875e-05 1.5052392e-05 4.0095906e-06
0000c0 27 0b 8f b7 d4 d5 b6 b7 c8 1b 3b 37 a2 d8 b6 37
       -1.7052122e-05 -2.1795662e-05 1.1152537e-05 2.1796968e-05
0000d0 0f d9 ce 37 21 df b9 b7 3c fb 05 36 37 72 80 b7
       2.465819e-05 -2.2157621e-05 1.9964782e-06 -1.5311974e-05
0000e0 0e ca 69 b6 dc 95 7f b7 b0 fc 26 37 c6 3a f5 35
       -3.4837317e-06 -1.5234076e-05 9.953204e-06 1.8271028e-06
0000f0 5b 0a db b7 1d a4 f1 b6 47 46 83 b6 b8 aa 81 b7
       -2.6111657e-05 -7.201465e-06 -3.9122856e-06 -1.5457495e-05

baseModel.5.weight f4 [64]
000000 f6 40 38 3f 8e e3 3c 3f 50 a1 3c 3f ed e4 44 3f
       0.7197412 0.7378472 0.73683643 0.76911813
000010 5a 52 57 3f 80 28 31 3f de 40 3c 3f 00 36 32 3f
       0.84110034 0.69202423 0.7353648 0.6961365
000020 49 83 30 3f c9 c4 26 3f 78 05 4b 3f a6 a8 40 3f
       0.68950325 0.6514402 0.7930522 0.7525734
000030 c4 ed 4c 3f f5 e4 37 3f c8 2c 3a 3f f9 f3 42 3f
       0.800503 0.71833736 0.7272458 0.7615352
000040 c1 c5 38 3f 33 7b 30 3f de 7f 3b 3f 2f 93 48 3f
       0.7217675 0.6893799 0.73241985 0.78349584
000050 1e a6 51 3f 60 ee 39 3f d3 14 40 3f 80 62 52 3f
       0.818941 0.72629356 0.75031775 0.8218155
000060 53 6a 32 3f fe d8 3c 3f 3f 0c 52 3f a6 b9 3e 3f
       0.6969349 0.73768604 0.82049936 0.7450203
000070 a0 38 3e 3f 45 2f 4c 3f d8 14 2f 3f 5f 8c 50 3f
       0.7430515 0.7975963 0.6839118 0.8146419
000080 08 a9 2a 3f fa 67 29 3f 61 cb 24 3f ea 97 2e 3f
       0.6666417 0.6617428 0.6437283 0.6820055
000090 3e a3 4d 3f 05 22 4e 3f c4 1a 45 3f 2f 70 55 3f
       0.8032721 0.8052066 0.76993966 0.83374304
0000a0 7c 8b 42 3f 04 04 3f 3f 16 58 3e 3f f1 3b 39 3f
       0.75994086 0.746155 0.7435316 0.7235709
0000b0 05 e9 3a 3f f8 48 33 3f f9 34 4f 3f a6 9a 38 3f
       0.7301181 0.70033216 0.80940205 0.72110975
0000c0 7d 5c 4b 3f 9c 37 48 3f 3b b4 43 3f 23 92 3f 3f
       0.79438 0.78209853 0.76446885 0.7483236
0000d0 67 8d 59 3f 84 7e 55 3f 31 04 32 3f 90 80 48 3f
       0.8498139 0.8339617 0.69537646 0.7832117
0000e0 41 3d 37 3f ff 12 38 3f 4b 25 3b 3f 92 26 62 3f
       0.7157784 0.71903986 0.7310378 0.88340104
0000f0 36 25 4f 3f f3 8c 5f 3f 2b a4 59 3f 7f 53 5c 3f
       0.80916154 0.87324446 0.85016125 0.86064905

baseModel.5.bias f4 [64]
000000 13 dc 53 bd 35 17 87 bd ca d4 76 bc a9 17 97 3d
       -0.05172355 -0.06596223 -0.015065381 0.0737756
000010 a6 5b 06 be a2 50 1d bd 56 ee 2c bc 2e 94 c7 bd
       -0.13120899 -0.038406976 -0.010554871 -0.0974506
000020 87 30 97 be 8b f7 8a ba d1 21 d6 be 96 87 9d 3d
       -0.2952921 -0.0010602338 -0.41822675 0.076918766
000030 f5 51 2e 3b 3a b3 ae bd f7 13 13 3d 2e 9c a2 bd
       0.0026599143 -0.085302785 0.03590771 -0.07939945
000040 03 cc 25 3c 5b ce 58 bc c4 dd 44 3d 83 bf d5 b9
       0.010119441 -0.013232793 0.048063055 -0.00040769213
000050 7c cb 21 bc cb 29 15 3d 12 ff 79 bd 5b 65 d5 bd
       -0.009875175 0.03641681 -0.06103427 -0.10419723
000060 12 b2 8b 3c 6e 91 8b bd 4f 3a bd be 4d 65 15 3d
       0.017052684 -0.06814848 -0.36958548 0.03647356
000070 22 a4 52 bd c4 0d e5 bd 24 32 04 3d af 41 38 bd
       -0.05142606 -0.11184266 0.03227438 -0.044984516
000080 ed be 8e bd a1 94 2e 3c d2 93 2f bd bf 48 c6 bb
       -0.0697001 0.010655553 -0.04286558 -0.0060511525
000090 f2 fb b0 bd a5 d1 33 be c4 3a 53 bd 0b be 14 bc
       -0.08641805 -0.17560442 -0.051569715 -0.009078513
0000a0 5c 61 a4 bd 6a f4 cb bc 61 d4 c9 bc 13 2c 83 bd
       -0.08026382 -0.02489682 -0.024637403 -0.06404891
0000b0 9c bd 78 bd 4e d1 b3 bc 40 99 6c bd 45 17 f6 bc
       -0.0607277 -0.02195039 -0.057763338 -0.030040393
0000c0 09 20 b5 bd 83 c0 09 3d 69 b4 83 3b fb d0 e7 bd
       -0.08844001 0.03363086 0.0040193093 -0.11319157
0000d0 84 68 54 bd 71 a9 a2 bd 87 58 90 3d c9 0a 7a be
       -0.051857486 -0.07942475 0.07048135 -0.24418177
0000e0 4a 6d 8c bc 7c 78 a6 ba 63 02 96 bd 78 97 1a be
       -0.017141957 -0.0012700702 -0.07324674 -0.15096843
0000f0 b3 3c 51 bd 7e 80 2c be 37 4f e9 bd 6f 23 03 be
       -0.051083278 -0.16845891 -0.11392062 -0.12806486

baseModel.5.running_mean f4 [64]
000000 d8 1c da bc f2 9b 85 be 1f a6 00 bb 56 bc c7 ba
       -0.026625082 -0.2609554 -0.0019630266 -0.0015238624
000010 d8 1e ee bd 23 2f d8 bd df 2a cc 3d a4 a9 8b 3d
       -0.11626977 -0.105558656 0.099691145 0.06819466
000020 f2 c7 bb bd 84 ae c2 bd 17 1a 44 bd f4 e1 54 be
       -0.09168996 -0.095059425 -0.047876444 -0.2078932
000030 f2 d3 87 bc ba f4 8b bd 48 a3 96 bd c7 f7 0f be
       -0.016580556 -0.06833787 -0.07355362 -0.14059363
000040 15 7c c5 bd 5d b6 7f 3b ba 8f 34 3d 35 49 a6 bd
       -0.096428074 0.003901861 0.04408238 -0.08119432
000050 7d 18 8a 3e 0c b8 09 3f 34 ea 4f bd c6 da 2d be
       0.26971808 0.5379646 -0.050760463 -0.16977987
000060 1f a6 6d bd 44 d3 36 be 91 50 c0 bd 40 af 59 3b
       -0.058019754 -0.17854029 -0.09390367 0.003321603
000070 da e6 b6 bd 6b 7c 38 be 9a c3 73 3d fc 8c d1 bd
       -0.0893075 -0.18016212 0.059512712 -0.10231969
000080 61 03 df bc df 04 6b 3e 8a 77 e1 bb 5e fd 7b bd
       -0.02722329 0.22951077 -0.0068807052 -0.061520927
000090 7d c1 69 3e ce d3 c7 bd 2f bf 62 bd cf c4 96 3d
       0.22827716 -0.097571954 -0.055358108 0.07361757
0000a0 ab 5e d7 bd 83 02 e4 bd a1 89 f1 3d bf 2e 7b be
       -0.10516103 -0.111332916 0.11793829 -0.24529551
0000b0 26 15 06 be de 22 5e bd 49 56 ce bc e1 a4 4c bd
       -0.13094005 -0.05423247 -0.025187628 -0.04996193
0000c0 71 f1 90 bb d2 bf 1e bf 5d 0d 47 3d 01 a3 72 bc
       -0.0044233133 -0.62011445 0.04859673 -0.014809371
0000d0 c3 06 ce be e1 ea 78 be 41 ef 98 bc 66 fc a2 bd
       -0.40239534 -0.24308349 -0.018668773 -0.079582974
0000e0 45 a9 4d bd 6c 93 0a 3e aa 8a 84 bd ff 5a b1 bd
       -0.050210256 0.135328 -0.064717606 -0.08659934
0000f0 b3 bf d4 bd ab aa 4a bd e6 11 59 be e5 bb 2c 3c
       -0.10388126 -0.049479168 -0.21198234 0.010542844

baseModel.5.running_var f4 [64]
000000 24 1b f9 3c 96 75 14 3d 7f 4e 27 3d 50 44 84 3d
       0.03040845 0.03624495 0.040846344 0.06458342
000010 b9 2e 23 3d 79 97 05 3d 5e 0b f7 3c 37 bc ee 3c
       0.03983948 0.03261516 0.030156787 0.029142482
000020 64 76 d6 3c 5c 19 e2 3c 80 f6 94 3c b1 95 19 3d
       0.0261795 0.027599983 0.018183947 0.037496272
000030 69 75 95 3d 23 a7 25 3d 0b b7 b4 3d 54 29 1b 3d
       0.07297785 0.040442597 0.08823975 0.03788121
000040 dd 39 58 3d f2 70 af 3c e5 e6 3a 3d 8b c0 f1 3c
       0.052789558 0.021416161 0.045630354 0.029510757
000050 02 8e 24 3d d6 07 31 3d 10 4d 82 3d ba cf 66 3d
       0.04017449 0.043220364 0.06362355 0.056350447
000060 61 95 2e 3d 8b c7 29 3d 98 0d b5 3c a9 2d 6f 3d
       0.042622928 0.041450065 0.022101209 0.058393154
000070 04 69 58 3d 68 31 24 3d 1c 69 56 3d 74 ce 7e 3d
       0.052834526 0.04008618 0.052346334 0.062208608
000080 99 a6 7b 3d 23 22 f9 3c 31 21 ff 3c 6f 02 27 3d
       0.061438177 0.030411785 0.031143757 0.040773805
000090 01 a4 1e 3d 1e cf 6f 3c 1c 10 e9 3d be 98 81 3d
       0.038730625 0.014636783 0.11380026 0.063279614
0000a0 5b d3 08 3e e5 db b0 3d b1 aa 21 3d f6 8c 87 3d
       0.13361876 0.086356916 0.039469425 0.06618683
0000b0 10 ba 60 3d dc 94 a5 3d 4d 92 47 3d 0f ab 65 3d
       0.054864943 0.08085033 0.048723508 0.056071337
0000c0 72 ec 17 3d e4 51 2f 3d d6 8e f6 3d 1a 17 08 3d
       0.037090726 0.042802706 0.120389625 0.033225156
0000d0 a8 d8 24 3d 31 b7 02 3d bf ac fe 3c e0 9d 1a 3d
       0.040245682 0.031912986 0.031088231 0.037748218
0000e0 f8 d0 82 3d 02 54 2c 3d 4f f6 f3 3d d9 4b 05 3d
       0.06387514 0.042072304 0.11912214 0.032543037
0000f0 34 7f 30 3d 74 af 0c 3d 59 0b 13 3d 08 cb 30 3d
       0.04309006 0.034347013 0.035899494 0.043162376

baseModel.8.weight f4 [64, 64, 3]
000000 7c 69 b1 bb 4d fc 86 3c 6e f7 a9 bc 4e bb 2d 3d
       -0.005414186 0.016477728 -0.020747866 0.042414956
000010 f8 96 e5 bb 10 22 86 3c 06 29 2d bd f3 53 53 3d
       -0.0070065223 0.016373664 -0.04227545 0.051593732
000020 9e bb 6d bc a4 9c 78 bc 14 b2 31 bc 41 16 77 bd
       -0.014510063 -0.015174065 -0.01084568 -0.060323957
000030 56 8d 80 3d f7 98 e6 bb 74 15 5a 3d cb 74 af 3a
       0.06276958 -0.007037278 0.053243116 0.0013386247
000040 16 fa 81 bc bf 5e 27 3d bd 73 e4 bb 1a d2 ac bc
       -0.01586632 0.04086184 -0.006971805 -0.021096278
000050 3f 9b 6a 3c 2a 66 65 bd 53 bf 58 3c 18 79 72 3b
       0.01431924 -0.056005634 0.013229209 0.0036998447
000060 aa 4c 2d bd 56 63 a8 bc f2 87 67 3b 52 7d 2a 3d
       -0.04230944 -0.02055518 0.0035328832 0.04162342
000070 4b 72 54 bd 49 f9 29 bc 42 63 1f bd c6 86 3a 3c
       -0.05186681 -0.010374376 -0.03891302 0.011384672
000080 12 dd 98 bc fe 90 9e bb d3 d7 de ba 9e b4 7e bb
       -0.018660102 -0.0048390618 -0.0017001576 -0.003886498
000090 10 51 93 3c 54 79 a8 3c 3c b0 48 bc a3 6a 11 3d
       0.01798299 0.020565666 -0.012249049 0.035502087
0000a0 0b f1 28 3d 32 d0 77 3c 2f 0c 14 3d d4 3e 1a 3d
       0.0412455 0.015125321 0.03614443 0.037657574
0000b0 e4 e4 89 bc 52 ac 00 bc 90 e0 22 bb 42 bb d9 bc
       -0.016832776 -0.007853584 -0.0024853088 -0.02657855
0000c0 68 2a fe 3c d4 39 46 bd d4 c2 7a 3c 0a ee a2 bc
       0.03102608 -0.048394993 0.01530524 -0.019888896
0000d0 24 4c 84 bd c6 16 b9 3c fa f2 d3 3c 2f a8 c4 bb
       -0.06459835 0.022593867 0.025872696 -0.0060014944
0000e0 05 66 1d bd 29 1d 12 3d 7d d7 10 3c 88 43 7c bd
       -0.03842737 0.03567234 0.008840439 -0.06158784
0000f0 bf f1 01 3d 6e b6 d0 bc 67 87 1e bd be f5 e4 bc
       0.031724688 -0.025477614 -0.03870335 -0.02794921
000100 54 9d 19 3d d8 f4 cb bb 5a a0 1a bd 76 d1 68 bd
       0.037503555 -0.006224256 -0.03775058 -0.056840383
000110 67 cc 16 bd 44 93 1d 3d 01 c6 de 3b 1f 0c f2 bc
       -0.036816027 0.03847052 0.0067985062 -0.029546795
000120 52 a4 2c 3b b2 9f ad 3c c5 08 28 bd 90 b6 5b ba
       0.002634306 0.021194313 -0.04102399 -0.0008381391
000130 f3 ec 5b bc 1c 2a 6d 3d 61 9a 72 bd c2 ef 19 bd
       -0.013423192 0.057901487 -0.05922926 -0.037582166
000140 39 e3 97 bd 42 b9 09 bd 2c 2b 14 bd d2 70 22 bd
       -0.07416386 -0.03362394 -0.036173984 -0.039658375
000150 01 77 62 3c 83 be 73 3c 6d e5 ce bc 8b b4 67 3d
       0.013822318 0.0148769645 -0.025255883 0.056568664
000160 f8 ef 69 bb 62 41 27 bb 14 52 fd bc 2c 9c ba bb
       -0.003569601 -0.002552115 -0.030922927 -0.0056948867
000170 3e 2d f4 3b 63 d6 9a 3d af 98 51 3d 67 68 88 3d
       0.0074516824 0.07560422 0.051171 0.06660538
000180 e4 38 8e ba df 3e 20 bd fe a2 7f bd dd 1b b7 bc
       -0.0010850695 -0.03912246 -0.0624113 -0.022352153
000190 c7 fa d1 3c fa 1d 87 3c f9 cc e9 3b 0e 07 6e 3b
       0.025632275 0.016493786 0.0071350303 0.0036320123
0001a0 f3 da 87 3d cf 37 ce bc c2 8b bf 3c 31 bd b6 bc
       0.06633558 -0.025173096 0.023382071 -0.02230701
0001b0 c9 8f 6e bc 7e e8 1d bd 08 4a a9 3c 6a df c3 3c
       -0.014560648 -0.0385518 0.020665184 0.023910243
0001c0 fa 23 38 3c 2d 32 b6 b8 7e 64 ec bb 3b 26 4f 3c
       0.011239046 -8.687782e-05 -0.007214128 0.012643392
0001d0 7e de 2f 3c 38 05 b6 bb 4b 46 31 bc 0e 7e c8 3b
       0.010734199 -0.0055548213 -0.010819982 0.0061185425
0001e0 cd 0d 03 bd 21 d2 8d 3c d0 19 7a 3c d0 00 98 bb
       -0.031995583 0.017312111 0.015264943 -0.0046387687
0001f0 8c eb 30 bd 48 7b c4 bc 03 a6 5f 3d 0a 5c d5 3c
       -0.043193385 -0.023984566 0.05460168 0.026044864
000200 d8 4a ae 3c c3 2f 23 bc f6 13 72 3c 9b c7 b5 3c
       0.021275923 -0.009960118 0.014775267 0.022189906
000210 04 df 2b 3c 08 0f 87 3c 7c 3c 4c bd 9d 61 8d 3c
       0.010490183 0.01648666 -0.04986237 0.01725846
000220 46 57 bf bc a1 d9 a8 3c a0 e2 51 bd 8e 83 06 bd
       -0.023357045 0.020611586 -0.051241517 -0.032840304
000230 4d 61 a4 3c 67 3d 7a 3d bf 62 5a 3a 77 53 1b 3d
       0.020065928 0.061093714 0.00083307544 0.037921395
000240 e0 86 3f 3c 95 b5 81 bc be 40 e2 3b f5 33 17 bd
       0.011689872 -0.015833655 0.0069046905 -0.036914784
000250 11 9f ee 3a 06 6e 8f bc 8f 7e 7e 3c 1d e0 f8 bc
       0.0018205364 -0.017508518 0.015533104 -0.030380303
000260 ec ab 9a 3b 2a 3e cc 3c 50 7a cc bc 11 df 64 bd
       0.0047202017 0.024931986 -0.024960667 -0.055876795
000270 ea 96 f1 3c 7d 77 0b 3d ad b2 d5 bb 35 87 7c bb
       0.029490907 0.0340495 -0.006521544 -0.0038532738
000280 9a 69 76 3d da fb 21 bd c5 d9 1b 3c db 08 9f bc
       0.060159303 -0.039546825 0.0095123695 -0.019413402
000290 d8 47 3b bc 62 46 b3 ba 95 fd 75 3c fb ff 88 3c
       -0.011430703 -0.0013677592 0.015014072 0.016723623
0002a0 82 6a 50 3d 9c 32 50 3d f9 55 82 bb 76 f2 1d bc
       0.050882824 0.050829515 -0.003977534 -0.009640327
0002b0 bd 46 83 3d 2f f7 f4 3c 4b eb 42 bb 8b ad cb 3c
       0.06409977 0.029903023 -0.0029742296 0.024863025
0002c0 03 46 a9 3c ff 33 6d 3d 37 77 0a bc ce 6e 8c 3b
       0.020663267 0.057910915 -0.008451275 0.00428567
0002d0 b6 16 dc bc 23 18 ec bc 28 59 61 bc df ff 0d bd
       -0.026866298 -0.028820103 -0.013754167 -0.034667846
0002e0 b6 ab ef bc 53 95 90 bb fe ed d4 bc 81 b6 4b 3c
       -0.029256683 -0.004412332 -0.02599239 0.012433649
0002f0 26 e0 bf 3c f8 3f 1a 3b 6c c6 66 3d c9 91 5e 3d
       0.023422312 0.0023536664 0.056341574 0.05433825
000300 9d 2b e8 bb 11 15 61 bc 8b 08 c5 bc ad f3 92 bc
       -0.0070852772 -0.013737933 -0.024051925 -0.01793846
000310 4a 51 e7 bc cc f3 f8 bc 09 2f 5b 3c c9 b6 1b bc
       -0.028237004 -0.030389689 0.013377913 -0.009504029
000320 8a c7 6c bc 43 b9 2d bd f8 82 3f 3a 80 63 2f bb
       -0.014451871 -0.042413007 0.00073055876 -0.0026762187
000330 30 d4 6c bd 5a 5e 5a 3d 77 39 4b bc 72 f4 26 3d
       -0.057819545 0.053312637 -0.012403837 0.040760465
000340 79 35 50 3d e6 b7 84 3c 35 46 8e 3d be a5 81 3c
       0.050832245 0.01620097 0.06946985 0.015826102
000350 51 73 aa bb 58 0f 8a 3d 50 b1 02 bd 38 ea 92 bc
       -0.005201735 0.06741208 -0.03190738 -0.01793395
000360 78 dd 4e bc be 9d ed bc fc c8 ec 3b fd d9 38 bd
       -0.012626044 -0.029005881 0.0072261076 -0.045129765
000370 a4 eb c2 3c 46 06 c1 3c d3 72 29 3d 79 d8 93 bc
       0.023794003 0.023562562 0.04136927 -0.018047558
000380 9d 1d 08 3d 70 e1 76 3c ea 45 e2 bb e8 fd 98 bc
       0.033231366 0.015068397 -0.006905307 -0.01867576
000390 02 1f 12 3d 44 7f a5 bc 0f 2d 98 3d 6d 70 bc 3c
       0.035674103 -0.020202287 0.07430469 0.023002828
0003a0 b0 47 24 3c 3b 7a 47 bc 73 60 b6 3d 49 b5 80 3c
       0.010026857 -0.012175138 0.08905115 0.015711443
0003b0 9d 68 c8 3c d1 c4 ac bb d0 53 19 bd 80 bf 27 3c
       0.024463946 -0.005272486 -0.037433445 0.010238528
0003c0 77 71 1b bb 52 03 9b 3d 96 9a 30 3d 99 b3 92 3c
       -0.0023718753 0.07568993 0.043116175 0.017907904
0003d0 b6 22 79 bb ab 30 4b bc e1 cb 14 3b 28 34 14 bc
       -0.0038015074 -0.01240174 0.002270453 -0.009045638
0003e0 8b 34 8a bc 75 9c 3b 3b 75 1b 8e 3c c3 c8 9e bc
       -0.016870758 0.0028627191 0.017347077 -0.01938284
0003f0 b3 d7 98 bc 28 64 4f 3d 7a c8 1b 3d 5d 51 22 3d
       -0.01865754 0.050632626 0.038032986 0.039628375

baseModel.8.bias f4 [64]
000000 f5 25 21 37 20 1d f7 35 85 a5 09 b7 15 d4 e8 b7
       9.605185e-06 1.841141e-06 -8.204374e-06 -2.7755314e-05
000010 89 e7 2c 37 81 04 e3 36 42 85 20 b7 88 88 79 37
       1.0305907e-05 6.7656515e-06 -9.56777e-06 1.4873345e-05
000020 9c 0c 86 b7 e7 4a 9b b7 85 6e 2a 36 91 59 c4 37
       -1.5979916e-05 -1.8512319e-05 2.5396305e-06 2.3406728e-05
000030 ea e9 28 b7 cc 02 45 37 2a 85 26 b7 b8 b1 89 36
       -1.0068043e-05 1.1742766e-05 -9.925376e-06 4.1036074e-06
000040 a1 5c ba 34 e1 3f 01 36 63 52 fb 36 64 2a 5c 37
       3.4712596e-07 1.925968e-06 7.489974e-06 1.3122892e-05
000050 26 79 63 36 b4 fa ab b5 93 5b 00 35 60 d9 85 b6
       3.3896154e-06 -1.2813457e-06 4.7816974e-07 -3.9890147e-06
000060 ea 27 ee 36 8d bb 87 37 79 0b 29 36 36 29 f4 b4
       7.0975993e-06 1.618059e-05 2.518964e-06 -4.5478527e-07
000070 6f 10 d8 37 b1 41 b3 b6 5f 44 96 36 8e e5 4d b6
       2.5756859e-05 -5.342263e-06 4.478308e-06 -3.0680999e-06
000080 71 e4 8f 37 ab 3a c3 37 18 f6 1f b8 1d df dd 37
       1.7153305e-05 2.327313e-05 -3.8137747e-05 2.6449148e-05
000090 8c 3b 67 36 f2 96 00 b6 6e 5d 1f 37 c8 ad a4 b6
       3.4456343e-06 -1.9161348e-06 9.498892e-06 -4.9078117e-06
0000a0 1f 89 ab 36 4a 9a ff b6 92 3c eb 36 46 c5 5a 36
       5.11216e-06 -7.617554e-06 7.010597e-06 3.259936e-06
0000b0 2b d6 bf 37 49 ca fc b6 1a 69 24 36 ad 01 03 b7
       2.2868704e-05 -7.5337343e-06 2.4499082e-06 -7.808599e-06
0000c0 c5 bb c4 37 ca 4c b7 b7 59 49 c9 b6 a8 47 a7 35
       2.3452458e-05 -2.1851058e-05 -5.9988056e-06 1.2463324e-06
0000d0 8e e7 51 b6 87 3a bb 34 a4 6b d4 37 5e 7b a0 b5
       -3.127821e-06 3.4874049e-07 2.5322493e-05 -1.1956834e-06
0000e0 02 a7 9f 37 ba e5 3f 38 dc c2 84 37 b4 0c ae 36
       1.9032046e-05 4.5751898e-05 1.5826365e-05 5.187083e-06
0000f0 ce 68 4a b7 a2 56 6d 37 77 f0 a8 b5 e9 de 59 b6
       -1.206454e-05 1.4146472e-05 -1.258696e-06 -3.246527e-06

baseModel.9.weight f4 [64]
000000 38 40 3c 3f 87 b5 39 3f 9f f8 53 3f 4f 84 58 3f
       0.7353549 0.72542614 0.8280124 0.84576887
000010 a6 27 6c 3f c5 5f 6a 3f 0c d1 5e 3f 91 8f 72 3f
       0.92248 0.9155238 0.8703773 0.94750315
000020 b0 bd 65 3f fa 77 54 3f c6 d7 58 3f 28 4e 5e 3f
       0.89742565 0.8299557 0.84704244 0.86838007
000030 e8 62 72 3f dc 34 73 3f ce 72 5b 3f c2 5f 58 3f
       0.9468217 0.9500253 0.85722053 0.84521115
000040 26 fb 65 3f 21 08 66 3f 3b 59 52 3f 2f 68 41 3f
       0.8983635 0.89856154 0.82167405 0.75549597
000050 0f ce 70 3f f0 d9 48 3f ae 1f 6e 3f 27 4a 79 3f
       0.9406442 0.78457546 0.9301709 0.9737877
000060 58 63 6c 3f bf a6 51 3f cd bb 63 3f 09 36 58 3f
       0.92339087 0.8189506 0.88958436 0.8445745
000070 bc 3a 4d 3f 21 80 7b 3f 6c 26 73 3f ae 5a 62 3f
       0.80167747 0.98242384 0.949805 0.88419616
000080 f2 17 58 3f d3 21 6c 3f 93 f8 73 3f a6 63 75 3f
       0.8441154 0.9223911 0.9530117 0.95855176
000090 5c 62 4d 3f 57 9c 47 3f f6 d4 7e 3f f9 ca 6d 3f
       0.8022821 0.7797293 0.995437 0.92887837
0000a0 32 08 67 3f de de 59 3f be d9 7b 3f ba 69 70 3f
       0.9024688 0.85105693 0.98379123 0.93911326
0000b0 92 7f 53 3f 0c 30 6b 3f e1 03 62 3f cf 5e 60 3f
       0.8261653 0.9187019 0.8828717 0.87644666
0000c0 74 dc 71 3f 2c 0b 54 3f be 5e 56 3f b5 b5 7a 3f
       0.9447701 0.82829547 0.83738315 0.9793351
0000d0 78 eb 5e 3f f1 9d 5f 3f 06 12 70 3f 66 e5 64 3f
       0.87078047 0.87350374 0.937775 0.89412534
0000e0 65 1a 73 3f e5 71 7f 3f 3e 13 79 3f a2 4f 40 3f
       0.9496215 0.99783164 0.97294986 0.7512151
0000f0 c4 d5 51 3f 46 d4 65 3f 94 67 71 3f 26 d4 6f 3f
       0.81966805 0.8977703 0.9429867 0.9368309

baseModel.9.bias f4 [64]
000000 b8 e7 87 bd 78 36 12 bd 04 75 37 bd c6 72 ba bc
       -0.06635994 -0.035696477 -0.04478933 -0.022759806
000010 be 3a 33 be 7e 4f be bd cd 8f ac bd 88 b8 3a be
       -0.17502877 -0.09292506 -0.08425865 -0.18234456
000020 95 d5 25 be 58 5c 37 bd 98 a0 b1 bd e2 9b 33 bd
       -0.16194756 -0.0447658 -0.08673209 -0.043849833
000030 3f dc 85 bd 16 71 0b be 37 a0 9f bd b0 18 5f bd
       -0.06536149 -0.13617358 -0.077942304 -0.054466903
000040 50 8e 7f bd 9f b8 a0 bd 31 0e 8b bd 24 9b a9 bd
       -0.06239158 -0.07847714 -0.06789816 -0.08281544
000050 69 91 ce bd c7 cc c4 bc a5 7d d4 bd c5 9d 9f bd
       -0.100863285 -0.024023427 -0.10375527 -0.07793764
000060 21 b5 07 be 7b 8a 1a bd ae aa 8d bd e3 c1 e7 bc
       -0.13252689 -0.03772972 -0.0691732 -0.028290695
000070 b2 b6 0a bd 9d 71 5d be 04 d3 a2 bd 1d 7b 91 bd
       -0.033865638 -0.21625371 -0.07950404 -0.0710356
000080 65 dd 34 bd cf a7 0a be 19 41 7e bd ac 5d f0 bd
       -0.04415645 -0.13540576 -0.0620738 -0.117366165
000090 42 dd 85 bd a5 eb fc bc cc 74 3a be d8 41 06 be
       -0.06536342 -0.030874083 -0.18208617 -0.13111055
0000a0 af 2c 23 be fc 77 44 bd e0 94 bc bd 77 9d 07 be
       -0.15935014 -0.04796599 -0.09208083 -0.13243662
0000b0 5a 35 ba bc 3b e3 be bd 77 8b 79 bd 5b 62 23 bd
       -0.022730518 -0.093206845 -0.06092402 -0.03988872
0000c0 11 fd 0b be b6 3b ed bc 7e d3 94 bd 00 dd 40 be
       -0.13670756 -0.028959136 -0.072669014 -0.18834305
0000d0 7b e8 c8 bd 2c 81 81 bd 8b af 5d bd 27 dc d8 bc
       -0.09809967 -0.06323466 -0.05412249 -0.026472164
0000e0 65 aa ab bd 9a 78 04 be fd b9 97 bd 77 81 11 bd
       -0.083821096 -0.12936631 -0.07408521 -0.035523858
0000f0 46 fe f3 bc 60 73 82 bd 2f 9c 7e bd f3 41 8b bd
       -0.029784333 -0.06369662 -0.062160667 -0.06799688

baseModel.9.running_mean f4 [64]
000000 6d e7 c1 3c 24 fc e7 3e f3 a7 d9 3e b5 0f 5e be
       0.023669923 0.45309556 0.42510948 -0.2168568
000010 67 28 11 3e 65 15 05 bf a9 28 9c 3e e2 e8 15 3e
       0.14175569 -0.5198577 0.3049977 0.14639619
000020 3c 7b 04 be e2 e8 3c be 11 21 2b 3e a0 ad fc 3c
       -0.12937635 -0.18448213 0.16711833 0.03084451
000030 fd 3a d7 bc 08 fc 0f 3f ad 98 ab 3e 54 e1 30 bd
       -0.026273245 0.56243944 0.3351492 -0.04318364
000040 49 cb 14 bd b5 fe 8b be f2 07 5f 3d a5 0b 81 bd
       -0.03632668 -0.27342764 0.054450937 -0.06301049
000050 46 85 4a 3e c6 29 41 bf d3 6d 6f 3f cc 1e 62 3e
       0.19777402 -0.75454366 0.93526953 0.2208206
000060 25 32 21 be df bf b0 bc 4e 20 c5 3e 2f 0a 04 3e
       -0.15741785 -0.021575866 0.3850121 0.1289451
000070 e4 ae 49 3e 62 0a 3f 3e d0 c1 c4 3e 2c 76 9e bd
       0.19695622 0.18656304 0.38429117 -0.07737383
000080 ef 7f bd 3d 23 a3 51 3d 46 a6 db 3e fa b6 56 be
       0.09252917 0.05118097 0.42900294 -0.20968238
000090 13 37 a1 3e cc 67 a6 3d 95 e9 af 3e fc 99 91 3d
       0.3148733 0.081252664 0.34357896 0.07109448
0000a0 cd 08 f5 3e 4e a2 4d be 1a 5c 02 be d0 5d 21 3d
       0.47858277 -0.20081446 -0.12730446 0.039396107
0000b0 1b 00 6b 3a 7b ff a8 3d 27 b6 00 bf f4 db 51 3e
       0.0008964554 0.08251854 -0.5027794 0.20494062
0000c0 d8 5e a9 3e 69 6e 7d 3e c7 58 4b bf a4 f7 ea 3e
       0.33080173 0.2474915 -0.7943234 0.4589206
0000d0 5d bd f0 bd 54 20 b3 3d 66 19 c8 bd 3e 69 92 3e
       -0.11754868 0.087464005 -0.09770469 0.28595918
0000e0 2b 58 a5 3c 62 03 29 be 5d fa 1f bc fd f6 e5 3e
       0.020183643 -0.16505197 -0.009764281 0.44915
0000f0 18 2d 6b 3d 26 28 d5 3e 26 16 64 3d 07 0a c8 3d
       0.05741605 0.41632193 0.055685185 0.097675376

baseModel.9.running_var f4 [64]
000000 db 7c 92 3d aa 7e c7 3d e1 c5 9c 3d 56 f8 da 3d
       0.071527205 0.09740956 0.0765493 0.106918976
000010 7c b0 e8 3d a4 f4 d0 3d 2d 21 97 3d 5c 53 94 3d
       0.11361787 0.102029115 0.07379375 0.07242462
000020 0c 4b af 3d 60 6d ae 3d 49 33 d1 3d a6 f1 f8 3d
       0.08559236 0.085169554 0.1021486 0.12155466
000030 75 da 35 3e a3 e0 21 3e 76 23 db 3d b7 9f d6 3d
       0.17759116 0.15808348 0.10700123 0.10479682
000040 87 e2 be 3d f7 34 88 3d bd e6 62 3d 58 ff 43 3d
       0.093205504 0.06650727 0.05539583 0.047850937
000050 af fa e7 3d 43 94 95 3d 3a 1c 29 3e 46 ec 66 3e
       0.11327111 0.07303669 0.16514674 0.22551069
000060 d5 eb ae 3d 5b 91 b9 3d 43 9f 05 3e 99 5d a7 3d
       0.08541075 0.090609275 0.13049035 0.08172149
000070 e8 df c7 3d 57 70 f9 3d ce 11 0d 3e ec b6 6b 3d
       0.097595036 0.1217963 0.13776323 0.057547495
000080 e3 6e ac 3d 4c 10 a5 3d ab 95 80 3d b0 25 b3 3d
       0.084195875 0.08059749 0.06278547 0.08747423
000090 2c 9f b5 3d a9 0f db 3d fb 92 11 3e 64 60 89 3d
       0.0886825 0.10696346 0.14216225 0.06707838
0000a0 8d ac 0b 3e 99 bd 96 3d 35 fd d5 3d 6b 83 c2 3d
       0.13640042 0.07360382 0.10448686 0.09497722
0000b0 9d 01 03 3e 35 f6 9f 3d 72 6a d9 3d a6 f2 b3 3d
       0.12793584 0.07810632 0.10616006 0.08786516
0000c0 fe c9 b6 3d 41 45 c2 3d e0 cf 9d 3d 83 b3 16 3e
       0.08925246 0.094858654 0.07705665 0.14716916
0000d0 b1 81 a7 3d ff b9 f1 3d 6c 0a c7 3d 78 7a 92 3d
       0.081790335 0.11803054 0.09718785 0.07152265
0000e0 ff 22 e8 3d 16 a0 bc 3d ad bd 03 3e 58 ff ba 3d
       0.113348 0.092102215 0.12865324 0.09130734
0000f0 29 bc c3 3d 90 32 da 3d eb cb 1d 3e b0 9b e9 3d
       0.09557373 0.10654175 0.1540982 0.11406648
