Models/best_bl_0502.pth (torch, 495567 bytes, 42 tensors)

baseModel.0.weight f4 [64, 2, 3]
0	0x3e9df3df	0.3085012
1	0x3e02178e	0.12704298
2	0xbe8bd215	-0.27308717
3	0x3e3ee7ca	0.18643108
4	0xbe7966d0	-0.24355626
5	0xbe447f57	-0.19189201
6	0x3e6cc5c9	0.23122324
7	0xbe9626c3	-0.29326448
8	0x3e2c8f12	0.16851452
9	0x3c38bf87	0.011276132
10	0x3db7250d	0.08942614
11	0xbd7df792	-0.06200368
12	0xbe07c41e	-0.13258407
13	0x3e0cdf32	0.13757017
14	0x3d802b23	0.06258228
15	0x3e0e81c7	0.13916694
16	0x3e5bb25c	0.21454757
17	0xbdc33400	-0.095314026
18	0x3dc2222a	0.094791725
19	0xbe2f1a52	-0.17099884
20	0xbe41e6fd	-0.18935771
21	0x3e4e5141	0.20148183
22	0x3e39618c	0.18103617
23	0xbd98c08b	-0.074586
24	0x3d25f61d	0.040517915
25	0x3dc6d14a	0.097078875
26	0x3e9226a6	0.2854511
27	0x3e663530	0.22481227
28	0x3e8c223c	0.2736987
29	0x3da3976e	0.07987867
30	0xbe8c5542	-0.27408797
31	0x3e5f3ed7	0.21801315
32	0x3ea27cc1	0.31735805
33	0xbe2ac2e9	-0.16675915
34	0x3e7d11bc	0.24713796
35	0xbdeb1a2c	-0.11479601
36	0xbd990b0b	-0.074728094
37	0xba99793e	-0.0011709107
38	0xbd3334bd	-0.043751467
39	0x3e5e2a45	0.21695812
40	0xbe0c7ceb	-0.13719527
41	0x3dc8c15e	0.09802507
42	0x3de177bc	0.11009166
43	0xbc5fa120	-0.013649255
44	0x3e2ff89d	0.17184682
45	0xbea29e1e	-0.3176126
46	0x3e7ce178	0.24695385
47	0x3e5d88b7	0.21634184
48	0xbe96a47a	-0.2942236
49	0xbe6b3e7d	-0.22973056
50	0x3c33cc9f	0.010974078
51	0x3e761fa8	0.24035513
52	0xbe81ecb7	-0.25375912
53	0xbe876820	-0.2644663
54	0x3caab9cf	0.020840554
55	0xbe9a6e8a	-0.3016246
56	0x3e29314a	0.16522709
57	0x3e4fa89b	0.20279162
58	0xbc8e79b8	-0.017392024
59	0xbccea0e1	-0.025223197
60	0xbdda94a2	-0.10672881
61	0x3e72264e	0.23647425
62	0xbe1c984e	-0.15292475
63	0xbe018750	-0.12649274
64	0x3e89a237	0.26881573
65	0xbdf9aa59	-0.12190694
66	0x3c89c838	0.016819105
67	0xbcc215a7	-0.023691965
68	0x3ddea482	0.10871221
69	0xbe9a134a	-0.3009284
70	0xbe965e63	-0.29368886
71	0x3de40f94	0.11135784
72	0xbe351119	-0.17682303
73	0x3e531381	0.20612909
74	0x3e73f6f5	0.23824675
75	0x3e8f6711	0.2800832
76	0xbeab526f	-0.3346133
77	0xbe6edfb9	-0.23327531
78	0xbe8c6eb7	-0.2742822
79	0x3e8cce23	0.2750102
80	0x3c405a08	0.011740215
81	0x3e1c8e3f	0.15288638
82	0xbda21a7a	-0.07915206
83	0x3e31d219	0.17365302
84	0xbdda1210	-0.106479764
85	0x3e7e05a8	0.24806845
86	0xbe53f6bb	-0.20699589
87	0xbdc90b80	-0.098166466
88	0x3e25ac1e	0.16178939
89	0x3da28367	0.07935219
90	0xbcae682e	-0.021289911
91	0x3eb6c0d0	0.3569398
92	0x3e74e4db	0.23915426
93	0xbdd53802	-0.10411073
94	0x3e8b8602	0.27250677
95	0x3e79be42	0.24388984
96	0x3d6ebe69	0.058287058
97	0x3e5d327b	0.21601288
98	0x3eb5140a	0.3536685
99	0xbdba065b	-0.090832435
100	0x3bae1ae8	0.005313266
101	0xbde50773	-0.111830615
102	0x3e9827c9	0.29717854
103	0x3e94b868	0.2904694
104	0xbdafa3d0	-0.08576167
105	0xbe59a6b6	-0.21255001
106	0x3e5b131d	0.2139401
107	0x3eb11dbe	0.34593004
108	0x3e289591	0.16463305
109	0xbe4b67c9	-0.1986381
110	0xbe3e75c1	-0.18599607
111	0xbe088291	-0.13331057
112	0xbeaa2c43	-0.33236894
113	0x3e3262c3	0.17420487
114	0xbe8b8ae5	-0.27254406
115	0xbde8eaba	-0.113728955
116	0x3e5a7647	0.21334182
117	0xbe94c466	-0.2905609
118	0xbd6357e7	-0.055503752
119	0x3e41b9a2	0.1891847
120	0xbd280890	-0.04102379
121	0x3e4b12a0	0.19831324
122	0x3e714e91	0.23565127
123	0x3e4cbd94	0.19994193
124	0x3e713277	0.23554407
125	0xbe3e15d1	-0.1856301
126	0x3d4550fa	0.04817293
127	0x3eaf7f21	0.3427668
128	0x3e98db76	0.29854935
129	0x3d69dcd4	0.057095364
130	0xbe73f6e1	-0.23824646
131	0x3de56ab6	0.11201994
132	0x3e0302d3	0.12794046
133	0xbd3429ea	-0.043985285
134	0x3e6c7b49	0.23093905
135	0xbe372e24	-0.17888695
136	0x3eb99444	0.3624593
137	0x3eaea853	0.34112796
138	0xbd4d4f66	-0.05012455
139	0xbe89fc66	-0.26950377
140	0xbec6ef0a	-0.38854247
141	0x3de5020e	0.111820325
142	0xbd24a949	-0.040200505
143	0x3e9c6aaa	0.30550128
144	0xbe0f33bb	-0.13984577
145	0x3c03c02b	0.008041422
146	0x3bf73d44	0.007545145
147	0x3d71468e	0.058905177
148	0x3eaee8b8	0.34161925
149	0x3eabb03e	0.335329
150	0xbea52f76	-0.32262772
151	0xbd792780	-0.060828686
152	0x3eaff609	0.34367397
153	0xbd953181	-0.07284833
154	0xbd96ff8a	-0.07372959
155	0xbe0029da	-0.12515965
156	0x3e4f914a	0.20270267
157	0x3d8e47b9	0.06947274
158	0xbe9a44c0	-0.30130577
159	0x3d95263b	0.072826825
160	0x3eb28a95	0.34871355
161	0x3dbc1e29	0.0918544
162	0x3e90fa43	0.28315935
163	0x3e4dca6d	0.2009675
164	0xbca26c55	-0.019827047
165	0xbe3cfae4	-0.18455082
166	0x3d6284c0	0.05530238
167	0xbcf5f9fc	-0.030026428
168	0x3d37138e	0.044696383
169	0xbdedeb01	-0.11617089
170	0xbe9bda91	-0.3044019
171	0xbe649eb6	-0.22326168
172	0x3d5ed96e	0.054406576
173	0xbe585b2f	-0.21128534
174	0xbe2ec50b	-0.17067353
175	0xbe471ff1	-0.19445778
176	0xbc9f2ccc	-0.01943054
177	0x3c442abf	0.011973082
178	0x3e97be9d	0.29637614
179	0x3e19468d	0.14968319
180	0xbe6ef0b6	-0.23334011
181	0x3e84f651	0.25969175
182	0x3e13cedb	0.14434378
183	0xbe830020	-0.25586033
184	0xbe5f79d1	-0.21823813
185	0xbb7842b1	-0.0037881548
186	0xbe4baffa	-0.19891348
187	0x3dc0b34d	0.09409199
188	0xbcab50ec	-0.02091261
189	0x3e7a955d	0.2447104
190	0xbe96c2d1	-0.29445508
191	0xbd28784a	-0.04113034
192	0x3cfa78cb	0.030575177
193	0xbe647d9c	-0.22313541
194	0xbe2a06bf	-0.16604136
195	0xbcca298c	-0.024678014
196	0x3d7a393b	0.061089735
197	0xbd664c12	-0.05622489
198	0x3d905287	0.07046991
199	0xbc8d48b4	-0.017246582
200	0x3d883cc8	0.06652218
201	0xbe851e20	-0.25999546
202	0x3ea2cc20	0.3179636
203	0xbe61cb82	-0.22050288
204	0xbe595123	-0.21222357
205	0xbdd7dd24	-0.10540226
206	0xbd56ae29	-0.052412186
207	0x3ea6bbd6	0.32565182
208	0x3e9ad1a6	0.30238074
209	0xbddfa58c	-0.109202474
210	0xbd806db7	-0.062709264
211	0xbe78ee37	-0.24309622
212	0x3dc1a175	0.094546236
213	0xbe7e713b	-0.24847881
214	0x3d5fef63	0.054671656
215	0x3e8f479c	0.2798432
216	0x3e8a668e	0.27031368
217	0x3eb6ecb9	0.3572748
218	0x3e7a6135	0.24451144
219	0x3e51391a	0.20431939
220	0x3e0ee597	0.13954769
221	0x3e0da6e6	0.13833198
222	0x3d483886	0.04888203
223	0xbe18ff81	-0.14941217
224	0x3d5f2ed7	0.05448803
225	0x3dcdad35	0.10042802
226	0xbe9bba68	-0.30415654
227	0x3d382eef	0.044966634
228	0x3e3b54c1	0.1829405
229	0xbe0d3d96	-0.13793024
230	0x3e3148d5	0.1731294
231	0x3e6b64c2	0.22987655
232	0x3e68734b	0.22700231
233	0x3e8d2a5f	0.2757139
234	0xbe3d6c66	-0.18498382
235	0x3e1613d0	0.14655995
236	0xbe87a53e	-0.26493257
237	0x3e8328df	0.2561712
238	0x3da5c7f6	0.0809478
239	0xbea491f4	-0.32142603
240	0xbe361c5a	-0.17784253
241	0x3e99a371	0.30007508
242	0x3dbf0afe	0.093282685
243	0xbe9ab5da	-0.30216867
244	0xbe81347e	-0.2523536
245	0xbe0ebadf	-0.13938473
246	0x3dd3de8a	0.1034518
247	0xbe880247	-0.26564237
248	0xbe5c446b	-0.21510474
249	0xbe68df25	-0.22741373
250	0x3e572681	0.21010782
251	0x3e94c5a4	0.29057038
252	0xbd05c7d9	-0.032661293
253	0xbc186906	-0.009302383
254	0xbcad2820	-0.021137297
255	0x3da1c6be	0.07899235

baseModel.0.bias f4 [64]
0	0x38898caf	6.5588734e-05
1	0x3a90a7e9	0.0011036369
2	0xb9801762	-0.00024431484
3	0x389608b3	7.154178e-05
4	0x3a1665de	0.00057372253
5	0x371155c1	8.66264e-06
6	0xba2bf06d	-0.00065589586
7	0x3a2cf5cd	0.00065979065
8	0x39d44fca	0.00040495238
9	0x3a55576a	0.0008138331
10	0x3a0488f0	0.00050558057
11	0xba980ecf	-0.0011601093
12	0xb9bc3899	-0.00035900323
13	0x38f1dee5	0.00011533293
14	0x390cf501	0.00013442711
15	0xb801599a	-3.0839445e-05
16	0xb90e9740	-0.0001359852
17	0xba0e9144	-0.00054385164
18	0x3985881c	0.00025469146
19	0xb7261e6d	-9.901455e-06
20	0x3a1b5f9c	0.00059270277
21	0xb9ea7c24	-0.0004472445
22	0xb88794b9	-6.4650034e-05
23	0xb94747e1	-0.00019004896
24	0x399bb6fa	0.00029700232
25	0xb9ccd2c3	-0.00039066942
26	0x39356c6c	0.00017301895
27	0xb9e8fbae	-0.00044438004
28	0x3918d4bf	0.00014575104
29	0x3817dda8	3.620764e-05
30	0xb7f73ea4	-2.9473864e-05
31	0x39402179	0.00018323016
32	0x3a343b61	0.0006875303
33	0xb9c90e70	-0.00038348464
34	0x39942648	0.00028257282
35	0x398197f7	0.0002471802
36	0xba126e5d	-0.00055859034
37	0xb99263bb	-0.00027921595
38	0x391f31f7	0.00015182035
39	0xb92afd2e	-0.0001630678
40	0x39ebbcaa	0.0004496326
41	0xb99bef93	-0.000297424
42	0x39456204	0.00018823898
43	0x38db04d6	0.000104436345
44	0x383e8bc5	4.54297e-05
45	0xba35352d	-0.0006912526
46	0xb8b892f0	-8.801173e-05
47	0xb9a6f473	-0.00031844116
48	0xb974ca53	-0.00023345025
49	0xb7ba3ca3	-2.2201164e-05
50	0x394eda6c	0.0001972706
51	0xb8cd51c3	-9.790391e-05
52	0x38d0cbbb	9.956161e-05
53	0xb8cdfbd7	-9.8220706e-05
54	0x39e49b36	0.0004360319
55	0x39d67e17	0.00040911205
56	0x39eb9fe8	0.00044941832
57	0x38b0a9a7	8.423934e-05
58	0x3a3e873f	0.0007268078
59	0xb99bd077	-0.00029719222
60	0x39a826bf	0.00032072325
61	0x38029040	3.112876e-05
62	0xb998944b	-0.00029102186
63	0xb98a99ce	-0.00026436005

baseModel.1.weight f4 [64]
0	0x3f43c2a9	0.764689
1	0x3f45dc69	0.77289444
2	0x3f3aa822	0.729128
3	0x3f5d2a7a	0.8639294
4	0x3f4f1e2d	0.8090542
5	0x3f37fcd6	0.7187017
6	0x3f2d7632	0.67758477
7	0x3f34b569	0.7058931
8	0x3f548094	0.83008695
9	0x3f35a81b	0.70959634
10	0x3f3bab2f	0.7330808
11	0x3f3c2532	0.73494256
12	0x3f334e30	0.7004118
13	0x3f304aad	0.68863946
14	0x3f2a80d7	0.66602844
15	0x3f52f1a6	0.82399976
16	0x3f56cf13	0.8390972
17	0x3f5bab45	0.8580821
18	0x3f48fe8f	0.78513426
19	0x3f474cb4	0.77851415
20	0x3f49af4c	0.78783107
21	0x3f4d9265	0.80301505
22	0x3f3f8ed4	0.74827313
23	0x3f4864a1	0.7827855
24	0x3f545003	0.8293459
25	0x3f4a171e	0.78941524
26	0x3f4a2150	0.7895708
27	0x3f429677	0.7601084
28	0x3f3037fb	0.6883542
29	0x3f534a3a	0.82535136
30	0x3f4afd84	0.79293084
31	0x3f2e0f60	0.6799221
32	0x3f4cdd02	0.8002473
33	0x3f3e593f	0.7435493
34	0x3f4b4d19	0.79414517
35	0x3f470c16	0.77752817
36	0x3f5df6b1	0.86704546
37	0x3f32015e	0.69533336
38	0x3f43f471	0.76544863
39	0x3f42cd59	0.76094586
40	0x3f4ce761	0.80040556
41	0x3f3b3fdc	0.73144317
42	0x3f5079bb	0.81435746
43	0x3f643804	0.89147973
44	0x3f48bb38	0.78410673
45	0x3f4cf0c1	0.8005486
46	0x3f2cb6c0	0.67466354
47	0x3f582692	0.84433854
48	0x3f3f6086	0.7475666
49	0x3f388dff	0.7209167
50	0x3f2ecd05	0.68281585
51	0x3f587f08	0.84568834
52	0x3f5589fe	0.83413684
53	0x3f441f2f	0.7661008
54	0x3f2f0dc3	0.68380374
55	0x3f3c9562	0.7366544
56	0x3f5dec51	0.86688715
57	0x3f3c91bf	0.7365989
58	0x3f690670	0.9102545
59	0x3f4b0af8	0.7931361
60	0x3f68a4c7	0.9087643
61	0x3f3e425a	0.74319994
62	0x3f3b6345	0.7319835
63	0x3f5b5cd2	0.8568851

baseModel.1.bias f4 [64]
0	0xbd405442	-0.046955355
1	0x3c88f755	0.0167195
2	0xbd836e6d	-0.064175464
3	0xbd8da3ef	-0.069160335
4	0xbd447d7b	-0.04797123
5	0xbce48d3b	-0.027899375
6	0xbab7258e	-0.0013972984
7	0xbd0b3341	-0.033984426
8	0xbdd680d6	-0.10473792
9	0xbd9739bf	-0.07384061
10	0xbc4aabaa	-0.012370029
11	0xbd8ca374	-0.06867114
12	0xbbee38f9	-0.0072699753
13	0xbc89e88c	-0.01683452
14	0xbd50fc03	-0.051021587
15	0x3b3ce450	0.0028822608
16	0xbd15444d	-0.03644209
17	0xbdca6123	-0.098818086
18	0xbdc0a76c	-0.09406933
19	0xbb3ad37a	-0.0028507398
20	0xbdb1ab90	-0.08675301
21	0x3cdee7f7	0.027210219
22	0xbd90bedc	-0.070676535
23	0xbc9ba856	-0.019001167
24	0xbcb1321b	-0.021630337
25	0xbd29c0e5	-0.041443724
26	0xbd91ac99	-0.071129985
27	0x3c46c7ad	0.012132567
28	0xbdafd1d9	-0.08584947
29	0xbc9fad7e	-0.019491907
30	0xbd0867a0	-0.03330195
31	0xbd844ac4	-0.06459573
32	0xbce1aa0f	-0.02754691
33	0x3d4741d9	0.04864678
34	0xbd96dd59	-0.073664375
35	0xbd382782	-0.044959553
36	0xbd48cc48	-0.049022943
37	0xbd5224b1	-0.051304523
38	0xbd3f8179	-0.046754334
39	0xbcb962f0	-0.022630185
40	0xbd8ae9fc	-0.0678291
41	0xbd6300fe	-0.055420868
42	0x3bc449a4	0.005990224
43	0xbd8d47cc	-0.0689846
44	0xbd66729f	-0.056261655
45	0xbd4e6da0	-0.050397515
46	0xbd059ad9	-0.032618377
47	0xbcbdb6c1	-0.023158433
48	0xbd8d91c1	-0.06912566
49	0xbc975277	-0.01847194
50	0xbd5d575a	-0.054038383
51	0xbd3ef5a5	-0.046620984
52	0xbd7240b4	-0.059143737
53	0xbd968570	-0.0734967
54	0xbd8f07b0	-0.06983888
55	0xbddff59e	-0.1093552
56	0xbd269bc3	-0.04067589
57	0xbd575683	-0.05257274
58	0xbd2fdedd	-0.04293715
59	0xbcb56d52	-0.022146855
60	0xbdb4fe06	-0.088375136
61	0x3c8b5bc5	0.017011533
62	0xbd652f9d	-0.05595361
63	0xbd89baa9	-0.06725056

baseModel.1.running_mean f4 [64]
0	0x37e952b9	2.7814285e-05
1	0x3a84a9a5	0.0010121359
2	0xb98fb2ac	-0.00027408206
3	0x37ff4717	3.0431473e-05
4	0x398c92c4	0.0002681223
5	0xb7688935	-1.3860224e-05
6	0xba380ba9	-0.00070207805
7	0x39d99bc5	0.00041505523
8	0x397110ac	0.00022989762
9	0x3a57ceaa	0.00082323945
10	0x39e9a01d	0.00044560517
11	0xba4f1dd7	-0.000790087
12	0xba1856ae	-0.0005811256
13	0x37855096	1.5892361e-05
14	0x3825d514	3.953751e-05
15	0x39739e83	0.00023233336
16	0xb80be041	-3.3349035e-05
17	0xb9eef747	-0.00045579133
18	0x39b6993a	0.00034827908
19	0xb932a5e6	-0.00017037205
20	0x39d377b3	0.0004033424
21	0xb948c794	-0.00019147835
22	0xb8938504	-7.034282e-05
23	0xb66fe3af	-3.5746305e-06
24	0x3a1a0ffc	0.00058770156
25	0xb9bcc976	-0.00036008254
26	0x3a0becbd	0.0005337706
27	0xb9a14098	-0.0003075644
28	0x39214057	0.00015378125
29	0xb6bc0ffe	-5.6046983e-06
30	0xb947c017	-0.00019049678
31	0x398a8e80	0.00026427582
32	0x3a29f3c6	0.00064831635
33	0xb98284fd	-0.00024894616
34	0x3928fb96	0.00016115452
35	0x398a0932	0.00026328262
36	0xb9f42c36	-0.00046572246
37	0xb949151e	-0.0001917672
38	0x399b7e22	0.0002965788
39	0xb9c489ea	-0.00037486787
40	0x39cea08f	0.00039411007
41	0xb99ea912	-0.00030262076
42	0x3964b54d	0.00021811314
43	0xb7402841	-1.1453464e-05
44	0x3910fde9	0.00013827499
45	0xba3111bc	-0.0006754657
46	0xb8123aab	-3.486375e-05
47	0xb9b4ac67	-0.00034460725
48	0xb8a7506d	-7.978161e-05
49	0x3852d7b3	5.0268787e-05
50	0x39b3cab7	0.00034292575
51	0x3926fc15	0.00015924902
52	0x394bcb02	0.00019435215
53	0xb8832b62	-6.2546475e-05
54	0x39395dff	0.00017677991
55	0x39969d90	0.00028727623
56	0x39689a24	0.00022182666
57	0x38b180d1	8.4640116e-05
58	0x3a4b3996	0.00077524164
59	0xb9ec9584	-0.00045124826
60	0x390dd977	0.0001352782
61	0xb94a30a7	-0.00019282346
62	0xb9871094	-0.00025761558
63	0xb9721f34	-0.00023090543

baseModel.1.running_var f4 [64]
0	0x373c8078	1.1235585e-05
1	0x3663b5c3	3.3931435e-06
2	0x368bb663	4.1637554e-06
3	0x36e1ad40	6.7256915e-06
4	0x374a6326	1.2063223e-05
5	0x37277206	9.980524e-06
6	0x3605dd74	1.9947447e-06
7	0x370a09ae	8.227695e-06
8	0x376ea5cf	1.4224511e-05
9	0x368fc902	4.2851325e-06
10	0x3676f0fe	3.6797132e-06
11	0x3716735d	8.967557e-06
12	0x375faff0	1.3332799e-05
13	0x36ad16b6	5.1584457e-06
14	0x36739ad0	3.6299934e-06
15	0x3783b853	1.570225e-05
16	0x372afc9a	1.0191603e-05
17	0x378cf70c	1.680434e-05
18	0x37191983	9.125451e-06
19	0x371a8b5b	9.2115615e-06
20	0x371e5221	9.436656e-06
21	0x375be8c0	1.31076085e-05
22	0x376fe934	1.4299807e-05
23	0x37856819	1.590331e-05
24	0x3763e096	1.3582545e-05
25	0x371ac19d	9.224194e-06
26	0x373fd28d	1.143351e-05
27	0x36f23a71	7.2189655e-06
28	0x37085001	8.124859e-06
29	0x371b10de	9.242647e-06
30	0x372f67b3	1.0454957e-05
31	0x36a72d9b	4.982297e-06
32	0x36853ffa	3.9711567e-06
33	0x36909c4e	4.3097307e-06
34	0x37557870	1.2723831e-05
35	0x36f7496a	7.36972e-06
36	0x37ab0ea3	2.0391604e-05
37	0x365a89b0	3.2564676e-06
38	0x37515df0	1.2479242e-05
39	0x371652eb	8.960003e-06
40	0x376f00bf	1.4245684e-05
41	0x374da91b	1.2258325e-05
42	0x370f2ff9	8.534634e-06
43	0x37bc6dc6	2.2462464e-05
44	0x37213025	9.607557e-06
45	0x36e5eb27	6.852107e-06
46	0x3666896d	3.4352663e-06
47	0x37787338	1.4808778e-05
48	0x37253453	9.846949e-06
49	0x36a8373a	5.0132194e-06
50	0x3602b982	1.947949e-06
51	0x37300f3b	1.0493964e-05
52	0x375898c2	1.291017e-05
53	0x37855701	1.589535e-05
54	0x3695ccf7	4.464407e-06
55	0x36e9207f	6.947724e-06
56	0x37941de8	1.7656901e-05
57	0x36fae8f2	7.477699e-06
58	0x374611dc	1.1805878e-05
59	0x370fc0bb	8.568338e-06
60	0x3797f22a	1.811337e-05
61	0x3731ad43	1.0590363e-05
62	0x36fffbcb	7.6289048e-06
63	0x37486765	1.1945002e-05

baseModel.4.weight f4 [64, 64, 3]
0	0xbd29a536	-0.041417323
1	0xbda335b0	-0.079692245
2	0xbc9181a8	-0.01776202
3	0xbd4b5456	-0.049640976
4	0x3c018ffc	0.007907864
5	0xbcfcfdf5	-0.030882815
6	0xbd4932b3	-0.049120616
7	0xbc707ef7	-0.014678708
8	0xbc664c36	-0.014056256
9	0xbc7fbf3f	-0.0156095615
10	0x3db72cf9	0.08944125
11	0xbd3a59bb	-0.04549573
12	0xbd805152	-0.062655106
13	0xbc659b6f	-0.014014109
14	0xbd1fe5bd	-0.039037455
15	0xbbee46ed	-0.0072716386
16	0x3c99faa9	0.018796282
17	0x3ca0533f	0.019570945
18	0x3d1efc41	0.038814787
19	0x3b402b7b	0.0029322791
20	0xbd56ffac	-0.05248992
21	0xbccf4a99	-0.025304126
22	0x3c157543	0.009122196
23	0x3b04a2f1	0.0020238722
24	0xbc78e703	-0.015191796
25	0x3d0fb32f	0.035082992
26	0xbcadd346	-0.021218907
27	0x3d07ddb0	0.033170402
28	0xbd64af21	-0.05583108
29	0x3d10986e	0.03530162
30	0xbd30980b	-0.04311375
31	0xbc3c2dd4	-0.011485536
32	0xbd54aef0	-0.051924646
33	0x3d0501f9	0.032472584
34	0x3c5b152e	0.013371749
35	0x3cb79603	0.022410398
36	0x3bdbda86	0.0067093996
37	0x3b7a5d6a	0.0038202652
38	0xbc044aaf	-0.008074447
39	0x3b666193	0.0035153374
40	0x3c14aaf0	0.009073958
41	0xbb96c21e	-0.0046007773
42	0xbd6dc3da	-0.058048107
43	0xbd1cdb95	-0.038295347
44	0xbc623889	-0.013807424
45	0x3d30eb34	0.043193057
46	0x3d42f709	0.047598872
47	0x3d1c0cf0	0.038098276
48	0x3a3ce242	0.0007205346
49	0x3d95d300	0.07315636
50	0xbc1d4b62	-0.009600492
51	0x3d794e75	0.060865838
52	0x3d39dee4	0.04537858
53	0x3cd0715e	0.025444683
54	0xbc6debfa	-0.014521593
55	0xbd11b5a4	-0.035573617
56	0xbd3d09dd	-0.046151984
57	0x3d7dbb16	0.061945997
58	0xbcf32666	-0.029681396
59	0x3d4c5921	0.049889687
60	0x3d0d0ee1	0.034438018
61	0x3cec4428	0.028841093
62	0x3d8f90ce	0.07010041
63	0xbc9b55dd	-0.018961841
64	0x3da9cc8f	0.082909696
65	0xbd09f628	-0.03368202
66	0x3b25fadc	0.0025326526
67	0x3cda6aaf	0.026662199
68	0x3d18cb71	0.03730339
69	0xbc38c503	-0.01127744
70	0x3d23c8c7	0.039986398
71	0xbc501cbb	-0.012702162
72	0x3d046312	0.032321043
73	0x3c22ba2f	0.009932085
74	0x3d2fa575	0.0428824
75	0x3cf49b6b	0.029859265
76	0xbdcb33e6	-0.09922008
77	0x3cb21af8	0.021741375
78	0x3d9c88b4	0.076432616
79	0x3cf405cf	0.029787926
80	0x3d37081f	0.04468548
81	0xbd1db2ab	-0.03850047
82	0x3d25db66	0.040492438
83	0x3c3485a6	0.011018192
84	0xbc512887	-0.01276601
85	0x3d02ce14	0.031934813
86	0x3d0f2906	0.034951232
87	0xbd69a5d4	-0.05704291
88	0xba3957a1	-0.00070702477
89	0xbc4fc3f3	-0.012680995
90	0x3d4e8236	0.050417148
91	0xba9f6eb6	-0.0012163732
92	0xbb006947	-0.0019594
93	0x3cc70b2b	0.024297317
94	0xbdba973b	-0.09110876
95	0x3c4c8146	0.012481993
96	0xba0ab1be	-0.0005290768
97	0x3c72cf4c	0.014819931
98	0xbbd67489	-0.006544654
99	0xbca0eb32	-0.0196434
100	0xbd1f3249	-0.038866315
101	0xbc755026	-0.014972722
102	0xbb16e054	-0.0023021894
103	0xbc3b5274	-0.011433233
104	0xbb546767	-0.0032410265
105	0xbd808ae6	-0.06276493
106	0xbd448a92	-0.047983713
107	0xbd7c2e66	-0.061567686
108	0x3c9add9c	0.0189045
109	0xbb7b3c7d	-0.0038335614
110	0x3bccbbb9	0.006247964
111	0x3d16b29f	0.03679144
112	0x3d03cd85	0.03217842
113	0x3cf7e4d3	0.03026048
114	0x3d7f9d61	0.062405948
115	0x3d2d456f	0.042302545
116	0x3d0b3294	0.033983782
117	0xbb53e40b	-0.003233197
118	0xbd9b7ef8	-0.07592577
119	0x3c9b1280	0.01892972
120	0xbc41fa36	-0.01183944
121	0x3c52804a	0.012847969
122	0xbd171d4f	-0.036893185
123	0x3ce6e7b0	0.02818665
124	0x3c65ca5c	0.014025297
125	0x3d2555d8	0.04036507
126	0x3d3155c7	0.043294694
127	0x3d0104ac	0.031498596
128	0x3c252cd8	0.010081492
129	0x3be6ad9b	0.0070397384
130	0x3c5bfd2b	0.013427059
131	0xbcca0a90	-0.02466324
132	0xbd4333ae	-0.047656707
133	0x3d795986	0.06087639
134	0x3d467029	0.048446808
135	0xbc2b20da	-0.010444844
136	0xbdcd2119	-0.100160785
137	0x3a2fe20f	0.00067094056
138	0x3d6f93ce	0.058490567
139	0xbcca5abd	-0.02470147
140	0xbc98bf15	-0.018645803
141	0x3cc7646f	0.024339883
142	0x3ca7cb43	0.020482665
143	0xbcfda342	-0.030961636
144	0x3d3e32bf	0.046435114
145	0x3c8d6f80	0.017265081
146	0xbd3f474c	-0.046698853
147	0xbc0f5ec9	-0.008750626
148	0x3afce986	0.001929567
149	0xbd2beab4	-0.041971877
150	0xbda5cd13	-0.080957554
151	0xbcb1edcf	-0.021719841
152	0xbc7c67c2	-0.015405597
153	0xbd570a85	-0.052500267
154	0xbd98ac30	-0.07454717
155	0xbd88050b	-0.06641587
156	0xbc27c45c	-0.010239687
157	0xbda41bf8	-0.08013147
158	0xbba1d111	-0.0049382527
159	0x3cc99b1f	0.0246101
160	0xbd4e30f8	-0.05033967
161	0xbda05e6f	-0.07830512
162	0x3cfff131	0.031242939
163	0xbcaf05f2	-0.02136514
164	0xbc852579	-0.01625322
165	0xbc4460a7	-0.011985934
166	0xbc18c94c	-0.009325337
167	0x3d6a80a8	0.057251602
168	0x3d5c32c4	0.05375935
169	0xb9b0bece	-0.00033711497
170	0x3d405e51	0.046964947
171	0xbc03ce2a	-0.008044759
172	0xbd998824	-0.0749667
173	0xbd577bf2	-0.052608438
174	0xbd66817d	-0.056275833
175	0x3da627da	0.0811307
176	0x3bc1b19e	0.005911066
177	0x3c929ea6	0.017897915
178	0x3d34c896	0.044136606
179	0x3b2c866e	0.0026325244
180	0x3b657f98	0.0035018679
181	0x3d866be9	0.06563551
182	0xbc5dbc00	-0.013533592
183	0x3d7137b9	0.058891032
184	0x3c99d7d6	0.018779676
185	0x3b872803	0.004124643
186	0xbdafe91b	-0.08589383
187	0xbb2ebf5d	-0.0026664354
188	0xbccbd619	-0.024882363
189	0xbd7ef097	-0.062241163
190	0xba91fb1d	-0.001113746
191	0xbd1a9b0b	-0.037745517
192	0xbd9c90ce	-0.07644807
193	0x3babe4d3	0.005245784
194	0xbc9645e0	-0.018343866
195	0xbd0ab6a6	-0.033865593
196	0xbc44d67c	-0.012014028
197	0x3a8192b6	0.0009885642
198	0x3c234dda	0.009967292
199	0xbcacff3e	-0.021117803
200	0xbc73db6b	-0.014883856
201	0x3d78f3fc	0.060779557
202	0xbcf2800f	-0.029602079
203	0x3d00cfed	0.031448293
204	0x3d1dc7b8	0.038520545
205	0xbd8ce654	-0.06879869
206	0xbd0d9879	-0.034569237
207	0x3c870a76	0.01648448
208	0x3bcc5a01	0.0062363152
209	0x3d3cae14	0.04606445
210	0x3d212aab	0.039347332
211	0x3d982f46	0.07430892
212	0x3c68c311	0.014206664
213	0xbc174607	-0.009233004
214	0x3d12b798	0.03581962
215	0x3d39312a	0.045212902
216	0x3d0acec4	0.033888593
217	0xbc755b53	-0.014975387
218	0x3c768bd5	0.015047987
219	0x3cadcd4c	0.021216057
220	0xbc7d76bc	-0.015470203
221	0xbccd6166	-0.025070857
222	0xbd542701	-0.05179501
223	0x3cbdc37b	0.023164501
224	0x3d34d5b0	0.0441491
225	0x3d36472f	0.04450148
226	0xbd1f7de8	-0.038938433
227	0x3924df23	0.00015723384
228	0xbc2c567f	-0.010518669
229	0xbcfae69e	-0.030627545
230	0xbd4c1079	-0.049820397
231	0xbce43268	-0.027856067
232	0x3b9fac77	0.0048728543
233	0xbc2eaf64	-0.010661934
234	0x3d45d5eb	0.04829971
235	0xbcf6a7ce	-0.030109312
236	0x3c14de51	0.0090862075
237	0x3cd1374b	0.025539061
238	0xbd90b4a8	-0.070657074
239	0xbd0aa5e2	-0.033849604
240	0x3d9759a0	0.073901415
241	0xbd659bdb	-0.05605684
242	0xbbe676bb	-0.0070331967
243	0x3d1a72e8	0.03770724
244	0x3cbdd9c0	0.02317512
245	0x3c215642	0.009847226
246	0x3d0636ea	0.032767214
247	0x3c7f38fd	0.015577552
248	0xbc62cde8	-0.013843037
249	0x3d29823b	0.041383963
250	0x3cd952c1	0.026528718
251	0xbd8ad16c	-0.06778225
252	0xbacd7330	-0.0015674587
253	0xbd2f9ae2	-0.042872317
254	0x3cd995f1	0.026560755
255	0x3d2628cf	0.04056626

baseModel.4.bias f4 [64]
0	0xb6761bd1	-3.6673048e-06
1	0x38aea4fd	8.327698e-05
2	0x346426d9	2.1248287e-07
3	0xb7110564	-8.643929e-06
4	0xb6a35791	-4.8679726e-06
5	0xb6afdca9	-5.2410946e-06
6	0x3551d86c	7.81735e-07
7	0xb735a514	-1.0826876e-05
8	0x38274c99	3.988724e-05
9	0x387a74ef	5.9713548e-05
10	0xb7a31ca2	-1.9444447e-05
11	0xb8042e41	-3.151433e-05
12	0xb7f63e3e	-2.9354469e-05
13	0x37a51078	1.9677202e-05
14	0x37f5fca5	2.9323923e-05
15	0x379381d5	1.7584223e-05
16	0xb7e35442	-2.7099744e-05
17	0xb836810d	-4.351237e-05
18	0xb7a331da	-1.9454328e-05
19	0xb8198fd3	-3.661199e-05
20	0xb8619284	-5.3780634e-05
21	0x36b79978	5.471691e-06
22	0x36129c80	2.184679e-06
23	0x3734acc7	1.0769064e-05
24	0xb78d0318	-1.680995e-05
25	0x37d96713	2.5916414e-05
26	0x37098cbc	8.198604e-06
27	0x3581f54e	9.682642e-07
28	0xb719875a	-9.151025e-06
29	0x36b7e537	5.480509e-06
30	0x3786f508	1.6088146e-05
31	0xb7c00d10	-2.2894266e-05
32	0xb6704057	-3.5800238e-06
33	0xb5ccfc86	-1.5272678e-06
34	0xb785714a	-1.590759e-05
35	0xb7ae1aac	-2.0754836e-05
36	0xb802bcb9	-3.1170177e-05
37	0xb777127e	-1.4726653e-05
38	0xb79d6317	-1.8762e-05
39	0xb813d968	-3.5250006e-05
40	0xb79f953e	-1.9023773e-05
41	0xb7c505e5	-2.3486975e-05
42	0x3668677c	3.463093e-06
43	0xb80621e9	-3.197967e-05
44	0x37d92eb5	2.5890165e-05
45	0xb6941f84	-4.4144126e-06
46	0xb7955613	-1.7802266e-05
47	0x3792ef9c	1.7516133e-05
48	0xb6b992a6	-5.5305018e-06
49	0x37a0ce4c	1.916955e-05
50	0xb65d9e8a	-3.3023848e-06
51	0xb7f07663	-2.8665358e-05
52	0x379236a9	1.743001e-05
53	0x378cbc9e	1.6777132e-05
54	0x374a1ead	1.20472805e-05
55	0xb8753755	-5.8464084e-05
56	0x382c59ff	4.109181e-05
57	0x380ea6f5	3.401093e-05
58	0x35980088	1.1325037e-06
59	0xb6fe39ed	-7.5765333e-06
60	0x382fbfa7	4.190174e-05
61	0xb7f3ed05	-2.9078228e-05
62	0xb6f1cce2	-7.206211e-06
63	0xb82d6384	-4.1339095e-05

baseModel.5.weight f4 [64]
0	0x3f48d77a	0.7845379
1	0x3f459fa2	0.77196705
2	0x3f418b9b	0.75603646
3	0x3f53e838	0.8277621
4	0x3f3f7c39	0.74798924
5	0x3f371b5c	0.7152612
6	0x3f480737	0.7813601
7	0x3f3dfb0a	0.7421118
8	0x3f47f6f5	0.781112
9	0x3f45c54b	0.7725417
10	0x3f3a548b	0.7278525
11	0x3f400741	0.7501107
12	0x3f36069d	0.7110384
13	0x3f36b383	0.71367663
14	0x3f447c13	0.7675182
15	0x3f3f4035	0.7470735
16	0x3f34bffb	0.7060544
17	0x3f3de42a	0.74176276
18	0x3f31bb85	0.6942676
19	0x3f4b2e79	0.79367787
20	0x3f48e76d	0.7847813
21	0x3f41d08f	0.7570886
22	0x3f379259	0.71707684
23	0x3f46c971	0.77651125
24	0x3f508f29	0.81468445
25	0x3f3dd1b7	0.74148124
26	0x3f44b425	0.7683738
27	0x3f3453ee	0.70440567
28	0x3f35e617	0.71054214
29	0x3f55353b	0.8328435
30	0x3f3c0ec8	0.73460054
31	0x3f4e6794	0.806268
32	0x3f3b2e36	0.7311739
33	0x3f411edb	0.75437707
34	0x3f3adfdd	0.7299784
35	0x3f430c06	0.7619022
36	0x3f3084be	0.6895255
37	0x3f3756a0	0.71616554
38	0x3f43d930	0.76503277
39	0x3f488ec6	0.78342855
40	0x3f54d418	0.8313613
41	0x3f4378cc	0.76356196
42	0x3f38d244	0.7219584
43	0x3f3e3268	0.74295664
44	0x3f3052cc	0.6887634
45	0x3f2b098f	0.6681146
46	0x3f3fce60	0.7492428
47	0x3f448350	0.76762867
48	0x3f4c6cb2	0.79853356
49	0x3f2f7026	0.685305
50	0x3f43b980	0.76454926
51	0x3f35b24f	0.709752
52	0x3f4db0ec	0.80348086
53	0x3f3409d2	0.70327485
54	0x3f3ad7c1	0.72985464
55	0x3f591357	0.84795135
56	0x3f3bddcb	0.73385304
57	0x3f357b5b	0.7089135
58	0x3f491b25	0.78557044
59	0x3f3fa363	0.74858683
60	0x3f53994e	0.826558
61	0x3f2cedba	0.6755024
62	0x3f4244f8	0.7588649
63	0x3f392694	0.7232449

baseModel.5.bias f4 [64]
0	0x3ae2d9f1	0.0017307383
1	0xbe0f8cdd	-0.14018579
2	0x3c6a89b1	0.014315055
3	0x3d03d312	0.032183714
4	0xbdd4d1a6	-0.1039155
5	0xbb503b60	-0.0031773672
6	0xbdc76c74	-0.09737483
7	0xbc435f17	-0.011924527
8	0x3c49ef92	0.012325184
9	0xbe20b701	-0.1569481
10	0x3cf49bf4	0.02985952
11	0xbd79786c	-0.06090586
12	0xbbc67699	-0.0060566184
13	0x3d2b8a74	0.041880086
14	0xbd3ccf35	-0.046096046
15	0x3a7f02db	0.00097279035
16	0x3d1ced05	0.038311977
17	0x3d1d14ba	0.038349845
18	0x3d3d2524	0.046178
19	0x3b08bc1a	0.002086407
20	0xbde57ca0	-0.11205411
21	0x3d63909a	0.055557825
22	0x3b5d082a	0.003372679
23	0xbd087ce0	-0.033322215
24	0xbb93e2ae	-0.0045131063
25	0x3d90c0e8	0.07068044
26	0xbc83e50e	-0.016100433
27	0x3d56d6b8	0.052450866
28	0xbd8a762e	-0.06760822
29	0xbcfbaaf6	-0.030721169
30	0x3d65d38b	0.056109946
31	0xbc4bd283	-0.012440327
32	0x3caa26d5	0.02077047
33	0x3b34cb9b	0.0027587179
34	0x3bd5de64	0.006526755
35	0x3c78b528	0.01517991
36	0x3d8740e6	0.06604175
37	0x3d2f14e2	0.042744525
38	0xbcaa2040	-0.020767331
39	0x3e17bb40	0.14817524
40	0xbdedc3b9	-0.11609597
41	0x3d05c809	0.03266147
42	0xbcc829df	-0.024434028
43	0x39db04ca	0.00041774503
44	0x3af7b438	0.0018898314
45	0xbcfc2244	-0.030778058
46	0x3caabee8	0.020842984
47	0x3d1ee1df	0.038789626
48	0xbd273163	-0.040818583
49	0xbd7c121d	-0.06154071
50	0x3c033e53	0.008010465
51	0xbcc51d37	-0.024061782
52	0xbe0e4a6c	-0.13895577
53	0xbc94d565	-0.01816816
54	0x3cbec197	0.02328567
55	0xbe494d8a	-0.19658485
56	0xbd360dd1	-0.04444677
57	0x3ce735dc	0.028223924
58	0xbca71aa9	-0.020398455
59	0xbd9f1231	-0.077671416
60	0xbd39d1d5	-0.045366127
61	0xbd6529ed	-0.055948187
62	0xbd51038c	-0.051028773
63	0x3d11f862	0.035637267

baseModel.5.running_mean f4 [64]
0	0x38eaee04	0.000112023234
1	0xbe28edae	-0.16496918
2	0x3e81c3ed	0.25344792
3	0xbca721f3	-0.02040193
4	0xbda65c0b	-0.081230246
5	0x3e21034e	0.15723917
6	0xbda33ee4	-0.0797098
7	0xbe04aebb	-0.1295728
8	0x3e82ae19	0.2552345
9	0x3ca445f2	0.020052884
10	0x3e0a480f	0.1350405
11	0xbd8964fe	-0.06708716
12	0xbc56d05a	-0.013111198
13	0xbb12ecea	-0.0022419044
14	0x3cf0827e	0.029359099
15	0xbc35f695	-0.011106153
16	0xbd7f6fed	-0.0623626
17	0x3eb50bd8	0.353606
18	0xbeacf7f8	-0.33782935
19	0xbc20e6a2	-0.009820612
20	0xbdd0ba14	-0.101917416
21	0x3d8f4223	0.069950365
22	0x3e754a9d	0.23954244
23	0x3e50a904	0.20376974
24	0xbd000d5a	-0.031262733
25	0x3d083c58	0.033260673
26	0x3c9ff79d	0.01952725
27	0xbe34953f	-0.17635058
28	0xbd06d2be	-0.032915823
29	0x3c4678ee	0.012113793
30	0xbea54d48	-0.32285523
31	0xbb0c0d7a	-0.0021370337
32	0xbda4c609	-0.08045585
33	0xbdca10c4	-0.09866479
34	0x3e21c6a5	0.15798433
35	0x3d9ced60	0.07662463
36	0xbe381138	-0.17975318
37	0xbe06f23b	-0.13178341
38	0x3d2732d3	0.040819954
39	0xbebae7b7	-0.3650491
40	0xbd37a835	-0.04483815
41	0x3d9753e4	0.07389048
42	0xbce56a63	-0.02800483
43	0x3dc15c95	0.09441487
44	0xbe09bd87	-0.13451205
45	0xbb805402	-0.0039162645
46	0xbd38ae20	-0.045087934
47	0xbe27049a	-0.16310349
48	0x3bc0822e	0.0058748936
49	0xbde0a551	-0.109690316
50	0xbcb7d432	-0.02244005
51	0x3c2727ae	0.0102023315
52	0xbdce7c28	-0.10082275
53	0xbbc14f80	-0.0058993697
54	0xbc3a6efa	-0.011378998
55	0xbd16c59e	-0.036809556
56	0xbc42a6ee	-0.011880619
57	0xbe673b45	-0.22581203
58	0x3e1138d3	0.14181833
59	0xbce70bcf	-0.028203873
60	0xbda962a8	-0.0827077
61	0x3c920ec7	0.017829312
62	0xbcb5c17d	-0.022186989
63	0xbca927ac	-0.0206488

baseModel.5.running_var f4 [64]
0	0x3c5e115e	0.013553945
1	0x3cb18965	0.02167196
2	0x3cf1e96a	0.029530246
3	0x3d41cfcd	0.047317315
4	0x3d2629b6	0.040567122
5	0x3d330303	0.043704044
6	0x3d1401ff	0.036134716
7	0x3d837ff4	0.064208895
8	0x3d3c125f	0.045915958
9	0x3c7129b9	0.01471942
10	0x3d0289e6	0.03186979
11	0x3dc740f3	0.09729185
12	0x3d013cab	0.031551998
13	0x3d52cc61	0.051464442
14	0x3d903795	0.070418514
15	0x3d6a1bac	0.057155296
16	0x3d87807f	0.066163056
17	0x3d07b070	0.03312725
18	0x3cc044a8	0.023470238
19	0x3cd29078	0.025703654
20	0x3ce870d6	0.028374117
21	0x3d62dba9	0.055385265
22	0x3cf2081a	0.029544879
23	0x3d237eb1	0.039915744
24	0x3cf771b5	0.030205587
25	0x3d0c17f0	0.034202516
26	0x3d308754	0.04309781
27	0x3da0cdcb	0.07851752
28	0x3cfdf7d5	0.031001965
29	0x3ddab753	0.106794976
30	0x3d3fd2c4	0.04683186
31	0x3d67bb5a	0.056575157
32	0x3dcee93c	0.1010308
33	0x3d097502	0.033558853
34	0x3ccc5eee	0.02494761
35	0x3ce4f1d9	0.027947353
36	0x3c496536	0.012292197
37	0x3d68903a	0.05677817
38	0x3dc04f17	0.09390085
39	0x3d821d09	0.06353194
40	0x3d95cf15	0.073148884
41	0x3da74ccf	0.08168947
42	0x3d595ff1	0.053070012
43	0x3d3e08a8	0.046394974
44	0x3d2d0050	0.042236626
45	0x3cb9e9e6	0.02269454
46	0x3d043b86	0.03228333
47	0x3d0d1203	0.034441005
48	0x3dd5a784	0.10432342
49	0x3c3d989e	0.011572031
50	0x3d567f63	0.05236758
51	0x3d1b9db3	0.03799219
52	0x3d4cdcf1	0.050015394
53	0x3d0651d5	0.032792885
54	0x3db41eac	0.08794913
55	0x3cd14425	0.02554519
56	0x3d4e956e	0.050435476
57	0x3d499336	0.049212657
58	0x3d31aafe	0.04337596
59	0x3ce6ed98	0.028189465
60	0x3dbe7e47	0.09301429
61	0x3cc5be8a	0.024138708
62	0x3d166f6b	0.03672735
63	0x3d056245	0.03256442

baseModel.8.weight f4 [64, 64, 3]
0	0x3d290048	0.041260034
1	0xbd14db85	-0.036342163
2	0xbc9c172b	-0.019054016
3	0xbab21b23	-0.001358841
4	0xbd3cc945	-0.046090383
5	0x3bc15331	0.0058998098
6	0xbcf47351	-0.029840143
7	0x3d4fe885	0.050758857
8	0xbd3aa4c7	-0.0455673
9	0xbd511b88	-0.051051646
10	0xbc274804	-0.010210041
11	0x3c658808	0.014009483
12	0x3cb53c9d	0.02212363
13	0x3d192d1e	0.037396543
14	0xbb33c0eb	-0.002742822
15	0xbce6061e	-0.028079089
16	0xbd87eb42	-0.06636669
17	0xbd79ef46	-0.061019205
18	0xbd5a3652	-0.05327446
19	0x3ce58faa	0.028022606
20	0xbcd36dea	-0.025809247
21	0x3cf08a58	0.029362842
22	0x3c5f42c6	0.01362676
23	0x3cf2baff	0.029630182
24	0xbcdf4100	-0.027252674
25	0x3befefb5	0.0073222765
26	0x3d48be3c	0.049009547
27	0x3c99d8ae	0.018780079
28	0x3cc05d8c	0.023482107
29	0x3d7d2ddf	0.061811324
30	0x3d82ec40	0.06392717
31	0x3d03c9fc	0.03217505
32	0xbd404eb5	-0.04695006
33	0x3b9e288a	0.00482661
34	0xbc75964f	-0.01498945
35	0xbc773f3f	-0.015090763
36	0x3d446280	0.0479455
37	0x3c05dc4a	0.008170197
38	0xbd1b508d	-0.037918616
39	0x387dbbd0	6.0494815e-05
40	0x3c164983	0.0091728
41	0x3cd503c3	0.02600277
42	0xbba9e8c9	-0.005185221
43	0xbd57a976	-0.052651845
44	0xbd3534a6	-0.044239663
45	0xbca5992c	-0.02021464
46	0xbdbd5953	-0.09245553
47	0xbdddeda8	-0.10836345
48	0x3c8049d9	0.015660213
49	0xbd359560	-0.04433191
50	0x3d022787	0.031775977
51	0x3c018ae4	0.007906649
52	0x3d05f9f7	0.03270909
53	0x3d09cb08	0.03364089
54	0x3d58c3a4	0.052920952
55	0x3b8a3134	0.0042172913
56	0xbc9d5668	-0.01920624
57	0xbd2861ad	-0.041108776
58	0x3d8d9d19	0.069147296
59	0x3d9a122c	0.07522997
60	0xbd2012a0	-0.039080262
61	0x3ced1a85	0.02894331
62	0x3cf16933	0.029469108
63	0xbb86a09d	-0.004108502
64	0x3cf74873	0.030185914
65	0xbc424fb0	-0.011859819
66	0xbcab7df2	-0.020934079
67	0x3cace19d	0.021103675
68	0xbcb82479	-0.022478329
69	0x3c5e2c0d	0.013560307
70	0x3d0be202	0.034151085
71	0x3c86b8b1	0.01644549
72	0x3d8dc05d	0.06921456
73	0xbc75e2a4	-0.015007649
74	0xbb4c716a	-0.003119553
75	0xbce13785	-0.027492294
76	0x3d3a6440	0.045505762
77	0xbca0f21f	-0.019646702
78	0x3cea8de9	0.028632121
79	0x3d02594d	0.031823445
80	0xbc4a9b9f	-0.0123662045
81	0x3b0f6fc9	0.0021886698
82	0x3cb70d40	0.022345185
83	0xbd47c921	-0.048775796
84	0xbd35cb99	-0.04438362
85	0x3b6d1f56	0.0036182008
86	0x3d822c92	0.06356157
87	0x3d55848c	0.05212836
88	0xbd456fdb	-0.048202377
89	0xbd0b3a52	-0.033991165
90	0x3d14059a	0.036138155
91	0xbca13da6	-0.019682717
92	0x3cba1177	0.022713406
93	0x3d70ae09	0.058759723
94	0x3c932550	0.017962128
95	0x3d33902e	0.043838672
96	0x3d55e2f6	0.0522184
97	0xba0d144d	-0.0005381748
98	0x3c3aae79	0.011394137
99	0x3cb68180	0.022278547
100	0xbd45f73d	-0.048331488
101	0x3d83e266	0.064396665
102	0xbc8beff9	-0.017082201
103	0x3d53e693	0.051733565
104	0xbcde1dcd	-0.02711382
105	0xbcf33d05	-0.029692182
106	0xbd1909ee	-0.037362985
107	0xbd83fc89	-0.06444652
108	0x3d152dce	0.036420636
109	0x3cda66d6	0.026660364
110	0x3b0bbade	0.0021321098
111	0x3c6f3469	0.014599898
112	0x3c2221d4	0.009895761
113	0x3b893647	0.0041873786
114	0xbcee0fe2	-0.029060308
115	0xbd770300	-0.060305595
116	0xbd1e6d51	-0.03867847
117	0x3d0ed197	0.03486785
118	0x3c706192	0.0146717
119	0xbd55b4c3	-0.05217434
120	0x3d0b20e6	0.03396692
121	0xba0fea6c	-0.00054899487
122	0x3c5cddfe	0.013480661
123	0xbc882f7d	-0.016624207
124	0x3cf5acd4	0.029989637
125	0xbd6a40ac	-0.057190582
126	0xbd5fdd7e	-0.05465459
127	0xbdb8882f	-0.0901035
128	0xbdb08774	-0.08619586
129	0x3c748913	0.014925259
130	0x3d4a3468	0.049366385
131	0x3c9a141e	0.01880842
132	0xbd2bc5cf	-0.04193669
133	0xbc8653fc	-0.016397469
134	0xbd6ba935	-0.057534415
135	0x3c149173	0.009067881
136	0xbccaf29c	-0.024773888
137	0xbdb9cf84	-0.090727836
138	0x3d59c612	0.05316741
139	0x3d123072	0.035690732
140	0x3ca39ace	0.019971278
141	0xbc9e296d	-0.019306863
142	0xbbdfb301	-0.006826759
143	0xbc1b6ef5	-0.009486903
144	0xbd873d8d	-0.06603537
145	0xbd1a52d5	-0.03767665
146	0xbd6af49f	-0.057362195
147	0x3d017b30	0.03161162
148	0xbc300648	-0.010743685
149	0x3d40171b	0.046897035
150	0xbca2c536	-0.019869428
151	0x3ce94092	0.028473172
152	0x3d242092	0.040070124
153	0xbdb895ae	-0.09012924
154	0xbd52ec2b	-0.05149476
155	0x39636083	0.0002168436
156	0xbcc9fde6	-0.024657201
157	0xbd8c527a	-0.06851669
158	0xbcfbe718	-0.030749843
159	0xbd141c0b	-0.036159556
160	0xbc0cf44b	-0.008603166
161	0xbcd385f5	-0.025820712
162	0xbc89fd19	-0.01684432
163	0xbc38bfc4	-0.011276189
164	0xbdcb6f72	-0.09933366
165	0x3c8706d1	0.016482743
166	0x3d012770	0.03153175
167	0x3d212e29	0.039350662
168	0xbcefa0e3	-0.029251521
169	0x3d5ad0fd	0.053421963
170	0xbd05fe8a	-0.03271345
171	0x3d69ee16	0.057111822
172	0x3c41c1ef	0.0118260225
173	0x3ca9def1	0.02073619
174	0x3ab21e9b	0.0013589443
175	0xbcdb348a	-0.026758451
176	0x3bd746a2	0.0065696994
177	0x3d58a1ac	0.052888557
178	0xbcdf7bf8	-0.027280793
179	0x3d1b1d7d	0.03786992
180	0x3d2434b2	0.040089317
181	0xbd85cf2d	-0.06533656
182	0xbcf7c8c9	-0.030247109
183	0x3d645d3e	0.055752985
184	0x3d1e53f5	0.038654286
185	0x3da3c104	0.07995799
186	0x3bfd98e9	0.0077391756
187	0xbcdc1528	-0.026865557
188	0x3bbb3ebf	0.005714267
189	0x3cb84cb7	0.022497518
190	0x3c9932d0	0.018700987
191	0x3d1e941f	0.038715478
192	0xbd6dc099	-0.058045004
193	0xbd1c0eb3	-0.038099956
194	0xbd94ffa5	-0.07275323
195	0x3c60f8dc	0.013731208
196	0x3cd1d963	0.025616353
197	0xbcafd926	-0.02146585
198	0x3c32cced	0.010913116
199	0x3d279604	0.04091455
200	0xbb6a5a39	-0.0035759343
201	0x3cf45d73	0.029829716
202	0x3d040810	0.03223425
203	0x3d3d78d6	0.046257816
204	0xbd29f165	-0.041489977
205	0x3ce08c1d	0.027410561
206	0x3ca615c8	0.020274058
207	0xbd7633f5	-0.060108144
208	0x3cf05a10	0.02933982
209	0xbcfc21e5	-0.03077788
210	0xb8deb52f	-0.00010619533
211	0xbb2f9af5	-0.0026795242
212	0x3d07b026	0.033126973
213	0x3d2efad1	0.042719666
214	0x3ba95b93	0.005168387
215	0x3d937201	0.07199479
216	0xbc699a3f	-0.014257967
217	0xbbda076d	-0.0066537173
218	0x3c0f4061	0.0087433765
219	0x3d3e4c2d	0.046459366
220	0x3cb64846	0.02225126
221	0xbd2d381e	-0.042289846
222	0x3c9e20be	0.019302722
223	0xbca0ea04	-0.019642837
224	0x3b837023	0.0040111705
225	0x3c94288e	0.018085744
226	0xbcdcbf27	-0.026946617
227	0xbdbae5a7	-0.09125834
228	0x3cbb0c72	0.022833083
229	0xbc36d6cc	-0.01115961
230	0xbd983dc2	-0.07433654
231	0xbcaca2a0	-0.02107364
232	0x3d883d9c	0.06652376
233	0x3b568add	0.0032736578
234	0xbc422e45	-0.011851852
235	0xbc857640	-0.016291738
236	0x3d3c34d0	0.045948803
237	0xbcd17fb6	-0.025573593
238	0xbd496e51	-0.04917747
239	0x3cc79caa	0.024366695
240	0xbd802ef7	-0.06258958
241	0xbd64f94e	-0.055901818
242	0x3d72e644	0.05930163
243	0xbd2b86d7	-0.04187664
244	0x3b157d9f	0.0022810472
245	0xbd5de813	-0.0541764
246	0x3d267a56	0.040644012
247	0xbb9344a6	-0.0044942675
248	0x3c145e76	0.009055724
249	0x3c92aae6	0.017903756
250	0x3d83c2a9	0.06433613
251	0xbc09b6a0	-0.008405358
252	0xbcbb6882	-0.022876982
253	0x3ba5e22e	0.005062363
254	0x3b8194a1	0.0039544855
255	0xbcdad598	-0.026713178

baseModel.8.bias f4 [64]
0	0xb6c29b31	-5.799717e-06
1	0x3738fa2a	1.10255005e-05
2	0x35fbc9d5	1.8759698e-06
3	0x36bc15e6	5.605386e-06
4	0xb7c076df	-2.2943537e-05
5	0x3717b4ff	9.042443e-06
6	0xb7c333fc	-2.3270019e-05
7	0x3800779f	3.0628984e-05
8	0x353ccb36	7.033117e-07
9	0xb75af8c0	-1.3051729e-05
10	0xb6726b88	-3.6123402e-06
11	0xb78a0b20	-1.6456062e-05
12	0x36a8f513	5.0353206e-06
13	0x3794b3a3	1.7726625e-05
14	0x3689866b	4.0985665e-06
15	0x36927b91	4.365524e-06
16	0x37080adf	8.108763e-06
17	0x36c83833	5.967007e-06
18	0x3648389a	2.9835269e-06
19	0xb768c077	-1.3873089e-05
20	0x379510f3	1.7770077e-05
21	0x360387ec	1.9599638e-06
22	0xb80241f4	-3.105584e-05
23	0x36075c44	2.0170273e-06
24	0xb7a60931	-1.9793022e-05
25	0xb78db8f8	-1.6894643e-05
26	0xb72ecdec	-1.0419153e-05
27	0x3758bb66	1.2918235e-05
28	0xb6ea07eb	-6.974665e-06
29	0x36b76f52	5.4667844e-06
30	0x3663e46e	3.39586e-06
31	0xb7e39cc3	-2.7133507e-05
32	0xb794a6d1	-1.7720655e-05
33	0x371f64d5	9.500615e-06
34	0x379fc7eb	1.9047371e-05
35	0x360755fa	2.0166613e-06
36	0xb6ec2a0f	-7.0382443e-06
37	0xb7b78b02	-2.188003e-05
38	0xb79f13f3	-1.8963567e-05
39	0xb73b3849	-1.11591735e-05
40	0xb6c2999b	-5.7995326e-06
41	0x36b37622	5.348368e-06
42	0x36df6486	6.6576204e-06
43	0xb70c7b7b	-8.3734e-06
44	0x37feec5e	3.0389227e-05
45	0xb7dce1f3	-2.633126e-05
46	0xb70cc7a1	-8.39113e-06
47	0x376960c6	1.3910414e-05
48	0x36a91a50	5.0396557e-06
49	0x3803ae56	3.1395197e-05
50	0x3798fc24	1.8237224e-05
51	0xb6f4ce30	-7.29577e-06
52	0x375ff3d8	1.334861e-05
53	0x368be7e4	4.1695184e-06
54	0x37873947	1.6119926e-05
55	0xb6ad089b	-5.1568036e-06
56	0x37b58daf	2.1642858e-05
57	0xb788eb01	-1.6321896e-05
58	0xb6bbf7ca	-5.6018807e-06
59	0x3713ca27	8.80895e-06
60	0xb81b07c3	-3.696211e-05
61	0xb701cd19	-7.736752e-06
62	0xb797e0e7	-1.8105331e-05
63	0xb773213a	-1.4491665e-05

baseModel.9.weight f4 [64]
0	0x3f55fa58	0.8358512
1	0x3f466a0a	0.7750555
2	0x3f213790	0.62975407
3	0x3f40bc39	0.75287205
4	0x3f2f1fb5	0.68407756
5	0x3f34ea79	0.70670277
6	0x3f5a5e09	0.85299736
7	0x3f55bcf3	0.8349144
8	0x3f34c67e	0.70615375
9	0x3f6102ca	0.8789488
10	0x3f376bb0	0.71648693
11	0x3f34d5e6	0.70638883
12	0x3f30cc74	0.6906197
13	0x3f2dfbfd	0.6796263
14	0x3f47f4d4	0.78107953
15	0x3f270e14	0.65255857
16	0x3f45e21f	0.7729816
17	0x3f3ddf5d	0.7416895
18	0x3f28f67c	0.66001105
19	0x3f2e61c5	0.68117934
20	0x3f3c53d4	0.7356541
21	0x3f4e7c16	0.8065809
22	0x3f40434e	0.751027
23	0x3f3e51ca	0.7434355
24	0x3f3a42fc	0.7275846
25	0x3f520a29	0.82046753
26	0x3f30adb5	0.69015056
27	0x3f3b2d79	0.7311626
28	0x3f2d571d	0.6771105
29	0x3f28f118	0.6599288
30	0x3f36993f	0.71327585
31	0x3f3d28e0	0.73890495
32	0x3f30a2ed	0.68998605
33	0x3f40a07d	0.75244886
34	0x3f445651	0.7669421
35	0x3f51a1fc	0.81887794
36	0x3f3ce424	0.73785615
37	0x3f397c4c	0.72455287
38	0x3f42658d	0.75936204
39	0x3f48bffe	0.78417957
40	0x3f2c03bb	0.6719319
41	0x3f4b06fe	0.79307544
42	0x3f3d78bc	0.7401235
43	0x3f4656e7	0.7747635
44	0x3f2aaa9e	0.6666659
45	0x3f3e169c	0.7425325
46	0x3f41aba6	0.7565254
47	0x3f47af93	0.7800228
48	0x3f400c08	0.7501836
49	0x3f4374a0	0.7634983
50	0x3f319a31	0.693759
51	0x3f4bbcf0	0.7958517
52	0x3f50af96	0.8151792
53	0x3f4b9c37	0.7953524
54	0x3f2aad9e	0.6667117
55	0x3f335378	0.7004924
56	0x3f326d17	0.6969771
57	0x3f363b2c	0.7118404
58	0x3f32ba1f	0.6981525
59	0x3f47afa8	0.78002405
60	0x3f4d3127	0.80153126
61	0x3f2969e0	0.6617718
62	0x3f4327d5	0.76232654
63	0x3f3ec4f8	0.745193

baseModel.9.bias f4 [64]
0	0xbb5763ed	-0.0032865957
1	0xbcdea4a0	-0.027178109
2	0xbc915822	-0.01774222
3	0x3cb1af69	0.021690087
4	0x3bdc7d15	0.006728778
5	0x3c9214a7	0.017832113
6	0xbc21499d	-0.009844211
7	0x3c8ff39f	0.017572222
8	0x3c4e3df9	0.012588018
9	0xbcc047d7	-0.023471756
10	0x3b9240fe	0.004463314
11	0x3cb8d284	0.02256132
12	0xbc503e3a	-0.0127101485
13	0xbd5b43d6	-0.05353149
14	0xbcb907ee	-0.022586789
15	0xba8c2cfd	-0.001069456
16	0x3cd539ab	0.026028475
17	0xbc21749a	-0.00985446
18	0x3d16a4db	0.036778312
19	0xbcc40fc8	-0.023933306
20	0x3c581761	0.013189168
21	0xbcc36e9d	-0.023856455
22	0x3a4628a4	0.00075591565
23	0xbd1bb8ef	-0.038018163
24	0x3ce0ab57	0.027425451
25	0xbcfb1d94	-0.030653752
26	0x3ca383d7	0.019960327
27	0xbd535987	-0.05159905
28	0xbcd1e5c7	-0.025622262
29	0xbc057738	-0.0081461
30	0xbb97b6fe	-0.0046299687
31	0x3c856fce	0.016288664
32	0xbd01d504	-0.03169729
33	0x3d71f182	0.05906821
34	0xbd303020	-0.043014646
35	0xbd8026a7	-0.06257372
36	0x3a9cd13c	0.0011964212
37	0x3c6934c0	0.014233768
38	0xbcfc14ce	-0.03077164
39	0xbc297b57	-0.010344348
40	0xbcad13cf	-0.02112761
41	0xbbfd53a6	-0.007730919
42	0xbc1ba56d	-0.00949989
43	0xbb52081a	-0.0032048286
44	0xbd3ebf47	-0.046569135
45	0xbca00fcc	-0.019538783
46	0x3b8f6114	0.0043755863
47	0xbb7deb7a	-0.0038745091
48	0x3cd32623	0.025775021
49	0x3c52f0bf	0.012874781
50	0xbcb5f6eb	-0.022212466
51	0xbc0967f1	-0.008386598
52	0xbccef6a2	-0.025264088
53	0xbd0ab9df	-0.033868667
54	0xbd368552	-0.044560738
55	0xbcdbefdd	-0.026847774
56	0xbccefea4	-0.025267906
57	0x3c9b934c	0.018991135
58	0xbd25962e	-0.040426426
59	0x3d9ce00d	0.07659922
60	0x3ce20353	0.027589476
61	0xbbcfae0b	-0.006337886
62	0x3c48a42d	0.012246174
63	0x3d0946b7	0.033514705

baseModel.9.running_mean f4 [64]
0	0xbe37787d	-0.17917056
1	0xbf156166	-0.58351743
2	0x3de1ae88	0.11019617
3	0xbe4bce17	-0.19902836
4	0x3dc35179	0.09537024
5	0xbe37ad49	-0.17937197
6	0xbd1f25e1	-0.038854484
7	0xbec04591	-0.37553075
8	0xbeddc6fe	-0.43315881
9	0xbebaba47	-0.36470243
10	0x3d0b3c48	0.033993036
11	0x3f2cc180	0.6748276
12	0xbeaedd68	-0.34153295
13	0xbd5c526f	-0.053789552
14	0xbe2ad88f	-0.16684173
15	0xbee59253	-0.448382
16	0x3e6cd034	0.23126298
17	0x3c9f3af6	0.019437294
18	0xbeecd08b	-0.46252856
19	0x3e70ce4b	0.23516195
20	0xbe989060	-0.2979765
21	0x3de5a369	0.11212809
22	0xbab8be0b	-0.0014094723
23	0xbcb28065	-0.021789739
24	0x3e0ebe2f	0.13939737
25	0x3cd48965	0.025944421
26	0x3ebcb42a	0.36856204
27	0x3e69044a	0.22755542
28	0xbeba0574	-0.36332285
29	0x3dd4e288	0.1039477
30	0x3ef97ee8	0.48729634
31	0xbd9eaac6	-0.07747416
32	0x3f2872e3	0.65800303
33	0xbc4962c7	-0.012291617
34	0xbf5e5684	-0.8685076
35	0xbc699a89	-0.014258035
36	0x3efc00ee	0.4921946
37	0xbdcddcc1	-0.10051871
38	0x3e0dcc95	0.13847573
39	0xbe85db58	-0.26143909
40	0x3cdfc9ee	0.027317967
41	0x3d48ccae	0.049023323
42	0x3e88213f	0.26587865
43	0xbe95272d	-0.2913145
44	0xbdd11114	-0.102083355
45	0xbed738e8	-0.42035604
46	0xbdb0988e	-0.086228475
47	0xbc359209	-0.011082181
48	0x3f0832a6	0.53202283
49	0xbdfa164b	-0.12211283
50	0x3f3754c5	0.71613723
51	0x3e2c4050	0.16821408
52	0xbdbf76f2	-0.09348859
53	0xbed887fd	-0.4229125
54	0x3df80040	0.12109423
55	0xbbe79295	-0.0070670345
56	0xbe969679	-0.29411677
57	0x3e9c79c4	0.3056165
58	0x3e043d02	0.12913898
59	0x3f6092f1	0.87724215
60	0x3f3a7cdf	0.7284679
61	0x3e035023	0.12823538
62	0xbe629363	-0.22126536
63	0xbe82fea2	-0.25584894

baseModel.9.running_var f4 [64]
0	0x3de6f6b4	0.11277524
1	0x3e545fa1	0.20739605
2	0x3d72a3f4	0.05923839
3	0x3de2e28a	0.11078365
4	0x3d719a7b	0.058985215
5	0x3df729ec	0.12068543
6	0x3dc0e7a5	0.09419183
7	0x3dcecc51	0.10097564
8	0x3d5c3caf	0.05376881
9	0x3e467d93	0.1938384
10	0x3d96a05a	0.073548034
11	0x3d97217a	0.07379432
12	0x3d8e72ec	0.06955513
13	0x3da9f29b	0.082982264
14	0x3e40f508	0.18843472
15	0x3da17775	0.07884113
16	0x3da9b6af	0.08286797
17	0x3daa6f51	0.08322013
18	0x3d7038a8	0.05864778
19	0x3d8f5acc	0.0699974
20	0x3d57d9f4	0.05269809
21	0x3e11a124	0.14221627
22	0x3d8faad6	0.07015006
23	0x3da2eb34	0.07955018
24	0x3dc32613	0.095287465
25	0x3e22a59f	0.15883492
26	0x3d849b91	0.064749844
27	0x3da5249a	0.08063622
28	0x3dbe2d73	0.092860125
29	0x3d92e50f	0.07172596
30	0x3dcdd878	0.10051054
31	0x3db04ff1	0.086089976
32	0x3da88a16	0.08229463
33	0x3da9f37d	0.08298395
34	0x3dbbbbc4	0.09166673
35	0x3e31a460	0.1734786
36	0x3d956a87	0.07295709
37	0x3d9049cb	0.07045325
38	0x3de17348	0.11008316
39	0x3df80ed6	0.12112205
40	0x3e011086	0.1260396
41	0x3dda70af	0.10666024
42	0x3d9bbf6d	0.07604871
43	0x3d9cb19b	0.07651063
44	0x3d48fbd4	0.049068287
45	0x3db05257	0.08609455
46	0x3dc71017	0.09719866
47	0x3dde054e	0.108408555
48	0x3ddf958c	0.10917196
49	0x3ddc9d62	0.10772206
50	0x3d905cd9	0.07048959
51	0x3dc7965a	0.09745474
52	0x3e0e6257	0.13904701
53	0x3e07ec99	0.13273849
54	0x3d461bbc	0.048366293
55	0x3d96023f	0.07324647
56	0x3db76b6b	0.08956035
57	0x3dea5252	0.114414826
58	0x3d5eade4	0.054365054
59	0x3db338b8	0.087510526
60	0x3d309613	0.043111872
61	0x3d98bee1	0.07458282
62	0x3de625cd	0.11237679
63	0x3e0ec633	0.13942795
