Models/best_eeV1_0427_2.pth (torch, 769979 bytes, 48 tensors)

baseModel.0.weight f4 [64, 2, 3]
0	0xbe5fc7ae	-0.21853516
1	0xbe357d10	-0.17723489
2	0x3cb07a35	0.021542648
3	0x3e999809	0.29998806
4	0x3d57f2a6	0.052721642
5	0x3dcc2978	0.09968847
6	0x3ed91899	0.4240158
7	0x3e171444	0.14753824
8	0x3ddb235d	0.107001044
9	0xbe9a5123	-0.30140027
10	0x3d3e18f6	0.046410523
11	0xbd4bfacd	-0.04979973
12	0x3dc6c2cf	0.097051255
13	0xbe8c569d	-0.2740983
14	0xbe8d67d8	-0.2761829
15	0xbdca2d45	-0.09871916
16	0x3e3190ba	0.17340365
17	0x3dbf5122	0.09341647
18	0x3e95d8f4	0.29267085
19	0x3d6fc4ef	0.05853742
20	0xbe5d15d7	-0.21590362
21	0xbe89b50b	-0.26895937
22	0xbec5c0db	-0.386237
23	0xbea80aca	-0.3282073
24	0x3e4f194b	0.20224492
25	0xbed24d51	-0.41074613
26	0x3ddec5d7	0.10877579
27	0xbe97ef98	-0.29674983
28	0xbe2eaf3d	-0.17059036
29	0x3de4a155	0.11163584
30	0xbe81ec90	-0.25375795
31	0x3e880057	0.2656276
32	0xbe5421ae	-0.20715973
33	0x3e411a55	0.18857701
34	0xbe54b64e	-0.20772669
35	0x3e12764a	0.14302936
36	0x3dc24225	0.09485272
37	0xbe8f2824	-0.27960312
38	0xbe44318f	-0.1915953
39	0xbd8185d4	-0.06324354
40	0xbe8b1984	-0.27167904
41	0x3e733854	0.23751956
42	0x3d082c4a	0.033245362
43	0xbdea63a1	-0.11444784
44	0xbc90fe0c	-0.017699264
45	0x3bd5e88b	0.0065279654
46	0xbea159f4	-0.3151394
47	0xbe5ff70f	-0.21871589
48	0x3e32431f	0.17408417
49	0xbe25814d	-0.16162606
50	0xbec8d004	-0.39221203
51	0x3d0d0c63	0.03443564
52	0x3d528306	0.051394485
53	0xbe618ff8	-0.22027576
54	0x3e060627	0.13088284
55	0x3e81fd5c	0.2538861
56	0x3e34fdf8	0.17675006
57	0xbe1a9d2d	-0.1509902
58	0xbed954e2	-0.42447573
59	0xbd815348	-0.06314713
60	0x3dad2a3c	0.08455321
61	0xbd307e39	-0.043089125
62	0x3ca74bcd	0.020421887
63	0x3eac06ff	0.33599088
64	0xbe6613f8	-0.22468555
65	0x3e1de382	0.15418819
66	0xbeadaa9d	-0.3391923
67	0x3e444fd1	0.19171073
68	0x3e017489	0.12642111
69	0x3da3a2d6	0.07990043
70	0xbe03b84c	-0.12863272
71	0x3d9d8774	0.07691851
72	0x3db51eba	0.08843751
73	0x3ea6dad6	0.32588834
74	0x3c52e4c2	0.012871923
75	0xbdcf8419	-0.101326175
76	0xbdb56561	-0.08857227
77	0x3ea30b3d	0.31844512
78	0x3e8e078c	0.27740133
79	0x3ec4f47c	0.38467777
80	0xbd58fea2	-0.05297721
81	0x3d9eae1e	0.07748054
82	0xbde97b31	-0.1140045
83	0xbeadc60b	-0.33940157
84	0x3e58d407	0.21174632
85	0x3e7ce5f7	0.246971
86	0x3e4e6932	0.20157316
87	0x3e8055a6	0.25065345
88	0x3e8d9568	0.2765305
89	0x3e89236f	0.26784846
90	0xbe14c033	-0.14526443
91	0x3db94b97	0.09047621
92	0x3e7c955a	0.24666348
93	0xbe853f33	-0.2602478
94	0xbd9f30cd	-0.0777298
95	0xbd519bc1	-0.05117393
96	0xbdddf561	-0.10837818
97	0xbea063d6	-0.3132617
98	0xbe0e631c	-0.13904995
99	0x3ea1b57a	0.31583768
100	0x3ea8f95d	0.3300275
101	0xbe76a404	-0.24086004
102	0x3dd6c6c8	0.10487133
103	0x3d8b8e46	0.06814246
104	0xbe91bbd3	-0.2846361
105	0xbe65643c	-0.22401518
106	0xbca1ad26	-0.019735884
107	0xbe3413ce	-0.1758568
108	0x3eaf91f0	0.3429103
109	0x3d846527	0.06464606
110	0xbe303051	-0.17205931
111	0x3df29331	0.11844481
112	0x3ecaccfd	0.3960952
113	0x3d8c878f	0.06861793
114	0xbdc78119	-0.0974142
115	0x3ec0e6c5	0.37676063
116	0xbe71c0d6	-0.23608717
117	0x3e045b37	0.1292542
118	0xbe84ef65	-0.25963894
119	0xbea4939d	-0.3214387
120	0x3e5d07e1	0.21585037
121	0x3ebedce9	0.37277916
122	0xbe897584	-0.2684747
123	0xbead5096	-0.33850545
124	0x3d23c0ba	0.03997872
125	0x3d4f5be7	0.050624754
126	0xbcecbb47	-0.028897895
127	0x3e4d7edd	0.20067926
128	0xbe8a1edc	-0.2697667
129	0x3ed5e2a4	0.41774476
130	0xbdd69a48	-0.104786456
131	0xbeaab1bc	-0.33338726
132	0xbebd37b2	-0.36956555
133	0xbeaeda5e	-0.34150976
134	0x3e2ca99e	0.16861579
135	0xbe06a85c	-0.13150162
136	0x3e24902c	0.16070622
137	0xbdb810e8	-0.089875996
138	0xbe8609eb	-0.26179442
139	0xbd42bc4b	-0.04754285
140	0xbea2934c	-0.31753004
141	0xbe9748f0	-0.29547834
142	0xbd520243	-0.05127169
143	0x3eb65461	0.3561125
144	0x3e999079	0.29993036
145	0xbe8c8e22	-0.2745219
146	0xbd1c0b9e	-0.038097017
147	0xbdf59aaf	-0.11992394
148	0xbe634fbe	-0.22198388
149	0x3e11a285	0.14222153
150	0xbec94fe3	-0.3931876
151	0xbe20f94e	-0.15720102
152	0xbed470ba	-0.41492254
153	0xbe7e7501	-0.24849321
154	0x3c2cd4e2	0.010548802
155	0xbe81c4f2	-0.2534557
156	0xbd919700	-0.07108879
157	0xbe3ff48f	-0.18745635
158	0x3d8ea22a	0.06964524
159	0x3e43d4ed	0.19124193
160	0x3edfd47f	0.4371681
161	0x3e92f747	0.28704283
162	0x3bebe8df	0.0071993913
163	0xbe8da3a0	-0.27663898
164	0x3ea929a1	0.33039573
165	0x3d71ee47	0.05906513
166	0x3e499a93	0.19687872
167	0xbe856a26	-0.26057547
168	0x3ea3f868	0.32025456
169	0x3eb67b66	0.3564102
170	0x3e94ecf7	0.2908704
171	0x3d70f987	0.058831718
172	0x3c3beb23	0.011469635
173	0x3e470317	0.19434772
174	0xbdc0247d	-0.093819596
175	0xbe4591e2	-0.19293931
176	0xbde1a7c5	-0.110183276
177	0xbe01f62b	-0.12691562
178	0xbe853838	-0.26019454
179	0xbd8d10b3	-0.06887951
180	0xbd31327b	-0.043261033
181	0x3da44bb6	0.08022253
182	0x3ea7d2c3	0.32777986
183	0xbe0bc7ed	-0.13650484
184	0xbe993162	-0.2992049
185	0x3e8a4cc3	0.2701169
186	0xbe8a5a18	-0.2702186
187	0xbe992816	-0.29913396
188	0x3e0653c9	0.13117899
189	0x3e33135d	0.17487855
190	0xbeb2342b	-0.34805426
191	0xbe4c0fa7	-0.19927846
192	0xbe8972dd	-0.26845446
193	0xbe165bbb	-0.1468343
194	0xbd9c4646	-0.07630591
195	0xbe963bea	-0.29342586
196	0x3e612fe8	0.21990931
197	0x3e2e405b	0.17016737
198	0x3e172eff	0.14764021
199	0x3e98d751	0.29851773
200	0x3d1e2728	0.03861156
201	0xbe91c679	-0.28471735
202	0x3e9a9f4a	0.30199653
203	0x3e49d3b9	0.19709672
204	0x3e50a745	0.20376308
205	0xbd2a2688	-0.041540653
206	0xbe08df56	-0.13366446
207	0x3e80db4c	0.2516731
208	0xbc9d05ee	-0.019167867
209	0xbe257358	-0.16157281
210	0xbe2688db	-0.16263144
211	0x3e5604e1	0.20900299
212	0xbcc680e0	-0.024231374
213	0x3ed0f3ba	0.4081095
214	0x3e5362b4	0.20643121
215	0x3e00f145	0.12592037
216	0x3de3545c	0.11100075
217	0xbe80fb4e	-0.2519173
218	0xbea04c1b	-0.31308064
219	0x3ebe3994	0.37153304
220	0x3decaf93	0.115569256
221	0xbe086c34	-0.13322526
222	0x3d9b07a5	0.075698175
223	0xbe6ddc4d	-0.2322857
224	0x3dda50de	0.106599554
225	0xbecd1501	-0.40055087
226	0xbdd8fac5	-0.105947055
227	0xbddd97cf	-0.10819971
228	0xbe8b26e0	-0.27178097
229	0x3cf52986	0.029927026
230	0xbebb561e	-0.3658914
231	0xbea6c064	-0.32568657
232	0xbec65df8	-0.38743567
233	0x3e4ede0d	0.20201893
234	0x3da4f6d1	0.08054889
235	0xbd8e0bcc	-0.06935844
236	0x3da2a57a	0.079417184
237	0xbeabc9a8	-0.3355229
238	0x3d3c02f8	0.04590127
239	0xbeb9f4f0	-0.36319685
240	0x3e844eda	0.2584141
241	0xbe056e58	-0.13030374
242	0x3d802ba0	0.06258321
243	0x3bb208c5	0.0054331743
244	0x3d0c3da9	0.03423849
245	0x3e377f94	0.17919761
246	0xbe604392	-0.21900776
247	0x3e57f201	0.21088411
248	0xbd86a543	-0.0657449
249	0xbea8f08a	-0.32996017
250	0xbaca8249	-0.0015450205
251	0x3e9a8bbe	0.3018474
252	0x3ea4cb7c	0.32186496
253	0xbe9e5bfe	-0.3092956
254	0xbe627e2c	-0.22118443
255	0x3d19d33c	0.037554964

baseModel.0.bias f4 [64]
0	0xb9295150	-0.00016147387
1	0x397dece4	0.00024216209
2	0xb9f13ae8	-0.0004601099
3	0xb989a835	-0.00026256
4	0xb9b5bf88	-0.00034665712
5	0xb93c1007	-0.00017935048
6	0x395a23d5	0.00020803449
7	0xb92d5583	-0.00016530421
8	0x36fb4a5b	7.489039e-06
9	0x399a3eee	0.00029420055
10	0xb884d140	-6.333226e-05
11	0x39ccf53a	0.0003909262
12	0x380a892c	3.3029515e-05
13	0xb9ab50de	-0.00032675912
14	0xba15b4ea	-0.0005710857
15	0x39b827b1	0.00035124787
16	0x3964114d	0.0002175022
17	0x3a4db22a	0.0007846678
18	0x3878b4a4	5.9296042e-05
19	0xb8110147	-3.4571884e-05
20	0xb99b8207	-0.00029660782
21	0xb8f2e645	-0.0001158235
22	0x3996e3b6	0.00028779887
23	0xba5531de	-0.0008132736
24	0xb9d68787	-0.00040918236
25	0x36771603	3.681868e-06
26	0x3a290999	0.00064482685
27	0x39808ceb	0.00024519055
28	0x399a2cd4	0.00029406569
29	0x39652f3a	0.00021856735
30	0xb9e41bdc	-0.00043508306
31	0xba058c5b	-0.0005094462
32	0x39ab6421	0.00032690263
33	0x39d93428	0.00041428325
34	0x389c75c9	7.460599e-05
35	0x39a9868b	0.00032334434
36	0x391d1316	0.00014979797
37	0xb9ca1655	-0.0003854508
38	0xb988c256	-0.00026084733
39	0xb9fda380	-0.00048377737
40	0x398e9acc	0.00027199683
41	0x39b651dd	0.00034774738
42	0xba1694f0	-0.00057442393
43	0x391e3df7	0.00015091138
44	0xba067105	-0.00051285356
45	0x389f8e9c	7.608274e-05
46	0x39988338	0.00029089465
47	0x36d753db	6.4172614e-06
48	0x38037a80	3.134692e-05
49	0x39c79857	0.0003806974
50	0x3931a731	0.00016942319
51	0xb913fec0	-0.00014113914
52	0x3988e419	0.00026109887
53	0xb81dc171	-3.7611873e-05
54	0x3981ce60	0.0002475856
55	0xb9132e26	-0.00014036204
56	0x37c2862b	2.3189079e-05
57	0x3a3595aa	0.0006926904
58	0xba14b855	-0.00056732196
59	0xb9be831e	-0.00036337314
60	0x39cba3b6	0.0003884115
61	0xb935fd60	-0.00017355895
62	0x393a1b3a	0.00017748485
63	0xb993a9c7	-0.0002816452

baseModel.1.weight f4 [64]
0	0x3f686e3b	0.907932
1	0x3f650c2f	0.89471716
2	0x3f67dbeb	0.90569943
3	0x3f6c85ff	0.9239196
4	0x3f44f422	0.7693502
5	0x3f7471c4	0.9548609
6	0x3f5fb9ec	0.8739307
7	0x3f6725a8	0.90291834
8	0x3f5c596d	0.8607395
9	0x3f7d8bce	0.9904145
10	0x3f6d3461	0.9265805
11	0x3f5f6b49	0.8727308
12	0x3f617249	0.8806501
13	0x3f5a1635	0.85190135
14	0x3f717c7b	0.9433057
15	0x3f604391	0.876031
16	0x3f53cba2	0.82732594
17	0x3f689dce	0.9086579
18	0x3f62707f	0.88452905
19	0x3f5ddd4b	0.8666579
20	0x3f65bde7	0.89742893
21	0x3f621960	0.8831997
22	0x3f5ba5d1	0.8579989
23	0x3f5eb067	0.8698792
24	0x3f5c5647	0.8606915
25	0x3f6657c1	0.8997765
26	0x3f79905f	0.9748592
27	0x3f6502d1	0.8945742
28	0x3f685d91	0.9076777
29	0x3f805e2d	1.002874
30	0x3f525ae5	0.82169944
31	0x3f622245	0.8833354
32	0x3f51c45a	0.81940234
33	0x3f57a3c4	0.8423426
34	0x3f73c7d3	0.9522678
35	0x3f5faf1b	0.87376565
36	0x3f6783d7	0.90435547
37	0x3f4dd871	0.8040839
38	0x3f5ac988	0.8546376
39	0x3f5b3a1b	0.85635537
40	0x3f611eb6	0.87937486
41	0x3f64ce03	0.8937685
42	0x3f4edc99	0.80805355
43	0x3f5de20a	0.86673033
44	0x3f5fb800	0.87390137
45	0x3f62ddb5	0.8861955
46	0x3f6c2a48	0.92252016
47	0x3f6165bc	0.8804586
48	0x3f60ef3c	0.8786504
49	0x3f668828	0.9005151
50	0x3f57c8ff	0.8429107
51	0x3f6735a0	0.903162
52	0x3f564656	0.83701074
53	0x3f6d3350	0.9265642
54	0x3f6b3647	0.91879696
55	0x3f5e31da	0.8679482
56	0x3f53e31b	0.8276841
57	0x3f5e2518	0.8677535
58	0x3f658211	0.8965159
59	0x3f556699	0.83359677
60	0x3f60590a	0.8763586
61	0x3f591b1d	0.84806997
62	0x3f57b2dc	0.8425729
63	0x3f53a54a	0.82674086

baseModel.1.bias f4 [64]
0	0xbd09dc9c	-0.033657655
1	0xbcafbb32	-0.021451566
2	0xbbb96113	-0.005657324
3	0x3b5a429b	0.003330386
4	0xbcac6227	-0.021042896
5	0x3dfaab0e	0.12239657
6	0xbd03abe5	-0.032146353
7	0x3d2e29b3	0.042520236
8	0xbd4501cc	-0.048097417
9	0xbcf42cbc	-0.029806487
10	0x3df1ce73	0.11806955
11	0xbcf6f34b	-0.030145308
12	0xbda539b0	-0.08067644
13	0xbd75b97d	-0.05999135
14	0xbde61d49	-0.112360545
15	0xbe02dfa5	-0.12780626
16	0xbcababb9	-0.020955907
17	0xbda41d91	-0.08013452
18	0xbd4e6bc9	-0.05039576
19	0xbd8147f9	-0.06312556
20	0xbdb230bb	-0.08700701
21	0xbd8fc829	-0.070205994
22	0xbdd8f454	-0.10593477
23	0xbdf72dc8	-0.12069279
24	0xbcb8a034	-0.022537328
25	0xbe3093ad	-0.17243834
26	0xbd5f364e	-0.05449515
27	0xbd086131	-0.033295814
28	0xbd63e34a	-0.05563668
29	0xbd6f9708	-0.058493644
30	0xbe20e033	-0.15710525
31	0xbd4dc5ed	-0.050237585
32	0xbdfb5c6c	-0.122734874
33	0xbdbff758	-0.09373349
34	0xbd1faeb7	-0.03898498
35	0x3d946cc6	0.072473094
36	0xbded0840	-0.11573839
37	0xbbf0d772	-0.007349902
38	0x3d01578d	0.031577636
39	0xbe13de06	-0.14440164
40	0xbd41481e	-0.047187917
41	0xbd10af50	-0.03532344
42	0xbd50192a	-0.05080525
43	0xbd40b37e	-0.047046177
44	0xbe19ccf2	-0.15019587
45	0xbdceba7d	-0.100941636
46	0xbde6e31c	-0.112737864
47	0x3da45885	0.08024696
48	0x3c67520a	0.014118681
49	0xbde7cd25	-0.11318425
50	0xbdcdfbdb	-0.10057803
51	0xbd8181cc	-0.06323585
52	0xbda14290	-0.07874024
53	0x3c2aa85e	0.010416118
54	0xbda4d000	-0.08047485
55	0xbdd9b4c9	-0.10630185
56	0xbe442dda	-0.19158116
57	0xbc5fb039	-0.013652855
58	0xbd5f8c57	-0.054577198
59	0xbd88b041	-0.06674243
60	0xbdb2255e	-0.086985335
61	0xbd974646	-0.073864505
62	0x3d2c5491	0.042072836
63	0xbda347f5	-0.07972709

baseModel.1.running_mean f4 [64]
0	0xb9d994e5	-0.000415004
1	0x38b6980b	8.7067565e-05
2	0xba2fbd76	-0.0006703952
3	0xb983c84f	-0.0002513551
4	0xb99ea2f8	-0.0003025753
5	0xb94bba20	-0.00019428926
6	0x399c8c67	0.00029859247
7	0xb9912ea1	-0.00027691296
8	0x38decdd3	0.00010624123
9	0x39538ae6	0.00020174272
10	0x3858aa24	5.165687e-05
11	0x39aa5633	0.0003248915
12	0x39236e68	0.00015586021
13	0xb882ff3b	-6.2464234e-05
14	0xb8e05351	-0.00010696671
15	0x396c037e	0.00022508015
16	0x39700bcb	0.00022892577
17	0x3a1a6d32	0.0005890905
18	0xb78035f6	-1.5283917e-05
19	0xb993f74a	-0.0002822227
20	0xb910cd38	-0.0001380936
21	0xb91ad891	-0.00014767262
22	0x39726d1a	0.00023119562
23	0xba2e9a27	-0.0006660544
24	0xb9a5dcf6	-0.0003163588
25	0x390816c5	0.00012978453
26	0x3a69d7f2	0.0008920423
27	0x39a8385b	0.00032085445
28	0x394f81b7	0.00019789381
29	0x389eb194	7.5671036e-05
30	0xb9f5ca1b	-0.00046880622
31	0xb979e7a6	-0.00023832786
32	0x396d837a	0.0002265106
33	0x39d75507	0.00041071346
34	0x38647020	5.446386e-05
35	0x398293d5	0.00024905676
36	0xb8152939	-3.556276e-05
37	0xb9dba086	-0.00041890534
38	0xb9a8a3f8	-0.00032165623
39	0xb9df6891	-0.00042611783
40	0x39307b07	0.00016830499
41	0x39f1a395	0.0004608898
42	0xb9bb82bc	-0.00035764824
43	0x393a03d5	0.0001773977
44	0xba0a2811	-0.00052702526
45	0xb8115aa6	-3.4655117e-05
46	0x3987575a	0.00025814289
47	0x3906bf8e	0.00012850596
48	0xb9213811	-0.00015375043
49	0x38f9a28e	0.000119035234
50	0x390e9f84	0.000136016
51	0xb8f99461	-0.00011900883
52	0x398cc4e5	0.0002684958
53	0xb9bd5b5d	-0.0003611696
54	0x39611c04	0.00021468109
55	0x38765f38	5.873965e-05
56	0xb8f0827f	-0.000114683986
57	0x3a6f3fa6	0.0009126611
58	0xba241caa	-0.0006260375
59	0xb9f1e83e	-0.00046140136
60	0x39decf3b	0.00042497538
61	0x380afd78	3.3137825e-05
62	0x39b4e03f	0.00034499352
63	0xba0a78bb	-0.00052822725

baseModel.1.running_var f4 [64]
0	0x3712b667	8.744747e-06
1	0x3768d7e8	1.3878547e-05
2	0x371984f0	9.150463e-06
3	0x37d06b7e	2.4845587e-05
4	0x372bd6e3	1.02424265e-05
5	0x36abf414	5.1246116e-06
6	0x37158cfa	8.913916e-06
7	0x3707379d	8.0595755e-06
8	0x372a6bd8	1.0157899e-05
9	0x3792c325	1.7495428e-05
10	0x368e669c	4.243875e-06
11	0x36b291cf	5.3217877e-06
12	0x37177494	9.027444e-06
13	0x378e26d8	1.6945807e-05
14	0x37b46095	2.1502647e-05
15	0x36efabe7	7.142767e-06
16	0x37946591	1.769027e-05
17	0x36de0803	6.6170483e-06
18	0x37746aa3	1.4568362e-05
19	0x3751511c	1.24762555e-05
20	0x37568e21	1.2788486e-05
21	0x37516cd3	1.2482708e-05
22	0x375e1d1a	1.3239007e-05
23	0x377e8301	1.51700815e-05
24	0x36e92ac8	6.9489215e-06
25	0x37c0bd15	2.2976232e-05
26	0x37a8b3d6	2.0110903e-05
27	0x36ebf2d7	7.031816e-06
28	0x37ada152	2.0698328e-05
29	0x370c4ad2	8.362071e-06
30	0x372d6287	1.0334544e-05
31	0x377c7ff4	1.5050162e-05
32	0x372ee282	1.0423946e-05
33	0x3755c321	1.2741221e-05
34	0x36aa9331	5.08353e-06
35	0x3764bbce	1.3633586e-05
36	0x37779b9d	1.4758579e-05
37	0x372bbb5c	1.0236017e-05
38	0x37a8466f	2.0059959e-05
39	0x371e252b	9.426188e-06
40	0x36703260	3.579211e-06
41	0x37134ec4	8.780222e-06
42	0x37509e40	1.2434612e-05
43	0x370503c2	7.928293e-06
44	0x373d7088	1.1291479e-05
45	0x3783c31c	1.5707272e-05
46	0x36972916	4.5049337e-06
47	0x361c1d35	2.3262812e-06
48	0x36918b20	4.337533e-06
49	0x3794b514	1.7727296e-05
50	0x373d101e	1.126903e-05
51	0x37b44033	2.1487567e-05
52	0x37260ae4	9.896907e-06
53	0x366bfe02	3.516558e-06
54	0x372ffdaa	1.0489874e-05
55	0x37100537	8.584283e-06
56	0x37a13dd3	1.9221485e-05
57	0x36cf66b3	6.1810365e-06
58	0x37618050	1.344092e-05
59	0x374a62a4	1.2063105e-05
60	0x36f497fe	7.289461e-06
61	0x3792bcda	1.7492497e-05
62	0x378f6dff	1.709815e-05
63	0x36fe9daf	7.5881467e-06

baseModel.4.weight f4 [64, 64, 3]
0	0xbd429345	-0.04750373
1	0x3d85d2bb	0.06534334
2	0x3d08db84	0.03341247
3	0x3a9fa81d	0.0012180839
4	0xbdba1dff	-0.090877526
5	0xbd32d50a	-0.0436602
6	0x3da7f6fb	0.08201405
7	0x3d1c37ae	0.038139038
8	0x3b58d33d	0.0033084892
9	0x3ce41a6e	0.027844634
10	0x3b19f221	0.0023490267
11	0xbc97db05	-0.018537054
12	0xbc674845	-0.0141163515
13	0xbd2e1112	-0.04249675
14	0xbd108de5	-0.03529157
15	0xbc4fc649	-0.012681552
16	0xbd30d529	-0.043172035
17	0xbd016707	-0.031592395
18	0x3d4c40a4	0.049866334
19	0xbcbf5a31	-0.023358436
20	0xbc87f132	-0.016594503
21	0x3ce98522	0.028505865
22	0x3ad93062	0.0016570205
23	0x3d401e23	0.04690374
24	0x3bf98580	0.0076147914
25	0x3c414edd	0.011798588
26	0xbd3e7ee1	-0.04650772
27	0xbc4c7f18	-0.012481473
28	0x3cfa6982	0.030567888
29	0x3d81f5d3	0.063457154
30	0x3d710d75	0.058850724
31	0xbd5b4fba	-0.05354283
32	0xbcd447d5	-0.025913158
33	0x3d00da0f	0.031457957
34	0xbd5c8690	-0.053839266
35	0xbd6b2a40	-0.05741334
36	0xbcb9eba8	-0.022695377
37	0x3cc953d0	0.024576098
38	0x3c927409	0.017877595
39	0xbc86124f	-0.016366152
40	0x3d1230dd	0.03569113
41	0x3d86ed65	0.06588248
42	0xbd2a03b3	-0.041507434
43	0x3b5819c4	0.0032974342
44	0xbceb953d	-0.028757686
45	0xbb7b1a8c	-0.0038315384
46	0x3d7cb7f1	0.061698858
47	0x3c4eec16	0.012629529
48	0xbc6de2bc	-0.01451939
49	0xb981fa6d	-0.0002479138
50	0x3d8ea45c	0.06964943
51	0xbc8fefac	-0.01757034
52	0x3cc8b2a0	0.024499238
53	0xbcffca1c	-0.031224303
54	0x3c5b6f2e	0.0133932065
55	0xbadd58a1	-0.0016887375
56	0x3d440f98	0.047866434
57	0xbd28990e	-0.04116159
58	0x3cb85bdb	0.022504738
59	0xbc64981a	-0.013952279
60	0x3d1ba045	0.03799464
61	0xbd139e9c	-0.036039934
62	0x3d50fbc4	0.051021352
63	0x3d4177ab	0.047233265
64	0x3c6dfd8f	0.014525785
65	0xbd0ecda0	-0.034864068
66	0x3d1511bf	0.036393877
67	0x3d8b2457	0.06794041
68	0xbd00c4e3	-0.031437766
69	0x3cee4df3	0.029089903
70	0x3c4fa8f4	0.012674559
71	0x3cc57f3d	0.024108524
72	0xbc6f6575	-0.014611592
73	0x3c83b80e	0.016078975
74	0xbb803525	-0.0039125853
75	0xbe17122d	-0.14753027
76	0xbda07ff5	-0.07836906
77	0x3d0ef62d	0.03490274
78	0xbd18c439	-0.037296508
79	0xbbb6b4e1	-0.0055757617
80	0x3d311dfc	0.043241486
81	0x3c1fb65f	0.0097480705
82	0xbb982c59	-0.0046439585
83	0xbdc342e0	-0.0953424
84	0xbd2ea356	-0.042636238
85	0x3d175f7b	0.03695629
86	0xbbcd08dd	-0.00625716
87	0xbd9e8743	-0.07740643
88	0x3bd11a4f	0.00638131
89	0x3d78fb53	0.060786556
90	0x3d10e202	0.035371788
91	0x3d0ea11a	0.034821607
92	0xbc8ad7b0	-0.016948551
93	0x3c08183b	0.008306558
94	0x3c95cf03	0.018287187
95	0x3be00cf8	0.0068374835
96	0x3c130a6f	0.0089746555
97	0x3cc4df67	0.024032308
98	0x3c5ed5cd	0.013600779
99	0x3d20817d	0.03918599
100	0x3d1aea4f	0.03782111
101	0x3b3fdd32	0.002927613
102	0x3b513ace	0.003192592
103	0x3cb3df6c	0.021957122
104	0xbdc9861c	-0.098400325
105	0xbca36bf7	-0.019948943
106	0x3d132d42	0.035931833
107	0x3cb4a63c	0.022051923
108	0x3c97f48a	0.018549222
109	0x3cae03c7	0.021242036
110	0x3ced1bd7	0.02894394
111	0x3c2d09f5	0.010561456
112	0xbcb0c20f	-0.02157691
113	0xbcc38aee	-0.023869958
114	0x3d5b03c2	0.05347038
115	0x3d00ba55	0.0314277
116	0x3cb7ca8d	0.02243545
117	0xbdf5b5f8	-0.119975984
118	0xbdcba847	-0.09944206
119	0xbc51b633	-0.012799787
120	0xbd00a2d4	-0.031405285
121	0xbc3104bc	-0.010804351
122	0x3c83baae	0.016080227
123	0xbd45547f	-0.048176285
124	0xbd350bb9	-0.044200633
125	0xbd763b26	-0.060115002
126	0x3bd64996	0.006539534
127	0x3cad365a	0.02114408
128	0x3d2a6833	0.04160328
129	0xbbf10da9	-0.0073563647
130	0xb8edb025	-0.0001133385
131	0x3b90ff57	0.00442497
132	0x3d84735a	0.06467314
133	0x3c0c45a6	0.008561527
134	0xbc905490	-0.017618448
135	0x3b843c98	0.0040355437
136	0x3d1180e7	0.03552332
137	0x3d5dfd1e	0.05419647
138	0xbe0f7d68	-0.14012682
139	0xbd7d428f	-0.061831053
140	0xbcd149ea	-0.02554794
141	0xbb3a99dc	-0.0028473055
142	0xbdbfb230	-0.093601584
143	0xbd38a9cc	-0.045083806
144	0x3cf47202	0.02983952
145	0xbc8c5b56	-0.017133396
146	0xbcded3ec	-0.027200662
147	0xbd3c8285	-0.04602291
148	0x3ce7de45	0.028304229
149	0x3d7e3304	0.06206037
150	0x3cff50e8	0.031166509
151	0xbd93ac6c	-0.07210621
152	0x3c640b9c	0.0139187835
153	0x3cc6d4cb	0.02427139
154	0x3d923846	0.071396396
155	0x3ce4b966	0.027920436
156	0x3c1103d0	0.008851007
157	0xbd376168	-0.04477063
158	0xbcb97874	-0.022640444
159	0xba227057	-0.00061965495
160	0x3caf4e04	0.021399505
161	0xbd2b0493	-0.04175241
162	0xbd31dd29	-0.043423805
163	0xbcab23a5	-0.02089102
164	0xbd92ffe0	-0.071777105
165	0xbdaf7d48	-0.085688174
166	0xbd340f02	-0.043959625
167	0x3ce8b698	0.02840738
168	0xbddb64c9	-0.107125826
169	0xbda15d51	-0.07879127
170	0xbcffaf10	-0.031211406
171	0xbb8a9986	-0.004229727
172	0xbd020c90	-0.03175026
173	0xbd6174a3	-0.055042874
174	0x3ce09d28	0.027418688
175	0xbcbb0df8	-0.02283381
176	0x3d6d154f	0.05788165
177	0x3d1980bf	0.037476297
178	0x3b7eb8ac	0.0038867397
179	0x3b8fcce2	0.0043884376
180	0xbab90c60	-0.0014118068
181	0xbd143996	-0.03618773
182	0xbda66a97	-0.08125799
183	0x3d437635	0.047720153
184	0x3c839f86	0.016067278
185	0x3cc5c3b1	0.024141164
186	0x3b0e9aaa	0.0021759667
187	0x3ba6b678	0.00508767
188	0x3cd03074	0.02541373
189	0xbd5ea11a	-0.054352857
190	0xbcd04ca5	-0.025427172
191	0x3cbebed1	0.023284348
192	0xbbd997b9	-0.006640401
193	0xbbaac833	-0.005211854
194	0x3cb8c0c5	0.022552857
195	0xbd308329	-0.043093834
196	0x3be670b0	0.0070324764
197	0xbbca7f3d	-0.0061797188
198	0xbc70efb4	-0.014705587
199	0x3d06613d	0.032807577
200	0x3ca326c2	0.019915942
201	0xbd5e2786	-0.05423691
202	0xbdb3d535	-0.087809004
203	0xbd54b818	-0.051933378
204	0x3d09009d	0.03344785
205	0xbdc320d3	-0.09527745
206	0x3c836d3c	0.016043298
207	0xbd57aed2	-0.052656956
208	0x3b6e04d3	0.0036318793
209	0xbd273c95	-0.04082926
210	0xbc54736a	-0.01296697
211	0x3ca22c66	0.019796561
212	0xbc0635fd	-0.008191583
213	0xbb846965	-0.0040408843
214	0xbc849d53	-0.0161883
215	0xbc36c1e4	-0.011154626
216	0xbd4df82c	-0.050285503
217	0x3d26fc38	0.04076788
218	0xbd432aa6	-0.047648095
219	0x3d4f7efd	0.050658215
220	0x3c52b8aa	0.01286141
221	0x3d77930b	0.060442965
222	0xbc9571b9	-0.018242704
223	0xbc68bb8c	-0.014204871
224	0xbd3fbcab	-0.046810787
225	0x3d4cae01	0.04997063
226	0xbcc609e3	-0.024174636
227	0x3d15cbd9	0.036571357
228	0xba207720	-0.00061212666
229	0xbcb8295a	-0.022480655
230	0x3d5e0ba8	0.054210335
231	0xbdaa3ad0	-0.08311999
232	0xbd57f72b	-0.052725952
233	0xbc9cc455	-0.019136587
234	0xbc7d3d24	-0.015456472
235	0xbd14b14d	-0.0363019
236	0x3dbe3be2	0.092887655
237	0x3d836c23	0.0641711
238	0xbd11fdcb	-0.035642426
239	0xbd44f374	-0.048083737
240	0x3bd85933	0.0066024303
241	0xbd7d5f7c	-0.06185864
242	0x3ca8c344	0.020600922
243	0x3da0876d	0.078383304
244	0xbd42137c	-0.047381863
245	0x3d3c46be	0.045965903
246	0xbd55f926	-0.05223956
247	0x3c2ab156	0.010418257
248	0x3d2b05c1	0.041753534
249	0xbd32069a	-0.043463327
250	0xbd05d4bf	-0.032673594
251	0xbc68e1fe	-0.014214037
252	0x3d3a596a	0.04549543
253	0xbc441438	-0.011967711
254	0xbd496cfb	-0.049176197
255	0x3c272aba	0.010203058

baseModel.4.bias f4 [64]
0	0x38162aa5	3.5802503e-05
1	0x36b3f7ac	5.3634485e-06
2	0x38040077	3.1471685e-05
3	0xb7968b76	-1.7946335e-05
4	0xb6a99b7a	-5.0546923e-06
5	0xb900e322	-0.00012291645
6	0x36e87428	6.927661e-06
7	0x37826f28	1.5548969e-05
8	0xb792534d	-1.7443346e-05
9	0x37b2cd8e	2.1314972e-05
10	0xb7d15c98	-2.4957859e-05
11	0x37125449	8.721902e-06
12	0x3806d008	3.2141834e-05
13	0xb8c3a99a	-9.329915e-05
14	0x35a321ae	1.2154248e-06
15	0xb84872ce	-4.7790636e-05
16	0xb874ed2a	-5.839501e-05
17	0xb6e6abe4	-6.874545e-06
18	0xb69874f3	-4.5435677e-06
19	0x38812a5e	6.159091e-05
20	0x3906122f	0.0001278601
21	0x389625b3	7.1595794e-05
22	0xb887de78	-6.47874e-05
23	0xb67ab8ce	-3.7360473e-06
24	0xb8b724b9	-8.73296e-05
25	0x3830fdc5	4.219801e-05
26	0xb7af5b67	-2.0904188e-05
27	0xb83f76c2	-4.564855e-05
28	0xb81f9311	-3.804552e-05
29	0x3717e08a	9.052581e-06
30	0x35f40267	1.8180116e-06
31	0xb8d4b46e	-0.000101425554
32	0x388f5de5	6.8362606e-05
33	0xb9089313	-0.0001302476
34	0x371463f7	8.844762e-06
35	0x37d56eea	2.5443227e-05
36	0xb8a7f805	-8.009378e-05
37	0xb7a8e2ac	-2.0132713e-05
38	0xb83dd40d	-4.52586e-05
39	0xb72eb365	-1.0412977e-05
40	0x3806d4d3	3.2146298e-05
41	0xb59b9ab1	-1.1593421e-06
42	0xb8465fa5	-4.7295955e-05
43	0x35e7a84a	1.725982e-06
44	0x37065750	8.007351e-06
45	0xb799901d	-1.830613e-05
46	0xb79f2bda	-1.8974697e-05
47	0x377143bb	1.4380489e-05
48	0xb65ce908	-3.2918197e-06
49	0xb8901c99	-6.871782e-05
50	0x37546bb4	1.2661261e-05
51	0x369ae0d2	4.61573e-06
52	0xb895f78b	-7.150982e-05
53	0x37d22af2	2.5053949e-05
54	0xb84fc3f6	-4.953515e-05
55	0x36f37bf1	7.256393e-06
56	0xb807562f	-3.2266773e-05
57	0x3789657e	1.6378934e-05
58	0xb84c44ce	-4.870147e-05
59	0xb81fe60d	-3.8122806e-05
60	0xb6b2318e	-5.3105823e-06
61	0x365e449f	3.312052e-06
62	0xb8ffff16	-0.00012206861
63	0xb58ac72a	-1.0339766e-06

baseModel.5.weight f4 [64]
0	0x3f826758	1.0187788
1	0x3f673119	0.9030929
2	0x3f760d90	0.96114445
3	0x3f67ed3c	0.90596366
4	0x3f678559	0.9043785
5	0x3f7afe3f	0.980442
6	0x3f6c73d4	0.9236424
7	0x3f7484d6	0.9551519
8	0x3f5f1264	0.87137437
9	0x3f6d4715	0.9268659
10	0x3f7367a1	0.9508
11	0x3f75b124	0.9597342
12	0x3f705b7c	0.93889594
13	0x3f78d194	0.9719479
14	0x3f8070fa	1.0034478
15	0x3f76aa13	0.9635326
16	0x3f6c86b3	0.92393035
17	0x3f849425	1.035771
18	0x3f66e449	0.90192086
19	0x3f725c99	0.9467254
20	0x3f771a2c	0.9652431
21	0x3f812022	1.0087931
22	0x3f6a9aa7	0.9164223
23	0x3f630cf4	0.8869164
24	0x3f8a3639	1.0797797
25	0x3f6997cb	0.9124724
26	0x3f73b91c	0.9520433
27	0x3f7ea94a	0.99477065
28	0x3f711b65	0.94182426
29	0x3f702020	0.9379902
30	0x3f759c30	0.9594145
31	0x3f77c377	0.9678263
32	0x3f7b1439	0.9807773
33	0x3f852fce	1.0405214
34	0x3f7f170f	0.9964456
35	0x3f7a8c3a	0.9787022
36	0x3f6fdec3	0.9369928
37	0x3f6d98bf	0.928112
38	0x3f6d59f3	0.92715377
39	0x3f7541f4	0.9580376
40	0x3f78b492	0.9715053
41	0x3f81d782	1.0143893
42	0x3f766f44	0.9626353
43	0x3f61f2f0	0.8826132
44	0x3f73dace	0.95255744
45	0x3f70d404	0.9407351
46	0x3f6ac572	0.9170753
47	0x3f73598f	0.9505853
48	0x3f69065e	0.9102534
49	0x3f6c4ad5	0.92301685
50	0x3f7a3aff	0.9774627
51	0x3f8014c0	1.0006332
52	0x3f70a9cb	0.94009084
53	0x3f730814	0.949342
54	0x3f63fde4	0.8905928
55	0x3f7175c5	0.9432033
56	0x3f6df7c8	0.9295621
57	0x3f759513	0.95930594
58	0x3f71309d	0.94214803
59	0x3f72fb2a	0.94914496
60	0x3f645a80	0.8920059
61	0x3f6167f8	0.8804927
62	0x3f67ec10	0.9059458
63	0x3f6dd2c0	0.92899704

baseModel.5.bias f4 [64]
0	0xbdb93afd	-0.09044454
1	0xbc2740cf	-0.010208323
2	0xbda11cec	-0.078668445
3	0xbdad66ce	-0.08466874
4	0xbdb55258	-0.088535964
5	0xbe0000dc	-0.12500328
6	0xbd2803c0	-0.0410192
7	0xbd7a597c	-0.061120495
8	0xbd806e24	-0.06271008
9	0xbcc0efb8	-0.023551807
10	0xbd80675e	-0.06269716
11	0xbd7445df	-0.059636947
12	0xbd81624d	-0.063175775
13	0xbcd17c1a	-0.025571872
14	0xbe486e45	-0.19573314
15	0xbc7cf820	-0.015440017
16	0xbc8577e0	-0.016292512
17	0xbdcaeaf5	-0.09908096
18	0xbd021998	-0.03176269
19	0xbda53c61	-0.08068157
20	0xbd58ea08	-0.052957565
21	0xbda7cabc	-0.081929654
22	0xbc288083	-0.010284546
23	0xbd80cb23	-0.06288745
24	0xbea8a8c2	-0.32941252
25	0xbd6e7554	-0.05821736
26	0xbd069ce7	-0.032864477
27	0xbe0281d7	-0.12744842
28	0xbd174387	-0.036929633
29	0xbd8e091d	-0.06935332
30	0xbcfc9696	-0.030833524
31	0xbcbac055	-0.02279679
32	0xbdcbd1a0	-0.09952092
33	0xbe196287	-0.14978991
34	0xbc86790b	-0.01641514
35	0xbd5c9db1	-0.053861324
36	0xbd739ad8	-0.059473842
37	0xbd94a904	-0.072588
38	0xbd268bff	-0.040660854
39	0xbd4cea78	-0.050028294
40	0xbd883726	-0.06651144
41	0xbbb68d18	-0.005571019
42	0xbabcb43d	-0.0014396977
43	0xbd96ae54	-0.07357469
44	0xbd6ac6f3	-0.05731864
45	0x3c52948f	0.012852802
46	0xbd6aa677	-0.05728766
47	0xbceb65f6	-0.028735142
48	0x3ab4941f	0.0013777054
49	0xbda0eea6	-0.078580186
50	0xbe864aa3	-0.26228818
51	0xbe141745	-0.14462002
52	0x3c0abe02	0.008468153
53	0xbd78b23c	-0.060716853
54	0x3cc4e43f	0.024034617
55	0xbd3a2369	-0.045443926
56	0xbc3dcac2	-0.011583986
57	0xbd66cab7	-0.056345668
58	0xbcb16bca	-0.021657843
59	0xbd99ed41	-0.07515956
60	0xbd59f6c6	-0.053213857
61	0xbd092f21	-0.03349221
62	0x3cfa456b	0.03055068
63	0xbd604efb	-0.05476282

baseModel.5.running_mean f4 [64]
0	0xbe192768	-0.14956439
1	0xbed52490	-0.41629457
2	0xbe1d3d5c	-0.15355438
3	0xbe873893	-0.2641035
4	0x3f52ced6	0.82346857
5	0xbe8d73b7	-0.27627346
6	0x3dce4aa2	0.10072829
7	0xbd6c7a3e	-0.057733767
8	0xbe19e3ea	-0.15028349
9	0xbe283f4a	-0.16430393
10	0xbe83d311	-0.25746968
11	0xbd48d33c	-0.049029574
12	0xbe584ccb	-0.21123044
13	0xbe0af14a	-0.13568607
14	0xbdf80f87	-0.121123366
15	0xbe5f354f	-0.2179768
16	0xbd403cbc	-0.04693292
17	0xbe8b07e7	-0.27154467
18	0xbe390b14	-0.18070632
19	0xbe191931	-0.14951016
20	0xbe9a5c63	-0.3014861
21	0xbe4868cc	-0.19571227
22	0xbe32f4bd	-0.17476173
23	0xbe9f6ee7	-0.311393
24	0xbe8e59b0	-0.278028
25	0xbe2e0842	-0.16995338
26	0xbeb8caf3	-0.36092338
27	0xbda3d022	-0.079986826
28	0xbdcbb59a	-0.09946747
29	0xbe02eb48	-0.12785065
30	0xbe366179	-0.1781062
31	0xbe7b6a1c	-0.24552196
32	0xbdcd9de8	-0.10039884
33	0xbf048196	-0.5176023
34	0xbe86492b	-0.26227698
35	0xbe026c07	-0.12736522
36	0xbdf51745	-0.11967329
37	0xbeaaf93e	-0.33393282
38	0xbe7ca3c6	-0.2467185
39	0xbdcda339	-0.10040898
40	0xbd3cc303	-0.046084415
41	0xbdd7e02a	-0.10540803
42	0xbe382d14	-0.17985946
43	0xbe71b4cb	-0.23604123
44	0xbe1e12d7	-0.15436874
45	0xbe071436	-0.13191304
46	0xbe7f7d5a	-0.24950162
47	0xbdb62038	-0.08892864
48	0xbe8d03d8	-0.27541995
49	0xbedc4b9f	-0.43026444
50	0xbe3496ca	-0.17635646
51	0x3ef89b65	0.48556057
52	0xbf160a06	-0.58609045
53	0xbd85cc52	-0.06533112
54	0x3d920df2	0.07131566
55	0xbdec6fa0	-0.11544728
56	0xbe28af24	-0.16473061
57	0xbe1f4995	-0.15555413
58	0xbeb38a05	-0.35066238
59	0xbe402839	-0.18765344
60	0x3c4a9057	0.012363515
61	0xbe6ec515	-0.23317368
62	0xbf25539c	-0.645807
63	0xbda8dbe8	-0.08245069

baseModel.5.running_var f4 [64]
0	0x3d1d5349	0.038409505
1	0x3d5af15c	0.053452834
2	0x3d1b3e78	0.03790137
3	0x3d6515ff	0.05592918
4	0x3db979c6	0.090564296
5	0x3d1e5ca0	0.038662553
6	0x3d7a4829	0.061103974
7	0x3d2c98e0	0.04213798
8	0x3d95c042	0.07312061
9	0x3d757bc9	0.059932504
10	0x3d8e965e	0.06962274
11	0x3dc3eb7f	0.09566402
12	0x3da6c391	0.0814277
13	0x3d0a9f9f	0.033843633
14	0x3d3f97c2	0.046775587
15	0x3d56299b	0.05228577
16	0x3cb993bf	0.022653459
17	0x3d562f77	0.05229136
18	0x3d35ec85	0.044415016
19	0x3cfeed8c	0.03111913
20	0x3d8a81ea	0.067630604
21	0x3d17884c	0.036995217
22	0x3cf794a6	0.030222248
23	0x3d9c91d4	0.07645002
24	0x3d8783a4	0.06616905
25	0x3da44687	0.080212645
26	0x3d7e4f91	0.0620876
27	0x3ce346f7	0.0277438
28	0x3d07a992	0.0331207
29	0x3da7420b	0.081668936
30	0x3d16d3d9	0.036823127
31	0x3d1609c1	0.036630396
32	0x3d4f54b8	0.050617903
33	0x3d83f033	0.06442299
34	0x3ccd705a	0.025077987
35	0x3d42c55d	0.0475515
36	0x3d2b85e1	0.041875724
37	0x3da82b17	0.08211344
38	0x3d0e8cf8	0.034802407
39	0x3d6291e8	0.05531493
40	0x3e14857c	0.14504045
41	0x3d7d71e1	0.06187618
42	0x3d472149	0.048615728
43	0x3d968dda	0.07351275
44	0x3d056d0a	0.03257469
45	0x3d3323ac	0.04373519
46	0x3d768241	0.060182814
47	0x3d63e62d	0.055639435
48	0x3d63e5be	0.05563902
49	0x3d2f55b2	0.042806335
50	0x3d5ede80	0.05441141
51	0x3dcea6f7	0.1009044
52	0x3d8e2ece	0.06942521
53	0x3de1d216	0.11026399
54	0x3d06da69	0.032923136
55	0x3de62cb7	0.112389974
56	0x3d218d27	0.039441254
57	0x3e045fed	0.12927218
58	0x3d8d311a	0.06894131
59	0x3d3da9e2	0.04630459
60	0x3d3e351a	0.04643736
61	0x3d4c8e27	0.049940255
62	0x3d4adfeb	0.04952995
63	0x3df5574c	0.11979541

shortBranch.2.weight f4 [64, 1024]
0	0xbaac6546	-0.001315274
1	0xbca04368	-0.019563392
2	0xbb8060f1	-0.0039178063
3	0xbc03ec6a	-0.008051971
4	0xbb461ff9	-0.003023146
5	0x3bafc98d	0.005364603
6	0xbc63bff8	-0.013900749
7	0x3c79bc42	0.015242638
8	0xbb9676b1	-0.004591786
9	0xbc3ba03c	-0.011451777
10	0xbc23346d	-0.00996123
11	0xbb751585	-0.003739686
12	0xbbb73fd4	-0.0055923257
13	0xbcb3b891	-0.021938594
14	0xbc0d7d2d	-0.008635801
15	0xbc5e04c6	-0.013550943
16	0xbc1a87eb	-0.009431819
17	0xbc3fc02f	-0.011703535
18	0xbbe27a95	-0.0069115856
19	0xbb58c55f	-0.0033076627
20	0xbcb324c9	-0.021868126
21	0xbbdfa8e9	-0.0068255556
22	0x3c4d5769	0.012533047
23	0x3c74f288	0.014950402
24	0x3b897391	0.004194685
25	0xbcf70dbf	-0.030157922
26	0xbbcf5bda	-0.006328088
27	0xbc4af48d	-0.012387407
28	0x3aca5a82	0.001543835
29	0xbc9a5168	-0.018837646
30	0xbc5b4935	-0.013384153
31	0xbb46ad58	-0.0030315723
32	0xbcbbd329	-0.022927837
33	0xbc530cdf	-0.012881487
34	0xbcbfd853	-0.023418581
35	0xbb7289c6	-0.003700839
36	0x39d18583	0.0003996306
37	0xbc64451d	-0.0139324935
38	0xbc88d478	-0.016702875
39	0xbc0d50d8	-0.008625232
40	0xbca26224	-0.019822188
41	0xbbb5b2b2	-0.005544984
42	0xbc7be9bf	-0.015375554
43	0x3b9b40d9	0.004737955
44	0xbc75b627	-0.014997042
45	0xbc65be5e	-0.014022438
46	0xbcef6d4c	-0.029226921
47	0xbcdc80be	-0.026916858
48	0xbb408b61	-0.0029379951
49	0x3c1c9db2	0.009559082
50	0x39eb16ee	0.00044839777
51	0x3c88a72e	0.01668128
52	0xbbe0930d	-0.0068534673
53	0x3c9eb69a	0.01937418
54	0x3c9844bd	0.018587464
55	0xbb8a8917	-0.004227768
56	0xbb7efba1	-0.0038907307
57	0xb933ec8f	-0.00017158895
58	0x3d0bd128	0.034135014
59	0xbc030ffd	-0.007999417
60	0x3c092193	0.008369821
61	0x3d0f21c5	0.034944315
62	0x3c43a024	0.011940036
63	0x3b1ea80c	0.002420905
64	0xbbb2b8ea	-0.0054541724
65	0xbc8c193d	-0.017101878
66	0x3b3751fa	0.0027972446
67	0xbbcbf2af	-0.0062239985
68	0xbbfa5b17	-0.0076402533
69	0x3ca59c08	0.020216003
70	0x3c0e50e0	0.008686274
71	0x3a8ab7db	0.0010583358
72	0x3b99a4d0	0.0046888366
73	0x3c48c7a1	0.0122546265
74	0x3c7e6e0a	0.015529165
75	0x3ba56369	0.005047251
76	0xbb949c13	-0.004535207
77	0x3b790b44	0.00380011
78	0x3b98d97c	0.004664598
79	0xbc9c1187	-0.019051326
80	0x3d498392	0.04919774
81	0x3cc866ab	0.024463018
82	0x3d1ca573	0.038243722
83	0x3c1489f0	0.00906609
84	0x3d0eed57	0.034894314
85	0x3cb9d017	0.022682233
86	0x3ce60402	0.028078083
87	0x3ce00ae4	0.027348943
88	0x3b70bc63	0.003673338
89	0x3c55abde	0.013041465
90	0x3d0352c3	0.03206135
91	0x3cc38072	0.023864958
92	0x3ccbac5a	0.024862457
93	0x3c421aee	0.011847241
94	0x3d15a0b3	0.036530208
95	0xbb856d7a	-0.0040718885
96	0x3d2c30f2	0.042038865
97	0x3d35b2fc	0.044360146
98	0x3cdb73c4	0.0267886
99	0x3c909de3	0.017653411
100	0x3cfee6ea	0.031115968
101	0x3cb6cdd8	0.02231495
102	0x3c8e404a	0.01736464
103	0x3c8d8d85	0.017279396
104	0x3d0675d8	0.03282723
105	0x3ce968e7	0.028492404
106	0x3d438c51	0.047741238
107	0x3d0e9eb0	0.034819305
108	0x3d2985d7	0.041387405
109	0x3cc9ab12	0.024617705
110	0x3cc03e0a	0.023467083
111	0x3d1843d5	0.037174065
112	0xbbfe3f54	-0.007759014
113	0x3cb36565	0.021898935
114	0x3bd0a412	0.006367215
115	0xbbe335f3	-0.0069339215
116	0x3b047fb3	0.0020217716
117	0x3b259a40	0.0025268942
118	0xbc0e63cd	-0.008690787
119	0x3bdaa486	0.0066724448
120	0xbb9c584e	-0.004771269
121	0xba9351e1	-0.0011239612
122	0xbb52fcaa	-0.0032194057
123	0xbc93beb2	-0.018035267
124	0xbc56c7ee	-0.01310919
125	0x3ba158cc	0.0049239155
126	0xbbcf0701	-0.0063179736
127	0x3c3e9fb7	0.011634759
128	0xbb8ed2cb	-0.0043586246
129	0x392a1d3d	0.00016223355
130	0x3cee5620	0.029093802
131	0x3bf43335	0.0074523934
132	0x3c4b7b6f	0.012419566
133	0x3d104392	0.03522069
134	0x3cf3a162	0.02974004
135	0x3c7b313b	0.015331562
136	0x3c26cbff	0.010180472
137	0x3d0b0a10	0.033945143
138	0x3b8eaafb	0.0043538786
139	0x3cf5c0c5	0.029999146
140	0x3cdfbf75	0.027312974
141	0x3c5951de	0.013264148
142	0x3ca6f956	0.020382565
143	0x3c6e161a	0.014531637
144	0xbbda0950	-0.006653942
145	0xbc13556e	-0.008992536
146	0x3c3dee7d	0.011592505
147	0xbcad27b1	-0.02113709
148	0xbc8b9839	-0.017040359
149	0xb9314027	-0.00016903934
150	0xbc1e4110	-0.009659067
151	0x3c3cd37b	0.01152503
152	0xbd005064	-0.031326666
153	0xbbb36835	-0.005475069
154	0x3b79b33b	0.0038101214
155	0x3b857373	0.0040726005
156	0x3c0d7bf8	0.0086355135
157	0xbc12a29b	-0.008949901
158	0xbbac66a4	-0.005261259
159	0x3bfed9a4	0.0077774096
160	0xbc76da3b	-0.015066679
161	0xbc99ed0f	-0.018789796
162	0x3aeecd20	0.0018219091
163	0xbd25630e	-0.04037767
164	0xbcc8a8d0	-0.024494559
165	0xbd0612f1	-0.032732908
166	0xbcaa8115	-0.020813504
167	0xbce1e51b	-0.027575066
168	0x3a9404c5	0.0011292925
169	0xbc815778	-0.015788779
170	0xbcb6d898	-0.022320077
171	0xbcf2860b	-0.029604932
172	0xbbbdcff1	-0.005792611
173	0xbcb9f0ba	-0.022697795
174	0xbc0a16a3	-0.008428249
175	0xbd055c08	-0.03255847
176	0x3c00ec33	0.007868814
177	0x3c639e25	0.013892685
178	0xbc58d054	-0.013233263
179	0x3bfe2f8b	0.0077571324
180	0x3c5b3e35	0.0133815305
181	0x3c549553	0.012975055
182	0x3c716004	0.014732365
183	0xbc313515	-0.010815878
184	0xbbc6cc05	-0.0060668015
185	0xbb7bea67	-0.0038439275
186	0x3d0a3ade	0.033747546
187	0x3bad92cb	0.00529704
188	0xbc10e5e5	-0.008843874
189	0x3cab11b0	0.020882457
190	0x3cb2771d	0.021785313
191	0x3c9a50f6	0.018837433
192	0x3cd16d17	0.025564713
193	0x3ce9350f	0.028467683
194	0x3c363ced	0.011122924
195	0x3d23a189	0.039948974
196	0x3d2c04ab	0.04199664
197	0x3c63fa70	0.013914689
198	0x3c4daaa7	0.012552894
199	0x3c807471	0.015680524
200	0x3c730a6f	0.0148340305
201	0x3c847f36	0.01617394
202	0x3c4dbb86	0.012556916
203	0x3d0612d5	0.032732803
204	0x3d026c09	0.03184131
205	0x3ce68012	0.02813724
206	0x3d4884df	0.04895484
207	0x3cfb02b3	0.030640936
208	0xbb960a03	-0.00457883
209	0xbd0565c3	-0.03256775
210	0xbc206d22	-0.009791644
211	0xbd0275fd	-0.031850804
212	0xbc9333c6	-0.017969023
213	0xbcdb6f63	-0.026786512
214	0xbc84f721	-0.016231121
215	0xbd0050f2	-0.031327195
216	0xbcb5079e	-0.022098359
217	0xbc2a99dd	-0.01041266
218	0xbcd3553c	-0.025797479
219	0xbd29a256	-0.04141458
220	0xbc975ae7	-0.018475963
221	0xbcd4f2a2	-0.025994603
222	0xbce52c3e	-0.027975198
223	0xbcf86202	-0.030320171
224	0xbd10bac2	-0.035334356
225	0xbd0b5ed0	-0.034025967
226	0xbca15cfb	-0.019697657
227	0xbd01b8de	-0.031670444
228	0xbd25f730	-0.04051894
229	0xbce6c16a	-0.028168399
230	0xbc7c4bcd	-0.015398932
231	0xbc7d94cf	-0.015477373
232	0xbd31aa4d	-0.043375302
233	0xbd044848	-0.032295495
234	0xbccd53ce	-0.025064375
235	0xbd055597	-0.032552328
236	0xbd35a8b3	-0.044350337
237	0xbcfced7d	-0.030874962
238	0xbcef638f	-0.029222278
239	0xbb84a8ea	-0.0040484564
240	0xbc12ad73	-0.008952486
241	0x3c8802af	0.016602842
242	0x3c76be97	0.015060089
243	0x3c2ea8f0	0.010660395
244	0x3c6075fe	0.0137000065
245	0x3946ffe4	0.00018978078
246	0x3c8199c3	0.01582039
247	0xbbaa1cb0	-0.005191408
248	0x3d0f3cda	0.034970142
249	0x3c78db21	0.015188963
250	0x3b56fa6d	0.0032803074
251	0xba99649b	-0.0011702956
252	0x3bf8f990	0.0075981095
253	0x3ba9d405	0.0051827454
254	0x3c13b0f2	0.009014355
255	0xbc84579e	-0.01615506

shortBranch.2.bias f4 [64]
0	0xbc144023	-0.0090484945
1	0xbd464e48	-0.0484145
2	0x3cb4359b	0.021998217
3	0x3d0e0ed8	0.034682125
4	0x3d28ab84	0.041179195
5	0xbd0a856f	-0.03381866
6	0x3d2af752	0.04173977
7	0x3c9cdc18	0.019147918
8	0xbd1bf987	-0.038079765
9	0x3c9af79d	0.0189169
10	0x3d2f2aee	0.04276555
11	0x3c886505	0.016649732
12	0xbc3f73e6	-0.011685347
13	0x3c70c6a8	0.014695801
14	0x3c7b10bb	0.015323813
15	0xbc42c58f	-0.011887922
16	0xbd0ac1f5	-0.033876378
17	0xbcc912ad	-0.024545038
18	0xbcd66a9b	-0.02617388
19	0x3d0382d8	0.032107204
20	0xbd3533c4	-0.04423882
21	0xbd651a98	-0.055933565
22	0xbd2afb91	-0.04174382
23	0xbbbbb6c7	-0.005728576
24	0x3c6b4995	0.014360805
25	0xbd160883	-0.03662921
26	0xbcef5d54	-0.029219307
27	0xbcf863a9	-0.03032096
28	0x37a5665f	1.9717203e-05
29	0xbd0f0659	-0.034918163
30	0x3cdfba24	0.027310438
31	0x3d460019	0.048339937
32	0xbc1daa71	-0.009623156
33	0x3d729ab3	0.059229564
34	0x3b82cece	0.003991938
35	0xbb6564b1	-0.0035002644
36	0xbd42b70a	-0.04753784
37	0xbcaf1577	-0.02137254
38	0xbd007775	-0.031363923
39	0xbd2e6ab8	-0.042582244
40	0xbcb91ca0	-0.022596657
41	0xbc7c0285	-0.01538146
42	0x3cee3ba9	0.029081183
43	0x3ca9f58a	0.020746965
44	0xbc942a6b	-0.018086633
45	0xbc95a172	-0.01826546
46	0xbd5cfe3a	-0.053953387
47	0xbbf17688	-0.0073688664
48	0x3cece43c	0.028917424
49	0x3c973937	0.0184599
50	0x3ce0781c	0.027401023
51	0xbd4849c5	-0.048898477
52	0xbb6d2cec	-0.0036190106
53	0xbd2250ad	-0.03962772
54	0x3d010140	0.031495333
55	0x3cb84619	0.022494363
56	0xbcadce40	-0.021216512
57	0xbc890ac0	-0.016728759
58	0xbbaf3a21	-0.0053475057
59	0xbd0835c1	-0.03325439
60	0x3d4f98c1	0.050682787
61	0xbb44c9ad	-0.0030027435
62	0xbd3fd2be	-0.04683184
63	0x3d4c567a	0.049887158

shortBranch.4.weight f4 [32, 64]
0	0xbe2782d4	-0.163585
1	0x3be2e65c	0.0069244336
2	0x3dbe53a8	0.092933
3	0xbe13e94b	-0.14444463
4	0xbe53dd3c	-0.20689863
5	0x3c0e927f	0.00870192
6	0xbd39f563	-0.045400035
7	0xbcc481a5	-0.0239876
8	0x3dfb864b	0.12281474
9	0xbd74cd07	-0.05976584
10	0x3b42da59	0.0029732196
11	0xbd74377d	-0.05962323
12	0xbcfc2420	-0.030778944
13	0x3ddaaae9	0.1067713
14	0xbdf139b1	-0.11778582
15	0xbc8a32a8	-0.016869858
16	0xbb335c6e	-0.0027368325
17	0x3c9fe940	0.019520402
18	0xbc01324d	-0.007885528
19	0x3bf2260a	0.0073897885
20	0x3d8cafeb	0.06869491
21	0xbcd08f87	-0.025459064
22	0x3e59f22d	0.21283789
23	0x3be790f6	0.0070668412
24	0x3d75d531	0.06001777
25	0xbc1e3d56	-0.009658178
26	0x3d07e476	0.03317686
27	0xbd83ad89	-0.064295836
28	0xbcbf0c05	-0.023321161
29	0xbc2ab639	-0.010419422
30	0x3c8d3cb8	0.017240867
31	0x3b96cc62	0.004602001
32	0xbb2378ca	-0.0024943822
33	0x3d5eeb56	0.054423653
34	0xbca887ca	-0.020572562
35	0xbde963c7	-0.11395984
36	0x3c2f3fbd	0.010696349
37	0xbde65e51	-0.11248458
38	0xbc9c5f1c	-0.01908832
39	0x3da80597	0.08204191
40	0xbc58cb1d	-0.01323202
41	0x3dda356a	0.10654719
42	0x3becd38c	0.007227367
43	0xbe2bac47	-0.16764937
44	0x3d4f058e	0.050542407
45	0x3c6c1d86	0.014411336
46	0xbc2fc30a	-0.010727653
47	0xbd2ce035	-0.042206008
48	0xbe3bdc6c	-0.18345803
49	0xbd0f537e	-0.034991734
50	0xbbe2be47	-0.0069196555
51	0x3bc69aba	0.0060609253
52	0x3e4cd477	0.20002924
53	0x3e01854a	0.12648502
54	0xbd4ae494	-0.049534395
55	0x3d36b98f	0.044610556
56	0x3d362e1f	0.04447758
57	0x3bdb1c94	0.0066867564
58	0x3c833f1c	0.016021304
59	0xbc5c23f8	-0.01343631
60	0xbc573426	-0.013134992
61	0x3ad8e567	0.0016547859
62	0x3d487cee	0.048947267
63	0xbd28e84f	-0.04123717
64	0x3d2000fa	0.03906343
65	0xbbe2d263	-0.0069220527
66	0xbd2771a5	-0.040879864
67	0x3e3586d8	0.1772722
68	0x3db94a7b	0.09047409
69	0x3c5bd69a	0.013417864
70	0x3840ff3c	4.6014073e-05
71	0xbcd2e4c4	-0.02574385
72	0xbe3f61ba	-0.18689623
73	0xbbeb969a	-0.007189584
74	0xbbbad246	-0.005701336
75	0x3e1ccba2	0.15312055
76	0x3abaae05	0.0014242536
77	0xbe2e4dff	-0.1702194
78	0x3d81e0c3	0.06341698
79	0x3c1fb94a	0.009748766
80	0xbd003306	-0.03129866
81	0x3d67af00	0.056563377
82	0xbc8f8e6f	-0.017523972
83	0x3d4b3551	0.049611393
84	0xbe435f1f	-0.19079255
85	0xbd0bd8f0	-0.034142435
86	0xbd8d4a23	-0.06898906
87	0x3cd76c92	0.026296888
88	0x3d2334b1	0.039845172
89	0x3cc3a818	0.023883864
90	0x3c3a8863	0.011385056
91	0x3b9b18be	0.004733174
92	0xbcd76c48	-0.02629675
93	0x3c32df52	0.0109175015
94	0x3d17589b	0.036949735
95	0x3d80bee0	0.062864065
96	0x3d21e030	0.039520442
97	0x3cda7680	0.026667833
98	0xbd51fb75	-0.0512652
99	0x3d2a8002	0.041625984
100	0xbdb0ee15	-0.086391605
101	0x3b940356	0.0045169992
102	0x3c8dd7be	0.017314788
103	0x3ccc20de	0.024918016
104	0xbc8a78e6	-0.016903352
105	0xbe404ae6	-0.18778571
106	0xbba9df6b	-0.005184104
107	0x3df9d751	0.121992715
108	0x3ca4034b	0.020021101
109	0xbc2eb37c	-0.01066291
110	0xbc029376	-0.007969728
111	0xbbf046a5	-0.0073326402
112	0x3d42bf41	0.047545675
113	0xbcd3715c	-0.02581089
114	0xbcdefa5a	-0.027218986
115	0xbbcfc9d1	-0.006341197
116	0xbdba59e4	-0.090991765
117	0xbe23f602	-0.16011813
118	0x3b5361cf	0.0032254343
119	0x3cffb212	0.03121284
120	0xbe2c0b57	-0.16801201
121	0x3c72d3a2	0.014820965
122	0xbbdfa5d9	-0.0068251905
123	0x3cf51b99	0.029920386
124	0xbd111d71	-0.03542847
125	0xbd4ec83d	-0.05048393
126	0xbe405232	-0.18781355
127	0xbcc5c6ad	-0.024142588
128	0x3cb77745	0.02239574
129	0x3daeff5a	0.08544798
130	0xbd0d887b	-0.034553986
131	0xbd5d03ab	-0.053958576
132	0x3c433631	0.011914776
133	0x3db96573	0.09052553
134	0x3c5da01e	0.013526944
135	0xbd150686	-0.036383174
136	0x3d85792b	0.065172516
137	0x3dc5e7d3	0.096633576
138	0xbddfa959	-0.109209724
139	0xbda4f958	-0.08055371
140	0x3e1713a6	0.14753589
141	0xbd406f72	-0.046981283
142	0x3d034498	0.032047838
143	0x3d1977f2	0.037467904
144	0x3e0cf229	0.13764252
145	0xbdabf695	-0.08396641
146	0x3e1d9bad	0.15391417
147	0xbe12d4bd	-0.14338966
148	0x3d5714ba	0.05251
149	0x3e33df12	0.17565563
150	0x3c78aaa4	0.015177403
151	0x3d8a4acc	0.067525476
152	0xbdbbbf2a	-0.09167321
153	0x3d08b17c	0.033372387
154	0xbd6853a7	-0.056720402
155	0x3d1f640f	0.038913783
156	0x3df1f41d	0.11814139
157	0x3d290f64	0.041274443
158	0xbe81fbfb	-0.25387558
159	0xbe33c67d	-0.17556186
160	0xbdcd887d	-0.10035799
161	0xbe548a03	-0.20755772
162	0xbd3aa152	-0.045564003
163	0x3d2ad398	0.041705698
164	0x3dbcf974	0.09227267
165	0x3e263862	0.16232446
166	0x3d88365d	0.06650994
167	0x3d112caa	0.035442986
168	0x3d047291	0.03233582
169	0x3d13a8aa	0.036049522
170	0xbde6d4bc	-0.112710446
171	0xbbafcb1f	-0.00536479
172	0x39cc6546	0.00038985367
173	0x3e3d0709	0.18459715
174	0x3dff5e20	0.12469125
175	0x3d423127	0.047410157
176	0xbbbe8466	-0.005814123
177	0x3da31bc7	0.079642825
178	0xbd75575a	-0.059897758
179	0x3e46d5fb	0.19417565
180	0xbc8ecac8	-0.017430678
181	0x3d878bdc	0.06618473
182	0xbcffdab4	-0.031232215
183	0xbda83477	-0.08213132
184	0x3d95fb5e	0.07323335
185	0x3d154998	0.036447138
186	0x3d6a4145	0.057191152
187	0x3d1fbfa7	0.039001133
188	0xbd8a5e04	-0.06756213
189	0xbd10c4ba	-0.035343863
190	0x3d439cf2	0.047757097
191	0xbd650d97	-0.055921163
192	0x3e1f6170	0.15564513
193	0x3c12f3fc	0.008969303
194	0xbe4c083e	-0.19925019
195	0x3cf5c179	0.029999482
196	0x3d074352	0.033023186
197	0x3beb9eea	0.007190575
198	0xbb1637bf	-0.002292141
199	0xbd1c4897	-0.038155165
200	0xbd0c5cb0	-0.03426808
201	0x3dd3ebcf	0.10347711
202	0x3d0080b6	0.03137275
203	0x3c5ec0dc	0.013595786
204	0x3db35d6a	0.08758052
205	0xbc97424e	-0.018464234
206	0x3cf73352	0.030175839
207	0x3e44ce61	0.19219352
208	0x3b1c41ac	0.0023842854
209	0xbd71ff63	-0.059081446
210	0x3ce60df5	0.028082827
211	0xbdb2d632	-0.08732261
212	0xbce4f33c	-0.027948014
213	0x3d0b7406	0.034046195
214	0xbd183b2e	-0.037165813
215	0xbd4e5f02	-0.050383575
216	0x3d7150d6	0.05891498
217	0xbde7dcf0	-0.11321437
218	0x3c80c454	0.015718617
219	0x3e64ad75	0.22331794
220	0x3e21e344	0.15809351
221	0xbdca68a2	-0.098832384
222	0xbd639c0f	-0.05556875
223	0xbd2e0b09	-0.042490993
224	0x3e0c1ba2	0.13682416
225	0xbcaa45a8	-0.020785168
226	0x3d3a8f79	0.045546982
227	0x3dc7e10e	0.09759723
228	0x3c71a423	0.014748606
229	0x3d5f01cc	0.054445073
230	0xbd839871	-0.0642556
231	0x3c584bd1	0.01320167
232	0x3c0d2ccd	0.008616638
233	0xbc807233	-0.015679454
234	0xbcf84bd4	-0.030309595
235	0x3d230afd	0.0398054
236	0x3ba5ad70	0.0050560758
237	0x3d2f8865	0.042854685
238	0x3d8a753c	0.06760642
239	0x3e0fd7ee	0.14047214
240	0x3da6552c	0.08121714
241	0xbdcbbc68	-0.09948045
242	0xbdc4ee95	-0.096158184
243	0x3d254fd6	0.04035934
244	0xbd35b87d	-0.044365395
245	0xbce31be4	-0.02772326
246	0xbd7e7770	-0.062125623
247	0xbe04c54e	-0.12965891
248	0x3c16617d	0.009178516
249	0xb9bccf11	-0.0003601243
250	0xbcce86a2	-0.025210682
251	0x3e069c40	0.13145542
252	0xbcc34817	-0.023838086
253	0x3daed0dd	0.08535931
254	0x3c6f05cf	0.014588787
255	0xbbd5609c	-0.006511761

shortBranch.4.bias f4 [32]
0	0x3daafebc	0.08349368
1	0x3d4131a7	0.047166493
2	0x3c9ff4ef	0.019525973
3	0xbb6b4c74	-0.0035903724
4	0x3dc5d9e1	0.09660698
5	0x3be3cd31	0.006951951
6	0xbd28531a	-0.041094877
7	0x3de0b9a4	0.10972908
8	0xbc588282	-0.013214709
9	0xbdf401aa	-0.1191438
10	0x3d38fdec	0.045164034
11	0x3c5d6eef	0.013515218
12	0x3d843db4	0.064570814
13	0xbd9ab423	-0.075538896
14	0xbc08f97a	-0.008360261
15	0xbc3c49fd	-0.01149225
16	0x3da4d354	0.0804812
17	0xbd59600b	-0.05307011
18	0xbd08bf54	-0.03338559
19	0xbd139140	-0.036027193
20	0x3d9b419d	0.07580874
21	0x3d78348c	0.060596988
22	0xbd207066	-0.03916969
23	0x3b65107d	0.0034952455
24	0x3d6625bc	0.05618833
25	0xbb8b3578	-0.0042483173
26	0xbda6ed74	-0.08150759
27	0xbd00eb34	-0.031474307
28	0x3d090e2a	0.033460774
29	0x3db91b80	0.09038448
30	0x3dc5ef70	0.0966481
31	0xbc923355	-0.017846743
