Models/best_eeV4_0501_night.pth (torch, 770203 bytes, 48 tensors)

baseModel.0.weight f4 [64, 2, 3]
000000 53 75 a8 be 7a 6b 95 3e 32 a6 ca 3e 49 e1 01 be
       -0.3290201 0.2918356 0.39579922 -0.12683596
000010 bb df ba bc 23 ab a9 be da 70 4c 3e 2a 95 fe 3c
       -0.022811761 -0.3313838 0.19964924 0.031076986
000020 08 11 52 3c e9 fd 60 bd 87 30 95 be bd ac 90 be
       0.012821443 -0.054929648 -0.29138586 -0.2825679
000030 3b 09 84 be 88 e1 67 3e d6 b5 96 3e 6d 1a 7b 3e
       -0.25788292 0.22644627 0.29435605 0.245218
000040 a7 79 88 be ed 21 a2 be 22 ce 9b be d5 00 6e bb
       -0.26655313 -0.31666508 -0.30430704 -0.0036316414
000050 c7 66 9f 3d ed 28 6c be 58 16 fe 3d fd bb 91 be
       0.07783275 -0.23062487 0.124066055 -0.28463736
000060 e7 11 11 bc 35 eb 7c 3d 11 9a b3 3a 53 89 91 3e
       -0.008854366 0.06174775 0.0013702532 0.28425083
000070 ea 1e 57 3e 5a db 92 bc 98 ce 94 3e 5b 10 8a be
       0.21007887 -0.01792686 0.2906387 -0.26965603
000080 fb d9 5f 3d 42 36 78 be 40 74 b3 be 14 84 9a be
       0.05465124 -0.24239448 -0.3504963 -0.30178893
000090 c5 8a b0 be 4d cd c5 be 92 fc 82 3d 4d 90 82 be
       -0.34480873 -0.38633195 0.0639583 -0.25500718
0000a0 10 e9 97 3e 5d d5 36 3d a8 7f 09 3d df 41 ed bd
       0.2967 0.044637073 0.033569008 -0.115848295
0000b0 16 b5 79 3e 53 f7 78 3d 0f 76 7d bd 5b 07 09 3e
       0.24385485 0.06078274 -0.061880168 0.13381712
0000c0 af 8d f2 bd 1b e8 45 3e a6 d7 f9 bd bc 38 8a bd
       -0.1184343 0.19326822 -0.12199335 -0.067491025
0000d0 e8 c7 31 39 74 bc 8d be d0 5a 93 3d f3 44 9d be
       0.00016954506 -0.2768284 0.071950555 -0.30716667
0000e0 d6 75 61 be 1e 8f 7b be 1e 1b a1 3e 5d ed a8 3e
       -0.22017607 -0.24566314 0.31466 0.32993594
0000f0 34 4b 97 3e fb 2c 38 3e 3e 73 63 bc 16 f2 21 be
       0.29549563 0.17985909 -0.013882456 -0.15815005
000100 5d d2 d4 3d b1 73 a6 3e 5b ed 90 3e 06 50 b1 be
       0.10391686 0.3251014 0.28306088 -0.34631366
000110 6c 57 82 be 7b e7 84 be 44 1e 69 3d 8d f5 b6 3c
       -0.25457323 -0.25957856 0.05691363 0.022333885
000120 47 6d 71 3d 17 b7 25 3e d7 a0 b8 3e aa 2b 0e 3e
       0.058942106 0.16183124 0.3606021 0.13883844
000130 94 4f 55 be b4 49 7a 3e 6d 19 0c be b3 d1 43 be
       -0.20831138 0.24442178 -0.13681574 -0.19122963
000140 10 60 58 be cb 60 b5 3e 43 9c a5 be 9c 95 46 be
       -0.21130395 0.3542541 -0.3234578 -0.19393009
000150 91 f3 62 be 9a 3d 26 3e 90 d3 a1 3e 25 51 9f be
       -0.22163226 0.16234437 0.31606722 -0.31116596
000160 bc 47 af bc 5a 45 ff bd ff ad f3 bd 93 60 ec bd
       -0.02139651 -0.124644 -0.118984215 -0.115418576
000170 d1 0d a2 bd 08 ee 7d be ae e2 8b be 04 6f aa be
       -0.079127915 -0.24797833 -0.2732138 -0.33287823
000180 75 c3 c9 3d 26 0c ba 3c ca 7b 43 3e 28 4f c0 3d
       0.098517336 0.022710871 0.1909019 0.09390098
000190 0a aa 8a be 38 14 c4 3e 9c 4e b5 be 6c be 79 bd
       -0.27082855 0.38296676 -0.35411537 -0.060972616
0001a0 e5 ea 82 be 13 3c 14 bd 60 d6 cd be e0 9a a0 3e
       -0.25569835 -0.036190104 -0.40202618 0.3136816
0001b0 a1 0f 1c 3e 3f 1d b5 bb 1b 05 19 be 31 28 75 3e
       0.15240337 -0.005527168 -0.14943354 0.23941113
0001c0 ee 1f 35 be 56 9d 96 3e ce 46 9a be 69 6b 84 3e
       -0.17687961 0.29416913 -0.30132145 0.25863197
0001d0 d9 e1 bc 3e c3 b4 89 be cf 64 c8 3e e2 9e d2 3e
       0.36891058 -0.26895723 0.3913941 0.41136843
0001e0 c2 e2 b5 3d c1 71 7b 3e 6f da 22 bd 29 3b d3 bd
       0.08881141 0.24555112 -0.039759096 -0.10314018
0001f0 12 cf 00 bd 43 8d 7c bc 2f 0d 4a be 52 3e be 3e
       -0.031447478 -0.015414539 -0.19731592 0.37156922
000200 7f 5d 93 3e 2e c8 c2 bd af 2a c0 be 3d 8b 97 3e
       0.2878227 -0.095108375 -0.37532565 0.29598418
000210 d0 cd d7 bd ec 87 4c 3e 53 d1 2e 3d ad 47 f3 bd
       -0.105373025 0.19973725 0.042680096 -0.118789054
000220 4c 17 18 3d ce ce 77 3e 6c 64 98 bd ae 7e 43 3e
       0.037131593 0.24199983 -0.07441029 0.19091293
000230 2b 66 5d 3e fc a9 ad be 13 3a a4 be 48 a0 bb bd
       0.21621005 -0.3391875 -0.32075557 -0.091614306
000240 ab d3 81 3e 84 53 ab be de 3d bf be 84 4b bc be
       0.25356802 -0.33462155 -0.37351888 -0.36776364
000250 0f 01 95 be b3 3f e9 3d 32 83 34 bd dd 61 c1 bd
       -0.2910237 0.11389103 -0.04407043 -0.09442494
000260 0e 6d 5c bd 2f be a8 be 8b 5a 21 3e d9 df ef bc
       -0.05381494 -0.329576 0.15757196 -0.029281544
000270 59 79 e6 3d 1a d5 21 3d 47 c4 be 3e 9a e7 a9 3e
       0.11253614 0.03950987 0.37259123 0.3318451
000280 f3 88 8f 3e 8d 88 97 3e 30 be 04 be 74 0b a0 3e
       0.2803417 0.29596367 -0.12963176 0.31258738
000290 08 8d 56 3e a9 b8 b0 3d 8f b1 17 be e3 0f c7 be
       0.20952237 0.08628971 -0.14813827 -0.38879308
0002a0 0f da 8d 3e 4b 4b 3e be 29 75 b5 3e ae 97 2f 3d
       0.27705428 -0.1858341 0.3544095 0.042869262
0002b0 90 fa 25 bd dc 18 09 be 41 a9 88 be 32 90 94 3e
       -0.04052216 -0.1338839 -0.2669163 0.29016262
0002c0 3b 5f 8e bc 7e 83 92 be 86 43 bb be e7 44 8f 3e
       -0.017379394 -0.28615946 -0.36574954 0.27982256
0002d0 5e 35 89 be 2b 24 e4 bd cc 08 1f 3e 94 dc ab bc
       -0.26798528 -0.11139711 0.155307 -0.020979203
0002e0 22 bb 96 bc c2 30 7f 3e c4 6b c8 bd 74 5f 90 bd
       -0.018399779 0.24920943 -0.0978618 -0.07049456
0002f0 3c 33 aa be 82 52 b4 3e ce f9 82 3e dd 7b 74 3e
       -0.33242214 0.35219198 0.2558121 0.23875375
000300 0e 11 b0 3e 62 ff 04 3e a3 ad 6f bb a2 94 81 3d
       0.34388012 0.12988046 -0.0036572001 0.063271776
000310 bf 35 3f bd e6 c6 c0 be e6 a6 be 3e b3 bb 87 bd
       -0.046682116 -0.37651747 0.37236708 -0.06627598
000320 69 96 6e be 59 7d a0 bd bb a7 38 bd 4c e3 3e 3e
       -0.23299564 -0.07836408 -0.045081835 0.18641394
000330 d3 1b c1 be 60 82 cb be 85 87 c9 be 8f 20 ac be
       -0.3771654 -0.39747906 -0.39361206 -0.3361859
000340 35 44 1b be 57 cf 1a be ca 1c 61 be a6 e8 cf be
       -0.15162738 -0.15118156 -0.21983638 -0.40607184
000350 a6 5a e9 bd a0 9e 3d 3d 89 d8 68 3d 83 df 9d be
       -0.11394243 0.046293855 0.05684713 -0.30834588
000360 f1 da 60 be e0 86 be be 14 38 a0 be 93 b6 49 3d
       -0.2195852 -0.37212276 -0.31292784 0.049246382
000370 f4 40 af bd 82 c5 7a 3e 8c be 5c 3d 85 65 29 3d
       -0.08557311 0.24489406 0.053892657 0.041356582
000380 17 ff 85 3d d7 66 46 3e e0 c1 a2 3e dc dd bc 3e
       0.06542795 0.19375168 0.3178854 0.36888015
000390 3e db 62 3e 9a a2 84 bd a4 c1 a0 bd 92 19 ae bd
       0.22153947 -0.06476326 -0.07849434 -0.08500971
0003a0 7f 77 92 bd 2e 02 f9 bd 50 12 94 3d 5e 24 ce be
       -0.07151698 -0.12158619 0.07230055 -0.4026212
0003b0 f5 62 11 be bf 94 b6 be 96 e4 4b be fa 86 86 3e
       -0.14197905 -0.3566036 -0.19911417 0.26274854
0003c0 20 a6 f4 bd 9d b7 93 bd d8 30 88 3d 04 58 92 be
       -0.11945748 -0.07212756 0.06649941 -0.28582776
0003d0 65 89 3d be be 33 08 3e 1a f1 90 3e 3f 0b 04 3e
       -0.18509443 0.13300988 0.28308946 0.12894915
0003e0 ca d7 67 3e 21 7f 3e 3e 0a f5 17 3e c2 cc b0 3e
       0.2264091 0.18603183 0.14839569 0.34531218
0003f0 59 f1 4b be 43 8a ae 3e 1a 0a 6f bd 70 11 af be
       -0.19916286 0.3408986 -0.058359243 -0.3419299

baseModel.0.bias f4 [64]
000000 5c 9a 22 bd 04 e1 25 be f0 29 67 ba 4f 5f b9 ba
       -0.03969799 -0.16199118 -0.00088182 -0.0014142784
000010 7b 9b 04 be d3 a2 a6 39 ee fc 29 38 a9 3d 00 3c
       -0.12949936 0.000317833 4.05283e-05 0.007827201
000020 ea c6 31 be fe a4 17 bd f4 3b 7b 39 1c 39 42 bb
       -0.17361036 -0.037022583 0.0002395956 -0.002963609
000030 ab 81 e3 bd 23 a5 0e 39 e9 51 23 3e 0f d7 5d be
       -0.111087166 0.00013603694 0.15949215 -0.2166407
000040 f4 1d c4 bb 26 fc b7 3d 22 f4 33 3e 9c e7 18 be
       -0.005985016 0.089836404 0.17573598 -0.14932102
000050 7e 68 95 39 0c 28 8f 3d ea b4 c8 bd e4 5d 8a bd
       0.00028497347 0.0699006 -0.098001316 -0.067561895
000060 f4 74 59 39 a9 b3 28 3c 6a 0a 2a be 8a ca 07 3d
       0.00020738301 0.010296741 -0.16605535 0.03315214
000070 cf e7 73 bb d5 a7 57 bc 60 ec 55 be ce 39 ee bb
       -0.0037217026 -0.013162573 -0.20890951 -0.0072700744
000080 de dd 30 bb d5 5e 08 ba ef 39 41 3d fb d8 43 3e
       -0.0026987712 -0.00052021194 0.04717439 0.1912574
000090 af be ae ba cd 85 06 3e 3e 99 1a be 4a 65 13 be
       -0.0013331975 0.13136978 -0.1509752 -0.14394107
0000a0 73 b9 b1 b7 c9 92 35 3e a2 a9 14 ba c1 93 dc 3a
       -2.11864e-05 0.17731775 -0.0005671029 0.0016828702
0000b0 1f 7f 58 3e 98 48 1c be 5c 88 20 bd 5b 75 2d 3e
       0.21142243 -0.15262067 -0.039192542 0.16939299
0000c0 e3 98 f7 38 8c b1 a1 bc eb 79 05 3c e4 ef 3f 3a
       0.00011806355 -0.019737981 0.008146743 0.0007321818
0000d0 8f 8d 02 bd a5 a6 5d be d0 ca 55 3e c6 c8 9e 3d
       -0.031873282 -0.21645601 0.20878148 0.07753138
0000e0 e0 15 3b 3e 37 7d ab 3a f9 52 6c 3c 37 35 ad b9
       0.18270063 0.0013083582 0.014424079 -0.0003303678
0000f0 98 c0 e8 3b c1 f2 07 3d 13 77 92 3d 2f b1 25 be
       0.007103037 0.033190493 0.07151618 -0.16180871

baseModel.1.weight f4 [64]
000000 7c 6f 74 3f f9 33 76 3f 7e 8a 74 3f cf c8 78 3f
       0.9548261 0.96173054 0.9552382 0.9718141
000010 e3 fc 7e 3f 1a 57 7c 3f f4 18 80 3f 66 6c 77 3f
       0.99604625 0.98570406 1.0007615 0.9664978
000020 a1 59 78 3f af ee 7c 3f 0d ca 7d 3f 72 1a 74 3f
       0.9701176 0.988017 0.9913643 0.9535285
000030 4a 62 7c 3f 54 20 77 3f 93 8f 7b 3f 15 e6 80 3f
       0.9858748 0.96533704 0.9826595 1.0070215
000040 87 9c 77 3f d9 70 77 3f b3 42 7a 3f 83 07 7f 3f
       0.96723217 0.96656567 0.97758025 0.99620837
000050 75 97 75 3f 05 9c 7d 3f f2 c5 76 3f 05 27 7f 3f
       0.9593423 0.9906619 0.9639579 0.99668914
000060 aa 87 79 3f 33 e6 74 3f 6a 8d 7d 3f f5 f8 7a 3f
       0.9747263 0.95663756 0.99043906 0.9803613
000070 21 c7 79 3f ec 99 78 3f d3 a9 7a 3f 71 44 7f 3f
       0.9756947 0.97109866 0.9791538 0.9971381
000080 b6 91 7e 3f ea b6 7c 3f 5b 1e 7f 3f be fa 7f 3f
       0.9944109 0.98716605 0.99655694 0.9999198
000090 27 7e 82 3f 07 d3 85 3f b8 f1 77 3f 81 c8 79 3f
       1.0194749 1.0455025 0.9685321 0.9757157
0000a0 74 19 80 3f 07 47 7a 3f a5 45 73 3f 30 9c 7b 3f
       1.0007768 0.9776463 0.95028144 0.982852
0000b0 4b f9 78 3f 49 45 76 3f 58 64 79 3f d3 52 75 3f
       0.9725539 0.9619947 0.9741874 0.95829505
0000c0 eb ab 7a 3f 96 bc 7a 3f 0e 84 81 3f a2 25 7d 3f
       0.97918576 0.9794401 1.0118425 0.9888555
0000d0 63 30 7b 3f 7c 9f 75 3f 58 0f 78 3f d8 46 6c 3f
       0.9812071 0.9594648 0.9689841 0.922956
0000e0 23 d3 76 3f 40 10 76 3f 22 b7 79 3f 9a 52 81 3f
       0.9641592 0.96118546 0.97545063 1.0103333
0000f0 e0 4b 7b 3f 94 10 82 3f 51 e2 74 3f 3a 6b 78 3f
       0.9816265 1.0161309 0.9565783 0.97038615

baseModel.1.bias f4 [64]
000000 11 6c 4d bd 66 53 5f 3b d5 ce 17 bd ff ad e9 bb
       -0.05015189 0.003407681 -0.037062485 -0.0071313377
000010 de e8 e5 bb 02 09 41 bc 70 a8 9f bc 34 93 1f bc
       -0.0070162853 -0.011781933 -0.019489497 -0.009739686
000020 27 56 5a bc 85 7d 68 ba 67 90 40 bd d9 30 da bc
       -0.013326204 -0.00088688015 -0.047012713 -0.02663462
000030 fc b8 c4 bc 34 08 14 bd 5b 2b f1 bc d1 b4 0d bb
       -0.024013989 -0.036140636 -0.029439619 -0.0021622668
000040 41 f1 9e bc 28 4e 30 3c 43 5a d6 bc fc 52 2c bd
       -0.019402148 0.010760821 -0.026166087 -0.042071328
000050 90 5b 47 bb 33 76 5d 3b 53 0f 10 bc 3b 26 b0 3b
       -0.0030419566 0.0033792376 -0.008792716 0.005375651
000060 0f cb f8 bc 5e b2 dd bb fb b8 91 bc a0 8e b3 bb
       -0.030370263 -0.006765648 -0.0177884 -0.0054796487
000070 5f 72 28 bc 1a 99 5c bc 7a cf 06 bd fc 62 81 3b
       -0.010281174 -0.013464237 -0.03291271 0.0039485674
000080 5a 1d 8e bc ba 69 03 3d 5c 0c ed bc 9b 14 24 bc
       -0.01734798 0.03208325 -0.028936557 -0.010014678
000090 9a fb 29 bd 50 3d 47 bc 7d a7 e0 bc 55 1b 1d bd
       -0.04149971 -0.012160614 -0.027423615 -0.038356144
0000a0 a0 df 03 bd b6 44 28 bd e1 e5 ac bb ae e0 93 bc
       -0.032195687 -0.041081153 -0.005276427 -0.018051472
0000b0 06 7d 36 bc ee 8b d5 3a 74 d7 01 3c 74 7f 5c bc
       -0.011138206 0.0016292313 0.007924903 -0.013458122
0000c0 e7 31 3d 3a f0 c1 80 bc 96 a2 88 bb 95 66 f5 ba
       0.0007217214 -0.015717477 -0.0041697724 -0.0018722588
0000d0 35 67 02 bd 35 95 15 ba 69 a2 b4 3c 60 08 3d bd
       -0.031836707 -0.00057061325 0.0220501 -0.046150565
0000e0 05 88 0e 3c 83 9d c7 bc 5a 31 ff bc 6e 26 05 bc
       0.008699422 -0.0243671 -0.031151462 -0.008126838
0000f0 7d cd e0 3b 71 2a 73 3c fb 03 2f ba c8 70 5a bb
       0.0068604336 0.014841662 -0.00066763134 -0.0033331383

baseModel.1.running_mean f4 [64]
000000 c4 b8 24 bd 60 ad 26 be 14 43 72 ba 1c 02 c2 ba
       -0.04021527 -0.16277075 -0.0009241563 -0.0014801654
000010 94 60 05 be 3d 14 2d 39 42 f2 17 b9 2e 4c 04 3c
       -0.13025123 0.00016506105 -0.0001449073 0.008074803
000020 a1 96 32 be de a1 19 bd fd fe 52 39 99 f9 4a bb
       -0.17440273 -0.037507884 0.00020122151 -0.0030971526
000030 60 fa e4 bd 99 65 20 39 2a 1c 24 3e 38 b0 5e be
       -0.11180568 0.00015296637 0.16026369 -0.2174691
000040 b0 79 c9 bb 49 5c b9 3d a8 c6 34 3e 14 af 19 be
       -0.0061485395 0.09050805 0.17653906 -0.15008193
000050 7d bf a4 39 47 6b 90 3d 51 17 ca bd 31 a2 8b bd
       0.00031423187 0.070517115 -0.098677285 -0.06818045
000060 bc 14 72 38 00 d0 2c 3c 59 d7 2a be 8e af 09 3d
       5.7716607e-05 0.010547638 -0.16683711 0.033614688
000070 a2 a4 7b bb f0 67 5c bc 98 c1 56 be 63 e6 f5 bb
       -0.003839769 -0.013452515 -0.20972288 -0.007504271
000080 9c 58 3a bb 84 a6 22 ba 53 7b 43 3d 4f ab 44 3e
       -0.0028434163 -0.00062046223 0.047725033 0.19205974
000090 3e 9d b7 ba f3 49 07 3e a5 63 1b be ef 29 14 be
       -0.0014008654 0.13211803 -0.1517473 -0.14469121
0000a0 29 ba f7 38 c9 64 36 3e 05 ad 41 ba 3b ba e6 3a
       0.00011812553 0.17811884 -0.00073881476 0.0017603108
0000b0 83 57 59 3e 40 10 1d be 5a 8d 22 bd 44 45 2e 3e
       0.2122479 -0.1533823 -0.039685585 0.1701861
0000c0 78 d2 4b 39 10 a2 a4 bc 36 e8 08 3c bd 71 1e 3a
       0.00019437994 -0.020096809 0.008356145 0.000604417
0000d0 47 75 04 bd c0 7e 5e be ba a1 56 3e 6a 19 a0 3d
       -0.032338407 -0.21728039 0.20960131 0.07817347
0000e0 36 e5 3b 3e 84 65 b3 3a 19 6d 71 3c 23 37 c0 b9
       0.18349156 0.001368687 0.014735484 -0.00036662174
0000f0 6f 40 f0 3b 96 da 09 3d 42 c1 93 3d bd 7f 26 be
       0.0073319 0.033655725 0.072145954 -0.16259666

baseModel.1.running_var f4 [64]
000000 d2 81 98 37 4f 15 3b 37 00 31 87 37 b6 28 01 37
       1.8180264e-05 1.115103e-05 1.6116071e-05 7.698478e-06
000010 c9 90 da 36 a6 ca a6 37 7b ee 90 37 12 c3 28 36
       6.5137615e-06 1.9883108e-05 1.7277189e-05 2.5147497e-06
000020 98 28 92 36 4e e0 8f 37 43 4b 41 37 22 eb 3e 37
       4.355865e-06 1.7151378e-05 1.152122e-05 1.1379629e-05
000030 8b 84 32 37 83 c7 6b 37 66 90 3e 37 fc 5d 8c 37
       1.0640487e-05 1.4053544e-05 1.1358503e-05 1.6733065e-05
000040 9c cf eb 36 88 b1 81 37 43 ef c0 36 15 29 e0 37
       7.0277147e-06 1.5460668e-05 5.7498996e-06 2.6722011e-05
000050 91 91 6d 36 a9 d4 8d 37 7a e9 90 36 18 3b 8e 37
       3.5400483e-06 1.6907537e-05 4.3187147e-06 1.6955237e-05
000060 9e 6f c2 37 1b 73 8d 36 8a 8c c1 37 2e c9 71 37
       2.3178578e-05 4.2155275e-06 2.3072836e-05 1.441156e-05
000070 10 0b e7 36 d7 da 6a 37 c8 d2 d5 36 92 9a a9 37
       6.8856243e-06 1.39984395e-05 6.372433e-06 2.0218347e-05
000080 28 84 4d 37 47 28 04 37 62 95 17 38 f4 c4 86 37
       1.2249722e-05 7.877191e-06 3.614033e-05 1.6065758e-05
000090 28 a2 a0 37 26 af 8c 37 d3 cd 61 36 16 e1 8b 37
       1.9148996e-05 1.677086e-05 3.3647418e-06 1.6674905e-05
0000a0 7e 97 dd 36 4d c2 92 37 08 f5 08 37 e4 7c 4d 37
       6.6039493e-06 1.7495035e-05 8.1632825e-06 1.22480305e-05
0000b0 d4 0c 56 36 d8 72 2a 37 a4 60 ad 36 be 70 d0 36
       3.1895952e-06 1.0159529e-05 5.167052e-06 6.212008e-06
0000c0 1f f7 2b 37 bc 67 d3 36 8f 84 39 37 31 f1 5e 37
       1.0249932e-05 6.3003663e-06 1.1057723e-05 1.3288388e-05
0000d0 d5 c1 b3 37 b9 2d 46 37 64 31 dc 37 1f 43 77 37
       2.1428723e-05 1.1812365e-05 2.6249043e-05 1.4737975e-05
0000e0 a8 ab 25 37 35 74 db 36 e4 68 99 37 b8 87 ff 37
       9.874733e-06 6.540237e-06 1.8287865e-05 3.0461568e-05
0000f0 db c9 66 37 ff c5 66 37 35 53 34 37 7b f1 0e 37
       1.3756066e-05 1.3755168e-05 1.0748209e-05 8.520084e-06

baseModel.4.weight f4 [64, 64, 3]
000000 c4 7e 3c 3b 69 79 a5 bc 9f 29 fc bb 98 a2 71 3b
       0.0028762082 -0.020199494 -0.0076953913 0.0036870595
000010 ad 53 93 bc fc 93 85 bd a5 38 15 3d 99 fe 1f bd
       -0.017984236 -0.065223664 0.036430974 -0.039061163
000020 a3 a0 31 3d 7c 09 58 bc 51 35 42 3d 05 e3 34 3c
       0.043366086 -0.013185855 0.047414128 0.011040454
000030 d4 01 d3 bd 8f 2d eb bc f4 c6 9f bb b5 87 16 bd
       -0.10303083 -0.028708247 -0.004876012 -0.036750514
000040 14 ba 2c 3d 05 12 50 3d c4 eb b5 3c 60 2e 94 bc
       0.042169645 0.050798435 0.022207148 -0.01808852
000050 4f ca 42 bd 02 d5 e6 3c 1e c0 41 bd 74 f8 ea 3c
       -0.047556218 0.028177742 -0.047302358 0.028682925
000060 2c 39 ed 3c f0 95 2b bd e8 1d 45 3c e2 2e c5 bc
       0.028957926 -0.04189104 0.012031056 -0.024070207
000070 15 6c 89 bd f2 ad a8 3c 99 9f 85 3d 73 75 d0 3c
       -0.06710068 0.020590756 0.065245815 0.02544663
000080 6e 3c 35 3d 2c 17 60 3c 80 35 29 3d e8 48 25 bd
       0.044247083 0.0136774 0.041310787 -0.040352732
000090 0b 5e f5 bc 85 b5 99 3b 08 40 7a bd 89 74 4e bc
       -0.02995207 0.0046908283 -0.06109622 -0.012601026
0000a0 80 bd e7 3c 2c de 12 bd ff 68 be 3c 6b cb 59 3d
       0.028288603 -0.03585641 0.023243425 0.05317251
0000b0 0c 0f 4e 3d e2 99 aa 3d 64 d9 01 bd 3f 92 eb 3b
       0.05030732 0.08330132 -0.03170146 0.0071890648
0000c0 52 db d8 3c 8a 83 5a 3d 17 54 79 bd 27 8e 1b 3d
       0.026471768 0.0533481 -0.06087121 0.037977364
0000d0 81 a1 3c bd 36 af 04 3d c8 6d 7c 3d e5 45 85 3c
       -0.04605246 0.032393657 0.061628133 0.01626868
0000e0 62 24 52 3d 4d 2b 56 3d 66 e2 7b bd 4a d5 40 bd
       0.05130423 0.05228739 -0.061495207 -0.04707841
0000f0 69 1f 07 3c ba 34 87 bd 0f d1 fa 3b 89 44 67 3d
       0.008247235 -0.06601854 0.0076543163 0.056461845
000100 66 91 dc 3c d7 ed 48 bd c0 84 40 bd d2 8f 83 bd
       0.0269248 -0.049054947 -0.0470016 -0.06423916
000110 4b 4d 56 bd 55 24 cc 3c 57 12 89 3c 25 64 5e bd
       -0.052319806 0.024919668 0.016732378 -0.054294724
000120 ba ca 08 bd a4 5c 24 3d eb 8c 56 bd 77 48 c2 3c
       -0.03339646 0.04012741 -0.052380484 0.023716195
000130 ae e7 61 bd 72 09 a0 3c a3 a2 85 bc 78 0c a2 3c
       -0.055152588 0.019535754 -0.016312903 0.019781336
000140 e9 9f fa bc 25 b1 e6 bc d5 3d 04 bd c0 0e 18 3c
       -0.03059383 -0.028160641 -0.03228553 0.00928086
000150 ab 3d 74 3d 84 0e 50 3d d5 bc b9 3b c8 ab 87 3c
       0.059629124 0.050795093 0.0056682625 0.016561404
000160 b8 d7 5b 3b c0 86 eb bc de 45 60 bd ac 53 d9 bb
       0.0033545326 -0.028750777 -0.05475413 -0.006632289
000170 7b f9 cb bb 23 a8 12 bd 51 00 ed bc fd 1e 55 bd
       -0.0062248087 -0.03580488 -0.028930815 -0.052031506
000180 e1 26 82 bd cd 3d df 3c f7 91 d7 bc c9 8d 02 bc
       -0.06355072 0.027251149 -0.026314719 -0.0079683745
000190 7c 19 93 bd 99 f5 a3 bc 38 99 d5 bc 42 9b f7 bb
       -0.07182595 -0.020014571 -0.026074037 -0.00755635
0001a0 53 84 37 3d 1f 58 15 3d 45 53 ee 3c 69 01 2a 3d
       0.04480393 0.036460992 0.02909244 0.04150525
0001b0 bb 15 38 3d d6 7b d7 3c b4 4e 9a bd 9d 3c 9a bc
       0.0449426 0.026304167 -0.07534543 -0.01882773
0001c0 e4 2c 33 bd 92 7a d2 3b b9 08 7b bd 2b 5e 87 bc
       -0.043743983 0.006423303 -0.061287615 -0.016524395
0001d0 56 22 26 3d bc 48 28 3d 2f 0d 4c 3d 67 8b aa bb
       0.04056009 0.04108499 0.04981726 -0.0052046063
0001e0 0f 58 ae 3c 3b 80 d3 3c 37 59 a2 bd 3a de 1e 38
       0.021282224 0.025817981 -0.07927173 3.78771e-05
0001f0 fb 0a 67 3d 7d 33 07 3c eb 3e 42 bd bf 61 85 3d
       0.056406956 0.008252022 -0.047423285 0.06512784
000200 9b da 80 3d be 94 07 3c fd cd b0 3c de 99 a8 bd
       0.06291696 0.008275209 0.021582598 -0.08232473
000210 a8 72 a5 3c 93 6c 3e 3c 63 72 04 3d 54 4e 12 3d
       0.020196274 0.011622566 0.03233565 0.03571923
000220 02 11 27 bc 72 db 83 3d c0 ef e8 3c 79 9c e9 3c
       -0.010196926 0.0643834 0.028434634 0.028516995
000230 9d 0e da 3c 9e ea 4e 3d 4a b3 66 3c 1d 8e ae bc
       0.026618296 0.050516717 0.014080832 -0.021308
000240 65 e8 14 bd 15 dd 02 bd fc 95 5a bd 70 bf 8e bc
       -0.03635444 -0.03194912 -0.053365692 -0.017425269
000250 01 2d 65 3b 6e 43 0c bd ab 26 95 3d e8 d9 53 bd
       0.0034969451 -0.034243993 0.07282766 -0.051721483
000260 f0 9f b2 3c c1 84 63 3d d6 64 9a 3d e4 b0 6b 3d
       0.02180478 0.055546526 0.07538764 0.057541743
000270 dd bd 91 3d f9 88 70 3d 32 cf 81 bc b6 34 0e bd
       0.07116292 0.058724377 -0.015845869 -0.034718238
000280 bb 06 fd 3b 6c f2 c3 bb 8b 8c e5 3c dd dc 69 3c
       0.0077217496 -0.0059798267 0.028021118 0.014273849
000290 95 80 27 3c 5e 3d 01 bd c5 76 40 bc b3 03 7f bc
       0.010223527 -0.031552665 -0.011747067 -0.015564847
0002a0 9b 93 8d bd a1 ea 06 bc 0d d6 ce 3b 2d 86 36 bd
       -0.06912919 -0.008234651 0.006312138 -0.044561554
0002b0 f3 49 94 bd 4c f1 13 bd 89 bf 2c bd af 76 1b 3c
       -0.07240667 -0.03611879 -0.04217485 0.009488746
0002c0 a2 81 78 bc ff d8 f3 bc f7 05 5d bd cd e5 1b bd
       -0.015167626 -0.029766558 -0.053960767 -0.038060952
0002d0 e2 12 ba 3c 5a 82 06 3d 0e fd 90 bd 57 b1 d0 3c
       0.022714082 0.032839157 -0.07079516 0.025475187
0002e0 b3 ec 2f 3c bd f5 c2 bc 99 38 60 3d 48 eb 6b bd
       0.010737586 -0.023798818 0.054741476 -0.05759743
0002f0 d0 a0 38 bd 57 c5 27 3d 51 ee b6 3c bb b4 77 3b
       -0.045075238 0.040959682 0.022330435 0.0037796933
000300 cf b2 66 3c 35 69 45 3d e3 ae a6 bc dc df b8 3c
       0.014080717 0.048196036 -0.020347064 0.022567682
000310 1d 7e 85 3c c7 4c 28 bc 7f 52 69 3c 2e 53 80 bc
       0.016295487 -0.010272211 0.01424086 -0.015664663
000320 bb 4d 47 bc 6b 87 e0 bc ca d9 81 3c c3 31 f5 bc
       -0.0121645285 -0.027408322 0.01585092 -0.029930955
000330 d1 89 25 3d 89 06 45 3c 01 6c 62 3c 90 34 6b bc
       0.040414635 0.012025484 0.013819695 -0.014355794
000340 36 fd 3e bc eb 63 f6 bc 8d 7b 57 bd c3 39 3d bc
       -0.01165705 -0.030076941 -0.05260806 -0.011549416
000350 7e 50 ef bb 2b 94 6f bd 71 93 80 bd 63 1d 60 bd
       -0.0073032966 -0.058490913 -0.06278122 -0.054715525
000360 39 03 5d bd 1a ac 8c 3c 69 1b 5e bd c6 1b 4b 3c
       -0.05395815 0.017171908 -0.05422536 0.012396758
000370 bf 10 5b 3b 44 a2 f4 3c 3b 45 07 bb 06 22 c9 bb
       0.003342673 0.02986253 -0.002064063 -0.006138089
000380 c3 23 88 bd 21 a9 00 bd 78 49 59 3d cd 5a d7 bc
       -0.06647446 -0.031411294 0.05304858 -0.026288414
000390 75 4c 70 bd 1e 86 44 bd ca fd 83 bd d3 f0 bb 3a
       -0.058666665 -0.047979467 -0.06444891 0.0014338739
0003a0 52 f9 d8 3a ca b9 4f bd 8a be 91 bd 07 7a 41 bc
       0.0016553795 -0.05071429 -0.071164206 -0.011808879
0003b0 24 24 95 bd 74 ff 16 3a 5e 28 92 bc 3a f7 de 3c
       -0.07282284 0.00057601114 -0.017841514 0.027217496
0003c0 3f a8 4c 3b 61 08 38 bd 4f ae ce ba da 31 08 3d
       0.0031228212 -0.044929866 -0.0015768501 0.033250667
0003d0 72 2b 77 bd 89 82 85 bb 9c 66 2b 3d 45 2b 92 bd
       -0.060344167 -0.004074399 0.041845903 -0.07137159
0003e0 45 5e 73 bc fc 09 61 bd 82 99 f4 3c e0 35 45 3d
       -0.014854019 -0.054941162 0.029858354 0.048147082
0003f0 27 c5 14 bd b5 9e 6d 3d fc 1e 7c 3d 65 14 00 3d
       -0.03632083 0.058012683 0.061552987 0.03126945

baseModel.4.bias f4 [64]
000000 17 69 af 36 05 0c a9 35 3c 77 41 b7 76 1c 36 b6
       5.2276405e-06 1.2594979e-06 -1.1531458e-05 -2.713668e-06
000010 e1 d1 30 b8 4e a1 2b b5 e1 af de 36 06 ce 11 37
       -4.2157135e-05 -6.3937193e-07 6.6365906e-06 8.690642e-06
000020 c5 5f ed b5 d6 20 26 b6 4a 88 8a b8 b3 24 dc 37
       -1.7685749e-06 -2.475504e-06 -6.6057386e-05 2.6243133e-05
000030 1b 08 9e b6 2f e5 da b7 03 15 87 b7 94 52 e5 b5
       -4.7097105e-06 -2.6094347e-05 -1.6103038e-05 -1.7085863e-06
000040 47 15 3e 36 c5 69 9d b7 ea 2e d3 b5 3b 9a 23 b7
       2.8324591e-06 -1.8765111e-05 -1.5734379e-06 -9.751467e-06
000050 07 ee e8 35 cd b4 13 b7 66 c8 c3 b7 58 e0 5e 37
       1.7354622e-06 -8.803979e-06 -2.333913e-05 1.3284465e-05
000060 f4 3d ef 37 04 02 5b 36 40 bd 17 b8 b2 85 f6 35
       2.851987e-05 3.2634716e-06 -3.617746e-05 1.8367339e-06
000070 31 eb a3 b7 bd 89 19 37 15 e0 19 b5 78 7e b2 35
       -1.9540634e-05 9.15158e-06 -5.7323024e-07 1.3298841e-06
000080 75 8a 0c 37 61 49 2f 37 7c d6 e8 b6 0d cb 94 b6
       8.376887e-06 1.0447898e-05 -6.939108e-06 -4.434382e-06
000090 74 8e 4e 36 f4 b3 4a 38 e9 88 73 b7 7a 57 83 b7
       3.077931e-06 4.8328147e-05 -1.4515806e-05 -1.5657151e-05
0000a0 46 9d ca b6 36 80 96 36 9c f9 28 b2 6a 50 a8 36
       -6.038378e-06 4.485274e-06 -9.835642e-09 5.0161516e-06
0000b0 1f 84 92 36 47 c7 18 b7 a9 09 69 b6 8e d8 03 b7
       4.36652e-06 -9.106304e-06 -3.4725329e-06 -7.858629e-06
0000c0 5d d4 4b 36 34 61 ed b6 06 5a ce b4 a5 14 43 b6
       3.037297e-06 -7.0744663e-06 -3.843599e-07 -2.906928e-06
0000d0 b0 70 14 b4 8c 60 3f b7 e3 86 9f 37 28 8a d2 37
       -1.382457e-07 -1.1406966e-05 1.9017089e-05 2.5098285e-05
0000e0 c0 aa 50 36 1f 40 d1 36 f9 37 02 b5 71 51 2e b5
       3.1093805e-06 6.23615e-06 -4.8510225e-07 -6.4938564e-07
0000f0 63 1f 1e 37 2d c5 3e b7 13 af 93 36 c1 14 09 b7
       9.424842e-06 -1.1370791e-05 4.4013227e-06 -8.1706685e-06

baseModel.5.weight f4 [64]
000000 c2 9c 75 3f ed 5b 73 3f f9 36 75 3f 29 be 7a 3f
       0.9594232 0.9506214 0.95787007 0.9794641
000010 6a ce 7e 3f e8 04 70 3f 07 43 75 3f 2b 1f 6f 3f
       0.9953371 0.93757486 0.958054 0.93406934
000020 7a db 76 3f 64 54 6f 3f 87 84 80 3f 64 44 76 3f
       0.96428645 0.93488145 1.0040444 0.96198106
000030 e8 56 7a 3f d4 e0 75 3f 48 25 7c 3f 53 e6 6f 3f
       0.9778886 0.96046185 0.98494387 0.9371082
000040 ed 68 73 3f aa cd 7c 3f 13 c8 74 3f a3 69 74 3f
       0.9508198 0.9875132 0.9561779 0.9547369
000050 85 f0 72 3f f5 ac 6b 3f b0 c2 76 3f f9 23 7d 3f
       0.94898254 0.92060786 0.9639082 0.98883015
000060 70 e8 6c 3f 8c 0a 73 3f 1b 67 85 3f d4 a5 6b 3f
       0.9254217 0.9493797 1.042209 0.9204991
000070 c9 d4 74 3f 0f f4 7a 3f 54 96 71 3f 7a 6b 79 3f
       0.95637184 0.98028654 0.9437001 0.9742962
000080 16 76 76 3f 5e 56 71 3f 5b d9 72 3f 66 5f 6f 3f
       0.96273935 0.9427241 0.9486291 0.9350494
000090 e9 e2 76 3f 0c 0e 80 3f 6f 2f 7a 3f af 60 75 3f
       0.9643999 1.0004287 0.9772863 0.9585065
0000a0 95 21 75 3f 64 3c 71 3f e4 5f 6e 3f 6e 1b 75 3f
       0.9575437 0.94232774 0.9311507 0.9574498
0000b0 2a 31 6b 3f 6d 95 72 3f d9 77 7b 3f 41 9f 76 3f
       0.91871893 0.94759256 0.9822975 0.9633675
0000c0 97 26 76 3f b8 b6 76 3f 31 9a 78 3f 7d db 77 3f
       0.96152633 0.96372557 0.9711028 0.9681929
0000d0 d7 37 73 3f 94 2f 7c 3f c9 41 71 3f 18 f6 7b 3f
       0.9500708 0.985101 0.94241005 0.98422384
0000e0 fc 03 71 3f 4e 2a 74 3f 82 47 72 3f db 79 82 3f
       0.94146705 0.9537705 0.9464036 1.0193437
0000f0 e7 1f 79 3f b0 67 85 3f 22 6e 84 3f 43 ec 83 3f
       0.97314304 1.0422268 1.034611 1.0306476

baseModel.5.bias f4 [64]
000000 80 39 10 bd 93 77 8a bc 05 b2 bf bc 22 52 7d 3b
       -0.035211086 -0.01690272 -0.023400316 0.0038653691
000010 07 e2 9d 3a 0f 4f b6 bc 7d b8 79 bc 3c be e0 bc
       0.0012045511 -0.022254495 -0.015241739 -0.02743446
000020 96 5b 7d bd 7d 39 cb ba 96 4e 9c bd 94 de 87 3c
       -0.06185492 -0.0015504804 -0.076321766 0.016585626
000030 72 ad b5 bc c7 3b 8c bc b0 27 6f 3a 21 af 9a bc
       -0.022177432 -0.017118348 0.00091230404 -0.018882336
000040 06 4e 8e bb 8c 3d c7 3c 46 76 5a 3d ec e0 0e bb
       -0.004342797 0.02432134 0.05333545 -0.0021801544
000050 d6 20 db bc a0 27 92 bc 68 4b 60 bc 1e c1 d5 3b
       -0.026749056 -0.01784116 -0.013689853 0.0065232655
000060 22 d2 10 bd 35 e0 a9 bc ae a3 10 be 06 49 a8 3b
       -0.03535665 -0.020736793 -0.14124939 0.005135658
000070 39 e8 b5 bc 73 ef d1 bc 26 17 04 3c a3 74 a7 bc
       -0.022205459 -0.025626874 0.00806216 -0.020441359
000080 b9 e4 60 bc 18 cb e4 bc 71 b4 45 3c 1c 64 79 bc
       -0.013726407 -0.027928874 0.012066946 -0.015221622
000090 c8 47 09 ba 3a 6b 21 bd 27 8b 3a bd 55 fd ba bc
       -0.00052368315 -0.0394089 -0.045542862 -0.022825876
0000a0 dc 62 c6 bc f1 bc ae bc bd 50 56 bc 31 e5 c7 3b
       -0.024217062 -0.021330329 -0.013080773 0.00610032
0000b0 88 71 9e bc 1a 6a a1 bc 19 0e ae bc ef d2 d6 bc
       -0.019341245 -0.019703913 -0.021246957 -0.026223628
0000c0 53 c0 62 3b d1 b1 35 bc b1 94 94 3c f6 34 fb bc
       0.0034599497 -0.011089758 0.018137308 -0.030664902
0000d0 ea 9c 17 3b 5b 57 50 bd f8 76 cd bc b6 a4 17 bd
       0.00231343 -0.05086456 -0.025081143 -0.037022315
0000e0 1c b8 a2 bc 07 86 67 3c fc 05 99 bb c8 21 a7 3b
       -0.01986318 0.014131076 -0.004669903 0.0051004626
0000f0 d7 34 fc 39 7a 52 48 bd aa 80 5d bd f3 ae ab bd
       0.00048104554 -0.04890678 -0.05407778 -0.08382978

baseModel.5.running_mean f4 [64]
000000 5c 48 98 bd c7 a4 d7 be a6 70 11 3d 17 01 0e be
       -0.074356765 -0.42117903 0.03550782 -0.13867603
000010 a2 d3 b1 bd bb 5a 69 3e c3 9e b6 3c 9e 91 27 be
       -0.08682944 0.22788517 0.0222925 -0.16364142
000020 d9 92 03 be 13 72 d7 be eb d3 ae bb 86 c0 23 bf
       -0.12848987 -0.4207922 -0.005335321 -0.6396564
000030 08 f0 6a 3b 56 be aa be 04 9f 52 b8 3f 1c a7 be
       0.0035848636 -0.3334834 -5.0215996e-05 -0.32638738
000040 63 aa ed bd a9 76 59 ba 6c f0 3a bd 4f b6 b1 3d
       -0.11604764 -0.0008295575 -0.04563944 0.08677351
000050 87 70 e1 3d 57 36 34 3f 85 6b 28 3c 9e 84 43 be
       0.11007791 0.70395416 0.010279541 -0.19093558
000060 82 1e 2a bd 89 c6 b1 bc f5 f0 7d bd 0f ee 17 bd
       -0.041533 -0.021701114 -0.061997373 -0.037092265
000070 37 17 0f be 37 b2 83 be 7f 96 b2 3d 30 38 bb bd
       -0.139737 -0.25721905 0.08720111 -0.09141576
000080 e5 b4 1b bd 0c d7 b9 3e 97 7c a6 3e d1 54 ae 3e
       -0.03801431 0.3629688 0.3251693 0.34049085
000090 3b 5d ae 3e 95 a9 52 be 80 5e 2f bc 6d 7c 1b be
       0.34055504 -0.20572503 -0.010703683 -0.15184183
0000a0 30 85 da 3b 9c 09 f6 bd 7c 7c b7 3d f4 02 9c 3c
       0.006668709 -0.120135516 0.089592904 0.019044377
0000b0 ee 54 68 be 0e b8 1a be 67 94 f4 bc d6 08 5c bc
       -0.22688648 -0.15109274 -0.02985592 -0.013429841
0000c0 2d 70 fe bd 84 76 36 bf 0a f4 44 3c 78 a5 48 be
       -0.124237396 -0.7127459 0.012021074 -0.19594371
0000d0 82 af 0e bf 68 92 54 be 11 14 57 bd 2c fe af bc
       -0.55736554 -0.20758975 -0.05250937 -0.021483503
0000e0 60 62 44 bd 9b be c6 3d cb 3e b5 bc d0 8d fc bc
       -0.04794538 0.09704324 -0.022124669 -0.03082934
0000f0 11 ca 86 3b 4d 5e e1 bd 68 ee 37 be 27 6a d1 bc
       0.0041134437 -0.110043146 -0.17962039 -0.025563313

baseModel.5.running_var f4 [64]
000000 d2 eb 87 3d 02 31 e9 3d 46 4b 93 3d 17 ef e2 3d
       0.06636776 0.113863006 0.07192092 0.11080759
000010 b8 c3 5f 3d 3d bb f9 3d 2b ea 31 3d 35 b5 cc 3d
       0.05463001 0.12193916 0.04343621 0.099955
000020 06 fd 44 3d df 48 73 3d 0c 63 db 3c 84 d9 94 3d
       0.048092864 0.059395667 0.026780628 0.0726805
000030 be b3 ce 3d 6b 34 a8 3d a6 f3 47 3e 8e 1f c6 3d
       0.10092877 0.08213123 0.19526538 0.09673987
000040 55 85 a4 3d 3b 3b 33 3d ca b9 99 3d 16 ca 08 3d
       0.080332436 0.04375766 0.075061396 0.03339585
000050 1c 1e 97 3d 79 3b 88 3d d1 5c c1 3d 0c 67 92 3d
       0.0737879 0.066519685 0.094415314 0.07148561
000060 62 1d 0f 3e 3a b8 a7 3d 8a b3 35 3d 9f 6d d2 3d
       0.13976052 0.08189435 0.044360675 0.10274815
000070 57 a7 18 3e 72 fa ce 3d 46 ac b7 3d 6b 01 a3 3d
       0.14907585 0.101063624 0.089684054 0.07959255
000080 f9 f7 08 3e 9d 1b 62 3d 5e 8a 97 3d 80 1f ee 3d
       0.13375844 0.055202115 0.07399438 0.11627102
000090 46 f4 ac 3d 14 e9 ab 3c f0 39 52 3e d2 7b 02 3e
       0.08445029 0.020985164 0.20529914 0.12742546
0000a0 48 e5 0a 3e 40 f3 c2 3d dd a6 c8 3d 6a c6 c7 3d
       0.13564026 0.095190525 0.09797452 0.09754641
0000b0 68 8a f5 3d dc 70 1c 3e 5f 69 3f 3d e7 db bf 3d
       0.119892895 0.15277427 0.04673135 0.09368115
0000c0 f3 bd 64 3d e1 9c 64 3d 42 83 5a 3e b8 91 2a 3d
       0.055845212 0.055813674 0.21339133 0.041642874
0000d0 b5 e8 b3 3d dd 13 1f 3d c8 6d 40 3d e8 a5 4d 3d
       0.0878462 0.038837302 0.046979696 0.05020705
0000e0 9a a1 bc 3d 88 e9 83 3d b8 6b 25 3e 3c 34 2c 3d
       0.092105106 0.06441027 0.16154373 0.042042002
0000f0 28 7b 7b 3d af 2c 06 3d 5a 7e 1f 3d 4e 09 92 3d
       0.061396748 0.032757457 0.038938858 0.07130681

baseModel.8.weight f4 [64, 64, 3]
000000 e9 24 6d 3c 7c 7d 83 bc a0 39 85 bc e9 45 65 3d
       0.014474132 -0.016051047 -0.01626283 0.055974875
000010 f7 2c 7a 3c ca 63 8d bc d1 4b 7c bd b1 75 3a 3d
       0.0152695095 -0.017259497 -0.06159574 0.045522396
000020 64 01 18 bd b5 27 38 bd 45 cc 0d 3d 25 84 90 bd
       -0.0371107 -0.044959743 0.034618635 -0.070564546
000030 ab 09 79 3d aa e2 27 bd a2 f2 a2 3d 86 7d aa bc
       0.060800236 -0.040987648 0.07956435 -0.020811807
000040 07 94 5e bd 5b b7 0f bb 35 b2 5b bc 0a 60 50 bc
       -0.05434039 -0.0021929357 -0.013409187 -0.01271821
000050 1b d7 a1 3c fe 6b dd bb ec 2c 3a 3d ed 7b 75 3d
       0.01975589 -0.0067572584 0.045452997 0.059932638
000060 11 ec 39 bd 7f 66 9d bd 49 7a c4 bb da cd 69 bd
       -0.045391146 -0.07685565 -0.005996023 -0.05708108
000070 0c 4d a7 bd 08 41 7c bd f4 4c 5d bc c0 e9 20 bc
       -0.081689924 -0.061585456 -0.013507117 -0.009821355
000080 e5 16 00 3d e1 22 35 3d 9a 0e 85 bb 43 6e 66 bd
       0.031271834 0.044222716 -0.0040605785 -0.056257498
000090 03 3f 34 3c 6e dc 54 3d 5d 41 5c 3d 57 e8 43 3d
       0.011001351 0.05196803 0.053773273 0.047829
0000a0 9a 9e 75 3c 32 a9 64 3d 0a 49 01 3d d8 c1 c5 bc
       0.014991427 0.05582542 0.031563796 -0.024140283
0000b0 6f 39 80 bd 50 d6 4f ba 5a 96 99 3b 7a 85 21 bc
       -0.062609546 -0.00079283584 0.0046871128 -0.009858483
0000c0 84 43 93 3d 2d e0 68 bd 1c 60 4d 3c 55 ca 78 bc
       0.07190612 -0.056854416 0.012535121 -0.015184958
0000d0 84 8f a1 bd 65 be 7d 3c d5 be 6b bc d4 fa 3d bd
       -0.078887016 0.015487288 -0.01438876 -0.046381786
0000e0 39 f4 f9 bc d4 d0 61 3d cb 9c 42 bd 90 a9 8b bc
       -0.030511962 0.055130795 -0.04751281 -0.017048627
0000f0 a6 cf 31 bb 8c 55 25 bd a6 78 0d bc 27 5c 63 bd
       -0.0027131825 -0.040364787 -0.008634722 -0.055507805
000100 e9 f7 e6 3c 76 ec 34 bd 50 01 74 bd 6b 83 80 bd
       0.028194385 -0.04417082 -0.059571564 -0.06275066
000110 58 ba f3 bc 9a ee 98 3c ac b4 5f bc 30 51 31 bd
       -0.029751942 0.018668462 -0.013653915 -0.043290317
000120 90 4d 26 3d 2a c4 b2 bc ec eb 6a bd e6 d7 b2 3c
       0.040601313 -0.021822054 -0.0573539 0.021831464
000130 19 7f 3f bd f6 29 57 3d 9b 7d b2 bd 95 cd 92 bd
       -0.04675207 0.05253025 -0.087153636 -0.07168118
000140 2a fd 89 bd f7 ed 41 bc 8e d4 6e bc 30 64 62 bc
       -0.0673774 -0.01183652 -0.014577044 -0.013817832
000150 36 aa 38 3d 76 79 88 3d 85 93 2a bd f6 56 6a 3d
       0.0450842 0.06663792 -0.04164459 0.05721184
000160 ee 7c c9 3c 89 88 1d bd 7e 34 4b bd 46 5f 6a bb
       0.024595704 -0.03846029 -0.049610607 -0.0035762354
000170 db db 7d ba 14 33 71 3d 25 c2 63 3d 6a 63 4e 3d
       -0.0009683945 0.058886603 0.055605073 0.050387777
000180 bb 3f e2 bc 3d 63 cd bb f4 6c ca bc a5 6f 2f 3c
       -0.02761828 -0.0062679336 -0.024710156 0.0107077705
000190 20 9c 89 3c 53 ec 29 bc 6a 4b 86 bd 2b 9d 55 bc
       0.016798079 -0.0103712855 -0.06557353 -0.01303796
0001a0 55 4f 19 3d 65 1a 70 bd e6 2a 2f 3d 9c 23 a8 bc
       0.037429173 -0.05861892 0.04276552 -0.020524792
0001b0 a4 fb 3e bd 97 b7 1c bd 69 88 49 3d 0d 9a 7b 3d
       -0.046626702 -0.038261022 0.049202356 0.06142621
0001c0 90 3a 52 3b 35 08 59 3c a1 4c 10 bd 37 f2 67 bc
       0.0032078363 0.013246586 -0.03522933 -0.01415687
0001d0 ad 35 d8 3c 18 20 54 3d 7f d3 bd 3c aa 7e 85 3b
       0.026392782 0.05178842 0.023172138 0.0040739374
0001e0 20 03 af bc 7b 34 1e 3d 8d 57 40 3c 62 5b 72 bc
       -0.021363795 0.038624268 0.011739624 -0.014792295
0001f0 27 6d 35 bd d9 c8 15 bd 06 7b 6b 3d 79 77 55 3d
       -0.04429355 -0.036568496 0.05749037 0.05211589
000200 64 d2 80 3d 75 54 5a 3d fc 6e e1 3c f4 96 9c 3b
       0.06290129 0.0533032 0.027518742 0.004778737
000210 9f d9 ac 3c de 02 f3 3c 47 e5 a2 bc 3d 97 3f 3c
       0.021099864 0.029664453 -0.019884719 0.011693773
000220 89 35 df ba 56 f5 09 bb 75 b0 48 3c 0c 94 57 bd
       -0.0017029505 -0.0021050773 0.012249102 -0.052631423
000230 d7 f0 28 3d 0d 0f 50 3d 1c 9b d3 3c bc 07 8f 3d
       0.041245308 0.050795604 0.025830798 0.06983897
000240 87 e2 a9 3c 2b 81 30 bd 5f 87 1d 3d 93 2e 24 bd
       0.0207379 -0.043091934 0.038459178 -0.04008348
000250 c7 7f 11 bd 6a 48 74 bc 25 e9 4e 3d b9 22 37 bd
       -0.03552225 -0.014909843 0.050515313 -0.04471085
000260 7e 93 40 bd ff 77 01 3c a5 22 43 bd 29 ad 41 bd
       -0.04701566 0.007902144 -0.04764046 -0.04728428
000270 25 8c d8 3b 01 62 3a 3d 8b 48 22 ba 8b e2 df bc
       0.0066085034 0.04550362 -0.00061906193 -0.027329704
000280 2a c4 0c 3d 1c a5 67 bd cd 59 8d 3d 40 17 43 bc
       0.034366764 -0.056553945 0.06901894 -0.011907399
000290 f5 3c 38 3d b5 4f 89 3c 25 23 84 bb f9 1c 44 bd
       0.04498001 0.01676164 -0.00403251 -0.047879193
0002a0 1b 9b 93 3d a3 d3 66 3c 91 c6 09 bd 83 4e 53 bd
       0.072073184 0.014088544 -0.033636633 -0.051588546
0002b0 89 74 4b 3d ae 7b 04 3b 2d 14 13 bd 1f eb 36 bd
       0.049671683 0.002021532 -0.035907913 -0.044657823
0002c0 c8 1b 3d bb 3c 49 83 3c a0 5f 6f bc 56 3e 5b 3c
       -0.002885567 0.016026132 -0.014610201 0.013381561
0002d0 1f ed c4 bc f7 7f 07 bd 52 d3 39 bd db 98 6b bd
       -0.02403885 -0.03308102 -0.045367546 -0.05751882
0002e0 7b 64 8a bd 99 a9 d1 bc d7 f8 a9 3c 8d a4 af 3c
       -0.067574464 -0.025593566 0.020748539 0.021440769
0002f0 d5 18 7c 3d a8 02 74 3b 83 e6 94 3d 2b 5d bf bb
       0.06154712 0.0037233029 0.07270529 -0.005839964
000300 29 e3 4e bd 08 2b db bc ac 76 4d bc e7 76 bf bb
       -0.050509606 -0.026753917 -0.012540501 -0.0058430317
000310 f0 00 6e bd 17 e2 88 bc 81 20 a5 bc 0d b5 b9 bc
       -0.058106363 -0.01670937 -0.0201571 -0.02266934
000320 47 04 bb bc d4 0b 38 bc 56 ad c0 bb 23 a1 03 bd
       -0.022829188 -0.011233289 -0.0058800383 -0.032136094
000330 07 69 6d bd 9a 5c 88 3d c7 6f f1 bc 49 4a 63 3d
       -0.05796149 0.06658287 -0.029472245 0.055490766
000340 9e 42 84 3d 32 b3 1c 3d fc 5a 15 3d 8a 0b 75 3d
       0.06458019 0.03825683 0.036463723 0.059825458
000350 7f a0 f1 bb cd c0 a9 3d 07 a0 6c bc 0f cd ee bc
       -0.007373869 0.08288727 -0.01444245 -0.029150514
000360 d7 f7 b6 bb ff ea 33 bd a5 6d d2 3b 0f 25 16 bc
       -0.005583744 -0.04392528 0.006421762 -0.009164109
000370 67 5d c0 3c 31 de 35 3c 14 6d 38 3a b4 04 52 3d
       0.023482038 0.011100338 0.0007035297 0.051274016
000380 ee cc 93 3d 5d 0b 81 3c b8 c3 f9 bc f3 c5 45 bc
       0.072168216 0.015752489 -0.030488834 -0.012071121
000390 8a cb 43 3d ed 14 5f bc ea e0 04 3d 63 cf 40 3d
       0.04780153 -0.013615829 0.032441057 0.04707278
0003a0 ce 27 13 3d 08 90 de bc 9a 88 80 3c 7a ce 32 bc
       0.035926633 -0.027168289 0.015690137 -0.010913486
0003b0 a2 db 96 3d 63 41 13 3d e2 aa 5b bc 33 db 01 3c
       0.073661104 0.03595103 -0.013407441 0.007925796
0003c0 8e 2f 27 3d 46 66 5b 3d 7a 45 59 3d 7a 8f 36 bc
       0.040816836 0.053564332 0.053044774 -0.011142606
0003d0 ff af 8b 3d de 1c 1c 3d 16 c8 5f 3d 1c f2 13 3d
       0.06820678 0.038113467 0.054634176 0.036119565
0003e0 bd 2c 27 bc d1 ac b4 3c 41 b9 56 bd 49 cc 41 bc
       -0.0102035375 0.022055062 -0.052422766 -0.0118284905
0003f0 5b 50 8c bc e3 e0 72 3d ef a3 44 3d cb ff 74 3d
       -0.01712816 0.0592965 0.0480079 0.059814256

baseModel.8.bias f4 [64]
000000 63 24 b5 b4 d3 27 f6 b5 07 2e 22 35 f2 aa b3 b6
       -3.3740352e-07 -1.8340019e-06 6.041668e-07 -5.3545164e-06
000010 ec 9b e1 b3 3c 5c b3 33 16 d3 7f b3 5f b8 8e b6
       -1.0505741e-07 8.3521144e-08 -5.9563796e-08 -4.2533934e-06
000020 7b e6 a3 b6 3f 53 80 b7 a0 e2 40 b7 a1 8f 27 b7
       -4.88461e-06 -1.5297554e-05 -1.1496857e-05 -9.987417e-06
000030 94 31 40 36 c5 9a 02 36 05 1b fb 34 ba 97 8b 35
       2.8639088e-06 1.9461597e-06 4.6772053e-07 1.0400465e-06
000040 07 64 e8 34 ce 78 1c 36 f8 11 23 35 41 91 a5 36
       4.3286147e-07 2.331613e-06 6.074838e-07 4.934293e-06
000050 85 d2 f2 34 ba e5 0b 36 dc 38 2b 35 8a d8 3a 35
       4.5229186e-07 2.0846333e-06 6.3785205e-07 6.9605505e-07
000060 c5 b9 2a 35 74 7d ae 35 c9 31 08 b6 df 73 c1 b5
       6.3600265e-07 1.3000522e-06 -2.0294558e-06 -1.4413343e-06
000070 0c 24 e7 36 81 ee 0f 35 0c 97 1d b5 a9 bf 97 b4
       6.888533e-06 5.361872e-07 -5.870686e-07 -2.8265393e-07
000080 63 0c 88 36 45 a2 a7 35 2f 4f 6b 34 ba 4a 4e 35
       4.054558e-06 1.2489696e-06 2.1914887e-07 7.684972e-07
000090 01 7b bd b6 b4 4b 0e 34 58 96 a5 36 bd 5b a0 36
       -5.6469585e-06 1.3252321e-07 4.9348855e-06 4.7790513e-06
0000a0 7c 1d ba b6 cb 13 7f 34 22 bf b9 35 dd 29 7d 34
       -5.5466644e-06 2.3755926e-07 1.3839201e-06 2.3577691e-07
0000b0 70 09 df 36 dd 19 02 34 3b 3a cb b5 31 16 6f 37
       6.6470166e-06 1.2116602e-07 -1.5141626e-06 1.4250677e-05
0000c0 85 d7 09 36 aa f6 8d 35 22 33 8f 35 72 c5 51 b7
       2.054004e-06 1.0577107e-06 1.0669212e-06 -1.2503342e-05
0000d0 26 4a 0c 37 1f d5 72 b4 32 2b 62 35 8f 2f a2 35
       8.361914e-06 -2.261554e-07 8.425442e-07 1.2083782e-06
0000e0 19 5b f6 35 4a 5c be b5 8f 02 c2 b6 9c 39 62 b4
       1.8354941e-06 -1.4182963e-06 -5.7819484e-06 -2.1068848e-07
0000f0 b8 8d cb 35 01 ae cc b5 e8 ac d1 37 32 c9 ff b3
       1.5165924e-06 -1.5249826e-06 2.4995257e-05 -1.191096e-07

baseModel.9.weight f4 [64]
000000 ee 7f 75 3f 1e 6b 7a 3f 23 93 76 3f c7 71 7c 3f
       0.9589833 0.978197 0.9631826 0.9861111
000010 21 43 7c 3f fd 06 81 3f 16 b7 82 3f 16 8a 7d 3f
       0.9853993 1.0080258 1.0212123 0.9903883
000020 33 35 74 3f 8a 09 7b 3f 7c ea 77 3f 31 65 7b 3f
       0.95393676 0.9806143 0.9684217 0.9820128
000030 a7 2d 80 3f e8 19 81 3f 42 ee 79 3f be 60 7d 3f
       1.0013932 1.0086031 0.9762918 0.9897574
000040 af c7 80 3f 46 01 84 3f 2c 85 77 3f c4 58 73 3f
       1.0060939 1.0312889 0.9668758 0.9505732
000050 74 3c 81 3f c5 55 7d 3f bb ae 80 3f d7 4f 83 3f
       1.0096574 0.98959 1.0053324 1.025874
000060 fc b3 7b 3f f7 86 75 3f 67 e1 7c 3f e8 2a 7f 3f
       0.9832151 0.95909065 0.98781437 0.99674845
000070 50 78 7a 3f 47 cd 81 3f b0 5c 82 3f b9 46 7e 3f
       0.9783983 1.0140771 1.0184536 0.99326664
000080 40 27 7e 3f 46 7a 7d 3f 36 4f 80 3f 63 ac 7e 3f
       0.9927864 0.990147 1.0024173 0.9948179
000090 c0 ab 7b 3f 44 17 7a 3f a9 12 83 3f c5 5e 82 3f
       0.98308945 0.9769175 1.024007 1.0185171
0000a0 30 d5 7f 3f e5 a6 7a 3f d4 db 85 3f 45 e2 81 3f
       0.99934673 0.9791091 1.0457711 1.0147177
0000b0 5e e7 73 3f 05 26 80 3f 26 9f 79 3f 08 c8 80 3f
       0.95274913 1.0011603 0.97508466 1.0061045
0000c0 9a 15 84 3f ce d2 7c 3f f3 35 7d 3f e0 59 81 3f
       1.0319092 0.9875916 0.98910445 1.0105553
0000d0 66 b1 7d 3f f6 2c 7d 3f 7a 41 82 3f fe 8e 81 3f
       0.99098814 0.9889673 1.0176232 1.0121763
0000e0 77 cf 81 3f 0a 5f 82 3f 4c f6 82 3f c1 9a 79 3f
       1.0141438 1.0185254 1.0231414 0.9750176
0000f0 df de 79 3f 63 33 7d 3f fa ef 81 3f f0 ea 7f 3f
       0.976057 0.98906535 1.015136 0.9996786

baseModel.9.bias f4 [64]
000000 aa 38 68 bc de 62 81 ba 18 94 49 bc 61 a1 05 bc
       -0.014173666 -0.0009871384 -0.012303375 -0.0081561515
000010 95 be 14 bc f7 be f3 bb b6 35 9d b9 b3 f7 00 bc
       -0.009078641 -0.0074385363 -0.0002998539 -0.007871556
000020 44 27 cf bc 9b 56 65 bc ce 17 30 bc c3 cd d9 ba
       -0.025287278 -0.013997699 -0.010747863 -0.0016617108
000030 a7 2f 9d bc dc d4 85 bc cd 5a c6 bb 60 4f e1 bb
       -0.019187761 -0.01633685 -0.0060533048 -0.0068759173
000040 1d 2e c4 ba 57 17 84 3c 4a 22 e5 3a 12 af 41 bb
       -0.0014967356 0.01612441 0.0017481532 -0.0029553813
000050 bc 07 55 3c b2 6a d5 ba 85 53 8c bc bd 42 0c bd
       0.013002332 -0.0016282408 -0.017129669 -0.034243334
000060 4e 2a 5c bb 86 b9 77 bc d5 b4 95 bc 7e 37 20 3c
       -0.0033594551 -0.015119916 -0.018274704 0.009778855
000070 0e 40 6d ba 7a c3 64 bc 26 42 18 bc 26 98 be bc
       -0.00090503774 -0.013962621 -0.009293115 -0.02326591
000080 7d 4c 22 3b f5 48 5e bb b4 4d 41 bc 7b 13 21 bc
       0.002476483 -0.0033917997 -0.011798311 -0.009831305
000090 cb b8 2f bc e3 c7 fc b9 73 97 44 bc a7 0c 92 bb
       -0.01072521 -0.00048214113 -0.011998999 -0.0044570747
0000a0 f5 a0 26 bc a2 ac ef bb 8f bb 60 3c db 77 f9 ba
       -0.010170211 -0.0073142806 0.013716592 -0.0019032912
0000b0 b1 cb e0 bb 9a 78 06 bb 47 67 1f bc 2c 18 aa bb
       -0.0068602194 -0.0020518661 -0.009729213 -0.00519087
0000c0 5f 22 c5 bb c5 5b ae 3b e5 f0 e2 bb fa 44 f6 bc
       -0.0060160602 0.0053209984 -0.0069256895 -0.030062187
0000d0 2a 91 df bb f9 87 60 bc 26 ae 64 3c c6 1f 27 3c
       -0.006822725 -0.013704293 0.013957536 0.0102004465
0000e0 59 f5 19 3c d5 02 ad 3b 28 06 9c 3c c6 51 2b bb
       0.009396874 0.0052798786 0.019045904 -0.002614127
0000f0 ac cf 6f bb 8d 40 1a bc 6b 6b 2e bc f5 7a 5b ba
       -0.0036592288 -0.009414804 -0.010645728 -0.0008372509

baseModel.9.running_mean f4 [64]
000000 e4 ff b8 be 24 c5 76 3f ba 16 9c 3c 3a 7b 5e bf
       -0.3613273 0.9639456 0.019053806 -0.8690678
000010 89 51 19 3f 7b b0 5c bf cd c4 0d 3f 6a e1 a2 be
       0.5989004 -0.8620679 0.5537842 -0.31812602
000020 77 a3 04 3f ed 5b 1b bd a1 50 7d be 36 41 06 3e
       0.5181193 -0.037929464 -0.24737789 0.13110813
000030 40 de d2 bd 33 03 8c 3f b7 0f 3b 3f 61 ea 18 bf
       -0.10296297 1.0938476 0.73070854 -0.59732634
000040 9d 25 bf be 07 3f b3 be 36 67 e4 bd 3c 4b da be
       -0.37333384 -0.35009024 -0.111524984 -0.42635524
000050 ba a6 bc 3e 6a 14 9a bf c7 d9 6d 3f 86 b3 55 3e
       0.36845952 -1.203748 0.92910427 0.20869264
000060 68 da 0f be 50 61 34 be eb 57 1c 3f 38 34 e7 3c
       -0.14048159 -0.17615247 0.6107165 0.028223142
000070 6b 1b 30 3e 16 80 1e 3f a0 18 7e 3e 6f e3 5f bd
       0.17197959 0.61914194 0.24814081 -0.054660257
000080 64 3b cd 3e d6 23 34 3e df 34 07 bd 41 3a a3 be
       0.40084374 0.17591795 -0.033009406 -0.31880382
000090 63 90 15 3e d3 69 b0 3e 0a 3b 89 3f e1 3f ae bd
       0.1460586 0.34455737 1.0721142 -0.08508278
0000a0 33 97 34 3f a5 df 52 3d 68 fe 5e 3e 82 e0 16 3f
       0.7054321 0.051482815 0.21776736 0.5893632
0000b0 cd b8 f5 bd 43 d3 0e bf 1d a8 39 bf 27 e9 15 bf
       -0.119981386 -0.5579111 -0.72522146 -0.5855889
0000c0 f5 09 1e 3d 83 bb b7 3e 70 17 84 bf 02 ba 99 3f
       0.038583715 0.35885248 -1.0319653 1.200989
0000d0 b4 c0 e2 be ab 55 0e bf c2 42 2f bd 4a 0b e5 3d
       -0.44287646 -0.5559947 -0.042788275 0.11183794
0000e0 11 c8 99 bd 87 00 c6 be 4a 29 2c 3e 38 41 20 3f
       -0.07508863 -0.38672277 0.16812626 0.62599516
0000f0 8a 8b 22 3e 02 7a 8f 3f 24 c9 78 be b4 f8 ce 3e
       0.15873542 1.1209109 -0.24295479 0.4042412

baseModel.9.running_var f4 [64]
000000 52 1a 4f 3e c7 92 84 3e 3b 21 24 3e d0 45 76 3e
       0.20224884 0.25893232 0.16028301 0.24050069
000010 7e 39 39 3e 7f 35 4f 3e 1d 8f 84 3e 79 cd 24 3e
       0.18088338 0.20235251 0.25890437 0.16094007
000020 53 93 0d 3e fd 47 45 3e 57 bd 63 3e 95 e2 1b 3e
       0.13825731 0.19265743 0.22240196 0.15223153
000030 30 0d 91 3e e7 7f 86 3e 3d dd 66 3e 08 e0 61 3e
       0.28330374 0.26269457 0.22545333 0.22058117
000040 54 12 0c 3e 69 53 14 3e 5c 3c 02 3e be 89 28 3e
       0.13678867 0.14484943 0.12718338 0.16458794
000050 05 06 61 3e ba 40 45 3e f7 55 9f 3e 06 12 a5 3e
       0.21974953 0.19262972 0.31120273 0.32240313
000060 27 08 51 3e 51 4e 31 3e 73 f5 68 3e 1b f6 20 3e
       0.20413266 0.17315032 0.22749881 0.15718882
000070 63 2f 56 3e 6d da 0a 3e 86 da 5a 3e 40 49 6d 3e
       0.20916514 0.13559885 0.21372423 0.23172474
000080 e6 e6 1e 3e 12 0f 10 3e d4 01 03 3e 70 ab 3c 3e
       0.15517768 0.14068249 0.12793666 0.18424773
000090 17 48 0a 3e 0c a5 23 3e e0 10 98 3e 0b 8a 0d 3e
       0.13504063 0.15980929 0.29700375 0.1382219
0000a0 5a 30 88 3e 35 63 2f 3e c3 de 38 3e 09 4c 71 3e
       0.2659939 0.17127688 0.18053727 0.23564161
0000b0 4e 07 14 3e af ee 64 3e a9 24 51 3e ee 6d 6f 3e
       0.14455912 0.22356676 0.20424141 0.23381779
0000c0 1e de fb 3d 5d b6 66 3e 14 68 35 3e 81 e4 9e 3e
       0.12298225 0.22530504 0.17715484 0.3103371
0000d0 35 f7 1a 3e 87 e3 47 3e f5 68 2f 3e 5d 11 05 3e
       0.15133364 0.19520389 0.17129882 0.12994905
0000e0 00 36 1c 3e 42 a7 1e 3e b9 5a 19 3e b0 68 69 3e
       0.15254974 0.15493491 0.14976014 0.22793841
0000f0 94 05 3a 3e 2f 17 80 3e db 41 3e 3e cc fc 64 3e
       0.1816619 0.25017688 0.1857981 0.2236206
