Models/best_bl_0424_after2.pth (torch, 495917 bytes, 42 tensors)

baseModel.0.weight f4 [64, 2, 3]
000000 98 cd 99 3e f6 d0 06 3e 90 c9 89 be 5e 7c 44 3e
       0.30039668 0.1316565 -0.26911592 0.19188067
000010 61 5e 7d be 62 9a 41 be e0 b3 70 3e 9d 20 9a be
       -0.24743034 -0.18906549 0.23506117 -0.30103007
000020 37 a7 23 3e 5b 0a a2 3b 2f de b4 3d ad 90 5b bd
       0.15981756 0.004945082 0.08831441 -0.05360477
000030 2d 11 db bd 29 dc 27 3e 75 6f 0c 3e cd 96 0e 3e
       -0.106966354 0.16392578 0.13714392 0.13924713
000040 7c 9c 47 3e a4 c2 bf bd f1 8a bb 3d 81 02 33 be
       0.19493288 -0.09363297 0.0915736 -0.17481424
000050 57 d8 3b be 7d e7 4c 3e 00 6f 3d 3e 2f fd 9c bd
       -0.18344246 0.20010181 0.18499374 -0.076654784
000060 cb e0 ea 3c f6 1b c9 3d c8 a2 8e 3e 25 c9 6c 3e
       0.028671643 0.09819786 0.27858567 0.23123606
000070 8f ac 8f 3e 79 84 b2 3d 45 29 8d be 7a ca 53 3e
       0.2806134 0.087166734 -0.2757055 0.20682707
000080 8d da aa 3e 9f e4 30 be 26 79 75 3e 26 62 e0 bd
       0.33369866 -0.17274712 0.23971996 -0.1095622
000090 66 28 90 bd af fe 04 3c 0f 80 4b bd e2 5d 5a 3e
       -0.070389554 0.008117362 -0.049682673 0.21324876
0000a0 36 8a 0b be 5c 32 d1 3d e8 2d b3 3d ba e0 32 bc
       -0.13626942 0.102146834 0.0874899 -0.010917837
0000b0 a0 7f 31 3e 41 ab a3 be 9f 10 81 3e 64 2e 62 3e
       0.17333841 -0.31966594 0.25207993 0.22088009
0000c0 f4 d6 95 be 6d 22 69 be d7 af 95 3c 89 fd 7e 3e
       -0.2926556 -0.22767039 0.018272324 0.24901403
0000d0 c1 39 81 be da 94 83 be 4e 89 ef 3b c0 9e 9b be
       -0.25239375 -0.25699502 0.007310069 -0.30394554
0000e0 ff f7 24 3e 36 4f 61 3e 75 64 ab bc 56 2d 77 bc
       0.16110228 0.22002873 -0.020921925 -0.0150864925
0000f0 27 53 de bd c6 9c 75 3e 94 59 1b be 37 7b 00 be
       -0.10855704 0.23985586 -0.1517089 -0.12547003
000100 47 53 88 3e f1 13 00 be 14 11 c1 3c e7 1d 8c bc
       0.26626036 -0.12507607 0.023567714 -0.017104102
000110 11 de fb 3d ae d2 8c be dd f2 9c be e1 47 f1 3d
       0.12298215 -0.27504486 -0.3065404 0.11781288
000120 30 84 43 be 28 74 52 3e e4 c4 68 3e e0 12 8e 3e
       -0.19093394 0.20552123 0.22731358 0.27748775
000130 82 4e b2 be a5 25 6d be 3d 11 89 be 24 5e 89 3e
       -0.34825522 -0.23158891 -0.26770964 0.26829636
000140 87 71 4e 3c 6f 78 24 3e 1d c3 a2 bd 3d 47 3c 3e
       0.012600309 0.16061567 -0.07947371 0.1838655
000150 27 d4 d5 bd 6c 18 7f 3e 24 ac 55 be a9 5a dc bd
       -0.104408555 0.2491166 -0.20866448 -0.107594796
000160 2b eb 23 3e 9e 02 af 3d 9b 49 ef bc dd 01 b7 3e
       0.16007678 0.08545421 -0.029209903 0.3574361
000170 8b 4f 78 3e 3e 25 e0 bd 7f 6a 8a 3e 44 f5 7a 3e
       0.24249093 -0.109446034 0.27034375 0.24507624
000180 5f 01 78 3d f5 82 71 3e b6 9a af 3e 75 7d 9a bd
       0.060548183 0.23585112 0.34297723 -0.0754346
000190 00 af 42 3c 3f 74 ef bd 0b 41 9b 3e fa 1e 90 3e
       0.011882544 -0.11692094 0.3032306 0.28148633
0001a0 6a b3 b1 bd 71 3d 57 be 4a a2 68 3e c4 e8 ad 3e
       -0.08676799 -0.21019532 0.22718158 0.3396665
0001b0 95 a7 24 3e f6 33 52 be aa a9 43 be bf fc 0c be
       0.16079552 -0.20527634 -0.1910769 -0.1376829
0001c0 25 19 ac be a7 0f 2d 3e 6e da 8e be dc 37 d4 bd
       -0.33612934 0.16900502 -0.27901024 -0.10362217
0001d0 6c d2 5a 3e d2 1f 93 be 11 62 8b bd f9 42 35 3e
       0.21369332 -0.28735214 -0.06805814 0.1770133
0001e0 cf b7 12 be 9e b5 0c 3e 13 69 49 3e b5 90 30 3e
       -0.1432793 0.13741156 0.19668989 0.17242701
0001f0 1e 2a 5a 3e 2f 26 82 be ef 06 0a 3d a3 11 ad 3e
       0.21305129 -0.25419757 0.03369802 0.33802518
000200 ce 72 99 3e 51 44 81 3d 40 07 74 be 33 2b e4 3d
       0.29970402 0.063118584 -0.2383089 0.11141052
000210 26 e3 08 3e 11 cd 20 bd a6 c5 6b 3e 21 c2 32 be
       0.133679 -0.039258067 0.23024616 -0.17456867
000220 2a b8 ba 3e 13 ea ab 3e 3d 55 32 bd 80 00 8b be
       0.3646863 0.33577022 -0.04353832 -0.2714882
000230 81 3e c4 be e5 29 ef 3d 46 f6 40 bd 85 cd a0 3e
       -0.38328937 0.116779126 -0.047109865 0.314068
000240 45 51 17 be b9 7a 94 3b 1c a2 8f 3c c4 2b 87 3d
       -0.14777096 0.0045312312 0.017533354 0.066001445
000250 1e 08 ad 3e 7b 7d ac 3e fb 18 a9 be f0 16 7b bd
       0.33795255 0.33689484 -0.3302687 -0.06130117
000260 9b 69 ab 3e 5c a4 9e bd 94 76 79 bd 97 56 ef bd
       0.33479008 -0.07746193 -0.0609041 -0.116864376
000270 26 87 48 3e 7e 57 92 3d b4 1b a1 be e2 76 a7 3d
       0.19582805 0.07145594 -0.31466448 0.08176972
000280 47 4f af 3e 86 cc b4 3d 58 5d 92 3e d4 92 42 3e
       0.3424017 0.08828072 0.2858684 0.19001323
000290 80 32 9c bc ae b3 3d be c0 52 5e 3d a9 4a cf bc
       -0.019067049 -0.18525574 0.054278135 -0.025304155
0002a0 86 c5 5d 3d 96 ec cb bd bb 29 98 be 0e cb 6e be
       0.05414345 -0.099572346 -0.29719338 -0.23319647
0002b0 d8 9f 76 3d 69 19 5e be 88 df 38 be 40 a4 51 be
       0.060211033 -0.2168938 -0.1805402 -0.20472813
0002c0 e7 41 0c bd 4d c6 bb 3b 62 00 8f 3e 36 1c 22 3e
       -0.034242537 0.0057304264 0.2792998 0.15831074
0002d0 18 ab 6c be 06 4b 88 3e bb ee ff 3d 0c 54 87 be
       -0.23112142 0.26619738 0.12496706 -0.2643131
0002e0 76 ad 5f be b4 3d ca 3a bf 74 55 be 39 46 cd 3d
       -0.21843514 0.0015429766 -0.20845316 0.100231595
0002f0 10 8e e0 bc 5f 06 75 3e ee 60 97 be da 82 22 bd
       -0.02741149 0.23928212 -0.2956614 -0.03967557
000300 e3 97 04 3d f7 b2 5d be 76 d2 2e be 5f 8b f2 bc
       0.032371413 -0.21650301 -0.17072472 -0.029607473
000310 a1 7e 85 3d 43 92 5f bd 48 21 8a 3d 65 bd db bb
       0.06518293 -0.054582845 0.06744629 -0.006705927
000320 09 57 65 3d de 96 82 be 50 a1 a6 3e 9a 8c 62 be
       0.055991206 -0.25505728 0.32544947 -0.22123948
000330 a8 1e 6f be c1 27 c8 bd 64 db 40 bd 59 da a1 3e
       -0.23351538 -0.097732075 -0.047084227 0.316119
000340 85 0f 9e 3e 84 36 e3 bd c3 71 d6 bd ce 1a 9d be
       0.30871215 -0.110943824 -0.10470917 -0.30684513
000350 b2 1f 08 3d 5a a3 47 be 13 6d ae 3d a2 ad 80 3e
       0.033233352 -0.19495907 0.08516898 0.2513247
000360 c5 fa 8b 3e f8 29 b9 3e 83 b5 81 3e 14 17 48 3e
       0.2733976 0.36164832 0.25333795 0.19540054
000370 89 46 02 3e 5d ff 0c 3e 42 a2 43 3d 2f 17 1a be
       0.1272222 0.13769288 0.047762163 -0.15047906
000380 82 f3 74 3d 11 fb d7 3d 53 5d 96 be df 1a 80 3d
       0.05980254 0.10545934 -0.29368076 0.06255125
000390 63 c0 3c 3e c9 7f 0d be d2 52 38 3e 32 2a 68 3e
       0.18432765 -0.13818277 0.18000343 0.22672346
0003a0 0c 76 6d 3e 82 5e 88 3e 64 5a 3b be c8 37 1d 3e
       0.23189563 0.26634604 -0.182962 0.1535331
0003b0 0b ee 89 be 5e c0 7c 3e 9c 69 c1 3d 6b 55 a2 be
       -0.26939425 0.24682757 0.094439715 -0.31705794
0003c0 4a d6 44 be d1 9e 99 3e fb 9f 9e 3d de 79 94 be
       -0.1922237 0.3000398 0.077453576 -0.28999227
0003d0 89 5c 83 be ee 48 1a be f5 ff e1 3d fa 60 86 be
       -0.25656536 -0.15066883 0.11035148 -0.26245862
0003e0 ed 46 74 be 4a e0 79 be 90 8c 4f 3e 67 b0 84 3e
       -0.23855181 -0.24401966 0.20268464 0.25915834
0003f0 60 bf 0a bd 0a 2d 8c bc 6f 3f 3f bc 6d 20 a3 3d
       -0.033873916 -0.01711132 -0.011672839 0.07965169

baseModel.0.bias f4 [64]
000000 30 01 d5 35 09 15 1f 39 9d 3f 57 b9 b3 b5 fb b7
       1.5870082e-06 0.00015171258 -0.00020527696 -3.0006142e-05
000010 a3 69 5c ba 4e 8c 31 b8 ec e6 00 ba e0 d6 b2 39
       -0.0008408075 -4.2330757e-05 -0.00049172225 0.000341109
000020 4f a8 88 39 fa ed 05 37 cf f5 05 3a 46 0d 21 39
       0.0002606534 7.982826e-06 0.00051101757 0.00015359101
000030 f9 bf 71 37 fb 4b d7 b8 5c cb 04 b8 f8 e6 b2 39
       1.44094165e-05 -0.000102661514 -3.1660646e-05 0.0003412289
000040 3d bc 8b b9 70 ce a4 b9 82 0a 93 b8 d3 ba c0 b9
       -0.00026652394 -0.00031434326 -7.0114635e-05 -0.0003676029
000050 a1 cb a7 b7 da e4 f0 b9 06 fb 8d 39 c7 5e b3 b8
       -2.0002773e-05 -0.00045946875 0.00027080643 -8.553039e-05
000060 25 46 f1 39 6d 12 e1 b9 7f 1b de b9 04 9b 3c ba
       0.00046019364 -0.00042929073 -0.00042363626 -0.000719473
000070 f8 e9 1f b9 ac 3f 04 3a 3c 11 c1 37 0f 82 6f 39
       -0.00015250582 0.0005044888 2.3015418e-05 0.00022841267
000080 b3 b9 7b 37 86 3a 3f b9 d6 ef 7d 39 3c 2a 84 ba
       1.5004002e-05 -0.00018236981 0.00024217306 -0.0010083388
000090 a3 c7 41 b9 35 2b b8 b8 a1 88 93 39 53 c6 0e 3a
       -0.00018480285 -8.781852e-05 0.0002813982 0.0005446423
0000a0 6c 18 2b 39 82 b6 be b9 09 82 66 39 c6 24 34 39
       0.00016316929 -0.00036375603 0.00021982951 0.00017179837
0000b0 b8 46 8d b9 10 c6 5b b9 a0 19 d1 38 39 f1 84 b9
       -0.00026946305 -0.00020959252 9.9706696e-05 -0.00025356727
0000c0 2f 85 35 b9 93 4a 75 39 07 47 81 b7 43 8f 24 39
       -0.0001731112 0.00023392802 -1.5411073e-05 0.00015693628
0000d0 69 cb 68 ba 96 57 b7 39 56 7c 1b 38 ca 4f f6 38
       -0.0008880408 0.00034969737 3.7070677e-05 0.00011745056
0000e0 3d 1d 4b b9 f6 e1 0b ba 35 56 09 3a d1 ad 09 3a
       -0.00019370481 -0.00053361 0.0005238981 0.0005252036
0000f0 8e 93 92 39 a1 12 6b 3a ff c4 63 b7 89 2c 30 39
       0.00027957227 0.00089673145 -1.3576121e-05 0.00016801259

baseModel.1.weight f4 [64]
000000 58 8c 42 3f 36 51 48 3f 37 e7 41 3f 9f 54 5d 3f
       0.759954 0.7824892 0.7574343 0.86457247
000010 d2 67 50 3f bd 01 3a 3f 54 3a 2e 3f 94 79 35 3f
       0.8140842 0.726589 0.6805775 0.7088864
000020 76 ee 53 3f a7 2c 3a 3f 97 b9 3c 3f 69 64 3b 3f
       0.8278574 0.72724384 0.7372069 0.7320009
000030 01 66 34 3f ff aa 2f 3f 0b ca 2d 3f ce 8f 54 3f
       0.70468146 0.68620294 0.6788642 0.8303193
000040 d2 cf 57 3f 69 da 5a 3f 91 28 4b 3f 2a bc 45 3f
       0.84301484 0.8548952 0.79358774 0.7724024
000050 e0 80 44 3f 73 45 4d 3f c8 39 3f 3f 62 ea 4a 3f
       0.7675915 0.80184096 0.7469754 0.7926389
000060 cd 53 55 3f 9d e0 47 3f c2 7c 4b 3f 20 b3 41 3f
       0.83330995 0.7807711 0.7948724 0.7566395
000070 81 98 31 3f e3 93 55 3f 13 49 4b 3f 3f fc 30 3f
       0.6937333 0.8342878 0.7940838 0.69134897
000080 7a 55 4d 3f c9 52 3f 3f 8e 6d 4e 3f fd 23 49 3f
       0.8020855 0.74735695 0.8063592 0.7857054
000090 c2 18 5e 3f bf 2f 30 3f ad 76 43 3f f4 5d 42 3f
       0.8675653 0.68822855 0.7635296 0.7592461
0000a0 89 c9 4d 3f cc 42 3a 3f 20 b5 4f 3f 07 73 62 3f
       0.80385643 0.72758174 0.8113575 0.8845677
0000b0 68 aa 4a 3f 9a 3d 4b 3f 73 70 2c 3f 62 68 59 3f
       0.7916627 0.7939087 0.67359084 0.849249
0000c0 9b 5a 41 3f 2c a1 37 3f 84 6d 30 3f db 80 59 3f
       0.7552888 0.71730304 0.6891711 0.8496224
0000d0 d4 db 56 3f a9 93 45 3f 39 ae 30 3f d0 5d 3d 3f
       0.8392918 0.77178437 0.6901584 0.7397127
0000e0 d1 07 61 3f 1c 65 3c 3f fc 6a 68 3f 35 83 4a 3f
       0.8790255 0.7359178 0.90788245 0.79106456
0000f0 fe 02 69 3f 09 e7 3f 3f d0 61 3b 3f 16 19 5b 3f
       0.9102019 0.74961907 0.73196125 0.85585153

baseModel.1.bias f4 [64]
000000 f5 7f 10 bd 3e 92 ee 3c 9d cf ac bd 43 93 76 bd
       -0.03527828 0.029122468 -0.084380366 -0.060199033
000010 54 b6 45 bd 08 ad 07 bd 3a 4b b3 3c 9f 85 c9 bc
       -0.048269585 -0.033124 0.021886457 -0.024599848
000020 31 7c d2 bd af 8d 88 bd 8b f0 bf bb 8b 33 5b bd
       -0.10277594 -0.06667649 -0.0058575324 -0.053515952
000030 f7 ec 9c 3c d2 31 12 3b 4f d0 19 bd 79 5a b6 3b
       0.019155962 0.0022307527 -0.037552174 0.0055649844
000040 dc af 30 bd e5 6b b1 bd a5 1d 9c bd ee 36 32 bd
       -0.043136463 -0.086631574 -0.07622842 -0.043509416
000050 71 29 3e bd b5 d8 ea 3b 46 d6 7d bd 7e 86 22 bc
       -0.04642624 0.007166947 -0.061971925 -0.009919761
000060 71 bb a3 bc 39 86 a5 bc cd 2d a3 bd 36 47 cd 3c
       -0.01998684 -0.020205604 -0.0796772 0.02505837
000070 a5 4a b5 bd 0c cb 94 bc 10 d3 e9 bc 6e cd 63 bd
       -0.08852128 -0.018163227 -0.028543025 -0.055615835
000080 de e1 d6 bc 2d 99 35 3d 65 80 a2 bd f3 aa db bd
       -0.026230749 0.044335533 -0.079346456 -0.10725965
000090 5b 7f 4f bd 6d ef 06 bd 96 dd 52 bd ab f1 0f bd
       -0.050658565 -0.032943178 -0.051480852 -0.035142582
0000a0 98 b3 4b bd b1 03 23 bd 2b 54 47 3c 82 61 97 bd
       -0.04973182 -0.039798442 0.012166063 -0.07391645
0000b0 28 a4 81 bd 9d a8 38 bd 40 14 e3 bc e1 8a f4 bc
       -0.063301384 -0.045082677 -0.027719617 -0.029851379
0000c0 12 d0 6f bd 26 d9 5a bc d4 b1 47 bd 76 78 59 bd
       -0.05854804 -0.013357436 -0.048753574 -0.053093396
0000d0 7c 06 57 bd 2a 3b 71 bd 9c 49 90 bd 2a 92 d0 bd
       -0.05249642 -0.058894314 -0.0704529 -0.101841286
0000e0 9c 88 13 bd c8 c7 42 bd 90 b7 f9 bc af fd 69 3b
       -0.036018953 -0.047553807 -0.030483037 0.0035704186
0000f0 81 db c9 bd 2e f2 07 3d 87 74 72 bd 58 db 89 bd
       -0.0985632 0.033189945 -0.05919316 -0.067312896

baseModel.1.running_mean f4 [64]
000000 0c d9 1c b8 c3 66 9f 37 f5 0a 4f b9 3c 92 81 b9
       -3.739544e-05 1.900213e-05 -0.0001974514 -0.0002471375
000010 a0 12 22 ba ad 60 b5 38 6d ae 18 ba d5 36 86 39
       -0.0006182585 8.64876e-05 -0.00058243313 0.00025599325
000020 46 af 90 39 eb 71 6c 38 38 a3 31 39 74 b6 3f b9
       0.0002759641 5.637288e-05 0.00016940839 -0.00018283149
000030 62 8b 98 37 5d d7 21 b9 59 d3 9f b9 5c b7 c0 39
       1.8184717e-05 -0.00015434386 -0.0003048431 0.00036757707
000040 7c b6 8a b9 3d b3 89 b9 45 21 67 39 94 46 ac b9
       -0.00026457373 -0.0002626422 0.0002204227 -0.0003285898
000050 04 21 24 b9 68 c4 29 ba 5d 67 b0 39 7b a8 27 b9
       -0.00015652558 -0.0006476105 0.00033646348 -0.00015989125
000060 3f 44 41 39 b0 1f e8 b9 e0 a9 73 b9 b2 39 0f ba
       0.00018431338 -0.00044274097 -0.00023237569 -0.00054636144
000070 c0 8d 75 b8 a5 66 f4 39 77 e2 14 b7 e0 64 77 39
       -5.8544567e-05 0.00046615783 -8.874215e-06 0.00023593334
000080 b0 ca 03 b9 b3 79 be b8 08 1b f5 38 33 f4 74 ba
       -0.0001256864 -9.082574e-05 0.00011687545 -0.000934425
000090 aa be 81 b9 46 ac 56 37 38 05 c5 38 3d e4 fb 39
       -0.00024746853 1.27955045e-05 9.394664e-05 0.000480445
0000a0 2c b0 ca 38 6e 97 10 b9 b6 fb 81 39 85 de 9f 38
       9.664925e-05 -0.00013789322 0.00024792337 7.623158e-05
0000b0 f7 1a 27 b9 2a 1f a4 b9 fe 19 f5 38 f1 56 62 b9
       -0.00015936406 -0.00031303737 0.00011687352 -0.00021585428
0000c0 09 c1 a3 b9 2f 30 b0 39 79 85 8b b8 8e 0b b3 39
       -0.00031233605 0.00033605236 -6.652898e-05 0.0003415015
0000d0 e0 e3 5e ba e7 2b 42 39 39 2e 43 38 79 ae 72 39
       -0.0008502584 0.00018517637 4.653467e-05 0.00023143915
0000e0 57 61 d7 b8 04 b9 1a ba 37 e2 7c 39 51 96 df 39
       -0.0001027013 -0.0005902203 0.00024116864 0.0004264587
0000f0 15 b7 ef 38 ad 50 31 3a 94 0f 88 39 c8 85 b6 39
       0.0001143051 0.0006764036 0.00025951548 0.0003481342

baseModel.1.running_var f4 [64]
000000 33 d3 39 37 67 aa 5f 36 9e 1f a3 36 2b a7 e1 36
       1.1076033e-05 3.3328777e-06 4.8614593e-06 6.7249835e-06
000010 05 f7 4f 37 41 c7 2a 37 05 e5 ff 35 46 c2 0a 37
       1.2395675e-05 1.0179182e-05 1.9065634e-06 8.270674e-06
000020 2d 57 69 37 ad e8 99 36 f0 cd 71 36 bd 47 12 37
       1.3908179e-05 4.5868424e-06 3.603167e-06 8.718981e-06
000030 b3 b3 60 37 4b a5 ab 36 76 a5 74 36 22 2c 84 37
       1.339328e-05 5.1154398e-06 3.6455144e-06 1.5756177e-05
000040 d0 ff 2e 37 73 ae 8c 37 47 05 1f 37 ca c7 19 37
       1.0430769e-05 1.6770535e-05 9.478367e-06 9.166028e-06
000050 fe c0 f7 36 65 7a 56 37 24 c9 6f 37 97 d7 85 37
       7.383641e-06 1.2783891e-05 1.4292342e-05 1.5955227e-05
000060 cb 16 68 37 a7 63 16 37 97 77 40 37 cb b6 ec 36
       1.38335845e-05 8.963899e-06 1.1471936e-05 7.054628e-06
000070 db d6 03 37 48 ff 1f 37 56 46 2e 37 46 aa a7 36
       7.858233e-06 9.536576e-06 1.0387585e-05 4.9968103e-06
000080 f5 ef 83 36 be 6f 8d 36 6f f9 58 37 e0 1d 0f 37
       3.932039e-06 4.215136e-06 1.2932679e-05 8.53042e-06
000090 91 6d ad 37 1d a3 46 36 68 04 50 37 26 bf 12 37
       2.0674228e-05 2.9599244e-06 1.2398792e-05 8.746783e-06
0000a0 25 b6 6c 37 6c 61 49 37 7d 73 0d 37 13 10 bb 37
       1.4109105e-05 1.2003216e-05 8.431144e-06 2.2299622e-05
0000b0 d2 3c 24 37 10 57 e1 36 ea 78 6d 36 b5 50 78 37
       9.789323e-06 6.715658e-06 3.5386133e-06 1.4800743e-05
0000c0 26 76 2a 37 f6 95 a8 36 95 c8 05 36 c1 ed 32 37
       1.0160298e-05 5.024248e-06 1.9935298e-06 1.0664983e-05
0000d0 f2 2e 5c 37 ea 7b 84 37 bc 0d 96 36 f8 8f eb 36
       1.3123952e-05 1.5793328e-05 4.4719472e-06 7.020306e-06
0000e0 10 aa 98 37 1d 24 f4 36 9c 6b 44 37 88 66 0d 37
       1.8199004e-05 7.275971e-06 1.1707565e-05 8.428127e-06
0000f0 87 24 98 37 db 0e 38 37 30 33 00 37 4e 58 48 37
       1.8136821e-05 1.0970713e-05 7.641313e-06 1.1941489e-05

baseModel.4.weight f4 [64, 64, 3]
000000 5e 0d 13 bd fc b5 c6 bd ce 31 c1 bc 24 13 30 bd
       -0.03590142 -0.097026795 -0.023583319 -0.042987004
000010 84 65 48 3c 22 1a ee bc 54 8d 1b bc e1 9e a3 3c
       0.012231234 -0.029065195 -0.0094941445 0.01997322
000020 7a fb be 3c a0 b5 4a bc 46 27 98 3d a3 43 11 bd
       0.023313273 -0.012372404 0.07429366 -0.035464894
000030 f8 bd 5e bd e2 e3 12 bd 99 64 64 bd d1 c8 c0 3a
       -0.054380387 -0.035861857 -0.05576 0.0014708285
000040 d4 04 e5 3c d8 03 99 3c 00 ad 10 3d d1 9a c6 3b
       0.027956404 0.01867859 0.035321236 0.006060936
000050 15 a6 72 bd 48 f2 05 bd 95 dc 86 3a 94 7a 87 3a
       -0.05924042 -0.03270176 0.0010289127 0.0010336214
000060 25 db bd bc d8 cf b4 3c 9b 31 00 bd b2 d8 1b 3d
       -0.023175785 0.022071764 -0.031297307 0.038048454
000070 18 b4 8a bd 13 9e 29 3d da 97 04 bd 3b 4a fe bb
       -0.067726314 0.041410517 -0.03237138 -0.007760314
000080 b7 a1 7c bd 03 ea a4 3c 30 aa 7f 3c 64 6c c5 3c
       -0.06167766 0.020131117 0.015604541 0.024099536
000090 92 eb 98 3c e5 a4 b5 3b 91 55 47 bc 0a 2c 75 3c
       0.018667016 0.0055433386 -0.012166397 0.014964113
0000a0 bb 43 8c 3c fd 99 14 bc 2d 06 7a bd c0 40 fa bc
       0.01712214 -0.009069917 -0.061041046 -0.030548453
0000b0 38 0a bf bc 7b f2 42 3d 49 f7 38 3d c2 ee 26 3d
       -0.023320302 0.04759453 0.045157705 0.04075504
0000c0 59 30 c4 b9 85 67 ab 3d 62 9a c0 39 05 41 84 3d
       -0.00037420055 0.08369354 0.00036736118 0.06457714
0000d0 ae 04 4a 3d 44 27 c5 3c 18 0c c6 39 5d 10 e9 bc
       0.04932087 0.024066575 0.00037774513 -0.028450185
0000e0 8c f6 43 bd 81 21 49 3d 96 4c e1 bc bd 52 0e 3d
       -0.047842547 0.049104217 -0.02750234 0.034746874
0000f0 02 20 8b bc f9 8b 2b bd 1b 42 05 3c 17 44 a5 bc
       -0.016983036 -0.041881535 0.008133437 -0.02017407
000100 8c f9 b4 3d 87 d4 d1 bc cc ac b2 bb 7e 8f d3 3c
       0.0883666 -0.025614036 -0.005452728 0.025825258
000110 f3 a8 b0 3c 12 17 4f bb 84 1b 0b 3d 82 4e a3 bc
       0.021564936 -0.0031599444 0.033961788 -0.019934896
000120 5a 9d 02 3d d0 23 6c 3c 54 99 09 3d 85 4c db 3c
       0.031888343 0.014412835 0.03359349 0.026769886
000130 c4 9f c9 bd 49 94 d6 3c bd df a9 3d 45 c6 c5 3c
       -0.09844926 0.026193755 0.08294628 0.024142394
000140 71 06 53 3d 7e 79 eb bc 9f 6f 24 3d 2a 4d 88 3c
       0.051519815 -0.028744455 0.040145513 0.016638357
000150 b8 7b 70 bc 4a 5c 0d 3d 4d 51 fb 3c a1 76 7b bd
       -0.014677934 0.03451184 0.030678416 -0.06139243
000160 29 f0 f3 ba a0 d3 dd bc 20 93 2c 3d be 42 42 bb
       -0.0018611002 -0.02707845 0.042132497 -0.0029641832
000170 6a 2d e9 bb 5d 43 97 3c 65 29 a9 bd c0 fc 49 3b
       -0.0071160095 0.018464739 -0.082598485 0.0030820817
000180 07 ec c4 3b 52 97 27 3c ca 76 2a bc 63 2c f3 bc
       0.006009582 0.010228949 -0.010404298 -0.029684251
000190 b8 79 fb bc 81 63 98 bc 45 37 5a bc d0 01 91 bc
       -0.030697688 -0.018602135 -0.013318841 -0.01770106
0001a0 4f 08 4d bc 9b 4f c3 bb db db 71 ba 2d 87 78 bb
       -0.012514188 -0.0059604174 -0.00092261814 -0.0037922368
0001b0 eb ea 86 3c 6d fb 22 bc 2e 06 22 3c b2 cb 03 3d
       0.01646944 -0.00994764 0.009889169 0.03217668
0001c0 46 f5 ab 3c 9d bd f4 3c 3a ab 90 3d cb f5 3d 3d
       0.020990979 0.02987557 0.07063909 0.046376985
0001d0 7a 91 62 3d fa 4c a8 bb dd 36 9f bd be 5e b5 3c
       0.05531452 -0.0051361294 -0.07774136 0.022139903
0001e0 f3 22 53 bc 5a 87 79 3c a2 47 af bc 09 c2 bd 3c
       -0.0128867505 0.015230024 -0.021396462 0.023163812
0001f0 b4 ef 52 3c 53 06 1d 3d 02 a3 05 3d fa ab d1 3c
       0.0128745325 0.03833611 0.03262616 0.0255947
000200 55 14 87 3b 1f 1e 9c 3b 40 83 a9 3c cc f0 b5 bc
       0.004122297 0.004764333 0.020692468 -0.022209547
000210 64 11 32 bd c1 6c 66 3d 8f 25 50 3d b7 f8 ce bc
       -0.043473616 0.05625606 0.05081707 -0.02526508
000220 19 d8 ce bd 8e 7a b8 3b 7b 6b 5e 3d 4f 25 9e bc
       -0.10099811 0.005629844 0.05430172 -0.0193049
000230 c2 e4 81 bc cf 17 69 3c 21 36 f5 3c 7f 91 cc bc
       -0.01585615 0.014226868 0.029933037 -0.024971722
000240 19 88 49 3d 75 12 f5 3b 35 a7 2a bd ee ce 93 bc
       0.04920206 0.007479007 -0.041663367 -0.018043008
000250 3a f4 92 3a c1 89 35 bd 25 58 8d bd 27 34 88 bc
       0.0011211701 -0.044320825 -0.06901578 -0.01662643
000260 54 b5 56 bc 8e 62 18 bd 17 62 af bd c4 ce 9a bd
       -0.013104755 -0.037203364 -0.08563631 -0.07558969
000270 d3 62 20 bc 14 01 9e bd 3f 07 88 bb 43 de 18 3d
       -0.0097891865 -0.077150494 -0.0041512544 0.03732134
000280 7d e2 56 bd fb b0 bc bd fa 56 fb 3c bd 28 b3 bc
       -0.05246209 -0.09213444 0.030681122 -0.021870011
000290 59 6c 9c bc f1 79 d6 3b fc 73 70 bc 43 a4 70 3d
       -0.019094633 0.0065452983 -0.01467609 0.058750402
0002a0 28 7b 88 3d 07 3b 12 bc 7d 62 42 3d fc 54 34 bc
       0.06664115 -0.008925206 0.047457207 -0.01100659
0002b0 13 e6 98 bd 81 e6 34 bd a9 5c 80 bd 09 29 b4 3d
       -0.07465758 -0.04416514 -0.062676735 0.08796889
0002c0 b5 49 b4 3c 31 6b 73 3c 3c 40 48 3d 43 48 82 bc
       0.022007803 0.014857099 0.048889384 -0.015903598
0002d0 ef 31 36 3a 2e bb 82 3d a5 44 68 bb 67 98 67 3d
       0.00069501897 0.06383358 -0.0035441306 0.056541827
0002e0 26 59 bf 3c 55 0d 81 ba 59 fe 9f bd 5d ed ba 3c
       0.023357939 -0.0009845892 -0.07812185 0.022818262
0002f0 be 83 c3 bc f0 ea 9d bd 8c 15 9a 3c 24 fd 3e bd
       -0.02386653 -0.077108264 0.018809102 -0.046628132
000300 91 fd 9e bd 61 af cd 3a 83 77 76 bc a8 36 0d bd
       -0.07763208 0.0015692526 -0.015043142 -0.034475952
000310 54 e0 28 bc b1 15 dd ba 74 b0 76 3c d2 f0 40 bc
       -0.01030739 -0.0016867426 0.015056718 -0.011776166
000320 40 be 88 bb e5 de 81 3d 6f b2 04 bd 21 55 fb 3c
       -0.00417307 0.06341342 -0.03239673 0.030680241
000330 4a de 21 3d 06 29 93 bd 97 98 f8 bc 16 95 2a 3c
       0.039518632 -0.07185559 -0.030346198 0.010411521
000340 5a 79 99 3b d7 51 5a 3d e0 4f 11 3d ad 6c 94 3d
       0.0046836557 0.053300705 0.035476565 0.07247291
000350 0f f6 c6 3c 28 17 da bb 60 81 04 3d 6f 62 24 3d
       0.024287252 -0.0066555925 0.032349944 0.040132936
000360 ed 2f 21 3d ce b1 74 bc 82 68 91 3c 67 5a 9f 3c
       0.039352346 -0.01493497 0.017750029 0.019452287
000370 ac e6 9e bc 6b 4a f3 bc 47 4e 4b bd 18 c6 7b 3c
       -0.019397102 -0.029698571 -0.049635198 0.015367053
000380 31 c1 1d 3d 85 bb 30 3d b0 c0 2f bd 54 86 a0 bb
       0.03851432 0.043147583 -0.04290837 -0.0048988257
000390 2d ff 48 bc dd 1e 0e bd b2 24 45 bd 34 99 ee bc
       -0.01226787 -0.034697402 -0.0481307 -0.029125787
0003a0 83 74 87 3a 23 ca 56 bc 41 ce 4f 3d df 78 30 bd
       0.0010334406 -0.013109717 0.05073381 -0.04308402
0003b0 f0 39 05 3c 7a a5 bc 3c 33 c8 8a bd 89 2d 11 bd
       0.008131489 0.023028124 -0.06776466 -0.035443816
0003c0 96 1c 99 3d 6b cd 7e bd 17 4e 1d bc 66 29 2d 3d
       0.074761555 -0.06220762 -0.009601138 0.04227581
0003d0 94 c6 a2 3c b3 d1 52 3b dd 52 2d 3d a1 7d 1b 3c
       0.01987008 0.0032168448 0.042315353 0.0094904015
0003e0 7f f7 b7 bb 92 c0 30 3d 79 1e ca 3c f6 b1 96 bd
       -0.0056142206 0.0431524 0.024672734 -0.07358162
0003f0 86 7f 8c bc e6 17 f0 bc 8a 8e 80 3c dc 43 43 3d
       -0.017150652 -0.02930827 0.015692968 0.047672138

baseModel.4.bias f4 [64]
000000 67 f2 17 38 41 72 02 b8 36 83 ed 37 cf 53 73 38
       3.622696e-05 -3.1100823e-05 2.8313701e-05 5.8013768e-05
000010 6a cb 1c b8 6f 00 21 37 1e d2 39 36 37 94 e9 36
       -3.7382742e-05 9.596449e-06 2.7689453e-06 6.9611956e-06
000020 3f bf 1a 37 26 94 62 37 cd 86 af b7 8c f0 52 37
       9.223643e-06 1.3505143e-05 -2.0924397e-05 1.2572982e-05
000030 93 32 4b 38 ca af 7a b7 39 ec 27 b7 78 a1 06 b6
       4.8446072e-05 -1.494209e-05 -1.0008976e-05 -2.0061543e-06
000040 5e f8 32 b8 34 00 09 38 bd 3d 76 37 cb c0 8c 38
       -4.2669817e-05 3.2663535e-05 1.4677117e-05 6.711631e-05
000050 1e f3 cf b7 41 89 ae 36 59 11 2e b8 77 f6 05 38
       -2.4789533e-05 5.2015826e-06 -4.150099e-05 3.193921e-05
000060 8d 5c 22 37 85 a9 53 b8 a1 7b 7a 38 c9 39 41 37
       9.677501e-06 -5.0464198e-05 5.9719783e-05 1.1517151e-05
000070 25 0c 75 b8 ff e7 c9 36 72 e9 ec 36 a4 ec 02 b7
       -5.8423862e-05 6.0172747e-06 7.0605247e-06 -7.803701e-06
000080 d8 5f 26 b7 f6 ad 15 b5 51 55 04 38 aa b8 0f b7
       -9.916686e-06 -5.575997e-07 3.155071e-05 -8.56646e-06
000090 2e eb bf b8 1c 7c 42 b7 97 6b 65 37 2e 2a 38 37
       -9.151395e-05 -1.1592198e-05 1.3674514e-05 1.0977075e-05
0000a0 01 92 85 37 5c 63 25 35 60 ae 3a b7 d5 64 28 37
       1.5922824e-05 6.1611877e-07 -1.1127064e-05 1.0037057e-05
0000b0 00 8b 55 37 9e 3e a6 b7 51 97 26 38 78 11 91 b8
       1.2728153e-05 -1.98179e-05 3.971841e-05 -6.9173926e-05
0000c0 6d 93 0a 38 27 a3 e7 37 74 75 51 b8 1a fa e9 b7
       3.3039065e-05 2.761332e-05 -4.993887e-05 -2.7892227e-05
0000d0 6b 51 bb b6 28 28 84 b6 e9 ca 16 b7 23 f3 ac 36
       -5.5825126e-06 -3.9385814e-06 -8.98794e-06 5.1543043e-06
0000e0 90 13 40 b7 5d ca 1b 38 36 cf 07 b8 7f 40 65 b7
       -1.1448647e-05 3.7143345e-05 -3.237949e-05 -1.366448e-05
0000f0 c2 05 bc b6 f8 a3 4a 37 13 fe d1 36 f3 86 ff 35
       -5.603507e-06 1.2078315e-05 6.2582635e-06 1.9038256e-06

baseModel.5.weight f4 [64]
000000 58 f5 44 3f 48 69 43 3f f1 23 43 3f e6 4b 52 3f
       0.76936865 0.7633252 0.7622672 0.8214706
000010 e0 9b 3e 3f c3 e3 39 3f a1 51 48 3f 50 db 41 3f
       0.74456596 0.7261316 0.78249556 0.7572527
000020 35 be 46 3f 9b f2 46 3f 5f 90 39 3f c2 48 42 3f
       0.7763398 0.77713937 0.7248592 0.7589227
000030 a1 3e 34 3f 6b 4b 38 3f 82 0e 44 3f a8 de 3f 3f
       0.70408064 0.7199008 0.7658464 0.7494912
000040 37 58 3b 3f 4d 4c 3e 3f d2 9c 33 3f 9e 6b 4c 3f
       0.7318148 0.74335176 0.70161164 0.7985171
000050 5a 48 4c 3f a8 d2 40 3f dc 3c 38 3f 3e 1e 49 3f
       0.797979 0.75321436 0.71967864 0.7856177
000060 dc dc 4f 3f 30 25 3f 3f dc c8 44 3f e9 c7 3a 3f
       0.8119638 0.7466612 0.7686899 0.7296129
000070 0e 39 36 3f ff e8 52 3f e3 93 3f 3f 05 82 4e 3f
       0.7118081 0.82386774 0.7483503 0.80667144
000080 e2 1d 3d 3f aa ff 42 3f ee ba 3d 3f 89 6f 42 3f
       0.7387372 0.7617136 0.7411336 0.7595144
000090 06 34 35 3f 10 de 37 3f b7 2c 43 3f f8 63 47 3f
       0.70782506 0.71823215 0.76240104 0.77886915
0000a0 85 0b 54 3f 6e 71 44 3f 12 4b 3e 3f 57 06 3d 3f
       0.8283008 0.7673558 0.743333 0.738378
0000b0 0a 83 2f 3f f9 21 26 3f 6c 21 42 3f da bf 48 3f
       0.68559325 0.6489559 0.7583225 0.7841774
0000c0 52 4c 4f 3f 72 e9 2f 3f 5c b5 43 3f bb 8c 37 3f
       0.8097583 0.68715584 0.7644861 0.7169911
0000d0 b0 76 4e 3f da 67 32 3f 29 79 3d 3f ab fc 57 3f
       0.8064985 0.69689715 0.74013 0.84369916
0000e0 36 1d 3b 3f e6 8c 34 3f cb 1f 4a 3f a6 eb 3e 3f
       0.7309145 0.70527494 0.7895476 0.7457832
0000f0 0f 58 55 3f 51 23 31 3f d8 62 42 3f 3a 14 36 3f
       0.8333749 0.69194514 0.75932074 0.71124613

baseModel.5.bias f4 [64]
000000 1a fb a4 bc 58 04 23 be da c9 b7 3c b9 0c c8 3c
       -0.020139266 -0.15919626 0.022435118 0.02442013
000010 1a ad c6 bd 6f de 52 bc 88 0f b5 bd a8 e7 00 bd
       -0.09700985 -0.012870415 -0.08840853 -0.031470925
000020 c9 33 1b 3c 77 de 1d be 10 e5 f7 3c 4e 06 7b bd
       0.009472796 -0.15416895 0.030260593 -0.06128531
000030 f6 8d 0e 3c cb cf 4f 3d 07 7e 47 bd 1a 5b 16 3c
       0.008700838 0.050735276 -0.048704173 0.009176994
000040 18 68 6a 3d 6b 5d ab 3b fc 3c b7 3c 16 8d 14 bc
       0.057228178 0.005229642 0.022367947 -0.009066841
000050 f7 5b 01 be 01 00 52 3d 93 36 2f bb 66 a9 b4 bc
       -0.12632738 0.051269535 -0.002673541 -0.022053432
000060 06 23 fe 3c a0 3e 9e 3d 68 0e 1d bd 84 bf 8e 3d
       0.03102256 0.077267885 -0.038343817 0.069701225
000070 c9 41 8c bd 9c 55 45 bc fd 74 4a 3d 9b 22 b4 bc
       -0.06848485 -0.012044337 0.049427975 -0.021989157
000080 5c 64 fb 3b 39 33 3e bc 83 df 73 bc 14 ad e4 3c
       0.007671876 -0.011608892 -0.014884832 0.027914561
000090 8b 0c 59 3d 61 11 8c 3c 72 2d dd bc 17 19 fe 3d
       0.052990478 0.01709813 -0.02699921 0.12407129
0000a0 57 c8 dd bd e2 e7 25 3d ad 53 6a bc 7c 27 a5 bc
       -0.108292274 0.040504344 -0.014302176 -0.02016043
0000b0 96 bd 8e b9 f3 7b 47 3c 9c 1e 3b bc 61 21 c0 3c
       -0.00027225603 0.012175548 -0.011420872 0.023453416
0000c0 96 00 12 bd c9 d2 ab bd cd d1 51 3a 42 ef 0e bd
       -0.03564509 -0.083898135 0.000800398 -0.034896143
0000d0 70 2e 0c be 84 2c 85 bc fc 42 cb 3c 1e ed 50 be
       -0.1368959 -0.016256578 0.024812214 -0.20402953
0000e0 9b 0d 0c bd 05 68 83 3b 04 b1 71 ba 18 ab c4 bd
       -0.034192663 0.004010203 -0.0009219798 -0.09602946
0000f0 51 40 74 bd 92 30 66 bd ba dd 57 bd 72 41 26 3c
       -0.05963165 -0.056198664 -0.05270169 0.010147439

baseModel.5.running_mean f4 [64]
000000 0e 4d f9 39 86 43 2a be cc a2 80 3e dd df 07 bc
       0.0004755039 -0.1662732 0.25124204 -0.008293119
000010 6b 39 ba bd f2 fd 26 3e 35 69 da bd d2 1b ce bd
       -0.09092983 0.1630781 -0.10664598 -0.100639
000020 ae 2d 82 3e 77 6d 37 3d fe 2b 15 3e 78 5e 33 bd
       0.25425476 0.04478213 0.14567563 -0.043791264
000030 24 21 ca bc b6 28 37 3d 0b 33 eb 3c 20 be 58 bd
       -0.024674006 0.04471656 0.028710863 -0.052915692
000040 35 5a fc bc 4b 32 bc 3e ae c3 b8 be b9 09 20 3d
       -0.030804733 0.3675712 -0.36086792 0.039071772
000050 99 a2 c9 bd af cb d2 3d 53 3a 9c 3e ca 15 69 3e
       -0.09845466 0.10292756 0.30513248 0.22762218
000060 c0 57 b3 bb 0b 99 b3 3c 2d 46 d8 3b 2a 93 d9 bd
       -0.005473107 0.021923563 0.0066001625 -0.106237724
000070 60 c9 05 3b 32 48 08 bc a2 75 97 be 33 d9 41 ba
       0.0020414218 -0.008317994 -0.29581934 -0.0007394731
000080 9b b2 9d bd 0f 54 5b bd 89 d2 ff 3d 31 c5 cc 3d
       -0.07700082 -0.05354696 0.12491328 0.09998549
000090 a4 46 80 be c2 86 c3 bd 3b aa 58 3c c2 0b ae be
       -0.25053895 -0.095471874 0.01322418 -0.33993345
0000a0 cb a6 39 bd 23 48 32 3d c2 71 1f 3c 20 f9 8f 3d
       -0.04532508 0.043525826 0.009731712 0.07029939
0000b0 aa c2 05 be ea e6 20 bc c8 23 17 bd 1c 01 24 be
       -0.1306254 -0.009820679 -0.036899358 -0.16016048
0000c0 66 78 28 3c 8e b6 fb bd 73 de 1b 3c c8 dd 55 3d
       0.0102826115 -0.12290679 0.009513485 0.05221346
0000d0 d4 b1 ea bd bb 56 7b 3c fd 0e 11 bd ea 75 fe bc
       -0.11459699 0.015340502 -0.035414685 -0.031062085
0000e0 db e3 4c bd ab c0 87 be 0b 4f 41 3e e3 a2 63 bd
       -0.050021987 -0.26514181 0.18877809 -0.055575263
0000f0 9b e6 b6 bd 9e 12 0a 3c 93 6c 81 bc 51 f1 85 bd
       -0.08930703 0.00842729 -0.015798843 -0.06540168

baseModel.5.running_var f4 [64]
000000 50 b7 46 3c c6 41 b5 3c 6a 31 eb 3c d4 69 39 3d
       0.012128666 0.02212609 0.028710086 0.04526694
000010 be 5e 17 3d 03 8c 27 3d 8a 34 13 3d d2 df 8d 3d
       0.036955588 0.04090501 0.035938777 0.06927456
000020 5f c2 3c 3d 9a 70 76 3c 8a 4b 0d 3d 20 5b d2 3d
       0.046083804 0.015041495 0.034495868 0.10271287
000030 a9 d9 00 3d 56 42 42 3d 9d 8f 98 3d cb 96 61 3d
       0.031457577 0.047426544 0.07449267 0.055075448
000040 df a8 8a 3d 4e 1f 0f 3d 94 44 b3 3c 12 8e df 3c
       0.06770491 0.034941964 0.021883287 0.027289424
000050 fb 56 c9 3c 80 c6 57 3d 5d 3d 17 3d d1 d0 29 3d
       0.024577608 0.05267954 0.036923755 0.04145891
000060 6d b5 df 3c 11 2d 08 3d 6b 7c 1c 3d b6 23 af 3d
       0.02730819 0.033246104 0.03820459 0.08551733
000070 56 3a 04 3d 21 32 f2 3d b0 bf 49 3d ea 89 78 3d
       0.032282196 0.118259676 0.049255073 0.0606784
000080 c0 f3 ed 3d 9a 1d 0a 3d a6 6b d4 3c 8a 10 d1 3c
       0.11618757 0.033719636 0.025930237 0.025520582
000090 55 1a 8f 3c 42 31 53 3d 31 01 c9 3d f8 7d 88 3d
       0.01746861 0.051560648 0.0981468 0.06664652
0000a0 7c bc 85 3d f6 8c aa 3d 57 f1 61 3d 33 60 40 3d
       0.06530091 0.083276674 0.0551618 0.046966743
0000b0 b4 f0 36 3d ac 4d 04 3d 8e 30 06 3d 54 b2 15 3d
       0.044663146 0.032300636 0.03276115 0.03654702
0000c0 ac 6f dd 3d 09 ad 55 3c e0 b2 6b 3d c2 5d 0e 3d
       0.10812315 0.013041743 0.057543635 0.034757383
0000d0 96 14 80 3d 08 6c 21 3d 6a c2 a1 3d 27 de cb 3c
       0.062539265 0.039409667 0.0789841 0.024886204
0000e0 e1 81 5d 3d 9f 82 5d 3d 71 55 55 3d c5 a5 c5 3c
       0.05407894 0.054079648 0.052083436 0.024126897
0000f0 90 0d c6 3d 18 3d dd 3c 77 32 38 3d f4 6e b2 3c
       0.096705556 0.02700667 0.044970002 0.021781422

baseModel.8.weight f4 [64, 64, 3]
000000 13 6f 15 3d d8 c0 01 bd 08 cc b2 bb df 45 38 bc
       0.03648288 -0.03167805 -0.0054564513 -0.011247127
000010 ea 52 14 bd 70 b8 50 bc 6d ec a8 bc c5 2a 47 3d
       -0.036211886 -0.012739286 -0.02062055 0.048624773
000020 0f 57 3b bd 0a 22 71 bd b4 b2 81 bc 93 48 e2 3c
       -0.045737322 -0.058870353 -0.015832283 0.027622497
000030 33 1f 6c 3c ca b2 0a 3d 6f b0 09 3b 60 93 f3 bc
       0.014411735 0.033861913 0.0021009704 -0.02973336
000040 91 1a 71 bd e8 45 59 bd 06 79 74 bd e9 94 c2 3c
       -0.058863226 -0.053045183 -0.05968573 0.023752647
000050 4d 49 71 bc 32 92 e5 3c 17 ca 96 3c ef 42 26 3d
       -0.014726949 0.028023813 0.01840691 0.040591177
000060 31 23 e1 bc b4 66 8c 3c 32 3b 6a 3d 17 d9 cd 3c
       -0.0274826 0.017138816 0.05718536 0.02512793
000070 88 70 d2 3c 9e af 85 3d d1 05 8c 3d 4d e4 8c 3c
       0.025688425 0.06527637 0.06837047 0.017198706
000080 c3 08 55 bd eb b0 98 3b 65 ba b5 bc 86 53 a5 b9
       -0.05201031 0.004659762 -0.022183606 -0.00031533482
000090 80 fd 24 3d f0 a9 0d 3c 7e 09 21 bd 66 36 a7 ba
       0.04028082 0.008646473 -0.039315693 -0.0012757301
0000a0 b4 f6 25 3c 66 49 ba 3c 9d 2c c6 bb 68 6e 2a bd
       0.010129619 0.022740077 -0.006047799 -0.041609198
0000b0 cf 9e 11 bd a4 6d f2 bc 80 fd a5 bd 86 28 ca bd
       -0.035551842 -0.029593296 -0.08104992 -0.098710105
0000c0 8b e1 7f 3c 73 3b 13 bd d2 30 17 3d fd 84 67 3c
       0.0156177385 -0.035945367 0.036911793 0.014130828
0000d0 62 97 0f 3d 86 60 1b 3d d4 5a 90 3d 57 31 4f 3c
       0.03505648 0.03793385 0.07048574 0.012646041
0000e0 8f 15 f6 bb 80 44 fb bc 29 b2 84 3d a5 69 a2 3d
       -0.007509894 -0.030672312 0.06479294 0.07930306
0000f0 a7 10 fd bc 77 62 c2 3c 7c 72 1b 3d 8a 00 b0 bb
       -0.03089173 0.023728592 0.037950978 -0.005371158
000100 8b a5 b3 3c 42 40 52 bc 52 83 a9 bc 2b bb e2 3c
       0.021929523 -0.012832703 -0.020692501 0.02767714
000110 a7 7e 79 bc 27 2d ec 3c f6 f8 97 3c 2c 2c 64 3c
       -0.01522795 0.028830124 0.018551331 0.013926547
000120 f2 1a 76 3d 3d e6 a3 bb 38 b4 4d 3c 85 43 d2 bc
       0.06008429 -0.005001812 0.0125551745 -0.025666961
000130 5f c4 16 3d b0 1f 34 bc b8 30 9b 3c 40 ee 2c 3d
       0.036808368 -0.010993883 0.01894413 0.0422194
000140 bf 93 91 bc d7 de 25 3b e4 59 95 3c 50 42 10 bd
       -0.017770646 0.0025309825 0.01823134 -0.03521949
000150 bd 08 20 bd 76 b2 bf 3b 5b 73 90 3d 9c 53 4d 3d
       -0.039070833 0.0058501316 0.07053252 0.050128564
000160 d9 6d 5f bd 00 0d b2 bc b2 a8 e8 3c c3 d5 03 bd
       -0.05454812 -0.021734715 0.028400753 -0.03218628
000170 e1 59 d1 3c b3 7e 78 3d 3e ad a7 3b 5d 65 33 3d
       0.025555553 0.060667705 0.0051170876 0.04379784
000180 91 df 81 3d a2 35 a9 3c 86 01 0f 3c ad 04 8b 3c
       0.0634147 0.020655457 0.008728391 0.016970003
000190 a9 f4 22 bd b7 fc 7f 3d 7d f1 b3 bc 6d e0 3d 3d
       -0.039784107 0.062496867 -0.021965737 0.046356607
0001a0 b4 4b 14 bd 2f ad f1 bc 0e 68 f2 bc 7b 11 5f bd
       -0.03620501 -0.029501526 -0.029590633 -0.05446003
0001b0 32 66 26 3d 47 1f 06 3d 55 8a e0 ba 1e a9 0b 3b
       0.040624805 0.032744672 -0.001713107 0.0021310518
0001c0 af b6 05 3c 9f 4f ab 3c 6a e8 d6 bc 61 7c 83 bd
       0.008161231 0.02091199 -0.02623387 -0.06420208
0001d0 c2 36 1b bd 1c d6 44 3d 52 99 39 3c 48 c3 5e bd
       -0.037894018 0.048055753 0.011328058 -0.054385453
0001e0 c3 09 22 3d 10 38 37 bc 85 85 24 3c ba e5 81 bc
       0.03956009 -0.0111828 0.010041599 -0.015856612
0001f0 68 fb 49 3c 38 82 89 bd 91 96 8f bd 49 d9 cf bd
       0.012328006 -0.067142904 -0.0701114 -0.10148866
000200 74 cf cc bd 13 6c 4d 3a f8 ef 44 3d 90 d1 84 3c
       -0.10000506 0.00078362337 0.048080415 0.016213208
000210 f2 b7 15 bd ef 84 b2 bc be 10 84 bd 0a dd a4 3c
       -0.036552377 -0.021791903 -0.06448506 0.02012493
000220 6c f4 2b bd 5d bf c6 bd 8b 7f 46 3d 86 e8 1c 3d
       -0.041981146 -0.097044684 0.04846148 0.03830769
000230 1b fd 0e bb 65 f8 85 bc f9 54 96 bc 32 b2 41 bb
       -0.0021818343 -0.016353795 -0.018351065 -0.0029555676
000240 59 44 80 bd 3f 44 06 bd 97 44 7e bd 35 2d 04 3d
       -0.06263036 -0.03277993 -0.06207713 0.032269675
000250 b8 30 37 bc 3a 22 86 3d 52 f2 6f bc 43 5c eb 3c
       -0.011181049 0.06549497 -0.014645176 0.028730517
000260 85 88 b1 3c 6a cf b1 bd f8 3c 59 bd c8 31 50 3b
       0.021671543 -0.08682139 -0.05303666 0.0031767953
000270 1a 25 c4 bb 99 31 8d bd 68 55 ca bc cf 0e a5 bc
       -0.005985868 -0.068942256 -0.024698928 -0.020148663
000280 44 78 fa 3a 69 f4 ac bc f9 df 52 bc ab 85 78 bc
       0.0019109328 -0.021112638 -0.012870782 -0.015168588
000290 4b f9 ae bd 11 84 73 3b 7a 6e 22 3d 4d 58 0c 3d
       -0.085436426 0.0037157575 0.03965614 0.034263898
0002a0 96 89 01 bd 34 49 7a 3d b7 e3 2e bd 61 86 80 3d
       -0.031625353 0.06110497 -0.042697635 0.06275631
0002b0 76 d7 d6 3c f3 a5 73 bb 21 3a 5e 3b ac a8 ca bc
       0.026225787 -0.003717777 0.003390916 -0.024738632
0002c0 64 cc 80 3b e3 18 7a 3d fc 22 f9 bc 46 52 41 3d
       0.0039306153 0.06105889 -0.03041219 0.047197603
0002d0 88 91 15 3d 0c 23 81 bd 31 0f ea bc 95 03 68 3d
       0.036515743 -0.06305513 -0.028571697 0.05664404
0002e0 6a 2f f6 3c 16 05 95 3d 76 f8 43 3c d6 e7 d3 bc
       0.030051906 0.07276361 0.011961093 -0.025867384
0002f0 b5 cb 52 3c 35 2d 00 3d 25 9a c7 3c f7 e7 11 3d
       0.01286595 0.031293113 0.024365494 0.03562161
000300 5d 80 47 bd 99 ac 05 bd ab f2 8b bd a4 d9 e0 3c
       -0.0487064 -0.032635305 -0.068333946 0.02744753
000310 92 24 f3 3c 39 78 3f bb 3c e9 ce 3c 4f d3 22 3d
       0.029680524 -0.0029215945 0.0252577 0.0397523
000320 2a 00 fa 3b d4 5e 9c 3b 8c 90 07 3d f7 c2 3a 3d
       0.007629414 0.0047720466 0.033096835 0.04559609
000330 4e 43 24 bd 2f 97 29 3d 4f 75 21 3c ff e2 6b bd
       -0.04010325 0.041403946 0.009854629 -0.057589527
000340 10 b8 8f 3c 40 29 65 bd c4 c6 83 3b 3a 0b d6 bb
       0.017543823 -0.055947542 0.0040214974 -0.0065321
000350 f3 78 9d 3c 0f 06 5b 3d 73 22 a9 3c a6 67 72 3d
       0.019222712 0.053472575 0.02064631 0.059180878
000360 36 c6 84 bc a4 1b 28 bc 99 63 08 bc bf 2a 3b 3d
       -0.016207796 -0.010260496 -0.008324527 0.045695063
000370 b3 70 e7 3c c7 9b fd bc 3f 02 c5 3c e3 c6 4a bc
       0.028251981 -0.03095807 0.024048923 -0.01237652
000380 28 74 04 3b 72 3d cb 3c 60 54 a4 bc 00 7b cd bd
       0.0020210836 0.024809573 -0.020059764 -0.10033226
000390 33 1f 62 3c fe 11 2c bc 74 09 97 bd 2c d5 de bc
       0.013801384 -0.010502337 -0.0737485 -0.027201258
0003a0 b0 b2 83 3d e3 d6 dc 3a fe 79 41 3c 1b 23 eb bc
       0.06430566 0.0016848709 0.01180887 -0.028703263
0003b0 52 7d 81 3d 62 0f be bc 4d 61 ee bc bb 36 15 3d
       0.06322731 -0.023200694 -0.029099131 0.03642915
0003c0 45 11 80 bd 68 fc 3f bd d7 22 78 3d ae 98 52 bd
       -0.06253294 -0.046871573 0.0605801 -0.051415138
0003d0 79 78 be ba 5b d7 96 bd 1e 27 42 3d f1 cb 76 bc
       -0.0014531753 -0.073652945 0.047400586 -0.015063272
0003e0 45 df c8 3c 25 30 22 3c fd de 70 3d 09 fd 90 bb
       0.024520526 0.009899174 0.05880641 -0.0044246954
0003f0 49 5c 23 bc 81 b5 b9 3c ee 49 f6 3b 0b f9 da bc
       -0.009970733 0.022669556 0.0075161373 -0.026730081

baseModel.8.bias f4 [64]
000000 dd 02 2d 37 ef 7e cf 36 ea e2 1e b7 2c 21 8e 37
       1.031227e-05 6.1838577e-06 -9.470366e-06 1.6943166e-05
000010 38 4a 9d 37 97 8d 10 b5 be 1e b3 b6 62 c1 30 37
       1.875042e-05 -5.385022e-07 -5.3381946e-06 1.0535443e-05
000020 7f 08 09 b8 f5 3b 0f 38 f1 ab 47 37 19 b2 2d b7
       -3.2671258e-05 3.4149696e-05 1.19013575e-05 -1.035307e-05
000030 8e 1e e1 b5 79 8e eb b6 1c 14 fc b6 c9 98 b2 37
       -1.6772699e-06 -7.0201318e-06 -7.5125263e-06 2.12904e-05
000040 a3 53 32 b7 5d 99 64 37 6f 70 7b b7 64 6b c8 36
       -1.06291e-05 1.3625567e-05 -1.4986944e-05 5.9729664e-06
000050 98 13 f9 36 d4 74 15 37 04 c3 dc b7 84 7d b9 37
       7.4230593e-06 8.908293e-06 -2.6316855e-05 2.2112166e-05
000060 a2 4e 08 b5 76 bc 9d 37 54 4f 81 b7 28 84 77 b7
       -5.0778374e-07 1.8803617e-05 -1.5414938e-05 -1.4753117e-05
000070 03 21 31 b7 3f 84 94 b7 f0 1e c3 b5 28 09 4f 37
       -1.0557708e-05 -1.7704557e-05 -1.4537636e-06 1.2340293e-05
000080 5c 24 1b b6 0b cd 4b 37 84 84 ca 37 84 da 4d 36
       -2.3117964e-06 1.2147483e-05 2.4141984e-05 3.0674573e-06
000090 c9 12 99 37 12 75 aa 37 ef 57 bc b6 5e 0f 02 37
       1.8247769e-05 2.0320094e-05 -5.6130734e-06 7.752182e-06
0000a0 95 4a b5 b6 f5 89 22 b7 57 33 8f 37 2e 1d 86 37
       -5.402903e-06 -9.688073e-06 1.7070835e-05 1.5987633e-05
0000b0 22 ac a5 b7 d4 32 b2 37 de a2 ca 35 9d 26 e0 37
       -1.9749688e-05 2.1242922e-05 1.5097573e-06 2.6720862e-05
0000c0 f0 14 34 37 a8 e0 ee 37 a3 13 1b 37 f0 a1 09 38
       1.0733711e-05 2.8476425e-05 9.243292e-06 3.281416e-05
0000d0 97 0d 2f 37 c6 9f e5 b7 1d c5 05 b7 aa 63 bf 37
       1.0433977e-05 -2.7373328e-05 -7.973312e-06 2.2815384e-05
0000e0 f2 68 fe 34 da fe e1 b6 15 fc 0b b6 89 7d cb b6
       4.7387545e-07 -6.735191e-06 -2.0859345e-06 -6.0644857e-06
0000f0 fe 22 a1 b6 3b eb 90 b6 1c a8 43 b4 7f de 49 b7
       -4.8022475e-06 -4.318919e-06 -1.8221948e-07 -1.20323375e-05

baseModel.9.weight f4 [64]
000000 f5 8f 54 3f 67 92 47 3f 7b af 21 3f d8 04 41 3f
       0.8303216 0.7795777 0.63158387 0.75398016
000010 7e fb 31 3f 04 e0 38 3f 87 93 5a 3f 44 9a 58 3f
       0.6952437 0.7221682 0.8538136 0.8461039
000020 fb 96 35 3f 8d 64 62 3f c1 63 3b 3f 1c f6 33 3f
       0.709335 0.8843468 0.7319909 0.7029741
000030 51 5b 32 3f 13 5c 33 3f 2e ea 48 3f 26 7a 24 3f
       0.6967059 0.7006237 0.7848233 0.64248884
000040 e9 32 43 3f 15 80 3d 3f 38 76 27 3f 36 9b 31 3f
       0.7624956 0.7402356 0.6541476 0.6937746
000050 8a d1 3b 3f ef b6 4c 3f 6e 08 42 3f d1 e2 3e 3f
       0.73366606 0.79966635 0.7579411 0.74564844
000060 88 c5 3a 3f 13 55 4f 3f f8 d5 30 3f 78 42 39 3f
       0.7295766 0.8098919 0.6907649 0.7236705
000070 0a 3a 30 3f 78 0f 2b 3f 69 6f 37 3f dd 9e 3c 3f
       0.6883856 0.6682048 0.71654373 0.73679906
000080 a2 02 30 3f a4 9c 41 3f e9 41 42 3f 23 93 52 3f
       0.6875402 0.7562964 0.7588182 0.8225576
000090 64 59 3f 3f 8d 35 3b 3f d2 d5 3e 3f 2d cf 47 3f
       0.74745774 0.73128587 0.74545014 0.780505
0000a0 01 74 2c 3f 90 4c 4b 3f 2a 7b 42 3f 78 df 45 3f
       0.6736451 0.794137 0.75969183 0.7729411
0000b0 37 ff 2e 3f 57 b5 41 3f 5b 34 40 3f 9a 14 49 3f
       0.68358177 0.7566733 0.7507989 0.7854706
0000c0 68 69 3e 3f 9c 54 45 3f 68 e3 2e 3f b5 c5 4b 3f
       0.7437959 0.7708223 0.68315744 0.7959855
0000d0 e3 8d 50 3f b3 81 4a 3f 80 6f 2c 3f fd 96 34 3f
       0.814665 0.79104155 0.67357635 0.7054289
0000e0 2e d3 33 3f 1d 90 35 3f 9f 25 38 3f a5 2a 47 3f
       0.7024411 0.70923024 0.71932405 0.77799445
0000f0 c1 25 54 3f 11 be 2a 3f e9 74 43 3f e3 d7 40 3f
       0.8287011 0.6669627 0.76350266 0.75329417

baseModel.9.bias f4 [64]
000000 af 78 f9 3a f8 ee 3b bd 20 7f 89 ba 54 28 db 3c
       0.0019033159 -0.045882195 -0.0010490157 0.026752628
000010 26 51 ef 3b 9f 1e 0b 3d e7 05 b9 bc 9f 4c 5c 3a
       0.007303375 0.03396475 -0.022585822 0.00084037514
000020 94 0f 50 bc 01 6e 45 bd 0b 5b 6e 3c e5 fa bc 3b
       -0.012699027 -0.04820061 0.0145480735 0.0057672136
000030 47 39 78 bc 75 73 7e bd 12 8f 08 bc a5 57 c2 3b
       -0.015150375 -0.062121827 -0.008334892 0.005930858
000040 71 3f cf 3c b9 be 87 bb 3a 83 2b 3d ea 56 4b bd
       0.025298806 -0.004142609 0.041873194 -0.049643435
000050 7f bf 4a 3c bb 18 22 bd e7 90 bc bb 36 82 d6 bc
       0.012374758 -0.039574366 -0.0057545784 -0.026185136
000060 88 6c 20 3b d7 ef bd bc 36 b8 e8 3c 5f 7f 17 bd
       0.0024478752 -0.023185654 0.028408151 -0.036986705
000070 b7 f7 8a bc 89 00 39 bc 2d 30 d7 3b 6b 03 d3 3b
       -0.016963823 -0.0112916315 0.0065670223 0.0064396164
000080 49 d0 00 bd 1f 2a f3 3c 4e c6 76 bd 1d ce 3a bd
       -0.031448636 0.02968317 -0.06024771 -0.04560672
000090 dc 43 12 bc 86 b6 bb 3c 2f 7d 17 ba bc e5 e8 bb
       -0.008927312 0.022914182 -0.00057788467 -0.0071074646
0000a0 a7 15 83 bc 75 bf ea bc 6a ba ac bc 5b b9 ff 3c
       -0.016001536 -0.028655747 -0.021084983 0.031216314
0000b0 d1 42 6c bc 14 e3 a6 3b 5f 0d 7e 3b 83 d5 d9 bb
       -0.014420227 0.005092988 0.0038765294 -0.006647767
0000c0 1c 2f 7e bb 80 bb 4c 3c d6 79 aa bc 94 a8 da bc
       -0.0038785404 0.012495875 -0.020810049 -0.026691712
0000d0 4d 4e 28 bc 0a 89 a5 bc 12 70 4d bd cb a3 d3 bb
       -0.010272575 -0.020206947 -0.050155707 -0.0064587346
0000e0 54 7a c6 3b a7 ce 74 3c 90 a9 26 bd 30 f8 c0 3d
       0.006057063 0.014941848 -0.04068905 0.09422338
0000f0 19 dc d5 3b 63 00 75 bc a1 5a 1c 3a 88 09 d9 3c
       0.006526482 -0.0149537055 0.00059644325 0.026493803

baseModel.9.running_mean f4 [64]
000000 74 44 fb bd 22 5a 0f bf e9 f7 98 3d ef 1b 29 be
       -0.12268916 -0.55996907 0.0746916 -0.16514562
000010 80 0c ec 3c 73 ea 09 be c4 cc 33 bd ef 99 ed be
       0.028814554 -0.13468342 -0.04389645 -0.46406505
000020 82 36 e5 be 6e 52 b7 be 1a 62 04 bd 9b ae 2b 3f
       -0.4476815 -0.35805076 -0.03232012 0.670633
000030 6b 9b a6 be 06 be d6 bd 50 29 30 be f0 fc bf be
       -0.3254045 -0.10485463 -0.1720326 -0.37497663
000040 6c 1c 7a 3e 9c b4 8e 3d 60 4e e9 be 83 5f a8 3e
       0.24424905 0.06968042 -0.45567608 0.3288537
000050 5d 9c a0 be f2 bf 66 3d 56 66 94 bb 87 8e 69 3d
       -0.31369296 0.056335397 -0.004528801 0.05702069
000060 1f 6b b7 3d b3 e8 90 3d 35 40 e3 3e 59 8a 7d 3e
       0.089559786 0.07075634 0.44384924 0.24759807
000070 70 62 a4 be 6c 9c e4 3d 35 e6 04 3f f3 f3 54 bd
       -0.32106352 0.111626476 0.5191377 -0.05199046
000080 ba ef 1d 3f 03 5c 11 be e6 f9 4d bf b5 6a 3f bd
       0.6169392 -0.14195256 -0.8045944 -0.046732623
000090 4a a3 ef 3e 81 27 cc bd 4b aa 23 3e b8 12 80 be
       0.46804267 -0.09968472 0.1598293 -0.2501428
0000a0 83 81 32 3d 4a 75 5f 3c a9 c4 42 3e ef 76 db be
       0.043580543 0.013638804 0.19020332 -0.42864177
0000b0 16 c7 58 be 08 36 f6 be 59 aa a6 3b 29 15 42 bd
       -0.21169695 -0.48088098 0.005086225 -0.04738346
0000c0 fb 7a 2b 3f 31 47 08 be aa 5c 48 3f bc 6e 8c 3e
       0.6698453 -0.13308407 0.78266394 0.27428234
0000d0 74 00 f8 bd 7d 6a a3 be 17 25 3e 3e 43 fc 5f 3d
       -0.121094614 -0.31917182 0.18568836 0.054683935
0000e0 77 dd 3c be 0d a2 cd 3e 0f 03 2b 3e 67 fd 5e 3f
       -0.18443857 0.40162697 0.16700386 0.8710541
0000f0 69 3a 20 3f d2 20 f7 3d 57 b7 8b be cf 8f 90 be
       0.62589127 0.12066807 -0.27288315 -0.28234717

baseModel.9.running_var f4 [64]
000000 1a 6d d7 3d 39 9b 67 3e cc bb 5e 3d 9f 95 f8 3d
       0.10518856 0.22617806 0.054378316 0.12137913
000010 49 a7 81 3d 5f 12 fc 3d 15 d1 b7 3d 34 99 d7 3d
       0.06330735 0.123081915 0.08975426 0.10527268
000020 2b 13 6b 3d f9 cd 41 3e ca db ae 3d a3 b0 8b 3d
       0.057391327 0.18926229 0.08538015 0.068208
000030 bf 41 b3 3d b7 4b b5 3d c2 95 49 3e 79 3f 9e 3d
       0.087527744 0.08852332 0.19686034 0.0772695
000040 9d e6 a8 3d 7c 7c b2 3d 69 57 65 3d 47 4f 9b 3d
       0.08247111 0.0871515 0.055991564 0.0758348
000050 b4 8e 51 3d 5d 53 1f 3e 63 00 97 3d 57 3b aa 3d
       0.051161483 0.15559144 0.07373121 0.083120994
000060 ee b1 c4 3d 13 14 1d 3e 12 ea 8b 3d ad 09 9c 3d
       0.0960425 0.15339689 0.06831755 0.07619033
000070 06 bd c5 3d 0c cc 95 3d 40 2f bd 3d 26 c1 a2 3d
       0.09655194 0.073143095 0.09237528 0.079469964
000080 7a cc b7 3d 1d eb b6 3d b2 d6 b0 3d ba 61 2b 3e
       0.08974548 0.08931563 0.086347 0.16736498
000090 a6 f7 9d 3d a0 6d 8b 3d 55 c6 d6 3d ba ef ff 3d
       0.07713251 0.06808019 0.104870476 0.12496896
0000a0 44 c8 01 3e 93 b1 cc 3d 87 73 9b 3d 40 98 e7 3d
       0.12674052 0.09994807 0.075903945 0.11308336
0000b0 5a 6a 66 3d f2 74 c5 3d 6a 3c ce 3d 86 23 d9 3d
       0.05625377 0.09641446 0.10070117 0.10602479
0000c0 a9 c6 0e 3e be 1a e1 3d cf 89 96 3d 4f c2 bc 3d
       0.1394297 0.10991429 0.07350504 0.09216749
0000d0 d1 e1 12 3e 44 40 01 3e 66 7c 65 3d 0d f3 88 3d
       0.14343955 0.12622172 0.05602684 0.06686983
0000e0 ea 21 b7 3d b9 40 e0 3d bb 61 6f 3d 1e 5c ba 3d
       0.089420155 0.10949845 0.058442812 0.09099601
0000f0 b7 23 1c 3d 84 cb 9a 3d 2d f3 e3 3d 79 93 2a 3e
       0.038119998 0.07558349 0.111303665 0.16657819
