Models/best_bl_0501.pth (torch, 495567 bytes, 42 tensors)

baseModel.0.weight f4 [64, 2, 3]
00000000: 2d09 9d3e 7fc5 023e e0ad 8ebe 3e8f 403e
00000010: abd3 7ebe 9724 42be a7b2 753e 6a42 9ebe
00000020: 63e3 243e 9d07 593c 7911 c63d 68d6 6bbd
00000030: b4fb ecbd 9e1c 1f3e 9492 ed3d 80ef 123e
00000040: 746d 5e3e 4ea7 c9bd b7bc cb3d d21a 38be
00000050: 0708 43be 206b 493e c627 453e 20ac 8fbd
00000060: 36f3 183d b00f ae3d 7975 933e 8347 643e
00000070: 7ea6 8d3e bb45 c83d da95 98be d0f3 553e
00000080: 5f27 9d3e b7ab 44be c223 843e 8510 bdbd
00000090: dd27 b9bd afe3 c5bb 3041 80bd a871 583e
000000a0: b2bc 16be abfd ca3d 1da0 e63d 6df5 7abb
000000b0: dd0c 4b3e c07a afbe a22f 583e f61b 623e
000000c0: 4d2a 9abe 187d 6ebe 18c8 a93c e46f 823e
000000d0: c0cd 85be f54f 86be e562 d53c 1ae8 a0be
000000e0: a66e 2e3e 6166 533e 5ebb 0dbd f604 92bc
000000f0: 4b3a cdbd 7cda 6e3e 474e 21be 6b44 dbbd
00000100: ac49 953e 6f40 00be 9e8b 073d 5d55 703c
00000110: dfa8 0e3e 3ce6 92be e756 98be 7150 073e
00000120: 2fdf 3ebe fb31 583e a2e8 6f3e b146 963e
00000130: f17e b7be 7f25 6ebe 1cb3 8fbe 72e2 903e
00000140: fcb3 8e3c c051 1a3e 6579 a3bd c7f6 3f3e
00000150: 8156 c7bd f702 843e 63d4 4ebe b5fb fabd
00000160: 9c4c 2a3e dc4f c23d 9ee5 19bc 6d99 bc3e
00000170: 860e 7c3e 680f d5bd c99b 903e 8d31 833e
00000180: 4ba1 8d3d 4f85 5a3e 3db1 b23e 26c2 b6bd
00000190: dff8 49bb ecf7 efbd 157c 993e da6d 9a3e
000001a0: 8646 aabd c00c 60be 87cd 6a3e 3932 af3e
000001b0: 4242 0a3e cbb0 5dbe 6dc3 57be 5765 0abe
000001c0: 3881 a8be dd80 323e 9e7d 96be 9ad0 09be
000001d0: 5bb4 573e 0519 95be ff8c 67bd d7cb 2f3e
000001e0: bdd5 0ebe bf81 0f3e 286c 473e 7fa5 353e
000001f0: 2939 583e fdd9 8bbe ace8 a43c 3c2c b23e
00000200: f139 9e3e 6634 873d 5a8c 78be 08c0 fe3d
00000210: e3d9 163e b98e 4fbd 638b 783e 9daa 33be
00000220: 378c bd3e 55ff b43e a418 6cbd 6158 91be
00000230: 5a4b d1be 4e68 e93d e5ae 4abd 6c18 9c3e
00000240: 94b2 29be e90d dfbb 9a56 d73c c58e 333d
00000250: b354 b33e b82a ab3e 80aa abbe 7da4 e0bc
00000260: 96fd af3e 7419 e2bd d05f 98bd 962c d1bd
00000270: 7d1b 483e 2fdd 723d 0fcd 9ebe 9e51 9b3d
00000280: 4546 bb3e 0b41 743d 2bfc 8f3e 4b67 3b3e
00000290: ad01 b9bc b869 59be 9152 1f3d 7715 dbbc
000002a0: 41bb ea3c 152c e2bd 8297 9cbe 2613 84be
000002b0: ac10 a83c 030c 61be 6180 34be a1b5 6abe
000002c0: 774f c1bc 610b e8bb 1921 8c3e 63fd 233e
000002d0: 6c0b 83be 1b45 8c3e 0a16 f43d 72c9 80be
000002e0: c17c 5abe e8e6 bfbc 948a 5dbe de91 df3d
000002f0: 56f7 b3bc d11a 7d3e 879f 96be 1310 22bd
00000300: 8b97 cd3c da5e 67be e01a 19be b49f c5bc
00000310: 387c 8d3d 74dc 33bd 371b 603d 540f 93bc
00000320: ff68 683d 2cfb 85be 5f4e ac3e 32e8 6bbe
00000330: f671 63be a46e cfbd 7d74 84bd 2ca3 a23e
00000340: 8b2a a83e a71b f9bd 82fb b7bd 115c 9fbe
00000350: fe6d 6f3d 0d30 5dbe e1f6 9f3d 1bed 7c3e
00000360: f3b9 9d3e 9ded b63e 156e 673e a0b3 5e3e
00000370: 93e6 103e 13e1 fc3d 0184 8e3c 5dd5 14be
00000380: 023c a43d 479e cd3d c983 a1be 8a65 563d
00000390: 612b 423e b33c 43be dca4 233e 6797 373e
000003a0: f930 5c3e bc64 953e 7e0c 48be d45c 313e
000003b0: 2be1 8fbe 4598 743e 9f58 c53d 3bda 9abe
000003c0: 455f 59be 624f 943e a152 973d 7b69 96be
000003d0: 45e6 82be e696 30be 8e09 de3d 29e5 83be
000003e0: e14f 6ebe bee2 70be f6a6 593e 4490 9f3e
000003f0: 1a22 47bd 0f22 debc e8a3 a2bc ad96 ab3d
0.30671063 0.12770651 -0.2786703 0.18804643 -0.24885432 -0.1895927 0.23993932 -0.30910045
0.16102366 0.013246444 0.096713014 -0.05757752 -0.11571446 0.1553826 0.11600223 0.14349174
0.2172144 -0.09846364 0.09948104 -0.17978981 -0.19046031 0.19669771 0.19253454 -0.07015252
0.03734132 0.08499086 0.28800562 0.22292905 0.27666086 0.09778925 -0.29801828 0.20893788
0.306941 -0.19206129 0.2580853 -0.092316665 -0.090408064 -0.006039105 -0.062624335 0.21137106
-0.14720419 0.099116646 0.11261008 -0.0038293258 0.19829126 -0.34273338 0.2111192 0.22080979
-0.30110398 -0.23289907 0.020725295 0.2547599 -0.26133537 -0.26232877 0.026048133 -0.3142708
0.17034397 0.20644523 -0.034602515 -0.017824631 -0.10020884 0.23325533 -0.15752517 -0.10706409
0.2915777 -0.1252458 0.033092134 0.01466879 0.13931607 -0.2869128 -0.297538 0.1321428
-0.18639825 0.21112816 0.23428586 0.29350808 -0.35839036 -0.23256491 -0.28066337 0.28297764
0.017419808 0.15070248 -0.079821385 0.18746482 -0.09733296 0.25783512 -0.20198207 -0.122550406
0.16630787 0.09487888 -0.009393124 0.36835805 0.24614915 -0.10403329 0.28243855 0.25623742
0.0691553 0.21339916 0.34900847 -0.089237496 -0.0030818505 -0.11717209 0.2997748 0.30161935
-0.083142325 -0.21879864 0.22929965 0.34218004 0.13501838 -0.21649472 -0.21070643 -0.1351522
-0.32911086 0.1743197 -0.29392713 -0.13458481 0.21064894 -0.2912065 -0.05653095 0.17167602
-0.13948722 0.14014338 0.19474852 0.17738913 0.21115555 -0.2731475 0.020130478 0.34799373
0.3090358 0.06601791 -0.2427229 0.12438971 0.14731555 -0.05067322 0.24271922 -0.17545553
0.37021038 0.35351053 -0.057640687 -0.2838774 -0.408778 0.11396848 -0.0494832 0.30487382
-0.16572028 -0.006807078 0.026286412 0.043837328 0.35025558 0.3343103 -0.3352852 -0.027422184
0.34373158 -0.11040011 -0.0744015 -0.10213582 0.19541736 0.05929297 -0.31015822 0.075839266
0.3657705 0.059632342 0.28122076 0.18301122 -0.022583807 -0.21231735 0.0388971 -0.026743634
0.028653743 -0.11043564 -0.3058434 -0.2579586 0.020515762 -0.21977238 -0.17627098 -0.22920848
-0.023597462 -0.0070814346 0.27369002 0.16014628 -0.25594652 0.27396473 0.11918266 -0.2515369
-0.21336652 -0.023425534 -0.21634895 0.10916494 -0.021968525 0.24717261 -0.29418585 -0.03956611
0.025096675 -0.22594777 -0.14951658 -0.024124004 0.069084585 -0.043911412 0.054713454 -0.017951645
0.056740757 -0.2616819 0.33653542 -0.23037794 -0.22211441 -0.10128525 -0.06467531 0.31765115
0.32844958 -0.121634774 -0.08983518 -0.3112493 0.058454506 -0.21600361 0.0781076 0.24699824
0.3080593 0.3572816 0.22600587 0.21748209 0.14150457 0.12347617 0.017396929 -0.14534517
0.08019258 0.10039955 -0.31545857 0.05234293 0.1896186 -0.19066124 0.15980858 0.17928849
0.21503057 0.29178417 -0.19536015 0.17320567 -0.28101477 0.23886211 0.09636044 -0.30244622
-0.21227749 0.28966814 0.07388807 -0.2937735 -0.25566307 -0.17245063 0.10841666 -0.25760773
-0.23272659 -0.23523995 0.21255097 0.31164753 -0.048616506 -0.02711585 -0.019853547 0.083783485

baseModel.0.bias f4 [64]
00000000: a50e a53a 4fc9 1d3a 9a63 00ba 024d 0f3a
00000010: f611 a43a 9592 4539 4a24 c039 949c 433a
00000020: 5790 31b9 385c 02ba 017c f139 a99b 35b9
00000030: b6a5 e739 a82f aa39 927b 053a 73c6 8239
00000040: e7f0 8bb9 3c3c 2838 ec96 de39 7f56 1b3a
00000050: 3bec 94b9 143b bfb8 a6f0 f6b7 706a 13ba
00000060: e32b c3b8 d17d c738 71dd c0b7 bb96 3cb8
00000070: 901e 033a 5a50 8f3a 8e1c 27ba 947c 8fb9
00000080: 756e 123a a561 9ab9 2538 2939 a72a c0b9
00000090: ca19 8a39 0124 53ba 55d9 f3b7 b7a6 6339
000000a0: 3bb4 9d38 bd3f 0039 e056 123a bd3a c838
000000b0: 95da 8839 1266 9639 b311 303a bafd b639
000000c0: 4aa5 68b9 dc99 c838 dba5 e6b9 5761 71b9
000000d0: b0bc 9ab9 2250 e2b9 9355 a039 13c3 94b9
000000e0: 247a 48b8 e7d0 cab8 f94c 8939 4d5b 8bb8
000000f0: 22ac bab9 97e6 c8b7 0d34 d6b9 fbd5 8ab9
0.0012592865 0.0006019072 -0.0004897654 0.0005466492 0.001251756 0.0001884199 0.0003664813 0.00074619916
-0.00016933806 -0.0004972848 0.00046059492 -0.00017319493 0.00044183218 0.00032460433 0.0005091961 0.00024943388
-0.00026691632 4.011042e-05 0.00042455585 0.00059256697 -0.00028404765 -9.118594e-05 -2.9437546e-05 -0.00056234654
-9.306499e-05 9.5124946e-05 -2.29913e-05 -4.496307e-05 0.00050018076 0.0010933981 -0.00063747994 -0.00027367903
0.00055859174 -0.0002944592 0.00016138011 -0.00036652872 0.00026340625 -0.0008054376 -2.906906e-05 0.00021710513
7.519914e-05 0.00012230776 0.00055824034 9.547684e-05 0.00026102798 0.00028686278 0.00067165046 0.00034902786
-0.00022186819 9.565402e-05 -0.0004399259 -0.00023019813 -0.00029513752 -0.00043165783 0.00030581336 -0.000283741
-4.7797468e-05 -9.671022e-05 0.00026188025 -6.6450426e-05 -0.00035604934 -2.3949235e-05 -0.00040856042 -0.0002648084

baseModel.1.weight f4 [64]
00000000: 3e19 473f f10b 523f 48ef 483f 7c3e 633f
00000010: bb17 513f 9f3a 3e3f de4c 3b3f 9816 3f3f
00000020: d55b 5a3f 3326 423f 2f34 443f b1c4 433f
00000030: 53fc 3a3f 2026 3a3f e34e 373f a62a 5f3f
00000040: ae17 583f a36f 613f 6f7b 4c3f 0d62 4d3f
00000050: 3c3d 4c3f 342f 543f b17b 483f abeb 513f
00000060: 13b0 5b3f 4d23 4e3f 3b7e 4d3f 7848 463f
00000070: b0dc 3b3f 739d 5b3f 54ab 503f ac19 393f
00000080: 6d3e 533f 6767 4a3f 196d 553f 88e9 4d3f
00000090: 3103 643f 9191 3d3f 662a 453f fcf7 463f
000000a0: 6c4d 533f c716 453f 3d67 593f 4fd2 693f
000000b0: 0e9f 503f ae80 4e3f f9f0 2f3f a6b6 5e3f
000000c0: 4c21 483f 4a3a 3d3f 55b7 383f 6c5b 5a3f
000000d0: d296 5e3f 3b1b 4c3f 869f 363f 57f8 413f
000000e0: f214 673f eb13 423f d908 6b3f 3eca 4d3f
000000f0: 63f5 6a3f 0004 4c3f e54f 433f 8a58 5d3f
0.7777289 0.8204947 0.78490114 0.8876722 0.81676835 0.743082 0.73164165 0.7464385
0.85296375 0.7583954 0.76642126 0.76472 0.73041266 0.72714424 0.71604747 0.8717445
0.8441113 0.8806097 0.79875845 0.8022774 0.79780936 0.82884526 0.7831374 0.82000226
0.8581554 0.80522615 0.8027074 0.7745433 0.7338362 0.85787123 0.81511426 0.723048
0.8251713 0.7906403 0.83369595 0.80434465 0.8906737 0.7405024 0.7701782 0.77722144
0.8254001 0.7698788 0.84923154 0.9133653 0.814927 0.806651 0.6872707 0.8699745
0.78175807 0.7391707 0.7215474 0.8529575 0.86948884 0.7972905 0.71337163 0.7576956
0.90266335 0.7581164 0.91810375 0.8038672 0.9178068 0.79693604 0.76293784 0.86463225

baseModel.1.bias f4 [64]
00000000: 1c60 46bd a412 ef3c 3619 9bbd 2ee7 53bd
00000010: f5d4 3fbd 4bea 9abd 240a 20bb de22 58bd
00000020: ad82 e3bd 67fa 64bd 72dd edbc f483 98bd
00000030: 08c6 b33c cb9e 353b 075f 23bd 374e 373c
00000040: 2ae5 91bc 4403 bcbd 139d aabd c639 2ebd
00000050: ac82 37bd 1b6a 5f3c f67f 5cbd e09b 91bb
00000060: cb7d f8bc ca16 15bd d973 9bbd f1df 8b3c
00000070: 6222 cfbd 7663 afbc 7197 a1bc f9f5 8fbd
00000080: bb96 19bd 3642 403d f6ca a2bd b4bd c7bd
00000090: bd02 0ebd aed1 50bd ce57 81bd 1253 05bd
000000a0: dd7c 72bd f01c 1bbd 911b ba3c ac89 52bd
000000b0: 2d87 41bd 8f49 ecbc 3b1b 27bc de64 64bc
000000c0: e627 45bd ff92 613c aa79 68bd 7956 90bd
000000d0: 5a5b 95bd 64ad 91bd 8c61 88bd 9f59 09be
000000e0: d3c3 81bc d545 47bd 36ac 44bc 12fd ec3a
000000f0: 1cf2 c7bd fcb3 d03c f6e3 22bd 5cc8 80bd
-0.0484315 0.029183693 -0.07573168 -0.051734142 -0.04683395 -0.07564219 -0.0024420107 -0.052767627
-0.11108909 -0.055902865 -0.029036257 -0.07447043 0.021945015 0.0027713056 -0.039885547 0.0111880815
-0.01780947 -0.0918031 -0.08330741 -0.042535566 -0.044802353 0.013636137 -0.05383297 -0.0044436306
-0.03033342 -0.036398686 -0.075904556 0.017074557 -0.1011398 -0.021409731 -0.019725533 -0.070293374
-0.037497263 0.046938144 -0.07948868 -0.0975298 -0.03467058 -0.050981216 -0.063155755 -0.032549925
-0.05920111 -0.037869394 0.022718223 -0.051400825 -0.047248054 -0.02884367 -0.010199363 -0.013940064
-0.048133753 0.013767957 -0.056756653 -0.07047743 -0.072928146 -0.0711315 -0.066592306 -0.13413094
-0.015840447 -0.04865058 -0.012003949 0.0018080792 -0.097629756 0.025476448 -0.03976818 -0.062882155

baseModel.1.running_mean f4 [64]
00000000: 22e8 ac3a d986 c039 b68e 60b9 4b1a f339
00000010: 1d18 9a3a 59cd c2b8 d579 7339 4018 503a
00000020: 7f41 4db9 7417 11ba 06eb b439 c273 1bb9
00000030: 6c50 c339 fe18 9039 7499 f439 060e 4a38
00000040: 9f52 c5b9 2362 eb37 e9be 033a 49d6 2a3a
00000050: b6db 95b9 d0f0 8a38 e7fa 94b7 ed61 3dba
00000060: c719 37b8 fa49 ee38 b2ca b5b9 b419 92b7
00000070: aaa0 f439 8d6a 8e3a 1da4 4fba d2c2 3437
00000080: b667 f239 b9ee 88b9 5b29 3639 aab3 b0b9
00000090: 48a8 4839 9d49 3fba 4b80 a3b8 ddd2 7139
000000a0: fc88 1139 2624 4b39 1754 d239 149e 07b9
000000b0: 156d 0c39 fcdf 96b8 869c 263a dd55 d339
000000c0: 4176 80b8 ba51 d4b8 bada 03ba 538d 83b9
000000d0: 886e 8fb9 110b 67b9 82a1 2439 1b65 0538
000000e0: 4922 4e39 26a0 65b9 6438 4239 9888 3938
000000f0: 7601 9bb9 27dc d5b8 c933 eab8 da4e e0b8
0.001319174 0.00036721563 -0.00021415469 0.00046368162 0.0011756454 -9.28889e-05 0.00023219672 0.0007938184
-0.00019574723 -0.0005534806 0.00034507381 -0.00014825075 0.00037253217 0.0002748444 0.00046653638 4.8173613e-05
-0.00037636326 2.8059882e-05 0.0005025701 0.00065169163 -0.00028583192 6.6252076e-05 -1.775981e-05 -0.000722437
-4.3654607e-05 0.000113625036 -0.0003467403 -1.7416525e-05 0.0004665901 0.0010865495 -0.0007920878 1.0774196e-05
0.00046235108 -0.00026117804 0.00017372279 -0.00033703196 0.00019136176 -0.0007297041 -7.796342e-05 0.00023062104
0.00013879308 0.00019373055 0.00040116973 -0.00012933492 0.00013392077 -7.194278e-05 0.0006355721 0.0004030903
-6.125542e-05 -0.000101241705 -0.0005029846 -0.00025091562 -0.00027357438 -0.00022033999 0.00015700425 3.1803833e-05
0.00019658463 -0.00021898802 0.00018522289 4.423465e-05 -0.00029564992 -0.00010197638 -0.00011167635 -0.000106958396

baseModel.1.running_var f4 [64]
00000000: 0d58 3f37 35e5 7036 682f a636 eaf7 eb36
00000010: baa0 4d37 17de 2937 325d 0f36 52a3 1237
00000020: 9453 7637 532f 9536 4f5f 8336 c4a6 1937
00000030: 09cc 6c37 9ba2 b736 5ea6 8336 d71e 8f37
00000040: 1af7 2b37 4dca 9237 c977 2437 aed6 2437
00000050: 2e2b 0137 95de 5f37 9928 8137 bb00 9137
00000060: 5eb4 6b37 62a7 2037 51e0 4137 5823 f136
00000070: 6af4 1a37 c7cf 2137 5e74 2f37 f822 ae36
00000080: f65f 7c36 6666 9436 d8a1 6237 00fe 0b37
00000090: 3942 b237 f76e 6736 3a86 3f37 72c3 1137
000000a0: 5f3d 7437 4d41 5e37 28cc 1837 c87b c237
000000b0: 8434 2837 b4d0 e636 ef32 5036 6c43 7f37
000000c0: c84c 2837 3fb9 a336 5e34 0536 007b 2b37
000000d0: d374 6337 e139 8d37 4c52 9a36 1bf4 f136
000000e0: df3b 9f37 05e0 f836 65b1 4937 39fe 0f37
000000f0: 6381 9b37 6338 4337 dbf2 0637 e0c3 4137
1.1404988e-05 3.5896203e-06 4.9527043e-06 7.0324068e-06 1.2256374e-05 1.0124894e-05 2.1362907e-06 8.740304e-06
1.4682202e-05 4.4460553e-06 3.9151996e-06 9.158339e-06 1.4114202e-05 5.4727548e-06 3.923472e-06 1.706129e-05
1.0249927e-05 1.749876e-05 9.803051e-06 9.825146e-06 7.699053e-06 1.334366e-05 1.5396903e-05 1.7285687e-05
1.40490865e-05 9.575715e-06 1.1555924e-05 7.1864742e-06 9.236022e-06 9.644725e-06 1.0457907e-05 5.189675e-06
3.7606783e-06 4.4226645e-06 1.3508332e-05 8.344185e-06 2.125009e-05 3.4486272e-06 1.1415739e-05 8.688179e-06
1.4557822e-05 1.3247435e-05 9.10744e-06 2.3184242e-05 1.0025808e-05 6.8788304e-06 3.1024063e-06 1.5214882e-05
1.0031457e-05 4.879344e-06 1.9849026e-06 1.0221032e-05 1.3557455e-05 1.6835462e-05 4.5991383e-06 7.2107773e-06
1.8982157e-05 7.4170553e-06 1.20218365e-05 8.582655e-06 1.853769e-05 1.1636034e-05 8.043567e-06 1.1549302e-05

baseModel.4.weight f4 [64, 64, 3]
00000000: a4aa 01bd eae1 84bd 7c88 eabc 8895 41bd
00000010: ea75 8bbc 69f3 f7bc eb81 1abd a07d cebc
00000020: a2a5 03bc 5edc dbbb 77e6 9f3d a61a 9fbd
00000030: 44de 8fbd fe43 92bc f0a6 efbc 55b5 bcbc
00000040: 8016 393c abc2 b03c 5de4 413d cabb 93bc
00000050: 12ea 7dbd f015 5fbd 04ac c83a 5d80 18bc
00000060: 5ad3 47bc dea9 cd3c 984b c5bc 4fa4 5e3d
00000070: fb61 7fbd 11e4 6a3d 7931 60bd e6f5 42bc
00000080: 92cd 8ebd 2fb6 3e3d 1fd4 0d3c ad72 153d
00000090: 7bba 323b f8c8 e6bb ae0a 7fbb 72f0 2f3c
000000a0: dae1 d43b b493 54bc a3d6 7dbd d9cc 15bd
000000b0: 0626 b0bc 91b3 093d c004 753d bda5 f23c
000000c0: ff32 b6bb 315e b53d eb5d 06bd 56fa 633d
000000d0: 5b87 3d3d 8d46 f53c ce26 d0bb 213f aabc
000000e0: 6637 37bd ee7c 763d 5c18 1ebd 5767 a93c
000000f0: b6ca 84bd 6113 48bd 3bc1 033d 1a40 97bc
00000100: ede9 a93d 1f90 55bd c2d4 7cbc c5be cb3c
00000110: 0f30 533d c64d 89bc a869 593d cc24 4e3a
00000120: 4a44 e53c 5e31 f23c f98d 4c3d 9183 123d
00000130: 73d1 afbd 57fc ec3c 381d a33d 76c2 623c
00000140: 762b 80b8 3cb3 bdbc 0a12 053d cef5 6f3c
00000150: 7583 c6bc 290d b43c edb0 873c 77e3 6abd
00000160: 6bf1 18bc 28a7 73bc 6a5c fd3c 1828 8f3b
00000170: 0d58 c3bb cb83 e93c 08a4 8dbd 8049 663b
00000180: dbe3 b1bc cfa4 b23c 1f0d c9bc 97cb 11bd
00000190: 7e81 53bd c62b 05bd e9ad 323b 308f ccbc
000001a0: 4e9b 103c 430a b9bc 1b92 f9bc 95f5 21bd
000001b0: 4532 d03c 361d 80bc 82c7 19bc f7e9 063d
000001c0: 268a 173d a1b6 213d 7a1e 673d dfcb 5c3d
000001d0: 36b9 3b3d 30d9 b9ba 28bf 71bd 4fa1 ed3b
000001e0: 9f71 e7bb f037 083c 1aad ebbc 272e 0e3d
000001f0: 3c4f af3c 1550 373d e584 eb3c 222f 123d
00000200: dc6d 403c 3e53 2437 9178 3d3c 7026 34bc
00000210: b3ad 47bd 869b 863d 1ca4 313d f7b9 b93b
00000220: c321 6abd 0a1c 8f3c 0a1a 5d3d 9bd0 03bd
00000230: 9a47 20bd ba4a 393c 8adf e43c 0296 4dbd
00000240: 5efd 0c3d fb93 b3bb ceca 41bd 45ce a7bb
00000250: 7f67 243d b979 4ebd b637 adbd 11c2 dcbb
00000260: 9748 babc 7c63 6abd c646 93bd b10c 4ebd
00000270: 5bf3 14bd a03e 72bd e111 75bc 052d db3c
00000280: ed36 51bd fe71 9abd 1e72 643c 003c aebc
00000290: 4cf0 35bd a4bd 57bc 974c 48bc 31b8 863d
000002a0: 8ccc 663d ee28 37bc 1be5 733d af58 933c
000002b0: 3682 32bd c591 76bd d432 26bd 812c 9a3d
000002c0: bd09 c33c e0ee 6bbc ee64 cc3c 06e5 64bc
000002d0: 2b0f 173b 2d74 2b3d cb3a 363a 7edb 383d
000002e0: 6812 cd38 8361 463c 8def 57bd 6297 033c
000002f0: 8b16 c5bc ec95 15bd 5b6f 9fbb 702a 01bd
00000300: 201d a0bd f7db 573c 716d ebbc beeb 32bd
00000310: 5415 5abc b9b9 ac3b 754d 3d3c d3df ae3b
00000320: 0c64 433a e280 843d 2850 00bd 5d21 233d
00000330: 6820 363d c350 8ebd a999 05bd f157 173c
00000340: 2c05 1abb ddec 213d f6f8 073d fe8f 7e3d
00000350: 929e 9c3c e7d8 21bc 4021 9a3c a33e 053d
00000360: 2d78 203d bf88 ffbb fb04 b53c 8bb5 a83c
00000370: 7f50 f9bc ce53 d9bc a8ef 5cbd 8f82 ac3c
00000380: 7b67 483d b53e fb3c 491f 3bbd adbd 863c
00000390: 6750 e2bb acd9 dcbc 9cc0 29bd c9b0 08bd
000003a0: 0109 eeba 1795 f5bb e17b 2f3d 4682 01bd
000003b0: 9083 7f38 699e 5c3c 90ed 28bd 4fe4 f6bc
000003c0: 59fa 883d c4da 54bd d040 b5bb a8fa 333d
000003d0: cc8c 0c3d 46e6 64bb 76e3 293d d433 803c
000003e0: 0947 df3b dc30 353d 6994 573c e82d abbd
000003f0: 957b bcbc ddfb 07bd 7b51 623c 1c90 313d
-0.031656876 -0.06488402 -0.028629534 -0.047261745 -0.017024 -0.030267434 -0.037721556 -0.025206387
-0.008035095 -0.0067096194 0.078076296 -0.07768755 -0.07024816 -0.017854687 -0.029254407 -0.023035685
0.011296868 0.0215772 0.047336925 -0.01803388 -0.061990805 -0.05446428 0.0015310054 -0.009307948
-0.012196386 0.025105413 -0.024083897 0.054355916 -0.0623493 0.057346407 -0.05473468 -0.011899447
-0.06972803 0.046560463 0.008656531 0.036486316 0.0027271796 -0.0070430003 -0.0038916278 0.010738479
0.00649665 -0.012974668 -0.06197227 -0.03657231 -0.021502506 0.033618513 0.059818983 0.029620046
-0.0055602784 0.08855856 -0.03280441 0.05565866 0.046271663 0.029940868 -0.006352282 -0.020782055
-0.044730566 0.060177736 -0.03859745 0.02067916 -0.064839765 -0.048846606 0.0321667 -0.018463183
0.08296571 -0.052139398 -0.015431585 0.02487124 0.051559504 -0.016760718 0.053079277 0.00078637595
0.027986664 0.029564556 0.049940083 0.035770003 -0.08584871 0.028928919 0.079645574 0.013840308
-6.111611e-05 -0.023156755 0.032487907 0.014646007 -0.024232605 0.021978932 0.016563857 -0.057345834
-0.009334902 -0.014871396 0.030927856 0.004368793 -0.005961424 0.028505227 -0.06916052 0.0035139024
-0.021715095 0.021807102 -0.02454239 -0.03559455 -0.051637165 -0.03251245 0.0027264303 -0.02497062
0.00882609 -0.022587901 -0.030465176 -0.039540846 0.025414595 -0.015638929 -0.009385945 0.03293797
0.036996983 0.03948081 0.05642555 0.053905364 0.045830928 -0.0014179107 -0.05902019 0.0072518955
-0.0070631052 0.008314118 -0.028769065 0.034711983 0.021400087 0.044754107 0.028749892 0.03568948
0.0117449425 9.794543e-06 0.01156439 -0.010995492 -0.048749637 0.065726325 0.043369398 0.0056679207
-0.057161104 0.017469425 0.05397991 -0.032181364 -0.039130785 0.01130932 0.027938623 -0.050191887
0.034421317 -0.005480287 -0.04731255 -0.005121025 0.040137764 -0.050409053 -0.08457892 -0.0067370017
-0.022739692 -0.057223782 -0.07191233 -0.050305072 -0.036364894 -0.059141755 -0.014957876 0.026754865
-0.051077772 -0.075412735 0.013943223 -0.021268845 -0.044418618 -0.013167772 -0.012225292 0.065781005
0.056347415 -0.011179192 0.059544664 0.017986624 -0.04358121 -0.06019761 -0.040575817 0.0752802
0.023808355 -0.014400214 0.02495047 -0.013970619 0.0023049812 0.04185884 0.000695151 0.0451312
9.77859e-05 0.01210821 -0.052718688 0.008031698 -0.0240586 -0.03651993 -0.0048655695 -0.031534612
-0.07818055 0.013175002 -0.02873871 -0.043681853 -0.013310749 0.0052711633 0.011554112 0.0053367405
0.0007453568 0.06469895 -0.031326443 0.03982674 0.0444645 -0.06948998 -0.032617245 0.009237275
-0.0023501618 0.03953253 0.033196412 0.06214904 0.019118581 -0.009878374 0.018814683 0.03253044
0.03917711 -0.007798284 0.022097101 0.020594379 -0.030433891 -0.026529219 -0.05393949 0.021058349
0.04892681 0.03066955 -0.045684133 0.016447866 -0.0069065574 -0.026959263 -0.041443452 -0.03337172
-0.0018160642 -0.0074945795 0.04284275 -0.03161838 6.0919265e-05 0.013465502 -0.041242182 -0.030138163
0.06688375 -0.051966444 -0.005531408 0.043940216 0.034313962 -0.0034927293 0.04147669 0.015649714
0.006813888 0.04423605 0.013157942 -0.08358365 -0.023008147 -0.03319918 0.013813372 0.043350324

baseModel.4.bias f4 [64]
00000000: 2a1b 2cb7 8262 2e38 5a44 03b7 11f0 07b8
00000010: 7a6c e9b7 95d1 2ab7 81c7 c038 5eba df36
00000020: fceb 0cb7 9ee6 4db8 1a0f 4137 78c9 9737
00000030: 10e4 a2b7 1cc1 86b7 e1c8 0cb8 a317 8f37
00000040: e762 3c37 1a1a b437 d88d 15b8 40bf 18b8
00000050: b16f 18b8 316e aeb7 14af 3a37 7534 ab37
00000060: 5f10 1137 6984 f937 5d1d b636 deef fc37
00000070: 6795 17b8 c155 d237 743e 81b7 28a5 ddb6
00000080: aa16 1137 b9fc b037 1b34 0a37 5bd3 af37
00000090: 0494 7437 e092 3937 7619 ed36 958a b0b5
000000a0: c867 cd37 7091 5035 5255 9534 2f01 1a37
000000b0: 6bc4 7b35 b6a3 49b7 328f f6b7 af75 b635
000000c0: 87b5 28b8 b080 bc38 3407 ba36 955f 5c36
000000d0: 0881 1eb8 1bea 59b7 8908 5c37 3858 9938
000000e0: ed60 0138 89e8 0bb7 785b 1a36 92d4 2437
000000f0: e4fa 65b7 e26b 0437 4e50 70b7 8f0e dab6
-1.02583235e-05 4.1576575e-05 -7.824123e-06 -3.2410087e-05 -2.7826278e-05 -1.0181587e-05 9.192434e-05 6.667614e-06
-8.399595e-06 -4.9090588e-05 1.1507213e-05 1.8094419e-05 -1.9418105e-05 -1.6063968e-05 -3.3565684e-05 1.7057935e-05
1.1228701e-05 2.1469827e-05 -3.565647e-05 -3.641774e-05 -3.6343645e-05 -2.0793728e-05 1.11272275e-05 2.0409216e-05
8.646485e-06 2.9744771e-05 5.427441e-06 3.0152438e-05 -3.6140347e-05 2.5073883e-05 -1.540708e-05 -6.60554e-06
8.64795e-06 2.1098518e-05 8.237573e-06 2.0960046e-05 1.4577996e-05 1.1061056e-05 7.0661144e-06 -1.3153355e-06
2.4486231e-05 7.769768e-07 2.7815491e-07 9.179391e-06 9.379061e-07 -1.20186505e-05 -2.9392166e-05 1.3594307e-06
-4.022338e-05 8.9885085e-05 5.5440705e-06 3.283819e-06 -3.7790305e-05 -1.2988715e-05 1.3115009e-05 7.3120405e-05
3.0846266e-05 -8.339187e-06 2.300103e-06 9.824655e-06 -1.3707879e-05 7.8929315e-06 -1.4323812e-05 -6.498601e-06

baseModel.5.weight f4 [64]
00000000: 8d6e 423f f26d 463f 6ae9 4b3f 3afc 5d3f
00000010: 934b 4c3f 4466 423f dec3 523f f553 483f
00000020: 4b95 503f 18f8 4e3f a539 453f 75a8 483f
00000030: 4d06 413f ff75 3d3f b269 4f3f 6187 473f
00000040: ed64 443f 11d9 473f 8ff1 3e3f 4784 523f
00000050: 2bbc 4f3f ec0f 453f f6af 3e3f 12fc 4e3f
00000060: fe23 513f 5267 423f 5401 4f3f 7e1d 3d3f
00000070: 527b 3f3f 0233 5e3f 8eed 463f 0289 563f
00000080: 2371 433f 986d 4a3f 2054 413f c89e 4b3f
00000090: 72fd 3c3f 553e 3e3f f0c3 4d3f 9e40 523f
000000a0: b32f 5a3f a352 4b3f e786 453f 5b42 453f
000000b0: 2693 3c3f c419 343f 75d0 453f 0046 553f
000000c0: b06d 593f 955f 353f 7455 4c3f 4529 3c3f
000000d0: 6303 563f af88 343f ca02 423f d8bc 5c3f
000000e0: 9a05 423f 9ece 3c3f b8d1 523f 1f3d 493f
000000f0: 32e0 563f e4f4 343f 78fa 453f 5c44 413f
0.7594994 0.77511513 0.79653037 0.8671299 0.7980282 0.75937295 0.8233012 0.7825311
0.81477803 0.8084731 0.77041084 0.78382045 0.7540024 0.7400817 0.81020653 0.77940947
0.767165 0.7806559 0.7458734 0.8223309 0.81146497 0.7697742 0.74487245 0.8085338
0.81695545 0.75938904 0.808614 0.73873127 0.74797547 0.8679658 0.7770623 0.8380281
0.7634451 0.79073477 0.7551899 0.79539156 0.73824227 0.7431386 0.803771 0.8212985
0.85229033 0.7942297 0.7715897 0.77054375 0.7366203 0.70351815 0.77271205 0.83309937
0.84932995 0.7084897 0.7981789 0.7350047 0.8359892 0.7052106 0.75785506 0.8622565
0.757898 0.7375277 0.82351255 0.7860889 0.83935845 0.70686173 0.7733531 0.75494933

baseModel.5.bias f4 [64]
00000000: 933f ebbc 528f d5bd d017 d73c bc54 273d
00000010: 9966 05bd 521e a835 9b81 d8bd c497 83bc
00000020: b14c 283c 58a3 debd 4777 353c d597 81bd
00000030: f358 0d3d 40cf e43c 520c 48bc fedd c6bc
00000040: 3f60 eb3c 8bce 8cba 2920 2e3c 8fcc 613c
00000050: 09e8 cabd c524 293d a408 02bb 6976 a0bc
00000060: 6dbc 313b 9586 e93c 6c10 3abb 6161 4e3d
00000070: e0fe 3ebd a6e0 4ebd d05c 0c3d 67ae 43bc
00000080: 30c1 b8bc 8a8c 6bbc 4700 14bc 07b4 01bc
00000090: fb87 c53d 3412 8c3d c5b9 1eba c08a df3d
000000a0: f54b b9bd a02d ab3d d6a4 cebc d6cd 2cbc
000000b0: 84ac 703c f410 2fbd 622f 80bc 052a 013d
000000c0: 2d86 87bc a9a4 10be 0601 c83b 2623 943a
000000d0: a791 fabd fac7 64bd 0694 e83c f70b 5abe
000000e0: 8b3e babc 7079 acbc 7868 133d 7f3a 71bd
000000f0: 1edd 47bd 47ca ebbc 717e 74bd dfdf a73b
-0.028716838 -0.10427727 0.026256472 0.040852293 -0.032568548 1.25258e-06 -0.10571595 -0.016063578
0.010272191 -0.10870999 0.011075801 -0.06327788 0.034508657 0.027930856 -0.012209969 -0.024275776
0.028732417 -0.0010742707 0.010627785 0.013781681 -0.099075384 0.04129483 -0.0019841576 -0.019587712
0.0027120367 0.028506557 -0.0028391136 0.050385837 -0.046629786 -0.05050721 0.0342682 -0.011943436
-0.022553056 -0.014376769 -0.009033269 -0.007916457 0.09645077 0.068394095 -0.00060549035 0.10915136
-0.09047691 0.08358312 -0.025225084 -0.010547122 0.014689568 -0.042740777 -0.015647594 0.031534214
-0.016543472 -0.14125313 0.0061036376 0.0011301979 -0.12234812 -0.055854775 0.028390896 -0.21293627
-0.022734901 -0.021054 0.0359883 -0.058893677 -0.04879486 -0.028782977 -0.059690896 0.005123123

baseModel.5.running_mean f4 [64]
00000000: 8152 c1bd 61d9 2abe 2c8b 983e ffb8 103c
00000010: 34fa cebd c6b9 413e 3f52 c2bd a6f7 d8bd
00000020: 307a a33e 75e2 b43d bbd2 333e a952 04bd
00000030: 0fd7 013d a2f0 253e 9971 473d 8b57 22bd
00000040: c8bd b6bd ea65 d23e 5d23 d7be 9bc1 07bd
00000050: 87b2 dfbd cc31 3f3e 55e7 903e a6fb 863e
00000060: 1ca3 3ebb c87b 8f3d e1e4 e03b 02cb 3dbe
00000070: af27 593d eab5 9cbc e249 88be 11dd e4bc
00000080: db19 4fbe 8b83 d8bd 10d3 e33d 0ea3 013e
00000090: c6e6 8cbe 8a1e ddbd 1f79 77bc 9680 cfbe
000000a0: 77c0 78bd 1a85 003b 6fe9 2cbd 9737 213e
000000b0: 5f03 0fbe c703 e0bc 2d99 9fbd e069 17be
000000c0: b4e8 0dbc 2073 c9bd 8205 8d3c 288f 2abd
000000d0: 7bd6 0bbe 513b 14bd 8216 543c 96b7 62bd
000000e0: 1cba 923c b9d7 6cbe 6c1c 303e 096f 75bd
000000f0: 5413 9ebd 2870 79bc 12aa 71bc 8356 1abd
-0.094395645 -0.16684486 0.2979368 0.008833169 -0.10106316 0.18918523 -0.094883434 -0.1059411
0.3192916 0.08832256 0.17560856 -0.032305393 0.031699236 0.16205075 0.04869232 -0.03963427
-0.08922917 0.4109338 -0.42019168 -0.03314362 -0.10922723 0.1867134 0.28301492 0.26363868
-0.002908892 0.07006031 0.006863222 -0.18534473 0.05301636 -0.019129712 -0.26618868 -0.027937444
-0.20224707 -0.10571965 0.11124241 0.12659857 -0.27519816 -0.107968405 -0.015104561 -0.4052779
-0.060730424 0.0019610585 -0.042214807 0.15743862 -0.1396613 -0.027345551 -0.07792888 -0.14786482
-0.008661438 -0.098364115 0.01721454 -0.04164043 -0.13656037 -0.03618938 0.012944819 -0.055350862
0.01791101 -0.23129167 0.17198342 -0.059920345 -0.0771853 -0.015224494 -0.014750021 -0.03768016

baseModel.5.running_var f4 [64]
00000000: 840e b43c 4b3e 9f3c 2b54 323d 0ea1 643d
00000010: e3a5 b53d 5478 5d3d 2e6b 283d 4d4b ab3d
00000020: e9e3 563d 99f2 c53c 159d 143d c400 e73d
00000030: 39d9 0a3d f1a3 683d 1df7 983d e13d 8a3d
00000040: d2bd a53d a1ff 183d 095b e93c bf74 e33c
00000050: ed2c 1b3d c43f 983d 65c9 4a3d aab6 283d
00000060: 4fa6 f23c 4151 1a3d 6b8a 3f3d 0a7c cf3d
00000070: b50a 1f3d 9149 2e3e 37a2 743d 962a 763d
00000080: cb33 013e 13a8 153d 7cdb f33c ba5b 073d
00000090: 9bb4 b13c 30d5 813d 830e 193e 1fa8 8e3d
000000a0: 0fc6 c93d d50c cb3d ad2c 763d 0127 4e3d
000000b0: fff7 403d 2824 1a3d 0fc4 fa3c 7a48 1f3d
000000c0: 09a3 033e 6de0 4f3c f445 723d 8c36 263d
000000d0: 8191 9c3d 1213 0a3d 605b bb3d 7863 e83c
000000e0: 3055 823d bb5f 853d d0bb 503d cba9 db3c
000000f0: 2530 bc3d 6463 093d 2c5d 7f3d 0ef6 2a3d
0.021979578 0.019438883 0.0435373 0.055817656 0.08869531 0.054069832 0.04111784 0.08363972
0.052463446 0.024163531 0.036282618 0.11279443 0.033898566 0.05679697 0.07469008 0.06750084
0.08092846 0.03735316 0.028485792 0.02776563 0.03788464 0.07434037 0.04950847 0.041189827
0.029620318 0.037675146 0.046762865 0.101310804 0.03882857 0.17020251 0.059725013 0.060099207
0.12617414 0.03653724 0.029767744 0.03304646 0.021692565 0.063394904 0.14946942 0.0696566
0.0985223 0.09914557 0.0601012 0.050330166 0.047111508 0.037632138 0.030611066 0.03888748
0.12855162 0.012687785 0.059148744 0.040579364 0.0764494 0.033709593 0.09148288 0.028367743
0.063639045 0.065124 0.050960362 0.026814362 0.0918887 0.033542052 0.062344715 0.041738562

baseModel.8.weight f4 [64, 64, 3]
00000000: abd3 293d c85c c1bb e138 debc ccb6 77bc
00000010: e14a 80bc d035 b93b de11 cfbc f908 243d
00000020: f216 30bd 509e 62bd 5379 4abc 4df6 a03c
00000030: 217d b93c bd54 ef3c 518b fa3c f952 eebc
00000040: 8d2d 92bd 8312 9cbd 16de 3abd b140 323d
00000050: 6aa4 7039 06f9 0e3d ed2b 0d38 e460 363d
00000060: 5110 3bbd 9649 ac3c 58fd 583d 7812 e73c
00000070: 243f 013d 7c13 863d c882 953d 7516 033c
00000080: aac5 37bd d4b2 07bc c947 2bbd 8012 c7ba
00000090: b297 af3c 07db 2bbc fbaa 2abd 3f57 5b3c
000000a0: b065 4bbb f52e 443c 1f59 b9bc 88f1 53bd
000000b0: df68 79bd 03b8 3abd 5a31 bebd 85eb d6bd
000000c0: 3e7f 3d3b 2889 35bd 8b2b b33c 456a 423c
000000d0: b3e8 f43c 4904 293d 0cb0 3c3d 20c8 923c
000000e0: bea1 1dbc 107c 03bd 2258 763d be7d 9c3d
000000f0: dbca dcbc 5d30 fa3b 50ac 673d 7a05 82bc
00000100: c4ba bc3c 0f53 a8ba 7163 74bc 4051 eb3c
00000110: c08d b9bc 0a4d fd3c d5ac ad3c 2ed0 c13c
00000120: 8b61 093d b2c7 82bc 8797 493c f1e1 38bd
00000130: 4b7f 673d 756f 0d3b d02f 923c 1f62 083d
00000140: 7bdc e9bc efa1 86bb 6da4 c83c 59b2 d3bc
00000150: eea8 4bbd 94c5 9f3b ac64 403d 1f3b 4d3d
00000160: 4c11 53bd 7154 17bd 63e0 ab3c 7a30 e4bc
00000170: aa66 443c a0bb 743d b89b e43b c1de 003d
00000180: f1a5 ed3c 0564 8fb9 a210 c03c 7355 643b
00000190: f40b 36bd b231 4e3d 9115 c1bb 1ec0 793d
000001a0: c109 c4bc b50b 9ebc c4b9 62bd b203 8abd
000001b0: 4f26 213d a4f8 513d c081 d4bb fe8b c93c
000001c0: 6745 643c b5d6 0c3d 8a53 abbc ee67 0cbd
000001d0: 17b0 9fbc f561 2c3d 5c77 12bb 6bc9 84bd
000001e0: f79d 523d 9555 abbb 0b02 dfbb dfae e6bc
000001f0: 656b fe3c f554 8dbd 3d8c 59bd 53b3 d2bd
00000200: a1b4 dcbd eeae 2e3a 85c7 473d 4350 cb3c
00000210: 7a4e c9bc 73a1 ecbc a115 9dbd 3d32 bf3c
00000220: 50a2 39bd 9fac 8dbd 5a8b 463d a8fd 443d
00000230: 40a2 83bb e61b d0bc 5abc 76bc 5281 3fbc
00000240: 981d 83bd a5df f4bc 10f6 61bd 3315 b23c
00000250: 91c2 dbbb aef2 2d3d a04d c1bc 4ddb 4d3d
00000260: e610 f23c 391b 8fbd 9e12 42bd e82d cc3c
00000270: 0380 123b c5e8 6fbd 1600 c5bc 647d 15bd
00000280: bf27 1d3b ae8e bcbc 54df 7cbc c06f 20bc
00000290: 44cf a1bd 97f3 5d3c 5ce9 793c b1b3 133d
000002a0: 9440 0cbd f3e8 493d d9a8 e9bc 7316 0e3d
000002b0: b4b4 703c 93c4 eb3a 09c2 ccbb ada4 27bd
000002c0: 126e b53c 3f6d 433d 5c53 24bd 2494 5e3d
000002d0: db1b 0f3d 85f9 b8bd 13e1 45bd 4cfc 093d
000002e0: 64bf ea3c 5e0a 863d 034d 133c 0c77 5abc
000002f0: 860a 9d3c c65f cc3c 2b44 c03c e373 583d
00000300: 573f 33bd 6e25 e7bc fc0f 3cbd 199a 053c
00000310: d8e6 6a3c eb3b 8cbc dbdb fd3c ef14 313d
00000320: 59ed 983c 8b94 da3c c43c ec3c 289e ec3c
00000330: 5c1e c6bc 3c79 0b3d 547b 8f3c ebd3 6cbd
00000340: e50c 0b3d 1355 83bd 85c5 d53c 66f3 c1ba
00000350: e38d 023d d0cb 0a3d d20b a13c d795 b23d
00000360: e7c9 7fbc 1108 d9bb f0d2 9abc 75f9 093d
00000370: 018c 973c 4556 94bc 70aa 653c 1b45 bdbc
00000380: d54e 7fbc 0cec cb3c 606b 8abc 98f5 cebd
00000390: ede7 7a3c ace0 adbc b0db a0bd f4b1 41bd
000003a0: 89ac 2d3d 29f1 20bb 22d9 493c b8a8 44bd
000003b0: 2e02 273d 32ae 08bd 4038 f8bc 12d6 023d
000003c0: 7d9d 8cbd ffea 86bd 47a3 0f3d 65d4 48bd
000003d0: 1c35 dbbc 8cd6 59bd 6811 873c 33c3 68bb
000003e0: 1f2f bd3c f91b 4d3b 390f 4a3d 95a4 4bbb
000003f0: 4bd2 bdbc c3ba e53c 3750 8bbb 6a6b 1ebd
0.041461628 -0.005900953 -0.027126731 -0.015119266 -0.015660705 0.005652167 -0.025277074 0.04004762
-0.042990632 -0.05532676 -0.0123580275 0.019648695 0.022642674 0.029215211 0.03058401 -0.029092299
-0.07137594 -0.07620718 -0.045621954 0.043518726 0.00022949433 0.034905456 3.365793e-05 0.044525996
-0.045669857 0.021031182 0.052975982 0.028207049 0.031554356 0.06546685 0.07300335 0.00800096
-0.04486624 -0.008282382 -0.041816507 -0.0015188009 0.021434639 -0.010489232 -0.041666966 0.0133875
-0.0031035952 0.011974086 -0.022625504 -0.051744014 -0.06089103 -0.045585644 -0.09286757 -0.104941405
0.0028914954 -0.044320256 0.021871349 0.011866157 0.029896116 0.041263852 0.04606633 0.017917693
-0.009621082 -0.032100737 0.060142644 0.07641171 -0.026952198 0.00763516 0.056560814 -0.015871752
0.023038276 -0.0012842136 -0.014916287 0.028725266 -0.0226506 0.030920524 0.021200577 0.023658838
0.03354029 -0.015964363 0.012304193 -0.04513735 0.05651788 0.0021581326 0.017845064 0.0332967
-0.028547516 -0.0041086595 0.024492467 -0.025841879 -0.04972165 0.004875848 0.04697101 0.05010521
-0.051530167 -0.036945764 0.02098102 -0.027855147 0.011987368 0.059749246 0.006976571 0.031462435
0.029009791 -0.00027349606 0.023445431 0.003484097 -0.044444993 0.050340362 -0.0058924635 0.060974233
-0.023930432 -0.019292692 -0.05535294 -0.06738986 0.039343175 0.051262513 -0.006485194 0.024602886
0.013932562 0.034384448 -0.020913858 -0.034278803 -0.019493146 0.042085607 -0.0022348976 -0.0648373
0.05142018 -0.005228708 -0.0068056635 -0.028159557 0.03105707 -0.0690097 -0.053112257 -0.1028811
-0.1077664 0.000666364 0.04877426 0.024818545 -0.024573553 -0.028885579 -0.07670141 0.023339385
-0.04532081 -0.069176905 0.04847274 0.048093468 -0.0040171444 -0.025403928 -0.015059555 -0.011688547
-0.06402129 -0.029891798 -0.055166304 0.021738624 -0.0067065437 0.042467766 -0.023596585 0.05025797
0.029549073 -0.06987614 -0.047381036 0.024924234 0.0022354133 -0.058571596 -0.024047893 -0.036496535
0.002397999 -0.023017254 -0.015434105 -0.009792268 -0.07900861 0.013546846 0.015253391 0.03606004
-0.034241274 0.049294423 -0.028522896 0.034689378 0.0146915205 0.0017987661 -0.0062487167 -0.04092853
0.022147212 0.047711607 -0.04011856 0.054340497 0.034938674 -0.09031967 -0.04831035 0.033687875
0.028655715 0.06544946 0.008990529 -0.013334047 0.019170057 0.024948012 0.023470005 0.052844893
-0.043761577 -0.02821609 -0.04591368 0.0081544155 0.014337264 -0.017118415 0.030988624 0.043232854
0.018667864 0.026682159 0.028837569 0.028884009 -0.024184398 0.034051165 0.017514862 -0.05781929
0.033947844 -0.06412711 0.026095161 -0.001479727 0.031873595 0.033885777 0.019658957 0.08719986
-0.015612102 -0.006623276 -0.018899411 0.033685166 0.018499376 -0.018107543 0.014017686 -0.023104241
-0.01558276 0.02489283 -0.016896904 -0.10105437 0.0153140845 -0.021225296 -0.07854402 -0.04728885
0.04240087 -0.0024557805 0.012319835 -0.048012465 0.040773563 -0.03336925 -0.03030026 0.031942435
-0.06865976 -0.06587791 0.035067823 -0.04903068 -0.026758723 -0.053183123 0.016487792 -0.0035516738
0.023093758 0.003129719 0.049330924 -0.003107344 -0.023171565 0.028043156 -0.0042515057 -0.038676657

baseModel.8.bias f4 [64]
00000000: 48e8 bdb7 5954 1936 c875 38b6 d9cb c4b7
00000010: b58f 55b6 5c0d c036 52fb ad36 656d 8f37
00000020: b661 6ab7 3924 0d37 9f10 d036 c463 4736
00000030: a914 04b7 be08 4337 99f0 7c36 2702 0d37
00000040: 0bfa f0b3 fb69 f5b4 1f34 5a36 b636 1036
00000050: 89a2 25b7 035a 23b7 18a1 de36 f4e6 b936
00000060: 6f90 86b6 6b52 2237 65e5 45b4 1245 ca37
00000070: ae98 5437 d6b8 83b6 d3a5 4db5 662c 3d37
00000080: 2d7d af37 83c2 4f37 9c7d c437 ce8e 80b7
00000090: 813b 77b7 0840 8c37 476b 33b6 3225 6637
000000a0: c99a 1c37 8ac4 0ab8 9e12 76b7 d070 d736
000000b0: f5e4 32b7 73e8 7937 0963 82b7 f13c 2eb7
000000c0: 4da5 dc36 a196 ecb6 64f4 ac36 0b40 e536
000000d0: 61a4 f236 a328 c6b7 1d9b 72b7 7bb5 8ab7
000000e0: 67a6 1837 d93e de35 2790 01b7 513f 21b6
000000f0: 6b67 9637 608d b537 b592 fdb5 010f f235
-2.263872e-05 2.2847873e-06 -2.7486694e-06 -2.3459945e-05 -3.1823122e-06 5.723601e-06 5.1850593e-06 1.709787e-05
-1.3970237e-05 8.412689e-06 6.200818e-06 2.9711382e-06 -7.872623e-06 1.1624941e-05 3.7690972e-06 8.404756e-06
-1.12213534e-07 -4.5711917e-07 3.251487e-06 2.1489518e-06 -9.87261e-06 -9.736515e-06 6.6348694e-06 5.540316e-06
-4.0103255e-06 9.675142e-06 -1.8430508e-07 2.411244e-05 1.2671733e-05 -3.925622e-06 -7.6609757e-07 1.1275615e-05
2.0919915e-05 1.238345e-05 2.3423512e-05 -1.5325288e-05 -1.4736202e-05 1.6719117e-05 -2.6735522e-06 1.37177285e-05
9.334363e-06 -3.3084805e-05 -1.4667077e-05 6.4206324e-06 -1.0662935e-05 1.4895678e-05 -1.5543324e-05 -1.0385397e-05
6.5757545e-06 -7.0508836e-06 5.1544503e-06 6.8321874e-06 7.2312982e-06 -2.3622362e-05 -1.4460439e-05 -1.653539e-05
9.09865e-06 1.655858e-06 -7.722562e-06 -2.4027725e-06 1.7929551e-05 2.1642714e-05 -1.8892666e-06 1.8034772e-06

baseModel.9.weight f4 [64]
00000000: fb0b 5c3f 633b 4d3f ae9d 283f 953a 463f
00000010: 1d69 393f 576c 433f 0d4f 613f f607 5d3f
00000020: eb30 3e3f 813a 673f 37ea 443f 7037 423f
00000030: 14c0 3e3f 35fd 373f 022b 4f3f 9c08 2b3f
00000040: d4e0 4c3f 839f 4a3f 9254 383f 807c 3a3f
00000050: 5873 463f 1995 513f 8c08 493f 49b1 473f
00000060: eeda 443f a203 5a3f 208c 363f fdff 3d3f
00000070: 70fa 383f 416d 2f3f bde5 3d3f ad31 453f
00000080: fe71 3a3f 7708 493f dfe9 513f 2fd6 563f
00000090: 365a 4a3f 0899 413f 6173 4a3f 3242 4f3f
000000a0: ee78 343f 18af 503f 51d2 4a3f ef16 4b3f
000000b0: 09ab 363f cc4e 473f 5847 463f 9a84 4d3f
000000c0: 3316 493f 3694 483f 82e9 343f 9d5e 473f
000000d0: 74af 593f 2c40 533f 42d9 2c3f ae05 3c3f
000000e0: 3e52 3c3f 42ed 403f 1fef 3e3f d05e 543f
000000f0: 9e9a 543f 19cf 303f 11a8 4c3f 89aa 453f
0.8595578 0.8016874 0.658656 0.7743314 0.72426015 0.7633719 0.88011247 0.8634027
0.7429339 0.90323645 0.76919883 0.7586584 0.7451184 0.7187074 0.80925 0.6681001
0.8003056 0.79149646 0.72004044 0.7284622 0.7751975 0.8186813 0.78528666 0.7800489
0.7689656 0.85161793 0.71307564 0.7421873 0.7225714 0.68526083 0.7417868 0.77028924
0.7283019 0.7852854 0.81997484 0.8392057 0.790439 0.7562413 0.79082304 0.8096038
0.70497024 0.8151717 0.7922717 0.7933187 0.7135473 0.7785461 0.7745261 0.8028046
0.785495 0.7835115 0.70668805 0.77878743 0.85033345 0.82519794 0.6751901 0.73446167
0.7356299 0.75362027 0.7458362 0.8295717 0.8304843 0.69066006 0.7994395 0.7721334

baseModel.9.bias f4 [64]
00000000: 1da0 3c3c a4f1 c0bc d883 81bc d058 933c
00000010: bc38 47bc 09a8 823c 5a01 f4bb 832b 96bb
00000020: df37 8dba 03f8 a8bc 1eda 863c ae40 a73c
00000030: 21f4 913c 85b4 09bd 4f55 14bc 20aa 0a3d
00000040: 6cf9 733d 74e6 6bbb bd01 b43c 0c1b c1bb
00000050: 67b5 0c3c a1be cebc 8220 a5bc abe6 d7bc
00000060: ce1d 223c 81bb 67bc a49c e53c 1b58 26bd
00000070: aed0 0fbd 62cb 1bbc 34d4 9abc 70bf 7d3a
00000080: e06d 06bd ba80 523d 546f 1cbd 5be8 4cbd
00000090: ae17 e3bc c5cf 77bb 2876 b2bb c2e8 b6bc
000000a0: deef 9cbc 803f 01bd 7ea4 8b3b 50de d43c
000000b0: f829 5e3c b9a2 10bd 7486 003d 66aa 183c
000000c0: 03ef 343c dd73 e33b 0a3a 483c ec87 03bc
000000d0: 9b7f 7bbc f538 92bc be5d 85bc 7e17 fbbc
000000e0: d070 a2bb a450 483d d6bf fb3a 253e 773d
000000f0: 1db7 9f3c e2dd 8f3c 6447 b83c cd55 893c
0.011512783 -0.023552723 -0.015809938 0.017986685 -0.012159523 0.015949266 -0.00744645 -0.0045828237
-0.0010774097 -0.020626074 0.016461428 0.020416584 0.017816605 -0.033619422 -0.009053542 0.03385365
0.05956404 -0.0035995515 0.021973485 -0.005893117 0.008588172 -0.025237383 -0.020157102 -0.026355108
0.009894801 -0.0141438255 0.028028794 -0.040611368 -0.03511112 -0.009508939 -0.018900014 0.00096797105
-0.03281963 0.051392294 -0.03819211 -0.05002628 -0.027721252 -0.003781305 -0.005446214 -0.022327784
-0.019157346 -0.0315547 0.0042615524 0.025984913 0.013559811 -0.035311434 0.031378224 0.00931797
0.011043313 0.006941302 0.012220869 -0.008028012 -0.015350248 -0.017849425 -0.016280051 -0.03065085
-0.004957296 0.04890503 0.0019206952 0.060362 0.019496495 0.017561857 0.02249498 0.016764546

baseModel.9.running_mean f4 [64]
00000000: f3fd 83be b8a6 2abf 950a 16be 9744 afbd
00000010: 322c 2b3e ba63 12be 40fb 893c 30ab e4be
00000020: 03ab 11bf 8041 c1be 1654 bb3d e65e 583f
00000030: 4bdc 02bf 3ff7 2c3d dcd4 61be 3f1e 99be
00000040: 44fa fc3d 48dc a93d 30cf 9ebe 2c0a 9f3e
00000050: 49aa 74be e35a 2c3e 2583 ab3d 4760 f73b
00000060: 6c9f cf3d d72b dfbc ddef b73e e7a3 8d3d
00000070: 92fb adbe 67e4 3f3e 7c30 2a3f ebf5 993d
00000080: 92fe 183f acb8 33bd 7642 85bf e830 f2bc
00000090: b2b1 f43e 8fe1 a83d 47cb 953e a951 8bbe
000000a0: ddea 0b3d c16b 3e3e 5fcb 623e dad4 09bf
000000b0: ecc3 a4be cd8b efbe f067 75bd 1ee5 91bd
000000c0: 02a0 333f 288b 2e3d 7fd7 573f 448e c13e
000000d0: b2d2 e2bc 09da d7be dea0 343c b9e4 443e
000000e0: 1851 20be d2e5 cb3e 0bfc 573e 4914 7e3f
000000f0: 6c78 523f d75f 2f3d debc d9be 7488 e4bd
-0.25779685 -0.6666064 -0.14652474 -0.08558004 0.16716078 -0.14295855 0.016843438 -0.44661856
-0.5690157 -0.37745285 0.091468975 0.84519804 -0.5111739 0.04222798 -0.22053856 -0.29905888
0.12352422 0.082939684 -0.31017447 0.31062448 -0.23893084 0.16831546 0.08374623 0.007549319
0.10137829 -0.027242584 0.3592519 0.069160275 -0.33980995 0.18739472 0.6648023 0.07517608
0.59763443 -0.04387729 -1.0410907 -0.029564336 0.4779182 0.08246147 0.2925665 -0.2721074
0.03415953 0.18595792 0.22147892 -0.5384041 -0.32180727 -0.46786347 -0.059913576 -0.07123779
0.7016603 0.04261318 0.84313196 0.37803853 -0.027688358 -0.42158535 0.011024682 0.19227876
-0.15655935 0.39823776 0.2109224 0.992497 0.82215 0.04281601 -0.42526907 -0.11158839

baseModel.9.running_var f4 [64]
00000000: d118 eb3d 0b4b 7b3e 52f3 653d f474 ef3d
00000010: 6d30 743d fa3a 2a3e 4a54 bf3d 61a5 f33d
00000020: 1cf7 983d 8940 433e ef0a a73d 3aa9 b13d
00000030: b1eb 843d 167b b03d 140b 4d3e 38ed 983d
00000040: 8ca1 ba3d e4e3 db3d 8503 983d afe0 b63d
00000050: 990c 7c3d 8b99 053e 3943 c33d b9ee b23d
00000060: 0e2a fc3d 8252 3d3e e097 923d 2a6e a83d
00000070: f4a1 db3d 4915 bc3d 6207 063e d5c4 a23d
00000080: f525 c43d 041d e43d fb4d ea3d 0fd8 563e
00000090: 8ae6 ba3d 0c5d 933d 407e 003e a9c5 143e
000000a0: 2c42 ee3d 15b7 e43d bcf8 ab3d 31fe 0e3e
000000b0: e965 943d e617 ca3d e3b0 c33d cf5a cb3d
000000c0: d7f7 083e 57b1 eb3d ef43 9d3d f2c7 993d
000000d0: 5e8a 283e 9c7e 0c3e e910 733d 1cef b73d
000000e0: aaac ea3d 987f f73d 67c2 903d 858d c13d
000000f0: 1334 643d 366e a13d a156 e23d 8330 1c3e
0.11479343 0.24540345 0.05614025 0.11692229 0.059616495 0.1662406 0.09342249 0.11896778
0.074690074 0.19067587 0.08156382 0.086748555 0.06490267 0.08617227 0.20023757 0.07467121
0.09112844 0.10736826 0.07422546 0.08929574 0.06153545 0.13046853 0.09534306 0.08736939
0.12312709 0.18488505 0.07157874 0.08224137 0.107242495 0.09183747 0.13088754 0.07947699
0.09577552 0.11138347 0.11440655 0.20980857 0.09126003 0.07195482 0.1254816 0.14528526
0.11633715 0.111677326 0.08397052 0.13964154 0.07246 0.098678395 0.09555223 0.0992943
0.13375793 0.11508434 0.07678973 0.0750884 0.16459033 0.13720173 0.0593423 0.08981153
0.11458714 0.120848835 0.07068329 0.09450821 0.055713724 0.07882349 0.110516794 0.15252881

longBranch.0.weight f4 [32, 64, 3]
00000000: c51e 80bd 34e5 46bd 6e38 8ebd ac8f c23c
00000010: 7ac4 08bd 305a bebd 36f9 713d 35de 453d
00000020: d561 0cbc 341a 44bc 9f8e 4e3d ee63 63bc
00000030: 3a9b dd3c ee87 1d3c c5b5 a5bc 8e50 a9bc
00000040: c23f 893c ffdb cb3c 7b94 a73c 3da3 243d
00000050: 0b8f adbb 0edd 4abd 2dce 2ebd 21ea a73c
00000060: 9e42 973c 4cae 493d d5fa 153c 871a 893c
00000070: 64b1 b23c f4d0 9e3d 8f4c ad3c e186 b33c
00000080: 479a 49bd 0489 9e3d c5a0 4b3c f348 8dbc
00000090: e09c 30bd e24d 50bb 5e03 a6bd 65ff 3f3d
000000a0: 4b3a 78bd 780d d73a acc6 423d b59d 4fbd
000000b0: 6e48 2dbd b3c1 1b3d f681 843d 16f2 923b
000000c0: bb43 233d c0da a8bc 8c93 30bc 06e5 063d
000000d0: 3783 28bd a8e4 8cbc 49ea 353d 4c8c ffbc
000000e0: 3f6a 9a3d 3d6e 4c3c 58f3 9e3d 7321 fbbb
000000f0: 052f be3b 0d93 27bc 15a8 ccbb 48a3 e3bc
00000100: 2c03 dc3c 9dfe 1b3d 8aa8 4cbd dad7 373d
00000110: 070a a6bc d091 36bd 1fc8 643d 22ed 883c
00000120: c635 ceb9 0ee9 aa39 76c4 63bc 0a8c 833d
00000130: 6998 87bd 997c 673d ddf5 433d 6137 4c3d
00000140: c180 6dba e353 613c 8444 973c d665 1bbd
00000150: 8d32 5f3c 4a64 243c d3c6 63bc 5db1 9f3c
00000160: 63dc d1bc 03b2 c83b beda 10bd 89a8 383d
00000170: cecd 0c3d 595d d2bc 0fad 033d c84c 6e3d
00000180: 45af 10bd a4a3 33bc 0bf9 71bd d06b 983d
00000190: 1553 803d c6c0 d33c 67c9 95bd 03f0 bbbd
000001a0: 2868 4e3d 1106 ca3c 8ffa 0c3c 0689 6f3c
000001b0: 1e86 fd3c 0dc0 ed3c 2f0d 863d 9f95 7b3c
000001c0: 9092 acbd 1911 1dbd 9042 4dbd 3d89 35bd
000001d0: a7eb d1bb 2687 b03c f99b 393c 3397 14bd
000001e0: b8bf a9bb f430 8a3c 0c31 a1bb 6c16 03bd
000001f0: 2d84 9ab9 8eb9 2cbc ebb1 d33c 940c d7bc
00000200: 41f4 f0bc 0778 85bd a2f5 793c e660 673d
00000210: 6906 3dbd bede 12bd 3ffd 54bd 5526 443c
00000220: d809 edbb c02b 7cbc a4e5 733d 07a1 69bd
00000230: c3b6 fa3c 917d c73c 99a2 7c3b ba9d bf3c
00000240: 11ed 493d 9d43 cc3c 1656 9b3c 139e 55bd
00000250: d830 e5bc 3b55 fa3a e6c2 323d 12ab 1dbd
00000260: 6a17 4bbd 58d5 323d 2a41 3cbd 840f a3bc
00000270: 82a3 27bd 44ab 5c3d 08a3 553d 8ed0 4fbd
00000280: 32a8 abbc 5344 823b 4db5 643d 0502 e8bb
00000290: aba3 de39 aaf7 b4bc 8815 82bb f926 4ebc
000002a0: 0d67 56bc 6d29 cbbc 0c0d 0d3d 5b1f f63c
000002b0: 88fe 94bc 3955 843c 173d d43d 0b0e d03d
000002c0: 765b 6239 aa50 42bd 722b 4cbd bfa1 f2bb
000002d0: 5c0a 1dbd 5f28 18bd bfd0 153d eda8 df3c
000002e0: 4a6c 20bc 860e 213c 3cd5 853d f53e bcbb
000002f0: 8715 733d a8f2 e4bc 5b32 50bc aed1 d23b
00000300: e9c9 46bb 2028 af3c 99bc 503d 184d b73c
00000310: c512 19bd f6ea 553c 0d6f 57bd 5e46 18bc
00000320: 4f6b 42bd 4a60 683d 0858 69bd 12ca 063d
00000330: 0136 09bd e29d c63c 378f 31bd ddf5 1e3d
00000340: 6873 90bd 2d85 53bb e680 78bd f68d 81bd
00000350: 4143 103d 805f ac3c a3d7 253a 5734 2ebd
00000360: 5a9b 7fbb bca8 403d 04df 6fbb e62b 5d3d
00000370: f0a1 293d 1ed4 973c 5d3a f1bb d084 30bd
00000380: f59f c53c a650 19bd 7b29 1abd 0474 413d
00000390: e061 a1bc 4887 ff3c 89ed 41bd 0251 b53c
000003a0: 97ea 003d c7cd 303a 21ad 0e3c 85aa 453b
000003b0: ece8 04bd 6a8d f4ba 63fd 223c 5408 cb3a
000003c0: cbab 333c 2b3c c13c ce1f 2d3d 5100 4cbd
000003d0: 5caa c0bc 1aa3 8d3c a2d5 823c 2876 0f3d
000003e0: 9750 d63b 4fda 55bd 28cc 933b 1d3a 07bd
000003f0: 9ba8 aebc 5af7 283b 884e a2bd af63 953c
-0.06255869 -0.04855843 -0.06944357 0.023750149 -0.0333905 -0.09294546 0.059075557 0.048307616
-0.008568247 -0.011969138 0.050428983 -0.013878806 0.027051557 0.009614928 -0.020228276 -0.020668294
0.016754035 0.024885176 0.020456543 0.04019474 -0.005296593 -0.04952722 -0.042677093 0.020497384
0.018464383 0.049238488 0.009154041 0.016736282 0.021813102 0.077546984 0.02115467 0.021914901
-0.049219396 0.077409774 0.012428467 -0.017246699 -0.043118358 -0.0031784703 -0.08106111 0.046874423
-0.060602468 0.0016407212 0.04755275 -0.05068751 -0.042305402 0.038026523 0.064701006 0.0044844253
0.039859515 -0.02061212 -0.010777365 0.032933258 -0.04114076 -0.017198876 0.044412885 -0.031194828
0.07539796 0.012477455 0.07761258 -0.0076638996 0.005803945 -0.010227931 -0.006245623 -0.02778782
0.026856981 0.038084615 -0.04996542 0.044883586 -0.020268453 -0.04457265 0.055854913 0.016714636
-0.00039331446 0.00032598566 -0.01390182 0.06423195 -0.06620867 0.05651531 0.047841895 0.0498575
-0.00090600183 0.01375291 0.018465288 -0.037938915 0.013622892 0.010033676 -0.013902384 0.019493753
-0.025617784 0.0061247363 -0.03536486 0.045082603 0.03437596 -0.025679277 0.032147463 0.058178693
-0.0353234 -0.010964308 -0.059075397 0.074424386 0.06265847 0.025848757 -0.07313805 -0.09176638
0.0503923 0.024661096 0.00860466 0.014620071 0.030947741 0.029022241 0.06545483 0.015355497
-0.08426392 -0.038346384 -0.050112307 -0.044320334 -0.006406266 0.021548819 0.011328691 -0.036277007
-0.0051803254 0.016869046 -0.004919177 -0.032003805 -0.00029471648 -0.010542287 0.025841674 -0.026251115
-0.029413344 -0.06517034 0.015256317 0.056488894 -0.04614869 -0.035856955 -0.051999327 0.01197203
-0.0072338395 -0.01539129 0.059545174 -0.057038333 0.030604726 0.024351867 0.0038549064 0.02339064
0.04929835 0.024934584 0.018961947 -0.052152704 -0.027977392 0.0019098887 0.0436429 -0.038493223
-0.049582876 0.04366049 -0.045960583 -0.01990486 -0.040927418 0.05387427 0.05215743 -0.050736003
-0.020954225 0.00397543 0.055836964 -0.007080319 0.00042465082 -0.022090752 -0.003969852 -0.012582534
-0.013086093 -0.024800027 0.03443627 0.030044248 -0.018187776 0.016153919 0.103632145 0.101589285
0.00021587111 -0.04744021 -0.04984612 -0.0074045355 -0.038339958 -0.037147876 0.03657603 0.02730223
-0.009791443 0.009830123 0.06534812 -0.0057448098 0.059346702 -0.027947739 -0.012707318 0.006433687
-0.003033275 0.021381438 0.05096111 0.022375628 -0.037371416 0.013056507 -0.05259614 -0.009294121
-0.04746562 0.056732453 -0.05696872 0.032907553 -0.033498768 0.024245206 -0.04334947 0.038808692
-0.07053262 -0.0032275424 -0.060669802 -0.06325905 0.03522039 0.021041632 0.0006326383 -0.042530384
-0.003900251 0.047035918 -0.0036601434 0.053996943 0.0414142 0.018533763 -0.007361694 -0.04309541
0.024124125 -0.037430428 -0.037637215 0.04722978 -0.01969999 0.031192437 -0.04734567 0.022133354
0.031473722 0.00067445304 0.008708269 0.0030161452 -0.032448694 -0.0018657867 0.009948107 0.0015490153
0.010966252 0.02358826 0.04226666 -0.04980499 -0.023518734 0.017289687 0.015971009 0.035024792
0.006540369 -0.05221015 0.0045104213 -0.033014406 -0.021320632 0.0025782199 -0.07925135 0.01823601

longBranch.0.bias f4 [32]
00000000: 8622 4bb6 fb98 8637 95bf 1ab8 f662 2737
00000010: 4802 3236 7b05 20b7 17c3 9136 9352 2137
00000020: 8458 40b7 5fef 03b7 6287 9237 e825 01b6
00000030: 5fca 2138 9e01 9f37 8076 8e37 16f4 8637
00000040: f7d3 f4b5 7a07 8236 0a53 b436 842b 07b8
00000050: 6215 57b6 4148 1bb7 f816 2cb7 2acc 4ab7
00000060: 6953 a9b7 2d9a 87b7 c3d2 87b7 1e5d 04b8
00000070: ad71 c536 2113 7036 17ca c337 7a5b 3e33
-3.0269453e-06 1.6045282e-05 -3.6894886e-05 9.977017e-06 2.6525395e-06 -9.538019e-06 4.344048e-06 9.615574e-06
-1.1464701e-05 -7.863941e-06 1.7467599e-05 -1.9244562e-06 3.8573864e-05 1.895503e-05 1.69829e-05 1.6087706e-05
-1.8241107e-06 3.8751723e-06 5.374085e-06 -3.2227035e-05 -3.2049943e-06 -9.255543e-06 -1.0257347e-05 -1.2087674e-05
-2.018521e-05 -1.6165048e-05 -1.6191398e-05 -3.1557975e-05 5.884291e-06 3.5773921e-06 2.3339917e-05 4.432102e-08
