Models/best_eeV2_0501_night.pth (torch, 770139 bytes, 48 tensors)

baseModel.0.weight f4 [64, 2, 3]
000000 0d 2a b6 3d 91 77 b5 be 41 23 c6 be b3 d0 a1 3e
       0.08894739 -0.35442784 -0.38698772 0.31604537
000010 73 73 ca be 29 7e ae be 71 ff 9b 3d 0a 48 8d 3d
       -0.39541206 -0.34080628 0.07617081 0.06898506
000020 2c af 9f be 8c 7b 11 3b 07 94 84 be c7 f7 da bd
       -0.31188333 0.0022198884 -0.25894186 -0.10691791
000030 4a 7f a7 be a0 f9 9b be e0 37 a7 3e ba c5 b6 3e
       -0.327143 -0.30463886 0.32659817 0.35697728
000040 31 8b 45 bd 3a fc 37 3e c5 07 8e 3d 0b 03 85 be
       -0.048228446 0.1796731 0.06935076 -0.25978884
000050 d7 e3 7b 3e 39 60 c5 bc 00 13 47 3c dc 24 a1 be
       0.24598633 -0.024093734 0.012150526 -0.31473434
000060 c5 c1 a3 3e e9 f7 a7 3e b0 16 7e 3e ba e8 28 be
       0.31983772 0.32806328 0.24813342 -0.16495028
000070 71 f4 c9 3a 6c c8 40 3e 6f 59 b4 bc 1d 3e 8c 3e
       0.0015407932 0.18826455 -0.022015302 0.2739114
000080 99 14 ab be a5 bb 49 3e e9 d7 70 be d7 3c 58 3e
       -0.33414152 0.19700487 -0.23519863 0.21116959
000090 38 f7 9e 3e 9d 97 1a be 24 21 60 3d 59 3d 2b 3d
       0.31047988 -0.15096898 0.054719105 0.041806553
0000a0 8b e1 8e be 33 a2 02 3e ab cb c1 be aa 2a ad be
       -0.2790645 0.12757187 -0.378507 -0.33821613
0000b0 c0 f4 57 3e 71 19 96 be 69 bd 03 3e 10 06 8c bd
       0.21089458 -0.29316285 0.12865223 -0.06837094
0000c0 be 3a 8c 3e db 4e 39 be e5 53 8f 3e cb 04 b9 be
       0.27388567 -0.18096487 0.27993694 -0.3613647
0000d0 8d 79 b0 bc eb 09 cb 3e 46 58 6d be 7f 31 81 3e
       -0.021542335 0.39656004 -0.23178205 0.25233075
0000e0 c3 26 7c be 3e 64 55 3e d7 46 ab be f2 03 9d 3e
       -0.24624161 0.2083902 -0.33452484 0.30667073
0000f0 a7 8f a5 3d e6 ec 96 be 47 34 9c 3c 75 33 bb 3e
       0.0808404 -0.29477614 0.019067897 0.36562696
000100 30 f2 cd be 5f f6 be be 0f 9b bc be 81 a0 0c 3e
       -0.40223837 -0.3729734 -0.3683705 0.13733102
000110 6f 0f 62 be a6 7e c5 be 4b 99 72 be a8 e5 10 be
       -0.220762 -0.38573188 -0.23691289 -0.14150107
000120 57 ea 30 3d 13 54 85 3c ab 42 8e be 3d 98 c3 be
       0.043192234 0.016275441 -0.2778524 -0.38202086
000130 4d 86 cb 3d 24 bb c0 3e 65 23 3a 3e 9d 7f 6e 3d
       0.09937725 0.37642777 0.18177564 0.05822717
000140 6d 8e 9f be 49 c5 95 be 10 c6 8a 3e de 6f 64 3e
       -0.3116335 -0.2925208 0.27104235 0.22308299
000150 3d 25 b5 be c1 54 3b be fb e0 59 be 22 3a 6e be
       -0.35379973 -0.1829405 -0.2127723 -0.23264363
000160 52 82 62 3e 0f cf a1 3e bd 56 12 be a1 eb 99 3e
       0.22120026 0.31603286 -0.142909 0.30062583
000170 33 66 20 bc a7 80 38 3e ee bf 1b be 64 3d a1 3e
       -0.009789991 0.18017827 -0.15209934 0.3149215
000180 dd 12 35 bd e0 1b 18 3e 21 1a e2 3d 98 75 d3 3e
       -0.044207443 0.14854383 0.1104014 0.41300654
000190 9d 7b 92 3e 44 01 6c 3c cd 08 9f be 5d f0 b0 be
       0.28609934 0.014404599 -0.31061402 -0.34558383
0001a0 ff a0 03 be 60 e0 8e be 2b 4d 12 be e3 af c3 3e
       -0.12854384 -0.2790556 -0.1428725 0.38220128
0001b0 2d ad fa bd e6 f1 81 be ce b9 f1 3d 45 f2 6f 3e
       -0.12240062 -0.25379866 0.118030176 0.23432262
0001c0 0f 6e 8f 3e f0 a4 ce 3e 6c d6 95 3d 2b 64 8d 3e
       0.28013656 0.40360212 0.07316288 0.27615485
0001d0 60 76 ba bd 2c ea ae 3e 5b 46 60 be 7d b6 71 3e
       -0.091046095 0.34163034 -0.21901838 0.2360477
0001e0 f9 22 a4 3e 91 28 cb bb 41 79 ed bd 0e 5b 09 3e
       0.32057932 -0.0061999043 -0.11595393 0.13413641
0001f0 8b b7 d0 bd 40 b7 59 3c c1 cf 76 3e 9f b4 29 be
       -0.10191258 0.013288319 0.2410269 -0.16572808
000200 38 54 4d bd 45 73 c9 3e 8a e7 ef bd a4 ed 80 be
       -0.050129145 0.39345756 -0.117140844 -0.25181305
000210 2b 09 86 be f2 fd 4a be 3f fd c4 be 7b d4 de 3d
       -0.2617887 -0.19823435 -0.3847446 0.10880371
000220 80 85 80 3e e2 cc 95 bd fe 49 d5 3e 92 c8 d3 3e
       0.25101852 -0.07314469 0.41658014 0.4136396
000230 d6 e7 b7 be f6 0a 77 3d 21 15 73 bd b2 a8 96 bb
       -0.35919064 0.060313188 -0.059346322 -0.0045977468
000240 04 19 84 be 4b 61 fc 3d 30 48 90 be 6f bc ff 3c
       -0.25800335 0.12323245 -0.28180075 0.031217782
000250 de 8b 2c 3e c2 a7 2a be 30 60 1d 3e 3d 9c 77 3e
       0.1685023 -0.16665557 0.15368724 0.24180694
000260 de 39 b4 bd 24 ee 34 3e dc 27 77 bd 1f 6e 2d 3e
       -0.088001 0.17668968 -0.060340747 0.16936539
000270 29 c7 19 3e 13 53 3a 3d 39 1c 48 3e 87 00 0e bd
       0.1501738 0.045489382 0.19542016 -0.03466847
000280 9c da a0 be cc f2 77 be 33 d9 88 3d b5 4b 1e be
       -0.31416786 -0.24213713 0.066820525 -0.15458567
000290 b7 09 08 3d ba 71 07 3e 61 70 d9 3c 77 e7 b8 3e
       0.03321239 0.13226977 0.026542844 0.36114094
0002a0 f3 ff 9e 3e ec f4 e6 3d 9a aa b7 be 2d 81 89 3e
       0.3105465 0.11277184 -0.35872346 0.26856366
0002b0 92 3d b0 be 68 60 86 3e a1 2f 1c be 57 54 d2 3d
       -0.34421974 0.26245427 -0.15252544 0.10269993
0002c0 ff 45 ef 3d b3 c9 f5 bd c0 a1 45 3e f5 88 aa bd
       0.116832726 -0.12001362 0.19299984 -0.08326904
0002d0 67 dd a2 be ed 99 15 be b9 1b 04 be 28 1a a3 3d
       -0.31809542 -0.146095 -0.129012 0.07963973
0002e0 aa 5e 12 bd f7 d5 03 3e f9 76 67 bd cc b7 97 3e
       -0.03573481 0.1287459 -0.056509946 0.29632413
0002f0 cb c2 9a 3e e1 4e 2a 3e 5c c6 9f be ba ff d4 be
       0.3022674 0.16631652 -0.31206024 -0.41601354
000300 3b 66 a4 be 7f e1 3b 3e 2c 6a 67 3e 5b ec bc 3e
       -0.32109246 0.18347739 0.22599095 0.36899075
000310 b2 71 4e 3e 5f ab ae be 01 c0 8c 3e 39 94 6e bd
       0.20160559 -0.3411512 0.27490237 -0.058246825
000320 9c ba b9 bd 44 dc 01 be 77 3c 98 be c4 0f 1c be
       -0.09068796 -0.12681681 -0.2973363 -0.15240389
000330 7e 48 56 be 1e 4f c2 be ac 36 b1 be 30 e6 3e 3d
       -0.20926091 -0.37950987 -0.34612024 0.046606243
000340 1f b8 ed bd 86 5e 09 3d 6f 2c b5 be 70 b1 d7 3d
       -0.11607384 0.03353741 -0.35385463 0.105318904
000350 86 bd d3 3e 01 14 3d be e8 c2 00 3d 84 9b 7f 3e
       0.41355532 -0.18464662 0.031435877 0.24961668
000360 1e 47 a0 3d 83 90 84 bd 51 aa 8a be 69 24 0a 3d
       0.078260645 -0.06472876 -0.27083066 0.03372613
000370 27 38 6a be cd d8 76 be c4 28 aa 3c d8 05 49 3d
       -0.22872983 -0.2410614 0.020771392 0.04907784
000380 92 cd 70 be 76 2b 01 be 6d e5 58 3e 88 22 aa be
       -0.23515919 -0.12614235 0.21181269 -0.3322947
000390 45 e4 cc 3e 1a d7 8a be 01 26 34 bd c9 42 9a 3e
       0.40017906 -0.27117234 -0.043981556 0.30129078
0003a0 3f fe bd 3e ba 8b 74 3e 7b 60 c8 3d 51 da a2 be
       0.37108037 0.23881426 0.09784027 -0.31807187
0003b0 ec af 36 3e ab ec 9a be 8c fc cc bd a7 d0 40 3e
       0.17840546 -0.30258688 -0.10009107 0.18829595
0003c0 45 5a 31 3d fa cc 86 3e 93 a5 bb be 43 56 b8 3d
       0.04329898 0.2632826 -0.3664976 0.09000828
0003d0 b2 66 a7 be e9 39 78 bc 22 e7 13 3e 92 a7 b3 3e
       -0.32695538 -0.015150526 0.14443639 0.35088784
0003e0 1f 8b 6b 3e f2 08 a8 3e 34 2f 4a bd 31 f0 bb 3c
       0.23002289 0.32819325 -0.049361423 0.02294168
0003f0 e6 1f 2e 3d 57 75 3d be 8d 29 ad be bf 75 e4 3b
       0.04251089 -0.18501793 -0.33820763 0.0069720442

baseModel.0.bias f4 [64]
000000 e5 0b 45 3d 5d 01 2f 3c 82 99 14 bc 7b 1d 92 b8
       0.048107047 0.010681477 -0.009069802 -6.967314e-05
000010 e8 4f 68 b9 ca d5 46 3e cd 80 29 3d 5e dc 05 bd
       -0.00022155012 0.19417492 0.0413826 -0.03268086
000020 85 fd f0 3d 79 44 9b bd c7 71 dd 39 80 c0 b9 bd
       0.11767105 -0.075814195 0.00042237176 -0.090699196
000030 e2 f9 a9 3d 27 6b 65 be c5 f2 1a bd b9 b0 87 3e
       0.082996145 -0.22404157 -0.03782918 0.26502016
000040 cb 58 5a be fa 4f 5b be b9 3a d7 3c d8 01 b8 bd
       -0.21322934 -0.21417227 0.026273118 -0.08984727
000050 a3 18 40 be fa a3 16 3b 80 1c c5 3d 4e e1 61 3e
       -0.18759398 0.0022985921 0.096245766 0.22058603
000060 95 1e 20 bc 6c 5d 42 be 45 7d 54 3e f5 bc 1c be
       -0.009772916 -0.1898095 0.20750912 -0.15306456
000070 f0 0a 29 b8 ea 46 2d 3b 41 f7 80 b6 42 0c 83 ba
       -4.0302926e-05 0.0026439973 -3.8434814e-06 -0.000999816
000080 c2 90 73 3e 8b f0 a3 3d 4e 83 42 3e 1f 16 26 b6
       0.2378569 0.08004864 0.18995401 -2.4748804e-06
000090 91 b6 03 3d 2e a6 60 3e 66 d6 5b 3e 5d 05 ac 3d
       0.03215653 0.21938393 0.21468505 0.083994605
0000a0 82 d5 ad 3d 35 ec 85 3e 2d 3c 11 3e cd 7d fb bd
       0.08487989 0.26156774 0.14183111 -0.12279854
0000b0 b5 c6 45 3b e2 43 16 3b c0 92 02 bd 63 b1 83 bd
       0.0030178253 0.0022928645 -0.031878233 -0.06430318
0000c0 46 a7 40 bb 5f 09 28 3e 6a 2f 45 bd f0 81 a8 39
       -0.0029396578 0.16409825 -0.04814092 0.00032140268
0000d0 2a c1 65 3e 4a 48 f1 bb ce d7 4b 3c 96 b6 00 39
       0.22436967 -0.007363354 0.012441589 0.0001227505
0000e0 0e 61 0b 3e 38 11 89 be 25 8a 01 3d e3 f5 ae b9
       0.13611242 -0.2677095 0.031625886 -0.00033371066
0000f0 fc 82 70 3e 02 bc 7b be df 09 3d b9 e1 03 f2 39
       0.23487467 -0.24583438 -0.00018028122 0.00046160727

baseModel.1.weight f4 [64]
000000 64 cc 7c 3f eb 44 7c 3f 42 4e 76 3f 7e 95 7a 3f
       0.98749375 0.9854266 0.9621316 0.97884357
000010 b0 38 83 3f 3e 64 77 3f 5a 5a 7c 3f 26 5d 79 3f
       1.0251675 0.9663733 0.98575366 0.9740776
000020 dc af 73 3f c0 ec 75 3f a4 67 7c 3f 81 92 7e 3f
       0.95190215 0.96064377 0.98595643 0.994423
000030 bc 06 7c 3f cd 6a 77 3f 88 a2 79 3f c3 6c 77 3f
       0.98447776 0.9664734 0.9751363 0.9665033
000040 e6 2f 81 3f 6b 65 7a 3f f1 3c 81 3f 37 c8 7a 3f
       1.0092742 0.97811 1.0096723 0.97961754
000050 ff 81 7a 3f 84 34 78 3f be 93 7d 3f b2 62 7c 3f
       0.9785461 0.9695513 0.9905356 0.985881
000060 ae 17 7b 3f 10 8b 78 3f 6c cd 83 3f 3e a1 7d 3f
       0.9808301 0.9708719 1.0297065 0.9907416
000070 8f aa 76 3f 09 99 78 3f 1b 24 80 3f 3c 5d 81 3f
       0.96354 0.97108513 1.0011019 1.0106578
000080 3b 63 78 3f 3c c0 7d 3f eb 11 81 3f 88 3e 7c 3f
       0.97026414 0.9912145 1.0083593 0.98532915
000090 11 97 7a 3f 11 d8 76 3f 22 b5 7b 3f 6d 8c 73 3f
       0.9788676 0.9642344 0.9832326 0.9513615
0000a0 d7 b4 77 3f f4 3e 7d 3f 27 4d 7f 3f 77 8d 76 3f
       0.96760315 0.98924184 0.997271 0.9630961
0000b0 a8 43 79 3f 5b 48 7a 3f 65 4b 79 3f a2 c9 7e 3f
       0.9736886 0.97766656 0.9738067 0.9952642
0000c0 11 2e 7c 3f bc 12 7a 3f 8e 5a 7d 3f 28 b3 80 3f
       0.9850779 0.97684836 0.989663 1.0054674
0000d0 b7 3d 7e 3f d0 6e 7a 3f 4c a6 79 3f 4a ff 7b 3f
       0.9931292 0.97825336 0.97519374 0.98436415
0000e0 48 7d 7e 3f 6c f3 76 3f 11 bd 77 3f b4 fa 78 3f
       0.99409914 0.9646518 0.9677287 0.9725754
0000f0 59 49 79 3f 02 12 79 3f 72 52 7a 3f 30 db 84 3f
       0.97377545 0.972931 0.9778205 1.0379391

baseModel.1.bias f4 [64]
000000 eb 18 a8 bc 8a 5f 8f 3b 11 68 0e bd 32 08 d0 3b
       -0.020519694 0.004375403 -0.034767214 0.006348633
000010 53 5c d9 3b 85 74 1a bb b4 07 fe bb 76 96 fb bc
       0.0066333204 -0.0023567986 -0.007752383 -0.030711394
000020 12 2b 0c bd b4 c0 53 bc 8d f5 da bc 0e 98 fc 3a
       -0.034220763 -0.012924362 -0.026728416 0.001927139
000030 ca aa 87 3c 95 3a 04 bc 51 fc 72 3b 54 c4 1b 3c
       0.01656093 -0.008070608 0.0037076662 0.0095072575
000040 e0 43 66 b9 42 f4 3e 3c fc 84 a9 bc 87 82 39 3a
       -0.00021959795 0.011654915 -0.020693295 0.000707664
000050 8e 6b a1 bc 45 59 ba bb e3 60 2c bc c4 54 f0 bc
       -0.019704606 -0.0056869113 -0.0105211465 -0.029337294
000060 8d 8a 29 bc 11 9e 46 bc 98 b6 69 bc 8f 79 d6 bc
       -0.0103479745 -0.012122647 -0.014264725 -0.02618101
000070 27 c6 b5 bc d2 26 fc 3b c9 99 9e bb e9 50 b5 bb
       -0.022189213 0.0076950574 -0.00484011 -0.005533327
000080 57 fb 64 bb bc 62 b9 bc 8c 1b 84 bb 16 f1 a6 bc
       -0.003493985 -0.022630088 -0.004031604 -0.02037863
000090 4c 2c b7 bc c7 d2 88 bc 2b eb e4 bb 41 aa 02 bd
       -0.02235999 -0.016702069 -0.006986042 -0.031900648
0000a0 95 ca 9f bb 60 1b 81 bc ba cc ae bb 81 85 8e bc
       -0.0048764446 -0.015760124 -0.005334464 -0.017397644
0000b0 9e 6f 31 bb 1c 58 0a 3b 57 53 5d bc 10 09 99 bb
       -0.0027074586 0.0021109646 -0.013508639 -0.00467027
0000c0 7b 4e 2c 3c 6b 70 b2 bc 34 58 7e 3c 8f 5e 2d bc
       0.010516758 -0.02178212 0.015523959 -0.010581627
0000d0 d5 fc 96 3c 50 d8 dd 3b e1 6b ea 3b ff 48 5a ba
       0.018431107 0.006770171 0.0071539734 -0.00083269173
0000e0 c4 8b 7a bc ab e6 55 bc 1b 8f da bc a2 80 b3 bc
       -0.015292112 -0.013055484 -0.026679566 -0.021911923
0000f0 51 a5 90 3c c7 05 78 bc 49 f0 ed bb 2f 5d 9f bc
       0.017656954 -0.015138096 -0.0072613102 -0.019453613

baseModel.1.running_mean f4 [64]
000000 51 b9 47 3d 36 bf 34 3c 9f 3b 1a bc 5f f4 a9 b9
       0.048760716 0.011031916 -0.009413629 -0.00032416263
000010 9c 63 8f b9 e6 bc 47 3e 37 30 2c 3d bc 55 08 bd
       -0.000273493 0.19505653 0.04203817 -0.033284888
000020 4c ad f2 3d af d0 9c bd 5b 31 93 39 93 61 bb bd
       0.1184946 -0.07656991 0.00028074798 -0.0914947
000030 88 8b ab 3d 29 55 66 be b4 87 1d bd 61 28 88 3e
       0.08376223 -0.22493424 -0.038459495 0.26593307
000040 53 40 5b be 88 3b 5c be 1b ca db 3c da 94 b9 bd
       -0.21411256 -0.21507084 0.02682977 -0.09061594
000050 69 fb 40 be a6 5c 22 3b 3a b7 c6 3d ec cc 62 3e
       -0.18845905 0.002477446 0.097029164 0.22148484
000060 a9 22 26 bc 25 41 43 be bb 65 55 3e d0 9d 1d be
       -0.0101401 -0.1906782 0.20839588 -0.15392232
000070 78 3b c3 38 8e ab 36 3b 27 32 0f 38 92 e1 92 ba
       9.3094015e-05 0.002787325 3.4140565e-05 -0.0011206141
000080 9f 7d 74 3e 8e 7a a5 3d ff 62 43 3e a0 a9 4e b9
       0.23876046 0.08080016 0.19080733 -0.00019708881
000090 05 0d 06 3d 6f 8e 61 3e 78 c1 5c 3e 63 97 ad 3d
       0.03272726 0.2202699 0.21558177 0.0847614
0000a0 eb 65 af 3d ef 64 86 3e 70 17 12 3e 02 31 fd bd
       0.08564361 0.2624888 0.14266753 -0.12362863
0000b0 10 ea 50 3b d4 49 21 3b 78 f2 04 bd c9 30 85 bd
       0.0031877793 0.0024610655 -0.0324578 -0.06503446
0000c0 7f 95 4a bb 28 e9 28 3e fb ea 47 bd a6 d9 76 39
       -0.003091186 0.16495192 -0.04880808 0.00023541469
0000d0 2d a7 66 3e af 7f fa bb 88 5a 52 3c 04 24 6e 39
       0.2252471 -0.0076446156 0.012838967 0.00022710866
0000e0 ca 3a 0c 3e 59 88 89 be cf e3 03 3d 2c ac a2 b9
       0.13694301 -0.26861838 0.032199677 -0.00031027326
0000f0 77 6b 71 3e 29 a5 7c be a0 0a 1e b9 2f 44 ea 39
       0.23576151 -0.24672379 -0.00015072012 0.0004468276

baseModel.1.running_var f4 [64]
000000 d7 90 e4 37 ad fd f0 36 ae 8a 8a 37 46 d9 d4 36
       2.7247164e-05 7.182089e-06 1.651546e-05 6.3433863e-06
000010 21 ff 9a 37 17 3d e4 36 e6 a6 b1 36 8d 84 80 37
       1.8477034e-05 6.8020413e-06 5.2944406e-06 1.5320513e-05
000020 4a 26 71 37 26 ee 07 37 b2 d9 98 37 91 12 9a 37
       1.4373634e-05 8.102075e-06 1.8221184e-05 1.8366876e-05
000030 b0 19 59 37 82 17 3d 37 e2 0e 9e 37 d8 c9 e2 36
       1.2940189e-05 1.1270751e-05 1.8841998e-05 6.7588226e-06
000040 93 2b 79 37 17 3d b4 37 11 89 ac 37 e2 7f 0a 37
       1.4851702e-05 2.148612e-05 2.0567824e-05 8.255216e-06
000050 4a 28 9e 36 2c c3 24 37 b6 60 91 37 a9 8e 94 37
       4.713457e-06 9.820604e-06 1.7330382e-05 1.7709406e-05
000060 ab ba c8 36 17 2e c1 36 e1 0d 43 37 9d a9 e9 36
       5.9821955e-06 5.757214e-06 1.1626137e-05 6.9636867e-06
000070 ea ee 56 37 ab 6f 32 36 d8 27 09 37 1a 4b b8 37
       1.28110205e-05 2.6589066e-06 8.175113e-06 2.1969481e-05
000080 e8 79 89 37 f6 2b 2b 37 a9 de 9c 37 02 a2 6d 37
       1.638844e-05 1.020263e-05 1.8700333e-05 1.4164021e-05
000090 77 26 16 37 f1 37 bd 36 3b a1 c2 37 24 d6 05 37
       8.9496525e-06 5.6391514e-06 2.3201681e-05 7.977276e-06
0000a0 17 be 11 37 47 b9 7f 37 42 03 2c 37 37 0d 74 37
       8.686932e-06 1.5242323e-05 1.0252757e-05 1.454661e-05
0000b0 ee fe 23 37 35 9e 11 37 cd ee 89 37 68 5a 45 37
       9.7749125e-06 8.679509e-06 1.6442873e-05 1.1763164e-05
0000c0 ba 9d be 37 e1 32 0d 37 5e 19 8e 37 83 b6 1f 37
       2.2723212e-05 8.416101e-06 1.6939532e-05 9.519633e-06
0000d0 30 2f 81 37 05 ab a1 37 f2 84 97 37 9a 70 78 37
       1.5399972e-05 1.9272333e-05 1.806251e-05 1.4808169e-05
0000e0 a6 8d c2 37 bb 61 1b 37 b8 5b 4d 37 4c dd 28 37
       2.3192562e-05 9.261475e-06 1.2240307e-05 1.0065105e-05
0000f0 02 67 1d 37 48 f0 80 37 6d 07 25 37 71 2f 27 37
       9.381913e-06 1.5370679e-05 9.836495e-06 9.9650215e-06

baseModel.4.weight f4 [64, 64, 3]
000000 8f 6f 44 bc cb 07 e1 3c e7 33 cf 3b af ea 36 3b
       -0.011989488 0.027469536 0.006323326 0.0027910878
000010 84 c4 4b 3c 17 52 92 3c 11 99 63 bd 2e e3 41 3d
       0.01243699 0.01786141 -0.055565897 0.047335796
000020 3f da 25 3d b4 39 98 bd 44 e0 4a bd 78 6a 89 bc
       0.04049134 -0.07432881 -0.049530283 -0.016774401
000030 4e 45 15 3c 3d 05 9a bd a3 55 44 3d a8 48 71 bc
       0.009110762 -0.075205304 0.047933232 -0.014726795
000040 9a f4 a8 ba 07 8f 03 bc 6d 29 60 bd 80 87 25 3d
       -0.001289028 -0.008029706 -0.054727007 0.040412426
000050 a1 dd 77 bc c0 3a 4f 3d ed 15 1d 3d 44 c4 71 bd
       -0.015128524 0.050593138 0.03835099 -0.059025064
000060 4e de 68 3d 4d 82 f2 bc 81 dd dd 3c f7 77 31 3d
       0.05685263 -0.029603148 0.02708316 0.043327298
000070 16 19 b1 ba 0f 4f 0a 3d f7 4f 95 3c da 49 64 3d
       -0.0013511505 0.033766802 0.018226607 0.055734493
000080 9e f2 49 3b f5 c0 4b bd 45 71 fc bc 86 ee 69 bb
       0.0030814777 -0.049744565 -0.03081573 -0.003569515
000090 3d 31 47 bc 91 3e be 3b 92 01 d6 3c 5e bf 13 bd
       -0.012157735 0.0058057983 0.026123796 -0.036071174
0000a0 1c 6a e1 3c fb 18 7b bd c2 d7 40 3d 7e f0 28 bd
       0.027516417 -0.06130312 0.047080763 -0.041244976
0000b0 62 f2 3d bd 3e 77 7c 3c 41 29 e4 bc 5a c5 d6 3c
       -0.046373732 0.015409289 -0.027851703 0.026217151
0000c0 76 df 24 bd 47 e5 6e bd 0a da 71 bd 22 87 c4 3c
       -0.04025217 -0.058324125 -0.05904583 0.023990218
0000d0 28 99 1a 3c b7 5a 33 3d bc 59 40 bd f6 7d b9 bd
       0.009435929 0.043787684 -0.046960577 -0.09057228
0000e0 a0 7a 32 bd 9e 57 80 3d 41 ce 5d 3d 97 36 22 3d
       -0.043573976 0.06266712 0.054151777 0.039602842
0000f0 75 4a cf 3c ae 0d 9d 3d 32 e3 04 bc 9e 13 50 bc
       0.025304059 0.07668625 -0.008110808 -0.01269999
000100 ec c7 d5 3c b1 7e 41 3d 77 e2 b5 bd c1 05 36 bd
       0.026096307 0.047239963 -0.08881085 -0.04443908
000110 23 29 51 bc 32 29 25 bd a7 2e 3f 3d 7c af 59 bd
       -0.012766155 -0.04032249 0.04667535 -0.05314587
000120 00 9c 8f 3d 37 37 77 bb 86 80 90 38 b9 9f 79 bd
       0.070121765 -0.003772212 6.8903944e-05 -0.06094334
000130 0a fe 9f 3a 32 c9 8b 3d 2f b6 81 bd e8 85 81 bd
       0.0012206447 0.06825484 -0.06333577 -0.06324369
000140 f0 1f 3e 3b af 79 05 bd 77 ae a7 bd c5 13 b7 3c
       0.0029010735 -0.03258675 -0.081875734 0.022348294
000150 f3 61 5c 3d 0a fe d4 bc d9 7d 17 bd e0 45 6d bd
       0.05380435 -0.026000042 -0.036985252 -0.057927966
000160 4f ef 17 bd 06 1f 3e bd 1c 52 3f bd b2 18 99 bc
       -0.037093457 -0.046416305 -0.046709165 -0.018688533
000170 9e ef 25 bd 64 90 52 bc 84 05 6f bc d2 b0 43 bd
       -0.04051172 -0.012851808 -0.014588717 -0.04777605
000180 fa c2 90 3d a4 74 a8 3c 71 fa 44 bd 3c ac df 3c
       0.07068439 0.020563431 -0.048090402 0.027303807
000190 66 37 22 bd 1f 7e d7 3c 64 83 97 bd 71 30 b1 bd
       -0.039603613 0.026305256 -0.07398108 -0.086518176
0001a0 ff 31 0d 3d b5 26 82 bc 04 dc 00 3d 3b af 56 3d
       0.034471508 -0.015887598 0.031459823 0.052413207
0001b0 fe ae 3f 3d af 65 ea 3c 91 82 8c 3d 24 fc 83 bd
       0.046797745 0.02861294 0.06860841 -0.064445764
0001c0 96 e4 bd 3c 43 d0 22 bd cf f4 d0 bb a1 bc 4c b9
       0.023180287 -0.039749395 -0.0063768397 -0.00019525226
0001d0 c2 6e ae 3b 51 3c 97 bd d1 49 1f 3d 37 61 65 bd
       0.005323262 -0.07384551 0.038888756 -0.056000914
0001e0 4c b0 40 3d ba e2 1d bd 9f ce 33 3d 0e 13 f4 3c
       0.04704313 -0.0385463 0.04389822 0.029794242
0001f0 05 58 58 3d 3f 57 d6 ba 19 23 a7 3c 29 ad a0 3c
       0.052818317 -0.0016352906 0.020402478 0.01961382
000200 36 49 26 3c 65 63 6f 3d 66 0a 67 3d a0 18 27 3d
       0.010149291 0.0584444 0.0564064 0.04079497
000210 b4 26 78 bc 29 e4 ec bc a6 b9 8a bc 71 0d 67 bd
       -0.015145946 -0.028917389 -0.016934227 -0.056409303
000220 f4 0a 43 3d 90 7f 00 3d 63 20 d9 bc ac 12 13 bc
       0.047617868 0.031371653 -0.026504701 -0.00897662
000230 2e 50 3a 3d 82 27 f9 3c b3 06 84 bc d2 ed 8e bd
       0.04548662 0.030414347 -0.016116476 -0.069789544
000240 b7 a2 26 bd d4 00 84 3c 40 c8 9f bc 1a 84 4c bd
       -0.04068252 0.016113676 -0.019504666 -0.04993067
000250 f4 0b 62 3b c0 c0 58 3d bd 23 9e bc ab a3 25 bd
       0.0034491988 0.052918196 -0.01930415 -0.04043929
000260 65 2e 83 bd 80 2a 69 3d b4 94 37 3d 93 6e f0 bc
       -0.064053334 0.056925297 0.04481955 -0.0293496
000270 e6 ab 1c 3a ab 2b 29 3d 96 93 5d 3d 9f 9c b5 3c
       0.00059765426 0.04130141 0.054095827 0.02216941
000280 e9 04 93 bb e2 2c 8e 3d 8a b3 e0 bc 27 ec df 3c
       -0.0044866693 0.069421545 -0.02742936 0.027334286
000290 2b 9f 4a 3b 2f b4 dc bc fc d4 74 bd 20 32 f4 bc
       0.0030917625 -0.026941387 -0.05977343 -0.029809058
0002a0 34 a4 c3 3c 69 d2 6c bd 0b 86 33 bb d0 01 51 bd
       0.02388201 -0.05781785 -0.0027393128 -0.05102712
0002b0 ad 89 9d 3c 4a f8 ca 3c 3a ed 84 3d dd 09 04 3d
       0.019230688 0.024776597 0.0649056 0.03223597
0002c0 9a c0 86 bc 0d 06 8b 3c a3 a2 8e bc 4b 0e 6f bd
       -0.016449261 0.016970659 -0.017411536 -0.05836324
0002d0 4a 02 a1 bd 54 7c fe 3b 16 ac 24 bd 30 27 94 bc
       -0.07861765 0.007766286 -0.040203176 -0.018085092
0002e0 71 b1 05 3d 56 d8 6e 3d 79 f1 62 3c 34 4a a3 bc
       0.032639924 0.058311783 0.013851517 -0.019932844
0002f0 8c 2c a9 bc 8e 87 86 3d bc e8 2e bd 6a 72 28 3d
       -0.020651124 0.06568824 -0.04270242 0.04112474
000300 e1 97 2c 3d bb 5f e9 bb 8d 82 ac 3c 41 b3 4a bd
       0.04213703 -0.0071220077 0.021058345 -0.049487356
000310 5e ff ef 3c 35 53 d5 bc db 3d 98 3c eb f5 53 bd
       0.029296573 -0.026040653 0.018584182 -0.051748198
000320 94 60 87 3c c9 95 b4 bc 92 da 07 3d 34 f9 50 3d
       0.016525544 -0.02204408 0.03316743 0.05101891
000330 75 31 2e 3c 85 11 14 bd 96 05 88 bc 83 83 65 3d
       0.010631909 -0.03614952 -0.016604226 0.056033622
000340 42 32 77 3c 4b 38 2a bd 80 b9 06 3d da e0 44 bd
       0.015087666 -0.04155759 0.03289175 -0.048065998
000350 db 74 3e bd 15 1f 1a 3d 4f a5 84 bd 59 4b 37 bd
       -0.04649816 0.0376273 -0.064768426 -0.04474959
000360 c3 b9 51 bd 55 91 dc 3c 37 21 17 bd c4 41 06 3b
       -0.051202547 0.026924768 -0.03689691 0.0020485977
000370 ff 39 3a bd 9e 8a 0a bd fb 3d 1d 3c 81 40 80 3d
       -0.045465466 -0.033823602 0.009597297 0.06262303
000380 d3 04 89 3d c9 50 57 bc 5c 84 60 3d f6 f1 04 bd
       0.06690373 -0.013141819 0.054813728 -0.032457314
000390 33 77 13 3d ba 0b 29 3d 0e d3 48 3c b2 39 2e bc
       0.03600235 0.04127095 0.012257351 -0.010633873
0003a0 ab 52 ae 3c a9 05 bb bc 59 95 d4 ba dc 7a 5a bd
       0.021279654 -0.022829847 -0.0016218825 -0.053339824
0003b0 3e 44 be 3c 53 2f 3a bd 9f e2 58 3d a9 f9 0c bd
       0.0232259 -0.04545529 0.052950498 -0.034417782
0003c0 4f 74 3b bd e6 0b 51 3d 28 a9 50 3c b1 ac 89 bd
       -0.045765217 0.051036738 0.0127356425 -0.067223914
0003d0 31 ab b8 3c 68 8c 37 3c be 67 29 3d d7 ed 04 3c
       0.022542568 0.011202909 0.041358702 0.008113346
0003e0 6f 44 e1 bc ea 4b db bc 4b 01 93 bd 4c 6d 19 bd
       -0.027498452 -0.026769597 -0.07177981 -0.03745775
0003f0 98 33 9d 3c 5f 1d 0a bd 61 eb 30 3d 15 dd 81 3d
       0.01918964 -0.033719417 0.043193225 0.06340996

baseModel.4.bias f4 [64]
000000 1e 18 b3 37 f0 2b b4 37 92 d7 59 b6 13 28 83 36
       2.1349693e-05 2.1478132e-05 -3.2460998e-06 3.9087695e-06
000010 4e 81 bb 35 89 78 84 36 7c 16 15 b6 f9 e9 83 35
       1.3970218e-06 3.9479387e-06 -2.2215818e-06 9.828356e-07
000020 fc 3a 96 35 bd 4f be 36 dc 11 af b6 a2 e5 5a b7
       1.1193038e-06 5.671724e-06 -5.2174855e-06 -1.3047278e-05
000030 71 0c 0d b7 55 9f 57 34 03 b0 55 b3 ae 36 ba b6
       -8.407152e-06 2.00814e-07 -4.975301e-08 -5.5495975e-06
000040 da bf 77 b6 56 ec 1b b4 e9 b7 05 36 b7 23 30 36
       -3.691754e-06 -1.4521478e-07 1.9925594e-06 2.6246832e-06
000050 1a 74 0e 37 d8 28 9e 2f 15 c5 d2 35 5b d1 43 b6
       8.490892e-06 2.8769054e-10 1.5703578e-06 -2.9179125e-06
000060 2f 9d d1 33 a5 95 94 35 6d ff c9 36 0e c3 1f b6
       9.7609124e-08 1.1070412e-06 6.0200023e-06 -2.3806383e-06
000070 16 6a 2c b7 dd 81 2c 36 e2 c2 ad b5 4e dd 91 b6
       -1.0276699e-05 2.5705588e-06 -1.2946223e-06 -4.3471e-06
000080 ef 2a c4 35 8f 1b 9b b7 94 a3 8d 37 7d 39 b8 b5
       1.4615633e-06 -1.8490273e-05 1.6884682e-05 -1.37258e-06
000090 12 68 0d 37 e5 e4 cb b5 08 ef bb b5 d8 c7 f2 37
       8.428486e-06 -1.5191296e-06 -1.4002153e-06 2.8941708e-05
0000a0 9d f2 f2 b6 15 d9 4f b5 2f bf 5a 36 85 2c f7 35
       -7.240406e-06 -7.7429405e-07 3.2595815e-06 1.8415891e-06
0000b0 18 17 d6 b6 e4 bb 7f b8 64 b6 81 34 a8 ef 15 35
       -6.3803855e-06 -6.0971724e-05 2.416083e-07 5.585557e-07
0000c0 d2 64 64 37 4a c6 1a 36 3f 48 17 35 8d 99 1c 36
       1.3613333e-05 2.3063208e-06 5.6357015e-07 2.333519e-06
0000d0 64 b4 94 34 db 46 01 37 bb 56 b6 35 f0 93 73 37
       2.76984e-07 7.7054965e-06 1.3585299e-06 1.4518373e-05
0000e0 43 1a e7 37 17 03 77 37 ed 2d ba b5 5e 9a 26 37
       2.7549575e-05 1.4723067e-05 -1.3871446e-06 9.930312e-06
0000f0 fb 87 0b b7 bd 75 7c 36 b3 24 64 37 88 bf 84 35
       -8.316706e-06 3.761946e-06 1.3598404e-05 9.890509e-07

baseModel.5.weight f4 [64]
000000 0c 50 7c 3f f3 1d 7a 3f 3a 96 7c 3f 46 4a 81 3f
       0.9855964 0.9770195 0.9866673 1.0100791
000010 8e 5a 78 3f 1c 2a 77 3f 7f 0f 78 3f b2 f1 76 3f
       0.97013175 0.9654863 0.96898645 0.9646255
000020 f7 c9 7e 3f 33 8a 7d 3f 2a 42 71 3f 28 9b 80 3f
       0.99526924 0.99039 0.94241583 1.004735
000030 25 9e 77 3f 3b 62 7b 3f d6 fa 74 3f c0 7d 75 3f
       0.96725684 0.9819676 0.95695245 0.95895004
000040 f6 35 7b 3f c2 eb 79 3f ee fb 77 3f 96 80 79 3f
       0.9812921 0.9762536 0.9686879 0.9746183
000050 a2 82 7b 3f 5d 27 78 3f 9c dd 75 3f ff b9 78 3f
       0.98246205 0.96935064 0.96041274 0.9715881
000060 c6 bf 78 3f ff c2 7a 3f 54 ce 74 3f 14 a7 7a 3f
       0.97167623 0.9795379 0.9562733 0.9791119
000070 48 4a 7f 3f ac 65 7a 3f ed 79 7b 3f 46 2f 77 3f
       0.9972272 0.9781139 0.9823292 0.9655651
000080 17 15 73 3f 31 ef 7b 3f 15 3f 7b 3f 25 cd 75 3f
       0.94954056 0.9841185 0.9814313 0.9601615
000090 21 77 7b 3f dd bc 79 3f 29 4c 72 3f ed 2a 7c 3f
       0.9822865 0.9755381 0.9464746 0.98503
0000a0 63 25 7c 3f 1e da 7a 3f 80 02 7b 3f 9c 9b 75 3f
       0.9849455 0.9798907 0.9805069 0.95940566
0000b0 3a 6e 7d 3f b6 c0 7c 3f 29 cf 7d 3f 96 eb 7c 3f
       0.9899632 0.98731554 0.99144226 0.98796976
0000c0 70 5a 84 3f 9f c4 72 3f c0 bc 80 3f 8a 13 7a 3f
       1.0340099 0.9483127 1.0057602 0.97686064
0000d0 0a 02 79 3f 96 ff 7b 3f 2e 2d 78 3f 81 44 77 3f
       0.97268736 0.9843687 0.9694394 0.96588904
0000e0 8c 15 7c 3f 12 9b 77 3f b2 95 78 3f 05 c2 78 3f
       0.9847038 0.96720994 0.97103417 0.9717105
0000f0 8f 8e 7c 3f f9 6b 79 3f a0 dd 76 3f 28 77 76 3f
       0.9865503 0.9743038 0.9643192 0.9627557

baseModel.5.bias f4 [64]
000000 d5 f8 3d bc 9b 54 4b bc 9f 4f cc 3c 56 1a 01 bc
       -0.011594971 -0.012410308 0.02494031 -0.007879814
000010 b7 57 d4 bb e4 9d dd bb 32 83 b9 ba ef df fb bb
       -0.006480183 -0.006763207 -0.0014153479 -0.007686607
000020 f7 f3 35 bb ea 5d 56 bc 20 80 9b bc 1e f5 4a 3c
       -0.0027763823 -0.013083914 -0.018981993 0.012387542
000030 f2 12 34 bc ba 00 85 bb 84 75 b7 bb ba a8 55 3b
       -0.010990845 -0.0040589245 -0.0055987258 0.003260179
000040 82 da 5e 3b 6f f2 29 3a 52 eb 13 3b c4 9a a7 3c
       0.0034004753 0.0006482964 0.0022570682 0.02045954
000050 34 2a 40 bb 4c ec be ba e1 64 45 ba 8f b0 cf 3b
       -0.002932203 -0.0014566272 -0.0007529986 0.006338186
000060 b6 80 6d bc 80 be 97 3b 94 f9 5e 3a 47 67 3e 3c
       -0.014496019 0.0046308637 0.0008505818 0.011621303
000070 bc 45 77 3c 79 cd 4a bc b7 ea a3 bc 51 25 59 3b
       0.01509231 -0.01237809 -0.020009382 0.0033133815
000080 4e d5 49 3a 7b b2 68 ba c2 c1 b0 ba d0 ec a4 bb
       0.00076993264 -0.00088766933 -0.0013485479 -0.005033113
000090 b4 e2 03 3c ee cc ca 3b 85 13 80 bc ff 16 02 bc
       0.008049656 0.0061889803 -0.015634308 -0.007940053
0000a0 4d c1 07 3c c6 e1 1a 3c df 81 41 3c 2b 9c 27 bc
       0.008285833 0.009453243 0.011810749 -0.010230104
0000b0 ec 49 b2 bb 30 61 d6 bc 88 54 89 3c a2 4f 06 bb
       -0.005440941 -0.02616939 0.01676394 -0.0020494242
0000c0 7e bd 20 3a 0d 45 a9 bc e2 9f ff 3c 44 14 a5 3b
       0.0006131752 -0.020662809 0.031204168 0.0050378162
0000d0 f6 6d a6 3c 8c 16 bb 3b c4 e1 c2 bc 3f f2 37 bd
       0.020316105 0.005709475 -0.023789294 -0.04490876
0000e0 e8 94 06 bc d9 a3 6e bb a1 4a 1d bc fe d3 60 3c
       -0.008214213 -0.0036413579 -0.009600312 0.013722418
0000f0 86 fc 27 3b 7f dd a2 3b f5 40 a7 bc 52 5d b8 3b
       0.0025632693 0.004970252 -0.020416716 0.005626359

baseModel.5.running_mean f4 [64]
000000 d9 ab 49 be 27 82 6c bd 6f f7 00 bf 26 36 bd be
       -0.19694461 -0.05774131 -0.50377554 -0.36955374
000010 7d de a6 be ac 25 21 be 54 f5 bb bc b7 3d d7 be
       -0.3259162 -0.15737027 -0.02294413 -0.42039272
000020 45 cc d6 bd 95 c7 76 be 0f c7 10 3d 91 d9 8f 3e
       -0.1048818 -0.24099572 0.035346087 0.28095677
000030 b5 4c 82 3d bf 16 d1 bd 5d 1c cb 3e df 02 8f 3d
       0.06362287 -0.102094166 0.39670077 0.069829695
000040 fc b2 80 be 65 b3 37 3d e2 2a 13 3d d9 f8 ad be
       -0.25136554 0.04484882 0.035929568 -0.33978918
000050 7e 1d a7 be 6c f7 82 3e df 0f b2 3e c5 b5 89 3d
       -0.32639688 0.25579393 0.34777734 0.06724123
000060 8c 46 1b 3b aa 8f aa 3d d8 be 44 be d1 62 c2 be
       0.0023693172 0.08328183 -0.19213426 -0.37966016
000070 f4 44 ce bd a2 81 83 bd ec 2e 29 3d 49 93 bb 3c
       -0.100717455 -0.0642121 0.041304514 0.02289738
000080 dc d7 be be 15 b7 a9 be a2 e8 9b 3e cc eb a1 3e
       -0.37274063 -0.33147493 0.30450922 0.3162521
000090 c6 76 28 3d bc 78 84 3d 14 fe 35 bd b4 33 02 3d
       0.041128896 0.06468341 -0.04443176 0.03178759
0000a0 30 c4 d6 3e 00 2e 81 bc 34 5b df 3d 6e c9 b0 3e
       0.41946554 -0.015769005 0.109060675 0.3452868
0000b0 0d 40 b8 3c de a4 3b bd 74 27 56 3d 73 87 53 be
       0.02249148 -0.045811526 0.05228372 -0.20657139
0000c0 cd f6 2f be 74 2e 1c be 2b ae 2f be 18 f2 9b 3e
       -0.17183991 -0.15252095 -0.17156284 0.3045814
0000d0 7b bb be bd 62 a0 3a 3e 82 da 82 3d 60 33 f1 3c
       -0.09313103 0.18225244 0.06389333 0.029443443
0000e0 a2 3f e8 bd 8e 60 93 3d a6 a8 b4 3d f5 97 53 bc
       -0.11340262 0.07196151 0.0882123 -0.012914647
0000f0 47 15 75 bc 6c 91 b5 be aa 90 57 3e 55 3c 6c be
       -0.014958686 -0.3546251 0.21051279 -0.2306989

baseModel.5.running_var f4 [64]
000000 a7 05 fe 3c c8 8e e1 3d 27 5f 9a 3d 95 3c 42 3d
       0.031008555 0.110135615 0.0753768 0.047421057
000010 25 b9 15 3e e5 87 e4 3d ee 0a 74 3d b3 cd fc 3d
       0.14621408 0.11158732 0.059580736 0.123439215
000020 b9 bc e0 3d eb 86 92 3d 19 f2 df 3d 8f 0e 0f 3e
       0.10973496 0.0715464 0.10934848 0.13970397
000030 42 42 e3 3d 5f 76 8a 3d e0 c2 7b 3d 6c 30 82 3d
       0.11096622 0.06760859 0.061465144 0.06356892
000040 9a 86 ad 3d 3b f4 88 3d 61 c9 c4 3d 68 43 4c 3d
       0.08472939 0.06687208 0.096087225 0.04986897
000050 6f 0f 39 3d f6 22 98 3d c7 6f 12 3e 00 68 0c 3e
       0.045180734 0.07428543 0.14300452 0.13711548
000060 8b a0 9e 3d 6e ab 45 3d 15 c8 89 3d 4e b7 f0 3d
       0.07745465 0.04825919 0.06727616 0.117537126
000070 aa 6a 50 3d f6 5b 40 3e 6a 38 32 3e 5a f1 bb 3d
       0.050882973 0.1878508 0.17404333 0.091768935
000080 55 5d fe 3d bf 60 62 3d ca c7 d5 3d 3d 43 06 3e
       0.124201454 0.055268046 0.10438497 0.13111587
000090 48 2e b1 3d 7e f3 f8 3d c0 5a 32 3e 00 01 56 3d
       0.086514056 0.121558174 0.17417431 0.052247047
0000a0 8e 10 91 3d 00 3a aa 3d f4 cf 3b 3d c3 1e 1f 3e
       0.07083236 0.08311844 0.045852616 0.15539078
0000b0 99 c9 33 3d ff fd 2f 3d 12 88 93 3d f1 6f e6 3d
       0.04389343 0.04296684 0.07203688 0.1125182
0000c0 39 13 87 3d 03 1e 66 3d 48 c9 f3 3d d1 60 72 3d
       0.06595463 0.056180965 0.11903626 0.059174363
0000d0 70 47 fb 3d a9 42 38 3d dd 87 c9 3d c7 60 ee 3c
       0.12269485 0.044985447 0.09840367 0.029098881
0000e0 e1 dc 33 3e a6 e2 9b 3d 50 91 a5 3d a2 cc c1 3d
       0.17564727 0.07611589 0.08084357 0.09462859
0000f0 88 20 e7 3d 67 07 61 3d 4c 2e f2 3d b7 61 6a 3d
       0.11285502 0.0549387 0.11825237 0.057222094

baseModel.8.weight f4 [64, 64, 3]
000000 ea d8 59 bc a8 33 84 bd 60 5d 5d bd ab c1 7a bd
       -0.013296345 -0.06455165 -0.054044127 -0.061219852
000010 20 68 cc 3b f4 6a e5 3c 8f 46 d8 3c d0 b7 70 bd
       0.0062379986 0.0280051 0.026400832 -0.058769047
000020 80 ae 07 3c 56 ca 03 bd 91 9f 6f 3d e2 0c 8d 3c
       0.00828135 -0.032175384 0.058501784 0.017218057
000030 02 96 00 bb 5a 78 1a bd d4 19 83 bd 53 a8 aa 3c
       -0.0019620662 -0.037712432 -0.06401411 0.020832216
000040 72 b3 a2 3c e7 42 8e 3b 4d 83 a6 bd 75 7b d9 3c
       0.019860957 0.0043414715 -0.081305124 0.026548127
000050 2b 7d 47 bd c8 11 ae 3c 34 86 44 bc 99 b1 14 3c
       -0.048703354 0.021248713 -0.011994887 0.009075546
000060 f0 fd e5 3c b9 3b 8e 3c d4 f6 58 bd d4 dc 38 3d
       0.028075188 0.017362462 -0.05296977 0.045132473
000070 06 51 7a 3d 73 98 58 bd 12 92 27 3d 5b 27 3b bc
       0.061112426 -0.052879762 0.040910788 -0.011422957
000080 96 0a 9a 3c 9d 19 76 bd 5d 79 e7 3c 59 7b 26 bb
       0.018803876 -0.06008302 0.028256113 -0.002540311
000090 54 5b a7 bc 54 65 76 bd 66 47 4a bc c9 c3 2d 3c
       -0.02042929 -0.060155228 -0.012346124 0.010605761
0000a0 a3 1d 28 3d 7e c0 76 bd 46 b0 44 3c b8 c6 8f 3c
       0.04104389 -0.06024217 0.0120049175 0.017550811
0000b0 b6 d4 85 bc ef ba 99 bc 13 9b e1 bb d0 5f 35 3c
       -0.01633678 -0.018765895 -0.0068849414 0.011070207
0000c0 15 96 9c 3b 08 09 90 3d 05 d3 81 3d 16 6d 77 bd
       0.0047786334 0.070329726 0.06339077 -0.060406767
0000d0 75 6c 0c bd 40 44 0b bd c5 39 8f bd 6b a6 00 3d
       -0.03428312 -0.034000635 -0.069934405 0.03140871
0000e0 0c b4 f0 bc 3e b7 7a 3c 8a 94 7a 3d b0 11 db 3c
       -0.029382728 0.015302477 0.061176814 0.026741832
0000f0 4b 4c 80 3d e5 76 92 bd 2e 18 73 bd 8b a4 a4 3c
       0.06264552 -0.071515836 -0.05934923 0.020097991
000100 c0 2e 03 bd 3c cf 95 3c 9d 2a 87 3d d9 da 8b bc
       -0.032027006 0.018287294 0.06599925 -0.017072128
000110 c4 da 53 bc d7 81 a3 bc 2d 65 97 bc 7e 7f a7 bc
       -0.012930576 -0.019959373 -0.018480862 -0.020446535
000120 1c c5 c4 bb a6 9a 5b bd d9 ae be bb a9 ea 47 3d
       -0.0060049426 -0.05361428 -0.0058191833 0.048807774
000130 59 77 1a bd 98 9b 49 3d 97 d2 00 3d 0b 71 53 bd
       -0.037711475 0.04922065 0.031450834 -0.051621478
000140 9f 60 1c bc 14 64 f2 3c 08 62 fd bc b0 bc c8 3c
       -0.009544521 0.029588737 -0.030930534 0.024504036
000150 42 b1 ad bc bd 24 49 3d a9 94 4f 3d cf ff 34 bd
       -0.021202687 0.049107302 0.050678883 -0.04418927
000160 ff 9b 43 bd d3 ac a6 bd ca 7a 01 3d 7f 7e fd bc
       -0.04775619 -0.08138432 0.03161124 -0.030944107
000170 3b 25 00 bc d1 e7 26 3c 99 eb 09 bd 11 e4 09 bd
       -0.007821376 0.010187105 -0.03367195 -0.033664767
000180 f3 27 80 bd e2 c1 0f 3d 2e dd 1a 3d 6f d3 58 bd
       -0.0625762 0.03509701 0.03780859 -0.052936014
000190 e0 43 19 bd f7 77 8b bd 6f cc 2c 3d ae dc d8 3c
       -0.037418246 -0.06809991 0.04218715 0.026472416
0001a0 6e f5 e3 bc 85 20 bb 3c ee 3e 46 3d fd 65 22 3d
       -0.027826991 0.022842655 0.04839986 0.039648045
0001b0 62 b7 30 bd 10 cf 01 39 18 df 01 3d 51 26 32 3d
       -0.043143637 0.00012379535 0.0317069 0.043493573
0001c0 bf c5 9c 3c 76 2a cb bc eb 29 08 3d 03 ca b2 bc
       0.019137261 -0.02480052 0.0332431 -0.021824842
0001d0 a5 ca 47 bd e5 13 6e bd ac f6 42 bd 29 d4 40 3d
       -0.04877724 -0.05812444 -0.047598526 0.04707733
0001e0 17 db 59 bd f1 6d 98 3b a5 c3 8a bd 8c 3b 0a 3b
       -0.053187456 0.004651778 -0.067755975 0.0021092622
0001f0 bd 31 2d 3c 09 a5 d8 3c 4e cc c4 bc f9 9c 40 bd
       0.010570941 0.026445882 -0.024023201 -0.0470247
000200 dc 93 c2 bc 09 a8 bb 3c 55 87 79 bd 31 cb 3b 3d
       -0.023752145 0.022907274 -0.06092008 0.045848075
000210 2a 57 97 3c 67 04 65 3d 57 77 90 bd f8 87 3e 3d
       0.01847418 0.0559124 -0.07054012 0.04651639
000220 03 75 d0 bc 83 98 47 bd c0 86 e9 3c 67 f5 fa bc
       -0.02544642 -0.04872943 0.028506637 -0.030634595
000230 65 37 b4 bd c1 e2 8c 3c 40 34 3b bd a8 e1 f8 3a
       -0.08799628 0.017197968 -0.045704126 0.0018988149
000240 99 08 76 3d 61 9a 70 bc 41 6d 45 3d 87 4b 50 3c
       0.060066793 -0.014685244 0.048199896 0.01271332
000250 00 41 04 bd 9c 00 5f bd d3 72 5c 3c 19 75 f7 3c
       -0.03228855 -0.05444394 0.013455111 0.030207204
000260 ac 43 47 3d 90 05 17 bc 99 0f 88 bd 50 99 1f bd
       0.04864852 -0.009217635 -0.066436 -0.03896457
000270 f8 ac 0c bd 67 47 7a 3c d5 e8 96 bc 27 bb 6e bd
       -0.034344643 0.015275813 -0.01842157 -0.05828395
000280 19 ea 41 3d a7 3e 7c 3d b4 38 80 bd 6e 50 27 bd
       0.047342394 0.061583187 -0.06260815 -0.040848188
000290 be 2a 84 bc f6 30 7f 3c 77 83 03 3c af b4 08 bd
       -0.016133662 0.015575638 0.008026949 -0.03337544
0002a0 64 70 04 3c 32 94 3e bd 17 76 46 3d 07 55 88 3c
       0.008083437 -0.04652805 0.048452463 0.016642107
0002b0 ca 4d 20 3d 7e c6 72 3c 58 64 47 3d 57 17 09 bd
       0.039136685 0.014817832 0.04867968 -0.033469524
0002c0 b5 77 60 bc 50 01 ea bc 75 c3 a9 bc ee a7 1a bd
       -0.013700415 -0.028565079 -0.020723084 -0.037757806
0002d0 d9 4f 67 3d b7 b8 4e 3c 7a 11 9e bd 12 7f 82 bd
       0.056472633 0.012617282 -0.07718177 -0.06371893
0002e0 e4 61 4b 3d 0e 77 a9 bc ca 32 9f 3c 4f 75 af bc
       0.049653903 -0.020686653 0.019433398 -0.021418242
0002f0 45 5c 56 3d 21 c6 2a bd e7 75 94 3d a9 12 69 3d
       0.05233409 -0.041692857 0.072490506 0.05690256
000300 0f a6 3c 3d 25 c3 4b bc a5 63 9e bd f9 21 cc 3c
       0.046056803 -0.012436663 -0.077338494 0.024918543
000310 1c f6 71 bd cd cf 65 bd 05 f0 b7 3c 16 5b 2c 3c
       -0.0590726 -0.056106377 0.022453317 0.010519763
000320 70 6d 68 3d 29 69 8e 3d 97 01 28 3d 6a 89 2e bd
       0.056744993 0.069536515 0.04101714 -0.042611517
000330 95 0e 48 bd 50 48 1f 3b 8c c5 1b 3d c9 d6 42 3d
       -0.04884203 0.0024304576 0.038030192 0.047568116
000340 af 69 37 bd 8f f8 a0 3b c1 04 d1 bc 05 3a dd bc
       -0.044778522 0.004912443 -0.025514962 -0.027005205
000350 3b 7a 43 bd ab da ec 3c d0 0d 78 3d 0b 71 18 bd
       -0.04772399 0.028912863 0.060560048 -0.03721718
000360 7a 49 53 3b 4b c0 06 3b 7b b7 e5 bc f0 87 79 bd
       0.003223984 0.0020561393 -0.028041592 -0.060920656
000370 26 98 13 3b ef 01 20 bc 80 95 7e bd 05 60 12 bd
       0.0022521107 -0.009766086 -0.062154293 -0.035736103
000380 6c 90 81 bd d0 66 ac bd 5d 54 54 bd a8 4a 2b bd
       -0.063263744 -0.084180474 -0.051838268 -0.041819245
000390 54 b8 08 3d 6b 88 8f 3c 01 6e 4d 3d 1c 73 23 3d
       0.033378914 0.017521104 0.050153736 0.0399047
0003a0 80 71 05 bc e8 40 2d 3d e2 ba 6d 3d 19 e2 27 3c
       -0.008144736 0.042298228 0.058039553 0.010246777
0003b0 65 9c 09 bd a9 53 e6 3c 45 62 2e 3d 53 de 9c bd
       -0.033596415 0.028116064 0.042574186 -0.076595925
0003c0 21 99 d7 bb 8b b1 69 3b d4 b3 65 3d af 46 b5 3d
       -0.0065795337 0.0035658802 0.0560797 0.088513725
0003d0 04 e6 1a bc 20 f3 dc 3c c8 dc 89 bc 41 10 79 3d
       -0.009454254 0.0269714 -0.01682891 0.060806517
0003e0 57 71 3a bd 0d 1b 8a 3d 5b ac 1c 3d cc ac 58 3d
       -0.045518246 0.06743441 0.03825031 0.052899167
0003f0 c5 b5 be 3c 10 d0 b1 bb 19 93 60 3d 5c 16 45 bc
       0.023280034 -0.0054264143 0.054827783 -0.012029257

baseModel.8.bias f4 [64]
000000 19 4b 6e 37 c7 f8 b7 35 4e 24 bf 36 97 f2 80 b5
       1.42033905e-05 1.3706966e-06 5.69647e-06 -9.607346e-07
000010 ea d1 06 35 43 40 93 b7 15 6f 3d 35 84 e8 b3 36
       5.0224355e-07 -1.755369e-05 7.056963e-07 5.361684e-06
000020 9d ba c3 b6 79 8c 5b b5 11 d7 da 35 bf ba 18 36
       -5.8331775e-06 -8.178827e-07 1.6304858e-06 2.2758466e-06
000030 5c 59 b8 35 b1 b4 94 b5 44 54 07 b6 25 ea c2 36
       1.3735075e-06 -1.1079447e-06 -2.0165617e-06 5.8089086e-06
000040 ef 66 bc 35 9f 72 a3 b4 93 6f be 34 f7 58 2a b7
       1.4037049e-06 -3.0444514e-07 3.547144e-07 -1.0153503e-05
000050 c6 f4 c7 32 67 bb 13 36 59 bf f9 34 ee 3c 8a 34
       2.327796e-08 2.201379e-06 4.6519088e-07 2.5748835e-07
000060 dc 2e 04 b7 06 88 c5 36 e0 2c e2 36 3b dd 46 37
       -7.878723e-06 5.8868927e-06 6.740549e-06 1.1853229e-05
000070 35 5f eb 34 3f 07 30 35 63 17 65 36 51 40 37 b5
       4.3841433e-07 6.5575654e-07 3.4137272e-06 -6.8266405e-07
000080 7e 29 90 b4 b6 51 ce 35 cb 2c 33 36 59 36 8b 35
       -2.685228e-07 1.5371977e-06 2.6699151e-06 1.0372124e-06
000090 bb 2a 06 b6 09 fa f5 36 e6 3f 94 35 ed 47 92 36
       -1.9992428e-06 7.330677e-06 1.1045456e-06 4.3595123e-06
0000a0 e9 94 2c b7 ee aa 44 b6 6f 9e b5 b6 bd 15 9e 35
       -1.028667e-05 -2.930577e-06 -5.4126644e-06 1.1778244e-06
0000b0 98 91 34 b7 91 70 ad 36 35 31 69 b6 1b f8 1c b5
       -1.0762735e-05 5.1689062e-06 -3.4748348e-06 -5.847557e-07
0000c0 c0 b0 50 35 2e e1 2e b6 f5 d6 e1 b4 6c a1 f7 b6
       7.7743243e-07 -2.6059092e-06 -4.2065918e-07 -7.3799656e-06
0000d0 70 cd 4f b5 b7 9f 89 36 8c 31 5d b7 cf 19 2c 37
       -7.741246e-07 4.1015114e-06 -1.31841625e-05 1.0258008e-05
0000e0 c4 a4 be b5 4f 1e 35 37 11 b8 0a 35 d1 88 80 b5
       -1.4204056e-06 1.07954975e-05 5.167686e-07 -9.576562e-07
0000f0 8a 0a a4 36 50 cc 89 b6 17 07 1c 36 47 7e 44 b7
       4.888808e-06 -4.1067033e-06 2.3249938e-06 -1.1711912e-05

baseModel.9.weight f4 [64]
000000 6c fd 74 3f 35 b2 7b 3f 87 2f 7c 3f c8 2a 7b 3f
       0.9569919 0.983188 0.9851002 0.98112154
000010 20 2f 7b 3f 55 0d 7a 3f c4 52 76 3f b3 b4 79 3f
       0.9811878 0.97676593 0.9622004 0.9754135
000020 a6 06 77 3f 23 72 7b 3f 20 13 76 3f 55 93 73 3f
       0.9649452 0.98221034 0.9612293 0.95146686
000030 05 af 7a 3f cd 82 78 3f 9d 01 70 3f 0d 04 73 3f
       0.9792331 0.97074586 0.9375246 0.94928056
000040 5f d2 7a 3f 63 96 73 3f b3 99 74 3f 28 42 7b 3f
       0.9797725 0.95151347 0.95547026 0.9814782
000050 21 2f 7a 3f f7 b8 79 3f 55 70 7f 3f 44 7b 7d 3f
       0.97728163 0.9754786 0.9978078 0.99016213
000060 29 9a 73 3f fc 10 76 3f 8a 05 79 3f 41 97 75 3f
       0.95157105 0.96119666 0.97274077 0.9593392
000070 a1 06 77 3f 37 84 7a 3f 1f 05 79 3f 77 1f 79 3f
       0.9649449 0.97857994 0.9727344 0.97313637
000080 d0 bb 7c 3f 14 2a 79 3f d8 17 7c 3f 33 bf 80 3f
       0.9872408 0.9732983 0.9847388 1.0058349
000090 31 37 71 3f 1e 84 75 3f 74 ec 74 3f 1b 37 74 3f
       0.9422484 0.9590472 0.956733 0.95396584
0000a0 46 cf 72 3f c6 cd 7e 3f 42 4f 7a 3f 22 ef 7f 3f
       0.94847524 0.99532735 0.9777719 0.9997426
0000b0 e8 53 83 3f d5 7e 76 3f 8b fb 7f 3f e4 41 75 3f
       1.0259981 0.9628728 0.999932 0.95803666
0000c0 4c c1 75 3f 22 4f 79 3f ce 7e 7b 3f 39 5f 79 3f
       0.9599807 0.9738637 0.98240364 0.97410923
0000d0 c7 8b 7a 3f 6c e0 7a 3f e2 92 72 3f aa ae 73 3f
       0.97869533 0.9799869 0.94755375 0.9518839
0000e0 ed 32 76 3f 9f 20 72 3f d2 40 74 3f 0e bc 72 3f
       0.96171457 0.94581026 0.9541141 0.948182
0000f0 0e a4 71 3f 0c 29 83 3f 6c 7d 7e 3f e8 12 7f 3f
       0.9439095 1.0246902 0.9941013 0.99638224

baseModel.9.bias f4 [64]
000000 95 73 ec bb 9f 60 0c 3b 40 30 73 3c ca ce 3f bc
       -0.007215927 0.0021419895 0.014843047 -0.011707017
000010 18 9c 2e 3c c4 91 e3 3c 63 50 49 bb 4e 56 8b ba
       0.010657333 0.027779467 -0.003071808 -0.0010630579
000020 e5 f5 5d 3b 01 71 78 3b 1b 8d 5c 3b cc 71 94 bc
       0.0033868488 0.0037909152 0.0033653441 -0.018120669
000030 79 5f 60 3c 91 2c 4a 3c c0 1d 6d bc 51 51 4a bb
       0.013694637 0.012339727 -0.014472425 -0.0030871222
000040 e0 ca b0 3b d9 f8 c5 bb bb b9 18 bc b9 4a 79 3c
       0.0053952783 -0.006041628 -0.009321625 0.015215569
000050 ec 16 96 ba 69 9f 1c bc 70 45 a9 3c 89 4d 1b bb
       -0.0011450923 -0.009559491 0.020662993 -0.0023697338
000060 9f 96 1b bc 87 98 c7 3a 75 83 61 3c c8 e8 65 bc
       -0.00949636 0.0015227952 0.013764252 -0.01403255
000070 39 36 91 bb cb a4 48 3c 61 68 03 3b f6 ca 10 bc
       -0.0044315127 0.012246321 0.0020051228 -0.008837452
000080 a9 12 f2 bb 0b d8 bc 3b 9a b9 5d bc 51 69 fd 3b
       -0.0073874784 0.005763059 -0.01353302 0.007733502
000090 3f 05 9c bc 7e f2 a9 3a 6e 2e b2 3a ad c2 9e bb
       -0.01904547 0.0012965945 0.0013594159 -0.0048449845
0000a0 aa 4b b4 bb 95 c6 5f 3c 04 b2 82 3c a5 4d 59 3c
       -0.005502184 0.0136581855 0.015954025 0.013263141
0000b0 c7 bc e3 3c 91 b3 63 3c f8 be 92 3b 97 2a c8 bb
       0.027799977 0.013897792 0.0044783317 -0.0061085927
0000c0 d5 a8 00 bc 00 48 28 3a a9 9a f2 3b a1 83 52 3a
       -0.007852753 0.000641942 0.007403691 0.00080304785
0000d0 97 0a 5a 3b 04 d8 62 bc 23 87 b0 ba 2f 39 60 bc
       0.0033270472 -0.013845447 -0.0013468008 -0.013685509
0000e0 19 8c c9 3b 3b f6 c5 bc 7a e9 33 bc f5 e4 a0 bb
       0.006150734 -0.024165263 -0.010980958 -0.0049101063
0000f0 8a 3f 51 bc 61 ff 4e 3c 0a 02 b3 3c cb e6 c6 3c
       -0.012771497 0.012634129 0.021851558 0.024279973

baseModel.9.running_mean f4 [64]
000000 56 c5 06 bf c7 61 cc 3e 1e 8b 93 be b0 3f c5 be
       -0.5264486 0.39918348 -0.28817075 -0.38525152
000010 04 c8 af be e2 23 85 3d 72 dc 39 bf 1a 5b 18 bf
       -0.34332287 0.06500985 -0.72602 -0.5951401
000020 e1 56 2a 3e 48 d2 48 bf 6c 89 0d 3f c7 f0 8c bf
       0.16634704 -0.78445864 0.55287814 -1.101098
000030 b1 18 04 bf b0 3f bc 3d 8d 38 f0 bd 80 dd cf 3e
       -0.51600176 0.09191835 -0.11729536 0.4059868
000040 b3 18 0d 3e c0 fb 5c 3f b1 b6 cc be 46 27 5c 3e
       0.13778953 0.8632164 -0.39983132 0.21499357
000050 72 55 36 bf 1b 66 ad be 6d 6a 1b 3f e3 48 09 3f
       -0.7122413 -0.33866963 0.6070927 0.5362684
000060 f3 af 20 bf b7 ad 8b 3e b1 ab 6e 3e 22 dd 44 3d
       -0.6276848 0.2728097 0.23307683 0.04806245
000070 89 ec e3 3d 72 23 72 3f fe 99 cd bd c9 34 8f be
       0.111291 0.94585335 -0.10039137 -0.2796996
000080 57 75 bf 3d d6 40 df be 82 12 21 be 52 37 27 bf
       0.09348553 -0.43604153 -0.15729716 -0.6531879
000090 44 19 f3 be 15 d3 fb 3e e1 62 2c 3e e9 00 67 3f
       -0.47480214 0.4918448 0.16834594 0.90235764
0000a0 41 68 01 3f 0c 22 7b bf 08 9e 32 bf d2 77 95 3e
       0.50549704 -0.98098826 -0.69772387 0.29192978
0000b0 0d cd 04 bf c8 3f a0 3e 1a 98 1a bf f7 e5 d3 3e
       -0.5187538 0.3129866 -0.6038834 0.41386387
0000c0 b2 ef cb 3e 7a 30 3d 3d d5 4b 81 3e f7 9d 45 3f
       0.3983131 0.04618881 0.25253168 0.7719416
0000d0 c4 93 98 be db cb 74 be 7d c2 af be 4a fb a1 bc
       -0.29800236 -0.2390589 -0.3432807 -0.019773144
0000e0 b3 93 53 bc 93 c1 74 be c5 92 4c 3f a1 c1 ab be
       -0.012913632 -0.23901968 0.7991145 -0.33546165
0000f0 94 d4 29 bf 64 d4 5b 3f 2c ee 8e 3d 33 bf ca 3e
       -0.66339993 0.8587096 0.069790214 0.39598998

baseModel.9.running_var f4 [64]
000000 b6 85 23 3e f2 5b 73 3e 8f db 4f 3e d4 a2 3f 3e
       0.15968975 0.23765543 0.20298599 0.18714458
000010 35 af 7a 3e 8c 20 12 3e dd 2f cc 3e 01 fc 7d 3e
       0.24480899 0.14270228 0.39880267 0.24803163
000020 93 8c 16 3e 65 2b 17 3e ec f4 64 3e 00 c5 9a 3e
       0.14702062 0.14762647 0.22359055 0.30228424
000030 88 6a a2 3e 5f 20 33 3e dc 38 14 3e a5 56 38 3e
       0.31721902 0.17492817 0.14474815 0.18001802
000040 3b 56 24 3e c7 12 73 3e 34 04 43 3e bb 14 27 3e
       0.1604852 0.23737632 0.19044572 0.16316502
000050 70 da 3e 3e a3 ab 5f 3e 2d e4 54 3e 98 3d 2d 3e
       0.18638015 0.21842818 0.20790167 0.16918027
000060 39 fc 07 3e 23 96 16 3e 12 b7 4c 3e 8c 99 4d 3e
       0.13279809 0.1470571 0.19991711 0.20078105
000070 e8 d4 2a 3e 76 1a 54 3e ae a5 36 3e 91 04 34 3e
       0.1668278 0.20713219 0.1783664 0.17579867
000080 12 7b 1b 3e 80 a6 39 3e 82 46 4f 3e 9f df 35 3e
       0.15183666 0.18129921 0.2024174 0.17761086
000090 9b 38 72 3e d3 a3 3c 3e 87 47 55 3e 21 df 85 3e
       0.23654406 0.18421869 0.20828067 0.26146796
0000a0 ed 88 06 3e eb 72 36 3e 62 3b 5d 3e e4 6a 50 3e
       0.1313817 0.17817275 0.21604684 0.20353276
0000b0 a2 61 d6 3d f4 92 31 3e fa 5d 92 3e 9d 54 60 3e
       0.10467841 0.17341214 0.28587323 0.21907277
0000c0 3a c7 45 3e 65 41 32 3e 41 14 39 3e 3f d6 12 3e
       0.1931428 0.17407759 0.18074133 0.14339541
0000d0 9d 33 6d 3e 11 aa 31 3e 00 61 29 3e c7 15 4a 3e
       0.2316422 0.17350031 0.16540909 0.1973487
0000e0 fc 02 03 3e e6 41 4d 3e 33 b1 22 3e 67 4e bf 3d
       0.12794107 0.2004467 0.15887909 0.09341126
0000f0 fb 49 4a 3e ee 09 72 3e 93 c3 5d 3e 44 8e 28 3e
       0.19754784 0.236366 0.21656637 0.1646052
