Models/best_bl_0427_2.pth (torch, 495667 bytes, 42 tensors)

baseModel.0.weight f4 [64, 2, 3]
0	0x3e99def0	0.300529
1	0x3df70de6	0.12063198
2	0xbe96273f	-0.29326817
3	0x3e328251	0.17432524
4	0xbe7f41dc	-0.24927467
5	0xbe2d517a	-0.16925612
6	0x3e7a0647	0.24416457
7	0xbe985304	-0.29750836
8	0x3e1b7ed2	0.15185097
9	0x3c42e006	0.011894232
10	0x3dbe940a	0.0930558
11	0xbd9e994b	-0.07744082
12	0xbe039dc8	-0.12853158
13	0x3e178a39	0.14798822
14	0x3dbda860	0.092606306
15	0x3e0b02a4	0.13575226
16	0x3e73db07	0.23814021
17	0xbdce2be2	-0.10066964
18	0x3dc59aa5	0.09648637
19	0xbe278b02	-0.16361621
20	0xbe42a9fe	-0.1901016
21	0x3e43199a	0.19052735
22	0x3e46abf4	0.19401532
23	0xbd965c38	-0.07341808
24	0x3d184656	0.037176453
25	0x3d8b032d	0.06787715
26	0x3e93f85d	0.28900424
27	0x3e60df8f	0.21960281
28	0x3e8c76d2	0.27434403
29	0x3dcc069c	0.09962198
30	0xbe9d14f2	-0.30680043
31	0x3e4902e6	0.19630012
32	0x3ea7bb44	0.3276006
33	0xbe314804	-0.17312628
34	0x3e8015bc	0.25016582
35	0xbdbc8c5e	-0.092064604
36	0xbdd2f4f3	-0.103006266
37	0xbd1f7d33	-0.03893776
38	0xbd781c9b	-0.060574155
39	0x3e703434	0.23457414
40	0xbe023c8e	-0.12718412
41	0x3dbf9811	0.09355176
42	0x3df5348b	0.119729124
43	0x3c1af370	0.009457454
44	0x3e2482d6	0.16065535
45	0xbeab44ae	-0.33450836
46	0x3e68e6d4	0.22744304
47	0x3e6f24d8	0.23353899
48	0xbe96a220	-0.29420567
49	0xbe6880a0	-0.22705317
50	0x3cc1431c	0.02359157
51	0x3e83573f	0.256525
52	0xbe89121a	-0.26771623
53	0xbe70d007	-0.23516856
54	0x3bb7b4bb	0.0056062615
55	0xbea265fb	-0.3171843
56	0x3e1c81e5	0.15283926
57	0x3e57748f	0.21040557
58	0xbce4e5db	-0.027941635
59	0xbbee8846	-0.0072794287
60	0xbdbfdff5	-0.09368888
61	0x3e780c89	0.24223532
62	0xbe222af6	-0.15836701
63	0xbdf128b8	-0.117753446
64	0x3e91e88b	0.2849773
65	0xbddd408c	-0.10803327
66	0x3c0d8119	0.008636736
67	0x3ccd6984	0.025074728
68	0x3e05c0f8	0.13061893
69	0xbea01bfc	-0.3127135
70	0xbe8df9c7	-0.27729627
71	0x3e030621	0.12795307
72	0xbe265b6a	-0.16245809
73	0x3e46c109	0.19409575
74	0x3e7cda42	0.24692634
75	0x3e935eb3	0.28783187
76	0xbec4c617	-0.3843238
77	0xbe6d4289	-0.23169912
78	0xbe8800b9	-0.2656305
79	0x3e8f71a0	0.28016376
80	0xbc933edb	-0.017974308
81	0x3e25ee4e	0.16204187
82	0xbdad1733	-0.084516905
83	0x3e4de420	0.20106554
84	0xbdfd7d4f	-0.12377416
85	0x3e84e469	0.25955513
86	0xbe594adb	-0.21219961
87	0xbdbfdbc8	-0.09368092
88	0x3e1e6f52	0.15472153
89	0x3db13c78	0.086541116
90	0xbd17061d	-0.036871064
91	0x3eb1a887	0.3469889
92	0x3e819299	0.25307158
93	0xbde15c36	-0.11003916
94	0x3e936254	0.28785956
95	0x3e7ef3cd	0.2489769
96	0x3d9a08d9	0.07521219
97	0x3e6943e6	0.22779807
98	0x3eae36e6	0.3402626
99	0xbdb2c9f8	-0.08729929
100	0xbc0f9740	-0.008764088
101	0xbdf37ea8	-0.11889392
102	0x3e947244	0.28993428
103	0x3e9adc35	0.3024613
104	0xbdaeae7a	-0.085293725
105	0xbe62137d	-0.22077747
106	0x3e71d001	0.23614503
107	0x3eadfd99	0.33982542
108	0x3e3a441d	0.18190046
109	0xbe211fd0	-0.15734792
110	0xbe0fb024	-0.14032036
111	0xbe1fb29b	-0.15595476
112	0xbeb3144e	-0.3497643
113	0x3e46acfa	0.19401923
114	0xbe992c24	-0.2991649
115	0xbdcab8d9	-0.09898538
116	0x3e5b151c	0.21394771
117	0xbe848764	-0.25884545
118	0xbd5f31ce	-0.054490857
119	0x3e4c6e2e	0.19963905
120	0xbe13983f	-0.14413546
121	0x3e18ae88	0.14910328
122	0x3e3ca97c	0.18424028
123	0x3e4d4674	0.20046407
124	0x3e4c5d07	0.19957362
125	0xbe900f75	-0.28136793
126	0x3d241370	0.0400576
127	0x3eb07110	0.3446126
128	0x3ea4b662	0.32170397
129	0x3d37b36e	0.04484885
130	0xbe6a00d3	-0.22851877
131	0x3e0da517	0.13832508
132	0x3e229706	0.15877923
133	0xbd1b798b	-0.03795771
134	0x3e53b164	0.20673138
135	0xbe463476	-0.1935595
136	0x3ebd7e70	0.37010527
137	0x3eb23125	0.3480312
138	0xbd3c6c41	-0.046001676
139	0xbe93b2fa	-0.28847486
140	0xbec96307	-0.39333364
141	0x3e0ca6bd	0.1373548
142	0xbd076beb	-0.033061903
143	0x3e9b4a0e	0.30329937
144	0xbe3ec176	-0.18628487
145	0xbd262452	-0.04056198
146	0x3c99377f	0.01870322
147	0x3d38d3ca	0.045123853
148	0x3eb9815b	0.36231503
149	0x3e9aef39	0.30260637
150	0xbeb4b6dd	-0.35295764
151	0xbd9b4997	-0.075823955
152	0x3ea30ed0	0.3184724
153	0xbdc2f0d3	-0.0951859
154	0xbcaab8a9	-0.020840006
155	0xbdc8c43b	-0.09803053
156	0x3e4ea5d7	0.2018045
157	0x3d664266	0.056215666
158	0xbe9bebf3	-0.30453452
159	0x3d4aebae	0.049541168
160	0x3ebc6ae9	0.36800316
161	0x3d3f4606	0.04669764
162	0x3e91b823	0.28460798
163	0x3e3cdf6d	0.18444605
164	0xbca7fe75	-0.020507077
165	0xbe59e833	-0.21279983
166	0x3d86e0bf	0.06585836
167	0xbc516153	-0.012779552
168	0x3d71c3ae	0.059024505
169	0xbdd14fcb	-0.102202974
170	0xbea3e062	-0.32007128
171	0xbe80dcf9	-0.2516859
172	0x3d261ee8	0.04055682
173	0xbe581e5e	-0.21105334
174	0xbe4bea34	-0.1991356
175	0xbe6555e1	-0.22396041
176	0xbd1f4e11	-0.03889281
177	0xbccfd82c	-0.025371633
178	0x3e8e2f2d	0.27770367
179	0x3e184155	0.14868672
180	0xbe692fad	-0.22772093
181	0x3e7bd083	0.2459126
182	0x3e1240b2	0.14282492
183	0xbe8d1086	-0.2755167
184	0xbe617ca0	-0.22020197
185	0xbc36ea1c	-0.011164214
186	0xbe6b9789	-0.23007025
187	0x3df16170	0.11786163
188	0xbcda3076	-0.026634436
189	0x3e740fc8	0.23834145
190	0xbe96288a	-0.29327804
191	0xbd49fe7b	-0.049314957
192	0x3d182f09	0.03715423
193	0xbe64038d	-0.2226698
194	0xbe220696	-0.15822825
195	0xbca66768	-0.02031298
196	0x3d68f2c8	0.05687216
197	0xbd67ec74	-0.056621984
198	0x3d001baf	0.0312764
199	0xbcce4eda	-0.025184084
200	0x3d5bd466	0.053669356
201	0xbe8b06c3	-0.27153596
202	0x3ea47357	0.32119247
203	0xbe738d39	-0.23784341
204	0xbe67efe8	-0.2265011
205	0xbde14353	-0.10999169
206	0xbd56c120	-0.052430272
207	0x3ea47352	0.32119232
208	0x3ea2afce	0.31774753
209	0xbdf67411	-0.12033857
210	0xbded1e58	-0.11578053
211	0xbe9b1179	-0.30286768
212	0x3cf59cbc	0.029981963
213	0xbe5fc70e	-0.21853277
214	0x3da39152	0.07986702
215	0x3e83f436	0.25772256
216	0x3e98fd21	0.29880622
217	0x3ebe4dc3	0.37168702
218	0x3e6b7936	0.22995457
219	0x3e4de822	0.20108083
220	0x3e0bb759	0.1364416
221	0x3dfb1eef	0.122617595
222	0x3cf6a630	0.030108541
223	0xbe22ac1d	-0.15885969
224	0x3d9a999c	0.0754883
225	0x3de86d80	0.113490105
226	0xbe9d0e34	-0.306749
227	0x3d4637e6	0.048393153
228	0x3e4102ea	0.18848768
229	0xbe425d68	-0.18980944
230	0x3e29caa8	0.16581213
231	0x3e44cc12	0.19218472
232	0x3e614f20	0.2200284
233	0x3e893378	0.2679708
234	0xbe45f7b0	-0.19332767
235	0x3e3f86e0	0.18703794
236	0xbe921c17	-0.28537056
237	0x3e7633c1	0.2404318
238	0x3dff1b9d	0.12456439
239	0xbe8b9a47	-0.27266142
240	0xbe466800	-0.1937561
241	0x3e9359cf	0.28779456
242	0x3d67b3a9	0.05656782
243	0xbe9d0cdc	-0.30673873
244	0xbe81773e	-0.25286287
245	0xbe30f14d	-0.17279549
246	0x3dd00847	0.10157829
247	0xbe9717dc	-0.2951039
248	0xbe5c2142	-0.21497062
249	0xbe821ec3	-0.25414094
250	0x3e4f60c0	0.20251751
251	0x3e8ddaa6	0.27705878
252	0xbbc702c5	-0.006073328
253	0x3c7f4885	0.015581255
254	0x390c02e7	0.00013352522
255	0x3d67f089	0.056625877

baseModel.0.bias f4 [64]
0	0x39deda61	0.00042505845
1	0x391a2774	0.00014701282
2	0x396eac14	0.00022761553
3	0xb8da1451	-0.00010398834
4	0x3a0ef946	0.0005454015
5	0x3a0757a9	0.00051629037
6	0xb9952fb0	-0.00028455025
7	0x394d6e60	0.00019591441
8	0xb9271473	-0.00015933979
9	0xb83e8a1a	-4.5428147e-05
10	0xb9a0a366	-0.0003063932
11	0x395eb540	0.0002123909
12	0x3a2e5f6e	0.00066517934
13	0x38c3ada7	9.33067e-05
14	0xb84a8310	-4.8282614e-05
15	0x3a732ac8	0.0009276089
16	0x39f31129	0.00046361357
17	0xb9a1eb5e	-0.00030883675
18	0x3936405b	0.00017380847
19	0xb99c3f6e	-0.00029801897
20	0xb9c46524	-0.0003745939
21	0x36becf45	5.6865706e-06
22	0xb904454c	-0.00012614316
23	0x3989e32d	0.00026299935
24	0xb8e6836c	-0.00010991734
25	0x39c5484a	0.00037628628
26	0xb960c659	-0.00021436195
27	0x3a19df26	0.00058697385
28	0xb90c83f1	-0.00013400592
29	0xb954072a	-0.00020220564
30	0x397f747a	0.00024362086
31	0x393b0061	0.00017833851
32	0x390da920	0.00013509812
33	0xb9dbd0e9	-0.00041926585
34	0x39cdf57b	0.00039283544
35	0xb9a2991e	-0.0003101313
36	0x38c26f7a	9.271405e-05
37	0xba0855b7	-0.0005200761
38	0xb9ee015a	-0.00045395904
39	0xb84259f6	-4.6336987e-05
40	0x3a2dadf2	0.0006625346
41	0x39d30cad	0.000402545
42	0x393669dc	0.00017396308
43	0x39c03b5e	0.00036665326
44	0x39ad79c5	0.00033087857
45	0x3a24f511	0.0006292621
46	0xb92b8b4a	-0.0001635972
47	0xb95985fc	-0.00020744646
48	0xb95d54ee	-0.00021107841
49	0xb90eb687	-0.00013610172
50	0x3a1f4651	0.00060758466
51	0xb923e23b	-0.00015629169
52	0x3a4cd6c2	0.0007813984
53	0xb988627a	-0.00026013312
54	0x39e2aeec	0.00043236406
55	0x38a112d7	7.6805874e-05
56	0xb9a02148	-0.00030542375
57	0xb8e5acd3	-0.00010951762
58	0x399bfdc0	0.00029752962
59	0x3699173c	4.56246e-06
60	0xba2ddad9	-0.0006632037
61	0x376ebb5e	1.422953e-05
62	0x39acdd82	0.00032971433
63	0xb9e0eaa3	-0.00042899427

baseModel.1.weight f4 [64]
0	0x3f423ac8	0.75870943
1	0x3f4d5db1	0.80221087
2	0x3f4a1db8	0.789516
3	0x3f5dbe7e	0.86618793
4	0x3f4dc660	0.8038082
5	0x3f4025f1	0.75057894
6	0x3f3c9448	0.7366376
7	0x3f3b8468	0.7324891
8	0x3f54d791	0.8314143
9	0x3f40683c	0.7515905
10	0x3f42b9ef	0.7606496
11	0x3f428942	0.7599069
12	0x3f403b26	0.75090253
13	0x3f39cb45	0.7257579
14	0x3f356e71	0.70871645
15	0x3f58bae6	0.84660184
16	0x3f597a16	0.84951913
17	0x3f602ffd	0.87573224
18	0x3f474314	0.7783673
19	0x3f48b92f	0.7840757
20	0x3f50f8e6	0.8162979
21	0x3f55652f	0.8335752
22	0x3f44c7b3	0.76867217
23	0x3f4f79fa	0.81045496
24	0x3f58d2c6	0.84696615
25	0x3f4883ea	0.78326285
26	0x3f4bff0a	0.79686034
27	0x3f493bc6	0.7860683
28	0x3f3d6178	0.7397685
29	0x3f5edc5a	0.8705498
30	0x3f4c2d64	0.7975676
31	0x3f38d0e3	0.72193736
32	0x3f50e8f9	0.8160549
33	0x3f474b57	0.77849334
34	0x3f530174	0.8242409
35	0x3f4fbc00	0.8114624
36	0x3f61a8c2	0.8814813
37	0x3f3e6f40	0.74388504
38	0x3f41b681	0.75669104
39	0x3f4713ca	0.7776457
40	0x3f506549	0.8140455
41	0x3f42d23a	0.7610203
42	0x3f537b83	0.8261034
43	0x3f5ef983	0.87099475
44	0x3f4c11b7	0.7971453
45	0x3f4ff3be	0.81231296
46	0x3f394247	0.72366756
47	0x3f5cb3b9	0.86211735
48	0x3f462bfb	0.7741086
49	0x3f41d08e	0.75708854
50	0x3f36172d	0.71129113
51	0x3f56d4b4	0.8391831
52	0x3f58b4b1	0.84650713
53	0x3f4d5a08	0.802155
54	0x3f360ed1	0.7111636
55	0x3f3c9574	0.7366555
56	0x3f64f57e	0.8943709
57	0x3f3d1ffb	0.73876923
58	0x3f677b1b	0.9042222
59	0x3f4849c8	0.7823758
60	0x3f687950	0.9081011
61	0x3f44810c	0.7675941
62	0x3f3eda70	0.7455206
63	0x3f5abf48	0.8544812

baseModel.1.bias f4 [64]
0	0xbd1f61e3	-0.03891171
1	0x3d3e547e	0.046467297
2	0xbd6f37ac	-0.058402702
3	0xbd6f1c09	-0.058376346
4	0xbd170f81	-0.03688002
5	0xbdacc681	-0.08436299
6	0xbd10dcf2	-0.03536696
7	0xbd145b31	-0.03621978
8	0xbdd85a12	-0.105640545
9	0xbd99f4e9	-0.07517416
10	0xbbf2604e	-0.0073967343
11	0xbd9ff870	-0.078110576
12	0x3c71a63c	0.014749106
13	0x3bddf9fb	0.0067741848
14	0xbd1f0506	-0.03882315
15	0x3d15f3bc	0.036609396
16	0xbd32aee4	-0.04362382
17	0xbdc2c7ea	-0.09510787
18	0xbd644cf3	-0.055737447
19	0xbdb51db4	-0.08843556
20	0xbd6cd3c3	-0.05781914
21	0x3ab548c7	0.0013830893
22	0xbd9136bf	-0.0709052
23	0xbc659826	-0.014013326
24	0xbd02c9b5	-0.031930644
25	0xbd0145cd	-0.031560708
26	0xbdb53575	-0.08848087
27	0x3b1deefd	0.0024098747
28	0xbda74644	-0.08167699
29	0xbce5409d	-0.027984912
30	0xbc7f16f6	-0.015569439
31	0xbd330440	-0.043705225
32	0xbd109dc7	-0.03530672
33	0x3d453709	0.04814819
34	0xbd85d5a9	-0.06534893
35	0xbdf6de9c	-0.12054178
36	0xbd49513c	-0.049149737
37	0xbd95e290	-0.07318604
38	0xbd864211	-0.0655557
39	0x3ba46d0c	0.005017882
40	0xbcdd047d	-0.02697968
41	0xbd734aca	-0.059397496
42	0xbbf4c6ef	-0.007470004
43	0xbd758f12	-0.059950896
44	0xbd6b6042	-0.057464845
45	0xbd02b536	-0.031911097
46	0xbc15bfd6	-0.0091399755
47	0x3bb484bc	0.0055089872
48	0xbc95f9c7	-0.01830758
49	0xbd16a00e	-0.036773734
50	0xbd09c817	-0.033638086
51	0xbd5ed624	-0.05440344
52	0xbd28acb1	-0.041180316
53	0xbd99aa1f	-0.07503151
54	0xbd76a883	-0.0602193
55	0xbdb70ae7	-0.08937626
56	0xbd10cede	-0.035353534
57	0xbd3fd091	-0.046829764
58	0xbafd0643	-0.0019304234
59	0x3c10b70c	0.008832704
60	0xbdb88baa	-0.09011014
61	0x3d175361	0.03694475
62	0xbd90a1e1	-0.07062126
63	0xbd3b81d3	-0.045778107

baseModel.1.running_mean f4 [64]
0	0x3a14b78c	0.00056731026
1	0x38b8f7d5	8.819966e-05
2	0x39caf548	0.0003871119
3	0xb99c481b	-0.0002980836
4	0x398eb21a	0.00027217047
5	0x39d30ee7	0.0004025616
6	0xb9a9134f	-0.00032248578
7	0x38ccd4cf	9.767117e-05
8	0xb9880681	-0.00025944787
9	0x38e568a5	0.000109390625
10	0xb84d1d81	-4.8903286e-05
11	0x397f1ba9	0.00024329
12	0x39f03c87	0.00045821464
13	0xb91cc46f	-0.00014950497
14	0xb9012058	-0.00012314448
15	0x3a551459	0.0008128337
16	0x3983825a	0.00025083387
17	0x36df40cf	6.6534626e-06
18	0x39df7b00	0.00042625517
19	0xb9d56d28	-0.00040707854
20	0xb980f7ef	-0.00024598787
21	0x381d7162	3.7537313e-05
22	0xb8f4d24c	-0.000116739975
23	0x37aa110e	2.0273521e-05
24	0x37339307	1.0703464e-05
25	0x3a01a35b	0.00049453013
26	0xb969d127	-0.00022298527
27	0x39a8bf0d	0.000321858
28	0x3953ce8e	0.00020199476
29	0xb990d378	-0.00027623377
30	0x399bb4cb	0.00029698605
31	0x3963f246	0.00021738661
32	0x38f2e42f	0.00011581962
33	0xb99c281f	-0.0002978453
34	0x39c27d0b	0.00037095728
35	0xb94260b4	-0.00018537306
36	0xb88e1b9c	-6.77623e-05
37	0xb99bd607	-0.00029723367
38	0xb9eca29b	-0.00045134578
39	0xb9147316	-0.00014157253
40	0x3a351cc2	0.00069088873
41	0x39b41c52	0.00034353376
42	0x39c0a55c	0.00036744296
43	0x39a0f827	0.00030702466
44	0x38537452	5.0414652e-05
45	0x3a32686f	0.0006805723
46	0xb9cf8e0a	-0.00039587944
47	0xb956eda9	-0.00020497166
48	0xb91eb167	-0.00015134142
49	0xb87d0d96	-6.0332553e-05
50	0x3a0f87ab	0.0005475233
51	0xb9218380	-0.00015403144
52	0x3a279c93	0.0006393876
53	0xb9a8018f	-0.00032044618
54	0x3969ee98	0.00022309495
55	0xb8b531ef	-8.6400534e-05
56	0xb9b7c9b3	-0.00035054758
57	0xb89a8ae3	-7.369162e-05
58	0x3979ae1b	0.0002381135
59	0x37a612e8	1.9797546e-05
60	0xb9cd4b4e	-0.00039156753
61	0x38206c07	3.824758e-05
62	0x393371c6	0.00017113154
63	0xb98c8b06	-0.0002680646

baseModel.1.running_var f4 [64]
0	0x37377282	1.0934311e-05
1	0x3669f19a	3.4860336e-06
2	0x36a4e3a1	4.9140804e-06
3	0x36dfa62c	6.665263e-06
4	0x3747ac2d	1.1901412e-05
5	0x372e3a3c	1.0384767e-05
6	0x3635d3f5	2.7094477e-06
7	0x371209a6	8.704525e-06
8	0x37662476	1.37175575e-05
9	0x369d1522	4.681425e-06
10	0x36824f29	3.8835174e-06
11	0x371bc566	9.28468e-06
12	0x37750b8c	1.4605826e-05
13	0x36b1b0b7	5.2955834e-06
14	0x367cd078	3.767227e-06
15	0x37873318	1.6117046e-05
16	0x373034e1	1.0502729e-05
17	0x3790a688	1.7243685e-05
18	0x371558eb	8.901795e-06
19	0x37193706	9.132322e-06
20	0x3706d02c	8.035491e-06
21	0x3767ea32	1.3823201e-05
22	0x3778bbec	1.4825706e-05
23	0x378f3676	1.7072289e-05
24	0x376abcb6	1.3991425e-05
25	0x371648a1	8.957607e-06
26	0x3737dde8	1.0959317e-05
27	0x36f262ef	7.2236794e-06
28	0x37154e52	8.899327e-06
29	0x37266c44	9.919579e-06
30	0x37354a62	1.0805759e-05
31	0x36b4a4c7	5.3836006e-06
32	0x367d2415	3.772094e-06
33	0x3691bb47	4.3431387e-06
34	0x3761dc76	1.3462375e-05
35	0x3717356d	9.0127405e-06
36	0x37b16dcd	2.1151174e-05
37	0x3661dda5	3.3656627e-06
38	0x373c47b2	1.1222366e-05
39	0x370d7f81	8.433942e-06
40	0x37741cca	1.4550236e-05
41	0x3757b0cd	1.2856163e-05
42	0x37166e96	8.9664445e-06
43	0x37b40900	2.1461863e-05
44	0x3724d6db	9.825187e-06
45	0x36ec2943	7.0381516e-06
46	0x368b3a5e	4.1493176e-06
47	0x377dfb73	1.513852e-05
48	0x372df28f	1.0368079e-05
49	0x36b702a7	5.4541338e-06
50	0x3607a574	2.0212874e-06
51	0x372639e2	9.907848e-06
52	0x3759d445	1.2983631e-05
53	0x378c25f0	1.6706967e-05
54	0x369760eb	4.5114334e-06
55	0x36ed69b8	7.0754577e-06
56	0x37984a79	1.8154491e-05
57	0x36f15ec8	7.1933937e-06
58	0x37439a2d	1.1658803e-05
59	0x370c0e45	8.347973e-06
60	0x3799ef85	1.8350556e-05
61	0x37323c81	1.0623714e-05
62	0x36f9fbd1	7.4500936e-06
63	0x3741bd92	1.1547834e-05

baseModel.4.weight f4 [64, 64, 3]
0	0xbd09800b	-0.033569377
1	0xbd871a2e	-0.0659679
2	0xbbab3ba8	-0.0052256174
3	0xbd52097f	-0.051278587
4	0xbbcd80bb	-0.0062714494
5	0xbd1e5d9f	-0.038663503
6	0xbcde34d9	-0.02712481
7	0xbbb30027	-0.0054626646
8	0x3b66e2de	0.0035230438
9	0xbc5efd51	-0.0136102
10	0x3da76f37	0.081755094
11	0xbd2095fd	-0.03920554
12	0xbd5720da	-0.052521564
13	0xbcb612ba	-0.022225726
14	0xbd286587	-0.04111245
15	0xbc57f383	-0.013180616
16	0x3c99b11a	0.018761206
17	0x3c1376ac	0.009000462
18	0x3d0edc22	0.034877904
19	0xbc5611fc	-0.013065811
20	0xbd437e46	-0.047727846
21	0xbd3819d2	-0.0449465
22	0x3a026312	0.0004973869
23	0xba1b06f7	-0.00059138186
24	0xbca30686	-0.019900572
25	0x3d21aecb	0.039473336
26	0xbd2646c7	-0.040594842
27	0x3d0624d8	0.03274998
28	0xbd78c9c5	-0.060739297
29	0x3d078500	0.033085823
30	0xbcce2315	-0.025163213
31	0xbafaff6f	-0.0019149611
32	0xbd8ffeaa	-0.07030995
33	0x3ba7fdad	0.005126676
34	0x3a44094b	0.00074781914
35	0x3d2e817c	0.042603955
36	0x3c167821	0.009183914
37	0x3c0cbfc9	0.008590647
38	0xbaa71774	-0.0012748078
39	0x3d217b51	0.039424244
40	0x3c9b9493	0.018991744
41	0x3c925a35	0.01786528
42	0xbd34bc4b	-0.044124883
43	0xbd0bee05	-0.03416254
44	0xbc1fe696	-0.009759566
45	0x3d409966	0.047021292
46	0x3d464d53	0.048413586
47	0x3d54057c	0.051763043
48	0x3c04713b	0.008083637
49	0x3d9742ee	0.07385813
50	0x3ab65e43	0.001391359
51	0x3d9331b6	0.07187216
52	0x3d0dad84	0.034589306
53	0x3d0b9ad6	0.03408321
54	0xbbda0177	-0.0066530067
55	0xbd58d7a4	-0.052940026
56	0xbd9335e4	-0.07188013
57	0x3d4eea13	0.0505162
58	0xbd0448bd	-0.03229593
59	0x3c7f8aea	0.015597085
60	0xbc7ca633	-0.015420484
61	0xbd45a489	-0.048252616
62	0xbc17290a	-0.009226093
63	0xbc10adef	-0.0088305315
64	0x3db83aff	0.089956276
65	0xbc84d848	-0.016216412
66	0xbc6aa462	-0.0143214185
67	0x3cc7d97c	0.024395697
68	0x3d020150	0.031739533
69	0xbbc003c0	-0.005859822
70	0x3cd7425c	0.02627676
71	0xbd048691	-0.032354895
72	0x3d0e0c31	0.034679595
73	0xbc96e467	-0.018419458
74	0x3d39a9a5	0.0453278
75	0x3ce86d0f	0.028372316
76	0xbd7e9bdf	-0.06216037
77	0x3d48e945	0.04905059
78	0x3d758fff	0.05995178
79	0x3d373814	0.044731215
80	0x3d41d5f6	0.04732319
81	0xbcfe58fc	-0.03104829
82	0x3d003507	0.03130057
83	0x3cb5749b	0.022150328
84	0xbce1ed1a	-0.02757888
85	0x3cd2e8ac	0.025745712
86	0x3d111cad	0.035427738
87	0xbd707c97	-0.058712568
88	0xbc542eb5	-0.012950589
89	0xbd2dd678	-0.04244086
90	0x3ceaf46d	0.028681004
91	0xbc347e21	-0.0110164
92	0xbc6daa74	-0.014505971
93	0x3c53152f	0.0128834685
94	0xbdb6f152	-0.08932747
95	0x3c3074cb	0.010770033
96	0x3bc22c4d	0.005925691
97	0x3b1e1855	0.002412339
98	0xbcab8b20	-0.020940363
99	0xbd1ccc6d	-0.038280893
100	0xbc748d14	-0.014926214
101	0xbc3515e0	-0.011052579
102	0xbc927db5	-0.017882207
103	0xbc0809a0	-0.008303076
104	0x3b4c17b3	0.0031142056
105	0xbca06233	-0.019578075
106	0xbc4aea31	-0.012384937
107	0xbbd01752	-0.0063504362
108	0x3c60f6c3	0.013730708
109	0xbb93f3b1	-0.0045151343
110	0xbbb8c61b	-0.0056388504
111	0x3cc08016	0.023498576
112	0x3cc4b52c	0.02401217
113	0x3ce51327	0.027963234
114	0x3d365595	0.04451521
115	0x3d6590a3	0.05604614
116	0x3d5b3c95	0.053524572
117	0x3b869812	0.0041074837
118	0xbd827c62	-0.063713804
119	0x3c673b9c	0.014113333
120	0xbc4e7075	-0.012600054
121	0x3c368433	0.011139917
122	0xbd445d70	-0.04794067
123	0x3d147ec7	0.036253717
124	0x3cb25025	0.021766732
125	0x3cca3785	0.024684677
126	0x3d28f201	0.041246418
127	0x3d317c2d	0.043331314
128	0x3c17ede1	0.009273023
129	0x3a917a0d	0.0011098996
130	0x3c95800b	0.018249532
131	0xbc82084a	-0.015873093
132	0xbd0fa5e0	-0.0350703
133	0x3d5ed700	0.05440426
134	0x3d85f02f	0.06539952
135	0xbcaef684	-0.021357782
136	0xbdb7c40d	-0.089729406
137	0xbb481c44	-0.0030534426
138	0x3d9066b3	0.07050838
139	0xbcb982d9	-0.0226454
140	0xbc8082db	-0.015687397
141	0x3cd858e3	0.026409572
142	0x3d228b11	0.039683405
143	0xbca6770e	-0.020320442
144	0x3d63b160	0.05558908
145	0x3c8aa96e	0.016926493
146	0xbce2d964	-0.02769155
147	0xbcee626b	-0.029099664
148	0xb99fdfa2	-0.00030493463
149	0xbd6adfb2	-0.05734224
150	0xbd845d41	-0.06463099
151	0xbc07aaf2	-0.008280503
152	0xbcfcbe79	-0.030852543
153	0xbd16669a	-0.036718942
154	0xbdb71eb2	-0.089414015
155	0xbd457eed	-0.04821675
156	0xbc97940e	-0.018503215
157	0xbdabb851	-0.08384765
158	0xbccdf3ba	-0.025140632
159	0x3d111a88	0.035425693
160	0xbd6a9c01	-0.057277683
161	0xbd89a3ab	-0.0672067
162	0x3bb85934	0.005625868
163	0xbc1356d7	-0.008992872
164	0xbc1afd7c	-0.009459849
165	0xbc479af9	-0.012182944
166	0xbcc5198b	-0.024060031
167	0x3da331f4	0.07968512
168	0x3d9d34df	0.076761
169	0xbca36baa	-0.0199488
170	0x3d88232b	0.06647333
171	0xbc8a1974	-0.01685784
172	0xbd7ef16d	-0.06224196
173	0xbd51c308	-0.051211387
174	0xbd5f1d80	-0.054471493
175	0x3da5b8f4	0.08091918
176	0x3c8181da	0.015808988
177	0x3c7a375b	0.015271987
178	0x3d548bb6	0.05189105
179	0xbcad437e	-0.021150347
180	0xbba25ce0	-0.004954919
181	0x3d567dfd	0.052366246
182	0xbbe8dc0c	-0.0071063098
183	0x3ccb3fb3	0.024810648
184	0x3cf0cc50	0.029394299
185	0x3b615328	0.003438184
186	0xbd576744	-0.052588716
187	0x3c488a1b	0.012239958
188	0xbd3aad69	-0.045575533
189	0xbd840775	-0.06446735
190	0xbb90684e	-0.0044069653
191	0xbd3b1d41	-0.045682196
192	0xbd8b0735	-0.06788484
193	0x399d79f8	0.00030036247
194	0xbacc1190	-0.0015569199
195	0xbd612f5a	-0.0549768
196	0xbc603622	-0.013684781
197	0xbb89b41f	-0.0042023803
198	0x3caed13f	0.02134001
199	0xbc8e0d31	-0.017340275
200	0xbb7a0778	-0.0038151424
201	0x3d840c23	0.064476274
202	0xbce953b3	-0.028482294
203	0x3ced304c	0.028953694
204	0x3d5abcd7	0.053402748
205	0xbd92afaf	-0.07162415
206	0xbd292bef	-0.041301664
207	0x3c751f41	0.014961065
208	0x3c65cb00	0.01402545
209	0x3d6fe574	0.058568433
210	0x3d02e3bb	0.031955462
211	0x3d916a6b	0.07100376
212	0x3cdc0cd3	0.026861584
213	0xbbcff212	-0.0063459957
214	0x3d048a0a	0.032358207
215	0x3d1ef235	0.038805205
216	0x3d24399e	0.04009401
217	0xbcb55fee	-0.02214047
218	0x3bb77796	0.0055989726
219	0x3c9c06c6	0.019046199
220	0xbcceb831	-0.025234314
221	0xbca36f59	-0.019950556
222	0xbd4e6724	-0.05039133
223	0x3d2a70af	0.04161137
224	0x3d1f0535	0.038823325
225	0x3d271801	0.040794376
226	0xbd884c9e	-0.066552386
227	0xbab4667d	-0.0013763454
228	0xbc4d3e3c	-0.012527045
229	0xbd1bb203	-0.038011562
230	0xbd1c392f	-0.038140472
231	0xbcadc267	-0.021210862
232	0xbc385da9	-0.011252799
233	0xbcadb39a	-0.021203805
234	0x3d67b394	0.056567743
235	0xbc73476c	-0.014848571
236	0x3ca532ed	0.020165885
237	0x3c969600	0.018382072
238	0xbd95c104	-0.073122054
239	0xbcbd1a09	-0.023083704
240	0x3d8db7ab	0.069197975
241	0xbd6d94f2	-0.058003373
242	0xbc13fee5	-0.00903294
243	0x3d43d97a	0.047814824
244	0x3bfd7914	0.007735381
245	0x3c8f822f	0.017518131
246	0x3d00de98	0.031462282
247	0x3c5bc30f	0.013413205
248	0xbc9550c5	-0.01822699
249	0x3d262cd1	0.040570084
250	0x3c0f3a87	0.008741981
251	0xbdb190e2	-0.08670212
252	0xbc304b7c	-0.010760184
253	0xbcfea1d6	-0.031083029
254	0x3cd6db01	0.026227476
255	0x3d40c4bc	0.04706262

baseModel.4.bias f4 [64]
0	0xb76feee3	-1.430113e-05
1	0x383301f6	4.2678752e-05
2	0xb76dabb8	-1.4166282e-05
3	0x33a801f2	7.8234635e-08
4	0x378e82c5	1.6988613e-05
5	0xb72aaffe	-1.0173766e-05
6	0xb58ef039	-1.0649738e-06
7	0x37fcb8c2	3.0126776e-05
8	0xb788cedc	-1.630879e-05
9	0xb7bbbe7d	-2.238084e-05
10	0xb83075bb	-4.2071315e-05
11	0xb81d73fb	-3.7539732e-05
12	0x34e0c2ef	4.1865084e-07
13	0x36fbc9ba	7.503867e-06
14	0x37266ca2	9.919664e-06
15	0x3753bfea	1.26212635e-05
16	0x37bbdd94	2.2395318e-05
17	0x38303931	4.2014934e-05
18	0x36bf8cb3	5.708623e-06
19	0x368d9bae	4.220251e-06
20	0xb823671c	-3.8958256e-05
21	0xb76052bc	-1.33707035e-05
22	0xb79c19af	-1.8608609e-05
23	0x368bb61f	4.1637245e-06
24	0xb7fb300a	-2.9943902e-05
25	0xb7ae8000	-2.0802021e-05
26	0x36d0c968	6.22233e-06
27	0xb4a4965d	-3.0656784e-07
28	0x36c05a47	5.7325556e-06
29	0x37686d89	1.3853781e-05
30	0x38001b14	3.0542797e-05
31	0xb80a20ff	-3.2932494e-05
32	0x37b16df6	2.1151249e-05
33	0x381d6be5	3.75322e-05
34	0xb706e70a	-8.040815e-06
35	0xb8194cf7	-3.654972e-05
36	0x380f0866	3.410168e-05
37	0x35f074cf	1.7915389e-06
38	0xb41327c3	-1.3704907e-07
39	0xb7c1e7f7	-2.311541e-05
40	0x36072a4d	2.014119e-06
41	0xb708fd50	-8.165211e-06
42	0x382df653	4.147582e-05
43	0x36608eab	3.3461645e-06
44	0xb6b19220	-5.2920223e-06
45	0x368cfa0a	4.2014335e-06
46	0xb78dbc59	-1.6896216e-05
47	0x37a0674b	1.9121586e-05
48	0x37bb1f81	2.2306807e-05
49	0xb81ea948	-3.782779e-05
50	0xb7cc9cbf	-2.4391686e-05
51	0xb72d7be0	-1.0340445e-05
52	0xb78c6dd6	-1.6740447e-05
53	0xb67cfe65	-3.7699003e-06
54	0x3524174b	6.1128657e-07
55	0x3830c41f	4.2144322e-05
56	0xb5595047	-8.095562e-07
57	0xb7dbc415	-2.6198142e-05
58	0x37d0bac5	2.4882504e-05
59	0x381fb383	3.8075737e-05
60	0x3736ed1d	1.0903253e-05
61	0x38194f50	3.6551908e-05
62	0xb6440b2a	-2.9212774e-06
63	0xb822f1ee	-3.8849124e-05

baseModel.5.weight f4 [64]
0	0x3f442aee	0.76628006
1	0x3f4674ed	0.77522165
2	0x3f4af92f	0.79286474
3	0x3f581467	0.8440613
4	0x3f4939ac	0.78603625
5	0x3f454f28	0.7707391
6	0x3f50cde4	0.81564164
7	0x3f42a583	0.760338
8	0x3f4edd48	0.808064
9	0x3f481f13	0.78172415
10	0x3f4055ad	0.7513073
11	0x3f4a244b	0.7896163
12	0x3f410b52	0.754079
13	0x3f3b3343	0.73125094
14	0x3f49a884	0.7877276
15	0x3f463efd	0.7743986
16	0x3f3f2491	0.7466517
17	0x3f424fdd	0.7590311
18	0x3f40258b	0.75057286
19	0x3f52c6ba	0.8233448
20	0x3f4ff59c	0.81234145
21	0x3f491b44	0.7855723
22	0x3f372870	0.7154608
23	0x3f47edcf	0.7809724
24	0x3f52cac6	0.8234066
25	0x3f424efa	0.7590176
26	0x3f492ae1	0.78581053
27	0x3f37d8aa	0.7181498
28	0x3f3ed811	0.7454844
29	0x3f5866e2	0.84531987
30	0x3f48105a	0.7814995
31	0x3f582715	0.84434634
32	0x3f3d7fd4	0.74023175
33	0x3f480cc1	0.7814446
34	0x3f409b76	0.75237215
35	0x3f46a2c2	0.775921
36	0x3f36956f	0.7132177
37	0x3f390963	0.7227995
38	0x3f4918f8	0.78553724
39	0x3f5382a9	0.82621247
40	0x3f57cbf5	0.8429559
41	0x3f477f5f	0.7792873
42	0x3f406be6	0.7516464
43	0x3f48ca74	0.7843392
44	0x3f4316bf	0.7620658
45	0x3f345618	0.7044387
46	0x3f3c336e	0.73515975
47	0x3f50a8f6	0.81507814
48	0x3f541708	0.8284764
49	0x3f302d23	0.68818873
50	0x3f4bb736	0.7957643
51	0x3f433f13	0.7626812
52	0x3f4dba2b	0.80362195
53	0x3f3ced05	0.73799163
54	0x3f4bc03c	0.795902
55	0x3f5b20b8	0.855968
56	0x3f40111e	0.7502612
57	0x3f42149d	0.75812703
58	0x3f4e9e1d	0.8071001
59	0x3f451a1d	0.7699297
60	0x3f539a38	0.82657194
61	0x3f376c04	0.71649194
62	0x3f42910d	0.7600258
63	0x3f3eb34a	0.74492323

baseModel.5.bias f4 [64]
0	0xbc569175	-0.013096203
1	0xbdd3d868	-0.103440106
2	0x3d7cd1a5	0.06172337
3	0x3cb11ce5	0.021620223
4	0xbd5bde9f	-0.053679105
5	0x3c40b6ee	0.011762364
6	0xbdbb0a35	-0.09132806
7	0xbba2485d	-0.004952474
8	0xbbded7ee	-0.006800643
9	0xbd2bf104	-0.041977897
10	0xbc56a0f3	-0.013099897
11	0xbd47f842	-0.04882074
12	0xbcd52b73	-0.026021695
13	0x3d297a9a	0.041376688
14	0xbb519184	-0.0031977603
15	0xbc9b33e7	-0.018945647
16	0xbd46d41c	-0.048542127
17	0x3d1aeabc	0.037821516
18	0x3c3706e1	0.011171074
19	0x39f8bc33	0.00047442465
20	0xbd9196ac	-0.071088165
21	0x3c28fbf3	0.010313976
22	0x3d596a32	0.05307979
23	0xbcd20129	-0.025635319
24	0x3cafdeff	0.021468638
25	0x3d2b3f02	0.041808136
26	0x3c073f3c	0.008254822
27	0x3d65dedc	0.05612074
28	0xbbfffd7d	-0.0078122006
29	0xbd3453de	-0.044025294
30	0x3d58ca5d	0.052927364
31	0xbd08903d	-0.03334068
32	0x3cac5570	0.021036834
33	0xbca6e43b	-0.0203725
34	0x3ce4a930	0.027912706
35	0x3c84249a	0.016130734
36	0x3d420700	0.047369957
37	0x3d26eb1d	0.040751565
38	0x3ce09ed1	0.02741948
39	0x3d106957	0.03525671
40	0xbda50d62	-0.08059193
41	0x3d8904b9	0.06690354
42	0x3ce1c1e0	0.027558267
43	0xbcc50cfb	-0.024054041
44	0x3bf8cb6e	0.00759261
45	0x3c676fdb	0.0141257895
46	0xbce6b32f	-0.028161613
47	0x3ca11de9	0.019667583
48	0xbc8ad834	-0.016948797
49	0xbd52876e	-0.051398687
50	0xbc3bf63d	-0.011472282
51	0xbd2e1f89	-0.042510543
52	0xbdc6363c	-0.09678313
53	0xbaa8c2d2	-0.0012875444
54	0x3d51c6ba	0.05121491
55	0xbe3fa299	-0.1871437
56	0xbd2f771d	-0.042838205
57	0xbca98b32	-0.020696256
58	0x3d0fea1c	0.035135373
59	0xbdc13b17	-0.094350986
60	0xbd5affef	-0.053466734
61	0xbc9d3963	-0.019192403
62	0xbd613979	-0.05498645
63	0x3c66889b	0.014070655

baseModel.5.running_mean f4 [64]
0	0xbd02fd54	-0.031979874
1	0xbe3898b9	-0.18027009
2	0x3e82e45b	0.25564846
3	0xbc4e1dc3	-0.012580338
4	0xbdea4065	-0.114380635
5	0x3e18b15b	0.14911406
6	0xbdb07221	-0.08615518
7	0xbe1b2dcd	-0.1515419
8	0x3e8f7461	0.28018478
9	0x3d588937	0.052865233
10	0x3da83020	0.08212304
11	0xbc650900	-0.013979197
12	0x3c034aac	0.008013409
13	0x3dc13bb8	0.094352186
14	0x3db9559f	0.09049534
15	0xbda7fbe6	-0.08202343
16	0xbd48e698	-0.049048036
17	0x3ed5e9fc	0.41780078
18	0xbeb9afb5	-0.36266866
19	0x3da5adf5	0.0808982
20	0xbe01a551	-0.1266072
21	0x3dbb57c2	0.09147598
22	0x3e756635	0.2396477
23	0x3e97534a	0.29555732
24	0xbc71ef35	-0.014766504
25	0x3d8d489c	0.06898615
26	0x3c42f1af	0.011898442
27	0xbd518a8a	-0.05115751
28	0x3d0c4c8f	0.0342527
29	0x3c3193ea	0.010838488
30	0xbea7f96a	-0.32807475
31	0x3cfa2cf3	0.030539012
32	0xbde079bd	-0.1096072
33	0xbda4a829	-0.080398865
34	0x3df77dd9	0.120845504
35	0x3dfa5e9b	0.12225076
36	0xbea0a0b7	-0.31372616
37	0xbe24f149	-0.16107668
38	0x3db25eca	0.08709486
39	0xbecc2fab	-0.39880118
40	0xbd8c9fbc	-0.068664044
41	0x3dad96d1	0.084760316
42	0xbc9dc5ae	-0.0192593
43	0x3e00c903	0.1257668
44	0xbe5e360c	-0.21700305
45	0xbd7287d5	-0.05921157
46	0xbd832d13	-0.064050816
47	0xbe7bc790	-0.24587846
48	0xbca318c4	-0.01990927
49	0xbe8862ab	-0.26637778
50	0xbc347e67	-0.011016465
51	0xbd01f0b2	-0.031723686
52	0xbe2f5e10	-0.17125726
53	0x3cee3437	0.029077632
54	0x3c92ce3f	0.017920611
55	0xbd0a6018	-0.03378305
56	0x3da77454	0.08176485
57	0xbe5c1c52	-0.21495178
58	0x3e922597	0.28544304
59	0xbdc01e91	-0.0938083
60	0xbdf3cb0c	-0.119039625
61	0x3b3e77d9	0.0029063134
62	0x3b06ff60	0.0020598993
63	0xbd51c218	-0.051210493

baseModel.5.running_var f4 [64]
0	0x3c62cfad	0.013843459
1	0x3cc1b06e	0.023643699
2	0x3d066ff1	0.0328216
3	0x3d3dd8c9	0.04634932
4	0x3d615a64	0.055017844
5	0x3d4d121d	0.050066102
6	0x3d1c1f5a	0.038115837
7	0x3d7d9599	0.061910246
8	0x3d2a0cc3	0.041516077
9	0x3c94c6b4	0.018161155
10	0x3cf5ceaa	0.030005772
11	0x3db5fed1	0.08886493
12	0x3d00ca19	0.031442735
13	0x3d399dda	0.045316555
14	0x3d86322d	0.06552539
15	0x3d84a1f4	0.064762026
16	0x3d9f8c99	0.07790489
17	0x3d1169a3	0.035501134
18	0x3ce1e836	0.027576547
19	0x3ce93cd2	0.028471384
20	0x3cf5fea5	0.03002865
21	0x3d841e47	0.064510874
22	0x3d0802df	0.033205863
23	0x3d20d7e0	0.039268374
24	0x3cfcadd7	0.030844612
25	0x3d1ae7e8	0.03781882
26	0x3d172991	0.036904875
27	0x3d88a51f	0.06672119
28	0x3d2b205b	0.041778903
29	0x3e10e38e	0.14149305
30	0x3d69b6ed	0.057059217
31	0x3d73b2a2	0.05949653
32	0x3dce585c	0.10075447
33	0x3d063fa8	0.03277555
34	0x3cfd5252	0.030923042
35	0x3d125037	0.03572103
36	0x3cd7c219	0.02633767
37	0x3d80b2cd	0.062841035
38	0x3dc1a90a	0.0945607
39	0x3d8750ac	0.06607184
40	0x3daf13c9	0.085486956
41	0x3dbeafd2	0.09310879
42	0x3d7b99cd	0.061425973
43	0x3d801514	0.0625402
44	0x3d2f052d	0.042729545
45	0x3d5991b2	0.05311746
46	0x3d00c74e	0.03144007
47	0x3d291e47	0.04128864
48	0x3da5dabc	0.08098361
49	0x3c9d65d2	0.01921359
50	0x3d7cdcc9	0.061733995
51	0x3cff853c	0.03119146
52	0x3d644f4d	0.05573969
53	0x3d01e980	0.031716824
54	0x3dc48425	0.09595517
55	0x3ce232e2	0.027612153
56	0x3d67ae07	0.05656245
57	0x3d5c5286	0.053789638
58	0x3d4a0e82	0.049330242
59	0x3cc5aedb	0.02413123
60	0x3d6410ce	0.05568009
61	0x3cf75e58	0.030196354
62	0x3d47cd4c	0.04877977
63	0x3d2750f5	0.04084869

baseModel.8.weight f4 [64, 64, 3]
0	0x3ce87a1a	0.028378535
1	0xbce6fc9e	-0.02819663
2	0xba0f22fc	-0.000546023
3	0xbc5495be	-0.012975154
4	0xbcc82440	-0.024431348
5	0x3ae982b8	0.0017815446
6	0xbcc98c2c	-0.024602972
7	0x3d83cd0d	0.06435595
8	0xbd46dd81	-0.048551086
9	0xbd47377a	-0.04863689
10	0xbbafa8e3	-0.005360709
11	0x3c28fa1f	0.01031354
12	0xbc6e753b	-0.014554317
13	0x3cab7860	0.020931423
14	0xbbfe5d98	-0.007762622
15	0xbc3eeafb	-0.011652703
16	0xbdbcdcef	-0.09221827
17	0xbdb33079	-0.0874948
18	0xbd41fee9	-0.047362242
19	0x3c578f57	0.0131567335
20	0xbcc86057	-0.02446
21	0x3cb4bd78	0.022063002
22	0x3b90a1e6	0.004413831
23	0x3cdf04e2	0.027224008
24	0xbd45665f	-0.04819333
25	0x3b6425fb	0.0034812677
26	0x3d676ad8	0.05649838
27	0x3d3e7526	0.04649844
28	0x3d16b53c	0.036793932
29	0x3d4f3ea3	0.050596844
30	0x3d5a8cb8	0.053356856
31	0x3818ac54	3.6400117e-05
32	0xbd6e1287	-0.058123138
33	0xbc6159a5	-0.013754283
34	0xbd01dfb5	-0.031707484
35	0xbb549f11	-0.0032443444
36	0x3cd8a3cc	0.026445292
37	0x3c85e5a0	0.016344845
38	0xbd73125c	-0.05934368
39	0xbb01dcc2	-0.001981542
40	0x3c1ecbb2	0.009692119
41	0x3cd79b1c	0.02631908
42	0x3bad8e9f	0.005296543
43	0xbd246270	-0.04013294
44	0xbcfdfbd4	-0.03100387
45	0xbd087826	-0.033317707
46	0xbd62078f	-0.05518299
47	0xbd9a4feb	-0.075347744
48	0x3c6a1083	0.014286163
49	0xbd512f7f	-0.051070686
50	0x3c8b18be	0.016979571
51	0xbc104be1	-0.008807153
52	0x3d4dc63e	0.050237887
53	0x3d105d4f	0.035245236
54	0x3d7280b9	0.05920479
55	0x3cd42a2e	0.02589902
56	0xbca21757	-0.01978652
57	0xbd19328e	-0.03740173
58	0x3d8795dc	0.0662038
59	0x3d8a2e50	0.06747115
60	0xbba4bbcd	-0.0050272704
61	0x3b2a16f2	0.0025953618
62	0x3d80a0f2	0.06280698
63	0x3c4d69d2	0.012537437
64	0x3cdfac4d	0.02730384
65	0x3bff9c0f	0.007800586
66	0xbbdf8c81	-0.0068221693
67	0x3d3278f3	0.043572377
68	0xbd2b4566	-0.04181423
69	0x3d2571f8	0.040391892
70	0x3d09ecc6	0.03367307
71	0x3b86c01d	0.004112257
72	0x3d55cf07	0.05219939
73	0xbc58ae51	-0.013225154
74	0x3b8e0f96	0.004335354
75	0xbd45762b	-0.048208397
76	0x3d275b62	0.040858634
77	0xbc75eb2f	-0.015009685
78	0x3d25a141	0.040436987
79	0x3ccfec25	0.025381157
80	0x3a9584e2	0.00114074
81	0x3cf4c8fe	0.029880997
82	0x3a5ed816	0.0008500827
83	0xbcbb499e	-0.022862252
84	0xbd151580	-0.036397457
85	0xbc321904	-0.010870222
86	0x3d62ea12	0.055399008
87	0x3d042734	0.03226395
88	0xbd121913	-0.035668444
89	0xbc74db7f	-0.01494491
90	0x3c00dd9b	0.007865335
91	0xbcea329c	-0.028588586
92	0x3d3a0bd3	0.045421433
93	0x3d94fdd7	0.072749786
94	0xbbaa9d77	-0.0052067596
95	0x3d3654dc	0.044514522
96	0x3c562f1a	0.013072753
97	0xbc82b9b4	-0.01595769
98	0x3c92c8af	0.017917959
99	0xbd23f0f2	-0.040024705
100	0xbd2296a3	-0.03969444
101	0x3d93d1a4	0.0721772
102	0xbc2e7644	-0.010648314
103	0x3d552f61	0.052047137
104	0xb844a659	-4.6884965e-05
105	0xbd412b8f	-0.04716068
106	0xbd7d9641	-0.06191087
107	0xbd88f4c0	-0.06687307
108	0x3d755e54	0.05990441
109	0x3d5cd1ed	0.05391114
110	0xbc286ff9	-0.010280603
111	0x3ce42aec	0.027852498
112	0x3d276cb6	0.04087516
113	0x3d414de4	0.047193423
114	0xbc7c7df6	-0.015410891
115	0xbd7d857c	-0.06189488
116	0xbd1e5f46	-0.03866508
117	0x3d059b5f	0.032618877
118	0xbcb72f39	-0.022361385
119	0xbcdafeb4	-0.02673278
120	0x3d0b5cc5	0.03402402
121	0xbc8b1346	-0.016976964
122	0x3c5681a2	0.01309243
123	0xbcb1d0b2	-0.021705959
124	0x3d30bcf1	0.04314894
125	0xbd5bbb1d	-0.053645242
126	0xbda57212	-0.08078398
127	0xbda17795	-0.078841366
128	0xbdd5ee75	-0.10445873
129	0x3c42817e	0.011871694
130	0x3d86056b	0.06544002
131	0x3d2d22d4	0.042269543
132	0xbc6f8d55	-0.0146210985
133	0xbca8a431	-0.020586105
134	0xbda2f3cf	-0.07956659
135	0x3c8373d4	0.016046442
136	0xbd09eaf7	-0.033671346
137	0xbd5e3071	-0.054245416
138	0x3d521cd8	0.05129704
139	0x3d1a720d	0.037706424
140	0xbc7e4890	-0.01552023
141	0xbb0a60d8	-0.0021114852
142	0xbc166e01	-0.0091815
143	0x3c7fa648	0.015603609
144	0xbd7b223c	-0.061311945
145	0xbd41dc23	-0.04732908
146	0xbd2bdeab	-0.0419604
147	0x3cb82ab0	0.022481292
148	0x3ce8145a	0.028330017
149	0xbcb4d13d	-0.022072429
150	0xbd023663	-0.03179015
151	0x3d057784	0.032584682
152	0x3d16dfeb	0.03683464
153	0xbd924dc1	-0.07143737
154	0xbd283e57	-0.041075077
155	0x3cb2716f	0.021782605
156	0xbd57f3d3	-0.052722763
157	0xbd454b36	-0.04816743
158	0xbd2c0b6d	-0.042003084
159	0xbd1debb1	-0.03855485
160	0xba887f9a	-0.0010414005
161	0xbd4117bf	-0.047141787
162	0xbc7ee7b9	-0.015558177
163	0xbd3d2c90	-0.046185076
164	0xbda07518	-0.07834834
165	0xbc09ccb9	-0.008410626
166	0x3d129af5	0.03579231
167	0x3d530df9	0.051526997
168	0xbd42dc1a	-0.047573186
169	0x3cac32e0	0.021020353
170	0xbd173707	-0.036917713
171	0x3d26b477	0.04069945
172	0xbb13cd35	-0.0022552733
173	0xbd2c8257	-0.04211649
174	0xbc988f3d	-0.018622989
175	0xbd40a5dd	-0.04703318
176	0x3c2b73be	0.010464607
177	0x3d4cda7e	0.050013058
178	0xbd53db91	-0.051723067
179	0x3cfc3853	0.030788576
180	0x3c40f368	0.011776783
181	0xbd55c79a	-0.052192308
182	0xbd0c9f00	-0.03433132
183	0x3d19dc5c	0.037563667
184	0x3d1f54a9	0.038899098
185	0x3d9b4348	0.07581192
186	0x3cf803a0	0.030275166
187	0xbce6a620	-0.028155386
188	0xbb090ba9	-0.002091149
189	0x3ae239ec	0.0017259694
190	0x3c3c6c75	0.011500468
191	0x3d4de508	0.05026725
192	0xbd3d1fd4	-0.04617293
193	0xbc9d871c	-0.019229464
194	0xbc921d00	-0.017836094
195	0x3d332be1	0.043743018
196	0xbcbbfc64	-0.022947498
197	0xbb74fab9	-0.0037380888
198	0x3ca6067d	0.020266766
199	0x3c375e2c	0.011191886
200	0x3cb63a54	0.02224461
201	0x3c9fd5e4	0.01951117
202	0x3cdde6c7	0.027087582
203	0x3d82c3b6	0.06384985
204	0xbd13e2d5	-0.036104996
205	0x3d0745a0	0.033025384
206	0x3c3c6948	0.01149971
207	0xbd174ca6	-0.036938332
208	0x3d1a4946	0.037667535
209	0xbd907867	-0.07054215
210	0x3c8f856d	0.017519677
211	0xbcd53262	-0.026025001
212	0x3be3c4ad	0.006950936
213	0x3d2331db	0.039842468
214	0x3cf3577d	0.029704804
215	0x3d8aae46	0.06771521
216	0xbb6067b4	-0.00342415
217	0xbbf1a337	-0.007374193
218	0xbc7c7b52	-0.015410261
219	0x3d1c09c1	0.03809524
220	0x3ce8b688	0.02840735
221	0xbcaca632	-0.021075342
222	0x3c08e6d4	0.008355815
223	0xbcfa3835	-0.03054438
224	0xbc8085ab	-0.015688738
225	0x3c458d12	0.01205756
226	0xbc1b1972	-0.009466516
227	0xbda2d811	-0.07951368
228	0x3bbe6ef4	0.0058115665
229	0xbc8d6b5d	-0.017263109
230	0xbdd94d73	-0.106104754
231	0xbcfb84c1	-0.03070295
232	0x3d80c47d	0.06287477
233	0x3d023106	0.031785034
234	0x3bc30113	0.005951056
235	0xbd349952	-0.04409153
236	0x3d4909cf	0.04908162
237	0xbd57397c	-0.052545056
238	0xbd887810	-0.06663525
239	0x3c9556ed	0.018229926
240	0xbd527969	-0.051385317
241	0xbcf2d91f	-0.029644547
242	0x3d0cd1e8	0.03437987
243	0xbd02c710	-0.031928122
244	0xbc425428	-0.011860885
245	0xbd450373	-0.048098993
246	0x3d15e4a3	0.036594998
247	0xbcf3f69c	-0.029780678
248	0x3ba73a50	0.005103387
249	0x3c613292	0.013744967
250	0x3cd2bd8e	0.025725152
251	0xbcf05112	-0.029335532
252	0xbcc56ff3	-0.024101233
253	0x3d241b6e	0.04006522
254	0x3bb470dd	0.0055066184
255	0xbd3be9bf	-0.045877215

baseModel.8.bias f4 [64]
0	0x36e24023	6.7427914e-06
1	0xb70788d3	-8.078484e-06
2	0xb782c26b	-1.558774e-05
3	0xb59f5043	-1.1869782e-06
4	0x378e3c9d	1.6955944e-05
5	0xb71754cd	-9.020046e-06
6	0xb793e415	-1.7629975e-05
7	0xb6a89ae4	-5.024822e-06
8	0x37edea14	2.8361603e-05
9	0x3788bfb6	1.6301736e-05
10	0x37f26fcc	2.8900708e-05
11	0x3623d854	2.4414812e-06
12	0xb79f4e38	-1.89907e-05
13	0x3618dfb2	2.2779973e-06
14	0xb745ecaa	-1.1797218e-05
15	0xb67680ad	-3.6731756e-06
16	0xb721d49e	-9.645852e-06
17	0x37d5e872	2.549982e-05
18	0x36020f81	1.9380534e-06
19	0xb67f3f34	-3.803475e-06
20	0x364ef3d1	3.0838312e-06
21	0x3734ae0f	1.0769362e-05
22	0xb7b9a265	-2.212934e-05
23	0xb7dc1a3c	-2.623826e-05
24	0x36aae854	5.0934414e-06
25	0xb2943e89	-1.7257905e-08
26	0xb73ba0f5	-1.1183544e-05
27	0xb6ac7b9a	-5.1403886e-06
28	0xb77c90f9	-1.5054125e-05
29	0xb7dc7202	-2.6279133e-05
30	0xb81f74a7	-3.8017195e-05
31	0x3686b321	4.0143645e-06
32	0x371657ad	8.96111e-06
33	0x35ce872d	1.5387537e-06
34	0x376e414a	1.4201107e-05
35	0x34dafd55	4.0789988e-07
36	0xb70590a3	-7.961094e-06
37	0xb79ceb1f	-1.8706136e-05
38	0x3595021e	1.1101981e-06
39	0xb554c359	-7.926042e-07
40	0x36f10aa2	7.1835975e-06
41	0xb70c6eec	-8.370476e-06
42	0x3682f270	3.9025253e-06
43	0x368e5986	4.2423517e-06
44	0x3782c8ca	1.5590707e-05
45	0xb7abe754	-2.0492509e-05
46	0xb6097f38	-2.0488642e-06
47	0xb7cbb681	-2.428447e-05
48	0x378377ef	1.5672265e-05
49	0x3784889a	1.5799236e-05
50	0x36906a4a	4.303908e-06
51	0xb75a41d7	-1.3009142e-05
52	0xb5e88988	-1.7325374e-06
53	0x368f6a68	4.2741194e-06
54	0x378d87e2	1.6871785e-05
55	0x37b797f8	2.1886066e-05
56	0xb6f26413	-7.223812e-06
57	0x37811494	1.538758e-05
58	0xb6b9c1ff	-5.5360138e-06
59	0xb76fa3ca	-1.4283645e-05
60	0xb633c6af	-2.6788728e-06
61	0xb78d703f	-1.6860778e-05
62	0x369ce668	4.675985e-06
63	0xb7d6fc99	-2.5628413e-05

baseModel.9.weight f4 [64]
0	0x3f5442e6	0.8291458
1	0x3f496ab1	0.78678423
2	0x3f2f0092	0.68360245
3	0x3f46da94	0.77677274
4	0x3f3a5b6b	0.7279574
5	0x3f39e63d	0.7261694
6	0x3f61fc6b	0.88275784
7	0x3f5a7401	0.8533326
8	0x3f3b39e4	0.7313521
9	0x3f65b023	0.8972189
10	0x3f46b5a3	0.77620906
11	0x3f3efa43	0.7460062
12	0x3f378f45	0.71702987
13	0x3f398059	0.7246147
14	0x3f4c8882	0.79895794
15	0x3f255ba4	0.6459296
16	0x3f4b25b0	0.7935438
17	0x3f474fce	0.7785615
18	0x3f3a40fd	0.72755414
19	0x3f3846ce	0.7198304
20	0x3f46141b	0.7737443
21	0x3f5396f4	0.8265221
22	0x3f494e96	0.7863554
23	0x3f43b4f4	0.7644799
24	0x3f3fb6b8	0.7488818
25	0x3f58cd5f	0.8468837
26	0x3f336d6b	0.70088834
27	0x3f3ffefe	0.7499846
28	0x3f341ba1	0.7035466
29	0x3f361f3a	0.711414
30	0x3f415bfc	0.7553098
31	0x3f438827	0.76379627
32	0x3f36378c	0.7117851
33	0x3f401264	0.7502806
34	0x3f4a76e4	0.7908766
35	0x3f54bfbb	0.8310506
36	0x3f42616e	0.75929916
37	0x3f3cc285	0.73734313
38	0x3f442716	0.7662214
39	0x3f4b45e2	0.7940351
40	0x3f311128	0.69166803
41	0x3f544a78	0.8292613
42	0x3f4539e6	0.7704147
43	0x3f48f788	0.785027
44	0x3f34c9a4	0.7062018
45	0x3f3ea677	0.74472755
46	0x3f407ae0	0.7518749
47	0x3f4cb150	0.7995806
48	0x3f45b526	0.77229536
49	0x3f4d28b9	0.8014026
50	0x3f351b89	0.7074514
51	0x3f4829ff	0.7818908
52	0x3f58cfe8	0.8469224
53	0x3f5683bd	0.83794767
54	0x3f2fadad	0.68624383
55	0x3f42d12f	0.7610044
56	0x3f3991b6	0.7248796
57	0x3f3d74fe	0.7400664
58	0x3f3d8809	0.740357
59	0x3f4ea5d4	0.80721784
60	0x3f4e4f02	0.80589306
61	0x3f31008d	0.69141465
62	0x3f4efb68	0.80852365
63	0x3f4cbde0	0.79977226

baseModel.9.bias f4 [64]
0	0xbc48e95a	-0.012262667
1	0xbd0c5df5	-0.034269292
2	0xbd2e497c	-0.04255055
3	0x39360f28	0.00017362519
4	0xba216198	-0.0006156205
5	0x3c270ed8	0.01019641
6	0xbb2723c7	-0.0025503503
7	0xbc4f4db4	-0.012652803
8	0xbd2eca89	-0.04267362
9	0xbd17b01c	-0.037033185
10	0xbc8e8376	-0.01739667
11	0x3a98de79	0.0011662982
12	0x3d050fa5	0.032485623
13	0xbce47109	-0.02788593
14	0xbd25655b	-0.040379863
15	0x3cd4555b	0.025919607
16	0xbc48cf90	-0.012256518
17	0xbc476387	-0.012169725
18	0xbc1c838e	-0.009552849
19	0xbb08df4b	-0.0020885046
20	0x3ac58610	0.0015069861
21	0xbc062775	-0.008188118
22	0xbc16db0d	-0.009207499
23	0xbbf4d9dd	-0.0074722604
24	0x3a9df812	0.001205208
25	0xbc633894	-0.01386847
26	0x3cbbf891	0.022945674
27	0xbafd6507	-0.0019332477
28	0xbd00ee88	-0.03147748
29	0xbc2d50fb	-0.010578389
30	0xbc9d7ca7	-0.019224478
31	0xb9d9291f	-0.00041420103
32	0xbd0b81a4	-0.03405918
33	0x3cf486c0	0.02984941
34	0xbd938c18	-0.07204455
35	0xbd0a9609	-0.03383449
36	0xbca74bf2	-0.020421956
37	0x3bdb50b7	0.0066929716
38	0xbc73d940	-0.014883339
39	0x3c8c2a7f	0.017110107
40	0x3c888503	0.016664987
41	0x3d1e2cfc	0.03861712
42	0x383e0be2	4.5310597e-05
43	0x3d29289c	0.041298494
44	0xbc6a7ff9	-0.014312738
45	0xbcb7f5e0	-0.02245611
46	0x3cda30f4	0.02663467
47	0x3c2fae34	0.010722686
48	0x3d5a85a3	0.053350102
49	0xbb395903	-0.0028281815
50	0x3bd6de09	0.0065572304
51	0xbc2b22b8	-0.010445289
52	0xbd08aec4	-0.033369794
53	0xbd0816f7	-0.033225026
54	0xbc65599b	-0.013998414
55	0xbcfe0d73	-0.031012272
56	0xbbba03ab	-0.005676707
57	0x3cddb849	0.027065413
58	0xbd0ad16f	-0.033891138
59	0x3d80300e	0.06259166
60	0x3c6d26b0	0.014474556
61	0xbcaccf01	-0.0210948
62	0xbca00e95	-0.019538203
63	0xbc1a0ee0	-0.009402961

baseModel.9.running_mean f4 [64]
0	0xbe9da222	-0.3078776
1	0xbeee8f5d	-0.46593753
2	0x3ce7ad4b	0.028280875
3	0xbe5fde68	-0.21862185
4	0xbd811cd4	-0.06304327
5	0xbd91be90	-0.07116425
6	0x3de8f7f9	0.11375422
7	0xbeb1f3d7	-0.34756348
8	0xbf02c033	-0.5107452
9	0xbe63c346	-0.2224246
10	0xbce7fd30	-0.028318971
11	0x3f5572a0	0.8337803
12	0xbf394831	-0.7237578
13	0xbd16c18b	-0.03680567
14	0xbe4e2a33	-0.20133285
15	0xbec0cf6c	-0.3765825
16	0x3e2bcb2f	0.16776727
17	0x3e29f7be	0.16598412
18	0xbed3f238	-0.41395736
19	0x3eab1038	0.3341081
20	0xbd26d7db	-0.0407332
21	0x3e2fa11e	0.17151305
22	0xbc81776e	-0.015804019
23	0x3e073d47	0.13206969
24	0x3d86085a	0.06544562
25	0xbdab7a63	-0.08372953
26	0x3eae71ef	0.340713
27	0x3e2465e1	0.16054489
28	0xbec2e8a6	-0.38068122
29	0x3e83049f	0.25589463
30	0x3f236590	0.6382685
31	0x3d2a8306	0.04162886
32	0x3f3d9be4	0.74065995
33	0x3d227dcb	0.039670747
34	0xbf560c81	-0.8361283
35	0x3df29158	0.11844128
36	0x3f0e2319	0.55522305
37	0x3c6da613	0.014504927
38	0xbbc70b88	-0.0060743727
39	0xbe38ac95	-0.18034585
40	0xbd8749ed	-0.06605897
41	0x3e439a7c	0.191019
42	0x3de231b6	0.11044638
43	0xbea28a44	-0.31746113
44	0xbe5d5221	-0.21613361
45	0xbeb8ea07	-0.3611605
46	0xbd5eb3ad	-0.05437057
47	0xbd17c51a	-0.037053205
48	0x3f0c2604	0.5474551
49	0xbe486598	-0.19570005
50	0x3f3f1eb4	0.74656224
51	0x3eec653b	0.46170983
52	0xbd5d82f3	-0.05407996
53	0xbec26636	-0.37968606
54	0x3c962ca1	0.018331828
55	0x3d871cb1	0.06597269
56	0xbe146d99	-0.14494933
57	0x3e9aa3fa	0.3020323
58	0x3e4432da	0.19160023
59	0x3f45042e	0.769595
60	0x3f2f1663	0.68393534
61	0xbd073a09	-0.03301433
62	0xbec48658	-0.38383746
63	0xbe68a6e6	-0.22719917

baseModel.9.running_var f4 [64]
0	0x3dc7c4c3	0.09754326
1	0x3e2a9251	0.16657378
2	0x3d7c6d09	0.06162742
3	0x3ddfde39	0.109310575
4	0x3d77e917	0.060525026
5	0x3df3a49b	0.118966304
6	0x3dd590ea	0.10428031
7	0x3dec8910	0.1154958
8	0x3d79227e	0.06082391
9	0x3e464f98	0.193663
10	0x3db7d756	0.08976619
11	0x3dd8eb8b	0.10591801
12	0x3db3880a	0.08766182
13	0x3d9f2312	0.07770361
14	0x3e36286f	0.17788862
15	0x3d840558	0.06446332
16	0x3dd204ad	0.10254798
17	0x3dd99dd9	0.1062581
18	0x3d955c16	0.072929546
19	0x3d99d9aa	0.07512219
20	0x3d9bf293	0.07614627
21	0x3e0a3370	0.13496184
22	0x3da62d7e	0.08114146
23	0x3dbe4ab0	0.09291589
24	0x3ddc687d	0.10762117
25	0x3e324a32	0.17411116
26	0x3d864f56	0.06558101
27	0x3dabf556	0.083964035
28	0x3da99fdf	0.08282446
29	0x3db6c63d	0.0892453
30	0x3ddb6fff	0.10714721
31	0x3db12828	0.08650237
32	0x3dfcfabb	0.123525105
33	0x3db309e3	0.0874212
34	0x3dd1b6b8	0.10239929
35	0x3e551a01	0.20810701
36	0x3da77b98	0.081778705
37	0x3dae9d65	0.085261144
38	0x3ddd3055	0.10800234
39	0x3e18f495	0.1493705
40	0x3dca6102	0.09881784
41	0x3de130a0	0.109956026
42	0x3daa980e	0.083297834
43	0x3dc115ff	0.094280235
44	0x3d961164	0.07327536
45	0x3dd0a322	0.10187365
46	0x3db7b5fb	0.08970257
47	0x3dd72c49	0.105064936
48	0x3df99f74	0.121886164
49	0x3dff7c47	0.12474876
50	0x3d98b31b	0.07456037
51	0x3d75eb0b	0.060038608
52	0x3e1cdffa	0.15319815
53	0x3e3cbb20	0.18430758
54	0x3d6939b7	0.056939807
55	0x3da10d52	0.07863869
56	0x3ddaa754	0.106764466
57	0x3dcd6ccd	0.10030518
58	0x3d938afb	0.07204243
59	0x3da8fb25	0.08251027
60	0x3d748fd8	0.059707493
61	0x3d954da1	0.07290197
62	0x3dd8809d	0.10571406
63	0x3e2ed61b	0.17073862
