Models/best_bl_0426.pth (torch, 495567 bytes, 42 tensors)

baseModel.0.weight f4 [64, 2, 3]
000000 f5 03 a1 3e 2a ee fc 3d 25 9b 88 be 16 17 42 3e
       0.3144833 0.12350114 -0.26680866 0.18954119
000010 02 31 7b be ea c9 42 be 08 8d 70 3e 62 a6 96 be
       -0.24530414 -0.19022337 0.23491299 -0.29423815
000020 50 1f 24 3e 9e 4a 22 3b 1e 45 bf 3d 61 e9 5b bd
       0.1602757 0.0024763714 0.09339355 -0.053689364
000030 22 76 f4 bd 2a dd 11 3e 6d a1 6a 3d 22 97 0c 3e
       -0.119365945 0.14244524 0.057282854 0.13729528
000040 be f3 61 3e d8 74 d7 bd fb a0 c7 3d 7c 71 2c be
       0.22065637 -0.10520333 0.097475015 -0.16840166
000050 54 9a 44 be fb a2 49 3e 8a 6d 41 3e 70 12 95 bd
       -0.19199497 0.19691078 0.18889442 -0.07278907
000060 4d 9c 1e 3d 88 39 c4 3d 87 a7 92 3e 95 aa 71 3e
       0.03872328 0.09581286 0.28643438 0.23600228
000070 a5 ba 8a 3e d4 db b2 3d fe 8e 8c be 94 c6 5f 3e
       0.27095523 0.08733335 -0.27452844 0.21853095
000080 f9 13 a5 3e e0 d1 2e be 9d e1 76 3e 5e fe e0 bd
       0.322418 -0.17072248 0.24109502 -0.10986017
000090 54 e5 83 bd a4 fb 15 3c 93 53 2f bd 62 96 59 3e
       -0.06440225 0.009154234 -0.042804312 0.21248773
0000a0 4a 54 12 be 91 fc ce 3d db 17 e7 3d 86 29 90 bc
       -0.14289966 0.10106767 0.11283847 -0.017597925
0000b0 0f 0a 33 3e 3a 61 a5 be b5 d2 7d 3e 60 8f 53 3e
       0.17484306 -0.3230074 0.2478741 0.20660162
0000c0 db 15 96 be 47 18 68 be 07 ac 30 3c dd 52 7d 3e
       -0.2931355 -0.22665511 0.010783202 0.24738641
0000d0 d0 00 84 be 24 e8 82 be 8a 9d 9a 3c f3 cc 9a be
       -0.2578187 -0.25567734 0.018873949 -0.3023449
0000e0 70 d5 31 3e 5f f8 51 3e 2f 78 bf bc 75 58 0a bd
       0.17366576 0.20504902 -0.023372738 -0.033775765
0000f0 bd 9f d9 bd 3d af 74 3e 70 84 17 be 08 3c 02 be
       -0.10626171 0.23894973 -0.14796615 -0.12718213
000100 95 32 89 3e d2 54 02 be 3b fc a4 3c f7 a6 69 bc
       0.26796404 -0.12727669 0.020139804 -0.014260999
000110 f6 70 fa 3d 9d 82 94 be 05 a2 9e be e6 51 bf 3d
       0.12228577 -0.290059 -0.30982986 0.09341793
000120 0d 55 47 be e4 e1 58 3e 53 8d 77 3e 6c 3e 93 3e
       -0.19466038 0.2117992 0.24175005 0.28758562
000130 d6 5f a9 be 3b b4 56 be 22 12 86 be 8d 8c 8e 3e
       -0.3308093 -0.2096719 -0.2618571 0.27841607
000140 28 c3 10 3c 60 82 24 3e ba fc 9e bd bf 6b 39 3e
       0.008835591 0.16065359 -0.077630475 0.18107508
000150 2d dc e7 bd 58 42 7e 3e ca 73 51 be 4f dc d4 bd
       -0.11321292 0.24829996 -0.20454326 -0.10393583
000160 7b 16 22 3e a3 a4 94 3d d4 64 8d bc 36 09 bb 3e
       0.15828888 0.072579645 -0.017259993 0.36530465
000170 06 15 6f 3e 8f 5d d4 bd 81 44 8a 3e de a2 7b 3e
       0.23347864 -0.103694074 0.2700539 0.24573848
000180 3f 8f 8b 3d b1 3c 6a 3e 7e 8a b1 3e 36 01 9b bd
       0.068144314 0.22874714 0.34675974 -0.0756859
000190 e7 2b 97 ba 9b 9d ef bd ec 59 97 3e 5f 10 92 3e
       -0.001153347 -0.11699983 0.29560792 0.28528115
0001a0 48 38 bb bd 16 a3 55 be 57 47 60 3e 73 b7 af 3e
       -0.09141594 -0.20862994 0.21902214 0.34319648
0001b0 78 81 28 3e e5 63 4f be 36 5e 37 be de e6 15 be
       0.16455638 -0.2025295 -0.17907032 -0.1463885
0001c0 b8 97 a8 be c8 08 33 3e c4 31 89 be 05 45 d6 bd
       -0.32928252 0.17483819 -0.2679578 -0.10462383
0001d0 ae 09 6c 3e 52 75 91 be 0f 15 52 bd fa f7 39 3e
       0.23050568 -0.2840982 -0.051289614 0.18161002
0001e0 ae 44 2b bd 96 fb 4f 3e a2 ca 68 3e c5 12 51 3e
       -0.041813545 0.20310816 0.22733548 0.20417316
0001f0 1d b5 6a 3e 72 91 40 be fd a6 1d 3d 45 57 af 3e
       0.22920652 -0.18805483 0.03848933 0.3424627
000200 e5 88 98 3e 4c 6c 93 3d 10 24 79 be 92 ac e8 3d
       0.29791942 0.0719839 -0.24330163 0.1136104
000210 17 60 13 3e 66 33 d5 bc 8d 3d 56 3e c5 3f 32 be
       0.14392124 -0.026025485 0.20921917 -0.17407139
000220 6e a7 bc 3e be ab b2 3e 5a c6 4c bd cb 30 88 be
       0.3684649 0.34896654 -0.04999385 -0.26599726
000230 a8 b0 c7 be 5d b5 fd 3d ca 55 2b bd 56 da 9f 3e
       -0.39001966 0.12388108 -0.04182986 0.31221265
000240 32 db 18 be 53 7f 1e bb 07 b9 30 3c d9 64 61 3d
       -0.14927366 -0.0024184778 0.010786301 0.055027816
000250 15 e5 ae 3e b9 1e ac 3e ab c5 a5 be f4 cd 52 bd
       0.3415915 0.3361719 -0.3237737 -0.051465943
000260 96 eb ae 3e a6 6e ab bd 83 7d 8b bd ea 73 05 be
       0.34164113 -0.08370714 -0.06811049 -0.13032499
000270 81 09 53 3e e4 f9 85 3d 59 e4 9b be b3 db 9e 3d
       0.20609094 0.065418035 -0.30447653 0.07756748
000280 3d 38 af 3e ad 0a cc 3d 58 15 95 3e 55 74 41 3e
       0.34222594 0.09962974 0.29117846 0.18892033
000290 c1 88 9f bc 33 c9 44 be 93 69 56 3d c4 0f d2 bc
       -0.019474389 -0.19217376 0.052346777 -0.025642283
0002a0 1a 42 40 3d c2 68 d2 bd 36 25 9d be 88 af 6d be
       0.04693804 -0.10273887 -0.30692452 -0.23211491
0002b0 aa 34 77 3d 61 96 5d be d5 f5 2e be 9a 55 47 be
       0.06035296 -0.21639396 -0.17085965 -0.19466248
0002c0 27 7c ad bc 7f 12 3e 3c e2 bb 95 3e b4 4d 25 3e
       -0.021177365 0.0116010895 0.29244906 0.16142923
0002d0 2a 52 6c be e9 f7 8a 3e e6 0c e0 3d dd 9a 85 be
       -0.23078218 0.27142265 0.1093996 -0.26094714
0002e0 6a 25 5c be ea 53 9e ba 02 02 4f be cd 8b b6 3d
       -0.21498647 -0.0012079452 -0.2021561 0.08913384
0002f0 00 07 e0 bc 27 ab 84 3e 0c 25 96 be 40 ad 40 bd
       -0.027347088 0.2591183 -0.2932514 -0.047040224
000300 02 bb fb 3c 10 87 63 be f5 49 28 be e5 e1 a2 bc
       0.03072882 -0.22219491 -0.16434462 -0.019883106
000310 9c bf 83 3d 6e 38 61 bd f1 a9 96 3d 71 a6 81 bc
       0.06433031 -0.054985456 0.073566325 -0.015826436
000320 9e 61 85 3d 97 6a 83 be af 28 a3 3e c2 26 68 be
       0.065127596 -0.2566726 0.31866977 -0.22671035
000330 5e 1a 64 be 49 54 dd bd ce a8 30 bd 40 73 a7 3e
       -0.22275683 -0.10807092 -0.043129735 0.32705116
000340 9a 82 97 3e ae 2f e6 bd 8e 9c 90 bd 0a 59 89 be
       0.2959183 -0.11239563 -0.070611104 -0.26825744
000350 4a 2f 9c 3d 9f 6a 72 be 06 14 94 3d 3e 7d 7d 3e
       0.07626207 -0.23673485 0.07230382 0.24754807
000360 bf c8 89 3e 9e 38 b8 3e 57 34 74 3e 8b 63 54 3e
       0.2691097 0.35980695 0.23848091 0.20741098
000370 b3 77 13 3e 54 29 10 3e 8b 5e 3c 3d 28 ea 27 be
       0.1440113 0.14078265 0.0459886 -0.16397917
000380 80 78 41 3d 25 1b bc 3d 38 32 9b be 1e c1 4e 3d
       0.04723406 0.09184865 -0.3031175 0.05047714
000390 e9 87 3a 3e d7 1c 12 be 9d 89 36 3e b0 17 61 3e
       0.18215908 -0.14268814 0.17825933 0.21981692
0003a0 64 39 6b 3e e1 7e 88 3e 3b a1 3d be cd 36 15 3e
       0.22971112 0.266593 -0.18518536 0.14571686
0003b0 e0 c2 84 be 34 c3 80 3e 04 eb ad 3d 80 fd a7 be
       -0.25929928 0.25148928 0.08492091 -0.32810593
0003c0 e0 d8 4a be 63 73 95 3e 5e cf 8a 3d 84 4e 9a be
       -0.19809294 0.29189596 0.067778334 -0.30138028
0003d0 d0 a4 7f be 0a f7 17 be 4d 0c e0 3d d5 6c 84 be
       -0.24965215 -0.14840332 0.10939846 -0.25864282
0003e0 ae d5 5a be 0f 50 7a be 31 53 56 3e 1c b4 91 3e
       -0.21370575 -0.24444602 0.20930173 0.28457725
0003f0 12 ae c0 bc 4e ce 94 bc d3 97 b0 bc 3e 53 ad 3d
       -0.023520503 -0.01816478 -0.02155677 0.08463143

baseModel.0.bias f4 [64]
000000 c0 d5 9e b8 64 ce 74 b9 10 59 2a 38 aa 36 08 39
       -7.573841e-05 -0.0002334654 4.0614104e-05 0.00012990335
000010 5b 8d 32 38 58 e3 16 39 d1 96 d2 b9 b9 12 08 b9
       4.2570155e-05 0.00014389807 -0.00040166688 -0.00012976945
000020 14 28 28 37 47 2c 57 39 6e b9 96 39 63 9d 64 b8
       1.0022912e-05 0.00020520492 0.00028748385 -5.4506014e-05
000030 b3 06 a7 b8 94 28 b6 39 d6 fc 73 38 ea 62 0c 3a
       -7.9644284e-05 0.00034743978 5.8171187e-05 0.00053553155
000040 e7 bb 7a 39 6c 6e 17 37 e3 c2 d8 b8 83 aa ad b8
       0.00023911857 9.026011e-06 -0.00010335983 -8.281043e-05
000050 5f fb 48 ba 74 27 b9 b8 26 0d 45 b9 48 69 d5 39
       -0.0007666852 -8.828836e-05 -0.00018792282 0.00040704967
000060 cf 7a 2d 39 b2 ca 24 b8 57 9b 1e ba b6 b6 96 ba
       0.00016544315 -3.928942e-05 -0.0006050369 -0.0011498544
000070 7e 39 e1 b8 0c 93 4b 39 ec 0f c3 39 c5 d9 3b b9
       -0.00010739545 0.00019414368 0.0003720516 -0.00017914835
000080 bf 65 fb b9 a4 51 ae b9 c5 58 13 3a 2b a1 20 b8
       -0.00047950257 -0.00033248693 0.00056208327 -3.8297072e-05
000090 37 24 ea 38 69 7e 38 ba eb eb a6 38 18 45 fb 38
       0.00011164735 -0.00070378795 7.95944e-05 0.000119814824
0000a0 e1 90 b4 b8 06 31 47 b8 20 23 5d ba ac fe 51 39
       -8.610055e-05 -4.7490954e-05 -0.0008435715 0.00020026666
0000b0 d1 8f bd b9 77 7e 7d b9 3f 69 67 39 c4 b9 42 ba
       -0.0003615604 -0.00024175072 0.00022069084 -0.0007428194
0000c0 37 6f 75 3a 79 0e aa b9 86 a0 c8 38 71 ff 64 b9
       0.00093625806 -0.0003243571 9.566643e-05 -0.00021838934
0000d0 42 bc b9 39 e9 59 ef 37 f4 3f 33 b9 f3 0f 3a b9
       0.00035426213 2.8532888e-05 -0.00017094595 -0.00017744284
0000e0 6a 2b ea b9 5c e7 43 3a 43 67 11 ba 0b 2d 3f 3a
       -0.00044664304 0.0007473135 -0.0005546698 0.00072927837
0000f0 2f f6 ba b9 66 2e 8c 37 a0 e9 9d b9 05 95 1e 39
       -0.00035660106 1.6710906e-05 -0.00030119438 0.00015123568

baseModel.1.weight f4 [64]
000000 98 cd 43 3f 89 bf 45 3f e5 70 3b 3f ba d8 5d 3f
       0.76485586 0.77245384 0.7321914 0.86658823
000010 2b d4 51 3f e9 4c 38 3f b2 ab 2d 3f 0c 6a 35 3f
       0.8196437 0.71992356 0.6784011 0.7086494
000020 1c 6a 54 3f 06 e4 39 3f 8b 8f 3c 3f c8 41 3d 3f
       0.8297441 0.7261356 0.7365653 0.739285
000030 97 43 33 3f aa ab 2f 3f 65 6e 2b 3f 93 54 54 3f
       0.7002501 0.68621314 0.66965324 0.8294155
000040 c9 67 58 3f d8 75 59 3f 7d 48 49 3f 0f 9b 45 3f
       0.84533364 0.8494544 0.78626233 0.77189726
000050 b0 8c 47 3f 0a 3e 50 3f 9e d7 3f 3f 50 ee 4c 3f
       0.7794905 0.81344664 0.7493838 0.80051136
000060 29 1c 55 3f 8e 39 4a 3f d7 8c 4a 3f 55 0e 44 3f
       0.83246094 0.7899407 0.79121155 0.7658437
000070 93 57 33 3f 53 58 55 3f 21 9a 48 3f 33 ec 33 3f
       0.700555 0.833379 0.7836018 0.70282286
000080 95 2d 4d 3f d5 63 3f 3f c0 95 4c 3f 6a d6 43 3f
       0.8014768 0.74761707 0.79916 0.76499045
000090 d4 07 5e 3f 47 89 33 3f 28 e3 41 3f 5e 3c 42 3f
       0.86730695 0.70131344 0.7573724 0.75873363
0000a0 6a 09 4d 3f 4f 53 3c 3f da d6 50 3f a4 4b 62 3f
       0.8009249 0.7356462 0.8157784 0.8839667
0000b0 87 71 4a 3f 85 1d 4a 3f 99 84 2e 3f e4 34 5a 3f
       0.7907948 0.78951293 0.6817108 0.85236955
0000c0 97 71 41 3f 8a 72 38 3f ab 47 2f 3f c4 73 58 3f
       0.7556395 0.7204977 0.6846873 0.84551644
0000d0 db 51 56 3f e7 2b 44 3f e4 ba 2f 3f ac 34 3c 3f
       0.8371865 0.7662949 0.6864455 0.7351787
0000e0 f5 86 5f 3f 59 b7 3d 3f 03 e3 67 3f c1 cf 48 3f
       0.87315303 0.7410789 0.9058077 0.7844201
0000f0 60 bb 67 3f 27 88 40 3f c0 4b 3b 3f b7 a4 5a 3f
       0.90520287 0.7520775 0.7316246 0.85407585

baseModel.1.bias f4 [64]
000000 49 a1 30 bd de 35 bc 3c be f6 80 bd 46 2e 82 bd
       -0.043122564 0.022974905 -0.06297062 -0.06356482
000010 cb 03 14 bd e4 47 20 bd 63 00 f4 3b 50 22 10 bd
       -0.03613643 -0.03913106 0.007446335 -0.035188973
000020 1c f6 cb bd 29 c8 8b bd 6a ad 6e bc c3 a5 a8 bd
       -0.09959051 -0.06825287 -0.014567712 -0.082347415
000030 b9 ba c1 3c f1 cb c5 bb b1 84 0e bd 36 75 57 3c
       0.023648607 -0.0060362746 -0.034794513 0.013150504
000040 27 58 41 bd 9d 0a ce bd 3c d6 cb bd 49 09 73 bc
       -0.04720321 -0.10060618 -0.09952971 -0.014833757
000050 f7 5a be bd 7e 88 27 3c 13 6f 82 bd f9 ff 0f bd
       -0.09294694 0.010225413 -0.06368842 -0.035156224
000060 d7 50 b8 bc 95 8a 1f bd f8 f1 98 bd b8 1d 68 3c
       -0.022499485 -0.03895052 -0.07468027 0.014167242
000070 c0 56 ab bd 08 45 e3 bc 69 c8 8b bc 88 93 76 bd
       -0.083661556 -0.027742878 -0.017063336 -0.06019929
000080 58 f1 41 bd 1d c0 57 3d f3 78 a3 bd 21 9a e1 bd
       -0.047349304 0.052673448 -0.079820536 -0.11015726
000090 fe e8 4e bd 35 e3 72 bd fd d3 49 bd 48 44 01 bd
       -0.050515167 -0.059298713 -0.049274433 -0.03155926
0000a0 0e 73 8c bd d5 17 1e bd 96 81 51 3c 76 15 87 bd
       -0.068578824 -0.038596947 0.012787243 -0.0659589
0000b0 1b e6 68 bd 72 be 36 bd a1 c4 83 bc ff c2 d4 bc
       -0.05686007 -0.044615217 -0.01608497 -0.025971888
0000c0 00 f6 99 bd 04 51 ce bc ca f8 65 bd e6 9e 40 bd
       -0.07517624 -0.025185116 -0.056145467 -0.047026537
0000d0 19 f6 4f bd e6 02 92 bd 3a 9c 8a bd b4 9a cf bd
       -0.050771806 -0.07129459 -0.06768079 -0.10136929
0000e0 af e8 0e bd 4e 69 6a bd e6 0a 08 bd 23 9b 47 bb
       -0.034889873 -0.057229333 -0.03321352 -0.003045746
0000f0 12 c1 bf bd 72 e6 00 3d 4d 1e 79 bd 0c 04 87 bd
       -0.09362997 0.03146977 -0.060819913 -0.06592569

baseModel.1.running_mean f4 [64]
000000 d0 ff 38 b8 d3 80 ac b8 71 e3 0b b6 05 cf 09 39
       -4.4107263e-05 -8.2255945e-05 -2.0845002e-06 0.00013142459
000010 b1 d8 99 38 22 9b 9c 39 47 07 e5 b9 00 4e bd b9
       7.3359704e-05 0.00029870222 -0.00043683706 -0.00036107004
000020 65 20 65 38 4b c5 57 38 89 38 94 39 5e 40 8e 38
       5.4628024e-05 5.1443738e-05 0.00028270882 6.783077e-05
000030 56 4e 82 b8 93 4d 99 39 6f 00 8f 38 90 a3 11 3a
       -6.213474e-05 0.0002924023 6.818852e-05 0.0005555684
000040 23 6f 8f 39 5d ae 51 b9 44 eb 69 38 b0 9f 07 b9
       0.0002735789 -0.00019996749 5.5770637e-05 -0.00012934092
000050 a8 ee fe b9 16 9c c5 b8 6e 99 7a b7 20 58 d1 39
       -0.00048624468 -9.422765e-05 -1.4936884e-05 0.00039929245
000060 c0 d9 75 39 2b 7f 33 38 32 70 1d ba 42 2e 6c ba
       0.00023446139 4.279536e-05 -0.0006005793 -0.00090095785
000070 e7 21 13 38 35 78 a7 39 85 1f c4 39 02 31 4b b9
       3.5079105e-05 0.00031942283 0.00037407517 -0.00019377845
000080 dd 5f 6b b9 99 8e 04 ba f4 c7 2b 39 bc e3 b5 38
       -0.00022447058 -0.0005056649 0.00016382319 8.6731714e-05
000090 93 96 31 38 dd e9 ac b9 d8 99 bd 37 d4 2d 14 39
       4.234032e-05 -0.00032980638 2.2602195e-05 0.00014131452
0000a0 a0 45 82 38 cb e5 ef 38 b9 ba 31 ba 36 cb f2 b8
       6.211852e-05 0.0001143921 -0.0006779838 -0.0001157731
0000b0 b9 40 2f b9 8e 23 fb b8 d7 e1 cc 39 76 83 1f ba
       -0.00016713412 -0.00011975235 0.00039078176 -0.0006084958
0000c0 05 90 68 3a e1 80 b0 b9 12 a1 5a 39 7b 54 8f b9
       0.0008871558 -0.00033665358 0.00020850103 -0.00027338028
0000d0 13 79 9b 39 4a 43 91 37 68 24 6c b9 71 3a 93 b9
       0.0002965411 1.731668e-05 -0.00022520276 -0.00028081567
0000e0 15 42 ca b9 60 2b 5b 3a 18 ce 03 ba 13 40 19 3a
       -0.00038577677 0.00083606504 -0.0005027964 0.00058460346
0000f0 21 fd c9 b9 01 78 42 b9 aa 42 e1 38 2f a4 3a 39
       -0.00038526303 -0.00018545987 0.00010741253 0.00017799505

baseModel.1.running_var f4 [64]
000000 de 43 3d 37 bf 59 5c 36 c2 14 8c 36 a3 2d e4 36
       1.1281079e-05 3.2834794e-06 4.1747417e-06 6.8002423e-06
000010 c1 ec 50 37 41 7a 28 37 6b e5 f6 35 e2 70 08 37
       1.245289e-05 1.0042045e-05 1.8395198e-06 8.132514e-06
000020 32 1b 6b 37 82 3e 90 36 87 bd 71 36 f3 aa 1c 37
       1.4013423e-05 4.2988113e-06 3.6022118e-06 9.338127e-06
000030 1e b1 59 37 96 10 ac 36 20 52 68 36 25 8a 85 37
       1.2975446e-05 5.1279303e-06 3.4618497e-06 1.5919164e-05
000040 56 83 30 37 01 d2 8a 37 23 07 1b 37 de 7d 16 37
       1.05209965e-05 1.6548673e-05 9.240382e-06 8.970002e-06
000050 09 0b 1d 37 3b 27 5a 37 51 d4 77 37 07 d7 87 37
       9.360499e-06 1.3002947e-05 1.4771781e-05 1.6193384e-05
000060 ef ac 67 37 91 9f 1a 37 03 9e 41 37 72 c5 f3 36
       1.3808937e-05 9.216267e-06 1.1540486e-05 7.26495e-06
000070 17 6f 08 37 32 21 1f 37 a4 22 29 37 2d 83 ac 36
       8.132097e-06 9.484867e-06 1.008125e-05 5.1412703e-06
000080 75 c9 83 36 ac fc 8e 36 d3 23 57 37 ca c3 f3 36
       3.927557e-06 4.2613447e-06 1.282334e-05 7.264757e-06
000090 3a fb ac 37 09 56 5f 36 63 50 4b 37 69 25 15 37
       2.0620984e-05 3.3279669e-06 1.2118459e-05 8.889802e-06
0000a0 09 d3 69 37 cf 65 4a 37 bb 3e 0f 37 26 63 bd 37
       1.3937018e-05 1.2063842e-05 8.53807e-06 2.2576725e-05
0000b0 92 27 23 37 76 de e0 36 71 45 71 36 5c 7b 7c 37
       9.72477e-06 6.701618e-06 3.5952219e-06 1.5049092e-05
0000c0 c6 83 2a 37 27 c2 a9 36 08 3f 01 36 af 4f 30 37
       1.01634705e-05 5.059195e-06 1.9259187e-06 1.050897e-05
0000d0 c9 74 5a 37 85 9b 83 37 36 b1 96 36 02 2d ed 36
       1.3021004e-05 1.5688836e-05 4.4909784e-06 7.06839e-06
0000e0 9a f7 95 37 1d dd fb 36 ea 2b 45 37 0c 33 0c 37
       1.7877483e-05 7.506124e-06 1.175234e-05 8.356536e-06
0000f0 ec 95 96 37 f4 49 2e 37 e6 a6 f6 36 56 e1 47 37
       1.7951206e-05 1.0388427e-05 7.350801e-06 1.1913789e-05

baseModel.4.weight f4 [64, 64, 3]
000000 31 04 13 bd 77 1d b7 bd b5 f4 96 bc f0 b7 32 bd
       -0.03589267 -0.08941167 -0.018427232 -0.043632448
000010 16 21 09 3c 32 91 d3 bc 32 62 66 bd 7a 70 9c bc
       0.008369705 -0.02582607 -0.05624599 -0.019096602
000020 59 83 80 bc 9e b4 62 bc 71 84 97 3d 69 c3 22 bd
       -0.015687631 -0.013837008 0.07398308 -0.03973714
000030 98 80 89 bd d5 de 44 bc 7b 81 1f bd bf 27 2f bc
       -0.067139804 -0.012016018 -0.03894184 -0.010690629
000040 b7 77 b0 3c f4 4c a3 3c 0b bd 24 3d c5 92 15 3b
       0.02154146 0.019934155 0.040219348 0.0022823077
000050 5f b2 68 bd 65 2c 08 bd 11 d4 77 bb 1f 54 04 3a
       -0.056810733 -0.033245463 -0.003781561 0.00050479354
000060 d5 13 3c bc 62 77 22 3d 5b 99 d4 bc 13 77 1a 3d
       -0.011479338 0.039664634 -0.025952032 0.037711214
000070 e9 56 8d bd c9 eb 0d 3d 7d 4a 2b bd 42 80 fa bb
       -0.069013424 0.03464869 -0.041819084 -0.007644684
000080 11 ff 68 bd a0 ab 08 3d 4b 42 14 3c 21 05 d2 3c
       -0.056883875 0.0333668 0.009049009 0.025637211
000090 45 29 5b 3c e9 16 a8 b8 dc 78 97 bc 67 10 5e 3c
       0.013376539 -8.0151316e-05 -0.018490247 0.013553715
0000a0 d9 d6 8a 3b 2a e1 15 bc c5 8c 51 bd 25 c5 24 bd
       0.0042370376 -0.009147922 -0.05115964 -0.040227074
0000b0 05 e3 bf bc 2b 5b 42 3d 0b f1 1d 3d b8 9e 1b 3d
       -0.023423681 0.047450226 0.038559955 0.037993163
0000c0 6e a6 42 bb c8 a7 ab 3d cf 48 a4 bb 76 3d 8b 3d
       -0.002970125 0.08381611 -0.0050135623 0.06798832
0000d0 00 b0 31 3d a4 59 b0 3c d3 88 38 bc ab 03 1b bd
       0.043380737 0.021527119 -0.01126309 -0.037845295
0000e0 73 fc 4e bd c1 c5 68 3d 29 28 b1 bc f9 c9 2c 3d
       -0.050533723 0.056829218 -0.021625595 0.042184804
0000f0 77 ed 22 3d 50 94 ba 3c 3f 0a 83 3d 08 44 92 bc
       0.039777245 0.022775799 0.06398439 -0.017854705
000100 15 71 bd 3d 6c 7f 04 bd 87 42 80 bb 2c 62 c0 3c
       0.09250084 -0.03234808 -0.0039141807 0.023484312
000110 58 9f c2 3c e0 d4 4b bc c7 bf 33 3d a9 73 43 bc
       0.023757622 -0.01244089 0.043884065 -0.011929431
000120 e3 7f 09 3d 6b 2c 40 3c b5 74 01 3d 76 ba 9a 3c
       0.033569228 0.01172934 0.03160544 0.01888774
000130 f2 aa bc bd ec a7 e5 3c 0d 84 9e 3d e8 4b e5 3c
       -0.09212293 0.028034173 0.077400304 0.027990296
000140 ec df 76 3d e8 a4 16 bd 32 c6 2c 3d 72 2d 10 3c
       0.060272142 -0.03677836 0.0421812 0.0087998975
000150 0d 15 8a bc 69 3c fd 3c 2c b2 f7 3c fa 67 47 bd
       -0.01685574 0.030912595 0.030236326 -0.048683144
000160 4e 23 28 3b 1e fb af bc 20 c1 3d 3d 91 aa d8 ba
       0.002565581 -0.021482047 0.046326756 -0.0016530325
000170 b9 bb c1 3a b7 4e c8 3c 6e cd c7 bd 17 26 50 ba
       0.0014780677 0.024451597 -0.097559795 -0.0007940246
000180 a6 e0 86 ba cb 8f aa 3c b8 b2 c8 bb e2 01 a9 bc
       -0.0010290339 0.020820519 -0.0061248206 -0.02063078
000190 18 11 23 bd 34 84 93 bc d2 1f 83 bc 2a 73 61 bc
       -0.039811224 -0.018007375 -0.016006384 -0.013760367
0001a0 d9 22 59 bc c6 00 0d bd 9b 95 c6 bc 1f c1 2c bd
       -0.013252937 -0.034424566 -0.02424126 -0.042176362
0001b0 f6 70 97 3c b1 24 3d bc ff 43 0c 3c 6d 62 ec 3c
       0.018486481 -0.011544392 0.008561133 0.028855527
0001c0 30 82 17 3d 73 5f fa 3c d9 1f 93 3d d8 29 37 3d
       0.03698939 0.030563092 0.07183809 0.04471764
0001d0 4d 2b 25 3d ac 9b 45 bc 31 0b 99 bd 91 d6 98 3c
       0.040324498 -0.012061041 -0.07472838 0.018657
0001e0 74 9e 9c bb e6 2b a7 3c fa 58 e0 bc ec dd e8 3c
       -0.0047796313 0.020406675 -0.027386177 0.028426133
0001f0 9d d7 9b 3c b6 00 17 3d c0 20 1c 3d 2d 2f 12 3d
       0.01902371 0.036865912 0.03811717 0.03568952
000200 5b 07 31 3c 1c 90 b7 3b b1 88 f7 3c ea d5 c6 bc
       0.010804976 0.005601896 0.030216547 -0.024271924
000210 c8 a5 19 bd 41 64 76 3d a3 34 3b 3d de 91 91 bc
       -0.037511617 0.060154203 0.045704495 -0.01776975
000220 25 ce d2 bd e4 9a 24 3c cf a1 6a 3d 96 be 9a bc
       -0.10293225 0.010046694 0.05728322 -0.018889707
000230 fd 55 10 bc ea 26 98 3c 05 80 d3 3c 40 55 de bc
       -0.008809564 0.018573243 0.02581788 -0.02714026
000240 97 9e 3f 3d e2 38 1c 3b 7f a5 20 bd fc 67 04 bd
       0.046782102 0.0023837616 -0.03922033 -0.03232573
000250 c5 f9 81 bb b4 8d 2a bd b3 5c 97 bd f1 84 cb bc
       -0.0039665424 -0.041639045 -0.07390728 -0.024843665
000260 3b fe 6f bb 91 2d 68 bd a5 91 94 bd 17 58 9e bd
       -0.003662004 -0.05668408 -0.07254342 -0.077316456
000270 ad db dc bb d9 2e 9b bd ac a1 11 bc a3 35 18 3d
       -0.0067400546 -0.07577295 -0.008888643 0.037160527
000280 4c f3 2d bd aa c2 ab bd 57 48 0c 3d 85 e6 7b bc
       -0.042468354 -0.083867386 0.034248676 -0.015374784
000290 bd 89 f8 bc 16 43 f0 bb 70 0b 17 bc 86 c2 68 3d
       -0.030339116 -0.007332216 -0.0092190355 0.056826137
0002a0 27 ce 75 3d c9 44 1c bc 36 b7 1e 3d b3 34 17 bc
       0.060011055 -0.009537884 0.038748942 -0.009228873
0002b0 98 28 a2 bd 49 30 16 bd 4f 7c 63 bd 88 ed 9c 3d
       -0.07917899 -0.036667142 -0.05553847 0.07662493
0002c0 0c 63 10 3c 33 46 87 3c cd b5 24 3d 4f 80 11 bc
       0.008812677 0.016512966 0.04021244 -0.008880689
0002d0 6f 3d b9 3b 36 cf 5b 3d 1b 2b f4 b9 33 1c 64 3d
       0.0056530754 0.05366441 -0.00046571423 0.055690955
0002e0 bc a2 a6 3c 2d 82 03 bb 42 9f af bd 32 90 e1 3b
       0.02034127 -0.0020066604 -0.08575298 0.0068836445
0002f0 d9 94 71 bc e1 a7 91 bd 98 c9 7d 3c 6e c6 31 bd
       -0.014744961 -0.071120985 0.015489958 -0.043402128
000300 1a 33 a7 bd e8 03 71 3b 2a 9a a5 bc 55 59 de bc
       -0.08164044 0.003677601 -0.020215113 -0.027142206
000310 e1 3e f0 bb 57 15 d0 38 2b 07 2c bb d9 3b 96 bc
       -0.0073317145 9.922188e-05 -0.002624939 -0.018339084
000320 7e 05 31 bc 00 89 86 3d eb 70 df bc 2c d3 04 3d
       -0.010804532 0.065690994 -0.027275523 0.03242795
000330 0a cd 34 3d 99 47 87 bd 2e 45 08 bd ea 73 7c 3c
       0.044140853 -0.06605453 -0.0332691 0.015408495
000340 5e 8a 41 ba d0 ba 43 3d 26 d1 0d 3d 09 f6 82 3d
       -0.0007382984 0.04778558 0.034623288 0.06394584
000350 ab 28 33 3c 8d f3 95 bb c4 82 01 3d 45 fa 2b 3d
       0.010934989 -0.0045761527 0.03161885 0.041986722
000360 3a c8 2a 3d 99 73 63 bc 63 e3 a1 3c 43 53 ab 3c
       0.041694857 -0.013882541 0.019761747 0.020913726
000370 cb bf 25 bc 44 06 db bc 2f c4 65 bd c0 b6 ae 3c
       -0.010116528 -0.026736386 -0.0560953 0.021327376
000380 e4 1b 2e 3d de ce 23 3d df 86 3b bd 2e 50 b8 3a
       0.042507067 0.039992206 -0.04578292 0.0014061981
000390 4c a4 a7 bc 66 c1 15 bd f6 9d 49 bd 53 72 d4 bc
       -0.020464085 -0.036561392 -0.04922291 -0.02593342
0003a0 d4 e2 62 ba 92 9d 4e bc dd 3b 51 3d 4c 44 f9 bc
       -0.0008655016 -0.01261081 0.05108248 -0.030428074
0003b0 cb bf 35 3c 59 cf d3 3c 64 65 80 bd 2f f1 1a bd
       0.01109309 0.025855707 -0.06269339 -0.037827667
0003c0 81 7c 9b 3d be aa 4e bd 59 96 6f bc 46 85 2f 3d
       0.075921066 -0.0504558 -0.014623248 0.04285171
0003d0 24 0a cf 3c d4 86 13 3c cd 15 02 3d 96 03 63 3c
       0.02527339 0.0090043135 0.031759072 0.013855835
0003e0 8f a5 f4 bb 7f 03 1a 3d a0 d3 de 3c 44 27 8f bd
       -0.007466025 0.03760099 0.02720052 -0.06989911
0003f0 fe ea 20 bb 00 d4 21 bd 2d cc 05 3d c2 97 2a 3d
       -0.0024554129 -0.03950882 0.03266542 0.041648634

baseModel.4.bias f4 [64]
000000 1e b4 bd b7 d1 74 43 b8 2f b0 0a b7 81 db 9a 36
       -2.261443e-05 -4.6600417e-05 -8.266462e-06 4.6151113e-06
000010 43 58 b6 b7 44 93 df 37 d6 dc 16 b8 1d 9f 31 b6
       -2.173719e-05 2.6652247e-05 -3.5968456e-05 -2.6467671e-06
000020 d6 8c 01 37 ca fc 69 38 55 14 83 b7 a8 18 5a b5
       7.72179e-06 5.5786957e-05 -1.5625885e-05 -8.124721e-07
000030 ef 09 21 b8 ac 2a 0c b5 5f b3 45 b8 83 a2 f2 37
       -3.8394643e-05 -5.221616e-07 -4.7135512e-05 2.8924323e-05
000040 13 a3 65 b7 82 ac 31 b8 bf d4 16 b8 6a 4d e1 b6
       -1.3687432e-05 -4.236075e-05 -3.5960922e-05 -6.7145347e-06
000050 db d5 4b b8 c6 64 82 37 e7 d9 31 b8 8f 9a 7c 38
       -4.859814e-05 1.5544134e-05 -4.2403026e-05 6.0225426e-05
000060 f5 48 b3 b8 6f 19 df 37 6c c2 95 b7 d9 7b 17 38
       -8.5489744e-05 2.6595515e-05 -1.7852719e-05 3.6116548e-05
000070 08 1e 85 36 f7 78 41 37 e4 de f1 36 49 b1 e0 36
       3.967205e-06 1.1531861e-05 7.2083076e-06 6.696359e-06
000080 75 3f 00 b8 3e 51 a3 37 fe 51 88 37 d6 06 82 37
       -3.0576677e-05 1.9468946e-05 1.6250644e-05 1.550039e-05
000090 6f 7e 63 38 4c f4 f2 b6 49 c4 09 b8 72 7f 02 b8
       5.4238768e-05 -7.240602e-06 -3.284615e-05 -3.1113108e-05
0000a0 84 35 8b 36 dd 3a 91 37 6c 50 26 37 72 09 4a b7
       4.148753e-06 1.7312757e-05 9.913096e-06 -1.2042337e-05
0000b0 94 c1 c2 37 0c 75 ea 36 ce 9d 39 b7 37 8e 12 38
       2.3216744e-05 6.9873695e-06 -1.1063601e-05 3.494156e-05
0000c0 4a d8 93 36 c8 3d 99 37 b0 d0 8a 36 a6 e8 32 b6
       4.4061208e-06 1.826779e-05 4.137015e-06 -2.6659486e-06
0000d0 ca 1c c9 36 a2 78 68 b8 42 07 0c 37 af b5 d3 37
       5.9936183e-06 -5.542546e-05 8.34634e-06 2.5237763e-05
0000e0 1f c5 2d 37 8d d9 25 b7 58 ec d6 b7 86 89 0f b8
       1.0357499e-05 -9.885419e-06 -2.5620844e-05 -3.4221935e-05
0000f0 25 e9 38 b7 4e bd 1b 37 37 d0 84 38 39 3e 16 38
       -1.1021538e-05 9.282796e-06 6.3330335e-05 3.5820736e-05

baseModel.5.weight f4 [64]
000000 cc 3f 46 3f c2 74 44 3f 48 1d 42 3f 84 c7 52 3f
       0.77441096 0.7674066 0.7582593 0.82335687
000010 96 28 42 3f ff 69 39 3f 3f d1 48 3f 4e b0 41 3f
       0.7584318 0.7242736 0.78444284 0.75659645
000020 dd fd 45 3f 0c 94 47 3f f7 dd 3b 3f be f5 41 3f
       0.7734049 0.77960277 0.73385566 0.757656
000030 1a 28 32 3f 98 6a 35 3f fb 7c 45 3f 67 43 42 3f
       0.6959244 0.70865774 0.7714383 0.758841
000040 4a 33 37 3f 41 59 3f 3f ce 52 35 3f c6 a8 4b 3f
       0.71562636 0.74745566 0.70829475 0.795544
000050 e1 56 49 3f eb 40 41 3f c4 61 39 3f 98 e2 48 3f
       0.7864819 0.7548968 0.72414804 0.78470755
000060 52 76 4f 3f db 41 3f 3f 01 b2 44 3f 0f 6a 38 3f
       0.8103992 0.7470986 0.7683411 0.7203683
000070 fc ce 37 3f 31 47 53 3f eb 80 3e 3f 36 57 4d 3f
       0.7180021 0.82530504 0.74415463 0.802112
000080 74 93 3c 3f 21 65 42 3f 6b f6 39 3f e4 c5 41 3f
       0.73662496 0.7593556 0.7264163 0.7569258
000090 a2 f7 2e 3f d4 86 38 3f 2e 26 41 3f 67 bc 47 3f
       0.6834661 0.7208073 0.7544888 0.78021854
0000a0 65 0f 4f 3f ca eb 44 3f 8c 2c 3c 3f 14 5f 40 3f
       0.80882865 0.76922286 0.73505473 0.7514508
0000b0 bc 34 34 3f 54 d8 28 3f 9b 0d 3e 3f 53 37 48 3f
       0.70392966 0.6595509 0.7423951 0.7820942
0000c0 eb 9b 4e 3f 52 1d 30 3f 4f da 41 3f 12 e2 36 3f
       0.8070666 0.6879474 0.7572374 0.71438706
0000d0 b3 6b 50 3f c5 a1 30 3f 01 54 3d 3f f2 ed 57 3f
       0.81414336 0.6899684 0.73956305 0.8434745
0000e0 f7 fd 3c 3f 4e 04 38 3f e5 9e 49 3f fe d6 3f 3f
       0.7382502 0.7188157 0.7875808 0.7493743
0000f0 ac 85 58 3f 24 db 2c 3f e5 e3 41 3f 14 bd 37 3f
       0.8457897 0.6752188 0.75738364 0.71772885

baseModel.5.bias f4 [64]
000000 b2 f6 33 bb d2 2b 15 be cb 96 11 3d 92 75 30 3d
       -0.0027460274 -0.14567497 0.035544198 0.043080874
000010 62 97 e4 bd e2 44 6d 3b dd 40 c3 bd 2a ae 03 bd
       -0.111616865 0.0036204387 -0.09533856 -0.032148518
000020 2c 69 c0 ba 0e ee 16 be 6f dd 20 3d c5 7a 86 bd
       -0.0014679781 -0.14739248 0.039273676 -0.06566385
000030 d6 05 9c bb ac 4e 29 3d cc 55 30 bd 94 bd 8a 3c
       -0.004761438 0.041334793 -0.043050572 0.016936101
000040 27 41 22 3d ff e3 6d 3c 16 a9 8b 3c a5 89 ec 3b
       0.039612915 0.014519691 0.0170484 0.007218557
000050 a4 65 10 be a5 81 8c 3d 28 be 37 3b 1d 93 28 bd
       -0.14101273 0.06860665 0.0028036926 -0.041155923
000060 6e 28 ef 3b 84 2c 69 3d 1e 00 5f bd c6 d4 a3 3d
       0.0072985208 0.05692722 -0.05444347 0.07999568
000070 bb 1f 84 bd da 01 72 39 64 a6 7b 3d 29 c5 af bc
       -0.064513646 0.00023079608 0.06143798 -0.021456318
000080 2c 1a 08 bb 37 95 27 3c 8f 07 96 3c ff 63 2d 3b
       -0.0020767553 0.010228447 0.018314151 0.0026457307
000090 bc aa 8e 3d de f8 2b 3d c1 87 88 bc 48 85 f1 3d
       0.06966159 0.041985385 -0.016666295 0.117929995
0000a0 2c 05 90 bd dc 1a 38 3d d6 ae 01 bc f7 6f a2 bb
       -0.070322365 0.04494749 -0.007915219 -0.004957195
0000b0 eb 79 81 bb d0 e5 3a bd 64 ad bd ba e4 3b 6e 3d
       -0.0039513013 -0.045629323 -0.001447123 0.058162585
0000c0 ee fe 18 bd dd c9 b5 bd ce 72 75 3c d2 90 d5 bc
       -0.037352495 -0.08876393 0.014980985 -0.026070032
0000d0 66 a3 10 be d6 db c1 bc fe 3f ea 3b 83 9b 52 be
       -0.14124832 -0.023664396 0.0071487417 -0.20567136
0000e0 64 a8 42 bd c0 7c bc 3c 48 9e aa bc db 5c a8 bd
       -0.04752387 0.023008704 -0.020827428 -0.08220836
0000f0 7b 64 9a bd 14 c7 36 bd 1d ad 69 bd 14 3c 0c bc
       -0.075386964 -0.04462345 -0.05704986 -0.008559246

baseModel.5.running_mean f4 [64]
000000 59 36 fb 3b 8e 0a 30 be 43 c2 78 3e d4 be b6 bb
       0.007666391 -0.17191526 0.24292855 -0.0055769477
000010 c1 90 86 bd a0 6a 0d 3e 9c 16 bb bd 21 be 08 be
       -0.06570578 0.13810205 -0.09135172 -0.13353778
000020 69 a3 64 3e 4c 11 3c 3d ee 41 04 3e e3 42 7c bd
       0.22327961 0.045914933 0.12915775 -0.061587226
000030 e7 61 d5 bc a1 e7 40 3c 10 57 0a 3d 12 cb 58 bc
       -0.02604766 0.011773975 0.033774436 -0.0132320095
000040 41 9b 65 bd dc 21 b2 3e 25 5e c7 be c3 57 7c 3c
       -0.056056265 0.34791458 -0.38939014 0.015401783
000050 8f 16 db bd 99 a2 c5 3d 98 62 82 3e a4 84 47 3e
       -0.10697662 0.09650154 0.25465846 0.19484192
000060 51 9d 97 bc b7 bf 87 3c fa 84 82 bb 9d 77 08 be
       -0.018507631 0.016570909 -0.003983137 -0.13326879
000070 8b 4d ac 3c 31 6b 89 ba 12 9e 9b be 29 a4 34 3c
       0.02103307 -0.0010484216 -0.30394036 0.011025467
000080 b2 af e8 bd b7 e5 8d bd 25 f9 22 3e 37 7c 89 3d
       -0.11361636 -0.0692858 0.15915354 0.06713145
000090 a9 c9 3f be 34 af 64 bd 75 59 ec 3c 81 37 b6 be
       -0.18729271 -0.05583115 0.02885125 -0.3558922
0000a0 05 fd 0a bd a9 16 19 3d b8 3b ac 3c 1c 54 79 3d
       -0.033932704 0.037375126 0.02102457 0.06087123
0000b0 a9 dd 08 be 48 ca bb bc 36 22 84 bd 74 da 48 be
       -0.13365807 -0.022923604 -0.06451838 -0.19614583
0000c0 e4 d1 16 bd a2 71 e7 bd ec 6c d7 3b c5 d1 43 3d
       -0.03682126 -0.113009706 0.006574264 0.047807474
0000d0 41 c7 bc bd a4 95 91 3a 77 12 aa b9 1b 95 0e bd
       -0.09217692 0.0011107218 -0.00032438684 -0.034810167
0000e0 fc 0a b0 bc d7 9c 93 be b4 5c 0d 3e 9a ea 5e bc
       -0.021489613 -0.28830597 0.13804895 -0.013605738
0000f0 e2 12 96 bd b2 22 1f 3d d9 b0 24 bd 6d 5a 3d bd
       -0.0732782 0.038851447 -0.040207718 -0.046228815

baseModel.5.running_var f4 [64]
000000 54 83 54 3c 8c 8a b0 3c fc 21 fc 3c 5f 55 41 3d
       0.012970764 0.02155044 0.030777924 0.047200557
000010 3d 2d 15 3d ce 3c 25 3d 48 76 14 3d 39 4b 99 3d
       0.036420096 0.04034119 0.036245614 0.07485051
000020 ba 87 39 3d 46 5b 79 3c bc 8f 13 3d 29 f3 de 3d
       0.045295455 0.015219515 0.036025748 0.10886223
000030 76 50 ff 3c a1 e5 48 3d a2 bc 96 3d 4c e5 5a 3d
       0.031166296 0.049047116 0.073601976 0.05344133
000040 98 2d 7c 3d 82 e5 04 3d 02 97 cc 3c 5b 87 d0 3c
       0.06156692 0.03244544 0.02497435 0.025455168
000050 66 23 d6 3c b7 ce 70 3d 32 3d 07 3d 66 80 1f 3d
       0.026139926 0.05879089 0.033017345 0.03894081
000060 1c 10 e4 3c ea cc 1d 3d 84 63 1b 3d c4 8a 9f 3d
       0.027839713 0.0385255 0.037936702 0.07790139
000070 e1 75 e2 3c fb d4 cc 3d 9c 2b 47 3d 3e 8f 6b 3d
       0.0276441 0.1000156 0.048625574 0.057509653
000080 44 68 e1 3d 79 51 0e 3d 61 3c d4 3c ff 9b f4 3c
       0.11006215 0.034745667 0.025907697 0.029859541
000090 d9 59 43 3c c5 60 6b 3d e9 1d ae 3d f8 84 86 3d
       0.011923277 0.057465333 0.08501799 0.065683305
0000a0 3b db 70 3d 92 41 b1 3d 34 50 62 3d 1f a8 69 3d
       0.058802824 0.08655085 0.05525227 0.0570451
0000b0 b7 6f 21 3d f5 20 d3 3c 76 37 ff 3c 11 59 18 3d
       0.03941318 0.025772551 0.031154376 0.037194315
0000c0 a4 3d cf 3d c7 30 3d 3c bf 8d 47 3d 86 53 1a 3d
       0.10119179 0.011547274 0.048719164 0.03767731
0000d0 67 ba 65 3d 4d 4a 02 3d 95 3e b3 3d 78 72 ca 3c
       0.05608597 0.03180914 0.08752171 0.024712786
0000e0 7d ad 52 3d 4c 93 7c 3d 74 a6 13 3d 81 b5 e5 3c
       0.051434983 0.06166391 0.036047414 0.02804065
0000f0 04 18 d1 3d bd 2e c7 3c 82 6a 3c 3d 27 3c d6 3c
       0.10209659 0.024314279 0.04600001 0.02615173

baseModel.8.weight f4 [64, 64, 3]
000000 71 77 21 3d 22 2f 06 bd 01 65 7d bc 3a 19 33 bc
       0.03942055 -0.032759793 -0.015465976 -0.010931307
000010 34 7f 04 bd 14 be 18 39 ca 00 01 bd fb 8d 4f 3d
       -0.032347873 0.00014566659 -0.031494893 0.050672513
000020 c1 4c 3f bd e3 f2 39 bd 82 38 ae bc f9 ef ee 3c
       -0.046704058 -0.04539765 -0.02126718 0.029167162
000030 68 b3 7b 3c 7e b6 eb 3c 0e a4 a5 ba 4f 88 ce bc
       0.015362598 0.028773542 -0.0012637393 -0.025211481
000040 3a ae 89 bd 30 cc 59 bd e0 ac 21 bd 1a 1e ca 3c
       -0.06722684 -0.053173244 -0.039471507 0.024672557
000050 08 d3 92 bc 58 2a 2c 3d d1 bc 63 3c da 2a 17 3d
       -0.017922893 0.04203257 0.013899998 0.0369061
000060 8e ac 16 bd ec 86 aa 3c 52 ac 4f 3d 75 52 fc 3c
       -0.036785655 0.020816289 0.050701447 0.030801037
000070 61 58 90 3c 2d 4b 72 3d fd 5c 82 3d cc fc 6c 3c
       0.017620267 0.059153724 0.06365392 0.014464568
000080 7f f4 42 bd 40 88 52 bb fb 80 15 bc ee 72 e5 bb
       -0.04759645 -0.0032124668 -0.00912499 -0.007002226
000090 10 d0 57 3d 4c fa 17 3c f1 8f 22 bd 17 7f de ba
       0.05268866 0.009275984 -0.039688054 -0.0016975132
0000a0 b0 ea ad 3a 08 6e b8 3c fa c1 ec bb 1e aa 55 bd
       0.0013268795 0.022513404 -0.0072252722 -0.05216419
0000b0 35 33 2c bd a5 8b af bc eb f0 ad bd 21 6d db bd
       -0.042041022 -0.021428892 -0.08493217 -0.10714174
0000c0 4a a8 90 3c 5c 01 32 bd 34 03 c8 3c f5 b0 ba 3b
       0.017658371 -0.043458328 0.02441559 0.0056973645
0000d0 bd 4c 17 3d b0 7c f5 3c ed d7 85 3d 51 46 f8 3b
       0.036938418 0.029966682 0.06535325 0.0075767417
0000e0 89 df a8 bc fc 12 eb bc b9 ff 9f 3d 12 17 a1 3d
       -0.020614402 -0.028695576 0.07812447 0.078657284
0000f0 30 5d ce bc 6b 75 a1 3c d0 e7 04 3d 06 1e 8a bb
       -0.02519092 0.01970931 0.032447636 -0.004215005
000100 22 bf b4 3c d6 b1 15 bc 0f 15 84 bc 96 fb e0 3c
       0.022063795 -0.009136638 -0.016123323 0.027463716
000110 1c c1 b5 bc 16 9f f2 3c 13 7a c2 3c ac 86 8b 3c
       -0.022186808 0.029616874 0.02373985 0.01703199
000120 56 93 69 3d cd ab 75 bc 11 c8 9f bb dc f9 db bc
       0.057025276 -0.014994574 -0.0048761447 -0.02685254
000130 f5 25 41 3d 07 07 5b bc bc 50 f4 3c ac 33 3d 3d
       0.04715534 -0.013368375 0.029823653 0.046191856
000140 73 70 cc bc 6f f4 bd 3c fc 20 34 3c 01 9d 3f bd
       -0.024955964 0.023187844 0.010994192 -0.04678059
000150 84 a7 07 bd 45 bb e6 3b be f1 5f 3d c8 60 44 3d
       -0.03311874 0.0070413672 0.054673903 0.04794386
000160 c0 ed 1c bd 21 bc ba bc a4 e1 a2 3c e7 05 ac bc
       -0.038312674 -0.022794785 0.019882984 -0.020998908
000170 d2 98 8c 3c c1 40 8b 3d 9f 8d 03 3c 24 0c 1f 3d
       0.017162714 0.0679946 0.008029371 0.038829938
000180 92 06 50 3d a2 ee 81 3b 33 0f 43 3c b3 fc 68 3c
       0.050787516 0.003965215 0.011905479 0.014220404
000190 6e 50 52 bd 97 70 90 3d 35 3f 05 bd 0d c2 5d 3d
       -0.051346235 0.07052725 -0.032530982 0.05414014
0001a0 a3 a3 d4 bc 6a ff 90 bc 1f a2 2f bd 63 63 7d bd
       -0.025956934 -0.017699916 -0.04287922 -0.06186236
0001b0 4d ed 2c 3d 24 29 01 3d 0b 6a dc 3b f5 d3 d3 3b
       0.042218495 0.031533375 0.0067265085 0.006464476
0001c0 42 14 2b 3c c7 cf 8a 3c 1f e8 2a bd 35 70 73 bd
       0.010441842 0.01694478 -0.041725274 -0.05943318
0001d0 c0 1d 04 bd 61 40 04 3d de 44 da 3c a8 0d 67 bd
       -0.032254934 0.03228796 0.026644167 -0.056409508
0001e0 83 e8 2d 3d 35 8b b6 bc 00 00 1d 3c 52 cf a1 bc
       0.04245807 -0.022283176 0.0095825195 -0.019752178
0001f0 b5 68 93 3c e0 23 6c bd bd 3f 73 bd 95 67 c0 bd
       0.017994264 -0.0576514 -0.059386957 -0.09394757
000200 9c 01 cc bd 92 d3 14 3c 6c 08 3e 3d ba 70 1e 3c
       -0.099612445 0.009083645 0.04639475 0.009670431
000210 67 01 3c bd 19 2e b4 bc 4e 33 86 bd 29 61 c5 bb
       -0.045899775 -0.021994637 -0.06552754 -0.0060235453
000220 bf f4 0d bd f3 8e dd bd 81 eb 77 3d 0b 79 15 3d
       -0.034657236 -0.10818281 0.06052733 0.03649239
000230 20 47 e8 3b 64 26 8b bc 01 63 4f 3b 8c 8b 18 bc
       0.007088557 -0.01698608 0.0031644704 -0.009310614
000240 30 cf 61 bd aa 5f e1 bc 73 80 81 bd 0e f5 d4 3c
       -0.05512923 -0.027511436 -0.06323328 0.025995757
000250 00 bd 3e 3c 3b 0b 37 3d 01 b6 73 bc 01 6d ec 3c
       0.011641741 0.044688445 -0.014874936 0.02886057
000260 16 c5 14 3d 4d 96 b4 bd 2f d3 54 bd 68 f4 5f 3b
       0.03632077 -0.0881773 -0.051959213 0.0034172777
000270 20 e9 93 bc 23 20 9d bd 1b 72 c2 bc 9b e5 0f bd
       -0.018055499 -0.07672145 -0.02373605 -0.03513108
000280 d2 79 81 3b 0b 6a cb bc dc 1b c6 bc 0b 06 ab bc
       0.0039512897 -0.024830839 -0.024183206 -0.020876905
000290 ce 68 c0 bd 57 57 97 3b 2d ba 27 3d b5 4f 22 3d
       -0.0939499 0.004618566 0.040949035 0.039626796
0002a0 d8 d5 9f bc 82 d9 90 3d 99 3c 03 bd 16 ca 6b 3d
       -0.019511148 0.07072736 -0.032040212 0.05756577
0002b0 9e 53 ed 3c 05 98 96 3b e5 36 d1 3b 5d 26 eb bc
       0.028970536 0.004595759 0.0063847178 -0.028704816
0002c0 29 1f cd 3a 37 b7 3b 3d f6 42 8b bc e1 fe 0b 3d
       0.0015649545 0.045829024 -0.016999703 0.03417862
0002d0 c8 c7 31 3d 81 a6 6a bd 93 ed f6 bc fc 7e 14 3d
       0.043403417 -0.057287697 -0.030142581 0.036253914
0002e0 12 24 0b 3d c0 c0 a7 3d ad c7 b9 ba a6 4f f9 ba
       0.033969946 0.08191061 -0.0014173888 -0.001902093
0002f0 7b 34 68 3a c4 cb f3 3c 18 e1 95 3c f4 37 0f 3d
       0.0008857918 0.029760249 0.01829581 0.03496547
000300 db ec 39 bd a3 a9 4e bd 7c ca a3 bd 3f 0d 16 3d
       -0.0453919 -0.050454747 -0.07997605 0.036633726
000310 71 89 ac 3c 99 b2 8e bc 3c ac 27 3d 5e e8 09 3d
       0.02106163 -0.017419146 0.04093574 0.03366887
000320 e6 96 43 3c 22 34 c1 3c e2 4b 26 3d 62 2c 44 3d
       0.011937832 0.02358443 0.04059971 0.04789389
000330 23 b3 3d bd a0 b6 17 3d 1c 29 ae 3b 35 c5 68 bd
       -0.046313416 0.0370394 0.005314959 -0.056828696
000340 50 7d d1 3c a7 a2 47 bd b7 8e 94 3b 24 f3 bd bb
       0.025572449 -0.0487391 0.0045336145 -0.005796807
000350 60 7a 07 3d e8 b3 1c 3d 98 ce 7f 3c 7d 20 94 3d
       0.03307569 0.03825751 0.015613221 0.07232759
000360 3c 3c 98 bc 57 70 fd bb 79 d3 1a bc 41 34 2f 3d
       -0.01858341 -0.007734339 -0.009449833 0.042774443
000370 e0 19 1f 3d 94 60 21 bd fd 96 94 3c f0 26 3b bc
       0.038843036 -0.039398745 0.018138403 -0.011422858
000380 fa 08 4e 3b 6c 14 72 3c 6f d1 11 bc b0 6c d1 bd
       0.0031438456 0.014775377 -0.0089000305 -0.102258086
000390 51 22 bd 3c 46 04 53 3c 83 82 98 bd 60 a5 8d bc
       0.023087652 0.012879437 -0.07446768 -0.017290771
0003a0 80 63 69 3d b9 11 d8 3a 46 83 a1 bb 2f a0 be bc
       0.056979656 0.0016484774 -0.004928979 -0.02326974
0003b0 2c c0 4e 3d 0e 92 f8 bc 78 0b ae bc 00 cf 9a 3c
       0.050476238 -0.030343082 -0.021245703 0.018897533
0003c0 82 e2 93 bd c1 5c 55 bd a2 01 85 3d 00 d0 1f bd
       -0.07220937 -0.05209041 0.06494452 -0.039016724
0003d0 21 bd 96 ba b1 d3 7a bd 32 cc 65 3d 8b 4a 6d bc
       -0.0011500457 -0.06123704 0.05610294 -0.014483104
0003e0 b2 72 8c 3c 98 02 3f 3c 6e dc 5a 3d 44 d2 44 bc
       0.017144535 0.011658333 0.053432874 -0.012013022
0003f0 6f 1e d3 bc 23 45 95 3c 3a e3 10 3c 2e ce 17 bd
       -0.025771348 0.018221444 0.0088432375 -0.037061863

baseModel.8.bias f4 [64]
000000 1e e0 a4 36 c4 a1 54 35 d9 8f 5f 36 6f 2c 9f b7
       4.9136715e-06 7.9211554e-07 3.331332e-06 -1.8974968e-05
000010 49 11 48 37 6e 08 54 b7 99 2f 65 37 72 49 0c 38
       1.19249535e-05 -1.2638147e-05 1.3660546e-05 3.3447002e-05
000020 8c 35 a7 35 24 64 02 37 41 94 43 b7 02 3b 28 37
       1.2458054e-06 7.77192e-06 -1.1657424e-05 1.0027319e-05
000030 dd 87 b1 36 15 73 2b b7 eb 8c 56 37 02 ef dd 37
       5.2908276e-06 -1.0219189e-05 1.2788204e-05 2.645655e-05
000040 20 1b d3 36 ac 97 52 36 a5 e8 9f 37 5c d7 04 b7
       6.291448e-06 3.1380723e-06 1.906261e-05 -7.917955e-06
000050 fb 59 ab 37 b6 c9 9f b6 09 26 ac b7 af 91 a4 37
       2.0426689e-05 -4.7620515e-06 -2.052171e-05 1.9618163e-05
000060 dc 67 93 36 22 61 e6 b7 9c 56 9c 36 35 03 18 37
       4.393032e-06 -2.7463368e-05 4.659245e-06 9.060653e-06
000070 34 b3 11 b6 5c 21 37 b7 eb 49 7f 37 04 77 49 37
       -2.1710994e-06 -1.0915417e-05 1.5216395e-05 1.2008244e-05
000080 dd 64 67 37 a3 9b 02 37 e1 96 81 35 03 f4 20 37
       1.3792157e-05 7.784841e-06 9.65516e-07 9.593557e-06
000090 fc 52 1f 37 af 0b 12 37 59 2b 32 37 e7 48 bb b6
       9.49646e-06 8.704998e-06 1.0619719e-05 -5.5815212e-06
0000a0 13 2d 3f 37 9a 9d 8b b7 10 9b c9 b7 20 30 bc 37
       1.1394982e-05 -1.664348e-05 -2.4033274e-05 2.2433756e-05
0000b0 94 f7 c8 37 bf dd d4 b6 7a ae 19 b7 09 36 16 37
       2.3957145e-05 -6.343907e-06 -9.160134e-06 8.953278e-06
0000c0 a1 04 ee 35 d6 d2 4c b7 e5 1a cb 35 00 61 f5 b6
       1.7733729e-06 -1.2208437e-05 1.5132506e-06 -7.3128613e-06
0000d0 a6 ce 16 b8 72 13 f9 36 7b 6c b7 b7 db ad 79 b6
       -3.5955243e-05 7.423042e-06 -2.1865815e-05 -3.7205089e-06
0000e0 a3 cb 8c 36 32 7c 54 37 c7 36 a1 b7 3d 9d 7a 37
       4.1960316e-06 1.2665101e-05 -1.9218203e-05 1.4937771e-05
0000f0 e2 71 d4 37 2e 67 23 b6 60 04 c3 b7 4d db 4e b6
       2.53254e-05 -2.4348951e-06 -2.3247849e-05 -3.0824042e-06

baseModel.9.weight f4 [64]
000000 86 5c 55 3f 6a 62 46 3f 4c 43 1e 3f 14 6e 41 3f
       0.83344305 0.7749392 0.61821437 0.7555859
000010 32 62 32 3f 6b 43 39 3f eb d1 5b 3f 66 5d 58 3f
       0.69681084 0.72368497 0.85867184 0.84517515
000020 d2 8d 34 3f b8 85 62 3f a6 b1 39 3f b6 62 33 3f
       0.705289 0.8848529 0.72536695 0.70072496
000030 c1 fb 31 3f 17 95 2e 3f 3b 34 48 3f 50 5d 26 3f
       0.6952477 0.68196243 0.782047 0.64986134
000040 fd 5f 44 3f 66 69 3c 3f 61 a0 29 3f 37 46 32 3f
       0.76708966 0.73598325 0.66260344 0.6963839
000050 be 38 3a 3f 26 4d 4c 3f 6c d9 3f 3f bc ea 40 3f
       0.7274283 0.7980522 0.74941134 0.75358176
000060 13 a4 3a 3f db e1 4e 3f d3 10 2c 3f 62 d1 3c 3f
       0.7290661 0.8081338 0.6721317 0.7375699
000070 ec de 2f 3f c5 04 2c 3f b1 c1 34 3f 2f 33 40 3f
       0.68699527 0.6719478 0.7060805 0.750781
000080 ca 09 2d 3f 0f 15 40 3f 91 c5 46 3f a7 78 54 3f
       0.6759306 0.7503213 0.7764521 0.829966
000090 cb 46 3e 3f 3e 81 3d 3f 57 48 43 3f 63 2f 48 3f
       0.7432677 0.7402533 0.76282257 0.78197306
0000a0 57 6f 2b 3f b7 64 49 3f 06 4e 40 3f 62 b3 46 3f
       0.66966766 0.78669304 0.75119054 0.77617466
0000b0 57 88 28 3f 2f e8 3e 3f e5 55 45 3f fc 0d 4b 3f
       0.6583304 0.74573034 0.7708419 0.79318213
0000c0 68 2e 3e 3f 2a 92 44 3f 45 7c 2f 3f 6a 29 4a 3f
       0.7428956 0.7678553 0.68548995 0.7896944
0000d0 5a 8f 50 3f 2c ef 4c 3f d0 ea 2d 3f 9e 34 34 3f
       0.8146874 0.8005245 0.6793642 0.7039279
0000e0 d3 61 37 3f eb c7 3d 3f 0a a5 34 3f 86 38 4a 3f
       0.7163364 0.74133176 0.7056433 0.789925
0000f0 71 a8 52 3f 62 10 28 3f 78 09 44 3f bd 0d 42 3f
       0.8228827 0.6565 0.7657695 0.7580221

baseModel.9.bias f4 [64]
000000 86 16 16 bc 6a d7 c9 bc 79 6f 5f 3c 42 29 0d 3d
       -0.009160643 -0.02463885 0.013637417 0.034463175
000010 76 03 fb 3c 79 5b 83 3c 9d c4 23 bc 91 f0 a4 bb
       0.030641299 0.016034828 -0.009995607 -0.0050335606
000020 c8 f6 66 bb 7b ff 34 bd 2c d1 81 bc 0d 9f 15 3a
       -0.0035242308 -0.044188958 -0.015846811 0.00057075993
000030 e8 e8 fc ba 8b b6 97 bd 35 5d 0b bd 51 05 eb bb
       -0.0019295486 -0.07407864 -0.034024436 -0.0071722646
000040 d7 16 56 3c e8 27 e2 bb 7c 60 23 3d 42 a4 86 bc
       0.013066969 -0.00690173 0.039886937 -0.016435746
000050 49 c8 bb 3a c8 46 da bc ca f5 19 3c 37 90 eb bc
       0.0014326657 -0.02664508 0.00939698 -0.02875529
000060 9f e4 a9 3b 48 bb f4 bc 8b b7 99 3c 75 24 99 bd
       0.0051847245 -0.029874459 0.018764278 -0.07477657
000070 39 d9 02 bd d3 67 f3 bc 8d a8 97 3b 64 d9 9e 3b
       -0.03194544 -0.029712593 0.004628247 0.0048476923
000080 6a a9 6a bc 01 73 e9 3c 0f 34 7e bd a2 52 31 bd
       -0.014322618 0.028497221 -0.062061366 -0.043291695
000090 e5 4e 28 3c f3 98 7a 3c e0 f1 11 bc 39 d6 88 3a
       0.010272716 0.015295255 -0.008907765 0.001043982
0000a0 37 74 62 bc 0f d3 aa bc 5e a2 ce bc ad 95 25 3a
       -0.013821653 -0.020852594 -0.025223907 0.0006316554
0000b0 c5 af 13 bd f5 5f 1c bc fc 2c d4 3b e2 f5 f7 bb
       -0.0360563 -0.009544362 0.006475089 -0.0075671533
0000c0 cb 8b 7a 3c 94 01 e0 3c e5 2c 01 3c cf 2f a8 bc
       0.015292118 0.027344503 0.007884239 -0.02053061
0000d0 8d 73 37 bc b3 65 23 bd 02 44 1d bd 12 10 9e bc
       -0.011196983 -0.03989191 -0.038394935 -0.019294772
0000e0 23 5c c8 bc c6 9e f8 3c 4e f2 ab bc ef 4b 93 3d
       -0.024457997 0.030349147 -0.020989563 0.071922176
0000f0 ab a2 c4 3c 62 ee 1b 3c bf ff 93 bb a7 7e d9 3c
       0.024003347 0.009517284 -0.0045165713 0.02654965

baseModel.9.running_mean f4 [64]
000000 5d 53 26 be 9a 79 0e bf 84 ea 0e 3e 19 46 42 be
       -0.16242738 -0.556543 0.13956648 -0.18972053
000010 b5 00 c9 3d 51 a6 24 be 49 a8 90 bc c6 3d dc be
       0.09814588 -0.1607907 -0.01765837 -0.4301588
000020 bc 23 0e bf 9a e2 b1 be a1 80 07 bd aa 38 21 3f
       -0.55523276 -0.34743196 -0.033081654 0.6297709
000030 fb 6f a8 be 7e f4 02 bc 7d 10 3c be 64 38 db be
       -0.32897934 -0.007992862 -0.18365665 -0.4281646
000040 c0 a3 71 3e bc 71 bb 3d 60 a6 f7 be ae 29 65 3e
       0.23597622 0.091525525 -0.48369122 0.22379181
000050 ac 91 81 be 01 4e 41 3e af 2d 97 bd 3c 8d b4 3d
       -0.2530645 0.18877412 -0.0738176 0.08816001
000060 e2 c9 d1 3d 00 60 b9 3d 1b 24 f3 3e 52 ec 1d 3e
       0.10243584 0.09051514 0.47488484 0.1542218
000070 61 3d b5 be d0 3e 40 3e 71 a8 0a 3f a0 0e 9f bd
       -0.3539839 0.18773961 0.5416327 -0.07766461
000080 30 09 03 3f 42 32 b1 bd ed e5 65 bf 5a a3 7c bd
       0.51185894 -0.08652164 -0.89803964 -0.06167922
000090 d4 c7 f3 3e fe 85 95 bd ea 4a 4d 3e 5e 6e ba be
       0.47613394 -0.073009476 0.20048109 -0.36412328
0000a0 a6 4b 8b 3c b5 bd 0e 3c 08 dc 53 3e d1 ec a2 be
       0.017003845 0.008712222 0.20689404 -0.31821302
0000b0 3e b2 25 be d1 d9 eb be 09 1a c4 bd b1 fd 86 bd
       -0.16181275 -0.46064618 -0.09575278 -0.065913565
0000c0 a6 ca 2f 3f e6 41 a4 bd fc 10 57 3f bb 65 8b 3e
       0.6866859 -0.08020382 0.8401029 0.27226052
0000d0 1c 32 73 bd c4 18 c4 be e6 f2 4e 3e 18 f6 d2 3d
       -0.05937396 -0.38300145 0.20209846 0.10300845
0000e0 5c 2a 93 be 46 f1 c6 3e aa 76 50 3e e8 dc 56 3f
       -0.28743255 0.38855952 0.20357767 0.83930826
0000f0 c1 69 28 3f 92 b0 84 3d ad 60 87 be 5f 62 4d be
       0.6578637 0.064789906 -0.26440945 -0.20057057

baseModel.9.running_var f4 [64]
000000 16 a4 f2 3d f3 b9 61 3e 6e 98 7b 3d a9 72 cf 3d
       0.11847703 0.2204359 0.061424665 0.101292916
000010 e7 e8 81 3d 33 5b 0c 3e dd 8e b9 3d 1d e7 dd 3d
       0.06343251 0.13706665 0.09060452 0.10835097
000020 9b 2c 76 3d 5c 91 52 3e a4 ff 93 3d c8 c6 8d 3d
       0.060101133 0.20563263 0.07226494 0.0692268
000030 84 f1 8e 3d f2 56 a8 3d bb 37 4f 3e 00 27 af 3d
       0.06979659 0.082197085 0.20236103 0.085523605
000040 65 4a b0 3d 8f cc b3 3d b0 5d 70 3d 9e f5 9e 3d
       0.0860794 0.08779251 0.058683097 0.077616915
000050 13 28 61 3d 17 bf 15 3e 0f 7f 95 3d 46 85 ae 3d
       0.05496986 0.14623676 0.07299625 0.08521514
000060 fd c7 c7 3d d9 20 22 3e 2d 04 89 3d 7b ce b4 3d
       0.097549416 0.15832843 0.066902496 0.088284455
000070 5a 9c c1 3d ac 40 9b 3d a8 a5 ce 3d d7 25 b1 3d
       0.0945365 0.075806946 0.1009019 0.086497955
000080 2e aa b2 3d 10 62 a2 3d c2 6f a1 3d a1 04 39 3e
       0.087238654 0.0792886 0.07882644 0.18068172
000090 e3 72 a0 3d ac fb 92 3d 37 3c f8 3d 6e 47 f9 3d
       0.07834413 0.07176909 0.1212086 0.12171827
0000a0 c4 8d db 3d de 2c d5 3d d7 1b a4 3d 4f c7 9e 3d
       0.10720399 0.10408948 0.080131225 0.07752859
0000b0 bb 51 48 3d c1 4f c2 3d 31 2d cd 3d 32 cc eb 3d
       0.04890607 0.09487868 0.10018385 0.115135565
0000c0 4a a9 06 3e df 3e de 3d bb 37 88 3d 0d 08 af 3d
       0.13150516 0.108518355 0.06651255 0.085464574
0000d0 18 c4 0f 3e 9f 98 0a 3e e3 5a 4f 3d 84 55 8d 3d
       0.14039648 0.13534783 0.050623786 0.069010764
0000e0 1c 6e ad 3d eb 81 ce 3d 95 6a 66 3d 74 c7 be 3d
       0.08468267 0.10083374 0.05625399 0.093153864
0000f0 92 91 4d 3d 1d 39 97 3d 33 0a d9 3d cb 5d 1f 3e
       0.050187655 0.0738394 0.105976485 0.15563123
