Models/best_eeV1_0501.pth (torch, 769867 bytes, 48 tensors)

baseModel.0.weight f4 [64, 2, 3]
0	0xbe715167	-0.23566209
1	0xbe228f85	-0.15875061
2	0x3b54e355	0.0032484133
3	0x3e9597c7	0.2921736
4	0x3d209b0e	0.03921037
5	0x3dd4b807	0.10386663
6	0x3eccae05	0.39976516
7	0x3e104153	0.14087419
8	0x3dea938c	0.114539236
9	0xbe94b847	-0.29046842
10	0x3d1a762e	0.03771036
11	0xbd62e5e3	-0.05539502
12	0x3dad0017	0.08447283
13	0xbe810aed	-0.25203648
14	0xbe9d4227	-0.30714533
15	0xbdbc8e93	-0.092068814
16	0x3e270a16	0.16312441
17	0x3ddb29cf	0.10701334
18	0x3e8da6c5	0.27666298
19	0x3d6cd784	0.05782272
20	0xbe51ccdc	-0.20488304
21	0xbe91bf5a	-0.28466302
22	0xbebc29fd	-0.36750785
23	0xbe9fca48	-0.31209016
24	0x3e50b25d	0.2038054
25	0xbec50612	-0.38481194
26	0x3dc23c78	0.0948419
27	0xbe8f83b6	-0.28030175
28	0xbe31282c	-0.1730048
29	0x3dc34a41	0.09535647
30	0xbe78f7ae	-0.24313232
31	0x3e856a31	0.2605758
32	0xbe490402	-0.19630435
33	0x3e33837d	0.17530628
34	0xbe52ffde	-0.20605418
35	0x3e0baf82	0.1364117
36	0x3dc21ac1	0.09477759
37	0xbe85868e	-0.2607922
38	0xbe4da4b2	-0.20082358
39	0xbd826b07	-0.0636807
40	0xbe8c54ae	-0.27408355
41	0x3e6862b7	0.22693907
42	0x3d15ce6b	0.03657381
43	0xbdd3a5d0	-0.103343606
44	0xbc29c161	-0.0103610465
45	0x3c8c4a0e	0.017125156
46	0xbe9ac94e	-0.30231708
47	0xbe636225	-0.22205408
48	0x3e2bc52b	0.16774432
49	0xbe143783	-0.14474301
50	0xbec7dc39	-0.39035204
51	0x3d0e2e43	0.034712087
52	0x3d01dbe7	0.031703856
53	0xbe4e42ce	-0.20142671
54	0x3dc02994	0.093829304
55	0x3e859302	0.2608872
56	0x3e3977df	0.18112133
57	0xbe13516e	-0.14386532
58	0xbed5e7f5	-0.41778532
59	0xbd9d5992	-0.076831
60	0x3d9196be	0.0710883
61	0xbcf52c58	-0.029928371
62	0x3cde6822	0.027149264
63	0x3ea91951	0.33027127
64	0xbe5b2c60	-0.21403646
65	0x3e0e84c3	0.13917832
66	0xbea9670b	-0.33086428
67	0x3e2ae671	0.16689469
68	0x3e1ff47f	0.15620612
69	0x3d9a75a1	0.07541967
70	0xbdf71095	-0.1206371
71	0x3d9c0c25	0.07619504
72	0x3dcbed10	0.099573255
73	0x3e8fa51e	0.28055662
74	0x3cfa9ec4	0.030593283
75	0xbda5ff5b	-0.08105346
76	0xbdd0db60	-0.101980925
77	0x3ea8bf52	0.32958466
78	0x3e884d20	0.26621342
79	0x3ebbc2be	0.36672014
80	0xbcf96516	-0.03044371
81	0x3dbc7476	0.09201901
82	0xbe0e7377	-0.13911234
83	0xbea51645	-0.32243553
84	0x3e4a9635	0.19783862
85	0x3e7db07e	0.24774358
86	0x3e4bfecf	0.1992142
87	0x3e723916	0.23654589
88	0x3e8e0681	0.27739337
89	0x3e7deb52	0.24796799
90	0xbe120ddf	-0.14263104
91	0x3dbc3172	0.091891184
92	0x3e7c7ad2	0.24656227
93	0xbe853f55	-0.2602488
94	0xbdadc7d6	-0.08485381
95	0xbd12aedd	-0.035811294
96	0xbd89bdca	-0.067256525
97	0xbea6d36d	-0.3258318
98	0xbe0709d4	-0.13187343
99	0x3e92c4e0	0.2866583
100	0x3ea36c58	0.31918597
101	0xbe5d29db	-0.21597998
102	0x3ddc483f	0.10755967
103	0x3d69dffb	0.05709837
104	0xbe9230fd	-0.28553
105	0xbe65d47d	-0.22444339
106	0xbd13a581	-0.03604651
107	0xbe1c956a	-0.15291372
108	0x3eabf6bf	0.3358669
109	0x3d13ed90	0.03611523
110	0xbe175338	-0.14777839
111	0x3e032dd6	0.12810454
112	0x3ec8259c	0.39091194
113	0x3d811085	0.06301979
114	0xbdb3f6f8	-0.0878734
115	0x3eafde20	0.34349155
116	0xbe6bc57f	-0.23024558
117	0x3e128046	0.14306745
118	0xbe98f991	-0.29877904
119	0xbe91c5db	-0.28471264
120	0x3e78af65	0.24285658
121	0x3eb3ad70	0.3509326
122	0xbe87e456	-0.26541394
123	0xbea084e3	-0.31351385
124	0x3ceff5a8	0.029291943
125	0x3ce14cf0	0.027502507
126	0xbcdbd3a7	-0.026834322
127	0x3e46eaa9	0.19425453
128	0xbe78b986	-0.24289522
129	0x3ed5f3aa	0.41787463
130	0xbdc1d366	-0.09464149
131	0xbeac7774	-0.33684886
132	0xbeb234c0	-0.3480587
133	0xbeab5f77	-0.3347127
134	0x3e388b08	0.18021786
135	0xbe1e3597	-0.1545013
136	0x3e0acadd	0.13553949
137	0xbd99118a	-0.074740484
138	0xbe78be13	-0.24291258
139	0xbd66d185	-0.056352157
140	0xbe9ad39a	-0.30239564
141	0xbe94ad25	-0.2903835
142	0xbd9e9825	-0.07743863
143	0x3eae8b3f	0.3409061
144	0x3e90e57a	0.28300077
145	0xbe8567b4	-0.26055682
146	0xbd5744bd	-0.05255579
147	0xbdf8bb52	-0.121451035
148	0xbe590677	-0.21193872
149	0x3e13c116	0.14429125
150	0xbeb8d990	-0.36103487
151	0xbe113814	-0.14181548
152	0xbec94dc4	-0.39317143
153	0xbe8ad904	-0.27118695
154	0x3bafcf62	0.005365298
155	0xbe6ff094	-0.23431617
156	0xbd8ba006	-0.068176314
157	0xbe38a8b4	-0.18033105
158	0x3d8ddede	0.06927274
159	0x3e3dbcd6	0.18529066
160	0x3ed5109b	0.4161423
161	0x3e95a667	0.29228517
162	0xbbc0f795	-0.005888889
163	0xbe8de4ed	-0.2771372
164	0x3ea38699	0.31938627
165	0x3d083924	0.03325762
166	0x3e5389a8	0.2065798
167	0xbe7424ca	-0.23842159
168	0x3e938bfc	0.28817737
169	0x3ecdc977	0.40192768
170	0x3e82c068	0.2553742
171	0x3d6ff43c	0.05858253
172	0x3ce2a817	0.027668042
173	0x3e24c89b	0.1609215
174	0xbdc9ef6f	-0.098601215
175	0xbe5102df	-0.20411251
176	0xbdd915a2	-0.10599829
177	0xbe05b2fe	-0.13056561
178	0xbe8310ba	-0.255987
179	0xbdae5832	-0.08512916
180	0xbd1e4516	-0.038640104
181	0x3dac78b1	0.084214576
182	0x3ea4bcc2	0.3217526
183	0xbde20464	-0.11035994
184	0xbe969231	-0.2940841
185	0x3e81a174	0.2531849
186	0xbe8da8b4	-0.27667773
187	0xbe92fb5c	-0.28707397
188	0x3df4ca59	0.11952657
189	0x3e2d393c	0.16916364
190	0xbeb410fc	-0.35169208
191	0xbe310ec0	-0.17290783
192	0xbe8c238c	-0.2737087
193	0xbdd4e958	-0.10396069
194	0xbdb50fc0	-0.08840895
195	0xbe936adb	-0.28792462
196	0x3e5031b8	0.20331466
197	0x3e2d4e86	0.16924486
198	0x3e146263	0.14490657
199	0x3e9d4b6a	0.307216
200	0x3cef96c2	0.029246692
201	0xbe8aac14	-0.2708441
202	0x3e8974b2	0.26846844
203	0x3e50c7dd	0.20388742
204	0x3e59d047	0.21270858
205	0xbcc0538a	-0.023477335
206	0xbdfb74a0	-0.12278104
207	0x3e7d6775	0.24746497
208	0xbb8a4f1b	-0.004220856
209	0xbe1967b8	-0.14980972
210	0xbe1d58cf	-0.15365909
211	0x3e50ec2b	0.20402591
212	0xbd309834	-0.043113902
213	0x3ec90a3d	0.39265624
214	0x3e5848ba	0.21121493
215	0x3db184fc	0.08667943
216	0x3ddbd7d1	0.10734523
217	0xbe8217b1	-0.254087
218	0xbe9ba859	-0.30401877
219	0x3ebbe3b7	0.3669717
220	0x3df2092c	0.11818156
221	0xbdefa2ce	-0.117009744
222	0x3d755f0c	0.059905097
223	0xbe50e502	-0.2039986
224	0x3db2f73e	0.08738564
225	0xbece1f5e	-0.40258306
226	0xbde79622	-0.113079324
227	0xbdde787b	-0.108628236
228	0xbe80832f	-0.25100085
229	0x3d3eb795	0.046561796
230	0xbea2b088	-0.31775308
231	0xbea6bc6a	-0.32565624
232	0xbebf67d6	-0.37383908
233	0x3e47b7e3	0.19503741
234	0x3dbab87d	0.091172196
235	0xbd64cabf	-0.055857416
236	0x3dbb4758	0.09144467
237	0xbea809a0	-0.32819843
238	0x3d94ab3d	0.072592236
239	0xbeb10f4c	-0.34581983
240	0x3e82582c	0.25457895
241	0xbe08ea61	-0.13370658
242	0x3d8344bb	0.06409594
243	0xbb89e82f	-0.0042085866
244	0x3d18ae4f	0.03727561
245	0x3e3370cd	0.17523499
246	0xbe4fe579	-0.2030238
247	0x3e30cf7a	0.17266646
248	0xbd3145c4	-0.043279424
249	0xbeadc340	-0.33938026
250	0xbb9effa5	-0.0048522525
251	0x3e9e55f2	0.30924946
252	0x3e9cf49b	0.3065537
253	0xbe9f323d	-0.31093016
254	0xbe6918ee	-0.22763416
255	0x3d120f37	0.03565904

baseModel.0.bias f4 [64]
0	0x394a7ef5	0.00019311516
1	0xb9462458	-0.0001889629
2	0xb9b9176e	-0.00035303406
3	0xb89cb52c	-7.4724056e-05
4	0x391b4fdc	0.00014811702
5	0xb9157f4b	-0.00014257168
6	0x399f4c62	0.00030383753
7	0xba7053a2	-0.00091677357
8	0x39407c2f	0.00018356809
9	0xb9a16dd3	-0.00030790138
10	0xb986dd3c	-0.00025723304
11	0xb99d8cba	-0.00030050223
12	0x39f06dea	0.0004585826
13	0x3974dbc9	0.0002335153
14	0x39bb731f	0.0003575319
15	0x39319db0	0.00016938779
16	0xba3ddb0d	-0.0007242419
17	0xb8ebec85	-0.000112497284
18	0xba676695	-0.00088272366
19	0xb885521a	-6.357227e-05
20	0x3a5185df	0.00079926656
21	0x391d97d9	0.00015029254
22	0x3a545ffb	0.00081014604
23	0x3964ef72	0.00021832975
24	0xb9828786	-0.00024896505
25	0x36f91e8a	7.4243335e-06
26	0x39b1f5cd	0.00033943207
27	0x3a19105e	0.0005838926
28	0xb9a6f53f	-0.0003184471
29	0x39208df1	0.00015311666
30	0x39a46877	0.0003135835
31	0x3942b644	0.00018569181
32	0x3999d73d	0.000293428
33	0xb9cf9de2	-0.0003959975
34	0xba682e43	-0.0008856991
35	0xb89a9efa	-7.372904e-05
36	0xba2d1e33	-0.00066039263
37	0x39e2efb6	0.00043284678
38	0xba189b8f	-0.000582152
39	0xb9a9a2f4	-0.000323556
40	0x3a51d816	0.00080049166
41	0x3819263a	3.6513644e-05
42	0xb9be07f5	-0.00036245552
43	0x3a35ee78	0.00069401367
44	0x38733471	5.7984555e-05
45	0xb978d9bc	-0.00023732235
46	0xb81bd0de	-3.7149402e-05
47	0x3a0679a5	0.0005129821
48	0xb7fbbbd1	-3.000899e-05
49	0xb9c2910a	-0.00037110626
50	0xb9d4e338	-0.00040605082
51	0xb8ed27e4	-0.00011308471
52	0xb845dcef	-4.717422e-05
53	0xba1bdd3d	-0.0005945748
54	0x39907768	0.00027554785
55	0xb9949dc7	-0.00028346313
56	0xba267049	-0.0006349129
57	0x39995e03	0.00029252478
58	0x38f94f3b	0.00011888003
59	0xb7e89ef5	-2.7730575e-05
60	0xb8d26808	-0.00010032958
61	0x3a0a4443	0.0005274454
62	0xb9e693db	-0.0004397918
63	0xb99f0295	-0.00030328767

baseModel.1.weight f4 [64]
0	0x3f5dadd9	0.86593395
1	0x3f57aa45	0.84244186
2	0x3f614a11	0.8800364
3	0x3f604897	0.87610763
4	0x3f345e82	0.7045671
5	0x3f6b0ada	0.91813433
6	0x3f599f93	0.85009116
7	0x3f5c7d6b	0.8612887
8	0x3f50428f	0.8135156
9	0x3f78fb6f	0.9725866
10	0x3f5ed404	0.8704226
11	0x3f55fa74	0.83585286
12	0x3f577e34	0.84176946
13	0x3f519f62	0.81883824
14	0x3f664774	0.8995278
15	0x3f575ce9	0.84126145
16	0x3f453e78	0.77048445
17	0x3f5eeb1d	0.87077504
18	0x3f58c3a4	0.84673524
19	0x3f5167a6	0.8179878
20	0x3f5b5fd0	0.85693073
21	0x3f5adf58	0.85497046
22	0x3f5367bb	0.82580155
23	0x3f52acc5	0.82294875
24	0x3f4ba97e	0.795555
25	0x3f5b766e	0.85727584
26	0x3f72646f	0.946845
27	0x3f58e67f	0.8472671
28	0x3f6193ab	0.8811595
29	0x3f7c26e3	0.98496836
30	0x3f465c60	0.77484703
31	0x3f562cf3	0.8366234
32	0x3f449a9d	0.7679842
33	0x3f4c1142	0.79713833
34	0x3f6a02f8	0.9141078
35	0x3f544418	0.829164
36	0x3f5fad92	0.8737422
37	0x3f40d864	0.75330186
38	0x3f481652	0.7815906
39	0x3f55b760	0.83482933
40	0x3f553c26	0.83294904
41	0x3f5c1c5b	0.85980767
42	0x3f41f0e5	0.757582
43	0x3f541498	0.82843924
44	0x3f5541de	0.8330363
45	0x3f53e29c	0.82767653
46	0x3f5f45bb	0.87215775
47	0x3f587fb1	0.8456984
48	0x3f56c606	0.8389591
49	0x3f600aa8	0.8751626
50	0x3f4be7ce	0.7965058
51	0x3f57946c	0.8421085
52	0x3f4b5337	0.7942385
53	0x3f6553cd	0.89580995
54	0x3f60e48c	0.87848735
55	0x3f4ccfa9	0.80004364
56	0x3f43f3b3	0.7654373
57	0x3f562569	0.83650833
58	0x3f5e6723	0.86876124
59	0x3f4a3e9a	0.7900177
60	0x3f5b1dbc	0.85592246
61	0x3f49effb	0.78881806
62	0x3f4f6c42	0.81024563
63	0x3f44afa8	0.7683053

baseModel.1.bias f4 [64]
0	0xbcb89ca5	-0.022535631
1	0xbbb82dc1	-0.0056206887
2	0xbce1efd4	-0.02758018
3	0x3c86d39f	0.01645833
4	0xbce44eb2	-0.027869556
5	0x3e16e4d0	0.14735723
6	0xbd78ce38	-0.06074354
7	0x3cfe2f70	0.03102848
8	0xbd476762	-0.048682578
9	0xbd27663f	-0.040868994
10	0x3dedb344	0.11606458
11	0xbd34e75d	-0.044165958
12	0xbd72f680	-0.059317112
13	0xbd4fc7bf	-0.050727602
14	0xbdd3eec3	-0.103482746
15	0xbe0a9e35	-0.13536914
16	0xbcc1e56c	-0.023668967
17	0xbdc87deb	-0.09789642
18	0xbd44fe55	-0.048094112
19	0xbd883830	-0.06651342
20	0xbde55b8c	-0.11199102
21	0xbd8742ca	-0.06604536
22	0xbe1e4e0d	-0.15459462
23	0xbe099aac	-0.13437909
24	0xbcb2d0aa	-0.021828014
25	0xbe50ec56	-0.20402655
26	0xbd217cf0	-0.03942579
27	0xbccec254	-0.025239147
28	0xbdfb6f6c	-0.122771114
29	0xbd61b391	-0.05510289
30	0xbe0bedd2	-0.1366494
31	0xbd97ab92	-0.07405771
32	0xbde3c723	-0.11121967
33	0xbdc0b4a1	-0.09409452
34	0xbd467080	-0.048447132
35	0x3da52578	0.08063787
36	0xbde9b3ff	-0.11411285
37	0xbb64864a	-0.0034870082
38	0x3d099fae	0.033599548
39	0xbe14241c	-0.144669
40	0xbd5ede18	-0.054411024
41	0xbd1cfe34	-0.038328364
42	0xbd9e49f3	-0.077289484
43	0xbd001e0d	-0.03127866
44	0xbe28519a	-0.16437379
45	0xbdd90dbd	-0.105983235
46	0xbe0a90d5	-0.13531812
47	0x3daf1784	0.08549407
48	0x3ca9fd82	0.020750765
49	0xbdf17fd7	-0.11791962
50	0xbdee3be8	-0.1163252
51	0xbd8d2264	-0.06891325
52	0xbd686d59	-0.056744907
53	0x3c88ac9e	0.016683873
54	0xbd6fe289	-0.05856565
55	0xbda69fef	-0.08135974
56	0xbe51de9f	-0.2049508
57	0xbc450d0e	-0.012027038
58	0xbd28aba5	-0.041179318
59	0xbd5048e9	-0.050850783
60	0xbd78d3dc	-0.06074892
61	0xbdaae2fd	-0.08344076
62	0x3c8ae3e8	0.016954377
63	0xbd8f1c9b	-0.06987878

baseModel.1.running_mean f4 [64]
0	0x3916f225	0.0001439532
1	0xb968c264	-0.0002219766
2	0xb9e6200a	-0.0004389289
3	0x36dd031d	6.5866757e-06
4	0x382394a3	3.9000657e-05
5	0xb76173f2	-1.3438041e-05
6	0x392d6a89	0.00016538253
7	0xba4baa86	-0.00077692454
8	0x39a5a872	0.00031596754
9	0xb9b574af	-0.00034609946
10	0xb97b6ada	-0.0002397703
11	0xb8a4d2a2	-7.859363e-05
12	0x39dabdbd	0.00041721566
13	0x3952683b	0.0002006599
14	0x3a387b62	0.00070374284
15	0x39ac1d97	0.00032828443
16	0xba5144ef	-0.0007982989
17	0xb86f7fe0	-5.7101133e-05
18	0xba264623	-0.00063428486
19	0xb7c6cb13	-2.3698003e-05
20	0x3a253042	0.00063014415
21	0x38e47288	0.0001089322
22	0x3a53a55e	0.0008073653
23	0x38dce3b2	0.00010532829
24	0xb9514abc	-0.00019959634
25	0xb9309b51	-0.00016842528
26	0x398660e5	0.00025630664
27	0x3a4f08bc	0.0007897725
28	0xb9ab237f	-0.00032642108
29	0x37be3081	2.2672351e-05
30	0x39817725	0.00024693567
31	0x38d2b8fd	0.00010048037
32	0x382df241	4.147203e-05
33	0xb9971b51	-0.00028821317
34	0xba3632d0	-0.00069503207
35	0xb87dd50f	-6.0518327e-05
36	0xba211224	-0.0006144366
37	0x39a68f45	0.0003176873
38	0xba04c870	-0.0005065268
39	0xb9e372c8	-0.00043382333
40	0x3a13c884	0.0005637484
41	0x394d8cbd	0.00019602753
42	0xb9e64f4b	-0.00043928096
43	0x3a708a3b	0.00091758714
44	0x39528a6a	0.00020078724
45	0xb872dc8b	-5.7902693e-05
46	0xb85bb163	-5.2378873e-05
47	0x39f9a674	0.00047616998
48	0xb98672e9	-0.00025644086
49	0xb9b33005	-0.00034177318
50	0xba08218e	-0.00051929883
51	0xb8b0f747	-8.438393e-05
52	0x3680d445	3.8394087e-06
53	0xb9ef1f4c	-0.0004560895
54	0x39808329	0.00024511784
55	0xb906a5ec	-0.00012841047
56	0xb9e23fd8	-0.00043153646
57	0x392cf3da	0.0001649404
58	0x38da77b2	0.00010417345
59	0xb98209fb	-0.00024802968
60	0x39337fb9	0.0001711835
61	0x3a0072ba	0.0004899908
62	0xba187c41	-0.0005816855
63	0xb9a5c48a	-0.00031617685

baseModel.1.running_var f4 [64]
0	0x370d7bf2	8.433113e-06
1	0x375584d1	1.2726713e-05
2	0x371f0529	9.47834e-06
3	0x37c27e78	2.3185494e-05
4	0x371cd041	9.3468125e-06
5	0x369f2862	4.7432704e-06
6	0x37101b31	8.5894e-06
7	0x36fbea32	7.507647e-06
8	0x371f86b7	9.508504e-06
9	0x378d05b6	1.681117e-05
10	0x3685d146	3.9880715e-06
11	0x36b27230	5.3181066e-06
12	0x370b16ce	8.290355e-06
13	0x3785fc7c	1.5972408e-05
14	0x37a9d1ce	2.0244068e-05
15	0x36ee6fea	7.1059812e-06
16	0x37849317	1.580412e-05
17	0x36db314c	6.5324475e-06
18	0x37683341	1.3840211e-05
19	0x3744de8b	1.1734325e-05
20	0x374e0fde	1.2282251e-05
21	0x374b175b	1.2105181e-05
22	0x374ce648	1.2212964e-05
23	0x376c26ef	1.4075761e-05
24	0x36db0d22	6.5282375e-06
25	0x37ae2b68	2.0762629e-05
26	0x379e30cc	1.885779e-05
27	0x36dbabf4	6.5467266e-06
28	0x37a8d171	2.012469e-05
29	0x3713d094	8.810446e-06
30	0x371fe76e	9.531022e-06
31	0x3771fa6b	1.4423024e-05
32	0x371e9b2d	9.453664e-06
33	0x374c485e	1.2176197e-05
34	0x36a5578a	4.927574e-06
35	0x374f18d8	1.2343946e-05
36	0x3770b21a	1.4346582e-05
37	0x3729cf06	1.0121386e-05
38	0x3793f176	1.7636205e-05
39	0x370d8212	8.434539e-06
40	0x36699fd2	3.4812733e-06
41	0x37123c3b	8.716302e-06
42	0x373d6486	1.1288683e-05
43	0x370988a5	8.197651e-06
44	0x372d2cd0	1.0322037e-05
45	0x376f09ff	1.42478375e-05
46	0x36a00154	4.768526e-06
47	0x361bed42	2.3234902e-06
48	0x368a5eca	4.1237554e-06
49	0x378b9255	1.6638232e-05
50	0x372bed1c	1.0247601e-05
51	0x37a89253	2.0095298e-05
52	0x37211c46	9.602931e-06
53	0x36629bbb	3.3767271e-06
54	0x3727b4e0	9.996089e-06
55	0x36f36190	7.253322e-06
56	0x3792ac77	1.7484866e-05
57	0x36bf837f	5.7075517e-06
58	0x375c61c7	1.3135787e-05
59	0x374682c5	1.1832167e-05
60	0x36f75f4b	7.372267e-06
61	0x3785c7b9	1.5947839e-05
62	0x378d4600	1.6841106e-05
63	0x36eb4fab	7.0128203e-06

baseModel.4.weight f4 [64, 64, 3]
0	0xbd42a354	-0.047519043
1	0x3d83e526	0.06440191
2	0x3cc87ff7	0.02447508
3	0x3c24c1cf	0.010055973
4	0xbd8b05de	-0.067882285
5	0xbd2ae8c0	-0.041725874
6	0x3db177f9	0.08665461
7	0x3d071720	0.032981038
8	0x3b01c30d	0.0019800097
9	0x3ced4161	0.02896184
10	0x3b401220	0.0029307678
11	0xbc89c75f	-0.0168187
12	0xbc8b0492	-0.016969953
13	0xbd1d4d6d	-0.038403917
14	0xbca3704d	-0.01995101
15	0xbc2b92d7	-0.010472021
16	0xbd4e7490	-0.05040413
17	0xbcae7e81	-0.021300556
18	0x3d527c46	0.051388048
19	0xbc9b7773	-0.018977856
20	0xbc58ff36	-0.013244441
21	0x3c7c66be	0.015405355
22	0x3c95da9a	0.018292714
23	0x3d091484	0.03346683
24	0x3c8f4dfa	0.017493237
25	0x3c8b85b7	0.017031534
26	0xbd676742	-0.05649496
27	0xbd183a5f	-0.037165042
28	0x3d0a7919	0.033806894
29	0x3d5dbb23	0.054133546
30	0x3d4d4b0e	0.050120406
31	0xbd8ccff5	-0.06875602
32	0xbc901ab7	-0.017590864
33	0x3b986759	0.004650992
34	0xbd8065bd	-0.06269405
35	0xbd969dbc	-0.07354304
36	0xbbecfebe	-0.007232516
37	0x3ce50293	0.027955329
38	0x3cfbb911	0.030727895
39	0xbc378c4b	-0.011202882
40	0x3d421368	0.04738179
41	0x3d451d82	0.048123844
42	0xbd2177ce	-0.039420895
43	0x3c60f2f4	0.0137298
44	0xbcfd838c	-0.030946516
45	0xbcbaf8cc	-0.022823714
46	0x3d6182f2	0.05505652
47	0x3cec50fe	0.028847214
48	0xbc9066f0	-0.01762721
49	0x3bd4adf6	0.0064904643
50	0x3d8b8060	0.06811595
51	0xb90d9e2e	-0.00013505734
52	0x3d047d91	0.032346312
53	0xbbd2a3aa	-0.0064282017
54	0x3c68b64e	0.014203621
55	0xbc4d0393	-0.012513059
56	0x3d238e0b	0.039930385
57	0xbd2b39c0	-0.04180312
58	0x3c9155e8	0.017741159
59	0xbcc2585a	-0.02372377
60	0x3cd808a9	0.026371317
61	0xbd1abe60	-0.037779212
62	0x3d4755f4	0.048665956
63	0x3d22638f	0.039645728
64	0xbbe4aaa5	-0.00697835
65	0xbd0412d8	-0.032244533
66	0x3d20aa20	0.039224744
67	0x3d8b880e	0.0681306
68	0xbd042d7b	-0.032269936
69	0x3d2463c4	0.040134206
70	0x3c8f3e30	0.017485708
71	0x3d0a8395	0.033816893
72	0xbcb54e7c	-0.02213215
73	0x3c109d81	0.008826614
74	0xbb625f74	-0.0034541758
75	0xbe1dccdb	-0.15410177
76	0xbd89b8b1	-0.0672468
77	0x3d3cdb00	0.046107292
78	0xbd3e0d14	-0.04639919
79	0x3b2932b5	0.0025817577
80	0x3cf1a974	0.029499747
81	0x3c81fdd6	0.015868109
82	0x3b2eb4e0	0.0026658103
83	0xbdbcf676	-0.09226696
84	0xbd41e474	-0.04733701
85	0x3d52a119	0.051423166
86	0xbbe19803	-0.0068845763
87	0xbd8ad516	-0.06778924
88	0x3c31b8a9	0.010847249
89	0x3d847079	0.06466765
90	0x3cbc8a3c	0.023015134
91	0x3ca82607	0.020525945
92	0xbc4fac2b	-0.012675325
93	0x3c29a05f	0.010353177
94	0x3c4c78e3	0.0124799935
95	0x3c184f18	0.009296201
96	0xbadf5ea1	-0.0017041751
97	0x3c18a6ed	0.009317142
98	0x3c531823	0.012884173
99	0x3cfaa7df	0.030597625
100	0x3d0b65f8	0.03403279
101	0x3c05a05a	0.008155907
102	0x3be5d16d	0.007013491
103	0x3c8a80bb	0.016907087
104	0xbda95533	-0.082682036
105	0xbce1b6f3	-0.027553057
106	0x3d3d0bc6	0.046153806
107	0x3d0231d4	0.0317858
108	0x3ca556f9	0.020183073
109	0x3c4e322d	0.012585205
110	0x3d0cc661	0.034368876
111	0x3c1c8eda	0.009555543
112	0xbcca7939	-0.024716007
113	0xbcc33796	-0.023830216
114	0x3d500d76	0.050794087
115	0x3d202bdd	0.03910433
116	0x3ccedf8c	0.02525308
117	0xbdf80ede	-0.12112211
118	0xbd94cecb	-0.07266005
119	0xbc8fd026	-0.017555308
120	0xbd14da35	-0.03634091
121	0xbcc11007	-0.023567213
122	0x3c80c93e	0.01572096
123	0xbd1ccaf5	-0.038279492
124	0xbd5defaa	-0.05418364
125	0xbd9373fa	-0.07199855
126	0xbb557461	-0.0032570588
127	0x3cb77721	0.022395672
128	0x3cc74bc4	0.02432812
129	0x3b7aac89	0.0038249812
130	0xba8a31d1	-0.0010543411
131	0x3bc7a244	0.0060923416
132	0x3d89085a	0.06691046
133	0x3c366db2	0.011134552
134	0xbc62386c	-0.013807397
135	0x3b22b992	0.0024829847
136	0x3cc6f76d	0.024287904
137	0x3d61201d	0.054962266
138	0xbe152c2e	-0.14567634
139	0xbd2bee1c	-0.041975126
140	0xbc9182e6	-0.017762613
141	0x3bcca92e	0.0062457537
142	0xbdc64b01	-0.096822746
143	0xbd33d2e2	-0.043902285
144	0x3b813cc1	0.00394401
145	0xbc027b7e	-0.007964013
146	0xbd393728	-0.045218617
147	0xbd2c54cd	-0.04207306
148	0x3c8d865c	0.017275982
149	0x3d6d8dbd	0.0579965
150	0x3c1091a2	0.008823784
151	0xbda02e36	-0.07821314
152	0x3ca7043e	0.020387765
153	0x3b96da36	0.0046036495
154	0x3da5364a	0.080669954
155	0x3d15b8f1	0.036553327
156	0x3ccdd4a9	0.025125818
157	0xbd48e9d1	-0.04905111
158	0xbc92e8a4	-0.017933197
159	0x3bc89477	0.006121214
160	0x3ce61e73	0.028090691
161	0xbd48e665	-0.049047846
162	0xbd33bc59	-0.043880794
163	0xbc61cab7	-0.013781241
164	0xbd87d7d0	-0.0663296
165	0xbdbf6fa9	-0.09347469
166	0xbd2d2e68	-0.042280585
167	0x3ce0a63a	0.027423013
168	0xbe0e837f	-0.1391735
169	0xbd53017d	-0.05151509
170	0xbca1192d	-0.019665325
171	0x3b28d365	0.0025760767
172	0xbd14dfe6	-0.03634634
173	0xbd6ad45f	-0.05733144
174	0x3c95d9df	0.018292366
175	0xbd0dc53c	-0.034611925
176	0x3d8b6895	0.06807057
177	0x3d32c37c	0.04364346
178	0xbb13cad0	-0.0022551306
179	0x3be0ef28	0.006864447
180	0x3b15c982	0.0022855704
181	0xbd304169	-0.04303113
182	0xbdb30817	-0.087417774
183	0x3d2afeb7	0.04174682
184	0x3c8a819c	0.016907506
185	0x3c7340e4	0.014847014
186	0xbc0c3b30	-0.008559033
187	0xbc53549b	-0.0128985895
188	0x3c5c264e	0.013436867
189	0xbd4bb302	-0.049731262
190	0xbcfbc3d8	-0.030733034
191	0x3ce5c15d	0.028046304
192	0x3c05c489	0.008164533
193	0xbc5a2356	-0.013314089
194	0x3cb41746	0.021983754
195	0xbcea3142	-0.028587941
196	0x3c9ad5dc	0.018900804
197	0xbc2d142a	-0.0105638895
198	0x39d24d03	0.000401117
199	0x3d66e358	0.056369156
200	0x3c5520ae	0.01300828
201	0xbd8e012f	-0.069338195
202	0xbdd38d8a	-0.10329731
203	0xbd1ca0cc	-0.038239285
204	0x3d5c6e04	0.053815857
205	0xbdbfc369	-0.093634434
206	0x3b0a7539	0.0021127
207	0xbd5a8122	-0.053345807
208	0x3b745f6f	0.0037288328
209	0xbd40b645	-0.047048826
210	0xbd159fde	-0.036529414
211	0x3b8eb1f2	0.004354709
212	0x3bc0f0ff	0.005888104
213	0x3c004d29	0.007830896
214	0x3ba8e79c	0.005154563
215	0xbb7b1825	-0.0038313952
216	0xbcb409ad	-0.02197727
217	0x3d3f84db	0.04675756
218	0xbd31718f	-0.04332119
219	0x3d4b02e2	0.049563296
220	0x3cef2ad9	0.029195236
221	0x3d9282f7	0.07153886
222	0xbd105a14	-0.035242155
223	0xbc3ba8da	-0.011453832
224	0xbd541038	-0.05177328
225	0x3d4235ef	0.047414716
226	0xbcbd73bc	-0.023126476
227	0x3d0b796a	0.034051336
228	0x3b1abdd1	0.0023611675
229	0xbd0791bc	-0.033097968
230	0x3d36cd4a	0.044629373
231	0xbdd95cb9	-0.106133886
232	0xbd7dfb68	-0.062007338
233	0xbb12b3af	-0.0022384932
234	0xbca14942	-0.019688252
235	0xbce603af	-0.028077928
236	0x3dc099ed	0.09404359
237	0x3d3bdaae	0.045862846
238	0xbcb767b0	-0.02238831
239	0xbd15daca	-0.036585607
240	0x3a3e2cd9	0.00072546076
241	0xbd902904	-0.07039073
242	0x3d01774c	0.03160791
243	0x3da05c8a	0.078301504
244	0xbd2f47be	-0.042793028
245	0x3d70188e	0.058617167
246	0xbd6a2039	-0.057159636
247	0x3d19bd18	0.03753385
248	0x3d4d77ba	0.05016301
249	0xbd3c90da	-0.04603658
250	0xbd0dc5cc	-0.034612462
251	0xbb01bd93	-0.0019796833
252	0x3d165666	0.03670349
253	0xbc6d6e09	-0.014491566
254	0xbd284f60	-0.041091323
255	0x3bf91013	0.007600793

baseModel.4.bias f4 [64]
0	0x37aa4eab	2.0302212e-05
1	0xb839c1b0	-4.4287823e-05
2	0x37f4222f	2.9102985e-05
3	0x37a699ba	1.9860327e-05
4	0xb8779df6	-5.90365e-05
5	0x38d2a728	0.000100447156
6	0x365b6e56	3.2697767e-06
7	0xb732c259	-1.0654877e-05
8	0x3634c2e6	2.6935536e-06
9	0x37e2d98e	2.7042606e-05
10	0x38836be9	6.2666666e-05
11	0xb7c3c638	-2.3338114e-05
12	0xb7a6426c	-1.9819672e-05
13	0x36aa34e7	5.0725534e-06
14	0x3690cdfb	4.3155137e-06
15	0x37d788bb	2.5693667e-05
16	0x386df27f	5.6731045e-05
17	0xb800097d	-3.0526415e-05
18	0x38bc0a19	8.9664194e-05
19	0x3805e137	3.191942e-05
20	0xb86d6752	-5.6601428e-05
21	0x3815f3ba	3.5751356e-05
22	0x37365b48	1.0869298e-05
23	0xb6f9944e	-7.438043e-06
24	0x383b46d4	4.4650238e-05
25	0xb8171d88	-3.602871e-05
26	0x37f01c55	2.8623423e-05
27	0xb8b4c849	-8.620375e-05
28	0xb4b5752a	-3.3799125e-07
29	0x37f7051a	2.944707e-05
30	0xb804c644	-3.16559e-05
31	0xb649b548	-3.0056854e-06
32	0xb7d3b02f	-2.5235202e-05
33	0x3800e6d2	3.0732546e-05
34	0x38a3a5ac	7.8033045e-05
35	0x37f18986	2.8793478e-05
36	0x37da7f2f	2.604685e-05
37	0x3818287e	3.6277335e-05
38	0x373c49f5	1.1222893e-05
39	0xb7d9f4df	-2.5982443e-05
40	0xb77e1a4c	-1.51457025e-05
41	0x384262af	4.634511e-05
42	0x37a419a0	1.9562256e-05
43	0xb7a2042f	-1.9313853e-05
44	0x385f8485	5.329076e-05
45	0xb7a97de4	-2.0204992e-05
46	0x37b274a9	2.1273578e-05
47	0x388a0236	6.5807646e-05
48	0x378e98a3	1.6998796e-05
49	0x381985d6	3.6602687e-05
50	0x383bfca6	4.481957e-05
51	0xb776019e	-1.4663119e-05
52	0xb63b1325	-2.7876315e-06
53	0xb749343b	-1.1992694e-05
54	0xb7b116bc	-2.111063e-05
55	0xb7fb4f19	-2.9958364e-05
56	0x37ef9b2d	2.856328e-05
57	0xb7ed3545	-2.8277407e-05
58	0xb69443f7	-4.418656e-06
59	0xb72b5657	-1.0212497e-05
60	0x37e7ada5	2.7618205e-05
61	0x3793f586	1.7638096e-05
62	0x37fe29fe	3.0298714e-05
63	0x374a7482	1.2067265e-05

baseModel.5.weight f4 [64]
0	0x3f7f6cf0	0.997756
1	0x3f60f12b	0.87867993
2	0x3f6dcc1f	0.9288959
3	0x3f61e853	0.88245124
4	0x3f61e6bb	0.8824269
5	0x3f761784	0.9612963
6	0x3f698f2c	0.9123409
7	0x3f6f4ec5	0.9347957
8	0x3f5ad181	0.8547593
9	0x3f6283a6	0.8848213
10	0x3f6ecf86	0.93285406
11	0x3f7032b3	0.9382736
12	0x3f6c38b8	0.92274046
13	0x3f7391bc	0.9514425
14	0x3f7cf567	0.98811954
15	0x3f72e609	0.94882256
16	0x3f6718ef	0.9027242
17	0x3f839523	1.0279888
18	0x3f60d69e	0.8782748
19	0x3f6edfbd	0.9331015
20	0x3f719cf8	0.9438014
21	0x3f7dfd3d	0.99214536
22	0x3f64ae9b	0.89328927
23	0x3f5c5c6a	0.8607851
24	0x3f85a221	1.0440103
25	0x3f664a38	0.89957
26	0x3f703e06	0.9384464
27	0x3f7cfed5	0.9882634
28	0x3f6c15a0	0.922205
29	0x3f67ef49	0.90599495
30	0x3f712688	0.9419942
31	0x3f71ef7c	0.9450605
32	0x3f73c270	0.95218563
33	0x3f815b72	1.0106032
34	0x3f7a4579	0.97762257
35	0x3f75b77f	0.9598312
36	0x3f664cf8	0.89961195
37	0x3f683750	0.907094
38	0x3f693bd2	0.91106904
39	0x3f71f90a	0.9452063
40	0x3f739e2e	0.9516324
41	0x3f7f31b2	0.99685204
42	0x3f6ef7a8	0.93346643
43	0x3f5e9bf6	0.8695673
44	0x3f70e36d	0.94097024
45	0x3f697f40	0.91209793
46	0x3f62bd3e	0.8857001
47	0x3f6a6a72	0.9156867
48	0x3f64c81f	0.8936786
49	0x3f6ec7ee	0.9327382
50	0x3f736294	0.95072293
51	0x3f7e6b9d	0.99382955
52	0x3f68edfe	0.9098815
53	0x3f6dfd36	0.92964494
54	0x3f5953cf	0.84893507
55	0x3f6e5dae	0.93111694
56	0x3f6689c8	0.9005399
57	0x3f713073	0.9421455
58	0x3f672197	0.9028563
59	0x3f70a560	0.9400234
60	0x3f5ec911	0.87025553
61	0x3f5d060b	0.86337346
62	0x3f5a89dd	0.8536661
63	0x3f6891ac	0.9084728

baseModel.5.bias f4 [64]
0	0xbded5fe3	-0.115905546
1	0xbc87ce07	-0.016577734
2	0xbdc21d7f	-0.09478282
3	0xbdac5311	-0.08414281
4	0xbddcab6b	-0.10774883
5	0xbe569527	-0.20955335
6	0xbd0b5d4b	-0.034024518
7	0xbd9622e4	-0.073308736
8	0xbd9fcc37	-0.07802623
9	0xbd068822	-0.03284467
10	0xbd9c5a19	-0.07634372
11	0xbd94e05e	-0.07269357
12	0xbda35f49	-0.079771586
13	0xbd33f1d4	-0.043931797
14	0xbe8314a6	-0.2560169
15	0xbd28bc9e	-0.041195504
16	0xbd76ce9d	-0.060255636
17	0xbe1d3fdf	-0.15356396
18	0xbd0be05f	-0.034149524
19	0xbe0d97af	-0.13827394
20	0xbd8fda18	-0.0702402
21	0xbdd57934	-0.10423508
22	0xbc645554	-0.013936359
23	0xbdb6b0ac	-0.08920416
24	0xbeebf81e	-0.46087736
25	0xbd8773b1	-0.06613863
26	0xbd3362db	-0.043795448
27	0xbe3b6a2f	-0.18302225
28	0xbd28f253	-0.041246723
29	0xbdcc24cd	-0.09967957
30	0xbd4eff71	-0.050536577
31	0xbd0e41f7	-0.034730878
32	0xbe19d0c0	-0.15021038
33	0xbe6b54f4	-0.22981626
34	0xbcf30a52	-0.029668007
35	0xbddc009e	-0.10742305
36	0xbd8daba4	-0.069175035
37	0xbdb068e1	-0.08613754
38	0xbd990df7	-0.07473367
39	0xbd7b36bd	-0.0613315
40	0xbdb6a890	-0.089188695
41	0xbca6a45e	-0.020342048
42	0xbb0d2061	-0.0021534192
43	0xbda0c636	-0.07850306
44	0xbdcde279	-0.10052962
45	0x3cd99754	0.026561417
46	0xbdb6925d	-0.08914635
47	0xbc919136	-0.017769437
48	0x3c4ff941	0.012693704
49	0xbe2ec278	-0.17066371
50	0xbea2b05d	-0.3177518
51	0xbe60487a	-0.21902648
52	0x39fe5b84	0.0004851484
53	0xbdaf06e1	-0.08546234
54	0x3c82f6f8	0.015986905
55	0xbd655f6d	-0.05599921
56	0xbcc35a30	-0.023846716
57	0xbd9c3970	-0.07628143
58	0xbd118421	-0.0355264
59	0xbde0cb8f	-0.10976326
60	0xbd683daf	-0.05669945
61	0x3c6cb0f1	0.014446483
62	0x3d01a294	0.031649187
63	0xbd8941e9	-0.067020245

baseModel.5.running_mean f4 [64]
0	0xbe3de48d	-0.18544216
1	0xbedd68aa	-0.43243915
2	0xbe1bfa7d	-0.15232272
3	0xbe71b203	-0.23603062
4	0x3f316073	0.69287795
5	0xbe7b940d	-0.24568196
6	0x3d2079a9	0.039178524
7	0xbd05fcae	-0.032711677
8	0xbdf6d9ba	-0.12053247
9	0xbda5ef11	-0.08102239
10	0xbe3247f5	-0.17410262
11	0xbd6d9b7f	-0.05800962
12	0xbe68020d	-0.22657032
13	0xbe02475d	-0.12722535
14	0xbdd86bca	-0.10567434
15	0xbe9a7429	-0.30166748
16	0xbd972abd	-0.073811986
17	0xbe6671bb	-0.22504322
18	0xbe0543f6	-0.13014206
19	0xbd8ec1a6	-0.06970529
20	0xbe44fe67	-0.19237672
21	0xbe42da47	-0.19028579
22	0xbe06bfd1	-0.1315911
23	0xbddc86ed	-0.107679226
24	0xbe837fe4	-0.2568351
25	0xbd8bc197	-0.06824034
26	0xbeb1d388	-0.34731698
27	0xbdd5d4d3	-0.104409836
28	0xbdc1edfd	-0.09469221
29	0xbdd1f4fc	-0.10251805
30	0xbde797e1	-0.113082655
31	0xbe63ff32	-0.22265318
32	0xbd208dc4	-0.0391977
33	0xbeee7477	-0.4657323
34	0xbe707be5	-0.23484762
35	0xbd99e424	-0.075142175
36	0xbdfcfedd	-0.12353299
37	0xbe5dd831	-0.21664502
38	0xbe51ad79	-0.20476331
39	0xbdc682d9	-0.09692926
40	0xbcf37ceb	-0.029722651
41	0x3c802d9e	0.015646752
42	0xbe27192d	-0.16318198
43	0xbe658e24	-0.22417504
44	0xbe2e50a5	-0.17022951
45	0xbd3e7edf	-0.046507712
46	0xbe63992f	-0.22226404
47	0xbd01dc42	-0.031704195
48	0xbe779f29	-0.24181809
49	0xbece0203	-0.4023591
50	0xbdcbd3dd	-0.09952519
51	0x3eca277e	0.39483255
52	0xbed8d0d6	-0.4234683
53	0xbcb7ccdb	-0.02243655
54	0x3c67abdb	0.014140095
55	0xbdbe4318	-0.09290141
56	0xbdf5266e	-0.119702205
57	0xbe1d5a6b	-0.15366523
58	0xbe1d3ace	-0.15354463
59	0xbe5710d0	-0.21002507
60	0xba796609	-0.00095138006
61	0xbf3d394f	-0.7391557
62	0xbebb326e	-0.36561912
63	0xbd2a8f90	-0.041640818

baseModel.5.running_var f4 [64]
0	0x3d0e1c66	0.03469505
1	0x3d33a006	0.043853782
2	0x3d09d241	0.03364778
3	0x3d259d03	0.04043294
4	0x3d9026ea	0.07038672
5	0x3d146dce	0.03623753
6	0x3d71870a	0.058966674
7	0x3d2bd41d	0.041950334
8	0x3d51a859	0.05118594
9	0x3d35a5c3	0.044347536
10	0x3d5db9a1	0.054132108
11	0x3dafb2b1	0.085790046
12	0x3d606dbc	0.05479215
13	0x3cf8a3d1	0.030351551
14	0x3d2bf2b8	0.04197952
15	0x3d5b0e49	0.05348042
16	0x3cb53944	0.022122033
17	0x3d3aad99	0.045575712
18	0x3d1600af	0.036621746
19	0x3c9443df	0.01809877
20	0x3d6ae65a	0.057348587
21	0x3cfc7a7d	0.030820126
22	0x3cd93eac	0.026519142
23	0x3d63b000	0.05558777
24	0x3d6cc2bf	0.05780291
25	0x3d74a3e2	0.059726603
26	0x3d616034	0.055023387
27	0x3cef67b4	0.029224254
28	0x3cfed430	0.031107038
29	0x3d790439	0.060795043
30	0x3cf68162	0.030090991
31	0x3d0363a3	0.032077443
32	0x3d4065af	0.046971973
33	0x3d5922a5	0.053011555
34	0x3cb1ad84	0.021689184
35	0x3d2170e6	0.03941431
36	0x3d1311c6	0.035905622
37	0x3d66fe9e	0.056395166
38	0x3ce63e20	0.028105795
39	0x3d4cc17f	0.04998922
40	0x3df0a2a8	0.11749774
41	0x3d577032	0.052597232
42	0x3d2af4e6	0.04173746
43	0x3d2ecbfe	0.04267501
44	0x3d066dee	0.03281968
45	0x3d08a87d	0.033363808
46	0x3d37d03e	0.04487633
47	0x3d023a05	0.031793613
48	0x3d4e8c14	0.050426558
49	0x3d1bf71c	0.03807746
50	0x3d32a687	0.043615844
51	0x3db120e9	0.08648855
52	0x3d6796b4	0.056540206
53	0x3dc68e33	0.09695091
54	0x3cbf48ad	0.023350084
55	0x3de5a53a	0.11213155
56	0x3d3b06ae	0.045660667
57	0x3ddd9737	0.108198576
58	0x3d878350	0.06616843
59	0x3d29da4b	0.041467946
60	0x3d3afa40	0.045648813
61	0x3d4d5228	0.05012718
62	0x3d0e0797	0.034675207
63	0x3d811122	0.06302096

shortBranch.2.weight f4 [64, 1024]
0	0x3aefa83b	0.001828439
1	0xbc02b93d	-0.007978735
2	0x3b111be7	0.0022141875
3	0xba46d1fc	-0.00075843907
4	0xbb72f6ad	-0.00370733
5	0x3b7bf8bb	0.0038447815
6	0xbbe405b6	-0.0069586886
7	0x3c4a425e	0.012344925
8	0xbb0e4bce	-0.0021712664
9	0x3ba114e9	0.0049158228
10	0x3b9ef8a4	0.0048514176
11	0x3bd8336d	0.0065979273
12	0x3994f9df	0.00028414928
13	0xbc4d7082	-0.012539031
14	0xbb986020	-0.004650131
15	0xbb79e687	-0.003813179
16	0xbb7a6e2f	-0.0038212647
17	0xbca70459	-0.020387815
18	0xbc7afe01	-0.015319348
19	0xbc15012e	-0.00909452
20	0xbcad87bf	-0.021182893
21	0xbc86d082	-0.016456846
22	0xba28a396	-0.00064330676
23	0x38c24d15	9.2649985e-05
24	0xb927b4af	-0.00015993671
25	0xbcc213b9	-0.023691045
26	0xbc1cf340	-0.00957948
27	0xbc3ab38e	-0.011395348
28	0x3bd4da5f	0.0064957584
29	0xbc800233	-0.015626049
30	0xbc4aff6f	-0.012390002
31	0xbbde7ca2	-0.0067897597
32	0xbc7e57a5	-0.015523826
33	0xbc86239d	-0.016374404
34	0xbc5a276d	-0.013315064
35	0xbbe9a9e1	-0.007130847
36	0xbc0f5815	-0.008749028
37	0xbc5259ae	-0.012838764
38	0xbcdf6aff	-0.0272727
39	0xbc896b62	-0.016774837
40	0xbc6c817f	-0.014435171
41	0x3ae32f49	0.0017332818
42	0xbc3d9279	-0.011570566
43	0x3ac3b98f	0.001493262
44	0xbc838c7e	-0.016058203
45	0x3ab6f687	0.0013958969
46	0xbcdd9b25	-0.027051518
47	0xbc46fc5e	-0.01214513
48	0x3c23b50d	0.009991896
49	0x3cc51e96	0.024062436
50	0x3c3066ce	0.010766698
51	0x3cafa9fd	0.021443361
52	0xbb89174c	-0.0041836854
53	0x3c8f506d	0.017494405
54	0x3cceb711	0.025233777
55	0x3ba16c34	0.004926229
56	0x3be6330c	0.007025128
57	0x3c50f0d7	0.012752733
58	0x3cce9eec	0.025222264
59	0x393befec	0.00017923088
60	0x3bf8b7e2	0.00759028
61	0x3cec591d	0.028851086
62	0x3cb0f9cb	0.021603486
63	0x3c3cf9ce	0.011534167
64	0xbafe9905	-0.0019424265
65	0xbc9e403d	-0.01931774
66	0xbc45e3f9	-0.012078279
67	0xbbf934d2	-0.0076051736
68	0xb92de92f	-0.00016585433
69	0x3b918bc0	0.0044417083
70	0x389a816d	7.3674e-05
71	0x3b018ff9	0.0019769652
72	0xbb280757	-0.002563914
73	0xbb88e13c	-0.0041772407
74	0x3c33c31f	0.010971813
75	0xbc05079a	-0.008119488
76	0x3acc2024	0.0015573543
77	0x3b5e0520	0.0033877566
78	0x3bd17b3a	0.0063928636
79	0xbcc3aba3	-0.023885554
80	0x3d188860	0.037239432
81	0x3d232d49	0.03983811
82	0x3d241d7a	0.040067174
83	0x3ca377c8	0.019954577
84	0x3d0d851e	0.03455078
85	0x3c7d4580	0.015458465
86	0x3c0da2ee	0.0086448025
87	0x3cd23d27	0.025663925
88	0x3c527ab8	0.012846641
89	0x3c5178e4	0.01278517
90	0x3ccbd3ec	0.024881326
91	0x3ceca8f1	0.028889151
92	0x3cb2d3e6	0.021829557
93	0x3c41306b	0.011791329
94	0x3d167bb3	0.036739063
95	0xbc119fda	-0.008888209
96	0x3d44b385	0.048022766
97	0x3d36a5a5	0.044591565
98	0x3d1277d0	0.035758793
99	0x3ccc4db8	0.024939403
100	0x3d03ce56	0.0321792
101	0x3ce6fe4c	0.02819743
102	0x3cdc3853	0.026882326
103	0x3cd05626	0.025431704
104	0x3cd45fda	0.025924612
105	0x3cd6cc98	0.026220605
106	0x3d4b04f2	0.049565263
107	0x3d16a17e	0.036775105
108	0x3d008a2e	0.03138178
109	0x3d1a770a	0.03771118
110	0x3ccacbec	0.02475544
111	0x3d1183ec	0.0355262
112	0x3b886ebc	0.004163591
113	0x3c75c695	0.015000959
114	0x3c1ae51d	0.009454039
115	0xbb885be4	-0.004161345
116	0xbc06243a	-0.008187348
117	0x39981fb1	0.0002901531
118	0xbbeaad55	-0.007161776
119	0xba3e28cb	-0.00072540034
120	0xbb97b723	-0.004629986
121	0xbafde485	-0.0019370472
122	0xbb2ccd4b	-0.0026367481
123	0xbc1c5abb	-0.009543116
124	0xbc4d780d	-0.012540829
125	0x3c1bf9ba	0.009519989
126	0x3b143538	0.0022614729
127	0x3b6d530f	0.0036212837
128	0x3c5dabaa	0.013529697
129	0x3c351733	0.011052894
130	0x3d0528fc	0.03250979
131	0x3bc2327b	0.005926428
132	0x3bce3e4f	0.006294049
133	0x3ce4de9a	0.027938176
134	0x3c6956bc	0.0142418705
135	0x3c29ebdc	0.010371175
136	0x3c354b5a	0.0110653285
137	0x3cd5ebd1	0.026113423
138	0x3aa87def	0.0012854914
139	0x3cbc2b69	0.022969918
140	0x3d06b310	0.03288561
141	0x3c7b507b	0.015339012
142	0x3c7bdd89	0.015372642
143	0x3c81277d	0.0157659
144	0xbb9b8e09	-0.0047471565
145	0xbc4bd049	-0.012439796
146	0x3c9c31e7	0.019066764
147	0xbc2febfe	-0.010737417
148	0xbc962e0b	-0.018332502
149	0xbbc6ccfa	-0.0060669156
150	0xbc8feb45	-0.01756824
151	0x3c91affc	0.017784111
152	0xbccf0ce5	-0.025274703
153	0x3b4606b7	0.0030216405
154	0xbab6fcc4	-0.0013960828
155	0x3abbfe7a	0.0014342808
156	0x39ca1e53	0.00038551036
157	0xbb0166b9	-0.0019745065
158	0xbbf91552	-0.0076014185
159	0xbb55df83	-0.0032634444
160	0xbc8d4f2f	-0.017249672
161	0xbcb4e596	-0.022082131
162	0x3a5d6339	0.0008445266
163	0xbce2f3c1	-0.027704122
164	0xbcb619bc	-0.022229068
165	0xbcfcba09	-0.030850427
166	0xbced1721	-0.028941693
167	0xbca103ba	-0.019655097
168	0xbae99fb9	-0.001782409
169	0xbc925453	-0.017862475
170	0xbcdc20b4	-0.026871063
171	0xbd07084a	-0.03296689
172	0xbc34ae9b	-0.011027957
173	0xbcce559d	-0.025187308
174	0xbc31c9a4	-0.0108512975
175	0xbcef7ea0	-0.029235184
176	0x3bf8a313	0.0075877993
177	0x3c66e160	0.0140918195
178	0xbc4d93a3	-0.012547406
179	0x3c472851	0.012155608
180	0x3bd2df25	0.0064352923
181	0x3c53a6b6	0.012918165
182	0x3c808e9c	0.015693001
183	0xbbf632a6	-0.007513362
184	0xbc2b291e	-0.010446815
185	0x3bac9154	0.005266348
186	0x3cb8d6e5	0.022563407
187	0x3b864509	0.004097585
188	0xbc779d83	-0.015113237
189	0x3c976678	0.018481478
190	0x3c0e28a0	0.008676678
191	0x3c52d327	0.012867725
192	0x3cb8e44e	0.022569802
193	0x3d0975a6	0.033559464
194	0x3c4a0a19	0.012331509
195	0x3d37ffde	0.04492175
196	0x3d2fbdca	0.042905606
197	0x3cb3798b	0.021908542
198	0x3c08ff9c	0.008361723
199	0x3cae5488	0.021280542
200	0x3c0631ef	0.008190616
201	0x3c944e12	0.018103633
202	0x3c20a973	0.009806025
203	0x3d1246d2	0.03571207
204	0x3d148910	0.036263525
205	0x3ce5bc9b	0.028044036
206	0x3d19b815	0.03752907
207	0x3d066df0	0.03281969
208	0xbc8529ee	-0.016255345
209	0xbd030c8f	-0.0319944
210	0xbcc92457	-0.024553461
211	0xbc90e0c6	-0.017685305
212	0xbca92ba0	-0.020650685
213	0xbccfa907	-0.025349153
214	0xbb80dd2a	-0.003932615
215	0xbce5b82a	-0.028041918
216	0xbc9929c9	-0.018696683
217	0xbc8c831a	-0.017152358
218	0xbce156d6	-0.027507227
219	0xbd03073c	-0.03198932
220	0xbc9d9450	-0.01923576
221	0xbcb7ec1c	-0.022451453
222	0xbcbdc3ba	-0.023164619
223	0xbcdf0ada	-0.027226854
224	0xbd21bccc	-0.03948669
225	0xbd23147d	-0.03981446
226	0xbcb4e8fd	-0.022083754
227	0xbd10b798	-0.03533134
228	0xbd32a4bd	-0.043614138
229	0xbd05c543	-0.032658827
230	0xbd051d28	-0.03249851
231	0xbcd5eced	-0.026113952
232	0xbd0dcc6e	-0.034618787
233	0xbd0922e8	-0.033480555
234	0xbd021563	-0.031758677
235	0xbd06afe3	-0.032882582
236	0xbd3d2f3c	-0.046187624
237	0xbd0e01b1	-0.03466958
238	0xbd29215e	-0.041291587
239	0xbc1d9b17	-0.009619496
240	0xbb06b9ec	-0.0020557595
241	0x3bc90e47	0.006135735
242	0x3c047ecc	0.008086871
243	0x3ba86a11	0.005139597
244	0x3c6ca5ba	0.014443809
245	0x3bdc7a2f	0.0067284326
246	0x3c0bf073	0.008541214
247	0xbbc17198	-0.005903434
248	0x3c2a9be3	0.010413143
249	0x3bb68f5d	0.0055712895
250	0xbbab0fec	-0.005220404
251	0xbba26d84	-0.004956903
252	0x3ac558fc	0.0015056427
253	0x3c59c339	0.013291174
254	0xbba23ad5	-0.004950861
255	0xbc531e9a	-0.012885714

shortBranch.2.bias f4 [64]
0	0xbbc62e20	-0.006047979
1	0xbd5f98ec	-0.054589197
2	0x3c5a72cb	0.013333033
3	0x3d0e5c0e	0.03475576
4	0x3d25a06e	0.0404362
5	0xbd3b130d	-0.045672465
6	0x3d4bdec1	0.04977298
7	0x3cfe0123	0.031006401
8	0xbd22f27d	-0.039782036
9	0x3c93cb22	0.018041197
10	0x3d43382c	0.04766099
11	0x3c9a27fc	0.018817894
12	0xbcb0e795	-0.021594802
13	0x3c7a5760	0.015279621
14	0x3c8c08fd	0.01709413
15	0xbca0d1ab	-0.019631227
16	0xbd31b83c	-0.04338859
17	0xbca783e3	-0.02044863
18	0xbd1a81c4	-0.03772141
19	0x3d17bfe9	0.037048254
20	0xbd30f2d2	-0.04320032
21	0xbd8563c0	-0.065131664
22	0xbd32eb9b	-0.043681722
23	0xbc2f3f2a	-0.010696212
24	0x3c26b9d2	0.010176139
25	0xbd10a16e	-0.0353102
26	0xbcf415c6	-0.029795539
27	0xbcf43a85	-0.02981306
28	0xbc14fa8c	-0.009092938
29	0xbd1265f7	-0.035741773
30	0x3d1a6062	0.037689574
31	0x3d579a9f	0.052637693
32	0xbc2f9fcc	-0.010719251
33	0x3d81a120	0.0632956
34	0x3c32d04f	0.010913922
35	0xbb9e955a	-0.0048395814
36	0xbd54aa4f	-0.05192023
37	0xbca6131f	-0.02027279
38	0xbd2279f7	-0.039667096
39	0xbd5dbcff	-0.05413532
40	0xbd10e8d8	-0.035378307
41	0xbc77155f	-0.015080779
42	0x3d2ad6cb	0.04170875
43	0x3cb48074	0.022033907
44	0xbced860f	-0.028994588
45	0xbce0e9d2	-0.027455244
46	0xbd7c150d	-0.061543513
47	0xbc1e3405	-0.009655957
48	0x3cfe38b7	0.031032903
49	0x3c901870	0.017589778
50	0x3cd9f30e	0.026605155
51	0xbd75e04d	-0.060028363
52	0xbc05f9fe	-0.008177279
53	0xbd23bac1	-0.039973024
54	0x3d1b9e61	0.03799284
55	0x3c9b88e1	0.018986167
56	0xbcad452d	-0.02115115
57	0xbceb4624	-0.02871997
58	0xbc533fca	-0.0128936265
59	0xbd4762e4	-0.048678294
60	0x3d7cd2cc	0.06172447
61	0x3aa37a28	0.0012472318
62	0xbd37662c	-0.044775173
63	0x3d7b5b9a	0.061366655

shortBranch.4.weight f4 [32, 64]
0	0xbe20d628	-0.15706694
1	0x3ab8c3a7	0.0014096395
2	0x3e2955da	0.16536656
3	0xbe0b0d0d	-0.13579197
4	0xbe391f13	-0.1807826
5	0xbb503e69	-0.003177548
6	0xbd10778d	-0.035270263
7	0xbcdb60ae	-0.026779499
8	0x3de91adf	0.113820784
9	0xbd62e57a	-0.055394627
10	0x3c37853c	0.011201199
11	0xbd84c3b2	-0.064826384
12	0xbc9ce7cc	-0.019153498
13	0x3d89f8c6	0.06736903
14	0xbe15bb14	-0.14622146
15	0xbbfc3ebf	-0.0076979096
16	0xbb58ba88	-0.0033070166
17	0x3cb9852f	0.022646515
18	0xbb980937	-0.0046397704
19	0xbaaf0b3b	-0.0013354787
20	0x3d94967d	0.07255266
21	0xbc79ccfb	-0.015246625
22	0x3e3fb0af	0.18719743
23	0x3c5d781c	0.013517406
24	0x3d653edc	0.05596815
25	0xbb9551bf	-0.004556864
26	0x3d132f87	0.035933997
27	0xbd453f4d	-0.04815607
28	0xbbae588e	-0.005320615
29	0xbc177183	-0.009243372
30	0x3c5e1095	0.013553758
31	0x3ba1bd8d	0.0049359263
32	0x3ccab09c	0.024742417
33	0x3d2ee2ca	0.04269675
34	0xbc81b47a	-0.015833128
35	0xbdb8a5ef	-0.09016024
36	0x3d004bc5	0.03132226
37	0xbdba61be	-0.09100674
38	0xbc95636d	-0.018235886
39	0x3d383039	0.044967864
40	0xbb8eff55	-0.004363934
41	0x3dbcc4d6	0.09217231
42	0x3b17447b	0.002308159
43	0xbe1f3393	-0.15547018
44	0x3d3568e9	0.044289503
45	0x3c09dcdb	0.008414472
46	0xbbe6f0d4	-0.007047752
47	0xbd915cd7	-0.07097786
48	0xbe45d0f9	-0.19317998
49	0xbc616bc7	-0.013758606
50	0xbc2de0da	-0.010612691
51	0xbad2d52a	-0.0016085256
52	0x3e4035b7	0.1877049
53	0x3dd31dc1	0.103084095
54	0xbd4ad422	-0.049518712
55	0x3d526ae9	0.05137149
56	0x3d50b3df	0.05095279
57	0x3c4af990	0.012388602
58	0x3b8a01a3	0.004211621
59	0x3c1c12e3	0.009525987
60	0xba836073	-0.0010023251
61	0xbb852106	-0.0040627746
62	0x3d81e12a	0.06341775
63	0xbcd599d9	-0.026074337
64	0x3d076f42	0.033065088
65	0xbb1b34b1	-0.002368253
66	0xbd51e51a	-0.05124388
67	0x3e31fb46	0.1738101
68	0x3db1ee24	0.08688
69	0x3c5a87db	0.0133380545
70	0xbc60b318	-0.013714574
71	0xbccc89cc	-0.02496805
72	0xbe2c2cca	-0.1681396
73	0xbc4029c7	-0.0117287105
74	0xbc2169b1	-0.009851859
75	0x3e2eb58f	0.17061447
76	0xbbf4f452	-0.0074754143
77	0xbe11ffaf	-0.14257692
78	0x3d8cb8ea	0.06871207
79	0x3baf105b	0.005342526
80	0xbcb9e612	-0.022692714
81	0x3d191413	0.03737266
82	0xbc41da06	-0.011831766
83	0x3d5ed573	0.05440278
84	0xbe42dfb4	-0.19030648
85	0xbce333f8	-0.027734742
86	0xbd82d8fb	-0.06389042
87	0x3cb739ac	0.022366367
88	0x3cdc7676	0.026911955
89	0x3c36fc6c	0.0111685805
90	0x3cafeab5	0.021474222
91	0xbc0eff09	-0.008727797
92	0xbcf537d3	-0.029933846
93	0x3c13ffed	0.009033185
94	0x3cdc2f09	0.026877897
95	0x3d32d874	0.043663457
96	0x3d0a6cd7	0.033795204
97	0x3cba8131	0.022766681
98	0xbd1b704b	-0.037948888
99	0x3ccae1ae	0.024765816
100	0xbdce6bf7	-0.100791864
101	0x3c80f410	0.015741378
102	0x3c3bb22b	0.011456053
103	0x3c7ba2b5	0.015358617
104	0xbb883aa4	-0.004157381
105	0xbe3aada3	-0.182303
106	0xbb0b0379	-0.0021211787
107	0x3e079c27	0.13243161
108	0x3ca52b2a	0.020162184
109	0xbcdaba9f	-0.026700316
110	0xbc1dccac	-0.009631317
111	0x390b5ba6	0.00013290215
112	0x3d68f278	0.05687186
113	0xbd18500b	-0.03718571
114	0xbcef492b	-0.029209694
115	0xbbda6c87	-0.0066657695
116	0xbd998299	-0.07495613
117	0xbe2cb034	-0.16864091
118	0xbbd68531	-0.0065466394
119	0x3c9e42eb	0.019319018
120	0xbe2ce2b0	-0.1688335
121	0x3c90d096	0.017677587
122	0xbb359dd1	-0.0027712474
123	0x3c68042b	0.01416115
124	0xbc2ba0c4	-0.010475341
125	0xbd1cf9ed	-0.038324285
126	0xbe3309cf	-0.1748421
127	0xbc98b36a	-0.018640239
128	0x3d111d55	0.035428364
129	0x3db5cb57	0.088766746
130	0xbc521a1e	-0.01282361
131	0xbd40ccca	-0.047070302
132	0xbb16613d	-0.0022946142
133	0x3d7d9eeb	0.061919134
134	0xbc0a17c3	-0.008428517
135	0xbd4cacfb	-0.049969655
136	0x3d3fcd70	0.04682678
137	0x3da8d4d8	0.08243722
138	0xbdb2d08c	-0.087311834
139	0xbd8d1b3d	-0.06889961
140	0x3e2d2d13	0.16911726
141	0xbdbb5d30	-0.091486335
142	0x3d127a69	0.03576127
143	0x3d9c7aa5	0.0764058
144	0x3e002eaa	0.12517801
145	0xbd6f0973	-0.05835862
146	0x3e295be5	0.16538961
147	0xbdf4a427	-0.11945372
148	0x3d47d143	0.048783552
149	0x3e47833a	0.19483653
150	0xbb17efd9	-0.0023183732
151	0x3d7b260a	0.061315574
152	0xbdda978e	-0.10673438
153	0x3c221874	0.009893525
154	0xbd94b581	-0.072611816
155	0x3cb557c3	0.022136575
156	0x3dcd977d	0.1003866
157	0x3d713bb0	0.058894813
158	0xbe86a691	-0.26298955
159	0xbe16028e	-0.14649412
160	0xbdd55c20	-0.10417962
161	0xbe5e310c	-0.21698397
162	0xbceadb13	-0.028668916
163	0x3d957842	0.07298328
164	0x3dc8e793	0.09809794
165	0x3e195eac	0.1497752
166	0x3d94035a	0.07227202
167	0x3c865325	0.016397068
168	0x3d321125	0.04347338
169	0x3d18d8c4	0.0373161
170	0xbdbd90e4	-0.09256151
171	0xbc12d20f	-0.008961215
172	0xbbea0d09	-0.007142667
173	0x3e0e5cc4	0.13902575
174	0x3e0ae0bf	0.13562296
175	0x3d40ac1d	0.04703914
176	0x3abd2530	0.0014430638
177	0x3dcca045	0.099915065
178	0xbd5b6cc1	-0.053570513
179	0x3e396379	0.18104352
180	0xbc571afa	-0.01312899
181	0x3d486a73	0.048929643
182	0x3c1910b6	0.009342363
183	0xbd9ba63d	-0.07600067
184	0x3d860940	0.06544733
185	0x3d173d82	0.036923893
186	0x3d50e040	0.05099511
187	0x3d733293	0.059374403
188	0xbd0d1fa3	-0.034454
189	0xbced9b5e	-0.029004749
190	0x3d3a5a0f	0.045496043
191	0xbd5dd45f	-0.05415761
192	0x3e1ad648	0.15120804
193	0x3cf97daa	0.03045543
194	0xbdfc39a3	-0.12315681
195	0x3ccce4ff	0.025011538
196	0x3d090d6b	0.033460062
197	0x3c876035	0.016525367
198	0xbc74a0be	-0.014930902
199	0xbcc47280	-0.02398038
200	0xbc86c9c9	-0.01645364
201	0x3de3ad27	0.111170106
202	0x3cf5e376	0.030015688
203	0x3bc23e72	0.005927854
204	0x3dbbf5e3	0.091777585
205	0xbc8c3b22	-0.01711804
206	0x3d434447	0.047672536
207	0x3df9c46e	0.12195669
208	0xbad6fd6c	-0.001640243
209	0xbd422138	-0.04739496
210	0x3d0b76ac	0.03404872
211	0xbd84a379	-0.064764924
212	0xbc9cfd11	-0.01916364
213	0x3d13f6ef	0.036124166
214	0xbd24eada	-0.040263034
215	0xbd8dc113	-0.069215916
216	0x3d0fa273	0.035067033
217	0xbd954ab6	-0.072896406
218	0x3d054dba	0.03254483
219	0x3e63b03b	0.22235195
220	0x3e069587	0.13142978
221	0xbdcc8e19	-0.099880405
222	0xbd230a89	-0.03980497
223	0xbd370487	-0.044682052
224	0x3dc395e6	0.09550075
225	0xbaade8e1	-0.0013268256
226	0x3d7f32b6	0.06230422
227	0x3e2e0399	0.1699356
228	0x3c802e2c	0.015647016
229	0x3dbd3794	0.09239116
230	0xbd5e013a	-0.05420039
231	0x3c02a359	0.007973515
232	0x3c21c472	0.009873496
233	0xbc69b9f1	-0.014265523
234	0xbc94e85e	-0.018177208
235	0x3d1af477	0.037830796
236	0x3c0291ee	0.007969363
237	0x3d2b9ad5	0.041895706
238	0x3d5943ad	0.053043056
239	0x3e64ca72	0.22342852
240	0x3d6bf5e3	0.057607543
241	0xbdbeda9a	-0.09319039
242	0xbdc79701	-0.097455986
243	0x3c8d4c36	0.017248254
244	0xbd2ca6be	-0.042151205
245	0xbca69516	-0.020334762
246	0xbd645550	-0.055745423
247	0xbe0567d8	-0.13027894
248	0xbb32e186	-0.0027295067
249	0x3c603a88	0.01368583
250	0xbca0cd85	-0.01962925
251	0x3d8e355a	0.0694377
252	0xbca8e800	-0.020618439
253	0x3d9947f8	0.0748443
254	0x396ef646	0.00022789193
255	0xbcb33add	-0.021878654

shortBranch.4.bias f4 [32]
0	0x3d543e2d	0.051817108
1	0x3d2e0ac2	0.04249073
2	0x3d501c70	0.05080837
3	0xbd043385	-0.032275695
4	0x3d888e93	0.06667819
5	0x3d7b2a3d	0.06131958
6	0xbd8b9e15	-0.06817261
7	0x3e08216a	0.13293996
8	0xbac819d7	-0.001526649
9	0xbdfb4f1a	-0.12270947
10	0x3d3ea0a4	0.046539918
11	0xbab72d33	-0.0013975262
12	0x3d555692	0.052084513
13	0xbd7812fb	-0.060564976
14	0xbd2c4a2f	-0.042062934
15	0x3c66a4b1	0.014077351
16	0x3da4bd15	0.08043877
17	0xbd2030e5	-0.03910913
18	0xbd45d349	-0.0482972
19	0xbcd7d235	-0.026345352
20	0x3d32c7a3	0.04364742
21	0x3d70c0f8	0.05877778
22	0xbcf91f14	-0.030410327
23	0x3c86060d	0.016360307
24	0x3d2e1c76	0.04250761
25	0x3ac3cfa1	0.0014939198
26	0xbd3b805a	-0.045776702
27	0xbd170ab5	-0.036875445
28	0x3cd11abf	0.025525449
29	0x3d908c28	0.07057983
30	0x3d811a9d	0.06303904
31	0x3c156a71	0.009119616
