Models/best_eeV0_0424_after.pth (torch, 770203 bytes, 48 tensors)

baseModel.0.weight f4 [64, 2, 3]
0	0x3e1c3ec6	0.15258321
1	0xbe07bfb8	-0.13256729
2	0xbe8eb89e	-0.27875227
3	0x3e91c3db	0.28469738
4	0x3d94e764	0.07270697
5	0x3d67d5a4	0.056600228
6	0xbcf54864	-0.029941745
7	0x3eef61eb	0.46754393
8	0xbe6796bd	-0.22616096
9	0x3eb3d64a	0.35124427
10	0xbdf878fd	-0.12132452
11	0xbe723df7	-0.2365645
12	0xbe6cd866	-0.23129424
13	0xbe682243	-0.2266932
14	0x3cd9daa0	0.026593506
15	0xbe87da5f	-0.2653379
16	0xbdea160e	-0.11429988
17	0xbd8ae2d5	-0.06781546
18	0x3e08f1f8	0.13373554
19	0x3d87e3c6	0.06635241
20	0x3e5193e7	0.20466577
21	0x3e34f84d	0.17672844
22	0x3d1ed600	0.038778305
23	0xbe13f2ee	-0.14448139
24	0xbec7098d	-0.38874474
25	0xbe5b0992	-0.2139037
26	0x3d5c4d1e	0.053784482
27	0xbe70f3ae	-0.23530456
28	0x3e853cd3	0.26022968
29	0x3ec0b207	0.37635824
30	0xbe646e89	-0.22307791
31	0x3d1fc429	0.039005432
32	0xbe5147ec	-0.20437592
33	0x3ebf1331	0.3731933
34	0x3d1f84ef	0.038945135
35	0x3ebc9e74	0.3683964
36	0x3eaab3e0	0.3334036
37	0x3c6527d2	0.013986545
38	0xbe23ada5	-0.15984209
39	0xbe9369ed	-0.28791752
40	0xbd973341	-0.07382823
41	0xbeb90066	-0.36133116
42	0x3d01054e	0.0314992
43	0xbcf737d0	-0.03017798
44	0x3bea8859	0.007157367
45	0xbeabfb3f	-0.33590123
46	0xbeb52bc3	-0.3538495
47	0x3cc30b38	0.02380906
48	0xbeaaae3f	-0.33336064
49	0xbd061b82	-0.032741077
50	0x3ec6fd80	0.3886528
51	0x3ccb19f3	0.024792647
52	0x3d194e90	0.03742844
53	0xbdb2612d	-0.08709941
54	0xbe4e2b8d	-0.20133801
55	0xbe0defaf	-0.13860963
56	0xbe818a15	-0.2530066
57	0x3e835864	0.25653374
58	0xb9ea6095	-0.00044703917
59	0xbe6e00c7	-0.23242484
60	0x3ea2131c	0.31655204
61	0xbdeaf52b	-0.11472543
62	0xbeb1fd59	-0.347636
63	0x3e746593	0.23866872
64	0xbd6ce93b	-0.057839613
65	0xbeb1fe9e	-0.3476457
66	0x3e385007	0.17999278
67	0xbce686d8	-0.02814047
68	0xbe484148	-0.19556153
69	0x3e530f83	0.20611386
70	0x3eb94619	0.36186293
71	0x3e418ec6	0.1890212
72	0x3e8495ba	0.25895482
73	0xbe31338e	-0.17304823
74	0xbde66f2d	-0.11251674
75	0xbddcc372	-0.10779466
76	0x3edbbdaf	0.42918155
77	0xbe8a4b87	-0.27010748
78	0x3e8321b6	0.25611657
79	0x3ed5fe11	0.417954
80	0xbe5a1584	-0.2129727
81	0x3e5e1275	0.21686728
82	0x3e3c1f28	0.1837126
83	0xbd518746	-0.051154397
84	0x3d1b6df9	0.037946675
85	0x3e89097f	0.26765057
86	0xbd888eda	-0.06667872
87	0x3dffc91a	0.12489529
88	0x3e347c0c	0.17625445
89	0xbea2cf40	-0.31798744
90	0x3e53c0ad	0.20678969
91	0xbe6d0ed6	-0.2315019
92	0x3e6237e0	0.22091627
93	0xbd23852f	-0.039921936
94	0x3d980481	0.07422734
95	0xbdaee0b3	-0.08538952
96	0xbe03623a	-0.12830439
97	0xbe5954b3	-0.21223716
98	0xbeb2db6f	-0.3493304
99	0xbeb0cb13	-0.34529933
100	0xbe198912	-0.14993694
101	0x3e8e6c52	0.27817017
102	0x3ed45a64	0.41475213
103	0x3e3aba6d	0.18235178
104	0xbd5aa5d4	-0.053380802
105	0x3e38a3b8	0.18031204
106	0xbe4081dc	-0.18799537
107	0xbec0a649	-0.37626866
108	0x3d501ba9	0.05080763
109	0xbd0bf117	-0.034165468
110	0x3d302780	0.04300642
111	0xbebed6c6	-0.37273234
112	0x3bf50f92	0.0074786628
113	0xbecf7a83	-0.40523157
114	0x3ded54a3	0.11588409
115	0xbe661cfc	-0.22471994
116	0xbdfeb782	-0.12437345
117	0x3e31f4d6	0.17378554
118	0x3daf3d7c	0.08556649
119	0xbe08083d	-0.13284393
120	0x3ec70592	0.38871437
121	0x3c8b0d88	0.016974226
122	0xbe42c5a4	-0.19020706
123	0x3d0e6fcb	0.034774583
124	0x3e878180	0.26465988
125	0x3e83c0c5	0.2573301
126	0x3d2a36e8	0.04155627
127	0x3e3bf61e	0.18355605
128	0xbe0b19ae	-0.13584015
129	0x3e1e0adb	0.15433829
130	0x3e9afb22	0.30269724
131	0xbe9ce318	-0.3064201
132	0x3db3fcb9	0.087884374
133	0x3e2c3f38	0.16820991
134	0xbe0a7707	-0.13521968
135	0x3e831d2d	0.25608197
136	0xbea45bed	-0.32101384
137	0x3c95b0e0	0.018272817
138	0xbeb23f16	-0.34813756
139	0xbc03bd18	-0.008040689
140	0xbeb6a11d	-0.35669795
141	0xbdaa9775	-0.083296694
142	0x3c4310f0	0.011905894
143	0xbdbe2093	-0.09283557
144	0x3e9668a7	0.29376718
145	0xbdb73927	-0.08946448
146	0xbe50b37f	-0.20380972
147	0xbe0d4403	-0.13795476
148	0xbe1d35af	-0.1535251
149	0xbdd517ce	-0.10404931
150	0x3ed8473f	0.42241856
151	0x3e012de9	0.1261517
152	0x3e7a2fe9	0.24432339
153	0x3e8d12ee	0.27553505
154	0xbe890add	-0.267661
155	0x3d8ec5d8	0.069713295
156	0x3e0275a1	0.12740184
157	0x3e2d563a	0.16927424
158	0xbebe46c5	-0.37163368
159	0xbe2273e0	-0.15864515
160	0xbd175c6a	-0.036953367
161	0x3e70e5ae	0.23525116
162	0xbed5210c	-0.41626775
163	0xbe253a3a	-0.16135493
164	0xbb90922a	-0.0044119554
165	0xbe3ef556	-0.18648276
166	0x3e1fbd2c	0.15599507
167	0xbd4862c8	-0.04892233
168	0x3eaa5253	0.33265933
169	0x3d90a8f5	0.07063476
170	0xbe5e0fe3	-0.21685748
171	0xbd34cd95	-0.04414137
172	0x3c2b886b	0.010469536
173	0x39678a18	0.0002208132
174	0xbc66a768	-0.014077999
175	0xbe8df4c6	-0.2772581
176	0x3e60e64a	0.21962848
177	0x3d42f05e	0.047592513
178	0xbcb95c85	-0.022627125
179	0xba65b9fd	-0.0008763371
180	0x3e748391	0.23878314
181	0x3e4394a9	0.19099678
182	0xbebb2f7b	-0.36559662
183	0x3c123604	0.008924011
184	0xbea5e222	-0.32399088
185	0xbdc4e0ea	-0.096132115
186	0x3e7e3b4f	0.24827312
187	0xbe87f19c	-0.2655152
188	0xbd27fa24	-0.041010037
189	0xbdac5b87	-0.08415895
190	0x3e04642e	0.1292884
191	0xbd8ec3fb	-0.06970974
192	0xbe3262d3	-0.17420511
193	0x3e283045	0.16424663
194	0x3c8be7ed	0.017078364
195	0xbdaa433f	-0.083136074
196	0x3e877b16	0.26461095
197	0xbdeffd65	-0.11718253
198	0x3e49fb8a	0.19724861
199	0xbe77de2e	-0.24205849
200	0x3d6e322f	0.058153328
201	0xbd1276c0	-0.03575778
202	0x3e1b409d	0.15161367
203	0xbdcd5462	-0.1002586
204	0x3e8e2ea0	0.27769947
205	0x3c299766	0.010351038
206	0x3e90c9cf	0.28278968
207	0x3e882e72	0.26597935
208	0x3dacf8ed	0.08445916
209	0x3e790421	0.24317981
210	0xbeba3189	-0.36365917
211	0xbc0a2c32	-0.008433389
212	0x3e93bdfe	0.2885589
213	0x3d706d2a	0.058697857
214	0x3ea6c884	0.32574856
215	0x3e4142b4	0.18873101
216	0xbda964af	-0.08271157
217	0x3d1fec5c	0.03904377
218	0xbd7188cf	-0.05896836
219	0x3e517525	0.20454843
220	0xbe264540	-0.16237354
221	0x3df08d69	0.11745722
222	0x3d896aad	0.067098
223	0xbd5ec64b	-0.054388326
224	0xbe02a5b5	-0.12758525
225	0xbeb15aab	-0.34639487
226	0x3eaf7859	0.34271505
227	0x3e5d7202	0.21625522
228	0xbe7ba5a2	-0.24574903
229	0xbe956a23	-0.29182538
230	0x3e4f9d57	0.20274864
231	0x3e5abfa6	0.2136217
232	0xbe97057d	-0.29496375
233	0xbe7c5af0	-0.24644065
234	0x3d9e2b78	0.07723135
235	0xbea5604d	-0.32300034
236	0x3e623cd6	0.2209352
237	0x3d98f4c9	0.07468564
238	0xbd4a8932	-0.049447246
239	0xbd4cbb6d	-0.04998343
240	0xbe27ae10	-0.16374993
241	0x3e514c2b	0.20439212
242	0x3c26c3eb	0.010178546
243	0xbe25974d	-0.16170998
244	0x3e8d964c	0.2765373
245	0xbdc10d56	-0.09426372
246	0x3ca0c733	0.019626236
247	0x3e0f7c07	0.14012156
248	0x3ea85b32	0.32882077
249	0xbea96c83	-0.330906
250	0xbe15b28a	-0.14618888
251	0x3e530958	0.20609033
252	0xbeb501c3	-0.35352907
253	0x3d0a6f9c	0.033797845
254	0x3e3ee86a	0.18643346
255	0x3e558da0	0.20854807

baseModel.0.bias f4 [64]
0	0x3a75f6d7	0.00093827903
1	0x38b370e0	8.55641e-05
2	0x39d1331a	0.0003990166
3	0x39d2e022	0.00040221313
4	0xb9cf325c	-0.00039519637
5	0xba087e2e	-0.00052067905
6	0x3706186f	7.992711e-06
7	0xba105e09	-0.00055071764
8	0x3a12ec0f	0.00056046335
9	0x3a1704e0	0.00057609193
10	0x3953b225	0.00020188892
11	0xb9b4f2fb	-0.0003451331
12	0x381c9d39	3.7339723e-05
13	0x37d322d9	2.5169387e-05
14	0x3a63476a	0.00086700043
15	0xb6f01d8d	-7.1559975e-06
16	0x36f9c43e	7.443624e-06
17	0x39dde0df	0.00042319947
18	0x3a160745	0.0005723129
19	0xb99d6e94	-0.0003002776
20	0x3915eadd	0.0001429724
21	0x3a519f41	0.0007996448
22	0xb93b83b4	-0.00017882773
23	0x39c85f52	0.00038217992
24	0x39954fcb	0.00028478945
25	0xb88f62da	-6.837184e-05
26	0xba1eb1fb	-0.0006053743
27	0xb97e0291	-0.00024224284
28	0x3a0163ca	0.0004935829
29	0xba8ae4da	-0.0010596768
30	0xb8cc3539	-9.7373915e-05
31	0x3a11e9ac	0.0005566131
32	0xb8ea3863	-0.00011168492
33	0x3993e01e	0.00028205005
34	0x37beea23	2.2758793e-05
35	0x3917b3ea	0.00014467505
36	0xb924f7f7	-0.00015732633
37	0x393f2f06	0.00018232697
38	0x37ad4421	2.0654932e-05
39	0x3920b7ea	0.00015327302
40	0xba84ec3b	-0.0010141203
41	0xb944003c	-0.00018692104
42	0x38f1a64b	0.0001152275
43	0xb967c4a4	-0.00022103131
44	0xba064f13	-0.00051234773
45	0xb8f12e71	-0.00011500426
46	0xb9a13a4a	-0.00030751742
47	0x3785e94c	1.5963473e-05
48	0x3a276efd	0.0006387083
49	0x389624cb	7.1594106e-05
50	0xba401368	-0.00073271105
51	0x38b73ad9	8.737081e-05
52	0x3a3e89a0	0.00072684325
53	0x38c997db	9.612712e-05
54	0xb7dab8b7	-2.607364e-05
55	0x39838380	0.00025084242
56	0x3a0175af	0.00049384957
57	0x3a12f27b	0.00056055904
58	0x39c99cc8	0.0003845452
59	0x3982ba9b	0.00024934564
60	0x39dcbed4	0.00042103848
61	0xb8f31138	-0.0001159035
62	0xb99b6365	-0.00029637959
63	0x39ef3b03	0.000456296

baseModel.1.weight f4 [64]
0	0x3f79f2be	0.9763602
1	0x3f729dbf	0.9477195
2	0x3f7459b4	0.95449376
3	0x3f7528b6	0.95765245
4	0x3f7adb4d	0.97990876
5	0x3f7c51e3	0.9856245
6	0x3f727812	0.9471446
7	0x3f7b38ce	0.9813355
8	0x3f7cf7d0	0.9881563
9	0x3f73fe35	0.95309764
10	0x3f785a74	0.9701302
11	0x3f6688c0	0.90052414
12	0x3f7059d0	0.93887043
13	0x3f721ebe	0.9457816
14	0x3f7637d9	0.96178967
15	0x3f73a6cb	0.9517638
16	0x3f71f5b5	0.94515544
17	0x3f77cb6a	0.9679476
18	0x3f80c705	1.0060736
19	0x3f6d8bce	0.9279145
20	0x3f79b608	0.9754338
21	0x3f735233	0.950473
22	0x3f6c503f	0.92309946
23	0x3f7b5981	0.9818345
24	0x3f77dfe4	0.96826005
25	0x3f7103d1	0.9414645
26	0x3f7088f2	0.9395896
27	0x3f7491b1	0.9553481
28	0x3f790f8b	0.9728934
29	0x3f72b7b6	0.9481157
30	0x3f76a33a	0.96342814
31	0x3f6ec533	0.9326965
32	0x3f71bda3	0.9442999
33	0x3f7271cc	0.9470489
34	0x3f7d275c	0.9888818
35	0x3f75c395	0.9600156
36	0x3f7888d8	0.97083807
37	0x3f72a335	0.94780284
38	0x3f76ed1c	0.9645555
39	0x3f697cf3	0.9120628
40	0x3f6d0303	0.9258272
41	0x3f7bb094	0.9831631
42	0x3f74f03d	0.95679075
43	0x3f6c1f3e	0.9223517
44	0x3f6d9b2a	0.92814887
45	0x3f706f15	0.939195
46	0x3f808392	1.0040152
47	0x3f7af9ae	0.9803723
48	0x3f78ed06	0.9723667
49	0x3f7b58b7	0.98182243
50	0x3f7aa4ac	0.9790752
51	0x3f792a66	0.9733032
52	0x3f702e31	0.9382048
53	0x3f72a833	0.947879
54	0x3f7439bc	0.95400596
55	0x3f7b69ad	0.98208123
56	0x3f774da0	0.9660282
57	0x3f60b783	0.87780017
58	0x3f74d2a7	0.9563393
59	0x3f76c54e	0.96394813
60	0x3f663185	0.8991931
61	0x3f7b438a	0.9814993
62	0x3f75961f	0.9593219
63	0x3f795625	0.9739707

baseModel.1.bias f4 [64]
0	0xbdeed561	-0.116617925
1	0xbe4ad425	-0.19807489
2	0x3c93d6c3	0.018046742
3	0xbd97eb31	-0.07417906
4	0xbdfdb762	-0.12388493
5	0xbdc0dbd8	-0.09416932
6	0xbd763d4d	-0.060117055
7	0x3d0d87c8	0.03455332
8	0xbe1fc945	-0.15604122
9	0xbdcdb337	-0.10043948
10	0xbc9a1f14	-0.018813647
11	0xbc1e374e	-0.00965674
12	0xbe354f72	-0.17706087
13	0x3e15ac86	0.14616594
14	0xbe37eeeb	-0.17962234
15	0x3eb2f4f3	0.34952506
16	0xbddd7680	-0.10813618
17	0xbe0edf3b	-0.13952343
18	0xbd9f373c	-0.07774207
19	0xbe190983	-0.14945035
20	0xbe0dad31	-0.13835599
21	0x3ea3a616	0.3196265
22	0xbe1ee271	-0.15516068
23	0xbd9c9a49	-0.07646615
24	0xbe07923a	-0.13239375
25	0x3ba05784	0.004893245
26	0xbe1f2799	-0.15542449
27	0x3d4aeeab	0.049544018
28	0xbcf6e846	-0.030140053
29	0x3ea559a7	0.32294962
30	0xbe3a7431	-0.18208386
31	0x3ea134f6	0.31485718
32	0xbe19c2d0	-0.15015721
33	0xbe12b3c8	-0.14326394
34	0xbdcee671	-0.10102547
35	0xbe192b36	-0.1495789
36	0x3e36e326	0.17860088
37	0xbda162fb	-0.07880207
38	0xbe1d0bb0	-0.1533649
39	0xbe145692	-0.14486149
40	0x3e9afe00	0.30271912
41	0xbdde9541	-0.10868312
42	0xbe2601ec	-0.1621167
43	0x3e24e0a1	0.16101314
44	0x3e9b6e10	0.3035741
45	0x3bf2f10d	0.0074139894
46	0xbd9bf685	-0.07615379
47	0xbe1c2953	-0.15250139
48	0xbe0f80a2	-0.14013913
49	0xbe26f342	-0.16303733
50	0xbe170d4b	-0.14751165
51	0x3d8a2da5	0.06746987
52	0xbd271d74	-0.040799573
53	0xbd77602a	-0.060394444
54	0x3d0f6d0f	0.035016116
55	0xbde48ebd	-0.11160038
56	0xbe2acf38	-0.1668061
57	0xbde83ed5	-0.11340109
58	0xbd3c57a8	-0.045982033
59	0x3c39bb64	0.011336181
60	0xbd86f53f	-0.06589746
61	0xbbb3d16b	-0.005487611
62	0x3da8f344	0.08249524
63	0x3e914167	0.2837021

baseModel.1.running_mean f4 [64]
0	0x3a7aa9cb	0.0009562044
1	0x39a36fff	0.00031173226
2	0x398b9508	0.00026623183
3	0x39d45a3c	0.0004050302
4	0xb96beb55	-0.00022499014
5	0xba067246	-0.00051287224
6	0xb816574a	-3.584408e-05
7	0xba1f6197	-0.00060799107
8	0x3a0be081	0.0005335883
9	0x3a3f294a	0.00072922243
10	0x392d9989	0.00016555762
11	0xb99195fd	-0.00027768305
12	0x388cac1e	6.7077795e-05
13	0xb93f3c37	-0.00018237611
14	0x3a4f7a45	0.0007914643
15	0xb89cc68e	-7.475643e-05
16	0x37ac0580	2.0506559e-05
17	0x3994c241	0.0002837349
18	0x3a76a56d	0.00094088056
19	0xb98d22b7	-0.0002691948
20	0x38b0c7bd	8.429538e-05
21	0x3a340486	0.0006867129
22	0x392eecb7	0.00016682116
23	0x39f4d700	0.00046699494
24	0x39c8f7a2	0.00038331473
25	0xb92dbf68	-0.0001656987
26	0xba0f4fa6	-0.00054668856
27	0xb98df5cd	-0.00027076752
28	0x3a19c682	0.0005866067
29	0xba6b3b63	-0.0008973388
30	0xb7bd0162	-2.25312e-05
31	0x3a10b7db	0.00055205607
32	0xb985a6d8	-0.00025492045
33	0x39163dd0	0.00014328142
34	0xb7030da8	-7.811388e-06
35	0x391757f0	0.00014433241
36	0xb9cf08fa	-0.00039488805
37	0x396fd6e5	0.0002287287
38	0xb7cf01c1	-2.467714e-05
39	0x380c3f53	3.3437576e-05
40	0xba757792	-0.00093638257
41	0xb9a5c0c4	-0.00031614874
42	0xb8a696f4	-7.943614e-05
43	0xb996befc	-0.00028752524
44	0xb9d9e2c2	-0.00041558413
45	0xb91cdc59	-0.00014959405
46	0xb9a72e02	-0.00031887
47	0x3815c218	3.5705132e-05
48	0x39c7ff81	0.00038146603
49	0x38be56b3	9.076055e-05
50	0xba26188f	-0.0006336057
51	0x387fdbce	6.1001447e-05
52	0x3a59c62c	0.0008307423
53	0x394624cd	0.00018896461
54	0xb965641b	-0.00021876434
55	0x3a05a4e2	0.0005098117
56	0x39dd8bdb	0.00042256605
57	0x39e91fa6	0.00044464803
58	0x39a67d2d	0.0003175525
59	0x39928d7f	0.00027952713
60	0x39ce3948	0.0003933406
61	0xb87e587f	-6.0640738e-05
62	0xb9b677ad	-0.0003480291
63	0x39f46576	0.000466149

baseModel.1.running_var f4 [64]
0	0x37148e1b	8.854574e-06
1	0x3759e665	1.2987851e-05
2	0x372671b8	9.920848e-06
3	0x36acce5f	5.150024e-06
4	0x37a747d4	1.9941399e-05
5	0x378135be	1.5403024e-05
6	0x377e76ee	1.516727e-05
7	0x374deb41	1.22737265e-05
8	0x371b19b3	9.2447035e-06
9	0x3737fca9	1.0966477e-05
10	0x377467da	1.4567713e-05
11	0x377965cb	1.4865257e-05
12	0x37102e19	8.593802e-06
13	0x377ab2e0	1.4942809e-05
14	0x36e8df21	6.9401144e-06
15	0x364eb734	3.080303e-06
16	0x37984224	1.8150611e-05
17	0x3798171e	1.8130577e-05
18	0x374e74fe	1.2305796e-05
19	0x36a68721	4.9629166e-06
20	0x376e4d91	1.4203965e-05
21	0x370009e1	7.631695e-06
22	0x36b7c589	5.476821e-06
23	0x37375d1f	1.0929331e-05
24	0x3700e215	7.682033e-06
25	0x3784fea0	1.5854195e-05
26	0x37073deb	8.061043e-06
27	0x3735a990	1.082792e-05
28	0x36c72d0d	5.9359068e-06
29	0x364dd25d	3.0669828e-06
30	0x374fe24a	1.23908485e-05
31	0x3680faff	3.843917e-06
32	0x365b00d6	3.263403e-06
33	0x36369792	2.720834e-06
34	0x37627e0e	1.3499999e-05
35	0x3780f7a9	1.5374115e-05
36	0x36047ed9	1.9743368e-06
37	0x3723daed	9.76653e-06
38	0x376fad98	1.4285928e-05
39	0x366ee9a0	3.5600751e-06
40	0x367f5bcc	3.8051394e-06
41	0x375822e3	1.2882726e-05
42	0x37553a7e	1.2709408e-05
43	0x36a54a81	4.9260566e-06
44	0x365837c1	3.2218961e-06
45	0x374358ee	1.1643611e-05
46	0x37216fc2	9.622368e-06
47	0x379bbc52	1.8565133e-05
48	0x376d77bb	1.4154178e-05
49	0x372a5396	1.0152251e-05
50	0x375a7da4	1.3023066e-05
51	0x37857aac	1.5911959e-05
52	0x375a85ba	1.3024948e-05
53	0x375af2ad	1.3050315e-05
54	0x377bdd2f	1.5012264e-05
55	0x3791ba82	1.7372196e-05
56	0x3733948d	1.0703819e-05
57	0x369ab805	4.6109803e-06
58	0x37291715	1.0078559e-05
59	0x37068389	8.017648e-06
60	0x371bbaa4	9.282176e-06
61	0x372860f8	1.0036158e-05
62	0x365328df	3.146524e-06
63	0x36ac2c7f	5.1311795e-06

shortBranch.2.weight f4 [64, 1024]
0	0xbc1861a4	-0.009300623
1	0xbd11fe98	-0.03564319
2	0x3a22c6b7	0.00062094204
3	0xbc821db8	-0.015883312
4	0xbc1afab5	-0.009459187
5	0xbcfad10b	-0.030617258
6	0xbbc3878d	-0.0059670866
7	0xbc64fc0a	-0.013976106
8	0xbb82e381	-0.0039944057
9	0xbca772e8	-0.020440534
10	0xbc803e54	-0.01565472
11	0xbc414f4e	-0.011798693
12	0xbd0d858b	-0.034551185
13	0xbc89cd11	-0.016821416
14	0xbd051390	-0.03248936
15	0xbcd88158	-0.026428863
16	0xbc9950ea	-0.01871534
17	0xbbdeb6d2	-0.006796696
18	0x3c45a477	0.012063137
19	0xbc390009	-0.011291512
20	0x3bb83c93	0.0056224554
21	0x3c0ef568	0.008725502
22	0x3c543e61	0.012954325
23	0x3c9002e5	0.017579505
24	0x3d0ce3be	0.03439688
25	0xbc62e210	-0.013847843
26	0x3b6a992c	0.0035796864
27	0x3c33fb73	0.010985243
28	0x3b70b298	0.0036727544
29	0xbb9eed65	-0.004850077
30	0x3ae51de9	0.0017480227
31	0x3d0a56ed	0.033774305
32	0x3c8bedd8	0.017081186
33	0x3c55dd67	0.013053275
34	0x3c7d2784	0.015451316
35	0x3cc9c00b	0.024627706
36	0x3c34c865	0.011034106
37	0x3d038d73	0.03211732
38	0x3c977a3c	0.018490903
39	0x3cc25cfe	0.023725983
40	0x3cc29b30	0.02375564
41	0x3d23ba6d	0.03997271
42	0x3c3304c3	0.010926428
43	0x3c996e5d	0.018729383
44	0x3cb40ac3	0.021977788
45	0x3d0f834c	0.035037324
46	0x3cd12925	0.025532315
47	0x3c8c40d9	0.017120766
48	0xbc200ce9	-0.009768703
49	0xbd09714a	-0.033555306
50	0xbc9c1cda	-0.019056726
51	0xbcf1a254	-0.02949635
52	0x39fdc4e3	0.00048402612
53	0xbc79a83e	-0.015237866
54	0x3b803631	0.00391271
55	0x3bf317c9	0.007418607
56	0xbc1c49ce	-0.009539081
57	0xbbbc35ec	-0.0057437327
58	0xbca3fa9e	-0.020016965
59	0xbc80ded0	-0.015731245
60	0xbb7066cd	-0.0036682368
61	0xbc8641d4	-0.016388811
62	0xbc12510e	-0.008930458
63	0xbc881bea	-0.016614873
64	0xbd27b929	-0.040948067
65	0xbcb5b389	-0.022180336
66	0xbcfe0e57	-0.031012697
67	0xbbcf6320	-0.0063289553
68	0x3b6550de	0.0034990828
69	0xbb37aafa	-0.0028025494
70	0xbcf33c6e	-0.029691901
71	0xbcfb66bd	-0.030688638
72	0xbcfe156c	-0.031016074
73	0xbcb527c7	-0.022113694
74	0xbbeb2357	-0.0071758437
75	0xbcf74af1	-0.030187102
76	0xbd0626ae	-0.03275173
77	0xbd069850	-0.0328601
78	0xbbab7fac	-0.0052337255
79	0xbc90fbca	-0.017698187
80	0x3c63c256	0.013901314
81	0x3d176150	0.03695804
82	0x3ce54fd0	0.02799216
83	0x3c2b747a	0.010464782
84	0x3c816809	0.015796678
85	0x3cbe8b39	0.023259746
86	0x3d1a348f	0.03764778
87	0x3cdf940e	0.027292278
88	0x3c8e2a7f	0.017354248
89	0x3c8bc6c4	0.017062552
90	0x3cf38fd9	0.029731678
91	0x3d2e78f3	0.042595815
92	0x3d3fb44f	0.046802815
93	0x3d01f7fe	0.031730644
94	0x3c27777f	0.010221361
95	0x3d14b093	0.036301207
96	0xbccc237b	-0.024919262
97	0xbc9da161	-0.01924199
98	0xbc9b418b	-0.018952152
99	0xbc0e97f4	-0.008703221
100	0xba6fd70d	-0.00091491715
101	0xbca3584f	-0.01993957
102	0x3b419d90	0.0029543377
103	0xbc817c0f	-0.015806226
104	0x3c4ce65c	0.012506094
105	0xbbcc3eb5	-0.006233061
106	0x3be145d0	0.0068747774
107	0xbb6914ae	-0.0035565305
108	0xbc85749a	-0.016290952
109	0x3c86a22b	0.01643475
110	0x3a398d21	0.000707822
111	0x3c035c3f	0.008017599
112	0x3bfa513a	0.0076390775
113	0x3c8d41bf	0.017243264
114	0x3d128582	0.035771854
115	0x3cd695c2	0.026194457
116	0x3b522da0	0.0032070652
117	0xbae1cb82	-0.0017226788
118	0xba8adc71	-0.0010594261
119	0x3c1032c2	0.008801164
120	0x3bb600c5	0.005554291
121	0x3cd7b919	0.026333379
122	0x3c4d1feb	0.012519817
123	0x3c659097	0.014011524
124	0x3cd5cbe7	0.026098205
125	0x3c0808f0	0.008302912
126	0x3bb4ceec	0.005517831
127	0x3c86ba10	0.016446143
128	0x3ccf0384	0.025270231
129	0x3cde6cd3	0.0271515
130	0x3b1bf28c	0.0023795692
131	0x3c21dc94	0.00987925
132	0x3ca5b6c3	0.02022875
133	0x3c2d9be6	0.010596251
134	0x3c29d2aa	0.010365168
135	0x3d019363	0.0316347
136	0x3c653918	0.013990663
137	0x3c4c1d4c	0.012458157
138	0x3c0b0781	0.008485676
139	0x3c748c3a	0.014926011
140	0x3cc40c64	0.02393169
141	0x3c8a0bcf	0.016851334
142	0x3bc19173	0.0059072315
143	0x3d29d9f6	0.04146763
144	0x3ba8c12a	0.00514998
145	0xbc3a8d36	-0.011386206
146	0xbcd905a8	-0.026491955
147	0xbcd9c142	-0.02658141
148	0xbc1ecb1a	-0.009691978
149	0x3c49e5d8	0.012322865
150	0xbc1baa3a	-0.009501034
151	0xbb51e830	-0.0032029264
152	0xbc9f8657	-0.019473238
153	0xbc7b63ae	-0.01534359
154	0x3a7f0bb7	0.00097292237
155	0xb9e2295b	-0.0004313689
156	0xbc17b9a9	-0.009260573
157	0x3b993051	0.004674949
158	0xbc0877cd	-0.008329344
159	0xbcd1f603	-0.025630003
160	0x3c789344	0.01517183
161	0x3c7d98ce	0.015478326
162	0x3c16cb26	0.009203708
163	0xbb188dc2	-0.0023277854
164	0x3cd5d064	0.026100345
165	0x3c0d576e	0.008626802
166	0x3b1c26c3	0.0023826815
167	0x3ca7cfb5	0.020484785
168	0x3b896bb7	0.004193749
169	0x3cd5e996	0.026112359
170	0x3bc84424	0.0061116386
171	0x3c944916	0.018101256
172	0x3cb8d2e0	0.02256149
173	0x3cb921f3	0.022599196
174	0x3ca63669	0.020289617
175	0x3cbbe554	0.0229365
176	0xbc2aba98	-0.010420464
177	0xbbe0d923	-0.006861822
178	0x3bf210f7	0.0073872763
179	0x3c877342	0.016534451
180	0xbb98e2e5	-0.00466572
181	0xbbdd0166	-0.0067445515
182	0x3c545071	0.012958632
183	0x3b672316	0.0035268716
184	0x3bd74867	0.0065699103
185	0x398cb209	0.00026835527
186	0xbbeaa4dc	-0.007160766
187	0xbc3afaca	-0.011412332
188	0x3b5baf3f	0.0033521203
189	0x3ab185eb	0.0013543939
190	0x3ce6de9c	0.02818232
191	0xbc24588f	-0.01003088
192	0xbc64e9cc	-0.013971757
193	0x3c9bd51b	0.019022515
194	0x3c51f7e5	0.01281545
195	0x3c390b56	0.011294207
196	0x3b8a661f	0.0042235996
197	0x3c14baa7	0.0090777045
198	0x3cf409d5	0.029789845
199	0xbc07ae41	-0.008281291
200	0xbbb58748	-0.0055398084
201	0x397b5564	0.00023969036
202	0x3caa4534	0.020784952
203	0x3bebd220	0.0071966797
204	0xbb602554	-0.0034201937
205	0x3c86d53b	0.016459098
206	0xbbcd816f	-0.006271533
207	0x3cb23cef	0.021757571
208	0xbb4698ef	-0.0030303558
209	0x3cc882c4	0.024476416
210	0xbaadb3e3	-0.0013252463
211	0x3c59d9cc	0.013296556
212	0xbb3694a9	-0.0027859604
213	0x3cd8928a	0.026437063
214	0x3ba41abe	0.0050080707
215	0x3c9b44bf	0.01895368
216	0x3c39c8dc	0.0113393925
217	0x3ca89c1a	0.020582248
218	0xba562c7b	-0.000817008
219	0x3ce9136a	0.02845164
220	0x3c742957	0.014902434
221	0x3c14af05	0.009074931
222	0x3a585803	0.0008252861
223	0x3b18a526	0.0023291796
224	0x3bb15782	0.005412043
225	0x3c36a3d1	0.011147455
226	0x3c8679b6	0.016415458
227	0x3b7805b3	0.0037845194
228	0xbbc1f3d8	-0.005918961
229	0x3b35fa87	0.0027767734
230	0xbc902caf	-0.017599432
231	0x3c01b78f	0.007917299
232	0x3c14d811	0.009084717
233	0x3bb6824d	0.0055697323
234	0x3b77f9e7	0.0037838162
235	0xbca462e8	-0.020066693
236	0xbce291de	-0.027657446
237	0x3bedebc0	0.0072607696
238	0xbc5eb595	-0.013593097
239	0xbb75dddd	-0.0037516274
240	0xbc0af1b1	-0.008480475
241	0xbc4ca715	-0.012491007
242	0xbb26feb4	-0.0025481405
243	0xbccba52f	-0.02485904
244	0x3af86e29	0.0018953729
245	0xbd34a95a	-0.04410682
246	0xbce399c3	-0.02778328
247	0xbc8a0a5e	-0.016850647
248	0xbbfab1d9	-0.0076505956
249	0xbc703ea9	-0.014663377
250	0xbb8b8be6	-0.0042586206
251	0xbce6a0e2	-0.028152887
252	0x3be1b974	0.006888563
253	0xbc7359e9	-0.014852979
254	0x3bb582d2	0.0055392766
255	0xbbeb2d18	-0.0071770065

shortBranch.2.bias f4 [64]
0	0xbd791006	-0.060806297
1	0x3ea20431	0.31643823
2	0xbe853048	-0.26013398
3	0x3de75337	0.11295169
4	0x3db718a6	0.08940248
5	0xbe6c7a69	-0.23093571
6	0xbc37e22b	-0.011223356
7	0x3df2573e	0.118330464
8	0x3e5de73e	0.21670243
9	0xbe2d5239	-0.16925897
10	0x3dc680d0	0.09692538
11	0xbc110023	-0.00885013
12	0xbe6846fa	-0.22683325
13	0xbe88e379	-0.26736048
14	0x3c93fcc3	0.018064862
15	0xbe8ba6fa	-0.2727583
16	0xbe88496c	-0.26618516
17	0xbe764c95	-0.24052651
18	0xbd8befaa	-0.06832822
19	0xbd4e95a7	-0.05043569
20	0x3e8cc4dd	0.27493945
21	0x3e8048b3	0.25055465
22	0x3e8be403	0.27322397
23	0xbe669068	-0.22516024
24	0x3e4012a5	0.18757112
25	0x3e79e6f1	0.24404503
26	0xbc9ae603	-0.018908506
27	0xbbacefc2	-0.005277605
28	0x3d5d41f3	0.054017972
29	0xbe804b4a	-0.2505744
30	0xbe3c71c1	-0.18402769
31	0xbe17a6de	-0.14809749
32	0xbe6f38a7	-0.23361455
33	0x3e853466	0.2601654
34	0x3e945314	0.28969634
35	0xbd36129a	-0.044451334
36	0x3e4c355b	0.19942228
37	0xbca122e2	-0.019669954
38	0x3e5ffceb	0.21873824
39	0x3e17bd23	0.14818244
40	0x3da92c1d	0.08260367
41	0xbdae3c02	-0.08507539
42	0xbd083f5c	-0.03326355
43	0xbe9b3259	-0.3031185
44	0x3e87bc7d	0.26510993
45	0xbc569ec8	-0.01309938
46	0x3e7c63b5	0.2464741
47	0xbe6cb46e	-0.23115703
48	0xbe6dd0c3	-0.23224168
49	0xbe77b2f5	-0.2418936
50	0xbd62430f	-0.055239733
51	0x3de11b3a	0.10991521
52	0xbd52da8a	-0.051477946
53	0x3dc49367	0.09598427
54	0x3e2d72d5	0.16938336
55	0xbe5a1220	-0.21295977
56	0x3e383779	0.17989911
57	0xbe76c0a8	-0.2409693
58	0x3d4f09ff	0.050546642
59	0xbe837efc	-0.2568282
60	0x3d5fe44c	0.05466108
61	0xbdc35976	-0.09538548
62	0x3e7902bf	0.24317454
63	0x3d9beee5	0.07613925

shortBranch.4.weight f4 [32, 64]
0	0xbc7b3fe4	-0.015335057
1	0xbbac5c54	-0.00526003
2	0x3cbd9b3e	0.023145314
3	0x3a828c00	0.0009959936
4	0xbe14c88a	-0.14529625
5	0xbb2d5d8c	-0.0026453463
6	0xbe19aeca	-0.15008083
7	0xbe0e2d59	-0.13884486
8	0xbd9638d5	-0.073350586
9	0xbd7cac41	-0.06168771
10	0xbd5ac38c	-0.053409144
11	0xbba3b12e	-0.0049954867
12	0xbc1655cf	-0.009175732
13	0x3c500248	0.012695856
14	0xbd11679d	-0.035499204
15	0x3bb36695	0.005474875
16	0xb9f85268	-0.00047363644
17	0x3bbccae4	0.005761491
18	0x3ca159a3	0.019696062
19	0xbcd23dff	-0.025664328
20	0xb97a261e	-0.00023856058
21	0x3bc2002e	0.0059204316
22	0xbcba1e3d	-0.022719497
23	0xbc193fde	-0.009353606
24	0x3c1f3475	0.009717097
25	0x3b7679a9	0.0037609136
26	0xbdd04473	-0.10169306
27	0x3d03ef10	0.03221041
28	0xbe7b0193	-0.2451232
29	0x38502e4f	4.9634193e-05
30	0xbe0cbdaf	-0.13744234
31	0xbbea084c	-0.0071421023
32	0xbbf26686	-0.0073974757
33	0xbc33954b	-0.010960887
34	0x3c3b0fb0	0.011417314
35	0xbe6250a9	-0.22101082
36	0xbc5aad90	-0.013347045
37	0x3daabb39	0.08336491
38	0xbd7bf260	-0.061510444
39	0xbda49870	-0.08036888
40	0x3e12b9b2	0.1432865
41	0x3e5b7ae9	0.21433605
42	0xbd9607c2	-0.073256984
43	0x3c7dba29	0.015486279
44	0x3c19d129	0.009388247
45	0x3e85873f	0.26079747
46	0xba8c6f78	-0.0010714373
47	0xbc22d914	-0.009939451
48	0xbb96367e	-0.0045841327
49	0x3a456ed9	0.0007531471
50	0xbe7d7cfd	-0.2475471
51	0xbe20d949	-0.15707888
52	0xbe8a0121	-0.26953986
53	0xbe4bc391	-0.19898821
54	0x3e2f13a2	0.17097333
55	0xbd134187	-0.035951164
56	0xbdc50547	-0.09620147
57	0xbc6db1eb	-0.014507751
58	0xbce459c8	-0.027874842
59	0xbc187627	-0.009305513
60	0xbd055f3a	-0.03256152
61	0x3bd07ee5	0.0063627833
62	0xbd96133a	-0.07327886
63	0xbcc753d0	-0.024331957
64	0xbbc49bcc	-0.0060000177
65	0xbd82d874	-0.063889414
66	0x3df532d9	0.11972589
67	0xbb93354f	-0.004492439
68	0x3ca95daf	0.020674555
69	0x3d4de8b0	0.050270736
70	0xbd21a01b	-0.03945933
71	0x3b396b83	0.0028292842
72	0xbc9986df	-0.01874107
73	0xbc88ff02	-0.01672316
74	0xbceea3f2	-0.02913091
75	0x3c371618	0.011174701
76	0x3db0ba58	0.08629292
77	0x3e0e9c0c	0.13926715
78	0x3a722f25	0.00092385925
79	0x3e31b6b1	0.17354847
80	0x3e597b5c	0.21238464
81	0x3dba1880	0.09086704
82	0x3c374c0c	0.011187565
83	0xbcaa3f8d	-0.020782256
84	0xbdf61494	-0.12015644
85	0xbe35170b	-0.17684571
86	0xbe2b5b7d	-0.16734119
87	0x3c90505c	0.017616443
88	0xbc6fbf20	-0.01463297
89	0xbdedb316	-0.116064236
90	0xbb2a6baa	-0.0026004114
91	0xbc7096ba	-0.0146843735
92	0xbc1a6350	-0.009423092
93	0x3ce0316e	0.02736732
94	0xbce8ac70	-0.028402537
95	0x3c199209	0.009373196
96	0x3e52b1f1	0.20575692
97	0xbe25b58f	-0.1618254
98	0xbe24e4ec	-0.16102952
99	0x3c547d05	0.01296926
100	0xbd87fac8	-0.066396296
101	0x3d050ccd	0.03248291
102	0xbe0032c7	-0.1251937
103	0x3ce70f68	0.028205588
104	0xbc5752e0	-0.0131423175
105	0xbc87c196	-0.016571801
106	0x3c8b5b8f	0.017011432
107	0x3e22727d	0.15863986
108	0xbe3636bc	-0.17794317
109	0x3bdedc74	0.0068011824
110	0xbd2850b0	-0.041092575
111	0x3e40947c	0.18806642
112	0x3df89471	0.12137688
113	0x3dec0bab	0.11525663
114	0xbd0b66ea	-0.034033693
115	0x39916a0f	0.00027735575
116	0xbb57e10a	-0.003294053
117	0x3c99cbb2	0.018773887
118	0x3ca090ac	0.019600235
119	0xbd3d9bf8	-0.04629132
120	0xbd800a01	-0.06251908
121	0x3d667c75	0.056271035
122	0x3c92c0bd	0.01791417
123	0x3d1c7b87	0.038203742
124	0xbac77f8a	-0.0015220505
125	0x3c320b89	0.010867008
126	0xbdf1302a	-0.11776765
127	0x3c800bfe	0.015630718
128	0x3dfa24b3	0.12214031
129	0xbe05cb8c	-0.13065928
130	0x3e12c744	0.14333826
131	0xbc237f15	-0.009979029
132	0x3bcf8c97	0.0063338983
133	0x3c79b92a	0.0152419
134	0xbd19006d	-0.03735392
135	0xbd3ba594	-0.045812204
136	0xbde79cd1	-0.11309207
137	0x3bfb161d	0.007662548
138	0xbdc79ea0	-0.09747052
139	0xbd9258c2	-0.071458355
140	0x3c0e3f5a	0.008682096
141	0x3dff1bb0	0.12456453
142	0x3d2269eb	0.039651792
143	0xbbbf3791	-0.0058354815
144	0x3c8ce2d3	0.017198002
145	0x3d0129d9	0.03153405
146	0x3dd002eb	0.101568066
147	0xbd18b4af	-0.03728169
148	0xbd5ecf44	-0.054396883
149	0x3c077759	0.008268201
150	0xbdf7d9c9	-0.12102086
151	0x3cb243dc	0.021760873
152	0xbc79a496	-0.015236994
153	0x3bc34e2e	0.0059602475
154	0x3dc9d31c	0.09854719
155	0xbd686c7a	-0.056744076
156	0xbd19c25f	-0.037538882
157	0x3e11e627	0.14247952
158	0x3e2fc430	0.17164683
159	0x3c94ce54	0.018164791
160	0xbc18fe3c	-0.009337958
161	0xbdff9419	-0.12479419
162	0xbb9e3684	-0.004828276
163	0x3da9d941	0.08293391
164	0xbc3a006c	-0.01135264
165	0x3d2ccef2	0.042189546
166	0xbdbbe150	-0.09173834
167	0xbc8de302	-0.01732016
168	0xbdcfd0e9	-0.10147268
169	0x3cf907b0	0.030399173
170	0x3ddc7869	0.10765154
171	0x3dfdb176	0.123873636
172	0xbb126189	-0.0022335968
173	0xbce90d00	-0.028448582
174	0xbc033624	-0.008008514
175	0xbbc413c4	-0.0059838016
176	0xbb82a2e5	-0.0039867037
177	0x3bcbd1a9	0.006220062
178	0x3d3438e8	0.043999583
179	0xbd5ae522	-0.053441174
180	0x3c8e5c0f	0.017377881
181	0xbd146d34	-0.036236957
182	0xbe211d61	-0.15733863
183	0x3e2d439a	0.16920319
184	0xbd829f16	-0.063779995
185	0x3c663e76	0.014052978
186	0xbdc6f7cd	-0.09715233
187	0x3c607b36	0.013701251
188	0xbd86b2b4	-0.06577054
189	0x3c9d1191	0.019173415
190	0xbdc9e302	-0.098577514
191	0xbdc3c543	-0.09559109
192	0x3c65221f	0.013985186
193	0x3c92a2bf	0.017899869
194	0xbcb39405	-0.021921167
195	0x3c35d457	0.011097989
196	0x3e1470d1	0.14496161
197	0x3a6fdb6d	0.00091498235
198	0x3e0b9ca0	0.13633966
199	0x3e3ec7af	0.18630861
200	0x3de55804	0.11198428
201	0x3d98dadc	0.07463619
202	0x3d4ca81a	0.049965
203	0xbc1558ee	-0.009115441
204	0x3c89b602	0.01681042
205	0xbce21e65	-0.027602384
206	0x3d34b7aa	0.04412047
207	0x3b805ce9	0.0039173258
208	0x3c44ea09	0.012018689
209	0x3c02e56b	0.007989268
210	0xbbc0b9ff	-0.0058815475
211	0x3c7bbf1d	0.015365389
212	0x39dd09f6	0.00042159826
213	0xbc3ceaff	-0.011530637
214	0x3d4bf1f0	0.049791276
215	0x3a620c9d	0.00086230953
216	0x3b83c6ce	0.004021502
217	0xbafabb11	-0.0019129236
218	0x3db5ba99	0.08873481
219	0xbbdc13ce	-0.006716228
220	0x3e67e3f2	0.22645548
221	0xbc334988	-0.010942824
222	0x3d9c6531	0.07636488
223	0xbc7a63c7	-0.015282578
224	0x3c55fb88	0.013060458
225	0x3d0bb642	0.03410936
226	0xbc314caa	-0.010821501
227	0x3e60a120	0.21936464
228	0x3d273333	0.04082031
229	0xbd5ae1a5	-0.053437848
230	0x3d7e67bc	0.062110648
231	0x3deb47fc	0.11488339
232	0xbe20a049	-0.15686144
233	0xbe75c31e	-0.24000213
234	0x3daf1d1d	0.08550475
235	0xbc6881bd	-0.014191088
236	0xbc6af813	-0.014341372
237	0xbe811fad	-0.2521948
238	0xbae55b65	-0.0017498551
239	0x3ba80ede	0.0051287254
240	0x3c2ab6f8	0.0104196
241	0x3c353299	0.011059427
242	0x3e7b3181	0.24530603
243	0x3e5edeb0	0.21764636
244	0x3e8265d3	0.2546831
245	0x3e6555a3	0.22395949
246	0xbe1c48f8	-0.1526221
247	0x3ccab721	0.024745526
248	0x3dc9f1ff	0.0986061
249	0x3c609c26	0.013709104
250	0x3d28f73e	0.041251414
251	0x3b1d9d2a	0.0024049976
252	0x3cccaaa2	0.024983708
253	0x3b98c870	0.004662566
254	0x3d84365f	0.06455683
255	0x3d3fcec9	0.046828065

shortBranch.4.bias f4 [32]
0	0xbd9d4592	-0.07679285
1	0xbd537629	-0.05162636
2	0xbba52021	-0.0050392305
3	0x3db71388	0.08939272
4	0x3d7a1f71	0.06106514
5	0xbc60b229	-0.013714352
6	0x3d5a85dc	0.053350314
7	0xbdcc58a9	-0.09977848
8	0x3d78517e	0.060624592
9	0x3cfeaeff	0.031089304
10	0x3d9284e9	0.07154257
11	0x3d6f4782	0.058417805
12	0x3df6fbe0	0.1205976
13	0xbdd1e631	-0.10248984
14	0xbd96a8bb	-0.073564015
15	0xbcc44b41	-0.023961665
16	0xbd7392c8	-0.059466153
17	0x3d81f6dc	0.06345913
18	0xbcdab98b	-0.026699802
19	0x3b82fda8	0.0039975233
20	0x3d33fc99	0.043942068
21	0x3d46cacf	0.048533257
22	0x3ded4788	0.11585909
23	0xbcb2b2c6	-0.021813761
24	0xbdf03a35	-0.11729852
25	0x3ce273d4	0.027643122
26	0xbc979eab	-0.018508276
27	0xbdc3ad2f	-0.095545165
28	0x3bb9ea93	0.0056737154
29	0xbdcfa675	-0.10139171
30	0xbdb12262	-0.08649136
31	0xbd151543	-0.03639723

shortBranch.6.weight f4 [10, 32]
0	0xbda4039f	-0.08008503
1	0x3d0886b4	0.033331588
2	0x3d91755b	0.07102462
3	0x3d7addef	0.06124681
4	0xbddd4bb7	-0.10805457
5	0x3dcbb55b	0.099467
6	0x3d575e3b	0.0525801
7	0x3e2271cf	0.15863727
8	0xbc00bd64	-0.007857654
9	0xbd83106a	-0.06399615
10	0xbdb2aa61	-0.087239034
11	0xbda4904f	-0.08035337
12	0xbdb2c646	-0.08729224
13	0x3d687d65	0.05676021
14	0x3d9b3620	0.07578683
15	0xbe00e151	-0.12585951
16	0x3cd58deb	0.026068648
17	0x3dc51161	0.096224554
18	0x3d0d85af	0.03455132
19	0x3d85b2b4	0.065282255
20	0xbd653b33	-0.05596466
21	0xbdc32752	-0.09528984
22	0xbdb5d6cc	-0.0887886
23	0xbd47ed8e	-0.048810534
24	0x3db6737f	0.08908748
25	0x3df54f32	0.11977996
26	0xbd830aa9	-0.06398518
27	0x3daf3d70	0.0855664
28	0xbe10b7b4	-0.14132577
29	0x3e1b611c	0.15173763
30	0x3daecbf7	0.08534997
31	0x3d9cea54	0.07661882
32	0xbda21ea9	-0.07916004
33	0x3d0c56cc	0.034262463
34	0x3d969b67	0.073538594
35	0x3d65e45d	0.056125987
36	0xbdd0feb0	-0.10204828
37	0x3dc99f0c	0.09844789
38	0x3d560d42	0.052258737
39	0x3e25cc87	0.16191302
40	0xbc9589b7	-0.018254144
41	0xbd7e7409	-0.06212238
42	0xbdc28874	-0.094986826
43	0xbda8ca66	-0.082417294
44	0xbdc291d5	-0.095004715
45	0x3d75a487	0.05997136
46	0x3daab506	0.08335309
47	0xbe097477	-0.13423334
48	0x3cbc3451	0.022974165
49	0x3dca1103	0.09866526
50	0x3d0ac39b	0.03387795
51	0x3d8a8f7c	0.06765649
52	0xbd5fa0f9	-0.054596875
53	0xbdc34acf	-0.09535753
54	0xbdbd908a	-0.09256084
55	0xbd560407	-0.052249935
56	0x3dbda1ac	0.09259352
57	0x3df9afd0	0.12191737
58	0xbd73638d	-0.05942111
59	0x3db2adab	0.08724531
60	0xbe07bce2	-0.13255647
61	0x3e1da807	0.15396129
62	0x3da7d2a5	0.08194474
63	0x3d91ef80	0.07125759
64	0xbdbbf016	-0.09176652
65	0x3ce377cd	0.027767086
66	0x3d1b436f	0.037906107
67	0x3da10883	0.078629516
68	0xbdabf238	-0.08395809
69	0x3dd40a66	0.10353546
70	0x3d9082e6	0.07056217
71	0x3e15c6ae	0.14626572
72	0x3d555a34	0.052087978
73	0xbd820d16	-0.06350152
74	0xbd37774e	-0.044791512
75	0xbd7c189d	-0.06154691
76	0xbd6962d2	-0.056979008
77	0x3d22a267	0.03970566
78	0x3d6e9f2c	0.058257267
79	0xbdb7591c	-0.08952543
80	0x3cab9b9a	0.02094822
81	0x3d87db63	0.066336416
82	0x3d0252ad	0.031817127
83	0x3cf58df0	0.029974908
84	0xbd404937	-0.046944823
85	0xbd976a7c	-0.07393357
86	0xbd9d5960	-0.076830626
87	0xbd704d85	-0.05866768
88	0x3da18390	0.07886422
89	0x3d9f0523	0.077646516
90	0xbd923a59	-0.07140035
91	0x3d9512b6	0.072789595
92	0xbe192b2c	-0.14957875
93	0x3e0a2ff4	0.13494855
94	0x3da5459b	0.08069917
95	0x3d758f1c	0.059950933
96	0xbdd9c705	-0.10633663
97	0xbeb7b57f	-0.35880658
98	0x3b829e86	0.0039861826
99	0x3ddc17ef	0.107467525
100	0x3e78000d	0.2421877
101	0x3d43ab69	0.04777089
102	0x3da322c3	0.07965615
103	0x3e39d329	0.18146957
104	0x3d1b8c17	0.037975397
105	0x3e7da843	0.24771218
106	0x3e5fc2b6	0.2185162
107	0x3e6cbf59	0.23119868
108	0x3e8cb8a6	0.27484626
109	0xbe6606fe	-0.22463605
110	0xbe83987a	-0.25702268
111	0xbd0fbdf0	-0.035093248
112	0xbea5e728	-0.3240292
113	0x3df90822	0.12159754
114	0xbe9a0911	-0.30085042
115	0xbc967ca4	-0.01836998
116	0x3c39111a	0.011295581
117	0xbdfd6441	-0.123726375
118	0x3e4ebd10	0.20189309
119	0xbc85b523	-0.016321724
120	0xbe8aea6e	-0.2713198
121	0x3daab868	0.08335954
122	0xbda60c55	-0.08107821
123	0xbe4542f5	-0.19263823
124	0xbe034ef6	-0.1282309
125	0xbe269387	-0.16267215
126	0x3da399e3	0.07988336
127	0x3dd59285	0.10428337
128	0x3eb6fbdb	0.35739025
129	0x3d0a8666	0.03381958
130	0x3c2702c2	0.010193529
131	0xbeb08464	-0.34476006
132	0xbdcff55a	-0.10154219
133	0x3da11626	0.078655526
134	0xbeb4aecc	-0.3528961
135	0xbe5679ef	-0.20944951
136	0xbe76cb53	-0.24101
137	0xbd867d19	-0.06566829
138	0xbdbd6b0e	-0.09248935
139	0xbda5f45c	-0.081032485
140	0xbda8464d	-0.08216534
141	0x3d6625eb	0.056188505
142	0x3d96150f	0.07328235
143	0xbdd5be74	-0.10436717
144	0x3cf1ff7d	0.029540772
145	0xbe19245f	-0.1495528
146	0x3d13f929	0.03612629
147	0x3d07dc5e	0.033169143
148	0x3c118df2	0.00888394
149	0x3e780d01	0.2422371
150	0xbdb529a1	-0.08845831
151	0xbcf40c6a	-0.029791076
152	0x3dbb00a7	0.09130984
153	0x3d41a33a	0.047274806
154	0x3eb4dd6c	0.3532518
155	0x3daf513c	0.08560416
156	0x3e864e98	0.26231837
157	0x3e18f5d5	0.14937527
158	0xbe1a07fe	-0.15042111
159	0xbe857ad3	-0.2607027
160	0xbde34164	-0.11096457
161	0xbcaf969a	-0.021434117
162	0x3d8acc1c	0.06777212
163	0x3de10ca2	0.10988738
164	0x3e576ba5	0.21037157
165	0x3deb39bd	0.11485622
166	0x3db5a0bf	0.088685505
167	0x3e40b64c	0.1881954
168	0x3d0510c5	0.032486696
169	0x3b31b742	0.0027117287
170	0xbd3e6056	-0.04647859
171	0x3e566fb6	0.20941052
172	0xbd164b60	-0.036692977
173	0xbe4e3076	-0.20135674
174	0xbe6c03ba	-0.23048297
175	0xbdffcb01	-0.12489892
176	0xbcee8049	-0.029113906
177	0x3e05a505	0.13051231
178	0xbcad20f4	-0.021133877
179	0x3d84ec2f	0.06490361
180	0xbd85af06	-0.06527524
181	0xbe0610d5	-0.13092358
182	0x3e394da8	0.1809603
183	0xbd8ac321	-0.06775499
184	0x3d3b0b6e	0.045665197
185	0x3dfcafad	0.12338195
186	0xbdaf4177	-0.08557408
187	0xbe2de92d	-0.16983481
188	0xbe141219	-0.14460029
189	0xbe0c4d94	-0.13701469
190	0x3dc47be6	0.09593944
191	0x3ddec4ef	0.10877406
192	0x3d067ec7	0.032835748
193	0xbebe2a75	-0.37141767
194	0xbe0db72e	-0.13839409
195	0x3aea77be	0.0017888469
196	0x3e7cee62	0.24700311
197	0xbea85130	-0.3287444
198	0xbd48312d	-0.048875023
199	0x3ca4bb69	0.020108895
200	0xbcea6e61	-0.028617086
201	0x3e8458d1	0.25849012
202	0x3e8334f9	0.25626352
203	0x3e783df4	0.24242383
204	0x3e99b2c9	0.30019215
205	0xbe71811a	-0.23584405
206	0xbe87b1d7	-0.2650287
207	0x3da88f99	0.08230514
208	0xbeae7970	-0.34077024
209	0x3db11e4f	0.08648359
210	0xbea45507	-0.3209612
211	0xbe1f2298	-0.1554054
212	0x3ebabe5c	0.36473358
213	0xbd0b6d5c	-0.03403984
214	0x3e5ae40e	0.21376058
215	0x3ee19c2d	0.44064465
216	0xbe921015	-0.28527895
217	0xbd115b74	-0.035487607
218	0x3d6ea51d	0.058262933
219	0xbe4c6a20	-0.19962358
220	0x3cdff927	0.027340485
221	0xbe2d36af	-0.16915391
222	0xbeb00dea	-0.34385616
223	0x3c9f4e49	0.019446509
224	0xbe17d965	-0.14829023
225	0xbca31944	-0.019909509
226	0xbec3cbaa	-0.3824132
227	0x3e0a2f10	0.13494515
228	0xbdfee89a	-0.12446709
229	0xbe00ddbb	-0.12584583
230	0x3dea709a	0.11447258
231	0xbde89952	-0.113573685
232	0x3e33e9c9	0.1756965
233	0xbd49ad48	-0.04923752
234	0x3ea365ab	0.31913504
235	0xbdd45e74	-0.10369578
236	0x3e881a97	0.26582786
237	0x3d9a07e0	0.07521033
238	0x3dcf14e6	0.10111408
239	0x3e9ec41c	0.31008995
240	0xbbdc3b7a	-0.0067209573
241	0xbe9f97bb	-0.3117045
242	0x3b951843	0.0045500114
243	0xbec07bc5	-0.3759443
244	0x3e9bf7f8	0.30462623
245	0x3e66f3cc	0.22553939
246	0xbddb5d39	-0.1071114
247	0x3d7e4cec	0.062085077
248	0xbdbcc15b	-0.09216567
249	0xbebb4139	-0.36573198
250	0xbdc83b9b	-0.09776994
251	0x3dcd3f4d	0.10021839
252	0xbe48ffec	-0.19628876
253	0x3e2e4516	0.17018542
254	0xbd143bdb	-0.036189895
255	0xbe60e7a9	-0.21963371

shortBranch.6.bias f4 [10]
0	0xbe153263	-0.14570002
1	0xbe2cb2f6	-0.16865143
2	0x3d851691	0.06498445
3	0x3df603c8	0.1201244
4	0x3e189f3f	0.14904498
5	0x3e89c9dd	0.26911822
6	0x3c99d6d2	0.018779192
7	0x3e4bfc80	0.1992054
8	0xbe9ffe2c	-0.31248605
9	0x3d7f4c60	0.062328696

longBranch.0.weight f4 [64, 64, 3]
0	0xbaa29cf0	-0.001240639
1	0xbd9ebbb7	-0.077506475
2	0xbdf20c89	-0.11818797
3	0x3cc3673b	0.023852935
4	0xbbfb1270	-0.00766211
5	0x3c1fff4d	0.009765458
6	0x3d4f675f	0.05063569
7	0xbceb8ece	-0.028754618
8	0x39a5521f	0.00031532437
9	0xbd723962	-0.059136756
10	0xbd3ce322	-0.04611505
11	0x3d5cfd0b	0.053952258
12	0x3d9a6119	0.07538051
13	0xbb03533c	-0.0020038625
14	0x3d726272	0.059175916
15	0x3cfa22cc	0.03053417
16	0x3da7aafb	0.08186909
17	0xbce11ec1	-0.027480485
18	0xbd3ad47c	-0.045612797
19	0xbd29c3d1	-0.04144651
20	0x3b1dd05a	0.0024080486
21	0x3d1f4524	0.038884297
22	0x3c9399ab	0.01801761
23	0x3cec8d27	0.0288759
24	0xbcb91fa5	-0.022598097
25	0x3d05172a	0.032492794
26	0x3d972dd4	0.07381788
27	0xbd13f596	-0.03612288
28	0xbbff2df2	-0.0077874595
29	0xbd2c69ae	-0.04209297
30	0xbd2d4c51	-0.04230911
31	0xbc02bb24	-0.007979188
32	0x3cccf2d4	0.025018133
33	0x3bc2f871	0.0059500267
34	0xbbb1c266	-0.0054247854
35	0x3c702894	0.014658112
36	0x3d33df76	0.04391428
37	0xbaa942df	-0.0012913606
38	0x3d5c0285	0.05371334
39	0x3c134bc6	0.008990234
40	0xbd3baed1	-0.045821015
41	0x3d1daa7c	0.038492665
42	0xbcc841c4	-0.024445422
43	0x3d1d5e1e	0.038419835
44	0xbc9eea67	-0.019398881
45	0x3aedbe2c	0.0018138341
46	0xbc0dea08	-0.008661754
47	0x3ae22bc5	0.0017255476
48	0xbd86515e	-0.06558488
49	0x3b20ceda	0.0024537356
50	0x3d553746	0.052054666
51	0xbb5b1ef4	-0.0033435198
52	0xbc704adc	-0.014666285
53	0x3c8812bc	0.016610496
54	0x3d0e0ab4	0.034678176
55	0x3cf2ca04	0.029637344
56	0x3d43de95	0.047819693
57	0x3d59b930	0.053155124
58	0x3d282791	0.04105336
59	0x3ab17750	0.0013539586
60	0xbddd0d9e	-0.10793613
61	0x3c6f5790	0.014608279
62	0xbdaffcbc	-0.08593127
63	0xbbbcfc4b	-0.0057673804
64	0xbc8c1ae5	-0.017102668
65	0x3d117619	0.035513017
66	0x3d25d9c0	0.040490866
67	0xbd712956	-0.05887731
68	0xbbe0af7e	-0.006856858
69	0x3cf7f1b9	0.03026663
70	0x3c9997e8	0.018749192
71	0x3c4a8d01	0.0123627195
72	0x3bac726a	0.0052626627
73	0xbd53114f	-0.05153018
74	0x3cdea72f	0.027179329
75	0xbd62987b	-0.055321198
76	0x3d0bc0dc	0.034119472
77	0xbcf5c196	-0.029999536
78	0xbba4ffff	-0.0050354
79	0xbdafdffc	-0.085876435
80	0xbcec0243	-0.028809672
81	0x3bc01cb6	0.0058627976
82	0x3d386b22	0.045024045
83	0xbc43cd49	-0.011950799
84	0x3c264ab2	0.010149645
85	0x3d2d95d9	0.042379234
86	0xbbd9ed1b	-0.0066505796
87	0xbd2ec5fe	-0.04266929
88	0x3d58a133	0.052888107
89	0x3d14661f	0.036230203
90	0xbd6dd7dd	-0.05806719
91	0x3c1b2c9a	0.009471083
92	0xb9ec1550	-0.00045029307
93	0xbd6cc58f	-0.057805594
94	0xbcfb77c3	-0.030696755
95	0xbcab2e74	-0.020896174
96	0xbd7043b2	-0.05865831
97	0xbcffa2ab	-0.031205496
98	0x3c27ffe1	0.010253877
99	0xbcfe4544	-0.031038888
100	0x39b9874b	0.0003538675
101	0x3d51a36e	0.05118125
102	0x3cf69df7	0.03010462
103	0x3d0c8a93	0.034311842
104	0x3d822ee1	0.06356598
105	0xbb8ae0c9	-0.0042382223
106	0xbdafeca1	-0.08590055
107	0xbd13e82d	-0.036110092
108	0x3cb0e1fe	0.021592136
109	0xbb8384e5	-0.004013645
110	0x3c326730	0.01088886
111	0xbd331129	-0.043717537
112	0xbca76352	-0.020433102
113	0x3c386f9e	0.01125708
114	0x3cad144b	0.02112784
115	0x3d26c5b3	0.040715884
116	0xbd134001	-0.03594971
117	0x3c6862f8	0.014183752
118	0xbd15eccd	-0.036602784
119	0x3d51ea36	0.05124875
120	0xbd3a3cfd	-0.04546832
121	0xbd2d4c35	-0.042309005
122	0xbd2d1da7	-0.042264607
123	0xbda06bfc	-0.078330964
124	0x3d1c81a8	0.038209587
125	0xbdce9348	-0.100866854
126	0xbc55b1a2	-0.013042839
127	0x3d0d0147	0.034425046
128	0x3cdac7ce	0.026706602
129	0x3baa26af	0.0051925997
130	0x3ba47062	0.00501828
131	0xbd278f05	-0.04090788
132	0xbc577d56	-0.013152441
133	0xbd561a6d	-0.052271295
134	0x3d813d29	0.063104935
135	0x3d6f4a9a	0.058420755
136	0xbce7dc5e	-0.028303321
137	0xbcf0e25b	-0.02940481
138	0x3ca4cd81	0.020117523
139	0x3cb1adca	0.021689314
140	0x3c30546e	0.010762317
141	0xbd4263a3	-0.047458302
142	0xbd7387b1	-0.059455577
143	0xbd3f734e	-0.046740822
144	0x3b59fed8	0.003326347
145	0x3c8c4d5f	0.017126737
146	0xba711d6a	-0.00091978034
147	0x3d101ed6	0.035185657
148	0xbcda8080	-0.026672602
149	0x3d477f2b	0.04870526
150	0xbbf359f2	-0.007426494
151	0xbbf6d7d3	-0.0075330525
152	0x3ca362a5	0.019944498
153	0x3d6b532d	0.05745237
154	0x3d72e888	0.05930379
155	0x3d061dc8	0.032743245
156	0xbd953b26	-0.07286672
157	0x3ca63049	0.020286696
158	0xbc059edb	-0.00815555
159	0x3d5ce8c1	0.05393291
160	0x3d9eab6f	0.07747542
161	0x3d29c2cc	0.04144554
162	0x3c3697b2	0.011144565
163	0x3ce0407b	0.027374497
164	0x3d9e6138	0.07733387
165	0xbd9580c6	-0.07299952
166	0x3d020aaf	0.03174847
167	0xbb2570bf	-0.0025244204
168	0x3b8f23ef	0.0043682973
169	0xbc0940d3	-0.008377272
170	0xbd043e93	-0.032286238
171	0x3d979ff4	0.074035555
172	0x3cf47c3b	0.029844394
173	0xbc178543	-0.009248081
174	0xbc921a0b	-0.017834684
175	0x3c0a2e24	0.008433852
176	0x3d4318cd	0.047631074
177	0x3d5ea5ee	0.05435746
178	0x3cf3af76	0.029746752
179	0xbc84cc4b	-0.016210696
180	0x3d063197	0.032762136
181	0xbd43ac45	-0.04777171
182	0xbc45a25c	-0.012062635
183	0x3bc962e1	0.0061458205
184	0xbd05320e	-0.03251844
185	0xbd0f5cea	-0.03500072
186	0x3c913f58	0.0177304
187	0x3d4f27f9	0.05057523
188	0x3d1fd2a1	0.03901923
189	0xb9aa7b8d	-0.0003251698
190	0x3c4a1092	0.012333052
191	0x3ad2463f	0.0016042663
192	0x3c5011f3	0.012699592
193	0x3c7451d8	0.014912091
194	0x3d6be086	0.05758717
195	0x3cd07b22	0.02544934
196	0xbbbd6f4b	-0.0057810894
197	0x3af841c8	0.0018940503
198	0xbd0568c3	-0.03257061
199	0x3cedf7e7	0.029048873
200	0xbc4dee6f	-0.012569054
201	0x3b89dd9e	0.004207327
202	0x3d793960	0.060845733
203	0x3d8c967e	0.068646416
204	0xbc65fe11	-0.014037625
205	0x3c4eeb3f	0.012629329
206	0x3da69eb1	0.08135737
207	0xbd30e36f	-0.043185648
208	0x3b863ead	0.004096827
209	0xbc989209	-0.018624322
210	0x3c47c943	0.012193981
211	0xbc760856	-0.015016636
212	0x3db24544	0.087046176
213	0x3c1cb2d0	0.009564117
214	0xbd530d85	-0.051526565
215	0x3b60f0f6	0.0034323311
216	0xbc793eb8	-0.015212707
217	0xbca64261	-0.020295324
218	0x3d828986	0.06373887
219	0xbda4e848	-0.08052117
220	0xbdbc4896	-0.09193532
221	0xbcf285ef	-0.02960488
222	0xbcc068f4	-0.023487546
223	0xbb2de5f4	-0.0026534768
224	0x3c1dad2c	0.009623807
225	0xbd522ad1	-0.051310364
226	0xbd8a75b7	-0.067607336
227	0xbda41319	-0.08011455
228	0xbd832915	-0.0640432
229	0xbbd79027	-0.0065784636
230	0xbcc8111d	-0.024422223
231	0xbccdf64d	-0.02514186
232	0xbc802071	-0.01564047
233	0xbc771e7d	-0.015082953
234	0xbc058bb6	-0.008150985
235	0xbd139dd0	-0.036039174
236	0x3d83f00a	0.06442268
237	0x3c39ec6d	0.011347872
238	0x3bc48d9c	0.0059983265
239	0xbd09a57c	-0.033605084
240	0x3d47f96f	0.048821863
241	0xbc9e368e	-0.019313123
242	0x3c85d485	0.016336689
243	0x3b8c299d	0.0042774216
244	0x3cfce973	0.030873036
245	0x3c33385f	0.010938733
246	0xbd140dbd	-0.036145914
247	0xbd13b90b	-0.036065143
248	0x3dbefef0	0.09325969
249	0xbd8da687	-0.06916528
250	0x3cac603f	0.021041987
251	0x3d337715	0.043814737
252	0x3c96c6da	0.018405367
253	0xbd2cd771	-0.04219765
254	0x3d1c4c33	0.038158607
255	0x3d775216	0.060381018

longBranch.0.bias f4 [64]
0	0x36f4dec2	7.297699e-06
1	0xb6816887	-3.856668e-06
2	0xb7c67367	-2.3657178e-05
3	0xb71fb075	-9.518223e-06
4	0x3744811e	1.1712573e-05
5	0x37006208	7.652219e-06
6	0xb8387826	-4.3980916e-05
7	0x3768ab3c	1.3868146e-05
8	0xb82a3406	-4.057961e-05
9	0xb80b538b	-3.3217988e-05
10	0xb74ac983	-1.2087056e-05
11	0xb7c36319	-2.3291957e-05
12	0xb7a68da4	-1.9854699e-05
13	0xb7f15076	-2.8766906e-05
14	0x37ec8152	2.8193612e-05
15	0xb7c15a49	-2.3049435e-05
16	0x37830905	1.5620617e-05
17	0x37dd376f	2.6371066e-05
18	0xb707aa50	-8.086281e-06
19	0x36d91a3d	6.4701585e-06
20	0xb6f143d2	-7.190255e-06
21	0xb5bc13a3	-1.4012807e-06
22	0xb71517cc	-8.886633e-06
23	0xb7e5a60f	-2.7376254e-05
24	0x3740bc31	1.14879085e-05
25	0xb57ca49d	-9.411686e-07
26	0xb5a0026d	-1.1921635e-06
27	0x38131bc7	3.50734e-05
28	0x372fb3ca	1.0472673e-05
29	0x37dbca69	2.6201089e-05
30	0x37c5b956	2.3570534e-05
31	0x376644d6	1.3725095e-05
32	0xb72e618e	-1.0393922e-05
33	0xb78dd6fc	-1.690862e-05
34	0xb73d8253	-1.1295621e-05
35	0x35f1437f	1.7975543e-06
36	0xb81c1781	-3.7215188e-05
37	0xb81d052e	-3.743654e-05
38	0xb77731bd	-1.4733928e-05
39	0x36b74e48	5.462938e-06
40	0xb7acb1fb	-2.0586876e-05
41	0xb81249c7	-3.4877823e-05
42	0x37474abc	1.1878725e-05
43	0x3805f5ac	3.193847e-05
44	0xb3b9d406	-8.653301e-08
45	0xb7c44b9d	-2.3400231e-05
46	0xb79da17a	-1.8791052e-05
47	0x37147290	8.848161e-06
48	0xb83e5ec2	-4.538778e-05
49	0xb720cdc4	-9.584652e-06
50	0x35cf01d8	1.5423238e-06
51	0xb7ddfc43	-2.6462722e-05
52	0x3581c0cd	9.667361e-07
53	0xb814317e	-3.5332043e-05
54	0x378581d4	1.5915291e-05
55	0x3701d0f6	7.737652e-06
56	0xb7319ed1	-1.0586999e-05
57	0x37aeff13	2.0861195e-05
58	0x3791425c	1.7316248e-05
59	0x368c9ad3	4.190349e-06
60	0x37023369	7.760574e-06
61	0x360df34e	2.115226e-06
62	0x37ea5dad	2.7938595e-05
63	0xb690e6d3	-4.318406e-06

longBranch.1.weight f4 [64]
0	0x3f3a83f0	0.7285757
1	0x3f3fb264	0.7488158
2	0x3f5e9de4	0.8695967
3	0x3f44d8e9	0.7689348
4	0x3f40f863	0.7537901
5	0x3f4541fa	0.770538
6	0x3f436f7b	0.7634198
7	0x3f46ea9f	0.77701753
8	0x3f43a6f8	0.7642665
9	0x3f36a859	0.7135063
10	0x3f3cd62b	0.73764294
11	0x3f4051c3	0.7512476
12	0x3f4fcf77	0.8117594
13	0x3f5077f4	0.81433034
14	0x3f494cef	0.78633016
15	0x3f426474	0.7593453
16	0x3f4b26f2	0.793563
17	0x3f5600c9	0.8359495
18	0x3f4c9e3f	0.79928964
19	0x3f470849	0.7774702
20	0x3f3a49af	0.7276868
21	0x3f4e1644	0.80502725
22	0x3f3f1781	0.7464524
23	0x3f4a8d89	0.79122216
24	0x3f348b8b	0.70525426
25	0x3f3a2810	0.7271738
26	0x3f3868c0	0.72034836
27	0x3f540f44	0.82835793
28	0x3f3dfce3	0.74214
29	0x3f43720c	0.76345897
30	0x3f4c1c83	0.79731005
31	0x3f399581	0.7249375
32	0x3f435183	0.7629625
33	0x3f4ef65c	0.80844665
34	0x3f37864e	0.7168931
35	0x3f444fc9	0.7668424
36	0x3f2e5fdb	0.68115014
37	0x3f4f162b	0.808932
38	0x3f37aaef	0.717452
39	0x3f45ef24	0.77318025
40	0x3f47832c	0.7793453
41	0x3f45c49a	0.77253115
42	0x3f42c4cb	0.7608153
43	0x3f3c09bd	0.7345236
44	0x3f42733d	0.7595709
45	0x3f4fa809	0.81115776
46	0x3f397290	0.72440434
47	0x3f3efbe2	0.7460309
48	0x3f322b8e	0.6959771
49	0x3f3a5c86	0.7279743
50	0x3f4b4326	0.79399335
51	0x3f448d25	0.7677787
52	0x3f49882c	0.78723407
53	0x3f3dff42	0.7421762
54	0x3f558169	0.8340059
55	0x3f478759	0.779409
56	0x3f365ce8	0.71235514
57	0x3f40a60b	0.7525336
58	0x3f4189ef	0.75601095
59	0x3f3f5175	0.7473367
60	0x3f383e0c	0.71969676
61	0x3f4b38ca	0.7938353
62	0x3f43a51f	0.7642383
63	0x3f3d4def	0.7394704
