Models/best_eeV0_0501_night.pth (torch, 770203 bytes, 48 tensors)

baseModel.0.weight f4 [64, 2, 3]
0.15152182 -0.13223216 -0.28132182 0.28671303 0.073584475 0.048421487 -0.032391135 0.46952152
-0.23534007 0.34999683 -0.11621485 -0.23608424 -0.23017153 -0.22480209 0.026655454 -0.2657899
-0.10607744 -0.06845364 0.12674311 0.056871425 0.20699245 0.17157872 0.04712827 -0.14035735
-0.39151058 -0.2153417 0.05936523 -0.23290117 0.26284838 0.38156337 -0.22326887 0.039828278
-0.20257218 0.37309936 0.04496444 0.36982203 0.33213124 -0.0017192718 -0.16507253 -0.31440806
-0.062445894 -0.3563962 0.03332646 -0.029037716 0.008462246 -0.34094602 -0.35174525 0.022148712
-0.33184403 -0.03426765 0.38647196 0.031643305 0.03584284 -0.09197018 -0.1949909 -0.14588146
-0.25614223 0.25865272 0.007879083 -0.23236421 0.31791526 -0.11865272 -0.34773648 0.23770757
-0.056860134 -0.34593925 0.17424963 -0.0405734 -0.20332031 0.2133938 0.37067017 0.1773419
0.26092544 -0.18200186 -0.11387399 -0.09940263 0.42730576 -0.26960084 0.24180935 0.42237416
-0.21226567 0.21663648 0.17911673 -0.047523335 0.03639421 0.26819357 -0.06391292 0.12838604
0.17369011 -0.3190281 0.20849353 -0.2327778 0.22146767 -0.04144197 0.075757496 -0.085919544
-0.12710328 -0.19654393 -0.35305396 -0.33579555 -0.16464353 0.2850553 0.41280088 0.19039011
-0.04912628 0.18569808 -0.18597925 -0.3807969 0.047140975 -0.03630309 0.0378848 -0.3737299
0.0050872033 -0.40510455 0.11647165 -0.2271138 -0.12238645 0.17241308 0.08507875 -0.13250795
0.3879131 0.017785577 -0.19467784 0.038806934 0.26994345 0.25431567 0.039571855 0.18399061
-0.13938563 0.15739222 0.29624972 -0.30843925 0.09257186 0.15959641 -0.13651235 0.25704426
-0.3240421 0.028405646 -0.34860203 -0.0058909915 -0.35678682 -0.076880746 0.007221817 -0.08875036
0.2984535 -0.08627503 -0.19591746 -0.11861984 -0.1602204 -0.11655468 0.42610285 0.12526143
0.24355184 0.27520317 -0.27252796 0.072929226 0.14924045 0.14230092 -0.3552504 -0.22944354
-0.024117876 0.26655835 -0.40947717 -0.16532844 -0.026269332 -0.18061015 0.17463323 -0.0526337
0.33380353 0.07876558 -0.21550925 -0.025862819 0.0051903734 0.00012066948 -0.015895884 -0.27929962
0.221671 0.048167415 -0.019331735 -0.004939598 0.2431012 0.1890824 -0.36555764 0.007577143
-0.32573104 -0.094394036 0.2516621 -0.2637418 -0.04692746 -0.08527138 0.12992631 -0.06971424
-0.1760599 0.1656815 0.010067972 -0.077625625 0.26176524 -0.10865038 0.19820772 -0.24236287
0.05539384 -0.03889259 0.15102547 -0.099304356 0.27557096 0.011418093 0.28687087 0.26759487
0.08508155 0.24513522 -0.36173877 -0.005175573 0.28728098 0.056116696 0.33117837 0.179761
-0.07781627 0.04157048 -0.05690085 0.20614512 -0.1650369 0.1201157 0.07106024 -0.06021681
-0.119850546 -0.34501356 0.34355316 0.21118748 -0.24810147 -0.29306978 0.20187978 0.21520293
-0.29604492 -0.25011605 0.07486111 -0.3223908 0.22219132 0.07930301 -0.046687737 -0.056679815
-0.16406511 0.20301278 -0.0048287134 -0.15370117 0.28233817 -0.08670236 0.011873514 0.14882827
0.3276923 -0.32979923 -0.15420309 0.2067434 -0.3508527 0.03129418 0.18891828 0.21438728
00000000: 8928 1b3e de67 07be 6a09 90be 0dcc 923e
00000010: 75b3 963d 9c55 463d 91ac 04bd 2065 f03e
00000020: fdfc 70be c932 b33e 0d02 eebd 11c0 71be
00000030: 16b2 6bbe 8532 66be 8a5c da3c 9d15 88be
00000040: 213f d9bd 6c31 8cbd f2c8 013e 03f2 683d
00000050: d4f5 533e 55b2 2f3e 9309 413d d6b9 0fbe
00000060: 1374 c8be 8982 5cbe f528 733d a57d 6ebe
00000070: 1094 863e 465c c33e 98a0 64be fa22 233d
00000080: 156f 4fbe e106 bf3e a22c 383d 5059 bd3e
00000090: 1b0d aa3e 3059 e1ba c608 29be 18fa a0be
000000a0: 44c7 7fbd 9079 b6be 5381 083d 81e0 edbc
000000b0: 3ba5 0a3c 7a90 aebe f417 b4be 3771 b53c
000000c0: 76e7 a9be 3c5c 0cbd a7df c53e 699c 013d
000000d0: f1cf 123d dd5a bcbd b2ab 47be f361 15be
000000e0: 1325 83be 216e 843e 4517 013c e2f0 6dbe
000000f0: cac5 a23e 3200 f3bd 840a b2be 9d69 733e
00000100: 2ce6 68bd f31e b1be 7f6e 323e 4b30 26bd
00000110: 3333 50be e883 5a3e 7bc8 bd3e 1d99 353e
00000120: 0598 853e b25e 3abe c436 e9bd 9b93 cbbd
00000130: d2c7 da3e 1f09 8abe df9c 773e 6d41 d83e
00000140: 2c5c 59be f4d5 5d3e 606a 373e d4a7 42bd
00000150: 1812 153d ab50 893e c7e4 82bd a177 033e
00000160: d2db 313e a757 a3be 547f 553e 4e5d 6ebe
00000170: 6cc8 623e 0ebf 29bd bf26 9b3d 96f6 afbd
00000180: 5d27 02be d042 49be 7dc3 b4be 65ed abbe
00000190: 5098 28be c5f2 913e a35a d33e a0f5 423e
000001a0: a338 49bd a327 3e3e 5871 3ebe d0f7 c2be
000001b0: e516 413d 8db2 14bd 182d 1b3d 8759 bfbe
000001c0: 8eb2 a63b dd69 cfbe b088 ee3d 8590 68be
000001d0: bfa5 fabd 0e8d 303e c53d ae3d 2ab0 07be
000001e0: 8c9c c63e 0fb3 913c a159 47be 05f4 1e3d
000001f0: 0736 8a3e aa35 823e 1916 223d 0968 3c3e
00000200: 1bbb 0ebe 6d2b 213e 0bae 973e c0eb 9dbe
00000210: 5196 bd3d 3e6d 233e e5c9 0bbe 4e9b 833e
00000220: d9e8 a5be f5b2 e83c f77b b2be 3809 c1bb
00000230: c3ac b6be a773 9dbd fea4 ec3b c0c2 b5bd
00000240: e6ce 983e f7b0 b0bd 969e 48be f5ee f2bd
00000250: d110 24be 38b4 eebd 272a da3e 8844 003e
00000260: a765 793e 6ee7 8c3e c988 8bbe eb5b 953d
00000270: 7dd2 183e 55b7 113e 61e3 b5be 3ff3 6abe
00000280: da92 c5bc 567a 883e fea6 d1be dc4b 29be
00000290: c832 d7bc def1 38be 0ed3 323e 6f96 57bd
000002a0: 4ce8 aa3e d94f a13d 75ae 5cbe 43de d3bc
000002b0: 0214 aa3b ef0f fd38 1638 82bc 5c00 8fbe
000002c0: b9fd 623e 324b 453d 965d 9ebc 5adc a1bb
000002d0: 85ef 783e d19e 413e 5f2a bbbe af49 f83b
000002e0: 38c6 a6be a951 c1bd dbd9 803e 2a09 87be
000002f0: 0237 40bd c3a2 aebd 670b 053e 57c6 8ebd
00000300: 0c49 34be 69a8 293e 23f4 243c 2ffa 9ebd
00000310: 1806 863e 1784 debd f7f6 4a3e f92d 78be
00000320: a7e4 623d d64d 1fbd 6ca6 1a3e 1560 cbbd
00000330: a317 8d3e f412 3b3c bde0 923e 3202 893e
00000340: 3c3f ae3d ba04 7b3e d335 b9be da97 a9bb
00000350: 7e16 933e 9fda 653d 3690 a93e 4513 383e
00000360: 235e 9fbd cf45 2a3d de10 69bd b517 533e
00000370: 6fff 28be 38ff f53d 0888 913d e7a5 76bd
00000380: 3474 f5bd 9ea5 b0be 33e6 af3e 8841 583e
00000390: 500e 7ebe 3e0d 96be 93b9 4e3e 285e 5c3e
000003a0: 3393 97be 360f 80be c850 993d 6810 a5be
000003b0: 1f86 633e 9e69 a23d a43b 3fbd 1829 68bd
000003c0: af00 28be 95e2 4f3e 2f3a 9ebb d763 1dbe
000003d0: a18e 903e 0291 b1bd 2189 423c 7066 183e
000003e0: 49c7 a73e 72db a8be 6ae7 1dbe 8bb4 533e
000003f0: f7a2 b3be 532e 003d cb73 413e 5788 5b3e

baseModel.0.bias f4 [64]
0.00094814284 0.00057205255 0.00023218345 0.00029494474 0.00042211998 -5.27818e-06 5.317436e-06 -0.00067624176
0.0002999586 -1.8743134e-05 -0.00029345465 0.0003810838 5.361123e-05 2.748087e-05 -0.00078885764 -0.0011365887
-0.00017138166 0.00047335637 6.740006e-05 2.4971716e-05 0.00024069216 -0.0007986071 7.705556e-05 0.0002968183
-7.9817495e-05 -0.00023807936 3.0765706e-05 0.00046683705 -0.00040088352 0.0009672977 3.4196324e-05 -0.001215462
-0.00023530882 8.320392e-05 0.00031703417 -0.00021886075 -0.0010588734 -0.00031883805 -0.00035691413 -0.00094930537
-0.0005234217 0.00075716496 -6.020182e-05 0.00068954774 0.00063748896 0.001271928 0.00018897324 -5.170924e-05
-5.293228e-05 0.00024730273 0.0004000148 0.0008149038 -0.00051099365 0.00031561573 0.00029925452 0.00047177734
0.0001819909 0.00020453273 -0.00022061831 -0.00052295823 -0.00019975156 -0.00094217306 0.0008931188 0.00041796893
00000000: ca8c 783a ccf5 153a 4576 7339 d0a2 9a39
00000010: fc4f dd39 391b b1b6 6d6c b236 d145 31ba
00000020: c343 9d39 933a 9db7 d1da 99b9 34cc c739
00000030: 9fdc 6038 b886 e637 57cb 4eba 97f9 94ba
00000040: eab4 33b9 d12c f839 2259 8d38 5a7a d137
00000050: 4f62 7c39 9e59 51ba e498 a138 479e 9b39
00000060: b163 a7b8 f1a4 79b9 6d0a 0138 cfc1 f439
00000070: ad2d d2b9 4092 7d3a 066e 0f38 2350 9fba
00000080: 3bbd 76b9 c47d ae38 9b37 a639 fc7d 65b9
00000090: e5c9 8aba b829 a7b9 3420 bbb9 ceda 78ba
000000a0: 3c36 09ba 7b7c 463a 3681 7cb8 c4c2 343a
000000b0: 291d 273a d2b6 a63a 1e27 4639 60e2 58b8
000000c0: 9a03 5eb8 69a8 8139 14b9 d139 459f 553a
000000d0: 34f4 05ba 3a79 a539 43e5 9c39 e258 f739
000000e0: cfd4 3e39 d677 5639 c755 67b9 2217 09ba
000000f0: 6774 51b9 2afc 76ba 3020 6a3a d722 db39

baseModel.1.weight f4 [64]
0.97761285 0.94920474 0.95283085 0.9540295 0.9808179 0.9860433 0.95012105 0.9822277
0.9869111 0.954458 0.9712005 0.90499735 0.93857163 0.94600576 0.9628447 0.9530219
0.94574594 0.9700355 1.0063621 0.9283138 0.9754371 0.9507936 0.92435473 0.981577
0.9690336 0.9451113 0.95197797 0.9541466 0.9731434 0.94972557 0.9646351 0.93386817
0.9424243 0.9469898 0.99025697 0.9591851 0.9733016 0.9463739 0.96543175 0.9162337
0.925916 0.98283905 0.9578154 0.9230887 0.9285479 0.9378348 1.0049503 0.98172903
0.9742832 0.9853437 0.9798211 0.97427833 0.93825066 0.9499428 0.95360315 0.98179483
0.96587723 0.87688744 0.95923346 0.963934 0.902295 0.9816536 0.9580761 0.97480726
00000000: d644 7a3f 15ff 723f b9ec 733f 473b 743f
00000010: e216 7b3f 556d 7c3f 223b 733f 4673 7b3f
00000020: 35a6 7c3f 5c57 743f 99a0 783f e8ad 673f
00000030: 3b46 703f 6f2d 723f fe7c 763f 3ef9 733f
00000040: 681c 723f 3f54 783f 79d0 803f f9a5 6d3f
00000050: 3fb6 793f 3667 733f 83a2 6c3f a148 7b3f
00000060: 9612 783f d0f2 713f d4b4 733f f442 743f
00000070: ed1f 793f 3721 733f 53f2 763f fc11 6f3f
00000080: b842 713f ec6d 723f 7b81 7d3f 288d 753f
00000090: 4b2a 793f 8f45 723f 8926 773f 4b8e 6a3f
000000a0: d508 6d3f 579b 7b3f 6433 753f 8b4f 6c3f
000000b0: 51b5 6d3f f115 703f 36a2 803f 9852 7b3f
000000c0: a06a 793f 7c3f 7c3f 8ed5 7a3f 4e6a 793f
000000d0: 3231 703f 742f 733f 561f 743f e856 7b3f
000000e0: bb43 773f b27b 603f 5390 753f 61c4 763f
000000f0: cefc 663f a64d 7b3f 7a44 753f f88c 793f

baseModel.1.bias f4 [64]
-0.11642409 -0.19832608 0.016290464 -0.07143011 -0.123872 -0.09073199 -0.057581954 0.032708257
-0.1588803 -0.1002129 -0.02047708 -0.004226804 -0.1771792 0.14525698 -0.17812312 0.3459357
-0.1073344 -0.1396767 -0.07460478 -0.15021683 -0.13804647 0.32179278 -0.15513495 -0.07452124
-0.13302532 0.008097189 -0.13895555 0.046314187 -0.027494464 0.31995982 -0.18171318 0.31424174
-0.15261807 -0.14620498 -0.096694216 -0.14822896 0.17559426 -0.08281398 -0.15226868 -0.14713314
0.2993852 -0.10823945 -0.16118734 0.15478155 0.30179 0.011752354 -0.072563894 -0.1514748
-0.13922448 -0.15782247 -0.14645882 0.066654935 -0.039652966 -0.05674371 0.03499038 -0.1113876
-0.16759197 -0.122838356 -0.044109356 0.009983266 -0.06288228 -0.006597634 0.08405564 0.28068215
00000000: c16f eebd fe15 4bbe 9473 853c f349 92bd
00000010: 9ab0 fdbd b2d1 b9bd 0edb 6bbd 18f9 053d
00000020: 84b1 22be 6c3c cdbd 8dbf a7bc 0081 8abb
00000030: 776e 35be 3fbe 143e e865 36be 7c1e b13e
00000040: 23d2 dbbd 6907 0fbe 64ca 98bd 71d2 19be
00000050: 0e5c 0dbe 06c2 a43e b2db 1ebe 989e 98bd
00000060: ca37 08be 12aa 043c 5d4a 0ebe f2b3 3d3d
00000070: 123c e1bc c6d1 a33e 0513 3abe 4be4 a03e
00000080: e947 1cbe c2b6 15be 9e07 c6bd 55c9 17be
00000090: fbce 333e 609a a9bd 52ec 1bbe 12aa 16be
000000a0: 0449 993e a5ac ddbd 4b0e 25be 0e7f 1e3e
000000b0: 3884 9a3e f28c 403c 619c 94bd 361c 1bbe
000000c0: dd90 0ebe 379c 21be 4df9 15be 6282 883d
000000d0: 266b 22bd 186c 68bd 1352 0f3d 2f1f e4bd
000000e0: 3b9d 2bbe ad92 fbbd 03ac 34bd da90 233c
000000f0: 6dc8 80bd f730 d8bb 5d25 ac3d 92b5 8f3e

baseModel.1.running_mean f4 [64]
0.00087871886 0.00051606994 0.00023014253 0.0003097709 0.000233476 -7.714266e-05 -0.00010529398 -0.0007020679
0.00044545773 -2.0007908e-05 -0.00011590561 0.00032823972 0.00014083128 9.0190944e-05 -0.00068807515 -0.0009812264
-0.00024310894 0.00059219677 0.00023981064 6.732005e-05 0.00035189025 -0.0008120892 0.000114126495 0.00010878829
0.0001992731 -0.00021560564 -3.4741035e-05 0.0003872715 -0.00024914168 0.00093107065 6.6928595e-05 -0.0011559353
-0.00020600618 -5.284748e-05 0.00035018125 -4.7939287e-05 -0.0010924231 -0.0002373377 -0.00025095127 -0.0010226856
-0.00051724573 0.0008163549 -0.00014995426 0.000666703 0.00043049242 0.0012783727 0.0002814043 -0.00011998468
6.692935e-05 8.337007e-05 0.00024406341 0.00092434254 -0.00047690552 0.000307547 0.00026819514 0.00046355877
0.00011108419 0.00019431683 -0.00016409579 -0.0004015459 -0.0001369576 -0.0008528374 0.00084503175 0.00034209157
00000000: d359 663a de48 073a 6a52 7139 bf68 a239
00000010: 3dd1 7439 a6c7 a1b8 46d1 dcb8 fb0a 38ba
00000020: 538c e939 a8d6 a7b7 5a12 f3b8 9717 ac39
00000030: 1cac 1339 e524 bd38 f15f 34ba 7f9c 80ba
00000040: 0feb 7eb9 a73d 1b3a ae75 7b39 2d2e 8d38
00000050: e97d b839 62e2 54ba 3257 ef38 4525 e438
00000060: f7f3 5039 3314 62b9 e7b6 11b8 b30a cb39
00000070: 3b9f 82b9 1813 743a 045c 8c38 c182 97ba
00000080: 5d03 58b9 8da8 5db8 8898 b739 6b12 49b8
00000090: a32f 8fba dbdd 78b9 1c92 83b9 a20b 86ba
000000a0: c697 07ba a600 563a 0a3d 1db9 aec5 2e3a
000000b0: b7b3 e139 128f a73a 7289 9339 49a0 fbb8
000000c0: 6c5c 8c38 f7d6 ae38 46eb 7f39 944f 723a
000000d0: 2d09 fab9 423e a139 8b9c 8c39 ce09 f339
000000e0: dff5 e838 87c1 4b39 2111 2cb9 9486 d2b9
000000f0: 479c 0fb9 f390 5fba 1f85 5d3a c15a b339

baseModel.1.running_var f4 [64]
8.906342e-06 1.3029438e-05 9.672734e-06 4.876274e-06 2.02804e-05 1.5662934e-05 1.54387e-05 1.2415216e-05
9.168023e-06 1.1090359e-05 1.4525355e-05 1.5210612e-05 8.742454e-06 1.4518606e-05 6.9961848e-06 3.1423965e-06
1.7748325e-05 1.8422299e-05 1.2445218e-05 4.935774e-06 1.4322467e-05 7.6249967e-06 5.473661e-06 1.079946e-05
7.644065e-06 1.5952468e-05 9.314157e-06 1.0884658e-05 5.9606596e-06 3.1370755e-06 1.2509433e-05 3.9275337e-06
3.2380694e-06 2.7418205e-06 1.3611572e-05 1.5219269e-05 2.0070167e-06 9.6281965e-06 1.4440928e-05 3.6175236e-06
3.7978489e-06 1.3049661e-05 1.2696403e-05 5.105625e-06 3.2212117e-06 1.1732679e-05 9.691791e-06 1.8574277e-05
1.4207398e-05 1.0431947e-05 1.3146223e-05 1.573438e-05 1.2805837e-05 1.3237008e-05 1.5032924e-05 1.7429857e-05
1.0677915e-05 4.503819e-06 1.0149017e-05 8.008446e-06 9.366405e-06 1.0039412e-05 3.1310049e-06 5.2716887e-06
00000000: 736c 1537 0399 5a37 1448 2237 e09e a336
00000010: d41f aa37 e563 8337 5b82 8137 f24a 5037
00000020: 5cd0 1937 bb10 3a37 edb1 7337 1531 7f37
00000030: 8eac 1237 f094 7337 c5c0 ea36 f6e1 5236
00000040: 3de2 9437 9689 9a37 cecb 5037 fa9d a536
00000050: 874a 7037 39da ff36 64aa b736 542f 3537
00000060: 023f 0037 aad1 8537 0044 1c37 409d 3637
00000070: ad01 c836 8c86 5236 9bdf 5137 42c9 8336
00000080: 9c4d 5936 1e00 3836 425d 6437 4356 7f37
00000090: 49b0 0636 ca88 2137 5047 7237 95c4 7236
000000a0: 8cde 7e36 deef 5a37 a302 5537 fc50 ab36
000000b0: ff2b 5836 79d7 4437 ed99 2237 f5cf 9b37
000000c0: 4f5c 6e37 df04 2f37 998e 5c37 53fd 8337
000000d0: a7d8 5637 8414 5e37 eb35 7c37 5536 9237
000000e0: 4c25 3337 831f 9736 b245 2a37 035c 0637
000000f0: 6724 1d37 f26e 2837 411e 5236 76e3 b036

shortBranch.2.weight f4 [64, 1024]
-0.013891752 -0.036569007 -0.0041322233 -0.016544163 -0.0105098775 -0.03390501 -0.009456032 -0.009996636
-0.007772113 -0.022991313 -0.0241547 -0.013210151 -0.03660088 -0.022570064 -0.03500327 -0.030410698
-0.015869077 -0.0028114754 0.012566479 -0.008048601 0.01203464 0.0143965315 0.01479487 0.018184561
0.035929173 -0.01173765 0.005725148 0.008317629 0.0056463093 -0.002106209 0.0023432234 0.034696504
0.01608434 0.016509715 0.011854034 0.025902323 0.011784038 0.032019142 0.016922181 0.023627296
0.025191868 0.04072407 0.01507362 0.01696388 0.020294007 0.033867046 0.025611699 0.014548065
-0.012379895 -0.040671274 -0.022194736 -0.031792134 -0.0032227468 -0.014931679 -0.00020434622 0.012989648
-0.0128259985 -0.011491466 -0.025642224 -0.018312585 -0.003431218 -0.024349809 -0.013952915 -0.019636817
-0.03918346 -0.01930187 -0.031194126 -0.01036738 0.0027965263 -0.006872169 -0.031310104 -0.033715073
-0.038282335 -0.02059114 -0.00364435 -0.030288571 -0.03551287 -0.033956066 -0.007999387 -0.020906704
0.013893997 0.035230603 0.024201635 0.011904559 0.013978687 0.021783724 0.03120244 0.024123048
0.016365051 0.012439059 0.028257843 0.040061206 0.048843335 0.03511017 0.006682391 0.03382896
-0.026896361 -0.02422026 -0.021072028 -0.008113208 -0.0063571082 -0.023935884 -0.0019304032 -0.021003183
0.010541655 -0.012393867 0.00039414334 -0.0023136195 -0.021878172 0.01466319 -0.0012151184 2.3774908e-05
0.007917978 0.021490626 0.037487857 0.030087018 0.0032672952 -0.0001693167 0.0014861602 0.006301766
0.010033751 0.032196943 0.015534859 0.016791172 0.026224278 0.008695198 0.00757483 0.01632806
0.028492898 0.029744597 0.007229 0.014758803 0.021583783 0.018804802 0.009907028 0.03822683
0.019359834 0.013172999 0.01239593 0.020368459 0.018849902 0.019878246 0.013304578 0.046566445
0.0019044766 -0.015668733 -0.026935777 -0.030840065 -0.010620353 0.0118086785 -0.009170802 -0.002239311
-0.023061635 -0.01224821 -0.0014268877 -0.01121884 -0.010139541 0.0016182463 -0.0060022552 -0.030108089
0.020480065 0.020384336 0.014795927 -0.0025567596 0.028675439 0.0070826164 0.0065478124 0.022059979
0.007924184 0.02797842 0.006586103 0.018953128 0.023761982 0.025485618 0.021446465 0.026752587
-0.01316973 -0.0075636464 -0.00024597844 0.015931912 -0.005287841 -0.001920477 0.00978792 0.004523422
0.0060300073 0.0034519734 -0.013268804 -0.010694384 -0.00010026469 0.00088764797 0.023949753 -0.013440358
-0.010779328 0.017958242 0.014005994 0.013752937 0.007046126 0.011317237 0.030440617 -0.0070151235
-0.0057005417 -0.00023470019 0.011986901 0.0017880797 -0.0055122366 0.020561768 -0.004810177 0.021565463
-0.0019499508 0.027146393 -0.0071798703 0.012516533 0.0017897976 0.027922878 0.008704036 0.020331545
0.013825913 0.021333668 -8.341325e-05 0.0295606 0.01497355 0.0074912393 0.0025448997 0.0012784321
0.010721121 0.009790953 0.01410069 -0.00045605033 -0.0067787124 0.00560096 -0.016029749 0.008239329
0.0057412493 0.005418459 0.010768299 -0.020190086 -0.031017024 0.011821084 -0.014997439 -0.0011515049
-0.008480557 -0.013886323 -0.0004222666 -0.025252528 -0.0011129605 -0.042183377 -0.028486162 -0.017265199
-0.0042897454 -0.019883731 -0.0067393603 -0.02624444 0.009999238 -0.006704117 0.0048102145 -0.007232032
00000000: 3b9a 63bc 62c9 15bd 9a67 87bb a087 87bc
00000010: 9f31 2cbc fbdf 0abd 79ed 1abc eec8 23bc
00000020: 36ad febb 4758 bcbc 14e0 c5bc 646f 58bc
00000030: ceea 15bd dbe4 b8bc 975f 0fbd db1f f9bc
00000040: deff 81bc bb40 38bb a2e3 4d3c 48de 03bc
00000050: f02c 453c 6edf 6b3c 2f66 723c caf7 943c
00000060: 782a 133d 464f 40bc 069a bb3b aa46 083c
00000070: ad04 b93b 5308 0abb c490 193b ec1d 0e3d
00000080: 4ec3 833c 623f 873c 6c37 423c 1c31 d43c
00000090: d611 413c 8126 033d 63a0 8a3c 088e c13c
000000a0: 2d5f ce3c 48ce 263d 58f7 763c d6f7 8a3c
000000b0: 9e3f a63c 2cb8 0a3d a0cf d13c 025b 6e3c
000000c0: 0bd5 4abc ec96 26bd bcd1 b5bc 7838 02bd
000000d0: b834 53bb 00a4 74bc c545 56b9 88d2 543c
000000e0: 2324 52bc b446 3cbc a40f d2bc 4604 96bc
000000f0: 49de 60bb 4079 c7bc c49a 64bc 64dd a0bc
00000100: d67e 20bd f51e 9ebc d38a ffbc f2db 29bc
00000110: ed45 373b ef2f e1bb 063f 00bd d118 0abd
00000120: f0cd 1cbd c0ae a8bc 0cd6 6ebb bd1f f8bc
00000130: f175 11bd 8415 0bbd dc0f 03bc 8944 abbc
00000140: a6a3 633c f74d 103d 8242 c63c 570b 433c
00000150: dd06 653c c873 b23c 429c ff3c b39d c53c
00000160: 0010 863c 32cd 4b3c fe7c e73c 3817 243d
00000170: f30f 483d aecf 0f3d f5f7 da3b 3c90 0a3d
00000180: c255 dcbc 9169 c6bc 3f9f acbc 43ed 04bc
00000190: 4a4f d0bb 3015 c4bc 9505 fdba de0e acbc
000001a0: e8b6 2c3c a50f 4bbc 06a5 ce39 18a0 17bb
000001b0: da39 b3bc e03d 703c 9c44 9fba 3a70 c737
000001c0: 68ba 013c 1c0d b03c de8c 193d 0d79 f63c
000001d0: 1e20 563b 9b8a 31b9 43cb c23a 0b7f ce3b
000001e0: 9a64 243c f1e0 033d ec85 7e3c a48d 893c
000001f0: 4cd4 d63c 4e76 0e3c 4836 f83b 6cc2 853c
00000200: f069 e93c f1aa f33c 3fe1 ec3b e8ce 713c
00000210: 79d0 b03c 870c 9a3c 1651 223c bd93 1c3d
00000220: 8498 9e3c 90d3 573c 4c18 4b3c c1db a63c
00000230: 1c6b 9a3c b4d7 a23c 72fb 593c 75bc 3e3d
00000240: a19f f93a b75b 80bc 6ba8 dcbc 4ea4 fcbc
00000250: fd00 2ebc 3079 413c 2241 16bc 68c1 12bb
00000260: c1eb bcbc b7ac 48bc 6806 bbba 3acf 37bc
00000270: 5120 26bc 561b d43a 91ae c4bb 3da5 f6bc
00000280: cfc5 a73c 0dfd a63c 9e6a 723c 4f8f 27bb
00000290: c1e8 ea3c 4b15 e83b 088f d63b 21b7 b43c
000002a0: 70d4 013c 0033 e53c 3cd0 d73b 9743 9b3c
000002b0: 7da8 c23c 37c7 d03c 7fb0 af3c 3e28 db3c
000002c0: dac5 57bc 77d8 f7bb abf6 80b9 a483 823c
000002d0: a045 adbb 84b8 fbba 835d 203c 3739 943b
000002e0: 5e97 c53b 813a 623b 6665 59bc 7f37 2fbc
000002f0: 3245 d2b8 0cb1 683a 4632 c43c f334 5cbc
00000300: c79b 30bc 2a1d 933c 6679 653c 0054 613c
00000310: 30e3 e63b ef6b 393c 9a5e f93c 1fdf e5bb
00000320: 9ccb babb da19 76b9 b564 443c 005e ea3a
00000330: fe9f b4bb 2771 a83c b09e 9dbb 0eaa b03c
00000340: 7e95 ffba 1d62 de3c 1e45 ebbb 2512 4d3c
00000350: a497 ea3a 85be e43c 5f9b 0e3c 578e a63c
00000360: 1586 623c f2c3 ae3c 26ee aeb8 1229 f23c
00000370: 9f53 753c 1279 f53b 55c8 263b 1091 a73a
00000380: a4a7 2f3c 3c6a 203c 9506 673c 0a1a efb9
00000390: f61f debb 4288 b73b d250 83bc 40fe 063c
000003a0: 1721 bc3b 548d b13b 856d 303c ae65 a5bc
000003b0: 6a17 febc 38ad 413c d2b7 75bc 18ee 96ba
000003c0: 09f2 0abc 7683 63bc aa63 ddb9 64de cebc
000003d0: c2e0 91ba 7ac8 2cbd d05b e9bc bf6f 8dbc
000003e0: fe90 8cbb 35e3 a2bc dad5 dcbb 94fe d6bc
000003f0: d8d3 233c 36ae dbbb 019f 9d3b aefa ecbb

shortBranch.2.bias f4 [64]
-0.058010936 0.31698972 -0.24978572 0.11382922 0.09015754 -0.22429582 -0.019822562 0.13334753
0.21847099 -0.13004234 0.103917725 -0.015439251 -0.22378577 -0.2649232 0.048586626 -0.26949638
-0.2648574 -0.23464541 -0.06540222 -0.043516196 0.27328077 0.24538985 0.27306566 -0.2285106
0.18977879 0.24736409 -0.004845204 0.003199114 0.052815992 -0.25016654 -0.1800243 -0.15962186
-0.23087326 0.26372933 0.28613627 -0.056897923 0.20188832 -0.022598388 0.2141674 0.16368489
0.12170022 -0.06433756 -0.0302318 -0.30114907 0.26334372 -0.012125974 0.24022363 -0.22699347
-0.2305471 -0.24325447 -0.040814925 0.111380845 -0.032915965 0.09333766 0.17276345 -0.20346324
0.18940057 -0.23842812 0.050447445 -0.25573114 0.07010503 -0.093402445 0.2235809 0.078621194
00000000: e09c 6dbd 7a4c a23e d4c7 7fbe 4b1f e93d
00000010: 84a4 b83d cead 65be ed62 a2bc 418c 083e
00000020: dcb6 5f3e d229 05be d1d2 d43d eaf4 7cbc
00000030: 1928 65be 03a4 87be c502 473d 6efb 89be
00000040: 649b 87be e346 70be 99f1 85bd 0a3e 32bd
00000050: 75eb 8b3e 7a47 7b3e 43cf 8b3e affe 69be
00000060: 5f55 423e 034d 7d3e 84c4 9ebb 3aa8 513b
00000070: 9555 583d d415 80be 4a58 38be ea73 23be
00000080: 0a6a 6cbe 8807 873e 7480 923e cc0d 69bd
00000090: d0bb 4e3e 4120 b9bc b34e 5b3e 039d 273e
000000a0: f73d f93d 69c3 83bd aea8 f7bc 3630 9abe
000000b0: fdd4 863e 05ac 46bc 2ffd 753e fa70 68be
000000c0: 8a14 6cbe b317 79be 8d2d 27bd a41b e43d
000000d0: e4d2 06bd d127 bf3d e7e8 303e ab58 50be
000000e0: 39f2 413e 8026 74be fba1 4e3d 31ef 82be
000000f0: 3a93 8f3d c849 bfbd 64f2 643e 2604 a13d

shortBranch.4.weight f4 [32, 64]
-0.04119705 0.0074661616 0.017774485 -0.011454537 -0.15749337 -0.0033662526 -0.14350285 -0.12859994
-0.07002933 -0.12067544 -0.046152625 0.0009316551 -0.008017322 0.008264679 -0.019309996 -0.0032975601
-0.0041736374 0.0064596734 0.01590359 -0.025103983 0.006141016 0.005327538 -0.010293833 -0.006456287
0.005928144 0.0010384157 -0.09639666 0.037033953 -0.23900296 -0.011386342 -0.14986438 -0.006830731
-0.009127038 -0.021210508 0.011350243 -0.22551496 -0.013949766 0.07688351 -0.06689634 -0.059147395
0.028417408 0.23264813 -0.07212552 0.0053576343 0.0067672324 0.28595296 -0.0037421396 -0.0076901624
-0.0009446951 0.001254288 -0.2595189 -0.16430287 -0.2744757 -0.19657668 0.18434057 -0.051100127
-0.079696946 -0.016828869 -0.022333708 -0.0077080014 -0.031005044 0.0047761276 -0.099374495 -0.017821485
-0.0066835834 -0.06795092 0.12692581 -0.00026758344 0.025643142 0.061899267 -0.02568621 0.0029851492
0.0004304128 -0.009173002 -0.02512569 0.012813514 0.068035856 0.14618684 0.020711036 0.18705525
0.19504303 0.08011177 0.013379155 -0.014021248 -0.12074929 -0.1923662 -0.16277122 0.021469273
-0.003421009 -0.09907194 0.0046660546 -0.013675377 -0.009044001 0.017526494 -0.018379856 0.018783467
0.20732568 -0.1668784 -0.17057058 0.004959238 -0.059031002 0.03325247 -0.12754431 0.018514302
-0.048328746 -0.006443092 0.013490641 0.1522389 -0.16344278 0.021844652 -0.035651322 0.18667124
0.10472757 0.11080629 -0.022058154 -0.008268312 -0.005699454 0.025946496 0.004912889 -0.033266712
-0.07647697 0.06606001 0.015750078 0.045691207 -0.002016626 0.009720746 -0.087928176 0.011237001
0.124489054 -0.13668078 0.1270614 -0.0073531535 0.014150462 0.02076781 -0.022845145 -0.044246264
-0.098318614 0.02042309 -0.08905556 -0.057256907 0.0063229655 0.114894524 0.0189464 -0.008643771
0.008962314 0.030065635 0.105610564 -0.042072486 -0.04215109 0.004271633 -0.10802995 0.03321522
-0.021674419 0.00056452834 0.10316836 -0.0721451 -0.011656908 0.14259095 0.20612495 0.023262544
-0.023395518 -0.1279399 -0.011573478 0.12545778 -0.006130569 0.039903156 -0.081938066 -0.013158325
-0.100595765 0.0033257962 0.12691388 0.12941411 -0.00817792 -0.053581797 -0.0011409062 -0.008172121
-0.003009758 -0.00027047726 0.07733769 -0.035382856 0.027523324 -0.0069683497 -0.19055542 0.18303168
-0.06160806 0.014233422 -0.09157851 0.016669944 -0.072446406 0.016299102 -0.075380534 -0.105981424
0.041730404 0.007882564 -0.018386116 0.004086729 0.16068912 -0.010827422 0.14141658 0.1771884
0.13945878 0.14072935 0.046931896 -0.009085061 0.023342373 -0.025800802 0.028017616 0.0042758244
0.016477048 0.0021727027 0.006324648 0.022392359 -0.0048385616 -0.018591776 0.063528344 -0.007473182
0.0021244758 -0.007933557 0.10112058 -0.016824665 0.22504677 -0.0025262267 0.08635125 -0.007683699
0.014717425 0.04190936 -0.01496293 0.20568655 0.042208634 -0.054150764 0.08327459 0.10407876
-0.036602672 -0.24851067 0.10123498 -0.010028662 -0.013867333 -0.2682284 -0.0007196282 0.010878053
0.010604957 0.015961183 0.25190485 0.23225215 0.25251412 0.24079527 -0.16040301 0.037431337
0.108038 0.015350633 0.030690443 0.0008038684 0.020626819 0.0060367724 0.10622116 0.044678356
00000000: 3dbe 28bd b4a6 f43b cc9b 913c cfab 3bbc
00000010: f145 21be 599c 5cbb 69f2 12be b4af 03be
00000020: 8a6b 8fbd af24 f7bd 890a 3dbd 513a 743a
00000030: 165b 03bc 9468 073c ff2f 9ebc e11b 58bb
00000040: 02c3 88bb abab d33b 3f48 823c dea6 cdbc
00000050: 933a c93b a192 ae3b 77a7 28bc 438f d3bb
00000060: e040 c23b 731b 883a 9d6b c5bd eab0 173d
00000070: 31bd 74be c88d 3abc 0c76 19be 53d4 dfbb
00000080: 9289 15bc a9c1 adbc 5ff6 393c 65ed 66be
00000090: 8f8d 64bc 1a75 9d3d f300 89bd 8a44 72bd
000000a0: a0cb e83c 503b 6e3e 8bb6 93bd 188f af3b
000000b0: a9bf dd3b 6d68 923e af3e 75bb c2fd fbbb
000000c0: 6aa5 77ba ec66 a43a a9df 84be 033f 28be
000000d0: 1488 8cbe 664b 49be c6c3 3c3e 5e4e 51bd
000000e0: 2738 a3bd b2dc 89bc 2ef5 b6bc 6793 fcbb
000000f0: 4afe fdbc 1081 9c3b db84 cbbd 5dfe 91bc
00000100: f601 dbbb da29 8bbd d7f8 013e 714a 8cb9
00000110: 9111 d23c 168a 7d3d e36b d2bc 7ea2 433b
00000120: 07a9 e139 5c4a 16bc 64d4 cdbc c6ef 513c
00000130: 6256 8b3d 01b2 153e 31aa a93c 698b 3f3e
00000140: 5cb9 473e a411 a43d 3e34 5b3c 60b9 65bc
00000150: 674b f7bd a5fb 44be 80ad 26be 54e0 af3c
00000160: 0233 60bb 3be6 cabd b4e5 983b b00e 60bc
00000170: 4a2d 14bc b993 8f3c 5a91 96bc c9df 993c
00000180: 2f4d 543e 2ce2 2abe 0eaa 2ebe 1b81 a23b
00000190: 7eca 71bd be33 083d fa9a 02be 4eab 973c
000001a0: 5df4 45bd 9320 d3bb d907 5d3c 84e4 1b3e
000001b0: 8b5d 27be 8ef3 b23c 1f07 12bd bf26 3f3e
000001c0: 697b d63d 68ee e23d 4db3 b4bc d077 07bc
000001d0: 7cc2 babb bf8d d43c 4dfc a03b ad42 08bd
000001e0: f59f 9cbd 784a 873d 4f06 813c b426 3b3d
000001f0: 5f29 04bb c443 1f3c b013 b4bd 661b 383c
00000200: 1ef4 fe3d 0cf6 0bbe 621c 023e b9f2 f0bb
00000210: 57d7 673c 4121 aa3c be25 bbbc 923b 35bd
00000220: 455b c9bd 534e a73c c362 b6bd 3886 6abd
00000230: e130 cf3b d24d eb3d 7b35 9b3c 9a9e 0dbc
00000240: abd6 123c 354c f63c 5a4a d83d 3354 2cbd
00000250: 9fa6 2cbd 0ef9 8b3b ce3e ddbd af0c 083d
00000260: 8d8e b1bc dbfc 133a ef49 d33d cfc0 93bd
00000270: 9efc 3ebc 5d03 123e 6b12 533e 1791 be3c
00000280: f5a7 bfbc ad02 03be af9e 3dbc 0178 003e
00000290: f1e2 c8bb 7e71 233d 25cf a7bd 0496 57bc
000002a0: 2705 cebd 9af5 593b b6f5 013e 2285 043e
000002b0: affc 05bc 9678 5bbd 768a 95ba 5ce4 05bc
000002c0: 5c3f 45bb d8ce 8db9 3963 9e3d 9ded 10bd
000002d0: 9878 e13c c156 e4bb f620 43be a86c 3b3e
000002e0: bc58 7cbd 4d33 693c 848d bbbd 688f 883c
000002f0: c85e 94bd b285 853c 1c61 9abd ca0c d9bd
00000300: 80ed 2a3d df25 013c 7b9e 96bc f8e9 853b
00000310: b08b 243e 8065 31bc 82cf 103e e070 353e
00000320: 48ce 0e3e 5b1b 103e a93b 403d 82d9 14bc
00000330: 8138 bf3c 345c d3bc 3385 e53c 371c 8c3b
00000340: e0fa 863c e763 0e3b fe3e cf3b 2e70 b73c
00000350: cc8c 9ebb c84d 98bc 261b 823d 98e1 f4bb
00000360: ca3a 0b3b c0fb 01bc 4f18 cf3d e1d3 89bc
00000370: a972 663e 0d8f 25bb edd8 b03d 8ac7 fbbb
00000380: 5b21 713c 26a9 2b3d 1427 75bc 7f9f 523e
00000390: f6e2 2c3d 31cd 5dbd de8b aa3d 3f27 d53d
000003a0: afec 15bd 9579 7ebe 4954 cf3d 424f 24bc
000003b0: cf33 63bc 3c55 89be 6ea5 3cba dc39 323c
000003c0: 6ac0 2d3c 07c1 823c acf9 803e 82d3 6d3e
000003d0: 8849 813e 0993 763e b040 24be 9a51 193d
000003e0: 0743 dd3d 3981 7b3c 866a fb3c b2ba 523a
000003f0: 93f9 a83c 1ed0 c53b 7b8a d93d a700 373d

shortBranch.4.bias f4 [32]
-0.07266 -0.062321387 -0.020234479 0.09557194 0.064600065 -0.015294135 0.05348365 -0.07504572
0.06677592 0.023139065 0.0824752 0.05906235 0.13511404 -0.100225806 -0.07100031 -0.011214058
-0.0648078 0.09533948 -0.025310881 -0.007723915 0.05272892 0.037885685 0.11283977 -0.022943305
-0.09257541 0.014347942 -0.023156771 -0.08556906 -0.00064518 -0.10581208 -0.0941512 -0.024527287
00000000: c4ce 94bd b644 7fbd c7c2 a5bc 39bb c33d
00000010: 0a4d 843d 4094 7abc ac11 5b3d 92b1 99bd
00000020: d0c1 883d 238e bd3c c2e8 a83d 5deb 713d
00000030: 565b 0a3e 3043 cdbd 9c68 91bd 2bbb 37bc
00000040: f4b9 84bd 5841 c33d c458 cfbc e518 fdbb
00000050: 48fa 573d 052e 1b3d 8a18 e73d 99f3 bbbc
00000060: 2d98 bdbd a113 6b3c 45b3 bdbc d53e afbd
00000070: 4c21 29ba 01b4 d8bd 58d2 c0bd 73ed c8bc

shortBranch.6.weight f4 [10, 32]
-0.085729934 0.030906355 0.07389773 0.059583306 -0.103789836 0.10203919 0.05972934 0.16082883
-0.10470259 -0.06037806 -0.09293265 -0.075607605 -0.0928546 0.056461032 0.07905564 -0.12640361
0.024190193 0.08158757 0.030663505 0.06458197 -0.0535055 -0.09339164 -0.09239453 -0.050751835
0.08351394 0.116115466 -0.06790768 0.08091091 -0.14773959 0.14957383 0.09273396 0.06327119
-0.087191895 0.034346804 0.07877359 0.052170224 -0.106357284 0.10271455 0.05118576 0.16255154
-0.11703501 -0.06587788 -0.0912852 -0.07948203 -0.09230845 0.059953347 0.08008684 -0.13359301
0.023699371 0.08397116 0.032761525 0.070126876 -0.056597054 -0.09017676 -0.09070732 -0.049967907
0.08409826 0.119606994 -0.06499842 0.08540432 -0.13939813 0.15194622 0.09279565 0.06356773
-0.09333222 0.028237464 0.038646232 0.08189682 -0.08502708 0.101340346 0.07097634 0.15778542
-0.031149061 -0.06462698 -0.050006118 -0.0635258 -0.052606527 0.04403122 0.060320508 -0.091764815
0.022109216 0.05994595 0.03139341 0.03121707 -0.045755386 -0.075832576 -0.07543875 -0.05749198
0.08158997 0.088659324 -0.073178664 0.07115772 -0.1453804 0.13235226 0.08913438 0.057942867
-0.10242765 -0.3539514 0.030483311 0.10976863 0.23965713 0.05797295 0.079884 0.1763045
0.049236476 0.24367811 0.21799117 0.23268887 0.2773982 -0.22065404 -0.25405198 -0.04051027
-0.32205796 0.10724844 -0.30063665 0.0018861481 0.007627655 -0.12509365 0.20283131 -0.014932207
-0.2784982 0.095962554 -0.080091655 -0.18857616 -0.13346887 -0.1604953 0.082739174 0.09802471
0.36662012 0.03636104 -0.014094923 -0.34562564 -0.0996027 0.06911468 -0.34757116 -0.2399943
-0.16334283 -0.06721829 -0.0938041 -0.0788701 -0.086486086 0.05542055 0.07694589 -0.1034482
0.031072848 -0.07918678 0.037109643 0.01436448 -1.3206422e-06 0.23007987 -0.08496433 -0.03023559
0.08949739 0.034854878 0.36087602 0.08552772 0.27604714 0.1498197 -0.1923122 -0.24601017
-0.105807535 -0.022782255 0.069575064 0.1088004 0.21338068 0.11281993 0.08855949 0.18800765
-0.06284973 -8.4753934e-05 -0.047681972 0.21279795 -0.03409106 -0.2019688 -0.23315224 -0.12527362
-0.027990924 0.116395675 -0.022770146 0.06867734 -0.05983528 -0.12686554 0.18378788 -0.0647964
0.027813546 0.12828483 -0.086710274 -0.16870138 -0.14383821 -0.13887766 0.097658 0.10562379
0.030512458 -0.370449 -0.14862436 0.011949874 0.24950792 -0.34686682 -0.034733187 0.013032348
0.078454636 0.25731117 0.25792044 0.23331665 0.30566913 -0.2325849 -0.26402214 0.074159995
-0.34038568 0.078873135 -0.320077 -0.15682386 0.37984923 -0.041904327 0.2098463 0.44134352
-0.2899052 -0.02789675 0.052847873 -0.19701432 0.018833745 -0.16710256 -0.3113606 0.05009069
-0.13528745 -0.01461493 -0.38269275 0.12627697 -0.12217028 -0.0832034 0.10558903 0.025244128
0.26629248 -0.050700035 0.31926718 -0.1044562 0.26358792 0.07358545 0.09756091 0.30659395
-0.01340099 -0.3490946 0.0075990525 -0.38181943 0.28491354 0.25260314 -0.106362686 0.04747078
-0.004019297 -0.36604074 -0.08928644 0.10272585 -0.19139415 0.16692369 -0.013592324 -0.22420298
00000000: 2d93 afbd 532f fd3c b157 973d a00d 743d
00000010: c48f d4bd ecf9 d03d c1a6 743d 50b0 243e
00000020: 506e d6bd fc4e 77bd 7953 bebd 29d8 9abd
00000030: 8d2a bebd af43 673d ece7 a13d f36f 01be
00000040: 832a c63c 6217 a73d 0832 fb3c 8d43 843d
00000050: 9528 5bbd 1e44 bfbd 5839 bdbd 28e1 4fbd
00000060: 5b09 ab3d f2cd ed3d 2f13 8bbd 9fb4 a53d
00000070: 0c49 17be e229 193e 4deb bd3d 5394 813d
00000080: aa91 b2bd 3caf 0c3d 0c54 a13d 72b0 553d
00000090: d9d1 d9bd 025c d23d 29a8 513d e973 263e
000000a0: 0db0 efbd fbea 86bd bcf3 babd 79c7 a2bd
000000b0: 360c bdbd a491 753d 9204 a43d 9bcc 08be
000000c0: 2f25 c23c 12f9 ab3d f330 063d ae9e 8f3d
000000d0: 50d2 67bd 98ae b8bd c2c4 b9bd 26ab 4cbd
000000e0: b53b ac3d 83f4 f43d e41d 85bd 76e8 ae3d
000000f0: 62be 0ebe ca97 1b3e a50b be3d cc2f 823d
00000100: f724 bfbd 4152 e73c 834b 1e3d 85b9 a73d
00000110: ad22 aebd 878b cf3d 0b5c 913d 8092 213e
00000120: 512c ffbc 265b 84bd 37d3 4cbd d119 82bd
00000130: f179 57bd 155a 343d a312 773d 31ef bbbd
00000140: 631e b53c e289 753d 6096 003d f1ba ff3c
00000150: 006a 3bbd 1c4e 9bbd a27f 9abd b67c 6bbd
00000160: a418 a73d 0593 b53d b2de 95bd 24bb 913d
00000170: 99de 14be 5a87 073e 168c b63d 8055 6d3d
00000180: 96c5 d1bd 1e39 b5be 23b8 f93c 60ce e03d
00000190: ae68 753e 0b75 6d3d 399a a33d 2b89 343e
000001a0: 30ac 493d c186 793e 1439 5f3e fe45 6e3e
000001b0: 2307 8e3e 22f3 61be 1a13 82be 19ee 25bd
000001c0: c8e4 a4be 12a5 db3d 0ced 99be a138 f73a
000001d0: 68f1 f93b 8d18 00be 03b3 4f3e 37a6 74bc
000001e0: 5197 8ebe 0488 c43d 1807 a4bd 1c1a 41be
000001f0: 10ac 08be e158 24be 2873 a93d 2ec1 c83d
00000200: a2b5 bb3e 50ef 143d 64ee 66bc d8f5 b0be
00000210: 80fc cbbd ff8b 8d3d d9f4 b1be 11c1 75be
00000220: 5843 27be bea9 89bd 5d1c c0bd a686 a1bd
00000230: 9e1f b1bd a900 633d cf95 9d3d a6dc d3bd
00000240: 7c8c fe3c ae2c a2bd 4800 183d ff58 6b3c
00000250: ec40 b1b5 0f9a 6b3e c701 aebd a1b0 f7bc
00000260: 684a b73d fdc3 0e3d bec4 b83e 2829 af3d
00000270: 0d56 8d3e 566a 193e 7ded 44be 17ea 7bbe
00000280: 9fb1 d8bd daa1 babc 5f7d 8e3d bed2 de3d
00000290: 7780 5a3e 230e e73d ae5e b53d 1485 403e
000002a0: 5cb7 80bd ecbd b1b8 2c4e 43bd b5e7 593e
000002b0: 11a3 0bbd e9d0 4ebe 76bf 6ebe ba47 00be
000002c0: 394d e5bc db60 ee3d 7588 babc b5a6 8c3d
000002d0: d715 75bd 0ae9 01be e432 3c3e fab3 84bd
000002e0: 3cd9 e33c 195d 033e 2895 b1bd 0ec0 2cbe
000002f0: 534a 13be f235 0ebe eb00 c83d 4951 d83d
00000300: 43f5 f93c 7eab bdbe fc30 18be 68c9 433c
00000310: 017f 7f3e 8798 b1be 6344 0ebd a185 553c
00000320: d3ac a03d 4abe 833e 260e 843e 8fea 6e3e
00000330: aa80 9c3e bc2a 6ebe e92d 87be 32e1 973d
00000340: 0847 aebe 3d88 a13d 22e1 a3be 6f96 20be
00000350: 997b c23e dfa3 2bbd f3e1 563e c7f7 e13e
00000360: 746e 94be ba87 e4bc 0377 583d 1fbe 49be
00000370: 3a49 9a3c ef1c 2bbe a86a 9fbe e52b 4d3d
00000380: cb88 0abe 7673 6fbc 4ef0 c3be c04e 013e
00000390: 6934 fabd 8b66 aabd 103f d83d c6cc ce3c
000003a0: 7d57 883e d7aa 4fbd fd76 a33e 22ed d5bd
000003b0: fff4 863e f8b3 963d 04ce c73d e2f9 9c3e
000003c0: d38f 5bbc 87bc b2be 7901 f93b d67d c3be
000003d0: 30e0 913e 3355 813e aed4 d9bd b870 423d
000003e0: 4fb4 83bb b169 bbbe cfdb b6bd ee61 d23d
000003f0: d4fc 43be 0bee 2a3e 57b2 5ebc 7795 65be

shortBranch.6.bias f4 [10]
-0.14435785 -0.17108202 0.064169735 0.12632175 0.14199157 0.26399872 0.016736295 0.22058676
-0.3239036 0.06009435
00000000: 8bd2 13be 2030 2fbe 6c6b 833d 7d5a 013e
00000010: 3d66 113e d72a 873e 8e1a 893c 7fe1 613e
00000020: b1d6 a5be 7e25 763d

longBranch.0.weight f4 [64, 64, 3]
0.010712945 -0.07051167 -0.09386645 0.016587954 -0.024214469 0.00059254305 0.03683024 -0.031380977
-0.002312972 -0.07488466 -0.06980188 0.04770847 0.05718365 0.013680406 0.069128096 0.026989602
0.09751429 -0.032592244 -0.03278171 -0.043365546 -0.0063889325 0.041747157 0.0066559874 0.024831686
-0.0064609773 0.019930925 0.034560375 -0.03080899 0.0013022661 -0.044399824 -0.03754889 -0.006398258
0.024049489 -0.008645756 -0.010406955 0.028014623 0.035719953 0.0021216054 0.07093891 -0.0039926725
-0.02403164 0.049035743 -0.023155106 0.050298806 -0.026699884 -0.012644621 -0.0024093245 -0.002110728
-0.08659584 -0.0037163587 0.056435 -0.02922082 -0.033040337 0.0025887592 0.046768293 0.049010806
0.01809232 0.046673562 0.038252857 0.01870617 -0.09800403 0.015801987 -0.08196229 -0.009049545
-0.0086098835 0.037446834 0.029117096 -0.06506852 -0.00058334396 0.02742354 0.022574648 -0.005293665
0.015077742 -0.059422523 0.014704222 -0.05119514 0.048140112 -0.02573408 -0.0044807387 -0.08193621
-0.029891888 0.011772871 0.050673943 -0.009296957 0.019637218 0.07515605 -0.002584009 -0.031534832
0.06033482 0.026880689 -0.08477504 0.011083551 0.0052479734 -0.06992668 -0.043496694 -0.010628968
-0.03442783 -0.022438947 0.02413665 -0.057276428 0.001801353 0.051932517 0.042303365 0.056696188
0.050523143 0.007431954 -0.07698672 -0.030641694 0.029604051 0.009218883 0.0043557873 -0.05332718
-0.036857795 0.0061686044 0.00037465067 0.03673091 -0.03206529 0.008950788 -0.026603581 0.045669805
-0.023293532 -0.022119747 -0.024121016 -0.103503324 0.03962564 -0.065543614 -0.027082723 0.020864362
0.046109807 -0.014744669 0.008333422 -0.033730417 -0.01112563 -0.041394856 0.054204285 0.05984707
-0.019348213 -0.04035071 0.0383459 0.037302308 -5.2826723e-05 -0.040248867 -0.033767857 -0.049531136
0.005942066 0.0077055115 0.006401864 0.022950446 -0.009334423 0.049417652 -0.0056335377 -0.022409018
0.01581621 0.057006877 0.046795636 0.027751645 -0.058302443 0.022694476 -0.024936123 0.052349877
0.084187284 0.048707873 0.0040664794 0.0043075453 0.06810922 -0.107663 0.04102671 0.011232399
-0.0031044392 -0.013291529 -0.018736305 0.07584244 0.05467087 0.002602531 -0.029013649 0.025020707
0.047028605 0.05587437 0.017670484 -0.018880397 0.025651913 -0.061380822 0.008421277 -0.0030613749
-0.053358555 -0.036303915 0.023856374 0.03465614 0.046100024 0.017334823 0.029949365 -0.008515177
0.012049537 0.007567113 0.06501406 0.016594958 -0.013821262 -0.008883671 -0.045955155 -0.0064315135
0.017682273 0.0038718656 0.056672234 0.06288323 -0.028438225 0.02357732 0.061222352 -0.054342687
-0.021747049 0.0023199718 -0.007940089 -0.02799615 0.088175885 -0.0004501877 -0.08276887 0.009028971
0.005947896 0.005137761 0.061700016 -0.06621803 -0.061892018 -0.011290608 -0.022867495 0.0026708657
0.012340622 -0.040548697 -0.08283785 -0.048532546 -0.060324777 -0.002722302 -0.027319493 -0.017061139
-0.042277575 -0.020104907 -0.02370193 -0.085740425 0.073701106 0.019689646 0.005998409 -0.027821064
0.050703425 -0.029268943 0.025495913 0.005027395 0.014059647 0.006819592 -0.043738652 -0.009557217
0.0866873 -0.06020433 0.03984104 0.043033853 0.026243966 -0.022871736 0.040392548 0.07528602
00000000: 5985 2f3c 6c68 90bd 0e3d c0bd 76e3 873c
00000010: 6c5d c6bc e454 1b3a 4edb 163d 5789 00bd
00000020: 3b95 17bb 215d 99bd 4af4 8ebd f569 433d
00000030: 6739 6a3d c823 603c 0893 8d3d 4c19 dd3c
00000040: 92b5 c73d 727f 05bd 1d46 06bd 12a0 31bd
00000050: 405a d1bb 11ff 2a3d 781a da3b d26b cb3c
00000060: 9bb6 d3bb 2e46 a33c 2e8f 0d3d 2363 fcbc
00000070: cdb0 aa3a 97dc 35bd ddcc 19bd 7aa8 d1bb
00000080: 6f03 c53c eea6 0dbc ef81 2abc ec7e e53c
00000090: 164f 123d a20a 0b3b 6b48 913d f7d4 82bb
000000a0: 00de c4bc b4d9 483d c7af bdbc 1f06 4e3d
000000b0: b7b9 dabc 622b 4fbc c2e5 1dbb 2454 0abb
000000c0: 2959 b1bd 278e 73bb 6328 673d 8060 efbc
000000d0: 4e55 07bd 2ca8 293b 1c90 3f3d 8ebf 483d
000000e0: 5836 943c c72c 3f3d 07af 1c3d af3d 993c
000000f0: 56b6 c8bd 2b73 813c d8db a7bd 8b44 14bc
00000100: 7810 0dbc da61 193d fa86 ee3c a542 85bd
00000110: 8deb 18ba 55a7 e03c 78ee b83c 7b76 adbb
00000120: a208 773c 0865 73bd fae9 703c ffb1 51bd
00000130: 912e 453d 47d0 d2bc 29d3 92bb 2cce a7bd
00000140: d5df f4bc 00e3 403c 7b8f 4f3d 4452 18bc
00000150: 3bde a03c 6aeb 993d 7a58 29bb ab2a 01bd
00000160: a521 773d e434 dc3c 899e adbd c897 353c
00000170: 31f7 ab3b b835 8fbd 9729 32bd 1f25 2ebc
00000180: 3204 0dbd e2d1 b7bc 39ba c53c b09a 6abd
00000190: 601b ec3a 31b7 543d 4b46 2d3d 433a 683d
000001a0: 5bf1 4e3d c087 f33b 37ab 9dbd 4a04 fbbc
000001b0: 3284 f23c cc0a 173c feba 8e3b 9a6d 5abd
000001c0: 33f8 16bd 0122 ca3b c36c c439 2773 163d
000001d0: e556 03bd 53a6 123c c1ef d9bc 4310 3b3d
000001e0: 14d2 bebc 7934 b5bc 7099 c5bc 8df9 d3bd
000001f0: 7f4e 223d bb3b 86bd 96dc ddbc bdeb aa3c
00000200: a3dd 3c3d a093 71bc e888 083c e828 0abd
00000210: 4648 36bc a78d 29bd 5005 5e3d 3422 753d
00000220: 2580 9ebc c946 25bd 9710 1d3d 4eca 183d
00000230: 4392 5db8 ffdb 24bd 2a50 0abd 29e1 4abd
00000240: aab5 c23b 847e fc3b bac6 d13b 9302 bc3c
00000250: 68ef 18bc 2a6a 4a3d 8a99 b8bb 1e93 b7bc
00000260: ff90 813c 0b80 693d c8ac 3f3d 6b57 e33c
00000270: 8bce 6ebd c4e9 b93c d746 ccbc d36c 563d
00000280: 626a ac3d e881 473d 1a40 853b 4f26 8d3b
00000290: d97c 8b3d 6b7e dcbd a00b 283d 1908 383c
000002a0: d973 4bbb b7c4 59bc e17c 99bc 4853 9b3d
000002b0: 90ee 5f3d 3a8f 2a3b 08ae edbc 3af8 cc3c
000002c0: 11a1 403d 86dc 643d b1c1 903c 10ab 9abc
000002d0: f623 d23c 756a 7bbd 65f9 093c 59a1 48bb
000002e0: 808e 5abd 6ab3 14bd 716e c33c 99f3 0d3d
000002f0: 61d3 3c3d c201 8e3c 5f58 f53c 3e83 0bbc
00000300: 6c6b 453c 8bf5 f73b 1726 853d 26f2 873c
00000310: 9372 62bc d18c 11bc 793b 3cbd 72bf d2bb
00000320: 6ada 903c 20bf 7d3b 2521 683d ecc8 803d
00000330: 48f7 e8bc 3925 c13c 4ac4 7a3d 7096 5ebd
00000340: de26 b2bc ab0a 183b 2617 02bc 2f58 e5bc
00000350: 8f95 b43d 2c07 ecb9 ba82 a9bd 40ee 133c
00000360: 91e6 c23b aa5a a83b 28b9 7c3d 529d 87bd
00000370: 7c82 7dbd 3efc 38bc 9d54 bbbc b109 2f3b
00000380: 5230 4a3c 6416 26bd e4a6 a9bd 10ca 46bd
00000390: 1d17 77bd a668 32bb 21cd dfbc cdc3 8bbc
000003a0: 402b 2dbd 0cb3 a4bc 8d2a c2bc ad98 afbd
000003b0: 9bf0 963d 2e4c a13c 4d8e c43b 00e9 e3bc
000003c0: 65ae 4f3d 6cc5 efbc cedc d03c d9bc a43b
000003d0: 6f5a 663c e276 df3b 4d27 33bd e095 1cbc
000003e0: 1c89 b13d d198 76bd 5c30 233d 4444 303d
000003f0: 96fd d63c 825d bbbc a872 253d 8f2f 9a3d

longBranch.0.bias f4 [64]
-5.8356995e-06 7.5122116e-06 -5.8604446e-06 1.0728666e-05 1.3877962e-05 -7.8141306e-07 -1.2788707e-05 3.8189366e-05
-4.6191717e-06 -5.7278744e-06 6.0655284e-06 -3.1135569e-06 -1.2095751e-06 4.6825988e-07 -1.3033322e-05 -2.681351e-05
-2.1420772e-06 -2.4357798e-05 -3.5817498e-06 4.812781e-06 2.2816797e-05 1.7984677e-05 -1.5553662e-05 -1.7779239e-05
1.6581334e-05 -3.2619473e-06 -3.5057717e-05 -1.0331023e-05 -3.1305157e-05 -2.4275001e-05 1.8792402e-05 -4.90574e-06
3.0969695e-05 -4.6790992e-05 4.319047e-05 7.882093e-06 3.169078e-05 -5.5880646e-05 1.7182742e-06 1.5981055e-05
2.6675425e-05 -2.248443e-05 7.890164e-07 -3.2009848e-05 1.01118485e-05 -5.241501e-05 2.1627557e-05 8.090448e-06
3.796893e-05 -6.7524225e-06 1.9376143e-06 4.7982187e-05 1.8278599e-06 -1.2564873e-05 6.0015773e-06 -9.070512e-06
1.0851065e-06 6.9789935e-06 -1.2065612e-05 1.05399795e-05 7.27551e-06 -1.6254824e-05 -4.9590544e-05 -1.2901043e-05
00000000: 47d0 c3b6 6811 fc36 d6a4 c4b6 45ff 3337
00000010: 65d5 6837 4cc2 51b5 148f 56b7 852d 2038
00000020: 62fe 9ab6 1132 c0b6 7e86 cb36 80f2 50b6
00000030: af58 a2b5 2665 fb34 b1a9 5ab7 93ed e0b7
00000040: 9bc0 0fb6 f953 ccb7 fe5d 70b6 797d a136
00000050: b366 bf37 cddd 9637 3c79 82b7 a024 95b7
00000060: 2518 8b37 d4e7 5ab6 f00a 13b8 6853 2db7
00000070: a84d 03b8 2ba2 cbb7 60a4 9d37 fc9b a4b6
00000080: 75e5 0138 7241 44b8 6a27 3538 553d 0437
00000090: b7eb 0438 6361 6ab8 749f e635 0e0f 8637
000000a0: 0ac5 df37 f29c bcb7 cbcc 5335 5042 06b8
000000b0: 0fa6 2937 30d8 5bb8 d36c b537 36bc 0737
000000c0: d440 1f38 de92 e2b6 f607 0236 7b40 4938
000000d0: ca54 f535 b8cd 52b7 2861 c936 8d2d 18b7
000000e0: faa3 9135 192d ea36 696d 4ab7 ded4 3037
000000f0: 2820 f436 f85a 88b7 71ff 4fb8 8f71 58b7

longBranch.1.weight f4 [64]
0.7403228 0.7380081 0.85834396 0.7705005 0.74820924 0.7927801 0.7843217 0.77411354
0.7576627 0.7356914 0.7389427 0.75248903 0.79002845 0.83774865 0.7875645 0.7640551
0.8042045 0.83855623 0.79480135 0.78056157 0.7490994 0.76776785 0.7491061 0.7786022
0.7029363 0.7826392 0.7250255 0.8161858 0.7623085 0.75389785 0.8041217 0.7499676
0.74900454 0.8391946 0.73479956 0.77147967 0.6967299 0.82645065 0.7393203 0.7747923
0.76853853 0.7858406 0.7834658 0.75201607 0.7706539 0.8081532 0.75806546 0.72641075
0.6955047 0.7450304 0.8303114 0.7796998 0.772289 0.7567627 0.849403 0.7681831
0.7369707 0.7479792 0.75516605 0.7519459 0.7413793 0.80449766 0.76590693 0.7397027
00000000: cc85 3d3f 19ee 3c3f 6ebc 5b3f 853f 453f
00000010: a48a 3f3f a3f3 4a3f 4fc9 483f 4e2c 463f
00000020: 2ff6 413f 4656 3c3f 592b 3d3f 1fa3 403f
00000030: 4e3f 4a3f b276 563f d49d 493f 1d99 433f
00000040: 59e0 4d3f 9fab 563f 1a78 4b3f e2d2 473f
00000050: fac4 3f3f 6f8c 443f 6bc5 3f3f 7952 473f
00000060: a2f3 333f 0b5b 483f 459b 393f 8df1 503f
00000070: a626 433f 73ff 403f ebda 4d3f e0fd 3f3f
00000080: c3be 3f3f 75d5 563f d31b 3c3f b17f 453f
00000090: e45c 323f 4592 533f 1844 3d3f ca58 463f
000000a0: f1be 443f d92c 493f 3791 483f 2084 403f
000000b0: 9349 453f 21e3 4e3f 9410 423f 0ef6 393f
000000c0: 990c 323f 50ba 3e3f 4a8f 543f 689a 473f
000000d0: bbb4 453f 33bb 413f 7a72 593f a6a7 443f
000000e0: 1daa 3c3f 917b 3f3f 9052 413f 877f 403f
000000f0: 09cb 3d3f 8ff3 4d3f 7a12 443f 285d 3d3f

longBranch.1.bias f4 [64]
-0.047283903 -0.07070139 -0.038629044 -0.046620026 -0.11044325 0.013747876 0.0024925552 -0.00040170166
0.031000802 -0.05044613 0.07394738 0.02766529 -0.15732898 -0.058940228 0.0026815548 -0.023917513
0.017521031 -0.052484423 -0.05344662 -0.011464045 -0.032846306 0.041445937 0.07568766 -0.013466429
-0.024078114 -0.00012410694 0.00231925 -0.03215953 -0.027465982 -0.049977 -0.033812832 -0.0038744353
0.029005934 -0.009999037 -0.075607896 -0.06389386 -0.042727727 0.063418664 0.052621692 -0.07200296
-0.03710429 -0.009270709 -0.07755482 -0.051882345 0.024516463 0.034484483 -0.04534801 0.032267522
0.04030997 0.018494263 -0.06905326 -0.11071463 0.00091813575 -0.11830786 -0.09327952 -0.014837189
-0.04861927 -0.02965447 -0.02040066 0.037714228 -0.004608993 -0.018181222 -0.038528264 0.00049545633
00000000: c4ac 41bd e4cb 90bd 7d39 1ebd a4f4 3ebd
00000010: 1230 e2bd c53e 613c 235a 233b 7c9b d2b9
00000020: 65f5 fd3c 9aa0 4ebd b971 973d 51a2 e23c
00000030: d91a 21be 4f6b 71bd 06bd 2f3b a9ee c3bc
00000040: 4488 8f3c e8f9 56bd d8ea 5abd b1d3 3bbc
00000050: d989 06bd 37c3 293d 2202 9b3d 4ca2 5cbc
00000060: 773f c5bc b422 02b9 8ffe 173b b6b9 03bd
00000070: 5700 e1bc afb4 4cbd 537f 0abd 3dea 7dbb
00000080: da9d ed3c 00d3 23bc 50d8 9abd c9da 82bd
00000090: 4503 2fbd a5e1 813d d889 573d 4a76 93bd
000000a0: abfa 17bd 2ce4 17bc 10d5 9ebd 9582 54bd
000000b0: c0d6 c83c 9a3f 0d3d d6be 39bd f32a 043d
000000c0: 111c 253d 4881 973c cc6b 8dbd 5abe e2bd
000000d0: 0caf 703a 644b f2bd 5509 bfbd ae17 73bc
000000e0: 0025 47bd eeed f2bc 491f a7bc 3c7a 1a3d
000000f0: 0907 97bb c9f0 94bc d0cf 1dbd 83e1 013a

longBranch.1.running_mean f4 [64]
0.05740142 -0.2591913 -0.0013101869 -0.13696949 -0.23686035 -0.08488727 0.13076575 -0.018641222
0.10781785 -0.1665913 -0.25041953 -0.48210508 0.08460327 -0.0025279054 0.078557946 0.028386006
-0.10254028 0.049730666 0.13158159 -0.06855816 -0.240357 -0.25087103 0.012122743 0.05583168
-0.008625138 -0.290971 0.027804479 -0.0061558927 -0.18682389 -0.07373715 0.1667604 -0.29038706
-0.10837019 -0.306371 0.052295774 0.15101689 -0.18261912 0.57171434 -0.017515292 -0.22798747
-0.038505413 -0.016441012 -0.12588543 0.086628415 -0.119435094 -0.06037712 -0.050704088 0.22168776
-0.13060175 0.15483691 0.0840764 0.070680864 -0.10684595 0.14249025 -0.15022995 -0.20286189
-0.15165946 0.10884297 -0.042829953 -0.53572696 -0.04807602 0.28646985 0.06413178 -0.17803383
00000000: c01d 6b3d b9b4 84be 94ba abba bb41 0cbe
00000010: 858b 72be 61d9 adbd 75e7 053e 7ab5 98bc
00000020: 9bcf dc3d e996 2abe fd36 80be 7ad6 f6be
00000030: 7b44 ad3d 37ab 25bb fde2 a03d c589 e83c
00000040: a300 d2bd 62b2 4b3d 53bd 063e 3868 8cbd
00000050: 2520 76be 2b72 80be 789e 463c c2af 643d
00000060: 7350 0dbc 27fa 94be 38c6 e33c 5fb7 c9bb
00000070: c34e 3fbe 8103 97bd 3dc3 2a3e 9dad 94be
00000080: 31f1 ddbd a9dc 9cbe 1834 563d 2ca4 1a3e
00000090: 8200 3bbe df5b 123f 3b7c 8fbc 8c75 69be
000000a0: dab7 1dbd 4daf 86bc 1ce8 00be 3d6a b13d
000000b0: 639a f4bd 004e 77bd 17af 4fbd 1e02 633e
000000c0: 77bc 05be 918d 1e3e 3f30 ac3d 21c1 903d
000000d0: 0dd2 dabd f7e8 113e e1d5 19be 07bb 4fbe
000000e0: 9e4c 1bbe 10e9 de3d 766e 2fbd 6725 09bf
000000f0: 5ceb 44bd 2dac 923e 8657 833d 804e 36be

longBranch.1.running_var f4 [64]
0.03745584 0.038461097 0.20233192 0.07009749 0.07864872 0.11622056 0.07037588 0.04380218
0.03716672 0.05450927 0.09537546 0.07814647 0.029057883 0.12667015 0.03463366 0.039882403
0.13661553 0.1638769 0.0921235 0.19513479 0.10448808 0.149627 0.07528241 0.12077766
0.035403375 0.090506166 0.07764019 0.11163292 0.055429038 0.07837358 0.08201409 0.16541
0.114122495 0.028738791 0.07344926 0.036847755 0.038665596 0.073462315 0.089757524 0.15899058
0.044040047 0.05142227 0.051197413 0.039092574 0.124221824 0.19687739 0.15567465 0.055487007
0.09554517 0.062413953 0.08969815 0.02643313 0.055718273 0.027771844 0.1103083 0.10884339
0.039204236 0.044622198 0.066746116 0.102464885 0.09561698 0.08679908 0.044534944 0.13483712
00000000: 4b6b 193d 6289 1d3d 1930 4f3e 468f 8f3d
00000010: 9512 a13d 0c05 ee3d 3b21 903d ea69 333d
00000020: 213c 183d 1d45 5f3d 3654 c33d 420b a03d
00000030: cc0a ee3c d2b5 013e 06dc 0d3d bb5b 233d
00000040: f1e4 0b3e 59cf 273e 3fab bc3d 6ad1 473e
00000050: d9fd d53d d237 193e aa2d 9a3d 475a f73d
00000060: 2103 113d 4c5b b93d d201 9f3d cd9f e43d
00000070: 8f09 633d 5482 a03d 01f7 a73d 3d61 293e
00000080: 0eb9 e93d 9d6d eb3c 916c 963d aced 163d
00000090: d15f 1e3d 6973 963d cbd2 b73d 6dce 223e
000000a0: 5663 343d 28a0 523d 61b4 513d 891f 203d
000000b0: 0368 fe3d 3a9a 493e 2d69 1f3e 5846 633d
000000c0: 30ad c33d c6a5 7f3d aab3 b73d 4b8a d83c
000000d0: d838 643d c781 e33c 51e9 e13d 49e9 de3d
000000e0: 9f94 203d c4c5 363d 30b2 883d 1cd9 d13d
000000f0: d6d2 c33d b7c3 b13d 466a 363d be12 0a3e
