Models/best_eeV2_0501.pth (torch, 769803 bytes, 48 tensors)

baseModel.0.weight f4 [64, 2, 3]
000000 25 56 2a 3c a0 cc a6 be 47 a1 bf be 64 38 81 3e
       0.010396515 -0.3257799 -0.37427732 0.25238335
000010 4c 8b 85 be 55 69 98 be ef 53 45 3d 99 c4 fd 3c
       -0.26082838 -0.29767862 0.04817575 0.030977534
000020 35 0f 5c be 8e 77 40 bd 30 8b 99 be c1 f6 02 be
       -0.21490176 -0.046989016 -0.29989004 -0.12789442
000030 ab 56 88 be 91 7b 79 be 05 d8 85 3e db 93 94 3e
       -0.26628622 -0.24363543 0.26141372 0.29019055
000040 10 bd db 3b fb 53 2b 3e e2 40 f0 3d 93 27 58 be
       0.0067058876 0.16731255 0.117311254 -0.21108846
000050 55 bb 85 3e 8e 9d c2 bc e1 a1 a4 3c 9c 4f 79 be
       0.26119485 -0.023756769 0.020096721 -0.24346775
000060 e3 a0 7e 3e d3 6e b2 3e 96 22 62 3e 8c 01 2a be
       0.24866061 0.34850177 0.22083506 -0.16602153
000070 0f 35 c9 3b f7 8a 05 3e d4 b5 70 3b 35 2c 78 3e
       0.0061403583 0.13041292 0.0036729472 0.24235614
000080 fe c4 8d be 05 32 20 3e 34 dc 2a be 04 1e 3b 3e
       -0.27689356 0.15644081 -0.16685563 0.18273169
000090 50 a9 60 3e d7 66 22 be d4 51 c6 3d ed f2 89 3d
       0.21939588 -0.15859543 0.09683576 0.067357875
0000a0 2b 69 8b be 02 07 cb 3d d7 54 c3 be 91 79 9f be
       -0.27228674 0.09913446 -0.38150665 -0.31147435
0000b0 bd 22 10 3e bf c0 4d be 45 76 90 3d 79 06 8a bd
       0.14075752 -0.20093058 0.07053808 -0.06739516
0000c0 5c 9f 5d 3e b9 95 9d bd 4b 9e 55 3e 7b f3 b1 be
       0.21642822 -0.07694573 0.20861165 -0.34756073
0000d0 a3 38 8d bb 90 02 bb 3e c5 3d 44 be 09 bc 4d 3e
       -0.00430973 0.36525393 -0.19164188 0.20091261
0000e0 9e 8e 3c be 97 9f 5d 3e 17 6a af be 27 98 59 3e
       -0.18413779 0.2164291 -0.34260628 0.21249448
0000f0 ff df a4 3d 4a 28 83 be 92 6b d1 3c 93 02 79 3e
       0.08050536 -0.25616676 0.025563989 0.24317388
000100 c8 63 b5 be 49 09 a5 be 52 2e 92 be 69 d8 8d 3d
       -0.3542769 -0.32233647 -0.28550965 0.069260426
000110 cc 2a 1f bd 02 b4 bb be 0f a6 8b be b5 83 30 be
       -0.038859174 -0.36660773 -0.2727513 -0.17237742
000120 b8 d6 08 3e a1 2d 43 3d 7a 02 37 be d2 27 bb be
       0.13363159 0.047650937 -0.17872038 -0.36553818
000130 63 da ca 3c 5a 5c af 3e 0c a4 4a 3e b2 6a 0e 3e
       0.024762338 0.34250146 0.19789141 0.13907889
000140 c0 1d 49 be 31 32 7e be 4c 83 5e 3e 2b 52 5d 3e
       -0.19640255 -0.24823834 0.21729773 0.21613376
000150 eb 9b aa be 82 21 34 be 4b da f7 bd 62 13 34 be
       -0.3332208 -0.17590907 -0.12102183 -0.17585519
000160 84 26 57 3e e1 a4 80 3e 32 a3 09 be 65 b3 88 3e
       0.21010786 0.25125793 -0.1344116 0.26699367
000170 ac 56 43 3c 00 68 e1 3d f7 d2 d6 bd 2b 32 84 3e
       0.01192252 0.110061646 -0.10489457 0.25819525
000180 c3 79 56 bd 95 ed f8 3d 89 b5 c7 3d 37 76 b6 3e
       -0.052362215 0.1215469 0.09751422 0.35637066
000190 15 53 98 3e e7 28 7a 3b b1 d3 4d be 2d c5 a8 be
       0.29750887 0.0038171352 -0.20100285 -0.32962933
0001a0 63 b9 48 be ce 24 87 be 34 6e c6 bd d5 aa 8c 3e
       -0.1960197 -0.26395267 -0.09688988 0.27474084
0001b0 71 a1 54 be 68 48 3a be 2b b7 e4 3d bd ac 34 3e
       -0.2076471 -0.18191683 0.11167749 0.1764402
0001c0 a0 95 9d 3e ee 99 a3 3e 57 38 23 3d 2b c0 6d 3e
       0.30778217 0.31953377 0.03984865 0.23217838
0001d0 05 39 8f bd 6a 4a 9c 3e 2c 91 2f be 76 b9 2d 3e
       -0.069932975 0.30525523 -0.17145222 0.16965279
0001e0 ac 3b a7 3e 7a e6 0c 3b 5e 38 f3 bd 5e 1f 07 3e
       0.32662714 0.002149968 -0.118759856 0.1319556
0001f0 6a ac 90 bb 6b 3c 90 bc 5a 16 27 3e 1d b2 9e bd
       -0.0044150846 -0.017606935 0.1631712 -0.07748816
000200 0f e3 97 bd 7c 60 c0 3e 54 6c 60 bd 5a ad 99 be
       -0.07416355 0.37573612 -0.05479081 -0.3001507
000210 d8 22 21 be bf 07 73 be ab 57 97 be 99 91 39 3e
       -0.15735948 -0.23733424 -0.29559073 0.18121947
000220 8f cd 62 3e ed 63 9c bd 7e 34 bf 3e 57 20 c6 3e
       0.22148727 -0.07636247 0.37344736 0.38696548
000230 45 26 66 be 62 b5 8b 3c d3 98 96 bd 0f 0e 3f bd
       -0.22475536 0.017054264 -0.07353368 -0.046644267
000240 92 44 7a be 84 b0 1d 3e 6a c6 77 be af df 33 bc
       -0.2444022 0.15399367 -0.24196783 -0.010978623
000250 e5 51 ff 3d 0a 5e 06 be 38 a6 14 3e 11 06 8e 3e
       0.12466792 -0.1312181 0.14516532 0.27739003
000260 64 5c 5c bc 79 16 0b 3e e5 8a 30 bb 44 47 cc 3d
       -0.013449762 0.13582791 -0.0026938256 0.0997453
000270 75 76 d5 3d 71 33 c0 3d 0e 26 e0 3d 74 e5 0d bd
       0.104229845 0.09384812 0.10944758 -0.03464265
000280 91 85 a2 be e2 99 68 be ec ca ce 3c 94 f3 b1 bd
       -0.31742528 -0.22714952 0.025243245 -0.08689037
000290 75 72 d5 bb 98 97 0e 3d e1 1d 13 3e eb 6c b0 3e
       -0.0065138885 0.03481254 0.14366867 0.34458098
0002a0 c2 76 8a 3e 5a 35 91 3d de 93 b8 be 69 83 37 3e
       0.2704373 0.07090254 -0.36050314 0.17921223
0002b0 79 8f 94 be f5 9d 28 3e 66 8b 05 be a4 92 15 3e
       -0.2901571 0.16466506 -0.13041458 0.1460672
0002c0 f7 fb a5 3d bf 75 25 be 06 f6 1d 3e af 37 4d bd
       0.08104699 -0.16158198 0.15425882 -0.050101932
0002d0 ac 4d 7c be d9 f5 3b be e3 76 1a be 88 7a a3 3d
       -0.24639004 -0.18355502 -0.15084414 0.07982355
0002e0 0d b9 a1 3c 22 ba 93 3d ab da ca bd b3 2c 7a 3e
       0.01974156 0.072132364 -0.09904989 0.24431114
0002f0 8b 5f 8d 3e fa 77 90 3d 7d d7 8e be 76 22 c5 be
       0.27611956 0.07054134 -0.2789878 -0.38502854
000300 e6 8b 3e be a6 b1 32 3e f5 64 7f 3e 8b 44 af 3e
       -0.18608055 0.1745058 0.24940856 0.34231982
000310 49 29 13 3e 42 7f a2 be 98 4c 80 3e bd 27 99 3c
       0.14371218 -0.31737715 0.25058436 0.018695707
000320 e7 6a 0a bd 1a 4b 13 be 96 92 82 be f8 3c 3c be
       -0.033793356 -0.14384118 -0.2550246 -0.18382633
000330 2e 95 64 be 4a a6 cc be 60 6b 84 be 4f 29 ba bb
       -0.22322533 -0.39970618 -0.2586317 -0.005681194
000340 0c 2d a6 bd cb 85 22 bc 20 30 b1 be 18 b4 ab 3c
       -0.08114061 -0.009919594 -0.3460703 0.020959899
000350 29 75 ac 3e cb b4 50 be 76 ff af ba 6f 06 5f 3e
       0.33683136 -0.20381467 -0.0013427574 0.21779798
000360 78 97 bd 3c 6d c0 59 bd de 26 6a be f9 7b 5a bc
       0.023143515 -0.053162027 -0.22866389 -0.013335221
000370 e7 2d 56 be c1 5b 5e be fb 3c aa bc ca ea 6c 3d
       -0.20915948 -0.21714689 -0.02078103 0.0578411
000380 ab 46 ff bd 34 c2 0e be 97 98 61 3e 2d 73 8e be
       -0.12464651 -0.1394127 0.22030865 -0.27822247
000390 13 96 8f 3e 3e 44 32 be 6c d3 e8 bd a4 d5 a3 3e
       0.28044185 -0.17408845 -0.113684505 0.31998932
0003a0 de bc c1 3e b5 02 4c 3e 12 2b 0e 3d b1 a3 89 be
       0.37839407 0.19922908 0.034709044 -0.268827
0003b0 c8 98 0d 3e 01 0b 79 be 1b ee 5e bd 5d 32 60 3e
       0.13827813 -0.24320604 -0.054426294 0.21894212
0003c0 27 46 fa 3c e1 00 7b 3e 77 a9 9c be 2f dc ab 3d
       0.03055103 0.24512054 -0.3059804 0.08391606
0003d0 31 5b 81 be b7 c8 0c bc 80 ed 13 3e c2 19 9e 3e
       -0.25264886 -0.008592776 0.14446068 0.30879027
0003e0 a5 0f 85 3e 5b f4 88 3e ed 10 8a 3d 7c ad f6 bc
       0.25988498 0.26748928 0.067415096 -0.03011202
0003f0 53 9d b6 3d e3 8e f4 bd 90 8a 92 be 3b ed 87 3d
       0.08916726 -0.11941316 -0.2862134 0.06637045

baseModel.0.bias f4 [64]
000000 39 c8 13 ba fe f8 02 39 75 8c 85 b9 04 2e bf b9
       -0.00056374405 0.00012490523 -0.00025472385 -0.00036464643
000010 f4 de 65 39 a2 f8 9b 39 86 ed 34 b9 a5 ab 39 3a
       0.00021922198 0.0002974915 -0.00017254622 0.0007082767
000020 56 5d c8 b9 bd f0 a2 b7 28 41 9f b9 fd ed 56 39
       -0.00038216513 -1.9424007e-05 -0.00030375388 0.00020497288
000030 be 21 1e 39 6a 8a d4 39 b3 b3 d4 b9 b1 9e d1 39
       0.00015080624 0.00040538918 -0.00040569677 0.0003998182
000040 e5 18 ed 39 a1 b6 13 3a c1 96 b1 39 0f 8a 76 38
       0.0004522271 0.0005634819 0.0003387239 5.8779548e-05
000050 c5 1b 08 3a 71 d2 6e b9 2d 6f e3 b6 5a 9c 92 b9
       0.0005192126 -0.00022775844 -6.7780697e-06 -0.0002796378
000060 0c 97 6f b7 0c e9 8b b7 79 6e 28 ba 37 ff 04 ba
       -1.4280678e-05 -1.6678612e-05 -0.0006425153 -0.00050734304
000070 ba 69 d6 b8 8d aa f0 39 30 a2 81 39 8a c6 ef 39
       -0.00010224008 0.00045903437 0.00024725636 0.00045733555
000080 5c 5e 4e ba 32 9a b3 38 7f 87 8f 38 22 31 9b 39
       -0.0007872337 8.564106e-05 6.8440095e-05 0.0002960051
000090 d0 25 16 39 80 95 d6 39 6c 37 10 b9 0e 65 de 38
       0.00014319201 0.00040928647 -0.00013753556 0.00010604608
0000a0 cb c3 80 39 59 ad bf b8 c6 30 ec 39 24 54 db b9
       0.0002455994 -9.139878e-05 0.00045049767 -0.00041833625
0000b0 d5 af 4e 38 5f 28 4e 3a 57 b6 1a 3a 45 c8 da 38
       4.9277984e-05 0.0007864292 0.00059018045 0.00010432353
0000c0 57 33 66 b9 a4 74 c2 b9 88 24 54 38 66 97 44 3a
       -0.00021953635 -0.00037089468 5.057876e-05 0.0007499367
0000d0 76 f7 79 38 33 29 66 39 fa d8 11 b9 59 7d 7b b9
       5.9596692e-05 0.00021949857 -0.00013909108 -0.00023983921
0000e0 23 f3 89 b9 aa e3 70 39 4a 61 bc b9 f5 c9 13 b7
       -0.00026311827 0.00022972995 -0.0003593064 -8.808905e-06
0000f0 a4 ed 0c b9 a4 26 cb 39 d2 c7 ca b9 60 32 ae b9
       -0.00013439968 0.00038747967 -0.0003867732 -0.00033225399

baseModel.1.weight f4 [64]
000000 1b 2a 4c 3f 19 f3 44 3f fb b0 39 3f 98 ec 3f 3f
       0.7975175 0.7693344 0.72535676 0.7497039
000010 d0 0b 64 3f 73 66 2a 3f 16 0d 46 3f ef 98 48 3f
       0.89080524 0.66562575 0.7736372 0.7835836
000020 22 48 40 3f 9c 34 3c 3f d7 2f 38 3f bb 8e 4f 3f
       0.75110066 0.73517776 0.71948 0.81077164
000030 79 72 53 3f af 77 3e 3f b5 e0 44 3f 9d a6 2a 3f
       0.82596546 0.7440137 0.76905376 0.6666048
000040 5e 7e 65 3f 8f 81 4c 3f 8a e8 65 3f 63 5f 2e 3f
       0.89645946 0.7988519 0.8980795 0.681143
000050 d7 16 45 3f d7 68 51 3f ea 49 52 3f 30 93 4a 3f
       0.76987976 0.818006 0.82144034 0.7913084
000060 45 c7 47 3f d4 47 3f 3f 28 57 5c 3f 6e dd 4c 3f
       0.78038436 0.74718976 0.8607049 0.80025375
000070 dd 74 30 3f 0d bc 42 3f 3e 66 4e 3f d2 5e 5d 3f
       0.6892832 0.7606819 0.8062476 0.8647281
000080 bd e6 46 3f 7f ee 55 3f 7f 92 69 3f 66 b5 55 3f
       0.7769583 0.8356704 0.9123916 0.8347992
000090 bd 54 40 3f 0d fe 38 3f fd 54 5b 3f 97 4d 2f 3f
       0.751293 0.7226265 0.85676557 0.6847777
0000a0 17 e5 30 3f 4c a8 5c 3f 6e 5a 51 3f 5a 76 39 3f
       0.69099563 0.861943 0.8177861 0.72446215
0000b0 d9 11 29 3f 96 60 4a 3f 86 39 3a 3f c1 00 4c 3f
       0.6604286 0.7905363 0.72744024 0.7968865
0000c0 dd f3 53 3f 0f bf 38 3f 56 3a 52 3f 88 44 62 3f
       0.8279398 0.7216653 0.82120264 0.8838582
0000d0 b3 9a 5c 3f 20 51 5c 3f f3 a9 48 3f 21 97 4e 3f
       0.8617355 0.86061287 0.7838432 0.80699354
0000e0 9e 96 60 3f 54 13 41 3f c7 b0 41 3f da dd 55 3f
       0.87729824 0.7542012 0.75660366 0.83541644
0000f0 f2 ed 3b 3f 58 1a 46 3f 00 ac 4a 3f a2 b0 6b 3f
       0.7340995 0.7738395 0.791687 0.92066395

baseModel.1.bias f4 [64]
000000 f8 67 7e bd b8 49 b8 bd a9 f8 46 bd 52 e6 25 bd
       -0.06211087 -0.08998436 -0.048576985 -0.040502854
000010 05 ed 9a bc e5 ad 33 bb ff 63 52 bd a3 ee 78 bd
       -0.018911848 -0.0027416882 -0.051364895 -0.060774457
000020 3f 9b 6a bd 4b 7b 95 3c f7 2c 73 bc 9c 1d 0a 3c
       -0.05727696 0.018247267 -0.014842263 0.008429911
000030 11 b4 98 bd d0 97 ef bc f8 ac 81 3d 80 da 4a bd
       -0.0745622 -0.029247195 0.06331819 -0.049524784
000040 1a d5 a5 3c 47 87 9c 3c 27 84 83 bd f8 d4 cd bb
       0.020243216 0.019107474 -0.064216904 -0.0062814914
000050 49 92 33 bd 68 c5 53 bd ad 66 27 bd f8 02 b5 bd
       -0.04384068 -0.051701933 -0.040869404 -0.08838457
000060 33 97 89 bc 29 5b 69 bd b8 cc 8f bc 17 56 ed bb
       -0.01679573 -0.056971703 -0.017553672 -0.0072429287
000070 97 00 7d bd 7c 3b 19 bb 5f fa 82 bd ba 24 b7 bc
       -0.06176814 -0.0023381403 -0.06395411 -0.02235638
000080 31 48 33 bd 7d f5 99 bd 7f 0c d3 bc ca 9b 5f bd
       -0.04377002 -0.07517526 -0.025762795 -0.05459193
000090 97 57 e1 3c af 3b 8a 3d 01 b9 d4 bd 87 8f c8 bb
       0.027507586 0.06749665 -0.10386849 -0.0061206254
0000a0 be 0a ec bc d6 73 20 bd 91 84 33 bd 90 8a 0d bd
       -0.028813716 -0.03917297 -0.043827597 -0.03455597
0000b0 77 fa ee bc c9 54 2d bd 18 9f 0f bd 5e 80 38 bd
       -0.029172165 -0.042317186 -0.035063833 -0.045044295
0000c0 eb d7 be 3c 85 72 b2 bd e5 8e 3a bd 0c ca 18 bd
       0.023296317 -0.08713249 -0.04554643 -0.037302062
0000d0 84 12 00 3d 4b 4b 6e bd 99 ce e7 bc e9 dc 62 bb
       0.031267658 -0.058177274 -0.028296756 -0.0034616536
0000e0 d9 57 6b bd d4 9b 04 bd bf 36 9c bd c0 2a e1 bd
       -0.057456825 -0.03237517 -0.076276295 -0.10994482
0000f0 63 71 29 bd 3b 34 9d bd 20 b7 0f bd 54 45 0d bd
       -0.0413679 -0.07675978 -0.03508675 -0.034489945

baseModel.1.running_mean f4 [64]
000000 db 18 e7 b9 10 9a 90 38 0c 88 cb b9 be a0 02 ba
       -0.00044078272 6.8951515e-05 -0.0003882054 -0.0004983059
000010 3a 7d 14 36 75 1e fd 38 cb 8a 2a b9 4b d4 1e 3a
       2.212661e-06 0.00012069653 -0.00016264168 0.0006058856
000020 19 db f9 b9 83 2e c8 38 e8 33 a0 b9 5a b8 9d 39
       -0.0004765622 9.545407e-05 -0.0003055625 0.00030082726
000030 8c a5 4a 39 c2 70 79 39 86 b9 a6 b9 b9 4b 80 39
       0.00019325892 0.00023788496 -0.00031800213 0.0002447048
000040 7a d7 be 39 00 cf 12 3a db 54 94 39 30 24 13 35
       0.00036400167 0.00056003034 0.00028291982 5.4814427e-07
000050 88 52 95 39 e2 a2 51 b9 ac 66 9c b8 5e e5 70 b9
       0.00028480985 -0.00019992472 -7.457784e-05 -0.0002297363
000060 e1 1e 77 b7 79 15 bc b7 47 43 0a ba c2 18 d0 b9
       -1.4729537e-05 -2.2421345e-05 -0.00052743073 -0.00039691298
000070 13 c0 84 b8 b8 ea e4 39 00 bb db 39 f0 c0 26 3a
       -6.330027e-05 0.00043662428 0.0004191026 0.00063611474
000080 90 c0 15 ba 2a d2 0d b9 10 6e 08 38 ba 50 67 b8
       -0.0005712593 -0.000135251 3.252743e-05 -5.5149874e-05
000090 5c cc cb 38 57 fd 85 39 c9 51 8d b9 5c b0 71 37
       9.717859e-05 0.0002555649 -0.0002695455 1.4405781e-05
0000a0 f9 4c 96 39 e4 9b 4e b9 f1 9b 9c 39 ea 55 fa b8
       0.0002866758 -0.00019703765 0.00029870824 -0.00011936932
0000b0 2f fe 60 39 65 28 e6 39 c1 02 a2 39 3b f6 ae b8
       0.00021456995 0.00043899115 0.000309011 -8.3428306e-05
0000c0 0b 78 39 b9 9d 7d 9f b9 d0 6d cb 38 c7 2b 55 3a
       -0.00017687694 -0.00030420432 9.7002485e-05 0.00081318285
0000d0 22 b3 a3 38 2f 62 cb 39 5d 9c 8b b9 69 06 bd b9
       7.805812e-05 0.0003879233 -0.00026628646 -0.00036053665
0000e0 b4 27 23 b9 c1 c7 0b 39 bf 22 de b9 6a 41 97 b8
       -0.00015559682 0.00013330487 -0.00042369028 -7.2124254e-05
0000f0 0d 53 59 b9 7b f0 df 38 b9 16 a5 b9 0c ef 58 b9
       -0.00020725671 0.000106782616 -0.00031488182 -0.00020688417

baseModel.1.running_var f4 [64]
000000 aa 78 af 37 32 82 f6 36 a0 e0 43 37 85 e0 9d 36
       2.0917814e-05 7.346528e-06 1.1675205e-05 4.705102e-06
000010 7e 7d 82 37 65 cf a1 36 c0 c0 7c 36 9c f2 5c 37
       1.5555644e-05 4.822318e-06 3.7663121e-06 1.3169509e-05
000020 b8 c6 42 37 65 d8 c6 36 84 99 5b 37 8d 9d 8a 37
       1.1609569e-05 5.9260515e-06 1.308916e-05 1.6524247e-05
000030 66 ea 2c 37 18 a4 11 37 4c 7e 69 37 c9 a8 a0 36
       1.0306574e-05 8.68088e-06 1.3917288e-05 4.7880208e-06
000040 76 68 51 37 cf 88 8a 37 3b ba 90 37 8d 53 bd 36
       1.24816925e-05 1.6514588e-05 1.7252858e-05 5.6423655e-06
000050 a4 5d a5 36 6b 2b 17 37 0b 87 67 37 fa 94 70 37
       4.9282844e-06 9.01041e-06 1.3800115e-05 1.4339801e-05
000060 2e ac 8c 36 49 19 c7 36 67 5e 2b 37 94 ee f3 36
       4.1923695e-06 5.9336057e-06 1.0214374e-05 7.2697385e-06
000070 ec f1 20 37 65 55 24 36 7f 31 f9 36 98 1d 95 37
       9.59307e-06 2.448761e-06 7.4265404e-06 1.7775965e-05
000080 b0 89 5c 37 54 77 22 37 9a ab 8d 37 fb 84 38 37
       1.314508e-05 9.683736e-06 1.6888418e-05 1.0998217e-05
000090 a1 d4 f3 36 21 00 67 36 90 e0 ac 37 ea 29 c7 36
       7.2667176e-06 3.4421757e-06 2.0608568e-05 5.9355416e-06
0000a0 81 df c3 36 d7 b8 6e 37 ea fd fe 36 e0 d0 38 37
       5.837472e-06 1.4228942e-05 7.5993494e-06 1.1015887e-05
0000b0 21 b5 e3 36 65 f0 f3 36 42 03 58 37 ab fa 1e 37
       6.7862134e-06 7.26995e-06 1.2875362e-05 9.475897e-06
0000c0 cb 5a 8a 37 44 6c ed 36 cc 38 76 37 2d ff 1c 37
       1.649316e-05 7.075754e-06 1.4675967e-05 9.357737e-06
0000d0 5b 42 42 37 b9 3c 7f 37 51 d2 56 37 ac b9 46 37
       1.1578751e-05 1.52133225e-05 1.2804362e-05 1.184495e-05
0000e0 4c 33 ae 37 fa 55 18 37 ee 54 2a 37 ed 06 3d 37
       2.0766303e-05 9.079924e-06 1.0152564e-05 1.126689e-05
0000f0 80 94 08 37 b4 10 54 37 97 d9 fe 36 c5 8b 22 37
       8.140807e-06 1.2640074e-05 7.5951207e-06 9.688495e-06

baseModel.4.weight f4 [64, 64, 3]
000000 2f 4a 23 3b 31 4f 21 3d b0 4f 05 bd 2d 0d a0 3c
       0.0024916043 0.039382163 -0.0325467 0.019537533
000010 47 1f 51 bb 3b 7c 07 bc 81 ce 1c bd 18 3f 24 3d
       -0.0031909512 -0.008269365 -0.038282875 0.040099233
000020 11 21 77 3d ae a3 6c bd 34 a6 1e bd de ed e6 3b
       0.06033427 -0.057773285 -0.038732722 0.007047399
000030 a9 3d 2a 3d 08 20 a2 bd 72 3a 87 bb d8 0b 48 bc
       0.04156271 -0.07916266 -0.0041268403 -0.012209855
000040 28 2b 0b 3c fa ee 92 3b c0 db 38 bd 4e 30 2b 3d
       0.008494176 0.0044840546 -0.045131445 0.041794114
000050 e6 f4 f2 3c eb 08 3b 3d 5e 94 4e 3d 0c 8e e5 bc
       0.029657792 0.0456628 0.050434463 -0.028021835
000060 7b 97 48 3d 4f 65 66 bd 2f b7 c4 bc 86 0b 2e 3d
       0.048972588 -0.05624896 -0.02401313 0.04249146
000070 b1 4b 00 3b 53 db 32 3c 68 7a 83 bc e2 88 0f 3d
       0.0019576366 0.010916549 -0.016049579 0.03504265
000080 b2 44 0d 3c 5f 69 9d bd 7d 55 0c bb b4 8c 7f 3b
       0.008622335 -0.076861136 -0.002141326 0.0038993778
000090 a2 66 14 bd 5f de e8 3a ba 57 0d 3c c8 a6 ec bc
       -0.03623069 0.0017766467 0.008626873 -0.028888121
0000a0 dc 1c 7b ba 65 eb 0c bd 9f dc c5 3c ed d0 7d bd
       -0.00095791905 -0.034404177 0.024153052 -0.061966825
0000b0 f8 1c 2a bd 26 f8 33 3d 18 03 c9 3b 67 4a c3 3c
       -0.041531533 0.043937825 0.006134402 0.023839189
0000c0 ef 33 dd bc 6e d0 1d bd 78 43 55 bd 9a 50 2b 3d
       -0.027002303 -0.038528852 -0.052066296 0.041824915
0000d0 61 d8 2e 3c 7f d9 82 3d 3c 49 00 bd a6 e2 14 be
       0.010671706 0.0638914 -0.03131984 -0.14539585
0000e0 0b c8 97 bc 6b e2 45 3d a6 00 fc 3c 62 2b 8a 3d
       -0.018528005 0.048311632 0.030762028 0.06746556
0000f0 b8 0b 0e 3d ec b6 c7 3d 81 6b ab 3c 31 5e 0e bc
       0.034679145 0.097516865 0.020925285 -0.008689449
000100 6f 71 6a 3d 43 0b fb 3c bb e9 cf bd 78 8e fb bd
       0.057237085 0.030645018 -0.101520024 -0.12283033
000110 52 2c e3 bc df 10 bc bc 54 de 38 3d c2 f1 33 bd
       -0.027731095 -0.022957264 0.045133904 -0.04393173
000120 23 f2 4b 3d 7d e7 f3 3c 13 4a b4 3c a8 3b d5 bc
       0.049791466 0.029773468 0.022007978 -0.026029423
000130 17 1b 33 3c 03 6c 9c 3d e9 67 0a bd c7 68 88 bd
       0.010931752 0.07637789 -0.033790503 -0.0666061
000140 37 59 8a 3c 3b 52 e2 bb e7 fe 05 bd 5e 18 92 3c
       0.016888244 -0.0069067753 -0.032713797 0.017833885
000150 aa 72 1d 3d ac 6a 30 bc 11 ea bf bc 03 33 65 bc
       0.03843943 -0.01076762 -0.023427041 -0.013989213
000160 66 b5 9b bb 25 5f e0 bc 6d ec 1d bd 91 b1 5d bc
       -0.004751849 -0.027389118 -0.03855555 -0.013531105
000170 b7 77 a1 bc f1 a6 e9 bc 8d 08 3f bd 59 84 06 bd
       -0.019710405 -0.028521987 -0.046639014 -0.03284106
000180 c5 31 00 3d 56 f0 be 3b 85 33 4e bd ba 42 a1 3c
       0.031297464 0.00582699 -0.0503421 0.019685138
000190 0b 79 01 be 3c 17 cc bb 1e c2 61 bd e0 97 90 bd
       -0.1264383 -0.0062283557 -0.055116765 -0.07060218
0001a0 b1 16 86 3c 01 8e 2f 3c c1 f8 87 3d fd ec 73 3c
       0.016368242 0.010715009 0.06639243 0.014888045
0001b0 7e 1a 2e 3d e1 cb af 3b 0b e6 3c 3c f2 fb 0f bd
       0.042505734 0.0053648804 0.011529456 -0.035152383
0001c0 89 34 1f 3d 2e fe 06 bd df 9a 1e bd 87 01 86 bc
       0.03886846 -0.03295725 -0.038721915 -0.01635815
0001d0 6e 83 c6 3c 7d 05 4f bd 9f 13 4c 3d 1f bb 1b bd
       0.024232592 -0.050542343 0.0498234 -0.03802025
0001e0 9d c1 91 3c a0 ba 7d bc 88 48 c5 3c 9c 73 51 bb
       0.017792517 -0.015486389 0.024082437 -0.0031959778
0001f0 13 2c 7a 3d 78 8c 66 bb f5 23 c2 3c 29 43 d1 bb
       0.06107719 -0.003517894 0.023698786 -0.00638618
000200 66 2b 4e 3d b4 f6 8b 3d 8a 41 9b 3d b9 3d a7 3c
       0.050334357 0.06834164 0.0758086 0.020415174
000210 cf 88 ba bc 85 87 a4 bd fa 21 2d bc 47 e8 b1 bb
       -0.022770314 -0.08033661 -0.010567183 -0.005429301
000220 2c df 82 3c 37 d1 31 3c 86 22 31 bd b8 45 b9 bb
       0.015975557 0.010853103 -0.043245815 -0.005654063
000230 43 95 90 3c 3a 43 99 3c 97 e5 f4 bc ad d7 1d bd
       0.017649299 0.018708814 -0.029894633 -0.038535763
000240 94 cd 16 bc b7 f9 61 3c dd 0e a7 bc 56 26 bd bd
       -0.009204287 0.013792447 -0.02039283 -0.092358276
000250 27 5a 84 3c 10 3d 63 3a 4b 8e 2b bd 2e cf 8c bd
       0.01615627 0.0008668462 -0.041883748 -0.06875454
000260 2d 69 4b bc 54 08 11 3d 78 49 44 3d cf 70 b5 bc
       -0.012415213 0.035408333 0.047921628 -0.022148518
000270 b4 d2 df 3c ff bd c1 3c f4 69 ab 3d 72 42 b5 3c
       0.02732215 0.023650168 0.08369818 0.02212641
000280 81 18 b3 3c 2b b5 c9 3d c8 d7 87 bc 0e 4c fd 3c
       0.02186227 0.09849008 -0.016582385 0.030920055
000290 b0 90 04 bc 06 b4 ca bc 78 44 14 bd fc 0c 01 bd
       -0.008091137 -0.024744045 -0.03619811 -0.031506523
0002a0 e8 73 62 3c e1 84 bd bb 85 5b 15 bb be e8 1e bd
       0.0138215795 -0.0057836627 -0.0022790146 -0.03879618
0002b0 e2 fc 85 ba 08 d5 b2 3c 7c d6 57 3d 9b c3 4e 3d
       -0.001022246 0.021830097 0.052694783 0.050479513
0002c0 11 36 f8 bc f2 23 42 3d fc 5d 6e 3c a2 e6 81 bd
       -0.030299218 0.04739756 0.014548775 -0.06342818
0002d0 48 ad 80 bd 74 56 22 3d 42 6c 58 bd 5d 17 06 bd
       -0.06283051 0.03963323 -0.052837618 -0.032737125
0002e0 d0 7c 51 3d ae 22 5e 3d 77 81 62 3d c9 0e fd bc
       0.05114442 0.054232292 0.05529925 -0.03089084
0002f0 1c 72 ee ba 9d bc ac 3d 94 d0 a1 3a 67 67 05 3d
       -0.0018191966 0.08434413 0.0012345486 0.032569315
000300 d8 1c 16 3d d2 35 39 bd a0 3e 1e 3d 2e 38 43 bd
       0.0366486 -0.045217343 0.038633943 -0.047661
000310 d4 77 ce 3c ad 37 03 3c 40 75 b0 bc 6f 08 07 bd
       0.025203623 0.00800888 -0.021540284 -0.032967027
000320 16 6f 72 bc f8 cc 18 bd f6 55 29 3c 1a a8 e5 3b
       -0.014796993 -0.03730485 0.010335436 0.0070085647
000330 32 cb 2b 3c 26 58 30 bd ff 1e 82 bc 75 53 8d 3d
       0.010485457 -0.043052815 -0.01588392 0.06900684
000340 f9 1a 8b 3c f5 95 65 bd 83 a5 b6 ba 8f fa b2 bc
       0.016980635 -0.056051213 -0.0013934824 -0.021847991
000350 93 fe a6 bb 85 45 b7 3c 15 cb 17 bd 9e e6 aa 3a
       -0.0050962656 0.022372017 -0.03705891 0.00130387
000360 3e 5f 02 bd cb ea 25 3c 7c ab 05 bd 49 61 bb bb
       -0.03182911 0.01012678 -0.032634243 -0.0057183844
000370 7a 14 29 bd 0c 53 01 bd cc ff 59 3b 2b 4a 3b bb
       -0.041279294 -0.03157334 0.003326404 -0.0028578143
000380 e2 ef dd 3c 16 cf 84 bb 85 3b 81 3d 6c bc ec bb
       0.027091924 -0.004053007 0.063101806 -0.00722461
000390 46 89 29 3d 11 7a 9a 3c 9a 6d af 3b 70 09 32 3c
       0.04139068 0.018857034 0.0053536417 0.010866508
0003a0 3b 07 94 bb 0f 88 69 bd e9 5f 92 3c 41 51 a4 bd
       -0.0045174635 -0.05701452 0.017868 -0.080233105
0003b0 a7 52 15 3d e8 87 5f bd a8 7b 05 3d f5 2e 57 bd
       0.036455777 -0.05457297 0.03258863 -0.052535016
0003c0 35 45 f9 bc 1a 28 8c 3d f6 7a eb 3b 53 a8 4e bd
       -0.030428508 0.06843586 0.007186289 -0.050453495
0003d0 53 63 c9 bc f9 8a ad 3c df 1e 4c 3d ea 9b 7b 3c
       -0.024583494 0.021184431 0.04983413 0.015356997
0003e0 59 71 d9 bd b0 4d 17 bc 4a 23 56 bd 84 23 39 bc
       -0.106173225 -0.009234831 -0.052279748 -0.0112999715
0003f0 45 cd 4d bc e9 10 72 bc a1 8e 31 3c 6a 15 53 3d
       -0.012561147 -0.0147745395 0.010837228 0.051534094

baseModel.4.bias f4 [64]
000000 62 f0 91 37 42 e9 6d b8 46 cf 74 37 13 33 2d b8
       1.7397284e-05 -5.672244e-05 1.4591793e-05 -4.129398e-05
000010 a3 53 e8 b6 6e f7 41 37 a1 33 7c b7 44 fc 80 36
       -6.9238754e-06 1.1561306e-05 -1.5032391e-05 3.844065e-06
000020 ef d4 92 b7 c5 36 e5 b7 1c a5 2e 37 bf 08 42 b8
       -1.7503711e-05 -2.7324431e-05 1.0409651e-05 -4.626135e-05
000030 ab 7b 17 38 12 a8 a8 37 9c dc 82 37 a3 59 3e 36
       3.611638e-05 2.0105424e-05 1.5599937e-05 2.8364382e-06
000040 94 17 6c b6 4b 11 ed 37 ff 9e d1 b7 32 1f 1e 38
       -3.5180465e-06 2.8260654e-05 -2.498878e-05 3.769919e-05
000050 49 14 07 b8 6f da 79 37 5b 74 5f b6 14 80 c9 37
       -3.22054e-05 1.4892415e-05 -3.3297317e-06 2.4020708e-05
000060 8f 61 05 b8 d4 28 ec b7 f5 33 f5 37 73 ee 0c b8
       -3.180053e-05 -2.8152404e-05 2.923047e-05 -3.3600674e-05
000070 cc a3 f2 37 f5 2a bc b6 f0 d9 15 37 ae 67 a5 35
       2.8924922e-05 -5.6078375e-06 8.931835e-06 1.2323633e-06
000080 c5 03 01 37 cc c2 22 38 c6 64 eb b7 cb b8 7c 36
       7.689877e-06 3.880523e-05 -2.806111e-05 3.765849e-06
000090 aa 60 a9 37 96 13 44 36 85 17 5f b7 a7 66 d2 36
       2.0191383e-05 2.9217676e-06 -1.3297312e-05 6.270438e-06
0000a0 78 d9 b1 b7 52 1f bc b6 76 11 8c b7 8f 17 0d b6
       -2.1201311e-05 -5.606483e-06 -1.6697431e-05 -2.102435e-06
0000b0 76 04 24 b8 16 d7 31 b8 94 28 d0 b7 6a 84 aa b7
       -3.91048e-05 -4.2400403e-05 -2.4814428e-05 -2.032724e-05
0000c0 0a 2c 2d 38 67 b5 b5 37 d2 e0 5c b7 d2 61 6f 37
       4.128743e-05 2.1661353e-05 -1.3165367e-05 1.4268286e-05
0000d0 3b 4e 66 37 ef ec 09 b7 8f a4 02 38 68 9d 83 b7
       1.3727283e-05 -8.221002e-06 3.1147672e-05 -1.5689715e-05
0000e0 64 91 61 37 89 87 a9 37 61 f9 1a 37 a8 57 06 37
       1.34448965e-05 2.0209483e-05 9.237178e-06 8.0074315e-06
0000f0 41 6a bd 36 7d a1 76 b7 63 03 90 36 1a d4 21 b7
       5.6450085e-06 -1.4700342e-05 4.2919287e-06 -9.645732e-06

baseModel.5.weight f4 [64]
000000 d2 a9 4c 3f c9 0f 39 3f a3 4b 4c 3f 80 73 54 3f
       0.79946625 0.7228971 0.7980291 0.8298874
000010 d0 1b 47 3f 0d 7e 40 3f 26 57 4c 3f ce 8f 35 3f
       0.77776814 0.7519234 0.7982048 0.70922554
000020 d8 94 46 3f 91 5c 41 3f 08 d4 2e 3f ed 75 50 3f
       0.7757087 0.7553187 0.68292284 0.8142994
000030 43 bd 4e 3f e2 ca 42 3f 8d a2 3b 3f bd 1c 35 3f
       0.8075754 0.76090825 0.7329491 0.70746976
000040 a5 7c 30 3f 62 e1 42 3f 1b d4 3f 3f 7e 05 3b 3f
       0.6894019 0.76125157 0.7493302 0.73055255
000050 a7 30 4d 3f f5 dd 48 3f 5d d0 33 3f e8 df 37 3f
       0.8015236 0.7846368 0.7023981 0.7182603
000060 49 95 41 3f 5c 63 42 3f 3d 2e 35 3f f8 12 3c 3f
       0.75618416 0.7593286 0.7077368 0.73466444
000070 ec 9a 46 3f ea ba 52 3f 5c ba 3b 3f a4 e0 39 3f
       0.7758014 0.8231646 0.73331237 0.726084
000080 d6 d0 33 3f 91 c1 3f 3f 4f 2e 42 3f 2e 59 3e 3f
       0.70240533 0.74904734 0.7585191 0.7435483
000090 73 33 47 3f 99 7a 32 3f db 8e 32 3f ad 4a 43 3f
       0.7781288 0.6971832 0.6974923 0.7628582
0000a0 a1 10 42 3f a8 db 3f 3f bf 9c 38 3f 0f ec 49 3f
       0.75806624 0.74944544 0.72114176 0.7887582
0000b0 0e be 4f 3f bd 02 50 3f f9 47 49 3f 6e 6a 44 3f
       0.81149375 0.8125418 0.78625447 0.767249
0000c0 bc 00 5f 3f 19 4b 2f 3f 7f b6 40 3f 14 9e 36 3f
       0.87110496 0.68473965 0.75278467 0.7133496
0000d0 76 59 40 3f 70 6a 3b 3f 87 4c 40 3f 17 c9 3e 3f
       0.75136507 0.73209286 0.7511677 0.7452559
0000e0 3e 69 5a 3f 6b fb 3f 3f 9b 4b 36 3f fa 67 37 3f
       0.85316837 0.7499301 0.71209115 0.7164303
0000f0 b9 17 50 3f 07 0b 40 3f 8c 9e 35 3f 85 d3 38 3f
       0.812862 0.75016826 0.7094505 0.72197753

baseModel.5.bias f4 [64]
000000 b3 6c 27 bd 8e 5d 94 3d 1d 46 4a 3d 7b 45 e5 bd
       -0.040875148 0.07244407 0.04938327 -0.11194893
000010 08 3b 33 bd da be 6d 3d 9b 9a 05 bd ed 22 a9 bd
       -0.04375747 0.05804334 -0.032618146 -0.08258615
000020 ad 24 51 3c e7 81 2a 3d 23 29 91 bc 0a c2 53 bd
       0.012765092 0.04162779 -0.01771981 -0.051698722
000030 68 8f 00 be 58 da 9f bb 13 19 4f 3d 07 5b aa 3d
       -0.12554705 -0.0048783235 0.050561022 0.08318143
000040 5b 7c 65 ba 24 bb 29 3c b0 8d d3 bc c2 5a d7 bb
       -0.0008754187 0.010359559 -0.025824398 -0.0065720985
000050 dd 77 56 3d e0 5f 67 bd d6 36 c9 bd f2 49 a5 bc
       0.052360404 -0.056487918 -0.09824912 -0.020176861
000060 3c 8c 9c bc f5 d7 a5 bd 0d fc b6 bc 3c 25 b0 3c
       -0.019109838 -0.08097831 -0.022336984 0.02150213
000070 c3 6a b8 3c 6d 92 e8 bd f8 5d 53 bd f2 c8 d7 bd
       0.022511845 -0.113560535 -0.051603287 -0.10536374
000080 9d db a9 bc 08 59 c3 bd 57 1d 92 3c 46 55 f4 3c
       -0.020734603 -0.09538466 0.017836256 0.029825818
000090 f9 1f 37 bd da c4 cf 3c 37 95 3f bd ed 8c de bb
       -0.044708226 0.02536242 -0.04677316 -0.006791702
0000a0 91 8c ea 3c f2 83 1c 3c 61 5e ad 3d a7 6b 04 be
       0.02863148 0.009552943 0.08465267 -0.12931691
0000b0 72 e5 6e bd 2d a2 1a 3d bb 01 db 3c 2b 25 b8 bc
       -0.058324285 0.03775232 0.026734224 -0.02247866
0000c0 1f d9 0d be 29 e2 e3 bd 59 b8 21 bc bb 33 91 3b
       -0.13852356 -0.11127121 -0.009870612 0.0044312156
0000d0 94 b1 89 3d 84 67 50 3d 31 09 97 bd aa 31 47 be
       0.067233235 0.05087997 -0.073748 -0.19452539
0000e0 0c 73 8b bd 7f 22 e4 bd f1 63 5a bd 15 71 b5 bb
       -0.06809053 -0.11139392 -0.053317968 -0.005537162
0000f0 91 3b ed bc 65 0f 9f ba 66 82 38 bd 0a e2 48 bb
       -0.028959068 -0.0012135325 -0.045046233 -0.0030652308

baseModel.5.running_mean f4 [64]
000000 1d 3d a5 bd 10 95 8e bd 69 be ac be 3b 18 8a bd
       -0.08068297 -0.06962025 -0.3373902 -0.06742903
000010 b1 11 a8 bc 61 60 33 3d 95 26 10 bb 03 53 0a be
       -0.020516248 0.043793086 -0.0021995653 -0.13508229
000020 d4 de 2b bd 32 57 32 be a9 0f 61 bb ce 39 0c 3b
       -0.041960552 -0.17416075 -0.003434161 0.002139676
000030 ff 11 91 bd e2 5f 56 be 63 bb 8c 3d 0d 63 8f 3d
       -0.070835106 -0.20935014 0.06871679 0.07001314
000040 86 d7 1c be 63 c1 46 3e 8c 99 0a 3d f8 8a 9d bd
       -0.1531659 0.19409709 0.03383784 -0.07692522
000050 7f 28 8d be 1a 7a 63 3d 04 d3 00 3e df 91 9e 3d
       -0.2756996 0.055536367 0.12580496 0.077426665
000060 e9 f5 5f bd a4 53 24 bc 8a bc ea bd dc a4 e8 be
       -0.054677878 -0.010029707 -0.11461742 -0.45438278
000070 86 fb 36 bd 92 22 ad bd ae f9 35 bd 92 bf 5e bd
       -0.044673465 -0.084538594 -0.044427566 -0.054381914
000080 e5 6e 63 be a0 fd b0 bd a0 39 af 3d 2f 1e cc 3d
       -0.22210272 -0.08642125 0.08555913 0.099666946
000090 25 fe 32 3e 20 7f 53 3c 6a 98 40 bc 25 5a 89 3d
       0.17479761 0.012908727 -0.011755088 0.06706647
0000a0 17 c6 6f 3e 66 68 ad bd 5f fc 7c 3d 35 c1 ac bd
       0.23415409 -0.08467178 0.061764117 -0.08435289
0000b0 87 64 7d 3b 59 49 f4 bd 37 fc 3e 3c 3a 4b 28 be
       0.0038664655 -0.119280525 0.011656812 -0.16434947
0000c0 39 84 7f bd 1b 2e cc bd 61 29 77 be 8a da 29 3e
       -0.062381957 -0.099697314 -0.24136879 0.16587272
0000d0 fa ca 3e bc 8c be 86 3e de ae 64 bc bd 59 73 bd
       -0.011645073 0.2631725 -0.013957707 -0.059411753
0000e0 bc c0 f8 bd b3 b8 fa bb 27 58 3d 3c 80 ec 9a 3c
       -0.12146136 -0.0076514124 0.011556662 0.0189116
0000f0 2c 21 2c 3c ec c3 37 be e6 1f c7 3d d3 78 2e be
       0.010505956 -0.17945832 0.09722881 -0.17038278

baseModel.5.running_var f4 [64]
000000 9e 3c fd 3c 68 40 73 3d 84 1a 29 3d ae 52 26 3d
       0.030912694 0.059387594 0.041285053 0.040606193
000010 30 16 a4 3d 9a 71 1b 3d fe 35 61 3d 9c fd 7b 3d
       0.080120444 0.037950136 0.05498313 0.061521158
000020 b7 af aa 3d 53 e6 36 3d eb 11 60 3d fe 68 ad 3d
       0.08334296 0.044653248 0.054704588 0.08467291
000030 1f 14 cb 3d c7 a0 1e 3d a0 d9 c7 3c 4c 16 1b 3d
       0.09915947 0.038727548 0.024395764 0.03786306
000040 1c e4 31 3d 00 37 36 3d 71 01 76 3d 8f a0 ef 3c
       0.043430433 0.044486046 0.06005997 0.029251365
000050 43 b0 c6 3c bc f8 26 3d dc 40 9b 3d 03 df 75 3d
       0.02425397 0.040764555 0.0758073 0.060027134
000060 17 e2 7b 3d 15 47 a6 3c 53 6a 07 3d 51 10 9e 3d
       0.061494913 0.020297566 0.033060383 0.07717956
000070 9f 73 32 3d 4b 01 95 3d cd 87 76 3d 1b 5c 56 3d
       0.043567296 0.07275637 0.060188103 0.052333932
000080 dd 4b 2b 3d ea de c3 3c 35 38 77 3d be 28 9b 3d
       0.041820396 0.023910005 0.060356338 0.0757613
000090 55 f9 63 3d 1f 7f 3f 3c af 8e 80 3d a5 70 46 3d
       0.055657703 0.011688023 0.06277215 0.04844727
0000a0 e5 42 32 3d f1 15 6c 3d 21 4e e5 3c ad 06 a0 3d
       0.043520827 0.057638112 0.027991356 0.07813773
0000b0 ff c4 ce 3c 6e 3b e1 3c 7f 74 17 3d 93 f0 8b 3d
       0.02524042 0.027494159 0.036976334 0.06832995
0000c0 ef 53 50 3d 95 4d dc 3c c2 e2 94 3d 0d 8a 43 3d
       0.050861295 0.026892463 0.07269813 0.047739077
0000d0 8b 80 90 3d 53 0e 00 3d 1e f3 96 3d 8b 18 d7 3c
       0.070557676 0.03126366 0.0737059 0.02625682
0000e0 0a 22 00 3e a6 27 12 3d 34 43 37 3d 5b 65 41 3d
       0.12512985 0.035682343 0.044741824 0.0472158
0000f0 fa 6d a8 3d 01 e2 01 3d 89 7e 8b 3d f9 8c f0 3c
       0.08224101 0.031709675 0.06811244 0.029364096

baseModel.8.weight f4 [64, 64, 3]
000000 40 d3 8b 3c 4d 98 72 bd ef a7 52 bd 78 82 3f 3b
       0.017068505 -0.059227277 -0.051429685 0.0029222053
000010 18 16 32 3c 00 3e 24 bc 08 20 43 3d 1a 66 9d bc
       0.010869525 -0.010024548 0.04763797 -0.019213725
000020 1a 45 b8 bc ea c1 14 bc a9 bc 02 3d e8 a6 af bc
       -0.022493888 -0.009079436 0.0319182 -0.021441892
000030 76 bb 55 bd 18 c9 5a bd 51 59 62 bd 91 09 39 3d
       -0.05218073 -0.053414434 -0.05526096 0.04517514
000040 7d e9 b7 bc 93 dd a4 3c 31 ee 5d bd af e0 da 3c
       -0.022450203 0.020125186 -0.054182235 0.026718466
000050 59 b6 b5 bc 3f 57 df bb be 3a 08 3d 2c d8 c0 3c
       -0.022181677 -0.0068158205 0.033259146 0.023540579
000060 e7 f4 84 3c 8d 29 da 3c 49 b5 2d bd 0c f4 4e 3d
       0.01623006 0.026631141 -0.042409215 0.05052571
000070 89 34 6a 3c 94 75 0b bd a9 2f ee 3c 26 05 6f bc
       0.014294752 -0.034047678 0.02907546 -0.01458863
000080 dd 65 75 bc 4d 84 36 bd e6 0f cf 3c 53 17 21 3c
       -0.014977899 -0.044559766 0.025276136 0.009832221
000090 ed ac 91 3c 81 09 04 bd d9 35 96 3c 81 6c 9c bb
       0.017782653 -0.032235626 0.018336223 -0.004773677
0000a0 e6 88 22 3d 62 e4 d9 bc 27 d4 49 3b 93 90 b7 3c
       0.039681338 -0.02659816 0.0030796619 0.022407806
0000b0 d4 b7 b8 3c 64 f4 7b bc ae ee c1 bc 35 61 b6 bb
       0.022548594 -0.0153780915 -0.023673382 -0.005565787
0000c0 cb 93 d3 3c 54 02 98 bb fc a4 9e 3d 83 54 16 bd
       0.02582731 -0.0046389494 0.07746312 -0.03670169
0000d0 d8 f2 27 bd ef fd 06 bd ea 1d 24 bd d6 af 41 3d
       -0.04100308 -0.032957014 -0.04006759 0.04728683
0000e0 7f db f2 ba 40 29 a7 bc e6 49 a3 3c 14 f1 18 3d
       -0.001852855 -0.020405412 0.019932698 0.037339285
0000f0 ec 4c 7e 3d ff d4 69 bd e7 14 86 bc d9 bf e6 3c
       0.062085077 -0.057087895 -0.016367389 0.028167652
000100 f7 02 75 bc a9 69 41 3c 8e 1a 7e 3d cf 5c e0 bc
       -0.01495432 0.0118049765 0.062037043 -0.027388005
000110 f7 2a 52 bc 46 5b 3e 3c 06 b2 ef bc 31 95 1a bd
       -0.012827626 0.011618441 -0.029259693 -0.037739936
000120 9b 05 94 3b 48 98 d5 bc 5c ac ab b9 08 10 1d 3d
       0.00451727 -0.02607359 -0.0003274408 0.038345367
000130 0c 46 f1 bb d3 71 be 3d 8a 75 cf 3c cb f8 0d bd
       -0.0073630866 0.09299054 0.025324602 -0.034661096
000140 21 cd a5 3c 44 d1 9f 3c c2 57 c2 bb 76 78 f3 bc
       0.020239415 0.019508965 -0.0059308717 -0.029720526
000150 fb 8f ae bb 4c d0 31 3c df 71 51 3d 09 f9 d7 bc
       -0.0053272224 0.0108528845 0.051133987 -0.026363866
000160 f8 1b 34 bb 26 fa 0a bd 85 d0 a0 3d 2e bb ad ba
       -0.002748249 -0.033929966 0.07852272 -0.0013254636
000170 c5 93 77 bd dd b5 9d 3c 3c 0b 7d 3c be e5 49 bd
       -0.06044366 0.019251758 0.015444573 -0.049291365
000180 a8 58 f8 bc 3e 7b a1 3b 3f 9a 52 3d 75 11 52 bd
       -0.030315712 0.0049280217 0.05141663 -0.05128618
000190 af 7c 82 bd 81 bf 0b bd e1 94 26 3d 3a 74 dc 3b
       -0.06371438 -0.03411818 0.040669326 0.0067277225
0001a0 2b 14 8c bc cc bc d9 bc 5e 3d 1e 3d 80 b7 0c 3d
       -0.01709946 -0.026579283 0.038632743 0.034354687
0001b0 da b5 da bc ae d4 78 3c 4f 6e 5a 3c 55 db ba 3b
       -0.026698042 0.015187426 0.013331964 0.005702416
0001c0 68 31 9e bc a0 c7 29 3b f9 cf f0 3c 6b fe e9 bc
       -0.019310668 0.002590634 0.029396044 -0.028563699
0001d0 bd 2d c0 bc cf 9f 48 bd 8d df 19 bd 56 51 40 3d
       -0.02345931 -0.04898053 -0.03756671 0.046952568
0001e0 99 0c 79 bd e6 a2 ae bc c5 ab bf bc 35 77 eb bc
       -0.06080303 -0.02131791 -0.023397336 -0.028743366
0001f0 94 f5 00 3d cc 43 4a 3c 95 80 8e bc 17 49 84 bc
       0.0314842 0.012345266 -0.017395297 -0.016148133
000200 61 d7 0b 3d 09 b2 1f 3d 49 00 00 bd 37 3e 6c 3d
       0.03414095 0.038988147 -0.031250272 0.05767652
000210 07 76 ae 3c 43 c3 26 3d 7b 16 5a bd 6d a6 78 3c
       0.021296514 0.04071356 -0.053244095 0.015176398
000220 dd d1 bf bd 5b b2 ae bd a2 37 a3 3d 18 8c 1d 3b
       -0.093662 -0.08530112 0.079695955 0.0024039801
000230 50 2a 81 bd 5a a2 da 3c 13 3c 8c bc 4d 92 89 bb
       -0.063068986 0.026688743 -0.01711849 -0.0041983486
000240 aa b8 06 3d a1 d8 0e bd 2a 30 2d 3d 8e 53 82 3c
       0.032890953 -0.034874562 0.04228226 0.015908983
000250 ba d9 c1 3a 6f ff 85 bc c1 25 54 bc 18 06 98 3c
       0.0014789619 -0.016357152 -0.012948454 0.018557593
000260 26 ed f8 3c ea 1d b4 3b 6a 51 36 bd dc a3 45 bc
       0.030386519 0.00549673 -0.044511236 -0.012062993
000270 ea 77 02 bd b9 2c 7b bb b1 bc 2f bc bf 20 8a bd
       -0.03185264 -0.0038326217 -0.01072614 -0.06744527
000280 5e b2 33 3b 9a 45 67 3d af 47 7d bd 47 ba 3e bd
       0.0027419548 0.05646286 -0.06183594 -0.046564367
000290 e1 6a b7 3c 5f 86 b5 3c f2 0f 21 bd 08 e7 a6 bc
       0.022389831 0.0221588 -0.039321847 -0.020373836
0002a0 be 26 40 3c 3d c6 86 bc c0 62 a5 3d 08 d6 79 3c
       0.011727987 -0.01645195 0.08075476 0.015248783
0002b0 dc c1 03 3c dc 7a 17 3c cd 2f 1e 3d 1b dd 52 bd
       0.008041825 0.009245601 0.038619805 -0.051480394
0002c0 db c4 f2 ba 24 36 64 bd 27 ce ff ba 6e 3a 78 bd
       -0.0018521802 -0.055715695 -0.0019516394 -0.060602598
0002d0 fb e4 53 3d 26 62 26 3d e0 71 3c bd b1 73 43 bd
       0.051732045 0.040620945 -0.046007037 -0.047717754
0002e0 15 c0 9c 3c 7c 63 0c bd 88 db 26 3d d1 7f cb bb
       0.01913456 -0.034274563 0.040736705 -0.0062103053
0002f0 88 86 6a 3d ed 04 48 bc 51 44 0b 3d 02 f6 29 3d
       0.057257205 -0.012208206 0.0340007 0.041494377
000300 29 80 f8 bb b6 e9 36 ba 27 e5 5d bd 94 6f a1 3c
       -0.0075836373 -0.00069775747 -0.054173615 0.019706525
000310 cf d6 87 bc da 11 ac bc 40 e9 2f 3d fe 9d 31 3d
       -0.01658192 -0.021004606 0.042947054 0.043363564
000320 ee 60 ab 3d 4a 84 5a 3d d3 1d 69 3d bc 73 09 bd
       0.08368097 0.053348817 0.05691321 -0.03355764
000330 43 d1 9b bd ea 3e 7d bd c0 eb 80 3b c5 85 06 3d
       -0.07608273 -0.061827578 0.0039343536 0.032842416
000340 89 85 f9 bc 84 f3 34 bb f5 41 74 bd 93 8d e7 bc
       -0.030459182 -0.0027610967 -0.059633214 -0.02826575
000350 3b ce 46 bc 6d 2b b5 3b 6b 50 5f 3d b0 69 07 bd
       -0.01213413 0.0055288584 0.054520052 -0.033059776
000360 23 af 39 37 a3 de 0e bd 5e 76 41 bd 03 37 73 bd
       1.10676365e-05 -0.03488029 -0.047232024 -0.059378635
000370 cf 44 d4 3c c0 b8 4a bb 65 98 78 bd ae 08 8d bc
       0.025911717 -0.0030932873 -0.06069221 -0.017216053
000380 88 ca 3b bd 28 67 cb bd 94 95 5a bd df 2f 93 bc
       -0.045847446 -0.09931785 -0.053365305 -0.017967163
000390 e7 a1 e4 3b 4a 34 e5 3c 12 64 0c 3d 0e a8 20 3d
       0.006977308 0.027979035 0.034275122 0.03922277
0003a0 2d f2 d7 bc 5a af 01 3d c7 69 03 3c 73 47 37 3c
       -0.026360596 0.03166137 0.008020825 0.011186468
0003b0 77 1a b9 bc 94 65 6f 3c 97 fa 0f 3d d4 b5 b7 bd
       -0.022595627 0.01461162 0.03515109 -0.08970228
0003c0 aa 02 26 bc 94 0a 40 3b 18 44 a3 3c 8a 13 8c 3d
       -0.010132471 0.002930318 0.01992993 0.06839664
0003d0 7f 65 a5 bc c5 83 35 ba f4 bb 14 bc da 59 39 3d
       -0.020189999 -0.0006924237 -0.009078015 0.045251705
0003e0 da 96 ed bc 9c a8 a6 3c 18 ff b0 3c 89 ae 2b 3c
       -0.029002596 0.020344071 0.021606013 0.010478624
0003f0 63 f6 66 bc ad ee ae bc 01 51 10 3d 73 90 d4 3c
       -0.014096829 -0.021354044 0.0352335 0.025947785

baseModel.8.bias f4 [64]
000000 b7 71 b1 37 1f 1f a0 37 83 09 62 b7 d2 c1 95 b5
       2.1152997e-05 1.9087978e-05 -1.3472864e-05 -1.1157774e-06
000010 26 95 f4 b6 8b 02 80 37 73 c9 b6 b7 95 c0 49 37
       -7.28913e-06 1.5259973e-05 -2.1789898e-05 1.2025373e-05
000020 c2 05 a2 b7 e0 17 12 37 55 93 34 37 51 50 4a b7
       -1.9314586e-05 8.707837e-06 1.07631395e-05 -1.2058838e-05
000030 83 69 41 37 2b 9a a2 b6 85 4f 3e 35 0f f2 cf b4
       1.1528263e-05 -4.8459237e-06 7.089623e-07 -3.8732875e-07
000040 8d c3 cb b7 d8 02 02 37 06 41 3c b8 04 91 80 b5
       -2.4290546e-05 7.749266e-06 -4.488325e-05 -9.578948e-07
000050 ad 0d 8a 37 f0 55 7f 36 47 89 ba b7 53 c3 18 37
       1.645725e-05 3.8047983e-06 -2.2236853e-05 9.1053835e-06
000060 6f be 6d b7 af 32 d6 35 86 22 73 b4 22 8b 23 37
       -1.417064e-05 1.5958993e-06 -2.2643698e-07 9.7479515e-06
000070 b2 73 f6 b4 7e f2 1a 37 d5 6a 41 37 4b 60 9f 36
       -4.590525e-07 9.235575e-06 1.152857e-05 4.7497792e-06
000080 17 e2 d4 b4 9c c0 91 b6 a2 3f 15 37 9c d7 92 b5
       -3.965258e-07 -4.3437594e-06 8.895908e-06 -1.0940598e-06
000090 00 1d c3 37 a8 c9 f5 b6 b2 16 d2 b6 de a7 ae 35
       2.3259316e-05 -7.325045e-06 -6.26113e-06 1.3012866e-06
0000a0 15 3d a0 36 2e 23 25 37 ff 54 81 37 86 e2 bb b6
       4.7754825e-06 9.842957e-06 1.5417578e-05 -5.599405e-06
0000b0 4b d6 66 b7 95 ad 6d 37 71 58 0f 37 5f db 20 38
       -1.3758962e-05 1.4166716e-05 8.544056e-06 3.8351278e-05
0000c0 9f 08 81 36 e5 7e c4 36 e0 db 28 b7 7c 0a c4 b6
       3.845503e-06 5.8560277e-06 -1.0064774e-05 -5.8424757e-06
0000d0 1a 6e bd b7 eb 8f 41 37 12 16 a4 37 12 65 bb 36
       -2.2581826e-05 1.1537205e-05 1.95606e-05 5.5848004e-06
0000e0 ab 9f 3a b5 e4 f8 7c 36 2d d8 d8 b6 3b 96 9d 37
       -6.9522747e-07 3.76958e-06 -6.462468e-06 1.8785815e-05
0000f0 c5 24 78 37 ef 6f d0 b7 34 06 16 b6 86 f2 9b 36
       1.4790513e-05 -2.4847655e-05 -2.2355352e-06 4.6475934e-06

baseModel.9.weight f4 [64]
000000 e7 b7 27 3f 49 cb 48 3f 6e ba 46 3f 04 db 51 3f
       0.6551499 0.7843519 0.7762822 0.81974816
000010 15 54 37 3f ca 7e 4c 3f ea 26 49 3f de 09 4b 3f
       0.71612674 0.79880965 0.78575003 0.7931193
000020 db b7 35 3f c0 f0 36 3f 54 db 39 3f ca e8 32 3f
       0.70983666 0.71461105 0.72600293 0.6988646
000030 37 9f 3d 3f d2 ee 3e 3f b1 ac 2d 3f 30 ec 35 3f
       0.7407107 0.7458316 0.6784163 0.7106352
000040 94 f6 33 3f f0 aa 2a 3f 0f 2f 4c 3f 14 11 45 3f
       0.70298123 0.6666708 0.79759306 0.76979184
000050 96 06 48 3f 5e de 58 3f 34 05 46 3f 6a 6b 46 3f
       0.7813505 0.84714305 0.7735169 0.7750765
000060 8d 6c 31 3f f1 0c 3d 3f 2f 6d 37 3f 05 b8 40 3f
       0.6930626 0.7384787 0.71650976 0.7528079
000070 61 22 22 3f 03 ad 4a 3f 41 32 33 3f 2d 23 3f 3f
       0.6333371 0.79170245 0.69998556 0.7466305
000080 34 3c 3d 3f 1f 7d 41 3f b3 8a 54 3f a7 7a 50 3f
       0.7391999 0.75581545 0.8302414 0.8143715
000090 56 94 22 3f fa f1 34 3f 03 85 34 3f 06 c9 40 3f
       0.6350759 0.70681727 0.7051546 0.7530674
0000a0 e1 25 2d 3f 04 f6 5b 3f ee 93 42 3f 81 9b 5b 3f
       0.67635924 0.85922265 0.7600697 0.85784155
0000b0 c0 85 61 3f 54 57 49 3f 1a 2e 55 3f b3 29 38 3f
       0.8809471 0.7864888 0.8327347 0.7193863
0000c0 03 9c 2c 3f d6 92 32 3f e6 44 44 3f ca 15 49 3f
       0.67425555 0.69755304 0.7666763 0.7854887
0000d0 0e 7f 48 3f ce 62 51 3f 3e ed 2d 3f 7f 4c 36 3f
       0.7831887 0.8179139 0.6794013 0.71210474
0000e0 19 25 1e 3f 18 82 37 3f 9a c6 4c 3f 4f 3e 38 3f
       0.61775357 0.7168288 0.7999054 0.71970075
0000f0 28 90 35 3f 2e 55 60 3f 3e 48 4f 3f 99 b9 46 3f
       0.7092309 0.87629974 0.8096961 0.7762695

baseModel.9.bias f4 [64]
000000 2e 91 9f 3c 8c 0d 30 3c 63 85 fb bc 06 0b 40 bd
       0.019478407 0.010745417 -0.030703252 -0.046885513
000010 58 22 4d 3c fc 2a 71 3c 41 bd 94 3b 5a 46 8b 3c
       0.012520395 0.014719721 0.0045391624 0.01700132
000020 1c 0b 31 bd e3 e4 d2 bc 52 69 28 ba 44 1a 3e bd
       -0.043223485 -0.025743907 -0.00064243854 -0.046411768
000030 70 f5 3b bc a7 80 95 3c b8 5d 49 bd 27 1c 3e 3d
       -0.011472091 0.018249823 -0.049161643 0.046413567
000040 cf 48 2a 3d b8 0d a7 3b 8d 52 c1 3c d9 a6 99 bc
       0.041573342 0.005098071 0.023598934 -0.018756317
000050 b5 12 c7 bc 14 46 1f bb 6c 95 c6 bb 77 53 01 bd
       -0.024300912 -0.0024303244 -0.006060293 -0.03157374
000060 a8 0a 81 39 94 95 82 bd 9b 01 e7 bc de ce ad bc
       0.00024612737 -0.06376186 -0.028199008 -0.021216806
000070 a4 9c 0d 3c eb 1e cb bc d5 33 ec 3c f5 3f 86 bb
       0.008643303 -0.024795016 0.02883331 -0.0040969797
000080 96 78 94 3c 82 31 8f bc 98 7b f3 bc ca 78 aa bc
       0.018123906 -0.017479662 -0.02972202 -0.02080955
000090 1e 92 e8 bc 66 e4 ca 3c fb ba c5 3c 6d 08 0f 3c
       -0.028389987 0.024767112 0.02413701 0.008730036
0000a0 6c 79 ca 3c 10 c8 ab 3d 7e ab 05 3d 48 b0 dd 3c
       0.024716102 0.08387768 0.03263425 0.027061597
0000b0 0a bd 63 3d 77 9a 54 3d 76 b4 b8 bc 5a bc 5d bd
       0.055600204 0.05190512 -0.022546988 -0.054134704
0000c0 c0 85 2b bd a5 55 2e bc 7b 2a 06 3c 7f 78 80 bc
       -0.0418756 -0.010640536 0.008188839 -0.015682457
0000d0 de a8 a2 3c 45 cc 0d bc a7 4d 1c 3d 98 7f 83 bc
       0.019855913 -0.008654659 0.038159993 -0.016052052
0000e0 e7 80 53 3b bc 9a 0b bd 7e f4 9e bd 58 75 b6 3c
       0.0032272877 -0.034083113 -0.07761477 0.02227275
0000f0 a5 b4 7f bb 0c d5 81 bd 25 f1 b1 3c 5c 33 57 3d
       -0.0039017585 -0.063394636 0.021721432 0.052539214

baseModel.9.running_mean f4 [64]
000000 f2 73 2b be 94 24 a6 3d a4 5f a3 be 52 c3 2d be
       -0.16743448 0.081124455 -0.31908906 -0.1696904
000010 c4 eb 3a 3d 24 3d 32 3e bd f5 6d be 44 f5 96 be
       0.045635 0.17406136 -0.23238273 -0.29483998
000020 a2 fb 04 3e b5 7b bb be 36 6f 2a be dd 34 fe be
       0.12986615 -0.36617818 -0.16643986 -0.49649706
000030 ce 84 a2 be bd f3 99 3e 61 9f c9 bc 30 a4 9c 3c
       -0.31741947 0.3006877 -0.02461213 0.01912126
000040 00 91 92 3d 4c 01 b3 3e e6 be 37 be 38 b7 63 bd
       0.07156563 0.34961927 -0.17943916 -0.055594653
000050 c9 fb 16 be 55 ea ac be 6d 28 81 3e 95 f4 1b 3e
       -0.14744486 -0.3377253 0.25226155 0.1523002
000060 3f 9e f2 be 48 ef 23 3e 5d 3c 80 3e b5 e6 10 3e
       -0.47386357 0.16009247 0.25046054 0.14150508
000070 85 1f 36 be e8 f3 c2 3e 4a 92 87 3d 83 64 80 be
       -0.17785461 0.3807671 0.06619699 -0.25076684
000080 15 b1 f7 ba 68 ac b6 bd 17 39 c1 be 6d b2 11 bf
       -0.0018897379 -0.08919603 -0.3773887 -0.5691288
000090 cc 81 16 be c7 b9 b7 3e 1f 55 ab 3d 23 4a 39 3f
       -0.14697951 0.35883924 0.08365845 0.7237875
0000a0 b3 90 24 3e 4d 11 08 bf fa 86 a0 be 38 ae ae 3d
       0.16070823 -0.531514 -0.3135298 0.08529323
0000b0 b3 e2 09 3d bd c2 85 3e 0a 9f 94 be a3 32 ac 3d
       0.033663463 0.26125136 -0.29027587 0.08408096
0000c0 52 85 15 3d a8 a2 e6 3d 0b 37 8d bd 16 00 15 3f
       0.036504097 0.11261493 -0.06895264 0.58203256
0000d0 fd a1 d9 bc db eb b2 bc 5c 01 2f be 57 5c 24 3d
       -0.0265665 -0.02184098 -0.17090362 0.040127125
0000e0 65 3d f4 bd 2f a1 27 be a7 af 8e 3e c2 4c 00 bf
       -0.119257726 -0.1637008 0.27868387 -0.50117123
0000f0 35 fa a9 be 90 66 42 bd 32 b4 b4 3c d9 e9 1d 3e
       -0.33198705 -0.047461092 0.02205858 0.15421237

baseModel.9.running_var f4 [64]
000000 14 91 70 3d 6d 3c 08 3e 5e 91 0f 3e 81 0c f9 3d
       0.058732107 0.133043 0.14020297 0.12160588
000010 6d af c5 3d ee 5b 9b 3d 98 8e f4 3d 3e 3e 03 3e
       0.096526004 0.075858936 0.1194126 0.12816712
000020 be 71 b4 3d d3 6c 6a 3d 14 92 6a 3d 14 0d 99 3d
       0.08810757 0.05723269 0.057268217 0.074731976
000030 34 f6 cb 3d 34 7d a7 3d 65 7a b9 3d 07 e9 57 3d
       0.09959069 0.081781775 0.09056548 0.052712467
000040 ff a5 a9 3d b5 89 96 3d 32 26 c0 3d a5 83 ad 3d
       0.08283614 0.07350484 0.09382285 0.08472375
000050 42 32 ba 3d ff 45 49 3e c3 c0 c4 3d 3b a3 df 3d
       0.09091617 0.19655608 0.09607079 0.109198056
000060 ca f6 4e 3d 30 3c b3 3d de c3 ba 3d c2 1c bb 3d
       0.050528325 0.08751714 0.0911939 0.091363445
000070 54 55 7e 3d a7 c7 01 3e c9 50 89 3d 87 3c b8 3d
       0.062093094 0.12673818 0.06704862 0.0899592
000080 91 8b a7 3d e5 8a a3 3d b5 45 25 3e 7d b7 f7 3d
       0.08180917 0.079854764 0.16139872 0.120955445
000090 c2 70 4d 3d 8d 46 95 3d 88 eb 76 3d 1a eb ec 3d
       0.050156362 0.07288847 0.060283214 0.115682796
0000a0 94 32 6f 3d b1 d6 fc 3d 0b 1e b6 3d 97 a5 58 3e
       0.058397844 0.12345637 0.08892449 0.21156918
0000b0 15 62 c6 3d e9 8b c8 3d 07 f5 7c 3e 0e ce a3 3d
       0.096866764 0.09792311 0.24702846 0.07998286
0000c0 92 8f b3 3d ab 66 a6 3d c6 94 ce 3d 45 72 de 3d
       0.08767618 0.08125051 0.1008697 0.10861639
0000d0 0c cc 08 3e 1c db c0 3d 5f 2b 89 3d 28 a2 8f 3d
       0.13359088 0.09416792 0.066977255 0.07013351
0000e0 ce e5 54 3d 2f 72 ac 3d ce c3 df 3d 31 89 69 3d
       0.05197697 0.08420216 0.10926019 0.0570156
0000f0 1a 7a 85 3d ec 33 f7 3d 5b 14 1b 3e e4 85 d6 3d
       0.0651743 0.1207045 0.15144484 0.10474756
