Models/best_eeV2_0427_2.pth (torch, 769915 bytes, 48 tensors)

baseModel.0.weight f4 [64, 2, 3]
0.042718332 -0.32598045 -0.36625835 0.23227431 -0.28975186 -0.31934044 0.053167358 0.025329243
-0.21617185 -0.03883833 -0.29853693 -0.1351858 -0.2640127 -0.2591438 0.2516349 0.302006
-0.024021206 0.17563769 0.063181385 -0.21304746 0.23447847 -0.011078052 0.026930954 -0.28573847
0.2532194 0.34450427 0.21201867 -0.16366251 0.028793536 0.13684218 0.012893295 0.24439296
-0.28723675 0.15286335 -0.16067342 0.19091973 0.20579249 -0.17216711 0.094001666 0.08444558
-0.2716286 0.10344427 -0.35969204 -0.28758454 0.16426764 -0.2396871 0.09001252 -0.073220514
0.20113812 -0.09462919 0.2377973 -0.3484904 -0.012484114 0.3592737 -0.22571388 0.2195505
-0.19031508 0.21855247 -0.31950623 0.20780548 0.055757776 -0.24393317 0.04364569 0.2707606
-0.3599357 -0.30764794 -0.28522772 0.08377036 -0.029484406 -0.34568423 -0.28098518 -0.203362
0.11081495 0.045284167 -0.16627531 -0.38701883 0.040891506 0.34442544 0.1863587 0.1425329
-0.21329428 -0.23739447 0.2074183 0.23840302 -0.3191443 -0.19627587 -0.12806863 -0.17150706
0.18753618 0.2651112 -0.14091672 0.261692 0.01971768 0.12666638 -0.119680546 0.24910393
-0.039327465 0.10953812 0.08574386 0.3541953 0.31453028 -0.014663879 -0.21926822 -0.3395583
-0.18022546 -0.23996964 -0.1292769 0.2777954 -0.21362437 -0.17304373 0.103812546 0.18216935
0.2944946 0.32748362 0.06352973 0.20853493 -0.104288675 0.29599452 -0.18984146 0.17580393
0.3426054 0.005115184 -0.116798684 0.12583171 -0.0057152887 0.0027163625 0.17955709 -0.087845534
-0.082343094 0.36675614 -0.06621572 -0.28388548 -0.16245261 -0.2320034 -0.30898136 0.17951944
0.22239582 -0.081094965 0.3901717 0.36954737 -0.22197333 0.02520617 -0.089746475 -0.033233877
-0.24791174 0.16229579 -0.23682933 -0.023553388 0.11999024 -0.13965186 0.13557412 0.26789314
-0.011614054 0.1533654 -0.0069437926 0.098715805 0.11771276 0.11610349 0.10459549 -0.038690742
-0.3020653 -0.229754 0.032130122 -0.08156666 -0.022157233 0.048123166 0.14221244 0.33912146
0.2875703 0.077604406 -0.35803172 0.18248738 -0.280718 0.1623947 -0.13575779 0.13336942
0.10863525 -0.15396489 0.16117223 -0.031836644 -0.26482156 -0.17043029 -0.11620245 0.09005595
0.015193336 0.070791975 -0.07600699 0.24431004 0.29636607 0.06570426 -0.27292714 -0.38869616
-0.25832388 0.12759756 0.15992722 0.35165665 0.11663177 -0.30921537 0.23222631 0.0053594955
-0.042790048 -0.14165087 -0.2772137 -0.18124284 -0.2253988 -0.38845164 -0.26647982 -0.00025725176
-0.07125872 0.0032576143 -0.3578172 0.02493952 0.34727675 -0.18369265 -0.002169802 0.20210612
0.011133306 -0.027500242 -0.20634516 0.0032021597 -0.21456179 -0.26016638 -0.03376779 0.05536623
-0.12409995 -0.1403126 0.2282072 -0.28553352 0.27789605 -0.15591335 -0.1276118 0.30372432
0.39199266 0.20494504 0.04605848 -0.2850433 0.09369176 -0.25150633 -0.04046848 0.22126073
0.04174472 0.2552846 -0.29509947 0.050241914 -0.25933063 0.006467668 0.15234253 0.326937
0.24267955 0.273399 0.033212226 -0.030291546 0.08993441 -0.12725042 -0.29607025 0.042281993
00000000: 6bf9 2e3d e9e6 a6be 3786 bbbe 51d9 6d3e
00000010: 5b5a 94be 9780 a3be 04c6 593d 467f cf3c
00000020: 275c 5dbe f114 1fbd d5d9 98be 256e 0abe
00000030: ac2c 87be 7fae 84be 4ad6 803e 88a0 9a3e
00000040: 1fc8 c4bc 5eda 333e 3e65 813d 1d29 5abe
00000050: 201b 703e b880 35bc 4e9e dc3c 504c 92be
00000060: f9a5 813e dd62 b03e 6c1b 593e 2597 27be
00000070: 6ce0 eb3c 5b20 0c3e 663e 533c 2642 7a3e
00000080: b210 93be 3688 1c3e 9387 24be 7680 433e
00000090: 44bb 523e 934c 30be f283 c03d cef1 ac3d
000000a0: e712 8bbe 97da d33d 8e29 b8be 483e 93be
000000b0: c735 283e 8970 75be 7c58 b83d a3f4 95bd
000000c0: 27f7 4d3e f3cc c1bd 2381 733e 556d b2be
000000d0: 2b8a 4cbc b9f2 b73e 8a21 67be d9d1 603e
000000e0: f5e1 42be 38cc 5f3e 5296 a3be f6ca 543e
000000f0: 4462 643d 9ec9 79be d3c5 323d 22a1 8a3e
00000100: 7e49 b8be 0884 9dbe 5e09 92be cb8f ab3d
00000110: 4889 f1bc 86fd b0be 4add 8fbe 213e 50be
00000120: f3f2 e23d e47b 393d 1344 2abe 5527 c6be
00000130: da7d 273d 8858 b03e d1d4 3e3e 25f4 113e
00000140: d169 5abe 8917 73be 7665 543e ec1f 743e
00000150: e266 a3be 8bfc 48be 6c24 03be 8c9f 2fbe
00000160: 7c09 403e a8bc 873e 794c 10be 7efc 853e
00000170: f986 a13c d5b4 013e 131b f5bd 1a15 7f3e
00000180: d615 21bd 8655 e03d 7a9a af3d 1659 b53e
00000190: 1d0a a13e c440 70bc d987 60be 96da adbe
000001a0: 068d 38be 9aba 75be 2a61 04be 333b 8e3e
000001b0: 59c0 5abe 6032 31be ac9b d43d 9a8a 3a3e
000001c0: ffc7 963e efab a73e e01b 823d 2e8a 553e
000001d0: 4d95 d5bd 988c 973e cd65 42be f205 343e
000001e0: fa69 af3e 469d a73b 2634 efbd 07da 003e
000001f0: 5147 bbbb 0005 323b d0dd 373e 5ce8 b3bd
00000200: 7fa3 a8bd 76c7 bb3e 1b9c 87bd 7059 91be
00000210: fa59 26be 4d92 6dbe ce32 9ebe f2d3 373e
00000220: bbbb 633e 1e15 a6bd 96c4 c73e 5035 bd3e
00000230: fa4c 63be 2b7d ce3c 00cd b7bd 3f20 08bd
00000240: 93dc 7dbe de30 263e 6383 72be 09f3 c0bc
00000250: 71bd f53d e600 0fbe f1d3 0a3e 4a29 893e
00000260: e048 3ebc d20b 1d3e c188 e3bb 832b ca3d
00000270: 6313 f13d abc7 ed3d 2936 d63d 2f7a 1ebd
00000280: 4ea8 9abe a244 6bbe e09a 033d 6c0c a7bd
00000290: 1683 b5bc cc1c 453d 23a0 113e 54a1 ad3e
000002a0: 6a3c 933e 0fef 9e3d ef4f b7be f9dd 3a3e
000002b0: 45ba 8fbe cc4a 263e 1704 0bbe fe91 083e
000002c0: 287c de3d f9a8 1dbe 550a 253e 2467 02bd
000002d0: b196 87be 4785 2ebe 8dfb edbd 416f b83d
000002e0: 78ed 783c 62fb 903d 8ea9 9bbd 692c 7a3e
000002f0: 4bbd 973e f48f 863d 1bbd 8bbe 2f03 c7be
00000300: 0743 84be efa8 023e f6c3 233e 570c b43e
00000310: a3dc ee3d 7a51 9ebe bccc 6d3e b59e af3b
00000320: 9e44 2fbd ed0c 11be f4ee 8dbe b997 39be
00000330: f1ce 66be 22e3 c6be 0b70 88be bfdf 86b9
00000340: 17f0 91bd b37d 553b d133 b7be f74d cc3c
00000350: 42ce b13e ed19 3cbe 3d33 0ebb e8f4 4e3e
00000360: 7868 363c 3048 e1bc 254c 53be 53db 513b
00000370: 16b6 5bbe 8734 85be 1850 0abd b3c7 623d
00000380: 1d28 febd 1bae 0fbe 26af 693e 7331 92be
00000390: 6448 8e3e c0a7 1fbe abac 02be c181 9b3e
000003a0: 43b3 c83e 1ddd 513e d1a7 3c3d 32f1 91be
000003b0: 77e1 bf3d 70c5 80be 47c2 25bd 2c92 623e
000003c0: 83fc 2a3d aab4 823e 4717 97be 77ca 4d3d
000003d0: fcc6 84be bbee d33b aeff 1b3e 4964 a73e
000003e0: fd80 783e f4fa 8b3e 8b09 083d fa25 f8bc
000003f0: 882f b83d ef4d 02be 8596 97be e22f 2d3d

baseModel.0.bias f4 [64]
-0.0002848867 -0.00044078534 0.00015981763 -0.00046755892 -0.0010996278 0.00024840803 0.0004846904 0.00032861004
3.3022166e-05 6.9339935e-06 0.00019878989 0.0002122727 0.0004539989 0.00031370824 0.00014079653 5.9113027e-05
0.00062092004 0.00016726184 -0.00012719052 4.697441e-05 -0.0002671747 -0.000113236274 0.00047420862 0.00011966516
0.000108762506 -0.00020442417 -0.00020119738 -0.00016743767 -0.00011716572 0.0008586524 9.401917e-05 0.0002214197
0.00026535813 0.00043368083 0.00014220808 0.0002282396 0.00041953905 -0.00061261817 0.00047977993 0.0002957659
-0.0001464357 -0.0002328218 0.0005114128 0.00018832323 0.00037390794 0.0001793541 3.7221267e-05 -0.000117200376
-0.00020751519 0.0006222198 0.00025425554 0.00025958655 0.00023510381 -3.5908215e-06 -0.00050372345 0.0005785596
1.9937646e-05 0.00049736456 -7.671483e-05 0.00036168194 0.00017077914 -0.00039568436 -0.00080767303 -0.0008573307
00000000: d85c 95b9 3519 e7b9 b894 2739 b222 f5b9
00000010: 6321 90ba c33c 8239 0b1e fe39 4b49 ac39
00000020: 4881 0a38 8daa e836 4172 5039 8595 5e39
00000030: b306 ee39 3579 a439 c8a2 1339 21f0 7738
00000040: 3dc5 223a 0263 2f39 725e 05b9 6406 4538
00000050: 9513 8cb9 4379 edb8 349f f839 bef4 fa38
00000060: 6d17 e438 b25a 56b9 83f8 52b9 3592 2fb9
00000070: deb6 f5b8 3017 613a 282c c538 e62c 6839
00000080: c41f 8b39 a85f e339 b11d 1539 9a53 6f39
00000090: 94f5 db39 1c98 20ba f98a fb39 0711 9b39
000000a0: 898c 19b9 a021 74b9 5510 063a a278 4539
000000b0: 1309 c439 0011 3c39 081e 1c38 79c9 f5b8
000000c0: 6f98 59b9 771c 233a 9a4d 8539 1e19 8839
000000d0: 3386 7639 d8f9 70b6 4f0c 04ba 7aaa 173a
000000e0: c53f a737 9261 023a f6e1 a0b8 21a0 bd39
000000f0: 2d13 3339 db73 cfb9 05ba 53ba 7dbe 60ba

baseModel.1.weight f4 [64]
0.8172109 0.77003163 0.74421823 0.74204 0.88342154 0.67642856 0.7816436 0.79327255
0.75471884 0.7535109 0.722022 0.81071275 0.8375575 0.7452686 0.7634473 0.67454636
0.893953 0.7950745 0.89130074 0.6879812 0.78826517 0.8095869 0.8370918 0.79507244
0.79154927 0.74418545 0.8614528 0.7978443 0.6917061 0.7687547 0.8012783 0.8762757
0.7418703 0.8376778 0.9044177 0.83480453 0.7703533 0.7387928 0.85389864 0.6941963
0.6896415 0.86973 0.82194066 0.7243595 0.7118812 0.780726 0.73920816 0.8056054
0.83503497 0.73674023 0.826355 0.8770938 0.8633396 0.8567901 0.78867143 0.8190898
0.87975454 0.76519996 0.7546184 0.8502299 0.7439616 0.78980374 0.80302435 0.9358533
00000000: bc34 513f cb20 453f 1685 3e3f 55f6 3d3f
00000010: ea27 623f 6c2a 2d3f cc19 483f e913 4b3f
00000020: 4135 413f 17e6 403f 6fd6 383f df8a 4f3f
00000030: 2b6a 563f ecc9 3e3f 4871 433f 12af 2c3f
00000040: 1bda 643f 018a 4b3f 492c 643f 891f 303f
00000050: bfcb 493f 1641 4f3f a64b 563f de89 4b3f
00000060: f9a2 4a3f f082 3e3f 2c88 5c3f 863f 4c3f
00000070: a713 313f 1ccd 443f 9320 4d3f 9b53 603f
00000080: 36eb 3d3f 0d72 563f eb87 673f c0b5 553f
00000090: e035 453f 8621 3d3f 1a99 5a3f d9b6 313f
000000a0: 588c 303f a0a6 5e3f b46a 523f a06f 393f
000000b0: d93d 363f a9dd 473f bf3c 3d3f 283c 4e3f
000000c0: dac4 553f 029b 3c3f 008c 533f 3889 603f
000000d0: d303 5d3f 9956 5b3f 5fe6 493f deaf 513f
000000e0: 9837 613f 25e4 433f ac2e 413f aba8 593f
000000f0: 4474 3e3f 9430 4a3f 0193 4d3f 1594 6f3f

baseModel.1.bias f4 [64]
-0.06797628 -0.072594315 -0.060866434 -0.0427507 -0.011843406 -0.011022673 -0.07805639 -0.08472278
-0.052463815 0.0115453545 -0.012223722 0.018065773 -0.061547678 -0.052062232 0.057608277 -0.030637441
0.007941294 0.009241525 -0.059325963 -0.005802862 -0.05482262 -0.057222165 -0.038896542 -0.08861258
0.00079312257 -0.07704074 -0.01710335 -0.043489084 -0.040936388 0.008262358 -0.051051218 -0.007143402
-0.019475553 -0.06529946 -0.024895312 -0.06111832 -0.0090344455 0.05569853 -0.10354378 -0.01342082
-0.038446557 -0.04377266 -0.016886303 0.020702489 -0.030042449 -0.049894124 -0.06683117 -0.05459561
-0.016420865 -0.060061246 -0.023553532 -0.02906932 0.050446678 -0.049703587 -0.0301713 0.007130851
-0.051773578 -0.009294159 -0.07759929 -0.0944413 -0.08304818 -0.07613712 -0.01789089 -0.0130946
00000000: 2637 8bbd 54ac 94bd 154f 79bd 5c1b 2fbd
00000010: d80a 42bc 7198 34bc 07dc 9fbd 2383 adbd
00000020: 4ce4 56bd ba28 3d3c 0246 48bc acfe 933c
00000030: 6b19 7cbd 353f 55bd a8f6 6b3d 5ffb fabc
00000040: 341c 023c c469 173c c8ff 72bd ef25 bebb
00000050: af8d 60bd ca61 6abd fb51 1fbd 837a b5bd
00000060: 8ee9 4f3a 89c7 9dbd 531c 8cbc 9c21 32bd
00000070: eaac 27bd d75e 073c 151b 51bd 3313 eabb
00000080: 328b 9fbc b9bb 85bd 41f1 cbbc 3457 7abd
00000090: 3605 14bc 2424 643d c30e d4bd 00e3 5bbc
000000a0: 237a 1dbd f64a 33bd 2555 8abc 4498 a93c
000000b0: 951b f6bc c85d 4cbd c8de 88bd a59f 5fbd
000000c0: 0d85 86bc c802 76bd 56f3 c0bc c822 eebc
000000d0: 2da1 4e3d fd95 4bbd cd29 f7bc eaa9 e93b
000000e0: 8810 54bd 8746 18bc 60ec 9ebd 716a c1bd
000000f0: 2a15 aabd c7ed 9bbd ea8f 92bc bc8a 56bc

baseModel.1.running_mean f4 [64]
-0.00019216817 -0.00045932617 6.11367e-05 -0.00054504594 -0.000943975 5.069329e-05 0.000513586 0.00012010687
0.0001969203 0.0001793405 9.3692994e-05 0.00038418308 0.0003882837 0.0001068046 -0.00014917475 5.136395e-05
0.0004922614 0.00017156606 -0.00023399397 -0.00010945653 -0.00022690737 -0.00025206397 0.00043151167 0.00013938679
0.00038727705 -6.487484e-05 -0.00015192766 -0.00011274574 0.00015889331 0.00072674255 0.00036134696 0.00044001348
-5.4475793e-05 0.0004984324 0.00010950629 0.00043634715 9.1876005e-05 -0.00038217867 0.00051089446 -1.8249246e-05
-0.00013033737 -0.00041793965 0.00018231163 0.00012438152 0.0002858584 0.00018702392 0.00014577188 -7.054712e-05
-0.0001730291 0.00041975535 0.0001313885 0.00039675512 0.00014478821 4.830439e-05 -0.00046710757 0.00039441884
-9.591905e-05 0.0004776454 0.00010699202 0.00050637714 7.042809e-05 -8.022466e-05 -0.0008979532 -0.001003577
00000000: c080 49b9 b7d1 f0b9 8436 8038 6ae1 0eba
00000010: 1775 77ba 819f 5438 2ca2 063a e3e1 fb38
00000020: 647c 4e39 590d 3c39 0b7d c438 2e6c c939
00000030: 8e92 cb39 48fc df38 cb6b 1cb9 9f6f 5738
00000040: 1a0b 013a 6ae6 3339 475c 75b9 078c e5b8
00000050: fced 6db9 7427 84b9 843c e239 5b28 1239
00000060: 720b cb39 6a0d 88b8 c54e 1fb9 e971 ecb8
00000070: 999c 2639 de82 3e3a 2b73 bd39 9cb1 e639
00000080: f07c 64b8 3ba9 023a bea6 e538 86c5 e439
00000090: 8ead c038 275f c8b9 8ced 053a f515 99b7
000000a0: 2cab 08b9 e91e dbb9 e82a 3f39 696c 0239
000000b0: 44df 9539 da1b 4439 57da 1839 b2f2 93b8
000000c0: 256f 35b9 9c12 dc39 55c5 0939 9203 d039
000000d0: 4ad2 1739 729a 4a38 1ee6 f4b9 00ca ce39
000000e0: 2628 c9b8 7b6c fa39 e760 e038 65be 043a
000000f0: cbb2 9338 493e a8b8 9f64 6bba 758a 83ba

baseModel.1.running_var f4 [64]
2.1499309e-05 7.3894385e-06 1.1755613e-05 4.989005e-06 1.5344855e-05 5.070737e-06 3.5876415e-06 1.2239706e-05
1.16245665e-05 6.102484e-06 1.2759269e-05 1.6749367e-05 1.0569061e-05 8.915334e-06 1.404281e-05 4.699768e-06
1.253359e-05 1.6790253e-05 1.7065604e-05 5.376345e-06 5.2591913e-06 8.762432e-06 1.4107019e-05 1.4383209e-05
4.1557746e-06 5.697674e-06 1.0253363e-05 7.2013936e-06 9.803328e-06 2.6393063e-06 7.0063184e-06 1.8333933e-05
1.1596328e-05 9.77492e-06 1.6610886e-05 1.1055962e-05 7.71476e-06 3.6108386e-06 2.0734236e-05 6.2386334e-06
5.9678887e-06 1.43228435e-05 7.545099e-06 1.0919268e-05 7.6188435e-06 7.2299677e-06 1.1966155e-05 9.470186e-06
1.7798084e-05 6.9629154e-06 1.4706571e-05 9.36823e-06 1.21298635e-05 1.5330632e-05 1.2933917e-05 1.1609974e-05
2.058132e-05 9.12182e-06 9.569191e-06 1.2166541e-05 7.203545e-06 1.295076e-05 7.831405e-06 1.01401965e-05
00000000: 6a59 b437 cbf2 f736 f939 4537 3a67 a736
00000010: d3b8 8037 4d25 aa36 36c3 7036 2359 4d37
00000020: 2207 4337 f0c3 cc36 a510 5637 fe80 8c37
00000030: c551 3137 1193 1537 6999 6b37 b3b2 9d36
00000040: 5c47 5237 cbd8 8c37 1b28 8f37 7466 b436
00000050: 1c78 b036 5c02 1337 2fad 6c37 6a4f 7137
00000060: d571 8b36 a62e bf36 dc05 2c37 80a3 f136
00000070: f978 2437 f01e 3136 d117 eb36 d2cb 9937
00000080: d98d 4237 f6fe 2337 9b57 8b37 ff7c 3937
00000090: a46e 0137 bc51 7236 6fee ad37 7455 d136
000000a0: c63f c836 254c 7037 e82b fd36 e631 3737
000000b0: 5ea5 ff36 f398 f236 3fc2 4837 24e2 1e37
000000c0: 184d 9537 fda2 e936 3ebc 7637 3e2c 1d37
000000d0: 5e81 4b37 489a 8037 c0fe 5837 75c8 4237
000000e0: 0ca6 ac37 eb09 1937 5d8b 2037 e51e 4c37
000000f0: fbb5 f136 1747 5937 a163 0337 d01f 2a37

baseModel.4.weight f4 [64, 64, 3]
0.004601804 0.040144116 -0.035739847 0.022435874 -0.0015870634 -0.0128483875 -0.03483636 0.026308428
0.04571424 -0.06544288 -0.04528118 0.0024041748 0.04591214 -0.06673301 -0.005541243 -0.0074573047
0.014204671 -0.009247377 -0.05507907 0.027454041 0.025348004 0.06266062 0.059116274 -0.015841506
0.03880252 -0.05104697 -0.024748025 0.024706421 -0.0005165901 -0.006169364 -0.01346489 0.016503742
0.006708272 -0.0864211 -0.00028931262 0.0244784 -0.002654912 0.009734474 0.0033343933 -0.055097323
0.002235 -0.04588906 0.019839143 -0.062427536 -0.03380066 0.054020002 0.020719057 0.014362369
-0.021046326 -0.021502897 -0.04907113 0.041289724 0.027855404 0.05847416 -0.032032233 -0.15853293
-0.014488578 0.043402445 0.031086268 0.07126418 0.041934174 0.103937685 0.02830638 -0.012748354
0.06438259 0.039846327 -0.09360916 -0.101625524 -0.039829828 -0.008157672 0.05262098 -0.031914555
0.05403932 0.02318783 0.023117296 -0.021283299 0.01228832 0.09109184 -0.05892576 -0.05754692
0.022479638 -0.023021035 -0.0036991634 0.025047878 0.046982028 -0.0045944448 -0.0096859615 0.01460068
-0.011120375 -0.0465131 -0.04589219 0.0043108086 -0.019147782 -0.03025663 -0.030044436 -0.035829652
0.037758145 0.0026941076 -0.044742085 0.008028887 -0.13368067 -0.015928714 -0.05604846 -0.05265204
0.020574812 0.011311738 0.049055383 0.029499583 0.052878845 0.014953424 -0.007095402 -0.04130448
0.042556938 -0.01668132 -0.04764264 -0.02198688 0.032765057 -0.06655739 0.03216023 -0.038988348
0.021412408 -0.018690486 0.03525016 -0.0072025354 0.063800715 0.009199567 0.023607954 -0.012100874
0.038669493 0.078463666 0.06580529 0.013201001 -0.034659002 -0.08166857 -0.00395919 -0.0038207322
0.035679407 0.015261644 -0.036059223 0.00034770838 0.034312043 0.041500803 -0.030580942 -0.042583384
-0.0050256457 0.009662236 -0.033185367 -0.090869114 0.0022005588 0.0040862015 -0.038249318 -0.060160436
-0.015858764 0.02381495 0.050567977 -0.015331899 0.029795852 0.022540824 0.07136636 0.020502305
0.013241958 0.09429442 -0.026218984 -0.005149268 -0.02341041 -0.03231292 -0.052178666 -0.024568416
0.012365324 0.01011473 0.0041109426 -0.04295519 0.014675002 0.031025246 0.057918474 0.0388341
-0.014900816 0.055934437 0.0075366236 -0.07217995 -0.06530697 0.028062703 -0.05568918 -0.038755435
0.04115782 0.03999006 0.05306569 -0.03538344 -0.0015571208 0.07419031 0.009555642 0.031598225
0.02959756 -0.064423904 0.024900451 -0.054518465 0.033224907 0.009808363 -0.012202047 -0.04207727
0.008262986 -0.019452056 0.020245364 0.029275114 0.0071709277 -0.040385194 -0.026514417 0.06986193
0.025881479 -0.058705654 0.022601197 -0.010182506 -0.004574488 0.01777045 -0.037197065 -0.006483075
-0.04132664 0.04785051 -0.044368017 -0.0015666261 -0.027293665 -0.03456884 0.005328324 -0.0020599705
0.03835417 0.0012447203 0.06434243 -0.017710779 0.030910779 0.024636999 -0.006369202 0.0034627877
0.009516629 -0.06528802 0.019626264 -0.09109992 0.04532711 -0.04992643 0.022837136 -0.04648916
-0.04494941 0.060177203 0.011207944 -0.049073208 -0.009563383 0.014193634 0.038948085 -0.003399546
-0.06781075 -0.0043800273 -0.033991024 -0.028054357 -0.031208247 -0.019504922 0.010787101 0.051203843
00000000: bbca 963b 286e 243d f263 12bd 70cb b73c
00000010: 0305 d0ba 0b82 52bc 92b0 0ebd c684 d73c
00000020: db3e 3b3d eb06 86bd c278 39bd 5c8f 1d3b
00000030: 5e0e 3c3d 51ab 88bd 5193 b5bb 685c f4bb
00000040: b5ba 683c 4f82 17bc 979a 61bd 4ce7 e03c
00000050: 9ea6 cf3c 3654 803d e823 723d 0cc6 81bc
00000060: 64ef 1e3d a116 51bd 5fbc cabc 1f65 ca3c
00000070: c66b 07ba 6028 cabb d89b 5cbc db32 873c
00000080: 10d1 db3b 8cfd b0bd e2ae 97b9 ed86 c83c
00000090: 08fe 2dbb 587d 1f3c d685 5a3b bbad 61bd
000000a0: 1479 123b 2bf6 3bbd b385 a23c 04b4 7fbd
000000b0: 9072 0abd 1444 5d3d 03bb a93c 2450 6b3c
000000c0: 5869 acbc d826 b0bc cffe 48bd 6a1f 293d
000000d0: 0431 e43c 9a82 6f3d 3b34 03bd 7556 22be
000000e0: 8061 6dbc c3c6 313d a1a8 fe3c f4f2 913d
000000f0: 2bc3 2b3d 48dd d43d c8e2 e73c 79de 50bc
00000100: 05db 833d e735 233d 29b6 bfbd 0b21 d0bd
00000110: 9a24 23bd c2a7 05bc 1989 573d d6b8 02bd
00000120: 5658 5d3d 67f4 bd3c 7c60 bd3c 505a aebc
00000130: f354 493c 5c8e ba3d 235c 71bd 52b6 6bbd
00000140: 3827 b83c 9c96 bcbc aa6d 72bb 3531 cd3c
00000150: 3a70 403d ff8c 96bb deb1 1ebc b137 6f3c
00000160: 3c32 36bc 8584 3ebd 73f9 3bbd af41 8d3b
00000170: cfdb 9cbc c1dc f7bc c01f f6bc 1dc2 12bd
00000180: 49a8 1a3d a08f 303b 7a43 37bd 988b 033c
00000190: 96e3 08be ef7c 82bc 1293 65bd aaa9 57bd
000001a0: 828c a83c de54 393c 4cee 483d 1ca9 f13c
000001b0: 7d97 583d 35ff 743c 8c80 e8bb e32e 29bd
000001c0: 2f50 2e3d 43a7 88bc ee24 43bd d41d b4bc
000001d0: a734 063d 3e4f 88bd 72ba 033d 3fb2 1fbd
000001e0: 1369 af3c ca1c 99bc 7962 103d 3f03 ecbb
000001f0: f3a9 823d c8b9 163c 7865 c13c bf42 46bc
00000200: e763 1e3d 8fb1 a03d edc4 863d 0349 583c
00000210: 99f6 0dbd da41 a7bd 18bc 81bb 4065 7abb
00000220: 9224 123d f90b 7a3c d6b2 13bd a14c b639
00000230: c98a 0c3d bffc 293d e284 fabc ea6b 2ebd
00000240: 2cae a4bb 5b4e 1e3c 61ed 07bd 9619 babd
00000250: 4037 103b 8be5 853b 51ab 1cbd ca6a 76bd
00000260: 3dea 81bc 9217 c33c 5e20 4f3d a532 7bbc
00000270: 6e16 f43c 89a7 b83c 8728 923d 73f4 a73c
00000280: ccf4 583c 6f1d c13d 32c9 d6bc 31bb a8bb
00000290: 30c7 bfbc 8d5a 04bd 4cb9 55bd b443 c9bc
000002a0: ee97 4a3c 41b8 253c 16b5 863b c8f1 2fbd
000002b0: 6b6f 703c a828 fe3c ec3b 6d3d 8110 1f3d
000002c0: 8d22 74bc 821b 653d c8f5 f63b 15d3 93bd
000002d0: a9bf 85bd c1e3 e53c 561a 64bd 05be 1ebd
000002e0: 1a95 283d 9ecc 233d 695b 593d 3aee 10bd
000002f0: 4e18 ccba 17f1 973d 448f 1c3c 246d 013d
00000300: 9576 f23c aef0 83bd 08fc cb3c c14e 5fbd
00000310: d716 083d 42b3 203c 18eb 47bc 3759 2cbd
00000320: 7a61 073c eb59 9fbc 9bd9 a53c 5dd2 ef3c
00000330: 1afa ea3b f26a 25bd c334 d9bc c613 8f3d
00000340: 6505 d43c 5775 70bd 2526 b93c 87d4 26bc
00000350: 96e5 95bb 5693 913c f35b 18bd fa6f d4bb
00000360: 1f46 29bd e5fe 433d 3dbb 35bd 4057 cdba
00000370: f796 dfbc 0e98 0dbd 3999 ae3b 9200 07bb
00000380: 4319 1d3d e225 a33a f7c5 833d 3216 91bc
00000390: 9a38 fd3c 88d3 c93c bdb4 d0bb f0ef 623b
000003a0: a3eb 1b3c bab5 85bd 42c7 a03c 9892 babd
000003b0: eba8 393d a87f 4cbd f214 bb3c 6b6b 3ebd
000003c0: df1c 38bd 5f7c 763d 86a1 373c fd00 49bd
000003d0: bcaf 1cbc 6a8c 683c 0788 1f3d ebca 5ebb
000003e0: 5de0 8abd 5586 8fbb 2c3a 0bbd 40d2 e5bc
000003f0: 70a8 ffbc c9c8 9fbc 62bc 303c 1fbb 513d

baseModel.4.bias f4 [64]
-4.3459872e-07 2.4070235e-07 -1.8730954e-05 -3.4866367e-05 1.5001159e-05 -4.3741245e-05 -1.4733317e-06 9.3490183e-07
-3.441313e-05 3.2304164e-05 9.529968e-06 9.383625e-06 -5.3192375e-06 1.6295888e-05 -8.43692e-05 -1.462523e-05
7.911299e-06 -4.9233126e-06 1.2606234e-05 -1.07710775e-07 5.056664e-05 -3.508813e-05 3.193267e-05 5.393164e-05
2.0893698e-05 -3.2262433e-05 -2.6335925e-05 -1.19694005e-05 -2.7742115e-06 -1.5460455e-05 -3.9547344e-06 -4.3694075e-05
-3.3880876e-06 1.1427079e-05 5.6779886e-06 -4.2695373e-07 3.9139175e-07 -5.6746367e-06 -1.8250113e-07 4.1029216e-06
8.430807e-06 2.9731484e-05 -2.723596e-05 2.3506012e-05 1.5631498e-05 -3.104756e-05 -1.3168971e-05 8.111591e-06
-3.0043357e-06 2.5681636e-06 7.740264e-06 2.037677e-05 1.42582485e-05 -2.3675735e-05 1.9522591e-05 1.0554175e-05
2.4587785e-05 1.954109e-07 -4.72666e-06 -3.5722093e-07 -2.330574e-05 -3.0414021e-05 -6.8019353e-06 -1.2440119e-05
00000000: cb52 e9b4 e139 8134 6b20 9db7 7a3d 12b8
00000010: 7dad 7b37 ce76 37b8 4bbf c5b5 f7f5 7a35
00000020: d156 10b8 557e 0738 e7e2 1f37 5d6e 1d37
00000030: e77b b2b6 27b3 8837 5fef b0b8 e25e 75b7
00000040: c5ba 0437 ef32 a5b6 5d7f 5337 a04e e7b3
00000050: 8417 5438 982b 13b8 71ef 0538 a834 6238
00000060: e044 af37 8651 07b8 f8eb dcb7 2fd0 48b7
00000070: 972c 3ab6 13b1 81b7 e9b2 84b6 2844 37b8
00000080: e75e 63b6 eeb6 3f37 8d85 be36 1338 e5b4
00000090: 7920 d234 c268 beb6 87f5 43b4 d4ab 8936
000000a0: 0a72 0d37 e067 f937 c778 e4b7 c72e c537
000000b0: 6320 8337 1039 02b8 4df0 5cb7 0517 0837
000000c0: 189e 49b6 b758 2c36 2edc 0137 c8ee aa37
000000d0: b636 6f37 419b c6b7 72c4 a337 d611 3137
000000e0: de41 ce37 24d2 5134 b399 9eb6 12c8 bfb4
000000f0: b280 c3b7 9d21 ffb7 2e3c e4b6 e7b5 50b7

baseModel.5.weight f4 [64]
0.81084573 0.7240834 0.7939769 0.8331738 0.7863448 0.77092993 0.79515934 0.7295537
0.7875376 0.7703024 0.6997667 0.83298266 0.8199873 0.7781584 0.73482686 0.7330712
0.69971913 0.7801138 0.75070226 0.74893785 0.812846 0.7615204 0.7015607 0.7321019
0.77630675 0.7092588 0.6976044 0.7415183 0.7917788 0.82391155 0.7491168 0.758349
0.6825646 0.75018907 0.76029605 0.7428576 0.7795783 0.7122247 0.72460026 0.7739157
0.7307857 0.7483374 0.725868 0.76537067 0.8157587 0.81486374 0.7754932 0.77695537
0.8880331 0.68418485 0.7792873 0.71665686 0.76247174 0.7593954 0.75505203 0.76119304
0.86672574 0.77066034 0.72324336 0.7204995 0.806467 0.73267424 0.7258364 0.75477225
00000000: 9693 4f3f 885d 393f 1242 4b3f e14a 553f
00000010: e54d 493f aa5b 453f 908f 4b3f 08c4 3a3f
00000020: 109c 493f 8a32 453f e923 333f 5a3e 553f
00000030: b0ea 513f 6435 473f 9d1d 3c3f 8eaa 3b3f
00000040: cb20 333f 8ab5 473f 062e 403f 64ba 3f3f
00000050: ad16 503f 00f3 423f 7b99 333f 086b 3b3f
00000060: 0abc 463f fc91 353f 3496 323f 25d4 3d3f
00000070: 04b2 4a3f deeb 523f 1ec6 3f3f 2923 423f
00000080: 8ebc 2e3f 640c 403f c3a2 423f ea2b 3e3f
00000090: 7292 473f 5c54 363f 677f 393f 571f 463f
000000a0: c614 3b3f 0a93 3f3f 7cd2 393f 55ef 433f
000000b0: 90d5 503f e99a 503f b986 463f 8ce6 463f
000000c0: 2356 633f bd26 2f3f 5f7f 473f d376 373f
000000d0: 5931 433f bd67 423f 174b 413f 8cdd 423f
000000e0: bde1 5d3f ff49 453f 7a26 393f a872 383f
000000f0: 9f74 4e3f 8a90 3b3f 6ad0 393f c138 413f

baseModel.5.bias f4 [64]
-0.049654637 0.039259456 -5.870731e-05 -0.119806446 -0.031528164 0.030878644 -0.0659854 -0.05439205
-0.012947309 0.010555425 -0.025724268 -0.045818057 -0.11669316 -0.015674265 0.0100324545 0.12021336
-0.023540523 0.027092118 0.019773528 -0.007988513 0.032805275 -0.11522342 -0.039233167 0.016990779
0.016717441 -0.010704427 -0.03162085 0.044378165 0.033013873 -0.106606886 -0.0024102107 -0.11299607
-0.04765754 0.033155736 0.025524495 -0.00045605563 -0.026019983 0.061495148 -0.05553617 -0.015788646
0.09574665 0.036417086 0.03404631 -0.089475185 -0.0819137 -0.0022116979 -0.03655933 0.040214
-0.14748617 -0.10013812 0.007791674 0.0005564841 0.072945125 -0.00023080266 -0.061057277 -0.18841594
-0.04494079 -0.073321484 -0.041368883 0.018215785 -0.048364803 0.007978763 -0.053427514 0.01885499
00000000: a962 4bbd 86ce 203d 7e3c 76b8 155d f5bd
00000010: ad23 01bd 36f5 fc3c 5a23 87bd 33ca 5ebd
00000020: f320 54bc a9f0 2c3c b3bb d2bc b7ab 3bbd
00000030: d3fc eebd 5167 80bc 2a5f 243c 6c32 f63d
00000040: 0ed8 c0bc 4af0 dd3c 18fc a13c 41e2 02bc
00000050: d35e 063d 42fa ebbd f5b2 20bd 3f30 8b3c
00000060: 04f3 883c 9f61 2fbc dd84 01bd e1c5 353d
00000070: 8e39 073d b654 dabd a0f4 1dbb 7c6a e7bd
00000080: 8d34 43bd 4fce 073d bf18 d13c c01a efb9
00000090: dc27 d5bc 56e2 7b3d e579 63bd 3157 81bc
000000a0: d216 c43d 152a 153d 2574 0b3d c43e b7bd
000000b0: 5fc2 a7bd 22f2 10bb 3cbf 15bd 6fb7 243d
000000c0: 9d06 17be 3715 cdbd 4d51 ff3b 04e1 113a
000000d0: 4164 953d 9e03 72b9 3217 7abd 1cf0 40be
000000e0: d513 38bd 9329 96bd 6b72 29bd 4539 953c
000000f0: 2c1a 46bd 5cb9 023c cfd6 5abd c875 9a3c

baseModel.5.running_mean f4 [64]
-0.06193263 -0.062152095 -0.28480086 -0.077694796 0.01447517 0.015195523 -0.027552882 -0.05831406
-0.014207745 -0.18874754 0.057298373 0.041505694 -0.034427885 -0.11661265 0.0652078 0.00080196833
-0.16868284 0.22156838 0.043947965 -0.11789426 -0.32530552 -0.029102467 0.09065831 0.13170265
0.001263607 0.06299215 -0.12467361 -0.44488734 -0.1191847 -0.08385173 -0.029292649 -0.09029892
-0.2013922 -0.20654024 0.12658232 0.15404272 0.203283 0.0052313707 0.026787328 0.032371324
0.27073383 -0.024987744 0.056802776 -0.048181504 -0.012033093 0.007970539 0.02009576 -0.118269466
-0.023634972 -0.14376174 -0.1868571 0.2935828 -0.027944544 0.19536093 -0.09406438 -0.05842942
-0.110912204 -0.02706628 0.034903836 0.04004093 0.020528015 -0.19851632 -0.037672706 -0.13470386
00000000: 12ad 7dbd 3293 7ebd 6bd1 91be 731e 9fbd
00000010: 4329 6d3c a5f6 783c 95b6 e1bc b9da 6ebd
00000020: 9ac7 68bc 0947 41be b3b1 6a3d e001 2a3d
00000030: 4104 0dbd 9dd2 eebd ab8b 853d 2f3b 523a
00000040: 32bb 2cbe d2e2 623e c802 343d 8c72 f1bd
00000050: 728e a6be 4c68 eebc 10ab b93d 0fdd 063e
00000060: 9d9f a53a 0702 813d e154 ffbd 46c8 e3be
00000070: 1c17 f4bd 75ba abbd 23f7 efbc a4ee b8bd
00000080: c239 4ebe 497f 53be cc9e 013e 60bd 1d3e
00000090: 6b29 503e eb6b ab3b 1971 db3c cb97 043d
000000a0: a09d 8a3e 19b3 ccbc 07aa 683d f859 45bd
000000b0: 7326 45bc dd96 023c dd9f a43c 4337 f2bd
000000c0: 219e c1bc 4736 13be 7857 3fbe 7c50 963e
000000d0: f5eb e4bc b20c 483e d3a4 c0bd b053 6fbd
000000e0: f025 e3bd 1aba ddbc 53f7 0e3d f501 243d
000000f0: 5e2a a83c dd47 4bbe b24e 1abd cfef 09be

baseModel.5.running_var f4 [64]
0.031447615 0.045375288 0.03733838 0.042016204 0.10206424 0.04417334 0.046006195 0.06520658
0.07245373 0.048605163 0.056986976 0.059968267 0.096228324 0.040853225 0.023578439 0.060061004
0.03831704 0.049840685 0.078697644 0.029368013 0.026984533 0.042553104 0.064421795 0.056616675
0.061312858 0.024741841 0.041432045 0.07698148 0.047560602 0.059378713 0.06871908 0.06260969
0.04758841 0.03860228 0.04699353 0.06608257 0.057639014 0.013179303 0.059207346 0.043532114
0.037872516 0.06145594 0.03780684 0.113856055 0.026119247 0.0263616 0.030522816 0.079631664
0.04810738 0.03050019 0.09619603 0.05066202 0.06804338 0.03116844 0.06876065 0.025023947
0.14878523 0.035354137 0.044465348 0.048365373 0.07452775 0.02934446 0.05454328 0.02655286
00000000: 37cf 003d 70db 393d 21f0 183d 2f19 2c3d
00000010: 0e07 d13d 1bef 343d fe70 3c3d 078b 853d
00000020: 9f62 943d 3516 473d 2d6b 693d 49a1 753d
00000030: 5b13 c53d b655 273d 9227 c13c 8702 763d
00000040: 54f2 1c3d bf25 4c3d 3b2c a13d 3095 f03c
00000050: ab0e dd3c 2a4c 2e3d 93ef 833d e3e6 673d
00000060: 3123 7b3d 67af ca3c a6b4 293d 77a8 9d3d
00000070: e8ce 423d 1837 733d 97bc 8c3d 8239 803d
00000080: 11ec 423d 6d1d 1e3d 4a7c 403d 4c56 873d
00000090: e316 6c3d 01ee 573c 6783 723d bb4e 323d
000000a0: 3620 1b3d 39b9 7b3d 58db 1a3d 5d2d e93d
000000b0: 08f8 d53c 48f4 d73c fc0a fa3c ed15 a33d
000000c0: 3e0c 453d 89db f93c 6d02 c53d fa82 4f3d
000000d0: 545a 8b3d f554 ff3c 62d2 8c3d 05ff cc3c
000000e0: 285b 183e 80cf 103d 4c21 363d c51a 463d
000000f0: 01a2 983d cb63 f03c c668 5f3d 6285 d93c

baseModel.8.weight f4 [64, 64, 3]
0.03205572 -0.040223926 -0.06795097 -0.02489867 -0.0020971016 0.010812489 0.051720873 -0.019072084
-0.016726756 0.009091738 0.04875014 -0.011471948 -0.043723464 -0.033703316 -0.01601631 -0.010743068
-0.019620083 -0.0072829844 -0.042746436 0.061158027 -0.023110924 0.005884821 0.010157564 0.048619125
0.014816575 0.01121274 -0.043107003 0.036757607 0.026097562 -0.009271478 0.021289973 -0.03688722
-0.015660275 -0.07309028 0.026639104 0.025251884 -0.013678996 -0.033305503 0.028085208 -0.023469739
0.024315447 -0.03540016 0.028119074 0.0153269535 0.015266605 -0.023098003 -0.019416494 -0.0151951425
0.039636765 0.01997336 0.02310386 -0.032845117 -0.04293668 -0.030464828 -0.0909323 0.03079497
-0.009790828 0.0057503567 0.058031723 0.042460226 0.07177901 -0.025642557 -0.0012344315 0.025991926
-0.0316391 0.016278418 0.052614402 -0.032391462 -0.01801452 0.009572305 -0.0118409395 -0.018336272
0.03203335 -0.012023653 -0.015181383 0.06313844 -0.012264209 0.04884912 0.016094249 -0.03770361
-0.0626958 0.0019704106 -0.0068952027 -0.013621845 -0.013019895 -0.014139614 0.05594262 -0.04742348
-0.018249325 -0.02529755 0.073502935 -0.039012372 -0.037622724 -0.0085608745 -0.041087408 -0.032835733
-0.022569356 0.029052129 0.047134217 -0.031468578 -0.018449863 -0.037468888 0.043759927 0.0063896454
-0.022147156 -0.01773642 0.03484495 0.038175184 -0.016961439 0.019092463 0.0045527183 0.019023044
-0.021711381 -0.002679474 0.038491383 -0.044745907 -0.03902379 -0.06380461 -0.026794078 0.02405023
-0.05587436 0.007668575 -0.011456477 -0.004299711 0.034846507 0.020566402 -0.00029613217 -0.031548258
0.014757544 0.0028605466 -0.08008562 0.03919465 0.034430817 0.031538866 -0.07602826 0.030310445
-0.06922034 -0.088002175 0.07617518 -0.011809359 -0.05245211 0.011630897 -0.031568725 0.010557944
0.072011165 -0.050252665 0.049620662 -0.020319063 -0.011851138 0.0021035732 -0.012639694 0.02887024
-0.0005397065 -0.001048779 -0.062755115 0.015416769 -0.04328646 0.005771759 -0.0013551285 -0.051370032
-0.000473494 0.078554034 -0.07279618 -0.018179236 0.014534115 -0.0004642502 -0.012650864 -0.043429196
-0.012562559 -0.014241274 0.07732808 0.021958558 0.026955737 -0.016030231 0.03912603 -0.05325213
0.015495525 -0.008046763 -0.021263873 -0.03915858 0.05435705 0.031418175 -0.047211535 -0.0031020308
0.034792088 -0.018735873 0.029099405 0.022360621 0.06739996 0.007110592 0.035699446 0.04148877
-0.032188606 -0.032648906 -0.07109391 0.0063408227 -0.01475414 -0.045034066 0.055309284 0.030300803
0.082937986 0.06509412 0.0776128 -0.021578904 -0.06802891 -0.048855416 0.028735084 0.03680066
-0.024142554 -0.007318289 -0.044012222 -0.025430089 -0.027646748 0.00376862 0.06254249 -0.022024263
-0.018481668 -0.035376906 -0.045029495 -0.04430339 0.014700455 0.00031159807 -0.06333285 -0.01426042
-0.02797984 -0.08339677 -0.039589994 -0.007889738 0.0019727277 0.030559314 0.022674019 0.03445857
-0.008874301 0.029191237 0.005324055 -0.009599967 -0.024571402 0.010314748 0.06152096 -0.0759528
-0.030655917 0.0058054184 0.028186385 0.05281894 -0.026723744 0.0039983485 0.02510848 0.058389347
-0.041161742 0.015996158 0.021412065 0.024769057 0.009853753 -0.030425508 0.014432139 0.00508759
00000000: dc4c 033d d8c1 24bd e129 8bbd 4cf8 cbbc
00000010: 876f 09bb de26 313c 44d9 533d 0f3d 9cbc
00000020: 8d06 89bc 83f5 143c 3aae 473d d6f4 3bbc
00000030: 6017 33bd 7d0c 0abd a334 83bc b103 30bc
00000040: 4cba a0bc 1aa6 eebb e316 2fbd d780 7a3d
00000050: 1f53 bdbc 75d5 c03b e96b 263c d924 473d
00000060: 38c1 723c a4b5 373c f890 30bd 258f 163d
00000070: 8eca d53c 66e7 17bc 4f68 ae3c 0e17 17bd
00000080: fa49 80bc 5bb0 95bd 403a da3c 0add ce3c
00000090: de1d 60bc 5a6b 08bd f312 e63c 9c43 c0bc
000000a0: 3031 c73c c2ff 10bd f959 e63c e71d 7b3c
000000b0: c820 7a3c 0638 bdbc 570f 9fbc 0cf5 78bc
000000c0: 295a 223d 2c9f a33c 4e44 bd3c 9a88 06bd
000000d0: 5fde 2fbd 6091 f9bc b73a babd bc45 fc3c
000000e0: b669 20bc 7d6d bc3b acb2 6d3d c6ea 2d3d
000000f0: e000 933d 5710 d2bc a6cc a1ba 05ed d43c
00000100: 0098 01bd 515a 853c 3382 573d e9ac 04bd
00000110: 3093 93bc 28d5 1c3c 8000 42bc f335 96bc
00000120: 6735 033d dbfe 44bc 56bb 78bc ba4e 813d
00000130: d2ef 48bc 0416 483d 16d8 833c 1a6f 1abd
00000140: a866 80bd 0122 013b 27f1 e1bb 292e 5fbc
00000150: 6651 55bc d7a9 67bc 1724 653d 1f3f 42bd
00000160: 9c7f 95bc cf3c cfbc b588 963d 70cb 1fbd
00000170: 491a 1abd e942 0cbc 454b 28bd c37e 06bd
00000180: 5fe3 b8bc bbfe ed3c cf0f 413d 32e5 00bd
00000190: 2b24 97bc fa78 19bd 9c3d 333d 3b60 d13b
000001a0: f46d b5bc f84b 91bc 94b9 0e3d 955d 1c3d
000001b0: b7f2 8abc cc67 9c3c f82e 953b 37d6 9b3c
000001c0: 11dc b1bc 1d9a 2fbb 24a9 1d3d 7c47 37bd
000001d0: 69d7 1fbd feab 82bd 417f dbbc fd04 c53c
000001e0: 83dc 64bd ab48 fb3b f3b3 3bbc 97e4 8cbb
000001f0: 36bb 0e3d df7a a83c 3042 9bb9 bf38 01bd
00000200: a0c9 713c 0278 3b3b ee03 a4bd 928a 203d
00000210: 5407 0d3d e62e 013d b4b4 9bbd 9c4d f83c
00000220: 65c3 8dbd 7c3a b4bd bc01 9c3d 0b7c 41bc
00000230: 06d8 56bd 858f 3e3c 354e 01bd 3afb 2c3c
00000240: 977a 933d bdd5 4dbd 093f 4b3d 2a74 a6bc
00000250: 472b 42bc 1adc 093b b816 4fbc 4881 ec3c
00000260: 177b 0dba 2f77 89ba c185 80bd 9e96 7c3c
00000270: 254d 31bd 0621 bd3b 919e b1ba 6269 52bd
00000280: 4a3f f8b9 f0e0 a03d 2a16 95bd 9fec 94bc
00000290: 7f20 6e3c 9b66 f3b9 9245 4fbc d0e2 31bd
000002a0: 31d3 4dbc 3c54 69bc 2f5e 9e3d 6fe2 b33c
000002b0: 47d2 dc3c d551 83bc 9e42 203d e81e 5abd
000002c0: f1e0 7d3c 92d6 03bc 9331 aebc bf64 20bd
000002d0: 80a5 5e3d 58b0 003d e260 41bd 714b 4bbb
000002e0: 2682 0e3d f97b 99bc e061 ee3c 9f2d b73c
000002f0: fd08 8a3d f8ff e83b 9539 123d 21f0 293d
00000300: 33d8 03bd dcba 05bd af99 91bd adc6 cf3b
00000310: 59bb 71bc a475 38bd fd8b 623d 6439 f83c
00000320: 64db a93d 1150 853d 76f3 9e3d 3ec6 b0bc
00000330: be52 8bbd 9e1c 48bd d765 eb3c 4abc 163d
00000340: 9bc6 c5bc 42ce efbb 2946 34bd c352 d0bc
00000350: 6f7b e2bc f4fa 763b 4716 803d 3a6c b4bc
00000360: de66 97bc 60e7 10bd d970 38bd 7977 35bd
00000370: 2dda 703c fc5d a339 a7b4 81bd 89a4 69bc
00000380: fa35 e5bc edcb aabd 1e29 22bd f643 01bc
00000390: e148 013b 8757 fa3c ddbe b93c 6e24 0d3d
000003a0: 8465 11bc 7622 ef3c 6975 ae3b 2e49 1dbc
000003b0: f749 c9bc 30ff 283c 67fd 7b3d 248d 9bbd
000003c0: 1e22 fbbc 613b be3b 22e7 e63c ac58 583d
000003d0: c1eb dabc 9404 833b 4db0 cd3c ab29 6f3d
000003e0: 3799 28bd 600a 833c 5b68 af3c 7ae8 ca3c
000003f0: a371 213c ea3e f9bc c774 6c3c ccb5 a63b

baseModel.8.bias f4 [64]
-4.576403e-06 1.6705699e-05 -2.3731716e-05 -3.7327354e-06 -8.709406e-06 -1.8755925e-05 7.856717e-06 5.5289447e-06
4.1068077e-07 4.373427e-06 1.5702979e-07 2.2163588e-06 -2.2357524e-05 -3.5152738e-05 2.4020956e-06 4.2898037e-07
-1.9618471e-06 6.2117806e-06 1.7646378e-05 -1.2221413e-05 7.149474e-07 9.114134e-06 -2.533192e-06 4.1178046e-06
-2.6053123e-05 6.1582923e-06 -2.3837192e-06 2.6788312e-05 5.720456e-06 1.0227026e-05 1.2224571e-05 -2.5558324e-05
-5.859606e-06 2.2089114e-06 -1.4094209e-05 -8.881807e-06 4.1211715e-06 8.289723e-06 -1.4356102e-05 1.037612e-05
-1.4377635e-05 5.234353e-06 -1.8820241e-05 5.952085e-06 -3.2372784e-06 -2.181856e-06 2.3428962e-05 7.2216476e-06
-4.075901e-06 4.143645e-06 -7.909384e-07 -5.7946554e-06 6.8780064e-06 -4.842207e-06 -6.979408e-06 1.214248e-05
4.0208374e-06 -2.2306328e-06 1.5890211e-05 -1.2272415e-05 -1.6375056e-05 -3.9553865e-06 -1.7161407e-06 7.715968e-06
00000000: 018f 99b6 3723 8c37 7913 c7b7 e87f 7ab6
00000010: 9d1e 12b7 0b56 9db7 58d0 0337 4685 b936
00000020: 897b dc34 74bf 9236 059c 2834 c1bc 1436
00000030: 6b8c bbb7 f770 13b8 b033 2136 9d4e e634
00000040: 47a8 03b6 ca6e d036 4f07 9437 920a 4db7
00000050: d0ea 3f35 e8e8 1837 e8ff 29b6 ac2b 8a36
00000060: a88c dab7 54a3 ce36 fcf7 1fb6 76b7 e037
00000070: 58f2 bf36 be94 2b37 2218 4d37 1566 d6b7
00000080: a29d c4b6 cf3c 1436 2b76 6cb7 1203 15b7
00000090: 9848 8a36 1714 0b37 fdda 70b7 1915 2e37
000000a0: 7937 71b7 c0a2 af36 29e0 9db7 05b8 c736
000000b0: 0540 59b6 006c 12b6 5089 c437 7b51 f236
000000c0: b9c3 88b6 a409 8b36 df50 54b5 b66f c2b6
000000d0: a0c9 e636 3e7a a2b6 a930 eab6 8eb7 4b37
000000e0: bbea 8636 fbb1 15b6 f84b 8537 9fe5 4db7
000000f0: 2a5d 89b7 83b8 84b6 2556 e6b5 d573 0137

baseModel.9.weight f4 [64]
0.65401626 0.8072208 0.77909994 0.8184085 0.72346234 0.81086546 0.78382516 0.805239
0.7152671 0.76421255 0.73899966 0.72371185 0.7747668 0.7528969 0.67086333 0.7160904
0.7139683 0.68155074 0.78713757 0.7565587 0.77487755 0.85431546 0.77050555 0.7813973
0.71441686 0.7648433 0.7228828 0.75106305 0.65606934 0.8162392 0.7381475 0.74433005
0.7532169 0.7511269 0.82218045 0.8301747 0.6543834 0.7130375 0.69444627 0.7439655
0.6754557 0.8561554 0.77734375 0.8572152 0.890578 0.7919728 0.85205185 0.7050165
0.7161901 0.7113741 0.77785677 0.77050227 0.7791675 0.8213562 0.67583483 0.71763533
0.6393618 0.7146148 0.81188035 0.7362257 0.7339842 0.87490666 0.79916954 0.77396387
00000000: 9c6d 273f 06a6 4e3f 1873 473f 3883 513f
00000010: d434 393f e194 4f3f c4a8 483f 2524 4e3f
00000020: bf1b 373f 6fa3 433f 152f 3d3f 2e45 393f
00000030: 1e57 463f dabd 403f b3bd 2b3f b351 373f
00000040: a0c6 363f 1c7a 2e3f d981 493f d5ad 413f
00000050: 605e 463f 6bb4 5a3f da3f 453f a709 483f
00000060: 06e4 363f c5cc 433f d90e 393f ab45 403f
00000070: 29f4 273f 0df5 503f 3cf7 3c3f 6a8c 3e3f
00000080: d3d2 403f da49 403f 6b7a 523f 5486 543f
00000090: ac85 273f a089 363f 3bc7 313f 8674 3e3f
000000a0: aaea 2c3f 002d 5b3f 0000 473f 7572 5b3f
000000b0: ebfc 633f bbbe 4a3f 1220 5a3f f67b 343f
000000c0: 3c58 373f 9d1c 363f 9f21 473f a33f 453f
000000d0: 8577 473f 6644 523f 8303 2d3f f3b6 373f
000000e0: 37ad 233f fff0 363f 64d7 4f3f 4a79 3c3f
000000f0: 63e6 3b3f e2f9 5f3f 6096 4c3f 7f22 463f

baseModel.9.bias f4 [64]
0.0082212435 0.027489321 -0.001101042 -0.05604836 0.0053327293 0.031348836 0.009090498 0.02652306
-0.008872951 0.0005195871 0.0018494303 -0.01615859 -0.0014589085 0.042871445 -0.03953945 0.020576598
0.018971615 0.035032522 0.028771244 0.017280739 -0.027978724 -0.015058495 -0.022705238 -0.015359085
0.021652903 -0.047854785 0.018474631 -0.023552613 0.016009048 -0.017239781 0.025848698 -0.023497785
0.03042448 -0.045162015 -0.04349714 -0.04317822 -0.07052774 -0.004683267 0.030108795 0.0054490166
0.027897337 0.084981985 0.038265333 0.013557512 0.037022945 0.08366363 -0.0076565193 -0.043587543
-0.04193508 -0.018145451 -0.02172963 -0.017614106 -0.0015184977 -0.01916647 0.0440577 -0.021405758
-0.000805907 -0.043919284 -0.059760973 0.012414815 -0.030757645 -0.06449673 0.020502815 0.05796449
00000000: 65b2 063c 4931 e13c d750 90ba f792 65bd
00000010: 2dbe ae3b a367 003d 50f0 143c e346 d93c
00000020: db5f 11bc e634 083a 9568 f23a 055f 84bc
00000030: d938 bfba f899 2f3d 1ef4 21bd 4190 a83c
00000040: 5c6a 9b3c 437e 0f3d acb1 eb3c 5690 8d3c
00000050: a333 e5bc e8b7 76bc 5600 babc aca4 7bbc
00000060: 6e61 b13c 6103 44bd 1c58 973c 69f1 c0bc
00000070: 6825 833c 713a 8dbc a6c0 d33c 6d7e c0bc
00000080: c23c f93c cefb 38bd 0f2a 32bd a5db 30bd
00000090: d970 90bd 1776 99bb b8a6 f63c aa8d b23b
000000a0: f588 e43c 090b ae3d 1cbc 1c3d 5420 5e3c
000000b0: 5fa5 173d d657 ab3d 8ae3 fabb da88 32bd
000000c0: 1ec4 2bbd c5a5 94bc 5602 b2bc 754b 90bc
000000d0: 5408 c7ba 0003 9dbc d975 343d 215b afbc
000000e0: 8143 53ba b5e4 33bd ecc7 74bd 8267 4b3c
000000f0: 75f7 fbbc dd16 84bd 85f5 a73c 2c6c 6d3d

baseModel.9.running_mean f4 [64]
-0.1816727 0.060597997 -0.46677902 -0.18695444 -0.10872215 0.24798283 -0.13169087 -0.32732695
0.11382654 -0.25253183 -0.071383536 -0.40813532 -0.2907592 0.2161671 0.003934173 0.19807906
0.06565708 0.23568715 -0.02884118 0.07985687 -0.1516879 -0.2698249 0.13809706 0.1437918
-0.38398075 0.16090208 0.31163454 0.13928773 -0.1434414 0.45535702 0.016085207 -0.19104487
0.07333287 -0.25616917 -0.33547583 -0.47968698 -0.20068985 0.4493757 0.0079891095 0.7244352
0.27798036 -0.56844926 -0.34268627 0.20087099 -0.13892643 0.42096755 -0.35338247 0.18168184
0.06363094 0.030099874 0.013666709 0.4851192 -0.11928687 -0.051529832 -0.2802354 0.06273965
0.018476374 -0.26009077 0.32834986 -0.49904105 -0.38841048 -0.07732735 0.08516048 0.14253454
00000000: 6908 3abe 9b35 783d a9fd eebe fc70 3fbe
00000010: b8a9 debd 36ef 7d3e f9d9 06be 6697 a7be
00000020: e41d e93d da4b 81be 8831 92bd 1df7 d0be
00000030: 64de 94be e95a 5d3e 3cea 803b 3dd5 4a3e
00000040: 3877 863d f957 713e 5744 ecbc 008c a33d
00000050: 1354 1bbe 7d26 8abe 5169 0d3e 283e 133e
00000060: 2099 c4be 84c3 243e 908e 9f3e 71a1 0e3e
00000070: 4de2 12be 8e24 e93e 20c5 833c 44a1 43be
00000080: 8b2f 963d 9b28 83be 7dc3 abbe 8899 f5be
00000090: a481 4dbe 9214 e63e c1e4 023c 9674 393f
000000a0: 7153 8e3e e485 11bf 9374 afbe 20b1 4d3e
000000b0: bb42 0ebe 0f89 d73e 8cee b4be ce0a 3a3e
000000c0: f050 823d 0394 f63c 55ea 5f3c 8b61 f83e
000000d0: ad4c f4bd f210 53bd 047b 8fbe a57d 803d
000000e0: c45b 973c 9e2a 85be 791d a83e 4f82 ffbe
000000f0: bddd c6be cd5d 9ebd 9e68 ae3d 93f4 113e

baseModel.9.running_var f4 [64]
0.06476516 0.14287868 0.12839076 0.11381059 0.08333063 0.10033493 0.12526375 0.14267017
0.102629095 0.049851663 0.06502012 0.09346179 0.12140799 0.08085566 0.08044261 0.07836586
0.0873211 0.07419363 0.080256075 0.08150287 0.089444205 0.19737063 0.089666545 0.1056837
0.05850954 0.09281994 0.095178284 0.09004042 0.07813211 0.15390278 0.071158774 0.088615306
0.080036275 0.07508239 0.16397287 0.110097714 0.062528804 0.084686816 0.053594705 0.12673846
0.06580777 0.116182245 0.096676454 0.16520517 0.0964545 0.11945336 0.24577922 0.09187515
0.09463313 0.09092017 0.124289356 0.08618152 0.12576486 0.08926722 0.0827662 0.08037612
0.06010474 0.070211306 0.113372356 0.06781702 0.06774822 0.1674869 0.13055527 0.09291009
00000000: 99a3 843d ca4e 123e de78 033e 8715 e93d
00000010: 40a9 aa3d 667c cd3d 2445 003e 2118 123e
00000020: 342f d23d 4231 4c3d 4529 853d e568 bf3d
00000030: c1a4 f83d a797 a53d 18bf a43d 487e a03d
00000040: 68d5 b23d d4f2 973d 4c5d a43d faea a63d
00000050: 862e b73d 871b 4a3e 18a3 b73d b270 d83d
00000060: b3a7 6f3d 6118 be3d d5ec c23d 1d67 b83d
00000070: ba03 a03d b198 1d3e b1bb 913d f17b b53d
00000080: 0fea a33d ccc4 993d 81e8 273e e97a e13d
00000090: 1a0f 803d 4870 ad3d 1f86 5b3d bac7 013e
000000a0: 39c6 863d f5f0 ed3d 4efe c53d 8b2b 293e
000000b0: f089 c53d f7a3 f43d 8cad 7b3e 0a29 bc3d
000000c0: 04cf c13d 5b34 ba3d 6b8b fe3d f07f b03d
000000d0: 81c8 003e bbd1 b63d 5381 a93d 3c9c a43d
000000e0: 6330 763d f2ca 8f3d c42f e83d a6e3 8a3d
000000f0: 94bf 8a3d b081 2b3e 48b0 053e a547 be3d

baseModel.11.weight f4 [32, 64, 3]
-0.014499096 -0.026889566 -0.05964475 -0.001702316 -0.005827237 0.044597592 -0.020621292 -0.062217537
-0.027197884 -0.0074663637 -0.10389976 0.0052231424 0.025683489 -0.008129281 0.018688757 -0.038157087
-0.013911366 0.0509233 0.007848588 0.017492315 -0.017875763 0.048296414 0.011049546 -0.04393192
0.027167201 0.056313273 0.035863124 0.037669696 -0.057724137 0.03224941 0.0010681293 0.023121988
0.029604217 -0.04018634 -0.0154660875 -0.04063801 0.0157545 -0.08462999 0.011189882 0.031238154
-0.013265411 -0.049692765 -0.019714784 0.004941195 0.018124668 -0.013448236 0.02498851 0.073656
0.04577944 0.021375831 -0.023736646 -0.023728235 -0.0312192 0.024490846 0.031955894 0.05232214
-0.006666397 -0.03288659 -0.03255928 -0.02415931 0.026851648 0.003071881 0.018256146 -0.03719175
-0.035519715 0.007890441 -0.026111877 -0.018089525 0.040626 -0.021589223 -0.06262018 0.02957233
0.07987761 0.019993484 -0.0041050944 -0.070359185 0.018391669 0.037830286 -0.045444667 -0.04048616
-0.004633942 -0.0583928 0.0034204524 -0.054760553 0.05002906 0.009409888 -0.019665841 0.020443747
-0.03959816 0.01955879 -0.018730806 0.05907306 -0.015147404 -0.059458423 -0.016667413 -0.06731401
-0.020603219 -0.013963311 -0.06389903 -0.04402084 0.021560993 -0.017639617 -0.011090848 -0.07737827
-0.021801064 0.04528519 0.0046718437 0.020441268 -0.0025222558 -0.022776008 -0.041465014 0.026858669
0.027883487 0.08985705 0.015645992 0.02873749 -0.032380886 0.073772356 -0.04352578 0.060139768
0.053956408 0.038938686 0.020049766 -0.052432608 0.026760422 -0.032940302 0.0624231 0.004419207
0.0008597281 -0.0011157845 -0.06752981 -0.028014345 -0.023696048 -0.008420903 0.03813057 0.072994456
0.0018585422 0.040900037 -0.027461736 -0.06814368 -0.040398948 0.046937514 0.048285082 -0.012806262
-0.030259656 -0.019855361 -0.004422518 -0.029547634 0.014479476 0.0028924255 -0.0060599283 -0.049100384
0.047663063 -0.04283487 -0.06500269 0.008612868 -0.0015211579 -0.0020901104 -0.05955521 0.062128805
0.044389725 0.07410712 0.057528775 -0.049322173 -0.033568017 0.043392796 0.042599805 0.089084715
-0.06427654 -0.039117392 -0.0026817163 0.011416366 -0.05903596 -0.023096206 -0.014991686 0.045846995
-0.029636297 0.018499449 0.009985021 -0.046892393 -0.005692154 -0.06070942 -0.028048446 -0.06485561
-0.052036878 0.0020834964 -0.0485827 -0.028975435 -0.038223036 -0.077790685 5.3501015e-05 -0.065977134
-0.025283923 -0.031569783 -0.027349295 0.012683659 0.040467396 0.010875896 -0.059478737 -0.007671993
-0.013993092 -0.0013393228 0.042664804 -0.0022679577 0.012371285 -0.019181397 -0.016418062 0.032435123
-0.018871693 -0.017645847 -0.03597558 -0.01329877 0.0018857627 -0.0051622754 -0.01254115 0.045008402
0.027430816 0.04686929 0.033276707 0.046945546 -0.042504754 -0.030018168 -0.011726677 -0.020087158
-0.07546272 0.025290389 -0.06407842 0.014286499 -0.022843415 0.032028235 0.02443583 -0.043780077
-0.046333123 0.05640072 -0.056680236 0.022937415 -0.0021675837 -0.009978298 -0.059400905 -0.0045039966
-0.019177472 -0.010075055 0.023989666 0.02303717 0.0005181973 0.025977386 0.050028317 0.040481195
-0.06026795 0.070533134 0.0029554334 0.01050338 -0.03162388 0.035362333 0.016792623 0.017720662
00000000: 9e8d 6dbc 8247 dcbc 0e4e 74bd 3f20 dfba
00000010: 68f2 bebb f7ab 363d fced a8bc d1d7 7ebd
00000020: 19ce debc 66a8 f4bb 66c9 d4bd e526 ab3b
00000030: 2e66 d23c ad30 05bc 2a19 993c 9b4a 1cbd
00000040: 80ec 63bc f394 503d 5d97 003c 0b4c 8f3c
00000050: 3170 92bc 76d2 453d 2809 353c f5f1 33bd
00000060: c08d de3c bfa8 663d 36e5 123d 8a4b 1a3d
00000070: 2570 6cbd f517 043d 7900 8c3a 536a bd3c
00000080: 8b84 f23c 6f9a 24bd 7965 7dbc 0b74 26bd
00000090: 950f 813c 7d52 adbd c455 373c 28e7 ff3c
000000a0: 2b57 59bc a48a 4bbd e680 a1bc bfe9 a13b
000000b0: 2f7a 943c fd55 5cbc b4b4 cc3c f5d8 963d
000000c0: 3983 3b3d 5e1c af3c 5b73 c2bc b761 c2bc
000000d0: 68bf ffbc 07a1 c83c 2fe4 023d be4f 563d
000000e0: cb71 dabb 17b4 06bd e15c 05bd bfe9 c5bc
000000f0: fdf7 db3c 9c51 493b ea8d 953c 6056 18bd
00000100: 1f7d 11bd e946 013c 93e8 d5bc 7c30 94bc
00000110: 7367 263d e2db b0bc 023f 80bd ac41 f23c
00000120: df96 a33d 60c9 a33c 0784 86bb 7a18 90bd
00000130: 20aa 963c eef3 1a3d 3024 3abd d1d4 25bd
00000140: 53d8 97bb 4a2d 6fbd ab29 603b 9a4c 60bd
00000150: 46eb 4c3d ee2b 1a3c 421a a1bc a579 a73c
00000160: ae31 22bd c139 a03c 5971 99bc 98f6 713d
00000170: d12c 78bc ad8a 73bd 198a 88bc eddb 89bd
00000180: 15c8 a8bc 5fc6 64bc 7fdd 82bd 324f 34bd
00000190: aea0 b03c f580 90bc 63b6 35bc 8078 9ebd
000001a0: 2598 b2bc f77c 393d 4416 993b 7274 a73c
000001b0: 6e4c 25bb c094 babc 38d7 29bd b606 dc3c
000001c0: e96b e43c f906 b83d 062c 803c e26a eb3c
000001d0: d2a1 04bd f615 973d 1748 32bd 1e55 763d
000001e0: 6501 5d3d 2c7e 1f3d 683f a43c 93c3 56bd
000001f0: ac38 db3c 69ec 06bd 5daf 7f3d ffce 903b
00000200: 605f 613a 843f 92ba 124d 8abd 577e e5bc
00000210: 371e c2bc d4f7 09bc cd2e 1c3d 1e7e 953d
00000220: 549a f33a cc86 273d 6ff7 e0bc ea8e 8bbd
00000230: 5e79 25bd 8d41 403d 94c6 453d 5bd1 51bc
00000240: 19e3 f7bc b6a7 a2bc c5ea 90bb e10d f2bc
00000250: 533b 6d3c d98e 3d3b 5d92 c6bb 7c1d 49bd
00000260: 583a 433d 9e73 2fbd 2120 85bd fd1c 0d3c
00000270: 9761 c7ba 3cfa 08bb 2af0 73bd c67a 7e3d
00000280: 00d2 353d 79c5 973d 4ba3 6b3d 0c06 4abd
00000290: 9e7e 09bd a5bc 313d 227d 2e3d 0c72 b63d
000002a0: 6ba3 83bd 8f39 20bd bcbf 2fbb b60b 3b3c
000002b0: b1cf 71bd 4134 bdbc b09f 75bc 0fca 3b3d
000002c0: d2c7 f2bc 288c 973c 3798 233c 3d12 40bd
000002d0: 4085 babb 71aa 78bd dbc5 e5bc 05d3 84bd
000002e0: 9f24 55bd 458b 083b a7fe 46bd e45d edbc
000002f0: c28f 1cbd b950 9fbd 4766 6038 051f 87bd
00000300: 3b20 cfbc 514f 01bd a10b e0bc 1fcf 4f3c
00000310: 24c1 253d d030 323c fa9f 73bd 5865 fbbb
00000320: 4843 65bc 378c afba 4ac1 2e3d 04a2 14bb
00000330: eeb0 4a3c 4e22 9dbc 2c7f 86bc b1da 043d
00000340: cf98 9abc 068e 90bc 215b 13bd 16e3 59bc
00000350: b22b f73a 4e28 a9bb 6579 4dbc bb5a 383d
00000360: 97b6 e03c 03fa 3f3d 284d 083d f949 403d
00000370: 7719 2ebd a9e8 f5bc 4021 40bc d38d a4bc
00000380: 338c 9abd ca2d cf3c 8c3b 83bd eb11 6a3c
00000390: 1d22 bbbc 0a30 033d a62d c83c bd52 33bd
000003a0: cdc7 3dbd 7104 673d 8929 68bd 3fe7 bb3c
000003b0: 050e 0ebb 047c 23bc 5d4e 73bd 4396 93bb
000003c0: 131a 9dbc d811 25bc fa85 c43c 72b8 bc3c
000003d0: a2d7 073a 87ce d43c 7eea 4c3d 9ccf 253d
000003e0: 87db 76bd ad73 903d f2af 413b 5e16 2c3c
000003f0: 0b88 01bd 18d8 103d af90 893c ec2a 913c

baseModel.11.bias f4 [32]
1.9640947e-05 4.047204e-06 -2.1067479e-05 1.2435989e-05 -5.043716e-05 -2.098605e-06 2.2894649e-06 3.2495357e-06
-3.3609767e-06 3.495629e-05 6.3328653e-06 -1.477225e-05 -3.47206e-05 3.6216854e-06 -3.6810309e-06 -3.9116385e-05
-1.6200707e-05 2.2914433e-05 -1.7524317e-05 4.1915346e-06 3.5199987e-06 -7.191308e-06 -2.4079418e-05 -8.747781e-06
2.3212137e-05 -2.2564085e-05 -2.1920514e-05 1.6605743e-05 -4.5267743e-06 2.9576668e-06 -2.6405827e-05 -2.0081477e-06
00000000: 9dc2 a437 38cd 8736 11ba b0b7 2ba4 5037
00000010: 7d8c 53b8 c2d5 0cb6 b5a4 1936 9912 5a36
00000020: 248d 61b6 089e 1238 e67e d436 55d6 77b7
00000030: f6a0 11b8 150c 7336 a107 77b6 e610 24b8
00000040: c1e6 87b7 5f38 c037 2f01 93b7 02a5 8c36
00000050: 1e39 6c36 de4c f1b6 28fe c9b7 6fc3 12b7
00000060: afb7 c237 0148 bdb7 f2e1 b7b7 904c 8b37
00000070: b2e4 97b6 547c 4636 1582 ddb7 b7c3 06b6
