Models/best_0420.pth (torch, 495289 bytes, 42 tensors)

baseModel.0.weight f4 [64, 2, 3]
0.14283952 -0.1882756 -0.33279318 0.29769897 -0.14498532 -0.19369091 0.08757386 -0.15044796
-0.18839906 -0.024925036 -0.34994173 -0.14162382 -0.14170493 0.3858883 -0.34065467 0.22895385
-0.061172333 0.017259678 0.3620242 0.29853138 -0.2784038 -0.08836666 0.3980388 0.30201066
-0.10909764 -0.18885621 0.3173128 -0.2391485 -0.041757714 0.12387065 -0.1670949 0.21153867
0.042355083 0.18148881 0.33475026 -0.1461644 0.2047594 -0.20897464 -0.30530268 0.09925998
-0.20275292 -0.16175336 -0.19294755 -0.032890838 -0.3164378 -0.20313825 -0.072857045 0.18782648
0.121410266 0.034687992 -0.30107176 0.18450111 0.18993828 -0.32758284 -0.14763896 -0.13491121
0.19097397 0.18347028 0.3345086 0.29022896 -0.2782861 -0.18190807 -0.009812688 -0.34832564
-0.1401649 0.14900072 0.21560279 0.053864375 -0.28334033 -0.14630616 0.03779813 0.0982734
-0.20926392 0.030220728 0.1981336 0.3048193 -0.33914265 0.3401997 0.16436554 -0.13737983
0.13815096 0.10780498 -0.37547052 -0.41492975 -0.20731197 0.21440496 -0.16578156 0.33964926
-0.14903918 -0.38129327 -0.34987596 -0.00824726 0.111933276 0.10360117 -0.2139968 0.018766642
0.13929056 -0.20772699 -0.17229135 0.017824244 0.30803213 -0.32166868 -0.24481675 0.17895505
0.14010282 -0.28774828 0.19403431 -0.14776957 -0.3246374 0.08821209 -0.09550178 0.31180555
0.19790107 0.13756399 -0.31317732 -0.034925684 -0.32034016 0.1290896 -0.11663685 -0.10877291
0.0011184623 -0.19512567 -0.19896756 -0.08098311 -0.079899274 -0.08763068 -0.34478953 -0.1888854
0.06856356 0.4051397 0.2288021 -0.27741307 0.16457178 -0.043631554 0.31032452 0.06011959
-0.21378997 0.103604525 -0.050084602 -0.3591439 -0.37902215 0.0585449 0.20292465 -0.18521337
-0.13298538 0.26786196 0.26154178 -0.39026588 -0.29344413 -0.2635689 -0.048391998 -0.33545625
-0.17030355 -0.25921717 -0.10512173 0.2748 0.24284048 0.1019974 0.22223218 -0.3782959
-0.36658216 -0.18751477 0.005969544 0.11937735 -0.09971545 -0.03310829 -0.27456152 0.025612995
0.00038105022 -0.35005072 -0.24545021 -0.2968044 -0.20721039 0.26400942 0.17459142 -0.27132308
0.22031155 -0.35631365 -0.38012794 0.16437082 0.20772271 0.37380126 -0.053071268 -0.13068837
0.08336507 0.056647938 0.19097231 -0.14417431 0.018313766 -0.36819646 0.2895447 0.25522196
0.108038016 -0.065948635 -0.3873875 0.016236998 0.110862814 -0.05689542 -0.2167426 -0.03249857
-0.17380759 0.24182804 0.35897517 -0.088216156 -0.0027266666 -0.33668968 0.042999934 0.07416965
0.02104749 0.10276159 0.19116114 -0.10326414 0.18411271 0.35569844 -0.23462012 -0.12841076
-0.018904205 -0.14723685 -0.26695767 -0.26578775 0.35082653 0.34636196 0.13807242 0.0013181214
-0.1292157 0.21526136 0.3298038 0.14922516 -0.30624634 -0.34352452 0.20204845 -0.049191616
0.24971941 -0.3550269 0.10463207 0.29099458 0.19182377 0.11115327 -0.012489067 0.4181066
0.20443335 -0.2696888 -0.35138604 0.30290028 0.36159524 -0.10622661 -0.10586513 -0.12950483
0.25308716 0.20417158 0.26492313 -0.25130683 0.31309384 -0.054939084 -0.33943155 0.31282926
00000000: 8644 123e 52cb 40be de63 aabe 006c 983e
00000010: 0877 14be e956 46be ed59 b33d 080f 1abe
00000020: afeb 40be 972f ccbc 902b b3be d605 11be
00000030: 191b 11be 2793 c53e 4a6a aebe e172 6a3e
00000040: d78f 7abd 2b64 8d3c 3c5b b93e 1bd9 983e
00000050: f18a 8ebe 94f9 b4bd becb cb3e 24a1 9a3e
00000060: 956e dfbd 8663 41be d376 a23e 58e3 74be
00000070: 230a 2bbd e5af fd3d ed1a 2bbe 989d 583e
00000080: 867c 2d3d 34d8 393e 6364 ab3e 1fac 15be
00000090: 73ac 513e 73fd 55be a250 9cbe d148 cb3d
000000a0: 769e 4fbe aca2 25be 0b94 45be 8bb8 06bd
000000b0: 2304 a2be 7903 50be 1336 95bd 9655 403e
000000c0: f2a5 f83d ff14 0e3d 1426 9abe dced 3c3e
000000d0: 2e7f 423e f0b8 a7be ab2e 17be 2a26 0abe
000000e0: ae8e 433e a2df 3b3e b644 ab3e e498 943e
000000f0: 847b 8ebe 1c46 3abe 66c5 20bc bd57 b2be
00000100: 6387 0fbe a593 183e fac6 5c3e e4a0 5c3d
00000110: fc11 91be 48d1 15be 36d2 1a3d 9043 c93d
00000120: 4849 56be 7691 f73c 89e3 4a3e 4611 9c3e
00000130: 1ba4 adbe a82e ae3e 714f 283e 4cad 0cbe
00000140: 7277 0d3e dbc8 dc3d ac3d c0be ac71 d4be
00000150: 9749 54be f98c 5b3e a4c2 29be 82e6 ad3e
00000160: ba9d 18be df38 c3be f122 b3be 841f 07bc
00000170: 463d e53d da2c d43d fa21 5bbe 80bc 993c
00000180: 2fa2 0e3e 62b6 54be 256d 30be 2604 923c
00000190: 63b6 9d3e c2b1 a4be 3eb1 7abe fe3f 373e
000001a0: 1d77 0f3e be53 93be eeb0 463e e850 17be
000001b0: e036 a6be 8aa8 b43d 7096 c3bd faa4 9f3e
000001c0: 94a6 4a3e 93dd 0c3e c758 a0be 3c0e 0fbd
000001d0: a003 a4be 1030 043e 4ddf eebd 55c4 debd
000001e0: 5e99 923a 06cf 47be 27be 4bbe 79da a5bd
000001f0: 3ba2 a3bd b777 b3bd 4188 b0be 2d6b 41be
00000200: 0d6b 8c3d 796e cf3e 194b 6a3e 1609 8ebe
00000210: 8185 283e 00b7 32bd dbe2 9e3e f63f 763d
00000220: c2eb 5abe 9c2e d43d 8325 4dbd b6e1 b7be
00000230: 310f c2be c7cc 6f3d 7bcb 4f3e 93a8 3dbe
00000240: 522d 08be 3425 893e cee8 853e eed0 c7be
00000250: 4f3e 96be 81f2 86be b036 46bd ecc0 abbe
00000260: 0e64 2ebe 1db8 84be 104a d7bd 96b2 8c3e
00000270: 2dab 783e 03e4 d03d d590 633e 00b0 c1be
00000280: a8b0 bbbe df03 40be 2a9c c33b 1d7c f43d
00000290: 9d37 ccbd 8f9c 07bd 5493 8cbe 58d2 d13c
000002a0: b2c7 c739 d939 b3be 4d57 7bbe bff6 97be
000002b0: f62e 54be 3e2c 873e 18c8 323e dcea 8abe
000002c0: 5a99 613e be6e b6be 21a0 c2be d350 283e
000002d0: 43b5 543e e162 bf3e 4261 59bd 2cd3 05be
000002e0: 4ebb aa3d ab07 683d 3f8e 433e 6ea2 13be
000002f0: c006 963c 3f84 bcbe 343f 943e 74ac 823e
00000300: 0943 dd3d 1410 87bd a857 c6be 7403 853c
00000310: 0b0c e33d 2c0b 69bd c6f1 5dbe 381d 05bd
00000320: 9efa 31be c5a1 773e 98cb b73e acaa b4bd
00000330: e0b1 32bb 9762 acbe b320 303d 42e6 973d
00000340: c96b ac3c ab74 d23d bfbf 433e 267c d3bd
00000350: 0b88 3c3e 1b1e b63e 4240 70be 1c7e 03be
00000360: fedc 9abc 42c5 16be adae 88be 5515 88be
00000370: 899f b33e 5b56 b13e db62 0d3e d1c4 ac3a
00000380: 1f51 04be 796d 5c3e 0bdc a83e 7bce 183e
00000390: 52cc 9cbe 72e2 afbe cae5 4e3e 267d 49bd
000003a0: 72b6 7f3e 16c6 b5be 5749 d63d 3efd 943e
000003b0: 736d 443e 53a4 e33d f29e 4cbc 1112 d63e
000003c0: fa56 513e a714 8abe dfe8 b3be bf15 9b3e
000003d0: 0323 b93e 568d d9bd d1cf d8bd ea9c 04be
000003e0: a494 813e 5b12 513e 01a4 873e 4aab 80be
000003f0: d64d a03e ce07 61bd f9c9 adbe 282b a03e

baseModel.0.bias f4 [64]
0.0006151695 4.4815777e-05 9.156778e-05 0.00015518013 -6.020432e-05 0.00021677616 0.00028368068 -0.000302168
-0.000102088205 0.0006320568 0.00040281075 -0.0003925223 -0.0002821801 0.00035390776 0.00041093578 0.0002318047
-0.00018016848 0.00032689853 0.00078821287 -0.00036844888 0.00061785284 -0.0002052567 -0.00034639818 0.0005563606
0.0004275037 0.00037301975 0.00016545325 -0.000116326344 0.00014003215 -0.000362575 0.00052065635 0.0003290313
0.0005292933 -0.00041578768 7.1983675e-05 -0.0008980937 -0.00038692128 -0.00019660043 0.00035769283 0.00028268163
0.00013143955 -0.0010614921 -0.0008704922 0.0003892862 0.00016175081 0.0002041865 0.00010892243 -0.00030743424
-2.1952917e-05 -7.750318e-05 3.565056e-05 2.845477e-05 0.00045430817 -8.988867e-05 -0.00020125207 0.00019229534
9.33626e-05 -7.78626e-05 6.3231666e-05 5.051434e-05 0.00023805659 -2.433662e-05 0.00029179212 8.771411e-05
00000000: 5443 213a 93f8 3b38 1408 c038 d9b7 2239
00000010: e583 7cb8 684e 6339 faba 9439 4d6c 9eb9
00000020: 3018 d6b8 9db0 253a 5830 d339 74cb cdb9
00000030: 92f1 93b9 b28c b939 de72 d739 9a10 7339
00000040: 9ceb 3cb9 9463 ab39 12a0 4e3a 5f2c c1b9
00000050: 67f7 213a 2d3a 57b9 c79c b5b9 bad8 113a
00000060: 9322 e039 dd91 c339 857d 2d39 3bf4 f3b8
00000070: 98d5 1239 fe17 beb9 a87c 083a d581 ac39
00000080: 46c0 0a3a 14fe d9b9 f1f5 9638 0c6e 6bba
00000090: b2db cab9 8726 4eb9 b888 bb39 e334 9439
000000a0: 09d3 0939 c421 8bba be31 64ba 1c19 cc39
000000b0: a79b 2939 e51a 5639 496d e438 202f a1b9
000000c0: 8827 b8b7 3489 a2b8 7f87 1538 27b2 ee37
000000d0: 3630 ee39 9d82 bcb8 3107 53b9 e3a2 4939
000000e0: aacb c338 2a4a a3b8 3e9b 8438 5cdf 5338
000000f0: d49e 7939 7e26 ccb7 adfb 9839 27f3 b738

baseModel.1.weight f4 [64]
0.8553874 0.8864533 0.89689773 0.913495 0.84120655 0.8475962 0.8206873 0.85346746
0.85526615 0.91551244 0.8760066 0.9107631 0.8803444 0.89532787 0.82840014 0.8740828
0.8640183 0.85963035 0.91340697 0.898103 0.86861175 0.9200335 0.9032273 0.905663
0.9637726 0.8969434 0.9471238 0.8931896 0.9190113 0.8502714 0.9213494 0.8470877
0.8551911 0.8890902 0.8832072 0.8369996 0.8888979 0.9580723 0.87888074 0.91795087
0.91709304 0.85000753 0.87186545 0.9202978 0.8924771 0.96078736 0.8450619 0.892811
0.9432131 0.8591965 0.9250176 0.9136837 0.873193 0.9026432 0.9507398 0.8710783
0.86761224 0.85741884 0.8247429 0.8459561 0.8520876 0.8460129 0.8102026 0.8191072
00000000: abfa 5a3f 9aee 623f 179b 653f cfda 693f
00000010: 5059 573f 11fc 583f 9018 523f d87c 5a3f
00000020: b9f2 5a3f 065f 6a3f f841 603f c527 693f
00000030: 405e 613f 3534 653f 0812 543f e4c3 5f3f
00000040: 4e30 5d3f bc10 5c3f 0ad5 693f 14ea 653f
00000050: 575d 5e3f 5187 6b3f e839 673f 88d9 673f
00000060: cdb9 763f 159e 653f b576 723f 13a8 643f
00000070: 5344 6b3f 63ab 593f 8edd 6b3f bdda 583f
00000080: ceed 5a3f 6a9b 633f de19 623f 9b45 563f
00000090: d08e 633f 3a44 753f 54fe 603f d4fe 6a3f
000000a0: 9cc6 6a3f 189a 593f 9332 5f3f a398 6b3f
000000b0: 6179 643f 29f6 753f fa55 583f 438f 643f
000000c0: 6a76 713f 4df4 5b3f f4cd 6c3f 2de7 693f
000000d0: 9489 5f3f a013 673f af63 733f fdfe 5e3f
000000e0: d61b 5e3f cd7f 5b3f 5a22 533f 9490 583f
000000f0: 6a22 5a3f 4d94 583f 7069 4f3f 02b1 513f

baseModel.1.bias f4 [64]
-0.055309825 -0.019507015 0.012860981 -0.06523883 -0.030445544 -0.017917246 0.012060823 0.037475146
-0.06303248 -0.062913515 -0.039157785 -0.043884866 0.012397154 -0.03185949 -0.015174002 -0.037898272
0.006447654 0.016640615 0.020755537 -0.03469409 -0.006353442 -0.035536952 -0.036689527 -0.048652213
-0.038088027 -0.048108663 -0.078136474 -0.042754963 -0.036714837 -0.0339939 -0.042018425 0.008782913
-0.06316875 -0.025830533 -0.019307658 -0.04001833 -0.015624213 -0.026103906 0.0012990203 -0.045813162
-0.08578827 -0.07182743 0.027454581 -0.026522193 -0.04124622 -0.0301287 -0.07770236 -0.01863831
0.0167072 -0.052273043 -0.010396129 -0.06858748 -0.03303452 -0.051083654 -0.00171565 -0.045156397
-0.013733004 -0.00082386134 0.054644622 -0.021011675 -0.02227108 -0.016898997 0.0012601892 0.018107044
00000000: 8e8c 62bd 2dcd 9fbc ddb6 523c f09b 85bd
00000010: ef68 f9bc 30c7 92bc c29a 453c 8a7f 193d
00000020: 2c17 81bd cdd8 80bd ea63 20bd 9ec0 33bd
00000030: 6f1d 4b3c 197f 02bd 619c 78bc 383b 1bbd
00000040: d846 d33b e651 883c 8407 aa3c 641b 0ebd
00000050: 8930 d0bb 328f 11bd c247 16bd 8b47 47bd
00000060: 3102 1cbd 970d 45bd 0406 a0bd d41f 2fbd
00000070: 4c62 16bd 303d 0bbd 831b 2cbd 35e6 0f3c
00000080: 9e5e 81bd 8e9a d3bc 182b 9ebc 43ea 23bd
00000090: b3fc 7fbc dcd7 d5bc e343 aa3a 95a6 3bbd
000000a0: c3b1 afbd 421a 93bd 6ee8 e03c 1245 d9bc
000000b0: ccf1 28bd 77d0 f6bc 6a22 9fbd 5eaf 98bc
000000c0: 8add 883c 421c 56bd 8754 2abc 9877 8cbd
000000d0: 344f 07bd 183d 51bd a9df e0ba eaf5 38bd
000000e0: 6500 61bc 66f8 57ba 0ad3 5f3d ad20 acbc
000000f0: d771 b6bc c46f 8abc ef2c a53a 3955 943c

baseModel.1.running_mean f4 [64]
0.00046973277 0.00014911918 3.2020715e-05 0.0002707553 5.312312e-05 0.00024589268 0.00027211412 -0.0003531791
0.00010306767 0.00048727024 0.00026210045 -0.00054921466 -0.000173962 0.00036158998 0.00060077704 0.0004920635
-6.0761937e-05 0.00024510894 0.0006978118 1.87245e-05 0.0005106894 -5.104249e-05 -0.00026628425 0.00043950716
0.00062394026 0.00010731084 0.00025115462 -8.4051004e-05 -8.554989e-05 -0.00044030778 0.00022232557 0.00023008604
0.00034140545 -0.0002691414 -5.786131e-05 -0.0010546274 -0.00044550188 -4.476402e-05 0.00027828297 2.7170388e-05
3.7365417e-06 -0.0010560441 -0.0005932429 0.00023831287 0.00014540483 0.000349217 0.000164245 -0.0003230925
1.5294983e-05 -0.0002612969 -6.884862e-05 4.2980428e-05 0.00026822553 -4.9598802e-05 -0.00017719022 0.000120147946
0.00021060387 -2.4868805e-05 0.0001374714 0.000106560474 0.00018259464 6.8174806e-05 0.0003436508 0.00021661815
00000000: 7746 f639 e05c 1c39 fb4d 0638 29f4 8d39
00000010: 84d0 5e38 28eb 8039 8aaa 8e39 e52a b9b9
00000020: 0926 d838 4e78 ff39 876a 8939 2cf9 0fba
00000030: 9269 36b9 c993 bd39 777d 1d3a d3fd 003a
00000040: a2da 7eb8 f781 8039 5bed 363a 8f12 9d37
00000050: c9df 053a 7516 56b8 119c 8bb9 a76d e639
00000060: ec8f 233a 120c e138 67ad 8339 8a44 b0b8
00000070: 3f69 b3b8 1cd9 e6b9 1120 6939 4043 7139
00000080: aafe b239 8c1b 8db9 1cb0 72b8 6c3b 8aba
00000090: 4092 e9b9 00c1 3bb8 82e6 9139 f7eb e337
000000a0: 4cc1 7a36 f66a 8aba db83 1bba a0e3 7939
000000b0: d077 1839 1d17 b739 2e39 2c39 be64 a9b9
000000c0: ba4d 8037 adfe 88b9 d262 90b8 e245 3438
000000d0: 9fa0 8c39 4f08 50b8 23cc 39b9 f0f7 fb38
000000e0: 8cd5 5c39 5a9d d0b7 3326 1039 3879 df38
000000f0: e076 3f39 12f9 8e38 082c b439 fe23 6339

baseModel.1.running_var f4 [64]
1.1715685e-05 1.0049942e-05 7.118419e-06 2.3378227e-05 6.888378e-06 8.416121e-06 1.0124176e-05 8.957084e-06
8.997478e-06 1.6352516e-05 1.2416087e-05 5.3714134e-06 9.0526655e-06 1.6783484e-05 1.2139735e-05 6.2119493e-06
8.107016e-06 6.465108e-06 1.2531945e-05 1.0370257e-05 5.3355507e-06 1.8539016e-05 5.6484164e-06 1.7286013e-05
2.49001e-05 1.2957749e-05 2.4876903e-05 3.5525031e-06 1.6714268e-05 1.5871676e-05 9.459232e-06 1.0347776e-05
6.9478424e-06 1.2488083e-05 4.7191943e-06 7.5955986e-06 1.684307e-05 1.1817372e-05 1.4391738e-05 1.4920131e-05
2.0437436e-05 8.539644e-06 1.1329871e-05 2.0843348e-05 1.44739115e-05 2.3795406e-05 1.11453255e-05 1.1925244e-05
1.9223367e-05 5.9429217e-06 1.5471007e-05 1.1769428e-05 1.33393305e-05 9.238631e-06 1.3076885e-05 9.539138e-06
7.682879e-06 1.2429327e-05 1.4224881e-05 6.023569e-06 1.5240145e-05 7.400327e-06 4.296929e-06 6.3004422e-06
00000000: 7c8e 4437 2c9c 2837 c1da ee36 5c1c c437
00000010: b722 e736 f732 0d37 01db 2937 6246 1637
00000020: e0f3 1637 c32c 8937 b04e 5037 173c b436
00000030: e7e0 1737 42ca 8c37 c4ab 4b37 3d70 d036
00000040: 5e03 0837 dbee d836 4b40 5237 eafb 2d37
00000050: 0808 b336 3c84 9b37 8787 bd36 6e01 9137
00000060: 8fe0 d037 1c65 5937 beae d037 8a67 6e36
00000070: 9e35 8c37 2a24 8537 18b3 1e37 5c9b 2d37
00000080: 8321 e936 e883 5137 9259 9e36 b2dd fe36
00000090: 384a 8d37 3a43 4637 0b74 7137 7a51 7a37
000000a0: 0f71 ab37 7e45 0f37 6d15 3e37 c0d8 ae37
000000b0: fad4 7237 3f9c c737 cffc 3a37 8812 4837
000000c0: de41 a137 4f69 c736 bcc7 8137 4f75 4537
000000d0: fdcb 5f37 9eff 1a37 cb64 5b37 490a 2037
000000e0: b7e5 0037 8e87 5037 66a7 6e37 101e ca36
000000f0: edaf 7f37 5350 f836 572e 9036 6368 d336

baseModel.4.weight f4 [64, 64, 3]
0.012295374 -0.041802328 -0.023801466 -0.021274397 0.029086681 0.009274763 0.01975321 -0.00042711583
-0.046897076 -0.01990001 0.0031582634 -0.04007181 -0.004488625 0.018621312 -0.05680975 -0.04760833
-0.041650623 0.039591286 0.060103 0.044535004 0.07002953 -0.019729108 -0.023855885 0.048109114
-0.034119964 0.0010172718 -0.015507213 0.00030201836 0.004448262 -0.010193004 -0.04469 0.07284701
-0.03625969 0.021975216 0.034735896 -0.00501936 0.041274566 -0.013513531 -0.044493504 0.053781025
0.031758904 0.021393314 0.064030066 -0.038434032 0.037431113 0.0144259175 -0.04895594 -0.01161827
0.013754725 0.025117591 -0.018439868 0.0628971 -0.042209756 0.027774565 0.064525165 -0.0638534
-0.009546478 0.044225022 -0.028459636 0.063982554 0.05810405 0.041821092 0.03445623 0.05920343
-0.044401664 0.03495639 0.03284462 -0.047403302 -0.009936011 0.04874892 -0.055310644 -0.007854583
0.0961625 0.080421284 0.08183256 0.018763294 0.07768529 -0.034475703 0.005183526 -0.026451677
0.025798265 0.07389646 0.07082479 -0.024521057 0.06692988 0.07250358 -0.019765189 -0.0037823939
0.001147483 0.015395503 0.0052467478 0.043803446 -0.056864243 -0.054914948 -0.047353286 -0.072059244
0.056284778 -0.04204206 0.004999377 0.012989475 0.05544617 -0.05390091 0.031203622 0.0002065364
-0.043213114 0.040674888 -0.01805237 -0.007109951 -0.021352232 -0.02623146 0.022330197 0.043339327
0.0453292 -0.030260324 0.055288065 0.0246043 0.028799964 -0.07045244 -0.022634739 -0.059714384
0.024692029 0.033472367 0.060434196 0.028165655 -0.009834875 -0.03293007 0.01926765 0.027631376
-0.028217325 -0.04851066 0.03282823 -0.041083377 -0.048247043 0.050656352 0.049953163 -0.037278667
-0.039236497 0.02205803 -0.047738336 -0.07574902 0.03829123 -0.03273425 0.061635353 -0.020469273
0.0021382617 0.05060272 -0.02070648 -0.04328838 -0.015411628 0.0028864136 -0.024213033 0.06419478
-0.013538753 0.054135565 -0.012930245 -0.04441304 -0.060989656 -0.068556935 -0.014950353 0.018339776
0.023711016 0.008878359 -0.064906225 0.03949567 0.025626024 -0.027606899 0.020976093 -0.03239043
0.049526446 -0.03140239 0.023323728 0.002437004 0.023007093 0.02311743 0.056220554 -0.018249787
0.08710162 -0.041004054 -0.0252351 0.069003075 -0.05931935 0.02619424 0.024137923 -0.045385737
-0.0066826954 0.024136476 -0.0016255921 -0.054399204 -0.055593483 0.0030334848 -0.046683673 0.051775876
0.042978764 -0.015509656 -0.055695556 -0.011431024 -0.016722351 -0.064995 0.02423298 -0.05484027
0.021740444 -0.013160999 0.026847534 -0.053120565 -0.032667104 -0.01667664 -0.004739727 -0.030282756
-0.05380512 0.08395936 0.064016365 0.027023962 -0.036822543 0.0322427 0.042089105 0.037937224
-0.05181162 0.022798235 -0.041909307 -0.037235804 0.008173333 -0.018134646 -0.07958564 -0.07102352
-0.045762487 0.021612719 0.07485545 0.010098405 -0.016891303 -0.0455211 0.019345852 0.052065566
-0.0491907 -0.03425001 0.024621794 0.011571337 0.035092965 -0.07398859 0.059802197 0.032162964
0.026262823 -0.010343041 -0.057821445 -0.025683237 0.033957016 0.0016347822 -0.011691487 -0.056997944
0.0022911748 -0.04156591 0.024419818 -0.07184831 0.012369817 0.008351897 0.012102123 -0.05272251
00000000: 8972 493c eb38 2bbd 4bfb c2bc a547 aebc
00000010: 3147 ee3c 2df5 173c 7cd1 a13c 84ee dfb9
00000020: 2617 40bd 5905 a3bc defa 4e3b 5722 24bd
00000030: 5115 93bb b98b 983c 57b1 68bd f400 43bd
00000040: d899 2abd 792a 223d 902e 763d 566a 363d
00000050: a46b 8f3d f09e a1bc 6b6d c3bc 100e 453d
00000060: 60c1 0bbd fa55 853a f711 7ebc 3858 9e39
00000070: bac2 913b 8f00 27bc dd0c 37bd d030 953d
00000080: 0a85 14bd 5e05 b43c 3a47 0e3d 7279 a4bb
00000090: 850f 293d db67 5dbc d23e 36bd 7e49 5c3d
000000a0: a015 023d 0841 af3c 3222 833d 016d 1dbd
000000b0: 5e51 193d af5a 6c3c 0686 48bd 8e5a 3ebc
000000c0: 805b 613c 68c3 cd3c 350f 97bc 32d0 803d
000000d0: 23e4 2cbd 7c87 e33c c525 843d 92c5 82bd
000000e0: d568 1cbc 4c25 353d 2f24 e9bc 4909 833d
000000f0: 83fe 6d3d 984c 2b3d fa21 0d3d 4c7f 723d
00000100: 85de 35bd 6e2e 0f3d 1588 063d f729 42bd
00000110: a7ca 22bc f3ac 473d 6a8d 62bd 82b0 00bc
00000120: d8f0 c43d eab3 a43d d497 a73d 7bb5 993c
00000130: 7719 9f3d 6536 0dbd 91da a93b 30b1 d8bc
00000140: e256 d33c 0757 973d 960c 913d 62e0 c8bc
00000150: 8812 893d c27c 943d 9bea a1bc 0ae2 77bb
00000160: 2467 963a 6b3d 7c3c e9ec ab3b 3e6b 333d
00000170: 7bea 68bd 7fee 60bd 85f5 41bd cc93 93bd
00000180: de8a 663d 4c34 2cbd d0d1 a33b cfd1 543c
00000190: 861b 633d 33c7 5cbd bd9e ff3c b191 5839
000001a0: 3c00 31bd b69a 263d 90e2 93bc 98fa e8bb
000001b0: e0ea aebc 5ce3 d6bc d1ed b63c 9484 313d
000001c0: 1cab 393d 80e4 f7bc bd75 623d f58e c93c
000001d0: e7ed eb3c 5e49 90bd 7d6c b9bc 1297 74bd
000001e0: f046 ca3c 521a 093d d989 773d a9bb e63c
000001f0: 7522 21bc aee1 06bd 31d7 9d3c 325b e23c
00000200: 0528 e7bc 1db3 46bd e576 063d 0b47 28bd
00000210: b19e 45bd 097d 4f3d b09b 4c3d 84b1 18bd
00000220: 73b6 20bd 0bb3 b43c 4689 43bd 4d22 9bbd
00000230: 44d7 1c3d 5914 06bd 5a75 7c3d 2daf a7bc
00000240: 1422 0c3b cc44 4f3d a3a0 a9bc 284f 31bd
00000250: 0e81 7cbc fc29 3d3b 695a c6bc 8e78 833d
00000260: a5d1 5dbc 41bd 5d3d 61d9 53bc 73ea 35bd
00000270: 4ad0 79bd 9467 8cbd 53f2 74bc 4c3d 963c
00000280: 9b3d c23c 8976 113c 8eed 84bd 36c6 213d
00000290: abed d13c dd27 e2bc 0ed6 ab3c d4ab 04bd
000002a0: 3edc 4a3d cb9f 00bd 6711 bf3c 24b6 1f3b
000002b0: 5f79 bc3c c460 bd3c 8647 663d 9480 95bc
000002c0: 5662 b23d def3 27bd d7b9 cebc 7c51 8d3d
000002d0: d9f8 72bd 4e95 d63c e5bc c53c 65e6 39bd
000002e0: 83fa dabb dcb9 c53c d211 d5ba b3d1 5ebd
000002f0: feb5 63bd 6ecd 463b 6137 3fbd f112 543d
00000300: 800a 303d 361c 7ebc 0621 64bd 3149 3bbc
00000310: 50fd 88bc 191c 85bd 3e84 c63c 31a0 60bd
00000320: 0419 b23c 3ba1 57bc 5cef db3c f394 59bd
00000330: f1cd 05bd 739d 88bc b64f 9bbb 8b13 f8bc
00000340: c262 5cbd e3f2 ab3d 031b 833d 5b61 dd3c
00000350: 3cd3 16bd ec10 043d a065 2c3d 1064 1b3d
00000360: 6c38 54bd 5dc3 ba3c 18a9 2bbd 9284 18bd
00000370: 71e9 053c 1c8f 94bc ccfd a2bd c774 91bd
00000380: 7271 3bbd 280d b13c d04d 993d c873 253c
00000390: a15f 8abc 5574 3abd 317b 9e3c b442 553d
000003a0: 307c 49bd bd49 0cbd a5b3 c93c b495 3d3c
000003b0: a4bd 0f3d 5487 97bd 26f3 743d 50bd 033d
000003c0: 2225 d73c dc75 29bc 2ed6 6cbd a765 d2bc
000003d0: 8316 0b3d 3046 d63a a78d 3fbc ad76 69bd
000003e0: 8927 163b 0441 2abd 120c c83c 3525 93bd
000003f0: c6aa 4a3c 65d6 083c fc47 463c 8ff3 57bd

baseModel.4.bias f4 [64]
-3.4800578e-05 9.822295e-06 3.0890335e-06 2.1302216e-05 -4.4701946e-07 -7.451843e-06 -5.701855e-06 1.4639089e-06
-2.8236633e-05 -2.9817766e-05 6.067081e-08 3.1292643e-06 -6.3450284e-07 -6.5589324e-05 -3.6561046e-06 -3.190356e-06
-1.0122825e-05 2.2745166e-05 -6.748722e-06 2.1484793e-05 -3.8604332e-05 -2.0499252e-05 -1.7198896e-05 -1.4307498e-05
1.64172e-05 3.3907174e-05 -7.087203e-05 2.63872e-05 1.1102556e-05 1.4163841e-05 -1.4006686e-05 4.3627665e-06
-1.040108e-05 2.2698528e-06 1.4304039e-05 2.6308735e-05 -3.1959768e-05 -2.4264631e-05 -1.1371595e-06 6.014752e-05
-4.664887e-06 -1.3914416e-06 3.9158576e-06 4.58182e-05 -8.319296e-06 5.8402616e-06 1.8708135e-05 1.0082053e-05
5.0293438e-05 3.3000254e-06 -1.79035e-05 7.0497595e-06 1.566771e-05 4.4608646e-06 -4.0431296e-05 1.5179302e-05
3.974962e-05 -7.0099763e-06 3.059745e-05 -2.0315054e-05 -2.4377354e-05 2.6832062e-05 1.29353475e-05 5.420375e-06
00000000: d6f6 11b8 70ca 2437 314d 4f36 29b2 b237
00000010: e3fd efb4 d80a fab6 9052 bfb6 877b c435
00000020: b5dd ecb7 2a21 fab7 214a 8233 5a00 5236
00000030: b452 2ab5 008d 89b8 665b 75b6 e619 56b6
00000040: 34d5 29b7 dfcc be37 1573 e2b6 3e3a b437
00000050: 16eb 21b8 cff5 abb7 5946 90b7 3c0a 70b7
00000060: abb7 8937 8d37 0e38 22a1 94b8 155a dd37
00000070: 1d45 3a37 3ca1 6d37 42fe 6ab7 e163 9236
00000080: 4c80 2eb7 c653 1836 61fb 6f37 94b1 dc37
00000090: 8a0c 06b8 e68b cbb7 81a0 98b5 e846 7c38
000000a0: 1387 9cb6 92c1 bab5 f664 8336 eb2c 4038
000000b0: 1b93 0bb7 77f7 c336 6aef 9c37 1726 2937
000000c0: 2bf2 5238 0176 5d36 792f 96b7 f98c ec36
000000d0: 276e 8337 89ae 9536 c694 29b8 9baa 7e37
000000e0: d4b8 2638 3d37 ebb6 c355 0038 3f6a aab7
000000f0: f87d ccb7 6a15 e137 e504 5937 abe0 b536

baseModel.5.weight f4 [64]
0.8905333 0.8443288 0.8666119 0.87980235 0.85735625 0.8490922 0.92627394 0.8710806
0.8702491 0.88752466 0.8469575 0.94228387 0.8818099 0.8306769 0.8378461 0.83774173
0.8739167 0.8829583 0.8345171 0.87142473 0.90093565 0.9156385 0.84961796 0.9304668
0.9014426 0.806723 0.83496064 0.8869039 0.84246725 0.81859386 0.8809076 0.8782478
0.86337864 0.86706525 0.8794557 0.8630246 0.87502027 0.87960386 0.90542746 0.87862164
0.84961206 0.8843954 0.857792 0.8689134 0.8071313 0.9093246 0.8717546 0.8276453
0.88318616 0.84727067 0.8642303 0.8337738 0.83542186 0.91204494 0.8729946 0.8257399
0.8147035 0.8931623 0.8952115 0.86899096 0.8985945 0.8639054 0.9005774 0.8924234
00000000: fef9 633f ef25 583f 47da 5d3f ba3a 613f
00000010: b37b 5b3f 1b5e 593f 4a20 6d3f 23ff 5e3f
00000020: a5c8 5e3f d134 633f 35d2 583f 8439 713f
00000030: 4bbe 613f 3ea7 543f 157d 563f 3e76 563f
00000040: 01b9 5f3f 8e09 623f eaa2 553f b115 5f3f
00000050: b8a3 663f 4967 6a3f 9080 593f 1233 6e3f
00000060: f1c4 663f 6685 4e3f fbbf 553f 220c 633f
00000070: efab 573f 5e8f 513f 2983 613f d9d4 603f
00000080: 6206 5d3f fdf7 5d3f 0224 613f 2eef 5c3f
00000090: 5401 603f b82d 613f 18ca 673f 59ed 603f
000000a0: 2d80 593f bd67 623f 4298 5b3f 1c71 5e3f
000000b0: 28a0 4e3f 7fc9 683f 4f2b 5f3f 90e0 533f
000000c0: 7d18 623f bbe6 583f 323e 5d3f 3372 553f
000000d0: 35de 553f c77b 693f 937c 5f3f b163 533f
000000e0: 6990 503f 49a6 643f 952c 653f 3176 5e3f
000000f0: 4a0a 663f e728 5d3f 3e8c 663f dc75 643f

baseModel.5.bias f4 [64]
-0.018154575 -0.03708454 -0.03745297 -0.02477167 0.0023340867 0.028724305 -0.037351727 -0.05121432
-0.011511968 -0.018787332 -0.0515135 0.011735725 0.04042425 0.05054933 -0.016524546 0.005352119
0.027195334 0.0030017325 0.03698178 0.03788914 -0.026535356 0.01394595 -0.004787888 -0.053101335
-0.061596803 0.0049127396 -0.0021718116 0.017535722 0.012423483 -0.02570088 0.029906642 -0.032083943
-0.028854689 0.025934517 -0.013557085 0.07034613 0.06639146 -0.035892747 0.0005551296 0.03397776
-0.036818415 0.00912216 0.0015066228 0.0017839168 -0.03777762 0.05467813 0.050202563 0.05394285
0.04244357 -0.05460739 -0.0033767538 0.0069122263 -0.0010578452 -0.016351528 -0.0020206473 -0.0078082914
0.008300453 0.037464164 -0.051130712 -0.010123891 -0.044797238 0.031849172 0.008550849 -0.05514375
00000000: e7b8 94bc f5e5 17bd 4968 19bd f5ed cabc
00000010: 7af7 183b 3c4f eb3c 20fe 18bd 1bc6 51bd
00000020: b29c 3cbc e4e7 99bc d2ff 52bd 3347 403c
00000030: e693 253d d00c 4f3d 7c5e 87bc d460 af3b
00000040: c0c8 de3c b7b8 443b 357a 173d a531 1b3d
00000050: ad60 d9bc 8e7d 643c b7e3 9cbb c980 59bd
00000060: ee4c 7cbd 0cfb a03b f454 0ebb 13a7 8f3c
00000070: dd8b 4b3c a78a d2bc c6fe f43c 746a 03bd
00000080: ab60 ecbc a074 d43c 891e 5ebc a211 903d
00000090: 3ff8 873d 4604 13bd 1e86 113a 432c 0b3d
000000a0: e8ce 16bd 1d75 153c df79 c53a 51d2 e93a
000000b0: b5bc 1abd 2df6 5f3d 34a1 4d3d 2ef3 5c3d
000000c0: 4fd9 2d3d 00ac 5fbd 874c 5dbb f57f e23b
000000d0: 65a7 8aba a4f3 85bc d66c 04bb b2dc ffbb
000000e0: a0fe 073c 0674 193d 706e 51bd adde 25bc
000000f0: 4f7d 37bd 4774 023d dc18 0c3c 6ade 61bd

baseModel.5.running_mean f4 [64]
0.27607566 -0.17990948 0.21563047 0.02451405 0.21174285 -0.11460983 -0.08183296 0.4574906
-0.04465923 -0.27463475 0.096011 -0.042980615 -0.1492456 0.13567707 0.085302256 -0.19292217
0.008332416 0.029126871 0.018378971 -0.5361691 0.026602682 0.044300366 -0.20456086 0.051176216
0.048970703 -0.06330447 -0.07870826 -0.13903333 -0.3693333 -0.25791278 -0.1557394 -0.06161709
-0.11424685 0.12185045 0.16972189 -0.39645198 0.009376396 -0.030980425 -0.37130192 -0.086057514
0.19658601 -0.09570909 -0.13709378 0.18506996 -0.6866313 0.2035282 0.3033681 0.38518813
0.19389501 -0.25313866 0.091969445 -0.025731059 0.040723417 0.013514444 -0.03092813 0.440558
0.06120484 -0.043213174 -0.008267621 -0.21580082 0.11414437 -0.15328813 0.056742672 0.053469118
00000000: ca59 8d3e 313a 38be 3cce 5c3e b0d1 c83c
00000010: 1ed3 583e 8fb8 eabd 0a98 a7bd 353c ea3e
00000020: 99ec 36bd ed9c 8cbe 6aa1 c43d 710c 30bd
00000030: d7d3 18be eeee 0a3e f3b2 ae3d 648d 45be
00000040: b084 083c 7a9b ee3c 7f8f 963c 6142 09bf
00000050: deed d93c 4d74 353d 6778 51be 279e 513d
00000060: 8195 483d c6a5 81bd cc31 a1bd c15e 0ebe
00000070: 4119 bdbe 250d 84be 267a 1fbe 3462 7cbd
00000080: 41fa e9bd bb8c f93d 93cb 2d3e c1fb cabe
00000090: 759f 193c a9ca fdbc 491b bebe ec3e b0bd
000000a0: d84d 493e 2103 c4bd 5062 0cbe fb82 3d3e
000000b0: 12c7 2fbf b269 503e 1053 9b3e 6137 c53e
000000c0: 6a8c 463e 649b 81be 7a5a bc3d f1c9 d2bc
000000d0: 99cd 263d b06b 5d3c fd5c fdbc d190 e13e
000000e0: edb1 7a3d 4c00 31bd ea74 07bc e4fa 5cbe
000000f0: 86c4 e93d 90f7 1cbe 016b 683d 6f02 5b3d

baseModel.5.running_var f4 [64]
0.13952424 0.09625879 0.05396409 0.09357299 0.02972654 0.08333344 0.035880573 0.07801739
0.13593654 0.08850277 0.05767565 0.19746453 0.049456388 0.06709454 0.08825759 0.03891577
0.06856301 0.08672186 0.13644758 0.07151497 0.04991604 0.09332893 0.06473876 0.21884765
0.075828336 0.034361236 0.05425618 0.08790194 0.050960783 0.037803046 0.13114466 0.08652115
0.05283666 0.12998955 0.09510942 0.049648643 0.067736074 0.11651333 0.13572332 0.06605893
0.06765789 0.078463234 0.097660825 0.05128936 0.20360877 0.10906179 0.04338196 0.10401452
0.11851972 0.052883815 0.05417543 0.08096464 0.07197451 0.11209895 0.022970608 0.08456669
0.06788414 0.09609496 0.1131233 0.106709644 0.07664731 0.12311323 0.061283514 0.08203046
00000000: 71df 0e3e 5423 c53d 7309 5d3d 32a3 bf3d
00000010: 1385 f33c b9aa aa3d 82f7 123d 95c7 9f3d
00000020: f332 0b3e f140 b53d 4d3d 6c3d 2434 4a3e
00000030: c892 4a3d dd68 893d 65c0 b43d 2466 1f3d
00000040: c36a 8c3d 3b9b b13d eab8 0b3e 7176 923d
00000050: c374 4c3d 3d23 bf3d c195 843d 9919 603e
00000060: e34b 9b3d 5ebe 0c3d ba3b 5e3d ef05 b43d
00000070: 41bc 503d 5ed7 1a3d c94a 063e 0032 b13d
00000080: 416b 583d fb1b 053e bac8 c23d 605c 4b3d
00000090: 36b9 8a3d 8a9e ee3d 0efb 0a3e e749 873d
000000a0: 3890 8a3d 55b1 a03d 6602 c83d cb14 523d
000000b0: d17e 503e ca5b df3d 48b1 313d 9105 d53d
000000c0: 78ba f23d b39c 583d 0ee7 5d3d cad0 a53d
000000d0: 5f67 933d 2294 e53d db2c bc3c 4d31 ad3d
000000e0: d706 8b3d 6fcd c43d 30ad e73d 968a da3d
000000f0: 44f9 9c3d ca22 fc3d 6c04 7b3d 96ff a73d

baseModel.8.weight f4 [64, 64, 3]
0.07442109 0.018246196 0.06732182 0.027012022 0.04119159 -0.04728003 -0.040164154 -0.024477124
0.0134733785 0.007757182 -0.0433623 0.059093278 -0.0025647604 -0.042519893 0.016686123 0.053786147
-0.008356116 0.055567846 -0.0060248473 0.008152162 -0.00026758836 -0.040927507 0.034856416 0.042771917
-0.06517425 0.011748658 -0.0072547337 0.043284945 0.020224657 0.00915269 -0.024090098 -0.005983609
-0.022047367 -0.03403974 0.000335747 -0.008790686 -0.038099606 -0.075881176 0.0032165986 0.042155247
-0.020792464 -0.02562138 0.061174694 -0.012406613 0.03838419 -0.044870965 0.045466136 -0.07507531
-0.05613836 0.002709408 0.05127044 0.050158132 0.04009497 0.034338314 0.019617401 0.018275797
0.010602466 -0.06879177 -0.022907007 0.06089886 0.05852678 -0.008042752 -0.042823136 -0.024188528
0.002678476 -0.011179706 -0.018648058 0.006403993 0.00017852378 0.03861017 -0.058766946 -0.009432905
-0.0050163786 0.07361778 -0.033351623 -0.0038082656 -0.02655588 -0.0041607735 0.008692552 0.038833715
-0.08513648 0.04824701 -0.019128859 0.04363662 0.015245241 -0.02600953 -0.05030083 0.015608289
-0.016717711 -0.08854744 -0.026063718 -0.06215399 -0.0376043 0.023879135 -0.08537132 0.026653355
-0.02088017 -0.08187288 -0.042239375 0.01663885 -0.023945887 -0.017603412 -0.0025061716 -0.01745491
-0.019391438 0.03656469 -0.009918152 0.02912471 0.0036525296 0.0006110702 0.0140344 0.010622541
0.054841697 -0.026738655 0.044110544 0.06553815 -0.011392251 0.09534022 0.0018124718 0.036839604
0.008865411 0.04030399 0.04339488 0.04907582 -0.07819206 0.028946593 -0.05711259 -0.061251175
0.046422906 -0.055299502 0.021161983 -0.033309296 0.04572471 -0.041982338 0.028827123 0.012895691
0.026642194 -0.05466659 0.0089678 0.020317968 0.014450844 0.056098893 -0.021742346 0.03906566
0.048614204 0.0071095163 0.048871756 -0.03039503 -0.030839821 0.037065674 -0.020938909 -0.032168694
0.048347898 -0.03710147 0.006492076 0.032156706 -0.03849551 -0.02758916 0.04888993 -0.02930155
0.0578626 -0.012002011 0.04750638 0.02231081 0.00484938 0.061291784 0.024758099 0.00033599703
-0.010193267 -0.009462927 0.050080422 0.03974617 0.04591799 -0.020956468 0.010393714 -0.033033594
0.018180285 -0.06639407 -0.020708982 -0.037281554 -0.020219438 0.0470962 0.055926222 -0.024554351
-0.024725504 0.063266896 -0.049895033 -0.020925244 -0.028464446 0.014187776 0.02852561 0.07050471
0.046392713 -0.034345962 0.037430044 -0.04303449 -0.011124365 -0.052293424 0.04175009 0.02894164
0.07756761 0.013599787 -0.032092884 -0.00014200657 -0.019839352 -0.11346382 -0.053481326 0.06275979
0.086166225 -0.035045594 0.041365754 0.010750195 0.08733639 0.015255329 -0.03745327 0.003507049
-0.0006615766 0.036716428 0.026837453 0.046472616 -0.010630186 0.047434952 -0.011761168 -0.029338697
-0.0055702827 0.07223386 -0.01826783 0.0762335 0.030887192 0.114807144 -0.015932396 -0.00079383445
0.009429042 -0.01461839 0.02723051 -0.05599508 0.041550267 -0.032949556 0.04473414 0.036868326
0.010054971 -0.0031068642 -0.027850278 -0.046880167 -0.05525119 -0.0053498843 0.0030298675 0.027223222
-0.02688253 0.02049761 0.08322447 0.038742177 0.070591256 -0.03585494 0.024131447 0.050645135
00000000: 166a 983d 0c79 953c 06e0 893d 5148 dd3c
00000010: 83b8 283d b4a8 41bd 2b83 24bd 4084 c8bc
00000020: 72bf 5c3c f52f fe3b ab9c 31bd cb0b 723d
00000030: 8a15 28bb 5729 2ebd 56b1 883c dd4e 5c3d
00000040: 17e8 08bc 1c9b 633d 156c c5bb a590 053c
00000050: 1a4b 8cb9 9aa3 27bd 9ac5 0e3d 9b31 2f3d
00000060: 147a 85bd 717d 403c 1eb9 edbb 8e4b 313d
00000070: 2eae a53c 2af5 153c 9958 c5bc 2612 c4bb
00000080: ae9c b4bc 416d 0bbd 3307 b039 cf06 10bc
00000090: 550e 1cbd 9767 9bbd 92cd 523b fbaa 2c3d
000000a0: f554 aabc eee3 d1bc 5192 7a3d 1b45 4bbc
000000b0: be38 1d3d 9eca 37bd b33a 3a3d 16c1 99bd
000000c0: 56f1 65bd 5390 313b f400 523d 9d72 4d3d
000000d0: a03a 243d 55a6 0c3d acb4 a03c 20b7 953c
000000e0: f7b5 2d3c b3e2 8cbd 7aa7 bbbc 1571 793d
000000f0: c7b9 6f3d bfc5 03bc 5067 2fbd 0527 c6bc
00000100: 5f89 2f3b 162b 37bc d0c3 98bc 96d8 d13b
00000110: 1d32 3b39 b325 1e3d 9cb5 70bd 798c 1abc
00000120: 6f60 a4bb ebc4 963d b69b 08bd 1894 79bb
00000130: b88b d9bc 1957 88bb 356b 0e3c 1a10 1f3d
00000140: 095c aebd a89e 453d 20b4 9cbc 50bc 323d
00000150: 2dc7 793c f011 d5bc 3e08 4ebd e9b9 7f3c
00000160: 95f3 88bc 5c58 b5bd 9483 d5bc 2f95 7ebd
00000170: f706 1abd 2d9e c33c 29d7 aebd 2358 da3c
00000180: e40c abbc f8ac a7bd 3203 2dbd 334e 883c
00000190: 2a2a c4bc 0835 90bc 953e 24bb 99fd 8ebc
000001a0: cbda 9ebc dbc4 153d bf7f 22bc f296 ee3c
000001b0: 475f 6f3b 3a30 203a 8af0 653c 2b0a 2e3c
000001c0: b0a1 603d 060b dbbc 42ad 343d de38 863d
000001d0: 90a6 3abc bc41 c33d 7690 ed3a 20e5 163d
000001e0: 3b40 113c cc15 253d d4be 313d ba03 493d
000001f0: 2923 a0bd 6821 ed3c e4ee 69bd 83e2 7abd
00000200: f225 3e3d bb81 62bd e55b ad3c 546f 08bd
00000210: d549 3b3d acf5 2bbd dc26 ec3c 7348 533c
00000220: bb40 da3c 13ea 5fbd aeed 123c de71 a63c
00000230: 3cc3 6c3c f4c7 653d 011d b2bc 5003 203d
00000240: b01f 473d f2f6 e83b c02d 483d fffe f8bc
00000250: cba3 fcbc 2dd2 173d 1388 abbc 52c3 03bd
00000260: 7208 463d b6f7 17bd 7bbb d43b c0b6 033d
00000270: 78ad 1dbd a902 e2bc cf40 483d ce09 f0bc
00000280: 5501 6d3d 15a4 44bc 0d96 423d 29c5 b63c
00000290: 8ce7 9e3b 180d 7b3d 7fd1 ca3c c228 b039
000002a0: a901 27bc 640a 1bbc 2121 4d3d e1cc 223d
000002b0: 8114 3c3d e6ac abbc 654a 2a3c 3c4e 07bd
000002c0: d2ee 943c 9df9 87bd e2a5 a9bc 8bb4 18bd
000002d0: 3ca3 a5bc f2e7 403d e512 653d 3526 c9bc
000002e0: 248d cabc 1392 813d bc5e 4cbd 6b6b abbc
000002f0: 452e e9bc d873 683c 8aae e93c c664 903d
00000300: 4906 3e3d 5aae 0cbd 3f50 193d ef44 30bd
00000310: f842 36bc a131 56bd 2402 2b3d 0517 ed3c
00000320: c4db 9e3d a4d1 5e3c d473 03bd 99e7 14b9
00000330: 2386 a2bc b85f e8bd 3c0f 5bbd 3488 803d
00000340: eb77 b03d f88b 0fbd 236f 293d 9621 303c
00000350: 6cdd b23d 7df1 793c 9a68 19bd 85d6 653b
00000360: a76d 2dba f763 163d 38da db3c 125a 3e3d
00000370: 3b2a 2ebc 274b 423d eab1 40bc b557 f0bc
00000380: eb86 b6bb 59ef 933d 6ba6 95bc 4f20 9c3d
00000390: 2307 fd3c 0220 eb3d a884 82bc 5419 50ba
000003a0: 457c 1a3c f981 6fbc 8512 df3c 195b 65bd
000003b0: 9d30 2a3d 1df6 06bd 253b 373d 3e03 173d
000003c0: 9bbd 243c 889c 4bbb 4426 e4bc 6b05 40bd
000003d0: 124f 62bd 154e afbb be90 463b 3c03 df3c
000003e0: c038 dcbc 9bea a73c 9771 aa3d 1eb0 1e3d
000003f0: 2692 903d a1dc 12bd 50af c53c 4671 4f3d

baseModel.8.bias f4 [64]
-7.979446e-06 3.945178e-06 -3.1545664e-05 8.554567e-06 1.3585319e-05 -8.728114e-06 1.2405545e-05 -2.6974267e-05
-1.8179893e-05 7.0190504e-06 2.0012585e-06 5.323308e-06 3.9420692e-07 -1.7273187e-05 -2.1902966e-05 9.00643e-06
1.384619e-05 -5.310773e-06 1.5896518e-05 2.3437216e-05 9.37194e-06 -3.242451e-05 -9.920419e-07 2.9102453e-06
-1.2725305e-05 7.771362e-06 5.2497026e-06 5.873883e-06 9.827545e-06 -3.8994367e-05 -1.2545888e-06 7.090214e-06
-7.31719e-06 -1.0051966e-05 1.8281116e-05 -2.2827575e-05 1.0610903e-05 4.7572753e-06 -6.3775483e-06 -1.3457596e-05
2.2966993e-05 -4.557494e-06 -9.446864e-06 7.235525e-06 9.686076e-06 1.0423231e-05 -1.0049199e-05 1.7446926e-05
-1.7361492e-05 -2.496545e-06 1.3412708e-07 9.772906e-06 -4.806093e-06 -3.3978806e-06 -1.3689202e-05 2.0986277e-05
2.939168e-06 -2.8143316e-07 2.6464163e-06 8.920584e-06 3.527603e-07 5.183995e-06 -6.2056245e-07 7.4605514e-06
00000000: 76df 05b7 d260 8436 e64f 04b8 9685 0f37
00000010: 80ec 6337 f76e 12b7 6921 5037 cc46 e2b7
00000020: 0681 98b7 2f85 eb36 5c4d 0636 de9e b236
00000030: 63a3 d334 e3e5 90b7 43bc b7b7 531a 1737
00000040: ef4c 6837 3133 b2b6 8359 8537 0a9b c437
00000050: 2d3c 1d37 8dff 07b8 4d26 85b5 a24d 4336
00000060: c57e 55b7 bf61 0237 9a26 b036 4518 c536
00000070: fce0 2437 e28d 23b8 5863 a8b5 79e8 ed36
00000080: 2f86 f5b6 dda4 28b7 665a 9937 d87d bfb7
00000090: 7b05 3237 afa0 9f36 b9fe d5b6 efc7 61b7
000000a0: 3ea9 c037 93ec 98b6 f97d 1eb7 b0c8 f236
000000b0: 6181 2237 70df 2e37 fb98 28b7 fd5a 9237
000000c0: 85a3 91b7 518a 27b6 9204 1034 50f6 2337
000000d0: 0644 a1b6 2507 64b6 adaa 65b7 b00b b037
000000e0: 863e 4536 e117 97b4 1699 3136 9ea9 1537
000000f0: 0263 bd34 2ef2 ad36 ba94 26b5 a655 fa36

baseModel.9.weight f4 [64]
0.79380196 0.8932429 0.8349361 0.86681926 0.8529462 0.79745597 0.85958487 0.90341485
0.8391452 0.856957 0.8432137 0.92695236 0.7934794 0.81258357 0.84450936 0.8769318
0.8848631 0.8050524 0.81891817 0.8985168 0.91175133 0.89842635 0.83141905 0.86169773
0.85391676 0.90516746 0.8822282 0.8904617 0.8454897 0.8295817 0.88669765 0.82709575
0.9231309 0.892316 0.8101256 0.8497876 0.8921077 0.81837463 0.8549271 0.84549415
0.8187056 0.88466096 0.9386242 0.80007935 0.842576 0.90380865 0.8253619 0.81100714
0.88794875 0.90371317 0.83802676 0.88933593 0.8263953 0.8523437 0.853019 0.83532923
0.8401135 0.8277818 0.8328545 0.8966248 0.8349645 0.90898323 0.88143134 0.8032776
00000000: 9b36 4b3f 91ab 643f 5fbe 553f dee7 5d3f
00000010: af5a 5a3f 1326 4c3f c10d 5c3f 3246 673f
00000020: 38d2 563f 8961 5b3f dadc 573f c04c 6d3f
00000030: 7721 4b3f 7a05 503f c431 583f 9a7e 603f
00000040: 6386 623f ea17 4e3f 9fa4 513f 3205 663f
00000050: 8968 693f 45ff 653f e1d7 543f 3998 5c3f
00000060: 4a9a 5a3f 0eb9 673f b5d9 613f 4cf5 633f
00000070: 0372 583f 775f 543f 9efe 623f 8cbc 533f
00000080: 4f52 6c3f d26e 643f 6464 4f3f ae8b 593f
00000090: 2c61 643f 0081 513f 81dc 5a3f 4e72 583f
000000a0: b196 513f 2479 623f ad49 703f 00d2 4c3f
000000b0: 10b3 573f 0160 673f eb4a 533f 2a9e 4f3f
000000c0: 9c50 633f bf59 673f ec88 563f 85ab 633f
000000d0: a48e 533f 3233 5a3f 745f 5a3f 23d8 553f
000000e0: ae11 573f 82e9 533f f435 553f 3489 653f
000000f0: 3cc0 553f 20b3 683f 7ca5 613f 9aa3 4d3f

baseModel.9.bias f4 [64]
-0.0018367815 -0.013598257 0.043452576 -0.004024547 0.017438577 -0.009574342 -0.020225134 -0.03858666
-0.05571103 -0.0046666027 0.025451718 -0.010249914 -0.028231207 0.022804968 -0.002552804 -0.0122836605
0.07901741 0.007265981 -7.363272e-05 -0.019736266 -0.040660907 0.009530427 0.007929119 -0.022174126
-0.015829325 -0.007656858 -0.02246417 -0.009467439 -0.037013337 -0.0052946988 0.0014624775 -0.07372789
0.05998855 -0.00862047 -0.024124661 -0.03439859 0.037483934 -0.028735094 0.002517735 0.02290097
0.026738586 0.012402178 -0.021726575 0.017058887 0.046487167 0.012412312 -0.018030569 -0.04167332
0.012936639 -0.021119053 -0.034012843 0.010422142 0.010803423 0.0137930745 0.005182391 0.0017387373
-0.0056604072 -0.02829899 -0.01238617 -0.0113252485 0.018226596 -0.026397198 0.022280196 0.027228534
00000000: 29c0 f0ba 39cb 5ebc 54fb 313d 59e0 83bb
00000010: 59db 8e3c b3dd 1cbc 2eaf a5bc 0c0d 1ebd
00000020: 4031 64bd 4dea 98bb 1f80 d03c 41ef 27bc
00000030: 2245 e7bc 7cd1 ba3c f24c 27bb 6841 49bc
00000040: e1d3 a13d 7717 ee3b 446b 9ab8 f3ad a1bc
00000050: 0d8c 26bd 8225 1c3c 23e9 013c 83a6 b5bc
00000060: 80ac 81bc 61e6 fabb c706 b8bc 511d 1bbc
00000070: 4c9b 17bd 277f adbb 9ab0 bf3a a6fe 96bd
00000080: 8eb6 753d df3c 0dbc 15a1 c5bc 89e5 0cbd
00000090: c188 193d dc65 ebbc 9500 253b d19a bb3c
000000a0: e10a db3c 8132 4b3c eefb b1bc 14bf 8b3c
000000b0: 5469 3e3d 035d 4b3c d8b4 93bc a5b1 2abd
000000c0: 32f4 533c dd01 adbc 0d51 0bbd a2c1 2a3c
000000d0: d700 313c 59fc 613c 0cd1 a93b 58e6 e33a
000000e0: f07a b9bb 49d3 e7bc 5def 4abc 898d 39bc
000000f0: f14f 953c f03e d8bc f584 b63c 600e df3c

baseModel.9.running_mean f4 [64]
0.2238885 0.32447413 0.2780795 -0.11401605 0.18600868 0.43765777 0.09618433 -0.20039906
-0.022267012 0.3685135 -0.25732455 -0.14271586 -0.27415675 0.2375679 -0.15404628 -0.41398376
-0.29885134 -0.12011397 0.19439462 -0.023910593 0.24476317 0.7101801 0.048493944 -0.17224737
0.28044268 0.006040483 -0.29822874 -0.3677045 0.14957492 -0.29946083 -0.6223295 0.34113503
-0.31490853 -0.12648013 0.8834068 0.33149326 -0.3390253 -0.58416975 0.31155655 -0.3356142
0.60179746 -0.043745097 -0.5298348 -0.16871494 0.98896307 -0.062913515 0.5130034 -0.26023373
-0.46004158 0.052034117 0.38073844 -0.21631612 0.5182728 -0.16740817 -0.19305547 -0.11318785
-0.5545483 0.5205002 0.311371 -0.13419987 0.16571207 -0.47872606 -0.384925 -0.73082036
00000000: 0743 653e 7921 a63e 7060 8e3e 3f81 e9bd
00000010: 0f79 3e3e ae14 e03e 4afc c43d 6935 4dbe
00000020: 4f69 b6bc cdad bc3e 0bc0 83be 1b24 12be
00000030: 465e 8cbe 0045 733e 4fbe 1dbe aef5 d3be
00000040: 0b03 99be 50fe f5bd 620f 473e 26e0 c3bc
00000050: 32a3 7a3e 5dce 353f 96a1 463d 9d61 30be
00000060: 2f96 8f3e 3eef c53b 70b1 98be c443 bcbe
00000070: 2b2a 193e ee52 99be fc50 1fbf 40a9 ae3e
00000080: b13b a1be 0284 01be f326 623f 7cb9 a93e
00000090: b994 adbe 268c 15bf 5784 9f3e a0d5 abbe
000000a0: 660f 1a3f 0f2e 33bd 41a3 07bf 9cc3 2cbe
000000b0: af2c 7d3f cdd8 80bd 3154 033f 5b3d 85be
000000c0: 928a ebbe ba21 553d 26f0 c23e f981 5dbe
000000d0: 87ad 043f 0c6d 2bbe 55b0 45be 08cf e7bd
000000e0: e1f6 0dbf 803f 053f 056c 9f3e b16b 09be
000000f0: 6db0 293e 951b f5be e414 c5be 0b17 3bbf

baseModel.9.running_var f4 [64]
0.105391726 0.09550139 0.104333416 0.12541191 0.120212555 0.11219914 0.107631564 0.24457024
0.15957804 0.09662379 0.09760257 0.21085913 0.120791614 0.106500015 0.09945987 0.19023591
0.17178383 0.12260947 0.11144122 0.13776094 0.2406736 0.11488651 0.11363323 0.09793012
0.102434054 0.26762018 0.2036138 0.18849827 0.18789409 0.12681423 0.17961961 0.14862683
0.15094332 0.12518553 0.13162808 0.08979512 0.1458704 0.15811913 0.10190635 0.12233626
0.14534156 0.20848249 0.34349668 0.10740983 0.116564296 0.16726255 0.16348054 0.08620288
0.18292783 0.15557688 0.12738523 0.15383442 0.09410533 0.2039575 0.15892418 0.10831757
0.16924761 0.110991046 0.13227014 0.14361072 0.16205657 0.17069773 0.17921269 0.15722759
00000000: 9ed7 d73d 3c96 c33d c2ac d53d fb6b 003e
00000010: 0032 f63d aac8 e53d f06d dc3d 9f70 7a3e
00000020: 6d68 233e b2e2 c53d dbe3 c73d 75eb 573e
00000030: 9861 f73d ae1c da3d 9eb1 cb3d 34cd 423e
00000040: 1ae8 2f3e ac1a fb3d 4b3b e43d 3411 0d3e
00000050: 2473 763e 9e49 eb3d 8ab8 e83d 968f c83d
00000060: f2c8 d13d 8305 893e 2380 503e b105 413e
00000070: 4f67 403e 97db 013e 34ee 373e a231 183e
00000080: e390 1a3e a330 003e 83c9 063e 81e6 b73d
00000090: 0d5f 153e fbe9 213e 47b4 d03d 6f8b fa3d
000000a0: 6bd4 143e 6f7c 553e ccde af3e aff9 db3d
000000b0: 43b9 ee3d e046 2b3e 7167 273e 238b b03d
000000c0: 6f51 3b3e 8c4f 1f3e 4671 023e c586 1d3e
000000d0: 4cba c03d 3cda 503e 05bd 223e 9ad5 dd3d
000000e0: 3f4f 2d3e 464f e33d d371 073e b00e 133e
000000f0: 28f2 253e 63cb 2e3e 8883 373e 4500 213e

baseModel.11.weight f4 [32, 64, 3]
0.007871043 -0.0059318165 -0.044268936 -0.036889896 0.027892921 0.07051918 -0.059053387 0.029937942
0.024144929 -0.016434554 -0.031858057 0.04846064 -0.003015038 -0.0014243667 0.023638435 0.07751416
0.06523349 0.03384666 -0.038336806 0.055786893 0.05102737 0.030641628 -0.056797184 0.035707634
0.002632619 0.09015499 0.08508517 -0.034431685 -0.06396785 0.008386031 0.01136911 0.007863941
0.014274927 0.019073779 0.058537878 0.020700933 0.018222172 -0.01837035 -0.03101413 -0.0072681243
-0.018519344 0.047440715 0.024294004 0.03488905 0.007709412 0.030938448 -0.0437507 0.0089871315
0.04628157 0.040471766 -0.10058781 -0.087593704 0.06324944 0.05879964 -0.019647073 0.0015080314
0.0037421144 0.04274503 0.04268542 0.0068764137 0.00044048778 -0.017526282 -0.061361443 0.0038838224
-0.056405555 -0.044228997 0.0071128337 0.06736601 0.02884522 -0.015552698 0.09005275 -0.012842839
-0.022789901 0.027285531 -0.03085383 0.017080924 0.04805518 -0.027312133 -0.029734626 -0.03251019
0.009452884 -0.0575482 0.004712377 -0.076717466 0.025347805 -0.056685723 -0.0026131046 -0.0021206976
-0.050645992 -0.0016022072 -0.035456132 0.06047463 0.018925551 0.070640996 -0.042351466 0.0020310294
0.016852478 0.018605102 -0.06707944 -0.010792497 0.0583013 0.005301962 -0.0667588 -0.054383468
0.043147728 0.01082012 0.0130984 -0.018182086 0.035680607 -0.012518711 -0.05544153 0.03862961
0.06265494 0.006014293 0.06300972 0.06526282 0.042252492 -0.010619835 6.436973e-05 0.01193519
0.03665591 0.048442136 -0.028145265 0.012594881 -0.043589294 0.024476334 0.075135864 -0.06862023
-0.04884924 0.019315993 0.04945135 0.03857765 0.02007851 0.008143744 0.06396827 -0.0100492155
-0.062600434 -0.00068905635 -0.007972854 -0.048776787 -0.019739833 -0.04089853 0.012750871 0.0014432393
-0.00043600958 -0.017054364 -0.019239822 0.0083763525 0.028739784 -0.014314853 0.07871311 0.018656297
0.03756957 0.046394903 0.061970755 -0.050718173 0.006932799 0.055529684 -0.033827763 0.009173425
0.03266673 -0.031950377 -0.020347152 -0.024854068 -0.022944607 -0.018635372 -0.038547147 0.040967587
0.012531703 -0.005551925 0.07907652 0.086452566 -0.07322252 -0.083371036 -0.0004650416 0.015956623
0.0489159 -0.020417286 0.021335253 0.0057778163 0.06176655 -0.04358292 0.08466286 -0.03611823
0.0728792 0.06232073 0.022667289 0.025469773 -0.0025428864 -0.009905933 -0.014881405 -0.034241367
-0.020115897 -0.039892342 0.018632684 0.017215883 0.011513485 0.041832354 -0.044445746 0.03203623
0.003260257 -0.04653851 0.05392113 -0.021246355 -0.04727244 -0.049279675 0.04744759 0.0054525803
-0.025847742 -0.011764105 -0.032744262 -0.015754087 -0.0062814862 0.0061556697 0.007096014 -0.05299228
-0.026158351 -0.055597704 0.045698754 0.024604836 -0.0035174896 -0.019919757 0.07969821 0.017040031
-0.0151652945 0.046368934 -0.05784949 0.03395479 -0.021549555 -0.05281489 0.032112893 -0.029898968
0.037025668 -0.014040328 0.07806236 0.08047373 0.056052767 -0.06131488 -0.06974068 -0.02298592
-0.06905595 -0.056289658 -0.070757374 0.0048672273 0.030959362 0.011795885 -0.039623242 -0.018697036
-0.05770869 -0.012625169 0.06990182 0.00068801676 0.0130822975 -0.023635 -0.009291592 -0.029128492
00000000: 8cf5 003c af5f c2bb 5853 35bd dc19 17bd
00000010: b27f e43c 5c6c 903d f7e1 71bd 6a40 f53c
00000020: 96cb c53c c2a1 86bc 987d 02bd aa7e 463d
00000030: f297 45bb d1b1 baba 64a5 c13c bebf 9e3d
00000040: 2399 853d cca2 0a3d 0e07 1dbd cc80 643d
00000050: 1302 513d 2704 fb3c 2aa4 68bd 2b42 123d
00000060: 0588 2c3b 2ea3 b83d 2241 ae3d 3d08 0dbd
00000070: 9301 83bd 9065 093c 8145 3a3c c2d7 003c
00000080: 62e1 693c 9d40 9c3c 6ac5 6f3d 0195 a93c
00000090: aa46 953c 6b7d 96bc 5811 febc 7229 eebb
000000a0: e1b5 97bc 3251 423d 3804 c73c d2e7 0e3d
000000b0: 3c9f fc3b a172 fd3c ef33 33bd c33e 133c
000000c0: be91 3d3d b9c5 253d fb00 cebd 5464 b3bd
000000d0: ec88 813d e4d7 703d e6f2 a0bc 23a9 c53a
000000e0: 433e 753b 6a15 2f3d e8d6 2e3d 8a53 e13b
000000f0: 45f1 e639 4793 8fbc 2356 7bbd ba87 7e3b
00000100: 8309 67bd 7729 35bd c612 e93b 31f7 893d
00000110: d04c ec3c bed0 7ebc 946d b83d c56a 52bc
00000120: e3b1 babc e885 df3c 2cc1 fcbc 4bed 8b3c
00000130: 82d5 443d b2bd dfbc 0896 f3bc 6829 05bd
00000140: 45e0 1a3c a9b7 6bbd 496a 9a3b 0c1e 9dbd
00000150: 33a6 cf3c 4a2f 68bd 9f40 2bbb 67fb 0abb
00000160: 2c72 4fbd 2701 d2ba 733a 11bd 3fb4 773d
00000170: c209 9b3c 3aac 903d bb78 2dbd 051b 053b
00000180: 350e 8a3c ba69 983c f260 89bd 03d3 30bc
00000190: 58cd 6e3d 15bc ad3b d6b8 88bd 33c1 5ebd
000001a0: acbb 303d df46 313c ac9a 563c 99f2 94bc
000001b0: d425 123d 481b 4dbc a816 63bd 153a 1e3d
000001c0: 3c51 803d 8c13 c53b 3d0b 813d 83a8 853d
000001d0: f310 2d3d d1fe 2dbc 3cfe 8638 d18b 433c
000001e0: 8224 163d 436b 463d e690 e6bc c25a 4e3c
000001f0: b08a 32bd 9882 c83c d5e0 993d c388 8cbd
00000200: 2416 48bd 933c 9e3c 808d 4a3d 9903 1e3d
00000210: b07b a43c 576d 053c cc01 833d 77a5 24bc
00000220: a834 80bd caa1 34ba 93a0 02bc 2bca 47bd
00000230: 6eb5 a1bc 3885 27bd 07e9 503c 132b bd3a
00000240: 3798 e4b9 98b5 8bbc d59c 9dbc f83c 093c
00000250: b26f eb3c d888 6abc 5734 a13d 17d5 983c
00000260: 8de2 193d 9508 3e3d 0cd5 7d3d dcbd 4fbd
00000270: 882c e33b 1873 633d fb8e 0abd 224c 163c
00000280: 8dcd 053d 66de 02bd 12af a6bc c29a cbbc
00000290: 54f6 bbbc 35a9 98bc 9de3 1dbd a1cd 273d
000002a0: c651 4d3c ecec b5bb dff2 a13d 0b0e b13d
000002b0: b0f5 95bd 6fbe aabd d4d0 f3b9 77b7 823c
000002c0: 0a5c 483d 2742 a7bc 45c7 ae3c d653 bd3b
000002d0: ecfe 7c3d 0184 32bd b963 ad3d b6f0 13bd
000002e0: b141 953d 0644 7f3d c0b0 b93c fca5 d03c
000002f0: 8ea6 26bb 7f4c 22bc 23d1 73bc ad40 0cbd
00000300: 18ca a4bc 2766 23bd 92a3 983c 5308 8d3c
00000310: 0ea3 3c3c 6758 2b3d be0c 36bd 6c38 033d
00000320: 09aa 553b 2a9f 3ebd 67dc 5c3d d60c aebc
00000330: bfa0 41bd 7cd9 49bd 6758 423d 8fab b23b
00000340: a5be d3bc 3cbe 40bc d91e 06bd b70e 81bc
00000350: edd4 cdbb 80b5 c93b ae85 e83b 6f0e 59bd
00000360: 0a4a d6bc 6bba 63bd 9e2e 3b3d 1590 c93c
00000370: af85 66bb c22e a3bc d138 a33d 8997 8b3c
00000380: db77 78bc 5aed 3d3d 96f3 6cbd 2e14 0b3d
00000390: b188 b0bc 6d54 58bd cf88 033d aeee f4bc
000003a0: 3aa8 173d 6709 66bc 29df 9f3d 69cf a43d
000003b0: 9697 653d 5025 7bbd 34d4 8ebd f84c bcbc
000003c0: 356d 8dbd fc8f 66bd 3ee9 90bd 437d 9f3b
000003d0: 7d9e fd3c 8743 413c fb4b 22bd 872a 99bc
000003e0: f35f 6cbd ccd9 4ebc af28 8f3d 065c 343a
000003f0: 2257 563c 309e c1bc c33b 18bc e09e eebc

baseModel.11.bias f4 [32]
2.3864502e-06 1.06570815e-05 4.6680125e-06 -2.8126988e-05 3.5717956e-05 1.4250398e-05 1.8609422e-06 -7.6283786e-06
2.4279085e-05 2.9060247e-06 9.3518e-06 8.1183e-06 8.874494e-06 -1.6103735e-05 2.0725349e-05 5.8988594e-06
7.3678048e-06 -3.5460052e-05 1.3362016e-05 1.3336751e-05 -4.4467765e-06 2.844514e-06 1.9361381e-05 -6.0245247e-06
2.74378e-06 1.153567e-05 1.5125524e-05 -1.890601e-05 1.6722563e-06 -4.1365136e-05 -6.2724152e-06 2.6571222e-05
00000000: e726 2036 d1cb 3237 eca1 9c36 3ff2 ebb7
00000010: ddcf 1538 fe14 6f37 7dc5 f935 46f7 ffb6
00000020: f0aa cb37 2005 4336 ade5 1c37 d533 0837
00000030: a9e3 1437 8216 87b7 59db ad37 d1ee c536
00000040: f638 f736 f1ba 14b8 6c2d 6037 e9c0 5f37
00000050: 8535 95b6 61e4 3e36 406a a237 4626 cab6
00000060: c821 3836 5389 4137 a2c3 7d37 5998 9eb7
00000070: 4a72 e035 7a7f 2db8 a377 d2b6 44e5 de37
