Models/best_eeV3_0501.pth (torch, 800259 bytes, 60 tensors)

baseModel.0.weight f4 [64, 2, 3]
00000000: 1d76 3d3e e782 74be 1268 c8be 1586 9a3e
00000010: 7950 d3bd 99bc 33be c438 7b3d 889c 2bbe
00000020: 90b1 38be 2428 9d3c 5d3a c6be 3ece 16be
00000030: 6930 06be 9fa4 bd3e f5ae c1be 8fe2 873e
00000040: 8fc7 91bd cf75 9f3c 9cd8 c63e 9dbb 9f3e
00000050: b38b c2be c1e2 0abe bdee b83e 5186 823e
00000060: dbf9 09bd 44f9 7dbe 6e9f 943e 94db 99be
00000070: 50a0 82bc bc4a d53d 52fa ffbd 7975 7c3e
00000080: 2caf 743c 3f5c 3a3e 3291 cf3e 22b9 20be
00000090: 49f1 593e cc95 53be 8603 a3be 2a3d fb3d
000000a0: 4482 6fbe 9e0d 5bbe f9bc 63be 0717 02bd
000000b0: b38e a7be 9164 65be b918 c3bd d4cc 503e
000000c0: 6777 003e f2d5 19b8 1854 9bbe a659 303e
000000d0: 3a89 703e 1f25 bcbe 4ea9 06be ef0d 30be
000000e0: de57 4d3e 0ef1 623e 32f9 a63e eb6d a53e
000000f0: 50f5 91be e7b3 44be 90e7 c1bc a69c c2be
00000100: 556f d4bd 1756 4b3e 12b5 593e 7f82 dc3d
00000110: 5c8a 6fbe 2583 2bbe c7c6 b83d 4ab6 953d
00000120: 1295 7ebe 4159 093d e53e 5f3e 2962 963e
00000130: 9d10 bfbe 0926 a23e 72d9 7c3e a9d3 17be
00000140: 1cbb 383e 1443 dc3d 64bd bdbe 3803 d4be
00000150: 643f 83be ecf1 763e 05fe 6cbe b5f7 b13e
00000160: f2ca 51be d34d c3be 9ff7 afbe 4d52 34bc
00000170: a0e0 cf3d a79d a73d f4c5 88be 3670 2e3d
00000180: 8f33 123e 3e85 50be 0567 38be 1d0b 1a3d
00000190: e3cc a83e a9d1 b1be 5ef8 50be 3b8b 463e
000001a0: 526d c33d 31c7 9abe efa4 5f3e f7d6 63be
000001b0: 8762 b0be a824 003e 01ce f9bd 0c02 9a3e
000001c0: 0269 4b3e ccbe 053e d5c1 a4be fe45 53bd
000001d0: 4aaa a9be b82d 0f3e f43d 16be 5622 fdbd
000001e0: 3748 81bc 0ffe 36be 065c 57be a102 9bbd
000001f0: eb0e d0bd 8f01 fabd 7ef2 b7be 3a1b 48be
00000200: f1fd 7d3d 4ad8 d23e 421c 8e3e b010 94be
00000210: 7d5d 353e f475 853b bd24 b63e 8c5b 783d
00000220: 3fa6 57be d81b 973d edfd 12bd 972b c6be
00000230: b87b c8be 4e18 513d 8b3e 833e f195 46be
00000240: e610 28be d8ce 943e 8971 9f3e f3d3 cfbe
00000250: 1828 84be 023f 86be 080c 20bd b6a5 abbe
00000260: 862e 3cbe a5bd 8abe 5345 ebbd 04a2 a03e
00000270: 88c2 803e 0d81 a93d 53ae a63e 58a6 b2be
00000280: 6f7a c9be a44a 15be 0ca4 16bb e7ed cb3d
00000290: 2323 ccbd 952b 053c 516f 6bbe bd3e 073d
000002a0: ea49 99bb 71a0 cabe add7 86be 3cd5 83be
000002b0: 70c1 81be c584 8c3e b7cb 543e 9bfa 9bbe
000002c0: 1361 8e3e 6f74 a4be 6179 abbe bc23 863e
000002d0: 9ca5 363e 637e b53e b59e 3fbd 0c01 30be
000002e0: 9444 013e a2b7 ff3d 31f4 513e 3d91 1abe
000002f0: 48d3 9aba 381e bebe 19b8 b03e c4bf 8f3e
00000300: 2bec 1c3e 31fe 92bd da5d bfbe c5dc 923c
00000310: 6b9e 613d 6d31 1abe 12ea 77be 9e27 57bc
00000320: f1cc 66be 8edc 723e 3304 b93e 8d02 dcbd
00000330: 4b25 fd3c 48d6 aabe 8625 023d 604c a73d
00000340: 97e0 c43c b266 fa3d ce3c 353e 96ae 19be
00000350: f684 5c3e 85ee b63e 372d 8cbe b877 fabd
00000360: deb3 99bd 47d5 56be 291d 8bbe 7d69 97be
00000370: 2da8 bb3e 5683 ad3e 3806 fb3d 159b 0b3d
00000380: a61f bfbd 4c9e 943e e0da a63e 364d d73d
00000390: 6465 b3be eb43 9fbe 7d7d 7a3e a9bc aabd
000003a0: e395 843e b14d c2be a939 0b3e 85be 863e
000003b0: 1131 363e 10f3 5a3e 0d9c 8bbd 5c8b d33e
000003c0: d0f8 8a3e da2f 9cbe 9df2 b7be 01ab 8a3e
000003d0: 6282 cb3e a536 cdbd fddd bebd 3370 29be
000003e0: 55f0 833e ee0b 693e f3cb 973e b4da 7ebe
000003f0: 1293 a93e 86af 12be cdc8 b2be 2a04 993e
0.18502088 -0.2387806 -0.391419 0.3018042 -0.10318083 -0.17552413 0.061333433 -0.1675893
-0.18036485 0.01918418 -0.38716403 -0.14727113 -0.13104405 0.37039658 -0.37828794 0.26540038
-0.07118141 0.019465355 0.38837135 0.31197825 -0.37997207 -0.13563062 0.36119643 0.254931
-0.033685546 -0.24802119 0.29027885 -0.30050337 -0.015945584 0.10414645 -0.12498917 0.24654187
0.014934342 0.18199252 0.40540463 -0.15695623 0.21283449 -0.20662612 -0.31838626 0.122675255
-0.23389536 -0.21391913 -0.22240056 -0.03176024 -0.32726058 -0.22401644 -0.095262 0.20390636
0.12545548 -3.6677295e-05 -0.30337596 0.17221698 0.23489848 -0.3674707 -0.13150522 -0.17192815
0.2005305 0.22162268 0.32611996 0.32310423 -0.2850747 -0.19209252 -0.023669988 -0.38010138
-0.103727974 0.1985706 0.21260479 0.10767078 -0.23392624 -0.16749246 0.09022289 0.073101595
-0.24861553 0.033532385 0.21801336 0.29371765 -0.37317362 0.31669644 0.24692324 -0.14826836
0.18040127 0.10754982 -0.37058556 -0.41408706 -0.256343 0.24115723 -0.23143776 0.34759298
-0.20487574 -0.38145313 -0.34368607 -0.01100595 0.10150266 0.08184367 -0.26713526 0.04258748
0.1427748 -0.20363328 -0.18008049 0.037608255 0.32968816 -0.3473027 -0.20407245 0.1938905
0.095423356 -0.30230096 0.21840261 -0.22249971 -0.3445017 0.12513983 -0.12197495 0.30079687
0.19864276 0.13061064 -0.32179132 -0.05158042 -0.33137733 0.13982284 -0.1467207 -0.12360065
-0.015781505 -0.17870353 -0.21031198 -0.07568861 -0.101590954 -0.122073285 -0.35927194 -0.19541636
0.062009756 0.4118064 0.27755934 -0.28918982 0.17711444 0.004072899 0.35574904 0.06063418
-0.21059512 0.07378358 -0.035886694 -0.3870513 -0.3915689 0.05104857 0.25633654 -0.19393136
-0.16412696 0.2906406 0.31141308 -0.40591392 -0.2581184 -0.26219946 -0.039073974 -0.33524865
-0.18377122 -0.27097812 -0.11487832 0.31373608 0.25148416 0.082765676 0.32554874 -0.34892535
-0.39351222 -0.14579254 -0.0022985963 0.09957486 -0.09967639 0.008128067 -0.22991683 0.033018816
-0.0046780007 -0.39575532 -0.26336423 -0.25748622 -0.25342894 0.27445045 0.20780836 -0.30464634
0.27808437 -0.32120082 -0.33491042 0.26199138 0.17836612 0.35447988 -0.046782214 -0.171879
0.12623817 0.12486197 0.20503308 -0.15094467 -0.0011812234 -0.3713243 0.34515455 0.28075993
0.15324466 -0.071773894 -0.3737629 0.017927537 0.05508272 -0.15057917 -0.24210384 -0.013132004
-0.22539116 0.23716947 0.36136016 -0.10742674 0.030901572 -0.3336661 0.031774066 0.08168864
0.024032874 0.12226619 0.17698976 -0.15008005 0.21535096 0.3572885 -0.27378246 -0.12229866
-0.0750501 -0.20979796 -0.27170685 -0.2957267 0.36651745 0.33889264 0.122570455 0.034083445
-0.09332208 0.2902702 0.32588863 0.10512774 -0.35038292 -0.31106505 0.24461932 -0.08336765
0.25895604 -0.379499 0.13596214 0.2631723 0.17792155 0.21381783 -0.06816874 0.4131726
0.27142954 -0.30505258 -0.35927287 0.2708359 0.39747912 -0.10020188 -0.09319685 -0.16546707
0.25769296 0.22758457 0.29647788 -0.24888116 0.33120018 -0.1432477 -0.34918824 0.2988599

baseModel.0.bias f4 [64]
00000000: 35d9 38bd 6bfb fcb7 f9ef 103e 2701 9fbd
00000010: a14e bbbd 8b51 a539 70c8 163c 744e 87b8
00000020: 2980 bcb8 f552 45b8 00dc b7b8 8573 29be
00000030: 2b9c 4d3e 28ad 8839 ec00 1c3b 486e 383e
00000040: e100 47bb 6da8 18be bb94 5d3d 6047 203e
00000050: 0966 a73d 296a 2d39 05fc 1f3a a4b0 423b
00000060: 579d 8b3d 82a3 0fbd 763d a8b8 635e 183c
00000070: 192d 963d ec79 36b9 112b 44bd c613 413e
00000080: d036 2e38 dab8 983d a760 8cb7 8b7e 1cb9
00000090: d321 133e 3f9b 80bd eb42 a6b7 fa0e 73bb
000000a0: fe38 db3d 12a3 83b9 6393 e7bd 036d 763d
000000b0: 5e0c 31bd 9efc c1b8 72de 483e 1a22 a1bb
000000c0: 9afd 94b9 4a26 223e 30b8 e43c 9490 02be
000000d0: e5fd 153d f83c ba38 5d06 433e ad88 15bd
000000e0: 43f4 27bd c0ea ba3b 3cae 8d39 3d18 afb9
000000f0: 1520 7539 4c34 8bb9 7ace e83c e133 5abe
-0.04512902 -3.0157817e-05 0.14154042 -0.07763892 -0.09145857 0.00031532007 0.009203061 -6.451915e-05
-8.98841e-05 -4.704572e-05 -8.767098e-05 -0.16547973 0.20079105 0.00026068953 0.002380426 0.18010819
-0.0030365514 -0.14908 0.05409692 0.15652227 0.081737585 0.00016538113 0.00061029225 0.0029707337
0.068171196 -0.035068043 -8.022312e-05 0.009299847 0.073328204 -0.00017402292 -0.047892634 0.18855199
4.153588e-05 0.07457133 -1.6734308e-05 -0.0001492446 0.14368372 -0.06279611 -1.9819903e-05 -0.0037087784
0.1070423 -0.00025107764 -0.11307409 0.060162555 -0.043224685 -9.250011e-05 0.19616106 -0.0049173953
-0.00028417708 0.15834919 0.027919859 -0.12750465 0.036619086 8.8805275e-05 0.19045396 -0.036507297
-0.04100443 0.005704254 0.0002702343 -0.0003339666 0.00023376972 -0.0002655111 0.028418768 -0.21308853

baseModel.1.weight f4 [64]
00000000: 9ee8 783f 3da4 7c3f 3840 793f 9e69 7a3f
00000010: 5010 753f 9bfc 793f 2821 743f 110e 7a3f
00000020: 7d68 763f bb8f 813f 4d74 793f ece6 773f
00000030: 86ec 723f 4d9f 7d3f caa4 7a3f b437 793f
00000040: 7ba6 783f 0440 733f 5e84 793f 78c4 7b3f
00000050: 7b02 7f3f 94f0 7c3f 325b 7f3f 1bc9 803f
00000060: 3c3f 823f 6edf 7c3f c945 803f 56ef 703f
00000070: 7432 7d3f 2a99 723f 4c78 803f 22f4 753f
00000080: ae3f 763f 9768 7e3f 8af8 7c3f 5f9e 723f
00000090: 01d3 7a3f bddf 803f ebcb 783f 4e85 7c3f
000000a0: a9b2 803f 91f4 743f e896 763f ef83 773f
000000b0: b98b 783f 0e76 823f fbae 753f c95e 763f
000000c0: 4639 833f 663b 773f 8322 7f3f 7e78 7b3f
000000d0: ba39 763f 63f1 7c3f 2f3a 803f a146 7b3f
000000e0: 40d4 783f f4e7 783f 8ef5 713f 313d 733f
000000f0: def9 743f 599b 773f 6871 733f 6281 6f3f
0.97229946 0.9868811 0.97363615 0.9781741 0.95728016 0.9765107 0.9536309 0.97677714
0.96253186 1.0121988 0.97443086 0.96836734 0.94892156 0.990712 0.979077 0.9735062
0.9712903 0.95019555 0.974676 0.9834666 0.9961316 0.98804593 0.9974853 1.0061373
1.0175548 0.98778427 1.0021297 0.941152 0.9890511 0.9476496 1.0036712 0.9607564
0.9619092 0.9937834 0.9881674 0.94772905 0.97978216 1.006828 0.97186154 0.98640907
1.0054523 0.9568568 0.96324015 0.9668569 0.970882 1.0192277 0.95970124 0.9623838
1.0251853 0.9657501 0.99662036 0.9823073 0.96181834 0.98805827 1.0017756 0.98154646
0.9719887 0.9722893 0.9451531 0.95015246 0.9569377 0.96721417 0.9509492 0.935568

baseModel.1.bias f4 [64]
00000000: d730 b1bc b5bb 10bc 8bb7 cabb 5f92 31bd
00000010: 4dd8 093b 61a4 56bc a8a7 f7bc 98ec 24bc
00000020: c58d f4bb ef2c 86bc 3379 06bc fa87 543b
00000030: bd69 c7bc b1f2 15bc 4b37 e9bb edb7 9cbc
00000040: fa0d 94bc 5a28 d83a 464e 0abd 1b56 a3bc
00000050: dab8 b1bc b855 57bc 3202 60bc ec29 37bd
00000060: e2ca 83bb 39a7 2fbc e602 9abc c4d1 88bc
00000070: 00a1 cbbc 7b32 a5bc 82e2 71bc da38 e5bb
00000080: 1358 163b 8a09 60bc d77e 97bc cc0b 64bc
00000090: 5b65 efbc e5a7 7ebc 342c 07bd ea8f a1bc
000000a0: b2fa 4fbd 7996 4fbd 32a6 173b f742 11bc
000000b0: 9f7a b4bc 0b61 62bc bc1c 35bc 2163 12bc
000000c0: 8763 3dbc dabb 73bc f024 ddbc 9612 04bd
000000d0: ac35 4fbc cd7a 66bc c106 bdbb 81a4 a5bc
000000e0: 9694 88bb f048 a33b fe94 f0bb 81af bfbb
000000f0: a2dc e6bb 2113 ba3b 8269 d0bc e496 a5bc
-0.021629734 -0.008833815 -0.006186431 -0.04335248 0.0021033466 -0.013100714 -0.030231312 -0.010066174
-0.0074631893 -0.016378848 -0.008207607 0.003242968 -0.024342412 -0.0091521 -0.007117187 -0.019130671
-0.01807307 0.0016491518 -0.033766054 -0.01993852 -0.02169459 -0.013142996 -0.013672398 -0.044717714
-0.0040219883 -0.010721021 -0.01880021 -0.016701587 -0.024857044 -0.020165673 -0.014763476 -0.0069953026
0.002294068 -0.013674149 -0.0184931 -0.013918828 -0.029223135 -0.015542959 -0.03300114 -0.019721944
-0.05077619 -0.05068061 0.0023139832 -0.008866063 -0.022031127 -0.013817082 -0.011054214 -0.008934767
-0.011559374 -0.01487633 -0.026995152 -0.032244287 -0.012647074 -0.014067364 -0.0057686274 -0.020220043
-0.0041681034 0.00498306 -0.00734198 -0.005849779 -0.0070453444 0.00567855 -0.025440935 -0.020213552

baseModel.1.running_mean f4 [64]
00000000: d400 3bbd 7c09 70b7 2cb6 113e 0c59 a0bd
00000010: 28b0 bcbd cec1 b239 e9de 1a3c 139f 9ab8
00000020: 2327 3138 8439 9cb8 c520 2bb8 143f 2abe
00000030: 2c6e 4e3e ba25 2939 2047 213b f241 393e
00000040: 87f7 4dbb ed6e 19be aef1 5f3d d716 213e
00000050: 7cc5 a83d d92a 6b38 d5a1 253a bca5 4b3b
00000060: 75df 8c3d 5d96 11bd fe4a 86b8 5a70 1c3c
00000070: f680 973d 3868 31b9 1e7e 46bd 1ae7 413e
00000080: 4c14 9538 6e0b 9a3d 2901 5938 9cdb 5bb9
00000090: 19ec 133e 7cd8 81bd d12d 37b8 f17c 7bbb
000000a0: d6ae dc3d d58f 87b9 c307 e9bd 32f6 783d
000000b0: 1c46 33bd 0c5e 02b9 9ab1 493e 2efc a5bb
000000c0: 7b16 f1b8 3df3 223e d973 e83c 1750 03be
000000d0: b915 183d 76a6 a538 dfd4 433e 617d 17bd
000000e0: 9810 2abd 6a73 c03b e032 c539 9841 c3b9
000000f0: 30dc 8039 8f6e 80b9 3874 ec3c d70b 5bbe
-0.045655087 -1.4307323e-05 0.1422965 -0.07829484 -0.09213287 0.000340952 0.00945256 -7.372922e-05
4.2236537e-05 -7.449373e-05 -4.0800096e-05 -0.16625625 0.20159215 0.0001613115 0.0024609044 0.18091562
-0.0031428055 -0.14983721 0.054673843 0.15731369 0.08240792 5.606827e-05 0.00063183653 0.0031074127
0.068785585 -0.03554379 -6.403586e-05 0.009548271 0.07397644 -0.0001691886 -0.04846012 0.18935814
7.108654e-05 0.07521711 5.1737912e-05 -0.00020967278 0.14445533 -0.06340119 -4.367327e-05 -0.0038374031
0.10775535 -0.0002585637 -0.113784336 0.060781665 -0.043768033 -0.00012432801 0.19696656 -0.0050654626
-0.00011495963 0.159131 0.028375553 -0.1282352 0.03713009 7.898819e-05 0.19124173 -0.036984805
-0.04151973 0.0058731334 0.00037612673 -0.0003724217 0.00024578115 -0.00024496435 0.028864011 -0.21391235

baseModel.1.running_var f4 [64]
00000000: ce82 7137 69fa 3637 c42f 0837 c4d6 c037
00000010: 2ca9 f236 ccd6 3037 0954 4b37 bcf3 2e37
00000020: 2297 2b37 c4e5 9937 1674 6437 930e a836
00000030: b1d1 2337 3d02 9637 6ba5 7137 ae10 e136
00000040: e616 1937 aaad de36 067e 5137 dcf7 4437
00000050: d605 c736 7957 ad37 4a10 fe36 781a a237
00000060: 380c da37 7ee0 6b37 2c3a da37 52b2 1336
00000070: 99df 9d37 21f5 7537 57b8 1c37 3ba2 5137
00000080: 5b7a ef36 0449 6037 bed0 9d36 a12c 0937
00000090: ccce a237 1cf8 5237 02fb 8337 f5f7 7637
000000a0: 438c ba37 53f4 2537 3505 5a37 1848 aa37
000000b0: 7530 8237 e5c5 df37 d70b 4737 b467 5837
000000c0: 38d8 b137 746f f036 6919 8a37 743d 4d37
000000d0: 5e64 8137 58f2 1637 2cd1 5c37 22c7 3637
000000e0: 4127 2337 6219 8037 7b1f 6937 13c7 d336
000000f0: ac35 9537 fce8 0837 47e3 a236 ff89 ed36
1.4395175e-05 1.09063485e-05 8.117353e-06 2.2988192e-05 7.231856e-06 1.0540429e-05 1.2119309e-05 1.0427957e-05
1.0227583e-05 1.8346014e-05 1.3616887e-05 5.008487e-06 9.76438e-06 1.7882436e-05 1.4403234e-05 6.7074643e-06
9.124842e-06 6.6363327e-06 1.2486713e-05 1.174022e-05 5.9313415e-06 2.066394e-05 7.571686e-06 1.932423e-05
2.5993315e-05 1.405936e-05 2.6014714e-05 2.2008503e-06 1.881998e-05 1.46602115e-05 9.341245e-06 1.2495143e-05
7.136999e-06 1.3368441e-05 4.7032654e-06 8.176227e-06 1.9408202e-05 1.2574743e-05 1.5733302e-05 1.4720475e-05
2.2238242e-05 9.891653e-06 1.2995025e-05 2.029915e-05 1.5519772e-05 2.6675823e-05 1.1864081e-05 1.28987485e-05
2.1200729e-05 7.165532e-06 1.6462714e-05 1.223326e-05 1.5424735e-05 8.997122e-06 1.31617235e-05 1.089441e-05
9.724697e-06 1.5270609e-05 1.3895212e-05 6.3114653e-06 1.7787177e-05 8.160478e-06 4.854435e-06 7.0792153e-06

baseModel.4.weight f4 [64, 64, 3]
00000000: ccd9 2e3c fc44 56bb 3b0c 2fbd ffd6 13bd
00000010: 62bf b83c c296 aabc 007f 9c3b bd39 5a3b
00000020: 3c55 88bd 00b8 91bc dc30 9ebc 4dfe eebc
00000030: 244f 2ebd fceb fe3c 60cb 6abd d4f0 d2bc
00000040: 86db 8cbd f236 753d f173 8f3d 651c 513d
00000050: e398 6b3d 949b 5fbc 777a 59bd 141a 353d
00000060: a467 71bd b4bf 643d a89f 74bd 81c9 0abd
00000070: 5187 3ebc 7e63 433c 0569 5fbd d02d 683d
00000080: 3c40 2fbd 95c9 e03c d7ea 133b dac6 d03c
00000090: 07af c63c 37b1 523b 106a 2dbd 3146 413d
000000a0: efa8 303d c3f3 cbbb fe21 4e3d 60db 59bd
000000b0: d233 2dbc 88f6 13bc d898 5abd ac82 14bc
000000c0: b66c 5b3b b2ed a73c 3c5a 12bd 0027 013d
000000d0: 1b72 64bd 1d44 8d3c 59c2 4c3d a795 86bd
000000e0: df90 013c ee78 db3c e9f7 09bd 2745 113d
000000f0: 5360 053d 59be e83c c5b0 b23a 1901 613d
00000100: e291 2dbd 77ba a33c 8da2 a83c 1e42 65bd
00000110: a208 2b3b 6967 2e3d 51e5 50bd 1df5 63bc
00000120: db83 793d 3168 903d b977 6f3d a04a 9f3c
00000130: cc31 aa3d af6b 37bd 4edb 00bd f308 23bd
00000140: 4fb6 063b b18a 803d 82ab aa3d 6e13 40bd
00000150: c392 763d d0d7 983d d904 0ebd e400 55bd
00000160: 95f9 9f3c f90b ae3c d7b7 af3b 9cc6 353d
00000170: 86c9 01bd e589 56bd 4ad3 27bd 77a5 75bd
00000180: 5d25 863d d957 a2bc fc9a 0ebc acc8 4b3c
00000190: c7c9 383d 590a 06bd cb91 4a39 4855 653d
000001a0: 7f1a d8bc 4c0d e83c 2486 22bc 84cd fa3a
000001b0: 9e6b 1dbd 7234 a3bc 18ab 043d 3bce 413d
000001c0: f49b 333d 08ba 1abd 445d 743d ca25 403c
000001d0: 0b51 6b3b 54e2 14bd b8c6 04bd b261 51bd
000001e0: 0ef7 363d 5a05 823d 6700 943d 1a95 3a3d
000001f0: c4bb b6bb 3865 4dbd 19e8 563d afd4 833d
00000200: 87cc 21bd 7d0e 3bbd c754 5e3d 4313 10bd
00000210: d163 8dbd 4f91 8e3d 6085 573d 1919 01bd
00000220: d015 30bd d9ca fe3c b90a 83bd 860b 71bd
00000230: f579 fc3a 79c1 9cbd 7bbf 553d 69f1 5cbd
00000240: bc2e 043b 678a 1c3d 8bcb 0abd 193b 27bd
00000250: 8899 d6bc 27dd 0b3d e8a7 31bd 5ca2 703d
00000260: 4f9f 5dbd 7d3a 663d 8739 84bc 4b1d 78bc
00000270: b082 74bd da1d 4dbd 3f2f 34bc 6ddd 773d
00000280: a933 1abd 97c8 4f3d f113 65bd 427c 2a3d
00000290: 36f3 753d 3d7d 56bd d9b1 af3c 529d 24bd
000002a0: 118c e13c 01b8 1fbd 70cf 793d 86f5 b63c
000002b0: e45e 5b3d 0786 843d 8b75 203d b2bb 5cbd
000002c0: a5dc 8e3d 37b5 82bc 1b2a 47ba 8ec0 883d
000002d0: 7f65 66bd 4da5 543c 9eb6 523d 12ed 7abd
000002e0: f960 9bba f283 813d da5e 88bc 8aa6 47bd
000002f0: 8520 7bbd c7fe 93bc ed6d 73bd ba78 1c3d
00000300: 555d 243d f4b0 123c b81f 0fbd 5a6f 34bc
00000310: cf36 4dbd 7ac5 9ebd f273 d23c 2416 8cbd
00000320: 5b4c 2d3d aaf6 c63c a4e4 c73c 14fa 26bd
00000330: f341 f2bc e1f6 623c 87f7 05bd d580 47bd
00000340: 78a6 a5bd f5c7 503d 5575 4d3d caa3 0c3d
00000350: 2833 c3bc 4fb0 673d 3cbb 2b3d cdc7 673d
00000360: fb98 8ebd 0934 0d3d 71b2 6bbd 5df8 88bc
00000370: 7914 3e3d 34ce 81bc 7df2 88bd ff09 5abd
00000380: f326 89bd 75c0 363d 3bc1 8e3d 46df b43c
00000390: 0072 60bc 56cd 5ebd ece9 403c d7f1 6e3d
000003a0: 5bb1 abbd d8e0 01bd c212 193d 3683 3bbc
000003b0: 2a95 b23c 4821 43bd c7be 913d 4ede c73c
000003c0: 80a1 383c 83a9 dc3b 356b 4abd 7da0 1bbc
000003d0: 1815 803d a74d 063d 31b9 b63c 3bf8 38bd
000003e0: 75ac 7c3c dcf0 c6bc 7a49 ba3c 8f41 4dbd
000003f0: 8a24 dc3c a871 09bb 648d 79bc 6a94 5dbd
0.010672044 -0.0032694926 -0.042736273 -0.036093708 0.022552196 -0.02082384 0.004775882 0.0033298575
-0.06656882 -0.017787933 -0.019310407 -0.029173994 -0.042555943 0.031118385 -0.05732286 -0.025749601
-0.06877808 0.059866853 0.07004536 0.05105247 0.05751885 -0.013647933 -0.053095307 0.044214323
-0.05893673 0.055846885 -0.059722573 -0.033883575 -0.011628942 0.011925576 -0.054543514 0.056684315
-0.042785868 0.027439872 0.0022570395 0.025485445 0.024253381 0.0032149085 -0.042337477 0.04718608
0.043129858 -0.006224127 0.050325386 -0.053187728 -0.010571437 -0.009030946 -0.05336842 -0.009064358
0.0033481545 0.020499084 -0.035730585 0.031531334 -0.055772882 0.017244393 0.049990032 -0.06571513
0.007908075 0.026791062 -0.03368369 0.03546634 0.032562565 0.028411077 0.0013633004 0.054932687
-0.042375453 0.019986374 0.020585323 -0.055971257 0.0026097675 0.04257909 -0.050999943 -0.01391342
0.060916763 0.07051123 0.058463786 0.019444764 0.08310279 -0.04478043 -0.031459145 -0.039803457
0.0020555442 0.06276453 0.08333494 -0.04689353 0.060198557 0.07463038 -0.03467259 -0.052002802
0.01952819 0.021245943 0.0053624916 0.04437886 -0.03168633 -0.0523776 -0.040972985 -0.059972253
0.06550095 -0.01981728 -0.008703943 0.012437981 0.045114305 -0.032724712 0.00019318533 0.055989534
-0.026379822 0.028326653 -0.009919677 0.0019134735 -0.03843271 -0.019922469 0.03238973 0.047315817
0.0438499 -0.03777507 0.059659258 0.01172776 0.003590646 -0.036348656 -0.032416075 -0.05111856
0.044669203 0.06348677 0.07226639 0.04555235 -0.0055765826 -0.050145358 0.05246744 0.064370506
-0.039501693 -0.045668114 0.05428007 -0.03517462 -0.06903804 0.06961309 0.05261743 -0.031518076
-0.042989552 0.031102585 -0.063985296 -0.05884888 0.001926242 -0.076540895 0.052184563 -0.053941164
0.0020169457 0.03821793 -0.03388552 -0.040827844 -0.026196256 0.034146454 -0.04337302 0.058748588
-0.054107007 0.056208123 -0.016140712 -0.015143703 -0.059694946 -0.050077297 -0.0109975925 0.060513902
-0.037646923 0.050728407 -0.05592722 0.041622408 0.060046397 -0.05236553 0.021447109 -0.040189095
0.02753261 -0.03899384 0.060988843 0.022333872 0.05355729 0.06470876 0.039174598 -0.053889938
0.06975678 -0.01595555 -0.0007597522 0.06677352 -0.056249138 0.012978864 0.05144369 -0.061261244
-0.0011854462 0.06323995 -0.016646791 -0.04874281 -0.06131031 -0.018065823 -0.059431005 0.03820107
0.04012807 0.008953322 -0.03494236 -0.011012876 -0.050101098 -0.077525094 0.025690053 -0.068401605
0.042309146 0.02428754 0.024401017 -0.040765837 -0.029572463 0.013852806 -0.032706764 -0.04870685
-0.08088392 0.050971944 0.050160725 0.03433589 -0.023828104 0.056564625 0.041926607 0.05658703
-0.069627725 0.034473453 -0.05754322 -0.016719991 0.046406243 -0.015845396 -0.06686876 -0.05323219
-0.06696882 0.044617135 0.069704495 0.022079121 -0.013699055 -0.054395042 0.011774521 0.058336105
-0.08383437 -0.03170857 0.037371404 -0.011444857 0.021799643 -0.04763916 0.07116466 0.024397995
0.011268973 0.0067340746 -0.049418647 -0.009498713 0.06254023 0.0327889 0.022305103 -0.045158606
0.015421976 -0.024284773 0.022740114 -0.05011135 0.026872892 -0.0020972285 -0.015231464 -0.054096617

baseModel.4.bias f4 [64]
00000000: 611e 8136 bcc7 4c36 99cf 89b5 5a85 b837
00000010: 44ee 64b5 4efd 1fb5 2ca4 e535 6c7f 3db7
00000020: 8fd9 0a37 ddbc c3b6 624b 93b7 a034 8137
00000030: 9a80 0637 e341 f5b5 1b16 79b6 e779 8336
00000040: 39e0 8eb6 4e36 2db5 b4d5 a5b6 e770 a0b5
00000050: a867 a3b6 6f21 f136 babc 9037 7571 da35
00000060: 2ade bcb7 3a95 e737 c380 f037 27e7 84b6
00000070: 163e ae36 67b7 7c37 e690 3b37 dd93 60b5
00000080: 170c 4737 5e2f 88b5 a984 d9b6 88ea b9b5
00000090: e6ac fd34 fca9 c936 96c6 0ab5 c7ea 5336
000000a0: c9ee 2237 56f4 8136 6eb3 3fb6 8551 0d36
000000b0: 6067 0637 416c 14b5 60a3 cb37 b97a 09b5
000000c0: 374b 0eb5 5603 3136 2c47 9137 90bb 3e37
000000d0: 4398 a4b4 759f 5db5 0174 97b6 242e ed36
000000e0: 50f0 9cb7 e522 7234 3e99 4eb6 6645 adb5
000000f0: 8faf 96b6 1960 4c35 d5ad 4537 6928 0eb7
3.848036e-06 3.051463e-06 -1.0267714e-06 2.1996606e-05 -8.528334e-07 -5.960072e-07 1.710961e-06 -1.1294946e-05
8.276095e-06 -5.8334394e-06 -1.7558868e-05 1.5402504e-05 8.016965e-06 -1.8273098e-06 -3.7116758e-06 3.9182955e-06
-4.2580327e-06 -6.4526546e-07 -4.9422615e-06 -1.1953788e-06 -4.8698457e-06 7.186252e-06 1.725402e-05 1.6275286e-06
-2.25148e-05 2.7606835e-05 2.8670189e-05 -3.9608162e-06 5.192832e-06 1.5063072e-05 1.1179805e-05 -8.366167e-07
1.1864139e-05 -1.0146575e-06 -6.4825476e-06 -1.3851832e-06 4.7250722e-07 6.0100556e-06 -5.1697987e-07 3.1578109e-06
9.711549e-06 3.872944e-06 -2.856566e-06 2.1058088e-06 8.011091e-06 -5.5291827e-07 2.4275563e-05 -5.121506e-07
-5.3008574e-07 2.6376997e-06 1.7318489e-05 1.1368553e-05 -3.0658165e-07 -8.2560956e-07 -4.5136553e-06 7.068522e-06
-1.8708553e-05 2.2550701e-07 -3.078559e-06 -1.2909702e-06 -4.490786e-06 7.613576e-07 1.1782588e-05 -8.473268e-06

baseModel.5.weight f4 [64]
00000000: 8215 763f 71ab 7b3f 33df 753f 81e9 763f
00000010: ded5 6f3f b75d 7d3f 348d 773f 59a0 733f
00000020: 9c21 803f 31a7 803f a671 733f 40ec 7b3f
00000030: c2a2 793f 54cf 733f b7a0 733f 42d3 783f
00000040: 0dc4 803f f129 783f c933 7a3f 7937 7a3f
00000050: 3ab6 793f 7852 7a3f a102 773f 4494 733f
00000060: 35fd 773f a4f5 773f c1fd 7f3f 5ec5 793f
00000070: cb8f 7d3f 4c6a 793f 30dd 783f ab88 7a3f
00000080: ebe8 7b3f 5c85 723f cb78 733f 8b1c 783f
00000090: 2a51 783f 3775 773f 6633 763f 4bef 793f
000000a0: 7f0d 783f a937 753f 3cfb 7c3f 2bb5 753f
000000b0: 02f3 733f d631 803f 523a 7a3f b91f 773f
000000c0: 5ac1 793f 41c4 7a3f 2693 783f c56c 7a3f
000000d0: 5e26 743f 2383 773f 35cf 713f 5b28 7d3f
000000e0: 9379 763f 69c8 733f f5db 763f 5ee3 763f
000000f0: 14e8 783f 7d02 763f 08db 733f 3cc9 793f
0.9612657 0.98308474 0.960437 0.9645005 0.9368571 0.9897112 0.96699834 0.95166546
1.0010257 1.0051023 0.9509529 0.98407364 0.97513974 0.9523823 0.95167106 0.97197354
1.005983 0.96939 0.9773527 0.97740895 0.9754368 0.9778209 0.96488386 0.9514811
0.9687074 0.9685919 0.9999657 0.97566783 0.99047536 0.9742782 0.97212505 0.9786479
0.9840228 0.9473474 0.9510619 0.96918553 0.96998847 0.9666323 0.9617218 0.9763076
0.96895593 0.95788056 0.98820853 0.95979565 0.95292675 1.0015209 0.9774524 0.9653278
0.97560656 0.9795571 0.9709953 0.9782222 0.95371044 0.96684474 0.944568 0.988897
0.9627926 0.95227677 0.9642938 0.96440685 0.97229123 0.96097547 0.9525609 0.97572684

baseModel.5.bias f4 [64]
00000000: aaa5 c23b ed7c 473b 77b5 39bc bcc0 27bd
00000010: b9a3 28bc 1031 5a3c 3dd3 913b ad0e 803b
00000020: 3d14 70bb 65e1 143c 5cc9 1e3b 27a5 e2bb
00000030: 5b8e 473b 463a 2dbc b38a 62bc 3268 bfbc
00000040: c114 a2bc 1968 b53b 87c7 e9bc 5a81 0f3d
00000050: fc12 2ebc ecd5 44bc e217 d0b8 fe46 aebb
00000060: 9247 b83c 280d 253c 070b 8e3a 24d4 22bc
00000070: 303f 0ebc 315f b5bc 8c39 a3bc 1caf d8ba
00000080: d943 b93c 66a9 7ebc 4c28 44bc 7f6b f03c
00000090: 542f 473c eeb2 683c eea1 1cb9 8675 503b
000000a0: ac27 19bd 97aa aa3c 7f8d 093b d5bf f9bb
000000b0: d21d 083c 3dc8 8a3c 073c 143b 113f 8c3b
000000c0: 3fc9 763b 19f8 debb 8216 88bb dd63 963c
000000d0: f342 b6bc 6768 7d3c ca21 2b3c 474b bc3c
000000e0: 7712 6d3b 0d03 ce3b a23d f7bb 30a2 283c
000000f0: 2c6b 973b 632b 32bc abb1 c9bc 67de 753c
0.005940159 0.0030439452 -0.0113347685 -0.04095529 -0.010292941 0.0133173615 0.0044502304 0.0039079995
-0.0036633157 0.009086941 0.0024228906 -0.0069166603 0.003044984 -0.0105729755 -0.013827014 -0.023365114
-0.019785287 0.005536091 -0.028537525 0.03503547 -0.010624643 -0.012013894 -9.9226614e-05 -0.0053185215
0.022495065 0.0100739375 0.0010837027 -0.009938274 -0.008682057 -0.022140117 -0.019924901 -0.0016531679
0.02261536 -0.015543317 -0.011972498 0.029348133 0.01215728 0.014202816 -0.00014937643 0.003180833
-0.03739135 0.020833297 0.002098888 -0.007621745 0.008307891 0.016941184 0.0022618787 0.004279979
0.0037656573 -0.006804478 -0.0041530738 0.018358165 -0.02224872 0.015466786 0.010445068 0.022985114
0.0036174336 0.006286985 -0.007545189 0.010292575 0.00462093 -0.010874602 -0.024620852 0.015006638

baseModel.5.running_mean f4 [64]
00000000: cc1b a03d 213c f4bc 8f6d 913b f6e0 743d
00000010: 2f41 663e 1d73 80bd 5533 4d3e 3c63 0d3f
00000020: c6bc 303d 0605 acbd 8cf7 4f3d c125 0a3e
00000030: 87be 2bbf 048e 36be 1f51 383d 3fd3 9e3c
00000040: 2fc6 07be 4216 6f3e 2b1c 42bd 966e 1ebf
00000050: 8783 583d 7824 debd 036a e7be 5e18 85bc
00000060: d173 b93e 0e07 69bd cfd6 503d 94be a5bd
00000070: 4ea5 74be fab0 1ebd 7ce6 8f3d 1805 c83d
00000080: 4443 dfbe bfce c83e d376 e83d 566d e9be
00000090: 2e71 b4bc 7d10 093d 2831 f3be 63bc 4ebc
000000a0: 9665 ce3b bf7d 85be 6ed2 313e 5256 063e
000000b0: be3c 41bf 1c69 a43e 014a 903e d809 8c3e
000000c0: 269f b83e 22af cf3c cc75 02bd 5f8b c23e
000000d0: 1e38 0abe 0b97 8c3e 2687 403e d991 5e3c
000000e0: d269 d1bd ad68 d0be 523f 5f3c 5361 913b
000000f0: 54b3 9c3e d331 86be 3698 983e dd0e 303e
0.07817802 -0.029813828 0.004438109 0.059784852 0.22485803 -0.06271956 0.20039113 0.55229545
0.04314878 -0.08399396 0.05077319 0.13490964 -0.67087597 -0.17827612 0.044999238 0.01938784
-0.13259195 0.23348334 -0.047390144 -0.6188749 0.05285981 -0.108467996 -0.45198068 -0.01624697
0.36221173 -0.056891493 0.050986107 -0.080929905 -0.23891184 -0.038742997 0.07026383 0.097665966
-0.43606007 0.39220235 0.11350789 -0.4559123 -0.022026625 0.03346299 -0.4749844 -0.012618157
0.006298731 -0.260725 0.17365429 0.13118866 -0.7548331 0.32111442 0.2818146 0.2735126
0.3605892 0.025352065 -0.03185062 0.37996957 -0.1349797 0.27458987 0.18801555 0.0135845775
-0.10225262 -0.4070486 0.013625937 0.004436651 0.30605567 -0.26209888 0.29803628 0.1719317

baseModel.5.running_var f4 [64]
00000000: f4aa cb3d cd79 c33d a355 cb3d 639b f13d
00000010: 4586 c43d 5b22 c33d 4081 923d 0668 ed3d
00000020: 1251 cb3d 9b1e 0e3e 93a0 8b3d 7a38 7a3d
00000030: 3b53 8d3d 1970 713d 32fc 693d 48c9 393d
00000040: 4011 ee3c 981b ac3d d8fb df3d 388a e33d
00000050: 5c73 313d 70b5 293e 6ed3 e03d 39f2 1c3e
00000060: 27a8 a63d 1cd7 443d 2827 133d 5f83 b03d
00000070: 9dbd 253d f3ed d43d 9434 1d3e 3872 433e
00000080: 6d98 3c3d efed ec3d 4c27 1c3d a487 a13d
00000090: eb96 933d 3e46 cb3d ffb1 f43d a60f bd3d
000000a0: af8b 133d 02c2 b53d c243 0c3e 1522 b33d
000000b0: 963e d03d d64b 913d ce3b 723d b268 ae3d
000000c0: a4b9 aa3d 56ae 943d 0598 a43d c239 8a3d
000000d0: 6d80 d93d 944d a23d d3ba 7f3d d89d 2a3d
000000e0: 47d0 da3d d61e 093e 1403 c43d a80f 733d
000000f0: 121e 973d dd46 543e 7a9d d83d bc08 933d
0.09944716 0.09544716 0.09928443 0.11797216 0.095959224 0.09528037 0.07153559 0.115921065
0.09927572 0.13878863 0.068177365 0.061089016 0.069006406 0.058944795 0.057125278 0.045357972
0.02906096 0.084037006 0.10936707 0.111103475 0.043322906 0.16573119 0.10977827 0.15326776
0.08137541 0.048056707 0.035926014 0.08618807 0.040464032 0.10396948 0.15352088 0.1908654
0.046043802 0.1156882 0.038123414 0.078871995 0.0720652 0.09925507 0.119480126 0.092315
0.036021885 0.08874895 0.13697723 0.08746735 0.10168187 0.07094543 0.059139065 0.08516063
0.083361894 0.072598144 0.08036808 0.06749298 0.106201984 0.07924953 0.06243403 0.041654438
0.10684257 0.13390669 0.095708996 0.059341103 0.07378782 0.20730157 0.10576911 0.071794

baseModel.8.weight f4 [64, 64, 3]
00000000: 1799 883d 4ae9 683c e490 903d 99f1 21bb
00000010: cd31 a5bc 1191 7bbd 8f80 25bd b31a 9fbb
00000020: 1b7e 8b38 01a3 85bc 006d 1cbd 1bf8 8b3d
00000030: c6f1 453a 5fcb 65bd 3618 ad3c b197 643d
00000040: cc59 10bd 31b8 993c e777 caba 8391 813c
00000050: e67e d43c 9f2b 6bbd 5fa5 b53c 0b36 273d
00000060: 9355 42bd bc0d 4e3c d394 af3b df06 873d
00000070: 1fe5 b23d 87e7 fd3c 834c 41bc 684c 463d
00000080: b48a a5bc 34fd 9ebd 09ea 47bd e09e 40bd
00000090: d898 cb3c ed38 3abd 3b0c 053d 8f0e 223d
000000a0: e891 54bd a9bf 03bd 7287 633d 3957 32bc
000000b0: 3ab6 cc3c 9884 10bc 1e31 573d 7a21 69bd
000000c0: 1320 e2bc f238 153c f6cd 2b3d ffee ed3c
000000d0: f9ed 303d b800 d03c 2fc9 79bb 61a3 263b
000000e0: 24e7 af3c ad77 4dbd bf21 383d ca1f 943d
000000f0: e41c 9b3d b062 163d 7f6f 38bd dbc5 89bd
00000100: ad1d 99bc c525 99bd a127 073b c16c 863c
00000110: dcc2 d73c 302f 443d 7279 41bd f0ce 8ebc
00000120: 8a93 593d 7937 4b3d a982 83bc 01cb 713c
00000130: de68 36bd 7893 143c f0cd 1d3d 9be4 963d
00000140: f8fe 80bd 744c 913d f4ca d63c c09b 173d
00000150: d6ad 233d dc92 02bc 4cb7 37bd 4b81 8e3d
00000160: 8c69 883d 213a 49bd a1b0 12bd dc7a a5bd
00000170: 7ab3 aabc 3f28 7f3d 0738 23bd 0516 cd3b
00000180: 6ddd b3bb fb63 45bd d0fb 7abc a8b3 3b3d
00000190: 155f e4bb 05d0 88bb e08a d9bc f106 abbd
000001a0: 0594 28bd fdcd 883d bf3f 0c3c ac04 8e3d
000001b0: d46b d1bc aa3f 2fbc cdb2 b13c 49be dd3c
000001c0: 78af 073d 53ae e8bc 8674 053d 9c63 543d
000001d0: c0f2 e63c 5fad 8c3d 478c 26bc 5a5a fe3c
000001e0: 8ebd b6ba 339a f03c da16 443d 0d55 473d
000001f0: 5561 47bd ee8a 183d 4222 6abd aab8 aabd
00000200: b263 023d 4992 ccbc 6968 b73c efae e3b9
00000210: dde5 5a3d 700e edbc 9254 333d 28d2 a63c
00000220: 2430 1b3d ced2 62bd 4674 d93b a060 a13b
00000230: c279 91bc 2cb3 483d 97b6 5fbc 51fd e23c
00000240: 3c90 643d be22 eb3b 085a 7d3d 4bfd 68bd
00000250: 6f02 51bd cefd f73c 0423 0f3c c9d1 0bbd
00000260: c638 8c3d e0ad 12bd 6258 b33b 8f79 e8bb
00000270: 399c eabc c577 6bbc 6356 4a3d 4ce9 3bbd
00000280: 5cc5 6e3d 1479 1dbd a319 793d d331 9e3b
00000290: 064f 9abc 6209 843d 0629 913a ec35 fc3b
000002a0: c313 b0ba 9412 5ebd 9fcd 3a3d 7e1c 813d
000002b0: f674 933d 4adb b5bb 143b 8a3d 1315 cbb9
000002c0: 055e 17bc 1a48 8fbd 647a 0bbd a7ee 03bd
000002d0: 7c4d bebc a459 183c 1e25 d53b db2b 8bbd
000002e0: 1dd2 13bd ee81 fb3c 31eb e6bc e975 5d3c
000002f0: ecb9 86bc 5157 1ebc a091 1c3c 3020 963c
00000300: a0c8 bc3c f1b3 fdbc 0439 0e3d efcd 80bd
00000310: 7745 133c f280 91bd fe73 08bc 82c6 033d
00000320: 984d 863d dac9 983c a266 37bd d53a c33c
00000330: 4d01 943a 8c91 90bd 5626 e1bc 8b21 be3b
00000340: 7d9d 353d 18df bebd 76bb 0e3d 0023 e6bc
00000350: 17f0 803c 1427 223d 8444 9fbc f3f4 263d
00000360: e8fb 17bd bc45 333c b596 863b 53bc 603d
00000370: 5993 a93c 35cd 893d 7c87 debb de2a c1bc
00000380: de50 73bd f5de 713d b960 9ebc 823b a13d
00000390: 3021 5d3d f0f1 863d 5eaa 5cbd 608a 773c
000003a0: 9fe7 323d dcda af3c a4cc 90bc fac6 7cbd
000003b0: 540f 673c 47a7 19bd 1fe2 623d a8e9 6d3d
000003c0: e5ea 083c baef af3c 474b 75bc 83c1 0dbd
000003d0: 989c 37bd 6c1c 13bc 37e2 4dbc 8aaa 8c3d
000003e0: d067 8abc d0f8 f33c 6210 883d aec4 3d3d
000003f0: 5f1c 443d 150c 90bd fe04 473c e280 503d
0.066698246 0.014215777 0.07058886 -0.0024710654 -0.020165348 -0.061417643 -0.040405806 -0.0048554777
6.6515255e-05 -0.016313078 -0.038189888 0.06834432 0.00075509807 -0.056102153 0.021129709 0.055808727
-0.035241887 0.018764587 -0.0015447111 0.015816456 0.025939416 -0.057414647 0.022173582 0.040823024
-0.04744489 0.012576517 0.0053583174 0.065931074 0.08735108 0.03099419 -0.011798027 0.04841271
-0.02020774 -0.077631384 -0.048807178 -0.047026515 0.024853155 -0.045464445 0.032482367 0.039564665
-0.05189696 -0.032165203 0.055549093 -0.010885053 0.024989236 -0.008820675 0.052537076 -0.05691669
-0.027603185 0.009107815 0.041944467 0.029044626 0.0431957 0.025390968 -0.00381143 0.0025426971
0.021472521 -0.05016296 0.044954058 0.07232626 0.0757387 0.03671521 -0.045028206 -0.06727191
-0.018690908 -0.07477907 0.0020622986 0.01640928 0.026338033 0.047896564 -0.04723496 -0.01743266
0.05311922 0.04961345 -0.016053515 0.014757873 -0.044533603 0.009068362 0.038526475 0.07367822
-0.062986314 0.070946604 0.026219822 0.03701377 0.039960705 -0.007969584 -0.04485254 0.069582544
0.066607565 -0.0491277 -0.035812978 -0.08080074 -0.020837534 0.06229424 -0.039848354 0.0062587284
-0.0054890425 -0.048191052 -0.015318826 0.04582563 -0.0069693425 -0.0041751885 -0.026555479 -0.08350933
-0.041156787 0.06679914 0.00856012 0.06934485 -0.025564112 -0.010696331 0.021691704 0.027068274
0.033126324 -0.028403437 0.03258183 0.051852807 0.028191924 0.068690054 -0.010165281 0.031048942
-0.001394199 0.029370403 0.047873355 0.048665095 -0.048676807 0.03724187 -0.057161577 -0.08336003
0.031833358 -0.024972098 0.022388654 -0.0004342715 0.05344187 -0.028937548 0.043781824 0.020363882
0.037887707 -0.05537682 0.0066361753 0.0049248487 -0.017758254 0.048998997 -0.013654373 0.027708681
0.055801615 0.0071757725 0.06185344 -0.056882184 -0.05102771 0.03027239 0.008736376 -0.034135614
0.06846766 -0.03581035 0.0054731825 -0.007094569 -0.028638946 -0.014371817 0.04939879 -0.045876786
0.058293685 -0.038445547 0.060815465 0.004827717 -0.01883651 0.06447102 0.0011074848 0.0076968577
-0.0013433624 -0.054216936 0.04560625 0.063042626 0.07200043 -0.005549823 0.067495495 -0.0003873488
-0.009238725 -0.06996174 -0.034052268 -0.03221002 -0.023230307 0.009298716 0.006504669 -0.06795474
-0.03608905 0.030701604 -0.02818832 0.0135168815 -0.016446076 -0.009664373 0.009556204 0.018325895
0.023044884 -0.030969592 0.034722343 -0.06289279 0.00898873 -0.071046725 -0.008328436 0.032171734
0.065577686 0.018650938 -0.044775613 0.023831764 0.0011291892 -0.07059011 -0.0274841 0.0058023385
0.044339646 -0.093198955 0.034846745 -0.028092861 0.015739484 0.03958805 -0.01944185 0.040760946
-0.03710547 0.010941919 0.004107321 0.0548671 0.020700144 0.06728593 -0.0067910533 -0.023580011
-0.059403293 0.05905052 -0.01933323 0.07872678 0.05398673 0.06589115 -0.053873412 0.015108675
0.043677922 0.021466665 -0.017675705 -0.061713196 0.014102776 -0.037513044 0.055391427 0.05808416
0.0083567845 0.021476615 -0.014971561 -0.034608375 -0.044827074 -0.008978944 -0.012566141 0.06868465
-0.016895205 0.029781729 0.0664375 0.046330146 0.04787862 -0.070335545 0.012147186 0.050904162

baseModel.8.bias f4 [64]
00000000: fdef a5b4 dc82 6bb7 eaf8 d835 75b5 1d36
00000010: 9191 39b4 423f d9b4 dfd7 30b6 2519 63b6
00000020: e8f7 04b6 969f b8b6 720a ff36 c474 e833
00000030: 2e09 03b6 0260 19b6 b8ae 5c37 ca8c ba36
00000040: 75d3 26b7 1e4e 5b34 5c15 c734 64d9 0bb7
00000050: 03f2 9db5 2048 e036 3e58 a636 166b 1535
00000060: ff89 0434 9b04 b236 5a54 0a36 4dcb 3c37
00000070: f22e 7ab4 1e00 b4b6 ea20 9535 3f70 9e36
00000080: ff12 0737 7cb3 2333 3f79 6535 c440 4136
00000090: 73ef 63b5 77ec c235 e0ae 2a37 a676 b234
000000a0: e3fb 73b7 90ca 95b5 8dd4 c736 2952 41b4
000000b0: ff47 34b7 7825 6336 fbca 4bb6 fa20 b2b7
000000c0: 408b 28b7 d607 acb5 3178 b8b5 3ea9 08b6
000000d0: c0c2 8cb5 8b45 04b7 79b2 a9b5 04fd e235
000000e0: 1935 08b5 5004 e435 427f 40b6 f6cd 68b6
000000f0: 7787 a8b4 9cef dd35 093f 83b6 71d4 adb3
-3.090826e-07 -1.403756e-05 1.6165698e-06 2.3500445e-06 -1.7282424e-07 -4.0465426e-07 -2.6351697e-06 -3.3840272e-06
-1.9813833e-06 -5.5022056e-06 7.600808e-06 1.08245814e-07 -1.9525864e-06 -2.285466e-06 1.3153702e-05 5.559622e-06
-9.943605e-06 2.0424383e-07 3.708218e-07 -8.335661e-06 -1.1767846e-06 6.6841167e-06 4.9574583e-06 5.5662656e-07
1.234366e-07 5.3053495e-06 2.0612702e-06 1.1253008e-05 -2.3300143e-07 -5.3644317e-06 1.1110944e-06 4.721834e-06
8.05105e-06 3.8114635e-08 8.5485584e-07 2.879694e-06 -8.4912534e-07 1.4522947e-06 1.0173506e-05 3.3241412e-07
-1.4542576e-05 -1.1160319e-06 5.9554063e-06 -1.8004415e-07 -1.0745599e-05 3.3847446e-06 -3.0367507e-06 -2.123461e-05
-1.0046002e-05 -1.2817279e-06 -1.3744049e-06 -2.0364091e-06 -1.0487493e-06 -7.884005e-06 -1.2643424e-06 1.6911949e-06
-5.0741215e-07 1.6988579e-06 -2.8684303e-06 -3.469058e-06 -3.1391002e-07 1.6535519e-06 -3.9114425e-06 -8.094583e-08

baseModel.9.weight f4 [64]
00000000: b841 773f ba32 783f a6a5 6c3f 1dd4 6f3f
00000010: 448e 763f 8af2 733f 1f1f 7a3f 3b60 7c3f
00000020: 7a33 743f b31d 783f f469 753f a2b0 713f
00000030: 9284 7f3f fd8a 783f 489f 7c3f 540c 723f
00000040: 3a96 773f 5e66 773f 002c 723f c7bc 7a3f
00000050: e7fd 703f 5b14 793f b219 7b3f f0a5 733f
00000060: 6ea0 6c3f fd87 753f 8a83 7e3f 2a9a 7f3f
00000070: 8838 723f fac1 7a3f 5437 6d3f 5e81 723f
00000080: 34a0 7e3f 14ea 733f 396c 733f 425a 733f
00000090: 6afc 763f b6f4 6d3f e76d 7c3f 9b90 743f
000000a0: e520 743f b6de 6e3f 15c0 733f 11a4 783f
000000b0: 23b0 723f 5d32 7a3f b8e2 773f 054b 7a3f
000000c0: bd39 7b3f aa96 843f 6772 7a3f 0591 783f
000000d0: 37b3 6b3f e16f 793f 09c2 703f 6d1a 7d3f
000000e0: 495b 773f 463b 803f 6295 713f c4a7 743f
000000f0: c546 763f 484c 723f 8b37 773f 533f 783f
0.96584654 0.969524 0.9244026 0.93683034 0.9631083 0.9529196 0.9770374 0.98584336
0.95391047 0.9692032 0.95864797 0.94410145 0.9981166 0.9708708 0.98680544 0.9455006
0.967136 0.96640575 0.9459839 0.979443 0.94137424 0.97296685 0.9808608 0.95175076
0.92432296 0.95910627 0.9941946 0.9984461 0.9461751 0.97952235 0.9266255 0.9472865
0.994632 0.9527905 0.9508701 0.950596 0.96478903 0.92951524 0.986052 0.9553315
0.95362693 0.9330858 0.9521497 0.97125345 0.94800013 0.977331 0.9683032 0.9777072
0.98134977 1.0358479 0.97830814 0.9709628 0.92070335 0.9743634 0.94046074 0.9886845
0.96623665 1.0018089 0.94368565 0.9556849 0.96201736 0.94647646 0.96569127 0.96971625

baseModel.9.bias f4 [64]
00000000: b3e2 1fbc e0ba 153c 604b 5fbc e4c4 5bbc
00000010: 4c8e c53c cce2 eb39 b6a1 343c 7ad5 a5bb
00000020: 6174 e3b9 4c94 133c 32bd 0d3b 1437 c8bb
00000030: 9851 febb 8cf0 84bc 6bbc 0d3b b16a edbb
00000040: b3d2 15bb 6935 d33b af02 21bc 5da2 87bc
00000050: c3f5 30bc fcd7 423c e1e2 2b3c 6039 173c
00000060: 9fac 8bbc 8653 d3bc 60a4 fd3b ed8b db3c
00000070: 6929 10bc 8c01 813c e7fa acbc a514 07bc
00000080: 1362 8d3c aa20 83bb f060 10bb e055 573c
00000090: 1ded 033c 556b 8abb 63a0 97bc 309f a0bc
000000a0: 9879 e2bc 48cb d9bb 7b71 f6ba 7cd7 7d3c
000000b0: 9a18 2939 951a 10bc 6e3d cb3c b6b8 693c
000000c0: 0e32 33bc b753 c03b 7d87 08bd cf59 e3ba
000000d0: 399d d2bc 9087 72bb 4b1f 46bc ca9c f2bb
000000e0: 0ced 2bbc bed4 dfbb e16e e1bb 3572 bebc
000000f0: d250 64bc 88c4 d93b 7ba6 d03b 46f2 b6bb
-0.009758639 0.009138793 -0.013628811 -0.013413642 0.024115704 0.0004499167 0.011024883 -0.005060849
-0.00043383523 0.009007525 0.0021627662 -0.0061100814 -0.0077611916 -0.016227983 0.0021627198 -0.0072453846
-0.0022861182 0.006445576 -0.0098273 -0.016556913 -0.010800782 0.011892315 0.010491104 0.009229988
-0.017050086 -0.025796663 0.0077405423 0.02680012 -0.008798935 0.015747808 -0.021115733 -0.008244668
0.01725868 -0.0040016966 -0.0022030436 0.013143033 0.008052138 -0.0042242208 -0.018509096 -0.019607157
-0.027645871 -0.0066465475 -0.001880213 0.01549327 0.00016126261 -0.0087954 0.024809565 0.01426523
-0.010937227 0.0058693546 -0.033332337 -0.0017345491 -0.025709735 -0.003700707 -0.012092422 -0.0074039446
-0.010493528 -0.0068307808 -0.006879673 -0.023247818 -0.013935285 0.006645743 0.0063675023 -0.0055830805

baseModel.9.running_mean f4 [64]
00000000: 501c 0b3f 74f4 55bd 9d7e 723f 368d 063f
00000010: 97a6 9c3e bc8b 61bd ca56 8fbe 84b2 f23e
00000020: 93b8 c33d a248 893e 5965 8bbf 1e33 20be
00000030: 1840 753e 6f47 98be 6aae f33d c725 64bd
00000040: 6941 f3bd e439 0cbf 15f9 8abd 9aa3 0bbf
00000050: 5cda b8bd c254 9fbd 4c0f 263f b297 0abf
00000060: 0dce 3bbc 429b 5d3e 6011 80bf fefe b9be
00000070: 4a45 ab3c 2c6a 59bf 4f7f 61be d791 35be
00000080: 55e9 103e b3f8 203e 9e0e f13e 965d de3e
00000090: 700c 17be c4e5 3abf f26a b13e 133d 3fbe
000000a0: 6268 073f 7f66 c8bc 141b 1fbf 58b8 b5be
000000b0: afe1 5d3f 1773 743e 7175 0f3f 964b 5f3e
000000c0: 2687 20bf 1607 f3be dc26 113f 06e4 e0be
000000d0: 4031 af3c c26d 363d 7710 f9bd 775a eabd
000000e0: 8059 48bf bcf0 1a3f 8a23 813e d6e0 07bf
000000f0: df5c e1be c694 1cbf 4ab9 38be b162 c6be
0.54340076 -0.05223508 0.94724447 0.5255922 0.30595848 -0.0550649 -0.27995902 0.47401822
0.09556689 0.26813227 -1.0890304 -0.156445 0.23950231 -0.29742 0.11898501 -0.05570009
-0.1187771 -0.54775834 -0.0678579 -0.5454651 -0.09026024 -0.07779838 0.6486709 -0.5413772
-0.011462701 0.21641257 -1.0005302 -0.36327356 0.020907063 -0.8492763 -0.2202122 -0.17731415
0.14151509 0.15719871 0.47081465 0.43430775 -0.14750838 -0.73006845 0.34651905 -0.18675642
0.5289365 -0.024462936 -0.6215069 -0.35492206 0.8667249 0.23872028 0.56038576 0.21806177
-0.6270622 -0.47466344 0.5669992 -0.43923968 0.021385789 0.044538267 -0.121613435 -0.11443036
-0.78261566 0.6052358 0.25222427 -0.5307745 -0.44016168 -0.6116451 -0.18039432 -0.3874717

baseModel.9.running_var f4 [64]
00000000: 2c3a 4d3e fe7f 183e 762e 433e b3c6 163e
00000010: 97c6 743e 67c8 503e 21ae 503e 9674 6a3e
00000020: b772 0e3e 8a41 1e3e e121 6f3e af00 153e
00000030: f55a 863e ff0f 8a3e bb4d 513e ffd7 383e
00000040: 8706 523e 5c74 f03d c813 583e 5086 713e
00000050: cbd9 323e f9c8 573e 1d07 483e 90ff 4f3e
00000060: 7d86 0e3e a8be b33e 6a8e 8e3e 7d36 953e
00000070: b6ff 7d3e 682d 833e 81c8 203e 4475 4a3e
00000080: 5817 503e be26 133e cfd9 393e b80e 4a3e
00000090: a1ec 563e 5ebf 973e d137 2f3e 3714 3d3e
000000a0: d960 1a3e 7ace 1f3e 4a33 1e3e 1cca 3c3e
000000b0: 3cef 533e 7a6f 0a3e eb3a ad3e e0f0 243e
000000c0: a537 5b3e 5f8f a43e 25ea 3d3e 1fed 903e
000000d0: 761b 293e 8218 673e 1654 ac3e dbd1 8d3e
000000e0: 9ac9 9e3e 0589 493e 87c0 4f3e 97da 323e
000000f0: 5b51 6f3e fe44 6a3e f9a7 443e 67a1 823e
0.20041722 0.14892575 0.19060692 0.14724235 0.23903881 0.20388947 0.20378925 0.22896037
0.13910948 0.15454689 0.23352768 0.14551042 0.2624127 0.2696533 0.20439808 0.18051146
0.20510302 0.11740944 0.21101296 0.23586392 0.17465894 0.21072759 0.19533964 0.20312333
0.1391849 0.35106397 0.27843028 0.29143134 0.24804577 0.2562058 0.15701486 0.19771296
0.20321405 0.14370248 0.18149494 0.19732177 0.20988704 0.2963819 0.17111136 0.18464743
0.15076007 0.15606108 0.15449253 0.18436474 0.2069673 0.13519087 0.33834013 0.16107512
0.21407945 0.32140633 0.1854635 0.2830591 0.16514382 0.22567943 0.33657902 0.2769917
0.31013185 0.19681175 0.20288287 0.17466198 0.23370878 0.22877881 0.19204701 0.25513765

baseModel.11.weight f4 [32, 64, 3]
00000000: 87d3 acbc b998 10bd 36b4 3abd cf60 1dbd
00000010: 9154 183d 643b 6f3d ca48 66bd ab6e 253d
00000020: d1e3 823c 65c2 76bc 257b eebc cf09 253d
00000030: 87e2 1dbd a74a 243b 3e52 3a3d 36a6 5c3d
00000040: 0e63 813d 651c 303d c5b2 89bd c5fa 9d3c
00000050: 4324 983c 18ea b23d 97b3 14bd 9c96 753d
00000060: 695c 16bc 23b8 703d c547 133d a87a 02bd
00000070: 0700 36bd d6b0 913c b0c2 b139 ce68 88bb
00000080: 7197 05ba 73c7 3a3d faaf 753d 7289 dc3c
00000090: 1cb8 513c 244c bdbb cab1 b3bc 1044 2a3a
000000a0: c483 04bd 1afc b33c bf94 7f3c b4e1 963b
000000b0: 08a5 d9bb 3d0a 9f3d 8c2e e9bb 21c3 0a3d
000000c0: 7507 343d 44b6 273d 3f26 8dbd 540c 72bd
000000d0: b0a2 533d cf6e 393d fd43 893c 6dd4 283d
000000e0: 51db 223d b7a6 a13c 3bd1 2d3d 73f4 c2bc
000000f0: d4a8 a83c fceb 273d 74b0 3fbd f296 b1bc
00000100: cccd 83bd fae7 4bbd 5398 e93c 02fd a33d
00000110: e75b 6b3d 070a 07bd f50e 553d fa31 7ebd
00000120: d831 7fbb 16a9 7f3d 53d7 8cbc 014f e83c
00000130: 8eeb 523d dc34 b5bc 383a b0bd 36c6 86bd
00000140: 2dc3 c4bc 2748 61bd 3a71 e23c d2f4 65bd
00000150: 55b5 353d a175 99ba 2b49 cd3c 5a3a 363c
00000160: 02e7 b9bc 6ca2 c2bc fc9c 67bd e329 0b3d
00000170: b6cd dfbc 689f 7a3d c585 5dbd c7b8 1fbd
00000180: 0394 573d 3c8e f53c 58e7 99bd 782d 10bd
00000190: be7f 4f3d 3b6b 34bb 89fd 83bd 6c66 d9bc
000001a0: 2065 1c3d 3def 053d 3eff 793c 925a 15bd
000001b0: 2fd6 1e3d 650c 4bbc 884d 4dbd b5fc 5c3d
000001c0: 7313 213d 3aeb 2fbd ea43 ba3d dc1e cb3d
000001d0: 5ded ab3d 8267 2dbc da43 9e3a 8409 a23c
000001e0: 54b3 a33d ac8d f43c 2f78 9cbc 72b9 a03c
000001f0: ce6b 353b 7afa 213c abf9 a53c 2dba a3bd
00000200: 4fae 34bd 8d8a de3c 0c46 6f3d e272 503d
00000210: beb1 123d 154b dd3c cf8c 583d 61f6 0bbd
00000220: e50b 81bd 9e1b 963c 850f 793b 01c2 44bd
00000230: b310 fdbb a8fa 28bd 6270 1f3d dd9e 603c
00000240: efbe 0abc 23c0 4abc fc5b 57bd 04eb 533b
00000250: 5ec7 133d e183 c9bb d5d2 ae3d e1be b93c
00000260: 55a3 543d e4ce 303d 228a 8b3d 554a 0cbd
00000270: 925b 5f3b be11 693d a14b 61bc f0c7 2f3c
00000280: c47b be3c 00b5 97bd 6489 51bd 9895 a6bc
00000290: 52a2 2bbc 7afa bcbb 8e6a 46bd 1874 4b3d
000002a0: baf6 443d 1d7a 59bb 5488 553d 5a8e e03d
000002b0: 0ddd 1fbc 42e9 24bd 080f 4ebc 02f7 d63c
000002c0: b0cd 343d 0561 30bd 1e43 e7bc bd22 9fbb
000002d0: aae4 403d 3d32 95bd cab3 333d a0ce a3bd
000002e0: c5a5 283d 177d 513d f41f 023d 9042 5c3c
000002f0: 293b 573b 7761 81bc 6ff9 6ebc bb62 0cbd
00000300: 0d5f babb d9a8 78bc 563a 173d ab41 803d
00000310: 361c 463d be2f 4c3d 162d debc 938b 333d
00000320: 0f61 043c b613 efbc 4f12 6e3d 21a4 2dbc
00000330: aebf fcbc 7d2e a3bc ced5 6e3d c778 49bc
00000340: 6668 0fbd 3af9 68bd 24e2 ccbc 5281 fcbb
00000350: bef6 513b cb27 89bc 4edc cb3b 2d03 5abd
00000360: 5a25 9cbb 026a 54bd 82ea 4c3d 9717 003d
00000370: a034 bdba 8102 70bd bc0c 913d b775 343d
00000380: 4063 c3bc cd3b a93d 5661 7ebd d857 fe3c
00000390: b5b2 19bd f25e e1bc e01b ff3c 023a 45bd
000003a0: c13d 923c f1ca 92bc 17ac 343d 1f37 703d
000003b0: 2649 713d 52c9 95bd f898 88bd 1498 3dbd
000003c0: 7005 6fbd 1086 e7bc acb5 53bd 71e5 b9bc
000003d0: 33d2 123c 7eae f9bb 5c5f 6abd 1594 ffbc
000003e0: dcd3 7fbd 2124 e4bc 2010 273d 3d30 2ebd
000003f0: 79b7 2b3b 1382 8b3b ed65 f73b 08a9 94bc
-0.021096958 -0.035301898 -0.04558202 -0.038422402 0.037190024 0.05840625 -0.05622176 0.040388744
0.015977772 -0.015060996 -0.029111454 0.040292557 -0.03854611 0.002506891 0.04548859 0.05386945
0.06317721 0.04299583 -0.06723551 0.019284615 0.018571978 0.08736056 -0.036304083 0.059958085
-0.009177306 0.058769356 0.035957117 -0.031855255 -0.04443362 0.017784517 0.00033905124 -0.0041628843
-0.0005096114 0.045600366 0.059982277 0.026921008 0.012800243 -0.005776899 -0.021935362 0.00064951275
-0.032352224 0.021970797 0.015599429 0.0046045426 -0.0066419877 0.07765625 -0.0071161445 0.033877496
0.043952424 0.040945306 -0.068920605 -0.05909379 0.051668823 0.04527169 0.016756052 0.04121821
0.039759938 0.019732816 0.042435866 -0.023798203 0.020588316 0.040996537 -0.04679914 -0.021678422
-0.06435737 -0.049781777 0.028515017 0.08007242 0.05746069 -0.032968547 0.052016217 -0.06205938
-0.0038939621 0.062417112 -0.017192518 0.028357984 0.051494174 -0.022119932 -0.08604854 -0.065807745
-0.024018848 -0.05500045 0.027641881 -0.056141682 0.044362385 -0.001170803 0.025059303 0.0111223105
-0.02269316 -0.02375909 -0.056546196 0.033975493 -0.02731977 0.061187178 -0.05408265 -0.038994577
0.05263139 0.02997505 -0.075148284 -0.035199612 0.050658934 -0.0027529735 -0.06444842 -0.026538096
0.038182378 0.03269886 0.015258608 -0.036463328 0.03877848 -0.012393092 -0.050122768 0.053951938
0.03932519 -0.04294894 0.09094985 0.09917995 0.08394883 -0.01058376 0.0012074665 0.019779928
0.079931885 0.02985271 -0.019100277 0.019619677 0.0027682665 0.009886378 0.020260653 -0.079944946
-0.044111546 0.027165676 0.05841641 0.05089081 0.03581404 0.027013341 0.05286866 -0.034170512
-0.06301097 0.018323716 0.0038003635 -0.04803658 -0.007722938 -0.04125467 0.038925536 0.013709751
-0.008468374 -0.0123749105 -0.052577958 0.0032336125 0.036078803 -0.0061497544 0.08536307 0.022674026
0.051913578 0.043166056 0.06813456 -0.034250576 0.003408168 0.056901686 -0.0137509415 0.010728821
0.023252375 -0.0740757 -0.051156417 -0.020335004 -0.010475712 -0.005767164 -0.048441462 0.049671263
0.04808686 -0.0033184357 0.052131966 0.109646514 -0.009757292 -0.040261514 -0.012576826 0.02624083
0.04414147 -0.043061275 -0.028230246 -0.004856436 0.04709307 -0.07284973 0.043872632 -0.07998395
0.041173715 0.051144686 0.031768754 0.013443604 0.0032841659 -0.015793545 -0.014585837 -0.034273844
-0.0056876005 -0.015176975 0.036920868 0.06262525 0.048366748 0.049850218 -0.027121108 0.04383428
0.008079781 -0.029184204 0.05812293 -0.010598213 -0.030853119 -0.019919628 0.05830937 -0.012296862
-0.03501167 -0.056878306 -0.025010176 -0.007705846 0.003203794 -0.016742608 0.0062213307 -0.053225685
-0.004765195 -0.05185891 0.05002833 0.031272497 -0.0014435239 -0.058596138 0.07082507 0.044057574
-0.023851037 0.08263359 -0.062104546 0.031047747 -0.037523944 -0.027511094 0.031141222 -0.048151024
0.017851712 -0.017919036 0.04410943 0.058646318 0.05890765 -0.073137894 -0.066698015 -0.04628761
-0.058354795 -0.028262168 -0.051686928 -0.022692414 0.008961248 -0.007619678 -0.057219848 -0.03119854
-0.062457904 -0.027849259 0.040786862 -0.042526472 0.0026201888 0.0042574494 0.0075499923 -0.018147007

baseModel.11.bias f4 [32]
00000000: d29c 8d35 9086 bdb6 bb47 cc35 947b a334
00000010: 72b8 d835 2bbe ebb7 a0d1 55b5 118b 79b5
00000020: cfc0 8a35 4db9 a4b6 454e 3fb5 9a8f 5837
00000030: 99d5 5336 4505 77b3 447b 07b7 8514 8fb6
00000040: 00d8 e034 c845 1736 355c 09b4 26c5 9332
00000050: 87f2 9ab6 33bd 5636 3b65 48b3 9dce 5136
00000060: 8637 8336 870f e9b4 7a38 f934 153a c936
00000070: eeda 2a37 a4af e434 d33b d234 a698 cab3
1.0550959e-06 -5.648304e-06 1.5220061e-06 3.045103e-07 1.6146935e-06 -2.8102737e-05 -7.965373e-07 -9.2962097e-07
1.0337916e-06 -4.9091527e-06 -7.126694e-07 1.2908038e-05 3.156578e-06 -5.751396e-08 -8.075327e-06 -4.264121e-06
4.1880412e-07 2.2541371e-06 -1.2792664e-07 1.7202705e-08 -4.6177915e-06 3.1998613e-06 -4.6658197e-08 3.1263692e-06
3.910568e-06 -4.341093e-07 4.6420956e-07 5.9970284e-06 1.0183763e-05 4.2596105e-07 3.9159076e-07 -9.4341246e-08
