Models/best_eeV2_0426.pth (torch, 769803 bytes, 48 tensors)

baseModel.0.weight f4 [64, 2, 3]
000000 8e 69 00 bc db 17 a3 be fe 0d b3 be 4b 74 7f 3e
       -0.007837666 -0.31854138 -0.34971613 0.24946706
000010 d9 91 8a be 39 5b 9d be ed a7 4d 3d ce 8f ca 3c
       -0.27064398 -0.3073366 0.050208975 0.024726775
000020 74 3b 55 be 6c 9c 3a bd 71 5f 9c be ee 81 f5 bd
       -0.20823461 -0.04555933 -0.30541566 -0.11987673
000030 71 9a 86 be 77 10 7f be cd 07 7e 3e de d5 91 3e
       -0.26289704 -0.24908625 0.24807663 0.2848348
000040 b5 de 9a 3c 8a 74 2b 3e ef 74 d2 3d 98 07 51 be
       0.018905023 0.16743675 0.102762096 -0.20413053
000050 34 0f 86 3e 7d 33 84 bc 43 8f c6 39 c3 a5 81 be
       0.26183474 -0.016137833 0.0003787224 -0.2532178
000060 ca 38 7a 3e 41 b6 b2 3e 12 43 63 3e 9e 01 20 be
       0.24435726 0.34904674 0.22193554 -0.15625617
000070 88 73 f8 3a af 58 08 3e 66 af 9e bb bc 78 75 3e
       0.001895533 0.1331508 -0.0048426865 0.23971838
000080 42 d1 8b be 58 c8 1f 3e 67 d4 35 be 78 55 2c 3e
       -0.2730809 0.15603769 -0.17756806 0.16829479
000090 c8 d5 5d 3e 3f 00 26 be 44 7a c7 3d 14 70 92 3d
       0.21663582 -0.16211031 0.09740117 0.071502835
0000a0 60 a4 88 be 43 ce de 3d 6a 83 c7 be c2 e5 97 be
       -0.26687908 0.10879185 -0.38967448 -0.2966748
0000b0 13 83 07 3e 61 b8 54 be aa 5d 88 3d 79 b5 84 bd
       0.13233595 -0.2077346 0.0665849 -0.06479926
0000c0 69 03 56 3e 5d 38 90 bd 2d 3a 58 3e 5f a9 ae be
       0.20899738 -0.070420004 0.21115942 -0.34113595
0000d0 9e f9 d1 ba ab cc bb 3e 44 31 39 be d1 81 3e 3e
       -0.0016019826 0.36679587 -0.180852 0.18604209
0000e0 81 06 30 be 87 7f 62 3e ba eb af be 2b 47 61 3e
       -0.17189981 0.2211896 -0.34359533 0.21999805
0000f0 f0 ed c1 3d 96 ee 74 be 83 2a e7 3c bd 53 83 3e
       0.09469211 -0.23919138 0.028218513 0.25649825
000100 9f e6 b2 be 46 18 9a be ed 1d 8e be e1 66 b3 3d
       -0.34941575 -0.30096644 -0.27757207 0.08759857
000110 19 a2 e9 bc d8 75 b0 be 68 fc 90 be 59 00 3e be
       -0.028519677 -0.34464908 -0.2831757 -0.1855482
000120 56 a7 f5 3d eb 8c 48 3d 31 da 2d be 7c f8 be be
       0.119948074 0.048962515 -0.16977765 -0.37298954
000130 24 03 c5 3c 4a f4 ae 3e 5f 76 3c 3e d9 bc 09 3e
       0.02404935 0.34170753 0.1840453 0.13450946
000140 c6 fe 4e be fd f1 72 be 17 75 60 3e ff 4d 60 3e
       -0.20214376 -0.23725124 0.21919666 0.21904753
000150 70 2f ac be f9 ac 2d be 07 65 ce bd ac 94 37 be
       -0.33629942 -0.16960515 -0.10077863 -0.17927808
000160 97 10 4b 3e a0 28 80 3e f7 76 1d be 6c 01 84 3e
       0.19830547 0.25030994 -0.15377413 0.25782335
000170 8d a5 6f bb 56 2a f8 3d 7a 9f c7 bd 64 77 79 3e
       -0.0036567182 0.1211745 -0.097472146 0.2436195
000180 16 7c 39 bd bc 6a d9 3d d6 8b d6 3d 29 89 b3 3e
       -0.045284353 0.10616061 0.1047589 0.35065582
000190 5a 77 97 3e 25 37 c8 bb c0 9f 4b be d2 cd 9f be
       0.29583246 -0.0061100894 -0.19885159 -0.31211716
0001a0 f6 1e 3f be 38 6c 8e be 79 8e e7 bd 95 10 88 3e
       -0.18664154 -0.2781694 -0.113064714 0.2657515
0001b0 67 41 5e be 26 5a 35 be c8 37 c1 3d 29 45 30 3e
       -0.21704637 -0.1771017 0.094344676 0.17213883
0001c0 d1 8b a1 3e 31 db 9f 3e 7e b5 44 3d 83 b8 69 3e
       0.31551984 0.31221917 0.048024647 0.22824292
0001d0 58 08 5d bd 92 f0 94 3e 7b 87 3b be af c8 21 3e
       -0.053963035 0.2908979 -0.183134 0.15799211
0001e0 b4 a3 a6 3e d0 37 c9 bb a4 ae fb bd 73 14 f9 3d
       0.3254677 -0.0061406866 -0.122891694 0.121621035
0001f0 15 ea 9f 3b d2 d5 97 bc 5b 65 26 3e 7f 66 a1 bd
       0.0048801997 -0.018534575 0.16249602 -0.07880878
000200 2b 6b a2 bd 06 d0 bd 3e 19 38 43 bd e1 49 99 be
       -0.07930597 0.37072772 -0.04766092 -0.29939178
000210 f4 72 1c be cb ad 74 be c2 7f 96 be d7 83 3a 3e
       -0.15278226 -0.23894422 -0.29394346 0.18214355
000220 0a 9f 5e 3e 51 33 9a bd 9e ad bc 3e c9 d5 c8 3e
       0.21740356 -0.07529319 0.3685121 0.39225605
000230 8d fe 57 be c3 ec a5 3b 68 cf ba bd 60 01 17 bd
       -0.21093197 0.0050636246 -0.09121591 -0.036866546
000240 59 20 7d be a3 c6 31 3e c0 c1 76 be 64 48 6a bb
       -0.24719371 0.1736093 -0.24097347 -0.0035748715
000250 bc 51 d9 3d 57 ec f9 bd 83 ae 04 3e 96 8b 92 3e
       0.10611293 -0.122032814 0.12957196 0.2862212
000260 57 da d7 3c 6e d8 0a 3e 3f e4 fe 3a f5 65 c3 3d
       0.02634923 0.13559124 0.0019446685 0.09540931
000270 fd 65 f7 3d 34 94 dc 3d e3 9f b1 3d 6d b7 d7 bc
       0.120799996 0.10770455 0.08673074 -0.026332581
000280 69 c9 a0 be 20 3a 5a be 20 9c a7 3c a9 e6 9a bd
       -0.31403664 -0.21311235 0.020460188 -0.07563526
000290 b4 c6 4e bc f2 14 0e 3d 3b ad 21 3e 8f d6 af 3e
       -0.012620617 0.034687944 0.15788738 0.34343383
0002a0 13 35 8d 3e dd f8 9d 3d d4 bd b1 be ae de 39 3e
       0.27579555 0.077134825 -0.3471514 0.18151352
0002b0 1f d0 8d be 64 63 27 3e e0 64 04 be 14 33 18 3e
       -0.27697846 0.16346508 -0.12929106 0.14863235
0002c0 3a 4f b7 3d e9 9c 11 be 57 b3 28 3e 25 a5 4e bd
       0.08950658 -0.14220013 0.16474663 -0.050450463
0002d0 59 74 80 be 80 6f 3c be fd e9 29 be be 3d 8c 3d
       -0.25088766 -0.18401909 -0.16593166 0.06847714
0002e0 c1 04 f1 3c fb fa 8d 3d 15 3b c0 bd 69 8a 77 3e
       0.029421212 0.06932636 -0.09386269 0.24173893
0002f0 3e 61 8f 3e 08 3b 87 3d 3d b9 8d be a4 42 c3 be
       0.28003877 0.06603056 -0.27680388 -0.3813678
000300 aa d7 32 be e4 78 30 3e 24 0e 7f 3e b8 17 b0 3e
       -0.17465082 0.17233616 0.24907738 0.34393096
000310 2e e5 0c 3e 3b 86 a2 be 80 6d 73 3e d9 47 5d 3c
       0.137593 -0.31743035 0.2377224 0.013505899
000320 8f e0 15 bd e2 d7 0a be 7e 85 85 be 40 14 3c be
       -0.03659111 -0.13558915 -0.2607841 -0.183671
000330 44 56 5f be 96 87 ca be 24 59 83 be ef ad 2a bc
       -0.21810251 -0.3955657 -0.25653946 -0.010417446
000340 5f c9 a5 bd 94 14 c2 bc cb 6b b0 be 7e f1 f6 3c
       -0.08095049 -0.023691453 -0.3445724 0.03014445
000350 d5 a1 ab 3e fe 9a 42 be 8c 2d e5 bb 27 5a 60 3e
       0.33521906 -0.19004437 -0.006993955 0.2190939
000360 fa 70 6e 3c 6d 04 52 bd cc 4f 6f be 80 11 d9 bb
       0.014553303 -0.051273752 -0.23370284 -0.0066244006
000370 eb 19 55 be 53 4a 5e be 59 aa 05 bd b1 8e 6b 3d
       -0.20810668 -0.2170804 -0.03263316 0.057509128
000380 56 ff fe bd bb f4 06 be a0 11 63 3e f9 14 8d be
       -0.12451045 -0.13179295 0.22174692 -0.27555063
000390 01 3f 90 3e 05 ad 2b be 1f 56 d7 bd ba 99 99 3e
       0.28173068 -0.1676522 -0.10514473 0.30000097
0003a0 38 cc c4 3e 57 92 4c 3e e9 a7 26 3d d3 0e 81 be
       0.38437057 0.19977699 0.040687475 -0.25206622
0003b0 9d e5 18 3e 6d 36 7e be a3 35 79 bd b7 38 56 3e
       0.1493134 -0.2482545 -0.060842168 0.20920072
0003c0 40 25 dd 3c 68 da 81 3e 67 3d 92 be 0a d7 94 3d
       0.026995301 0.25361943 -0.2856247 0.07267578
0003d0 2d d8 82 be 80 ff b3 bc da 83 11 3e 05 93 a2 3e
       -0.25555554 -0.021972418 0.14210454 0.31752792
0003e0 63 5a 80 3e 44 1e 8b 3e 18 0e 7d 3d ae 33 d5 bc
       0.2506896 0.27171528 0.06178102 -0.02602562
0003f0 38 63 be 3d 82 0f dc bd 64 a4 91 be 75 02 60 3d
       0.09296268 -0.107451454 -0.28445733 0.054689843

baseModel.0.bias f4 [64]
000000 30 90 26 3a 73 c8 c3 b9 a1 fe 5f b9 49 b6 e8 b8
       0.0006353883 -0.00037342645 -0.00021361794 -0.00011096575
000010 c1 08 2b 39 e4 36 40 37 d9 0a ad b9 07 b1 ac 39
       0.00016311092 1.1456872e-05 -0.00033005213 0.00032938292
000020 4b 1d b7 b9 50 f8 50 b9 3a 6c bc b9 c2 f2 a3 39
       -0.00034926305 -0.0001992893 -0.0003593879 0.0003127065
000030 e7 bf 22 3a 0e e0 15 3a a0 75 2d b9 e5 a9 da b8
       0.0006208405 0.00057172857 -0.00016542384 -0.000104266954
000040 56 4f 51 38 d3 9e 49 b7 80 aa 65 ba e8 9d 86 38
       4.990337e-05 -1.2017513e-05 -0.0008761063 6.41903e-05
000050 65 bb a8 39 5b 10 0b 36 66 56 45 b9 08 77 34 3a
       0.00032183077 2.0722134e-06 -0.0001881957 0.0006884192
000060 ca 89 9c b7 8a ce 74 39 79 6c f4 39 68 0a 53 39
       -1.8660812e-05 0.00023346595 0.00046620125 0.00020126405
000070 14 4e 85 b9 f2 de 37 3a 28 17 69 39 4b cb 55 b8
       -0.0002542591 0.00070141174 0.00022229238 -5.097249e-05
000080 6b b0 90 b7 e7 06 5c 39 85 bd 06 b9 9a e7 82 3a
       -1.7248289e-05 0.00020983406 -0.00012849837 0.0009987236
000090 62 0d fe 39 00 69 30 ba 4a 23 02 b9 16 5c b4 b5
       0.00048456626 -0.00067295134 -0.00012410912 -1.3437846e-06
0000a0 89 e2 49 b9 9f 7d ce 37 7a 77 f9 b9 cf 46 04 3a
       -0.00019253245 2.461561e-05 -0.00047581998 0.00050459517
0000b0 ad 87 aa b9 49 8a df b8 23 f2 07 3a 8d 3c 6c ba
       -0.00032526013 -0.00010659226 0.00051859225 -0.00090117083
0000c0 be 59 92 39 89 6a de 38 f2 39 ae b8 db 45 3d b9
       0.00027914153 0.000106056286 -8.30776e-05 -0.00018050468
0000d0 3c 86 af 39 cd 10 07 39 4d fa 6e b9 1b e7 0f b9
       0.00033478613 0.00012880862 -0.00022790693 -0.00013723636
0000e0 ff b3 49 b9 f4 7c 3f b9 ef 2b c7 b9 f3 7e f3 b7
       -0.00019235908 -0.00018261728 -0.0003798897 -2.9026973e-05
0000f0 7a 97 26 39 1e 09 43 b7 16 40 55 b9 8f 7f 0a b9
       0.00015887423 -1.16250285e-05 -0.00020337137 -0.00013208225

baseModel.1.weight f4 [64]
000000 3a 59 49 3f 65 df 41 3f e5 c0 36 3f 19 69 3c 3f
       0.78651774 0.757315 0.71388084 0.73597866
000010 9f 4b 61 3f 4b 8a 25 3f fc 73 45 3f 1d b3 46 3f
       0.88006014 0.64664143 0.77130103 0.77617055
000020 89 5c 3e 3f 41 7a 36 3f a6 3b 33 3f c9 ab 4c 3f
       0.7435995 0.71280295 0.7001289 0.79949623
000030 a2 66 51 3f 10 fd 38 3f 25 f8 3f 3f 6d 1d 26 3f
       0.8179723 0.7226114 0.74988014 0.6488865
000040 80 1c 60 3f 22 5c 49 3f 18 b9 63 3f 9f 74 27 3f
       0.8754349 0.7865621 0.88954306 0.65412325
000050 4b c8 40 3f 40 7d 4f 3f cf 5f 50 3f 72 85 49 3f
       0.7530562 0.8105049 0.8139619 0.78719246
000060 c4 25 45 3f 85 23 3f 3f 0e 74 58 3f 1a be 4b 3f
       0.7701075 0.74663574 0.84552085 0.79586947
000070 12 58 2c 3f 4e f7 3d 3f 5d bc 4e 3f 53 36 5b 3f
       0.67321885 0.7420548 0.8075617 0.8562977
000080 e4 a8 44 3f a0 09 52 3f 39 41 66 3f 8a 36 51 3f
       0.76820207 0.82045937 0.8994327 0.81723845
000090 32 d4 3d 3f 93 55 35 3f 2e c9 56 3f 1b 24 2a 3f
       0.7415191 0.708337 0.83900726 0.6646134
0000a0 1d 3f 2b 3f fb d3 5d 3f df 53 4b 3f 3f 35 34 3f
       0.6689318 0.8665158 0.7942485 0.7039375
0000b0 06 44 2b 3f e1 a6 48 3f f1 c2 34 3f a1 cf 48 3f
       0.6690067 0.78379637 0.70609957 0.78441817
0000c0 e1 23 52 3f 05 30 35 3f 89 e1 4f 3f 30 26 5e 3f
       0.82085997 0.70776397 0.81203514 0.8677702
0000d0 52 6d 5a 3f 7f 1f 5c 3f af b5 45 3f a8 e0 4a 3f
       0.8532306 0.8598556 0.7723035 0.7924905
0000e0 ad 06 5f 3f d7 51 3e 3f 32 e3 3b 3f 26 d4 52 3f
       0.8711956 0.7434363 0.7339355 0.8235496
0000f0 fe 68 39 3f 13 01 44 3f 9c b9 49 3f 5b 8b 6a 3f
       0.7242583 0.7656414 0.7879884 0.9161889

baseModel.1.bias f4 [64]
000000 3b a2 99 bd 12 ad 9b bd 55 04 01 bd 59 80 8b bd
       -0.07501646 -0.0760137 -0.031498272 -0.0681159
000010 8c 7b 74 bc 16 2a bd bc 50 45 7c bd a6 8d 7e bd
       -0.014922034 -0.023091357 -0.06158954 -0.062146805
000020 41 92 77 bd 23 04 c2 3c 02 27 54 bc c4 f1 52 3c
       -0.060442213 0.023683613 -0.012948753 0.012875024
000030 2e 77 a4 bd 68 ae a8 bc 77 22 25 3d 1b 3b 42 bd
       -0.08030544 -0.020590976 0.04031607 -0.04741965
000040 24 37 c6 3b 4b 19 b0 3c 44 51 6d bd ea 09 b0 bc
       0.0060490537 0.021496436 -0.05793883 -0.021489102
000050 6e 6c 81 bd 81 9c 50 bd 74 89 2f bd ec 8d c6 bd
       -0.063195094 -0.050930504 -0.042855695 -0.09695038
000060 af a2 ae bc 85 de 84 bd 5c 35 d7 bc 79 7e 88 bc
       -0.021317808 -0.06487755 -0.02627056 -0.01666187
000070 53 d0 87 bd b1 d7 2e 3d 7d c6 55 bd 1c 00 ab bc
       -0.066315316 0.042686168 -0.052191246 -0.020874076
000080 41 69 27 bd f6 bd 9f bd e1 42 32 bc df f4 34 bd
       -0.040871862 -0.07799904 -0.010880203 -0.04417884
000090 86 ba b2 3c 5f fd 8a 3d a8 20 d9 bd 2f 69 68 bc
       0.021817457 0.06786608 -0.10601932 -0.014185234
0000a0 4f 58 d1 bc ac ac 41 bd dd b4 36 bd 2a 46 1a bd
       -0.025554804 -0.047283813 -0.04460608 -0.03766457
0000b0 f0 df 15 bd 5c 00 15 bd ac 4f d8 bc 92 79 4b bd
       -0.036590517 -0.036377296 -0.026405178 -0.049676485
0000c0 81 a0 e4 3c 0e 5d b7 bd fb 6c 62 bd 85 9c c1 bc
       0.027908565 -0.08953296 -0.055279713 -0.023634205
0000d0 ab 7c c8 3c 9b 13 48 bd d0 e9 12 bd 9b ea b4 3b
       0.024473509 -0.048846822 -0.035867512 0.005521131
0000e0 8c 5b 64 bd b1 9d dd bc 5e 71 86 bd 12 d9 db bd
       -0.05575137 -0.027052732 -0.06564592 -0.10734762
0000f0 43 b1 5c bd 40 8c 93 bd 9a 1d 35 bd 9d 6d e2 3c
       -0.053879987 -0.07204485 -0.044217683 0.027640158

baseModel.1.running_mean f4 [64]
000000 38 3f ee 39 b4 6a 33 b9 87 07 94 b9 dd ed 2f 39
       0.00045442 -0.0001711052 -0.00028234368 0.00016777912
000010 22 64 89 38 63 43 3d 39 0d 05 00 ba 28 80 a0 b7
       6.55132e-05 0.00018049548 -0.0004883565 -1.9133164e-05
000020 c5 0a 36 b9 04 eb 98 b9 9a 17 77 b9 93 b7 a8 39
       -0.00017360885 -0.000291668 -0.00023564548 0.0003218023
000030 3c 2c e3 39 69 60 07 3a 50 0d 7f b9 1b 30 a1 b9
       0.0004332977 0.00051642075 -0.00024323654 -0.00030744154
000040 87 c8 a9 b8 20 21 5b 37 90 8d 04 ba 55 0c aa b8
       -8.095899e-05 1.306113e-05 -0.0005056495 -8.108529e-05
000050 8b 79 0a 3a ed 1e 05 39 98 a6 c7 38 75 34 02 3a
       0.00052823935 0.00012695389 9.52009e-05 0.0004966923
000060 12 ae 58 38 1b 7f 11 39 62 f6 42 3a f3 77 a7 39
       5.166053e-05 0.00013875628 0.00074372266 0.0003194209
000070 75 7f c7 b9 65 a6 41 3a cd 9f 4a 39 76 ef 4d 39
       -0.000380512 0.00073871604 0.00019323752 0.0001963953
000080 ef fc 52 39 59 2a 94 39 73 0b 0e b9 9b 4c 5b 3a
       0.00020121386 0.0002826031 -0.0001354644 0.0008365602
000090 f8 59 d6 39 2a 33 ef b9 a6 f2 5e b9 1f 9e 47 39
       0.00040884293 -0.00045623753 -0.00021261963 0.00019037024
0000a0 54 4e d0 b8 91 37 e3 37 0d a4 98 b9 57 6c 34 39
       -9.932803e-05 2.7086384e-05 -0.00029113927 0.00017206497
0000b0 5c a0 bf b9 72 4a 2e b8 ff 81 9d 39 1b 34 82 ba
       -0.00036549836 -4.1554165e-05 0.00030042228 -0.0009933742
0000c0 40 e9 21 39 bf fd 13 b9 d9 fb 09 39 c6 b4 9f b9
       0.00015441049 -0.0001411354 0.00013159159 -0.0003046153
0000d0 0e 32 91 39 13 1e f8 38 70 3a e1 b9 80 57 4d b9
       0.0002769385 0.00011831163 -0.00042958884 -0.0001958292
0000e0 e2 8d 49 38 46 3f ab b8 67 71 c4 b9 3b 44 30 38
       4.8054273e-05 -8.165701e-05 -0.00037468525 4.2025214e-05
0000f0 5f d1 c3 38 3d e2 17 b9 a2 e2 5f b9 01 69 1d b9
       9.337323e-05 -0.00014484763 -0.00021351365 -0.00015011804

baseModel.1.running_var f4 [64]
000000 05 45 ac 37 3b 1e f3 36 22 4c 42 37 48 fb a3 36
       2.0536138e-05 7.2454836e-06 1.1581027e-05 4.8870315e-06
000010 e2 c4 81 37 c3 fe 98 36 14 b9 72 36 38 b1 5c 37
       1.5469679e-05 4.559611e-06 3.616854e-06 1.3154284e-05
000020 3a 6c 40 37 2a 3d bf 36 2e 87 4a 37 4c ab 87 37
       1.146929e-05 5.699364e-06 1.2071612e-05 1.617302e-05
000030 f1 c5 2b 37 72 69 0d 37 9f 54 5f 37 17 53 94 36
       1.0238481e-05 8.428806e-06 1.3311538e-05 4.4204166e-06
000040 b9 bc 49 37 45 a5 85 37 b6 a8 90 37 df c0 b1 36
       1.2024474e-05 1.5931795e-05 1.72447e-05 5.297464e-06
000050 33 6e a1 36 58 bb 15 37 66 35 65 37 4a a5 71 37
       4.811003e-06 8.924711e-06 1.3661896e-05 1.4403204e-05
000060 db b8 86 36 b2 69 d2 36 84 82 23 37 cf 46 fb 36
       4.015031e-06 6.2707923e-06 9.745945e-06 7.488626e-06
000070 11 1f 1b 37 43 09 26 36 9b 33 03 37 85 d3 93 37
       9.245953e-06 2.4741319e-06 7.820224e-06 1.7622262e-05
000080 5b d8 59 37 e1 22 1d 37 dc 74 8b 37 b1 49 35 37
       1.2984582e-05 9.36605e-06 1.6624508e-05 1.0805598e-05
000090 98 9c f4 36 04 10 61 36 b5 c6 a7 37 c7 21 bf 36
       7.2899966e-06 3.3536935e-06 2.0000482e-05 5.696176e-06
0000a0 c2 3b c1 36 3b dc 6f 37 dd ed ef 36 0b 13 2f 37
       5.758805e-06 1.42967865e-05 7.150446e-06 1.0435247e-05
0000b0 05 0c e6 36 45 0f f3 36 ec 86 48 37 33 f8 1a 37
       6.8559334e-06 7.243742e-06 1.1952343e-05 9.236904e-06
0000c0 16 50 8a 37 81 d3 ec 36 d7 80 75 37 e3 86 1a 37
       1.6488175e-05 7.0579704e-06 1.4633136e-05 9.210521e-06
0000d0 0b 48 40 37 c1 85 7f 37 7b d6 53 37 b5 e0 3d 37
       1.1460866e-05 1.5230326e-05 1.2626518e-05 1.1317597e-05
0000e0 2c 52 ac 37 ce c2 13 37 70 1a 1c 37 1c 29 3a 37
       2.0542262e-05 8.807239e-06 9.30448e-06 1.1096035e-05
0000f0 8f 71 02 37 b4 32 4e 37 55 97 01 37 5d 10 2a 37
       7.775044e-06 1.2290362e-05 7.724234e-06 1.01365995e-05

baseModel.4.weight f4 [64, 64, 3]
000000 43 9c b6 bb 3b 33 50 3d 00 16 10 bd d0 c0 8c 3c
       -0.005572827 0.050830107 -0.03517723 0.017181784
000010 76 29 21 bc 16 cc 1a 3b 80 06 13 bd 35 50 06 3d
       -0.009836545 0.002362018 -0.03589487 0.032791335
000020 42 a0 70 3d 43 a0 6e bd 98 e1 1c bd be 35 7f 3c
       0.058746584 -0.058258306 -0.03830108 0.015576778
000030 97 b0 6b 3d dd 96 91 bd da 66 1a bc 38 8d be bb
       0.057541456 -0.07108853 -0.009423936 -0.0058151744
000040 10 61 c9 3b 51 66 35 3c ee 93 2d bd be dc 0d 3d
       0.006145604 0.011071757 -0.042377405 0.034634344
000050 6a 15 0f 3d a1 6c 56 3d f7 79 46 3d e6 c7 c6 bc
       0.03493253 0.05234969 0.04845616 -0.02426524
000060 a0 50 0f 3d f8 1c 8a bd 80 d6 11 bd 9c f0 1b 3d
       0.034989 -0.067438066 -0.035604954 0.03807126
000070 c0 c0 4a 3b 17 5b e3 37 33 e1 91 bc ae 98 de 3c
       0.0030937642 2.7102926e-05 -0.017807579 0.027172413
000080 fa 8a 42 bb e7 5c 9a bd de c3 26 3b 41 bc aa 3c
       -0.0029684887 -0.07537251 0.0025446336 0.02084172
000090 84 cb e6 bc d3 55 cf 3b 48 ca 8f 3b eb a2 0f bd
       -0.028173216 0.0063273697 0.0043881275 -0.03506748
0000a0 e3 a4 59 bc 5f 9c f3 bc 07 d5 b0 3c 6d f1 66 bd
       -0.013283941 -0.02973765 0.021585954 -0.056382585
0000b0 44 dc 05 bd 3e 0a 3f 3d 8e 68 0b 3c 5c 2e d5 3c
       -0.032680765 0.046640627 0.0085088145 0.026023082
0000c0 6e 66 9c bc 74 cf 1f bd 6d 04 3e bd 8a 85 36 3d
       -0.019091811 -0.039016202 -0.04639094 0.044560947
0000d0 9f f1 35 3c 26 4a 6d 3d 50 c2 23 bd 7c 5c 15 be
       0.01110497 0.05793204 -0.039980233 -0.14586061
0000e0 51 f1 87 bb 8b b0 1f 3d f4 9e 87 3c f1 81 82 3d
       -0.00414864 0.038986724 0.016555287 0.063724406
0000f0 05 0d 18 3d 21 52 d5 3d e0 64 7a 3c 95 7c e8 bb
       0.03712179 0.104160555 0.01528284 -0.0070949295
000100 11 ac 66 3d 12 b1 8b 3c f0 2b c6 bd ec 85 ee bd
       0.05631644 0.017052207 -0.09676349 -0.11646637
000110 51 f8 87 bc 41 19 8b bc 91 4d 65 3d 57 c0 31 bd
       -0.016597899 -0.016979815 0.055982176 -0.04339632
000120 d7 4e 57 3d 89 63 0e 3d f5 5d d9 3c 4d ec d4 bc
       0.052565422 0.034762893 0.02653406 -0.025991583
000130 0b be 4f 3c 93 39 95 3d b3 12 4f bd 1d f9 89 bd
       0.012679587 0.07286372 -0.050554942 -0.06736968
000140 40 0b 90 3c da 1d b2 bc 0f 0a 74 bc f4 ba 61 3c
       0.01758349 -0.02174275 -0.014894976 0.013777483
000150 66 97 00 3d 94 38 14 bc a7 63 49 bc 2c 5c 11 3c
       0.031394385 -0.009046692 -0.012291825 0.008872073
000160 5f 89 8a 3a 9d 0e 04 bd 4c 8c 39 bd ed bd 69 3a
       0.0010569504 -0.0322405 -0.045299813 0.0008916546
000170 83 a0 ac bc 2a 58 16 bd 62 68 30 bd 47 65 f4 bc
       -0.021072632 -0.036705174 -0.043068297 -0.029833449
000180 cb ea 41 3c 6a 3b 6f ba 89 55 6f bd e1 f9 3c 3c
       0.011835764 -0.000912598 -0.058431182 0.011534185
000190 e0 be 07 be fe be 91 bc 59 94 5a bd d0 5f 82 bd
       -0.13256407 -0.017791267 -0.05336413 -0.06365931
0001a0 4c 0d 99 3c ba f5 8d 3c cd 97 77 3d 38 60 6c 3c
       0.018683098 0.017329086 0.060447503 0.014427237
0001b0 2a a1 30 3d 30 30 0b 3c 2f 67 fc 3a 72 dc 16 bd
       0.043122448 0.0084953755 0.0019256825 -0.036831327
0001c0 fe 70 14 3d 6c 9f 01 bd f7 60 2d bd 0b 75 c5 bc
       0.03624057 -0.031646177 -0.0423288 -0.024103662
0001d0 88 ca af 3c 5a 8d 4b bd cf 30 35 3d fa 65 34 bd
       0.02145888 -0.04969535 0.044236 -0.044042565
0001e0 88 ef d1 3c 82 dd 9c bc 62 e1 f6 3c 63 8e 56 bb
       0.025626913 -0.019148592 0.030136768 -0.0032738678
0001f0 80 c4 7d 3d 31 b9 d1 3b f2 ba aa 3c 37 ab 7b bc
       0.061954975 0.0064002504 0.020841096 -0.015360645
000200 63 36 42 3d 65 6e 8f 3d 74 e2 9a 3d b5 d6 b0 3c
       0.04741515 0.07003478 0.07562724 0.021586755
000210 1f dd 9d bc 38 1d aa bd 8d 96 d4 bb 09 f6 1c 3b
       -0.019270478 -0.08306354 -0.0064876736 0.002395036
000220 15 2d 42 3c 54 26 6c 39 7e 85 26 bd b2 48 be 3a
       0.011851569 0.00022520992 -0.04065465 0.0014517515
000230 64 e8 d8 3c fd f8 0b 3d 54 cb f2 bc c2 aa 05 bd
       0.026478 0.034173 -0.02963797 -0.03263355
000240 b5 39 95 3a 26 f5 d0 3c 65 d0 c0 bc 4b 52 cb bd
       0.0011384996 0.02550752 -0.02353687 -0.099278055
000250 01 ef 57 3c ab 44 c7 bb 65 2a 41 bd 20 3b a9 bd
       0.013179542 -0.006081184 -0.04715957 -0.0826323
000260 18 d1 8e b9 87 04 0c 3d 8c 54 53 3d f4 87 97 bc
       -0.00027240138 0.034184005 0.051594302 -0.018497445
000270 b8 45 e4 3c 4d 0a c9 3c ac ad a5 3d ea e7 af 3c
       0.027865276 0.024541045 0.08089766 0.02147289
000280 8e 90 d8 3c a7 8c d4 3d 77 4c 43 bc 54 d5 d9 3c
       0.026436117 0.1037839 -0.011920086 0.02659098
000290 4f 2b 66 bc f1 5c b5 bc 95 6c 07 bd 29 eb f2 bc
       -0.0140484115 -0.022139044 -0.033062536 -0.029653149
0002a0 0c f0 7c 3c 4d f7 2a 3c ea 36 47 3c 25 fb 05 bd
       0.015438091 0.010434938 0.012159089 -0.032710213
0002b0 7c 70 b3 3a 9e e6 3c 3c c9 cb 7d 3d 6d d2 42 3d
       0.0013690139 0.011529593 0.061961923 0.04756396
0002c0 7d 22 e2 bc 9a a0 54 3d 91 44 fb 3b be 61 9b bd
       -0.027604336 0.051910974 0.007668086 -0.07587002
0002d0 ee 34 85 bd b9 a9 15 3d 67 11 4e bd d4 0b d2 bc
       -0.06504236 0.036538813 -0.050309565 -0.025640406
0002e0 c4 96 23 3d 22 b5 13 3d 41 44 81 3d df 91 1f bd
       0.039938703 0.036061414 0.063118465 -0.038957473
0002f0 ee cc 05 3c f8 f4 ae 3d 73 a5 ff 3b a5 d0 e6 3c
       0.008166535 0.08542818 0.0078017055 0.028175661
000300 f5 cb e9 3c 18 dc 34 bd a6 02 09 3d d7 97 48 bd
       0.028539637 -0.04415521 0.03344979 -0.04897293
000310 5b 45 17 3d b0 7e 91 3b 96 fa ab bc 4a c8 e9 bc
       0.036931377 0.004440151 -0.020993512 -0.028537888
000320 de 2f 75 3c 3f 38 da bc e9 39 d3 3a 1a b5 2a bc
       0.014965026 -0.026638148 0.0016115281 -0.010419155
000330 4c 32 25 3b 58 b4 23 bd cd ad 1e bc 61 6a 6f 3d
       0.0025206981 -0.03996691 -0.009684992 0.05845106
000340 a4 fc 8e 3c 44 21 49 bd a7 4d 92 3c f4 5b 92 bc
       0.017454453 -0.04910399 0.017859293 -0.017866112
000350 24 de 4c 3c e2 a1 96 3c 5c c6 21 bd 0a 20 af 3b
       0.012504134 0.018387739 -0.03949581 0.0053443955
000360 61 e4 31 bd 2a 7a 99 3c 89 9c 40 bd e7 b7 41 bc
       -0.04343069 0.01873501 -0.047024284 -0.011823631
000370 6a 06 53 bd c1 e5 e7 bc 59 70 3a 3c af ba 5f bc
       -0.05151979 -0.028307797 0.011379325 -0.013655349
000380 57 e3 bf 3c e2 15 a2 bb bb 94 82 3d c4 57 10 bc
       0.023423834 -0.0049464563 0.06376024 -0.008809987
000390 2b 55 2b 3d 13 00 15 3d 94 fe 36 bb 00 08 00 3c
       0.04182927 0.036377024 -0.0027922736 0.007814407
0003a0 0d 14 4c bc 08 c9 42 bd f5 94 8a 3c 89 64 85 bd
       -0.012455952 -0.047555 0.016916731 -0.06513316
0003b0 6b 68 1a 3d 1f 01 3c bd 43 7e c3 3c 59 52 5c bd
       0.037697237 -0.045899507 0.023863917 -0.05378947
0003c0 f1 60 d5 bc cd b3 8d 3d 24 e4 5f bb 9c 14 49 bd
       -0.026047202 0.0691906 -0.0034163082 -0.04909192
0003d0 d4 5c 66 bc aa 44 64 ba 1f be 27 3d c7 33 79 3c
       -0.014060218 -0.00087077415 0.040952798 0.015210099
0003e0 64 28 e3 bd ef be 90 bc 9c 05 54 bd c2 0c 26 bc
       -0.11091688 -0.01766917 -0.051763162 -0.010134878
0003f0 0c 2f c2 bc 98 d3 86 bc ca 59 81 3c 95 b7 60 3d
       -0.023704074 -0.016458318 0.015789885 0.054862577

baseModel.4.bias f4 [64]
000000 86 a5 33 b7 6a d6 d5 b5 5e 02 89 37 16 c8 be 38
       -1.070777e-05 -1.5932139e-06 1.6332775e-05 9.097175e-05
000010 8f 03 14 38 b9 9d a0 37 13 f7 3b b7 b4 cd f9 b4
       3.5289264e-05 1.9146932e-05 -1.1203595e-05 -4.6529533e-07
000020 d5 ac b6 b7 5f f3 22 36 93 2d 2a 36 53 4d 9b 38
       -2.1776572e-05 2.4281542e-06 2.5358502e-06 7.405379e-05
000030 09 0b 4d b7 03 5b 42 35 8c d8 12 b6 6b e7 ae b7
       -1.22215215e-05 7.240307e-07 -2.1881742e-06 -2.0850179e-05
000040 bc 7d 46 37 2b 57 5d 36 df cb dd b7 dc 9c f0 37
       1.18309945e-05 3.2982305e-06 -2.6440188e-05 2.8683273e-05
000050 e4 2b 93 b5 b7 f6 d6 37 30 5e a8 b7 c1 8b e4 b6
       -1.0965127e-06 2.5625674e-05 -2.007102e-05 -6.811199e-06
000060 b2 2b 52 b6 fc 82 af 37 81 38 53 37 64 bb 27 35
       -3.1317873e-06 2.092262e-05 1.2589736e-05 6.248504e-07
000070 7e 93 02 b8 3b b4 5c 36 04 30 9a b6 91 fe 48 37
       -3.1131778e-05 3.2887463e-06 -4.5951474e-06 1.19802e-05
000080 ae 99 af 37 f7 75 03 37 e9 6a 62 38 54 ea 25 b6
       2.0933188e-05 7.835674e-06 5.3982167e-05 -2.4723313e-06
000090 e9 4d c6 b7 65 12 bc b7 9a 16 a1 b7 7b 7c 96 35
       -2.3639719e-05 -2.2419912e-05 -1.920322e-05 1.12121e-06
0000a0 7c c5 6f 34 92 0d 13 37 41 a1 dc b7 57 31 0f 37
       2.2330454e-07 8.765042e-06 -2.6301133e-05 8.534952e-06
0000b0 c2 8e 28 38 89 75 91 37 99 89 5d b7 e6 5e 13 b7
       4.0187275e-05 1.7340079e-05 -1.3204663e-05 -8.783978e-06
0000c0 6e 83 ff b6 ed 29 02 38 87 85 b3 37 5e 67 cf b7
       -7.6148926e-06 3.103346e-05 2.1400641e-05 -2.4724457e-05
0000d0 3a 34 ed b6 50 bb c6 35 50 ed b6 37 e8 4d e2 b7
       -7.0692304e-06 1.4806665e-06 2.1806598e-05 -2.6977577e-05
0000e0 c7 aa 5e 37 33 c7 31 38 4c d2 01 b8 19 5a b3 37
       1.3271993e-05 4.2385607e-05 -3.095185e-05 2.1380418e-05
0000f0 7a 49 aa b6 41 f7 80 b5 05 e2 02 37 98 25 7a 36
       -5.0749486e-06 -9.608704e-07 7.801228e-06 3.7274785e-06

baseModel.5.weight f4 [64]
000000 de 03 4a 3f d3 41 34 3f 79 7e 42 3f 83 66 51 3f
       0.7891215 0.7041294 0.7597423 0.81797045
000010 91 61 43 3f 01 fa 3e 3f 57 07 49 3f b9 0d 31 3f
       0.7632075 0.74600226 0.78526825 0.69161564
000020 52 6c 45 3f 84 a4 3a 3f 58 af 2d 3f f3 16 51 3f
       0.7711841 0.7290728 0.6784568 0.8167564
000030 29 03 4c 3f 72 fb 43 3f a2 c9 3b 3f 8e c2 32 3f
       0.7969232 0.7655555 0.7335454 0.69828117
000040 2a b6 30 3f 76 e5 40 3f d2 52 3b 3f cd 95 37 3f
       0.6902796 0.7535013 0.7317325 0.7171295
000050 c9 17 48 3f 8f 3b 40 3f bc 6e 30 3f 28 cf 39 3f
       0.78161293 0.7509088 0.6891897 0.7258172
000060 5d 43 3d 3f e9 aa 3b 3f a1 55 36 3f dd c5 39 3f
       0.73930913 0.73307663 0.7122441 0.7256754
000070 7c b3 46 3f 2b 82 4e 3f b5 ec 33 3f 60 8c 38 3f
       0.7761762 0.8066737 0.7028306 0.72089195
000080 d8 e8 2e 3f d0 fd 3b 3f 28 ec 3d 3f d9 8b 3c 3f
       0.6832404 0.7343416 0.7418847 0.7365089
000090 fe 69 41 3f 11 a6 2d 3f 67 45 31 3f 01 ee 39 3f
       0.75552356 0.6783152 0.69246525 0.7262879
0000a0 73 ba 3b 3f e6 14 3c 3f 02 81 34 3f c5 d0 49 3f
       0.73331374 0.7346939 0.7050935 0.7883418
0000b0 ed ca 4e 3f 69 cb 50 3f 94 82 43 3f 35 35 40 3f
       0.8077839 0.8156038 0.7637112 0.7508119
0000c0 03 27 5f 3f fc d5 2e 3f 16 76 3a 3f 57 69 32 3f
       0.871689 0.68295264 0.72836435 0.69691986
0000d0 82 d7 3c 3f 69 85 3b 3f a0 d5 3d 3f 69 be 3a 3f
       0.7376634 0.7325044 0.7415409 0.7294679
0000e0 5b 74 57 3f 98 70 39 3f 44 0f 31 3f c3 45 34 3f
       0.8416192 0.7243743 0.6916392 0.7041895
0000f0 ac cb 4c 3f b7 96 3a 3f 95 18 32 3f ed 57 34 3f
       0.7999828 0.7288622 0.6956876 0.70446664

baseModel.5.bias f4 [64]
000000 d0 91 68 bd 31 c9 6c 3d 06 52 11 3d 17 38 f6 bd
       -0.056779683 0.05780906 0.035478614 -0.12022417
000010 9a 49 77 bc 3a 88 87 3c 02 49 44 bd b9 0b ab bd
       -0.015093232 0.01654445 -0.04792119 -0.08351845
000020 66 5a c8 3b 56 01 03 3d 40 ed e7 bc 82 44 5d bd
       0.006114292 0.031983696 -0.028311372 -0.054020412
000030 f3 55 fb bd 56 6c 71 bd c1 44 b0 3c d1 4f dd 3d
       -0.12272253 -0.058941208 0.02151716 0.108062394
000040 8d d6 b4 ba aa 1f 81 3a 59 78 fe bb ab ee cd bc
       -0.0013796851 0.0009851356 -0.0077658114 -0.02513822
000050 52 26 97 3d 4f fc 7c bd 5d e1 5b bd cf 57 fe bc
       0.07380356 -0.061764058 -0.05368172 -0.03104773
000060 23 7c ec bb 4c 4d 40 bd ef 47 91 bd 14 b8 c3 3c
       -0.0072169467 -0.046948716 -0.07093798 0.023891486
000070 01 de 93 3c 03 06 a2 bd d3 bd 1c bd 53 14 e9 bd
       0.018050196 -0.07911303 -0.038266968 -0.1138083
000080 8e 4c 12 bd f8 56 90 bd 8b 14 e2 3c 97 e8 99 3c
       -0.03571754 -0.07047838 0.027597686 0.018787665
000090 35 1a 2a bd c2 a6 b2 bc 4c 80 69 bd 68 7d c0 3c
       -0.0415289 -0.021808032 -0.05700712 0.023497298
0000a0 ca ad 64 3d 08 e3 51 3c 6f 61 0f 3d 2f 3e 09 be
       0.0558298 0.012810476 0.03500503 -0.13402627
0000b0 cb 2d a7 bd 58 61 7e 3c ce 89 38 bc ae 82 2e bd
       -0.08163031 0.015526138 -0.011263324 -0.042605095
0000c0 90 4b 0e be b2 f8 b1 bd d0 05 00 bb 96 5b 4d 3c
       -0.13896012 -0.08690013 -0.0019534715 0.012534043
0000d0 24 5e 7a 3d 62 4d 98 3d 2a 9c 9c bd 39 1c 38 be
       0.061124936 0.074366346 -0.076469734 -0.17979516
0000e0 32 55 c0 bd 25 6b a6 bd d7 7d 85 bd 37 4d c2 bb
       -0.0939125 -0.08125905 -0.06518143 -0.005929615
0000f0 fc 6e 71 bd 32 95 a5 3c ae d9 02 bd 1d 4e 83 bc
       -0.058943734 0.020212743 -0.031945877 -0.016028458

baseModel.5.running_mean f4 [64]
000000 9e ae 67 bd 51 c9 3f bd 78 eb a6 be 72 d9 b6 bd
       -0.056563012 -0.04682285 -0.32601523 -0.08928193
000010 44 c8 d2 3c fa d5 81 3d e9 68 75 bd da a7 b1 bd
       0.02573026 0.06339641 -0.059914503 -0.08674593
000020 c0 01 87 bd 29 88 76 be 10 26 8e 3c 1a 9c c4 ba
       -0.06592131 -0.24075378 0.017352134 -0.0015000135
000030 fe 3a 56 bd b2 b7 4f be b9 1e 6f 3d 19 7d fe 3d
       -0.052302353 -0.20284918 0.05837891 0.12426204
000040 01 e0 e0 bd 23 fd 28 3e 82 8e 15 bd db 45 93 bd
       -0.10980225 0.16502814 -0.03651286 -0.07191058
000050 ca f9 86 be 49 a4 af 3c ea 17 d7 3d 57 80 94 3c
       -0.2636245 0.021440642 0.10502608 0.018127603
000060 2a e4 42 bd 20 81 9f 3c 09 3d db bd 87 8b d1 be
       -0.047580875 0.019470751 -0.10705001 -0.40926763
000070 dd a7 c3 bc 23 59 90 bd 6b 3c 82 bd 44 c7 90 bd
       -0.023883754 -0.070482515 -0.0635918 -0.07069257
000080 39 cf 67 be 70 4c e0 bd 5b 21 ae 3d ad 07 02 3e
       -0.22637643 -0.10952079 0.08502456 0.1269824
000090 62 4a 21 3e 87 ef 7c 3c d6 1e 80 3c 81 e6 4b 3d
       0.15751031 0.015437967 0.015639704 0.049780373
0000a0 88 21 8b 3e 50 ad 86 bd 0c 47 ac 3d 11 27 c4 bd
       0.2717402 -0.065760255 0.084119886 -0.09577764
0000b0 0d 7d 80 3b f6 c4 59 bd dc 4f a7 3b ac 7d 0d be
       0.003921157 -0.053166352 0.0051059555 -0.13817471
0000c0 c8 e1 8f bd 73 09 f7 bc 8f b1 39 be f3 8b 11 3e
       -0.07025486 -0.030155873 -0.1813414 0.14213543
0000d0 7e a6 4a bd 39 29 8e 3e 80 a3 35 bd 56 ed 21 bd
       -0.049475186 0.27765825 -0.04434538 -0.03953298
0000e0 26 e5 0f be 4e cb 2e 3c 18 cf 92 3d ac 8b 8a 3c
       -0.14052257 0.010668589 0.07168406 0.016912304
0000f0 30 28 f0 3c fa 47 8b be 75 9d f8 3d 9a 02 28 be
       0.029316038 -0.2720335 0.121394075 -0.16407242

baseModel.5.running_var f4 [64]
000000 5e 95 fd 3c 28 9f 36 3d b0 10 3e 3d 59 ae 26 3d
       0.030955013 0.044585377 0.046402633 0.040693615
000010 2b 72 a5 3d e5 df 04 3d 30 24 41 3d 0c 87 40 3d
       0.080784164 0.032440085 0.04715365 0.04700379
000020 df f2 a0 3d 13 a3 3d 3d 72 f7 51 3d f1 e8 51 3d
       0.07858824 0.046298098 0.051261373 0.05124754
000030 01 8e cd 3d cf 6e 2c 3d 36 86 cc 3c 42 d5 41 3d
       0.10036851 0.042097863 0.02496634 0.04732252
000040 b0 49 25 3d 27 97 25 3d b2 41 8e 3d 92 86 dd 3c
       0.040353477 0.040427353 0.06946124 0.027041707
000050 f2 2b be 3c 88 1f 22 3d bb b8 a0 3d 37 c0 82 3d
       0.023214314 0.03958085 0.078477345 0.06384318
000060 0d 8d 86 3d b4 05 8c 3c 94 e0 08 3d 8a 70 a4 3d
       0.06569872 0.017092563 0.0334173 0.080292776
000070 f0 1d 30 3d 11 80 92 3d 43 67 50 3d 5a 2e 4f 3d
       0.0429973 0.07153333 0.050879728 0.050581314
000080 b7 9c 57 3d c6 23 b7 3c 47 69 54 3d d1 dc 9b 3d
       0.05263969 0.022355925 0.051858213 0.07610477
000090 09 f4 5b 3d 09 bc 2e 3c 87 5a 6f 3d ab fb 33 3d
       0.053699527 0.010664948 0.058435943 0.04394118
0000a0 3a 43 40 3d d1 fd 49 3d be 55 e8 3c 24 b4 9a 3d
       0.046939112 0.049314324 0.028361198 0.0755389
0000b0 37 b8 b5 3c 91 84 d7 3c f3 47 18 3d 02 ea 83 3d
       0.022182567 0.02630833 0.03717799 0.06441118
0000c0 db 7b 46 3d 43 c0 c7 3c 65 ad 84 3d 12 7d 2d 3d
       0.04845796 0.02438367 0.06478385 0.042355604
0000d0 fd 8a 90 3d d5 85 24 3d bb 8b 8b 3d 73 8e de 3c
       0.0705776 0.040166695 0.06813761 0.027167534
0000e0 01 c5 e8 3d 63 82 e4 3c ec e5 22 3d 2c 28 34 3d
       0.113657005 0.027894204 0.03977005 0.043983623
0000f0 cb 3b 81 3d 84 86 f5 3c 2f 82 69 3d b2 76 e5 3c
       0.06310233 0.029971369 0.05700892 0.0280107

baseModel.8.weight f4 [64, 64, 3]
000000 ce 60 6e 3c 89 f2 11 bd 3b 37 20 bd 26 be c3 bc
       0.014549447 -0.03563169 -0.039115172 -0.02389438
000010 78 a8 bc 3c 2e c2 9a 3b f9 94 f5 3c 3c 40 18 bd
       0.02302955 0.004722855 0.029978262 -0.037170634
000020 34 7c 8d bc 37 a3 ca bc 04 d1 6f 3c 39 f5 2b bd
       -0.017271139 -0.02473603 0.014637236 -0.04198191
000030 c5 42 4a bd bc 3d 1f bd c0 45 4d bd 24 b4 f0 3c
       -0.049380083 -0.038877234 -0.050115347 0.029382773
000040 d7 12 f1 bc c0 ac 0a 3d d6 f6 1a bd 30 4d da 3c
       -0.029427929 0.033856153 -0.037833057 0.026648134
000050 de 1b 0e bd 6e 34 97 bc 7e 0e f9 3c 90 3f e5 3c
       -0.034694545 -0.018457618 0.030402418 0.02798441
000060 6a 3c ac 3c 42 55 8a 3c 3b 68 8b bd c6 3c 0f 3d
       0.021024901 0.016886357 -0.0680699 0.034970067
000070 85 fc 11 3d 26 d1 03 bd bc 2d 8d 3c ac 98 a5 bc
       0.035641212 -0.03218188 0.017233722 -0.020214401
000080 0d 62 2d bd a4 62 40 bd f1 62 c7 3c fe 2b a4 3c
       -0.042329837 -0.04696907 0.024339171 0.020040508
000090 4e 51 1d 3c 1b 0b 1b bd 63 b9 98 3b 17 29 22 bc
       0.009601904 -0.037852388 0.0046607717 -0.009897492
0000a0 9b 1f d5 3c cb b8 a7 bc b9 f1 39 3c c9 ff 98 3c
       0.026016047 -0.020473858 0.011349135 0.018676655
0000b0 ca a4 85 3c ac d9 27 bc 73 07 17 bb b0 60 b1 bc
       0.01631393 -0.010244768 -0.0023045212 -0.02165255
0000c0 b2 0b e5 3c 7d 96 5b b9 84 7e 17 3d ad 53 5b bc
       0.027959678 -0.00020941529 0.03698589 -0.013386649
0000d0 39 95 a2 bc 59 79 4e bd cb 80 2b bd 7f 4f 09 3d
       -0.019846546 -0.050408695 -0.041870873 0.03352308
0000e0 98 29 87 bc 77 1a e6 bc 7e 37 9d 3c 6c e8 00 3d
       -0.016499326 -0.028088791 0.0191915 0.031471655
0000f0 9e cc 3d 3d 33 a3 81 bd df 9c b9 bc af 39 21 3c
       0.046337716 -0.06329956 -0.02265781 0.009840413
000100 b6 8d a0 bb 14 3e 01 bb c1 c3 29 3d e7 9c 3d bd
       -0.0048997058 -0.001972084 0.04144645 -0.04629221
000110 be b8 92 bb e7 00 17 3c 52 be e2 bc 61 c2 08 bd
       -0.0044775894 0.009216524 -0.027678642 -0.0333885
000120 48 a0 f2 3c 99 75 1e bc 6a b5 83 3c 29 e2 1a 3d
       0.029617444 -0.009671592 0.016077716 0.03781334
000130 28 5c 1a bb 0d 45 c9 3d e1 60 59 3c f6 77 01 bd
       -0.0023553465 0.098276235 0.013267727 -0.031608544
000140 10 3b a3 3c 15 0b d6 3a 21 05 61 bc 29 b5 7b 3b
       0.019925624 0.0016330207 -0.013734133 0.003840754
000150 8f 8f 98 bb 0b d0 77 3c 69 86 66 3d 91 1a 19 bd
       -0.0046557854 0.015125285 0.056280527 -0.03737885
000160 9b a5 41 bb 03 27 46 bd f9 c4 5b 3d ff ca 4f 3b
       -0.0029548171 -0.04837705 0.053654645 0.0031706688
000170 23 30 57 bd d3 22 ae 3c 48 c2 05 3d 76 f1 f6 bc
       -0.05253614 0.02125684 0.032655984 -0.030144434
000180 46 dd 43 bd ed 69 0d bc 69 30 73 3d 95 90 e8 bc
       -0.047818445 -0.008631212 0.05937234 -0.028389255
000190 eb f3 71 bd 4d fa 44 bd a5 bf 16 3d d8 c9 40 3c
       -0.05907051 -0.048090268 0.03680386 0.011766873
0001a0 b3 67 97 bc cf 9b 1a bd a9 e1 2a 3d a6 2a 42 3d
       -0.018482065 -0.037746247 0.041719113 0.047403954
0001b0 9c da e9 bc 01 e7 c2 3c e7 88 4d 3c d5 ed ae ba
       -0.028546624 0.023791792 0.012544847 -0.0013346026
0001c0 d7 7b a5 bb 05 85 fd 3c 3d 67 fe 3c a4 14 16 bd
       -0.0050501633 0.030947218 0.031055087 -0.03664078
0001d0 37 a6 24 bd d3 13 36 bd 09 c2 ce bc 5d a5 13 3d
       -0.040197577 -0.0444525 -0.025239008 0.036046375
0001e0 a8 de 82 bd 1d cc d1 bc c2 a4 56 bc 8c f2 17 bd
       -0.063901246 -0.025610024 -0.013100805 -0.037096545
0001f0 93 47 74 3c 0f c2 5d 3b 5c eb 72 bb cd cc 72 bc
       0.014909643 0.0033837592 -0.0037066555 -0.014819336
000200 25 dd 2c 3c ae 5e 49 3d 67 90 c8 bc 27 0d 57 3d
       0.010550772 0.04916256 -0.024482919 0.052502777
000210 55 d3 99 bc bd ab ef 3c e5 f8 1f bd 88 27 c7 bb
       -0.018777529 0.029256696 -0.039055724 -0.0060777105
000220 e8 37 b9 bd 43 a4 d1 bd 2d 92 9f 3d 0e cb ce 3b
       -0.090438664 -0.102364086 0.07791553 0.006310827
000230 e2 2f 29 bd cd aa de 3c 4c 63 9f bc 76 9c 3f bc
       -0.04130543 0.027181054 -0.019456528 -0.011695018
000240 d7 35 13 3d 3b 41 5a bd 18 06 4d 3d 51 8f 9e 3c
       0.035940018 -0.053284865 0.05005464 0.019355448
000250 98 ce c8 bc 71 fc ed bc ec 71 b6 bb 74 53 0f 3c
       -0.024512574 -0.029051038 -0.0055677798 0.008747924
000260 5e 77 fe 3c 2c 2a ce bb 8b 4c 2b bd 5b 10 4d ba
       0.031062778 -0.0062916484 -0.041821044 -0.00078225665
000270 8c e8 37 bd 4e 50 55 bc 5d f8 b0 bb a6 86 40 bd
       -0.04489951 -0.013019634 -0.005400701 -0.04700341
000280 98 1e 58 3c 6b 7d 79 3d 29 21 83 bd 70 c8 45 bd
       0.013190888 0.060910624 -0.06402809 -0.048286855
000290 52 fa 38 3c b3 da 4d 3c 75 30 f4 bc ea 20 1e bd
       0.01129015 0.012564349 -0.029808262 -0.038605608
0002a0 5a b1 bf 3b d2 98 4e 3b 77 6c 9a 3d b6 68 bb ba
       0.0058499994 0.0031524193 0.07540219 -0.0014298174
0002b0 c0 cb 49 3c f8 23 05 bc 67 bf 5d 3d 7d 4f 89 bd
       0.012316644 -0.008126251 0.054137614 -0.06704614
0002c0 a3 58 5a 3c f8 5d 98 bd b4 43 07 3c 01 26 57 bd
       0.013326797 -0.07439798 0.008255888 -0.052526478
0002d0 51 d4 66 3d 4a 6c 13 3d e4 75 7b bd d1 43 c6 bc
       0.056354824 0.035991944 -0.061391726 -0.02420226
0002e0 58 7e 52 3c 1f 48 93 bc 96 e9 47 3d b0 1f d6 3b
       0.0128475055 -0.017978726 0.04880675 0.006534539
0002f0 59 ef 77 3d f7 b9 81 bc 12 f3 25 3d 1a 8f 65 3d
       0.060530994 -0.015835745 0.040515013 0.056044675
000300 11 7b 51 bc 9f 86 1a 3c ae 55 7a bd 40 ef c0 3c
       -0.012785689 0.00943151 -0.061116867 0.023551583
000310 a2 4b bb bb 88 e3 70 bc 3d e7 60 3d 66 76 64 3d
       -0.0057158032 -0.014702685 0.054908026 0.055776976
000320 9c 03 8f 3d e6 0a 24 3d fb 49 6f 3d 9e 2f d8 bc
       0.0698311 0.040049456 0.058420163 -0.026389893
000330 6d e6 75 bd 5a d2 87 bd 36 01 86 3b b0 aa 39 3c
       -0.060034204 -0.06631918 0.0040895 0.011332199
000340 b5 fb a4 bc 6b 68 e0 ba 9b bd 87 bd 38 aa 98 bc
       -0.020139555 -0.0017120963 -0.06627961 -0.018635854
000350 f9 77 72 bc 34 a5 43 3c 30 ca 76 3d 86 6e 11 bd
       -0.0147991115 0.011941243 0.060251415 -0.035505794
000360 0a 3d b4 3b 04 c4 16 bd 92 13 38 bd 53 40 81 bd
       0.0055004405 -0.03680803 -0.04494054 -0.06311097
000370 6c cb 10 3d e9 ca 05 bc 09 29 5f bd 17 07 4b bb
       0.03535025 -0.008166053 -0.054482494 -0.0030979568
000380 0c ea 5c bd 80 5c b9 bd 1d 2d 67 bd ec 8a e5 bc
       -0.053934142 -0.09050846 -0.056439508 -0.028020345
000390 e3 3e 8f ba f6 1d 18 3d 47 8e 49 3d 95 35 17 3d
       -0.0010928776 0.037137948 0.049207952 0.036916334
0003a0 9c 52 da bc 6c 6d e6 3c a4 40 a8 3c 09 8f a9 3b
       -0.02665072 0.028128348 0.020538636 0.005174522
0003b0 8d 43 69 bc 7a 4c 6b 3c 06 d4 0a 3d a2 ba a2 bd
       -0.014237297 0.014361495 0.033893608 -0.07945754
0003c0 79 5e b4 bc 55 c6 1d bc 7b fa 6a 3c 53 ed 8e 3d
       -0.022017704 -0.009629806 0.014341946 0.0697886
0003d0 c5 2e a3 bc 16 af f4 3b 28 20 d0 bb f1 4c 50 3d
       -0.019919762 0.007467161 -0.0063514896 0.050854627
0003e0 d2 71 69 3b 09 21 5f 3c 5d 4e 20 3d 5b 56 c4 3b
       0.003562082 0.013618716 0.039137233 0.0059917397
0003f0 3c 27 b5 bc 81 a0 13 bd ac cc 06 3d 7c 9c c6 3c
       -0.022113435 -0.03604174 0.032910034 0.02424454

baseModel.8.bias f4 [64]
000000 9f 83 93 b7 6e 03 68 37 d9 25 47 b7 71 c8 8f 37
       -1.7585056e-05 1.3829076e-05 -1.1870136e-05 1.7140266e-05
000010 a6 d5 fe 37 9c 4e ad b4 96 35 53 b6 44 b1 b0 b6
       3.0378647e-05 -3.2280957e-07 -3.1472641e-06 -5.265845e-06
000020 94 55 80 b7 25 19 78 36 f2 35 bf 36 89 68 0b 36
       -1.529864e-05 3.6969516e-06 5.6985236e-06 2.0773462e-06
000030 6b 01 62 b6 2a 24 21 37 b0 2c bf b6 27 a9 80 b7
       -3.367745e-06 9.604768e-06 -5.697446e-06 -1.5337557e-05
000040 6e 76 a0 b5 e2 47 b5 b6 e0 7f f3 b6 fd 68 c7 b4
       -1.1955397e-06 -5.4025886e-06 -7.256851e-06 -3.7143027e-07
000050 fa ef c7 36 9c 70 58 37 ed c1 09 b7 00 fc fb 36
       5.958599e-06 1.2900822e-05 -8.210988e-06 7.5097196e-06
000060 f0 17 37 37 46 7d c9 b6 f9 b1 af 35 88 d8 d9 36
       1.0913223e-05 -6.0048505e-06 1.3090313e-06 6.4923115e-06
000070 cd 79 50 37 1a a1 42 b7 a7 d4 1a 36 5b 1c 91 36
       1.2426125e-05 -1.16008105e-05 2.3071568e-06 4.3246378e-06
000080 9f af 84 b7 55 43 ed b5 54 e7 0e b7 46 f8 5e 36
       -1.5817406e-05 -1.7677472e-06 -8.51772e-06 3.3225092e-06
000090 ca 43 2f b8 3f ad 34 36 31 af 52 b7 70 24 6b 37
       -4.1786385e-05 2.6922933e-06 -1.2557765e-05 1.4015575e-05
0000a0 7a c8 9e b7 1a bd e0 b6 9f 67 d5 b7 5f 61 d4 b5
       -1.8928422e-05 -6.6977345e-06 -2.5439831e-05 -1.582357e-06
0000b0 1e d4 e0 b7 36 54 4a 37 ed 4a 7a b6 56 10 96 b7
       -2.6801656e-05 1.2059745e-05 -3.7296516e-06 -1.7889e-05
0000c0 4f eb 41 37 fb dc 8b b5 6a 4b 89 b6 07 74 ab b7
       1.15584835e-05 -1.0420621e-06 -4.0916975e-06 -2.0438818e-05
0000d0 a7 f9 86 b6 01 04 6e 34 97 be c3 37 57 b8 a7 36
       -4.0225746e-06 2.2166934e-07 2.3334562e-05 4.998448e-06
0000e0 8e e7 0f 37 a3 6e 21 37 f4 8f 65 37 bf 8a 1a 38
       8.577377e-06 9.622107e-06 1.368298e-05 3.684568e-05
0000f0 c8 ef 13 b7 be 83 5c 37 ae 69 01 b7 d1 e1 38 36
       -8.817711e-06 1.31436955e-05 -7.713605e-06 2.754958e-06

baseModel.9.weight f4 [64]
000000 9d 62 21 3f 1a 17 48 3f a5 14 45 3f 60 0e 4e 3f
       0.63041097 0.7816025 0.76984626 0.80490685
000010 d0 e6 2f 3f 55 fe 47 3f dd ee 46 3f ad de 47 3f
       0.68711567 0.78122455 0.77708226 0.7807415
000020 62 8d 35 3f 4c 4b 32 3f ef 99 38 3f 85 38 35 3f
       0.7091886 0.69646144 0.72109884 0.70789367
000030 e2 d0 3f 3f af b7 3a 3f 0f 32 28 3f 01 74 36 3f
       0.74928105 0.7293653 0.65701383 0.7127076
000040 19 fc 2f 3f d2 bc 28 3f c9 8f 40 3f 0d 18 45 3f
       0.68744045 0.65913117 0.752194 0.76989824
000050 2c 8c 43 3f 57 a4 56 3f 5d 7f 42 3f fc 1d 45 3f
       0.7638576 0.8384451 0.7597559 0.7699888
000060 f1 2c 33 3f 3e da 3c 3f 86 8a 2f 3f 0e f2 3b 3f
       0.6999045 0.7377051 0.68570745 0.7341622
000070 a0 4a 22 3f e9 87 48 3f 97 5f 30 3f 64 ec 39 3f
       0.6339512 0.7833238 0.6889586 0.7262633
000080 90 88 36 3f 19 c4 3b 3f 22 67 50 3f 82 08 50 3f
       0.7130213 0.73346096 0.8140737 0.8126298
000090 cc 25 20 3f ea f4 31 3f 5d 12 31 3f e8 1b 3d 3f
       0.62557673 0.69514334 0.69168645 0.73870707
0000a0 4f cc 2a 3f 84 0b 57 3f 25 8b 3e 3f 4d 06 59 3f
       0.66718 0.84001946 0.7443107 0.8477524
0000b0 51 a0 5b 3f d9 8c 47 3f 33 3a 56 3f d0 db 34 3f
       0.857915 0.7794929 0.83682555 0.7064791
0000c0 f1 d6 2a 3f 93 ea 32 3f e8 b1 42 3f 35 e4 43 3f
       0.66734225 0.6988918 0.76052713 0.7652009
0000d0 6b 7f 46 3f a2 37 4d 3f 4a 32 26 3f b7 57 31 3f
       0.77538174 0.80163014 0.64920485 0.6927447
0000e0 e4 8a 17 3f b8 1b 34 3f d4 18 47 3f 07 50 35 3f
       0.59196305 0.70354795 0.7777226 0.7082524
0000f0 16 a8 34 3f 3c 72 5b 3f e4 97 51 3f 61 d8 3f 3f
       0.7056898 0.8572118 0.8187239 0.74939543

baseModel.9.bias f4 [64]
000000 53 d3 bb 3b 74 d8 ab 3c d3 60 33 bd 6d 52 1b bd
       0.005731979 0.020977236 -0.04379351 -0.037920404
000010 8a 00 72 bc 89 d1 2b 3c 62 98 23 ba 39 74 a6 3c
       -0.014770636 0.010486969 -0.00062406634 0.020319091
000020 a7 12 79 bd 1b 5c ad bb a4 35 bb bb 20 0a 09 bd
       -0.060808804 -0.005290521 -0.0057131816 -0.03345692
000030 e3 c2 7f bc 30 f3 93 3c a1 c9 4e bd 5d e2 db 3c
       -0.015610429 0.018060297 -0.050485257 0.026841337
000040 1c 61 c0 3c 7c 43 8c 3c ef ab 0b 3d a9 41 88 b9
       0.023483805 0.017122023 0.034099516 -0.00025988862
000050 12 10 2b bd 43 b6 da bb 11 9d ad 3c 0f 46 9e bc
       -0.041763373 -0.0066745593 0.02119306 -0.019320516
000060 61 5e c7 3b 14 b5 55 bd a1 20 67 3b 9c 48 95 bb
       0.006084249 -0.052174643 0.003526725 -0.004555775
000070 fb 43 10 bd ca 5e 9b bc c4 46 80 3c 4d 53 b8 bb
       -0.03522108 -0.018966097 0.015658744 -0.0056251646
000080 de a9 d8 3c e7 13 98 bc 33 db e8 bc 7d b0 0d bd
       0.026448186 -0.018564178 -0.028424835 -0.03459214
000090 be 3d 58 bc 11 a3 03 3c ca 4a 6d 3d aa 02 85 3b
       -0.013198314 0.0080344835 0.057932653 0.0040591555
0000a0 0b ea 7f 3c 6f d2 9b 3d 50 24 32 3d ab bf a5 3c
       0.015619765 0.076084964 0.04349166 0.020232996
0000b0 64 6d 4b 3d 1c 43 45 3d 94 11 9b bc d2 c3 46 bd
       0.04966487 0.048159704 -0.01892928 -0.048526593
0000c0 3a c4 4a bd c4 f9 22 bc 58 3c 8c bc 94 50 9f 3b
       -0.049503542 -0.009947244 -0.017118618 0.0048619006
0000d0 f1 5c 1e 3d 3f de f8 bb 02 6c 1e 3d a1 15 63 bc
       0.038662855 -0.007594853 0.038677223 -0.013860137
0000e0 13 81 f8 3c b9 0d 04 bd 35 6f a4 bd c7 3b 34 3c
       0.030334985 -0.03223965 -0.080290236 0.01100058
0000f0 44 55 99 3b 6a 2d 8b bd 6b f3 14 3d 10 47 87 3d
       0.004679354 -0.067957714 0.036364954 0.06605351

baseModel.9.running_mean f4 [64]
000000 e5 76 92 be 17 79 20 3d 50 40 8b be 58 1a 32 be
       -0.28606334 0.03917798 -0.27197504 -0.17392862
000010 24 cd 3a bd 47 5b 0f 3e 26 0b 84 be c8 2a a8 be
       -0.045605794 0.13999663 -0.25789756 -0.3284514
000020 8d 70 07 3e f8 d3 b0 be 02 9b a5 bd 11 a1 c3 be
       0.13226528 -0.3453672 -0.08086206 -0.3820882
000030 dc 54 49 be 83 3c a8 3e 0d c5 7c 3c 38 c5 c7 3d
       -0.19661278 0.32858667 0.01542784 0.09754413
000040 b7 e7 ff 3c 04 ee 93 3e 41 55 00 be 98 4d c0 bd
       0.03123842 0.2889253 -0.12532522 -0.093898
000050 46 2e 32 be 78 84 aa be d6 be 6e 3e 49 75 f5 3d
       -0.17400464 -0.3330419 0.23314986 0.11985261
000060 2b a0 d9 be 6e ea e5 3d 05 06 c4 3e e3 d5 56 3e
       -0.4250501 0.112263545 0.38285843 0.20980029
000070 5f 6d 86 be ca 2a b7 3e bd bc 33 bc cd 08 a7 be
       -0.2625532 0.35774833 -0.010970292 -0.32623902
000080 20 11 c4 bc 11 19 c4 bd c4 fc d5 be 8f 11 06 bf
       -0.023933947 -0.095750935 -0.41794407 -0.5237054
000090 c0 94 b7 be e9 05 a8 3e 77 9b a7 3c ab ab 58 3f
       -0.35855675 0.3281701 0.020459874 0.84636945
0000a0 9f 01 e8 3d b5 ae f8 be 04 4c 85 be 84 00 e3 3d
       0.11328434 -0.4857079 -0.26034558 0.11084083
0000b0 e9 33 90 bd f9 b6 ac 3e e9 9d c5 be 2b bc 7c 3d
       -0.07041151 0.33733347 -0.38597038 0.06170289
0000c0 1a ef 0c 3e 94 80 93 3d 30 98 a1 bd e8 8b 13 3f
       0.13763085 0.07202259 -0.078903556 0.57635355
0000d0 7f 01 68 3c 87 8b f6 bc f1 a8 5b bd 25 4e 29 3d
       0.014160513 -0.030095829 -0.053627912 0.04133429
0000e0 d4 9d 15 bd ec 1a 74 be 2e fa 99 3e bb db f7 be
       -0.03652747 -0.23838395 0.30073684 -0.4840983
0000f0 23 3b cf be bc 19 1b bd 59 78 b5 3d d8 db 44 3e
       -0.40474805 -0.03786634 0.08860845 0.19224489

baseModel.9.running_var f4 [64]
000000 31 71 62 3d 1e 45 00 3e 55 ab f6 3d b9 55 d0 3d
       0.05528373 0.12526366 0.12044398 0.101726
000010 35 b9 a4 3d b3 58 8f 3d 94 25 f1 3d 9f c8 01 3e
       0.08043138 0.0699934 0.117747456 0.12674187
000020 3d 0e a0 3d ca 5d 51 3d 67 a2 6c 3d ae f8 93 3d
       0.07815216 0.051114835 0.057772066 0.07225166
000030 0f 62 a7 3d 98 42 9e 3d cf db 93 3d f5 8e 5b 3d
       0.08173 0.077275455 0.072196595 0.05360313
000040 b4 c9 ab 3d 47 a2 80 3d 5e 97 9e 3d e8 33 b0 3d
       0.08388081 0.06280952 0.07743715 0.0860365
000050 41 80 ab 3d c6 02 52 3e 9b 97 bd 3d d4 50 c2 3d
       0.08374072 0.2050887 0.09257432 0.09488073
000060 a2 30 57 3d 4a e1 a9 3d 46 3a aa 3d 7e 81 b7 3d
       0.052536614 0.082949236 0.08311896 0.089602455
000070 c3 0b 82 3d c2 ea e5 3d dc 87 5c 3d 15 ba a8 3d
       0.063498996 0.11226417 0.053840503 0.08238617
000080 fc ae 6e 3d 55 23 9b 3d d3 e2 21 3e 33 89 e1 3d
       0.058272347 0.075750984 0.15809183 0.11012497
000090 bf 69 12 3d d5 95 8c 3d e1 02 68 3d 9a a8 e9 3d
       0.03574538 0.06864516 0.05664337 0.11409111
0000a0 26 87 5d 3d 90 f1 ff 3d 2a a6 8e 3d 5a ac 39 3e
       0.054083966 0.12497246 0.06965287 0.18132153
0000b0 36 36 ad 3d 37 ca d6 3d 42 43 84 3e 7c 1c 9a 3d
       0.084576055 0.10487788 0.25832564 0.07524964
0000c0 90 b1 a9 3d 14 40 88 3d aa 98 dc 3d 18 14 af 3d
       0.082858205 0.06652847 0.10771306 0.085487545
0000d0 7b 7c 08 3e 9a 6c a5 3d 52 0e 73 3d ee 60 8f 3d
       0.13328736 0.08077355 0.05933983 0.0700091
0000e0 b0 a7 44 3d 3d 5b c4 3d ef 69 d7 3d a0 52 66 3d
       0.04801148 0.09587715 0.10518252 0.05623114
0000f0 3d 3d 94 3d 97 f7 e9 3d 82 7b 18 3e e8 7a b5 3d
       0.07238243 0.11424177 0.14890864 0.08861333
