Models/best_eeV0_0501_.pth (torch, 769923 bytes, 48 tensors)

baseModel.0.weight f4 [64, 2, 3]
00000000: 2a50 3f3e 3f19 3fbe 12c9 79be 8fdd 7d3e
00000010: 0f4d 363e f3ce c5bd b713 363e a2a8 cf3e
00000020: 2862 98be 98e3 c33e 74d1 6ebe e5ff babe
00000030: 8d4d 19be c7d9 6ebe bf7c 72bd a062 90be
00000040: 9340 203d fce7 90be 9c9d 1e3d 3d96 5c3d
00000050: 8b92 fa3d f824 3d3e 06b1 e23d 7f9b 45be
00000060: 43c3 9cbe 4f29 34be 33e4 753d 0399 a3be
00000070: 8b61 ae3e ffcf 403e ade0 4bbe caac 45bc
00000080: 5637 93be 6680 bc3e aebd 1e3e c864 c33e
00000090: 99c0 903e 6285 75bd e376 7bbd d72e dbbe
000000a0: 461a 82be 3cb5 c5be 708c 4b3e d256 85bd
000000b0: 65be 163e 529a acbe f0fb 5ebe 53fb c6bd
000000c0: 5664 96be caf9 bcbd e2bb b73e 1aa0 043d
000000d0: e6e2 5d3e 02db 04be bb0f edbc 0735 66be
000000e0: 53f5 2abe 85f6 9e3e 6848 9b3c 642f 69be
000000f0: 0496 b33e 2801 a2be 0ccd 1ebe c0ed 7b3d
00000100: e2f4 25be e5a7 6cbe 33f2 533e 0f21 89bd
00000110: 8c08 1bbe 3697 cf3e 572f a63e 4324 b53e
00000120: 3cbc 8c3e 962e 90be a1bd 6cbe 193e c13d
00000130: 07e4 d43e bc8d 73be 9ef1 d6bd 250c be3e
00000140: 8f01 aebe e1f7 693e 1e5e 523e fa1f d03d
00000150: 5a73 9cbd fb7c 883e a1d7 b43d 89de 2d3e
00000160: a44a 463e 70d8 9ebe 78f1 5c3e 0e7e 9dbe
00000170: 3d5f 763e c405 93bd 1b02 c43d 03c0 92bd
00000180: 4b02 173e f17f 69be 81e9 83be d3b2 9bbe
00000190: 465b a0be b915 b63e 252d c23e 9a98 5e3e
000001a0: 0539 53be afef 8f3e 7f56 81be 3111 b4be
000001b0: dd45 6a3d 7b90 763c a01b d63d e41c cebe
000001c0: 60f0 ecbd e490 c6be f104 ec3d d65d 66be
000001d0: f9a8 06bd 1a85 2a3e 1aa4 be3d ee05 e5bd
000001e0: 9619 b93e c067 a5bd e5a7 94be d924 4c3d
000001f0: 37b5 b23e 027c 623b d25b b53c 33aa 493e
00000200: 1999 4bbe 2ad2 b53c 4a16 923e 322f 96be
00000210: 25aa 0c3e 5b39 223e d0ef 22be d552 823e
00000220: fdd9 aebe 09c2 5cbd fd5e a6be a923 0abc
00000230: a14a bfbe b3a0 0bbe dc99 4cbe 2966 25be
00000240: 5767 9d3e 75aa b9bd efd1 29be ff2a 70bd
00000250: f838 51be 81f8 96bd 2aa9 f43e 9a8d 303e
00000260: 368a bb3e 79aa 9c3e e2a7 9cbe 8519 463e
00000270: 0957 623e 3f56 643e 516c d1be 6e6b 53be
00000280: a0c2 4ebe e3f3 3c3d 8ba0 a1be 6b2c 2ebe
00000290: b672 76be c655 81be dba6 873e 251c 51be
000002a0: 3ca4 5e3e 6187 6a3e 407e 4fbe 0095 10be
000002b0: 1fb6 c63d 1a7f 063e f49f 0b3e 23f3 84be
000002c0: 8b72 963e e2a3 db3c 3fa8 8cbd c003 8c3d
000002d0: f349 933e 98af 423e c3f2 b5be 6666 3e3e
000002e0: 7828 b6be 3421 04be 9797 8f3e c487 90be
000002f0: c36c 593d af6a 31bd 5750 643d 031d b4bc
00000300: 6a04 0dbe e5d3 023e 0f5b 8d3d 6f62 b13b
00000310: d23c 563e acc7 cabd 42ca 153e e60e 31be
00000320: 166a 7bbd ad55 5f3d 7865 4a3e 2191 02be
00000330: bdbb 923e 15cc 1a3d ccec b33e 3b7d 913e
00000340: 6eaa e83d f3d9 893e a27d bbbe f9ca 093e
00000350: 3819 953e dcd6 39bd 1b15 ae3e 9f00 0fbc
00000360: bdaf 9abd d330 38bd dff2 75bd 4815 7a3e
00000370: cd9f cabd d190 4d3e 1702 de3d 8dbf 89bc
00000380: 7f17 993d e003 c4be 890a a73e 87f8 2f3e
00000390: db1a 4bbe bff7 a7be b02a 253e 6f7d 9b3e
000003a0: b21c 95be 5126 68be 91f4 a73d c03e 85be
000003b0: 3626 cb3d 21ed 323e 0119 76bd 6d56 aabd
000003c0: 3594 e8bd d21c 6a3e f23d 1cbe 3473 1dbe
000003d0: 4f3b a63e 1e47 54be f409 c5bd f26f 643e
000003e0: b033 5e3e 4b61 74be dd6e 78be f15b 853e
000003f0: 4ce9 b3be deea 42bd c873 823e e27b b33e
0.18682924 -0.18661974 -0.24393108 0.24791549 0.17802833 -0.09658613 0.17780958 0.40558344
-0.29762387 0.38259578 -0.23322088 -0.36523357 -0.1497099 -0.23325263 -0.059201 -0.28200245
0.039124083 -0.2830199 0.038724527 0.053854216 0.12234982 0.18471134 0.11068921 -0.19297598
-0.30617723 -0.17593883 0.06003208 -0.31952676 0.34058794 0.18829344 -0.19909926 -0.012065122
-0.28753155 0.3681671 0.15502045 0.38162827 0.2827194 -0.059941657 -0.061392676 -0.42809173
-0.2541067 -0.38614833 0.19877791 -0.065107 0.14721067 -0.33711487 -0.21775794 -0.09715905
-0.29373425 -0.09227331 0.3588553 0.032379247 0.21668586 -0.1297417 -0.028938165 -0.22481166
-0.16695146 0.31047454 0.018955424 -0.22771984 0.3507539 -0.31641507 -0.15507907 0.061506033
-0.16206697 -0.23110922 0.2069786 -0.066957586 -0.15139979 0.40545052 0.32457992 0.35379228
0.2748736 -0.28160542 -0.23119213 0.09435672 0.4158022 -0.23784536 -0.104953036 0.3711864
-0.33985564 0.22848465 0.20543715 0.10162349 -0.07639189 0.26657853 0.088301904 0.16979422
0.1936441 -0.31024504 0.21576488 -0.30760235 0.24059768 -0.07178834 0.09570714 -0.071655296
0.14746968 -0.22802712 -0.25764087 -0.3040987 -0.31319636 0.35563448 0.37925068 0.217379
-0.2062722 0.28112552 -0.25261304 -0.35169366 0.057195533 0.015049095 0.10454488 -0.40256417
-0.115692854 -0.38782418 0.1152438 -0.22496733 -0.03287599 0.16652337 0.09308644 -0.111827716
0.36152333 -0.08076429 -0.29034343 0.04983983 0.3490388 0.0034558778 0.02213851 0.19693832
-0.19882621 0.02219494 0.2853263 -0.29332882 0.1373678 0.15842192 -0.15911794 0.2545382
-0.34150687 -0.053895984 -0.32494345 -0.008431354 -0.37361625 -0.1363552 -0.19980568 -0.16152252
0.30742905 -0.09065715 -0.1658399 -0.058634754 -0.20431888 -0.07371617 0.47785312 0.17241517
0.36628884 0.3059881 -0.30596834 0.19345672 0.22103514 0.22298525 -0.4090295 -0.2064645
-0.20191431 0.046131026 -0.31567797 -0.17009132 -0.24067196 -0.25260752 0.26494488 -0.20420893
0.21742338 0.22903205 -0.20263004 -0.14119339 0.097027056 0.13134423 0.13635236 -0.2596675
0.29384264 0.026811544 -0.06868028 0.06836653 0.28767356 0.19012296 -0.35536775 0.1859375
-0.3557775 -0.12903291 0.2804534 -0.2822858 0.05308224 -0.043314632 0.05574068 -0.02198649
-0.13771215 0.12776144 0.06902134 0.0054133455 0.20921639 -0.09901366 0.14627936 -0.1729084
-0.06138047 0.054525066 0.1976527 -0.12750675 0.28658858 0.037792284 0.351416 0.28415856
0.11360632 0.26924095 -0.36619288 0.13456334 0.29120803 -0.04537092 0.34000477 -0.008728175
-0.07553051 -0.044968437 -0.060046073 0.2442218 -0.09893761 0.20074774 0.10840242 -0.016814971
0.07475185 -0.38284206 0.32625225 0.1718465 -0.19834463 -0.32806203 0.16129565 0.30369136
-0.29123455 -0.22670867 0.08200944 -0.26024437 0.099193975 0.1747327 -0.06008244 -0.08317266
-0.11356393 0.22862557 -0.15258005 -0.15375978 0.32467124 -0.20730254 -0.09621039 0.22308329
0.21699405 -0.2386524 -0.24261041 0.26046708 -0.3513893 -0.047587268 0.2547896 0.35055453

baseModel.0.bias f4 [64]
00000000: 886c b1b9 9ee3 5038 3056 c1b9 a755 d33b
00000010: ccbe 8c3b b29c ba37 389f 14b9 65be 14b7
00000020: 93aa f238 dea5 c3b8 d763 713a 5a09 c23a
00000030: f33e 4f3a 9c4b 383c 78cc c8b7 4e8e 923b
00000040: dfbe 3238 322c ec38 9564 863a e2fd 3939
00000050: 0274 d5b7 2b63 b4b9 7bbf 46bb 0206 4eba
00000060: 1585 7839 f03b 39b8 8466 9b39 9b33 9238
00000070: a9c6 2938 55d9 083c 69ba 04b8 c76d beb9
00000080: d647 3438 e8d3 7d3b c23d bbb7 2002 5ab9
00000090: a16f 89bc 1b81 9b3b a30a 83b9 86c0 2ab9
000000a0: b881 0dba 8c7a be39 b1fa 7a39 a81b e4bb
000000b0: 5bf5 ddb9 371e d1ba 93b6 b3b9 68eb cf3b
000000c0: cb60 2739 6e03 a3b9 bf1b 1939 fc8a 5438
000000d0: 64db 26b8 ed9c 54bc 9a68 81bb a781 39ba
000000e0: df82 79bc 0d9f 1eb8 c022 ceb9 25af 1138
000000f0: 837f 98b8 6ed6 4239 5069 d638 8571 cb3c
-0.00033840933 4.980305e-05 -0.00036876043 0.0064494195 0.0042952057 2.2245895e-05 -0.00014173693 -8.865817e-06
0.00011571231 -9.32922e-05 0.00092082977 0.0014803812 0.00079058035 0.011248495 -2.3937071e-05 0.0044725304
4.261627e-05 0.00011261589 0.0010253364 0.00017737554 -2.5445599e-05 -0.0003440616 -0.0030326534 -0.00078591716
0.000237007 -4.416326e-05 0.00029640284 6.971435e-05 4.0477757e-05 0.008352597 -3.164486e-05 -0.00036321415
4.2982247e-05 0.0038731042 -2.2320895e-05 -0.00020790892 -0.016776862 0.004745615 -0.00024994192 -0.00016284184
-0.0005398053 0.0003633093 0.00023935248 -0.0069613047 -0.0004233521 -0.0015954439 -0.0003427757 0.0063452013
0.0001596242 -0.00031092338 0.00014601553 5.0674178e-05 -3.9781808e-05 -0.012976867 -0.003949237 -0.00070765096
-0.015228956 -3.7818263e-05 -0.00039317273 3.473381e-05 -7.271676e-05 0.00018581163 0.00010223931 0.024834404

baseModel.1.weight f4 [64]
00000000: 2fab 7b3f 5281 7b3f 6c11 7e3f 9c55 793f
00000010: 0771 773f 4818 803f 8d18 773f 9ead 783f
00000020: afe6 7b3f e048 773f f62e 713f 9088 743f
00000030: 9c38 753f 4ce3 773f 0a16 793f 120c 803f
00000040: 7448 7a3f a478 7e3f 668c 823f f886 6c3f
00000050: 497c 7c3f 7b74 713f 7d4c 733f 0b42 7f3f
00000060: 05a8 783f 7233 803f 4d02 7b3f 5aec 7e3f
00000070: 49a7 773f 85ad 7b3f 8415 7d3f cb23 743f
00000080: 68ab 643f 7407 6e3f 7ac4 813f 7902 763f
00000090: c08e 813f 24df 753f c508 7b3f bb39 623f
000000a0: d132 763f c2a3 783f 0467 7d3f 80bf 7c3f
000000b0: 3535 783f 990b 683f 8b21 823f 2778 7d3f
000000c0: 2d5c 7c3f fe74 7e3f 64ef 7f3f 0fbb 7b3f
000000d0: d215 753f 6a1a 803f b6f6 723f 9cf0 783f
000000e0: a34d 7b3f 541f 613f b46e 7e3f b89b 733f
000000f0: 1df8 723f 0905 7a3f 0029 6b3f 0b24 823f
0.9830808 0.982442 0.99245334 0.97396255 0.9665684 1.000741 0.96521837 0.9713992
0.9839887 0.96595573 0.9421228 0.9552088 0.95789504 0.968312 0.97299254 1.0003684
0.97766805 0.99402833 1.0199096 0.92393446 0.98627144 0.9431836 0.95038587 0.9971015
0.9713138 1.00157 0.98050386 0.99579394 0.9673963 0.98311645 0.98860955 0.95367116
0.89324045 0.9298012 1.0138085 0.9609752 1.0121689 0.9604361 0.98060256 0.8836934
0.9617129 0.97124875 0.98985314 0.98729706 0.9695619 0.90642697 1.0166487 0.9901146
0.9857815 0.99397266 0.99974656 0.98332304 0.9573642 1.0008061 0.949077 0.9724214
0.9816534 0.8793843 0.9938767 0.9515948 0.9490984 0.97663933 0.91859436 1.016725

baseModel.1.bias f4 [64]
00000000: cbbc c1bd 0ef6 e9bd affe 033d c086 a9bd
00000010: 0c91 c8bd 98b1 20bb f7e6 b8bc 6d0e 85bc
00000020: d2b2 ecbd 9914 c0bd 62bc b8bd 9c07 a4bc
00000030: 88f1 f0bd 84c1 8c3d 3072 eebd 6f06 193e
00000040: f7e4 b9bd 9d5f d7bd fa05 c5ba 9ba4 01be
00000050: 1a2e d6bd 7de8 173e dc24 cebd 1e03 243c
00000060: a2ad d0bd 3722 063d 354c bfbd 5b2d 403d
00000070: 0d11 b1bd d03c 093e e32b f3bd 1bd7 0c3e
00000080: 5b3c 12be 2657 06be ac76 bebb edb4 e5bd
00000090: 255c 823d 7169 a5bd d421 d1bd 01c9 edbd
000000a0: 3673 1e3e 9dbf b1bd 6ed3 c9bd 3016 913d
000000b0: 0cee f03d fae4 d7bd 7683 1f3c 0d3d d4bd
000000c0: 27f9 bbbd ea47 d1bd bcfb dcbd 0db3 eb3c
000000d0: c5b5 be3b 492f a43c b1ad a7bc 5571 c8bd
000000e0: 7173 e0bd fdd5 cdbd 1391 c23c 1c8b d9bc
000000f0: eb07 e43b a00f 82bd 8024 bbbc cbb9 f23d
-0.094598375 -0.11423884 0.032225307 -0.08277655 -0.097932905 -0.0024519917 -0.02257107 -0.01624223
-0.11557545 -0.09378929 -0.09020306 -0.02002316 -0.117648184 0.06872848 -0.11642873 0.1494386
-0.09076875 -0.10516284 -0.0015031688 -0.12660448 -0.10458012 0.14834781 -0.10065624 0.010010509
-0.10189368 0.032747474 -0.09340707 0.046918254 -0.0864583 0.13402104 -0.11873605 0.13753931
-0.14280836 -0.13119182 -0.0058124866 -0.112161495 0.063652314 -0.08076752 -0.1021153 -0.11610604
0.15473637 -0.086791255 -0.0985478 0.0708431 0.11764154 -0.10541721 0.009735933 -0.10363207
-0.091783814 -0.10218795 -0.10790202 0.028771902 0.0058200085 0.020042079 -0.020468565 -0.09787241
-0.10959519 -0.10050581 0.023750817 -0.02655559 0.0069589517 -0.063506365 -0.022844553 0.118518434

baseModel.1.running_mean f4 [64]
00000000: 268f bfb9 1cd3 f6b9 4e03 96b8 7a47 e73b
00000010: 700e 9b3b 6f64 dd37 f616 f838 7839 74b8
00000020: 1b84 fd37 5e28 f6b8 f659 1039 9c6a dc3a
00000030: 458f 693a fd42 463c 7803 03b8 0c8a a23b
00000040: 8496 ad39 be6f 0539 9ac8 a737 1fd5 1c39
00000050: 2635 fa37 a3e9 a5b9 e2c8 5bbb 7fae 77b9
00000060: 2547 8f39 3646 d3b7 2054 a039 ba18 0bb9
00000070: aa4b 5439 a1e8 153c f3b6 5db7 01de c6b9
00000080: a97b 7b38 a444 8d3b d892 aeb8 e064 85b9
00000090: ab06 92bc de84 ab3b 9759 3239 1eeb 47b9
000000a0: 1062 10ba 0453 b439 9153 8339 036b f8bb
000000b0: 47c4 08ba 5946 efba d32d 96b9 8c49 e23b
000000c0: 46cc 4e39 4895 3aba b6bb 4e39 a209 4839
000000d0: 4224 e0b8 c0ff 63bc 1ad2 8ebb b5b4 54ba
000000e0: 8a85 85bc e6ee e7b8 19d6 eeb9 fbfa 7138
000000f0: 77f3 d5b8 5906 5039 2f4e 2f39 f92d d73c
-0.00036537013 -0.00047078065 -7.153173e-05 0.007058081 0.0047319457 2.6392021e-05 0.00011829838 -5.8227655e-05
3.0221467e-05 -0.00011737713 0.00013766423 0.001681644 0.00089095935 0.012100932 -3.1236064e-05 0.004960304
0.00033109274 0.00012725496 2.0001364e-05 0.00014956713 2.9827072e-05 -0.00031645325 -0.0033536484 -0.0002362076
0.00027328092 -2.5185855e-05 0.00030580256 -0.00013265284 0.00020246083 0.009149701 -1.3215223e-05 -0.0003793091
5.995823e-05 0.004311161 -8.324318e-05 -0.00025442895 -0.017825445 0.005234345 0.00017008778 -0.00019065707
-0.00055077765 0.00034394127 0.0002504853 -0.007581116 -0.0005217236 -0.0018255218 -0.0002864437 0.00690574
0.00019721789 -0.00071175816 0.00019715619 0.00019077075 -0.00010687906 -0.013915956 -0.004358542 -0.00081140856
-0.016299028 -0.00011059437 -0.00045554413 5.769262e-05 -0.0001020198 0.0001983879 0.00016718426 0.026267039

baseModel.1.running_var f4 [64]
00000000: 150d 1e37 e991 ac37 3d8f 2e37 66fc 8136
00000010: 9185 6a37 78e3 af37 f32a d137 a5b5 3f37
00000020: 76a8 1c37 f84c 2037 d896 3837 e154 d537
00000030: f6d1 6e37 05e0 3e37 94ba 0937 1cc6 8636
00000040: 2f84 8a37 fd25 a237 b64b 8b37 8e13 7f36
00000050: e2b6 5537 0969 c636 65e2 f136 e5ef 7f37
00000060: 42fc e836 168d cd37 813e 4d37 1134 6537
00000070: 3626 e136 51b3 7336 c854 6d37 d6e0 6736
00000080: 572e 3036 791a 6136 f7f9 9437 4265 4637
00000090: acf7 7936 174f 1337 3419 6f37 4f6f 5136
000000a0: c3a0 a236 3d9a 3837 96e2 8d37 3cf1 1137
000000b0: 4633 8f36 d38e ee36 1aa1 5a37 0e4e 9137
000000c0: 05f0 4337 6232 5d37 6af5 4537 c5f3 9837
000000d0: bd02 9537 345b b837 676b 8737 1f8f 5e37
000000e0: cd7e 4337 91e0 7e36 d71a 5937 e38d 1637
000000f0: 463c 4f37 1f1c e836 0cd6 0a36 9cad cf36
9.42058e-06 2.0571943e-05 1.0404558e-05 3.8738826e-06 1.3978585e-05 2.0967549e-05 2.4934741e-05 1.142678e-05
9.337547e-06 9.554664e-06 1.1002376e-05 2.5431103e-05 1.4234791e-05 1.1377041e-05 8.209277e-06 4.016574e-06
1.6512435e-05 1.9329595e-05 1.6605347e-05 3.8009343e-06 1.273837e-05 5.9130875e-06 7.2087155e-06 1.5255039e-05
6.9435055e-06 2.4503603e-05 1.2233505e-05 1.3661586e-05 6.709971e-06 3.6314198e-06 1.41460405e-05 3.4552554e-06
2.6253017e-06 3.3543022e-06 1.7759374e-05 1.1825296e-05 3.7248055e-06 8.780297e-06 1.4251378e-05 3.1208217e-06
4.8466914e-06 1.1003166e-05 1.6914022e-05 8.69884e-06 4.267701e-06 7.1095797e-06 1.3031322e-05 1.7321694e-05
1.167879e-05 1.3184357e-05 1.1799255e-05 1.8233326e-05 1.776346e-05 2.1976979e-05 1.6143267e-05 1.3265554e-05
1.1652429e-05 3.7979664e-06 1.2940457e-05 8.973732e-06 1.2352195e-05 6.9174125e-06 2.0688194e-06 6.1892915e-06

shortBranch.2.weight f4 [64, 1024]
00000000: d9b2 56bc 7f8d 0fbd cfc8 7b3b 0b6a 4cbb
00000010: a969 8ebc f539 b0bc a7c1 8e3b bd38 1f3c
00000020: 1421 0cbb b067 70bc 7ff9 a1bc bc2d 3cbb
00000030: aa03 bfbc df92 3ebc c6fe e2bc 56f7 c6bc
00000040: d2ce febc 6e3a 28bc 1bb1 b7bb b154 09bd
00000050: e3fa b9bb 6215 5fbb 4968 16bc 25d4 593c
00000060: 758f e43c 31d8 e3bc a088 26bb bbc7 14bb
00000070: fee0 833a 0ab3 9bbc 0207 c5bc 3437 aa3c
00000080: 6e25 323c b538 2e3c a683 cd3b c70e ac3c
00000090: a47a e43b e6a7 0c3d 9243 903c 7fb5 eb3c
000000a0: d698 f33c c1fc 1d3d 9f84 9e3c 0bf4 cb3c
000000b0: f021 e03c e5f2 333d 1760 a83c d5c7 903b
000000c0: 47fe 15bc eb07 31bd 8eab 26bc b4ef a6bc
000000d0: f643 603c 6a72 b4bc 0907 b63c 3e59 4f3c
000000e0: 95b3 10bb 6655 ac3b 8e90 bbbc abec 9fbc
000000f0: b9c1 453b ce5c a6bc 0ae7 c53a 3892 7fbc
00000100: 5764 05bd 8d18 8abb a15d dfbc 2e2d 233c
00000110: 0f1d 863c 726d 753c 26be 98bc 67d2 fabc
00000120: 694d d6bc 30c5 beba 1ae3 8f3c 5cdb 13bd
00000130: 0db3 b2bc be84 d1bc 52b7 4c3c 63ef 51bc
00000140: 1557 813c 7473 0f3d 89e5 da3c 31e5 0c3c
00000150: 2deb dc3b f4ee f03b 35a4 013d f721 fe3c
00000160: aba6 e93b 4e2d fb3a 9f9b 203d aeda 4a3d
00000170: 5e08 393d 0d3c 183d 44c8 003c 310a 253d
00000180: 34d0 66bc a283 64bc ac58 eabb ed30 92bb
00000190: 91f3 763c 94d7 e7bb 4d79 ae3c 29e3 2ebc
000001a0: 6dd3 143d 149a 633b 7566 7a3c 67c1 ff3c
000001b0: a1b7 0cbb b543 483d dd67 7d3c 5143 013d
000001c0: 6152 59bb c54c e93c d02a 183d 39f4 ca3c
000001d0: 3106 44bc ddd6 8ebc ba8f febb a04d e43a
000001e0: 52a2 083c 7bbc 003d 76b5 7e3c 30b0 c83c
000001f0: ba59 af3c e4d6 d9ba 25c4 2d3b fb37 9f3b
00000200: 1c8e 853b a97e acbb 0c32 91bc 8afa e2bc
00000210: cdb6 6bbc d430 2bbc 910f 7bbb fe6b d53b
00000220: 960b a8bb dddc 9cbc 1ef0 c1bc facf bdbc
00000230: ae7a 0fbc f42b 0fbc 7575 27bc 1992 973c
00000240: cb5f 833c e3de d0bb 856d 11bd 55cb 14bd
00000250: 8aa4 dfba 608e 8b3c a1a5 cabb 9311 693c
00000260: 8768 e4bc 17d7 caba 86e6 323c 5c8f 5a3b
00000270: 8f05 b337 c21e 5c3c 2faf 45bb 1ffe e4bc
00000280: ae9d b5b9 007b 12bb 2344 88bc 282d 01bd
00000290: 71d7 d2bb 28e4 52bc 26ab a7bc 4fbc 3e3c
000002a0: 8eba 85bc 6a53 673c 0eda f2bc b2d5 5b3c
000002b0: 2dee 223c 8e93 08bc 6dd3 9cbb 945e f43a
000002c0: 24a6 3fbc 5aba 7eba ca53 033c 02d2 b83c
000002d0: 5cba 31bb 8e5e ed3a 0095 8a3c 23c6 ccb9
000002e0: 1869 ab3c 2b74 b8bb fb30 5fbc 91b1 d7bb
000002f0: 6aab c83b a523 a73b 94df fc3c 11fe 8bbc
00000300: 3224 aabc 4c62 013c 152f 10bc 9caf 66bb
00000310: 97da 6bbc 22b5 d8bb 1be6 dd3c 34b8 c3bc
00000320: 76fc 0fbd fc73 afbc 914e 82bb 91a4 2dbc
00000330: be72 86bc fb26 483c 5b1b a8bc eb36 ae3c
00000340: afaa 82bc 11bd f23c 07c5 5cbc 6efd 113c
00000350: c8f1 88bc 602c 103d a2a9 763b a4de ba3c
00000360: 8c95 823c 8dd2 8e3c 8d6b 4bbc 5961 c73c
00000370: 38e1 5f3c fb82 013c 9558 2dbc 9d3e 4bbb
00000380: 5d7e 863b 28e5 033c c534 9c3c f532 5e3c
00000390: 79e1 77bc 4280 9538 d890 04bd cc0f cf3b
000003a0: ffcd e539 5fcb 303b 51b3 913b 04db c9bc
000003b0: 7829 26bd 9aef 1fbb d834 85bc 5d08 15bc
000003c0: 6463 423c 5c7a 313c 424b b03c e333 a1bc
000003d0: 21ca cf3c 5106 00bd c0a9 43bc 6e6e 88b9
000003e0: 24b4 823c c6da 03bc f5b7 a43c b608 6abc
000003f0: 47de c73c e510 983b 595a a23c 7c86 423c
-0.013104164 -0.03504705 0.0038419252 -0.0031191136 -0.017384367 -0.021512011 0.0043565813 0.009718117
-0.002138202 -0.0146731585 -0.01977229 -0.0028713783 -0.023317177 -0.0116316965 -0.027709376 -0.02428786
-0.031104479 -0.010267837 -0.0056058294 -0.033528034 -0.00567566 -0.0034039845 -0.009180137 0.013295208
0.027900437 -0.027813049 -0.0025411025 -0.0022702056 0.001006156 -0.01900627 -0.024051193 0.020778276
0.010873182 0.010633637 0.006271797 0.02100314 0.0069726277 0.034339808 0.017610345 0.028773068
0.029735964 0.038571123 0.019350348 0.024896642 0.027359933 0.043932814 0.020553632 0.004418353
-0.009154863 -0.04322044 -0.010172738 -0.020377971 0.013688078 -0.022027213 0.022220151 0.012655554
-0.0022079695 0.0052592037 -0.022896077 -0.019522032 0.0030175282 -0.020307925 0.0015098762 -0.015598826
-0.032566395 -0.0042143525 -0.027266325 0.009959502 0.016371278 0.014979707 -0.018645357 -0.030617906
-0.026159959 -0.0014554616 0.017564345 -0.03609787 -0.021813894 -0.025575992 0.012494879 -0.012813422
0.015788594 0.035022214 0.026720779 0.008599565 0.0067419023 0.007352704 0.03165074 0.031022055
0.007130464 0.0019163282 0.03921091 0.049524955 0.045173995 0.037166644 0.007860247 0.040292922
-0.014087725 -0.013947399 -0.007151684 -0.004461399 0.015072719 -0.0070752595 0.021298075 -0.010674276
0.036334444 0.003472929 0.015283217 0.031220151 -0.0021471756 0.048892695 0.0154666575 0.03155834
-0.0033160674 0.02847899 0.037150204 0.024774658 -0.011964367 -0.01743644 -0.0077685984 0.0017418154
0.008339481 0.03142975 0.015546193 0.024498075 0.02140509 -0.0016619829 0.0026514616 0.0048589683
0.0040757786 -0.0052641225 -0.01772406 -0.027707357 -0.014386845 -0.010448653 -0.003830884 0.006513118
-0.0051283343 -0.019148285 -0.023674067 -0.02317046 -0.008757276 -0.008738507 -0.010220875 0.018502282
0.016036889 -0.0063742264 -0.035504837 -0.036326725 -0.0017062586 0.017035663 -0.0061842953 0.014225381
-0.027881874 -0.0015475479 0.010919219 0.003334961 2.1341051e-05 0.013435068 -0.0030164232 -0.027953206
-0.0003464049 -0.0022351146 -0.016634053 -0.031537205 -0.006434374 -0.0128717795 -0.020467352 0.011641576
-0.016324308 0.014119009 -0.029644992 0.013417648 0.009944481 -0.008335961 -0.004785946 0.0018643909
-0.011697326 -0.00097170996 0.008015582 0.022561077 -0.0027119135 0.0018109845 0.016916752 -0.00039057535
0.020924136 -0.0056290827 -0.013622518 -0.006582447 0.00612395 0.0051006847 0.03086833 -0.017088922
-0.020769212 0.007896971 -0.008800288 -0.0035199886 -0.014395378 -0.0066133896 0.027087262 -0.023891546
-0.035152875 -0.02141761 -0.003976651 -0.010598318 -0.016412135 0.012216325 -0.020520857 0.021266421
-0.015950529 0.02963117 -0.013474709 0.00891052 -0.016716853 0.03519857 0.003763773 0.022811241
0.01594045 0.017434383 -0.012415779 0.024338411 0.013664536 0.007904763 -0.010580202 -0.0031012662
0.004104419 0.008050241 0.019068131 0.013561954 -0.01512944 7.1287635e-05 -0.032364696 0.006319022
0.00043831763 0.0026976687 0.004446425 -0.024640568 -0.04056689 -0.0024404288 -0.01626055 -0.009096232
0.011864517 0.010832395 0.02152026 -0.019678062 0.025364937 -0.031256024 -0.011942327 -0.00026022218
0.015955038 -0.008047765 0.020107249 -0.014284303 0.024397982 0.004640686 0.019818472 0.011872884

shortBranch.2.bias f4 [64]
00000000: 4df2 5b3c 2bc7 0b3e 580e 5dbd d8a3 733d
00000010: 2ec1 903d 24b6 05be feea 2d3c fbd1 d43d
00000020: 6a37 073e 780b 26bd 8581 9a3d a97d 5bbd
00000030: 3bdd c4bd 4fd4 b9bd 97ed d03c b733 10be
00000040: a3f0 e3bd e99e 93bd 7c58 cd3b 32d2 6abd
00000050: 5d99 f83d ffea e43d 43bf d13d 9eff c2bd
00000060: 8464 a73d a636 c13d 7e85 bf3c cc2b cdbc
00000070: 2d2d 6f3d 5ca4 07bc 6dce 64bd 586f 96bd
00000080: f422 c3bd e320 d63d 0a20 1c3e 7124 1d3c
00000090: bca6 eb3d 6535 54bc e8fb c13d 1d3c d93d
000000a0: 597f ebbb a134 46bd 109b f73c fc4e 09be
000000b0: e21c 0c3e f43c 53bd 4a8f 513d 817e a2bd
000000c0: 8f9d b9bd 305d c2bd 2257 04bd 8a75 ba3d
000000d0: d51e ab3c a8b0 c03d 026f 4a3c 3508 91bd
000000e0: dd49 e73d 4ffc debd be57 243c df26 06be
000000f0: 4872 2b3c f331 0dbd 26d3 c73d 91a6 553c
0.013424468 0.13650195 -0.053968757 0.059482425 0.07068096 -0.13057762 0.010615109 0.10391613
0.13204733 -0.04053828 0.07544235 -0.053586636 -0.09612509 -0.09073698 0.025503917 -0.14082228
-0.11129882 -0.07208044 0.0062666517 -0.057329364 0.12138627 0.111776344 0.102415584 -0.09521411
0.08173469 0.094342515 0.023379084 -0.025045298 0.058392692 -0.008278932 -0.055860925 -0.07345456
-0.09528151 0.104554914 0.15246597 0.009591208 0.115064114 -0.012952183 0.094718754 0.10607169
-0.007186812 -0.048390035 0.030225307 -0.13409036 0.13682893 -0.0515718 0.05116204 -0.07934285
-0.09063255 -0.0949043 -0.03230966 0.0910445 0.020888725 0.094086945 0.012355568 -0.070816435
0.11293385 -0.10887968 0.010030685 -0.13100766 0.0104642585 -0.034471463 0.0975707 0.013040201

shortBranch.4.weight f4 [32, 64]
00000000: f902 3abd e0ec 463d 5e46 7abc 340b 90bd
00000010: 3401 f9bd 86f1 683d 3deb 193d 1d47 ad3c
00000020: 01be 303d 28a9 35bd 3042 fbbc c73a 0fbd
00000030: 45d6 31bc 332d e43b a096 c4bc 70cf 143d
00000040: f532 9a3d 4cce ab3d 8295 0e3c 2ae8 573d
00000050: 38f7 523d 60ec 36bd 11ae cebb f835 7dbc
00000060: ea7b 2dbc a6b0 48bd 3076 a4bc 2533 e63d
00000070: 1e40 a83b d27a e5bc 6aed 16bd c0ac 243b
00000080: 776e f539 05d9 61bc b3ec 363d 0961 6abd
00000090: d183 9abc a3f4 913b ffb2 1bbd efa9 f03b
000000a0: 95d3 48bd 2046 61bd a2f9 75bc ee28 353c
000000b0: 50c6 153d 932f d33d a73f 10bc 9253 daba
000000c0: da3a 98bc 7607 7c3c 3cca 87bc 1685 883c
000000d0: 122a 36bd 9a05 07bd f7d7 213c 108b af3c
000000e0: f0fc 4ebd 0e14 99bd 368f c53c 0520 e6bb
000000f0: 73ba 23bc ff18 563d db74 8ebd 5202 c33d
00000100: 3622 2e3d 8c92 aebc 0669 ad3d 63c1 da3c
00000110: 4d66 76bc 22d7 fb3d 72bf 31bc 27cf f8bd
00000120: 5480 91bd ab4d 853d 1b62 71bd da9d bd3c
00000130: 962a 5a3d bf78 2b3d ced9 803d 8506 923d
00000140: 922e 613d 97cd efbc fe8d af3d 4504 8dbc
00000150: f5c4 f2bc 1c3c a0bd 2f4e 90bd 4b0f d23b
00000160: b9df 87bd e358 c1bd 9f04 d2bb 03b4 97bd
00000170: 8aa0 2f3c cbd8 b0bd 6bac 193d 9efa 9a3b
00000180: a3b7 1f3d 893a 68bb 1339 98bd aeee 993d
00000190: 55de 89bd 368b 9b3d d4be a2bd c8cd 3f3c
000001a0: 12d4 51bd 56a0 40bd 7390 133d 4f5b 843d
000001b0: bd0e 133d 65d6 9a3d 6830 cd3b a8dd b33d
000001c0: ed89 c03d 3a5a 1b3d de81 973c ab64 0bbe
000001d0: 5b32 2d3d 4e2d 8cbd 9dc6 98bc ce1d 86bd
000001e0: 7c7b 13ba 12a2 c23d 1af2 803d 3f15 cb3d
000001f0: 74a1 ef3c 5864 a8bc 278f d3bd 4ab5 703d
00000200: 116a 1b3e 25d5 53bd 260b 4b3d 1f15 1a3d
00000210: be39 033d 0452 583c e54c abbd 0f36 c3bc
00000220: 0ee5 5fbd 4451 3a3d 1226 d0bd ef81 9abd
00000230: e76e 88bc 5cd8 84ba 0f0d 883d e042 8ebd
00000240: c914 21bd 734c 9c3d 27b3 f43d f759 7cbd
00000250: ca45 41bd 1a87 fe3c cea5 d6bd ea70 0e3d
00000260: 6119 523b 389a 72ba d18d a73d c0c5 06be
00000270: 40d0 a3bd 1ec6 c1bc a802 083d 8895 a13c
00000280: 9c60 1f3c 1080 92bd 65ab 36bd c814 9f3d
00000290: 3a44 993d a57b 7a3d fd53 ecbc 6ef2 d03c
000002a0: 6977 193d c968 403c abc7 1f3e 3dd5 c83c
000002b0: 501e 5bbd d275 76bd e7a9 eabc 5e1d dfbc
000002c0: 2c54 36bd ca7b 03bb c524 66bc c166 383a
000002d0: 1897 903c 28ff 873d 13f8 90bd eea1 8b3d
000002e0: efd2 08bd 8f81 8b3b 71b4 e3bd d41e a8bb
000002f0: 4b49 84bc 970c 033d 3bf3 c33c 8df5 93bd
00000300: dc01 38bc 84fb 273d a9a4 a43d 0457 983d
00000310: c7a5 cf3d 1de7 0fbe 0552 433d 76d4 5d3d
00000320: e86d 9c3d 06ce 5e3d bd58 413d abf4 c0bb
00000330: 1843 a6ba 558b 5cbd bd22 1a3d f6c1 86bd
00000340: daa8 683d d654 753d f694 603d 547a 77bd
00000350: 1313 513d ff72 99bc 537f a33d b411 83bd
00000360: 5d55 053e 0e94 ef3a e6a3 a83b 1d8f cb3c
00000370: 7e15 53bc 2b2f 163d 0995 a0bd c341 47bd
00000380: a050 7ebd 9c46 023d c155 343c 99df dd3d
00000390: d78c d23d 6228 8e3d d4eb 38bc 8dc2 f63d
000003a0: 1c49 9fbd 4a65 3dbd 5059 053e cb17 5f3d
000003b0: 1c63 143d 37cf a3bd 96ad 9d3b a7fa d0bd
000003c0: 360a 223c 3284 6e3d b15f 843d e61b 113e
000003d0: dea4 613d 3a1a f73d 7790 75bd 259d 223d
000003e0: c612 653d 441c 57bc 685e 823d 8536 d2bd
000003f0: 4452 b2b9 cf23 d3bc 4ada 57bc 2d33 6a3d
-0.04541299 0.048565745 -0.015275566 -0.07033387 -0.121584326 0.05687096 0.037577856 0.021152074
0.04314995 -0.044350773 -0.03067121 -0.034968164 -0.0108543085 0.006963396 -0.023997605 0.03633064
0.075292505 0.083889574 0.008702638 0.052711643 0.051505297 -0.04465902 -0.0063073714 -0.015454762
-0.010588625 -0.04899659 -0.020075887 0.11240224 0.0051345965 -0.028012667 -0.03684751 0.002512738
0.00046812344 -0.013784652 0.044659328 -0.057221446 -0.018861683 0.004454212 -0.0380125 0.0073444764
-0.049029905 -0.054998517 -0.01501313 0.011057122 0.03656608 0.103118084 -0.008804238 -0.0016656986
-0.01858275 0.015382638 -0.016575925 0.016665023 -0.044473715 -0.032964326 0.00987815 0.021428615
-0.05053419 -0.07474528 0.02411614 -0.00702286 -0.009993183 0.052269932 -0.06955882 0.09521927
0.042513095 -0.021310113 0.08467297 0.026703542 -0.015039039 0.12296893 -0.010848867 -0.12148886
-0.07104555 0.065089546 -0.05893145 0.023146559 0.05326327 0.0418632 0.06291543 0.0713015
0.054976054 -0.029272838 0.08572005 -0.01721395 -0.029634932 -0.07823965 -0.07046162 0.0064105145
-0.066344686 -0.09440782 -0.0064092423 -0.074073814 0.010719428 -0.086351 0.037517946 0.004729583
0.03899349 -0.003543528 -0.07432761 0.07516228 -0.067318596 0.07594912 -0.07946554 0.011706777
-0.051227637 -0.04702791 0.03602643 0.06462728 0.035902727 0.07560424 0.006261874 0.08782512
0.09401307 0.037927844 0.018494543 -0.1361262 0.04228435 -0.06844579 -0.018649394 -0.065486535
-0.00056260056 0.09503569 0.06296177 0.09916162 0.029251792 -0.02055566 -0.103300385 0.05876664
0.1517718 -0.051716942 0.04957118 0.0376178 0.03203749 0.013203148 -0.08364276 -0.023829488
-0.054661803 0.045487657 -0.10163511 -0.07544314 -0.016654445 -0.0010135281 0.06643116 -0.06946349
-0.039326463 0.07631769 0.11948233 -0.061609235 -0.047185697 0.03107028 -0.104808435 0.034775652
0.0032058584 -0.0009254548 0.08181346 -0.13161373 -0.07998705 -0.02365404 0.03320566 0.019724622
0.009727623 -0.07153332 -0.04459705 0.077676356 0.07483716 0.061153073 -0.028848642 0.025506224
0.037467394 0.011743733 0.15603511 0.024515742 -0.053495705 -0.060170956 -0.028645469 -0.027235683
-0.044513866 -0.0020062798 -0.0140468525 0.00070343545 0.017650172 0.06640464 -0.070785664 0.06817995
-0.033404287 0.004257388 -0.11118401 -0.005130628 -0.01614823 0.03199443 0.023919692 -0.072245695
-0.011230912 0.04101135 0.08039219 0.07438472 0.101390414 -0.14053006 0.04768564 0.054157697
0.076381505 0.054395698 0.047203768 -0.0058885417 -0.001268479 -0.053843815 0.037630785 -0.06579964
0.056801654 0.05989536 0.05482956 -0.060419396 0.05104358 -0.018731592 0.079832695 -0.06399861
0.13020845 0.0018278377 0.0051464913 0.024848515 -0.012883542 0.036666077 -0.07840926 -0.0486467
-0.06208861 0.03180562 0.011006773 0.108336635 0.10280769 0.06941296 -0.011286695 0.12048826
-0.077776164 -0.046239175 0.13022351 0.05446605 0.03622733 -0.079985075 0.004811953 -0.10204058
0.00989013 0.05823154 0.06463564 0.14170799 0.05508887 0.12065549 -0.059952226 0.039700646
0.055926107 -0.013129298 0.06365663 -0.10264305 -0.00034012098 -0.02577391 -0.013174603 0.05717771

shortBranch.4.bias f4 [32]
00000000: b00c f0bd dad2 20be 4e04 25bd f423 a73d
00000010: eb58 16bc fb7b b5bd 6e9c 493c 1e16 67bd
00000020: 4564 f13d 2330 6a3d 0028 15bc d12f 7b3d
00000030: a767 a03d 73c5 dbbd 9a86 26bd f951 16bc
00000040: f797 32be 98ba 1e3e 23bd c6bc 430c fe3a
00000050: 186f 443d c09d 25bd 359e 253e 7355 4bbd
00000060: a584 06be d65e 81bc 18ab a1bd 8315 e9bd
00000070: b3b4 a13d 0a1c 18be 3164 843d 03bf 313d
-0.1172117 -0.15705433 -0.04028731 0.081611544 -0.009176473 -0.08861538 0.012305362 -0.056417577
0.11786703 0.057174813 -0.009103775 0.0613249 0.0783227 -0.1073102 -0.04065571 -0.009174817
-0.17440782 0.15500867 -0.02426011 0.0019382316 0.04795751 -0.040433645 0.16173632 -0.049642038
-0.13136537 -0.015792292 -0.07893962 -0.11381056 0.07895794 -0.14854446 0.064644225 0.043395054

shortBranch.6.weight f4 [10, 32]
00000000: e1c9 013d 1204 603c cc99 343d cebd e1bd
00000010: 5156 83bd 3a68 ce3d 860a 53bd 263f 963d
00000020: db12 d9bd 176e 16bd 95be 8ebc c7c1 ffbc
00000030: 45ac 4abd 9cc9 6b3c 66ca 003d 3bf3 f8bd
00000040: aaf1 013c 6db7 0c3c b6bc 203c d71e 273d
00000050: d8f6 07bd d737 4cbc 823f 48bd 593c 1dbd
00000060: 9a58 6d3d 2025 df3d 8641 863c 5530 083d
00000070: 5e70 bcbb 47b3 e33d 58f9 503d 65a1 1dbd
00000080: 92b9 d7bc 9bb7 e33c e8bc 023d 19ea d9bd
00000090: 4805 96bd 210e ba3d 5eff dbbc 71e6 963d
000000a0: 8939 a5bd 10f5 52bd c711 62bd 0a36 643c
000000b0: 77c3 49bd a379 723c 852e 103d 363e e8bd
000000c0: 0e77 593c 7106 063d 9810 14bb d92d df3c
000000d0: 81c6 24bd 7fb6 bf3c dfe4 67bd feef 25bd
000000e0: efb3 513d c4ef 7b3d a26b 253d 7aad b23c
000000f0: bfe2 b5bb c762 ed3d 08ac 253d def6 1abd
00000100: 40ae 1abd 2794 1b3c c22d b13c 05fc b7bd
00000110: 5a6d 8bbd 8364 c53d 69b2 41bd b1fa 063d
00000120: b707 c4bd 9757 eabc 6621 9bbd 0f38 8a3b
00000130: 1d09 48bd 6051 8b3c 22e2 4c3d e067 d5bd
00000140: dee5 df3b 6530 253c aba3 233c 9f02 1e3d
00000150: 64a9 34bd 22fa b5ba be3b 3bbd d990 32bd
00000160: 800c 473d d116 d63d 8095 603d 98a8 0f3d
00000170: cc50 113c 2724 d43d 18fc 523d 1487 c3bc
00000180: d6e5 793c 4137 51be 69aa 0b3d d04f 263e
00000190: 33e7 363e 4999 583c e7fb 613d e18a fc3d
000001a0: e684 97bd a8d3 c73d 08ed 7b3c d9e1 263e
000001b0: 3201 a33d 2237 1bbe c9f1 54be d603 02be
000001c0: 7420 5fbe ded2 063e 9c5e 2fbe 0a7a f43c
000001d0: fb9b 503d bf39 d2bd 78ea 103e 26eb 593c
000001e0: e45d 23be fd04 e73d 0097 8ebd fab5 12be
000001f0: 0c7f 34bc f862 e0bd b75d 87bd b3df 9d3d
00000200: 0df3 b23a ae6b d23c 4e24 b6bb bc7c 0cbe
00000210: 73d3 8fbd 8ac1 bd3d 02d4 a9bd 550f 4a3c
00000220: ba7c a6bd efcb 9dbc 6f14 34bd 3f66 29bd
00000230: 8116 f8bc e4bf ff3c db10 4f3d 5ce8 a9bd
00000240: 8402 e23b 1b3d bfbc 9ab1 a93c 7b87 5c3b
00000250: 1927 babc 771a 3ebc 8403 8abd d65c 56bd
00000260: 83e9 783d 783d 2b3d c75d a23d 2458 803d
00000270: 415f d1bb 3807 fc3d 7129 493d 8cf1 80bd
00000280: d228 8bbd fa1a 393c 1c9c 813d 21d0 9b3d
00000290: 33b3 073d 455f c23d 6b02 773d 42db f53d
000002a0: f014 b4bd 575f 003d ebb9 4dbd f60e 1d3e
000002b0: 32ca 5cbc 156e cbbd b6c4 26be 64b9 0bbe
000002c0: 1a52 3cbd 7aae f33d 982d 0fbc 70d3 213d
000002d0: 27a0 74bd 65c7 d9bd 99d5 c93d 9841 38bd
000002e0: 127b 3e3c 8657 073e 2409 4ebd d704 d7bd
000002f0: 8ac6 2c3c 6252 38bd 5d10 76bd 69db 863d
00000300: 7636 21bc 131f 92be 9695 b73c 15ac 263e
00000310: d945 5b3e 9d62 5ebe 3b83 4b3d 59d3 803d
00000320: 07a9 5abd 98d4 4c3e 33b5 f63d 09a1 303e
00000330: 4ae8 6d3e 43f8 22be ce62 5ebe 678d d9bd
00000340: 4ff8 89be e8db 0a3e 65cf 5cbe 6172 323c
00000350: fe76 723e 3c68 a2bd 4507 063e 4882 813e
00000360: 10b5 45be 32e7 d73d bb13 5abd 3fb5 22be
00000370: 731e 40bc 0c80 f4bd a875 2dbe 45e1 963d
00000380: 1cc9 a33d 3e64 a0bc 5af3 66be 5937 0ebe
00000390: f06b 83bd 99de 8c3d 3530 cebd aa49 013c
000003a0: dec4 4a3e b7fd 14bd 4673 293e 1666 2dbe
000003b0: 96d2 143d ab46 d83c 1bb8 ad3d 09e4 403e
000003c0: be7a 2e3c adec 3cbe 714b a7bc d786 69be
000003d0: b9d3 5a3d 6da3 df3d 36eb b3bd 5042 c9bc
000003e0: ae4f 163d 4719 86be a21c 2f3e a136 d73d
000003f0: 8eaa 85be 7aa8 273e cda2 3f3d cf47 34be
0.031686667 0.013672845 0.044091985 -0.110225305 -0.06412948 0.100784734 -0.051523708 0.07336263
-0.105992995 -0.036726084 -0.017424861 -0.03122033 -0.049480695 0.014391329 0.031443022 -0.121557675
0.007931152 0.008588654 0.009810617 0.040800896 -0.033194393 -0.012464485 -0.04888869 -0.03838763
0.057945825 0.10895753 0.016388666 0.033249218 -0.0057507 0.11118179 0.051019043 -0.038483996
-0.026333604 0.02779751 0.031918436 -0.10640354 -0.07325226 0.09084726 -0.026855167 0.07368172
-0.080676146 -0.05150324 -0.055192735 0.0139289 -0.049258675 0.014799508 0.035200614 -0.11339991
0.013273014 0.032720987 -0.0022592898 0.027243542 -0.04022837 0.02340245 -0.056614753 -0.040512078
0.05119699 0.061507955 0.04038585 0.021811236 -0.005550712 0.11591106 0.040447265 -0.037833087
-0.037763834 0.0094957715 0.021628264 -0.08983616 -0.068079665 0.09638312 -0.047289286 0.03295392
-0.09571784 -0.02860622 -0.075747296 0.0042181085 -0.048836816 0.017006576 0.050020345 -0.10420203
0.006832822 0.010082339 0.009987752 0.03857672 -0.044106856 -0.001388375 -0.04571127 -0.04359517
0.048595905 0.10453571 0.054830074 0.035072893 0.008869361 0.10358458 0.051509947 -0.023868121
0.015252551 -0.20431234 0.034098063 0.16241384 0.17861633 0.01322014 0.055171873 0.123311765
-0.07398395 0.09757167 0.015376337 0.16297092 0.07959212 -0.1515775 -0.20795359 -0.12696776
-0.21789724 0.13166377 -0.17125934 0.029843349 0.050930005 -0.102649204 0.14151943 0.013300693
-0.15953785 0.11280248 -0.06962395 -0.14327231 -0.011016618 -0.10956377 -0.066096716 0.07708683
0.0013652757 0.025686111 -0.005558527 -0.13719457 -0.070227526 0.0926543 -0.082923904 0.012332757
-0.081292585 -0.019262282 -0.0439648 -0.041357275 -0.030284168 0.03121943 0.050553184 -0.08296272
0.0068972725 -0.023344567 0.02071457 0.0033650089 -0.022723721 -0.011602989 -0.06738952 -0.05233463
0.06076957 0.041806668 0.07928043 0.062668115 -0.006389529 0.12306064 0.049111787 -0.062960714
-0.06794895 0.011297936 0.063286036 0.07608057 0.033129882 0.094908275 0.06030504 0.12004711
-0.08793056 0.031340923 -0.050226133 0.15337738 -0.0134759415 -0.09933106 -0.16285977 -0.1364494
-0.045976736 0.11898513 -0.008738898 0.039508283 -0.059723046 -0.106337346 0.09855194 -0.04498443
0.011626022 0.13216981 -0.050301686 -0.1049897 0.010545382 -0.04500044 -0.0600742 0.06584818
-0.009839645 -0.28539333 0.022410195 0.16276582 0.21413364 -0.21717305 0.049685698 0.06290311
-0.053383853 0.20002973 0.1204628 0.1724893 0.23233142 -0.15915017 -0.21717378 -0.106226735
-0.26947257 0.1356045 -0.2156349 0.010891528 0.23678204 -0.079300374 0.1308871 0.2529471
-0.19307351 0.10542144 -0.053241473 -0.15889452 -0.01172601 -0.119384855 -0.16939414 0.073671855
0.07997343 -0.01957905 -0.22553769 -0.13888301 -0.06417072 0.06878395 -0.100677885 0.007891098
0.19801661 -0.036374774 0.1654788 -0.16933474 0.036333643 0.026400885 0.08482381 0.18836989
0.010649381 -0.1844966 -0.020421715 -0.22805344 0.05342457 0.10919843 -0.08785097 -0.024567753
0.036697082 -0.2619116 0.17100766 0.105084665 -0.26106685 0.16372862 0.04678612 -0.17605518

shortBranch.6.bias f4 [10]
00000000: b5ef 17bd 1111 a8bc 71a8 b1bc 0df7 303e
00000010: 471d 1bbd 70dc 6e3d 1432 1f3e 635e bd3d
00000020: 05da 7ebd 186f fb3b
-0.037093837 -0.02051595 -0.021686764 0.17281742 -0.037869718 0.058315694 0.15546447 0.092465185
-0.06221964 0.0076731555

longBranch.0.weight f4 [64, 64, 3]
00000000: 8861 383c ffda d5bd 5ba2 99bd a1d6 ef3c
00000010: 2467 65bd f541 be3c bc60 903d 45d6 39bb
00000020: 0714 ab3c f8ed 60bd 0d25 edbc c7e9 9d3d
00000030: 6b22 813d 5cfa 75bb 5de4 763d 28ca a83c
00000040: b916 8f3d e2cc 38bd d97b 3ebd a9ed 62bd
00000050: 7c54 d8bc 40a6 8b3d 1131 1e3c f257 6a3c
00000060: 9f10 8abc cdc2 0a3c 94b5 0c3d 2f02 63bd
00000070: d3d6 95bc 86b5 37bd 7f5f 533c ad6d 9f3c
00000080: aa3b 163c 1bcf d2bc 6dc3 3bbd abf1 aabc
00000090: 6b9b 5f3d b995 3bbc 1db1 6c3d b06c 9f3c
000000a0: 0a00 48bd 31a4 2e3d 1c77 16bd 6051 1d3d
000000b0: 385a 99bc c3cb 413d 35b7 98bc 1f95 863c
000000c0: 5f86 69bd 3cf4 87bb c39e b33d ea47 4d3c
000000d0: c484 6dbc eae9 a23b cfcf 713d 34b6 163d
000000e0: bb5f 543d 337c 0a3d 48cb 793c 7f45 7abb
000000f0: b052 b6bd 27bd 873c 5ccd 90bd c109 1abb
00000100: 465e 573c fd25 3c3d aba5 473d d79c 7fbd
00000110: 73c6 803a 6b71 b23c 3747 ba3c c9cd 8cbb
00000120: aa0b 283d 2a7d 74bd 070c 09bb 0d9f b4bd
00000130: b946 1f3c 90cf 183c 3f59 3c3c bb9c 12bd
00000140: 5023 a53b ab86 a9bc 1187 9a3d ebf5 40bc
00000150: 478d 61bc 429b 1d3d a483 6c3c fcc6 05bc
00000160: 4ca4 5e3d 6929 dd3c f1df 5bbd 8ccd 593c
00000170: e9e3 bebc 3a3d a0bd 72c3 71bd 7413 8d3c
00000180: c45e 67bd 9e2c 3abd 5f7a 213d 20dc 28bd
00000190: 473e 5cbb 3495 503d 991e 353d 4960 9e3d
000001a0: fb7c cf3d 06fe 003d d437 a0bd bfaf 4dbd
000001b0: c60b 023d 95db 083d 2112 373c a77f 94bd
000001c0: f53a 0cbd 38fe a63c 7e55 90ba 49aa 493d
000001d0: 8970 8cbd a63d dc3c 5663 64bd de8a b63a
000001e0: 54cc 89bd aaea e0bc 5f7a 02bd 4f8c 94bd
000001f0: 369e 363d 7cb1 73bd 8b7c 1dbd 0212 b53c
00000200: 91b8 0fbb 6f28 203d c803 213b 197a 07bd
00000210: 5c7b e8bb b2fd 81bd 404e 833d 2432 913d
00000220: b4dc 50bc a9eb c4bc 7917 963c 2ca5 15ba
00000230: 5cf6 b43b 157f 2dbd 7b5e b4bd d88e 3dbd
00000240: f559 693b c046 09bb d71f b73b 74c1 983d
00000250: 152f 783c 29ea 8c3d 799e 4c3c 3bdf 1e3b
00000260: d5ce 9f3c fccf 393d 1e95 c9ba 85e4 4f3d
00000270: 4a4e 9bbd cbe4 113d afa7 e4bc eb97 fd3c
00000280: e336 ae3d 2321 763d cb48 d13c 30ed e93c
00000290: 91c3 8e3d cd5e 4cbd 875a 203d a67a 523d
000002a0: 79e2 56bc d795 16bd 1f15 6dbd 2550 8e3d
000002b0: 2cc4 df3c a8db 54bc 1aa2 e3bc c254 0a3d
000002c0: bc37 a63d 3ab4 813d 1e42 593c f718 16bd
000002d0: 6148 7c3d e8d0 69bd ad9c 913c f6b4 233d
000002e0: f9ee 49bd e6cf 09bd b6b8 993c 5745 823d
000002f0: 6e7c a43d 0d70 a9ba dd98 923c 324e 973c
00000300: be32 bd3c ad7c 0cbd 2b6b 823d 7ec7 c03c
00000310: a84a 05bd f5e6 abbc 6788 b83a 610b 4b3c
00000320: 4eab 213d e899 573d 6903 e03c 2cbf ac3c
00000330: 11b2 80bd 1d33 f1bc 9855 cf3c c014 98bd
00000340: 9fbb 19bd bc7d 463d d5d2 91bb c351 1dbd
00000350: 8930 cb3d c408 fcbc e5a1 adbd db63 89bc
00000360: 3063 ba3c 6d7e 69bc 6de4 8a3d 8eb4 3bbd
00000370: 0f35 89bd 4fd7 263c 3e8a a8bd 93f1 21bc
00000380: 7cc0 9f3b 74c6 d2ba 03a3 81bd 337e a03c
00000390: 60ef 7dbd 5cff 6d3c 0a2b 85bc 2043 65bd
000003a0: 0b93 343b d686 fd3c 03bb 1dbd 3ca1 95bd
000003b0: a836 5a3d efaf 9a3c fe7c 89bc fbce 90bd
000003c0: 24b5 8dbc 7d6a 5cbd 39ed fb3c 6520 0a3d
000003d0: e8a6 b1bc 4fd0 333d 30b8 5fbd 7f4d dbbc
000003e0: cd9a e03d 0610 92bd 205e cfba cc74 933d
000003f0: c3f2 143d 95b7 49bd 7603 503d 001c 873d
0.011253722 -0.10442161 -0.0750167 0.029277148 -0.056006566 0.02322481 0.070497006 -0.0028356474
0.020883573 -0.054914445 -0.028948331 0.07710605 0.06305393 -0.003753326 0.060276378 0.020604208
0.06986756 -0.045117266 -0.04650483 -0.05540243 -0.026407473 0.06818819 0.009655253 0.014303194
-0.016853629 0.008469296 0.034352854 -0.055422004 -0.018290913 -0.04485085 0.012901186 0.019461477
0.009169498 -0.025733521 -0.04584067 -0.02086719 0.054591578 -0.011449271 0.057786096 0.019461006
-0.048828162 0.042637054 -0.036734685 0.038407683 -0.018719777 0.047313463 -0.018642047 0.016428528
-0.057012912 -0.004148988 0.08770516 0.012529353 -0.014496986 0.0049717324 0.059036072 0.036794856
0.05184911 0.03380985 0.01524622 -0.0038188396 -0.0890249 0.016569687 -0.07070419 -0.002350435
0.013145035 0.045934666 0.048741978 -0.062405434 0.0009824767 0.021782598 0.022739036 -0.0042969924
0.04102675 -0.05968968 -0.002091171 -0.08819399 0.009721451 0.0093268305 0.011495887 -0.035794
0.00503961 -0.020694098 0.07545293 -0.011777381 -0.013766593 0.038478144 0.014435682 -0.008165117
0.054355904 0.026997285 -0.053680364 0.013293635 -0.023302035 -0.07824178 -0.05902428 0.01722119
-0.05648686 -0.045452707 0.039423343 -0.041225553 -0.0033606456 0.05092354 0.044218633 0.07733209
0.1013126 0.031492256 -0.07823148 -0.050216433 0.03174951 0.033412535 0.011173756 -0.0725091
-0.034235913 0.020384893 -0.0011011807 0.049234662 -0.06857402 0.026884865 -0.055758797 0.0013926884
-0.067284256 -0.027455647 -0.031854983 -0.07253324 0.044584475 -0.059495434 -0.03844885 0.022103313
-0.0021930079 0.03910106 0.0024568904 -0.033075426 -0.0070947837 -0.06347217 0.064114094 0.07089642
-0.012747932 -0.024038153 0.01832174 -0.00057085115 0.0055225324 -0.042357523 -0.08807083 -0.046278805
0.0035606597 -0.0020946711 0.0055885124 0.07458773 0.015147944 0.068806 0.012488955 0.0024241942
0.019507805 0.045364365 -0.0015379523 0.050755043 -0.07583292 0.035618585 -0.027911989 0.03095623
0.085065626 0.060090195 0.025547406 0.028555483 0.06970895 -0.049895097 0.039148834 0.051386498
-0.013115519 -0.036763992 -0.05788147 0.0694888 0.027315222 -0.012991823 -0.027787257 0.033772238
0.08116099 0.063332036 0.0132603925 -0.036644902 0.061592463 -0.057083994 0.017774904 0.0399675
-0.049300168 -0.033645533 0.018764835 0.06360882 0.080315456 -0.001292707 0.017895157 0.018469904
0.023095485 -0.034298588 0.06368097 0.023532625 -0.0325419 -0.020984152 0.0014078737 0.01239285
0.03947001 0.05263701 0.027345376 0.021087252 -0.062839635 -0.029443318 0.025309369 -0.07425833
-0.037532445 0.048459753 -0.004450182 -0.038408052 0.09921367 -0.030765899 -0.084781446 -0.016771248
0.022752374 -0.014251334 0.0678185 -0.045826487 -0.06699573 0.0101831695 -0.082294926 -0.009884256
0.004875241 -0.0016080872 -0.0632992 0.019591426 -0.061995864 0.014526214 -0.016255874 -0.05597222
0.0027553465 0.030948084 -0.038508426 -0.07306144 0.05327478 0.01888272 -0.016783234 -0.070707284
-0.017298289 -0.053812493 0.030752765 0.0337223 -0.021686032 0.04389983 -0.054619014 -0.026770351
0.10967026 -0.071319625 -0.0015820898 0.072000116 0.036364328 -0.049247343 0.05078455 0.065971375

longBranch.0.bias f4 [64]
00000000: 51ed b1b7 313a ab37 c3f5 18b6 29da 00b6
00000010: 35a0 0eb7 cf59 06b7 088c 48b7 5ab6 c337
00000020: 50ae 0fb7 199a 1935 0813 d1b7 cb61 2837
00000030: 0e86 dbb6 7493 39b7 f9b7 1137 9ce1 a035
00000040: bf96 a3b6 61db 92b6 a9b7 3cb6 8122 2037
00000050: df4a 8137 60d9 9535 8c4e cab3 abee 0b37
00000060: d1e6 8cb5 f666 2637 b821 a137 ca5a a9b6
00000070: 8e18 11b8 5db3 6037 bc82 2536 e356 1d37
00000080: edc2 4535 0333 e8b6 d693 45b6 392f 1935
00000090: 4fd4 fe37 1cdc 49b6 1bd2 d2b7 dff7 43b7
000000a0: 4391 5bb8 e203 6835 fdfa b136 5f47 3a36
000000b0: 7509 3d38 8ffa b735 3ab7 2eb7 e63c 9fb7
000000c0: 18c0 8d37 d25a f736 acd5 cfb6 93e6 dcb6
000000d0: e944 8a37 8e7e f737 9c0c ca36 a864 d637
000000e0: fbac ee36 ea50 8a37 75b1 56b8 8aed 67b7
000000f0: 70b4 ef35 6493 acb7 2b17 31b6 e8d1 9c37
-2.1210553e-05 2.0411886e-05 -2.2792817e-06 -1.9200472e-06 -8.501161e-06 -8.007933e-06 -1.19535325e-05 2.3330726e-05
-8.5640495e-06 5.7221183e-07 -2.4923604e-05 1.00363495e-05 -6.5423146e-06 -1.1061191e-05 8.685508e-06 1.198659e-06
-4.8753277e-06 -4.376678e-06 -2.8121087e-06 9.544777e-06 1.5412863e-05 1.116463e-06 -9.4206456e-08 8.340615e-06
-1.0497989e-06 9.9183435e-06 1.9208397e-05 -5.0471617e-06 -3.4593562e-05 1.3393202e-05 2.4663013e-06 9.378159e-06
7.3671873e-07 -6.9200773e-06 -2.944134e-06 5.706566e-07 3.0378023e-05 -3.0079455e-06 -2.5131789e-05 -1.1680618e-05
-5.2348954e-05 8.6432385e-07 5.30423e-06 2.7757703e-06 4.506992e-05 1.3707485e-06 -1.0413869e-05 -1.8982635e-05
1.689796e-05 7.3717465e-06 -6.1939554e-06 -6.5833533e-06 1.648297e-05 2.9503626e-05 6.021537e-06 2.555766e-05
7.1130903e-06 1.648856e-05 -5.1186846e-05 -1.3823979e-05 1.7859402e-06 -2.0572632e-05 -2.638854e-06 1.8694394e-05

longBranch.1.weight f4 [64]
00000000: 9e8c 613f e73d 743f d2e3 743f e404 733f
00000010: e125 623f d389 6d3f 3582 6a3f 18da 733f
00000020: 61ce 643f 3237 663f 49ed 5c3f f499 683f
00000030: 07ac 6b3f bc75 6a3f 45c9 753f e837 6a3f
00000040: 4b06 723f fee2 713f 8800 693f ed19 753f
00000050: 0d11 6d3f e7ca 623f 78ae 6d3f 061e 673f
00000060: 15c9 5d3f 7240 723f 05ad 603f a907 6c3f
00000070: e5e7 5f3f 7616 623f 372c 683f 41a0 623f
00000080: 2eaf 663f 596e 803f faae 683f 8daa 653f
00000090: bd91 623f 17de 733f 08fb 5d3f 44ec 653f
000000a0: 8926 683f c7e3 723f 1e87 763f 087f 643f
000000b0: 3c55 6b3f 1e20 6c3f 0960 643f 6bbb 6b3f
000000c0: 7c09 5e3f 5a2a 6d3f 91b2 713f 3908 663f
000000d0: 6d11 6a3f 1ff1 623f 29fb 733f 98f5 643f
000000e0: 2623 603f cc0b 6d3f de6a 6e3f 5a06 693f
000000f0: 7c67 723f 3a52 6c3f 3734 603f 13ca 693f
0.8810519 0.95406955 0.95660126 0.9492934 0.8833905 0.9278843 0.9160493 0.9525466
0.8937741 0.8992797 0.8629957 0.90859914 0.9205937 0.915859 0.9601024 0.91491556
0.9454085 0.9448699 0.91016436 0.95742685 0.9260414 0.88590854 0.92844343 0.9028019
0.8663495 0.94629586 0.87764007 0.9219919 0.8746322 0.8831552 0.90692466 0.8852578
0.90111053 1.0033675 0.90891993 0.89713365 0.8850363 0.9526076 0.8671117 0.8981364
0.906838 0.9487881 0.9629992 0.89256334 0.9192693 0.92236507 0.8920904 0.9208285
0.8673322 0.9264275 0.94413096 0.89856297 0.9143284 0.8864917 0.95305115 0.89437246
0.8755363 0.92596126 0.93131816 0.91025317 0.94689155 0.9231297 0.87579674 0.91323966

longBranch.1.bias f4 [64]
00000000: 752c 32bd ef13 a9bd 1ad1 043b f755 843a
00000010: cb52 87bd d50c c0bb 614f 283c a0e4 2cbd
00000020: 138a a9bc 3f93 6ebc d448 bb3b 7214 9a3c
00000030: f51a b8bc 9abe 51bd 8eea 523c d836 f3bc
00000040: 3746 3b3c 3bec 86bc ec09 61bd 84bf cb3b
00000050: 94c2 18bd 9cfc 52bb b1cb 4f3d 0e89 a7ba
00000060: 31c9 d5bd 25e8 e0bc bd5e 12bd 665d 69bc
00000070: 2988 c0bc 7304 4ebd d2a0 4fbd f65b 19bc
00000080: 28e3 263d 28a2 8a3c 0c5d 30bd e0c1 84bc
00000090: c56c fc3c 73b3 913d 66e6 77bb bfd0 a4bd
000000a0: 464f 7e3c 07f9 443b bdda b0bd 7304 02bd
000000b0: ffe9 053d 0609 533d 0400 953b 9505 74b9
000000c0: 824c b1ba bc2b 9abc eebf c6bc 005e eebc
000000d0: 1eee 3c3d 33c4 02bd 556b 19bd 5a32 96bc
000000e0: 289c ad3b c978 ef3c 2a6d dfbc 98c6 ee3b
000000f0: bb95 e8ba debb 27bd 8c2e 9dbd 319a 97bc
-0.04349943 -0.08255755 0.0020266236 0.001009642 -0.066075884 -0.0058609047 0.010272832 -0.04221022
-0.020695722 -0.014561473 0.005715469 0.018808577 -0.022473792 -0.051207162 0.012873305 -0.029689237
0.011430315 -0.016470065 -0.054941103 0.006217899 -0.03729494 -0.0032194024 0.050731365 -0.0012781934
-0.10438765 -0.027454445 -0.03573488 -0.014243459 -0.023502426 -0.05029721 -0.05069048 -0.009360304
0.040743977 0.016923025 -0.043057486 -0.016205728 0.030813584 0.07114305 -0.0037826537 -0.08047628
0.01552183 0.0030055658 -0.08635471 -0.031742524 0.03269386 0.051522277 0.004547121 -0.00023271733
-0.001352683 -0.018819682 -0.024261441 -0.029097557 0.046125524 -0.03192539 -0.037455875 -0.018334556
0.0052981563 0.0292324 -0.027273733 0.007286858 -0.0017744818 -0.04095065 -0.07674894 -0.018506141

longBranch.1.running_mean f4 [64]
00000000: 5cda 813e 4b73 92be 824a 48be 6757 9abe
00000010: cfab 84be e3b4 f7bd 40af 243d 8751 9ebc
00000020: 2aea f83e dbbb f4bd 9bef b6be 6f0f 93be
00000030: 2aae e13c a561 c6bd aa51 213e 8db8 6a3e
00000040: a5aa 2cbe 3389 103e ea50 bf3e 5793 e93c
00000050: 425e 853b 697f 11bf 1ea1 c23e a410 663e
00000060: 34fa 58be 446b 96bc 096a e13d 455b abbe
00000070: 71b4 ae3d c6b3 913d 03c3 d43e 4c8b c1be
00000080: 2303 fcbd bc7c bfbe 117a 7bbe a2f2 e93d
00000090: f87c e3be 1369 1f3f 37a3 edbe ae27 0cbe
000000a0: 3a7e 25be 50f5 3d3e e83c 4dbe acc6 863d
000000b0: ce61 c53c ed29 fb39 be96 98bc 11ac d5bd
000000c0: f29d 4bbe 64b5 263d 3d61 a13d 8984 14be
000000d0: 7dad ba3d 00e6 553e 11e8 073e 8df7 97bd
000000e0: 29ee f3be 38ff 553e da6a 68bd 551c 01bf
000000f0: 9b45 313e 0b5c a0bd 10b1 1fbd 2228 70be
0.25361907 -0.28603587 -0.19559672 -0.30144808 -0.2591233 -0.12095048 0.040206194 -0.019325985
0.48616153 -0.11949893 -0.3572968 -0.28722712 0.027548868 -0.09686593 0.15753809 0.22921963
-0.1686197 0.14114837 0.3736642 0.02851264 0.0040700743 -0.5683504 0.38013548 0.22467285
-0.21189195 -0.018361695 0.11006553 -0.3346807 0.0853051 0.07114367 0.41555032 -0.37801588
-0.12305286 -0.37399852 -0.24558283 0.11423232 -0.4443128 0.62269706 -0.46413586 -0.13687012
-0.16161433 0.1855061 -0.20042765 0.065808624 0.024094488 0.00047905688 -0.018626567 -0.1043321
-0.1988447 0.04070033 0.07879875 -0.14503683 0.091151215 0.2088852 0.1327212 -0.074202634
-0.4764264 0.2089814 -0.056742527 -0.50433856 0.17311709 -0.07830056 -0.03898722 -0.2345281

longBranch.1.running_var f4 [64]
00000000: fc10 993d d2c6 893d f293 c43e 10ff df3d
00000010: b56a 303e 0b49 653e 0100 3a3e 57f6 403d
00000020: b890 ea3d e502 943d 9cca 093e 4dd8 5d3e
00000030: 4654 bb3d 0637 a93e d52b 213e faa5 a23d
00000040: e3b6 973e 538e b53e 647a 973e 6667 933e
00000050: 8742 ca3d d12e a83e 4b39 e03d b903 503e
00000060: 5398 a53d 2504 423e 2490 153e 2b86 153e
00000070: dc76 943d b7be 803e 14ff 743e cb3b 993e
00000080: 3109 553e e705 483d d268 7a3e 4003 633d
00000090: a343 623d ef86 1d3e fb02 593e a706 c23e
000000a0: c6ea ad3d 7010 1f3e dd9c ad3d c60b cd3d
000000b0: af26 133e bca4 6e3e 49ed 903e faff da3d
000000c0: 9533 4c3e c7ce 353e 0fb4 223e 9eb1 6f3d
000000d0: f324 fd3d 065e ad3d dd73 a13e b517 633e
000000e0: 7ab1 193e 2c86 413e 3b68 c93d 90b6 123e
000000f0: be22 3b3e e3af df3d 9d5f 113e eec0 543e
0.07473943 0.06727375 0.38394123 0.10937321 0.17228206 0.22391145 0.18164064 0.047109928
0.11453384 0.072271146 0.13456196 0.21664543 0.09146933 0.33049792 0.15739377 0.07941814
0.2963172 0.35460147 0.29585564 0.28789824 0.0987597 0.32848218 0.10948428 0.2031392
0.08085694 0.18946894 0.14605767 0.14601962 0.07249233 0.25145504 0.2392543 0.2992843
0.20804287 0.048833754 0.24454048 0.05542302 0.055240285 0.15383504 0.21192543 0.378957
0.08492045 0.15533614 0.08477185 0.10012011 0.14370225 0.23305029 0.28306034 0.10693355
0.19941552 0.1775466 0.15889 0.058519 0.12360563 0.08465199 0.3153371 0.22177012
0.15009108 0.18898839 0.098343335 0.14327455 0.18274972 0.109222196 0.1419663 0.20776722
