Models/best_eeV0_0427_2.pth (torch, 769979 bytes, 48 tensors)

baseModel.0.weight f4 [64, 2, 3]
000000 d9 ac 1c 3e 1f 81 0f be 88 78 8e be c6 e6 93 3e
       0.15300311 -0.140141 -0.27826333 0.28887004
000010 85 73 a1 3d dc b8 2e 3d 66 ef 9b bb fd 7c f2 3e
       0.07883362 0.042656764 -0.004758763 0.47360983
000020 cb f9 6f be fe 46 b8 3e 5d 19 04 be be 95 81 be
       -0.23435132 0.35991663 -0.129003 -0.25309557
000030 a8 f8 5f be 47 a7 62 be 57 1b 25 3d 53 27 8e be
       -0.21872199 -0.22134124 0.040309276 -0.27764377
000040 d4 2e 98 bd c0 b0 a1 bd bd 31 02 3e c7 d2 8e 3d
       -0.07430807 -0.078950405 0.12714286 0.06973796
000050 7d fc 51 3e 4d b1 32 3e ef ce 56 3d 11 7d 1e be
       0.20506473 0.17450447 0.05244344 -0.15477397
000060 9e 35 c7 be 16 df 56 be 60 a9 45 3d c9 20 78 be
       -0.38908094 -0.20983538 0.04825723 -0.24231257
000070 60 09 91 3e 04 7c bc 3e 5d 6d 69 be 58 1d 07 3d
       0.28327465 0.36813366 -0.22795625 0.03298697
000080 1a d0 4f be 35 6e bf 3e cf ef 8b 3d 3e e1 be 3e
       -0.20294228 0.3738877 0.06832849 0.3728122
000090 78 ed ab 3e 5a 73 e4 bb d3 17 2c be 4f 9f 9b be
       0.33579612 -0.006971759 -0.16805963 -0.3039498
0000a0 e7 61 b9 bd 9f ba b8 be cf 57 19 3d 03 f5 0b bd
       -0.090518765 -0.3607988 0.037437256 -0.03416921
0000b0 3b c5 80 3c 3d 96 aa be 62 da b8 be 29 c6 88 3c
       0.015719047 -0.33317748 -0.36104113 0.016696053
0000c0 6b 6c a9 be 74 77 04 bd 0e 23 c4 3e f9 13 1f 3d
       -0.3309053 -0.032340482 0.38307995 0.038837407
0000d0 c2 57 47 3d b5 75 ed bd 6a 18 31 be 65 fb 2b be
       0.048667677 -0.115947165 -0.1729447 -0.16795118
0000e0 de 42 81 be cf cd 8b 3e 4d 31 bb 3b da 49 64 be
       -0.25246328 0.27305457 0.005712664 -0.22293797
0000f0 9a f5 a9 3e c7 2c 10 be f3 a5 b6 be 78 ef 67 3e
       0.33195192 -0.14079581 -0.35673484 0.22649944
000100 cf b9 86 bd f9 5c a5 be cf ad 40 3e 72 70 65 bc
       -0.06578409 -0.32297495 0.18816303 -0.01400386
000110 4a 85 52 be a1 b3 4a 3e 1b 43 ba 3e 5c 37 46 3e
       -0.20558658 0.19795085 0.36379322 0.19357055
000120 1a b8 84 3e df 24 2e be 28 16 ee bd 85 7d c7 bd
       0.25921708 -0.17006253 -0.1162532 -0.09740738
000130 a0 24 dd 3e b1 fe 8e be cd 82 51 3e cf 23 d7 3e
       0.43192005 -0.2792869 0.20460053 0.42019507
000140 44 0a 74 be 60 8d 4f 3e a9 f6 1e 3e 93 7f 8b bd
       -0.23832041 0.20268774 0.15523781 -0.06811442
000150 3b 4b 44 3d b1 f6 88 3e 6d 34 a2 bd d1 29 f0 3d
       0.047923308 0.2675071 -0.07920156 0.11726726
000160 6b 9b 33 3e 35 4e a4 be 2f 6d 4f 3e 06 0a 7d be
       0.17539756 -0.32090917 0.20256494 -0.24710855
000170 59 43 62 3e 9e 36 2a bd 55 d7 99 3d ec 2b c8 bd
       0.22096004 -0.041555993 0.075117745 -0.097740024
000180 59 97 9e bd 9c 20 79 be 52 d9 af be 77 e1 bb be
       -0.07743711 -0.24328846 -0.3434549 -0.36695454
000190 68 52 19 be e8 2d 8c 3e 25 cf d6 3e 00 d4 28 3e
       -0.14972842 0.27378774 0.41954914 0.16487122
0001a0 b7 e9 3d bd 5c 8c 41 3e 2c b9 4f be a8 9e bb be
       -0.046365466 0.18901199 -0.20285481 -0.36644483
0001b0 cf 09 90 3d 8c a8 09 bd 32 19 63 3d d8 46 c3 be
       0.07033121 -0.033608004 0.05544395 -0.38139987
0001c0 74 ae 77 bb 04 20 cc be da 27 e5 3d 98 0f 74 be
       -0.003779319 -0.39868176 0.11189242 -0.23834074
0001d0 62 2b f0 bd 38 c4 2d 3e 11 9c a7 3d ec cc 06 be
       -0.117270246 0.16969383 0.08184064 -0.13164109
0001e0 d5 5f c8 3e 51 67 61 bb d7 a8 3b be 92 ae de 3c
       0.39135614 -0.0034393857 -0.18326126 0.027182851
0001f0 d4 74 92 3e d1 97 7b 3e 08 fd 68 3d b0 f4 35 3e
       0.28604758 0.24569632 0.056881934 0.17769122
000200 d8 bb 0f be 9f c3 17 3e 3f db 9b 3e 63 bb a0 be
       -0.140365 0.14820717 0.3044071 -0.31392965
000210 3e 53 d2 3d 90 58 3b 3e 6f 7e f6 bd e0 23 85 3e
       0.102697834 0.18295503 -0.12035834 0.26003933
000220 1d 74 a7 be e9 37 d4 bb 3f 6d b3 be 61 be 40 bc
       -0.32705775 -0.0064763916 -0.35044286 -0.01176414
000230 c0 74 b6 be 01 ab a5 bd 7b f7 b7 bb 7c cd b9 bd
       -0.35635948 -0.08089257 -0.005614219 -0.09072396
000240 fc 4c 96 3e c6 f0 be bd 60 13 4d be 68 a8 f4 bd
       0.2935561 -0.09323268 -0.20026922 -0.119461834
000250 96 f3 30 be 7f 7a e4 bd d5 c0 e8 3e 49 7d f3 3d
       -0.1728042 -0.11156177 0.4545962 0.118891306
000260 14 af 7a 3e b4 8f 8e 3e 51 01 92 be fa c5 9c 3d
       0.2448085 0.27844012 -0.2851663 0.076549485
000270 56 88 1d 3e 5a 4f 3b 3e 83 6d c8 be 4c 2d f0 bd
       0.1538404 0.18291989 -0.3914605 -0.1172739
000280 04 21 6f bd e3 d0 49 3e cc a4 c9 be a6 65 38 be
       -0.058381096 0.1970859 -0.39383543 -0.18007526
000290 f5 1e 7e bd 07 f2 47 be c1 2c 4d 3e bd 47 87 bd
       -0.06204124 -0.1952592 0.20036604 -0.0660548
0002a0 82 e3 a3 3e 3e 71 01 3e 67 f5 61 be 18 de 6f bd
       0.32009512 0.12640855 -0.2206627 -0.058561414
0002b0 71 9c b9 3b 57 a8 44 3b 54 f0 26 bc 79 9e 90 be
       0.005664401 0.0030007565 -0.010189135 -0.28245905
0002c0 4b 64 65 3e b3 83 44 3d 3a 5f 2f bd 20 9a 94 3c
       0.2240154 0.04797716 -0.042815425 0.018139899
0002d0 fe ac 72 3e 9c fb 42 3e bf e6 bb be 96 77 10 3d
       0.23698804 0.19041294 -0.36699483 0.035270296
0002e0 8f fa af be f3 9e 83 bd e1 2b 87 3e 9c 96 88 be
       -0.3437085 -0.064268015 0.26400664 -0.26677406
0002f0 e8 32 7a bd a4 bf b0 bd 09 d4 04 3e 33 ee 70 bd
       -0.061083704 -0.086303025 0.1297151 -0.058820914
000300 3c 0e 2f be ec cd 2a 3e 9f 30 c7 3b 2b 61 5d bd
       -0.17095274 0.16680115 0.006078794 -0.054047745
000310 10 50 85 3e 2e 2d ef bd 2f de 49 3e 36 f7 6d be
       0.26037645 -0.11678539 0.19713663 -0.23238835
000320 8b b6 38 3d 4b d0 1c bd fd e3 1f 3e 82 a9 ea bd
       0.04509596 -0.03828458 0.15614314 -0.11458112
000330 0c 45 8e 3e cb 66 12 3c 6b 22 9a 3e 07 22 88 3e
       0.27787054 0.008935641 0.30104384 0.2658846
000340 ff ba a4 3d 50 62 7c 3e 52 f1 ba be 4e 19 76 3c
       0.08043479 0.24646878 -0.36512238 0.015020682
000350 d1 1f 8c 3e 46 45 0c 3d 3c eb b4 3e 6d c2 26 3e
       0.27368024 0.03424575 0.3533572 0.16285105
000360 47 3d ab bd 9d 5d b5 3c 16 bf 3e bd 78 c0 62 3e
       -0.08361297 0.022139365 -0.046568953 0.22143734
000370 94 93 1c be 62 c3 d7 3d 2d 06 a2 3d f8 5e 82 bd
       -0.15290672 0.10535313 0.07911334 -0.0636577
000380 d2 33 f2 bd 85 b1 b2 be 82 05 b6 3e cf 34 49 3e
       -0.1182629 -0.34901062 0.35551077 0.19649051
000390 39 74 5b be 63 93 9b be 24 d8 5f 3e 95 bd 68 3e
       -0.21431054 -0.30385885 0.21859795 0.2272857
0003a0 33 a0 9b be bd 07 57 be f0 96 c9 3d d3 1d a6 be
       -0.3039566 -0.20999046 0.09843242 -0.3244463
0003b0 9b c4 5b 3e c4 d8 a4 3d ed d4 3a bd 6b 1a 71 bd
       0.21461718 0.08049157 -0.045613218 -0.058863085
0003c0 ab b6 0c be 49 d8 4e 3e d3 ca 17 bd be 6f c1 bd
       -0.13741557 0.20199694 -0.037058663 -0.09445141
0003d0 a9 c4 9c 3e 5b 92 d6 bd 2e 47 f6 3b 09 6a 1f 3e
       0.3061879 -0.10477134 0.0075158095 0.15567793
0003e0 9a 22 a2 3e 72 1f a6 be 05 89 25 be 5a 51 5f 3e
       0.31667024 -0.32445866 -0.1616555 0.21808377
0003f0 54 73 bb be ed 7e 17 3d 79 b6 23 3e 1b 1e 70 3e
       -0.36611426 0.03698628 0.15987577 0.23448984

baseModel.0.bias f4 [64]
000000 c1 7c 3f b7 27 14 a9 39 27 36 d5 38 30 99 9c 38
       -1.1413534e-05 0.00032249207 0.00010166718 7.467193e-05
000010 28 0d 81 b9 39 48 06 3a 63 ac 2e ba b5 22 00 ba
       -0.000246146 0.00051224564 -0.0006663261 -0.0004887984
000020 d0 33 cb b9 d2 45 8d b9 5a fd d4 39 8a e4 d3 b9
       -0.0003875778 -0.00026945636 0.00040624553 -0.0004041533
000030 1a 3d 96 b9 55 ba f3 38 c3 d7 7e ba 0d f6 5b b9
       -0.00028655754 0.0001162185 -0.0009721482 -0.00020977129
000040 23 58 82 39 ba 56 b9 38 3b 61 9a b9 8c 13 df 39
       0.000248612 8.8376415e-05 -0.0002944561 0.00042548438
000050 9b de cb b9 7a f3 78 b9 6c 16 db b9 12 d8 b7 b9
       -0.0003888503 -0.00023741825 -0.0004178764 -0.00035065465
000060 b2 51 02 ba 74 8e df 37 e4 c7 b0 38 48 1b e6 b8
       -0.000497128 2.6650006e-05 8.4295665e-05 -0.00010972336
000070 31 45 05 3a e8 ab cd ba 0c d6 d6 b9 67 ba b1 b9
       0.00050838577 -0.0015691491 -0.00040976738 -0.0003389895
000080 12 7b 2f ba f6 5d c3 39 27 03 3c 39 cb 0a 90 b8
       -0.0006694059 0.00037263305 0.00017930251 -6.8684654e-05
000090 d6 06 28 ba 43 f7 1e ba 40 f0 d1 b9 fc 95 99 b8
       -0.000640971 -0.00060640665 -0.00040042587 -7.323545e-05
0000a0 f5 95 48 b9 82 a7 e0 b9 dd ed 23 3a ec ad cc b8
       -0.0001912935 -0.00042849412 0.0006253401 -9.7598735e-05
0000b0 45 44 93 b9 e5 b6 22 b8 07 a6 8c 39 ff c7 a4 b8
       -0.0002808889 -3.8794144e-05 0.0002682658 -7.8573816e-05
0000c0 c3 f6 1a b9 98 e3 12 ba 87 7f 81 39 b2 f2 91 b8
       -0.0001477851 -0.0005603372 0.00024699813 -6.959344e-05
0000d0 e0 c3 23 b8 4d 25 b6 b8 a8 59 78 39 b5 94 1e b9
       -3.904465e-05 -8.685384e-05 0.00023684523 -0.00015123452
0000e0 bb 9c e6 b9 68 32 1c 39 a9 cb 33 ba e5 7f 06 39
       -0.00043985792 0.00014896097 -0.0006858656 0.0001282688
0000f0 e2 94 c0 39 2c 63 8b 39 80 3a 8a ba 69 ab 94 39
       0.0003673202 0.00026586035 -0.0010545999 0.0002835647

baseModel.1.weight f4 [64]
000000 0a a2 7a 3f f1 c6 74 3f 49 8c 74 3f b8 55 76 3f
       0.979035 0.9561606 0.9552656 0.96224546
000010 77 2e 7b 3f da f3 7c 3f 61 0d 74 3f e2 10 7c 3f
       0.98117775 0.9880959 0.95332915 0.9846326
000020 05 bc 7c 3f 9b 16 75 3f 76 e7 78 3f dc 4d 68 3f
       0.98724395 0.9573762 0.9722818 0.90743804
000030 9c 8e 71 3f 48 93 72 3f 76 01 77 3f 26 9a 75 3f
       0.9435823 0.94755983 0.96486604 0.95938337
000040 7a f9 72 3f 79 d7 77 3f 6f f9 80 3f fc ce 6e 3f
       0.9491192 0.9681316 1.0076121 0.93284583
000050 9a 30 7a 3f 0f 74 74 3f c5 74 6e 3f 2d b5 7b 3f
       0.9773041 0.9548959 0.93146926 0.9832333
000060 86 43 78 3f 5d 5d 75 3f 23 50 72 3f 55 22 75 3f
       0.9697803 0.95845586 0.9465353 0.9575551
000070 29 e4 78 3f 09 58 74 3f 3b db 77 3f a1 f6 70 3f
       0.97223145 0.9544683 0.96818894 0.94126326
000080 2f 40 71 3f a9 78 72 3f 1e f9 7e 3f 45 cb 75 3f
       0.9423856 0.9471536 0.9959887 0.9601329
000090 ed 67 7a 3f 97 b8 73 3f 46 e8 77 3f 78 ae 6a 3f
       0.9781483 0.95203537 0.96838796 0.9167247
0000a0 78 53 6e 3f 77 78 7b 3f 7f 56 76 3f 98 86 6e 3f
       0.93096113 0.9823069 0.9622573 0.93174124
0000b0 0a dd 6e 3f 92 5a 71 3f 4f a8 80 3f 20 ba 7b 3f
       0.9330603 0.94278824 1.0051364 0.9833088
0000c0 9d 3b 7a 3f 1e f6 7c 3f e3 7a 7b 3f 17 5f 79 3f
       0.9774721 0.98813045 0.98234385 0.9741072
0000d0 2f b7 70 3f a0 3e 75 3f ef c7 74 3f c4 54 7b 3f
       0.94029516 0.95798683 0.95617574 0.9817622
0000e0 f7 00 78 3f cd 8e 64 3f 68 b9 75 3f d4 61 77 3f
       0.9687647 0.89280397 0.9598603 0.9663365
0000f0 53 61 68 3f aa 66 7c 3f 65 dc 74 3f 22 07 7b 3f
       0.90773505 0.9859415 0.95648795 0.9805776

baseModel.1.bias f4 [64]
000000 29 d1 e9 bd 32 11 49 be 7f 99 7b 3c d3 6b 8b bd
       -0.11416847 -0.19635466 0.015356421 -0.06807675
000010 64 1d fa bd d3 27 a3 bd b5 d3 5d bd 66 fa d8 3c
       -0.12212637 -0.0796658 -0.054156978 0.026486587
000020 ca 38 23 be 40 eb c4 bd 03 1d 60 bc de 7b 91 bb
       -0.15939632 -0.09615183 -0.013678792 -0.004439815
000030 0d ad 36 be 8c 7a 18 3e 61 d6 33 be 9f f7 a9 3e
       -0.17839451 0.14890498 -0.17562248 0.33196732
000040 59 ca d6 bd 44 57 0c be a4 3d 92 bd 61 bb 16 be
       -0.104878135 -0.13705164 -0.07140663 -0.14719917
000050 32 a1 0d be 2b 0b 9f 3e f9 0a 1c be e1 12 82 bd
       -0.13831022 0.31063208 -0.1523856 -0.06351257
000060 67 25 04 be f0 14 66 3c 45 37 14 be 08 e1 2a 3d
       -0.12904893 0.014043078 -0.14474209 0.041718513
000070 1f cd d7 bc a8 ae 9c 3e 36 a1 36 be 34 2c 98 3e
       -0.026342927 0.30602002 -0.17834935 0.29721224
000080 d7 59 1a be b8 89 17 be 61 ef aa bd 59 55 18 be
       -0.15073334 -0.1479863 -0.08346439 -0.14876308
000090 b6 53 1f 3e b3 dc 94 bd c1 3c 19 be e3 3a 16 be
       0.15559277 -0.072686575 -0.14964582 -0.14670901
0000a0 45 8e 91 3e 79 80 d8 bd ea 0b 21 be 32 12 18 3e
       0.28428856 -0.10571379 -0.15727201 0.14850691
0000b0 fe 6d 91 3e 3c ef 2b 3c 1d 70 84 bd 90 c0 19 be
       0.2840423 0.01049405 -0.064666964 -0.15014863
0000c0 1c a9 09 be fc e9 1d be 2b b5 13 be 52 bc 81 3d
       -0.13443416 -0.15421289 -0.14424579 0.063347474
0000d0 25 6d 06 bd dc ea 29 bd 3f 00 11 3d fe d3 db bd
       -0.032818932 -0.041483745 0.035400625 -0.10733794
0000e0 10 d4 2b be ba e2 b0 bd 43 16 21 bd 6f 2e 4f 3c
       -0.16780114 -0.08636995 -0.03932787 0.012645348
0000f0 dd b2 69 bd 94 0d 30 3a 37 2e 9d 3d 82 5d 89 3e
       -0.057055343 0.00067158905 0.076748304 0.26829153

baseModel.1.running_mean f4 [64]
000000 ac 72 b7 b8 63 46 d4 39 51 a4 d0 38 95 86 41 39
       -8.747479e-05 0.00040488233 9.948819e-05 0.0001845605
000010 1f ef 59 b9 5b 52 f4 39 27 5e bd b9 33 b8 2c ba
       -0.00020783812 0.00046600666 -0.00036119038 -0.0006588727
000020 ab 65 18 ba 1f bc 15 39 b1 fd 97 39 32 87 82 b9
       -0.00058134896 0.00014279828 0.0002898998 -0.0002489626
000030 be 99 9f b9 98 aa 97 b8 72 f0 62 ba 5a 6e 3b b9
       -0.0003044139 -7.232017e-05 -0.0008657045 -0.00017874819
000040 f9 70 0d b9 d9 dd 24 37 bc 1c dd b8 7f 38 93 39
       -0.00013488893 9.826815e-06 -0.000105434534 0.00028080118
000050 ab 00 b7 b9 16 05 18 b9 91 43 03 ba d2 18 91 b9
       -0.00034904978 -0.00014497744 -0.00050073216 -0.00027675048
000060 68 eb e8 b9 0b 06 d3 38 0a 57 e1 38 75 37 54 b9
       -0.0004442588 0.000100623896 0.00010745048 -0.00020238555
000070 c0 5d f9 39 4e 09 d0 ba b5 14 e9 b9 b1 e2 3b b9
       0.0004756283 -0.0015871914 -0.0004445665 -0.00017918159
000080 b2 44 25 ba d2 c8 ca 39 ed 79 50 39 53 ff d7 b9
       -0.0006304487 0.00038678065 0.00019881847 -0.00041198227
000090 b7 1b 10 ba d0 ce 19 ba e1 68 de b9 70 0c 5a 38
       -0.0005497294 -0.0005867304 -0.0004242128 5.1986834e-05
0000a0 ef 65 70 b9 96 91 02 ba fc 67 bd 39 b4 03 05 b9
       -0.00022926157 -0.00049808004 0.00036126364 -0.00012685248
0000b0 a4 09 b1 b9 37 e6 6c b8 18 0b 13 3a 40 5e 93 b7
       -0.00033767254 -5.648119e-05 0.0005609258 -1.7567654e-05
0000c0 9b d4 ef 37 b7 1b c2 b9 5d 02 78 39 20 eb f5 b8
       2.8590022e-05 -0.00037023213 0.00023652003 -0.00011726306
0000d0 80 a8 0b b9 a9 c5 33 39 e2 ed b6 39 b7 99 e7 b8
       -0.00013318844 0.00017144404 0.00034890982 -0.0001104357
0000e0 93 65 a4 b9 09 a0 10 39 2d 92 37 ba 5f b4 55 b8
       -0.00031356196 0.00013792528 -0.0007002678 -5.095114e-05
0000f0 09 a5 10 3a 5f 5e 46 39 87 93 90 ba cd 68 68 39
       0.0005517756 0.00018917907 -0.0011030295 0.00022164285

baseModel.1.running_var f4 [64]
000000 25 87 18 37 57 b0 68 37 50 99 19 37 35 a5 af 36
       9.091372e-06 1.3869335e-05 9.1552065e-06 5.234639e-06
000010 7d 6f a9 37 b2 0a 8b 37 92 dd 86 37 c1 25 53 37
       2.0198286e-05 1.6575072e-05 1.6077222e-05 1.258537e-05
000020 58 a4 1a 37 f2 24 3e 37 97 73 74 37 e8 47 7e 37
       9.21738e-06 1.13334845e-05 1.4570446e-05 1.5156322e-05
000030 f1 eb 11 37 50 0d 56 37 87 a1 e7 36 0f 4e 52 36
       8.697608e-06 1.27584935e-05 6.9031407e-06 3.1337875e-06
000040 65 e3 9b 37 21 83 96 37 1d ab 56 37 a1 df a7 36
       1.8583329e-05 1.7942455e-05 1.2795234e-05 5.0030217e-06
000050 8c 4c 70 37 21 ab 00 37 12 86 ca 36 c9 41 3b 37
       1.4322937e-05 7.669239e-06 6.035677e-06 1.1161385e-05
000060 45 f3 02 37 cc b6 8f 37 6b 43 05 37 7f b7 40 37
       7.805244e-06 1.713205e-05 7.943115e-06 1.1486815e-05
000070 1e ef d2 36 9f e3 51 36 f0 c0 4a 37 19 56 8c 36
       6.2863246e-06 3.127592e-06 1.208506e-05 4.182348e-06
000080 c8 15 54 36 61 f7 33 36 87 0f 6a 37 f4 dc 7a 37
       3.160314e-06 2.6817072e-06 1.3951102e-05 1.4952606e-05
000090 dd 18 0b 36 a2 53 20 37 e5 e6 5d 37 7b 6a 6a 36
       2.0727086e-06 9.556215e-06 1.3226386e-05 3.4930697e-06
0000a0 68 55 7b 36 50 1b 5a 37 1f 61 5b 37 b5 b0 b6 36
       3.7451628e-06 1.3000172e-05 1.307603e-05 5.444594e-06
0000b0 dc bc 55 36 12 4a 42 37 2c 22 26 37 33 4b 9c 37
       3.1849404e-06 1.1580547e-05 9.902327e-06 1.8631667e-05
0000c0 48 e2 76 37 23 9a 2f 37 d7 ff 5b 37 e5 9c 82 37
       1.4715428e-05 1.0466701e-05 1.3112985e-05 1.5570267e-05
0000d0 62 0b 5f 37 78 57 79 37 6e c9 7d 37 81 dc 92 37
       1.3294486e-05 1.4861922e-05 1.5126874e-05 1.7507236e-05
0000e0 c0 69 2c 37 10 02 a8 36 ef a2 2d 37 71 d0 08 37
       1.0276621e-05 5.0070303e-06 1.03495395e-05 8.154763e-06
0000f0 52 aa 21 37 9d 59 21 37 50 54 57 36 a2 5e af 36
       9.636004e-06 9.6172125e-06 3.2086573e-06 5.226423e-06

shortBranch.2.weight f4 [64, 1024]
000000 60 70 8d bc b2 23 21 bd be f3 c2 bb 4a 8c 4b bc
       -0.017265499 -0.039340682 -0.0059494665 -0.012423584
000010 c1 2b e6 bb fc 28 1a bd 08 11 18 bc 3e ff 58 bc
       -0.007024259 -0.037636742 -0.009281404 -0.013244448
000020 af 16 0a bc 19 19 bd bc 63 32 cc bc 9b cd f4 bb
       -0.00842826 -0.023083257 -0.02492637 -0.007470799
000030 df 1a ef bc 5f c4 83 bc 17 f9 06 bd 7f 1c 12 bd
       -0.029187618 -0.016084848 -0.032952394 -0.035671707
000040 ad 00 8c bc 50 54 00 bb 7e 0d 0d 3c dd 12 51 bc
       -0.017090166 -0.0019581504 0.008609174 -0.012760845
000050 00 55 5f 3c 3a 4a 2f 3c f7 f2 49 3c 1c c1 aa 3c
       0.013631105 0.010698849 0.012325994 0.020844035
000060 30 f3 1a 3d ae 1b 18 bc a3 e2 34 3c 4d 63 3f 3c
       0.037829578 -0.009283943 0.0110403625 0.01168139
000070 e9 5b 29 3b 82 f4 1a ba 86 fb 0b ba 26 d3 08 3d
       0.0025842136 -0.00059110683 -0.0005339909 0.03340449
000080 b9 fc 9c 3c ee 72 7c 3c 44 27 61 3c 9f ea ad 3c
       0.019163476 0.015408261 0.013742272 0.02123004
000090 36 ea 48 3c ef 2f f3 3c 1c 76 70 3c 18 44 bb 3c
       0.0122628715 0.029685942 0.014676597 0.022859618
0000a0 a5 b1 cc 3c 81 c7 30 3d fb db 0c 3c ea b2 5d 3c
       0.024987051 0.04315901 0.008597369 0.013531426
0000b0 f8 6d a5 3c 26 31 f9 3c dc 06 c4 3c 70 58 32 3c
       0.020194039 0.030418944 0.023929052 0.010885343
0000c0 6d ef 15 bc d2 1e 26 bd 3e d6 aa bc 3c 24 05 bd
       -0.009151322 -0.040556736 -0.020854112 -0.03250526
0000d0 24 1c d1 ba 41 25 96 bc b2 5a ec 3a 5a d9 1a 3c
       -0.0015953821 -0.01832831 0.00180324 0.009451235
0000e0 34 c8 76 bc 10 36 9f bb be 75 d0 bc 5e 39 9d bc
       -0.015062381 -0.0048587397 -0.025446769 -0.019192394
0000f0 68 3a 10 bb 19 84 9f bc 3d 93 f0 bb 2c b5 b4 bc
       -0.002200747 -0.019472169 -0.007341771 -0.022059046
000100 7d 7f 2d bd 95 c8 a9 bc c4 90 df bc d8 82 ce bb
       -0.04235791 -0.020725528 -0.02729071 -0.006302219
000110 a6 b3 2c 3b de b1 27 bb 09 4e 01 bd d4 0f 0a bd
       0.0026352196 -0.0025588195 -0.03156856 -0.0337065
000120 3d 6f 03 bd cf 92 99 bc 66 c7 27 bb 40 07 0b bd
       -0.032088507 -0.018746762 -0.0025601028 -0.03394246
000130 58 70 05 bd 90 23 0c bd 2e a5 30 bc 96 8a a7 bc
       -0.032577842 -0.034213603 -0.010781569 -0.020451825
000140 cf 07 2a 3c 58 27 d0 3c 95 7b d7 3c 7f 22 03 3c
       0.010377838 0.025409386 0.026304046 0.00800383
000150 ef 3b 4a 3c e8 97 9b 3c 16 dd fc 3c b1 f5 ba 3c
       0.012343391 0.018993333 0.03086714 0.022822233
000160 42 95 76 3c fd a7 3d 3c 43 db 05 3d 2d 9a 3c 3d
       0.015050234 0.011575696 0.032679807 0.04604547
000170 8a 0c 36 3d 6d 7c dd 3c 51 2d 16 3c b5 df 1c 3d
       0.044445552 0.02703687 0.009166078 0.03829928
000180 74 c0 cf bc 76 52 c5 bc 5d 68 96 bc bf f9 22 bc
       -0.025360323 -0.024087172 -0.018360311 -0.009947239
000190 20 03 b0 bb 7d 63 b2 bc c2 de 95 3b d6 e1 9c bc
       -0.0053714663 -0.021775955 0.004573674 -0.019150656
0001a0 e0 aa 57 3c cd 16 07 bc 20 f3 f2 3b c2 84 95 ba
       0.013163298 -0.008245182 0.0074142367 -0.0011407363
0001b0 60 81 72 bc 0a c6 7a 3c 0a 58 26 b9 0e 0d d1 3b
       -0.014801353 0.015306005 -0.00015863791 0.00637973
0001c0 02 0e f3 3b a8 5f e1 3c 0d 2f 16 3d ec cb da 3c
       0.0074174413 0.027511433 0.036665965 0.026708566
0001d0 9b 0e b8 37 47 f1 49 3b a3 c7 81 ba 82 46 32 3c
       2.194131e-05 0.0030813979 -0.0009901415 0.010881068
0001e0 73 68 12 3c 76 34 0d 3d 96 17 97 3c 14 f9 8b 3c
       0.008936035 0.03447386 0.018443864 0.017086543
0001f0 a1 78 de 3c a4 0a 07 3c 3e 01 76 3b 78 ca 9e 3c
       0.02715713 0.008242283 0.0037537361 0.019383654
000200 11 59 c3 3c 85 56 d3 3c 07 3c 60 3b 0e ad 1d 3c
       0.023846181 0.025798092 0.0034215467 0.009623779
000210 17 40 a8 3c 32 2c 72 3c e0 9b 32 3c e9 a4 fd 3c
       0.020538373 0.014781045 0.010901421 0.030962424
000220 6c 2f 83 3c d5 b7 64 3c 6d b2 6f 3b c3 c9 80 3c
       0.016013823 0.013959845 0.0036574856 0.015721207
000230 38 e6 9a 3c 5d ec 8b 3c 2d c9 10 3c 46 6d 21 3d
       0.018908605 0.01708048 0.008837027 0.039410852
000240 f6 03 97 39 d5 04 2e bc 0c 2c f0 bc c1 61 c6 bc
       0.00028803915 -0.010621269 -0.029317878 -0.024216535
000250 93 0b 91 bb 76 aa 45 3c eb 9e 81 bc 55 6e 07 bb
       -0.0044264286 0.012064567 -0.015822848 -0.0020665128
000260 67 06 d1 bc 8e e1 4e bc 8f 68 22 bb dd b3 87 b9
       -0.025515748 -0.012627019 -0.002478156 -0.00025883215
000270 29 52 ba bb d8 15 ad 3b de 20 19 bc 9c 7b 06 bd
       -0.005686064 0.005282145 -0.009346215 -0.032832727
000280 bb 9f 9d 3c 30 6d 6c 3c 28 83 f9 3b ac c7 84 ba
       0.019241204 0.014430329 0.007614512 -0.0010130308
000290 ad e6 d4 3c 14 d2 9a 3b ff 5b 49 bb ff 5f 9e 3c
       0.025988901 0.0047247503 -0.0030725 0.019332884
0002a0 fd 47 08 b7 58 a2 e4 3c 0f 3b 3b 3b 3b ed 96 3c
       -8.122993e-06 0.027909443 0.0028569137 0.018423667
0002b0 98 54 e6 3c 2d 64 b6 3c 7d 63 ba 3c 85 b1 cc 3c
       0.02811651 0.022264564 0.022752518 0.024986992
0002c0 c2 1d 8a bc 62 09 3f bc bd 07 0a bb a7 06 93 3c
       -0.016859893 -0.011659952 -0.0021061741 0.017947508
0002d0 fa d4 b5 bb 71 c1 48 bb 28 b6 f2 3b 01 d7 56 bb
       -0.0055490704 -0.0030632878 0.0074069686 -0.003278196
0002e0 2c 63 d7 3b 7a ce f8 3a da 2d 87 bc 51 0b 4a bc
       0.0065731015 0.0018982433 -0.016501356 -0.0123318
0002f0 90 02 a2 ba fc 9a b3 bb ab cf b6 3c fc 11 85 bc
       -0.0012360383 -0.005481122 0.02231582 -0.016243927
000300 d8 52 44 bc 66 36 84 3c 98 6b 7d 3c b0 a2 1c 3c
       -0.011982642 0.01613922 0.015467547 0.009560272
000310 a9 37 0f 3c f3 45 84 3b c6 e8 eb 3c 9c a4 fb bb
       0.008741298 0.004036659 0.028797518 -0.007679535
000320 e3 d9 f4 bb 61 3f 84 ba 65 6d 80 3c 28 70 fe 3b
       -0.007472263 -0.0010089689 0.015677163 0.007764835
000330 74 33 80 3a 14 23 b5 3c c1 c3 ed ba 55 06 d5 3c
       0.0009780959 0.022111453 -0.0018140004 0.026003996
000340 d3 60 01 bc ac 68 c4 3c 96 09 42 bc fd bd 4b 3c
       -0.00789662 0.023975693 -0.011843106 0.012435433
000350 09 5d d9 ba 62 d3 e0 3c 18 20 ad 3b c3 64 a5 3c
       -0.0016583513 0.027444545 0.005283367 0.020189648
000360 23 9b 10 3c 16 2d a1 3c 54 c0 85 bb e9 c3 bc 3c
       0.00882605 0.019674819 -0.004081765 0.023042636
000370 e6 3a 0f 3c 91 31 7d 3b a5 72 93 3a 1d d8 33 3a
       0.00874207 0.003863428 0.0011249377 0.00068605115
000380 36 fd 4e 3c f5 3b 2c 3c 85 eb 88 3c b8 c6 26 3c
       0.012633612 0.010512342 0.016713867 0.010179214
000390 8d ad 88 bb 21 52 69 3b bb 62 d3 bc 27 a5 55 3c
       -0.0041710795 0.003560193 -0.025803914 0.013039864
0003a0 ba 60 06 3c 7a d5 4d 3c 3f 9f bf 3b 64 d5 a1 bc
       0.008201772 0.012563104 0.005847841 -0.019755073
0003b0 fc f6 d4 bc 65 53 3d 3c f7 f1 50 bc df ff da ba
       -0.025996678 0.011555527 -0.012753001 -0.0016708336
0003c0 09 c7 f2 bb 53 e5 4c bc f1 2c 1d 3b 65 5f ad bc
       -0.0074089807 -0.012505847 0.0023983086 -0.021163652
0003d0 b6 46 af 3b b2 ce 2d bd 1c 4f e0 bc 4a ee 7a bc
       0.0053490056 -0.042433448 -0.027381472 -0.015315602
0003e0 8a 8b 0e bc 93 28 5e bc ac 79 52 b9 d8 2e f8 bc
       -0.008700261 -0.013559478 -0.00020072487 -0.030295774
0003f0 c8 34 ef 3b 88 e4 62 bc 60 ef cc 3b a0 fb c7 bb
       0.007299993 -0.013848431 0.0062541217 -0.006102994

shortBranch.2.bias f4 [64]
000000 f7 a0 6a bd aa ea 9a 3e 14 01 68 be 71 0c d9 3d
       -0.057282414 0.3025716 -0.22656661 0.10598076
000010 4c 01 b9 3d 4c f3 59 be 5c 97 07 3b a0 63 0c 3e
       0.090334505 -0.21284217 0.0020689582 0.13709879
000020 6d 8f 61 3e 1c 4a 09 be a2 29 e5 3d 20 d8 7c bc
       0.22027369 -0.13407177 0.111895815 -0.015432388
000030 e3 fe 58 be 51 cf 82 be 4c d1 bb 3c 49 ae 85 be
       -0.21190982 -0.25548795 0.022926949 -0.26109532
000040 c9 f6 82 be d4 a3 5f be 00 e7 3d bd fb 31 43 bd
       -0.25578907 -0.21839839 -0.046362877 -0.047655087
000050 e1 5e 86 3e 41 6c 74 3e cb 60 83 3e 92 98 61 be
       0.26244262 0.2386942 0.25659785 -0.22030857
000060 0b f3 26 3e 20 41 74 3e d1 10 5d bc 3f 2e 23 bb
       0.16303651 0.23852968 -0.013492779 -0.002489939
000070 2a e3 b3 3d 6a b3 76 be 94 e0 28 be cf e5 19 be
       0.087835625 -0.24091879 -0.1649192 -0.15029071
000080 10 58 66 be 15 bc 80 3e f2 ed 8d 3e ee 95 34 bd
       -0.2249453 0.25143495 0.277206 -0.044088297
000090 a6 a9 55 3e 37 69 0d bd bb 6e 55 3e 4f 1b 1a 3e
       0.20865497 -0.03452417 0.20843022 0.1504948
0000a0 c9 38 9b 3d 54 33 9c bd 61 90 77 bc 83 48 96 be
       0.0757919 -0.076269776 -0.015110106 -0.29352197
0000b0 be 13 84 3e fc ed 13 bd ed e8 6f 3e b2 68 61 be
       0.25796312 -0.03611563 0.23428698 -0.22012594
0000c0 da 78 68 be c4 08 71 be d3 37 be bc a8 a8 f9 3d
       -0.22702351 -0.235385 -0.023219978 0.12190372
0000d0 86 5c 97 bc af 16 e0 3d 69 7a 33 3e 25 2e 52 be
       -0.018476736 0.109418266 0.17527165 -0.20525415
0000e0 98 66 44 3e 0f e4 66 be 50 26 4e 3d 16 5d 76 be
       0.19179761 -0.22547935 0.050329506 -0.24058947
0000f0 c2 87 7f 3d fb b5 95 bd c8 03 6c 3e f0 33 8c 3d
       0.062385328 -0.07310101 0.23048317 0.06845844

shortBranch.4.weight f4 [32, 64]
000000 fb 00 41 bd 3e 9f c5 3b 66 5f 22 3d 06 dd 6b bc
       -0.047120076 0.006030946 0.03964176 -0.014395958
000010 df 23 22 be 17 73 0c bb 29 70 fa bd 35 82 e2 bd
       -0.15833996 -0.0021430904 -0.12228424 -0.11059991
000020 72 9a 1e bd e9 67 a8 bd fe 38 6c bd 49 b9 07 bc
       -0.03872151 -0.08222944 -0.05767154 -0.0082839215
000030 71 ab 06 bc 0d 5a 0a 3c f9 82 4e bd 46 86 e7 38
       -0.008219586 0.008444321 -0.050417874 0.00011039949
000040 8d a1 79 bb 12 6e 93 3c 83 46 20 3c af 0b 64 bc
       -0.0038090677 0.017996822 0.009782436 -0.013918801
000050 66 ad 2d 3c 17 88 ba 3b 7a 8c 02 bd 2e c5 3c bc
       0.010600423 0.0056924927 -0.03187225 -0.011521621
000060 c3 d0 46 3c ce b6 ee 3a 0a c1 9b bd ed 34 48 3d
       0.012134734 0.0018212439 -0.07605179 0.0488786
000070 6e 99 70 be 3a 1f 03 bc 17 47 3d be 9d a5 39 bc
       -0.23496029 -0.00800305 -0.1848415 -0.011330989
000080 21 9a 32 bc 76 84 ac bc 94 3f b0 3b 55 b9 6b be
       -0.010901005 -0.021059256 0.005378673 -0.23019917
000090 11 31 a6 39 ee d7 a4 3d 4b 7a a5 bd 9e 7d b5 bd
       0.00031698545 0.08048998 -0.08079966 -0.0886185
0000a0 8f 16 a3 3d ec ac 7d 3e cf e5 56 bd 7d 8c 7d 3c
       0.07963287 0.24772996 -0.052465256 0.01547539
0000b0 0b 30 06 3c 85 72 99 3e 8d 97 22 bc 9b 99 9c bb
       0.008190165 0.29970184 -0.009923828 -0.0047790534
0000c0 11 5d 5c bb 04 53 fd bb 4e 53 92 be 15 1a 24 be
       -0.0033624808 -0.0077308435 -0.2857918 -0.16025575
0000d0 8d 05 9a be 7f 74 49 be 40 7e 5d 3e 82 eb 0c bd
       -0.3008236 -0.19673346 0.21630192 -0.034404285
0000e0 83 9f a5 bd 18 6a 8f bc ba b4 90 bc 55 d0 21 bc
       -0.08087065 -0.017506644 -0.017664302 -0.00987633
0000f0 c3 84 e8 bc 19 0e 28 3c 4d aa eb bd df fb 84 bc
       -0.028383618 0.010257267 -0.11507092 -0.016233383
000100 78 a8 a3 3a cb 81 d3 bd a6 98 13 3e 40 70 6d 3b
       0.0012486121 -0.103274904 0.144137 0.0036230236
000110 bf ce ce 3c a6 77 88 3d 83 01 22 bd 9b 9a b3 bc
       0.025245069 0.06663446 -0.039552223 -0.021924308
000120 01 16 8b bd 54 5f 9a bb a1 6d 03 bd d5 88 d0 3b
       -0.06791306 -0.004711071 -0.032086972 0.006363968
000130 f7 cb a3 3d d3 19 1c 3e 72 c8 88 3c 54 6b 3e 3e
       0.079978876 0.15244226 0.016697142 0.1859563
000140 ed 78 5a 3e eb 33 a6 3d 2e 6d f3 3c 34 67 06 bd
       0.21335192 0.08115371 0.029715147 -0.032813266
000150 7a 05 0c be 9c 85 2a be 18 1b 3d be c1 a9 23 3d
       -0.13673964 -0.1665253 -0.18467367 0.03995681
000160 d1 7e 32 bc 41 35 00 be 08 67 2b 3b 5d 80 03 bd
       -0.010894493 -0.12520315 0.002615394 -0.03210484
000170 71 a5 66 bc 41 28 22 3d e2 b0 05 3c 82 49 74 3c
       -0.01407753 0.03958917 0.008159848 0.014910104
000180 b3 97 3f 3e 80 c2 30 be 48 c3 25 be 62 e0 01 3d
       0.18710212 -0.17261696 -0.16187775 0.03170813
000190 c8 c0 df bd dd 89 fc 3c 10 55 17 be c1 bf e0 3c
       -0.10925442 0.030827457 -0.14778543 0.027435185
0001a0 3b 67 74 bd 2d 95 0a bc 4b 71 d3 3c a3 db 3e 3e
       -0.05966876 -0.008458418 0.025810858 0.18638472
0001b0 0e 22 15 be 31 84 ae 3c 98 b6 08 bd 15 ea 2e 3e
       -0.14563772 0.021303268 -0.03337726 0.17081483
0001c0 75 58 ec 3d e8 00 02 3e 9b 1d a3 bb ea bb e7 bc
       0.11540309 0.12695658 -0.0049778945 -0.028287847
0001d0 0d 9e 24 bc 9b 34 97 3c 1b cb 5e bc 10 8f 94 bc
       -0.010047448 0.018457701 -0.013598229 -0.018134624
0001e0 cc 70 a8 bd 62 1c ab 3d e4 c3 76 3c 84 58 86 3d
       -0.08224639 0.08355023 0.015061352 0.06559852
0001f0 6c b7 0c 3c a6 66 06 3a f6 13 07 be 1b 85 92 3c
       0.008588653 0.000512699 -0.13191208 0.017885735
000200 c4 6f 09 3e d9 e6 fb bd 9a 40 05 3e c2 45 a7 bb
       0.13421541 -0.1229989 0.13012925 -0.0051047513
000210 ae e4 80 3c 44 ff b7 3c c0 22 1c bd 6a b7 3f bd
       0.015734043 0.022460587 -0.038119078 -0.046805777
000220 fb 3b f8 bd f7 74 0a 3d 93 ce cc bd 6c 06 83 bd
       -0.12120815 0.033802953 -0.100003384 -0.06397709
000230 47 e1 15 3b fd 6e 0a 3e 88 f0 40 3d e2 91 93 bc
       0.0022869871 0.13518901 0.04710439 -0.018013898
000240 68 d6 6d 3c 2c 0b 3a 3d 0a 5d ca 3d 20 b9 18 bd
       0.01451645 0.04542081 0.09881027 -0.037285924
000250 d3 0a 28 bd 90 d1 29 3c 7b d5 13 be 24 c9 08 3d
       -0.041025948 0.010364905 -0.14436905 0.033394948
000260 a8 47 ba bc c8 57 05 3c f3 cd e7 3d 03 9a 93 bd
       -0.022739246 0.008138604 0.113185786 -0.0720711
000270 99 c3 4c bd 15 43 0f 3e f2 ac 59 3e 77 8b c7 3c
       -0.049991224 0.13990434 0.2125738 0.024358494
000280 34 39 cc bb 5a 96 0c be f8 7f 8a bc 85 18 f1 3d
       -0.006232405 -0.1372923 -0.016906723 0.11772255
000290 47 25 df ba 1a 6a f9 3c e3 67 d1 bd 4a 72 0a 3b
       -0.0017024659 0.030446101 -0.10224893 0.002112525
0002a0 dd 1b c4 bd bf e5 43 3c b7 5a df 3d 3f 95 0a 3e
       -0.09575627 0.011956631 0.10905974 0.13533495
0002b0 6d 94 18 bc d4 a7 43 bd 8f c2 a9 bb cf 5f 4b ba
       -0.009312731 -0.047767475 -0.005180664 -0.0007758112
0002c0 03 55 b4 bb 22 d6 57 3b 68 38 78 3d b4 55 52 bd
       -0.0055032982 0.003293403 0.06060067 -0.051351264
0002d0 d8 aa 35 3c fa 76 f9 bb c2 af 45 be 39 b5 37 3e
       0.011088096 -0.00761306 -0.19305328 0.17940225
0002e0 da b5 ab bd f0 dc 5b 3c 1d 8d ae bd 95 4b 95 3c
       -0.08384295 0.013419375 -0.08523009 0.018224517
0002f0 50 15 5f bd 68 45 9e 3c 36 08 b8 bd 95 75 c8 bd
       -0.054463685 0.019320205 -0.08985941 -0.09788052
000300 bf 82 13 3d d8 60 65 3c 2e 7a 18 bd ff 74 39 3c
       0.03601336 0.01400014 -0.037225895 0.011319398
000310 60 78 34 3e 06 12 83 bc 0b 53 fe 3d e5 9e 2a 3e
       0.17624044 -0.015999805 0.12418183 0.16662176
000320 d1 f9 ed 3d 88 f1 cd 3d a3 a2 30 3d 01 f4 c2 3b
       0.11619914 0.10055834 0.043123852 0.0059494977
000330 78 75 d6 3c 44 f6 28 bd 47 f3 51 3d e6 3d 4d 3b
       0.02617906 -0.041250482 0.051257398 0.0031317412
000340 12 1f e8 3c 68 3d 90 3b b1 dd 7b bb 09 16 05 3c
       0.028335128 0.0044018514 -0.00384317 0.008122929
000350 f4 cb 9b bb ea 1a c9 bc bf c8 ae 3d af 2e 20 bc
       -0.0047545377 -0.024548966 0.08534383 -0.009776755
000360 f1 93 51 3c 46 2e 61 bc 3b 4f 88 3d af 85 a9 bc
       0.01279162 -0.013743943 0.06655737 -0.020693628
000370 4f 6c 6b 3e fc 54 44 3c bf 8c d8 3d 57 12 4d bc
       0.22990535 0.0119831525 0.1057372 -0.01251658
000380 70 2a 4e 3c 93 bf 2c 3d ec d1 ae bc 88 77 63 3e
       0.01258336 0.042174887 -0.021340333 0.22213566
000390 73 5c 09 3d b7 95 16 bd 2e 68 bc 3d a8 e9 1b 3e
       0.033535432 -0.036763873 0.09199558 0.15225852
0003a0 34 7e f0 bd 96 97 8d be e0 f2 ac 3d db 17 ca bb
       -0.11742821 -0.27654713 0.08444762 -0.0061673946
0003b0 6a b2 51 bc c0 ed 90 be b1 2e 64 3b a3 02 7a bb
       -0.012798885 -0.2830639 0.003481787 -0.0038148544
0003c0 a2 ab 89 3c 1c 45 d3 3c eb 2d 8f 3e ab 68 7c 3e
       0.016805474 0.02578979 0.2796472 0.24649303
0003d0 a7 9c 8b 3e 90 c4 78 3e 86 6b 33 be f1 f9 09 3d
       0.27267954 0.24293733 -0.17521486 0.03368563
0003e0 5e 34 cb 3d 75 38 7d 3c fa b7 38 3d 0d 14 25 3b
       0.099220976 0.015455355 0.04509733 0.0025188953
0003f0 65 a3 ba 3b 8e 18 e7 ba 25 e3 c0 3d c1 76 28 3d
       0.0056957477 -0.0017631219 0.094183244 0.041128878

shortBranch.4.bias f4 [32]
000000 47 53 ce bd b1 df b5 bd 26 fd 37 bd 95 30 da 3d
       -0.10074478 -0.088805564 -0.044919156 0.106537975
000010 f2 ac 78 3d 53 f1 8d bc ce 4d 80 3d 55 39 6d bd
       0.06071181 -0.017326986 0.0626484 -0.057916004
000020 ec c1 9e 3d b7 94 af 3d cd 22 b2 3d 37 10 46 3d
       0.077518314 0.08573287 0.08698044 0.048355307
000030 74 e9 07 3e fd 31 da bd 09 81 98 bd 79 3a 27 bc
       0.13272649 -0.10654066 -0.074464865 -0.010206812
000040 e7 f8 ab bd 0b 4e b6 3d 35 71 26 bd 98 04 81 bc
       -0.08397084 0.08901604 -0.040635306 -0.01574926
000050 3c 2c 5a 3d e5 91 8a 3c 03 c7 f2 3d c8 5f c9 bc
       0.05326484 0.016915271 0.11854365 -0.024581805
000060 ba d9 e7 bd fa 50 ff 3b a2 a6 e7 bc 04 5b b9 bd
       -0.11320825 0.0077916356 -0.028277699 -0.09050563
000070 74 c1 4d 3c ac d8 dd bd d5 a2 ac bd 5b 32 81 3a
       0.01255833 -0.108323425 -0.08429495 0.0009856926

shortBranch.6.weight f4 [10, 32]
000000 08 f9 ba bd d8 8d 08 3d 56 6e 95 3d 26 79 60 3d
       -0.0912953 0.033338398 0.072964355 0.054803036
000010 67 05 c3 bd dc 88 d4 3d 59 9f 58 3d 99 cc 27 3e
       -0.09522515 0.10377666 0.05288634 0.16386642
000020 2f 29 ba bd 8e 52 8f bd d7 c9 af bd 66 e5 93 bd
       -0.090898864 -0.06998168 -0.0858342 -0.07221489
000030 5e 9a af bd b7 bb 53 3d b5 c8 91 3d 2b ac f9 bd
       -0.08574365 0.05169269 0.0711836 -0.121910416
000040 84 4c d2 3c be 7a b1 3d 69 52 00 3d 44 81 74 3d
       0.025671251 0.08665989 0.031328592 0.05969359
000050 cc d7 52 bd 27 45 aa bd 4b e1 ae bd 05 23 5f bd
       -0.05147533 -0.08313971 -0.08539065 -0.054476757
000060 52 39 a4 3d c2 3d ea 3d 30 48 82 bd b6 18 9f 3d
       0.080187455 0.114375606 -0.06361425 0.07768385
000070 23 2b 13 be 73 ea 14 3e 2d 79 c4 3d af 27 5e 3d
       -0.14371924 0.1454256 0.09593425 0.054237064
000080 f5 2a ab bd c5 f4 04 3d e1 85 9b 3d 7a 9c 4a 3d
       -0.08357803 0.032459993 0.07593895 0.049465634
000090 e1 18 ca bd b4 53 d1 3d fc 9e 3c 3d d4 7f 24 3e
       -0.098680265 0.10221043 0.046050057 0.16064388
0000a0 a4 eb d0 bd d8 f4 90 bd 67 2f ba bd 27 b7 9b bd
       -0.10201195 -0.0707795 -0.090910725 -0.07603293
0000b0 80 88 b8 bd 63 6c 5c 3d 9a e0 94 3d 23 b6 00 be
       -0.0901041 0.053814303 0.07269402 -0.1256948
0000c0 bf c6 c4 3c cf 3e b4 3d 52 d3 04 3d 8e 6a 81 3d
       0.02402055 0.08801042 0.032428093 0.06319152
0000d0 94 a2 6e bd 5c 01 b5 bd d6 ed af bd a2 92 53 bd
       -0.058260515 -0.0883815 -0.085902855 -0.05165351
0000e0 2f 36 b1 3d ae 2f eb 3d 12 5c 73 bd 11 58 a9 3d
       0.08652913 0.114837036 -0.059413977 0.082687505
0000f0 55 69 0c be 19 77 13 3e 30 ac d6 3d 95 53 49 3d
       -0.13712056 0.14400901 0.10482061 0.049151976
000100 95 65 cc bd 0b 4b d6 3c 23 2e 24 3d 13 23 9e 3d
       -0.09980313 0.02615883 0.040083062 0.077215336
000110 4b d3 b3 bd 60 b9 d1 3d f0 9c 80 3d dd cf 1f 3e
       -0.08780535 0.102404356 0.062799335 0.15606637
000120 87 bc d7 bc 8c 56 71 bd b7 b7 47 bd 9c 82 72 bd
       -0.026335014 -0.05892043 -0.04875919 -0.05920659
000130 41 ab 82 bd 3f bb 1b 3d 8d 19 6a 3d 71 89 bd bd
       -0.0638032 0.03802037 0.057153273 -0.092547305
000140 df 89 af 3c ce 34 88 3d 3d 32 03 3d 47 7e 15 3d
       0.021428047 0.06650697 0.032030333 0.03649738
000150 33 65 4f bd 65 0f 9a bd 66 a7 8e bd cd a7 67 bd
       -0.05063362 -0.075224675 -0.069655225 -0.05655651
000160 4b 9d 9e 3d ac 8e ac 3d df 27 8c bd e9 eb 83 3d
       0.07744845 0.0842565 -0.06843542 0.06441481
000170 d0 14 1a be 8f d7 06 3e e1 7a b5 3d 3e 40 47 3d
       -0.15047002 0.13168167 0.08861328 0.04864525
000180 16 f2 d2 bd 48 78 b7 be f3 5b b4 3c 0b 37 e9 3d
       -0.103000805 -0.35833955 0.022016501 0.11387452
000190 26 48 75 3e c1 76 76 3c 42 b4 a2 3d 98 2e 39 3e
       0.23953304 0.015042962 0.07944538 0.1808418
0001a0 4d 84 17 3d a7 6d 57 3e 55 e3 40 3e d7 7f 65 3e
       0.036991406 0.21037923 0.1883672 0.22412048
0001b0 56 f8 93 3e 51 48 60 be 0a b7 82 be 3c 5d 62 bd
       0.28900403 -0.21902587 -0.25530273 -0.055264696
0001c0 a3 b0 a5 be 79 21 db 3d b3 7d 9a be fd 00 33 3b
       -0.32361326 0.10699744 -0.30174026 0.0027313821
0001d0 67 7f e3 3c 0f bf ea bd 2a 17 4a 3e f0 31 0f bc
       0.027770711 -0.11462223 0.19735399 -0.008739933
0001e0 47 06 8c be df f1 bd 3d 78 27 af bd db 84 3d be
       -0.2734854 0.09274649 -0.0855245 -0.18507712
0001f0 59 6a f9 bd 9d fb 23 be 87 d0 87 3d fe 2d bd 3d
       -0.12178487 -0.16013952 0.0663157 0.09237288
000200 31 4a b7 3e bd 19 12 3d 22 21 c4 bb 30 d7 ad be
       0.3579879 0.035669077 -0.005985395 -0.33953238
000210 ef d2 d8 bd 95 14 9b 3d 08 ec b0 be c1 f2 79 be
       -0.105871074 0.07572285 -0.34555078 -0.2440901
000220 04 79 2d be 7e bd 8a bd 2f 8f 9c bd ee d6 a8 bd
       -0.16940695 -0.06774424 -0.076444976 -0.082441196
000230 ec 71 aa bd 40 62 5a 3d 0b ff 97 3d 69 b5 da bd
       -0.0832251 0.053316355 0.074216925 -0.106791325
000240 41 e8 d2 3c 86 a5 a4 bd 55 1e 08 3d bc 88 ac 3c
       0.025745513 -0.080393836 0.033232052 0.021061294
000250 f8 ec bf bb 67 08 56 3e 03 30 b7 bd f4 19 f2 bc
       -0.0058571063 0.20901643 -0.089447044 -0.029553391
000260 a4 ef b4 3d 86 c2 4e 3d 98 9e b6 3e db 9c a5 3d
       0.0883477 0.05047848 0.35667872 0.080865584
000270 85 c6 7d 3e 2e bf 18 3e 88 aa 4d be 00 a1 65 be
       0.2478276 0.1491668 -0.20084584 -0.22424698
000280 af 86 e2 bd e1 74 64 bc b7 b3 93 3d 69 f8 df 3d
       -0.11060845 -0.013943882 0.07212012 0.10936052
000290 15 da 43 3e 3a f5 e7 3d fc a4 b1 3d 58 95 3c 3e
       0.1912616 0.1132607 0.086740464 0.18416345
0002a0 11 b0 99 bd ce ed 27 3e 85 b2 99 bd cc 8b 49 3e
       -0.07504285 0.16399309 -0.07504753 0.19682235
0002b0 35 e0 4f bd a1 d6 3f be 0a 3b 5c be 1f 7a 05 be
       -0.05075093 -0.18734218 -0.21506897 -0.13034867
0002c0 dc 20 83 bc b6 52 f2 3d 42 b4 65 bc 65 dd 8b 3d
       -0.01600688 0.11832182 -0.014020028 0.06829337
0002d0 70 00 60 bd 66 a1 f1 bd 4d 9b 28 3e d2 f3 7f bd
       -0.054687917 -0.117983624 0.16465493 -0.062488385
0002e0 1f a1 36 3d 8a 34 03 3e 33 84 ac bd 43 6f 21 be
       0.04458725 0.12813011 -0.084236525 -0.15765099
0002f0 43 60 08 be 55 f2 fe bd b1 a3 b8 3d 87 65 c3 3d
       -0.13317971 -0.12448565 0.09015597 0.09540849
000300 3a 34 b3 3c 48 0c bf be 2c 17 06 be 30 77 e6 3c
       0.02187549 -0.37314057 -0.13094777 0.028133005
000310 cb 65 7b 3e d2 87 b4 be 4f cc 13 bd 76 4b 83 3c
       0.2455055 -0.35259873 -0.036083516 0.016027194
000320 6a 5d 30 3d 12 8d 5f 3e 4b 07 89 3e b6 22 71 3e
       0.043057837 0.21831158 0.26763377 0.23548397
000330 f8 6e 9f 3e a3 1e 6a be 17 38 86 be 79 45 2a 3d
       0.3113935 -0.2286325 -0.26214668 0.04157016
000340 64 a7 ac be 9a da a7 3d d1 1a a1 be 89 b3 11 be
       -0.3372146 0.08195992 -0.31465772 -0.14228643
000350 16 3a db 3e 1f f6 81 bd 30 02 53 3e 0e ad e4 3e
       0.42817754 -0.06345772 0.20606303 0.4466328
000360 84 ae 96 be df 7b a2 39 78 94 41 3d f0 31 47 be
       -0.2943002 0.0003099134 0.04726073 -0.19452643
000370 ed 0b 2b 3d 69 3d 27 be 87 3f 9d be 46 b9 91 3d
       0.04175942 -0.1633202 -0.3071253 0.07115416
000380 78 4f 14 be d6 75 02 bd cf b1 c8 be fd b5 ea 3d
       -0.1448344 -0.03185066 -0.39198157 0.11460493
000390 40 6e ec bd 0f 7d 60 bd 9a be d2 3d e9 29 84 3d
       -0.11544466 -0.054806765 0.102902606 0.06453306
0003a0 d5 7b 89 3e aa 48 b8 bd e4 44 af 3e bd 95 c7 bd
       0.2685229 -0.089982346 0.34232247 -0.09745357
0003b0 81 6a 74 3e 22 d5 90 3d 84 01 c7 3d 94 14 9e 3e
       0.23868753 0.07071902 0.09717086 0.30875075
0003c0 5b b0 8e bc ee 13 ae be 5b a3 86 3b 5a 74 c4 be
       -0.017418077 -0.3399958 0.004108829 -0.3837002
0003d0 7d 46 5b 3e 36 ad 8a 3e ae b3 d2 bd 10 f7 28 3d
       0.21413608 0.27085274 -0.102881774 0.041251242
0003e0 bb a0 62 bc 67 5c bd be 46 f0 99 bd 84 f4 c7 3d
       -0.013832266 -0.3698456 -0.07516532 0.097634345
0003f0 5e 65 51 be 6c cb 2a 3e 11 ea 81 3c 2e c9 72 be
       -0.20448825 0.16679162 0.015858682 -0.23709556

shortBranch.6.bias f4 [10]
000000 5f fb fe bd 71 da 17 be 64 6d 87 3d a1 97 08 3e
       -0.12450289 -0.14829423 0.066126615 0.13339092
000010 d8 43 f3 3d 4d 65 7a 3e 27 ac c0 3c 29 a5 54 3e
       0.118781745 0.24452706 0.023519589 0.20766129
000020 d4 c2 a0 be 5f c6 7f 3d
       -0.31398642 0.06244504

longBranch.0.weight f4 [64, 64, 3]
000000 b2 7b 7a bc 50 f9 9d bd dd 99 cc bd 60 f6 88 3c
       -0.01528828 -0.07713568 -0.099902846 0.016719043
000010 03 f0 9b bc d0 23 53 3c 9b 77 1d 3d 1c 3d f1 bc
       -0.019035345 0.012886956 0.038444143 -0.029448085
000020 9e c1 bd 3b e9 d2 4b bd 91 a7 a4 bd 0f 0e 4d 3d
       0.0057909032 -0.049761686 -0.08039773 0.050062235
000030 6e bb 7c 3d 0c 3b a5 bc 0d 29 87 3d a3 4a 95 3c
       0.061702184 -0.020169757 0.06599627 0.018224066
000040 4f f0 b9 3d 2f 66 3e bd a5 8e d9 bc af 4b 51 bd
       0.09079038 -0.04648417 -0.026557276 -0.051097568
000050 58 a0 5c bc bd fc 13 3d 28 2c 03 3d 15 af 9e 3c
       -0.013465963 0.036129702 0.032024533 0.019370595
000060 5f 25 45 bc bf 5f cd 3c 90 c6 3f 3d f3 f1 1a bd
       -0.012032836 0.02507007 0.046820223 -0.037828397
000070 8d eb 75 3c e2 1a 5f bd df ad cf bc 8a 8d a1 3b
       0.015009773 -0.054468997 -0.025351463 0.004930203
000080 7f b3 a1 3c 50 13 40 39 0c 11 d1 bb 73 a1 2c 3d
       0.01973891 0.00018317741 -0.006380206 0.042146157
000090 56 75 31 3d b9 b0 08 bc 2f 25 6a 3d 04 eb 3d 3c
       0.04332479 -0.008342915 0.057164367 0.011591677
0000a0 72 75 e1 bc 8a a4 18 3d 93 67 da bc 57 a9 36 3d
       -0.027521823 0.03726629 -0.026660716 0.04459509
0000b0 a5 bf 89 bc 00 3d 30 3c ee 3d b7 bc 75 96 1b bc
       -0.016815016 0.010756731 -0.022368398 -0.009496321
0000c0 b2 05 97 bd 63 bb d4 bc 00 46 5f 3d ad 32 21 bc
       -0.07374133 -0.02596826 0.054510117 -0.009838742
0000d0 92 45 4f bd 30 53 e2 3b 05 54 51 3d 99 69 4c 3d
       -0.050603457 0.0069068894 0.051105518 0.049905393
0000e0 39 10 b8 3c 5c ad 24 3d 49 8d 05 3d 5d 84 4d 3c
       0.022468673 0.04020439 0.032605443 0.012543765
0000f0 d4 60 d5 bd 84 fb f5 3c 06 2f bd bd 06 cc fc ba
       -0.10418859 0.030027159 -0.09237485 -0.0019286878
000100 58 21 6e 3c 27 71 dd 3c 0a a0 f6 3c a0 30 68 bd
       0.014534317 0.027031494 0.03010561 -0.056686997
000110 69 6a 48 bc 41 14 31 3d 83 ae 17 3d f7 40 64 bb
       -0.012232401 0.043232206 0.03703166 -0.003482876
000120 51 32 90 3c 4f d3 b9 bd b6 bc bc 3c 1a 77 54 bd
       0.017602118 -0.09073507 0.023039203 -0.051871397
000130 ad be 57 3d a8 09 70 bc 90 0a 42 3b 72 f7 85 bd
       0.052672077 -0.01465074 0.0029608347 -0.06541337
000140 b5 db 3d bb 85 21 8b bb 40 f0 1f 3d 17 02 12 bc
       -0.0028970067 -0.004245939 0.03904748 -0.008911631
000150 58 a9 a3 3c f5 e8 8f 3d 49 e2 97 3c cf f6 ce bc
       0.01997821 0.07026855 0.018540518 -0.025264172
000160 c2 17 7d 3d e6 58 e3 3c 71 13 72 bd b6 f8 8f 3b
       0.061790235 0.027752351 -0.059100572 0.0043936623
000170 6a d4 9d 3b e2 93 7d bd 79 78 2a bd 0c 3d 7b ba
       0.0048165815 -0.06190861 -0.041618798 -0.0009583987
000180 18 67 3c bd 1b 05 0e bd 3e 30 e6 3c 9d f0 25 bd
       -0.045996755 -0.034672838 0.028099176 -0.04051267
000190 49 44 2f ba d5 20 2f 3d e3 ec 54 3d 68 9b 2e 3d
       -0.00066858955 0.04275592 0.051983725 0.042628676
0001a0 a4 09 45 3d 00 b5 aa 3b 1c 1f aa bd 15 6c 14 bd
       0.048104897 0.005209565 -0.08306715 -0.036235888
0001b0 77 3b 36 3c eb eb 40 3c 6f e9 81 3c 87 4c 5a bd
       0.011122576 0.011774997 0.01585838 -0.05329564
0001c0 94 fd 75 bc 7e 23 6b 3b b1 64 e4 bb 1f 04 01 3d
       -0.015014071 0.003587931 -0.006970011 0.03149807
0001d0 1b 73 67 bd 1b 7b 9f 3c fa 7f 2a bd 89 19 ec 3c
       -0.056506258 0.019467881 -0.041625954 0.02882077
0001e0 2c 22 69 bd b9 a3 ff bc 05 4d 14 bd af d1 b2 bd
       -0.056917354 -0.031205999 -0.036206264 -0.087314
0001f0 e7 f7 3f 3d 6e a5 9b bd 82 a0 06 bd ca 87 d7 3c
       0.046867277 -0.075999126 -0.032867916 0.026309866
000200 5f 00 25 3d 16 83 31 bc b1 e5 04 3c 21 c5 1b bd
       0.040283557 -0.010834476 0.008111403 -0.038029794
000210 49 00 47 bc 66 4e 50 bd 60 6d 63 3d 1f ac 88 3d
       -0.012146064 -0.050856017 0.05552423 0.066734545
000220 fc c9 b2 bc 45 8c 0e bd b1 59 2f 3d c1 d8 33 3d
       -0.02182483 -0.03480174 0.042810146 0.043907885
000230 2a 81 95 bb fe 4d 39 bd 78 ff 48 bd e7 a6 88 bd
       -0.0045625167 -0.045240395 -0.04907176 -0.06672459
000240 61 d6 94 bb ab 24 7f 3a ba fb 1e 3c a6 38 3d 3d
       -0.0045421575 0.0009732942 0.009703571 0.046196602
000250 d7 a2 f4 3a f4 d2 80 3d 0d 94 59 3b 4e c4 e5 bc
       0.0018664253 0.06290236 0.0033199817 -0.028047707
000260 bd 67 ad 3c 3e 4a 9b 3d ff e8 43 3d ea 0d fb 3c
       0.02116763 0.0758252 0.047829624 0.030646283
000270 ed 1e 43 bd 84 e4 94 3c 38 a3 2b bc fd 94 4e 3d
       -0.047636915 0.018175371 -0.010475926 0.050435055
000280 65 a3 b8 3d 1d 51 5f 3d 90 f3 a0 3c ee 2d 90 3c
       0.0901554 0.054520715 0.01964739 0.017600026
000290 53 4d 8d 3d 4e 0d c8 bd 18 de 1a 3d 49 13 d2 3c
       0.06899514 -0.09768163 0.03780946 0.025643962
0002a0 55 8d c3 ba d5 34 84 bc ff 50 22 bd 56 23 9b 3d
       -0.001491944 -0.016138474 -0.039628025 0.07575099
0002b0 81 61 4a 3d 67 4a 69 bc fa c2 3f bc 66 7b 09 3c
       0.049409393 -0.01423893 -0.011704201 0.008391237
0002c0 c5 ee 08 3d d5 9b 3e 3d 99 2f 85 3c ca 96 03 bd
       0.033430833 0.04653533 0.016258048 -0.032126226
0002d0 49 aa 14 3d 96 dc 2d bd 62 0c 63 3c 4a ae 55 3b
       0.03629521 -0.042446695 0.013857933 0.0032605105
0002e0 cf 8a 2d bd d2 0a 03 bd cb e2 62 3c 26 c3 1f 3d
       -0.042368706 -0.03199274 0.013848017 0.039004467
0002f0 b4 ff 81 3d 44 86 dd bb 4f d2 47 3c b6 84 c0 bc
       0.063475996 -0.0067603905 0.012196138 -0.023500782
000300 1c a9 83 3c 8a 0a 34 bc 9e b4 6e 3d f9 11 48 3d
       0.016071849 -0.010988841 0.05827772 0.048845265
000310 8f f5 08 bd b1 96 3d bb 57 27 06 bd 3b 3c 84 3c
       -0.033437308 -0.002892893 -0.03275236 0.016142001
000320 50 33 a8 3c 40 4c 6a bb 4e e2 aa 3d e5 da 2f 3d
       0.02053228 -0.0035751015 0.083439454 0.042933363
000330 8c 88 57 bc 49 64 d8 3b ce 10 52 3d 31 4e 10 bd
       -0.013155114 0.006603752 0.051285557 -0.03523082
000340 79 07 19 3b 60 08 16 bc 51 7c 03 3c 11 3a f2 bc
       0.0023350401 -0.00915727 0.008025245 -0.029568704
000350 54 f2 ba 3d 2b 15 c1 3b 40 6d 8a bd 1a f0 21 39
       0.09128252 0.005892416 -0.06759119 0.00015443601
000360 af 33 38 3c 92 86 ff 3a 28 5f 5f 3d 21 80 86 bd
       0.011242791 0.0019495061 0.054534107 -0.065674074
000370 47 b1 8d bd c6 93 91 3b 82 ea 00 bd 55 0c 76 bc
       -0.069185786 0.004442665 -0.031473644 -0.015017589
000380 ce 12 41 3c a7 c0 5a bd b2 07 d5 bd e1 1d 58 bd
       0.011784269 -0.053406384 -0.104018584 -0.05276287
000390 cd 3b 8a bd d3 7a c8 bb b6 46 2b bd e9 4e 55 bc
       -0.06749687 -0.0061181574 -0.041815482 -0.013019302
0003a0 0d ed 2d bd af cc 5d bc 3b d8 ea bc 29 f5 80 bd
       -0.042462397 -0.01353757 -0.02866756 -0.062967606
0003b0 57 de 69 3d 59 ee 9a 3c f6 6a 99 3c b5 f9 1e bd
       0.057096805 0.018912481 0.01872776 -0.038812358
0003c0 1c 8e 2a 3d b8 20 02 bc 20 75 db 3c 50 ae b0 3c
       0.041639432 -0.007942371 0.026789248 0.021567494
0003d0 d5 67 f0 3b 46 ea 73 3c 63 cd 07 bd 42 e5 d0 bc
       0.0073365965 0.014887398 -0.033154856 -0.025499944
0003e0 2e 4a ce 3d 62 f8 88 bd dc a5 99 3c 0c 15 16 3d
       0.100727424 -0.06688 0.018755846 0.036641166
0003f0 49 a8 ed 3c a0 eb 40 bd 62 b3 5a 3d a2 f8 4c 3d
       0.029010909 -0.04709971 0.05339373 0.050041802

longBranch.0.bias f4 [64]
000000 4d ce 37 b7 71 36 b8 b7 8f 88 33 36 37 2c 2b b7
       -1.0955683e-05 -2.195986e-05 2.6752566e-06 -1.0202689e-05
000010 8a 4b 0a 38 6f 98 0d b7 87 2e ab 34 a7 5c bf b7
       3.2972115e-05 -8.439746e-06 3.1885085e-07 -2.2812119e-05
000020 12 6f 51 b6 f3 bd 0d 38 81 bc be b7 43 b8 4d 37
       -3.1208078e-06 3.3793924e-05 -2.2737544e-05 1.2261854e-05
000030 0e f9 17 b8 60 bc f0 36 cc 51 7f b8 31 ac d0 b7
       -3.6233156e-05 7.174487e-06 -6.0872917e-05 -2.4875715e-05
000040 1e d0 a1 b6 53 34 f0 37 c2 08 69 b7 5b fe 7c b7
       -4.822402e-06 2.8634595e-05 -1.3889921e-05 -1.5079592e-05
000050 5a 97 1e b7 aa ff 82 36 7a 24 0b 38 50 0c db 35
       -9.452773e-06 3.904065e-06 3.3174154e-05 1.6320355e-06
000060 2c eb 8c b7 51 2d 96 b6 23 8e 08 b7 ca 1d 70 37
       -1.6798811e-05 -4.475624e-06 -8.1393255e-06 1.4312051e-05
000070 17 82 b7 36 96 2b 13 37 53 c4 c6 37 3e 31 dc b6
       5.4689694e-06 8.772031e-06 2.369486e-05 -6.5622435e-06
000080 d5 ac 9c b7 63 ff 3a 38 bd f6 1e b7 34 c8 2b 37
       -1.867713e-05 4.4583703e-05 -9.474982e-06 1.0239008e-05
000090 56 22 ca 37 4d 65 48 b7 2f ed 8c b5 23 70 b3 37
       2.4096265e-05 -1.1944515e-05 -1.0499842e-06 2.139068e-05
0000a0 42 01 6e b7 1f 2a 08 38 2b ba fb b7 76 5e bb 37
       -1.4186198e-05 3.2464155e-05 -3.0008223e-05 2.2336124e-05
0000b0 df 6a c0 37 66 5e 68 b6 26 d8 d1 b7 62 65 29 b7
       2.293795e-05 -3.462564e-06 -2.5015393e-05 -1.009679e-05
0000c0 d6 07 d0 b6 6a a3 8d b6 26 e8 26 b8 49 d9 1f b8
       -6.1997953e-06 -4.2211514e-06 -3.979369e-05 -3.8110917e-05
0000d0 9b be a2 b7 4f d4 4d 34 bb 95 a6 b7 90 d8 75 b7
       -1.9400662e-05 1.916935e-07 -1.9858466e-05 -1.465356e-05
0000e0 55 74 93 37 30 5c c1 37 60 ca 58 b5 7b 39 9f 37
       1.7577937e-05 2.3050321e-05 -8.0760765e-07 1.8981043e-05
0000f0 ac b3 98 b6 cd c4 89 b6 48 fa 22 37 fc cc e6 36
       -4.5508696e-06 -4.105829e-06 9.714226e-06 6.8783975e-06
