Models/intialized_eeV2_0424_after.pth (torch, 770539 bytes, 48 tensors)

baseModel.0.weight f4 [64, 2, 3]
00000000: 50d6 d33d d6a8 b3be d23c c5be 551f ab3e
00000010: 721f cabe bd88 a9be e00e b83d 0651 8e3d
00000020: 0e22 a4be 7d52 243c 7e64 7ebe 8928 d1bd
00000030: 6df8 a4be c098 99be 7a44 ad3e 783c b63e
00000040: 4132 81bd 8a60 3e3e e4e3 5d3d 9ad8 87be
00000050: 6399 783e 9807 dcbc 02b4 6a3c 84a1 a3be
00000060: dcbb a13e a25c 9c3e a549 813e 486e 27be
00000070: e15c 003c 748f 523e 197f 8cbc f6c5 8a3e
00000080: 4c62 acbe 6d17 513e f38c 6ebe e3c8 5a3e
00000090: 7d05 9e3e 65c8 1ebe 8fc0 383d fdc3 0e3d
000000a0: 5eb1 91be dde6 fb3d 7fb5 bfbe e9d1 abbe
000000b0: bb23 5a3e e895 9abe 6dca 053e 3d5a 98bd
000000c0: 08d8 8f3e ff04 46be 47cc 913e 50e9 b9be
000000d0: 0054 d8bc 9d77 c83e 31da 6ebe 6195 833e
000000e0: 417a 75be 0236 4f3e b04e aebe 2822 a23e
000000f0: 84ee a13d 545a 96be c698 c43c f025 c23e
00000100: 069b ccbe 7303 bcbe b863 bcbe 80c3 123e
00000110: c281 71be 4f3f c2be 3d1e 6dbe 45b3 08be
00000120: b4c7 133d 81e3 383c 1f97 91be 59ec bebe
00000130: 7bf1 e13d 9ec5 c43e 282c 443e c0c4 823d
00000140: 4842 a1be 5bf0 96be 3b0b 8b3e d06e 603e
00000150: 5149 b7be ef97 31be dc95 54be 7c35 76be
00000160: 4aeb 643e 752e a43e fff2 10be 9cf6 9d3e
00000170: 12f4 71bc 3e1f 3e3e 9fca 19be 423b a03e
00000180: fd6e 5ebd 15af 1b3e 1340 fc3d 083a d23e
00000190: c9f7 883e 8437 673b 9d54 9fbe 9c49 acbe
000001a0: a33d e9bd b16b 91be 89e3 15be 1a07 ca3e
000001b0: d4c9 ffbd 5145 85be 0ae7 0f3e 9d4e 673e
000001c0: 7ff6 833e 41a4 cf3e 5a3e 903d 972b 8d3e
000001d0: 7f90 babd a696 ae3e 5ef4 5cbe 4856 7f3e
000001e0: 17ca 9d3e 2697 32bc 90b7 f9bd 2067 0c3e
000001f0: 2179 e0bd 976e 8f3c bb54 783e 22eb 31be
00000200: 40c3 52bd f670 c83e 0786 f5bd 2e03 84be
00000210: 5394 8fbe 218f 3fbe 4862 c3be 18c6 d83d
00000220: ece4 823e 259d 94bd 309c ce3e c3c1 cf3e
00000230: 485d c2be a12f 843d 533f 5ebd 9a2c 6fbc
00000240: 4a34 81be fe44 f33d 29a7 96be 310e 1e3d
00000250: a517 233e 1c26 31be 41e3 233e 5a4a 783e
00000260: 0e1b b2bd 0479 383e f4f6 92bd 4711 293e
00000270: 875b 1d3e 13d5 fb3c 4e9c 4a3e 5554 a6bc
00000280: a22c 9fbe fc6d 6dbe be21 7c3d 692e 2dbe
00000290: d976 3c3d 469f 033e 8fdd 623b b841 b53e
000002a0: 13f8 9a3e 1971 f63d aa9d b5be 9aa4 8a3e
000002b0: 4f58 b4be 9ed1 8a3e 694a 29be 796a b43d
000002c0: 0257 fa3d 045e eabd 258e 473e e6ab aabd
000002d0: dd61 9cbe 2c75 0cbe 586f 0abe 1bb7 ac3d
000002e0: 1b87 26bd 746b 103e 9cc9 57bd 7949 983e
000002f0: 50fb 9c3e 4e13 403e 3896 9abe 849c d0be
00000300: 6f58 a6be 5087 3f3e a7d7 6d3e 3da6 bd3e
00000310: f9cb 513e 1b7a adbe d404 903e a9a9 94bd
00000320: 5e41 b2bd a43e d8bd fecc 94be 5f8f 20be
00000330: dcbb 5bbe 9185 c0be 354b aebe 7392 483d
00000340: 6ab5 f5bd 5996 2b3d bb40 b7be cecf d03d
00000350: d6b6 d13e 4b24 45be 4aff f63c 9db2 803e
00000360: 5e5c be3d 3a42 66bd 8754 8abe 8606 313d
00000370: 76c1 6abe 9e16 76be ce34 f13c 61f7 313d
00000380: 8b58 77be 1fa4 f7bd be76 513e e7a6 acbe
00000390: d1c1 cd3e bfe1 8dbe 09e0 26bd eddf 983e
000003a0: ed63 bd3e 06b1 793e 2bdf d13d 09e2 a5be
000003b0: f153 373e 5dc2 98be c16f cebd b46f 453e
000003c0: 0cd5 0b3d abf5 873e ffe0 bfbe 8fd8 b83d
000003d0: 98af a4be e607 35bc 54ce 103e 0923 ad3e
000003e0: f892 743e 3441 a93e 22ea 84bd 6bb9 7b3c
000003f0: ea66 053d 5400 37be cfd6 aabe 8a69 083b
0.10343611 -0.3508975 -0.38522965 0.33422342 -0.39477116 -0.33112136 0.08987212 0.06949048
-0.32057232 0.010029432 -0.24843022 -0.102128096 -0.32220784 -0.29999352 0.33841306 0.3559301
-0.06308413 0.18591514 0.05417241 -0.2653244 0.24277262 -0.02685909 0.014325144 -0.31959164
0.31588638 0.30539423 0.252515 -0.16350663 0.007834644 0.20562536 -0.017150449 0.27104157
-0.33668745 0.20419092 -0.23295955 0.21365695 0.30863562 -0.15506132 0.045105513 0.034854878
-0.28455633 0.12299893 -0.37443158 -0.33558586 0.21302693 -0.30192494 0.130655 -0.074390866
0.28094506 -0.19337843 0.28476164 -0.36310816 -0.026407242 0.39153758 -0.23325421 0.25699905
-0.23972417 0.20235446 -0.3404441 0.31666684 0.07906821 -0.2936579 0.02399863 0.3791957
-0.39962023 -0.36721382 -0.3679483 0.1433239 -0.23584655 -0.37938926 -0.23156066 -0.13349636
0.036079124 0.01128471 -0.2843561 -0.37289694 0.11032387 0.3843202 0.1915747 0.06385183
-0.3149588 -0.29480252 0.27157006 0.21917272 -0.35798123 -0.17343114 -0.20760292 -0.2404384
0.2235538 0.32066694 -0.14155196 0.3085221 -0.014767664 0.18566605 -0.150187 0.3129521
-0.054305065 0.15203507 0.12316909 0.410599 0.26751545 0.0035280893 -0.31119242 -0.3364991
-0.113887094 -0.28402475 -0.14637579 0.39458543 -0.124896675 -0.26029447 0.14052978 0.22588582
0.25774 0.40555003 0.070431426 0.2757232 -0.09109592 0.3409931 -0.21577594 0.24935257
0.30818245 -0.010900294 -0.12193215 0.13711214 -0.109606035 0.017508788 0.24251072 -0.17374852
-0.051455736 0.39148682 -0.11988454 -0.25783676 -0.2804285 -0.18706943 -0.3816092 0.105846584
0.2556528 -0.072565354 0.40353537 0.40577516 -0.37961793 0.06454397 -0.05425961 -0.014598036
-0.25235206 0.118783936 -0.29424408 0.038587753 0.15926988 -0.17299694 0.16004659 0.24247113
-0.086965665 0.18014914 -0.07176009 0.16510497 0.15366946 0.03074125 0.19786188 -0.020303885
-0.3108874 -0.23186487 0.061555617 -0.16912235 0.04601178 0.12853727 0.0034616922 0.35401702
0.3026739 0.120332904 -0.3547185 0.27078706 -0.35223624 0.2711305 -0.16532291 0.088093705
0.12223627 -0.11443713 0.19487818 -0.08333568 -0.30543414 -0.13716573 -0.13519037 0.08433362
-0.04065619 0.1410349 -0.052682504 0.29743555 0.30660486 0.18757364 -0.30192733 -0.40744412
-0.32489344 0.18703961 0.23226796 0.37040892 0.20487966 -0.33882222 0.28128684 -0.072589226
-0.08703874 -0.10558823 -0.29062647 -0.15679692 -0.21458381 -0.37601903 -0.34041753 0.04896779
-0.119974926 0.04189143 -0.35791573 0.101958856 0.40959805 -0.19252126 0.030151028 0.2513627
0.092949614 -0.056215502 -0.27017614 0.04321911 -0.22925362 -0.24032065 0.029444125 0.04344881
-0.2415487 -0.120918505 0.20455453 -0.33721086 0.40186933 -0.27711293 -0.040741 0.29858342
0.369903 0.24383935 0.10247644 -0.32399014 0.17903115 -0.29835787 -0.10079909 0.19280893
0.034138724 0.26554617 -0.37476346 0.0902568 -0.32165217 -0.011049246 0.14141208 0.33815792
0.23884189 0.3305756 -0.0648997 0.015364031 0.03256885 -0.17871219 -0.3336701 0.002081486

baseModel.0.bias f4 [64]
00000000: 0b99 d73d 5011 6c3d ad80 60bd 5ca6 4039
00000010: 9e12 9cbc ed1a 843e 7da8 c73d 48b3 b2bd
00000020: 8ad6 373e 14dc 0abe 1ee3 063c f202 1bbe
00000030: 609b 123e 48a2 93be b150 bfbd 26ee a83e
00000040: 0109 8ebe 8a83 8ebe 29bd a23d 3cfd 19be
00000050: fdb6 80be 2439 1e3d aa1e 213e 42df 913e
00000060: e948 65bd e1cb 81be a624 8b3e fb48 5dbe
00000070: 46b5 a53a 7b64 273d e44c 683c a747 0dbd
00000080: f6d7 9a3e a687 0f3e cefb 813e 901f dfb7
00000090: 2cb9 b13d 862a 913e d3d4 8e3e 71c5 133e
000000a0: a9b8 143e c225 a73e 1185 513e b46a 3dbe
000000b0: 772a 293d 4c8c 223d c2da b0bd 6428 fcbd
000000c0: 3bd2 29bd 9cd6 683e e791 d7bd b4fd b3bb
000000d0: f4cd 933e d914 54bd dea4 763d d918 9bbb
000000e0: db7d 4b3e f554 aabe 76f2 af3d 0028 c3bc
000000f0: e54e 993e f5f9 9ebe e764 9c3c 87d5 abb9
0.105272375 0.057633698 -0.054810215 0.0001837252 -0.019051846 0.25801793 0.097489335 -0.087256014
0.17952934 -0.13560516 0.00823286 -0.15137842 0.14317083 -0.28834748 -0.093415625 0.32994193
-0.27741244 -0.2783473 0.07946236 -0.15038007 -0.2513961 0.038628712 0.15734354 0.28490645
-0.055977736 -0.2535086 0.27176398 -0.21609871 0.0012642525 0.04086731 0.014178488 -0.03449216
0.3024289 0.1401659 0.25387424 -2.6598369e-05 0.08677897 0.28352755 0.27896747 0.14430787
0.14523567 0.32645994 0.20460917 -0.18497735 0.041300263 0.03968458 -0.08635475 -0.123123914
-0.041460257 0.22738117 -0.105258755 -0.0054928903 0.28868067 -0.051777694 0.060215823 -0.0047331867
0.19872229 -0.33267942 0.08591168 -0.023822784 0.29943004 -0.31050077 0.019091083 -0.00032774752

baseModel.1.weight f4 [64]
00000000: 89cb 7e3f 461d 7f3f 30f4 793f 8215 7d3f
00000010: 73a9 813f 1bb7 793f 356f 7d3f 6464 7b3f
00000020: 0610 783f f1da 793f 017c 7e3f 38f5 7f3f
00000030: 001f 7e3f 281b 7b3f 8709 7c3f c91c 7b3f
00000040: 4e3d 803f 4bfa 7c3f 000e 813f e127 7d3f
00000050: efbf 7b3f 3326 7b3f 1cec 7f3f aee9 7d3f
00000060: e319 7d3f b1ee 7b3f d8a0 823f 3ed9 7e3f
00000070: 58f3 793f bc42 7b3f d858 803f 18c3 803f
00000080: e7ca 7b3f 7aa7 7d3f d8ea 803f b16f 7e3f
00000090: 57b2 7c3f 866f 783f 3a8e 7d3f 1a38 773f
000000a0: 70cb 793f 7d12 7d3f a8e6 7e3f 68de 7a3f
000000b0: 59fe 7b3f 1a48 7e3f 583f 7b3f fce8 7d3f
000000c0: a46d 7d3f de65 7c3f f158 7c3f a68a 803f
000000d0: c9b1 7d3f 440e 7d3f 8f46 7b3f 5892 7d3f
000000e0: 8acc 7e3f 8abc 793f c01c 7a3f 5251 7a3f
000000f0: 32cb 7b3f 81e5 7c3f 0f45 7c3f 476a 823f
0.9952932 0.9965404 0.97638226 0.98860943 1.0129837 0.9754502 0.98997813 0.9820006
0.9689945 0.97599703 0.99407965 0.9998355 0.9926605 0.9808831 0.9845204 0.980908
1.0018709 0.98819417 1.0082397 0.98888975 0.9833974 0.9810516 0.9996965 0.9918469
0.98867625 0.9841109 1.0205336 0.99550235 0.9763694 0.98148704 1.0027113 1.0059538
0.9835648 0.99083674 1.0071669 0.9938918 0.98709625 0.9704517 0.99045146 0.9656998
0.97576046 0.98856336 0.99570704 0.97995615 0.9843498 0.9932877 0.9814353 0.9918363
0.98995423 0.98592937 0.98573214 1.0042312 0.99099404 0.9884989 0.9815454 0.9905143
0.9953085 0.9755331 0.9770012 0.97780335 0.98356926 0.98787695 0.98542875 1.0188683

baseModel.1.bias f4 [64]
00000000: d94d 2abc 9aca 283c b718 a3bc 21d5 d43b
00000010: 4370 1b3c 1533 03bc 311b 093b b013 96bc
00000020: 1c6d d1bc ee5f e8bb d550 86bc d16b 933b
00000030: ccdc 3a3c 308e c1bb c6f3 243c 1794 1b3c
00000040: cb0c 973b f647 483c 417c 21bc ffee fc3a
00000050: af1a 18bc aa09 febb 0dbf b0bb a6b0 4dbc
00000060: 07cf 89bb a965 1abc df2b 95bb bfc9 6fbc
00000070: 62e1 3dbc 1b7a 283c d225 d239 60e3 a53b
00000080: a033 00bb ca8a 52bc 5f9a 5d3b d2e4 85bc
00000090: a019 11bc ff21 77bc 080e 823b 3baf 83bc
000000a0: e15d 733b 95be 29bc 2a21 85ba 2a47 3fbc
000000b0: ce20 74bb 0bc0 2c3c 7450 41bc 8467 7fbb
000000c0: 6c5c 063c 00e4 28bc 0a12 133c 7948 ac3a
000000d0: ceb8 513c 0b62 293c d93a 613a d285 463a
000000e0: f722 74bb e412 0fbc be66 94bc f2db 11bc
000000f0: 5cbe 773c 6208 04ba 5ec8 43bb 5469 24bc
-0.010394537 0.01030221 -0.019909246 0.0064951335 0.0094872145 -0.008007784 0.0020920748 -0.018319935
-0.025564723 -0.007091514 -0.016395966 0.0044989367 0.011405181 -0.0059068426 0.010067886 0.009495757
0.0046096793 0.012224188 -0.009856285 0.0019297301 -0.009283706 -0.007752617 -0.005393869 -0.012554323
-0.004205588 -0.009423652 -0.004552349 -0.014635502 -0.01158938 0.010283018 0.000400825 0.0050625056
-0.001956202 -0.012850473 0.0033813936 -0.016344462 -0.008856207 -0.015083789 0.003968958 -0.016074767
0.0037134814 -0.01036038 -0.0010156978 -0.011674682 -0.0037250998 0.0105438335 -0.011798967 -0.0038971612
0.008200746 -0.010308266 0.008976469 0.0013144157 0.0128004085 0.010338317 0.0008591838 0.00075730414
-0.0037252286 -0.008732531 -0.018115398 -0.008902537 0.015121069 -0.00050366495 -0.0029874067 -0.010034878

baseModel.1.running_mean f4 [64]
00000000: e838 d93d a6e7 6e3d 8a61 63bd af12 dd38
00000010: 6ce2 9fbc e990 843e 5549 c93d b64b b4bd
00000020: 16bc 383e adb8 0bbe 8280 0c3c 09e4 1bbe
00000030: 0d78 133e 4f19 94be 20f3 c0bd 8167 a93e
00000040: a57e 8ebe 0cfd 8ebe 884a a43d c0db 1abe
00000050: 532d 81be bbd6 203d 89fa 213e 2659 923e
00000060: 6c1f 68bd c941 82be 129b 8b3e 6331 5ebe
00000070: 6d29 b33a 7c02 2a3d 8411 6f3c 66b7 0fbd
00000080: fa4f 9b3e 6162 103e 6270 823e 83ca 9338
00000090: 7e49 b33d daa0 913e 954d 8f3e f9a0 143e
000000a0: c196 153e eda0 a73e 1e6a 523e c450 3ebe
000000b0: c1c9 2b3d 4427 253d cc6a b2bd f0d8 fdbd
000000c0: bb68 2cbd f2bd 693e 0e34 d9bd 22f8 bcbb
000000d0: 6244 943e 5ed5 56bd 159b 793d 6adc a2bb
000000e0: 7e62 4c3e 20ce aabe 9382 b13d 467c c7bc
000000f0: 43c5 993e 0273 9fbe e62f a03c 51f0 b3b9
0.10606557 0.058326386 -0.055512942 0.00010541581 -0.019517146 0.25891808 0.0982844 -0.08803503
0.18040499 -0.13644667 0.0085755605 -0.15223707 0.14401264 -0.2892556 -0.094213724 0.3308678
-0.27830997 -0.27927434 0.08022028 -0.1512289 -0.25229892 0.039267283 0.15818228 0.2858364
-0.05667059 -0.25440815 0.27266747 -0.21698527 0.0013668962 0.041506276 0.014591578 -0.03508701
0.30334455 0.14100029 0.25476366 7.047227e-05 0.08754252 0.28443033 0.27988878 0.14514531
0.1460829 0.32739964 0.20548293 -0.18585497 0.041940454 0.04032065 -0.08711776 -0.12394893
-0.042092066 0.22826365 -0.10605632 -0.0057668844 0.28958422 -0.052449577 0.060938913 -0.004970123
0.19959447 -0.33360386 0.08667483 -0.02435125 0.3003331 -0.31142431 0.01955409 -0.0003432059

baseModel.1.running_var f4 [64]
00000000: 3c51 e037 6520 ec36 8b07 8937 ed30 d936
00000010: 2537 9637 f279 e636 f30d b436 1818 8037
00000020: 1a3c 7237 b8e6 0837 2d34 9737 6572 9637
00000030: 4351 5e37 7c34 4037 34da 9e37 c53a e636
00000040: 8a7c 6d37 1cfd b237 0546 a537 f0ee 0b37
00000050: afb0 9636 1c34 2737 686e 9337 7771 9037
00000060: f58e cf36 4bfd c236 0f6c 3837 0cb5 d736
00000070: 9d9e 5537 e584 3636 b23f 0437 80b4 b537
00000080: 62fc 8b37 64b3 2337 fb6d 9c37 a7ac 6d37
00000090: 70a2 1337 b1e5 c236 edf8 c237 b2c1 0537
000000a0: f835 1037 e50e 7b37 2e3c 2a37 6cf3 7637
000000b0: 4643 2737 7c62 1437 6c17 8937 121f 4037
000000c0: 909c bd37 cbb5 0b37 92a4 8a37 0466 1837
000000d0: a398 8037 2d6a a137 88b6 9837 2d4a 7437
000000e0: fd3d bd37 9e61 1a37 f038 5037 b8fe 2037
000000f0: 95e9 1e37 3a60 8037 62fb 2537 70c4 1537
2.6740709e-05 7.0371193e-06 1.6335185e-05 6.4727997e-06 1.7907072e-05 6.8687305e-06 5.366042e-06 1.5270009e-05
1.44383175e-05 8.15995e-06 1.8024899e-05 1.7934663e-05 1.3251151e-05 1.1456312e-05 1.8936676e-05 6.861376e-06
1.4155297e-05 2.1337117e-05 1.9702138e-05 8.340678e-06 4.490917e-06 9.966108e-06 1.7575177e-05 1.7218974e-05
6.185723e-06 5.8111377e-06 1.0992414e-05 6.428576e-06 1.2732719e-05 2.7197468e-06 7.882643e-06 2.1660933e-05
1.6687616e-05 9.757325e-06 1.8647863e-05 1.41665e-05 8.799703e-06 5.80839e-06 2.3242517e-05 7.972516e-06
8.595634e-06 1.4964234e-05 1.0146801e-05 1.4719419e-05 9.969639e-06 8.844418e-06 1.634258e-05 1.1451326e-05
2.260346e-05 8.327373e-06 1.6527516e-05 9.083658e-06 1.5329866e-05 1.9242138e-05 1.820481e-05 1.4560804e-05
2.2559421e-05 9.201844e-06 1.2411023e-05 9.5960495e-06 9.471919e-06 1.5303598e-05 9.893296e-06 8.926829e-06

baseModel.4.weight f4 [64, 64, 3]
00000000: daff 22bc 6ed7 023d 1a2c fc3b a7f1 913b
00000010: 2147 6c3c f8cc bd3c b98c 60bd a12b 4b3d
00000020: 5fc3 353d 1c56 90bd db61 3ebd db2d 71bc
00000030: cf7e f73b fbce 8fbd 6f44 4a3d fd7e 39bc
00000040: 0b0d 04bc 24fa 1bb9 f2ac 5ebd 6a8f 293d
00000050: 465a 35bc 7060 4f3d 46df 1c3d 5114 6abd
00000060: 75c8 663d 8b8a dcbc 7198 043d 2391 423d
00000070: a596 d6bb 2678 2a3d 25b7 b13c 49d4 723d
00000080: 02b0 ab3b ed5a 57bd fd14 fdbc b7c3 cfb7
00000090: aef7 3dbc 526a 1a3c c2ff 023d a641 20bd
000000a0: 45a7 013d ca43 7cbd 1d7c 403d a1e2 27bd
000000b0: 2f0a 3dbd d3d9 773c 2137 eabc 36aa f73c
000000c0: a285 2cbd 0a58 58bd afb9 6abd 330a 9c3c
000000d0: 7154 cf3b a931 393d 85da 4cbd 6d1c abbd
000000e0: 475d 3abd 4960 823d 2c72 4a3d 252d 373d
000000f0: c993 c43c 2457 923d 99b6 72bb c0aa 41bc
00000100: f319 be3c ff2c 4e3d 6d95 b5bd 8500 0ebd
00000110: 8b04 87bc d15e 2ebd 8d4a 3c3d 0ef3 3ebd
00000120: bd8a 883d 2967 6ebb e676 05bb 6039 82bd
00000130: e806 b1ba 4bd5 913d 7a88 67bd f686 4dbd
00000140: 9666 2b3c 2bbd 01bd d3a1 9dbd 21c1 be3c
00000150: 668f 673d 4cf7 fcbc 5484 03bd c1eb 7dbd
00000160: b892 18bd d0f3 47bd e677 37bd 2eb8 8fbc
00000170: b29e 19bd a047 2ebc a753 e2bb 2d1e 39bd
00000180: 4d12 943d 7224 bd3c 1ae1 40bd bf1c e73c
00000190: 83e4 08bd e780 fa3c fa50 a0bd ecea aebd
000001a0: f201 fc3c f057 a8bc 7730 013d 1c09 573d
000001b0: 54a2 4b3d 440c 153d 2d4c 943d ca8e 87bd
000001c0: cbcf ef3c 4265 27bd eb98 25bc 2065 043c
000001d0: 1864 933b da74 a0bd 74e4 1b3d afe1 48bd
000001e0: 06fa 4e3d d311 2ebd dac3 593d 83db ec3c
000001f0: 3aa6 553d 490f e5b9 f2ff 9b3c 5be3 f43c
00000200: 1782 a13b 1b68 743d acd0 6c3d 8ee2 273d
00000210: f029 88bc 93e4 dfbc 5b52 72bc 02fd 5cbd
00000220: b619 533d 14d3 123d a56d e1bc 3f37 14bc
00000230: 268c 523d 675d 0e3d f1e3 40bc 9571 89bd
00000240: dc1b 33bd 9e2e b63c 80aa a5bc cf6f 53bd
00000250: 14fa 663b f96c 5c3d 2a92 99bc 8a50 01bd
00000260: c1ef 65bd 1266 653d 3aa9 3a3d 061b fcbc
00000270: 502c 52ba 51c3 433d 0703 503d d32d a53c
00000280: 97fb b6bb c276 8f3d ab78 ffbc 7a5b e13c
00000290: 0014 933a 9264 e7bc 261f 6cbd 9356 e8bc
000002a0: 0d2a c83c d36a 68bd 75ff d2ba 8b00 5bbd
000002b0: ab75 b43c fa0b c63c 1173 793d f7bc f53c
000002c0: d411 3dbc ee5c 003c 3252 b6bc ef8e 6fbd
000002d0: 92d2 9bbd 7ac0 7a3b 2451 02bd c03c abbc
000002e0: 0bdd d63c 80b3 803d d0c8 5b3c 21ec 92bc
000002f0: 898e abbc 6286 773d f8a8 18bd 6c9e 253d
00000300: e66b 343d c8a1 f3bb 99b9 cd3c 11d6 3abd
00000310: ced9 f23c 7002 cebc 8643 d43c b4e1 34bd
00000320: 0554 8e3c 402a bcbc 69ef d23c 90c1 473d
00000330: e39c 303c 2661 06bd 3131 d1bc d8a7 753d
00000340: c13d 653c cc99 1fbd 11a7 273d 76a5 36bd
00000350: 96ac 2bbd 3a22 353d 8efb 83bd f38a 46bd
00000360: ba49 58bd 596d f33c ca31 16bd 388e ef3b
00000370: 2553 33bd 647e 01bd d56a 263c 0227 733d
00000380: 1496 933d c6ac 19bc 667a 543d b4be 22bd
00000390: 4bd6 1e3d 3464 433d c8c8 843c b002 16bc
000003a0: 65f4 c33c 759c b0bc 23f8 683b c213 36bd
000003b0: c57b f73c a4f4 23bd b222 633d b0c8 0abd
000003c0: 4f30 2bbd fa53 723d 82ec c23c 35d2 81bd
000003d0: 319d ec3c 35c6 273c 2351 3d3d 6690 4e3c
000003e0: 72d2 c7bc 542a b1bc c5c4 95bd 2f5c 1bbd
000003f0: bada cf3c 2a5d 0ebd f07c 4b3d 8e9f 7e3d
-0.009948695 0.03194373 0.007695687 0.004453856 0.014421255 0.023169026 -0.054821704 0.049602155
0.044375774 -0.07047674 -0.04648004 -0.014720405 0.0075529586 -0.070219 0.04938167 -0.01132178
-0.00805975 -0.00014875137 -0.054364152 0.041396536 -0.011068886 0.05062908 0.038298868 -0.05714828
0.056343514 -0.026921531 0.032371942 0.047501694 -0.00654872 0.04161849 0.021693775 0.059284482
0.0052394876 -0.052576948 -0.030893797 -2.476746e-05 -0.011594696 0.009424763 0.03198219 -0.039125107
0.03165366 -0.061588086 0.046993364 -0.040987615 -0.04615229 0.015127617 -0.02859074 0.03023253
-0.04211963 -0.052818336 -0.057305988 0.019047832 0.006327205 0.045213375 -0.050013084 -0.08355031
-0.045499112 0.06366021 0.04942529 0.044720788 0.02399625 0.07145527 -0.0037035106 -0.011820495
0.023205733 0.05033588 -0.08866391 -0.034668464 -0.016481658 -0.042570893 0.045969535 -0.046618514
0.06667087 -0.0036377406 -0.0020365058 -0.063586 -0.0013506087 0.071207605 -0.05652664 -0.050177537
0.01046147 -0.031674545 -0.07696881 0.02328545 0.05653324 -0.03087964 -0.03210862 -0.06199241
-0.037249297 -0.048816502 -0.04479208 -0.017543878 -0.03750486 -0.010637194 -0.006906945 -0.045194793
0.07230053 0.023088668 -0.047089674 0.02821195 -0.03342105 0.030579044 -0.07827945 -0.085409015
0.030762646 -0.020549744 0.03154036 0.05249892 0.049715355 0.03638865 0.07241092 -0.06619032
0.029273888 -0.04086805 -0.010107259 0.008080751 0.004498016 -0.07834788 0.038059667 -0.049043354
0.05053141 -0.042497467 0.053165294 0.028913265 0.05216048 -0.00043689672 0.019042943 0.029893568
0.004928838 0.059669595 0.057816193 0.040987544 -0.01662156 -0.027330672 -0.014790143 -0.053952225
0.05153819 0.03584583 -0.027518103 -0.009046375 0.051403187 0.034757044 -0.0117730955 -0.06711117
-0.04372774 0.022239026 -0.020222902 -0.0516203 0.0035244273 0.053814862 -0.018746454 -0.03157095
-0.05613685 0.056005545 0.045571543 -0.030774605 -0.00080174673 0.04779369 0.050784137 0.020163452
-0.005584191 0.07005073 -0.031185469 0.02750944 0.001122117 -0.028246198 -0.057646893 -0.028361594
0.024434114 -0.0567425 -0.0016097861 -0.053467315 0.022028765 0.024175633 0.06090075 0.029997332
-0.011539895 0.007834656 -0.02225599 -0.05848592 -0.076085225 0.0038261698 -0.031815663 -0.020902991
0.026228448 0.06284237 0.013414577 -0.01793486 -0.02094199 0.06043089 -0.037270516 0.040434286
0.044048212 -0.0074350573 0.025112914 -0.045614306 0.029644873 -0.025147647 0.025911104 -0.04416056
0.017374048 -0.022969365 0.025748925 0.04876858 0.010779592 -0.03280749 -0.025536152 0.05997452
0.013991774 -0.03896503 0.04093081 -0.04459139 -0.041912638 0.044222094 -0.064444646 -0.048472356
-0.052804686 0.029715227 -0.036668576 0.007310655 -0.043780465 -0.031614676 0.010157307 0.059363373
0.072063595 -0.009379571 0.05187454 -0.03973265 0.038778584 0.047702983 0.016209021 -0.009155914
0.023920247 -0.02155898 0.0035548292 -0.044452436 0.030210385 -0.04002823 0.05545301 -0.033882797
-0.041794118 0.059162118 0.023794416 -0.06338922 0.028883548 0.010240127 0.046219956 0.012607669
-0.02439234 -0.021626629 -0.073129214 -0.03792971 0.025372852 -0.034756817 0.049679697 0.062163882

baseModel.4.bias f4 [64]
00000000: 4a8a 2536 b6c6 c5b5 1096 a3bc c50a 3cbc
00000010: 88e9 5db4 d942 f6ba 6fc2 57bb 1986 78bc
00000020: bf02 07bc 67c6 da34 2d4b ec39 0cb9 38b5
00000030: 4b12 a2b5 8b84 64bc b7ea 473c 9d90 b2b6
00000040: f4d4 1ebb 76fc 7c3c 547d 3f3c 3692 49bc
00000050: c62d 803a dde7 0fb8 0301 073c 89b4 8f3a
00000060: 8cfb 643c 3280 74bc 96bf d13a e028 903b
00000070: 7ef7 2cb6 c41c 433b f952 6a3a b9a0 4536
00000080: 1ef8 c9ba f377 9436 b90f 8c39 df11 9ebc
00000090: 8577 afb8 8a1f 0fbc c565 2ebb f5b7 3336
000000a0: 6a1d a5bc 9975 2cbc d7c3 953c 3c4a a334
000000b0: 6cfd 2335 a465 4c3a f6ba 58bc 797c 893c
000000c0: 4bb9 2f3c c1e2 43bc cba3 ddb9 ede5 79b9
000000d0: c1d0 35bc de1a b73a d96b 6eb9 9eeb 5936
000000e0: 7a60 89b8 eea1 5bb5 21a6 20bc c637 e439
000000f0: dcf8 393a 72e6 2736 6425 0636 799a 963a
2.466741e-06 -1.4735476e-06 -0.019969016 -0.011477177 -2.0667187e-07 -0.0018788233 -0.0032922288 -0.01516869
-0.008240401 4.075002e-07 0.00045069438 -6.881462e-07 -1.2075265e-06 -0.013947616 0.0122019565 -5.3216486e-06
-0.0024235817 0.015441051 0.011687595 -0.012302926 0.0009779267 -3.4309796e-05 0.008239987 0.0010963838
0.013975989 -0.014923142 0.0016002532 0.004399404 -2.5774057e-06 0.0029771784 0.00089387555 2.944884e-06
-0.0015409028 4.4247076e-06 0.00026714595 -0.019295631 -8.3669125e-05 -0.008735547 -0.0026610952 2.6780156e-06
-0.020155627 -0.010526084 0.01828186 3.0415129e-07 6.109101e-07 0.0007797128 -0.013228169 0.016782986
0.01072533 -0.011955918 -0.0004227444 -0.00023832145 -0.011097134 0.0013969799 -0.00022737625 3.2472667e-06
-6.550639e-05 -8.1819496e-07 -0.009805233 0.00043529103 0.0007094273 2.5019076e-06 1.998932e-06 0.0011490128

baseModel.5.weight f4 [64]
00000000: abc6 7d3f 523e 7c3f 88c9 7c3f 6ab9 813f
00000010: 3812 7b3f 17a0 7a3f 7268 7a3f 1021 7a3f
00000020: 7319 803f 4c04 803f b049 763f 2428 803f
00000030: a6b8 7a3f 287b 7c3f d2bf 773f f980 793f
00000040: d186 7e3f d0fa 7b3f 53a5 7b3f 3a21 7c3f
00000050: 688a 7a3f 8fa5 7a3f 9366 793f ec12 7b3f
00000060: a7b5 7b3f c7af 7d3f 8bd1 783f ccd8 7d3f
00000070: 8010 803f c77b 7c3f 3da3 7c3f 77b0 793f
00000080: 8a7f 783f 8d78 7d3f c2b1 7d3f 2d4e 793f
00000090: 204c 7d3f bbd9 7c3f 85dc 773f 01ed 7d3f
000000a0: 5054 7f3f cb76 7c3f 415b 7b3f 25cd 793f
000000b0: cd34 803f 1e51 7e3f ecac 7f3f be10 7f3f
000000c0: a6bc 813f 9860 783f 1294 7f3f 6642 7d3f
000000d0: ee39 7d3f 228d 7c3f d9ff 7b3f e3cd 7a3f
000000e0: 6fda 7d3f fce7 793f c5d3 7a3f c2d2 7a3f
000000f0: 9820 7c3f a38b 7c3f dd6a 793f 06ff 783f
0.9913127 0.98532593 0.9874501 1.0134709 0.98074675 0.9790053 0.9781562 0.977067
1.0007766 1.0001311 0.9620619 1.001225 0.97938 0.9862542 0.9677707 0.9746242
0.99424464 0.98429585 0.9829914 0.984882 0.9786744 0.9790887 0.9742214 0.9807575
0.98324054 0.9909634 0.9719474 0.9915893 1.0005035 0.9862637 0.9868658 0.9753489
0.9706961 0.9901207 0.9909936 0.9738491 0.9894428 0.9876973 0.9682086 0.99189764
0.99738026 0.98618764 0.9818612 0.9757865 1.0016114 0.99342525 0.9987323 0.9963492
1.0135696 0.9702239 0.9983531 0.9892944 0.9891652 0.9865285 0.9843727 0.9797041
0.9916143 0.97619605 0.97979385 0.9797784 0.98487234 0.9865057 0.97428685 0.97264135

baseModel.5.bias f4 [64]
00000000: d824 c1bb 53f8 c1bb 9e86 563c a3ab 15bb
00000010: 27c1 20bb 7c75 9ebb 045f 87ba 468f 29bc
00000020: 7c38 873b 040b d4bb 78c6 84bc 5ed4 9e3b
00000030: eaae c8bb 0abd 15bc c467 25bc ef3e 5b3b
00000040: 8541 693b 9c5e 30ba a231 d13b 4100 7a3c
00000050: 508f 0fb8 155c 4dba 217f 00bb 0fc5 db3b
00000060: aade c5bb c035 b63b 28bd 40ba 4006 273c
00000070: 0dbe 243c 6cf9 d8bb 06e8 60bc 2a97 093b
00000080: 1374 ecba 6485 21ba 40cd 043b e4c9 64bb
00000090: 1982 de3b 4885 9b3b 1245 c2bb d6dc 0bbc
000000a0: 0436 e13b 5206 d93a 9dec 59bb 074b 24bc
000000b0: 1283 c3bb d658 83bc 8a64 923c 9b1f c83a
000000c0: 5ec6 7c3c 1a19 50bc 08b7 a73c 8b28 c93b
000000d0: 887c 653c f506 2bba 9538 8abb c70f a4bc
000000e0: 18d8 73bb 8147 03bb 52a5 a8bb 9088 163c
000000f0: 8b54 6abb ba42 373a 65cb 8bbc 1307 e0ba
-0.0058942847 -0.005919495 0.013093619 -0.00228379 -0.002452919 -0.0048357826 -0.0010328 -0.0103491
0.0041266065 -0.0064710397 -0.016207919 0.0048470935 -0.006124367 -0.009139309 -0.01009554 0.003345426
0.0035592031 -0.0006727965 0.0063840905 0.01525885 -3.4227327e-05 -0.00078338507 -0.0019607025 0.006706841
-0.0060385065 0.0055606067 -0.0007352405 0.010194361 0.010055077 -0.0066215303 -0.013727194 0.0020994642
-0.0018039964 -0.00061615393 0.002026394 -0.0034910375 0.006790411 0.004746113 -0.005928644 -0.008536538
0.0068728942 0.001655767 -0.0033252605 -0.010027654 -0.0059665525 -0.016033571 0.017870206 0.0015268208
0.015428154 -0.012701297 0.020473018 0.0061388663 0.014006741 -0.0006524169 -0.004218171 -0.020027054
-0.003720766 -0.0020031633 -0.005146661 0.0091878325 -0.0035755958 0.0006990839 -0.01706476 -0.0017091952

baseModel.5.running_mean f4 [64]
00000000: 68d1 b6bd eab2 aa3d e393 0abf b3e1 b3be
00000010: 43ae b1be 1e67 83be d7ee 7fbd baa9 8bbe
00000020: 879e 36be 4fdc f1bd 0ea4 a73d f74d 783e
00000030: 7847 7a3d 51fe 093d 67f3 0b3f 5048 863d
00000040: 1732 80be 6b68 513d 350a f8bc 9bec b8be
00000050: 802c 8ebe 144b d53e d65d e23e c765 a0bd
00000060: d0fe a4bd d3c1 b33c d72e 0bbe 8247 d9be
00000070: f894 d9bd 5dd5 09be 5179 94bd 67ce 9ebd
00000080: 7cea 82be cc81 bbbe 793c 603e 5076 963e
00000090: 8158 30bd d1a9 a73c 25a8 2cbd 5cf5 de3d
000000a0: b05c 9f3e d7d4 b43d a666 433e e855 ba3e
000000b0: fee4 df3c a0a5 9abd 67d5 233c 5c7f 26be
000000c0: 5239 9abe c111 34be ab57 3dbe 8822 663e
000000d0: 0f54 14be 9e32 143e feef 9a3d 540b a33c
000000e0: a8ea d5bd 495b fd3d f91e 263d 27ac c83c
000000f0: aba3 0dbe 9fa5 b2be 4950 553e 717f 7ebe
-0.0892666 0.083349064 -0.5413191 -0.35133132 -0.34703264 -0.2566461 -0.062483635 -0.2727793
-0.17833911 -0.11809599 0.08185588 0.24248491 0.061103314 0.0336898 0.5466828 0.06556761
-0.25038216 0.05112497 -0.030278305 -0.36118016 -0.27768326 0.41658843 0.44212216 -0.078319125
-0.08056414 0.021943009 -0.13592087 -0.4243737 -0.10624117 -0.13460298 -0.07249702 -0.07754212
-0.25569522 -0.36622465 0.21898068 0.2938714 -0.043053154 0.020466717 -0.042152543 0.10886642
0.31125402 0.088296585 0.19082126 0.36393666 0.027330872 -0.07551122 0.00999961 -0.16259521
-0.30121857 -0.17584898 -0.18490474 0.2247411 -0.14485191 0.14472434 0.07565306 0.019902863
-0.10445148 0.12370927 0.04055688 0.024496151 -0.13831966 -0.34891984 0.20831408 -0.24853303

baseModel.5.running_var f4 [64]
00000000: 00fd 043d d7b4 c93d 6e4e 913d 64eb 733d
00000010: b62b ef3d 89d6 e93d b32d 833d 8f06 d33d
00000020: 0fc2 d23d 8bca 883d ec15 da3d dcf2 0c3e
00000030: 63ae c73d 06dc a23d 7d24 793d 16f1 863d
00000040: 1124 9d3d 3484 8c3d 0730 c83d 74ac 6f3d
00000050: b109 3d3d c46f 9b3d c4ac 073e 3158 1f3e
00000060: 55fb 8c3d bfcf 373d d603 5e3d 39ea 083e
00000070: 1e11 4f3d 117f 273e 75b3 243e 6eca ad3d
00000080: ba57 cf3d 6df9 6e3d 90ae c83d ceaf e33d
00000090: 2396 b23d a8d1 103e 93c0 143e 3509 603d
000000a0: a30d 933d 858c 993d 5f8e 533d 3c46 103e
000000b0: 27f4 2d3d f689 243d 2c01 9d3d 086d dc3d
000000c0: f62d 833d d233 563d 0a47 d73d 287c 5c3d
000000d0: 7eb8 fa3d bf7e 383d 1ab9 ae3d e1b3 033d
000000e0: 5faa 153e 01a8 863d 38be 9d3d c0e4 b13d
000000f0: 2fc7 b83d da64 713d 3bae fd3d cc89 833d
0.032467842 0.098489456 0.070950374 0.059550658 0.11678259 0.114178725 0.06405201 0.10303985
0.1029092 0.06679257 0.106487125 0.13764518 0.097500585 0.079521224 0.060825814 0.06588952
0.07672895 0.06861153 0.097747855 0.058514073 0.04615182 0.07589677 0.13249499 0.15560986
0.06883875 0.044875856 0.054202877 0.13370599 0.050553434 0.16357066 0.16084082 0.08485876
0.101241544 0.05834334 0.0979892 0.111175165 0.087200426 0.14142478 0.14526586 0.05469628
0.071803354 0.07497505 0.051649448 0.14089292 0.04246917 0.040170632 0.07666239 0.107629836
0.06405251 0.052295513 0.105115965 0.053829342 0.1224222 0.04504275 0.08531399 0.032153968
0.14615773 0.06575013 0.07702297 0.08686209 0.09022366 0.05893407 0.123867474 0.06422767

baseModel.8.weight f4 [64, 64, 3]
00000000: 6af6 66bc cea1 80bd 5716 6abd ea30 81bd
00000010: 8cee 633b 7e54 f23c b27e c93c ea68 67bd
00000020: db8f 2e3c 9eb1 0bbd 1b6b 6a3d 3110 b73c
00000030: becf 91b8 2603 11bd ff0c 72bd 0db4 b43c
00000040: c6f6 b03c 2f0f ce3b 1470 9fbd e069 e43c
00000050: 9e20 27bd 4b1d c23c 2cce 07bc d20f 403c
00000060: 8bee fd3c 892b 973c 1b6a 47bd acfa 443d
00000070: 86fc 753d 307b 73bd 17e1 333d 69ea 1abb
00000080: 3968 f13c c8ee 64bd 8571 f63c 3671 05bc
00000090: 52d1 59bc bfb0 81bd 3f7c 7cbb fd9f 523c
000000a0: 53fa 413d 37c3 7abd ace2 8e3c 45cf 8d3c
000000b0: ab58 8cbc 0457 33bc 4352 47ba dc82 ea3b
000000c0: 6dbb 3d3b c57c 8c3d b1cc 773d 9d9d 6fbd
000000d0: 823f f5bc 2481 dcbc b9dd 85bd 6702 063d
000000e0: c230 efbc 76ef 4f3c 2fd9 7c3d e31a b53c
000000f0: f86f 673d d9ed 94bd 5850 80bd fe06 c53c
00000100: 0eaf ebbc 6628 c73c 36cb 873d d657 9abc
00000110: 9d36 0fbc 805c 46bc d087 0dbc 2481 58bc
00000120: 2a8f 9ebb dce7 62bd f40c 2bbc 1738 3e3d
00000130: 80e5 2fbd d833 353d b26e 1d3d 4645 37bd
00000140: 4426 e5bb fc90 063d 1855 eebc f368 ef3c
00000150: 28a2 cdbc 845d 473d 36b6 433d 6ad9 41bd
00000160: 2a83 36bd 783e 9cbd d91e 0a3d 3ff0 b5bc
00000170: 2385 6eba 45a8 783c 0f0d c5bc 289e 10bd
00000180: 6a24 78bd 9547 153d 3aa8 fa3c b4ad 3cbd
00000190: 9fd6 1abd 8352 86bd 85c2 553d b90a 133d
000001a0: e4b5 96bc 6579 e53c 5580 543d 034b 323d
000001b0: 1245 1bbd c702 abb8 b288 0d3d 3f0f 463d
000001c0: 954a c43c 1e83 a2bc 7a6d 153d e213 b6bc
000001d0: 9dfe 1fbd 2c62 60bd 662a 25bd b417 4f3d
000001e0: 1f79 4fbd 523c 793b e9db 8cbd 2308 703b
000001f0: d8cd 383c 3a3a fe3c d3d5 d9bc 07e4 34bd
00000200: c210 b6bc 588d 023d ee16 80bd 8eb2 4a3d
00000210: 97e1 cc3c 4202 763d b260 8ebd 6f31 7b3d
00000220: 167d c7bb cd79 15bd 73bb 1d3d d70a ddbc
00000230: b9e4 a9bd 7a9b a73c bdbb 27bd 2311 f23b
00000240: 7f97 783d d1fd 62bc 3a14 4d3d 8c3c 623c
00000250: 6439 1dbd c6d2 7ebd bbe2 b83c 5943 113d
00000260: 6fb7 483d 9008 b4bb 4ac9 78bd 3aad 1fbd
00000270: 2f31 f4bc d41d 9b3c 885b 9abc c4b3 77bd
00000280: 7a42 573d 0ca6 7c3d 9715 82bd 0cd3 18bd
00000290: 8e2a 64bc cbf3 903c 1345 df3b b1c9 eabc
000002a0: dbc6 123c 39c6 52bd 32cb 353d ed3d b33c
000002b0: 1521 3c3d d54e 9e3c 325e 4e3d ca0b 00bd
000002c0: 84b7 8bbc 6bd3 dfbc cc1e 96bc 4243 e6bc
000002d0: 0ba0 673d d8e0 663c fa83 95bd 8c51 91bd
000002e0: b0e9 4b3d a29e d8bc 9df2 aa3c ad6a 8abc
000002f0: c34f 693d 36fa 34bd 239f 9b3d 1182 763d
00000300: a338 613d b1b3 41bb 761e 9abd cb76 ac3c
00000310: 4a36 78bd 92ac 82bd 1f42 633c 89d8 aa3b
00000320: 3a94 583d 498e 933d b41f 243d 030d 4bbd
00000330: 8961 60bd 60f8 783a 67f0 133d 3c1a 693d
00000340: 4068 20bd 1a49 553c fa38 cfbc 55dc bebc
00000350: 0cb7 29bd 2c01 e93c 008d 563d 4219 3cbd
00000360: d1bd f23b a369 2f3c 1407 ddbc 0ab7 7cbd
00000370: ea76 cf3b 5409 39bc 9412 83bd fb7c 09bd
00000380: c616 6dbd 7e61 9cbd 3c19 5ebd 04e9 29bd
00000390: 1e6d d33c e8f6 553c a0f7 473d bfcb 243d
000003a0: 2439 4ebc d932 363d 061d 823d cfbc 7e3c
000003b0: 2d80 fabc e397 113d 3649 653d ed28 9ebd
000003c0: d46a e6bb 16bc 813b c39a 5c3d d886 9b3d
000003d0: fa5b 7dbc 8573 b13c 0c1b c1bc 04c7 6c3d
000003e0: e1f2 5dbd 669a 8d3d d515 273d b33e 543d
000003f0: d973 0b3d fb2a af3b 3896 6d3d 051e 2cbc
-0.014096836 -0.06280862 -0.05715021 -0.06308158 0.0034779636 0.029581305 0.024596546 -0.05649654
0.010654415 -0.034104936 0.05723105 0.022346588 -6.952834e-05 -0.035403393 -0.059094425 0.022058511
0.021602046 0.006288431 -0.07785049 0.027882516 -0.04080259 0.023695609 -0.008288901 0.011722522
0.030997535 0.018453376 -0.048685174 0.04809062 0.06005528 -0.059443653 0.043915834 -0.0023638254
0.029468643 -0.055891782 0.030083427 -0.008144667 -0.013294535 -0.0633254 -0.0038526205 0.012855527
0.04735787 -0.061221328 0.01744207 0.017310748 -0.017132124 -0.010946039 -0.00076035055 0.007156713
0.0028950826 0.068597354 0.060497943 -0.05849992 -0.02993751 -0.026917048 -0.06536431 0.032717135
-0.029198054 0.012691369 0.06173056 0.022107547 0.056503266 -0.07271928 -0.06265324 0.024051186
-0.028769996 0.024311256 0.06630556 -0.018840712 -0.008741048 -0.012107015 -0.008638337 -0.013214383
-0.004838844 -0.0553969 -0.0104401 0.04644021 -0.042943478 0.044238895 0.038435645 -0.0447438
-0.006993087 0.03285311 -0.02909331 0.029224848 -0.025101736 0.048673168 0.04778119 -0.047326483
-0.04455868 -0.076291025 0.033720825 -0.022209285 -0.00090988184 0.015176837 -0.024054078 -0.03530708
-0.060581602 0.03644522 0.030597795 -0.046064094 -0.037802335 -0.065587066 0.05218746 0.035898898
-0.01839728 0.028011987 0.0518802 0.043528568 -0.037907667 -8.154433e-05 0.03455419 0.048354384
0.023961345 -0.019837912 0.036481358 -0.022226278 -0.039061178 -0.054781124 -0.040323637 0.050559714
-0.05065262 0.0038030338 -0.06877882 0.0036625944 0.011279546 0.031033624 -0.026591217 -0.044162776
-0.022224788 0.031873077 -0.062543735 0.04948669 0.025009913 0.060060747 -0.06952037 0.06132644
-0.0060879095 -0.03649311 0.038508844 -0.026982708 -0.082955785 0.02045988 -0.040950526 0.0073872968
0.060691353 -0.01385446 0.050068118 0.013808381 -0.03838481 -0.062212728 0.022569051 0.03546462
0.04900306 -0.005494185 -0.06073884 -0.03898356 -0.029808609 0.018935122 -0.018842474 -0.060474172
0.05255363 0.061681792 -0.06351774 -0.037310645 -0.013926161 0.017694375 0.006813654 -0.028660627
0.008958544 -0.05145857 0.044383235 0.021880114 0.045929987 0.0193247 0.0503828 -0.031261243
-0.01705528 -0.027322492 -0.018325232 -0.028108243 0.056549113 0.014091693 -0.07300563 -0.07095632
0.04978341 -0.02644283 0.02086764 -0.01689657 0.056960832 -0.044183932 0.07598712 0.060182635
0.054985654 -0.0029556567 -0.07525341 0.021052739 -0.06059865 -0.063805714 0.013870745 0.0052138013
0.052875735 0.07204873 0.040069297 -0.049572956 -0.054780517 0.000949746 0.036117937 0.056909785
-0.03916192 0.013017917 -0.025295723 -0.023298422 -0.041434333 0.028442942 0.05238056 -0.045922525
0.007407882 0.010706338 -0.026980914 -0.061697997 0.0063313143 -0.011293728 -0.06400028 -0.033566456
-0.057883047 -0.07635783 -0.054223284 -0.041481987 0.025808867 0.013059355 0.048820138 0.04023337
-0.012586866 0.044482086 0.06353192 0.015547945 -0.030578697 0.03554524 0.055978023 -0.0772265
-0.007031778 0.003959189 0.05385853 0.07594079 -0.015463823 0.02166153 -0.023572467 0.057806984
-0.054186705 0.06914215 0.040792305 0.051817607 0.034046028 0.0053457 0.058004588 -0.010505204

baseModel.8.bias f4 [64]
00000000: 3ca7 9e35 139b 313b 797d e0b6 e4bd 873c
00000010: 15e5 66b5 c79c c038 eee8 49bc 11c7 363a
00000020: 3fa6 edb4 5371 36bb 219f 183c add7 67b9
00000030: 0102 c7b3 c49b 3d3c 8755 7836 665a d534
00000040: ed68 973a 3ac0 de3b 02ee 573c 8748 c0b4
00000050: 593d c7bb fe00 acb7 6d0a 183c a42b 8f3c
00000060: 4503 8935 27f6 a73c bdca 4335 6894 3f35
00000070: 7352 36bc fed7 203b 6fac 1039 0f15 1abc
00000080: e90a 2136 9043 deba 480f f5ba 6b52 7c3c
00000090: 513a 08bb 54f4 05b4 f247 e23a f1c3 9435
000000a0: 9639 f0b5 1469 133a ce8c 51ba 6af0 9e34
000000b0: b4ec 9c3b a51d acb7 cd94 ceba 6c2f 3dbb
000000c0: 6b5d 65bb 497c 9538 79fb 4dbc 9caa d2b9
000000d0: a841 afbb 1362 10b9 31c3 edb9 68c7 11b7
000000e0: ac81 3e3b 316b c3b5 7f27 853c b092 9232
000000f0: 128e 0439 a8e5 9dbc 9900 b13a ff55 6434
1.1820589e-06 0.0027100488 -6.690327e-06 0.01657004 -8.6015035e-07 9.1844755e-05 -0.012323601 0.0006972412
-4.426565e-07 -0.0027838543 0.009315283 -0.00022110222 -9.267024e-08 0.011572782 3.7004663e-06 3.9740115e-07
0.0011551656 0.0067978175 0.013179304 -3.5815557e-07 -0.0060803113 -2.050446e-05 0.009279829 0.017476864
1.0208247e-06 0.020503117 7.2938184e-07 7.1369004e-07 -0.011128056 0.0024542804 0.00013797147 -0.009404435
2.399722e-06 -0.0016957391 -0.0018696571 0.015400509 -0.0020786712 -1.2475476e-07 0.0017263873 1.1083886e-06
-1.7898153e-06 0.0005623263 -0.0007993699 2.9604718e-07 0.0047889594 -2.0517802e-05 -0.0015760899 -0.0028867377
-0.0034998308 7.1280236e-05 -0.012572163 -0.00040181435 -0.005348403 -0.00013769446 -0.00045349592 -8.689101e-06
0.002906899 -1.4559829e-06 0.016254185 1.7063343e-08 0.00012641426 -0.019274548 0.0013504206 2.126544e-07

baseModel.9.weight f4 [64]
00000000: bc82 783f 6cc4 7c3f 64ba 7d3f 3a76 7d3f
00000010: f78e 7e3f f368 7c3f aaae 783f 38c7 7b3f
00000020: 2d23 783f ce49 7e3f d247 7a3f aa26 773f
00000030: a2fc 7a3f 3e02 7b3f 5462 763f feff 773f
00000040: f499 7d3f 0837 7a3f 50fb 773f 438b 7d3f
00000050: 4412 7c3f 7d9c 793f c105 803f 917c 7e3f
00000060: 8dee 793f 0965 783f bc5c 7b3f 4560 773f
00000070: 24c0 7b3f 3b25 7d3f 010a 7b3f ec67 7c3f
00000080: 0578 7e3f b735 7b3f 9c51 7e3f 9545 813f
00000090: 5a9f 773f ce11 783f d00a 783f 08d0 773f
000000a0: 8b8e 773f 1e0e 803f 1d31 7e3f 1e1d 803f
000000b0: 261b 823f 4d9a 793f c20c 7f3f b901 793f
000000c0: 1b37 7a3f 0b84 7b3f 6758 7e3f 7ee6 7d3f
000000d0: aae4 7c3f 0197 7b3f 7868 773f ee30 773f
000000e0: 66f0 793f 4422 763f 54bc 773f 347a 773f
000000f0: 554a 783f 2653 833f cb1f 7e3f 1395 803f
0.97074485 0.98737216 0.99112535 0.99008524 0.994369 0.9859764 0.97141516 0.9835086
0.96928674 0.99331367 0.9776584 0.9654337 0.9804174 0.98050296 0.96243787 0.9687499
0.9906304 0.9774022 0.9686785 0.9904062 0.9846537 0.9750441 1.0001756 0.99408823
0.97629625 0.9702917 0.98188376 0.9663127 0.9834006 0.98884934 0.9806214 0.9859607
0.99401885 0.9812884 0.99343276 1.009936 0.96727526 0.9690217 0.968915 0.96801805
0.9670188 1.0004308 0.9929369 1.0008886 1.0164535 0.9750107 0.9962884 0.97268254
0.97740334 0.98248357 0.9935364 0.9917983 0.98786414 0.9827729 0.9664378 0.96559036
0.97632444 0.96146035 0.9677174 0.9667084 0.9698842 1.025975 0.9926726 1.0045494

baseModel.9.bias f4 [64]
00000000: dce3 e6bb c8a2 8e3a 0b85 583c 7864 b3bb
00000010: 0d75 0e3c fc63 b83c 90f8 b5bb 9d1d 58bb
00000020: 278e 50bb 5e28 143c b91c 5e3b 01bd 7abc
00000030: bf08 843b fc09 cf3b 085e 2dbc cd60 6bbb
00000040: 906d 863b 526a adb9 3b26 ffbb 0f82 183c
00000050: 1843 bbba 9305 02bb 1bac 923c 3d7c ecba
00000060: bbc1 11ba e164 c4bb a79c 3c3c 3721 8dbc
00000070: d175 57bb cea4 4a3c 5339 26bb 3513 ebba
00000080: 00f2 a7ba 853e 863b 4c56 e9bb 0620 903c
00000090: eea0 1dbc 83a9 83bb fe26 85ba 0eac 9cbb
000000a0: 2397 e3bb 59de 6e3c e34d 923c ce81 643c
000000b0: 289a dc3c 26f2 803b 6c3a 8d3b b3f8 e1bb
000000c0: b34a 48ba ee48 9fba b1a5 313c f2af 4f3c
000000d0: f9fa dd3b b81d 10bc d3fe 79bb fba7 e3bb
000000e0: 3516 183b 17ad 91bc 1dda 11bc e5db c9bb
000000f0: 66b3 81bb a7da 853c 9d93 753c d147 8d3c
-0.007046206 0.0010882253 0.013215314 -0.0054746233 0.008694899 0.022508614 -0.0055533126 -0.0032976635
-0.003182301 0.009042827 0.0033891632 -0.015303851 0.004029363 0.006318329 -0.010581501 -0.0035915852
0.0041024163 -0.00033076346 -0.00778654 0.009308352 -0.0014286963 -0.0019839748 0.017904332 -0.0018042397
-0.0005560179 -0.005993471 0.011511958 -0.017227752 -0.003287662 0.012368394 -0.0025363758 -0.0017934801
-0.001281321 0.0040968084 -0.007120883 0.017593395 -0.009620888 -0.00401801 -0.0010158715 -0.0047812527
-0.006945507 0.014579379 0.017859405 0.0139469635 0.026928976 0.0039351163 0.004309943 -0.0068961023
-0.00076405256 -0.0012152472 0.010842727 0.012676226 0.006774303 -0.008796148 -0.0038146272 -0.006947515
0.0023206596 -0.017782731 -0.0089021 -0.0061602467 -0.0039581535 0.016339613 0.014988807 0.017246159

baseModel.9.running_mean f4 [64]
00000000: 4ec4 8cbe ac14 833e 28f4 8dbe 109f 05bf
00000010: 7e1c babe a172 033e 8653 2dbf 6085 19bf
00000020: 2e47 2bbd d0c5 40bf 96c4 073f 7aea 88bf
00000030: c02f ebbe 2960 6b3d 5885 c13d b0d4 ef3e
00000040: 3ce4 663e 0358 373f ddbc debe 769d 553e
00000050: 6cf7 4bbf 50b9 31be c092 313f b02b 143f
00000060: 60cc 31bf 54d4 303e 9504 a43e 18e6 bfbc
00000070: b9d6 743d acf9 653f a799 dcbc 52b8 49be
00000080: f833 243d ec07 ffbe 2449 63be 1482 39bf
00000090: 1d7c 08bf d5ab fc3e a233 c13e b599 4b3f
000000a0: e802 f43e f471 82bf 057d 3abf 5fc6 d53e
000000b0: 9f40 89be ffb5 7a3e b68d 13bf 0a59 033f
000000c0: 7b75 7a3e acb8 033e 7883 a23e b859 3e3f
000000d0: 03bf c0be 154d dbbe 8c31 dcbe b8f3 33bc
000000e0: 8e7b e73b 6aee 0dbe d3a9 463f a1d2 12be
000000f0: eb34 45bf 768b 6b3f 4ca3 163e 8781 b73e
-0.2749352 0.2560171 -0.2772534 -0.52195835 -0.36349863 0.12836696 -0.6770557 -0.5996914
-0.04181593 -0.7530184 0.5303434 -1.0696557 -0.45934868 0.057464752 0.094492614 0.46841955
0.22548002 0.7161867 -0.43503466 0.20860848 -0.7967441 -0.17355847 0.6936455 0.5787916
-0.69452477 0.17268497 0.32034746 -0.023425147 0.059775088 0.89834094 -0.026928736 -0.19699219
0.040088624 -0.4981073 -0.2219587 -0.7246411 -0.5331438 0.49349847 0.37734705 0.79531413
0.47658467 -1.0191026 -0.72847015 0.41752908 -0.26807114 0.24483489 -0.5763811 0.5130774
0.24458878 0.12863415 0.31740928 0.7435565 -0.3764573 -0.42832246 -0.4300655 -0.0109834
0.0070642894 -0.13860479 0.7760288 -0.14338161 -0.7703387 0.92009676 0.1471073 0.3584101

baseModel.9.running_var f4 [64]
00000000: 4589 e63d a119 4e3e 5072 2d3e ac38 303e
00000010: ca25 793e 804d 033e 739f ad3e 690e 673e
00000020: ead6 113e 8a43 1c3e 93c3 2b3e 307a 8e3e
00000030: a508 723e 11c1 213e fd40 203e 752d 263e
00000040: 4ebb 233e 7f20 693e 97c4 373e 5aa8 243e
00000050: 97db 283e 0fb5 323e 9dbe 373e 78cd 113e
00000060: 730d ea3d e456 053e 6d6f 2b3e 3acf 293e
00000070: 76e3 323e 30f6 0f3e 970d 2a3e 133b 2d3e
00000080: 382c 033e 0461 213e 84c1 343e e09b 343e
00000090: 5305 813e 5a10 203e bdf2 583e 4000 493e
000000a0: 6387 0c3e d522 193e 721b 593e 42b1 253e
000000b0: 692f c33d 7168 1c3e b938 733e 1b18 4d3e
000000c0: 5ef6 4e3e 1a6c 173e d86a 2c3e 1d7d 013e
000000d0: f23c 553e efe7 433e ead4 1a3e aeff 483e
000000e0: 8e09 023e 64b1 183e 6d4a 1b3e 90c1 c33d
000000f0: 5420 4e3e 0158 1a3e 9a5e 3d3e a92e 1d3e
0.11256651 0.20126964 0.16938138 0.17209119 0.24330822 0.12822533 0.33910713 0.22564091
0.1424214 0.15260139 0.16773824 0.27827597 0.2363611 0.15796305 0.15649791 0.16228278
0.1598942 0.22766303 0.17946087 0.16079846 0.16490017 0.17451881 0.17943807 0.14238536
0.114283465 0.13021427 0.16741724 0.16582957 0.17469582 0.14058757 0.16606747 0.16917066
0.12809837 0.15759665 0.17651945 0.17637587 0.25199375 0.15631238 0.21186347 0.19629002
0.13723521 0.14954694 0.21201876 0.161809 0.09530527 0.15274216 0.23752107 0.20028727
0.20211169 0.14787331 0.16837633 0.12645383 0.2082403 0.19131444 0.15120283 0.19628784
0.12698957 0.14911419 0.1516511 0.095584035 0.2012952 0.15072633 0.18493119 0.1534983

baseModel.11.weight f4 [32, 64, 3]
00000000: 2ebf df3c 6377 28bd c617 89bd 5d22 30ba
00000010: 0166 833c ccbb 2e3d 1b8d 49bb 21d2 34bd
00000020: 4d11 93bd c20e e33c 5b9e a7bd 0142 833d
00000030: 39dd 6e3d bda3 0cbc 55cd 3e3d 6c5e 98bd
00000040: c3b0 a5bb 3581 0e3d be43 eb3c e26f 1e3d
00000050: b597 283c ad83 4c3d a076 c63c 43c1 27bd
00000060: 35f7 2a3d b7eb d23c 2ddd 503d 01d0 9c3d
00000070: 4d91 08bd 6cd4 7d3d 45fe 36bd 9d1b 4b3c
00000080: 2d9b 3b3d a18c b5bc 2a01 393c 057c fcbb
00000090: 93ea b43b e932 3bbd 721e bb3c ef4d 0c3d
000000a0: ccb5 25bb f384 90bb 1a59 8a3c 31ca 363d
000000b0: 1184 69bd e700 51bd e231 7bbc 5b6e d23c
000000c0: 380d b13c 9fb1 fe3c f7e6 1b3d d524 93bd
000000d0: a2e5 44bd 64c1 d7bc c8ea 333d 1506 323d
000000e0: 3057 753c 872d 2a3c a71d ed3b d4c4 0cbd
000000f0: fa42 a6bb 88b2 bfbc 4d70 a63c 16c9 80bd
00000100: f44e 1fbd 041a da3c 4172 273c 4997 95bb
00000110: 940f a93c 88c4 c0bc b3c0 96bd a875 4f3d
00000120: 9a10 923d a9ff 9e3c 3fd5 abbc 1814 5cbd
00000130: 0fd1 813b 928a 253d c9be f9bb c7e5 25bd
00000140: 5283 d8bc b455 54bd 986c ec3b 3942 6dbb
00000150: 51a8 d43c 9c53 84bd 527e 79bc dd00 133d
00000160: 4dd2 18bd 2bbc e23c d697 b1bc 4582 803d
00000170: b81e cf3c 0151 8fbd f8e0 29ba 0cbd 8abc
00000180: 1976 23bc a4ae dcbc 5768 63bd 4315 68bd
00000190: 046b e73c a765 0cbd b65f 773a a44f 7cbd
000001a0: 466d 4fbd fa8a 023d 5b6e 5a3a dd61 063c
000001b0: ecf9 c5bb f640 7fbd fea6 67bd e6e4 49bc
000001c0: 5617 123c 7fc3 0f3d 3f2a dfbb 1038 783d
000001d0: bc4d 95bd 01f0 853d eb19 73bd 4892 943d
000001e0: 642f 813d 66ff 463d b0f2 2a3c cace 1abd
000001f0: 50c9 b43c 987c 34bd 2551 633d 7f71 c53b
00000200: 3715 1bbd 4c0c 2b3d 5669 c9bc 74a8 3fbd
00000210: 012c a9bc f35a 1fbd bf87 ef3b b729 233d
00000220: 367a 9bbd d900 223d a95f d33c ac25 a8bc
00000230: c241 4cbc b049 1b3d 0a32 563d fe2d f2bc
00000240: 05e2 3dbd 398b 04bb bb0b bb3c a9e0 57bd
00000250: 0b06 aa3c eda6 6a3c c1e7 02bd 06dc 3cbd
00000260: 6386 1a3d c21d ffbc 04fe 91bd b77b b5bc
00000270: 434d 27bc 860a 6a3c 614d 5ebc c873 083d
00000280: 0979 193d 4c38 783d d84f eb3c 4ca2 11bd
00000290: 40f9 5e3c d0b2 a03d 0715 293d 87a3 773d
000002a0: b244 91bd 8d63 b9bc a570 093d ee8b 4c3d
000002b0: 6cc4 8bbd 1c05 03bb d628 e4bc 7acd 503d
000002c0: fd19 f5bc 7bff 6c3d 8215 15bc aad3 63bd
000002d0: 7ab9 8b3d 3d69 6dbd 983e 74bc 338e 76bd
000002e0: af78 95bd e4b9 92bc c4bc 6dbd 3203 60bd
000002f0: e078 28bd b963 64bd 451a 0b3d a9ed 81bd
00000300: de7d c03a 2ba8 82bd 0411 33bd 68f6 a6bc
00000310: c572 50bb 3195 23bd f436 97bd 6702 40bd
00000320: ae58 97bd 8c1d 66bd b0ab f9bc 12d3 4bbc
00000330: 89c7 68bc 7572 02bd b254 1dbd faf6 5d3d
00000340: 2f2f 75bc c185 553b 0d81 ebbc d816 6bbc
00000350: e9d5 3dbb d46c f8bb e6b9 22bd ff29 e23c
00000360: c0f0 593d 8756 183c 2679 f93b 877a 3c3d
00000370: 43ca 87bd 2e33 84bd dc47 613c ffef 863a
00000380: 8bfa 3dbd 55ba 3f3d ceb2 34bd fbc1 463d
00000390: a4b9 54bc 44d3 c53c e968 3b3d 9ba3 00bd
000003a0: 4111 a4bd 0f9c 253d 1fd0 0bbd d534 443d
000003b0: f0b6 8d3c 246a 91bc c447 6cbd 0947 6b3d
000003c0: b5a3 5fbc a7eb 3abd 7dea 613b d431 973d
000003d0: 169f 513d fd34 c43c 74d4 543d 24b2 fa3c
000003e0: 4189 43bd 911b 8f3d dd30 c8bc b225 4abc
000003f0: 1bb6 acbd 9f1f 5f3c 3619 763c e0c8 103d
0.027312841 -0.04112948 -0.066939875 -0.0006718988 0.01603985 0.042659566 -0.0030754271 -0.044145707
-0.07181034 0.027716998 -0.08184501 0.064090736 0.058316443 -0.00858396 0.04658254 -0.074398845
-0.005056472 0.03479119 0.028718825 0.03868092 0.010290076 0.049930263 0.024226487 -0.040955793
0.04173966 0.025747163 0.05099218 0.07656861 -0.033341695 0.06197016 -0.044676084 0.01239672
0.045802284 -0.022161784 0.011291781 -0.007705214 0.0055211275 -0.04570285 0.022841666 0.03425401
-0.0025285361 -0.00441038 0.01688819 0.04462642 -0.057010714 -0.05102625 -0.015331717 0.025687387
0.021612749 0.031090556 0.038062062 -0.071847595 -0.048070557 -0.026337333 0.043925077 0.04346283
0.0149744 0.010386831 0.007236201 -0.034367397 -0.005073902 -0.02340056 0.020317221 -0.06288354
-0.038893655 0.026623733 0.010220111 -0.0045651537 0.020637311 -0.023531213 -0.07360973 0.050649315
0.07132073 0.019409018 -0.020975707 -0.0537301 0.0039616893 0.040415354 -0.0076216203 -0.040502336
-0.026429806 -0.051839545 0.007215094 -0.0036202802 0.025959166 -0.0646126 -0.015227871 0.035889495
-0.037309933 0.027677616 -0.021678846 0.06274847 0.025283203 -0.06997872 -0.00064803613 -0.016935848
-0.009976887 -0.026938744 -0.055519428 -0.0566609 0.028249271 -0.03427663 0.0009436564 -0.06159939
-0.05064132 0.03187082 0.0008332484 0.008202043 -0.006041756 -0.06231781 -0.05655574 -0.01232264
0.0089166965 0.03509855 -0.006810456 0.06060034 -0.07290217 0.06539918 -0.05935089 0.072544634
0.06307867 0.04858341 0.010433838 -0.037794866 0.02206865 -0.044064134 0.055497307 0.0060254927
-0.03786203 0.041759774 -0.02458636 -0.04679151 -0.020650866 -0.038905095 0.0073098834 0.039834704
-0.07591669 0.03955159 0.02580245 -0.020525776 -0.01246685 0.03791207 0.052293815 -0.029562946
-0.046358127 -0.0020224585 0.022832742 -0.052704487 0.020754835 0.014322025 -0.0319593 -0.04610827
0.037725817 -0.03114212 -0.07128528 -0.022153718 -0.010211292 0.014284736 -0.013568253 0.033313543
0.037468944 0.060600564 0.028724596 -0.03555517 0.0136092305 0.07846606 0.04127982 0.060458686
-0.07093181 -0.022630477 0.03355469 0.049938135 -0.06824574 -0.001999206 -0.027851503 0.050977208
-0.029919619 0.057860833 -0.009099366 -0.05562178 0.06822486 -0.05796169 -0.014907502 -0.060194205
-0.07298409 -0.017910905 -0.05804135 -0.054690547 -0.0411309 -0.055759165 0.0339606 -0.06344158
0.0014685949 -0.06379732 -0.0437174 -0.020381168 -0.003180669 -0.039937202 -0.07383528 -0.04687729
-0.07389961 -0.05618052 -0.030477375 -0.01244046 -0.014207729 -0.031847436 -0.03841085 0.054190613
-0.014964863 0.0032580944 -0.02874806 -0.014348708 -0.0028966612 -0.0075813327 -0.039728068 0.027607916
0.053208113 0.0092979735 0.007613319 0.04601529 -0.06630375 -0.06455074 0.013750043 0.0010294913
-0.046381515 0.04680856 -0.044115834 0.048524838 -0.012983713 0.02414859 0.045754347 -0.031406026
-0.080111034 0.040432032 -0.034134027 0.047901947 0.017299145 -0.017750807 -0.05768563 0.05744079
-0.013649871 -0.04563489 0.0034472041 0.07382551 0.051177107 0.023951048 0.051960424 0.030602522
-0.047738317 0.0698768 -0.024437362 -0.012338089 -0.08433171 0.013618379 0.015020659 0.03534782

baseModel.11.bias f4 [32]
00000000: 8644 81bc 0daf a7b5 f337 45b4 78e9 9735
00000010: 5ce4 d137 2e8a d4ba 1e14 94b6 95e0 4939
00000020: 8be1 9c3c 29cb dd3b 9569 6a38 d9d3 f8b5
00000030: 3b09 183b 33a1 74bb c9d7 1a36 35c5 fcb4
00000040: 503d 513b d28e 0bbc d7a2 4b3c 0ec2 47bc
00000050: b43c 483c 40f3 773b f193 6c3b 3b87 1bbb
00000060: dfce 8135 9d40 76bc adb4 50b4 1368 47b5
00000070: f8f4 32bc 1c10 7cbc a393 7435 49b3 94ba
-0.015779745 -1.2493416e-06 -1.8367409e-07 1.1318325e-06 2.502108e-05 -0.0016215497 -4.4130857e-06 0.00019252517
0.019150516 0.0067686033 5.588828e-05 -1.8539096e-06 0.002319886 -0.0037327528 2.3073392e-06 -4.7082145e-07
0.0031927414 -0.008517938 0.012428961 -0.012192262 0.012221504 0.0037834197 0.0036098922 -0.0023731727
9.671456e-07 -0.015030053 -1.9437239e-07 -7.4284725e-07 -0.010922663 -0.0153847 9.1111923e-07 -0.0011344935
