Models/intialized_bl_0420.pth (torch, 495867 bytes, 42 tensors)

baseModel.0.weight f4 [64, 2, 3]
000000 92 04 89 3e 38 21 0c 3e d9 06 d0 be 14 6a 85 3e
       0.267613 0.13684547 -0.40630224 0.26057494
000010 d2 13 86 be 77 02 23 be e5 9f 90 3e ea d5 9d be
       -0.26186997 -0.15918909 0.2824699 -0.30827266
000020 78 89 ca 3d f9 e5 8f 3d 7b 32 0a 3e d8 00 05 be
       0.09889501 0.07026286 0.1349582 -0.12988603
000030 b5 d5 02 be c3 25 2a 3e 0a 61 21 3d 14 82 a7 3d
       -0.12776835 0.16615967 0.039399184 0.08179107
000040 ed 80 95 3e d7 65 0c be 0e 67 e6 3d f1 27 63 be
       0.29199925 -0.13710724 0.11250125 -0.22183205
000050 d7 74 f9 bd cd 8d 0a 3e 32 34 8b 3e 65 6d 52 bd
       -0.121804886 0.13530655 0.2718826 -0.051373858
000060 a0 15 d8 3d 80 30 f3 3c 0b 17 ac 3e a9 89 9c 3e
       0.10551 0.029686213 0.3361133 0.30573776
000070 7f 3f 88 3e 32 0e 8d 3d ac c5 a8 be d9 f3 74 3e
       0.26610944 0.06887473 -0.32963312 0.23921145
000080 ad 77 c4 3e 53 63 56 be 6e 33 95 3e 36 31 46 be
       0.38372555 -0.20936327 0.291408 -0.1935471
000090 ef ca 93 bd 2b 96 af bb 53 ed 5a bd 9a 1c 6c 3e
       -0.07216441 -0.0053584776 -0.053448986 0.23057786
0000a0 5d 22 0f be 24 48 07 3e f4 5d 16 3e ed c5 34 bd
       -0.13977952 0.13211113 0.14684278 -0.04413407
0000b0 c6 7d 69 3e be 0c c7 be 4c c9 a3 3e af bb 4a 3e
       0.22801885 -0.3887691 0.31989515 0.19798158
0000c0 65 3c 9d be dd e8 80 be 1c fb fe 3d bd a8 b1 3e
       -0.3071014 -0.2517766 0.12450239 0.3469905
0000d0 b8 40 86 be 7b de 5d be e6 0a 6f 3d a7 94 ad be
       -0.2622125 -0.21666901 0.058360003 -0.33902475
0000e0 80 cc 1f 3e bb c8 8d 3e 54 47 0f bd 54 57 03 bd
       0.15605354 0.27692208 -0.034980133 -0.032065704
0000f0 f2 5e 83 bd 05 e7 8a 3e de bc 22 be fe 2f 00 be
       -0.06414594 0.2712938 -0.1589236 -0.12518308
000100 c9 3c bb 3e 36 b4 bb bd 88 04 12 3a 20 16 e3 3c
       0.36569813 -0.09165232 0.0005570133 0.027720511
000110 6f e6 3f 3e a6 8c a5 be 3d 1b 93 be 45 2c 6f 3e
       0.18740247 -0.3233387 -0.2873172 0.23356731
000120 bf dc 92 be 72 ff 15 3e b2 8c 94 3e 0d 3c c7 3e
       -0.2868404 0.14648226 0.29013592 0.38913003
000130 0a d5 cc be e8 a6 77 be 12 c5 91 be 7d 33 a5 3e
       -0.40006286 -0.24184763 -0.28470665 0.32265845
000140 8d 0f 7b 3b df ea 49 3e 86 bb b7 bd 5e 16 95 3e
       0.003830883 0.19718502 -0.08971314 0.29118627
000150 aa e5 ca bd e1 de 85 3e 9b cb 8e be f2 fa 03 be
       -0.09907086 0.26146606 -0.27889714 -0.12888697
000160 ed ae 57 3e 69 45 d8 3d 9e 43 b4 bd 74 c9 a2 3e
       0.21062823 0.10560114 -0.088019595 0.31794322
000170 2d 0a 8c 3e 94 42 4c be 2c 4b b6 3e e8 23 81 3e
       0.27351514 -0.19947273 0.35604227 0.25222707
000180 4a 3a d1 3d b3 f2 5b 3e ab 87 a8 3e b4 ab 19 be
       0.10216196 0.21479301 0.32916006 -0.15006906
000190 91 59 62 3d d1 43 10 be 95 6d 86 3e a5 ab b4 3e
       0.0552612 -0.1408837 0.2625548 0.35287204
0001a0 28 09 67 be de 58 9b be 71 52 46 3e 6a 1a ab 3e
       -0.22562087 -0.30341238 0.19367386 0.3341859
0001b0 c4 e2 64 3e d0 20 2b be f0 8a 25 be 9a 7d e2 bd
       0.22352129 -0.16711736 -0.16166282 -0.11059113
0001c0 72 d8 ae be da 85 a3 3e cb 46 a3 be 96 1c 17 be
       -0.3414951 0.31938058 -0.31889948 -0.14756998
0001d0 f3 79 57 3e ff 56 ab be c0 de 39 bd 5d 30 7f 3e
       0.21042614 -0.3346481 -0.045378447 0.24920793
0001e0 70 38 31 be 27 91 33 3e 0d bd 3f 3e 1c 60 54 3e
       -0.17306685 0.1753584 0.18724461 0.20739788
0001f0 e6 c8 84 3e d6 d6 90 be d1 c9 fd 3c 00 3c cd 3e
       0.25934523 -0.28288907 0.030980023 0.4008484
000200 cb 6d 8a 3e 39 d1 1e 3e 6c e8 a5 be c6 ea f9 3d
       0.2703689 0.155095 -0.32403886 0.122029826
000210 88 f6 7c 3e c6 3f bb bd 06 0e 99 3e c5 45 7e be
       0.24703419 -0.09143023 0.29893512 -0.24831302
000220 9b 65 bf 3e 16 44 cd 3e eb d0 54 bd 1f f3 b0 be
       0.37382206 0.40091008 -0.051957052 -0.34560487
000230 60 67 c7 be 16 5f 65 3e 5c b2 0a be c6 24 b2 3e
       -0.38946056 0.22399554 -0.13544601 0.3479368
000240 69 ed 63 be db 16 eb bc 8c eb 29 3c 66 67 35 bd
       -0.22258534 -0.028697422 0.0103711 -0.04428806
000250 36 f7 ce 3e 1c f9 be 3e 4e 37 b9 be 61 c2 04 be
       0.40422982 0.3729943 -0.36175007 -0.12964775
000260 dc fc ba 3e 87 a4 1a be 10 8e 70 3c 11 fe 0e be
       0.3652104 -0.15101825 0.014682308 -0.13964106
000270 6f ba 65 3e 06 eb dc 3d 43 96 bd be ec 3a 87 bc
       0.224344 0.10787015 -0.37028703 -0.016507588
000280 18 45 ce 3e ce 7f c3 bd e5 69 86 3e 9b 69 48 3e
       0.4028709 -0.09545861 0.26252666 0.19571535
000290 fb 0c b0 bd 01 94 95 be c8 f9 58 3d 29 0f 4d bc
       -0.08596226 -0.2921448 0.052972585 -0.0125158215
0002a0 ef 7b 5e 3d 26 31 93 bd 4d dd cb be 6c 80 92 be
       0.05431741 -0.07187109 -0.39817277 -0.28613603
0002b0 42 f0 b7 3d 89 5e 8f be dd 4d 07 be bb 11 2a be
       0.089813724 -0.28001812 -0.13213296 -0.16608326
0002c0 9a 68 a1 bd c4 e7 d3 bd c6 0a b3 3e 7f 30 12 3e
       -0.07881279 -0.1034694 0.34969157 0.14276312
0002d0 49 a8 97 be 3a bf 99 3e 79 a5 8c 3d 85 2a aa be
       -0.2962058 0.30028707 0.06867499 -0.33235565
0002e0 62 99 72 be 11 2d a9 3b 9e 91 4a be 0d f8 42 3e
       -0.23691323 0.005162843 -0.19782111 0.19039936
0002f0 45 be aa bc d9 29 a1 3e f4 65 ab be 24 68 69 bd
       -0.02084268 0.3147724 -0.33476222 -0.056984082
000300 0b 45 33 3d b4 ba 31 be 2f 4f 23 be a4 e0 20 bd
       0.043767016 -0.17356378 -0.15948175 -0.039276734
000310 4b a4 e1 3c f8 36 d9 bc f9 35 92 3d 16 9b 0e 3d
       0.027544161 -0.026515469 0.07139201 0.03481587
000320 1b d5 d0 3d 60 1b 93 be fe e3 b8 3e 27 82 8b be
       0.10196897 -0.28731823 0.36111444 -0.27247736
000330 2f ab 78 be f9 9c 7f bd 3d 84 ab bd 81 13 b0 3e
       -0.24284051 -0.06240556 -0.08374832 0.3438988
000340 90 b0 a6 3e 3f 04 75 be a0 1e 53 bd 06 46 88 be
       0.32556581 -0.23927401 -0.05154288 -0.26615924
000350 fb c4 1c 3e 07 88 84 be 8b c3 1a 3d 66 95 ab 3e
       0.15309517 -0.2588503 0.03778414 0.3351242
000360 3a 0e a3 3e 28 b2 b8 3e 2b 2d 5e 3e 7a 0e a2 3e
       0.31846792 0.36073422 0.21696918 0.3165167
000370 9c 48 d5 3d b3 b3 5e 3e 16 e5 b5 3c 7a aa 0e be
       0.1041424 0.21748237 0.022203963 -0.13932219
000380 0a 37 34 3d 43 f7 07 3e 18 5c b2 be 7b 1e b9 3d
       0.0439978 0.13277917 -0.34835887 0.09039017
000390 05 22 8c 3e cb f6 80 be e3 6d 77 3e 07 37 0e 3e
       0.27369705 -0.25188288 0.24163012 0.13888179
0003a0 b9 13 26 3e d3 f6 b0 3e a4 f6 60 be 32 40 7c 3e
       0.16218461 0.34563312 -0.21969086 0.24633864
0003b0 a7 2b 82 be 9b 9f ad 3e 1f 89 39 3e 43 8c 88 be
       -0.2542393 0.33910832 0.18118714 -0.2666951
0003c0 27 be 95 be 71 67 b2 3e 28 73 fd bb e4 56 95 be
       -0.29246637 0.34844545 -0.007734675 -0.29167855
0003d0 36 2b 50 be 56 0c 75 be d4 99 27 3e 80 de a6 be
       -0.20328984 -0.23930487 0.16367275 -0.3259163
0003e0 7b 20 87 be 56 09 a3 be 85 e8 3f 3e bf 31 b5 3e
       -0.26391968 -0.3184306 0.18741043 0.35389516
0003f0 00 fc 0c be 09 bd 39 3d 8c 5c af 3a ca fc 2b 3e
       -0.13768005 0.045346294 0.0013379022 0.1679565

baseModel.0.bias f4 [64]
000000 76 c9 b4 be 14 17 8c be e5 72 4e be 6b d6 19 be
       -0.35309952 -0.27361357 -0.20161016 -0.150232
000010 3d 4a 6a bd d1 44 8a 3e 62 b7 6f bc 2a 87 84 3d
       -0.057199705 0.27005628 -0.014631124 0.06471093
000020 5d 0f 75 3b 6c b0 7c be c3 37 37 be 45 50 dd bd
       0.003739319 -0.24676675 -0.17892365 -0.10806326
000030 26 d0 31 3e c7 a0 f7 3b 14 76 bf bd 31 9b 82 be
       0.17364559 0.007557008 -0.093486935 -0.25509027
000040 74 29 d4 bc 87 22 47 39 1f 95 1b 3e f1 15 4a 3e
       -0.025898673 0.00018990981 0.15193604 0.19734932
000050 37 e0 19 3c 60 77 27 be a5 47 73 be 1f 9b 34 be
       0.009391836 -0.16354132 -0.23757799 -0.17637299
000060 d7 82 8a 3c 4b 32 99 3d 32 c6 11 bc 8a b1 b3 3e
       0.016908092 0.07480296 -0.008897351 0.3509639
000070 b5 54 a2 3e 7f 61 1f 39 56 13 9a be e5 8b a9 be
       0.3170525 0.00015199742 -0.30092877 -0.33114544
000080 73 48 37 3d 3b 90 b4 3e 2e d4 e6 bb 29 f6 b5 3e
       0.044746827 0.3526629 -0.0070443368 0.35539368
000090 51 95 a0 be 22 18 83 39 dc fe 2c 3e 6c 73 e7 3d
       -0.3136392 0.00025004247 0.16894096 0.11301312
0000a0 84 bc 07 3e 62 46 8b 3e fe 63 aa 3c 24 b5 62 be
       0.13255507 0.27202135 0.020799633 -0.22139412
0000b0 9e 93 db 3c 1b e9 4c 3d 53 aa 0c be 1d 51 a8 be
       0.026803788 0.050026994 -0.13736849 -0.32874385
0000c0 02 a3 b1 bc 30 2f a9 bd cf 54 ca bd 15 83 4c 3e
       -0.021684173 -0.082609534 -0.09879457 0.19971879
0000d0 d0 7f 31 be 26 49 3d 3e 60 1b 87 be 8f bf 72 3e
       -0.17333913 0.18484935 -0.26388073 0.23705886
0000e0 2d 4b 1c 3e 15 10 2e bd b2 94 dd 3a 83 a5 8d 3d
       0.15263052 -0.042495806 0.0016905277 0.069163345
0000f0 93 12 9c be 1c f9 17 be db 08 9e 39 7b 80 1f 3e
       -0.3048292 -0.14841121 0.00030142706 0.15576355

baseModel.1.weight f4 [64]
000000 05 36 7d 3f 61 b0 7c 3f 7b 93 7d 3f 22 39 80 3f
       0.9891055 0.9870663 0.9905316 1.0017436
000010 f6 bd 7f 3f 47 64 7f 3f da 46 7b 3f de e1 7c 3f
       0.9989923 0.99762386 0.98154986 0.98782146
000020 e7 e6 7b 3f 94 02 7e 3f 4c 1d 7e 3f 27 a5 7d 3f
       0.98399204 0.99222684 0.99263453 0.9908013
000030 b3 db 7f 3f b7 eb 7c 3f fd 4d 7c 3f 41 08 81 3f
       0.9994461 0.9879717 0.985565 1.0080644
000040 40 45 7d 3f d1 49 7e 3f 0c 4e 7e 3f c2 f7 7f 3f
       0.9893379 0.99331385 0.9933784 0.99987423
000050 ea b8 7d 3f 20 41 7f 3f 7a df 7e 3f 41 35 7f 3f
       0.9911028 0.9970875 0.9955975 0.99690634
000060 94 67 7e 3f 13 7c 7f 3f 08 6b 7d 3f ab 82 80 3f
       0.993768 0.997987 0.9899144 1.0039877
000070 bb 61 7e 3f 89 6b 80 3f 84 5e 7c 3f 11 f2 7c 3f
       0.99367875 1.0032817 0.9858172 0.98806864
000080 7e 98 7d 3f 18 a6 7f 3f ba 94 7e 3f 16 09 7e 3f
       0.9906081 0.99862814 0.9944569 0.99232614
000090 51 b8 81 3f 41 08 7d 3f 9c 5b 7d 3f 5a 3a 7c 3f
       1.0134374 0.9884072 0.9896791 0.9852654
0000a0 98 1e 7d 3f f8 3b 80 3f a5 28 80 3f 1b b9 80 3f
       0.9887481 1.0018301 1.0012404 1.005649
0000b0 a5 48 7c 3f 4f 4a 7e 3f df 99 7d 3f 1a 1e 81 3f
       0.98548347 0.99332136 0.99062914 1.0087311
0000c0 06 2a 81 3f f3 65 7c 3f 2c 19 7e 3f 11 3c 7e 3f
       1.009095 0.9859306 0.9925716 0.99310404
0000d0 31 f5 7d 3f 96 40 7d 3f a5 90 7d 3f 3f 3e 7c 3f
       0.9920226 0.98926675 0.99048835 0.9853248
0000e0 3d 6e 81 3f 87 da 7d 3f 5f 3a 7f 3f 06 28 7d 3f
       1.0111767 0.9916157 0.9969844 0.98889196
0000f0 f3 55 80 3f 76 9e 7d 3f eb 6d 7d 3f 6a e4 80 3f
       1.002623 0.9906992 0.98995847 1.0069706

baseModel.1.bias f4 [64]
000000 2b 6f e8 b8 56 73 61 3b ab 09 9a bb ed f5 1a 3c
       -0.00011083329 0.003440102 -0.0047008595 0.009458047
000010 90 4a 14 3c 57 b8 7f 3a 57 30 2c bc 83 ad cf ba
       0.00905098 0.0009754947 -0.010509572 -0.0015844557
000020 3e db 19 bc da ae af 3a 78 96 88 ba e9 9c 52 bb
       -0.00939065 0.001340355 -0.001042082 -0.0032136983
000030 da 3f 15 bc 95 43 38 ba a5 6e 3d bc a1 fb 7c bb
       -0.009109462 -0.00070291135 -0.011562024 -0.003860213
000040 3f 53 85 bb ff b3 5c bc 64 8d e2 bb 7c 85 18 bb
       -0.0040687616 -0.013470649 -0.0069138277 -0.0023272922
000050 6d f3 63 bc 89 d9 97 bb 1b cc b7 bb 6d 77 cf bb
       -0.013913018 -0.0046340865 -0.005609048 -0.0063313753
000060 7b 40 60 bb 8f 8e bb 39 1b 71 7f bc 2d 0a 3b 3c
       -0.003421812 0.00035773634 -0.015590931 0.011416
000070 2a b1 0f 3c a2 02 33 bb 18 70 1c 3b a1 18 24 3a
       0.008770267 -0.0027314802 0.0023870524 0.00062597735
000080 6c ee 10 bc f7 bc bf 39 d8 c5 0c 3b 09 91 ea bb
       -0.008845907 0.0003657115 0.0021480229 -0.007158403
000090 2c f7 e3 ba bb 75 4f bc c0 7a 3c bc 02 cd 26 bc
       -0.0017392389 -0.0126623465 -0.011503875 -0.010180714
0000a0 55 b9 9a ba 23 19 2e 37 54 8f be 3a 44 d9 84 3b
       -0.0011804501 1.0377061e-05 0.0014538565 0.0040542204
0000b0 22 64 87 bb c2 50 ae 3b 39 f4 dc 39 55 0b a2 bb
       -0.00413181 0.0053196857 0.0004214363 -0.0049451985
0000c0 e2 35 86 bb d5 25 b1 3b 67 4a ae 3b a6 2e 0b bc
       -0.004095779 0.0054061213 0.005318928 -0.008495009
0000d0 45 6a 23 bc 65 56 49 3b c3 d1 35 38 13 12 fe bb
       -0.009974067 0.0030721661 4.334912e-05 -0.0077536195
0000e0 96 e7 a2 3b 06 b2 35 bb 06 84 03 bc b6 14 2c bc
       0.004971455 -0.0027724518 -0.008027082 -0.010502985
0000f0 1d db d6 bb b4 3b 3e bb b2 8a 09 bc 69 fb 28 bb
       -0.006556882 -0.0029027285 -0.008394884 -0.0025784618

baseModel.1.running_mean f4 [64]
000000 4d 46 b5 be 4c 91 8c be 37 65 4f be 79 c3 1a be
       -0.35405198 -0.27454603 -0.20253454 -0.1511363
000010 b9 91 6d bd 34 c0 8a 3e 86 88 78 bc cf 25 86 3d
       -0.0580003 0.27099764 -0.0151692685 0.0655018
000020 be 95 83 3b 3d a8 7d be 10 28 38 be d9 14 df bd
       0.0040156534 -0.24771209 -0.17984033 -0.10892648
000030 75 c0 32 3e 69 e6 01 3c 86 35 c1 bd b3 17 83 be
       0.17456229 0.007928469 -0.09434037 -0.2560402
000040 56 8f d9 bc 04 fa 15 39 1f 82 1c 3e 35 0b 4b 3e
       -0.026557606 0.00014302885 0.15284012 0.19828494
000050 73 34 21 3c 16 66 28 be a9 41 74 be 25 88 35 be
       0.009839165 -0.16445193 -0.23853172 -0.17727716
000060 7f ea 8e 3c 9b e9 9a 3d fd 6b 18 bc c3 2e b4 3e
       0.0174458 0.07564088 -0.00930309 0.35191926
000070 9c d1 a2 3e 98 c4 39 39 17 8e 9a be b2 07 aa be
       0.31800544 0.00017716212 -0.3018653 -0.33208996
000080 bc 56 3a 3d 48 0e b5 3e 8e 8e f3 bb fd 72 b6 3e
       0.045492873 0.35362458 -0.0074327653 0.35634604
000090 c4 13 a1 be 7b c4 87 39 ae eb 2d 3e 68 40 e9 3d
       -0.31460392 0.00025895596 0.16984436 0.11389238
0000a0 ff a6 08 3e 36 c2 8b 3e 65 58 af 3c 3a a3 63 be
       0.13344954 0.2729661 0.021404454 -0.22230235
0000b0 59 e2 e0 3c c7 04 50 3d 4d 93 0d be 2b cb a8 be
       0.027451681 0.050785806 -0.13825722 -0.32967505
0000c0 25 b4 b6 bc 2b e7 aa bd dd 19 cc bd 33 70 4d 3e
       -0.022302696 -0.08344873 -0.099658705 0.20062332
0000d0 de 6d 32 be f5 33 3e 3e 01 96 87 be f7 b3 73 3e
       -0.17424724 0.18574508 -0.2648163 0.2379912
0000e0 1a 35 1d 3e 09 28 31 bd 31 c9 ef 3a f4 4e 8f 3d
       0.15352288 -0.04325107 0.0018294213 0.06997481
0000f0 e1 8d 9c be a6 e3 18 be 9b 22 99 39 91 67 20 3e
       -0.30576995 -0.14930591 0.00029208217 0.15664507

baseModel.1.running_var f4 [64]
000000 75 31 5e 37 31 8a a0 36 f6 9f a2 36 27 ec ed 36
       1.3243746e-05 4.784459e-06 4.846598e-06 7.090642e-06
000010 fd b9 78 37 44 50 6f 37 e3 f5 20 36 08 49 3c 37
       1.4825256e-05 1.4264198e-05 2.3984983e-06 1.1222677e-05
000020 6b f5 7b 37 d4 dc c5 36 5b 53 c1 36 ac 3a 36 37
       1.5017907e-05 5.8967653e-06 5.761552e-06 1.0861706e-05
000030 0c f0 96 37 3c a8 09 37 c7 ef b9 36 61 4e 92 37
       1.7993174e-05 8.205006e-06 5.5413434e-06 1.7441054e-05
000040 19 42 32 37 9a 11 95 37 d2 95 21 37 df 46 51 37
       1.0625016e-05 1.777038e-05 9.631231e-06 1.2473872e-05
000050 21 18 21 37 6f 5c 81 37 85 dc a4 37 75 d7 aa 37
       9.601966e-06 1.5421041e-05 1.965301e-05 2.036591e-05
000060 39 cc 91 37 b3 6c 3c 37 9a c3 41 37 da ed 06 37
       1.7380446e-05 1.1230982e-05 1.15492385e-05 8.0424015e-06
000070 e4 dc 4b 37 75 68 19 37 39 bf 5e 37 4b 5f e9 36
       1.2151173e-05 9.143831e-06 1.3276754e-05 6.9550347e-06
000080 bd e8 3a 36 4b d0 cb 36 c7 a2 72 37 ce bb 17 37
       2.7851631e-06 6.07412e-06 1.4462224e-05 9.044028e-06
000090 fb 17 d1 37 22 a9 80 36 f8 01 57 37 b6 6b 3f 37
       2.4925908e-05 3.834387e-06 1.2815457e-05 1.1409566e-05
0000a0 29 fd 7f 37 a0 62 93 37 d9 57 0c 37 20 3d e0 37
       1.5258128e-05 1.7569691e-05 8.365104e-06 2.6731344e-05
0000b0 f6 59 44 37 04 62 16 37 2e ed 71 36 70 79 97 37
       1.1703456e-05 8.963518e-06 3.6049855e-06 1.8057151e-05
0000c0 06 61 4e 37 c2 bf c8 36 1b 7a 2c 36 14 39 23 37
       1.2301147e-05 5.982788e-06 2.5701072e-06 9.728847e-06
0000d0 e2 4b 5c 37 6a a4 bb 37 f8 ba b7 36 2b 57 20 37
       1.313069e-05 2.2368698e-05 5.475591e-06 9.5570385e-06
0000e0 bf f3 ac 37 9c ef 21 37 d7 3f 59 37 a0 02 39 37
       2.0617501e-05 9.652136e-06 1.2949072e-05 1.10274705e-05
0000f0 4f 75 a2 37 4b 76 57 37 90 26 24 37 17 64 41 37
       1.9366531e-05 1.2842541e-05 9.78414e-06 1.1527e-05

baseModel.4.weight f4 [64, 64, 3]
000000 90 61 ce bc 5a a4 38 bc c8 dd d0 bb 01 96 24 bc
       -0.025193006 -0.011269653 -0.0063740946 -0.010045529
000010 00 9d 6f 3c 69 42 dd bc 2b de 8d bd cd 8a f7 bc
       0.014624834 -0.027009206 -0.06927141 -0.030217553
000020 c4 20 8a bb 05 a1 71 ba 5a 2e 60 3d 96 b7 8f bd
       -0.0042153317 -0.0009217414 0.054731704 -0.07017438
000030 c0 6f 66 bd d4 51 02 3d 7a 5b 9e bb 30 c8 82 3b
       -0.056258917 0.03181632 -0.004832682 0.0039911494
000040 cd 58 4a bc bb bf fa 3a 17 bc 8f 3d c5 af 29 bd
       -0.012350273 0.0019130626 0.07018297 -0.041427393
000050 eb c4 8b bd fe ae 59 bd 8c 25 2d bc 1f a7 df bb
       -0.068246685 -0.0531454 -0.010568034 -0.0068253423
000060 b2 ff 12 ba a7 f6 59 3d 4f ef f6 bc 5e 12 83 3d
       -0.00056075596 0.05321374 -0.030143408 0.06399988
000070 c4 0e 43 bd 15 f2 7c 3d 5c 2a 38 bd 5c 76 a1 b9
       -0.047621503 0.061754305 -0.044962272 -0.00030796498
000080 e1 2b 45 bd 34 01 8c 3d 22 cc 2f bc 15 11 69 3d
       -0.04813755 0.06836167 -0.010729821 0.056901056
000090 de ac 2f 3c 74 e2 0e 3d e1 75 1e bd 74 a1 71 3d
       0.010722367 0.03488393 -0.038686637 0.058991864
0000a0 60 e0 ba 3c 50 b8 d9 3c 1d d9 d1 bc ba 66 ae bc
       0.022812068 0.026577145 -0.025616223 -0.021289218
0000b0 8c 1f 13 3d 54 ff 30 3d 04 d6 6c 3d 17 21 5b 3d
       0.035918757 0.04321225 0.05782129 0.053498354
0000c0 6f 27 47 bc a3 83 58 3d bd 2f 48 bd 31 79 80 3d
       -0.012155398 0.052859914 -0.04887365 0.062731154
0000d0 58 94 08 3d 72 2f 10 3d 8d 92 87 3c 9e e5 18 bd
       0.033344597 0.035201497 0.016549373 -0.037328355
0000e0 fc a5 8f bd 2c a2 0d 3d 64 35 de bc a2 91 8e bb
       -0.07014081 0.034578487 -0.027125068 -0.004350857
0000f0 0e c3 ea 3c 96 24 04 3d f2 33 8f 3d 12 73 60 bd
       0.028657462 0.032261454 0.0699233 -0.05479724
000100 f3 a4 91 3d 86 6d 76 bd 23 0c c5 bc b3 bd 26 bb
       0.0711154 -0.060163043 -0.024053639 -0.002544266
000110 ce 3a 0d 3d 73 44 42 bc 4c be 65 3d 34 31 bf bc
       0.03447991 -0.01185714 0.056089684 -0.023338892
000120 9f a1 72 3d 7b b7 dd 3c 06 35 75 3d 87 4f 28 3d
       0.059236165 0.02706503 0.05986502 0.04109147
000130 d0 21 39 bd 77 1f 57 3d fa 7b 67 3d 5f db 26 3c
       -0.04519826 0.05252024 0.056514718 0.010184138
000140 4e 8e 71 bb 42 50 2e bd 0b cc fd 3c e5 35 1e 3d
       -0.0036858502 -0.04255701 0.030981084 0.038625617
000150 e9 df 8a bd 93 4e 83 3d b4 79 ff 3c 2c d2 89 ba
       -0.06780989 0.06411471 0.031185962 -0.0010514907
000160 7e 83 51 3d a7 79 ff bc 1a a5 a1 3d 13 8e dd bc
       0.05115079 -0.031185938 0.07892819 -0.027045285
000170 b9 f5 1c bd 28 43 52 3d bf be 65 bd 1e 0a 8c 3c
       -0.038320277 0.051333576 -0.056090113 0.017094668
000180 64 d0 7c bd 4c a6 22 3d cb 1b 18 bd 95 d1 58 bd
       -0.061722174 0.039709374 -0.03713588 -0.052934248
000190 05 98 86 bd a5 c8 2b bc 9d 27 4b bc 8f 4e 3a bd
       -0.06571964 -0.010484849 -0.012399581 -0.045485076
0001a0 65 12 5a bc 0c 51 55 bc 28 5e 2c 3c 6b 5f 5e bd
       -0.01331005 -0.013019811 0.0105204955 -0.054290216
0001b0 e0 80 c7 bb 62 9d 82 bc 82 50 40 bd 0f e9 83 3c
       -0.006088361 -0.015944187 -0.04695178 0.016102342
0001c0 20 ad 82 3d 50 62 35 3d c4 0d 0f 3d 46 e4 18 3d
       0.06380677 0.04428321 0.034925237 0.037327074
0001d0 1c 5a fb 3c d7 60 49 3d 3b 8f 5b bd 18 22 75 3d
       0.030682616 0.04916462 -0.053603392 0.059846967
0001e0 2e ac 73 3d 90 64 03 bd ef 0c 75 bc c0 26 f0 3c
       0.059490375 -0.032078326 -0.014956697 0.029315352
0001f0 02 d0 41 3d 0a 80 28 3d 06 e4 12 3d d3 39 84 3d
       0.047317512 0.041137733 0.03586199 0.064563416
000200 a9 9f dc bb 50 c8 d1 3c a2 8b 78 3d 3c 9a f4 b9
       -0.0067329 0.025608212 0.06068004 -0.0004665422
000210 a2 11 38 bd 78 0b 5a 3d e7 25 04 3d 7a 28 5f 3d
       -0.04493869 0.053233594 0.03226271 0.05448196
000220 85 12 a8 bc be 03 7f 3d 9c c7 94 3d 9b fe d9 bc
       -0.020516643 0.06225943 0.07264635 -0.026610663
000230 81 6e 21 bd d8 f2 57 bc 3d 24 3c 3d 19 24 3b bd
       -0.039412025 -0.013180457 0.045932997 -0.045688722
000240 d2 b3 4e 3d eb 73 64 bc 6b 15 7c bd bd 57 21 3c
       0.05046446 -0.013943653 -0.061543863 0.009847579
000250 b4 66 36 3d 09 fe 66 bd a1 f1 79 bd 38 95 89 bc
       0.04453154 -0.05639461 -0.06102145 -0.016794786
000260 f8 2e 00 bc 97 ff 40 bd f4 36 0c bd a3 75 51 bd
       -0.007823698 -0.04711875 -0.034232095 -0.051137578
000270 7c 66 0b 3c aa 82 3f bd bb f2 52 bb 70 33 48 3d
       0.008508321 -0.04675547 -0.0032188136 0.04887718
000280 c5 d9 7b bd 33 65 91 bd 30 05 64 bd e5 03 94 bb
       -0.061486978 -0.0709938 -0.05566901 -0.004517066
000290 6c 8b 46 bd c1 e4 2d bd 1b 54 94 bd ad 7f 57 3d
       -0.048472807 -0.042454485 -0.07242604 0.052611995
0002a0 1f 76 7d 3d 14 46 4c bd 2d 7f 6c 3d be 41 b2 3c
       0.061880227 -0.04987152 0.05773847 0.021759864
0002b0 16 bb ed bc 9e ef df bc f4 5f 49 bd d0 c4 79 3d
       -0.029019874 -0.027335938 -0.049163774 0.06097871
0002c0 6e 38 2c 3d 1e d9 d3 bc 47 33 a6 3a d3 64 f0 bc
       0.042046003 -0.025860365 0.0012680077 -0.029344952
0002d0 61 3b 06 bd 68 21 2c 3a c5 31 f1 bc 19 c9 28 3d
       -0.032771472 0.0006566257 -0.029442677 0.041207407
0002e0 b9 ee c9 3c 5a d4 15 3d f9 06 94 bd 79 5d 46 bd
       0.024649965 0.036579467 -0.072278924 -0.048428986
0002f0 72 df 53 bd e6 2f 0f bd dd e0 bc bc 0b 92 1c bb
       -0.051726766 -0.03495779 -0.023056442 -0.002389076
000300 d1 21 1a bd 0c cc 76 bd f7 c8 0b 3d 7b e2 0e bd
       -0.037629906 -0.060253188 0.034127202 -0.034883957
000310 43 a2 45 3d 44 a0 ef bc 1e c3 a1 3c 17 7d 8f 3c
       0.048250448 -0.029251225 0.01974636 0.017515702
000320 e6 66 3c bc f2 ea 57 3d 7f 20 c0 bb 00 9b 27 3d
       -0.011499142 0.052714296 -0.005863249 0.040919304
000330 0b 85 38 3d 7d d8 3a bd ef 61 47 bd 72 5d a0 3c
       0.045048755 -0.045616616 -0.04867738 0.019575808
000340 d5 1d 8a 3c cc d8 82 3d c1 04 45 3d 4f d0 25 3d
       0.016859928 0.06389007 0.048100237 0.04048186
000350 02 0f 53 3d d4 8d af 39 b8 00 8c 3c 36 22 20 3d
       0.051527984 0.0003348427 0.017090186 0.039095126
000360 d8 d1 ab 3c eb 32 c9 bc d0 4a 23 bc 5f f3 ad 3c
       0.020974085 -0.024560412 -0.009966567 0.021234212
000370 64 48 37 bd a1 d1 88 bd cf 33 49 bd 7c 91 4f 3d
       -0.04474677 -0.066806085 -0.049121674 0.050675854
000380 d1 66 95 3c 58 f7 91 3c d3 4b 26 bd db 52 41 3a
       0.018237503 0.017818138 -0.040599655 0.0007374712
000390 a4 ba 06 3d 86 ce 19 bd 76 f2 87 bd f4 81 4a bd
       0.032892838 -0.03755047 -0.06638043 -0.04944034
0003a0 f5 20 8e bc 60 a7 30 bd ba 0b 56 3d a0 e4 1c 3d
       -0.0173497 -0.04312837 0.052257277 0.03830397
0003b0 2f c6 2c bd b4 23 b0 bc c2 a8 63 bb db ce 2b bd
       -0.04218119 -0.0215014 -0.0034738039 -0.04194532
0003c0 0f e2 6e 3d be ae 71 bc 1d 19 e0 bc 98 09 28 3d
       0.058321055 -0.014751134 -0.027355725 0.041024774
0003d0 f2 e6 8c 3d 10 08 85 bb 00 f1 cf 3c b4 4c 83 3d
       0.06879987 -0.004059799 0.025383472 0.06411114
0003e0 9c 65 34 3b 34 2c 84 3d ed b4 1a bd 9e b4 92 bd
       0.0027526384 0.064537436 -0.0377702 -0.07163356
0003f0 a4 f6 22 3d 7a 69 03 bd bf 5d f1 3c 21 95 12 3d
       0.039785996 -0.032083012 0.029463647 0.03578675

baseModel.4.bias f4 [64]
000000 e0 d6 a3 3c 96 68 44 3c 6f a4 12 3d 94 9e be bc
       0.019999921 0.011987826 0.035801347 -0.023268975
000010 8b fc 0d 3d 1e f1 0e 36 2b 39 10 bd 52 b3 b8 3c
       0.034664672 2.1299998e-06 -0.03521077 0.022546444
000020 52 92 0e bb f4 f9 04 ba 2e 5b d8 bc d8 37 04 3d
       -0.0021754694 -0.00050726463 -0.026410665 0.03227982
000030 bd 2e 55 bc e4 a3 41 b9 a6 ab 8e 34 a2 a5 4b bc
       -0.013011632 -0.00018466968 2.6574452e-07 -0.012429627
000040 5c 53 16 bd 3f 91 4c b6 01 43 22 b9 8a 34 b6 3b
       -0.03670059 -3.0482913e-06 -0.00015474485 0.0055604624
000050 61 4a 03 3d 40 ee da 36 bf fe 0f 3d 05 50 0b 3d
       0.032053355 6.5246422e-06 0.035155054 0.03401186
000060 ab a1 0c 3d 61 c3 10 bd 9f 6e b5 b9 f1 51 9e 3b
       0.034333866 -0.035342578 -0.0003460543 0.0048315455
000070 2c a8 9d 3c 4f 7c 04 3b 05 7c c1 35 1f d4 e6 3b
       0.01924523 0.0020215695 1.4415715e-06 0.00704433
000080 ed 15 9f b6 db b2 e9 3b c0 dd d7 bc fc 27 28 39
       -4.7411218e-06 0.007131917 -0.026350856 0.00016036624
000090 38 e8 6d 3c bc 36 f8 bb 73 08 7b 3c 3c d2 9c 3c
       0.014520697 -0.007574884 0.015321839 0.019143216
0000a0 7c 38 0a 38 2b c6 97 b6 36 dc 3b bb 2d 9b 7c 35
       3.295437e-05 -4.5232205e-06 -0.0028665191 9.4103126e-07
0000b0 64 ce 28 bb c8 63 b4 bc c0 71 3d bb c8 e7 9c 3b
       -0.0025757784 -0.022020236 -0.0028906912 0.0047883727
0000c0 df 12 13 3d a1 25 80 38 ad 3e ae 36 72 17 e4 3c
       0.03590667 6.1105246e-05 5.1929005e-06 0.02784321
0000d0 d7 64 0e 3d ec aa a7 ba 02 d5 a2 36 e3 df f9 3c
       0.034764137 -0.0012792028 4.8527736e-06 0.030502265
0000e0 16 db d2 b6 a2 f5 01 36 31 5c 06 3c 1c 74 00 3b
       -6.2839927e-06 1.9365475e-06 0.008200691 0.0019600457
0000f0 cf 0c 02 bc 74 53 42 bb 35 15 10 bd 1a 77 32 bb
       -0.007937624 -0.0029651793 -0.035176475 -0.0027231635

baseModel.5.weight f4 [64]
000000 54 12 7f 3f 1d 4e 7c 3f a9 2f 7d 3f 13 21 80 3f
       0.9963734 0.9855669 0.9890085 1.0010093
000010 a8 4c 80 3f da ef 7f 3f 02 6a 7f 3f a5 99 7d 3f
       1.0023394 0.9997536 0.9977113 0.9906257
000020 7f 41 7e 3f c8 63 7e 3f 17 f7 7c 3f 5d 5b 7c 3f
       0.9931869 0.99371004 0.9881453 0.9857691
000030 b9 22 7e 3f d2 69 7d 3f 84 0f 7e 3f 38 77 7d 3f
       0.9927173 0.98989594 0.99242425 0.9901004
000040 8e 4b 7c 3f bd a4 7c 3f a5 4f 7d 3f 47 3a 7e 3f
       0.9855279 0.9868887 0.9894965 0.99307674
000050 11 0f 7f 3f 58 9b 7f 3f d5 5f 7c 3f 80 06 7f 3f
       0.99632365 0.9984641 0.9858373 0.99619293
000060 65 cc 80 3f 3a 4d 7b 3f 32 f5 7a 3f a4 76 7b 3f
       1.0062376 0.98164713 0.9803039 0.98227906
000070 64 41 7d 3f 4a 5b 80 3f 53 24 80 3f fa e0 7d 3f
       0.98927903 1.0027859 1.0011085 0.9917141
000080 07 b1 7b 3f 4c 33 80 3f 67 1e 7c 3f 2c 32 7c 3f
       0.98317 1.0015655 0.9848389 0.98514056
000090 95 8b 7d 3f c2 16 7d 3f 4e 54 7e 3f cf 7f 7e 3f
       0.9904111 0.9886285 0.9934739 0.9941377
0000a0 5e b1 7c 3f 59 76 7f 3f dc 60 7d 3f 25 b1 7f 3f
       0.9870814 0.9978996 0.9897592 0.99879676
0000b0 c5 bb 7f 3f 10 26 7c 3f 5b 4b 7e 3f 98 a9 80 3f
       0.9989589 0.9849558 0.99333733 1.0051756
0000c0 df 49 80 3f ab 3f 7e 3f 83 df 7e 3f b8 1f 7c 3f
       1.0022544 0.993159 0.995598 0.984859
0000d0 b7 fe 7c 3f bc 08 80 3f 6f d4 81 3f 90 3e 7b 3f
       0.98826164 1.0002666 1.0142955 0.9814234
0000e0 c7 5b 7c 3f 2a 43 80 3f 57 27 7e 3f 28 b4 7e 3f
       0.9857754 1.0020497 0.9927878 0.99493647
0000f0 da a8 7e 3f a1 46 7b 3f 6d a1 7f 3f 7e 31 7c 3f
       0.994764 0.98154646 0.9985569 0.9851302

baseModel.5.bias f4 [64]
000000 27 f5 36 3c 6e 04 e5 3b 8e 55 6b 3b 78 f5 f5 3b
       0.011166847 0.0069890535 0.003590915 0.007506069
000010 71 3a b8 39 31 cb af 3b 48 28 56 3b 97 d6 50 bb
       0.00035138757 0.0053647985 0.0032677818 -0.0031866187
000020 cc 38 d7 3b 5c b9 82 3b 10 f7 d7 bb 1e a9 ec bb
       0.00656805 0.0039893817 -0.0065907314 -0.007222309
000030 d6 40 01 3a e4 f1 0b 3b 96 34 3a bb e6 6c af 3a
       0.0004930621 0.0021353895 -0.0028412691 0.0013383895
000040 22 9e 83 bb c7 db 9c bb dd e7 a0 3b ae 9c 20 bc
       -0.0040166536 -0.0047869417 0.0049104528 -0.00980298
000050 ed 19 c1 38 47 ae af 3a 04 6a 76 bb ed d8 8b 3b
       9.207786e-05 0.0013403379 -0.0037599811 0.004267803
000060 d3 36 ca 3b ee 0e c6 bb 99 bd f9 bb e9 90 6f bb
       0.0061710863 -0.00604426 -0.0076214788 -0.003655488
000070 de 6a eb ba f5 4f 81 3b d5 2f e8 3a 21 b3 e0 bb
       -0.0017960926 0.003946299 0.001771445 -0.0068572913
000080 fe a7 18 bc 65 d4 97 bb ce d2 1d 3a e0 20 2b bc
       -0.009317396 -0.0046334737 0.0006020487 -0.01044485
000090 07 03 6d 3b 35 d6 f7 3a 26 2f 4a 3b da 3f f8 3b
       0.0036165135 0.0018908443 0.0030850857 0.007575971
0000a0 86 77 d4 bb 8f 59 df 3b 3b f9 48 bb 58 49 ee bb
       -0.006483975 0.006816096 -0.003066613 -0.007271927
0000b0 36 5c 51 3b a0 35 d5 bb da 0d 68 3b 62 57 a0 3c
       0.003194583 -0.0065066367 0.0035408647 0.019572917
0000c0 34 50 b7 3c 10 a5 98 3b 0c fe f7 bb d2 fe ad bb
       0.022377111 0.004658349 -0.0075681265 -0.005309918
0000d0 58 5a 20 bb 8e 1d 1d 3c fd e6 7b 3c 5f 25 2c bc
       -0.0024467912 0.009589566 0.015374896 -0.010506957
0000e0 14 57 2c bb 49 bd 8b 3b bd 99 b6 b9 90 9b cf bb
       -0.002629702 0.004264508 -0.0003482829 -0.006335683
0000f0 66 93 0c bb 97 60 bc bb d9 87 ef ba d5 be da 3a
       -0.002145016 -0.005748819 -0.0018274739 0.0016688952

baseModel.5.running_mean f4 [64]
000000 2f 7d 21 3e 4f e7 9d bd 80 24 dc 3e 33 75 81 bb
       0.1577041 -0.07710134 0.42996597 -0.003950739
000010 6a 73 33 3d 4c 40 4f 3e d9 26 ac 3b 29 e7 d9 3d
       0.04381124 0.20239371 0.0052536544 0.106397934
000020 dc bc 12 3f b4 d4 b1 3e 45 89 af 3d dc 23 5d be
       0.57319427 0.34732592 0.08571104 -0.2159571
000030 50 58 ac bc fd 4e f6 3d fe 60 4e bd a6 56 28 be
       -0.021038204 0.120267846 -0.050385468 -0.16439304
000040 ff 68 55 3b 25 d4 c9 3e e9 72 fb be 93 4f 0e 3e
       0.0032563803 0.39419666 -0.49111107 0.13897543
000050 8b f7 38 be 7e d4 96 3e 02 74 83 3e c4 d5 a4 3e
       -0.1806318 0.29458994 0.25674444 0.3219434
000060 77 e7 87 bc ef f1 af 3e d5 b6 bc 3d 8b 1c 28 be
       -0.016589863 0.34364268 0.0921456 -0.16417138
000070 f8 08 4a 3e 04 fc d4 bd 01 57 7f be bf 47 14 bd
       0.19729984 -0.10399631 -0.24935533 -0.036201235
000080 1f b8 d2 bd 3a ab 12 3e ed 37 2e 3e 9c c8 15 3e
       -0.102890246 0.1432313 0.17013521 0.14627308
000090 99 3a ad be f2 e6 e7 bd ed 37 a2 3e dc 81 1d bf
       -0.3383377 -0.11323346 0.31683293 -0.61526275
0000a0 b9 3d b1 3c c1 29 2f 3d 69 7c ab 3b 5a 38 8c 3e
       0.021635877 0.04276443 0.0052333367 0.27386743
0000b0 9c 84 a9 be f3 0d a9 bd 92 2d 87 3e e5 06 ea bd
       -0.33108985 -0.08254614 0.26401955 -0.11427096
0000c0 a3 a8 1a 3e f1 39 cf bd cc 38 0c be b0 f5 e3 3d
       0.15103392 -0.10118473 -0.13693541 0.111308455
0000d0 7d 0d ce be 0a da d6 3c af 96 33 3d 37 31 42 3c
       -0.40244666 0.026227016 0.043844875 0.011852554
0000e0 bb 22 56 be e2 b9 9a be f1 39 53 3e 16 ac 3d 3e
       -0.20911686 -0.30219942 0.20627572 0.18522677
0000f0 78 8b c2 be a9 15 35 bd bf a4 c9 3d 36 e1 34 3e
       -0.3799703 -0.04421011 0.09845876 0.17664036

baseModel.5.running_var f4 [64]
000000 f9 6f 5d 3d 1e a2 21 3d 12 90 57 3d 26 c7 51 3d
       0.054061864 0.039461248 0.05262763 0.051215313
000010 90 06 bf 3d 8c 05 a4 3d 17 89 98 3d 10 37 dc 3d
       0.093274236 0.080088705 0.07448023 0.1075269
000020 fa 99 88 3d 96 6d 3e 3d 1b 2f 32 3d fd 94 0e 3e
       0.06669994 0.046491228 0.043501955 0.13924022
000030 5e 54 3b 3d 0b 8b 6b 3d 01 39 02 3e 9b 94 b6 3d
       0.045734756 0.05750565 0.12717058 0.08915063
000040 48 b4 0f 3e c4 65 4f 3d 80 66 c7 3d 91 0c 69 3d
       0.14033616 0.05063416 0.09736347 0.05689675
000050 4b 2a a1 3d d2 f8 ca 3d a7 c1 6e 3d 70 17 53 3d
       0.07869395 0.0991074 0.05829015 0.051536024
000060 06 ae 39 3d 54 b7 a6 3d 4b 41 6e 3d f4 7c 9d 3d
       0.045331977 0.08140436 0.058167737 0.076898485
000070 bf 7a 90 3d e6 3a ea 3d ce e8 9b 3d 0e 58 8b 3d
       0.07054662 0.11437015 0.07612763 0.068039045
000080 6a e7 f3 3d a0 57 3e 3d 03 a1 42 3d 8c 83 94 3d
       0.11909373 0.046470284 0.047516834 0.07251653
000090 24 f1 66 3d 2e 14 b0 3d 41 16 f4 3d 9e 76 cf 3d
       0.056382313 0.08597599 0.11918307 0.10130046
0000a0 40 31 df 3d 3c a1 c9 3d fe eb ce 3d 76 e8 ce 3d
       0.108980656 0.09845206 0.10103606 0.10102932
0000b0 6e 1d bb 3d eb 96 ae 3d 30 08 8f 3d ee 81 1d 3d
       0.09136473 0.08524879 0.069839835 0.03845399
0000c0 58 d4 fb 3d 1c ff 34 3d 89 c3 55 3d 4b a2 99 3d
       0.12296361 0.044188604 0.05218843 0.07501658
0000d0 0e 52 e2 3d 06 26 b7 3d 85 22 8e 3d 4e bb 09 3d
       0.11050807 0.08942799 0.06940178 0.033625893
0000e0 65 06 b9 3d 41 71 ec 3d d4 28 a8 3d f8 0a 84 3d
       0.09034423 0.11545039 0.08210912 0.064474046
0000f0 30 56 db 3d 50 18 3d 3d cc cc bf 3d 04 e6 ad 3d
       0.10709798 0.046165764 0.09365234 0.084911376

baseModel.8.weight f4 [64, 64, 3]
000000 7a d2 7d 3d 53 aa 66 bc c8 7b 01 bd d5 a1 10 bd
       0.061968304 -0.014078694 -0.031612188 -0.035310585
000010 78 76 8e bd 9a 68 7b bd be 08 56 bd f6 9b 7f 3d
       -0.0695619 -0.061379053 -0.05225443 0.062404595
000020 3f 4e 36 bd 1f ee b1 bb ed d4 b9 3b 75 cc 8b 3c
       -0.044508215 -0.0054299976 0.0056711347 0.017065266
000030 a3 66 21 bd 5b 4e 71 bc 12 53 d6 3b c5 6f 2e bd
       -0.039404523 -0.014728154 0.0065406645 -0.04258706
000040 b2 ce 53 bd 1e a3 4e bd 5d e8 bb bc f1 0c 16 3d
       -0.051710792 -0.05044853 -0.022937948 0.036633436
000050 fb f5 9e 3c ab b6 b9 3b b3 92 13 bd 02 2f 03 3d
       0.019404402 0.0056675277 -0.036028575 0.032027252
000060 10 ee 8d bd 96 75 8f 3a d3 6f 74 3d a3 a2 8d 3d
       -0.069301724 0.0010945078 0.059676956 0.06915786
000070 18 00 03 3d 6f 14 87 3d 49 f5 65 3d e0 eb f5 3b
       0.03198251 0.06595694 0.056142125 0.007504925
000080 9d 8d 52 bd 14 7a c8 bc f2 e1 57 bd d1 01 6b bd
       -0.051404584 -0.024472274 -0.052705713 -0.05737478
000090 14 dc 0c 3c f3 a4 0d bc 74 6c 82 bd 2c 73 f6 3c
       0.008597393 -0.008645284 -0.06368342 0.030084215
0000a0 dc 36 ba 3c e4 d8 34 3d cd b0 eb 3c 1e 5d d6 bc
       0.022731237 0.044152156 0.028770829 -0.026167449
0000b0 2d 48 df bb 8e fd 7c bd 9e 71 8f bd a8 1c 83 bd
       -0.006814024 -0.061765246 -0.07004093 -0.0640195
0000c0 39 5b 28 3d d9 79 4e bd 0f a3 14 3d 58 57 a6 bc
       0.04110262 -0.05040917 0.036288317 -0.02030532
0000d0 d4 0f 54 3d f8 9c f6 3b b4 27 72 3d 0f c8 29 3d
       0.051772907 0.0075260364 0.059119895 0.041450556
0000e0 32 2c a2 3c 5a 44 88 bd 75 19 85 3d d5 96 62 3d
       0.019796465 -0.06653662 0.06498996 0.055319626
0000f0 fd 0a 8b bd 2e 84 49 bd 7d 87 c8 3c b0 90 c8 bc
       -0.06789205 -0.049198322 0.024478668 -0.024483055
000100 7a 08 91 3c 0b 05 65 3c f3 56 c5 3c 56 28 37 3d
       0.017704237 0.013978253 0.024089312 0.0447162
000110 3d 35 fd bc 07 3e 27 3d 15 2e 54 3d 61 2a 40 3d
       -0.030909175 0.04083064 0.05180176 0.046915416
000120 6f f7 98 bc 26 77 0f bd e6 32 f7 bc 10 51 31 bd
       -0.018672673 -0.03502574 -0.030175637 -0.043290198
000130 63 db 35 3d e1 03 63 3b d9 5a 1f 3c 9a 2d c3 3b
       0.044398677 0.0034639763 0.00972625 0.005956364
000140 33 13 3a bd 83 76 dc 3c 48 af 43 3c bd 01 f9 bc
       -0.045428466 0.02691198 0.011943646 -0.030396337
000150 b1 04 31 bd 87 3a 21 bc 33 b8 fc 3c 51 05 3a 3d
       -0.043217365 -0.009840614 0.030849552 0.045415226
000160 f0 f3 59 bd 86 ee 37 bd fe fa 8b 3c 49 28 8e bd
       -0.053211153 -0.044905208 0.017087456 -0.069412775
000170 e9 5b d0 3c e4 44 67 3d 76 b7 85 3c 30 bf 47 3d
       0.025434451 0.056462184 0.016322833 0.048766315
000180 63 be dd 3b 54 a5 95 bb 2a 57 66 3b c2 15 fc bc
       0.0067670806 -0.004566828 0.0035147169 -0.030772094
000190 21 37 47 bd ea 2f 88 3d c2 38 82 bc 8d a7 65 3d
       -0.04863656 0.06649764 -0.015896205 0.056067992
0001a0 31 6b ed bc 32 eb 6a bd da b2 86 bd 0e 73 4b bd
       -0.028981777 -0.057353206 -0.06577082 -0.04967027
0001b0 76 7d d3 3a 2b 06 63 3d fd 00 0d bd 8a 6f 5f 3c
       0.0016135413 0.055425804 -0.03442477 0.013637433
0001c0 3a c7 bd 3c 40 d2 2e 3d 39 2c b4 bc 39 0e 91 bd
       0.023166288 0.04268098 -0.021993743 -0.07082791
0001d0 22 bf 52 bd 48 28 e3 3c dc 9d 0d 3c c2 cf 6d bd
       -0.05145181 0.027729169 0.008643594 -0.05805946
0001e0 dc df 3c 3d f4 bb f6 bc 4f 72 b1 bb 4d bb 16 bd
       0.046111926 -0.03011892 -0.005415238 -0.036799718
0001f0 14 01 f5 3c 73 23 70 bd 58 b2 00 bd 0e 5b 89 bd
       0.02990774 -0.058627557 -0.03142008 -0.067068204
000200 7d a4 63 bd 8f 25 3e bc 8c fc a8 3c 41 a8 76 3c
       -0.05557679 -0.011605634 0.020628236 0.015054763
000210 1b 60 3f bd 54 23 bc bc 33 a7 54 bd 81 bb a1 3c
       -0.046722513 -0.022966065 -0.051917266 0.01974273
000220 ac 8f 8e bc e0 e4 40 3c a0 19 8e 3d 72 03 30 3d
       -0.017402492 0.011773318 0.06938481 0.042972036
000230 41 64 81 3b cf 3c c9 bc a3 b0 6a 3b be f9 0b bb
       0.003948719 -0.024565129 0.003581085 -0.0021358575
000240 67 0d 37 bd 1b c1 00 bd 7e a8 85 bd 2b a8 52 3d
       -0.044690516 -0.03143416 -0.06526278 0.05142991
000250 65 c0 5b 3d 9a 23 c4 3c c9 91 f0 bc a1 3a c3 ba
       0.05365028 0.023942757 -0.02936639 -0.0014894792
000260 7d fd 68 3d a8 a7 97 bd 84 95 5d bd 04 7e 68 3d
       0.05688237 -0.07405025 -0.054097667 0.056760803
000270 07 55 da 3c b4 d9 cf bc 35 71 11 bc b6 c9 6f bd
       0.026651872 -0.025372364 -0.008877088 -0.058541976
000280 a4 43 1a bd c4 5e fa bb 73 06 10 bc 7e 11 1c bd
       -0.037662163 -0.0076406915 -0.0087906 -0.03810262
000290 de 48 b7 bd 01 c6 6d bd 64 94 9f bc 9b 42 37 3c
       -0.08949445 -0.05805016 -0.019479938 0.011185314
0002a0 c7 c8 34 bd 02 24 09 3d d5 af 83 bd 0a f3 78 3c
       -0.04413679 0.033481605 -0.06430022 0.015194664
0002b0 e3 95 40 bd 1a a3 86 bd 3d 7d 6c bc 9b c8 c5 bc
       -0.047017943 -0.06574078 -0.014434156 -0.024143508
0002c0 f8 43 36 3d 7b 5e 66 3d bd 30 6a bd 45 56 5f bb
       0.044498414 0.056242447 -0.057175387 -0.003407852
0002d0 47 6b 6f 3d 50 7c 68 bd a9 36 eb bc 07 b2 4d 3d
       0.058451917 -0.05675918 -0.028712587 0.05021861
0002e0 39 95 c7 bc 60 91 45 3d b7 a4 64 3d 0b 7b 09 bd
       -0.024363147 0.048234344 0.055821147 -0.03356461
0002f0 fe 81 e2 3c 4a c7 11 bb af 97 1b bd 0b 05 f9 3c
       0.027649876 -0.002224403 -0.037986454 0.030397912
000300 a9 71 7e bd b2 84 1a bd b3 47 6e bd dd be 66 3c
       -0.062120114 -0.037724204 -0.058173846 0.014083591
000310 b7 20 6a bc 4e f1 28 bd 56 c7 1d 3d 8e ff 5f 3d
       -0.014290026 -0.04124575 0.03852018 0.054687075
000320 3e 43 0b 3d 37 4b 46 3d 87 7b 28 3d 9a db 84 3d
       0.033999674 0.048411574 0.04113343 0.06487198
000330 57 b5 47 bd da f4 89 3d e7 bd 52 3c 8f 7e 74 bd
       -0.048756924 0.06736155 0.012862659 -0.05969101
000340 87 e4 21 3d b4 64 8e bd 37 5a 4a 3c f6 67 c4 bc
       0.03952458 -0.06952801 0.01235061 -0.023975354
000350 78 ad dc 3c 06 18 77 3d d6 fe 22 3d 8f 12 5b 3d
       0.026938185 0.060325645 0.03979381 0.053484496
000360 09 a4 14 bd f5 9b e9 bc b9 59 09 bd 5d 81 21 3d
       -0.03628925 -0.028516749 -0.03353283 0.03943001
000370 b0 3a 88 3d fc 10 89 bc e4 fb 73 3c 14 7b ab bc
       0.06651819 -0.016731732 0.014891598 -0.020932712
000380 b0 ed d7 bc fa d4 4f 3c 51 86 f6 3c 4a d7 a0 bd
       -0.026358455 0.012685055 0.030093344 -0.07853563
000390 2c 31 e2 3c f6 0d 15 bd 56 a4 92 bd c6 a0 87 bd
       0.027611338 -0.036390267 -0.07160251 -0.06622462
0003a0 ee d4 6e 3d c6 f4 91 bc 79 19 49 bd 60 f1 ec bc
       0.058308534 -0.017816912 -0.04909656 -0.02892369
0003b0 3d cb 4e 3d fd a7 6f bd 48 ec 04 bd 10 00 ff 3c
       0.050486792 -0.058509815 -0.032451898 0.03112796
0003c0 9b e3 8c bd 9d 21 54 bd c4 d6 f8 3c 44 45 59 bd
       -0.0687935 -0.05178987 0.030375846 -0.053044572
0003d0 16 30 5b bc 13 23 95 bd 4e d6 27 3b 95 f1 5d bd
       -0.013378164 -0.072820805 0.0025609913 -0.05418547
0003e0 f4 3b 03 bc dc 5b d8 bc ca 7d 73 3d 3e 51 56 bd
       -0.008009899 -0.02641099 0.059446134 -0.052323572
0003f0 e2 d4 10 bd f4 a3 a0 3c 83 ff 2b 3d ad 50 47 bd
       -0.03535927 0.019609429 0.04199172 -0.048660923

baseModel.8.bias f4 [64]
000000 fc 9c 89 3c 0c 02 04 3d 83 06 b4 bc 90 81 07 bc
       0.016798489 0.032228515 -0.021975761 -0.008270636
000010 23 34 46 bb a9 7d de ba 11 e3 be bc 6d d7 6c 3b
       -0.0030243478 -0.0016974706 -0.023301633 0.0036139146
000020 6e fe 45 3a b1 88 48 3c c8 f0 c1 34 ea d8 1a 3b
       0.00075528666 0.012239621 3.6124243e-07 0.0023627826
000030 de 18 90 bc fa 8c ab 3c f0 c6 68 36 b2 02 f4 b6
       -0.017589983 0.020941246 3.468649e-06 -7.2720804e-06
000040 80 52 64 3c 9d be 4a 3c 36 c4 94 bc 18 f6 37 b4
       0.013935685 0.012374547 -0.018159967 -1.7132732e-07
000050 f7 71 6b 3c bb 56 8b 35 08 e2 ea 3c fd 0e 14 3d
       0.014370433 1.0381549e-06 0.028672233 0.036147106
000060 77 56 0c 3d ff e8 09 39 3e e9 0c bd 5a 0f 14 3c
       0.034262147 0.00013152136 -0.034402125 0.009036863
000070 0c e0 a8 b6 50 69 98 3b 20 4c 22 b6 8a 6b 0d bd
       -5.0328727e-06 0.004651226 -2.4184192e-06 -0.034526385
000080 0b a2 7c 38 6f 86 ea bc 4f 52 a8 3c b9 a7 8b bc
       6.0232396e-05 -0.028628556 0.02054706 -0.01704775
000090 c0 2e 89 3b db a7 76 b6 c0 c3 07 3d a4 49 c5 bc
       0.0041864812 -3.6754561e-06 0.033145666 -0.024082966
0000a0 bb e6 fc bc f9 84 4e bc de 8d 91 3b c6 d4 33 ba
       -0.03087174 -0.012604945 0.0044419607 -0.0006860014
0000b0 42 ea b1 3b 7a 41 02 bb 79 83 44 bc 9c 27 05 3d
       0.005429537 -0.0019875453 -0.011994236 0.032508478
0000c0 de 54 f3 bc b6 19 28 bc a7 ce a8 bc a0 92 25 b5
       -0.029703554 -0.010260036 -0.020606352 -6.168066e-07
0000d0 d3 6f 06 3d 8e b3 35 bc 71 46 0f 3d 08 ac 57 3b
       0.032821488 -0.011090172 0.034979288 0.0032908935
0000e0 0a 20 02 3c 3b 49 d9 39 87 d5 16 bc a4 c7 f8 3c
       0.007942209 0.00041444026 -0.009206182 0.030368634
0000f0 ee b9 1e b5 88 0c 20 b9 bb 05 2f bc 9a 87 86 3c
       -5.913015e-07 -0.00015263457 -0.010682519 0.016422082

baseModel.9.weight f4 [64]
000000 7e 1a 81 3f fc e7 7d 3f 6a d4 7b 3f a2 41 7c 3f
       1.008621 0.99182105 0.98370993 0.9853765
000010 f8 0e 7c 3f 1c 0d 7f 3f e1 b5 7f 3f 4b 0d 7f 3f
       0.9846034 0.9962938 0.998869 0.9962966
000020 8b cf 7c 3f b0 2b 7d 3f d6 7b 7c 3f 87 39 7d 3f
       0.98754185 0.98894787 0.9862646 0.98915905
000030 4a 61 7d 3f c8 dc 7a 3f c4 6a 7e 3f ee f8 7a 3f
       0.98976576 0.97993135 0.9938166 0.98036087
000040 8a 6a 80 3f 9c b2 7e 3f 85 66 7d 3f 2c 30 7d 3f
       1.0032513 0.99491286 0.9898456 0.9890163
000050 63 35 7d 3f d8 4e 80 3f 39 79 7e 3f ef 77 7d 3f
       0.98909587 1.0024061 0.9940372 0.9901113
000060 26 4c 7c 3f f9 52 80 3f 6e c5 7c 3f 8b 4f 7c 3f
       0.98553693 1.0025321 0.98738754 0.9855887
000070 dd 44 7b 3f 3b 80 7e 3f b5 12 7b 3f 01 c3 80 3f
       0.9815195 0.99414414 0.9807542 1.005951
000080 39 c8 7b 3f 7b c2 7c 3f fc df 7d 3f 53 43 7c 3f
       0.9835239 0.98734254 0.991699 0.9854023
000090 05 aa 7a 3f d3 20 7b 3f 2c 30 7f 3f c1 9c 80 3f
       0.9791568 0.9809696 0.9968288 1.0047837
0000a0 cf 87 7d 3f 17 b7 7d 3f fe 4d 7f 3f 88 fe 7c 3f
       0.9903535 0.991075 0.9972838 0.98825884
0000b0 8f c0 7d 3f 86 d3 7d 3f 95 f8 7c 3f 8c 17 80 3f
       0.99121946 0.99150884 0.98816806 1.0007186
0000c0 7d 8d 7e 3f c7 97 80 3f 50 61 7b 3f ec 34 7d 3f
       0.99434644 1.0046319 0.9819536 0.9890888
0000d0 07 3b 80 3f 86 11 7f 3f bc b8 7c 3f 21 c1 7b 3f
       1.0018014 0.99636114 0.9871938 0.98341566
0000e0 b6 21 80 3f 42 9f 7d 3f 6b 8b 7c 3f 62 d3 7b 3f
       1.0010288 0.99071133 0.98650235 0.9836942
0000f0 ba 67 7c 3f be 07 7b 3f b0 c9 7f 3f 15 7d 80 3f
       0.98595774 0.9805869 0.99917126 1.0038172

baseModel.9.bias f4 [64]
000000 05 8d af 3c 84 b4 c9 3a 4d 02 d7 bb 56 0d 6c bb
       0.021429548 0.0015388881 -0.0065615536 -0.003601869
000010 00 d1 0a bc a8 5b 96 ba b9 6c 0d 3c b0 c9 a9 38
       -0.008472681 -0.0011471407 0.0086318785 8.096115e-05
000020 a4 eb 98 bb b1 fd 95 3b 49 b8 23 b9 20 b8 18 3b
       -0.0046667624 0.0045773615 -0.00015613543 0.0023303106
000030 67 58 b2 3a d5 90 18 bc cf cc c8 3a c0 d2 b5 bb
       0.0013606668 -0.009311874 0.0015319827 -0.005548805
000040 0e 08 09 3c 03 76 76 3b 7d a2 6e 3b 74 f3 3b bb
       0.008363737 0.0037606962 0.0036412769 -0.0028679045
000050 4c 6e e1 bb e1 dc 41 b9 dc 50 90 bb 8a a8 d2 3b
       -0.0068796035 -0.00018488198 -0.0044041704 0.006428783
000060 43 e5 51 3a 10 6f 67 bb b0 87 81 3b 58 74 8d ba
       0.000800688 -0.0035314 0.003952943 -0.001079212
000070 0a 6b 0e bc 15 c2 2e 3a 94 30 87 bb d0 67 53 3c
       -0.008692512 0.0006666494 -0.004125664 0.012903169
000080 8b 01 f4 ba 86 ef 8f ba 9c 7b d2 3a 83 86 fc b9
       -0.0018616182 -0.0010981418 0.0016058567 -0.00048165405
000090 68 76 16 bc 5e 70 9e bb 3b f4 f9 3b 0c 49 10 3c
       -0.009183504 -0.0048351726 0.0076279915 0.008806478
0000a0 fb a5 48 bb 90 df 58 3b 26 fe 00 3c 3f 1b 4f 3b
       -0.003061651 0.0033092238 0.007873094 0.0031601933
0000b0 05 25 e7 3b 77 00 0d bb 8f 17 ea 3b 75 7d 84 3b
       0.0070539736 -0.002151517 0.0071439217 0.004043276
0000c0 d4 e6 ba 3b fe d7 98 3c ec 31 23 bb 5b 95 4a bb
       0.0057037864 0.01865768 -0.0024901582 -0.0030911777
0000d0 c0 22 92 3b f6 d7 e5 3b 9b 2e 9a ba 3c c7 cd bb
       0.004459709 0.00701427 -0.0011763157 -0.006279854
0000e0 59 01 50 3c 48 3e 2e 3c a5 20 2c bb 29 d7 c3 b9
       0.012695634 0.010634966 -0.0026264575 -0.00037353605
0000f0 e8 af 31 b9 bd 0d c2 bb b8 f1 14 3c 4d 68 16 3c
       -0.00016945566 -0.005922048 0.009090833 0.009180141

baseModel.9.running_mean f4 [64]
000000 7b 94 3c bf 6d a6 2d bf 4f c0 81 bd f0 cf 71 be
       -0.73664063 -0.6783207 -0.06335508 -0.23614478
000010 32 92 3b 3e 41 e4 f7 bb a1 09 9c 3e 43 93 95 bf
       0.18317488 -0.007565052 0.30476096 -1.1685566
000020 40 a3 d8 be 6d 2e 04 3e 5e 41 a4 be 96 4f 20 3f
       -0.4231205 0.12908335 -0.3208112 0.6262144
000030 32 44 69 bf 32 7c aa be 26 ae 01 be 9e 4b 8d be
       -0.9111968 -0.33297879 -0.12664089 -0.27596754
000040 23 7e 96 3e 02 30 cf 3e 98 7a 6a bf 37 84 3d 3e
       0.2939311 0.40466315 -0.91593313 0.18507467
000050 51 cb ed bd fa 2b de 3e 01 88 cf 3e d2 31 89 3e
       -0.11611045 0.43392926 0.4053345 0.26795822
000060 3d b5 bc 3e 68 d2 19 3e e0 dc 27 3f 1c b5 d9 3e
       0.36857024 0.1502167 0.65571404 0.42520988
000070 3b b6 9b be 7c 02 22 3f de b8 2d 3f 70 2f 3c be
       -0.30412468 0.6328504 0.6786021 -0.18377471
000080 6a ca 44 3f d6 01 10 be 0c f0 9e bf 93 20 91 3e
       0.7687136 -0.140632 -1.2417006 0.28345165
000090 3e 23 2d 3e fa 95 91 be c6 75 70 3e a8 46 05 bf
       0.16907975 -0.28434736 0.23482427 -0.5206094
0000a0 e3 f1 2e be 64 13 cf 3e 23 a2 36 be 11 50 19 bf
       -0.1708446 0.4044448 -0.17835288 -0.59887797
0000b0 74 32 8d be e1 3d 33 bf 43 4c 82 be c7 20 91 be
       -0.27577555 -0.70016295 -0.25448808 -0.2834532
0000c0 e7 9e f1 3e a4 3a 08 be 3f 83 61 3f db f3 06 3f
       0.47191545 -0.1330362 0.8809089 0.52715844
0000d0 ff 71 89 3e c8 86 25 bf aa 18 f4 3d af 0d 4f 3e
       0.26844785 -0.64658785 0.11918767 0.20220064
0000e0 d6 50 08 bc 89 d0 b3 3e 9a 9c bf 3e 60 61 35 3f
       -0.008320054 0.35120037 0.37424165 0.7085171
0000f0 c6 dd 45 3f 53 06 d9 3d 84 33 03 be 18 a4 62 3d
       0.77291524 0.105969094 -0.1281262 0.055332273

baseModel.9.running_var f4 [64]
000000 e8 2a 51 3e c1 e0 49 3e d3 a5 30 3e 3b 5e 2b 3e
       0.20426524 0.19714643 0.17250757 0.16735165
000010 af d0 f9 3d b4 1f 3e 3e ab 8d 1f 3e 84 a5 88 3e
       0.12198006 0.18566781 0.15581386 0.26688778
000020 c1 fa 43 3e 6e 84 00 3e dc 29 f2 3d 3e ed 1a 3e
       0.19138624 0.12550518 0.1182439 0.15129563
000030 fd 1b 2d 3e 11 93 59 3e 63 aa 45 3e e3 9e 2a 3e
       0.16905208 0.21247508 0.19303279 0.16662173
000040 e6 7a 52 3e fb b5 2f 3e b8 17 86 3e c7 4d 42 3e
       0.20554695 0.17159264 0.2618997 0.18974982
000050 99 9b 5a 3e 6d 9f 3d 3e 1a 7c 66 3e 3e aa 26 3e
       0.21348418 0.18517847 0.22508278 0.1627588
000060 6d 40 49 3e e9 91 32 3e 65 d8 0d 3e 1a cf 3c 3e
       0.19653483 0.17438473 0.13852079 0.18438378
000070 13 f1 40 3e 8d 90 2d 3e d4 0b 2a 3e be 94 13 3e
       0.18841963 0.16949673 0.16606075 0.1441221
000080 72 8e 3f 3e db ae 28 3e 62 65 48 3e 47 ec 66 3e
       0.18706682 0.16472952 0.19569924 0.2255107
000090 9e 8c df 3d ca 23 33 3e 42 13 53 3e 44 f8 45 3e
       0.109154925 0.17494121 0.20612815 0.19332987
0000a0 73 6d 2c 3e b9 99 61 3e 45 7c 32 3e 7e b7 6d 3e
       0.16838627 0.22031297 0.17430218 0.23214528
0000b0 04 d3 23 3e 89 d8 53 3e db 48 1f 3e 1a e5 1e 3e
       0.15998465 0.2068807 0.15555136 0.15517083
0000c0 be d2 37 3e 60 3a 2b 3e 63 9b 22 3e b4 f6 03 3e
       0.17951486 0.16721487 0.15879588 0.12887079
0000d0 dc 94 2a 3e 8c 78 4e 3e fe 44 15 3e 1c e6 40 3e
       0.16658348 0.20163172 0.145771 0.1883778
0000e0 7a 16 11 3e 05 89 85 3e b5 43 1f 3e 1f c0 19 3e
       0.1416873 0.260811 0.15553172 0.15014695
0000f0 cb 81 1f 3e c0 10 3a 3e c8 da 25 3e 6f ba 2d 3e
       0.15576856 0.18170452 0.1619674 0.1696565
