Models/intialModel_0420.pth (torch, 495639 bytes, 42 tensors)

baseModel.0.weight f4 [64, 2, 3]
00000000: 7ac2 573e 3117 78be 52b8 b6be 4061 a63e
00000010: efd0 d6bd bd8a 36be b822 af3d 076d 26be
00000020: d2a4 59be e231 4c3d 4e3f bbbe 5e8e dfbd
00000030: d043 f6bd 67a1 bf3e 58a8 bfbe 6b8d 933e
00000040: 1406 99bd fd56 a43c a413 c23e f996 a13e
00000050: 02ee cabe 0e2d 1dbe e694 bb3e d30e 773e
00000060: 18c0 5ebd e977 7ebe 2355 9e3e 9c65 98be
00000070: 7048 19bd aa54 c93d e238 1dbe 1bd5 753e
00000080: 4072 8bbc 6106 1c3e 5a5a cd3e 7235 38be
00000090: d7d9 7d3e 94e1 5dbe 5bea a2be 27a1 123e
000000a0: 12dc 69be 8d2f 40be 6c0e 63be 842a b5bc
000000b0: d318 b7be 20b8 53be 1ba9 d3bd 5324 403e
000000c0: ed79 fa3d 9e19 c43b 706b a4be 34a6 283e
000000d0: e256 823e 514f b9be 7574 28be b4c8 44be
000000e0: d14f 6a3e 10e1 6a3e c23b 973e 562d 8c3e
000000f0: 514a 9dbe 56aa 47be f600 bfbc ec7a bdbe
00000100: 2b27 9abd e71f 5a3e 338f 593e 057f a43d
00000110: b276 82be 8ce0 32be 67d5 ab3d bd49 813d
00000120: 159b 89be 1afc 723d 7e9e 733e bce3 9c3e
00000130: cf5a b9be 9db4 a43e 8140 943e 24b2 22be
00000140: c56b 3e3e a3b2 113e ac64 b1be 976b c1be
00000150: 9c3e 87be 2e2a 6f3e 07f6 65be 742b c23e
00000160: 5d8e 38be 343b bebe 9897 a8be 8fc0 1c3d
00000170: cf2e e53d eb14 d93d 7a5e 84be a34a 943d
00000180: f12c 263e 6110 5dbe e303 41be d5f6 ef3c
00000190: 79b4 a63e f465 aebe edd5 6ebe fdb5 473e
000001a0: 536c f53d 834d a1be 1fc6 4a3e 2c05 62be
000001b0: cb5f bebe 66b1 073e 41f2 fcbd dbb5 903e
000001c0: 614a 3d3e ddd4 103e fee4 9abe 2e0a a8bc
000001d0: f09c b5be 869e 0d3e 13b5 29be 9496 f2bd
000001e0: 8366 983c 8acb 35be 3664 62be 53aa 81bd
000001f0: dae0 88bd 5271 cabd 33e9 babe db3e 45be
00000200: bbcd b03d 353e cd3e dfd7 8f3e 1984 9ebe
00000210: 05a5 4f3e 27ba 53bc 4ca1 a93e 3415 633d
00000220: 9a01 5abe 5ad5 8b3d c4d6 8fbc 2846 b9be
00000230: cdd7 babe 8b5c 4f3d 7f44 833e b8d6 77be
00000240: 3780 3bbe a893 993e 4f19 a83e 2612 c4be
00000250: 77f4 4cbe 8bb0 95be 888f 12bd 95a4 9cbe
00000260: bc4c 37be abab 89be c550 fbbd 6640 b03e
00000270: adfb 903e cafc 033d 8545 af3e e3fc b5be
00000280: 83af b9be 9322 05be beaa 8eb9 2d17 e93d
00000290: 1a57 d2bd 7071 df3b 0708 83be 7e36 bb3c
000002a0: 50d3 8ebc aa9b c5be 96d1 83be 9170 81be
000002b0: 1ad7 81be 0b10 983e ece6 5f3e 4ff1 9ebe
000002c0: f60b 923e 5f91 a6be 7725 a8be e6c4 8d3e
000002d0: 548c 3a3e 4b33 b93e fc9b a9bd 60ba 2fbe
000002e0: 8077 cb3d 970c ad3d a064 5b3e b0d8 10be
000002f0: bdf4 54bb 3b47 ccbe 420e ae3e b8ec 893e
00000300: 012d 143e f81f 87bd 7638 cebe fd95 843c
00000310: 96b2 b63d 63dc 13be 36ec 87be ae99 9bbc
00000320: b533 58be 8503 623e 9925 b63e 7b6d 01be
00000330: 6660 1f3d 8e40 acbe 10ca 1e3d 74fd 813d
00000340: 69ff fc3c 802d d83d 2ad9 403e 03e9 12be
00000350: 1f05 603e 3eb5 bb3e 3a6d 8abe bb8c 0ebe
00000360: 5580 a3bd f910 55be 4cc7 8abe aa9e aabe
00000370: ed4d b33e 32fd a73e 008c f23d ff0c e63c
00000380: 5f25 02be 887a 943e f65d 9d3e 7fb7 923d
00000390: f101 adbe 4a43 9ebe a8c8 833e d67e bdbd
000003a0: 1ae2 8a3e 5b94 c7be b255 163e f8ba 773e
000003b0: 9489 293e 7057 733e abb6 d0bd 57e5 cf3e
000003c0: cefa 953e 7526 a8be bb59 c1be a9cb 673e
000003d0: 0229 b63e 22c0 f6bd c966 d4bd 056f 29be
000003e0: 3716 913e 7ae3 473e 31e2 943e d65e 91be
000003f0: 78b4 b03e d626 f1bd 46b3 bdbe 2e92 a03e
0.2107028 -0.24227597 -0.356875 0.3249607 -0.1048907 -0.17826362 0.08551544 -0.16252528
-0.2125428 0.04985226 -0.36571735 -0.10915826 -0.12024653 0.37427828 -0.37433124 0.2881883
-0.074718624 0.02006101 0.3790561 0.31560495 -0.3963471 -0.15349218 0.36637038 0.24126749
-0.054382414 -0.2485043 0.3092433 -0.29765022 -0.037422597 0.098306015 -0.1535373 0.24007075
-0.017022252 0.15236808 0.40107995 -0.17989138 0.2479013 -0.21668082 -0.31819424 0.14319287
-0.22837856 -0.18768139 -0.2217347 -0.022115 -0.35761127 -0.20675707 -0.10334989 0.18763857
0.12230287 0.005984499 -0.32113218 0.16469651 0.2545691 -0.36193326 -0.16450675 -0.19217187
0.2288201 0.22937417 0.2953778 0.2737834 -0.3072076 -0.19498572 -0.023315888 -0.37007844
-0.07527002 0.21301232 0.21246032 0.080320396 -0.25481182 -0.1746847 0.08390313 0.063128926
-0.2687613 0.059322454 0.23790929 0.30642498 -0.36202094 0.32169047 0.28955463 -0.15888268
0.18595798 0.14228301 -0.3464712 -0.37777397 -0.26414955 0.23355934 -0.22457133 0.37923777
-0.18023057 -0.37154543 -0.32928157 0.038269576 0.11190569 0.10599693 -0.2585333 0.07240798
0.16228081 -0.2158828 -0.18849139 0.029292503 0.32559565 -0.3406216 -0.23323794 0.19503017
0.11983552 -0.3150445 0.1980214 -0.22072285 -0.3718246 0.13251266 -0.12350894 0.28263745
0.18485405 0.14143701 -0.30252832 -0.020512667 -0.35471296 0.13830003 -0.1657298 -0.11845127
0.018603569 -0.17753425 -0.2210854 -0.06331315 -0.06683512 -0.098848954 -0.36506042 -0.19262259
0.0863299 0.40086523 0.28094384 -0.30960158 0.20277794 -0.0129228 0.33130872 0.055440143
-0.21289673 0.06827803 -0.017558463 -0.36186337 -0.36492768 0.050625365 0.25638196 -0.24203002
-0.18310629 0.29995465 0.3283181 -0.38295096 -0.20015131 -0.29236254 -0.035781413 -0.30594316
-0.17900366 -0.26888785 -0.12271265 0.34424132 0.28317013 0.0322235 0.34232727 -0.355445
-0.36266717 -0.1300147 -0.00027211563 0.113813736 -0.102705196 0.0068189427 -0.25592062 0.022853132
-0.017434746 -0.38595325 -0.2574584 -0.25281194 -0.25359422 0.2969974 0.21865433 -0.3104348
0.2852475 -0.32532784 -0.32841083 0.27689284 0.18217593 0.36171946 -0.08281705 -0.1716094
0.09934902 0.08449667 0.21425104 -0.1414516 -0.0032494508 -0.39898095 0.33995253 0.26938415
0.14470293 -0.065978944 -0.4027745 0.016184801 0.08920781 -0.1443954 -0.26547402 -0.018994179
-0.21113475 0.22071655 0.3557556 -0.1263942 0.038910292 -0.33643 0.03876692 0.063471705
0.030883508 0.105555534 0.18832842 -0.143467 0.21876954 0.36661714 -0.27036458 -0.13920872
-0.07983462 -0.20807256 -0.27105176 -0.33324176 0.3502039 0.3281036 0.11843109 0.028082369
-0.12709568 0.28999734 0.3073575 0.07163905 -0.33790544 -0.30910712 0.25739026 -0.09252708
0.27125627 -0.38980374 0.14681128 0.24192417 0.16556388 0.23763824 -0.10191091 0.4060466
0.2929291 -0.3284184 -0.3776377 0.22636284 0.3557816 -0.12048365 -0.10371167 -0.16546257
0.2833726 0.19520369 0.2907882 -0.28392667 0.34512687 -0.117749855 -0.37050837 0.31361526

baseModel.0.bias f4 [64]
00000000: 355b 32be a668 323d 1f54 923e 8463 5bbe
00000010: f6db 6bbe ccd7 973d 4921 ec3d 379a 12bd
00000020: 3b54 b63b 4277 883c 7619 d43c 677b 9fbe
00000030: c8aa b23e 7fef 783c d848 be3d df81 a73e
00000040: 3afb c4bd c259 96be 3ef4 3d3e 359a 9a3e
00000050: 6e77 603e 9e2a a5bc 9b0d a13d 75f3 c43d
00000060: b4cf 4f3e 18cc 23be bf96 53bc cd6a ec3d
00000070: ea2e 563e c9a6 5038 3aeb 35be fc11 ac3e
00000080: 870f 8f3d c4b1 573e 1726 dfb9 be85 4bbc
00000090: 0e8e 933e b939 49be c4f2 d53c cea0 c9bd
000000a0: 620f 7e3e 7524 d0bc 9075 82be 3fe0 453e
000000b0: e465 2fbe 07df 583d 5323 b03e cd30 d4bd
000000c0: 4069 5bb9 9faf 9b3e 8f3b 193e 228c 8abe
000000d0: 7666 263e f52d 6d3d 8513 ad3e 24e7 25be
000000e0: 9da8 2cbe f493 d83d e24d 88b9 0cdb 9dbd
000000f0: 778b 983d 0189 48bd e3f6 193e 2635 b9be
-0.17417605 0.04355683 0.28579804 -0.21424681 -0.23033127 0.07414207 0.11529786 -0.035791602
0.0055642403 0.016658429 0.025891047 -0.31148836 0.3489592 0.015193819 0.092912376 0.3271627
-0.0961823 -0.29365355 0.18550202 0.30195776 0.21920559 -0.020161923 0.07863923 0.09616748
0.20294076 -0.15995824 -0.012914359 0.11543808 0.20916334 4.9746395e-05 -0.17765513 0.3360747
0.069853835 0.21063906 -0.00042562254 -0.012422023 0.28819317 -0.19650926 0.026116736 -0.09845124
0.24810556 -0.025408009 -0.25480318 0.19323824 -0.17128712 0.05294707 0.3440195 -0.103608705
-0.00020924676 0.30407426 0.14964126 -0.27060038 0.16250023 0.057905156 0.33803955 -0.16201454
-0.16861196 0.10575095 -0.0002599797 -0.077077955 0.07448476 -0.048958782 0.15035586 -0.36173362

baseModel.1.weight f4 [64]
00000000: b5b5 7e3f fc56 7c3f b431 7d3f 69ad 7e3f
00000010: b3fb 7d3f 8fa7 7d3f 7f36 7e3f 9be2 7d3f
00000020: 89c8 7e3f fff7 7f3f 70df 7e3f 1da0 7e3f
00000030: 8ab1 7e3f a17e 7f3f 8a31 7d3f fd1a 7d3f
00000040: 451a 7e3f 7f0d 7c3f 2d64 803f 3e75 803f
00000050: 0ba6 7e3f 62fc 813f c3e8 7f3f fa98 7d3f
00000060: 46ff 7e3f 87ba 7e3f 0f16 803f 1ef7 7f3f
00000070: 3462 7f3f bd45 7c3f eca7 803f 834e 7d3f
00000080: b45d 803f 8c90 7f3f a0b9 7f3f 5cf6 7b3f
00000090: af09 7e3f ade5 7f3f ada7 7f3f 3a09 803f
000000a0: 1c32 7e3f a321 803f 1c8a 7f3f c925 7e3f
000000b0: 81b5 7e3f 6403 7e3f 5a0b 7d3f 9c06 7f3f
000000c0: a5f6 7e3f 36bb 7d3f 164c 803f 47bd 7f3f
000000d0: 7b5f 7f3f 62d7 7f3f df7b 803f a0c4 7d3f
000000e0: e1dd 7d3f 0c25 803f 419e 7c3f b7bf 7d3f
000000f0: 8908 7f3f a2ac 7c3f 3fa5 7c3f 7bb7 7a3f
0.9949601 0.9857023 0.98903966 0.9948335 0.9921219 0.990838 0.99301904 0.991739
0.9952474 0.99987787 0.9955969 0.99463063 0.99489653 0.99802595 0.98903716 0.98869306
0.99258834 0.98458093 1.0030571 1.003578 0.9947211 1.0155146 0.9996454 0.9906155
0.99608266 0.9950337 1.0006732 0.99986446 0.9975922 0.9854391 1.0051246 0.98947924
1.0028596 0.99829936 0.99892616 0.9842279 0.99233526 0.9995983 0.9986523 1.0002816
0.9929521 1.0010265 0.99820113 0.99276406 0.99495703 0.99223924 0.98845446 0.9961946
0.995951 0.99113786 1.002322 0.9989819 0.99755067 0.99938023 1.0037802 0.9912815
0.99166685 1.0011306 0.98678976 0.9912066 0.996224 0.98700917 0.98689646 0.9793622

baseModel.1.bias f4 [64]
00000000: 9d4d 8f39 d0b9 f53b 9e63 26bc 017f f53a
00000010: 5aa8 0dbb 01ae b6bb ae19 ab3b 6485 c43b
00000020: 612b abbb f68f 043c 705e 97ba d35c b8bb
00000030: 9ebc b63b 86b4 cbbb 0342 15bc 8f02 fbb9
00000040: 8aed 89bb 0bfa c4ba c522 21bb 3f59 68ba
00000050: e73c 613b 0c05 993b 4f10 723b 1d5b 09bc
00000060: d3d5 143b ff02 9f3b 071b 48bc 17d3 c8ba
00000070: 2aaa bc3a 364b febb 00e2 da3b 264d 0b3a
00000080: de3b 9f3b a572 4ebb 00a5 6fb9 7b2f 51bb
00000090: b2eb a9bb 1891 7cbb 94c7 01b8 fc27 cabb
000000a0: b905 20bc 1e63 08bc b601 85ba 2e0e b4bb
000000b0: 2a57 b83a 48e8 6c39 54ef 9fba a379 94ba
000000c0: d285 b9b9 1734 a63a 43c8 983b 3dff 4c3c
000000d0: 4083 e1bb 6571 c53a 38fe 4c3c e85c 8d3b
000000e0: 7104 ccb8 0821 de3b aac7 a1ba 6639 9cbb
000000f0: 4bda ad3b d082 85bb 27da adbb 86a4 7abb
0.00027332912 0.007498957 -0.0101555865 0.0018729867 -0.0021615238 -0.005574942 0.005221567 0.0059973467
-0.005223677 0.008090964 -0.001154853 -0.0056263 0.005576684 -0.0062165884 -0.009109977 -0.00047876357
-0.004209225 -0.0015028132 -0.0024587375 -0.00088633964 0.0034368576 0.004669791 0.003693599 -0.0083835395
0.0022710457 0.004852652 -0.012213475 -0.0015321699 0.0014393975 -0.0077604307 0.0066797733 0.0005313925
0.0048594316 -0.003150144 -0.00022854283 -0.003191917 -0.005185568 -0.003853863 -3.094187e-05 -0.0061693173
-0.009766989 -0.008324413 -0.0010147605 -0.0054948544 0.0014064063 0.00022593245 -0.0012202063 -0.0011327754
-0.00035385654 0.0012680319 0.004662545 0.012512025 -0.0068821013 0.0015063701 0.012511782 0.004314054
-9.728305e-05 0.00677884 -0.001234283 -0.0047675846 0.0053055636 -0.004074432 -0.005305547 -0.0038245036

baseModel.1.running_mean f4 [64]
00000000: aa46 33be 5b63 353d 16d1 923e b055 5cbe
00000010: 2dd2 6cbe 4c8c 993d deec ed3d d373 15bd
00000020: 607d c03b 3a42 8d3c 1a4f d93c 20f8 9fbe
00000030: 2f27 b33e 3698 803c c707 c03d eefe a73e
00000040: b2b4 c6bd 48d6 96be baeb 3e3e f116 9b3e
00000050: 386d 613e 63d9 a9bc c4b9 a23d 77bb c63d
00000060: a8b6 503e c2b8 24be a33a 5cbc be35 ee3d
00000070: 0a24 573e d9dc 3138 9bdd 36be 578f ac3e
00000080: 14ba 903d c1ab 583e 2d75 fbb9 5fde 53bc
00000090: fd0b 943e 3e24 4abe 1e46 db3c 8060 cbbd
000000a0: 3109 7f3e 425a d5bc 23f0 82be abd3 463e
000000b0: 0a5a 30be ebe0 5b3d 119f b03e 5ef4 d5bd
000000c0: 59d8 62b9 a22c 9c3e 3c29 1a3e e405 8bbe
000000d0: c858 273e 8d60 703d 5c91 ad3e c4d2 26be
000000e0: d69b 2dbe b35d da3d 1c4c 84b9 5990 9fbd
000000f0: 752c 9a3d 08a5 4bbd 46e4 1a3e 88b2 b9be
-0.17507425 0.044284206 0.28675145 -0.21517062 -0.2312705 0.07497463 0.116174445 -0.03648741
0.005874321 0.017243493 0.026526976 -0.31243992 0.34990832 0.01569758 0.093764834 0.32811683
-0.09702434 -0.2946036 0.1864461 0.3029094 0.2201432 -0.02073354 0.07945588 0.09703725
0.20382178 -0.16086105 -0.013441714 0.11631344 0.21009842 4.240577e-05 -0.17857973 0.3370311
0.070667416 0.21159269 -0.00047961753 -0.012931435 0.28915396 -0.19740388 0.026766833 -0.09930515
0.2490585 -0.026044015 -0.25573835 0.19416682 -0.17221847 0.053681295 0.34496358 -0.10447
-0.00021633635 0.30502802 0.15054792 -0.27152932 0.16342461 0.058685828 0.33899963 -0.16291338
-0.16953978 0.10662403 -0.00025233708 -0.07791204 0.07528011 -0.049717933 0.15126142 -0.3626902

baseModel.1.running_var f4 [64]
00000000: 7ee6 6a37 fc0e 2337 b536 0f37 bfcd bf37
00000010: 20e9 0237 f01f 2037 ae10 4a37 8ae2 3337
00000020: bf90 3237 c293 8c37 1656 6937 8248 ac36
00000030: ed95 3237 6154 8837 2434 7237 84e2 c636
00000040: e4c1 1c37 ccbd fa36 5958 5037 0d18 3f37
00000050: d043 ad36 6df4 ad37 47c1 ef36 be45 9237
00000060: c153 cf37 41aa 6537 d92b cf37 b280 3c36
00000070: 2cf9 9c37 6c59 7c37 7662 1437 8b8d 5437
00000080: 15b0 0437 f100 5b37 bc71 9436 6808 1337
00000090: 3020 a037 9099 4037 47c3 8337 12b3 6837
000000a0: 308b b037 7837 2637 dd25 6537 08fd a837
000000b0: 2190 8537 5d30 d437 8461 4637 bb7d 6537
000000c0: 8a9f a037 4ea9 d836 f156 8737 27ad 4437
000000d0: fe6f 7c37 10df 0e37 dad3 4e37 455f 2e37
000000e0: e867 2837 ca7b 7637 d02e 7037 52e8 ea36
000000f0: e228 9237 60b5 0e37 5e9b a236 390e ff36
1.40011525e-05 9.719046e-06 8.536202e-06 2.2864782e-05 7.8028825e-06 9.544179e-06 1.2044022e-05 1.0721977e-05
1.0643328e-05 1.6758106e-05 1.3907926e-05 5.1344405e-06 1.0644534e-05 1.6251755e-05 1.4436464e-05 5.9272297e-06
9.343468e-06 7.472676e-06 1.2418336e-05 1.1390087e-05 5.163696e-06 2.0737027e-05 7.1452555e-06 1.7437033e-05
2.4715324e-05 1.3689104e-05 2.4696741e-05 2.8089094e-06 1.8712679e-05 1.5041191e-05 8.844412e-06 1.266914e-05
7.90881e-06 1.3053636e-05 4.423984e-06 8.76384e-06 1.9088475e-05 1.1479846e-05 1.570735e-05 1.3869971e-05
2.104565e-05 9.907286e-06 1.3658279e-05 2.0144988e-05 1.592195e-05 2.529489e-05 1.1824424e-05 1.3678738e-05
1.9147777e-05 6.4570113e-06 1.613374e-05 1.1722826e-05 1.5046446e-05 8.515795e-06 1.2327882e-05 1.039339e-05
1.0037773e-05 1.46915645e-05 1.4316014e-05 7.000789e-06 1.7423594e-05 8.506089e-06 4.8460633e-06 7.601248e-06

baseModel.4.weight f4 [64, 64, 3]
00000000: 8cc9 383a b4d1 3fbc 8266 0cbd 5a8d 05bd
00000010: 69b8 083c ebd1 8abc 494f ac3c 7f30 d93b
00000020: 219b 8cbd 5d98 e2bc 1cd2 03bd 435a 2ebd
00000030: be09 01bd 9d5b 0a3d 51ce 6abd 9735 8fbc
00000040: 5c60 84bd 3ca4 353d 5c5b 883d 330e 263d
00000050: a577 903d ec91 25bb 4348 89bd c43b 4b3d
00000060: 3f0d 7fbd eabd 673d 5ab5 72bd 3606 f9bc
00000070: 556f 01bd a687 51bc 18f0 64bd 4070 583d
00000080: 7e9a 56bd 63d9 0a3d 528a b6bb 725c 1b3d
00000090: bfb1 033d 7358 d03b 13f0 37bd 2799 2b3d
000000a0: e252 0a3d 388c dcbb 9f40 813d 931f 5bbd
000000b0: a9fe acbc 05ef 62bc d0fb 57bd 5a16 a5bc
000000c0: 4482 efb9 9402 a23c bd8d dcbc 3195 173d
000000d0: 4ffa 4ebd ff0d 2a3c 2304 6b3d 84ad 8cbd
000000e0: 9e09 fdbb 32dc 0a3d b95e 13bd e25c 113d
000000f0: 090b 153d 3c8c 6e3c 1aec a03b 63e5 7c3d
00000100: 96de 53bd b2cb 193c 0859 eb3c 2ea5 8cbd
00000110: 6ba4 1e3c 1820 143d 221f 77bd 237e 0fbc
00000120: 752a 433d fcd3 6e3d 124f 3c3d 0cbd b33c
00000130: 9d74 8f3d 5eaa 3ebd f2b6 1bbd 5432 5bbd
00000140: 9b08 29bb 428f 903d 7968 9a3d 4142 4dbd
00000150: b0db 833d 79a5 773d 4d06 06bd c2e2 26bd
00000160: f2e5 443c 281e 063d eb57 a0bb ede5 bc3c
00000170: 5594 47bd 2f24 34bd 2e95 19bd 8dcc 8abd
00000180: 4d41 7c3d 2ce4 eebc ec31 583b 9988 b13c
00000190: 392c 423d f7a4 1dbd 3458 203c 6b1e 373d
000001a0: 2681 4fbc 7c7e 1b3d c3cd 3cbc 9ba1 113c
000001b0: 8f07 1abd 8ebe e4bc 8e8f d73c b657 363d
000001c0: 25b9 173d ad38 83bd 3af5 7c3d 1325 303c
000001d0: 1af4 d0ba 4dbe 01bd 7802 45bd 71e6 94bd
000001e0: 1c25 e23c 4d68 593d 07f3 963d 05b4 683d
000001f0: 3611 1bbc eb1c 67bd 2be9 323d ae10 793d
00000200: f94a eebc 63b1 57bd f2f9 4f3d e643 44bd
00000210: 057b 87bd 5c36 8a3d 97c3 353d d151 38bd
00000220: 4c26 0dbd 83c8 943c 9bf6 89bd b60b 6ebd
00000230: 0fb7 463b 4b33 71bd 6e6a 563d 5a6b 48bd
00000240: ee39 26bc 6774 293d 02cd 41bd f5a9 04bd
00000250: 65e7 b2bc d04b b03c 2eff 18bd 33d2 3f3d
00000260: b47f 49bd c270 763d ac56 c9bc d0ca 13bd
00000270: ede8 8cbd 771f 83bd c5f9 033c 880e 733d
00000280: 19c3 74bd c233 793d c370 64bd be90 173d
00000290: 356f e63c 21b6 64bd 019f b73c 84c9 41bd
000002a0: 96f5 f63c dee4 1bbd 4554 8c3d 4655 bb3c
000002b0: 93ac 5a3d e117 7e3d 6ac3 503d 41a1 64bd
000002c0: 15a5 853d 04d1 97bc c03c 803b 1b5e 9e3d
000002d0: 4026 5dbd a796 b9bb bd4b 683d fbfb 3dbd
000002e0: 48ba 4fbb c6ec 933d 0588 06bb 14f2 34bd
000002f0: 1d16 8cbd 0e02 55bc 1572 48bd f37f f63c
00000300: a004 c83c e648 643c 3f20 63bd b408 65bc
00000310: 6baf 80bc 8767 84bd 4687 bb3c c373 8cbd
00000320: b705 4b3d 21e3 063c d182 013d 930c 2cbd
00000330: f896 96bc 9f2c 91ba c803 92bc 633f 21bd
00000340: 9e9b 8abd 4c4c 733d d945 303d 5918 673d
00000350: 3890 d7bc 6e4c 323d fffc e03c 3d58 863d
00000360: 1867 9abd 8e47 293d f37f 92bd 6373 103c
00000370: 54f1 463d 3bed 6b38 5313 91bd 69e6 81bd
00000380: 232b 4ebd 58fa d73c 2978 993d 0f15 c03c
00000390: 55c7 a3bc b397 75bd 9857 083c 3673 8c3d
000003a0: 0e2e 89bd 6f1e 32bd 0f17 253d dd96 6a39
000003b0: af03 ae3c 90ec 82bd b686 833d 57ce 543c
000003c0: 68e1 d5ba 1806 94ba 4be8 7fbd 4355 d3bc
000003d0: 8203 5e3d e895 853c b57c 153d 1c93 37bd
000003e0: 33aa c53c da07 12bd ac26 aa3c 2e27 5cbd
000003f0: 9301 073d e6f7 6e3c bb11 9d3b a2ce 41bd
0.0007049076 -0.011707712 -0.034277447 -0.032605506 0.008344748 -0.0169458 0.0210339 0.0066280956
-0.06865526 -0.027660543 -0.032182798 -0.04256655 -0.03150343 0.033778775 -0.057325665 -0.017481608
-0.064636916 0.04434608 0.066580504 0.040540885 0.070540704 -0.0025263978 -0.06703236 0.049617544
-0.06226849 0.0565776 -0.05925498 -0.03039847 -0.031600315 -0.012788689 -0.055893034 0.052841425
-0.05239343 0.033898722 -0.0055706883 0.03792996 0.032151934 0.0063582 -0.044906687 0.041894104
0.03377045 -0.0067305826 0.063111536 -0.05349691 -0.021117525 -0.013850932 -0.05273038 -0.02015226
-0.00045682688 0.01977662 -0.026923055 0.037007514 -0.05053168 0.0103793135 0.057376992 -0.06869033
-0.0077220937 0.0339014 -0.035979006 0.03548897 0.036387477 0.014559802 0.004910958 0.061742198
-0.051725946 0.009386944 0.028728977 -0.06867443 0.009682755 0.03616342 -0.060332425 -0.008758101
0.047647912 0.058307633 0.045973845 0.02194073 0.07004664 -0.046549194 -0.038016267 -0.053514794
-0.0025792483 0.07058574 0.07539458 -0.050112013 0.064383864 0.06046054 -0.032720853 -0.040743597
0.012017714 0.032743603 -0.004893293 0.023058856 -0.048725445 -0.04397982 -0.037495784 -0.06777296
0.061585713 -0.029161535 0.003298874 0.02167158 0.047405455 -0.0384874 0.009786654 0.044706743
-0.012665069 0.03796242 -0.011523667 0.008888627 -0.037604865 -0.027922895 0.02631357 0.04451724
0.037041802 -0.064072944 0.061757304 0.010751027 -0.0015941889 -0.031675626 -0.048098058 -0.07270516
0.027605586 0.053077985 0.073705725 0.056812305 -0.009464553 -0.056424063 0.043679398 0.060806923
-0.029088484 -0.052659404 0.050775476 -0.047916315 -0.06615261 0.067486495 0.044375982 -0.0449999
-0.03446035 0.018162018 -0.067364894 -0.058116637 0.0030321514 -0.058886807 0.052347593 -0.048930503
-0.010145647 0.041370776 -0.04731465 -0.032388646 -0.021838853 0.021520525 -0.037352733 0.04683132
-0.049194053 0.060166128 -0.024577461 -0.03608209 -0.068803646 -0.06402486 0.008055155 0.05934003
-0.059756372 0.060840376 -0.0557716 0.03700327 0.0281292 -0.055837754 0.022414686 -0.04731132
0.030146401 -0.03806006 0.06852011 0.02286781 0.053387236 0.06203449 0.05096761 -0.055817846
0.065256275 -0.018532284 0.003913492 0.07732793 -0.053991556 -0.005663711 0.056712855 -0.046382885
-0.0031696726 0.07222895 -0.0020527851 -0.044176176 -0.06840155 -0.013000978 -0.048936922 0.030090308
0.024416268 0.013933396 -0.055450674 -0.013979126 -0.015708646 -0.06465059 0.022891652 -0.06858017
0.049565997 0.008232863 0.031618897 -0.04200418 -0.018382534 -0.001107592 -0.017824069 -0.03936709
-0.06767963 0.059398934 0.043035362 0.056419704 -0.026313886 0.04352992 0.027464388 0.06559799
-0.07539195 0.041328005 -0.071533106 0.008816573 0.048569992 5.6249304e-05 -0.07083764 -0.063427754
-0.050334107 0.02636449 0.07493622 0.023447542 -0.01999251 -0.059959125 0.008321665 0.06857912
-0.06698237 -0.043486055 0.040305194 0.0002237218 0.02124199 -0.06392777 0.064221784 0.012988648
-0.0016317787 -0.001129332 -0.06247739 -0.025797492 0.054202564 0.016306832 0.036495883 -0.04481803
0.024129009 -0.03565202 0.020770393 -0.053748302 0.032960486 0.014585471 0.0047933734 -0.0473162

baseModel.4.bias f4 [64]
00000000: b7e4 233c ef2a ce3c 0d15 c6bb be68 2836
00000010: f2d8 c93c 1cb3 123d 0446 3a3c 73f9 fb3a
00000020: 9314 623c ea66 22bc df92 02b6 ca62 d93a
00000030: 5244 b1b7 a34f 023d bbc2 6f3c 7168 0dbd
00000040: 3027 6d3c 2d2b b5bc 1296 203c 6f22 d7bc
00000050: b6f4 68bc d9c2 493c 5bc1 32bb 8f0d ff3c
00000060: 1ef4 ea35 04e6 4e35 ff05 b3bb d2b3 22b6
00000070: 7354 193c 9480 5a3a 04b1 2ebb d3c7 c83c
00000080: 1894 81b9 eed0 07bd 9c47 b236 3cfd 013d
00000090: f692 6bba 2377 313c 2ee8 c1bc aeeb 3db8
000000a0: 0e11 99bc 2f8f 85bc 3712 c63c c09b 41bc
000000b0: 345d 033b b5c4 f2bc cb5b 24bc 049b ab3c
000000c0: ff63 fb3c 9c5d e23c 9c8f 943b 9fdc 1e36
000000d0: a094 e2bc 8fdc 133d bc21 963c f67d a1bc
000000e0: f3a6 86ba 2271 4f3c b181 bbb3 f6dc c238
000000f0: 8636 7c36 3609 9dbc 67ee 75ba 57a8 68bc
0.01000326 0.025166957 -0.00604499 2.5094919e-06 0.02463958 0.035815343 0.011369232 0.0019224122
0.013798851 -0.009912232 -1.9457e-06 0.0016585228 -2.1131858e-05 0.03181423 0.01463383 -0.03452343
0.014474675 -0.022115314 0.009801405 -0.026261536 -0.0142185 0.012314522 -0.0027275893 0.031134395
1.7505406e-06 7.7075697e-07 -0.0054633613 -2.424455e-06 0.009358513 0.00083351997 -0.0026655803 0.024509346
-0.00024715136 -0.033158235 5.31315e-06 0.031735644 -0.00089864375 0.010831627 -0.023670282 -4.5280605e-05
-0.01868489 -0.016303627 0.024178607 -0.011816919 0.0020044567 -0.029634813 -0.010031651 0.02094794
0.03068733 0.027632527 0.004533721 2.3672253e-06 -0.02765876 0.036099013 0.018326633 -0.019713383
-0.0010273143 0.01266125 -8.731457e-08 9.291798e-05 3.7582663e-06 -0.019169431 -0.0009381533 -0.014200292

baseModel.5.weight f4 [64]
00000000: 2a3d 7e3f c670 7b3f d527 7f3f d845 7d3f
00000010: 6015 7b3f 3314 803f ef0d 803f 4137 7c3f
00000020: f453 7c3f cd11 813f 45e9 7c3f 0b97 7f3f
00000030: 5a6c 803f 76e4 7b3f a7c4 7b3f 13ed 7d3f
00000040: 1a2e 803f fa0b 7c3f 5726 7c3f d898 7e3f
00000050: b0cb 7e3f 3430 7d3f 346a 7e3f af52 803f
00000060: b1c1 7c3f ecd5 7d3f 1f16 803f 6b04 823f
00000070: c655 803f a278 7c3f 85ad 7f3f acb3 7e3f
00000080: 67bd 803f 482d 7f3f 5a56 7f3f 092f 7f3f
00000090: f11b 7e3f 6f5a 7d3f 2c06 7e3f a404 813f
000000a0: d6c0 7c3f ca02 813f 955f 7d3f 462d 7c3f
000000b0: b7c3 7d3f e108 803f 43b8 7c3f 29a5 7c3f
000000c0: a445 7f3f 9087 7e3f a169 7c3f f438 7e3f
000000d0: ec96 7b3f 5adf 7d3f 5b91 7f3f fce6 7d3f
000000e0: f66d 7d3f 1bd2 7e3f e729 7b3f a4ca 7d3f
000000f0: f5b1 7e3f 0539 803f ac94 7d3f 403f 7f3f
0.9931208 0.98218954 0.99670154 0.989347 0.9807949 1.0006164 1.0004252 0.9852181
0.985656 1.0083557 0.9879344 0.9983985 1.0033066 0.9839548 0.9834694 0.9918987
1.0014069 0.98455775 0.98496 0.9945197 0.9952955 0.9890168 0.99380803 1.0025233
0.9873305 0.99154544 1.0006751 1.0157598 1.0026176 0.9862157 0.99874145 0.9949291
1.0057801 0.9967847 0.9974114 0.99681145 0.99261385 0.98966116 0.9922817 1.0079541
0.98731744 1.0078976 0.9897397 0.9850658 0.9912676 1.000271 0.9871866 0.98689514
0.9971564 0.994256 0.98598677 0.99305654 0.98277164 0.9916893 0.9983117 0.9918058
0.9899591 0.99539346 0.9811081 0.9913733 0.9949029 1.0017401 0.9905498 0.99705887

baseModel.5.bias f4 [64]
00000000: e600 4bbb 9550 2fbc 7a8a a1bb 2358 e1bb
00000010: 6953 7bbb bd27 e33b 65f8 993c 2076 cabb
00000020: 4816 d7bb 8e64 a73b eea4 28bb 1f6c 79bb
00000030: b968 8d3c 0ead 23bc 9fd6 f6bb 7791 9e3b
00000040: 9f2b 193c 7896 1638 b59e 973b 2408 043c
00000050: 7142 8aba f2ea 66b9 a823 9d39 d4c3 fabb
00000060: 34ec 49bb dad7 0cbb 9443 803b c7fe 8c3c
00000070: 00a1 193c 7ccd 50bb ba55 e23b dc84 e13b
00000080: 7b11 583c 7060 0039 11f4 3dbb 933d 323c
00000090: 748d bcba 1c65 dd3b 85a5 46bb 33b0 5e3c
000000a0: 263b 83bb dc99 073c e8fe 8d3b e6bd 87bb
000000b0: 76eb 4f3b ec79 173c bcef 99ba c20a f6bb
000000c0: 40ba 74b9 7baf 2d3c da8e 31bb c5c4 0fbb
000000d0: 4da1 a5bb 4d76 aabb afac 093c 9aa9 a33a
000000e0: 9b2b 063a 6d32 2a3b c6b9 13bc 9890 d1ba
000000f0: d3c6 89bb 3110 493c e8c3 bc38 dbe5 973a
-0.0030975877 -0.010700365 -0.004929838 -0.006876962 -0.0038349277 0.0069322274 0.018795202 -0.0061786324
-0.0065639354 0.0051084226 -0.0025733071 -0.003805883 0.01726185 -0.00998999 -0.007532909 0.004839118
0.009348779 3.590292e-05 0.0046270736 0.0080585815 -0.0010548366 -0.00022022033 0.0002997194 -0.007652739
-0.0030810954 -0.0021490962 0.003914306 0.017211331 0.009376764 -0.003186076 0.006907192 0.006882293
0.013187761 0.00012242957 -0.0028984586 0.010878938 -0.0014385418 0.006756438 -0.003031106 0.013591814
-0.004004854 0.008276429 0.0043333657 -0.0041425107 0.003172604 0.009245377 -0.001174442 -0.0075086066
-0.00023339037 0.01060092 -0.0027093203 -0.0021937352 -0.005054629 -0.005202091 0.008402987 0.0012486458
0.0005118192 0.0025969998 -0.00901646 -0.0015988527 -0.00420461 0.012271927 9.001029e-05 0.0011588888

baseModel.5.running_mean f4 [64]
00000000: b222 a1bd 0b7a 56bd b304 a53d d9d3 283d
00000010: d1fb 843e 634f 38be 8d32 63bd 62e8 fd3e
00000020: a036 7ebd d6aa 93be 38e2 db3d dd22 9c3d
00000030: 327b b6be ca2d 96bd 907f 0d3e cce9 c1bc
00000040: abcd 1c3d 1bb3 8d3e 8b8c 9ebd 9a94 0cbf
00000050: 6dcd 57bd f067 ff3c 9f0a babe 573f 3c3e
00000060: 7e6d 813e 355a 2abe 2e43 963b bb4f d3bd
00000070: cd16 2bbe b8ab a2be 9a16 4abe dfc5 ca3e
00000080: 4307 4cbe 590d 333e f4ab 2fbd bc66 f8be
00000090: 91a4 353d bf82 aebc d346 c1be a032 1fbd
000000a0: 136c 373c 39b8 39be 44fe 513c 68af 873e
000000b0: ed30 2ebf 7ab0 5d3e 28f3 d53c caf7 fb3e
000000c0: 18bc 663e 0cb1 a8bd 4eb3 063e a36f a53e
000000d0: 417f 91be 74e9 1c3f fed0 a33d 389f 353e
000000e0: 09d0 3bbe 4e21 c9be b7a3 753e 9be1 2bbe
000000f0: f793 243e dd71 aabe 12d7 c33d 149e 493e
-0.07867946 -0.052362483 0.08057537 0.04121766 0.2597337 -0.17999034 -0.05546813 0.49591357
-0.062063813 -0.28841275 0.10736507 0.07623837 -0.35640866 -0.07332952 0.13818192 -0.023671053
0.038282078 0.2767571 -0.0774165 -0.5491425 -0.052686144 0.031177491 -0.36336228 0.18383537
0.25278848 -0.16635974 0.004585645 -0.10317942 -0.16707917 -0.31771636 -0.19735184 0.3960409
-0.19924645 0.1748556 -0.042888597 -0.4851588 0.044346396 -0.021302579 -0.37749347 -0.03886664
0.0111952005 -0.18136682 0.012816969 0.26501012 -0.68043405 0.21649352 0.026116922 0.49212486
0.2253269 -0.08236894 0.13154337 0.32311735 -0.284174 0.6129372 0.079988465 0.17736518
-0.18341078 -0.39283222 0.23988234 -0.1678528 0.16072069 -0.33289996 0.09562506 0.19689208

baseModel.5.running_var f4 [64]
00000000: 74bf a53d d9e5 ce3d cec9 ad3d b532 703d
00000010: def4 303d 092f 993d e8de bc3d de20 ea3d
00000020: ce85 d43d e805 d73d 3085 5a3d 0c6a 5b3d
00000030: ccc0 ab3d 3fbc 6d3d 106c 683d 61c8 0a3d
00000040: f071 5b3d a748 cd3d cfe7 ac3d c1ea a03d
00000050: 5c76 4a3d 6e98 a83d a127 8d3d 17e1 413e
00000060: 0748 a43d d397 323d 3ef9 613d 8a67 7b3d
00000070: a234 573d 7214 853d aafe d13d 3f4a d13d
00000080: 7e7e 493d e74a ba3d 4c98 6b3d 1e2a e53d
00000090: a626 923d 73e8 ac3d 5f24 b33d d4c8 733d
000000a0: 76bc 793d e4db aa3d 416e c63d 53da 573d
000000b0: 6619 2e3e ede5 833d 4d06 9b3d 460b e63d
000000c0: a1e6 bc3d a868 b83d 45a4 953d 96dc f93d
000000d0: 3f5c c93d b993 d13d 8bed 193d 5829 2d3d
000000e0: ad77 d13d a0c2 123e a14a d23d af0f d83d
000000f0: 21e9 813d 3687 133e bf58 a53d dc32 bb3d
0.080931574 0.10102434 0.08485757 0.058642108 0.043202274 0.07479674 0.092222035 0.1143205
0.10377084 0.104991734 0.053349674 0.05356793 0.083863825 0.058040854 0.05674368 0.033882502
0.053575456 0.10023623 0.084426515 0.07857276 0.049429283 0.08232199 0.06892324 0.18933521
0.080215506 0.043601822 0.055169336 0.06137804 0.05254043 0.0649804 0.102536514 0.102192394
0.049192898 0.09096318 0.05751829 0.11189674 0.07136278 0.08442774 0.087471716 0.059517696
0.060970746 0.08342722 0.09688998 0.052698445 0.17001876 0.06440339 0.07569561 0.11232619
0.092236765 0.090043366 0.073067226 0.122002766 0.09832048 0.10233254 0.037580054 0.042275757
0.102279045 0.14332056 0.102681406 0.105498664 0.06343294 0.14407048 0.080735676 0.0914056

baseModel.8.weight f4 [64, 64, 3]
00000000: 29ee 5c3d dfc0 4b3c c507 7c3d 9c3b d03c
00000010: 8c95 973b 3bee 81bd fdab 30bd d8eb 793a
00000020: 38b5 663b 22a1 00bd 3239 2ebd a1c1 883d
00000030: 0d77 fcb8 5deb 5dbd 8f4c ec3c f448 8b3d
00000040: c2cc 2cbc a540 d53c 7990 06ba 0ddf 1e3c
00000050: d9af bd3c d120 84bd 3536 4e3c b914 4e3d
00000060: e8f4 7bbd 098b ebbb 368a e83a ef2a 573d
00000070: 412b 813d 4393 f03c 4d2a 19bd 738e c63c
00000080: 9083 fbbc 84b6 57bd 56a5 cabc 90ff a2bc
00000090: 189a 5b3c 6f8a 74bd b3c2 063d 4592 0c3d
000000a0: 7bef 48bd 8ac3 25bd 7592 7e3d 07b9 09bc
000000b0: a175 df3c 2932 67bc a084 473d 20b9 8dbd
000000c0: 976f 6ebd c5c7 753a 66c5 073d ac1a a93c
000000d0: 834a f63c 9e62 bb3c 8dc7 d7bc fcef b3bc
000000e0: 00a3 e23c 3fa1 84bd 2530 123d 986e 883d
000000f0: eadc 863d d037 f43b 30d3 7bbd f142 3dbd
00000100: c90c 973b 0c0f 75bd 1e50 f4b9 c159 e83c
00000110: b610 323c 6315 323d 2922 80bd bd98 b7ba
00000120: fe2d 613d 9fbc 863d fdf5 a2bc 6ef2 a53b
00000130: 8c4c 61bd c9e3 833c b8db fa3c eacd 893d
00000140: a6e0 97bd 050f 9a3d 0283 bd3c 03f6 1c3d
00000150: be50 eb3c 3a51 f9bc 6c10 89bd cbf5 593d
00000160: 7977 743d 8b08 7bbd 8f33 28bc a648 8abd
00000170: d0de b4bc a487 5c3d 7598 70bd e3df b83c
00000180: a0f0 023c e490 45bd 2143 80bc 9564 e83c
00000190: 8fd4 a7bc dbf5 dabc 4a09 dbbc bb69 6bbd
000001a0: ad47 56bd 47d2 643d 00d1 35bb 31bd 793d
000001b0: 77a0 b7bc 8c43 22bb 5219 9b3c d7e4 073d
000001c0: 15ac 323d da4b f3bc 3e30 fa3c 39d3 803d
000001d0: 3629 cb3b 954f 9a3d abbc a2bc f901 923c
000001e0: 74d1 1e3c 0c95 133d a440 453d 0010 783d
000001f0: de23 67bd 7f82 073d 28db 38bd fe61 87bd
00000200: 03a8 903d e9da 05bd 4e2b 8a3c 56b0 a2bc
00000210: 3856 763d facd 2fbd 393c ea3c 8170 1a3b
00000220: 3b71 3e3d 62e2 85bd 6598 383b fb09 823c
00000230: a5c7 66bc db2e 0c3d 0f03 aebc 9449 3b3d
00000240: b04d 613d 24c5 34bc 3e93 5b3d 0667 08bd
00000250: add0 08bd 436e 753d 156d 38bc 70a8 6fbd
00000260: f98d 853d 5375 39bd 9755 083c 43db f43a
00000270: 0fca dfbc 104e e2bb 6629 753d 19f3 4bbd
00000280: 1056 8d3d be5b 83bc 0db9 933d edd5 f33a
00000290: 1336 8abb c8c5 893d fdf1 463b 06c3 5d3a
000002a0: d2b4 413c 26f2 3dbd 8411 763d 9a78 5b3d
000002b0: 3e6e 623d 67e1 c3bc 630f 413d cb13 85bc
000002c0: 8c6b 1e3b 38f2 60bd 3e74 b9bc a7b7 1bbd
000002d0: 5494 82bc cf97 353d c72e ae3c 58d1 0cbd
000002e0: 9afc 643c 57a2 a43d 05c9 7fbd 7d64 3ebc
000002f0: 0029 11bd fba7 d33a 7ac3 1c3d 301f 393d
00000300: 2988 a83c af3f 04bd f521 523d 8b3f 51bd
00000310: cc54 963a 76fb 86bd 3fdb e4bb 8c18 fb3c
00000320: c290 863d 29d8 4c3c 2fd9 3ebd 681d ef3c
00000330: 9bd3 50bb d544 9cbd 8913 11bd 73ac b33c
00000340: 6e3c 7b3d b306 8ebd 6f3f 5d3d d1f9 cabc
00000350: d9cd 213d 88f4 913c 841b 07bd 17fc 293d
00000360: 22c7 b6bc 81cb ce3c 54b3 a13b 988b 823d
00000370: 8a76 dc3b a653 583d a6ba 81bc f59b ddbc
00000380: 3b39 2ebd 13fc 1b3d 3ea4 afbc e980 863d
00000390: d875 823d a27f a53d f8e9 07bd 245e be3c
000003a0: 0a42 0a3d c042 ab38 751f 153c 5a2f 5fbc
000003b0: 349e ee3c a88c 5abd debb 1f3d b991 813d
000003c0: cb29 20bc 46dd 6d3b c071 15bc 7539 30bd
000003d0: c166 55bd 1362 4bbc a850 28bd 32d7 6f3d
000003e0: 43d5 04bd e506 103d 240a 993d 932c 783d
000003f0: 7e5e 8a3d 320f 55bd dc69 823c c779 693d
0.053938065 0.012436121 0.061530847 0.025419049 0.0046259817 -0.06344267 -0.04313277 0.00095337396
0.003520323 -0.03140367 -0.042535014 0.06677557 -0.00012038471 -0.054179538 0.0288451 0.06801024
-0.010546865 0.026031801 -0.00051332224 0.009696734 0.02315514 -0.06451572 0.012586166 0.05031273
-0.061512858 -0.007188205 0.0017741385 0.05253118 0.06307078 0.029367095 -0.037393857 0.024237847
-0.030702382 -0.052664295 -0.024737041 -0.019897252 0.013403438 -0.059702333 0.032900523 0.03431918
-0.04905651 -0.040469684 0.06215139 -0.00840593 0.02727777 -0.01411108 0.048710465 -0.069200754
-0.05821189 0.0009375776 0.03314724 0.020642601 0.030064827 0.022874173 -0.02634027 -0.02196502
0.027665615 -0.06476068 0.035690445 0.06661719 0.06585105 0.0074529424 -0.0614807 -0.04620642
0.0046096784 -0.059828803 -0.00046599 0.02836311 0.010868242 0.043477427 -0.062565155 -0.0014007312
0.054975502 0.06578945 -0.019892687 0.0050643003 -0.05500464 0.016099827 0.030622348 0.06728728
-0.07415895 0.07522396 0.023133758 0.038320553 0.028725024 -0.03043424 -0.06692585 0.053212922
0.05968425 -0.061287444 -0.010266199 -0.06752138 -0.022078902 0.053840294 -0.058739144 0.022567695
0.00799194 -0.04823388 -0.01565701 0.028368274 -0.020487098 -0.026728561 -0.026737828 -0.05747388
-0.05231445 0.0558646 -0.0027742982 0.060971443 -0.022415383 -0.00247595 0.018932972 0.033177223
0.04362114 -0.029699255 0.030540582 0.062902875 0.006199981 0.0753471 -0.019865355 0.017823206
0.009693492 0.036030814 0.04815735 0.060562134 -0.05643069 0.033083435 -0.04513088 -0.066104874
0.07063296 -0.032679472 0.016866352 -0.019859474 0.06014082 -0.042921044 0.02859317 0.0023565593
0.046494704 -0.0653732 0.0028167006 0.0158739 -0.014085685 0.034224372 -0.021241693 0.045724466
0.05500573 -0.01103333 0.053607218 -0.033301376 -0.033402134 0.059919607 -0.011256476 -0.058510244
0.0652122 -0.045277905 0.008321187 0.0018681068 -0.027318029 -0.0069062784 0.059853934 -0.049792383
0.06901181 -0.016034957 0.0721303 0.0018603184 -0.004217872 0.06727177 0.0030356639 0.0008459542
0.011822896 -0.04637351 0.060075298 0.05358181 0.055280916 -0.023911191 0.047133815 -0.01624479
0.002417299 -0.054918498 -0.022638436 -0.03801694 -0.015939869 0.04433423 0.02126254 -0.034379333
0.0139762405 0.08038776 -0.062447567 -0.011620638 -0.03543949 0.0016148085 0.03827236 0.04519576
0.020572739 -0.032287296 0.051301915 -0.05108599 0.0011469363 -0.06590931 -0.006984144 0.030651353
0.06570579 0.0125027085 -0.04659384 0.029188827 -0.0031864408 -0.07630316 -0.03541902 0.021932816
0.061336927 -0.069348715 0.054015573 -0.024777325 0.039502952 0.017816797 -0.032985225 0.041500177
-0.02231175 0.025243523 0.0049347077 0.06374282 0.006727998 0.05281415 -0.015836071 -0.027051905
-0.042535048 0.038082194 -0.021440621 0.065675564 0.06370133 0.08080985 -0.033182114 0.02323825
0.033754386 8.1663486e-05 0.009101738 -0.013622129 0.029128172 -0.053356797 0.038997523 0.063266225
-0.009775589 0.003629522 -0.009121358 -0.043023545 -0.052099947 -0.012413519 -0.041092545 0.058554836
-0.032429945 0.035162825 0.07472637 0.060589384 0.06756304 -0.052016445 0.015919618 0.0570009

baseModel.8.bias f4 [64]
00000000: 7058 b5bc eb33 65b6 7aad 9d3b 5f97 0bbb
00000010: 1706 b7b5 d119 19b6 20b0 53bc 2342 1fbc
00000020: 60e0 77b9 17d1 81b6 0c51 403a 7383 0fbd
00000030: 55d1 b83c 4abd 99bc 3b69 153b aebf 5035
00000040: 7b84 a436 617d c03c d6f9 c93a 8b14 313b
00000050: 7d79 5dbc f052 113c 41b5 c337 cf03 433c
00000060: 8fa7 a73c 6e52 1b36 0d90 c83b fcd1 23ba
00000070: abdf 9dbc 7b57 e2b4 7676 2c3c b2ef dab9
00000080: be5d 6cb6 27b0 07bd 1a9b 98bc b6ff 3fb4
00000090: b5f1 a93c cf5d 5e3c 2000 0037 f6d2 1bbc
000000a0: c006 c63a 6188 4636 6985 97bb 5b7b a3bc
000000b0: 4b08 8eb5 d894 ab3c d676 b5b8 98e7 1436
000000c0: a1be 35bb bea6 f9bc f095 d5bc 951b 29bb
000000d0: 548d c1bc 89ee 8c34 a5dc 1ebc 35a2 56ba
000000e0: dd0b 24bc ed5d aa3c 20d7 723b 435b e4bb
000000f0: 2a7f 91bc 5b84 c53b 4608 86bb 79a3 19bc
-0.022136897 -3.415388e-06 0.00481194 -0.002129994 -1.3636335e-06 -2.2813804e-06 -0.012920409 -0.009720358
-0.00023639342 -3.868841e-06 0.00073362957 -0.03503747 0.022560755 -0.018767018 0.0022798318 7.776497e-07
4.9030036e-06 0.023497285 0.001540954 0.0027020301 -0.013517735 0.0088698715 2.3330214e-05 0.0119027635
0.02046564 2.314478e-06 0.006120688 -0.00062492467 -0.019271692 -4.215943e-07 0.01052629 -0.00041758787
-3.5221306e-06 -0.033126976 -0.018628646 -1.7881288e-07 0.020745138 0.01357217 7.629424e-06 -0.009510746
0.0015108213 2.9583682e-06 -0.004624058 -0.019956281 -1.0582238e-06 0.020944998 -8.6528875e-05 2.2188524e-06
-0.0027732032 -0.030475017 -0.026072472 -0.0025803794 -0.02362696 2.625059e-07 -0.00969616 -0.0008187623
-0.010012594 0.02079674 0.0037054494 -0.006968887 -0.017760832 0.006027741 -0.0040903417 -0.009377354

baseModel.9.weight f4 [64]
00000000: 627c 7d3f 4714 7e3f 6200 7d3f 592a 7d3f
00000010: f1c4 7e3f 1ecb 7b3f 140a 7f3f f6e5 7d3f
00000020: 356a 7a3f 5c46 803f 9fee 7c3f 517a 813f
00000030: 2345 7c3f 710d 7d3f 309d 7b3f 7c57 7d3f
00000040: 3b1d 7f3f 28ad 7b3f d7fa 7c3f 9bb9 7d3f
00000050: f67c 7d3f 4835 7d3f 7470 7e3f 6d40 7d3f
00000060: 2144 7d3f 5058 803f a470 7d3f 3ca0 7c3f
00000070: 9aa1 7b3f b6c0 7c3f 3897 7b3f a9ab 7c3f
00000080: 6e63 7d3f b3f9 7d3f a427 7e3f 014e 7d3f
00000090: 0ce2 7b3f 30f4 7e3f 266f 7d3f 735b 7d3f
000000a0: ccc0 7c3f 1ee9 803f 40a8 803f afaa 803f
000000b0: 6c1a 7e3f 1b0b 7c3f 0bed 7c3f f3a2 7d3f
000000c0: 50a8 7e3f 11d2 7f3f ee7d 7f3f feb3 7e3f
000000d0: 48e5 7d3f cb29 7d3f e1ae 7d3f fa01 7f3f
000000e0: a062 7c3f 18d7 7d3f 7212 7f3f e345 7e3f
000000f0: 1093 7c3f 9867 7f3f 1a34 803f 7cb6 7c3f
0.9901792 0.9924969 0.9882871 0.9889274 0.9951926 0.9835681 0.99624753 0.9917902
0.9781831 1.0021472 0.98801607 1.0115453 0.98542994 0.98848635 0.98286724 0.98961616
0.9965398 0.9831109 0.9882025 0.99111336 0.990188 0.98909426 0.9939034 0.9892643
0.9893208 1.0026951 0.99 0.98682 0.9829346 0.98731554 0.98277617 0.9869943
0.9897984 0.99209136 0.99279237 0.9894715 0.98391795 0.9959135 0.98997724 0.98967665
0.98731685 1.0071142 1.0051346 1.0052088 0.99259067 0.98454446 0.987992 0.99076766
0.99475574 0.9992991 0.9980153 0.99493396 0.9917798 0.98891896 0.9909497 0.9961239
0.9858799 0.9915633 0.9963752 0.9932539 0.986619 0.99767447 1.00159 0.9871595

baseModel.9.bias f4 [64]
00000000: 9cfb 723b 298d c03b 8394 e5b9 32ce 233a
00000010: c01f 1d3c 5a5e 04bb ee53 943b 5aef 4d3b
00000020: 0326 2ebc 49be 103c ac49 d0b9 e60b 793c
00000030: e9f4 49bb 36fb 88ba 8ec0 a4bb 9506 86bb
00000040: 86a8 253c f8be e1bb 4e71 85ba 9c3f 8bbb
00000050: 9f6f 33bb 1eba b63b 2705 633b a585 553b
00000060: f6a8 8fba a4ee 703b 93ee d0ba e4df 5a3b
00000070: 550f dfbb 035a 6d39 ab14 97bb 9987 a4bb
00000080: 4183 673b 23ae e33b 14d7 0e3c 261d 6c3b
00000090: 384d e2ba de5e e33b 0e87 7b3a a770 2a39
000000a0: 482a ff39 68c2 3c3c 27aa acba e284 3e3c
000000b0: 41c5 193c 5dcf 1239 718b 1eba d296 033a
000000c0: e05f 6f3b 2e69 0a3c 44d1 0a3c 04d4 8a3b
000000d0: 717b 383c 9407 aabb 2e28 1eb9 cbd3 123c
000000e0: 0f95 aabb 6f2d d63a 65cf 113c 8401 873b
000000f0: d860 cebb c4cd fd3b 7b5d be3b f162 f93a
0.003707624 0.0058762026 -0.00043788934 0.0006248682 0.009590089 -0.002019784 0.0045266068 0.0031423182
-0.01062918 0.00883443 -0.0003972774 0.015200591 -0.0030816144 -0.0010450843 -0.005027837 -0.00409014
0.01011098 -0.0068892203 -0.0010180862 -0.004249526 -0.0027379764 0.005576386 0.0034640522 0.003258088
-0.0010960388 0.0036763335 -0.0015940241 0.003339761 -0.0068072476 0.00022635613 -0.004610618 -0.0050210473
0.0035326036 0.006948249 0.008718271 0.0036028116 -0.0017265445 0.0069387993 0.0009595015 0.0001625443
0.00048668892 0.011520959 -0.0013173268 0.011628361 0.009385408 0.00014000894 -0.0006048 0.00050197274
0.0036525652 0.008447928 0.008472744 0.0042367 0.0112598995 -0.0051888917 -0.00015083022 0.008961628
-0.0052057575 0.0016340445 0.008899544 0.0041200537 -0.006298166 0.0077454764 0.0058094836 0.0019026679

baseModel.9.running_mean f4 [64]
00000000: 790d f53e 834d 923d e5e5 fd3e bbed 583e
00000010: b7fc 0e3f a2b3 3b3e 61f0 11be 8817 4b3c
00000020: 3b7d 85be 20b3 e53d e20b 11bf 99dd 3bbf
00000030: f642 a83e 7884 9cbc dc3a afbe 069c 8cbe
00000040: 53ae 873d f68f 24be fdf3 893d 79a4 7abe
00000050: 863f 803e 786c 533f 1bbf 6f3e 1db4 2dbf
00000060: fbdc 023b 7b9f 393e af63 70bf 08ef 0bbe
00000070: d3cc 753e a146 19bf 4755 76bf 0bf3 d83d
00000080: 427b bf3d f31c 34bc 914d 5f3f f488 e13e
00000090: 2a58 ffbe dd76 50bf 5e34 433e 2060 1bbe
000000a0: b091 303f 3b9b 303e be44 04bf 1588 d2be
000000b0: 5ce6 5d3f 5114 453e d0d4 933e 66f1 cc3e
000000c0: 2532 83be 0c08 85bd f1fa 283e 745b e2be
000000d0: 5224 ca3e 15a5 ddbe 7428 b3be cc0d 423d
000000e0: 96e6 35bf 1178 893e 013f 633e f781 c7be
000000f0: 2aa6 7abe 81cd 40be 16ea 9fbe 12db 83be
0.4786184 0.071436904 0.49589458 0.21184437 0.5585436 0.18330243 -0.14251854 0.012395747
-0.26072106 0.11215806 -0.56658757 -0.73385006 0.32863587 -0.019106135 -0.34224594 -0.27462786
0.066250466 -0.16070542 0.0673599 -0.24476804 0.25048465 0.82587385 0.23412745 -0.67852956
0.001996814 0.18127243 -0.93902105 -0.13665402 0.24003915 -0.59873396 -0.9622387 0.10593232
0.093496814 -0.01099323 0.8722773 0.440498 -0.4987195 -0.8143137 0.19062945 -0.15173388
0.689723 0.17246716 -0.5166739 -0.41119447 0.86679626 0.19246031 0.288733 0.40027922
-0.25624195 -0.064956754 0.16501977 -0.44210398 0.39480835 -0.4329001 -0.349918 0.04737644
-0.7105497 0.26849416 0.22192003 -0.38966343 -0.24477449 -0.18828394 -0.3123328 -0.25753075

baseModel.9.running_var f4 [64]
00000000: a0c9 253e da27 0f3e fce7 213e 8e0c 0b3e
00000010: e020 2c3e 2d0f 353e 31e8 123e 8ef3 223e
00000020: 7b3d 303e 26cb 243e 3a9a 163e 8a3d 843e
00000030: e740 413e cfd6 503e 4748 363e 5337 293e
00000040: 94a8 f53d 2fd0 613e d332 4b3e 6da9 423e
00000050: 56b8 533e b476 3c3e b4c3 223e 69aa 6f3e
00000060: 14e9 e33d cdaf 4e3e a91d 7b3e c65a 343e
00000070: d88d 173e ce10 213e fd2f 6f3e 8bc8 283e
00000080: 27d0 f33d 37fe 053e 0db3 5d3e 2824 153e
00000090: 4be3 593e f4a3 833e 4f8b 193e 61f4 083e
000000a0: 45be 333e 4d76 3e3e bbae 5f3e c7c6 5b3e
000000b0: 297e 403e 0903 273e 9f8a 843e 6ed0 0f3e
000000c0: 8b00 3f3e dca0 323e bce3 293e 13fc 153e
000000d0: c038 0c3e 41c9 833e e8d1 573e adc6 133e
000000e0: a370 253e 0902 063e e625 433e 96ee 083e
000000f0: e6a9 233e eecd 273e 38d4 4e3e 77f6 f33d
0.16190195 0.13980046 0.15811151 0.13579008 0.16809416 0.1768157 0.14346386 0.15913221
0.17210953 0.1609312 0.1470727 0.258282 0.18872415 0.20394443 0.17801009 0.16525011
0.11995044 0.22052072 0.19843607 0.19009943 0.20675787 0.18404657 0.15894967 0.2340485
0.111284405 0.2018425 0.24523033 0.17612752 0.14800203 0.15729067 0.2335815 0.16482751
0.11904936 0.13085257 0.21650334 0.14564574 0.21278112 0.25711024 0.14994548 0.13374473
0.17553051 0.18599816 0.21843998 0.21462546 0.18798126 0.16309752 0.2588701 0.14044353
0.18652551 0.17444175 0.1659078 0.1464694 0.13693523 0.25739482 0.21076167 0.14431258
0.16156249 0.13086714 0.19057426 0.13372263 0.1598278 0.1638715 0.20198143 0.11912244

baseModel.11.weight f4 [32, 64, 3]
00000000: e202 0abd 05cd f7bc 130d 59bd 0111 62bd
00000010: c685 fd3c 2113 863d c6cc 54bd bb4f 323d
00000020: d829 843c 02d7 1fbd 207a 43bd 5e9d fa3c
00000030: 4671 6bbd 7e3a c8bc d900 963c 030c 713d
00000040: fcaf 763d 2d54 323c 8539 80bd 8e0e fa3c
00000050: 236d 173d 28f0 743d 9a81 2dbd 6b88 353d
00000060: 1293 46bd de5c 4e3d 22a6 883c 87f0 50bd
00000070: ecba 40bd 0c8c 093d 53c9 483c eb7a 393c
00000080: 994c 053c ad02 603d f2b9 883d d8a2 f73c
00000090: 8b0e 163c 3e38 c7bc aea1 31bd f96d f83b
000000a0: e250 dcbc 3eae f83c 9726 b73b 87d3 a73c
000000b0: 3e71 843b fbdf 8b3d 9974 f7bb cd3c 253d
000000c0: 0587 773d 1de7 5c3d 2969 84bd 69ae 8abd
000000d0: fc19 553d ece5 ff3c 169d c7ba 1c82 b53c
000000e0: 835e fb3c d692 2d3d ca9c 683d 0cb4 98bc
000000f0: 296f 043d c694 6b3d b566 5dbc 0d52 04bb
00000100: 673b 6abd 61f0 26bd 41e9 7e3c f4de 943d
00000110: 7742 2e3d 3d92 16bd 30b4 773d 1ae3 4fbd
00000120: 4bef 93bc 436e 3e3d b39c f4bc 9615 763d
00000130: 7dd2 9d3d 194e a0bc 2be0 8dbd 1fc4 28bd
00000140: a965 403b b42a 29bd 82d7 203d 9950 79bd
00000150: ae75 173d 4155 08bc 4544 133d 70c7 3d3c
00000160: 7bad 98bc 7b04 02bd 159d 94bd bea5 193d
00000170: f19a 3fbd ef9f 833d e683 76bd e9a0 1abd
00000180: 4bd3 203d 7835 de3c 28f8 a6bd 036b 8cbd
00000190: e559 143d c6b7 e2bc 82c4 7abd c372 b5bc
000001a0: 6c08 1f3d d512 0d3d 4b69 333c a6de 22bd
000001b0: 3f19 0f3d 5719 8639 4500 50bd 12b4 6c3d
000001c0: 9262 353d e372 0abd 8bb8 773d 67a8 a13d
000001d0: 5dc7 893d bf7f 68bc 615f 5a3c 1b19 3b3d
000001e0: b778 593d d1e7 563c 8014 52bd 12c6 ce3a
000001f0: f12b 73bc c2c5 dc3c c49b 363d 6edf 83bd
00000200: 86ce cabc aef6 bc3c 5790 6e3d fc2d 673d
00000210: 3151 db3c 5771 a03c 89b8 253d 376c d2bc
00000220: 1ea9 73bd 4b40 ef3b c085 24ba 3665 25bd
00000230: 031e 7ebc 5f0c 05bd 04fe 4f3d fa05 be3c
00000240: 3c5b d4bb 7c41 76bc 660a 7ebd 22b8 343c
00000250: b8cd 593d 7ea4 393c 3477 723d 50aa f73c
00000260: adc4 4a3d 31fd 5b3d 0584 903d 5766 87bd
00000270: ed04 81bc b0d5 8a3d a9ae 2a3b 1c12 90b9
00000280: bbb0 c13c 50ad 89bd f9af 37bd 4892 97bc
00000290: 8d60 d0bc 9ff4 8c3c f575 d2bc 8079 953d
000002a0: b692 703d 5c75 483c 9b45 763d 2213 8f3d
000002b0: 1e10 3fbd 6616 85bd e4b1 8ebc a56c c53c
000002c0: 477e 463d 4cb8 dcbc 423b 33bc 539d a7b8
000002d0: becd 8b3d 9de3 5dbd 07d6 283d 52fe 7abd
000002e0: 5253 633d 0406 843d 4ac5 5a3d e247 1f3d
000002f0: 21f0 043d e8cc 92bc 64d0 a5bc 32a1 f7bc
00000300: d518 c1ba 48d5 d2bc f40c 093d af7c 873d
00000310: 341b 473d 5fcf 103d fcad 19bd 8929 0c3d
00000320: b874 ed3b 241a 0fbd b459 793d e850 c2bc
00000330: 2099 1abd 5dde e9bc 1fe4 763d 7f46 35bc
00000340: 58ea 1bbd 0a41 85bd 216d e3bc 355a beba
00000350: 4b6a cbbb 71d6 92bc a9c9 fcbb 8e90 81bd
00000360: 9fb8 acbb a0ca 6cbd e5f4 353d 66f7 723d
00000370: 8bf4 1cbc e1c6 62bd a260 893d cec4 603d
00000380: 4bff ddbc d8bd 713d ca63 86bd c039 2d3d
00000390: 5f24 fcbc b4a5 dcbc 04e9 2c3d d2b1 0abd
000003a0: b766 9b3c bf90 28bc 31f8 333d e245 853d
000003b0: 7850 693d 4d67 86bd 895d 96bd d2bc 17bd
000003c0: f11f 77bd 7918 0ebd 434f 3bbd 1887 dabc
000003d0: d6f5 1e3c cc27 ad3b bb2e 4fbd b406 e3bc
000003e0: 5093 64bd 742e 34bc b71b 6e3d e982 02bd
000003f0: cb3b 023c 172c 02bc d2f6 62bc 3a88 0139
-0.033694156 -0.030249128 -0.052990984 -0.055191997 0.030947577 0.06546617 -0.0519531 0.04353307
0.016133234 -0.039023407 -0.04772389 0.030592617 -0.057481073 -0.024441954 0.018310951 0.058849346
0.060226426 0.010884327 -0.06260971 0.030524518 0.036969315 0.059799343 -0.042359926 0.04431955
-0.0484801 0.050381534 0.01668078 -0.051010635 -0.047053263 0.033580825 0.012255031 0.01132081
0.008135938 0.05469005 0.06676091 0.030229017 0.009158741 -0.02431881 -0.04336708 0.007581469
-0.026894037 0.030356523 0.005589317 0.020486606 0.00404182 0.0682983 -0.0075517413 0.040341187
0.0604315 0.053931344 -0.0646537 -0.06771547 0.052026734 0.031237565 -0.001522931 0.022156768
0.030684715 0.04237636 0.05679015 -0.01864054 0.032332573 0.05751493 -0.013513257 -0.0020190508
-0.057185557 -0.040756587 0.015558542 0.072690874 0.042543855 -0.036760557 0.060474575 -0.05075369
-0.01805844 0.046491873 -0.029859876 0.06007918 0.07706163 -0.01956849 -0.06927522 -0.04120266
0.002935747 -0.04130049 0.039268024 -0.06086788 0.036977462 -0.008321107 0.03595378 0.011583194
-0.01863741 -0.031742554 -0.072565235 0.03751158 -0.046778623 0.06426989 -0.060184382 -0.037751112
0.039264005 0.027125105 -0.08152801 -0.06856348 0.036218543 -0.02767552 -0.06122256 -0.02214945
0.03882639 0.034441788 0.010950397 -0.039763115 0.034936186 0.0002557735 -0.050781507 0.057788916
0.044283457 -0.03380097 0.06047873 0.07893448 0.06727479 -0.014190613 0.013328404 0.04567824
0.05309364 0.013116793 -0.05128908 0.0015775582 -0.014842019 0.026949767 0.044582143 -0.064391
-0.024756681 0.023066845 0.058243122 0.05644034 0.026772114 0.019585295 0.04045919 -0.025686366
-0.059487455 0.0073013655 -0.0006276034 -0.040379725 -0.015510085 -0.0324825 0.050779358 0.02319621
-0.0064806025 -0.015030261 -0.062021635 0.011030229 0.053174704 0.011330722 0.059195712 0.030232579
0.04950397 0.05370826 0.07056431 -0.06611317 -0.01574942 0.06779039 0.0026044047 -0.00027479313
0.023643842 -0.0672251 -0.044845555 -0.01850237 -0.025436664 0.017206488 -0.025691012 0.07298565
0.058733664 0.012235012 0.060124975 0.06986071 -0.04664623 -0.06498413 -0.01741881 0.024099657
0.04846027 -0.026943348 -0.010939421 -7.9924845e-05 0.068263516 -0.054172147 0.041219737 -0.061277695
0.055499382 0.0644646 0.053410806 0.038886912 0.032455567 -0.017919973 -0.02024097 -0.030228231
-0.0014732132 -0.025736466 0.03345962 0.066155784 0.048609927 0.035354014 -0.03751944 0.0342193
0.00724658 -0.03493704 0.060876563 -0.02372022 -0.037743688 -0.028548414 0.060276147 -0.011064171
-0.038065284 -0.06506546 -0.027761998 -0.0014522733 -0.0062077395 -0.01792452 -0.0077144695 -0.063264
-0.005271032 -0.057810426 0.044423003 0.05931797 -0.009579788 -0.055365447 0.06707884 0.054875188
-0.027099272 0.05901894 -0.06562002 0.042291403 -0.030779062 -0.026934482 0.04221441 -0.03386099
0.018969877 -0.010288416 0.043937866 0.0650747 0.056961507 -0.06562672 -0.07342059 -0.037045307
-0.060333196 -0.034691308 -0.045729887 -0.026675746 0.009702167 0.005284285 -0.050581675 -0.027713157
-0.05580455 -0.010997403 0.0581319 -0.031863127 0.007948826 -0.007945082 -0.013852792 0.00012353147

baseModel.11.bias f4 [32]
00000000: 75f7 5ebc a0f0 9eba 4502 1b3c e10b 893c
00000010: dd20 e8bc 8686 163a a277 6fb5 7938 2dbb
00000020: c70d fdbc e11d 173c 777d dd3c edb4 c739
00000030: 84b4 79ba 14ff 153d 2c89 74bb 6aec 6bbc
00000040: a67a a93c 6685 013c 96df 8bbc b1f7 82bc
00000050: 90c3 96ba 86e2 52b8 68d7 13bc 609b 83bc
00000060: a05c 3abc 5878 023d 146c 093d 8fc9 abbc
00000070: cdf8 e435 3483 133d 537a d83c 2b31 71bc
-0.013608803 -0.0012126155 0.00946099 0.016729297 -0.028335983 0.00057420915 -8.9208527e-07 -0.0026431365
-0.030890359 0.009223432 0.027037365 0.00038091038 -0.0009525495 0.036620215 -0.0037313206 -0.014399627
0.020688366 0.00790534 -0.017074388 -0.01598725 -0.0011502374 -5.0278868e-05 -0.009023525 -0.0160653
-0.011374623 0.03185305 0.033550337 -0.020970134 1.7059734e-06 0.036013797 0.026425516 -0.014721195
