Models/intialized_eeV4_0501_after.pth (torch, 770603 bytes, 48 tensors)

baseModel.0.weight f4 [64, 2, 3]
00000000: f604 b4be ec10 893e 551e ce3e d03d eabd
00000010: 795d 59bc 5523 afbe ae69 4e3e 6881 673c
00000020: d556 6c3c 40ff 42bd 373a 99be 6f65 8ebe
00000030: bbc6 8abe 7eeb 633e 440e 963e 3fd7 823e
00000040: 9a4d 89be 6888 a3be 5685 9fbe d192 74bb
00000050: 0505 a73d 29f1 75be 4954 033e fadc 8ebe
00000060: ea8a 14bd c1e0 853d 406f 0abc e5d5 973e
00000070: 2fc8 203e 18ce 3cbd 51bd 993e efb7 8abe
00000080: 676c 7d3d 6dc1 66be 40de b2be 7615 a2be
00000090: 8b00 a4be 8c74 c2be a01a 803d 9e60 8cbe
000000a0: 317f 9f3e c071 f03c 2ce8 f73c 77f6 e5bd
000000b0: 3bc7 753e c8ce 733d 2e2e 9ebd 1247 0a3e
000000c0: 96e1 03be 730d 413e 132a 01be 5e24 82bd
000000d0: b47b 9cbb 762c 8dbe 5316 a13d e228 9bbe
000000e0: ff11 5cbe d123 8ebe eace 993e d3dc a53e
000000f0: 436f 913e 8d3d 343e 5894 8dbc 0c67 34be
00000100: d46d bf3d be50 a93e 9446 a13e e113 a4be
00000110: c0b8 6abe b3f7 90be ccbe 8b3d 5c08 3f3d
00000120: 1438 283d 72db 123e b004 b63e 3c64 163e
00000130: 787e 60be 28ee 813e 81e4 04be 7e65 2cbe
00000140: 313d 3cbe 68d6 bd3e 2f90 abbe 5d05 4dbe
00000150: b838 5cbe 2810 313e a62d ae3e 544a 95be
00000160: 63fe b7ba 5dc5 fabd b5ed e6bd f83b ffbd
00000170: 4f37 a7bd a11e 89be 395d 83be 57ee a4be
00000180: 8cae ad3d 11d1 d53c 4e41 493e 328f 9e3d
00000190: 65c6 90be c74d c53e 0d2d b9be cfe6 90bd
000001a0: ac32 87be 25e0 10bd 45da cfbe df70 9e3e
000001b0: 76de 223e c773 09bc ed08 1ebe 7acc 723e
000001c0: ca7f 3bbe 01f8 8d3e 79f0 a8be e6e5 703e
000001d0: 03fa b63e 1310 9dbe a99a bb3e c574 ce3e
000001e0: 17fb 7c3d e84f 713e 339c 71bd 7cc2 e5bd
000001f0: 1d0e 5abd aa84 dcbc 96bc 4fbe c7fe c23e
00000200: 7383 943e 7281 9dbd 7aeb bdbe 5799 983e
00000210: 43c2 e9bd f543 573e 4beb 453d 10c2 c6bd
00000220: efbd 0e3d 0857 763e a787 c0bd 3e78 503e
00000230: 01be 583e f31a abbe 9ac7 a5be a6d0 a4bd
00000240: 7b94 873e 16b7 afbe e504 bbbe b8aa bbbe
00000250: 7b3e 91be 6d40 f63d bbd4 51bd f0f2 c7bd
00000260: c740 84bd ad09 adbe 54d4 1e3e 39f1 d9bc
00000270: 1e9f ee3d eaf4 e83c f9ff c63e 5113 a13e
00000280: b3bc 8a3e bc58 9b3e 1e76 10be 7907 a33e
00000290: 85b5 4f3e 6e50 b53d d3da 16be 861b cabe
000002a0: 3309 8c3e 1ea2 34be ec76 bc3e de7e 193d
000002b0: 80c0 23bd fa42 15be bbe4 8abe 8458 943e
000002c0: 011b 8fbc c4c2 90be 9b54 bebe 1d91 913e
000002d0: 8ec2 8abe 468c dbbd 33e5 2d3e a23a 15bd
000002e0: f96d 0abd a953 793e 3160 d6bd 9e2e 91bd
000002f0: 515a abbe ca7a bc3e 88de 6f3e 4ca2 753e
00000300: 6f17 b53e 684f 003e c007 d63b 86ba 663d
00000310: bdab 3bbd cddb c0be d409 c23e 77d0 60bd
00000320: 8365 5abe 9baa 73bd aec7 40bd 9b5d 4c3e
00000330: a5b2 c3be 5755 c5be b972 cabe 903d b2be
00000340: 088d 0fbe 89cd 27be 009e 5dbe 15fe c5be
00000350: ca12 03be cb17 ca3c 182c a83d be32 9ebe
00000360: 78a8 61be b13a bebe e0dd 95be 02cf 663d
00000370: 7d04 c2bd 3dc7 7c3e 9d89 603d f137 153d
00000380: de1a 863d 6877 383e fefb 913e 936b c73e
00000390: cde2 673e 9cd2 95bd a2c4 9fbd 4c2f 94bd
000003a0: 36f0 80bd 8157 e4bd e454 a73d 73f6 c5be
000003b0: 5710 0bbe 59d1 bcbe b275 51be a512 8c3e
000003c0: 235c fdbd 8950 80bd 8f2d a13d 4309 90be
000003d0: 74fc 20be 4d73 233e b969 903e adc3 d03d
000003e0: e0a7 663e ed92 343e b7ac 0a3e acdc bf3e
000003f0: 5a5f 42be 3c9b b43e 395e 0dbd d786 b6be
-0.35160035 0.26770723 0.40257517 -0.11437571 -0.0132669145 -0.34206644 0.20157501 0.014129974
0.014424999 -0.047606707 -0.29927227 -0.27811763 -0.27104744 0.22257802 0.2930776 0.25554845
-0.26817018 -0.31940007 -0.31156415 -0.0037318955 0.08155254 -0.24017777 0.12825121 -0.27902967
-0.03626529 0.06537009 -0.008449376 0.29655376 0.15701364 -0.046094984 0.3002725 -0.27093455
0.06187096 -0.22534724 -0.34935188 -0.31656998 -0.32031664 -0.37979543 0.06255078 -0.27417463
0.31151727 0.029351115 0.030262075 -0.1122865 0.24001782 0.059523374 -0.07723652 0.13503674
-0.12879023 0.18852787 -0.12613706 -0.06354593 -0.0047754887 -0.27572984 0.07865586 -0.3030463
-0.2149124 -0.277617 0.30040675 0.32395038 0.28405198 0.17601605 -0.01728265 -0.17617434
0.0934712 0.33069414 0.3149916 -0.32046416 -0.22922039 -0.2831398 0.06823501 0.04663883
0.041069105 0.14341524 0.3555045 0.14686674 -0.21923244 0.2537701 -0.12977792 -0.16835591
-0.18382718 0.3707764 -0.3350844 -0.20021577 -0.21506011 0.1729132 0.34019202 -0.2915827
-0.0014037605 -0.12244675 -0.11275808 -0.1246261 -0.08164846 -0.2678118 -0.2565706 -0.3221309
0.08480558 0.026100667 0.19653818 0.07742156 -0.28276363 0.38535902 -0.36167184 -0.07075273
-0.26405847 -0.03537001 -0.40596214 0.3094549 0.15905175 -0.00838942 -0.15433092 0.23710814
-0.18310466 0.27728274 -0.32995966 0.235252 0.3573762 -0.30676326 0.36641434 0.40323463
0.061762895 0.23565638 -0.058986854 -0.112187356 -0.053236116 -0.026918728 -0.20286784 0.38085005
0.29006538 -0.07690705 -0.37093717 0.2980449 -0.114140056 0.21022017 0.048320096 -0.09704983
0.034849104 0.24056637 -0.09400874 0.20358369 0.2116623 -0.33418998 -0.32378846 -0.08047609
0.2648047 -0.3431937 -0.36527172 -0.36653686 -0.2836798 0.12024007 -0.051228266 -0.097631335
-0.06457668 -0.33796445 0.15510684 -0.026604282 0.11651443 0.028437097 0.38867167 0.3146005
0.2709709 0.30341136 -0.14107558 0.3184164 0.20284088 0.08853231 -0.14731912 -0.39474124
0.27350768 -0.17639968 0.3680948 0.037474506 -0.039978504 -0.14576331 -0.27127632 0.28973782
-0.017468931 -0.28273594 -0.37173924 0.28431025 -0.27101558 -0.107201144 0.16981964 -0.03643287
-0.033796284 0.2434832 -0.10467566 -0.0708897 -0.33467343 0.3681243 0.23424733 0.23987693
0.3536944 0.12530291 0.0065316856 0.056330226 -0.04581808 -0.37667695 0.37898123 -0.054886308
-0.21327786 -0.059488874 -0.04706543 0.19957583 -0.38222232 -0.38541672 -0.3954065 -0.34812593
-0.14018643 -0.16386999 -0.21642303 -0.38670412 -0.12800136 0.024669548 0.08211535 -0.30898088
-0.22036922 -0.37154153 -0.2927084 0.05634976 -0.09473512 0.24685378 0.05481874 0.036430303
0.06548093 0.180143 0.28512567 0.3894926 0.22645111 -0.07315561 -0.078011766 -0.07235584
-0.062958166 -0.111495025 0.081704885 -0.38664588 -0.13580452 -0.3687847 -0.20455053 0.27357975
-0.12371089 -0.06265361 0.07870018 -0.28132066 -0.15721303 0.15961953 0.2820566 0.10193572
0.22524977 0.17634173 0.13542448 0.37473047 -0.18981686 0.35274684 -0.034513686 -0.3564975

baseModel.0.bias f4 [64]
00000000: 7fa7 12be 02e6 90be e225 78bd b974 86bd
00000010: f907 7ebe e648 87bb 4265 463b f25a b83d
00000020: 1b2c 97be c5d8 0ebe 7f3e a239 79dd 97bd
00000030: 7d44 69be 0512 693c 6684 8f3e 6146 aebe
00000040: e620 acbd bbf9 503e 2c45 983e 72f4 89be
00000050: 2215 633d e3f5 383e 954f 5abe 5997 36be
00000060: 7166 35b7 ac85 c33d c213 93be 0f49 093e
00000070: 0ee9 9bbd c85e d0bd ad0e aabe b664 b5bd
00000080: 126a 95bd c35e d4b9 b8bc 1c3e 12b8 a03e
00000090: 7a3a 87bd 5d1f 803e d1e8 8abe a80a 87be
000000a0: befd b439 7442 993e bf7f ddb9 9081 8a3d
000000b0: 0618 ab3e 9e9a 8bbe 6da8 10be 00cd 943e
000000c0: 0fee 3cbb a4be e7bd 9623 ba3d 508c 0738
000000d0: 407c 07be 9f21 aebe 3a14 aa3e 8e7e 423e
000000e0: ab08 9c3e abf5 863d 489e d43d ea82 61bd
000000f0: 4cee b33d b771 093e 1210 3b3e f580 90be
-0.14321707 -0.28300482 -0.060583003 -0.06565232 -0.24807729 -0.004128563 0.0030272757 0.090017214
-0.29525837 -0.13949879 0.0003094561 -0.074152894 -0.22780032 0.014225488 0.280307 -0.3403807
-0.084047124 0.20407765 0.29740274 -0.2694431 0.055440076 0.18062548 -0.2131942 -0.17831172
-1.0812292e-05 0.0954698 -0.28726012 0.13406776 -0.07612811 -0.10174328 -0.33214322 -0.088571
-0.07295622 -0.00040506394 0.15306365 0.31390435 -0.066029504 0.25023928 -0.2713075 -0.26375318
0.00034521328 0.29933512 -0.00042247583 0.06762993 0.33416766 -0.272664 -0.1412675 0.29062653
-0.0028828417 -0.11315659 0.09088819 3.2317184e-05 -0.13230991 -0.34010026 0.33218557 0.1899359
0.30475363 0.06589826 0.10381752 -0.05505649 0.08785686 0.13422285 0.18267849 -0.28223386

baseModel.1.weight f4 [64]
00000000: d915 7b3f d035 793f fd2b 7b3f 5a98 7d3f
00000010: cd0d 7c3f 741f 803f b00a 803f 5681 7a3f
00000020: 9d19 7c3f 9595 7e3f 6a9a 7f3f 7302 7a3f
00000030: 89ce 7e3f 4709 7a3f 7bab 7d3f 9508 803f
00000040: a398 7b3f 34f0 7b3f c2ff 7a3f d5ba 803f
00000050: c9ec 783f e7cc 7f3f dca0 7a3f c7e4 803f
00000060: 7105 7b3f 3750 793f 0db9 7c3f 7ef7 7f3f
00000070: 6f64 7c3f 594c 7b3f 2908 7f3f 8744 803f
00000080: 9470 803f b281 7c3f d99b 7e3f 3e35 7d3f
00000090: 66fa 803f 4b75 823f 6d0d 7a3f 0a43 7d3f
000000a0: ad01 823f 8486 7b3f a248 793f a060 7c3f
000000b0: 115d 793f 219b 793f fe6d 7c3f 8f1a 7a3f
000000c0: 9bb3 7f3f da38 7e3f 48ee 803f 2f58 7e3f
000000d0: d4b8 7b3f 73ac 7a3f fb80 7d3f b634 763f
000000e0: 22cd 7b3f dfbc 7b3f e976 7f3f fb42 813f
000000f0: c0b1 7d3f 9c78 813f eb24 793f bb1b 7b3f
0.9808021 0.97347736 0.98113996 0.99060595 0.9845856 1.0009599 1.0003262 0.978536
0.9847658 0.99446994 0.9984499 0.9765999 0.995339 0.97670406 0.99089783 1.0002619
0.9827978 0.98413396 0.98046505 1.0057017 0.97236305 0.9992203 0.979017 1.0069817
0.9805518 0.97388023 0.98719865 0.9998702 0.9859075 0.9816337 0.99621826 1.0020913
1.0034356 0.986354 0.99456555 0.98909366 1.0076416 1.0192045 0.97676736 0.9893042
1.0156761 0.9825213 0.97376454 0.9858494 0.97407633 0.9750233 0.98605335 0.97696775
0.9988343 0.993055 1.0072718 0.9935331 0.983289 0.97919387 0.99024934 0.9617418
0.9835988 0.9833507 0.9979082 1.0098566 0.9909935 1.0114932 0.9732196 0.9808919

baseModel.1.bias f4 [64]
00000000: bc30 d5bc caef 013c 14e0 44bc 1164 f8ba
00000010: d18b 21bb dec2 84bb 0c86 1f37 a7dc 123b
00000020: 13c5 3cbc 7e6a c33b 9c57 21bd 2148 1bbc
00000030: a779 3bbc aeab a5bc 0555 35bc 9879 183a
00000040: 39b3 fcbb a2b3 8bbb c51a 77bc 38bb c0bb
00000050: 1e7c 2fbb 4a87 09bc 4fc9 17bc d2cd 053c
00000060: 3fd9 b0bc e7a0 5fbb 80c3 29bc 5411 b33a
00000070: 2e1b 87bc dbb4 72bb b265 3bbc a700 563b
00000080: 45a2 29bc d2e9 8c3c 27e4 48bc 3507 21bc
00000090: f09e a5bc 1312 d0ba 5ea4 8ebc c776 d0bc
000000a0: 67d2 26bc 68e9 bbbc 6873 8abc 36fb 9f39
000000b0: 7c58 8abc 640c ac38 c360 6b3a 09f7 42bc
000000c0: f1ac 693b cf52 45bb 8759 3138 1343 313b
000000d0: 5233 7dbc fc9a e5ba 46f8 b33c f855 cebc
000000e0: 92fa 143b 4c5e 7ebc 5e3c 5cbc a13f 13ba
000000f0: 0ed1 0c3c 4b8e 843c b9a7 28bc 28c8 f3bb
-0.026024215 0.007930705 -0.012016315 -0.001895072 -0.0024649987 -0.0040515503 9.508349e-06 0.002240935
-0.0115215955 0.0059636226 -0.03939019 -0.009477646 -0.011442578 -0.020223465 -0.0110676335 0.0005816459
-0.0077117947 -0.0042633573 -0.015082066 -0.005881693 -0.002677686 -0.008394072 -0.009264304 0.008166747
-0.021587966 -0.0034123005 -0.010361552 0.001366178 -0.016492452 -0.0037034068 -0.01143782 0.0032654197
-0.0103536295 0.017201338 -0.012261427 -0.009828378 -0.020217389 -0.0015874527 -0.01741236 -0.025447262
-0.010182 -0.022938445 -0.016900733 0.0003051401 -0.016887896 8.203907e-05 0.0008978957 -0.011899718
0.003565606 -0.0030109172 4.2283467e-05 0.0027048036 -0.01545413 -0.0017517502 0.021968972 -0.025187477
0.002273236 -0.015525412 -0.013442127 -0.00056170864 0.008594764 0.016181132 -0.010293894 -0.007439632

baseModel.1.running_mean f4 [64]
00000000: b586 13be b15c 91be 7f10 7bbd 85f4 87bd
00000010: 83f1 7ebe 700f 8ebb e580 523b 78fa b93d
00000020: 68a4 97be d9b4 0fbe 3c8a e236 7965 99bd
00000030: e62c 6abe d0a1 6f3c 0afb 8f3e 36c0 aebe
00000040: 7ab2 adbd 70df 513e 39bc 983e 4b6a 8abe
00000050: b4ee 653d 30d9 393e 1936 5bbe ed7c 37be
00000060: ba53 e036 b81e c53d 0b8a 93be 6c24 0a3e
00000070: 1b78 9dbd 5f03 d2bd a688 aabe 65f7 b6bd
00000080: 2cf3 96bd 2f8d efb9 a799 1d3e 022f a13e
00000090: cbbd 88bd c094 803e 005e 8bbe 4582 87be
000000a0: aa32 aa39 f8ba 993e 53d9 d6b9 f405 8c3d
000000b0: 438e ab3e b310 8cbe 3087 11be cd44 953e
000000c0: f588 48bb a171 e9bd 9cbc bb3d 3136 9038
000000d0: a155 08be c39a aebe 518e aa3e 7562 433e
000000e0: 6280 9c3e ba72 883d 5643 d63d 8760 64bd
000000f0: a482 b53d a94b 0a3e 73f4 3b3e ebf9 90be
-0.14406855 -0.2839103 -0.06129503 -0.06638435 -0.24896817 -0.0043353364 0.0032120284 0.09080976
-0.2961762 -0.14033832 6.7514175e-06 -0.074900575 -0.2286869 0.014625981 0.28121215 -0.3413102
-0.08481307 0.20495391 0.29831102 -0.2703422 0.05613585 0.18149257 -0.21407355 -0.17918749
6.6854673e-06 0.09625 -0.28816256 0.13490456 -0.07688924 -0.10254549 -0.3330738 -0.089339055
-0.073706 -0.00045690822 0.15390645 0.31481177 -0.06676825 0.25113487 -0.27220154 -0.26466575
0.00032462674 0.30025458 -0.0004097918 0.06837073 0.33506975 -0.2735649 -0.14211726 0.29154053
-0.003059921 -0.11398626 0.09166834 6.876549e-05 -0.13313915 -0.3410245 0.33311704 0.19080527
0.30566698 0.06662507 0.10462062 -0.05575612 0.08862808 0.13505425 0.18354969 -0.28315672

baseModel.1.running_var f4 [64]
00000000: 11f5 9837 9101 3937 1df3 8937 2f8d 0437
00000010: 5fae b836 7ba0 a637 b6f1 8937 ed40 2536
00000020: c66e 9336 2492 8b37 691f 3c37 23e9 3737
00000030: c665 2837 7ee7 6037 3de0 3e37 2209 8837
00000040: 2a01 f136 1aa2 8737 1ca5 ba36 fcc2 d337
00000050: f8c3 5736 b714 8e37 c829 9236 f46e 8c37
00000060: 67d7 bf37 a742 9936 8a55 bc37 a228 7537
00000070: e722 f736 f37c 6d37 334e d436 e7ff a837
00000080: 6991 5137 6c47 0337 93c7 1538 6b4c 8037
00000090: 195b 9a37 3adf 8337 e316 5136 37aa 8a37
000000a0: d748 cc36 3889 8e37 9d29 1737 d85e 4237
000000b0: 2248 5a36 d124 2f37 7c4f b936 bc77 d536
000000c0: 4be2 2937 d871 c836 de28 2f37 4c49 5537
000000d0: dbff b137 c4bc 4937 2565 d737 175a 8037
000000e0: dfc4 2d37 b270 e236 11b6 9737 473d 0038
000000f0: bc4e 6737 a687 5f37 2c88 4337 eb9a 1237
1.823393e-05 1.1027224e-05 1.6444881e-05 7.900685e-06 5.503927e-06 1.9863472e-05 1.6444228e-05 2.4624708e-06
4.393837e-06 1.6638143e-05 1.12129865e-05 1.0961931e-05 1.0037276e-05 1.3405339e-05 1.1377092e-05 1.6216716e-05
7.182495e-06 1.6168739e-05 5.562453e-06 2.5243957e-05 3.2151565e-06 1.6937365e-05 4.356003e-06 1.6740967e-05
2.2869279e-05 4.5675147e-06 2.2451179e-05 1.46125985e-05 7.365237e-06 1.4155393e-05 6.327196e-06 2.0146324e-05
1.2491227e-05 7.824838e-06 3.5710236e-05 1.5294374e-05 1.8400651e-05 1.5720365e-05 3.1156749e-06 1.6530144e-05
6.0881534e-06 1.6991617e-05 9.00999e-06 1.1585384e-05 3.2526518e-06 1.0439385e-05 5.522683e-06 6.3618336e-06
1.0125873e-05 5.9737176e-06 1.0440328e-05 1.2712855e-05 2.1219186e-05 1.2024484e-05 2.5677096e-05 1.530074e-05
1.0357441e-05 6.7484443e-06 1.8085384e-05 3.0574647e-05 1.3787005e-05 1.3323419e-05 1.1654611e-05 8.738348e-06

baseModel.4.weight f4 [64, 64, 3]
00000000: b92d 9ab9 a453 02bd 4962 5cbc 4657 cb3b
00000010: faf1 4fbb ef76 64bd 7779 203d 8a62 40bd
00000020: 9945 123d 3fe7 30bc 3d96 073d f57a 9a3a
00000030: e366 babd fdee ccbc a5ab 8a3b 1f87 19bd
00000040: 4932 533d d553 5c3d 62a9 023d 2847 8bbc
00000050: c2ec 00bd b45f 093d f68d 43bd de4f ea3c
00000060: 09cd da3c 0e9b 3dbd 8719 4e3b ec01 c5bc
00000070: b216 66bd 74e3 da3c 9613 843d 1630 b13c
00000080: ae88 723d 1ade 693c 016a 5a3d 2579 4abd
00000090: 40f3 e9bc e50b 243c e097 5bbd 526c 44bc
000000a0: c48d da3c 3327 32bd 2325 b73c c321 443d
000000b0: 897b 4c3d d849 a83d 8322 0fbd 4f7a 853c
000000c0: 56f8 de3c f87c 4c3d c4ae 76bd 7ad0 253d
000000d0: 3eb4 29bd 9718 313d 3851 823d 54d6 513b
000000e0: 626b 553d e0d4 4b3d d974 4ebd 4ed3 24bd
000000f0: 3b47 0d3c a0df 8dbd 5563 323c 3f91 623d
00000100: 9e00 163d d2d9 3dbd da2a 63bd f376 54bd
00000110: e0c2 30bd 291c b43c 3f9b 793c afe3 37bd
00000120: 1cb4 d2bc 750d 3d3d a94f 41bd a92d 0e3d
00000130: 07d3 2dbd dd10 a93c 1760 82bc e1ee ba3c
00000140: 5324 6dbc fe8f edbc f970 23bd f268 e63b
00000150: 46c1 823d b738 7a3d 06e8 9d3b ca76 873c
00000160: c3e0 603c afdb c8bc 43f9 51bd adfc eb3a
00000170: 5f75 e5b9 2d3f 31bd 036f 20bd c89c 39bd
00000180: b85a 57bd b03c 4f3d d785 ccbc c2db 13bc
00000190: 2c6f adbd 8f7a e5bc 0c98 c7bc 614d 96bb
000001a0: 7de6 6e3d c6d8 313d 1cbc ed3c 93a8 3c3d
000001b0: 9ec0 513d 0808 eb3c 952b 86bd 01fa 86bc
000001c0: af37 1dbd 9cd5 e13c 8896 60bd 7142 453b
000001d0: 85c1 143d 0cc1 4a3d a64d 603d 0512 d43a
000001e0: 6f3c d63c 432d dd3c 118c 91bd 4421 abbb
000001f0: 14f9 633d 6672 ae3c 9cb7 5abd 36ea 843d
00000200: 3a9e 533d 86a2 163c 7bac d53c 9d65 93bd
00000210: 9da0 043d 898d 543c 4123 d53c bb51 143d
00000220: 62d7 8fbc a6cf 5f3d a254 0a3d b403 b03c
00000230: fab9 ba3c 557c 613d 7fd9 a43c bec6 b9bc
00000240: 4599 c9bc 2d4b 22bd 6272 7bbd 119e 27bc
00000250: 4257 5c3b 8fd4 dfbc 308a 903d e097 5abd
00000260: a97d 193d 01a5 6d3d 7e7e 913d b920 673d
00000270: 6981 a93d b8a2 883d 326d 1abc 4e07 07bd
00000280: 5c76 0d3c 13cf aebb 76e3 bd3c 7651 673c
00000290: 1973 813c b0f4 f4bc 7de9 99bb b801 32bc
000002a0: 966c 89bd 2211 f2bb 8104 b6bb 388d 25bd
000002b0: 50d3 89bd 5b9f 1abd 6cc6 22bd 9627 873b
000002c0: 733e 35bc 306d f6bc 10c7 58bd f392 e7bc
000002d0: 8e39 933c 18a3 db3c 229c 85bd 1d4a f83c
000002e0: 8dcb c63c e1eb 68bc faea 653d eda4 88bd
000002f0: 9abe 63bd 744e 3d3d 229d 863c 26ad 28bb
00000300: 9a60 4f3c 4d01 4b3d 7d26 74bc 7b83 a93c
00000310: 21d3 3c3c d99d 73bc 0662 8f3c d624 82bc
00000320: 3443 1bbc b818 c8bc c91b 843c 9f3e d2bc
00000330: 4228 443d ac1d 513b 30ce ad3b 7b46 8dbc
00000340: 30b8 65bc 5cc1 09bd 4f12 7cbd 7000 78bc
00000350: 3a3e f3bb 4b98 4cbd b845 5fbd eb1c 5cbd
00000360: 8644 47bd 8515 dc3c bf8c 36bd a704 d73b
00000370: d457 a9ba 7894 e33c 2d77 81bb e8b7 93b9
00000380: 3029 87bd b499 1bbd cf81 6b3d 1e49 debc
00000390: 942b 4ebd a984 32bd c764 7cbd 5d8e d43b
000003a0: 0f4f d7bb 9acb 6cbd 690c 99bd 1b3f 40bc
000003b0: ff38 8cbd 0279 ddbb 3a88 bbbc 80b4 a93c
000003c0: 3fe2 413c 7118 0fbd 36e3 bf3b ca8b f53c
000003d0: cf56 88bd 5b50 e9ba 5375 4d3d 566a 81bd
000003e0: 6483 cbba 6fc8 5cbd 3ed6 e93c 54a4 523d
000003f0: c458 27bd 174f 843d f105 6c3d 39cd 093d
-0.00029407235 -0.031818047 -0.013451167 0.006205472 -0.0031729923 -0.055777486 0.039178338 -0.046968974
0.035710905 -0.010797321 0.033102263 0.0011785912 -0.09101655 -0.025016302 0.0042318874 -0.037482377
0.051561628 0.053790886 0.031899817 -0.017001703 -0.03147579 0.033538535 -0.047742806 0.028602537
0.026709097 -0.04629045 0.003144832 -0.024048768 -0.056173988 0.026719786 0.06449048 0.021629374
0.05921238 0.014274145 0.05332375 -0.04943194 -0.028558373 0.0100126015 -0.053611636 -0.011988716
0.026678927 -0.043494415 0.022356575 0.04788376 0.0499225 0.082172096 -0.034945022 0.016293673
0.027218025 0.049923867 -0.060225263 0.040482022 -0.041431658 0.04323634 0.063631475 0.0032018619
0.05210436 0.04976356 -0.050404403 -0.04024058 0.00862294 -0.06927419 0.01088794 0.0553143
0.036621682 -0.046350308 -0.05546079 -0.05187125 -0.043154597 0.021986084 0.015234767 -0.04489487
-0.025720648 0.04615541 -0.04719511 0.034711514 -0.04243758 0.020637924 -0.01591496 0.022818984
-0.014473992 -0.028999325 -0.03990266 0.0070315534 0.0638452 0.061089244 0.004818919 0.016536135
0.013725462 -0.024518816 -0.051263105 0.001800438 -0.00043765732 -0.04327314 -0.03916837 -0.045315534
-0.05257675 0.050594985 -0.024966164 -0.009024562 -0.0846847 -0.028012542 -0.024364494 -0.004586861
0.05832528 0.043419622 0.029020362 0.046059202 0.051209085 0.028690353 -0.06551281 -0.016476633
-0.038383182 0.027567677 -0.054831058 0.0030099417 0.036317367 0.04950051 0.05476155 0.0016179687
0.026151864 0.026999122 -0.07106794 -0.0052224714 0.05565746 0.021294784 -0.05339776 0.06489985
0.05166457 0.009194022 0.026083222 -0.071971156 0.032379735 0.012973198 0.026017787 0.036210757
-0.017558757 0.05464139 0.03377212 0.02148614 0.022793759 0.055050213 0.020123241 -0.022677775
-0.024609217 -0.039622474 -0.06138838 -0.010230557 0.0033621346 -0.027323036 0.07057607 -0.053367496
0.037473354 0.058018688 0.071042046 0.05642769 0.08276636 0.06671661 -0.009425448 -0.03296595
0.008634176 -0.0053347438 0.02317975 0.014118543 0.015801953 -0.029901832 -0.0046970234 -0.010864668
-0.06710164 -0.0073872963 -0.005554736 -0.04041788 -0.06729758 -0.03774963 -0.03974001 0.004124592
-0.011062252 -0.030081362 -0.052924216 -0.028268313 0.01797178 0.026811168 -0.065239206 0.030308777
0.024266982 -0.014216394 0.056132294 -0.06672082 -0.055601694 0.046217397 0.016432349 -0.002573797
0.012657309 0.049561787 -0.014901754 0.020692578 0.011524946 -0.014869177 0.017502796 -0.015886705
-0.009476472 -0.02442585 0.01612653 -0.025664626 0.047889955 0.0031908555 0.0053041205 -0.017245522
-0.0140209645 -0.033631667 -0.061540898 -0.015136823 -0.0074231895 -0.049949925 -0.05450985 -0.053738516
-0.048649333 0.02686573 -0.04456782 0.006561834 -0.0012919852 0.027780756 -0.0039509744 -0.00028175046
-0.06599653 -0.03798838 0.057496842 -0.027134474 -0.050334528 -0.043583546 -0.061619546 0.0064866976
-0.006570704 -0.057811357 -0.0747307 -0.0117337955 -0.06846809 -0.00675881 -0.022892106 0.020715952
0.011833726 -0.03493542 0.005855943 0.029973883 -0.066571824 -0.0017800437 0.050160717 -0.0631911
-0.0015526828 -0.053902086 0.028544541 0.051426247 -0.040856138 0.06460398 0.057622854 0.03364298

baseModel.4.bias f4 [64]
00000000: c82f a7bb 6723 3d3c 9cbd 7b35 133d 48b5
00000010: 4513 2f36 1ad8 813c 5c24 18bc a35b d838
00000020: 39ad 88bc 5b96 963c 7b82 eab5 53d9 4ab4
00000030: 4e36 f139 942f 8a35 ef13 a0b8 ed22 743b
00000040: fcd1 aa3a 0c83 c9b4 aae3 6abc fecc 3bbb
00000050: b16f a73c 289b 82b9 273c 1936 802a 0bba
00000060: 0f2f 85b8 5f85 393c 9274 403b 4f84 883c
00000070: d5a5 67b5 39e4 a6b5 8dc8 8a3c 196d df3b
00000080: 1ef1 b936 d7e7 3138 c383 493b 3a05 a5b6
00000090: d1ba 4eba 6df9 1ebb 7954 f8b3 c100 0db5
000000a0: 70cf a9b6 26c4 923b 015c 603a ca14 153c
000000b0: afd7 04b7 bbca 7c33 98f8 5bba 18f1 f135
000000c0: d0d7 7fbc 7f30 d93b de26 efba 64ca 063c
000000d0: a2fe 99bc caf5 43bb b8fc 8c3a 452c 8ab6
000000e0: 39bd a2bb ae1f 40b6 16e9 9dbc 282d bc3b
000000f0: 1631 9bb8 2145 7f37 dc90 a2bc d563 ba3a
-0.0051021315 0.011544085 9.3780704e-07 -7.459468e-07 2.6088248e-06 0.015850116 -0.0092860125 0.00010316751
-0.016684161 0.018382242 -1.7472333e-06 -1.8891778e-07 0.00046007562 1.0295648e-06 -7.6331075e-05 0.0037252263
0.0013032551 -3.7534517e-07 -0.014336506 -0.002865612 0.020439 -0.00024911133 2.283379e-06 -0.0005308762
-6.3506996e-05 0.011323302 0.0029366356 0.016664652 -8.6295523e-07 -1.2434385e-06 0.016941333 0.0068184254
5.5414994e-06 4.2416006e-05 0.0030748702 -4.9179916e-06 -0.0007886114 -0.0024257556 -1.15637654e-07 -5.252769e-07
-5.0607414e-06 0.004478949 0.00085586315 0.009099195 -7.918031e-06 5.8857704e-08 -0.00083912304 1.8026067e-06
-0.015615419 0.0066280956 -0.0018245836 0.008226965 -0.018798176 -0.002990114 0.0010756468 -4.117874e-06
-0.0049664048 -2.862867e-06 -0.019276183 0.0057426877 -7.400119e-05 1.521528e-05 -0.019844465 0.0014220426

baseModel.5.weight f4 [64]
00000000: 238e 7e3f 94e1 793f 73d5 793f 66c8 7d3f
00000010: 1730 7e3f 197e 773f 02cd 7b3f 751a 783f
00000020: f2b1 773f b4f5 793f 4ff7 7e3f 1a53 7d3f
00000030: e997 7b3f 7d48 7a3f 364c 803f 0601 793f
00000040: b411 783f fa3d 803f 66bf 7b3f 910c 793f
00000050: 7fc6 783f d500 773f 34db 7d3f ba35 803f
00000060: 2094 763f 9210 793f 2344 7d3f 9d5c 763f
00000070: e857 7a3f d31e 7e3f 7762 783f 5844 7d3f
00000080: 5733 7d3f 421d 7a3f ab0f 7a3f 7207 793f
00000090: 5031 793f 7279 813f 3409 7e3f f401 773f
000000a0: 890c 7d3f e77b 7c3f ec57 773f a04d 7c3f
000000b0: fef0 743f 3369 7a3f 6d59 7f3f 5513 7c3f
000000c0: a293 7b3f a914 793f 3380 7e3f 629f 7b3f
000000d0: 90c4 783f d1bb 7d3f c0ea 763f 04b2 7d3f
000000e0: a3e6 7a3f 948f 783f f764 7c3f 039d 803f
000000f0: eceb 793f 9b46 843f 8a64 843f 6a14 833f
0.99435633 0.9760983 0.9759132 0.9913391 0.9929213 0.96676785 0.9835969 0.9691537
0.967559 0.9764054 0.9959611 0.9895493 0.9827867 0.9776686 1.0023258 0.97267187
0.9690201 1.0018914 0.98338926 0.972848 0.9717788 0.96485645 0.991626 1.0016396
0.9631977 0.9729091 0.98932093 0.96235067 0.97790384 0.99265784 0.97025245 0.9893241
0.98906463 0.97700894 0.9768016 0.97276986 0.9734087 1.0115187 0.9923279 0.96487355
0.9884725 0.9862656 0.96618533 0.98555946 0.95680225 0.9781677 0.9974583 0.98467
0.98272145 0.9729715 0.99414366 0.98290074 0.9717493 0.9911471 0.9645195 0.99099755
0.98008174 0.9709408 0.9859156 1.0047916 0.97625613 1.0334047 1.0343182 1.0240605

baseModel.5.bias f4 [64]
00000000: 36eb bfbb d487 4fbc a4a2 1bbc f9db 00ba
00000010: b2c1 2bbb c89b 5fbc 3287 0ebc 0819 a2bc
00000020: bd56 a3bc 3bb3 bdba 499c 1dbc b9bb abbb
00000030: 437f 49bc 9b10 fcbb 23e8 a23b c8ea 94bb
00000040: 9ab7 92bc 1740 803c 0016 e93c 9ee7 bdbb
00000050: 8f54 2fbc c4dd 55bc a8e1 b23b 22f5 123c
00000060: cf5f 57bc 0472 30bc 130d fdbc 4f6a 23bb
00000070: 2b98 f6bb 53a4 46bc 39eb 12bc 789d 11bc
00000080: aad3 35bc d4f3 82bc 355c f53b 5dac c3bb
00000090: 5e9a 2a3b 16fd efbb 7039 02bd 6179 b6bc
000000a0: 1526 3abc 02a3 89bb 17f5 5cbc 8df3 533c
000000b0: 65a0 78bc aa49 5bbc b5b4 34bc 1f36 65bc
000000c0: 1eb7 263c ccf5 84bc 6088 3f3c 145f b1bc
000000d0: afd0 83bb 404c e8bc 80f4 36bc 49f0 95bb
000000e0: 3830 edbb e640 5e3b 517a b5bb f139 c43b
000000f0: f251 0abc 0800 cabc 7b3c aabc b72a 4fbd
-0.0058568968 -0.012666661 -0.009499226 -0.0004915591 -0.002620798 -0.013647981 -0.008699225 -0.019787326
-0.019938821 -0.001447297 -0.009619781 -0.005240884 -0.012298408 -0.007692409 0.0049715205 -0.0045445897
-0.017909814 0.01565556 0.028452873 -0.005795433 -0.010701313 -0.013053361 0.005459029 0.008969577
-0.013145401 -0.010769371 -0.030890023 -0.002493519 -0.007525464 -0.012124139 -0.008967214 -0.008887641
-0.011097828 -0.015985407 0.0074877986 -0.005971475 0.0026031951 -0.0073238714 -0.031793058 -0.022274675
-0.0113616185 -0.0042003402 -0.013486168 0.012936485 -0.01517496 -0.013384262 -0.011029412 -0.013989954
0.0101754945 -0.016230486 0.011690229 -0.021651782 -0.0040226798 -0.028356671 -0.011166692 -0.0045757634
-0.007238414 0.0033913194 -0.005538263 0.0059883525 -0.008442389 -0.024658218 -0.020780792 -0.050577845

baseModel.5.running_mean f4 [64]
00000000: 4fd7 b93d 4e57 e9be 8724 09bc 45c4 0bbe
00000010: fc0d 14be d80a ce3e 6c6c 0f3d fcdd 22be
00000020: e7f7 85be edca cebe c0c9 533e 27ed 22bf
00000030: 240c 1a3e d8b9 0abf 5351 f23d 5a39 11be
00000040: 25e4 e1bd d486 b33d 4afe d9bd fc0a 693e
00000050: e339 843e ab5d 3f3f 68bf 1fbd a597 a3bd
00000060: 71a0 543d a5d1 09be 1bec f6bc 5d66 fdbd
00000070: 439c c0bc 2b0b 36be 2ea1 243e 8f7e 6fbd
00000080: 91c4 88bd d014 253f 01df a13e c7f5 633e
00000090: f9d2 b93e 102f a5bd 41d8 5f3c 6328 39be
000000a0: ac96 1d3d 97d6 d2bd a280 da3d 6fc0 9c3c
000000b0: a54d 99be 1b99 5cbe 87fe 3dbe 0a40 e7bc
000000c0: a4cd 30be cc55 fcbe 4cda 5f3e 8df7 45be
000000d0: 2930 b5be 3744 8fbd 941f 8a3c a2c0 96bd
000000e0: 6b30 7ebe 477a e73d 2974 f1bc 9d39 2fbe
000000f0: 6756 c03d 1118 79bd 4030 0abe b541 96bc
0.0907427 -0.4557442 -0.008370525 -0.1364909 -0.1445846 0.40242648 0.03501551 -0.15904993
-0.26165697 -0.40389195 0.2068243 -0.63643116 0.15043694 -0.54189825 0.118319176 -0.14182034
-0.11029843 0.08765951 -0.10644205 0.22758096 0.25825414 0.747523 -0.0390009 -0.07987908
0.05191082 -0.1345888 -0.03014188 -0.1237304 -0.023512011 -0.17777698 0.1607711 -0.058470305
-0.06678117 0.6448488 0.3161545 0.22261725 0.36293772 -0.08065617 0.013662399 -0.18081813
0.03847377 -0.10294836 0.10669066 0.019134728 -0.2994205 -0.2154278 -0.18554126 -0.028228778
-0.17265946 -0.49284208 0.21860617 -0.19332714 -0.35388306 -0.06995433 0.01686076 -0.073609605
-0.24823157 0.113026194 -0.029474335 -0.17111821 0.0939148 -0.060813967 -0.13494968 -0.018341878

baseModel.5.running_var f4 [64]
00000000: b1eb 8b3d 5c7e bf3d 651f 5f3d 9bab c43d
00000010: f00d 4a3d f214 cd3d 513a 383d a4af 9b3d
00000020: 0cba 633d c18a 893d 98ad ae3c f2bd 853d
00000030: 1960 b93d 7f34 e53d 38e8 143e 6412 e23d
00000040: 52a1 b63d 2f98 183d 3a55 9f3d 4896 303d
00000050: 4ec5 7a3d ded3 9a3d 1b8a 8b3d a8a4 683d
00000060: e8dd 013e 0bde 923d 3239 413d 4bc6 a33d
00000070: b163 163e 8aa9 de3d df3f 7c3d 9e42 8d3d
00000080: 67c3 d93d 72f0 883d a3d6 9a3d 6918 c43d
00000090: 7b79 c23d a153 7a3c b8d5 333e f4ab 203e
000000a0: a62e b63d d0a6 c53d aede e33d 0e76 bd3d
000000b0: bba4 b33d 0315 063e 03c6 2b3d cfc7 af3d
000000c0: 5ea9 693d ce4f 453d 2bdf 1b3e 617a 383d
000000d0: f3f5 9c3d e833 ec3c a0d5 8c3d 15df 7e3d
000000e0: d954 9f3d 3ee3 8d3d d105 fc3d 96ef 3f3d
000000f0: 5ec2 aa3d 9801 c33c 6045 f73c aba4 7b3d
0.06832064 0.09350273 0.0544733 0.09603044 0.049329698 0.100137606 0.04497749 0.0760186
0.05559735 0.06715918 0.02132301 0.0653037 0.09051532 0.111916535 0.1454171 0.11038664
0.08917488 0.03725451 0.077799276 0.04311207 0.06122332 0.07559942 0.06813451 0.056797653
0.12682307 0.071712576 0.047173686 0.07996806 0.14686467 0.10872181 0.06158435 0.06897472
0.10632973 0.06686486 0.0756047 0.09574968 0.09495827 0.015278728 0.17561996 0.15690595
0.08895616 0.096509576 0.11126457 0.09251033 0.08771654 0.13093953 0.041936886 0.08583032
0.057046287 0.04817181 0.1522185 0.045038585 0.076640986 0.028833345 0.06876683 0.062224466
0.07779855 0.06928109 0.12305797 0.046859346 0.08337854 0.02380447 0.030184448 0.061436336

baseModel.8.weight f4 [64, 64, 3]
00000000: 7b27 843c 9ce6 8cbc cbf2 edbc 39bb 1e3d
00000010: 9365 173b 2629 11bd 00d5 78bd c979 513d
00000020: ab97 2ebd 14a1 12bd 1952 703d ca2b 87bd
00000030: ab6f 2b3d e6e2 81bd 7823 783d 5ba2 e3bc
00000040: c2cc 98bd 943c 32bc 7f0e 00bd d202 2abd
00000050: fea5 38bb 86ae 05bd 47dc 123d f5d6 693d
00000060: 64bb 48bd 5820 8ebd 411c 693c 4f30 6ebd
00000070: 6b2b 86bd 8ccf 80bd c8ec 53bb 8144 c1bc
00000080: 866d e73c d23d 343d 2b4e 253c cc81 6dbd
00000090: a5c6 683b 72e9 5b3d 0214 673d cc05 473d
000000a0: f925 233c 7e1e 4a3d 7485 cf3c 1e8f 27bd
000000b0: 64bd 9ebd a0f0 75bc cafd ef3b da43 96bc
000000c0: 73cb 6f3d 9bed 83bd 8533 e3b9 9588 9b3a
000000d0: 748b 8fbd 528d e03c 547b 20bc 9f4f 47bd
000000e0: 8868 01bd 896e 6e3d 581c 84bd 3f08 4dbc
000000f0: aa64 a0bc 0a83 70bd 75ff f2bb b1ed 5abd
00000100: 5b4d 8d3c a0ee 5cbd 111b 81bd b813 87bd
00000110: ee53 dbbc b729 053d 1766 0cbc 4377 14bd
00000120: bb30 583d 020b 8cbc 3a23 82bd 52a3 023d
00000130: d93a 42bd d9da 403d f96f 96bd 9d8d 3dbd
00000140: 48ff 14bd f544 f13b 1286 f938 2311 453c
00000150: 83c5 173d a66e 533d 2429 75bd ff00 433d
00000160: 9ea3 ba3c 013b 2cbd 6939 49bd b7e4 0a3c
00000170: 1a19 913c de16 543d 7a0b 2a3d ca12 423d
00000180: 44fb 43bd bcb8 3cbc 1321 48bd 8b5a 3a3c
00000190: b093 053c 5acf e3bc 460d 99bd 2f1a aebc
000001a0: 5aa8 e33c 9d57 8ebd 7b94 3f3d f7d0 eebc
000001b0: 64ef 74bd dd36 49bd d09e 5c3d e60c 8e3d
000001c0: 5c53 5bbb 13a5 743c 3f81 64bd bb24 c5bc
000001d0: 278c de3c 7847 753d eae7 ef3c 0242 143b
000001e0: 5bb8 00bd acc7 213d 72ad 743c fdd0 00bd
000001f0: bcb2 80bd 486f 3bbd 41d0 4e3d 39aa 1b3d
00000200: 03ba 403d d56f 5e3d b499 df3c 4361 4ab8
00000210: eb5e 8e3c ffb2 243d c383 eabc 8669 c1bb
00000220: 67bd 89bc f6fb b4bc a2d2 493c 5683 65bd
00000230: 8ba9 693d 03ba 2c3d 8dd1 b43b d87d 6f3d
00000240: f853 e73c 9d3d 4dbd 2291 283d 522e 18bd
00000250: 4cc7 00bd 3ac4 2fbb af6e 5a3d b375 82bd
00000260: 1ed9 6cbd ae7c ccbb e663 4ebd f832 74bd
00000270: 339b d3bb 8495 0d3d 70ef 7bbc aabc 14bd
00000280: 7dba ce3c 63b3 95bd 1008 703d da8d 0dbd
00000290: 1c3a 0c3d 1b8d 443d e5bf aaba b19c 37bd
000002a0: db20 733d adec 05bb ec9d 2dbd abeb 59bd
000002b0: 0a03 5e3d 5279 ac3b 82da 44bd 158b 89bd
000002c0: 82f6 2abc d64e 4b3c 1d58 b7bc 99c1 ca3b
000002d0: 3f1f 81bc cbe0 00bd dad9 12bd 149f 74bd
000002e0: 1263 8fbd 7e34 46bc c506 2c3c 8e55 953c
000002f0: c8ab 743d 5698 59bc 1b55 523d e156 10bd
00000300: ee9e 20bd 32fb 88bc 574a c6bb 3982 81bb
00000310: bee8 74bd 0ed6 76bc 3fa2 10bd 4487 c1bc
00000320: 67d1 e0bc 010b 1cbc b955 17bc 3018 0bbd
00000330: 9af4 82bd c983 823d ccf2 0dbd 13b8 3f3d
00000340: 82c8 833d 14de 193d bec3 043d 8a29 5d3d
00000350: f3f0 1dbc 814e a13d 57f4 95bc 3512 d6bc
00000360: 5287 48bb 955d 00bd 1bb0 d33c eb78 3dbc
00000370: 679f f53c 0a14 3a3c 933e 1b3c f0ec 5d3d
00000380: e3e4 8d3d 2277 293c b2c3 bebc cc58 e6bb
00000390: 3fb4 6f3d 37a6 07bc b37e 093d 8d19 783d
000003a0: e38c 3e3d 45e3 cbbc 6964 0d3c 7e87 e0bc
000003b0: fbc7 8c3d 0c99 333d 68d2 afbb f5cf 9a3c
000003c0: d18c 3f3d d382 4f3d 91b7 743d a307 0cbc
000003d0: e5d5 a33d 05b7 513d 8e71 5b3d 1437 0f3d
000003e0: 2121 65bc 3c81 b33c 9b63 5ebd 0c77 40bc
000003f0: 0c25 b3bc ff63 6b3d 613c 533d 448f 643d
0.016132107 -0.017199807 -0.029046437 0.03875277 0.0023101314 -0.035439633 -0.060750008 0.051141534
-0.04262511 -0.035798147 0.058672044 -0.06600149 0.04185454 -0.063421056 0.0605807 -0.027787378
-0.074609295 -0.010878701 -0.031263825 -0.041506596 -0.002817511 -0.03263714 0.035854604 0.057089765
-0.049006835 -0.06939763 0.014227928 -0.05815154 -0.0655125 -0.062895864 -0.0032337178 -0.023592236
0.028250467 0.04400427 0.0100894375 -0.057985112 0.0035518792 0.053689428 0.056415565 0.048589513
0.009957784 0.049345486 0.02533219 -0.04090797 -0.07750967 -0.015010983 0.007323955 -0.018342901
0.058543634 -0.06441804 -0.000433352 0.0011866266 -0.070090204 0.027411137 -0.009795029 -0.048659917
-0.03159383 0.058210883 -0.06450719 -0.012514173 -0.01957925 -0.05871872 -0.0074157068 -0.053449336
0.0172488 -0.053938508 -0.06303991 -0.06595558 -0.02677342 0.032510486 -0.008569262 -0.03624655
0.052780848 -0.017095093 -0.06354375 0.031894036 -0.047419403 0.04708371 -0.07345576 -0.04627763
-0.036376268 0.0073629566 0.00011898218 0.0120280115 0.037053596 0.051619194 -0.059853688 0.04760837
0.022783097 -0.042048458 -0.049127016 0.008477381 0.017712165 0.05177962 0.04151485 0.0473812
-0.047847047 -0.0115186535 -0.048859667 0.011374126 0.008152887 -0.027808834 -0.07473235 -0.02125272
0.027790237 -0.06950305 0.04677246 -0.029152377 -0.059798613 -0.049124587 0.053862393 0.06936054
-0.0033466434 0.014931935 -0.05578732 -0.024065366 0.02716644 0.05988261 0.02928539 0.0022622352
-0.031425815 0.039497063 0.014933931 -0.031449307 -0.06284091 -0.045760423 0.050491575 0.038004134
0.047052395 0.05430587 0.027294971 -4.8251135e-05 0.017379245 0.040209766 -0.028627282 -0.005902472
-0.016813947 -0.0220928 0.012318285 -0.056033455 0.057046454 0.042169582 0.0055181445 0.058469623
0.028238282 -0.050107587 0.041154034 -0.03715355 -0.031440064 -0.002681984 0.053328212 -0.063701056
-0.057824247 -0.006240449 -0.05038824 -0.05961892 -0.00645771 0.034566417 -0.015376911 -0.036312737
0.025235409 -0.07309606 0.05860144 -0.03455911 0.034235105 0.04798613 -0.001302716 -0.044827167
0.059357505 -0.002043526 -0.042386934 -0.053203266 0.054202117 0.005263486 -0.048059948 -0.06715981
-0.010434749 0.012408933 -0.022380883 0.0061876294 -0.01576197 -0.03146438 -0.03585229 -0.05972202
-0.07001318 -0.012097476 0.010499661 0.018229272 0.059734136 -0.013280949 0.051350694 -0.035239104
-0.039214067 -0.016721342 -0.0060513425 -0.0039522913 -0.059792273 -0.015065683 -0.03531098 -0.02362407
-0.0274436 -0.009524108 -0.0092367465 -0.033958614 -0.0639431 0.06372792 -0.034655377 0.046806406
0.06434728 0.037565306 0.032413237 0.053994693 -0.009639966 0.078763016 -0.018304987 -0.026131729
-0.0030598235 -0.031339247 0.02584081 -0.011564474 0.029983236 0.011357317 0.009475368 0.05418104
0.06928422 0.010343345 -0.023286674 -0.0070296284 0.058521505 -0.008279375 0.033568095 0.060571242
0.04652108 -0.024888644 0.008629897 -0.027408358 0.06874081 0.04384713 -0.0053656586 0.01889799
0.046765152 0.050661873 0.059745375 -0.008546743 0.079997815 0.05119993 0.05357509 0.034964636
-0.013984949 0.02191221 -0.05429421 -0.011747133 -0.021868251 0.05746841 0.051571254 0.05580069

baseModel.8.bias f4 [64]
00000000: ce45 a03b 8fd6 92bc 261b 753b 5c21 e3b7
00000010: 8aab 1fbc c3d2 8cb8 134f 893c f999 5bb3
00000020: eb08 0336 b77b 3834 7f95 0eb7 22e4 55b4
00000030: 2d1e 3a3b 0282 2ebc 4975 863b d761 763c
00000040: d613 f53b 1e57 803b 257a 09bc 2a6a 1db5
00000050: a515 cd3b cc37 6fbc 9ce7 413c e205 42bc
00000060: 750b a2bc bbbc a83c c1fd a235 8b4d 833b
00000070: fc51 4ab9 f998 fb3a ddcf 24bc d39b 85bc
00000080: 1d5b fe3b bd65 c5bb 65d7 1fbc 597f a4bc
00000090: bef4 9135 224e 93bc a21e 323c 60b9 dfb5
000000a0: b4d0 12ba 790b 473b 9a69 063c dc88 6c3c
000000b0: 2956 b1b4 ed89 d33b 07ec d33b 86f4 aab9
000000c0: ab8f f239 fb84 9934 a757 a2bc f211 2139
000000d0: f905 b839 5884 8e3c 223a 1bbc 6307 3bbc
000000e0: bdac 45bc 9712 873b a68c 9fb9 11ae e33b
000000f0: b4a0 2f3b b8bc 38b4 9671 4d3a 110f ad39
0.004891134 -0.017924575 0.0037400215 -2.7076043e-05 -0.009745488 -6.714978e-05 0.016761338 -5.112995e-08
1.9525712e-06 1.7181343e-07 -8.498667e-06 -1.9920165e-07 0.0028399334 -0.010651113 0.004103337 0.015037975
0.0074791713 0.003916635 -0.008390938 -5.8641547e-07 0.0062586837 -0.014600705 0.011835005 -0.011842223
-0.019780854 0.020597806 1.2143793e-06 0.0040070466 -0.00019294763 0.001919537 -0.010059324 -0.016309654
0.0077623264 -0.006024091 -0.009755944 -0.020080255 1.0874571e-06 -0.017981593 0.010871561 -1.6668746e-06
-0.0005600557 0.0030371828 0.008203888 0.014436927 -3.303151e-07 0.006455651 0.0064673456 -0.0003260711
0.00046264878 2.8595227e-07 -0.019817187 0.00015360842 0.00035099665 0.01739709 -0.009474309 -0.011415335
-0.01206511 0.004122089 -0.00030431635 0.0069482406 0.0026798667 -1.7204991e-07 0.0007837055 0.00033008357

baseModel.9.weight f4 [64]
00000000: d926 793f f9e4 7d3f f43e 7a3f 1b47 7f3f
00000010: 02c5 7c3f 15ea 803f b37c 823f 92a8 7b3f
00000020: 9c64 783f 4f19 7c3f 791d 7c3f 074c 7c3f
00000030: 3fc6 7f3f 7660 803f 1725 7c3f 16e8 7e3f
00000040: 1352 813f 2765 833f 4b83 783f 5b93 783f
00000050: 240c 813f d5d4 7f3f 007f 803f 2386 823f
00000060: e516 7d3f aa38 7a3f feb9 7c3f fd43 803f
00000070: 7b64 7d3f 2d06 7e3f d038 813f 82e8 7e3f
00000080: e9da 7e3f 6bf8 7b3f 7c13 803f b8f7 7e3f
00000090: e329 7c3f d9e2 7c3f 0d49 813f 2f90 803f
000000a0: dd04 803f f5ff 7b3f 89c7 833f cfea 803f
000000b0: 2f62 783f 4ac5 803f 29cd 7c3f 6f29 813f
000000c0: c4f0 813f 5a48 7e3f a614 7f3f 58ab 7f3f
000000d0: 2427 7f3f e2a1 7e3f c42e 823f 6e99 813f
000000e0: 6089 813f 543a 803f e9b2 823f 2899 7c3f
000000f0: 71ad 7c3f 9315 7e3f 2990 813f 4ac2 7e3f
0.973249 0.9917751 0.9775231 0.99717873 0.9873811 1.0071436 1.0194305 0.9830409
0.9702852 0.9847612 0.9848247 0.9855351 0.99911875 1.0029438 0.98494095 0.99572885
1.0103172 1.0265244 0.9707534 0.97099847 1.008183 0.9993413 1.0038757 1.0197185
0.9886306 0.9774271 0.987213 1.0020748 0.98981446 0.99228173 1.0095463 0.9957353
0.9955278 0.9842593 1.0005946 0.9959674 0.98501414 0.9878364 1.0100418 1.0044001
1.0001484 0.98437434 1.0295268 1.0071658 0.97024816 1.0060208 0.9875055 1.009077
1.0151601 0.9932915 0.9964088 0.99870825 0.996691 0.99465764 1.0170522 1.0124948
1.0120049 1.00178 1.0210849 0.986712 0.9870215 0.9925167 1.0122119 0.9951521

baseModel.9.bias f4 [64]
00000000: 9f6e bebb 81b8 9db9 2a63 cdbb bfec a3ba
00000010: 1c86 52bb 8bc8 673b 625e f93b 1057 4f3a
00000020: 7923 50bc b26d d6bb ab93 2bbb b319 92ba
00000030: f773 1dbc 9320 b1bb fb63 1dbb 68a0 813a
00000040: d709 c73b 2343 a93c 7b05 02bb 0fce 60bb
00000050: 12f3 5c3c cb69 973b e818 88bb 42d3 afbc
00000060: abe3 fb3a e904 02bc 9fd1 3cbc 62a4 153c
00000070: de80 e83a b6e9 4f38 4a9c 93bb 1d2c 30bc
00000080: de28 ba3b 817f 533a 97a1 73ba 6186 5ab8
00000090: 70b7 b7bb 5761 9e3a e694 a13b e209 bf3b
000000a0: b646 283b 0b31 7abb 11af 7a3c db62 033c
000000b0: 70fb ccbb 5880 883b 39bf 65bb 8c76 833b
000000c0: d777 7d3b c446 b43b a1c8 0a39 24cd ffbb
000000d0: 3508 123b 081d 99bb 01e0 273c 08af 2f3c
000000e0: 1edf f23b 2d04 093c bd9f 943c 1eac 17bb
000000f0: 5e06 58bb 4d1a babb 4c38 c7ba 6b18 693b
-0.005811527 -0.0003008284 -0.006267925 -0.0012506469 -0.0032123392 0.0035367336 0.0076101283 0.00079093967
-0.01270377 -0.0065438384 -0.0026180546 -0.0011146575 -0.009610168 -0.0054054945 -0.0024015892 0.0009889724
0.006074171 0.020661896 -0.0019839692 -0.0034302508 0.013485687 0.004620766 -0.0041533597 -0.02146304
0.0019217631 -0.007935741 -0.011524587 0.00913343 0.0017738601 4.9570306e-05 -0.004504715 -0.010752705
0.0056811413 0.0008068011 -0.0009293793 -5.21004e-05 -0.0056065843 0.0012083453 0.00493108 0.0058300355
0.0025676913 -0.0038176205 0.015300528 0.008019174 -0.0062555596 0.0041656904 -0.0035056605 0.0040119346
0.0038676166 0.0055016 0.00013235446 -0.007806437 0.0022282724 -0.0046726502 0.010246278 0.010722883
0.0074118515 0.008362812 0.018142575 -0.0023143361 -0.003296278 -0.005679405 -0.0015199273 0.0035567533

baseModel.9.running_mean f4 [64]
00000000: 4f4b 56bf 3c32 673f 4eff dcbd 1234 89bf
00000010: bc18 4c3f e714 93bf b15d 6d3e ff60 44bf
00000020: a095 153f 73ce c9be 9b2d 13bf de90 7a3e
00000030: 483d a7be 8fed 483f 319f 263f f84c 57bf
00000040: 07e3 14bf 1a49 c0be a377 853c 48e9 cebe
00000050: 1a21 ad3e 9852 b8bf 0697 2a3f 6f85 79bd
00000060: 1e3a c4be b0d8 94be 7b14 383f 1d42 803d
00000070: f3cb 4e3e 5aec 253f 3de5 903d 0e9b d8be
00000080: 42ab 003f b0b5 0a3f a2bb b0be 2372 5bbf
00000090: c787 f7be 50a2 e73e 08e7 703f 00e2 6cbe
000000a0: 6eb0 c03e 392b 55be a8bd d43e e8a5 0d3f
000000b0: aa67 70be b639 8bbf 2475 99bf a927 80bf
000000c0: 8323 7ebd 77fc 083f f871 9fbf 6e27 543f
000000d0: ef8e 35bf fb06 40bf 5980 d73d f9f4 853d
000000e0: 442e 07bd dc55 b8be 16cd 613e 30b3 403f
000000f0: 738c 103f cc67 8a3f a104 c6be 1da6 c03e
-0.8370866 0.90311027 -0.10790883 -1.0719016 0.7972524 -1.1490754 0.23180272 -0.76710504
0.58431435 -0.3941532 -0.57491463 0.24469325 -0.3266394 0.78487486 0.65086657 -0.8410182
-0.58158916 -0.37555772 0.016292399 -0.40412354 0.33814317 -1.4400206 0.66636693 -0.060918268
-0.3832559 -0.2907157 0.7190625 0.0626261 0.20194988 0.6481377 0.07074974 -0.42305797
0.5026132 0.54183483 -0.34518152 -0.85721034 -0.48345777 0.45241022 0.94102526 -0.23133087
0.37634605 -0.2081727 0.41550946 0.5533128 -0.23477045 -1.0876987 -1.1988873 -1.0012103
-0.062045585 0.5351023 -1.2456656 0.82872665 -0.70921224 -0.7501065 0.10522527 0.065408655
-0.033003107 -0.36003006 0.2205089 0.7527342 0.5646431 1.0812926 -0.38675407 0.37626734

baseModel.9.running_var f4 [64]
00000000: f4d6 653e 7886 693e 285e 1b3e 04f2 933e
00000010: a3b0 193e 9d88 6d3e bf4f 5c3e 6832 443e
00000020: b9c2 f93d bcd4 433e 55fe 523e e309 143e
00000030: ca9e 383e 53a2 093e ff88 1f3e cf7a 313e
00000040: 678f 113e a973 063e ba84 153e 4382 0c3e
00000050: c0b3 083e ba84 543e 6328 123e bc11 963e
00000060: b1ab 123e c0ad 303e 500f 313e 569a 143e
00000070: 9a98 1b3e e043 cd3d 11c0 0f3e 9f90 4c3e
00000080: 0cff 203e 7839 0e3e bf93 123e 4e44 2f3e
00000090: e713 253e 1b22 283e f694 0b3e 02ff cd3d
000000a0: 4884 0c3e 3862 663e 0eff f23d a5fc 343e
000000b0: 24d6 053e 8b73 503e c9ab 913e fb76 703e
000000c0: da7d d53d a60d 833e 8bcc 3e3e 1fa4 073e
000000d0: 8f3a 1d3e c4a3 393e c1a0 f53d 8147 f03d
000000e0: df1c e43d 3c62 d53d 27ec c13d fe4a 483e
000000f0: 1146 4f3e 7b8c 4c3e d02a 083e a66d 193e
0.2244528 0.22805202 0.15172637 0.2889558 0.15008788 0.23196645 0.21514796 0.19159853
0.121953435 0.1912412 0.20604832 0.14456896 0.18029323 0.13440828 0.15579604 0.17332004
0.1421486 0.13130058 0.14601412 0.13721566 0.13349819 0.20753756 0.14273219 0.29310405
0.14323308 0.1725378 0.17290998 0.14512 0.15194932 0.10022712 0.14038111 0.19977044
0.15722293 0.1388911 0.14314173 0.171159 0.16120873 0.1641926 0.13631043 0.100584045
0.13722336 0.22498405 0.11865054 0.17674501 0.1306997 0.20356576 0.28451374 0.23482887
0.10424395 0.2559635 0.18632714 0.13246201 0.1535437 0.18128878 0.11993552 0.11732388
0.11138319 0.10419127 0.094688706 0.19559857 0.20241572 0.19975464 0.13297582 0.14983234

shortBranch.2.weight f4 [64, 1024]
00000000: 1312 8abc 4df3 9ebc 59b4 c23c 6f20 e7bb
00000010: 70e7 f73c 1d79 c13c 87dc a3bc 3f64 19bc
00000020: e417 bbbc 825a ac3c 7f91 b53c ea9b 4d3c
00000030: c313 e83c d700 513c e0aa cbbc 6859 45bc
00000040: 1ae8 06bd 8ae2 86bc 01e7 a9bc ae2c dd3c
00000050: cf64 543a 2d7c 85bb 6f42 f1ba af93 c9bc
00000060: 3347 73bc 2f98 bf3c aa43 57bc cf8d 48bc
00000070: 033c 2bbc e29f b0bc c8c7 4b3c 421b 303c
00000080: c17f bdbc 6b4b 09bd c99f fe3b fb1a 723a
00000090: b7b3 b3bb d92a ebba 84d8 b43c f6c0 843c
000000a0: aec0 d4bc 42bf 293b 5b98 66bb 76ac c7bb
000000b0: ebe3 273c 3435 c43b ce6a edbb eae9 12bc
000000c0: 76ab 073d 860b ad3b cdf2 393c 1812 e13c
000000d0: 9246 25bc 69af 8a3c 834d 2e3d a689 e23b
000000e0: 955f b2bb 7acd 0f3d cc58 1a3c 799b 413c
000000f0: 3cdf 07bc e2ba 23bc 7cc0 0c3c ad0d aebc
00000100: 5d8a 643c 09d0 623c d930 85bb 1a8d 0abd
00000110: 316c a23c bc4f ff3b ea46 d0bc 85b1 0c3b
00000120: a040 083a 486c 84bc 16ee 523c a751 d8bc
00000130: 4871 d9bc 0e0c 893b b136 cbbc 097b e7bc
00000140: 5dcd 103c 9fa7 b93c 14f1 e9bb 8d8d 1bbb
00000150: bb7f 183d d79f 003d b2dd 6abc bbf8 9fbb
00000160: b4c7 ff3b 32c0 1a3d 0d99 d33c c865 593c
00000170: 3ebd 013d e47f c63c 76ee 743c 6fdd e83c
00000180: 5efa 53bc 61be a7bc bfb1 2b3c 8e8c 8dbc
00000190: d6c2 a43b 4816 82bc 096b e5bc 3681 a03c
000001a0: b0b7 f2bc 20cb a73c 638f c5bc f69c 2a3b
000001b0: a379 a9bc 782d 403c 9b01 25bb c9ea b1bc
000001c0: e37b e7bc bd64 243b b397 a63a 1619 50bc
000001d0: e650 ebbc 77a4 dbbc a466 9e3b 77f1 813c
000001e0: c100 21bb 87c2 b6bc cdca 673c 0265 f5bc
000001f0: 3a14 42bc 48bd 05bd 4995 e8bc ab77 42bc
00000200: f186 d63c f9b7 e0bb c240 a73a 8dff b4bc
00000210: 02b0 28bb 0ab4 febb 2075 b13c 14d8 1b3b
00000220: 6d06 293c 9436 c03c 85f2 44bc 7868 adbb
00000230: 73b4 403c f5e2 e8bc 83e5 f43b f4be 3bbb
00000240: ddfc 29bc 37c5 fa3c ba96 02bc b96b b23c
00000250: bdb3 113d f6e2 e23b 024a dc3c 107e 13bc
00000260: 051b 27bc ce12 f53a 5f17 033d ba87 943c
00000270: 5464 0d3d f6d0 fd3b 362d bf3c eeea 2e3b
00000280: cbc3 afbb c514 dabc fa3d d13b c617 4e3b
00000290: c9d7 6dbc 004b 053b 9840 a2bc 8831 b7bb
000002a0: 7b57 a73c 2c76 7dbc 1807 d13c 032c c33c
000002b0: 7279 83bc b585 ba3b 3169 4139 ac31 0e3a
000002c0: 7be1 5abc bfa0 8bbc 9bd6 efbb e658 a23b
000002d0: b135 0abd 9ad5 f8bc 8c55 2e3b e28f 61bc
000002e0: 64e5 9ebc a792 9c3c ea16 943a cbe5 eabc
000002f0: b49d 90bc 8fbb 373c fe87 223c 729c d6bc
00000300: 0976 6d3c 2dfb c33b 3800 7e3c 8905 633c
00000310: 646b aabc 1bd1 55bc bfb8 f33c 82a9 c6bc
00000320: 9fdf 043d 0559 de3c e1b8 9abb 6ce1 843c
00000330: ca57 64bc 44f9 473c 5966 f53c e74e c43b
00000340: 4b62 e83c 2fc2 bc3b 85f8 d5bc 3c59 6f3c
00000350: 8697 c13b c046 a43c 2aa7 f73b f799 723c
00000360: b064 96bc c528 e33c b175 ea3b 4a3b 0e3c
00000370: 8a4e d03c 6e9f 35bc 5f25 d8bc cf18 e83c
00000380: af2f b53c 62b9 2a3c efa7 14bc d7fd 7a3c
00000390: 4d86 56bc 6ef8 923b bd90 923b 9905 c1bc
000003a0: 9fb7 e2bb b79e a2bc bded 86bc 778d 543c
000003b0: 5b13 4abc 298e a83c 3f47 893c 901b 05bc
000003c0: 6b40 e73b 34de 283b c8fd 0b3d da43 20bc
000003d0: 5ac4 de3c daad a73b 29cb f53c 2051 b2bc
000003e0: 819e ab3c 9827 fc3c ec09 e13b 69d0 bfbc
000003f0: de5e b73b b02d cfbc 4fe2 37bc 9d2b ae3c
-0.016854322 -0.019403124 0.023767637 -0.007053427 0.030261725 0.023617322 -0.020002617 -0.009362279
-0.02283854 0.021039251 0.022164105 0.01254938 0.028329736 0.012756548 -0.024861753 -0.012045242
-0.032936193 -0.016465444 -0.020740034 0.026998844 0.000810218 -0.004073641 -0.001840664 -0.024606554
-0.014848518 0.023387996 -0.013138691 -0.012240841 -0.01045132 -0.021560613 0.012437768 0.010748686
-0.023132207 -0.03351919 0.0077705127 0.0009235588 -0.00548407 -0.0017941847 0.022075899 0.016205292
-0.025970783 0.0025901352 -0.0035186026 -0.006093557 0.010247211 0.0059877876 -0.007245398 -0.008966902
0.033122502 0.0052809147 0.011349392 0.027474448 -0.010087626 0.016929345 0.04255439 0.0069133816
-0.005443523 0.035108067 0.009420585 0.011816853 -0.008292969 -0.009993287 0.008590814 -0.021246755
0.013949004 0.013843545 -0.004064661 -0.03382597 0.01982698 0.0077914875 -0.02542444 0.0021468115
0.0005197618 -0.016164914 0.012874147 -0.026406122 -0.026543275 0.0041823452 -0.024806352 -0.02825691
0.008838025 0.022662936 -0.0071393345 -0.0023735494 0.03723119 0.031402435 -0.014335083 -0.004881946
0.007805789 0.037780948 0.025829816 0.013268895 0.031674616 0.024230905 0.014949432 0.0284259
-0.01293811 -0.020476522 0.01047939 -0.017278936 0.005028109 -0.015879765 -0.02800514 0.019592863
-0.029628605 0.0204826 -0.024116224 0.0026033497 -0.020687884 0.011729591 -0.002517796 -0.0217184
-0.028257316 0.0025084459 0.0012710005 -0.012701293 -0.028725099 -0.026811821 0.004834013 0.01586221
-0.00245671 -0.022309555 0.014147473 -0.02995539 -0.011845643 -0.032651216 -0.028391497 -0.011869351
0.026187392 -0.0068578687 0.0012760388 -0.022094512 -0.0025739674 -0.007772927 0.021662295 0.0023779916
0.010316473 0.023463525 -0.012020712 -0.0052919947 0.011761772 -0.028428534 0.007473649 -0.0028647752
-0.010375229 0.030611617 -0.007970506 0.021779882 0.035571802 0.0069240285 0.026890758 -0.009002224
-0.010199313 0.0018697621 0.03200471 0.018131126 0.03451951 0.0077458574 0.023336988 0.0026690322
-0.0053639165 -0.026621232 0.006385562 0.0031447276 -0.014516779 0.0020338893 -0.019806191 -0.0055906214
0.020427456 -0.015470069 0.025516078 0.023824697 -0.01604912 0.0056922087 0.00018445101 0.0005424272
-0.013359423 -0.017044423 -0.007319284 0.004954445 -0.03374261 -0.03037529 0.0026601283 -0.0137672145
-0.019396491 0.019112898 0.0011298333 -0.028674027 -0.017653324 0.011214151 0.009920118 -0.026197646
0.014493474 0.00598087 0.015502982 0.0138563 -0.020803161 -0.013050343 0.02975118 -0.02425075
0.032439824 0.027142057 -0.0047217463 0.01622077 -0.013936946 0.012205426 0.02995603 0.005990851
0.028367182 0.005760453 -0.02611948 0.0146086775 0.0059079556 0.020053267 0.0075577693 0.014807216
-0.018358558 0.027729401 0.007155143 0.008681128 0.025428075 -0.011085374 -0.026385007 0.028332142
0.022117464 0.010420175 -0.009073242 0.015319309 -0.013093543 0.0044851815 0.0044728206 -0.02356224
-0.006918862 -0.019851072 -0.016470784 0.012973181 -0.012333716 0.0205756 0.016757606 -0.008124247
0.0070572398 0.002576721 0.03417757 -0.009781802 0.027193237 0.0051171603 0.0300041 -0.021767199
0.020949604 0.030780599 0.006867638 -0.023414807 0.005596026 -0.02529034 -0.01122339 0.02126103
