Models/testBest_bl_0424.pth (torch, 495767 bytes, 42 tensors)

baseModel.0.weight f4 [64, 2, 3]
0	0x3e9f7877	0.31146595
1	0x3df9961e	0.12186836
2	0xbe8a7d8b	-0.27048907
3	0x3e39f40a	0.181595
4	0xbe7772b1	-0.24164845
5	0xbe45717d	-0.19281574
6	0x3e6e12c8	0.23249352
7	0xbe9749e8	-0.29548573
8	0x3e2b17f4	0.16708356
9	0x3aba856d	0.0014230438
10	0x3db1ce24	0.08681896
11	0xbd604360	-0.054751754
12	0xbe0cd03e	-0.13751313
13	0x3e09f280	0.13471413
14	0x3d64bc9b	0.05584393
15	0x3e0a20e3	0.13489108
16	0x3e5d5cdb	0.21617453
17	0xbdcc085b	-0.09962531
18	0x3db0afc6	0.08627276
19	0xbe2f3fc4	-0.17114168
20	0xbe43b04b	-0.19110219
21	0x3e4be915	0.19913132
22	0x3e3a1a3d	0.18174072
23	0xbd9ff73d	-0.07810829
24	0x3d0cc74f	0.034369763
25	0x3dbfb7c7	0.093612246
26	0x3e90fefd	0.2831954
27	0x3e6e5687	0.23275195
28	0x3e891336	0.2677247
29	0x3db775a2	0.089579836
30	0xbe940471	-0.2890964
31	0x3e5bab7c	0.21452135
32	0x3ea2dce3	0.31809148
33	0xbe299125	-0.16559274
34	0x3e6f57f4	0.23373395
35	0xbddbc494	-0.10730854
36	0xbd937257	-0.07199543
37	0x3c0033e1	0.007824869
38	0xbd37ce42	-0.044874437
39	0x3e6043d5	0.21900876
40	0xbe0ea35d	-0.13929506
41	0x3dd1b67e	0.10239886
42	0x3dc68faf	0.09695374
43	0xbcb5db03	-0.02219916
44	0x3e307496	0.17231974
45	0xbe9f929e	-0.31166548
46	0x3e84a920	0.25910282
47	0x3e5b2542	0.21400931
48	0xbe95a32b	-0.2922605
49	0xbe70cdf8	-0.23516071
50	0x3cbfa7b3	0.023395395
51	0x3e763bc3	0.24046235
52	0xbe81f355	-0.2538096
53	0xbe8215f1	-0.25407365
54	0x3c8032ff	0.015649317
55	0xbe9c7b5e	-0.30562872
56	0x3e2710bb	0.16314976
57	0x3e5871e4	0.21137196
58	0xbca7f0cc	-0.020500563
59	0xbcf85166	-0.030312251
60	0xbdc83396	-0.09775464
61	0x3e6f1b2e	0.23350212
62	0xbe1da4ff	-0.15394972
63	0xbdf8208f	-0.12115585
64	0x3e8bc3e0	0.27297878
65	0xbdff098c	-0.12452993
66	0x3c647445	0.013943736
67	0xbc715b56	-0.014731249
68	0x3e004353	0.12525682
69	0xbe8d2fb3	-0.27575454
70	0xbe983268	-0.29725957
71	0x3dff00be	0.124513134
72	0xbe3e15fc	-0.18563074
73	0x3e500ca4	0.20317322
74	0x3e718404	0.23585516
75	0x3e907922	0.28217417
76	0xbeb054de	-0.3443975
77	0xbe5a8188	-0.21338475
78	0xbe8aec45	-0.27133384
79	0x3e8a21fc	0.26979053
80	0x3c89245a	0.016740967
81	0x3e1d9116	0.15387377
82	0xbdb87eee	-0.09008585
83	0x3e3a25ef	0.18178533
84	0xbdcd3731	-0.100202926
85	0x3e839c64	0.25705254
86	0xbe4b3810	-0.19845605
87	0xbdd9b52b	-0.10630258
88	0x3e224f23	0.15850501
89	0x3da3fe10	0.08007443
90	0xbcb9ae6d	-0.02266618
91	0x3eb67c63	0.35641775
92	0x3e78b07c	0.24286073
93	0xbdddebd7	-0.108359985
94	0x3e8829e1	0.2659445
95	0x3e807ee1	0.250968
96	0x3d82bafb	0.0638332
97	0x3e706f20	0.23479891
98	0x3eb0119d	0.34388438
99	0xbda3f844	-0.08006337
100	0x3bb5e0a9	0.005550463
101	0xbde5efb9	-0.11227364
102	0x3e9623d8	0.29324222
103	0x3e9172f2	0.2840801
104	0xbda34f4a	-0.079741076
105	0xbe5aaf2a	-0.21355882
106	0x3e5fa9c6	0.21842107
107	0x3eb0a76f	0.34502742
108	0x3e1c9e3e	0.1529474
109	0xbe591638	-0.21199882
110	0xbe45f099	-0.19330062
111	0xbe0c1688	-0.1368047
112	0xbea84af4	-0.32869685
113	0x3e2ed337	0.1707276
114	0xbe8a4df2	-0.27012593
115	0xbe013c99	-0.12620772
116	0x3e5d5876	0.21615776
117	0xbe92439f	-0.28567216
118	0xbd7f3b14	-0.0623122
119	0x3e23d4be	0.15999123
120	0xbd28afed	-0.0411834
121	0x3e45e1ed	0.19324465
122	0x3e67b3e8	0.22627223
123	0x3e473df7	0.19457231
124	0x3e6b4a91	0.22977664
125	0xbe4ae2f9	-0.19813146
126	0x3d1c903f	0.0382235
127	0x3ead9c27	0.33908197
128	0x3e931f37	0.28734753
129	0x3d9288cc	0.07154998
130	0xbe78e624	-0.24306542
131	0x3dd98226	0.10620527
132	0x3e0ded4a	0.1386005
133	0xbd147514	-0.036244467
134	0x3e52bd30	0.20579982
135	0xbe3b1ee5	-0.18273504
136	0x3eb9c4d2	0.36282974
137	0x3eb06a84	0.34456265
138	0xbd4f602c	-0.050628826
139	0xbe88ddbf	-0.2673168
140	0xbebf3fb9	-0.37353304
141	0x3df079df	0.11741995
142	0xbd50fdfe	-0.051023476
143	0x3ea388e2	0.3194037
144	0xbe1bb449	-0.15205492
145	0x3bd0d538	0.006373074
146	0x3cc2f772	0.023799632
147	0x3d5510db	0.052018028
148	0x3eac4aba	0.33650762
149	0x3eaa2426	0.33230704
150	0xbea74f10	-0.32677507
151	0xbd547b36	-0.051875316
152	0x3eae63ad	0.34060422
153	0xbda510e6	-0.08059864
154	0xbd8ea8a7	-0.06965762
155	0xbdfc0086	-0.12304787
156	0x3e51a7e4	0.20474201
157	0x3d9d53d0	0.076820016
158	0xbe9c15da	-0.3048542
159	0x3d9ce3f2	0.076606646
160	0x3ead4c1a	0.33847123
161	0x3ddbffe2	0.10742165
162	0x3e935604	0.28776562
163	0x3e469d91	0.19396044
164	0xbcc5f0fd	-0.024162764
165	0xbe3c8d66	-0.18413314
166	0x3d811801	0.063034065
167	0xbcd4aa37	-0.025960071
168	0x3d66b785	0.05632736
169	0xbdc3be2f	-0.09557759
170	0xbe9bd66b	-0.30437025
171	0xbe726507	-0.23671351
172	0x3d73af83	0.059493553
173	0xbe63e9cc	-0.22257155
174	0xbe366f85	-0.17815979
175	0xbe4f3f09	-0.2023889
176	0xbd133d84	-0.035947338
177	0x3bdb853c	0.0066992324
178	0x3e8dbca7	0.27682993
179	0x3e231de9	0.15929379
180	0xbe6f00c6	-0.23340139
181	0x3e870dbe	0.26377672
182	0x3e01506b	0.12628333
183	0xbe857f4f	-0.2607369
184	0xbe58ce4e	-0.21172449
185	0xbc4860be	-0.012230096
186	0xbe4c02dd	-0.19922967
187	0x3db7d3b3	0.08975925
188	0xbcc36de9	-0.02385612
189	0x3e798e20	0.24370623
190	0xbe98f7eb	-0.29876646
191	0xbd14fdb0	-0.036374748
192	0x3cf97d71	0.030455323
193	0xbe623030	-0.22088695
194	0xbe28aa8c	-0.16471308
195	0xbc911728	-0.017711237
196	0x3d73a815	0.059486467
197	0xbd67e82e	-0.05661791
198	0x3d50f38e	0.05101352
199	0xbc499710	-0.0123040825
200	0x3d6bf07d	0.057602394
201	0xbe805743	-0.25066575
202	0x3ea70937	0.32624218
203	0xbe64b3e6	-0.22334251
204	0xbe629338	-0.22126472
205	0xbdec5e39	-0.11541409
206	0xbd4bc29c	-0.04974614
207	0x3ea73ddf	0.3266439
208	0x3e981a7e	0.29707712
209	0xbddbfcc2	-0.10741569
210	0xbdb764dc	-0.08954784
211	0xbe98b6c1	-0.2982693
212	0x3d650a4d	0.055918027
213	0xbe4f1cc0	-0.20225811
214	0x3d8f9f63	0.070128225
215	0x3e84cc95	0.25937334
216	0x3e8dd576	0.2770192
217	0x3eb037e8	0.34417653
218	0x3e7e8d8f	0.24858688
219	0x3e4f9d83	0.2027493
220	0x3e1306aa	0.14358011
221	0x3e105df7	0.14098345
222	0x3d449869	0.047996912
223	0xbe2068bc	-0.15664953
224	0x3d81aca0	0.06331754
225	0x3dc399ef	0.09550845
226	0xbe9951cc	-0.2994522
227	0x3d6e39b4	0.0581605
228	0x3e38e545	0.1805621
229	0xbe0a3733	-0.1349762
230	0x3e365022	0.17804006
231	0x3e638b8e	0.22221205
232	0x3e6c5b65	0.23081739
233	0x3e8d9b69	0.2765763
234	0xbe3bf364	-0.18354565
235	0x3e16e4fa	0.14735785
236	0xbe883a5d	-0.26607028
237	0x3e819711	0.25310567
238	0x3dacfd8f	0.084468
239	0xbea2c38a	-0.3178981
240	0xbe4664aa	-0.19374338
241	0x3e9822b4	0.29713976
242	0x3d86fd15	0.0659124
243	0xbe97a5f8	-0.29618812
244	0xbe811633	-0.2521225
245	0xbe19a045	-0.15002544
246	0x3dd982f0	0.106206775
247	0xbe877884	-0.26459134
248	0xbe66f026	-0.22552547
249	0xbe70f635	-0.2353142
250	0x3e4cb2a4	0.19990021
251	0x3e8e17d0	0.27752542
252	0xbcc09192	-0.023506913
253	0xbc83fb2c	-0.016110979
254	0xbcca96bc	-0.024730079
255	0x3daa57f6	0.083175585

baseModel.0.bias f4 [64]
0	0x3a8bf2f4	0.0010677264
1	0xba1e262e	-0.0006032911
2	0xb99f4991	-0.00030381655
3	0xb9281d33	-0.00016032606
4	0xb922d4fb	-0.00015528865
5	0x392608c9	0.00015834266
6	0xb8fb7bab	-0.000119916476
7	0x387b8819	5.9969814e-05
8	0x384a652d	4.825478e-05
9	0xb9074c61	-0.00012903057
10	0x3907a18e	0.00012934787
11	0xb9ac078a	-0.00032812014
12	0x383ce8a0	4.503934e-05
13	0xb9fe7a3c	-0.00048537727
14	0x39cc3f44	0.0003895705
15	0x3a32d71d	0.00068222155
16	0x3a011810	0.0004924545
17	0x3a221512	0.00061829493
18	0x39905acc	0.0002753347
19	0x3917be71	0.00014471427
20	0xb93b42c0	-0.00017858576
21	0x3a4124ba	0.00073678384
22	0xb92621e7	-0.00015843623
23	0xb9f78a22	-0.00047214428
24	0xb8ed87b7	-0.000113263195
25	0xb93286a8	-0.00017025566
26	0xba43ce66	-0.00074694154
27	0xb9c10bda	-0.0003682066
28	0x382f6ff5	4.182752e-05
29	0xba32d21e	-0.0006821471
30	0x39af7e93	0.00033472906
31	0xb909a9a2	-0.00013128531
32	0x3576ac37	9.1892747e-07
33	0xb9bea35e	-0.00036361342
34	0x39284d9f	0.00016050645
35	0x38ee5adf	0.000113656504
36	0xb6f7c0bd	-7.3836113e-06
37	0xb7a3fb08	-1.954801e-05
38	0x39a87e1e	0.00032137422
39	0xb9d7e2de	-0.00041177025
40	0x39b15263	0.00033821454
41	0x388f465a	6.831875e-05
42	0x3a2a170c	0.00064884196
43	0xb9ee97e9	-0.0004550808
44	0x39337420	0.0001711403
45	0x3a49439e	0.0007677617
46	0x39b1facf	0.00033946938
47	0xb95b1dad	-0.00020896523
48	0x37af4365	2.0893009e-05
49	0xb99a3329	-0.00029411286
50	0xb715a4c0	-8.919451e-06
51	0xb80a76aa	-3.301228e-05
52	0x392c2b96	0.00016419435
53	0xba0725ae	-0.0005155456
54	0x3a0a4c42	0.00052756455
55	0x38872136	6.443488e-05
56	0x39d4e823	0.00040608746
57	0xb9da4384	-0.00041630503
58	0x38c07cab	9.178495e-05
59	0x383c2ec6	4.4866254e-05
60	0xba2257e1	-0.00061929045
61	0x398c944b	0.00026813368
62	0xb93be305	-0.00017918281
63	0xb9ae7eee	-0.00033282436

baseModel.1.weight f4 [64]
0	0x3f423b86	0.75872076
1	0x3f462d2e	0.7741269
2	0x3f39b6b4	0.7254441
3	0x3f5b2466	0.85602415
4	0x3f4ebfb6	0.8076128
5	0x3f386fca	0.72045577
6	0x3f2f417e	0.6845931
7	0x3f3359af	0.7005872
8	0x3f52cc43	0.8234293
9	0x3f38e6da	0.7222725
10	0x3f3aa0a5	0.72901374
11	0x3f3a42fa	0.7275845
12	0x3f32301b	0.69604653
13	0x3f2fab5b	0.6862084
14	0x3f2bd805	0.67126495
15	0x3f541322	0.82841694
16	0x3f57a850	0.842412
17	0x3f59b1c3	0.8503687
18	0x3f491bee	0.7855824
19	0x3f41c213	0.7568676
20	0x3f448723	0.767687
21	0x3f4baaac	0.795573
22	0x3f3d1e50	0.7387438
23	0x3f49cc14	0.78827024
24	0x3f5345bd	0.8252829
25	0x3f493a2d	0.78604394
26	0x3f4b3e0b	0.79391545
27	0x3f4279bc	0.75967
28	0x3f3512f5	0.7073205
29	0x3f52dc79	0.82367665
30	0x3f4987bd	0.78722745
31	0x3f2f10bc	0.6838491
32	0x3f4ad713	0.7923443
33	0x3f3e1d25	0.7426322
34	0x3f4d27a4	0.8013861
35	0x3f47159d	0.77767354
36	0x3f5d4b3f	0.8644294
37	0x3f31ac36	0.694034
38	0x3f4301fe	0.76174915
39	0x3f40b707	0.7527928
40	0x3f4dbf44	0.80369973
41	0x3f397f66	0.7246002
42	0x3f4de785	0.80431396
43	0x3f637e10	0.8886423
44	0x3f489145	0.78346664
45	0x3f4a4452	0.790105
46	0x3f2e31a0	0.6804447
47	0x3f57f0ec	0.8435199
48	0x3f3efe5c	0.7460687
49	0x3f38028e	0.718789
50	0x3f2fa87a	0.6861645
51	0x3f5854b9	0.84504277
52	0x3f568b02	0.8380586
53	0x3f43c484	0.76471734
54	0x3f2c2f92	0.67260087
55	0x3f39a37e	0.72515094
56	0x3f5e5b45	0.86858016
57	0x3f395f1b	0.72410744
58	0x3f674400	0.90338135
59	0x3f45f890	0.773324
60	0x3f67ef38	0.90599394
61	0x3f4034d0	0.75080585
62	0x3f3afb6a	0.7303988
63	0x3f5a7a5c	0.85342956

baseModel.1.bias f4 [64]
0	0xbd33fb36	-0.043940745
1	0x3d05c1fb	0.032655697
2	0xbd711d84	-0.05886604
3	0xbd7f32c3	-0.06230427
4	0xbd246f27	-0.040145066
5	0xbcbd44d0	-0.023104101
6	0x3c21290f	0.009836449
7	0xbc87cd51	-0.016577395
8	0xbdd9257b	-0.10602852
9	0xbdb06ebc	-0.08614871
10	0xbca4783f	-0.020076869
11	0xbd6a6f1c	-0.05723487
12	0x3ccf6218	0.02531533
13	0xbc0e0ca2	-0.008670004
14	0xbd2a64c2	-0.041599996
15	0x3bcebf01	0.0063093905
16	0xbd1ee428	-0.038791806
17	0xbdb78ff8	-0.08963007
18	0xbdaaef6a	-0.08346446
19	0x3affec8f	0.0019525456
20	0xbdc336b8	-0.09531921
21	0x3c9d53db	0.019205024
22	0xbd8f5ff7	-0.07000726
23	0xbcc051a4	-0.02347643
24	0xbcd043fb	-0.02542304
25	0xbd09887e	-0.033577435
26	0xbd9cb39f	-0.076514475
27	0x3c8c63be	0.017137405
28	0xbda08611	-0.07838071
29	0xbc502dc2	-0.012706222
30	0xbcfe8b20	-0.0310722
31	0xbd7ec5e2	-0.062200435
32	0xbd0c6303	-0.034274112
33	0x3d665fd4	0.056243733
34	0xbda2d2c9	-0.0795036
35	0xbe09a768	-0.13442767
36	0xbd39a14f	-0.04531985
37	0xbd66679c	-0.056251153
38	0xbd4acb38	-0.04951021
39	0xbcf755a2	-0.0301922
40	0xbd766818	-0.060157865
41	0xbd161821	-0.036644105
42	0x3c2f66db	0.010705675
43	0xbd8ffdbe	-0.07030819
44	0xbd845c85	-0.06462959
45	0xbd4e0f9f	-0.050307866
46	0xbce297ee	-0.027660336
47	0xbd07b80c	-0.033134505
48	0xbd66a239	-0.05630705
49	0xbceb93ab	-0.028756937
50	0xbd4333cf	-0.04765683
51	0xbd47305e	-0.04863011
52	0xbd639974	-0.055566266
53	0xbd9c7f0e	-0.07641421
54	0xbd752e6e	-0.059858732
55	0xbdb47f42	-0.08813335
56	0xbd02f39c	-0.031970605
57	0xbd51fd65	-0.051267046
58	0xbd19aa41	-0.037515882
59	0x3c425c6a	0.011862854
60	0xbdc3ea46	-0.095661685
61	0x3c85a1bc	0.016312473
62	0xbd60db97	-0.054896917
63	0xbd84f372	-0.06491746

baseModel.1.running_mean f4 [64]
0	0x3a3ff058	0.0007321886
1	0xba21dd84	-0.0006174671
2	0xb9423f5d	-0.00018524886
3	0xb8dd492f	-0.00010551733
4	0xb8b9c7a4	-8.8586734e-05
5	0xb8e639bd	-0.00010978009
6	0xb987fab3	-0.00025935992
7	0x38919631	6.942114e-05
8	0xb884092a	-6.2959574e-05
9	0xb8c3683f	-9.317742e-05
10	0x3936329f	0.0001737573
11	0xb9ef67d6	-0.00045662996
12	0x38be2100	9.066053e-05
13	0xb9a5793c	-0.0003156158
14	0x39a92029	0.00032258153
15	0x3a15e10a	0.00057174324
16	0x39b52d10	0.00034556584
17	0x3a419ed3	0.00073860324
18	0x3919c66e	0.00014665138
19	0x38928607	6.986787e-05
20	0xb7ad38fb	-2.064974e-05
21	0x3a0febc2	0.0005490148
22	0x380d8d00	3.3748336e-05
23	0xb9d15611	-0.0003992771
24	0xb7d5b264	-2.5474648e-05
25	0x3790ec7d	1.7276261e-05
26	0xba5c4ade	-0.000840349
27	0xb9c4ef9d	-0.0003756256
28	0x369d5d30	4.689813e-06
29	0xba2fc6d1	-0.0006705346
30	0x39aaa085	0.00032544523
31	0xb94a8f1e	-0.00019317536
32	0xb88a846e	-6.60502e-05
33	0xb992fd4a	-0.00028036005
34	0x3916dbf3	0.00014387052
35	0x3952f780	0.00020119362
36	0xb89119f5	-6.918974e-05
37	0xb99062d5	-0.00027539456
38	0x39dccb51	0.00042113152
39	0xb9f5a92d	-0.00046856087
40	0x38a281dc	7.74895e-05
41	0x376fbf58	1.4290061e-05
42	0x3a01886f	0.00049412897
43	0xb9bf6eb2	-0.00036512833
44	0x391bb9ec	0.00014851213
45	0x3a43f400	0.00074750185
46	0x38c4fe6e	9.3933995e-05
47	0x38456688	4.706395e-05
48	0x388d481f	6.7368375e-05
49	0xb9de65fe	-0.0004241913
50	0xb8b7087f	-8.7277025e-05
51	0x389b6c4b	7.411147e-05
52	0x390a212a	0.0001317306
53	0xb9d48002	-0.00040531164
54	0x3a07cac2	0.00051800546
55	0x38363df0	4.3449865e-05
56	0x39b97ecb	0.00035380418
57	0xb9ec53d3	-0.00045075882
58	0x38af8e8a	8.3712e-05
59	0x3795609e	1.7807175e-05
60	0xba19cac3	-0.00058667007
61	0x39840055	0.0002517725
62	0xb9b1ebb2	-0.00033935677
63	0xb9a0a7ac	-0.00030642503

baseModel.1.running_var f4 [64]
0	0x373ba809	1.1185192e-05
1	0x365f3775	3.326187e-06
2	0x36895911	4.093287e-06
3	0x36e22e84	6.74074e-06
4	0x374c1eac	1.2166489e-05
5	0x3726908b	9.928025e-06
6	0x3605ef4a	1.995783e-06
7	0x37086f94	8.1322105e-06
8	0x3769fffd	1.3947484e-05
9	0x36963b0e	4.4772232e-06
10	0x3675546f	3.6556992e-06
11	0x370e8803	8.495527e-06
12	0x375a9407	1.3028278e-05
13	0x36abe8d9	5.123304e-06
14	0x3671988e	3.6000597e-06
15	0x3784ed73	1.5846197e-05
16	0x372f674e	1.0454865e-05
17	0x378b4d7b	1.660617e-05
18	0x371e01de	9.417969e-06
19	0x3716e6f6	8.9944715e-06
20	0x371742dd	9.015869e-06
21	0x3751c739	1.2503756e-05
22	0x376f7180	1.4271936e-05
23	0x3782ee2b	1.5608113e-05
24	0x37618e14	1.3444125e-05
25	0x3719c29a	9.16482e-06
26	0x37427a15	1.15917255e-05
27	0x36eedf43	7.118944e-06
28	0x3708f666	8.163601e-06
29	0x371db8aa	9.400925e-06
30	0x372c6ad9	1.0276876e-05
31	0x36a719c3	4.979987e-06
32	0x3682a40c	3.8933995e-06
33	0x368bf92e	4.171531e-06
34	0x375a456f	1.3009979e-05
35	0x370730ef	8.05802e-06
36	0x37ab0835	2.038861e-05
37	0x3654dfe6	3.1720788e-06
38	0x37528f56	1.2550348e-05
39	0x37148b29	8.853888e-06
40	0x376aab2e	1.3987343e-05
41	0x374a7f0a	1.2069717e-05
42	0x370bef00	8.340692e-06
43	0x37bd1cdb	2.2543993e-05
44	0x3720ff78	9.596224e-06
45	0x36e1bb42	6.727322e-06
46	0x3680cd9f	3.8386347e-06
47	0x3776d160	1.47114915e-05
48	0x3722a70d	9.694847e-06
49	0x369fd147	4.7629323e-06
50	0x3603b42e	1.96254e-06
51	0x3730b852	1.0533333e-05
52	0x375964f6	1.2957715e-05
53	0x378611b7	1.5982294e-05
54	0x3694c478	4.4336157e-06
55	0x36e6db05	6.8800314e-06
56	0x3795bc47	1.7849858e-05
57	0x36f39029	7.258747e-06
58	0x3745aac1	1.1781872e-05
59	0x370a8941	8.257398e-06
60	0x3797e0b6	1.8105242e-05
61	0x373005d1	1.0491772e-05
62	0x3706b98b	8.0302225e-06
63	0x37478720	1.1892786e-05

baseModel.4.weight f4 [64, 64, 3]
0	0xbd177c6d	-0.036983896
1	0xbdba8803	-0.091079734
2	0xbca2c689	-0.01987006
3	0xbd25b18f	-0.040452536
4	0x3c477f88	0.012176402
5	0xbd058291	-0.03259522
6	0xbd64c603	-0.0558529
7	0xbc5672a2	-0.013088854
8	0xbc28d9f4	-0.01030587
9	0xbc9d4850	-0.01919952
10	0x3da5b6f9	0.0809154
11	0xbd327f67	-0.04357853
12	0xbd58c000	-0.05291748
13	0xbc69065d	-0.0142227085
14	0xbd305dda	-0.043058254
15	0xbc399eb2	-0.01132934
16	0x3ce357a3	0.02775175
17	0x3cbda5ba	0.023150314
18	0x3d2e8cc6	0.04261472
19	0x3c45c5f0	0.012071118
20	0xbd67937f	-0.056537148
21	0xbd04d291	-0.032427374
22	0xbc12e5d0	-0.008965924
23	0x3b14f0b6	0.0022726483
24	0xbc5ce460	-0.013482183
25	0x3cf6fe38	0.030150518
26	0xbd06ef2e	-0.032942943
27	0x3d0e2d6e	0.034711294
28	0xbd81cad9	-0.06337518
29	0x3d273807	0.040824916
30	0xbd0628c8	-0.032753736
31	0xbc444ec7	-0.011981673
32	0xbd58d83a	-0.052940585
33	0x3ce3756d	0.027765954
34	0x3c14df4d	0.009086442
35	0x3cbfe4f4	0.023424603
36	0x3c51faf5	0.0128161805
37	0xbba9d23b	-0.005182532
38	0xbc487510	-0.012234941
39	0x3c515664	0.012776945
40	0x3c653a25	0.0139909135
41	0xbc8395ee	-0.016062703
42	0xbd43ca5f	-0.047800418
43	0xbd3b9952	-0.045800515
44	0xbc8957fb	-0.016765585
45	0x3d421701	0.04738522
46	0x3d39b701	0.04534054
47	0x3d0b3e0c	0.03399472
48	0xbb418338	-0.0029527675
49	0x3da003e1	0.0781324
50	0x3a8ea9f2	0.0010884388
51	0x3d8699c6	0.06572299
52	0x3d5b62b8	0.053560942
53	0x3ca9f9f9	0.020749079
54	0xb9bbae9e	-0.0003579752
55	0xbd0d9958	-0.034570068
56	0xbd23f058	-0.04002413
57	0x3d3c71a8	0.04600683
58	0xbcdcf2c8	-0.026971236
59	0x3d128ce7	0.035778906
60	0x3cce10f3	0.025154566
61	0x3c3f5759	0.01167854
62	0x3d60351a	0.05473814
63	0xbcc287d6	-0.023746412
64	0x3db92ef7	0.09042161
65	0xbd1d8e7a	-0.038465954
66	0xbb94b2ce	-0.0045379167
67	0x3cc64e4c	0.024207257
68	0x3cef8bc4	0.02924145
69	0xbc3c8b37	-0.011507801
70	0x3d0f8386	0.03503754
71	0xbc3e9ccd	-0.011634064
72	0x3d1a5bb9	0.03768513
73	0x3c59be1a	0.013289953
74	0x3cfeb57d	0.0310924
75	0x3c8590ab	0.016304335
76	0xbdd0c4b2	-0.10193767
77	0x3c9d8327	0.019227577
78	0x3da544e4	0.080697805
79	0x3cd3850e	0.025820281
80	0x3d5fce2e	0.054639988
81	0xbd1eeb24	-0.038798466
82	0x3d15c0aa	0.036560692
83	0x3bbb74fb	0.0057207323
84	0xbc50bb0c	-0.012739908
85	0x3d2178f6	0.039421998
86	0x3d235241	0.039873365
87	0xbd5dc045	-0.05413844
88	0xbbc08156	-0.005874793
89	0xbcff5fae	-0.031173553
90	0x3d232095	0.039825995
91	0xbc0b7cda	-0.008513654
92	0xba618d91	-0.0008604164
93	0x3ccb2229	0.024796562
94	0xbdbafcc2	-0.09130241
95	0xbaa551b8	-0.0012612855
96	0x3bc13a3c	0.0058968347
97	0x3c2143cc	0.009842824
98	0xbbf8e341	-0.00759545
99	0xbcd31062	-0.025764648
100	0xbd176dd8	-0.03696999
101	0xbbcb20e8	-0.006198991
102	0xbbcd5a3b	-0.00626686
103	0xbc5318b6	-0.0128843095
104	0xba773104	-0.0009429606
105	0xbc9e59f8	-0.01933001
106	0xbc04403d	-0.008071956
107	0xbcc69ad7	-0.024243755
108	0x3c8f6164	0.017502494
109	0xbbbceea0	-0.005765751
110	0x3bb741c9	0.005592559
111	0x3cd5e3df	0.026109634
112	0x3d218243	0.039430868
113	0x3cc672f3	0.024224734
114	0x3d92fad6	0.071767494
115	0x3d1b6c00	0.037944794
116	0x3d4bcf43	0.049758207
117	0xbbf960e7	-0.0076104286
118	0xbda2f490	-0.07956803
119	0x3cbc5fee	0.022994962
120	0xbc5f4297	-0.013626716
121	0x3c83db9c	0.016095929
122	0xbcbdd5f1	-0.023173304
123	0x3cc44b8f	0.02396181
124	0x3c7271f0	0.014797673
125	0x3d2fc28e	0.04291015
126	0x3d1c8ef2	0.03822226
127	0x3ccdcc47	0.025121821
128	0x3c32b5cd	0.0109076025
129	0xbb53f1ba	-0.0032340125
130	0x3cdb8e7b	0.026801338
131	0xbcae3911	-0.021267446
132	0xbd24c18b	-0.04022364
133	0x3d54e729	0.051978264
134	0x3d38d30f	0.045123156
135	0xbc979766	-0.01850481
136	0xbdd87951	-0.10570014
137	0x3ade2a84	0.0016949927
138	0x3d84b9dd	0.06480763
139	0xbc844000	-0.016143799
140	0xbbdcf5a0	-0.006743148
141	0x3c8f4530	0.017489046
142	0x3cbcf1e5	0.023064563
143	0xbccd0c7d	-0.025030369
144	0x3d31753d	0.043324698
145	0x3c1d61bc	0.009605821
146	0xbd4505b1	-0.04810113
147	0x39c26464	0.0003707736
148	0x3d123794	0.035697535
149	0xbcd204e8	-0.025637105
150	0xbd96e120	-0.07367158
151	0xbc8504fc	-0.016237728
152	0xbc90b549	-0.017664568
153	0xbd45b994	-0.048272684
154	0xbd9d42a3	-0.076787256
155	0xbd9c32cc	-0.07626876
156	0xbbf7d904	-0.007563712
157	0xbdb0184c	-0.08598384
158	0xbbd7aeb1	-0.006582104
159	0x3d22ed20	0.03977692
160	0xbd358c3d	-0.044323195
161	0xbdaa4cc4	-0.08315423
162	0x3ceb0c22	0.028692309
163	0xbc546808	-0.012964256
164	0xbcd3e0c4	-0.025864013
165	0xbb8cb053	-0.0042934804
166	0xbc6f2261	-0.014595599
167	0x3d6141e8	0.054994494
168	0x3d88c7d6	0.06678741
169	0xbc57281f	-0.013132124
170	0x3d260154	0.04052861
171	0xbc964286	-0.018342268
172	0xbd9a0f29	-0.07522423
173	0xbd393e7e	-0.045225613
174	0xbd6c674e	-0.057715707
175	0x3db5871a	0.08863659
176	0x3cbbe863	0.022937959
177	0x3c88e410	0.016710311
178	0x3d331534	0.043721393
179	0xbc213411	-0.009839074
180	0x3b7a3fed	0.0038185075
181	0x3d83173f	0.06400918
182	0x3b455824	0.003011235
183	0x3d7aab98	0.0611988
184	0x3c2e0ef2	0.01062368
185	0xba9174bf	-0.0011097415
186	0xbda7e012	-0.08197035
187	0x3be3da3f	0.006953507
188	0xbcd5fd3c	-0.026121728
189	0xbd916856	-0.070999786
190	0x3b3faa2a	0.0029245713
191	0xbd4d2fe9	-0.05009452
192	0xbda8bf80	-0.08239651
193	0xb6bd280c	-5.637301e-06
194	0xbc828da0	-0.015936673
195	0xbcf8182c	-0.030284964
196	0xbc36a192	-0.01114692
197	0x3b56b73a	0.003276302
198	0xbb90e4c4	-0.0044218022
199	0xbc738c25	-0.014864956
200	0xbc2e9352	-0.010655241
201	0x3d95d2a9	0.07315571
202	0xbce77fb9	-0.028259145
203	0x3d080a50	0.03321296
204	0x3d1b9a93	0.03798921
205	0xbd933d1d	-0.07189391
206	0xbd07608b	-0.033051055
207	0x3c626ccb	0.013819884
208	0x3b250a13	0.0025183007
209	0x3d3456a1	0.04402793
210	0x3d00b51c	0.03142272
211	0x3d984768	0.07435495
212	0x3cb59e0c	0.02217009
213	0xbb4067d1	-0.0029358754
214	0x3cfa2d54	0.030539192
215	0x3d17baa8	0.037043244
216	0x3cebcbb3	0.028783655
217	0xbc7eebb8	-0.015559129
218	0x3c6d7bca	0.014494846
219	0x3cd38ecd	0.025824929
220	0xbc85b2d1	-0.016320618
221	0xbcdf594b	-0.027264258
222	0xbd4ff787	-0.05077317
223	0x3ca913b7	0.020639284
224	0x3d2cdab0	0.042200744
225	0x3d2a7fbe	0.04162573
226	0xbd3d7918	-0.046258062
227	0xbb8c09d8	-0.0042736344
228	0xbc84d312	-0.016213927
229	0xbd101922	-0.03518022
230	0xbd3c3c7d	-0.045956124
231	0xbceb44a7	-0.02871926
232	0xba420faa	-0.0007402847
233	0xbbc042ff	-0.0058673616
234	0x3d54023e	0.05175995
235	0xbd062314	-0.032748297
236	0x3c3e065c	0.011598196
237	0x3ce1413e	0.02749693
238	0xbd939ff1	-0.07208241
239	0xbd02e512	-0.03195674
240	0x3d967ecc	0.07348403
241	0xbd51c77f	-0.051215645
242	0xbc501975	-0.012701382
243	0x3d1e4515	0.0386401
244	0x3cba4ac9	0.022740738
245	0x3c004be9	0.007830598
246	0x3d23c6cd	0.039984513
247	0x3c9324a1	0.017961802
248	0xbc581468	-0.013188459
249	0x3d1375ad	0.036000896
250	0x3ccb2fb2	0.024803016
251	0xbd9681dc	-0.073489875
252	0xbb86ff09	-0.004119758
253	0xbd3e9b61	-0.0465349
254	0x3d003a48	0.03130558
255	0x3d5a3f8e	0.053283267

baseModel.4.bias f4 [64]
0	0x37399178	1.1060729e-05
1	0x3759fc11	1.2992897e-05
2	0x378397cc	1.5687103e-05
3	0xb741870a	-1.1535138e-05
4	0xb682b50b	-3.895378e-06
5	0xb6a45038	-4.8969196e-06
6	0x37e46f8c	2.7231661e-05
7	0xb70961f4	-8.188643e-06
8	0x380f558b	3.4173525e-05
9	0x389935d8	7.305638e-05
10	0xb7567bbc	-1.2784203e-05
11	0xb83544a5	-4.3217693e-05
12	0x37407b5e	1.14728155e-05
13	0xb7f1d90f	-2.8830515e-05
14	0x378d647f	1.6855307e-05
15	0x3814bce1	3.5461857e-05
16	0x3694565c	4.4207973e-06
17	0xb7087d50	-8.135408e-06
18	0x36bac1e8	5.5658056e-06
19	0xb759b2ae	-1.297581e-05
20	0xb878a03a	-5.927703e-05
21	0x382033f2	3.819535e-05
22	0x38639cee	5.426717e-05
23	0xb75d7f95	-1.32023315e-05
24	0xb7c7ad93	-2.3803475e-05
25	0xb83ee646	-4.551399e-05
26	0xb696cc53	-4.494135e-06
27	0xb6388893	-2.7497633e-06
28	0x37005cd1	7.651005e-06
29	0xb849bc68	-4.80976e-05
30	0x36dc5889	6.566818e-06
31	0xb7eebc56	-2.8459512e-05
32	0xb7101f35	-8.590335e-06
33	0x37cdc89b	2.4531319e-05
34	0xb7c20393	-2.3128267e-05
35	0x384a98da	4.8302907e-05
36	0x35c29ac3	1.4499168e-06
37	0xb65bfb02	-3.2779649e-06
38	0xb6267959	-2.4806561e-06
39	0x37f90906	2.9687315e-05
40	0x370962cb	8.188838e-06
41	0x37ee64b4	2.8418704e-05
42	0xb80586dc	-3.183527e-05
43	0xb6984b87	-4.5387455e-06
44	0xb7101645	-8.588254e-06
45	0xb85b474f	-5.228008e-05
46	0xb64b5935	-3.0301283e-06
47	0x376b36c2	1.4019841e-05
48	0xb81001c7	-3.433393e-05
49	0x37558a6b	1.2728017e-05
50	0x3738e29e	1.1020018e-05
51	0xb690f1cb	-4.319683e-06
52	0xb830f8e9	-4.2193486e-05
53	0x36084ba7	2.0309615e-06
54	0xb712d1d6	-8.751134e-06
55	0xb6c7715a	-5.943858e-06
56	0x36eb0b8e	7.004891e-06
57	0x3783666d	1.5664113e-05
58	0xb7a136c5	-1.92182e-05
59	0x3836427e	4.3454107e-05
60	0xb7fc5b8a	-3.0083367e-05
61	0x37ff5ea2	3.0442436e-05
62	0xb7ffe85a	-3.0506566e-05
63	0x38113a1d	3.4624816e-05

baseModel.5.weight f4 [64]
0	0x3f444494	0.7666714
1	0x3f460d99	0.773645
2	0x3f3f74ab	0.74787396
3	0x3f50dee6	0.81590116
4	0x3f3c8d53	0.73653144
5	0x3f39d229	0.72586304
6	0x3f486683	0.7828142
7	0x3f41639b	0.7554261
8	0x3f466706	0.7750095
9	0x3f44ac09	0.76825005
10	0x3f398d36	0.72481096
11	0x3f3fde00	0.7494812
12	0x3f335aa3	0.70060176
13	0x3f34225b	0.7036492
14	0x3f43e96e	0.7652806
15	0x3f3fab16	0.7487043
16	0x3f3a1c28	0.72699213
17	0x3f3b8f8e	0.7326592
18	0x3f3243dd	0.696348
19	0x3f4a4cba	0.79023325
20	0x3f465406	0.7747196
21	0x3f3febfd	0.74969465
22	0x3f375be6	0.716246
23	0x3f464c34	0.77460027
24	0x3f4e45ea	0.8057543
25	0x3f3af23d	0.73025876
26	0x3f44a008	0.7680669
27	0x3f3589f0	0.709136
28	0x3f3898dd	0.7210825
29	0x3f527322	0.8220693
30	0x3f3caa6f	0.7369756
31	0x3f4de32b	0.80424756
32	0x3f3bb88e	0.73328483
33	0x3f410196	0.75393045
34	0x3f3a7b6f	0.72844595
35	0x3f42b6ae	0.7606
36	0x3f2eb375	0.6824258
37	0x3f32ac79	0.6979442
38	0x3f41cfb6	0.75707567
39	0x3f489a28	0.78360224
40	0x3f4f4430	0.8096342
41	0x3f40eb22	0.75358784
42	0x3f3dacab	0.74091595
43	0x3f3d5ba3	0.7396795
44	0x3f2fe612	0.68710434
45	0x3f27d1cd	0.65554506
46	0x3f3e45ba	0.74325144
47	0x3f463d3c	0.77437186
48	0x3f4c99bd	0.79922086
49	0x3f2f1b54	0.68401074
50	0x3f3fce4f	0.74924177
51	0x3f363013	0.71167105
52	0x3f4cf004	0.80053735
53	0x3f323f22	0.69627583
54	0x3f3bd800	0.73376465
55	0x3f57ca17	0.8429274
56	0x3f3b617a	0.7319561
57	0x3f383593	0.7195675
58	0x3f48d233	0.7844574
59	0x3f3a72ad	0.7283123
60	0x3f53817f	0.8261947
61	0x3f2afa99	0.6678863
62	0x3f435d30	0.7631407
63	0x3f30ad3a	0.6901432

baseModel.5.bias f4 [64]
0	0xbbfdcdf3	-0.0077454983
1	0xbe190175	-0.14941962
2	0x3cd1715e	0.025566753
3	0x3d0b54d6	0.034016453
4	0xbda748c9	-0.081681795
5	0x3c13bd92	0.009017365
6	0xbdc2cc95	-0.09511677
7	0xbcaa7f00	-0.020812511
8	0x3c8b81bd	0.017029637
9	0xbdf9e12e	-0.12201153
10	0x3d7feb09	0.062480006
11	0xbd7e0eba	-0.062025763
12	0xbc69045c	-0.014222231
13	0x3d6e99d6	0.058252178
14	0xbd3bdfca	-0.04586772
15	0xbc5d4014	-0.013504047
16	0x3d0eba61	0.034845714
17	0x3cdf426c	0.027253352
18	0x3d10ab34	0.035319522
19	0x3bb5063f	0.0055244262
20	0xbe069bdc	-0.13145393
21	0x3d6c0c7a	0.057629086
22	0xbc97190d	-0.018444562
23	0xbd0c0200	-0.034181595
24	0x3ca2ae5e	0.019858535
25	0x3d7b88a0	0.061409593
26	0xbd2a1ef4	-0.041533425
27	0x3dbd52cb	0.09244307
28	0xbd75b1ff	-0.059984203
29	0xbc4c8798	-0.0124835
30	0x3d46fce7	0.04858103
31	0xbc94e73f	-0.018176673
32	0x3c04804a	0.008087227
33	0x3d196b41	0.0374558
34	0x3ba03e00	0.0048902035
35	0x3c005447	0.007832593
36	0x3da1f5d3	0.079082154
37	0x3d171a9a	0.036890604
38	0xbcfd68e8	-0.030933812
39	0x3df3d8e9	0.11906607
40	0xbde8267b	-0.113354646
41	0x3d5f1abd	0.05446886
42	0xbca2f8ef	-0.019894091
43	0x3c011b00	0.007879972
44	0xbc355927	-0.011068619
45	0xbce98dcb	-0.028509995
46	0xbb3892ff	-0.0028163788
47	0x3d30a189	0.043122802
48	0xbd1942c2	-0.03741718
49	0xbdfaaa5e	-0.12239526
50	0x3ced41fc	0.028962128
51	0xbca5eecc	-0.020255469
52	0xbe1c76ac	-0.15279645
53	0xbca5d54f	-0.020243315
54	0x3ce685aa	0.028139908
55	0xbe576d0b	-0.2103769
56	0xbd083cbd	-0.03326105
57	0x3b1ae62d	0.002363573
58	0xbc078bbc	-0.008273061
59	0xbd906a7c	-0.0705156
60	0xbd18176c	-0.03713171
61	0xbd83c123	-0.06433322
62	0xbd603ab3	-0.05474348
63	0x3c8418f1	0.016125174

baseModel.5.running_mean f4 [64]
0	0x3c2ff3dc	0.010739293
1	0xbe32bff7	-0.17456041
2	0x3e8d6cbc	0.2762202
3	0x3c84a126	0.016190123
4	0xbdbc3e0a	-0.091915205
5	0x3e000e30	0.12505412
6	0xbdb6be7b	-0.0892305
7	0xbd703ad7	-0.058649864
8	0x3e830fbf	0.2559795
9	0x3d476081	0.048676018
10	0x3df351b5	0.11880819
11	0xbd1ea320	-0.038729787
12	0xbcab9eb2	-0.020949695
13	0x3d501017	0.050796594
14	0x3d6f3bd7	0.058406677
15	0xbb9224f5	-0.004459972
16	0xbd63f6cc	-0.055655286
17	0x3ebfb979	0.37446192
18	0xbe9c29f2	-0.30500752
19	0x3c90d1e2	0.017678205
20	0xbdce4983	-0.10072615
21	0x3d99d9af	0.07512223
22	0x3e5b0ec8	0.21392357
23	0x3e54cf44	0.2078219
24	0xba4ddd68	-0.00078531215
25	0x3d2bd13e	0.041947596
26	0x3c6d02dc	0.014466014
27	0xbdc9489a	-0.09828301
28	0xbb1b0953	-0.002365668
29	0x3b9b1915	0.0047332146
30	0xbe8d8cdc	-0.2764653
31	0xbbe6b8dd	-0.0070410804
32	0xbd46433d	-0.048403967
33	0xbd8c9ec9	-0.06866223
34	0x3e1b3ed3	0.15160684
35	0x3d77ee73	0.060530137
36	0xbe842e91	-0.25816777
37	0xbd8ed95e	-0.06975053
38	0x3d13c38f	0.03607517
39	0xbec0bfb5	-0.3764626
40	0xbd0bb6f2	-0.034110017
41	0x3d19f6ba	0.037588812
42	0xbd5242ab	-0.05133311
43	0x3d89f671	0.06736458
44	0xbdb63aed	-0.08897958
45	0xbce582e8	-0.028016523
46	0xbd620624	-0.055181637
47	0xbe4e015e	-0.20117709
48	0xbcb81c33	-0.022474384
49	0xbddc1872	-0.1074685
50	0x3cb21815	0.021739999
51	0x3c4d840c	0.012543689
52	0xbda167f0	-0.07881153
53	0x3cce1895	0.025158206
54	0x3cb4263f	0.021990893
55	0xbd148602	-0.036260612
56	0xbd306497	-0.04306468
57	0xbe7025a7	-0.23451863
58	0x3e206308	0.15662777
59	0xbcc55c6f	-0.024091927
60	0xbdae1773	-0.08500566
61	0x3c4f16ca	0.012639711
62	0xbc90a543	-0.017656928
63	0xbd799139	-0.06092951

baseModel.5.running_var f4 [64]
0	0x3c3a0c84	0.011355523
1	0x3caff26c	0.0214779
2	0x3ce43070	0.027855128
3	0x3d12e356	0.035861336
4	0x3d27d982	0.040978916
5	0x3d278663	0.040899646
6	0x3d191e8f	0.03738266
7	0x3d86b911	0.06578267
8	0x3d34d4b7	0.044148173
9	0x3c752264	0.014961813
10	0x3cd7610e	0.026291396
11	0x3dd6105d	0.1045234
12	0x3cf09211	0.029366525
13	0x3d4c4544	0.049870744
14	0x3d932677	0.07185071
15	0x3d48c5b6	0.049016677
16	0x3d8858a1	0.066575296
17	0x3d01a910	0.03165537
18	0x3c9b30f8	0.018944249
19	0x3cea118f	0.028572826
20	0x3ce4bb0d	0.027921224
21	0x3d6aaea7	0.057295468
22	0x3cf7aadb	0.030232837
23	0x3d1f5fda	0.03890977
24	0x3ce8deb9	0.028426515
25	0x3d1882b5	0.037234027
26	0x3d1a2b86	0.037639163
27	0x3d9b8338	0.07593387
28	0x3cf1f969	0.029537873
29	0x3ddf5ff2	0.10906972
30	0x3d457399	0.048205946
31	0x3d5303a9	0.051517162
32	0x3dc3cdcb	0.09560736
33	0x3d05812f	0.032593902
34	0x3ce6dbf3	0.028181052
35	0x3cd07025	0.0254441
36	0x3c8bedfc	0.017081253
37	0x3d47248a	0.04861883
38	0x3da5d485	0.080971755
39	0x3d84dbe9	0.06487257
40	0x3d602eb6	0.054732047
41	0x3da91b4e	0.08257161
42	0x3d5b0d48	0.053479463
43	0x3d5ad4a0	0.05342543
44	0x3d0ed51a	0.0348712
45	0x3cc891e9	0.024483638
46	0x3d077619	0.03307161
47	0x3d13a463	0.036045443
48	0x3de2800a	0.11059578
49	0x3c43e116	0.01195552
50	0x3d5b8ce3	0.053601157
51	0x3d118c16	0.035533987
52	0x3d55c6ca	0.052191533
53	0x3d056c60	0.032574058
54	0x3db78dda	0.08962603
55	0x3cca4313	0.024690187
56	0x3d4c8f3f	0.049941298
57	0x3d6aa78a	0.057288684
58	0x3d2e6826	0.042579792
59	0x3ce10911	0.027470144
60	0x3d9d2e87	0.0767489
61	0x3cbd660a	0.023119945
62	0x3d275747	0.04085472
63	0x3ce793a5	0.028268645

baseModel.8.weight f4 [64, 64, 3]
0	0x3d3bf241	0.04588533
1	0xbd1cdc6f	-0.03829616
2	0xbcafa4b3	-0.02144084
3	0xbc8d148d	-0.017221713
4	0xbd2c253b	-0.042027693
5	0x3ac0cce2	0.0014709497
6	0xbc84e4df	-0.016222415
7	0x3d248141	0.04016233
8	0xbd26322b	-0.040575188
9	0xbd791ecb	-0.060820382
10	0xbb91d4d1	-0.0044504185
11	0x3c084d54	0.008319218
12	0x3ce822a1	0.028336825
13	0x3cd97e69	0.026549535
14	0xbc641916	-0.013921997
15	0xbc95a2e7	-0.018266154
16	0xbd7d7a80	-0.061884403
17	0xbd7f7097	-0.062363233
18	0xbd57627b	-0.052584153
19	0x3d138a09	0.036020312
20	0xbc0a2717	-0.008432171
21	0x3d209568	0.039204985
22	0x3c596f24	0.013271127
23	0x3d0472ef	0.03233617
24	0xbd14549f	-0.036213513
25	0x3ce133aa	0.027490456
26	0x3d5b81c0	0.053590536
27	0x3d092754	0.03348477
28	0x3c878f58	0.016547844
29	0x3d50b90e	0.050957732
30	0x3d7f0414	0.06225975
31	0x3c6c49fa	0.014421934
32	0xbd307d00	-0.04308796
33	0xbba8ad15	-0.005147586
34	0xbca5edef	-0.020255057
35	0xbc40b63e	-0.0117622
36	0x3d470bec	0.048595354
37	0xbbab80e0	-0.005233869
38	0xbd29bb59	-0.041438434
39	0xbb82bf99	-0.0039901254
40	0x3b92baf3	0.0044778525
41	0x3cfc0e24	0.030768462
42	0xbab773e4	-0.001399633
43	0xbd553d79	-0.052060578
44	0xbd127a68	-0.035761267
45	0xbc935566	-0.017985057
46	0xbda32c99	-0.07967491
47	0xbdcc170a	-0.09965332
48	0x3be3a5c9	0.0069472534
49	0xbd02867b	-0.03186653
50	0x3cef873f	0.029239295
51	0x3c84aaaf	0.01619467
52	0x3d0a20e9	0.03372279
53	0x3d07eb9c	0.03318368
54	0x3d7c1eb0	0.061552703
55	0x3bc3dbd9	0.0059771356
56	0xbc1fce64	-0.009753797
57	0xbcfd86f4	-0.03094814
58	0x3d8d36c9	0.06895215
59	0x3d9307a7	0.07179194
60	0xbcaa508a	-0.020790357
61	0x3cfa2f8e	0.030540254
62	0x3d2a2722	0.041541226
63	0xbc09178c	-0.00836743
64	0x3ceb1e1c	0.02870088
65	0xbba4dae1	-0.005030975
66	0xbcca77e5	-0.024715373
67	0x3d1e303a	0.03862021
68	0xbcd711ef	-0.026253669
69	0x3ce08bfe	0.027410503
70	0x3c957cf8	0.018248066
71	0x3cca67aa	0.024707634
72	0x3d7db7f3	0.061943006
73	0xbc15fc13	-0.009154337
74	0xbbe1ff6b	-0.0068969033
75	0xbcb8b11d	-0.022545392
76	0x3d3d73b0	0.046252906
77	0xbc3fbb3b	-0.011702354
78	0x3c9a5d08	0.018843189
79	0x3d030d67	0.031995203
80	0xbc936828	-0.017994002
81	0x3ad1c33f	0.0016003622
82	0x3c9ef89b	0.019405654
83	0xbcf6e061	-0.03013629
84	0xbd3ff2f8	-0.046862572
85	0x3b97e5a5	0.00463553
86	0x3d548dd6	0.051893078
87	0x3d64df9e	0.05587732
88	0xbd473bc8	-0.048640996
89	0xbd043eb2	-0.032286353
90	0x3cd7dd11	0.02635053
91	0xbccdbb4f	-0.02511373
92	0x3c9c0efb	0.019050112
93	0x3d836af2	0.064168826
94	0x3a5e28ce	0.00084747083
95	0x3d10d6e4	0.035361186
96	0x3d4ece4d	0.050489713
97	0x3c8094ee	0.015696015
98	0x3aa2db24	0.0012424928
99	0x3c1410b0	0.009037182
100	0xbd392bb5	-0.045207698
101	0x3d6e78d5	0.058220703
102	0xbce9089e	-0.028446492
103	0x3d561015	0.05226143
104	0xbceb6645	-0.02873529
105	0xbcb66f14	-0.022269763
106	0xbd205cd9	-0.039151046
107	0xbd8603ee	-0.06543718
108	0x3d08f0e0	0.03343284
109	0x3d02d74b	0.0319436
110	0xbc356e33	-0.011073637
111	0x3c38c048	0.011276312
112	0x3c02d931	0.007986353
113	0x3cd66654	0.02617184
114	0xbcda2ab7	-0.026631696
115	0xbd738c1f	-0.0594598
116	0xbd2547f4	-0.040351823
117	0x3d26ca57	0.04072031
118	0x3b73e769	0.0037216789
119	0xbd6cdc6f	-0.05782741
120	0x3d168166	0.036744498
121	0xbc652024	-0.013984714
122	0x3c95806a	0.01824971
123	0xbca3511a	-0.019936133
124	0x3cbd5f0c	0.023116611
125	0xbd856184	-0.0651274
126	0xbd6c2227	-0.057649758
127	0xbddfe181	-0.10931683
128	0xbdc4756b	-0.09592708
129	0x3bacb899	0.005271029
130	0x3d23ba87	0.03997281
131	0x3c86b853	0.016445315
132	0xbd1f5317	-0.0388976
133	0xbc9c2fc7	-0.01906575
134	0xbd4758c0	-0.048668623
135	0x3c47d449	0.012196609
136	0xbd51543a	-0.051105715
137	0xbdc5aece	-0.09652482
138	0x3d5b31e3	0.053514373
139	0x3d1c44e6	0.038151644
140	0x3c3d9328	0.011570729
141	0xbc8dda46	-0.017315995
142	0xbc0c77fd	-0.008573529
143	0xbc0b0934	-0.008486081
144	0xbd8f62c0	-0.07001257
145	0xbd0ed480	-0.034870625
146	0xbd774353	-0.06036694
147	0x3cc5d59d	0.02414971
148	0xbc1101c3	-0.008850518
149	0x3d84095f	0.064471
150	0xbd08274a	-0.033240594
151	0x3cf474fe	0.029840942
152	0x3c8c8127	0.017151428
153	0xbdbdd865	-0.092697896
154	0xbd547287	-0.051867034
155	0xbb30428c	-0.0026895134
156	0xbc97fa33	-0.018551921
157	0xbd6088f9	-0.054818127
158	0xbca41044	-0.020027287
159	0xbd103475	-0.035206277
160	0xbc4ad70d	-0.012380374
161	0xbce7c035	-0.028289894
162	0xbc8576ca	-0.016291995
163	0xbc6cf263	-0.014462086
164	0xbdc077ce	-0.09397851
165	0x3c60e2a3	0.013725909
166	0x3d49a649	0.049230848
167	0x3d07e3a8	0.033176094
168	0xbcda8e19	-0.026679086
169	0x3d609d4e	0.054837517
170	0xbd2cdb36	-0.042201243
171	0x3d563ca8	0.05230394
172	0x3cfd2481	0.030901195
173	0xbc05a0a0	-0.008155972
174	0xbc1bda00	-0.0095124245
175	0xbd158662	-0.03650511
176	0x3bbf044b	0.005829369
177	0x3d785360	0.060626388
178	0xbd088711	-0.033331934
179	0x3d2b2d77	0.041791406
180	0x3d1851f0	0.037187517
181	0xbd8965dc	-0.06708881
182	0xbd0df00c	-0.034652755
183	0x3d4fc787	0.050727393
184	0x3d0fe215	0.035127718
185	0x3da91b8b	0.082572065
186	0x3b928ec4	0.0044725854
187	0xbc0ae2ea	-0.008476952
188	0x3c1b98d3	0.009496885
189	0x3d259861	0.040428523
190	0x3cd54601	0.026034357
191	0x3d332333	0.04373474
192	0xbd3aee9f	-0.045637723
193	0xbd1b75ef	-0.037954267
194	0xbd47dc46	-0.048794053
195	0x3c8d751b	0.017267754
196	0x3ca64793	0.020297801
197	0xbcaa49fc	-0.020787232
198	0x3cb50e12	0.022101436
199	0x3d49450a	0.049138106
200	0x3c09595b	0.00838312
201	0x3cc12ff7	0.023582442
202	0x3d0a7e8e	0.0338121
203	0x3d364a4d	0.044504452
204	0xbd5ee55b	-0.05441795
205	0x3d03bfee	0.03216546
206	0x3c9d74f2	0.019220803
207	0xbd69ccea	-0.057080187
208	0x3d615f7e	0.05502271
209	0xbd5b40d7	-0.053528633
210	0x3c48a852	0.012247162
211	0x3c71378f	0.014722719
212	0x3d00d9cd	0.03145771
213	0x3d5994ac	0.0531203
214	0x3cfd08d9	0.030888008
215	0x3da15399	0.07877273
216	0xbc82d61a	-0.015971232
217	0x3bd0e308	0.0063747205
218	0xbbecd30e	-0.007227308
219	0x3cefbf07	0.029265894
220	0x3c859eaa	0.016311008
221	0xbd4d4107	-0.050110843
222	0x3ca76c82	0.020437483
223	0xbc96bc7e	-0.018400427
224	0xbb06e459	-0.0020582883
225	0x3d0272f0	0.031847894
226	0x3ae5478d	0.0017492637
227	0xbde7bac5	-0.1131492
228	0x3c5dc32e	0.013535304
229	0xbb8115f6	-0.0039393855
230	0xbdaa95d4	-0.08329359
231	0xbd2e2174	-0.042512372
232	0x3d7f3ca8	0.062313706
233	0xbb5682f2	-0.0032731858
234	0x3ca0f686	0.019648802
235	0xbc9f74e3	-0.019464916
236	0x3d4af4de	0.04954993
237	0xbc6d48e2	-0.014482709
238	0xbce34341	-0.02774203
239	0x3d2b24ce	0.041783147
240	0xbd7cf720	-0.061759114
241	0xbd4d7095	-0.050156195
242	0x3d84d6f2	0.0648631
243	0xbd5d0811	-0.05396277
244	0x3b7cbe2c	0.00385655
245	0xbd7346cc	-0.05939369
246	0x3d4a46e9	0.04938403
247	0xbcccc2e5	-0.024995277
248	0x3c9c2210	0.019059211
249	0x3ca122a9	0.019669848
250	0x3d71dccb	0.059048455
251	0xbc889028	-0.016670302
252	0xbc8d73ce	-0.017267134
253	0x3cc1accd	0.023641968
254	0x3ba4ca19	0.0050289747
255	0xbd1e83a7	-0.038699772

baseModel.8.bias f4 [64]
0	0xb81939e2	-3.653195e-05
1	0x37c22d15	2.3147595e-05
2	0xb78aa246	-1.6526446e-05
3	0xb617bee6	-2.261187e-06
4	0xb6be3ac8	-5.6692843e-06
5	0x37a0ecde	1.9183786e-05
6	0x37ba9b39	2.2245209e-05
7	0x37502f84	1.2408829e-05
8	0x36844fd1	3.9431984e-06
9	0xb7f09e16	-2.8683844e-05
10	0xb79fa11b	-1.9029298e-05
11	0x374f8b41	1.2370584e-05
12	0xb5b8f63f	-1.3780735e-06
13	0xb52c5bda	-6.4208655e-07
14	0x37c80873	2.3845792e-05
15	0x37444ec2	1.1700848e-05
16	0x37b94083	2.208376e-05
17	0x37654ef6	1.3667848e-05
18	0x3716781c	8.968662e-06
19	0x363f81e4	2.8536824e-06
20	0x372e1af6	1.03774855e-05
21	0x3780d167	1.53563e-05
22	0xb7356d5a	-1.0813901e-05
23	0x36af58d8	5.225749e-06
24	0x3665e10e	3.4254658e-06
25	0xb6637b83	-3.389753e-06
26	0xb749078e	-1.1982293e-05
27	0x3761e92a	1.3465333e-05
28	0xb727b64f	-9.996423e-06
29	0x37218b30	9.628755e-06
30	0xb564f7d6	-8.529727e-07
31	0x3703e1b8	7.860763e-06
32	0x358836f7	1.0148786e-06
33	0xb702d14b	-7.797334e-06
34	0xb7756ee9	-1.4628961e-05
35	0xb6cf52fa	-6.1787405e-06
36	0x37fa9810	2.9873132e-05
37	0x37181709	9.065269e-06
38	0xb60277dd	-1.944128e-06
39	0xb805e84e	-3.192602e-05
40	0xb6ea1836	-6.976562e-06
41	0xb7cfa134	-2.4751389e-05
42	0xb80914f2	-3.2682852e-05
43	0x34a833b0	3.1330046e-07
44	0xb72be229	-1.0245051e-05
45	0xb7b3190c	-2.1350126e-05
46	0x370441de	7.883149e-06
47	0xb7232bda	-9.725767e-06
48	0x3811ea47	3.478888e-05
49	0xb638a5f9	-2.7514745e-06
50	0xb7388f4a	-1.1000617e-05
51	0x375dc710	1.3218974e-05
52	0xb664df40	-3.4104596e-06
53	0x36b836fd	5.490029e-06
54	0xb78aa060	-1.6525562e-05
55	0x383b3598	4.4634187e-05
56	0xb7167173	-8.967111e-06
57	0x36e94e97	6.95309e-06
58	0x36abfbb9	5.1255015e-06
59	0xb715874c	-8.912593e-06
60	0xb7b26b84	-2.126932e-05
61	0x36c08707	5.737765e-06
62	0x37d8a275	2.5824856e-05
63	0xb7bd084b	-2.2534417e-05

baseModel.9.weight f4 [64]
0	0x3f53ae87	0.8268818
1	0x3f477d37	0.7792544
2	0x3f1ebe09	0.6200872
3	0x3f3ffe0e	0.7499703
4	0x3f303ad7	0.6883978
5	0x3f370eb9	0.7150684
6	0x3f597896	0.84949625
7	0x3f55aeac	0.83469653
8	0x3f32e44d	0.6987961
9	0x3f611559	0.879232
10	0x3f38150b	0.7190711
11	0x3f31e0be	0.69483554
12	0x3f2f2e68	0.68430185
13	0x3f2ea5a6	0.6822151
14	0x3f4668b1	0.77503496
15	0x3f22ca69	0.63590103
16	0x3f429c7e	0.7602004
17	0x3f3ecb05	0.74528533
18	0x3f26f0f0	0.6521139
19	0x3f2e3dab	0.6806285
20	0x3f392713	0.7232525
21	0x3f4b487f	0.79407495
22	0x3f3e99b1	0.74453264
23	0x3f3ba696	0.73301065
24	0x3f3912e3	0.72294444
25	0x3f50b031	0.81518847
26	0x3f2d00dc	0.67579436
27	0x3f375f1c	0.716295
28	0x3f302777	0.6881022
29	0x3f271863	0.65271586
30	0x3f351ac8	0.7074399
31	0x3f3d207f	0.7387771
32	0x3f30ba30	0.690341
33	0x3f3e5ee3	0.74363536
34	0x3f4846f1	0.7823325
35	0x3f519261	0.8186398
36	0x3f3d33f5	0.73907405
37	0x3f397c50	0.7245531
38	0x3f3e9036	0.744388
39	0x3f477c6c	0.7792423
40	0x3f2abe40	0.6669655
41	0x3f4b0223	0.79300135
42	0x3f3b7df6	0.73239076
43	0x3f40f7f1	0.7537833
44	0x3f2917fb	0.66052216
45	0x3f3d66c3	0.73984927
46	0x3f418428	0.7559228
47	0x3f48c16c	0.7842014
48	0x3f3e0e8c	0.74240947
49	0x3f42854a	0.7598463
50	0x3f2cb9c6	0.6747097
51	0x3f49849b	0.78717965
52	0x3f50592c	0.81386065
53	0x3f4af0e7	0.7927384
54	0x3f2e55ec	0.68099856
55	0x3f31597d	0.69277173
56	0x3f31ae97	0.6940703
57	0x3f3638e5	0.71180564
58	0x3f32b3fe	0.69805896
59	0x3f492918	0.7857833
60	0x3f51add5	0.8190587
61	0x3f26d0a4	0.6516211
62	0x3f40472e	0.7510861
63	0x3f402dfb	0.7507016

baseModel.9.bias f4 [64]
0	0xbc45a0b5	-0.012062241
1	0xbd2a159f	-0.041524526
2	0x3c7548c9	0.014970967
3	0x3c32c210	0.010910526
4	0xbba4603f	-0.0050163562
5	0x3ce0ec16	0.027456325
6	0xbce782db	-0.028260639
7	0xbb1fd49f	-0.0024388207
8	0xbc701552	-0.014653521
9	0xbd49ca7c	-0.04926537
10	0x3b923b05	0.004462602
11	0x3a235e60	0.00062320195
12	0xbb3a1ae1	-0.0028397369
13	0xbd7a4e4b	-0.061109822
14	0xbcc662d6	-0.02421705
15	0x3cc70f9a	0.024299432
16	0x3cd39047	0.025825633
17	0xbc2920b9	-0.010322743
18	0x3cd6b288	0.026208177
19	0xbd2333ef	-0.03984445
20	0x3aa190ea	0.0012326513
21	0xbd38db39	-0.045130942
22	0xbccfe3c6	-0.025377166
23	0xbd442ae8	-0.04789248
24	0xbc99d3ef	-0.018777816
25	0xbd132bc2	-0.035930403
26	0x3ccbf389	0.0248964
27	0xbd1503ef	-0.036380704
28	0xbc279fb5	-0.010230948
29	0xbc9a6d15	-0.018850842
30	0x3ba35bcd	0.0049853087
31	0x3a9fffab	0.0012206932
32	0xbd1279ce	-0.035760693
33	0x3d024cab	0.031811398
34	0xbd527149	-0.05137757
35	0xbd4d4cc7	-0.05012205
36	0x3bc6c60e	0.0060660904
37	0x3c912609	0.017718332
38	0xbbf4300f	-0.007452018
39	0xbc716efd	-0.014735934
40	0xbc2c0332	-0.010498809
41	0xbcaf63d5	-0.021409908
42	0x3b68fac1	0.0035549852
43	0x3b3bc655	0.002865215
44	0xbc32a567	-0.010903693
45	0xbcb0a526	-0.021563124
46	0xbbdfe1d2	-0.00683234
47	0x3b7b1c17	0.0038316303
48	0xbbb9a838	-0.005665805
49	0x3c3d7e40	0.011565745
50	0xbcb5583f	-0.022136806
51	0xbce6cc1a	-0.028173495
52	0xbccda63c	-0.02510368
53	0xbd44c6f2	-0.04804129
54	0xbd05b42e	-0.032642536
55	0xbb285c57	-0.0025689804
56	0xbc821347	-0.015878333
57	0x3ce0cbc4	0.027440913
58	0xbd2a1516	-0.041524015
59	0x3db84ab5	0.08998624
60	0x3cad9c4e	0.021192696
61	0xbc198595	-0.009370227
62	0x3b4e7e32	0.0031508324
63	0x3cc9dec2	0.024642352

baseModel.9.running_mean f4 [64]
0	0xbe55d1c3	-0.20880799
1	0xbef9a04d	-0.48755112
2	0x3d600017	0.054687586
3	0xbe28b8b1	-0.16476704
4	0x3da90ad2	0.08254017
5	0xbe6e82d6	-0.23292097
6	0xbd3e1dc7	-0.046415117
7	0xbed3d7b8	-0.41375518
8	0xbef44d54	-0.47715247
9	0xbeb9fefd	-0.36327353
10	0x3d1a9f83	0.03774978
11	0x3f2bfdd1	0.6718417
12	0xbea221c4	-0.31666386
13	0xbdb54dba	-0.08852716
14	0xbe46f484	-0.19429213
15	0xbeafcbbf	-0.34335133
16	0x3e223ab4	0.15842706
17	0x3ce61141	0.0280844
18	0xbef900bb	-0.4863337
19	0x3e9a881e	0.30181974
20	0xbe9c42a7	-0.30519602
21	0x3e31c706	0.17361078
22	0xbd8498d6	-0.06474464
23	0x3cb35bad	0.0218943
24	0x3e2b4126	0.16724071
25	0x3d11ba32	0.03557796
26	0x3ef869ef	0.4851832
27	0x3e5a62c8	0.21326745
28	0xbea4dd3a	-0.32200032
29	0x3dd2a4e1	0.102853544
30	0x3f043ee6	0.51658475
31	0xbc8b68f8	-0.017017826
32	0x3f1a585d	0.6029108
33	0xbce67fb5	-0.028137067
34	0xbf5fc7ed	-0.8741444
35	0xbd570ae8	-0.052500635
36	0x3efa0bc1	0.48837093
37	0xbd9a1827	-0.07524138
38	0x3e1a5415	0.15071137
39	0xbe9a4c70	-0.30136442
40	0x3d3c5268	0.045977026
41	0x3cdb1d52	0.02674738
42	0x3e250b58	0.16117609
43	0xbebbfc84	-0.36716092
44	0xbda16be0	-0.07881904
45	0xbee27cd8	-0.44235873
46	0xbdda4d11	-0.106592305
47	0xbd6b12f5	-0.057391126
48	0x3f2420a3	0.641123
49	0xbe00036a	-0.12501302
50	0x3f47d497	0.7805876
51	0x3e689b76	0.22715554
52	0xbda5e9ee	-0.08101259
53	0xbeb1f602	-0.34758002
54	0x3e4b3bd5	0.19847043
55	0x3d3ef5a6	0.046620987
56	0xbe290490	-0.16505647
57	0x3ec0c98d	0.3765377
58	0x3e2a898a	0.1665403
59	0x3f5c7f71	0.8613196
60	0x3f2e2d15	0.6803754
61	0x3db271a3	0.08713081
62	0xbe5637e3	-0.20919757
63	0xbe3ab11c	-0.18231624

baseModel.9.running_var f4 [64]
0	0x3debefab	0.115203224
1	0x3e558b97	0.2085403
2	0x3d4d45c6	0.05011537
3	0x3dea45c1	0.11439086
4	0x3d802ca1	0.06258512
5	0x3e0a83ea	0.13526884
6	0x3da7de82	0.08196737
7	0x3ddd624c	0.10809764
8	0x3d565c33	0.05233402
9	0x3e47fcb1	0.19529988
10	0x3d914f8a	0.07095249
11	0x3d903868	0.07042009
12	0x3d846704	0.06464961
13	0x3d9928af	0.07478463
14	0x3e3f581f	0.1868596
15	0x3d97a5e9	0.07404692
16	0x3d9d5ad8	0.07683343
17	0x3db3b0bb	0.08773943
18	0x3d821bb9	0.06352944
19	0x3d8da300	0.069158554
20	0x3d42827c	0.04748772
21	0x3e07973d	0.13241287
22	0x3d970d71	0.073756106
23	0x3d9e30f6	0.07724182
24	0x3db608e3	0.08888414
25	0x3e2026b9	0.15639772
26	0x3d8df0e0	0.06930709
27	0x3da783fb	0.0817947
28	0x3dc874a4	0.097878724
29	0x3d961ed5	0.073300995
30	0x3dbf5b46	0.09343581
31	0x3da14987	0.07875352
32	0x3d9a817a	0.07544227
33	0x3dac09bf	0.084002964
34	0x3db39394	0.08768383
35	0x3e3381c0	0.17529964
36	0x3da887d9	0.08229036
37	0x3d890e5f	0.06692194
38	0x3df1a59a	0.11799164
39	0x3dff3098	0.124604404
40	0x3de26976	0.11055271
41	0x3dd0eaf3	0.10201063
42	0x3d99fb8f	0.07518684
43	0x3db26cab	0.08712133
44	0x3d568dc2	0.052381285
45	0x3db8a194	0.090151936
46	0x3dc2a0f1	0.095033534
47	0x3de301e8	0.11084348
48	0x3dff041f	0.12451958
49	0x3de60b31	0.11232603
50	0x3d8ce901	0.068803795
51	0x3da16aa1	0.07881666
52	0x3e1858a4	0.14877564
53	0x3e100140	0.14062977
54	0x3d401cfe	0.04690265
55	0x3d8cff9e	0.068846926
56	0x3db44642	0.08802463
57	0x3de427e0	0.11140418
58	0x3d5a31a8	0.053270012
59	0x3db7f2d4	0.08981863
60	0x3d3aac7d	0.045574654
61	0x3d903b1f	0.070425265
62	0x3ddda965	0.10823325
63	0x3e2c92ff	0.1685295
